ppo_2layer_2048_epoch10_followepoch5_follow5_follow5_640/ppo_agent_episode_27000.pth (torch, 596662 bytes, 21 tensors)

fc1.weight f4 [128, 260]
000000 5c 39 6b bd 18 ac c2 bd a0 dd f7 bd 8f 6b 17 be
       -0.05742775 -0.095054805 -0.121028185 -0.14787124
000010 71 57 bf 3c 47 54 91 be 99 92 0f 3e bb b3 61 bd
       0.023357125 -0.2838461 0.14020766 -0.055103045
000020 75 9a 83 be 07 bd c2 be 28 5d a0 be a3 f7 84 3e
       -0.2570378 -0.3803484 -0.31321073 0.25970182
000030 e5 50 b6 be 08 ba 3b be e9 f1 d4 bd b5 84 6e bd
       -0.35608593 -0.18332684 -0.10397703 -0.058232028
000040 39 54 9c be 6c b6 28 be 7c 4f 0a be 88 d7 3a 3d
       -0.30533007 -0.16475838 -0.13506883 0.045615703
000050 41 53 15 be ee f3 9c bd 93 8c e3 bd d2 e3 0f be
       -0.1458254 -0.076637134 -0.11110797 -0.1405175
000060 c4 2a b0 bd af 34 92 3d bb fb 36 be 45 d3 db bd
       -0.08601907 0.07138955 -0.17869465 -0.10733656
000070 92 63 9c bd 3c 28 79 bd fa 62 d8 be d5 49 e3 3e
       -0.07636179 -0.060829386 -0.42263013 0.44392267
000080 d8 f1 5a 3e d7 12 6c be be 94 09 bd 35 cb b4 be
       0.21381319 -0.23054062 -0.033589117 -0.35311285
000090 68 43 83 be 51 19 c4 be a3 61 b1 be 41 e1 a4 bd
       -0.25637364 -0.38300565 -0.34644803 -0.08050776
0000a0 f9 f0 08 3d 07 2c 44 be cc 72 c2 bd 40 47 03 be
       0.033432934 -0.1915742 -0.09494552 -0.12820148
0000b0 51 1b 81 be c9 e1 da 3c 89 47 de bc c7 ff 1e bf
       -0.25216153 0.02671899 -0.02713372 -0.62109035
0000c0 26 67 4e be 30 4d d0 bd bb b6 8e be d8 c0 87 be
       -0.20156536 -0.10170972 -0.27873787 -0.26514316
0000d0 e8 ad fe bd a4 39 d4 be 68 46 2e be 1a 41 7a 3d
       -0.12435514 -0.41450226 -0.17019045 0.061097242
0000e0 3b ca ee bc 79 32 84 bd 4c c6 d2 bc a7 5a 3b bc
       -0.029149165 -0.064549394 -0.025729321 -0.011435187
0000f0 1c 88 60 3b d8 9f 0e bb 74 50 c7 3d 31 ed 6b bd
       0.0034260815 -0.0021762755 0.09732142 -0.05759925
000100 90 a3 28 bc eb f4 89 be 92 41 23 be 3d a3 06 be
       -0.010292903 -0.2694467 -0.15942982 -0.13148208
000110 29 f4 4f b9 e4 4b 42 bd cf 81 15 bd 94 05 b9 3d
       -0.00019832015 -0.047435656 -0.03650075 0.09034267
000120 de 0d a4 3d 87 0e 73 bb 7a 21 17 3e c4 ae 8f 3b
       0.080104575 -0.0037087516 0.14758864 0.0043848474
000130 c5 46 02 3e 5d 51 a9 3d 0b a8 84 be 7a 86 5d be
       0.12722309 0.08267472 -0.25909457 -0.2163333
000140 3f 65 93 3d c1 b5 b9 3d be 65 50 3d 54 c6 1c be
       0.071970455 0.0906787 0.05087828 -0.15310031
000150 df ac 44 bd 1d c2 06 3e 6a ce d3 bb 3c 22 6d 3e
       -0.048016425 0.13159986 -0.0064638155 0.2315759
000160 e0 8a 34 3e 5c 2b 86 bd 5e b9 b1 3d 5c 63 9f be
       0.17631102 -0.06551239 0.08677934 -0.31130493
000170 9e 44 49 be 8f 18 36 be f6 c8 b3 3d b5 3f cc bd
       -0.19655082 -0.17782806 0.08778565 -0.09973089
000180 04 8d 3e 3d fb 42 5a bd 85 b7 47 be 76 c3 3d 3e
       0.0465212 -0.053286534 -0.19503601 0.18531594
000190 33 de ba 3d d6 5a 25 3d 04 93 cf 3d 18 48 d2 bd
       0.091244124 0.04036983 0.10135463 -0.10267657
0001a0 23 61 c3 3c 39 99 84 bc 13 01 19 bb da a5 7a 3d
       0.02385003 -0.016186344 -0.0023346588 0.061193325
0001b0 bc 90 53 bd 91 35 1b 3d b2 31 ad bd f4 68 e2 3b
       -0.0516517 0.03789288 -0.08456744 0.006909484
0001c0 af 15 b0 3d 01 cb d0 3d 7d d2 86 3d 0e d3 07 be
       0.08597886 0.1019497 0.06583116 -0.13264105
0001d0 30 4a 23 3e 24 48 f9 3d 5b c6 eb 3d 7d a8 19 3e
       0.15946269 0.12171963 0.11512443 0.1500568
0001e0 b6 b7 5e 3e ea 65 da 3c fc d3 8f 3c ff 07 37 bd
       0.21749768 0.026659925 0.017557137 -0.04468536
0001f0 8d 30 f3 3d c2 9f 03 3d cd f5 d7 bc 4a d4 f7 3d
       0.11874495 0.03213478 -0.026362324 0.12101038
000200 16 a5 bb 3d 94 1d f0 bc 72 c0 ac 3d 53 7c 56 3e
       0.09162347 -0.029310979 0.084351435 0.20945863
000210 4d 08 d3 3d 29 e2 db 3d b0 79 d1 3d c8 d7 79 bb
       0.103043176 0.10736496 0.10228288 -0.0038123
000220 6f 63 2b 3d d9 2d 7b 3d ea b2 1e 3d c1 fd 50 3d
       0.041842874 0.06132302 0.038744844 0.05102325
000230 6e 57 f5 3d 24 7e 74 3d b6 14 07 3e d5 12 82 bd
       0.119795665 0.05969061 0.13191494 -0.06351248
000240 98 e1 13 3e 2c 5c 04 3d f1 12 f2 bc 8d 99 6a 3d
       0.14441526 0.032314464 -0.029550048 0.057275344
000250 fe a7 f2 3d b6 a5 53 3c 8e 12 f4 bc 99 0f 35 3e
       0.11848448 0.012917927 -0.029794004 0.17681731
000260 3a 8a 0f bd 17 96 cb 3d 7c 3c 8f 3c 85 b5 a5 3d
       -0.035043932 0.09940737 0.017484896 0.08091263
000270 27 3c 65 3c d8 0f 82 3e 6a 64 e3 3a 46 45 73 3e
       0.013991392 0.25402713 0.0017348651 0.23756894
000280 23 bb af bc 6e a7 11 3e 98 6b df bd 16 51 13 3d
       -0.021451538 0.14224026 -0.10909194 0.035966
000290 9c 9d bb 3d b7 3a 0c 3c 14 b2 49 3e bc bc 01 3e
       0.09160921 0.008558921 0.19696838 0.12669653
0002a0 65 65 66 bd a9 70 46 3e ed cb 6a 3d 30 50 55 3d
       -0.05624904 0.19378914 0.057323385 0.052078426
0002b0 28 3c 0a 3e 08 9f a4 bc 6f e8 06 bd 2c fd 14 bd
       0.1349951 -0.020095363 -0.03293651 -0.036374256
0002c0 8d e3 fa 3d 5c 51 91 3c f3 32 4b 3e 12 92 99 3d
       0.12250433 0.01773899 0.19843654 0.07498564
0002d0 75 6a cf bd ec ba fb bd 0a 5f 92 3d b4 a4 35 bc
       -0.10127727 -0.12291512 0.071470335 -0.011086632
0002e0 44 d2 07 3d e9 3a 56 3d e1 00 b2 bc 4f a6 24 bd
       0.03315951 0.052302275 -0.021728935 -0.040197667
0002f0 f3 60 0b be 95 f0 49 3c cf dc 2f 3e 17 a8 c3 bd
       -0.13611202 0.012325426 0.17174076 -0.09553545
000300 52 82 30 3e 69 48 b9 3d d0 f3 10 3e cf 53 49 bd
       0.17237213 0.09047014 0.14155507 -0.04915219
000310 7d ed 9c bd 38 89 4f 3d 98 e6 05 3d c2 02 93 ba
       -0.07662485 0.05066797 0.032690614 -0.0011216032
000320 3b 26 e2 3b a4 ef 2a be 56 c6 08 bd 10 3e a3 3d
       0.00690153 -0.16692978 -0.033392273 0.07970822
000330 a8 96 8f 3e e8 31 aa 3d b1 2d 2d bd 03 53 b4 3d
       0.2804463 0.083103 -0.042279903 0.08804896
000340 0e 24 a0 3c d9 aa 60 3d 54 29 72 3d cb 01 9d 3d
       0.019548442 0.054850433 0.059121445 0.076663576
000350 d8 8a 26 3c f9 96 b3 3d 32 d1 b9 3c 0b c8 ac 3d
       0.010164939 0.0876903 0.02268276 0.08436593
000360 20 72 53 3d fc ef 25 3e 72 1d e3 3b f5 5f 50 bd
       0.05162251 0.16204828 0.0069310004 -0.05087276
000370 23 3c a1 3d fd 4b 78 3d 3b 29 a7 3c bd 17 a7 3d
       0.07872798 0.060619343 0.020405402 0.081588246
000380 79 1b 9f 3d d3 cf 81 3d b2 d5 4e 3d 0b 70 da 3c
       0.07768912 0.063384674 0.050496764 0.026664754
000390 ad 09 ff 3d 1a 15 50 3d 6c 85 44 3d 6a 41 33 3d
       0.124530174 0.050801374 0.047978804 0.043763556
0003a0 78 3c cd 3d 39 c4 98 bc fe 4b 88 3d 68 59 4f 3d
       0.10021299 -0.018648254 0.06655119 0.050622374
0003b0 e9 89 07 bd 23 b8 73 3d d7 17 18 3e d5 ae e3 bd
       -0.033090506 0.05950178 0.14852844 -0.11117331
0003c0 1d 23 e6 bc 5c 99 a5 3d 9b c8 47 bc df 7f da 3d
       -0.028092915 0.080858916 -0.012193824 0.10668921
0003d0 3a aa 83 3d 01 86 00 3e 60 60 9b 3d c8 78 8b 3d
       0.064289525 0.12551118 0.075867414 0.068101466
0003e0 b4 98 cf 3c df fe 61 3c 14 5f 6a 3d 64 61 8e 3c
       0.02534137 0.013793676 0.05721958 0.017380424
0003f0 26 58 6b 3d 6e e1 69 3d b2 61 67 3d fb 9b 41 3e
       0.05745711 0.057099752 0.056489654 0.18907158

fc1.bias f4 [128]
000000 63 f6 71 bc c6 a0 c6 bd c4 50 da 3b 9e 0b b6 3d
       -0.014768216 -0.09698634 0.00666246 0.088889346
000010 1c 0b 48 bd 7d 6d af bc 4d af 23 bd ac 6e 76 3c
       -0.04883872 -0.021414513 -0.0399621 0.015041035
000020 bc 87 19 bd 3d dd 95 bc e8 21 d5 bd 56 92 10 3d
       -0.037482962 -0.018293971 -0.10406858 0.035295807
000030 f7 59 0b bd 81 c5 6e 3d 11 2c b4 3c ff 1e 82 3d
       -0.034021344 0.058293823 0.021993669 0.06353568
000040 64 d7 9c bb b6 1e 26 3d 1b 7b ef 3c 75 9d 83 bc
       -0.0047864188 0.040556632 0.029233506 -0.016066292
000050 19 ee 82 3b b9 e9 b7 bc d8 a7 47 3d 54 07 2b 3d
       0.0039956686 -0.022450315 0.048744053 0.041755036
000060 2a 76 1d bd 21 31 37 3d 52 0c 0a 3d 0f 8d 6e bc
       -0.03844277 0.044724587 0.033703156 -0.014559998
000070 e7 af c8 bc b8 d7 b2 bd 7d d0 c1 bd ac a2 63 3d
       -0.02449794 -0.08732551 -0.09463594 0.055575058
000080 78 14 d6 3b f5 a2 58 bc 09 da 9e 3c 54 f8 de 3c
       0.006533202 -0.013222446 0.019391077 0.027218021
000090 16 e0 8c bc 35 f8 b3 3d 0b 3f 47 3d 15 32 3f 3d
       -0.017196696 0.08787576 0.048644107 0.04667862
0000a0 d2 01 a5 3d f2 1d 50 3d 4b 25 14 3d e7 f4 59 bc
       0.08056988 0.050809808 0.036168378 -0.013303018
0000b0 86 e7 fd 3c df 31 1c ba e4 1f 6e bc 66 42 11 bd
       0.030994188 -0.0005958359 -0.0145339705 -0.035463713
0000c0 01 90 ab 3d 9b 58 a5 bc 65 8c 1d bd 13 d1 5e 3d
       0.08377076 -0.020183852 -0.03846397 0.054398607
0000d0 c1 c5 3d 3d d7 e3 00 3c 5c 2b e1 3d 76 83 a5 3d
       0.04633117 0.007866821 0.10994598 0.08081715
0000e0 73 a3 c4 ba fa 78 9c 3d 67 b5 ea bc 08 34 56 3c
       -0.0015002325 0.07640262 -0.028650953 0.013073929
0000f0 a3 ee 18 3d 55 db 8d bc a6 f5 ae 3d c6 2b b1 bc
       0.037336957 -0.0173165 0.085429475 -0.021627318
000100 ab a9 d1 bc 76 a8 5b bd 52 b3 8c 3d c3 97 b1 39
       -0.0255936 -0.053627454 0.0687014 0.00033873142
000110 cf 51 2a bd 67 ab b1 3c 38 de e7 3c 70 f6 15 3b
       -0.041581925 0.021688176 0.028304204 0.0022882484
000120 38 f0 12 3c 6b 17 21 bd bb d6 83 bd 0d cb c6 3c
       0.008968405 -0.039328974 -0.06437441 0.024266744
000130 d0 13 67 3d 2f b7 d4 3d 7e 43 9d bd 7d e0 57 bd
       0.05641538 0.10386502 -0.07678889 -0.052704323
000140 a4 87 4e bd 0b 2d 9a 3d 2e 1c a9 bd 6d 5e b8 bd
       -0.050422326 0.075281225 -0.08257328 -0.09002385
000150 95 ac b8 3d 8f d3 a3 3c b7 7b dc 3d 0e 0d 07 bc
       0.090172924 0.01999834 0.10765784 -0.008242859
000160 1e 15 9d 3b 65 60 df bd 36 92 ac bd ac dd 70 3c
       0.004793777 -0.10907058 -0.08426325 0.014701288
000170 49 d2 22 bd 4c a0 3e bd 8f 6f de bc 30 ad c7 3c
       -0.039751325 -0.04653959 -0.027152805 0.024374574
000180 8d f8 84 3b b3 b7 de 3c da b7 38 ba 87 30 57 bd
       0.00405795 0.027187204 -0.0007046439 -0.052536514
000190 ac 4b b6 3d 1f 85 df bd 77 d0 77 3c d0 e1 11 3d
       0.08901152 -0.10914063 0.0151253855 0.035615742
0001a0 9b 77 0c 3d 1f 3b 8e 3d 68 31 33 3d d6 a5 db 3c
       0.034293752 0.0694487 0.04374829 0.026812475
0001b0 17 bb 66 bc 0a 77 92 bd 8d 64 d7 3d bd 26 f4 3d
       -0.014082692 -0.07151611 0.105172254 0.11921451
0001c0 29 a1 19 bc 4e b3 70 bd da 9c 27 3d 05 21 4b 3c
       -0.0093768025 -0.05876475 0.04092107 0.012398009
0001d0 36 94 64 bd f6 37 52 bd 50 6d 19 bd 10 7e cf 3b
       -0.055805407 -0.0513229 -0.037457764 0.0063321665
0001e0 70 67 89 3d 57 14 f6 3d 2f 9a 12 bd 76 43 35 bc
       0.06709182 0.12015598 -0.035791572 -0.011063447
0001f0 71 4c 94 3c 46 f9 31 bd cb ed 7e 3c 5d a8 cb bd
       0.018102856 -0.043450616 0.015559624 -0.09944222

fc2.weight f4 [64, 128]
000000 e1 86 29 3d a2 0d df bd de 83 40 3e d4 f3 17 bd
       0.041388396 -0.10891272 0.18800303 -0.037097767
000010 39 8b 2b be e3 4b 67 3e a0 54 be bc 7e c6 87 bd
       -0.16752328 0.22587542 -0.023233712 -0.06629656
000020 0f c2 67 3c 74 39 5b 3e b3 a5 6e 3d 98 77 05 3f
       0.014145388 0.21408635 0.05826349 0.5213561
000030 74 dc 15 be 2c e3 82 3e b0 3a 0c 3f 5e 00 9f 3d
       -0.14634877 0.25563943 0.5477705 0.07763742
000040 0f 81 3c bd 9c 26 a7 be 38 27 36 3e 91 12 44 3e
       -0.046021517 -0.32646644 0.17788398 0.19147708
000050 9c 3a 86 3e 3f 6f 84 3e 64 07 13 be fe 56 7e 3e
       0.2621659 0.25866124 -0.14358288 0.24837872
000060 12 d1 f2 3e 12 65 c5 3e f3 ac c2 3e 9e ef e0 3c
       0.47425133 0.38553673 0.38022575 0.027458008
000070 63 e1 88 3d 54 32 88 3e be 42 95 bd 6d 8f be bb
       0.06683614 0.26600897 -0.07288121 -0.0058154375
000080 76 1e 98 3e 73 c7 31 bd d0 07 9b 3c 55 c2 e9 bd
       0.2971074 -0.0434031 0.018924624 -0.11414019
000090 c7 d4 7f be 67 6f 9c be 74 fc 73 be 61 8e df be
       -0.24983512 -0.30553743 -0.23826772 -0.43663314
0000a0 4e 14 9d be d7 bd 5d be f2 1a 83 bc 49 fa c2 bd
       -0.30679554 -0.2165445 -0.01600406 -0.09520394
0000b0 dc 95 5c be 71 b3 2a 3f df aa 90 3c d8 09 74 be
       -0.21541542 0.66680056 0.017659603 -0.2383188
0000c0 71 af b5 3e 5f 08 04 3c ff 38 40 3d e3 3c f3 bd
       0.35485414 0.008058636 0.046929356 -0.118768476
0000d0 bd 90 c2 be 36 76 20 bd 44 57 0f 3e 6a 34 92 3d
       -0.38001052 -0.039175235 0.13998133 0.071389034
0000e0 c6 b8 a6 3e 3f c0 b5 be 6f 69 04 3e 86 7e b7 3d
       0.32562846 -0.35498235 0.12930845 0.08959679
0000f0 04 ef 4a 3e 01 c1 11 3f bb c8 1a 3d 91 f5 88 be
       0.1981774 0.56935126 0.037789088 -0.26749852
000100 c3 bd 5e be 6f 42 e4 bd 4a 6b 98 3e f9 44 ec bd
       -0.21752076 -0.11145484 0.29769355 -0.11536593
000110 2f 29 9f 3d 5f ad 45 be dc f4 b1 3e 05 2a 10 be
       0.07771527 -0.19304417 0.34757125 -0.14078529
000120 22 03 d7 3e db b7 c2 3e 8b 8c 37 3e a1 d4 b3 be
       0.41994578 0.38030896 0.17924707 -0.3512316
000130 7a dc df 3e 90 86 82 3c ac ef c2 3c dc a4 0e be
       0.43722898 0.015933305 0.023795925 -0.13930076
000140 11 0b 4e 3f ab be 87 3e 11 38 0f be 7b 6a 09 3d
       0.80485636 0.26512656 -0.13986231 0.033548813
000150 08 83 72 be 7e c3 e5 bc 70 ad b0 be cb 7e 0d 3e
       -0.23682797 -0.02804732 -0.34507322 0.13817899
000160 19 ec 76 be b0 c6 30 3e cc 55 31 bc 8e ae 0e 3e
       -0.24113502 0.17263293 -0.010823678 0.13933775
000170 73 9a f5 3e f2 49 3f 3e 2c a5 fc be cd b8 1d be
       0.47969398 0.18680552 -0.49344766 -0.15402527
000180 c8 e7 6c 3d 39 61 21 3e 70 5d 07 be 4a 4e 66 3e
       0.05783823 0.15759744 -0.13219237 0.22490802
000190 bb fd 12 3f 35 39 23 bb b0 6a 17 be 37 dd 0b 3d
       0.5741841 -0.0024905924 -0.14786792 0.034146514
0001a0 76 11 09 3f 60 f1 ca be 12 81 75 3e fc 91 85 bc
       0.5354227 -0.3963728 0.23975018 -0.016304962
0001b0 7d eb a6 bd 23 e0 21 be c1 24 04 bd dd fe c6 3c
       -0.081503846 -0.15808158 -0.032261614 0.02429145
0001c0 df 11 39 be a3 a1 02 3f 2b 70 eb bc 25 1c 8f 3e
       -0.18073224 0.5102789 -0.02874001 0.2795116
0001d0 32 24 10 3d c4 d6 1b 3f 37 1d b4 3d 6e 06 ba ba
       0.03519077 0.6087458 0.08794635 -0.001419259
0001e0 76 8a 2a 3e 32 8f 8a be 96 89 1b 3e 88 20 77 3e
       0.16654381 -0.27062374 0.15189204 0.24133503
0001f0 fb 43 10 be f3 6e 34 be d4 2d 0b be 1b 7e 36 3c
       -0.14088432 -0.17620449 -0.13591701 0.011138464
000200 fa b5 6d bc 18 ce 3e 3e 7e 6b 63 be a8 15 fd 3d
       -0.014508719 0.18633306 -0.22208974 0.12357646
000210 04 39 3c 3e d4 52 6f 3e 5a 24 7e bb f8 b2 8d bd
       0.18381125 0.2337144 -0.0038778991 -0.06918901
000220 03 0c 5e bd 4f 23 c0 bd 9d d4 0b 3d b6 c0 ad bd
       -0.054210674 -0.093817346 0.03413831 -0.08484022
000230 63 2c 5f 3e 06 ab 24 3e 0c 30 c0 3e 46 2d e8 3d
       0.21794276 0.16080865 0.37536657 0.1133676
000240 74 6e d6 bc 53 ac 4d be b1 27 51 3e f9 04 0a be
       -0.026175715 -0.20085268 0.20425297 -0.1347846
000250 c3 53 47 3b 48 d1 8b 3e 9f da 22 3e 22 7d 0a 3e
       0.0030414916 0.27308106 0.1590371 0.13524297
000260 44 32 6f 3e 5d 47 dc 3e 86 a4 80 bd b6 67 14 3e
       0.23359019 0.43023196 -0.0628138 0.14492688
000270 ea 68 74 be 35 a8 98 bc f9 28 39 be 63 60 37 be
       -0.23868147 -0.018634895 -0.18082036 -0.17907862
000280 42 61 a3 bd f3 21 b0 3d 15 6d 6a be 28 d3 29 3e
       -0.07977535 0.08600225 -0.22893174 0.16584456
000290 84 af ed 3d 68 6a 66 be f1 52 f5 3d c5 c3 ad 3e
       0.116057426 -0.22501528 0.119787104 0.33938423
0002a0 77 ec 57 be 3c 6d 70 be d0 56 02 be 86 ac dd 3d
       -0.21086298 -0.2347917 -0.12728429 0.10823922
0002b0 d1 bd 2a be 9d 90 d5 3e f3 2a cc bd 07 61 03 bf
       -0.16673972 0.41711894 -0.099691294 -0.51319927
0002c0 3a ab 9e 3e 3b 32 4f be dd 3d ba bd 6d 02 d8 bd
       0.3099001 -0.20234005 -0.09093831 -0.10547338
0002d0 7e 62 1e bf 1e b1 af 3c 58 c8 0a be 8f 8c b3 3d
       -0.6186904 0.02144676 -0.13552988 0.08767044
0002e0 39 b5 ee bd 85 97 b3 bd 50 7e 93 bd aa 48 92 3e
       -0.11655659 -0.087691344 -0.072018266 0.28571063
0002f0 e9 a9 3d 3e 73 f5 e9 3c e4 95 f3 3c a9 ec 2c be
       0.18521847 0.028559422 0.02973456 -0.16887154
000300 95 7b 7e be 1b 3a ee 3d a4 78 94 be 25 53 f5 bd
       -0.2485183 0.116321765 -0.28998291 -0.11978749
000310 13 c1 53 3e ef fb 6f 3e 0e 23 9b 3e 6e 09 25 3e
       0.2067912 0.23435949 0.30300182 0.16116878
000320 69 53 67 3e b3 4b 3b 3d 36 58 dd 3d 96 23 85 be
       0.22590412 0.04572649 0.108078405 -0.26003712
000330 57 9a 0d 3e 42 40 4b bd 93 8e 45 3e 68 55 e7 bd
       0.13828407 -0.049621828 0.19292669 -0.11295587
000340 4f c5 7f 3e 6f 55 0e be 89 d3 70 3e fb 58 97 bd
       0.24977611 -0.13899778 0.23518194 -0.073900186
000350 bf 4a b9 bd 3a 68 8f bc c7 d6 38 3e 77 22 21 3e
       -0.0904746 -0.017505754 0.18050681 0.15735804
000360 d3 4c 4e bd c8 ba 6f 3e b5 a3 85 be 61 df fa 3d
       -0.050366234 0.23411095 -0.2610146 0.122496374
000370 74 0e 4e 3e b2 2d 1d be 55 94 ca 3e ac a7 93 3d
       0.20122701 -0.15349463 0.39566293 0.07209715
000380 df 8b 0a 3d 71 43 ad 3b 89 6e a7 be c7 c2 1c 3d
       0.033824798 0.0052875807 -0.3270152 0.03827169
000390 d6 50 e8 bc 5e fe 0c 3e 70 66 cf be 6e 0d 92 be
       -0.028358858 0.13768908 -0.4050784 -0.2852587
0003a0 26 0e 90 bb 66 69 cd bd b5 50 8b bb a2 94 c7 be
       -0.004396218 -0.10029869 -0.0042515644 -0.38980585
0003b0 7d 4f 6e 3d 11 e7 7d 3b 22 ee 69 3d d4 80 31 3d
       0.058181275 0.0038742463 0.057111867 0.04333575
0003c0 e9 a3 97 be 49 42 0a be 32 bc e1 3c 8e 8f 4c 3d
       -0.2961724 -0.13501848 0.027555559 0.049941592
0003d0 92 ed 8f bc b7 56 b3 bd 59 55 13 bd e4 84 af bc
       -0.017569337 -0.08756774 -0.035970066 -0.021425672
0003e0 dc 42 39 be 7a b0 9b bd 01 18 97 3c 3b 57 57 3e
       -0.18091911 -0.076020196 0.018444063 0.2102937
0003f0 b8 bb b3 bd 97 3b 62 3e b2 eb 1a be a3 89 b2 3b
       -0.08776039 0.22093044 -0.15128973 0.0054485365

fc2.bias f4 [64]
000000 07 de 88 3b 58 88 52 3d d8 13 8d bd b4 d4 75 bb
       0.0041768583 0.05139956 -0.068885505 -0.0037510814
000010 51 3b 03 be 52 48 da b9 b1 68 e8 3c bf c2 ba bd
       -0.12815596 -0.00041634083 0.028370233 -0.09119176
000020 12 4e b2 3c 76 0f 5d 3d a4 48 84 bd 24 f3 ce bb
       0.021765742 0.053969823 -0.064591676 -0.0063156057
000030 f7 f1 8e bd 50 a9 87 3d ab 0b f8 bd a3 73 8d 3b
       -0.06979745 0.06624091 -0.121116005 0.0043167635
000040 16 82 4c bd 6c 1b 90 3d ff b3 13 3c e3 0a f7 3c
       -0.049928747 0.0703648 0.009015082 0.030156558
000050 84 27 04 3c 7b a6 bc bd b5 ed 6f bd 6b 4c 90 3d
       0.008066062 -0.09211441 -0.058576304 0.070458256
000060 00 ad 12 3d 03 aa 8d 3b 97 bb e0 3d 54 2b 15 3e
       0.035809517 0.0043232455 0.1097328 0.1456731
000070 cb 86 9c 3d f1 77 ca bc 45 1a fc bc 83 66 bd bd
       0.07642897 -0.024715396 -0.030774245 -0.09248068
000080 9a 1a 3d bd 07 cd 83 3d 7a 37 d9 bc df 41 b5 3b
       -0.046167947 0.0643559 -0.026515711 0.005531534
000090 1c a1 d7 3b 90 b1 01 3b 7f b3 12 3e 30 ba de 3a
       0.006580485 0.0019789673 0.14326285 0.0016992744
0000a0 2a 4f 8d bd 34 0f 28 3b 8c 9b da bd 62 3e 5a bd
       -0.06899865 0.0025643827 -0.106741995 -0.05328215
0000b0 6f 74 ab bc 81 c6 00 3e cf 3a 03 be 1e cd fc 3c
       -0.020929543 0.12575723 -0.12815402 0.030859526
0000c0 0d 35 59 bd 12 0f 55 3d 87 dc 18 3e df 14 e4 bb
       -0.05302911 0.052016325 0.14927875 -0.006960496
0000d0 60 92 02 3e a0 c1 c5 3c 33 97 92 3d 00 1c 0a 3d
       0.1275115 0.02414018 0.07157745 0.03371811
0000e0 9c 81 d9 bc 44 9c c5 3d 39 46 f9 bd 30 25 45 bc
       -0.02655106 0.09648946 -0.12171597 -0.012032792
0000f0 79 0e b3 3c cc c7 71 3e ee f0 b2 bc c2 dd 90 3d
       0.021857487 0.23611373 -0.0218434 0.07073547

policy_head.weight f4 [110, 64]
000000 89 78 2d bc 0e 35 19 be 51 65 fe 3e 30 3d 22 bd
       -0.01058782 -0.14961645 0.49686673 -0.039609134
000010 f4 c3 ea 3c d9 6d dd be f5 43 ee bd 81 05 47 3e
       0.02865789 -0.4324787 -0.116340555 0.19435693
000020 15 8a 41 3f 57 12 a5 be c7 8e f5 bd 82 c6 c2 3d
       0.7560132 -0.32240555 -0.11990123 0.095105186
000030 9f 67 b9 bd fe 99 2e 3d 0f ef 95 3d cb c4 5e bd
       -0.09052967 0.042627327 0.073209874 -0.054386895
000040 6c 96 f0 3b 42 92 9c 38 bc 98 94 3e 73 91 13 bf
       0.0073421504 7.465902e-05 0.29022777 -0.5764381
000050 c9 d3 e3 3e 6e b1 09 bd 8e 7b 8d 3e 08 77 4b bd
       0.44497517 -0.033616476 0.27633327 -0.049674064
000060 52 0f af bd 44 bf 8a be f8 95 02 3e f6 fa 8c 3e
       -0.08547844 -0.2709905 0.12752521 0.27535218
000070 96 e0 7e be 84 9c 0b 3d 17 84 65 3e 72 43 13 3f
       -0.2489036 0.03408481 0.2241367 0.5752479
000080 4e 65 2d 3f 90 f5 ca 3e fe 5e e9 bc 75 43 ce 3f
       0.67732704 0.39640474 -0.028487679 1.6114336
000090 32 bc 92 3e c1 d3 f2 3d 3f 5e 08 be 9f ea ff 3e
       0.28659207 0.11856795 -0.13317202 0.4998369
0000a0 a5 44 5d 3e 75 8f ff bd 39 d7 18 3d af 48 19 bf
       0.21608217 -0.12478534 0.037314627 -0.5987653
0000b0 d8 63 bf be e8 5a 01 3f df 21 7a 3e ab 7f 3b be
       -0.37380862 0.50529337 0.24426983 -0.1831042
0000c0 2c ac 25 3e 5e 55 19 3f e4 0a a5 3d 43 48 34 3e
       0.1617896 0.59895885 0.08058718 0.1760569
0000d0 32 b3 9b 3d 8b ae 83 be ac 92 0d be 79 fe 48 3f
       0.07602538 -0.25719103 -0.13825482 0.78513294
0000e0 5d f4 56 3d 39 7a fc be 8d 31 85 3e 7f 7e 1e 3f
       0.052479137 -0.49311998 0.26014367 0.6191177
0000f0 a7 c3 2d be 8e 94 f7 3d 34 32 7e 3e 87 80 06 3e
       -0.16969167 0.120888814 0.24823838 0.13134967
000100 2f 06 c9 3e 71 be 97 bd b8 03 a3 3e 5e 93 51 be
       0.3926253 -0.07409371 0.31838775 -0.20466372
000110 69 ce bf bd 68 b6 6e bf 88 a1 ed 3d 39 b5 92 3e
       -0.093655415 -0.9324708 0.11603075 0.28653887
000120 2c 0a 20 3f 47 23 57 bf ef 09 10 bd 6e e8 b9 3d
       0.6251552 -0.84038204 -0.035165723 0.090775356
000130 40 9b 08 3d 15 b9 09 bd 3b 82 5d bd 4e 40 ae be
       0.033351183 -0.033623774 -0.054079276 -0.34033436
000140 48 7f a6 3d af 26 14 bf 73 df 94 3e b5 c7 e0 bc
       0.08129746 -0.57871526 0.29076728 -0.027438978
000150 53 1f 77 3e 23 c7 6e 3c 30 ff 87 3e 49 03 af be
       0.24133043 0.014573845 0.2656188 -0.34182194
000160 6e d6 3f 3d 69 39 b3 3c 0d 92 ad 3e 39 59 87 3e
       0.046835355 0.021877961 0.3390049 0.2643526
000170 fa b1 34 be 87 28 f8 3d 43 57 a2 bd 9a f8 90 3c
       -0.17646018 0.12117105 -0.079268 0.017696667
000180 3b 75 f1 3e f4 d6 88 3e f0 ff 8e 3e e9 aa 63 3f
       0.47159752 0.26726496 0.2792964 0.88932663
000190 3b a1 83 3e 63 81 23 bd 6b 90 59 be ff 99 4d be
       0.25708947 -0.039918315 -0.21246497 -0.20078276
0001a0 58 a0 7e 3e 25 8f f7 bd 6e 78 c4 3b 9e c5 b5 be
       0.24865854 -0.120878495 0.0059958016 -0.35502332
0001b0 d3 77 20 bf fe c8 e0 3e 13 00 bb 3d f9 15 61 3e
       -0.6268284 0.43903345 0.091308735 0.21981038
0001c0 fe 75 0c 3e 18 2e 62 3d 73 29 d2 3e 1b ac 5e 3e
       0.13716885 0.05521974 0.41047248 0.2174534
0001d0 93 84 8a be be 2d 86 be 41 20 cc be 08 b7 8f 3e
       -0.2705427 -0.26206774 -0.39868358 0.2806933
0001e0 2f 93 0e bd 89 63 31 3d 9e bc 5b 3e 27 c1 db 3e
       -0.034808334 0.043307815 0.2145867 0.429208
0001f0 54 0c 05 be 0c ae 41 3d b8 90 cd 3e 1c 9d ce 3c
       -0.12992984 0.047285125 0.40149474 0.0252214
000200 a7 98 85 3e 9c 14 a3 3e 2d 0c ed 3e 63 1c 19 bd
       0.26093027 0.3185166 0.46298352 -0.037380587
000210 b5 eb a5 3b bc d4 f8 3d 8d ba 19 3e fa ea de 3e
       0.005063499 0.12149951 0.1501257 0.43538648
000220 27 6c 0b bc ec e7 92 bb 58 d4 52 3e fc bf bd bd
       -0.008509672 -0.0044832136 0.20588815 -0.09265134
000230 3b 36 20 3d 3f 6e e8 3d 3a cf c2 3e 36 78 07 3c
       0.03911422 0.11349153 0.38048726 0.008268407
000240 fb 5e a6 3e 8e ba 63 be e0 f1 44 be 52 31 4a 3e
       0.3249434 -0.22239134 -0.19232893 0.19745377
000250 d1 94 5f 3e 32 76 0f bd e1 48 97 3e 98 4e 1b be
       0.21834113 -0.03502483 0.2954779 -0.151667
000260 52 65 82 3e 3a 27 10 3e 7e 36 8c be 33 e7 c1 be
       0.25467926 0.14077464 -0.27385324 -0.37871704
000270 85 93 f5 bd 14 b9 c5 3d 74 e2 0f be f4 a1 49 bf
       -0.11991028 0.096544415 -0.14051229 -0.78762746
000280 4d f6 1b bf 26 a6 98 bd a5 d8 e7 be 00 c8 8f be
       -0.609227 -0.07453565 -0.45282474 -0.28082275
000290 74 9b 4b 3e 25 30 7b 3e 77 2a f2 be 2e 34 20 be
       0.1988352 0.24530084 -0.47298023 -0.15644905
0002a0 b9 e0 a5 3e 68 54 46 bd d0 cb b9 3e 0f b5 39 3e
       0.32398012 -0.04842034 0.3628831 0.18135475
0002b0 93 0f 44 bc ae ab a1 3e 89 bb 4c 3e fb 73 b6 be
       -0.011966604 0.31576294 0.19993414 -0.3563536
0002c0 d7 7e 91 3e f1 90 98 be 03 31 d7 be 1a 45 dd 3c
       0.28417084 -0.29798082 -0.4202958 0.02701049
0002d0 d1 0d 80 bd bd d7 ce 3d 07 c8 87 be 94 72 d6 be
       -0.06252635 0.100997426 -0.26519796 -0.4188429
0002e0 2d 00 8c bd 88 9e b6 3d ff c3 ea 3e 4b d3 cb 3d
       -0.06835971 0.08916956 0.45852658 0.0995241
0002f0 0d 75 62 3e 29 4d 9f be 0d c0 bf 3e 6a f2 26 be
       0.22114964 -0.31113556 0.3745121 -0.16303411
000300 61 27 36 3e 8c 6e 62 bd fe 9b a1 3e 1a 45 70 3e
       0.1778846 -0.055281207 0.31564325 0.2346386
000310 b3 77 b7 3e ed b0 04 3e 7c 6f ce 3d fa 15 91 3e
       0.3583351 0.12958117 0.10079858 0.2833708
000320 e8 e9 d5 be 84 63 09 bd 5a cd b9 3e 1c 8e 50 bd
       -0.4178002 -0.03354217 0.36289483 -0.050916776
000330 16 94 20 bd b6 f2 97 bd de 65 5f 3e d6 3f 91 3e
       -0.039203726 -0.0741934 0.21816203 0.28369015
000340 68 7a 3d 3e c7 b6 b1 3e 7a 46 a4 3e c0 67 02 be
       0.18503726 0.3470976 0.3208502 -0.1273489
000350 74 e7 87 3e ed f9 d5 bc bc 2e 40 3e d1 17 f5 be
       0.26543772 -0.02612015 0.18767828 -0.47869733
000360 1b 17 76 3e 4a ab 94 3d b6 c9 60 bf 87 f4 c6 bd
       0.24032252 0.07259233 -0.87807786 -0.09714609
000370 75 c3 60 3e e5 c2 1d 3d 00 22 8b bd 22 96 ad 3e
       0.21949561 0.038515944 -0.06793594 0.33903605
000380 03 dd 4a 3d ca 40 1e be 0e d5 8b 3e fa 31 f1 3c
       0.04952718 -0.15454403 0.27310985 0.029442776
000390 0d 0b 1c 3e 50 b7 4b 3d ed a8 eb be fd 07 e2 be
       0.1523859 0.049735367 -0.46027318 -0.4414672
0003a0 6e fd 4a 3e 21 5d 35 bc cc bf d1 3d ca ea 4e bd
       0.19823238 -0.011069567 0.102416605 -0.05051688
0003b0 1e 7d 26 3e 24 b2 0a bf 38 22 94 3e 83 9e b5 bd
       0.16258666 -0.5417807 0.28932357 -0.08868124
0003c0 f5 f9 8a 3e ca 6f 1d bf 51 dd 22 bf e1 b2 21 3e
       0.27143827 -0.614987 -0.6361895 0.15790893
0003d0 f8 da fb be ea 65 b6 3d b3 9d b7 3e 87 df 83 be
       -0.49190497 0.08906157 0.35862502 -0.25756475
0003e0 4a cb ad 3d 90 88 6a 3e 75 e5 96 3e 57 3c 45 3e
       0.0848604 0.22903657 0.29471937 0.19261299
0003f0 5f 65 03 3e 93 9d 41 bf 30 13 3a be 72 21 06 bf
       0.12831639 -0.75631064 -0.18171382 -0.52394783

policy_head.bias f4 [110]
000000 8e d9 c9 be 35 be 75 bd 00 42 85 bd 54 70 e4 3d
       -0.39423794 -0.05999585 -0.06506729 0.111542374
000010 0a dc cc be f6 1d d7 be ff 0e e3 3d ed 07 95 3d
       -0.40011626 -0.42015046 0.11086845 0.07276902
000020 d1 3e 04 3e 26 57 b6 bc a3 46 ce bb 92 72 30 3c
       0.12914588 -0.022258352 -0.0062950416 0.010769503
000030 58 ff 26 3e 59 90 41 3d 2e 21 7a 3e f4 6b 2d 3e
       0.16308343 0.0472568 0.2442672 0.16935712
000040 33 0b e1 3d 17 e9 2c 3e dc 88 89 3e 85 a3 86 3e
       0.10988464 0.16885792 0.26862228 0.2629663
000050 ac eb 8f 3d 9f bc 1f bd 5d e8 84 bc 64 18 65 3d
       0.07027373 -0.038998242 -0.01622408 0.055931464
000060 d3 0a 41 3d 52 71 7a 3e 0f ea 44 3e c2 c7 7e 3d
       0.047129463 0.24457291 0.19229911 0.062202223
000070 ea 03 02 3e 1e e8 aa bc a6 c1 12 3d 9b e7 0b 3d
       0.12696806 -0.020862635 0.03582921 0.034156423
000080 b3 36 b2 3c 04 84 c7 3d 5d 94 85 3c 10 ab 72 3e
       0.021754598 0.09741977 0.016306097 0.23698068
000090 2a b2 79 3d 56 66 09 bd ce 75 df 3d 3b f5 1a 3e
       0.060960926 -0.03354486 0.10911141 0.1513261
0000a0 7f 66 03 bc 7a 81 50 3e 61 a5 ee 3d 6f ae 83 3d
       -0.008020042 0.20361891 0.11652637 0.06429755
0000b0 5b a8 a1 3d 37 f7 dd 3c 5c 1b 7e 3e 86 41 17 3e
       0.078934394 0.02709542 0.24815124 0.14771089
0000c0 bc 31 f6 3d a7 20 4c 3e 5b c9 87 bd 2f e1 ea 3d
       0.12021205 0.19934331 -0.066302024 0.114687316
0000d0 d5 c5 2f 3e e2 62 90 3d 2c 25 e3 3d 9b 42 b5 3d
       0.1716531 0.070501104 0.11091074 0.088505946
0000e0 d4 87 6b 3e 50 8c 49 3e c7 8d ab be 9e aa c5 be
       0.23001033 0.19682431 -0.33506605 -0.38606733
0000f0 5c b2 de be 98 f6 cb be ac 7a b6 be 1f 8c 9b be
       -0.43495452 -0.39836574 -0.35640466 -0.3038034
000100 6f 7e a9 be d8 cc c4 be 69 65 92 be 17 ae 81 be
       -0.33104274 -0.38437533 -0.28592995 -0.25328133
000110 47 a4 a8 be e4 c5 a6 be ab 23 87 be 36 ea e5 be
       -0.32937834 -0.32572854 -0.263944 -0.4490525
000120 d4 16 9b be 77 0b d4 be 44 c7 ce be c2 61 ca be
       -0.30290854 -0.41414997 -0.40386403 -0.39527708
000130 53 7b 02 bf 7e cf a4 be 24 17 f4 be 17 16 b7 be
       -0.5096943 -0.32189554 -0.47673905 -0.3575904
000140 e1 d8 ee be 16 7a b1 be 8f 59 ea be a8 f2 9d be
       -0.4664984 -0.34663457 -0.45771453 -0.30849195
000150 01 2c f8 be ed a1 a2 be 35 47 a8 be d8 04 e8 be
       -0.48471072 -0.31764165 -0.32866827 -0.45316195
000160 08 40 c9 be 0c 32 c1 be 83 ee e6 be 3e 1a e8 be
       -0.39306664 -0.37733495 -0.45103845 -0.4533252
000170 f9 94 c2 be a0 3c af be 49 ec f2 be 8c 3e a8 be
       -0.38004282 -0.3422594 -0.47445896 -0.3286022
000180 e2 c8 be be ef 87 d1 be 33 46 f8 be c1 a2 a8 be
       -0.37262636 -0.40924022 -0.48491058 -0.3293667
000190 cb d7 92 be 0b 72 e9 be 46 b2 b2 be 09 71 bb be
       -0.28680262 -0.4559482 -0.34901637 -0.36609676
0001a0 dc 50 ff be d3 6b 00 bf 3a a8 de be 4d b4 e3 be
       -0.49866378 -0.50164527 -0.43487722 -0.44473496
0001b0 64 52 fb be 3f 1a 86 be
       -0.49086297 -0.261919

value_head.weight f4 [1, 64]
000000 9c 05 e2 3b cc 21 a4 bc 4d 02 7f bb 54 77 d6 3c
       0.0068976413 -0.020035647 -0.0038911283 0.026179947
000010 03 29 58 3c f7 fc 57 3d 88 6b 4d b7 ab e1 00 3c
       0.013193372 0.05273148 -1.2243989e-05 0.007866303
000020 10 f0 3e be ff 78 ae 3c 32 c8 fd 3b 47 cc 4f bd
       -0.18646264 0.02129793 0.0077448124 -0.050731923
000030 4e 84 d4 3d 82 b3 ae bd d3 d3 a8 bb 34 09 cf 3c
       0.103767976 -0.08530332 -0.0051522045 0.025272943
000040 cf 86 20 bc 5e e9 39 3c 93 da 1e bd e6 fd 39 bc
       -0.009797766 0.011347143 -0.038782667 -0.011352038
000050 a2 2b 44 3c 18 6d af bd 95 3f 92 3b ae 7a e1 3c
       0.0119732935 -0.0856573 0.004463146 0.027524319
000060 76 f9 89 3c 12 22 9c ba 2b 4e ae bc 50 58 83 bc
       0.016842585 -0.0011912009 -0.021277508 -0.016033322
000070 47 db 76 bb db 24 a0 bd 8f ec 0d be c1 d1 ce 3d
       -0.003766732 -0.078195296 -0.13859771 0.10098601
000080 8f f1 9d bd e4 66 93 be 98 b6 70 3c 89 d6 54 be
       -0.07712089 -0.28789437 0.014691971 -0.20784964
000090 00 2e 29 3c b4 a9 48 3c 50 88 4e 3d 3a 54 d4 bb
       0.010325909 0.012247492 0.050422966 -0.006479767
0000a0 e0 f9 23 bc 0b 2e d0 bd af 89 9c bc 49 48 a0 3a
       -0.010008305 -0.10165032 -0.019108621 0.0012228574
0000b0 d6 02 57 3c ea e2 d6 bc cd 08 c6 ba 59 94 1a bc
       0.013123235 -0.026231248 -0.0015108824 -0.009434783
0000c0 25 b4 79 3b 5e 28 c8 bb e2 0a be bc 72 14 c4 bb
       0.003810176 -0.006108328 -0.023198549 -0.0059838826
0000d0 72 29 b7 3c d0 4f 5a b9 66 27 c6 3c c9 ee 84 be
       0.02235863 -0.00020819833 0.024188709 -0.2596343
0000e0 c0 2c 06 bc e3 5c c2 bb 1f 27 8b ba 9f 0c aa bc
       -0.00818938 -0.005931483 -0.0010616517 -0.020757971
0000f0 e3 17 81 3c 4b 82 70 3c 18 67 fe 3a 78 f8 19 bb
       0.01575846 0.014679502 0.0019409386 -0.0023494046

exp_avg f4 [128, 260]
000000 3b 83 1c ba 57 cc 2a 3a 7e 33 34 3a be bb 08 3a
       -0.00059704826 0.00065154344 0.0006874128 0.0005215964
000010 61 ec 66 37 95 7b f2 38 b9 44 08 3a 1c 05 03 ba
       1.3764105e-05 0.00011562478 0.0005198229 -0.0004998015
000020 e1 8d 81 b9 79 c1 e6 37 c6 8b 0c 3a 7e ae 92 39
       -0.00024710505 2.750823e-05 0.0005361404 0.00027977297
000030 65 38 30 b9 68 eb 29 b7 b2 ae 91 b9 d5 23 ea 39
       -0.00016805677 -1.0127995e-05 -0.00027786713 0.00044658655
000040 b8 0e 93 38 f4 75 56 b9 52 b8 f0 b8 da 94 c8 38
       7.012248e-05 -0.00020452571 -0.00011478424 9.564469e-05
000050 77 fd 70 39 98 06 cf 38 d2 89 7d 39 90 18 1b 39
       0.00022982607 9.871757e-05 0.00024179302 0.00014791102
000060 7f 28 ec b9 a1 db 99 b9 57 0f a3 b7 db 7f 71 b8
       -0.000450436 -0.0002934607 -1.9438257e-05 -5.7577952e-05
000070 91 a7 4e 3a 3f c6 28 39 2d 57 7e 36 f6 cc 84 39
       0.00078832457 0.00016095581 3.7899692e-06 0.0002532971
000080 69 16 4a b9 bd 8e 13 b8 78 40 6a b9 76 22 c9 b9
       -0.0001927257 -3.5180467e-05 -0.00022339995 -0.00038363383
000090 40 8b 89 b8 65 59 cc 39 e2 ed f8 38 68 81 85 b9
       -6.5586064e-05 0.00038976516 0.00011869871 -0.00025464152
0000a0 43 21 bd 39 83 93 02 3a b8 6b 2a 3a aa 7b da b8
       0.0003607367 0.00049810874 0.00065010367 -0.00010418084
0000b0 85 bf 91 b7 a2 e2 8e 39 c5 fe 9f 39 4c 14 89 35
       -1.737453e-05 0.00027253205 0.0003051666 1.0213203e-06
0000c0 f4 6a a3 b8 c2 f6 c3 39 d4 1e a2 b8 06 bf 2e b9
       -7.792367e-05 0.00037377147 -7.730504e-05 -0.00016665095
0000d0 eb 01 9c 9d 04 00 00 80 e7 d9 8c af cc d8 10 36
       -4.129484e-21 -6e-45 -2.562068e-10 2.1583865e-06
0000e0 ab 59 e3 b7 65 91 cc b7 74 68 16 b9 0e a6 0b b9
       -2.7102264e-05 -2.43864e-05 -0.00014344027 -0.00013317933
0000f0 cc b4 0f 39 c8 14 21 b9 f8 53 28 39 e7 03 fd 38
       0.00013704895 -0.00015361898 0.0001605301 0.00012064707
000100 2b 1b e2 b7 b8 8d e7 36 04 00 00 00 05 0a eb b7
       -2.695395e-05 6.9008347e-06 6e-45 -2.8018849e-05
000110 5e 16 aa 37 0f 87 b4 38 0d d1 c0 38 9d de de 38
       2.0275995e-05 8.6082255e-05 9.194212e-05 0.0001062725
000120 cd 02 1b 39 0a d6 99 38 b8 9f c9 37 76 4a 2b b7
       0.00014782995 7.3354764e-05 2.4035442e-05 -1.0209731e-05
000130 39 69 c9 b7 25 cf 1b 3a 04 00 00 80 04 00 00 00
       -2.4010065e-05 0.00059436477 -6e-45 6e-45
000140 04 00 00 80 6c 06 6e 36 8c 7e d6 b8 fe 49 74 b8
       -6e-45 3.5468502e-06 -0.000102278864 -5.8243044e-05
000150 a7 f2 db b7 77 64 aa 37 8a 3b 32 38 40 7a 67 38
       -2.6219828e-05 2.0312362e-05 4.2493957e-05 5.5188546e-05
000160 dc 80 14 b9 69 a4 8b b9 30 69 98 39 76 42 a6 b1
       -0.00014162384 -0.0002663464 0.0002907007 -4.8387916e-09
000170 c1 4d d7 21 04 00 00 00 48 d9 24 b8 17 e3 57 38
       1.4589548e-18 6e-45 -3.9303006e-05 5.147149e-05
000180 3a 83 ae b8 b7 d7 c0 b7 39 b2 74 38 df ee 13 b9
       -8.3214094e-05 -2.2988634e-05 5.8340116e-05 -0.00014107999
000190 a6 a8 87 b8 54 d8 23 38 81 5c bb b8 cd ab 87 b7
       -6.468715e-05 3.90637e-05 -8.934085e-05 -1.6173255e-05
0001a0 a7 8e 06 b6 04 00 00 00 cd db 52 30 b4 0d 0e 38
       -2.005059e-06 6e-45 7.670991e-10 3.38682e-05
0001b0 e9 aa 17 3a 34 33 3d 3a 48 e2 61 3a 91 9c 34 3a
       0.00057856605 0.00072174077 0.00086167874 0.0006889785
0001c0 dc c5 23 3a 60 7a 45 3a 1f 54 97 b7 81 11 fa 38
       0.000624744 0.0007533189 -1.8039775e-05 0.00011924189
0001d0 2b ba 2e 3a be 38 b0 0d 04 00 00 80 16 16 d9 b8
       0.00066653144 1.0860498e-30 -6e-45 -0.0001035148
0001e0 70 2c f5 b7 1a c6 8b 39 19 15 88 b9 38 b0 e3 38
       -2.9226969e-05 0.00026659743 -0.0002595566 0.00010857027
0001f0 45 0e 76 39 4e 11 55 3a fb 18 e8 39 90 c7 0a b9
       0.00023465704 0.0008127884 0.000442691 -0.00013235048
000200 3d 35 66 38 d2 0b 51 b7 04 00 00 80 04 00 00 80
       5.4885855e-05 -1.2460123e-05 -6e-45 -6e-45
000210 04 00 00 00 7a d5 c2 37 5a cb 26 3a 73 09 26 3a
       6e-45 2.322601e-05 0.0006362699 0.00063338055
000220 05 dc 59 39 4f 2a e8 39 6b d3 50 3a 9f cb 7f 3a
       0.00020776696 0.0004428201 0.0007966074 0.000975782
000230 74 cb 34 38 62 87 fa 39 26 2f 09 b9 04 00 00 00
       4.3104825e-05 0.00047784584 -0.00013082902 6e-45
000240 f6 02 f2 33 36 35 d4 b5 fc ff 03 b9 88 26 6b b8
       1.1269542e-07 -1.5810717e-06 -0.00012588495 -5.606425e-05
000250 8d 52 24 3a b6 6c 8f b8 e7 f5 2e 3a 9f 05 93 3a
       0.00062684045 -6.83902e-05 0.00066742155 0.0011216885
000260 4d 49 4d 3a b7 dd 3f 39 e2 f8 4f 3a de 3b 42 3a
       0.0007831052 0.00018297775 0.000793351 0.00074094336
000270 ba fe 35 30 a9 73 0a 1e 04 00 00 80 e0 dc f7 2a
       6.6209405e-10 7.329577e-21 -6e-45 4.4029277e-13
000280 11 a4 11 38 e8 33 5e 37 fd 16 6d 38 dc cc ad 38
       3.4723493e-05 1.32443165e-05 5.6526613e-05 8.287441e-05
000290 d6 2b 2b 39 e6 05 81 b6 05 12 8d 33 7f 5f af b8
       0.00016324161 -3.8451863e-06 6.569102e-08 -8.362438e-05
0002a0 cb ec 61 38 ba d9 45 b7 de a5 e0 a0 fc 3e 68 ad
       5.386471e-05 -1.1792808e-05 -3.8056838e-19 -1.32016585e-11
0002b0 4e c3 5d b7 17 05 d3 b8 47 ce 5f 3a ac 4e d9 39
       -1.3218099e-05 -0.00010062212 0.00085375126 0.0004144808
0002c0 3f ae 9b 36 05 28 10 39 e9 a0 e9 b6 04 00 00 00
       4.639645e-06 0.00013747819 -6.9626735e-06 6e-45
0002d0 30 78 bd b8 45 15 37 37 04 00 00 80 04 00 00 80
       -9.034609e-05 1.0912602e-05 -6e-45 -6e-45
0002e0 d4 00 00 00 3e 01 00 00 b8 b8 65 b7 41 16 a1 37
       2.97e-43 4.46e-43 -1.3692472e-05 1.9203058e-05
0002f0 14 46 03 39 6a ef b4 b8 c5 99 92 b7 72 d6 d1 b8
       0.0001251924 -8.627663e-05 -1.747616e-05 -0.0001000584
000300 07 36 03 3a a6 d9 67 b8 4c c7 29 39 34 bd 22 34
       0.0005005304 -5.5277393e-05 0.0001619134 1.5156257e-07
000310 64 c6 cb a3 8e c6 41 b0 54 5f 8b b3 44 2d 06 37
       -2.2093326e-17 -7.0495154e-10 -6.490032e-08 7.997562e-06
000320 4a 27 95 39 a8 97 33 b9 8f 71 81 b8 3e 62 10 b8
       0.00028448767 -0.00017127267 -6.172351e-05 -3.442377e-05
000330 bd af cc 38 68 80 e2 38 bb 7f ea b7 8e db 8e 38
       9.760212e-05 0.00010800437 -2.7954453e-05 6.811983e-05
000340 4b 67 8b 3a 6a 64 32 b9 95 1f 58 b9 ea f6 b4 b8
       0.0010635642 -0.0001701281 -0.0002061113 -8.62906e-05
000350 7b 07 0e b9 48 f6 bc b9 7c 99 59 ba ea 6c b1 39
       -0.00013544962 -0.00036041648 -0.0008300764 0.00033841218
000360 38 d3 5f b9 55 91 26 b9 88 99 60 b9 8b db ee 37
       -0.00021345622 -0.00015885134 -0.000214195 2.8474044e-05
000370 c5 54 7f b8 37 64 fb 39 89 73 42 3a 07 b8 1c 39
       -6.0875685e-05 0.00047949117 0.0007417729 0.00014945875
000380 01 c5 da 39 e9 9e e1 39 51 01 e0 b8 e2 8d 88 b9
       0.0004172698 0.00043033742 -0.000106813975 -0.00026045652
000390 ea a3 1e b9 99 ca 2d ba 50 8f 78 b9 82 bb f0 39
       -0.00015129117 -0.00066296157 -0.00023704511 0.0004591607
0003a0 26 a5 7f 3a 4c 2e 2d 39 e4 8d fa 39 d8 dc 08 3a
       0.0009752087 0.00016515813 0.00047789433 0.00052208966
0003b0 c5 c4 a9 b9 33 1d 91 39 c1 3e d9 b7 47 e4 c8 b9
       -0.00032380797 0.0002767831 -2.5897638e-05 -0.00038317053
0003c0 2c 73 bb 39 aa c6 00 39 6d 35 0c b9 fc 92 ad b8
       0.0003575323 0.0001228104 -0.00013371343 -8.276661e-05
0003d0 e1 a3 f5 38 02 de aa b8 b4 8f c9 37 b4 7b 3c 3a
       0.00011713035 -8.147584e-05 2.4027984e-05 0.0007190064
0003e0 02 a4 d8 38 23 48 06 b8 f4 9d aa b7 7f c6 12 3a
       0.000103302315 -3.2015272e-05 -2.0339132e-05 0.0005599036
0003f0 d4 04 bd b9 8c 5b ee 39 05 4e 04 ba 23 12 fd b9
       -0.00036052486 0.00045463105 -0.0005047026 -0.00048269433

exp_avg_sq f4 [128, 260]
000000 4d a5 f1 36 fc fc ff 36 47 2a 03 37 1b 8d 04 37
       7.2016032e-06 7.6290435e-06 7.818052e-06 7.900667e-06
000010 b9 c5 b2 35 a9 1b 3b 36 7d 8c 85 36 33 37 69 36
       1.3319578e-06 2.7881272e-06 3.980064e-06 3.4751836e-06
000020 84 14 98 36 f6 b3 9c 36 17 46 f2 36 45 22 29 37
       4.5323413e-06 4.6701125e-06 7.2203215e-06 1.0081164e-05
000030 c6 e3 8a 36 04 62 f7 36 d5 54 f5 36 18 9f e4 36
       4.139237e-06 7.372584e-06 7.3114447e-06 6.8134505e-06
000040 26 4a e2 36 cd bf 47 36 5e 50 77 36 d4 88 ad 36
       6.743957e-06 2.9764954e-06 3.6852648e-06 5.1717307e-06
000050 25 a2 8e 36 6b a3 b7 36 8f 13 ca 36 c1 6c 0a 37
       4.250806e-06 5.4728494e-06 6.022346e-06 8.250762e-06
000060 f6 2c c3 36 66 91 04 37 7e f2 e4 36 c7 e1 20 37
       5.816687e-06 7.901666e-06 6.8231593e-06 9.589311e-06
000070 0b 85 0e 37 4f 0c f3 36 7c 39 29 36 94 1f 6b 36
       8.494836e-06 7.2433972e-06 2.5216423e-06 3.503611e-06
000080 32 3f 8e 36 74 35 13 36 10 96 06 36 0d 48 b0 36
       4.2392867e-06 2.193582e-06 2.0054904e-06 5.2535966e-06
000090 a1 70 ec 36 b5 d5 7d 36 31 02 89 36 b9 48 2d 37
       7.04646e-06 3.7824332e-06 4.0831733e-06 1.0328536e-05
0000a0 7f 71 28 37 1c ac f2 36 d6 2c 0e 37 0b 5f 9b 36
       1.0040006e-05 7.232198e-06 8.474299e-06 4.6304244e-06
0000b0 af 4b 20 36 a2 a7 00 36 64 54 7f 36 75 ed a8 35
       2.3885912e-06 1.9171061e-06 3.8047083e-06 1.2586084e-06
0000c0 9e 7c 6f 36 11 b4 ae 36 29 0a 4a 36 0d 53 2f 36
       3.5686312e-06 5.2065666e-06 3.010626e-06 2.6125374e-06
0000d0 5f 44 98 31 fa 18 a1 2d da 87 0a 31 f9 4d 69 33
       4.431555e-09 1.8314673e-11 2.0158866e-09 5.4320456e-08
0000e0 af 1a b2 34 cf 8a ca 34 5b 9f d4 34 2d 44 28 35
       3.3174499e-07 3.7726429e-07 3.9604024e-07 6.2684086e-07
0000f0 a6 54 72 35 65 97 e6 34 c5 63 7c 35 22 dd ea 34
       9.0275205e-07 4.2950992e-07 9.40225e-07 4.3746792e-07
000100 b4 ea 11 36 6a 3d 28 2f 79 79 a2 2a 37 e6 a1 31
       2.17433e-06 1.530133e-10 2.886127e-13 4.711889e-09
000110 ef ae 77 33 1a f5 6f 34 70 34 95 34 93 cd 13 35
       5.766827e-08 2.2347777e-07 2.7791566e-07 5.506092e-07
000120 72 fa 08 35 f5 4c de 34 74 68 87 35 31 aa ea 34
       5.1028394e-07 4.1406716e-07 1.0088684e-06 4.3709727e-07
000130 a1 48 83 35 8a 1a 2d 35 b8 31 bd 27 f8 7d b2 2c
       9.781398e-07 6.448614e-07 5.2511943e-15 5.0730496e-12
000140 89 78 89 30 ad fc 8a 33 ef 20 83 34 85 90 af 34
       1.000232e-09 6.472087e-08 2.4424614e-07 3.2701442e-07
000150 44 e9 6c 35 8b d5 30 35 90 0b 4f 35 ac 1d 54 35
       8.82563e-07 6.5875855e-07 7.7130335e-07 7.901933e-07
000160 5d d5 27 35 06 82 46 35 bc 3a 45 35 59 60 63 2d
       6.252283e-07 7.3949957e-07 7.347369e-07 1.29248496e-11
000170 33 77 48 2f aa 6c 24 31 d4 77 cd 33 df be 45 34
       1.8232242e-10 2.392691e-09 9.567853e-08 1.8416493e-07
000180 61 99 d9 34 88 b6 35 35 bb dd 06 35 cf 3a 81 35
       4.0530998e-07 6.769337e-07 5.024155e-07 9.628365e-07
000190 c1 6a 97 35 f1 0c 68 35 da f6 35 35 ac ca 63 35
       1.1281446e-06 8.6445567e-07 6.778697e-07 8.4859016e-07
0001a0 c0 65 3f 34 ca f4 aa 31 7a 12 34 32 0c 12 b5 34
       1.7825278e-07 4.9754805e-09 1.048158e-08 3.3727008e-07
0001b0 d5 a6 88 36 33 c2 8b 36 05 25 89 36 4a cc b2 36
       4.0725376e-06 4.1651306e-06 4.087228e-06 5.3285958e-06
0001c0 ed fa ff 36 a6 b0 c7 36 fe 46 a7 36 71 02 c1 36
       7.628804e-06 5.9512267e-06 4.9852524e-06 5.7521324e-06
0001d0 2a 03 18 37 fa 85 8b 33 9e a8 48 30 04 7b 0d 34
       9.060643e-06 6.497062e-08 7.2999196e-10 1.3176401e-07
0001e0 92 bd f2 35 64 76 30 36 34 4d 90 36 80 08 a0 36
       1.8085577e-06 2.6294956e-06 4.300522e-06 4.769361e-06
0001f0 36 81 bd 36 a5 6a 95 36 a8 fa c7 36 27 10 88 36
       5.647681e-06 4.452961e-06 5.9598424e-06 4.054996e-06
000200 66 3c e0 36 62 09 a2 36 19 2e cc 2d 4a 9a 38 30
       6.6827515e-06 4.8290685e-06 2.3212586e-11 6.715807e-10
000210 dd c5 5b 31 29 55 30 35 4d 5a 93 36 2c 1d 9c 36
       3.1981167e-09 6.5689034e-07 4.391454e-06 4.6525583e-06
000220 bc fa d6 36 68 5c d2 36 96 f2 18 37 bf 5d d2 36
       6.4068863e-06 6.269245e-06 9.116387e-06 6.269401e-06
000230 43 9e f2 36 bd fc 1e 37 de 88 f9 36 b3 b7 ff 30
       7.230586e-06 9.476379e-06 7.4367117e-06 1.8605902e-09
000240 93 e4 d7 33 ff 31 15 35 48 ac f1 34 5c a7 27 36
       1.0053295e-07 5.557958e-07 4.50151e-07 2.4982355e-06
000250 08 ea 9c 36 ab b5 b7 36 20 7b bf 36 b0 4b 01 37
       4.676407e-06 5.474974e-06 5.706577e-06 7.706622e-06
000260 09 27 04 37 43 27 03 37 0a db 0a 37 c8 6b 15 37
       7.876902e-06 7.81735e-06 8.27644e-06 8.906187e-06
000270 fb 3c 38 34 09 54 9e 33 5b d1 e3 2e 86 53 ac 33
       1.715852e-07 7.372734e-08 1.0359954e-10 8.024567e-08
000280 45 a3 06 36 fc 9a b7 35 cf 0b 7e 35 e1 e6 5a 35
       2.0062591e-06 1.3679669e-06 9.463956e-07 8.15473e-07
000290 ff 49 37 35 15 a9 8e 34 6c 59 0a 34 51 7e 79 34
       6.828049e-07 2.6572584e-07 1.2884783e-07 2.3235886e-07
0002a0 b2 c8 93 34 f7 bf 2b 33 07 c5 28 33 3e 21 87 33
       2.752691e-07 3.998863e-08 3.9294743e-08 6.292474e-08
0002b0 81 3e 6d 35 b6 e7 a2 35 32 32 03 36 f2 ac 41 35
       8.8380335e-07 1.2137377e-06 1.9549739e-06 7.214977e-07
0002c0 33 ff 9a 35 16 95 03 35 8f 77 49 35 ed a2 4b 31
       1.1548167e-06 4.901825e-07 7.5052316e-07 2.9633e-09
0002d0 16 f6 c1 34 a2 9d c0 33 a3 fe ef 2e 0b bc 0b 2d
       3.6128102e-07 8.96937e-08 1.0913694e-10 7.942989e-12
0002e0 c9 f6 f9 31 1c a9 93 31 78 cd 57 36 89 01 de 35
       7.27491e-09 4.2974886e-09 3.2157095e-06 1.6540736e-06
0002f0 64 1a 01 36 bf 40 9a 35 d7 37 bd 35 12 32 c7 34
       1.923786e-06 1.1492738e-06 1.4097849e-06 3.710307e-07
000300 27 67 d3 34 e3 6c 91 34 d9 c7 d3 34 9d 29 f1 32
       3.9376866e-07 2.708758e-07 3.944722e-07 2.8075016e-08
000310 eb 25 50 32 6c 6d 2d 34 a7 ba 19 34 1f 53 8e 35
       1.2115815e-08 1.6151688e-07 1.4317139e-07 1.0604016e-06
000320 9b 23 4b 36 b7 0e ec 35 24 a4 41 35 24 c3 23 36
       3.0270082e-06 1.7587653e-06 7.213696e-07 2.440248e-06
000330 1d 8a 31 35 80 c9 15 35 69 8c 03 35 94 d5 f6 34
       6.613862e-07 5.5800047e-07 4.9005627e-07 4.597647e-07
000340 be 2b ac 37 8b 03 9b 37 8c 8e 9b 37 6b 74 9a 37
       2.0524367e-05 1.847909e-05 1.8543818e-05 1.8412442e-05
000350 16 23 a7 37 94 18 92 37 e4 c2 8c 37 4a 54 82 37
       1.992429e-05 1.7416001e-05 1.6780054e-05 1.5536458e-05
000360 19 79 46 37 b1 b0 7f 37 82 51 66 37 63 64 19 37
       1.1829915e-05 1.5240324e-05 1.3728046e-05 9.142884e-06
000370 c4 9b 31 37 75 d4 a2 37 d2 9a a8 37 c2 f7 a8 37
       1.0586289e-05 1.9410838e-05 2.0099254e-05 2.0142532e-05
000380 97 b6 8f 37 83 55 a8 37 39 97 8d 37 9f d8 66 37
       1.7131953e-05 2.006698e-05 1.6878928e-05 1.3759504e-05
000390 15 c5 73 37 93 4e 8a 37 fd 18 52 37 42 be 6c 37
       1.4529815e-05 1.6487471e-05 1.2522793e-05 1.4110994e-05
0003a0 fc 41 4f 37 4b c4 50 37 d5 e8 a8 37 30 0c 90 37
       1.2353525e-05 1.2443469e-05 2.0135582e-05 1.7171813e-05
0003b0 65 ac 90 37 70 ec a0 37 d0 8d 7a 37 ae 8a 8b 37
       1.7246415e-05 1.9183586e-05 1.49341795e-05 1.6634669e-05
0003c0 df 39 5c 37 3d 78 8c 37 79 4c 4c 37 b8 03 6b 37
       1.3126496e-05 1.674529e-05 1.2177153e-05 1.4007957e-05
0003d0 5e bd 32 37 21 57 39 37 37 2b 5d 37 db 75 86 37
       1.0653717e-05 1.1047146e-05 1.3182688e-05 1.6028926e-05
0003e0 9f 35 89 37 98 74 a1 37 05 10 92 37 3f bf 96 37
       1.6356642e-05 1.9246989e-05 1.7412016e-05 1.797045e-05
0003f0 4c 9e 87 37 02 1b 8b 37 82 2e 81 37 da 48 78 37
       1.6166967e-05 1.6582668e-05 1.5399655e-05 1.4798914e-05

exp_avg f4 [128]
000000 b6 89 f3 39 91 16 15 ba 34 8f 87 3a 47 48 41 38
       0.00046451174 -0.00056872616 0.001034236 4.60821e-05
000010 e5 0d b3 b9 a4 e1 1b 3a 91 4b 61 38 02 ba dc 3a
       -0.00034151893 0.0005946404 5.3714557e-05 0.0016840103
000020 a0 03 3e 3a f5 c7 bc 3a 11 5f 6b b9 05 6e 23 bb
       0.0007248465 0.0014402854 -0.00022446761 -0.0024937403
000030 7e 64 a7 3a 61 a0 ed 39 d0 4e 2c b8 55 92 f3 ba
       0.0012771038 0.00045323654 -4.1081395e-05 -0.0018583039
000040 32 6c 2b 3a 46 b7 10 b8 b6 53 3a 3b cf 8e 04 3a
       0.00065392547 -3.4502962e-05 0.0028431243 0.00050566805
000050 9b 8a 04 3b 23 1c 8a 3a a7 c2 38 ba 0e 49 ce 39
       0.0020224217 0.001053695 -0.00070480484 0.00039345812
000060 16 ef 80 3a b3 11 4c ba 2f 39 0f bb 0f 4e d9 36
       0.0009836878 -0.000778462 -0.0021854152 6.476191e-06
000070 47 b5 9e 3a 26 19 38 3a 04 00 00 00 4b a7 11 ba
       0.0012108468 0.00070227904 6e-45 -0.00055562396
000080 17 5f a1 39 15 32 16 ba 2f f9 7c b8 1d 17 92 39
       0.0003077916 -0.00057295087 -6.0313552e-05 0.0002786451
000090 4b 22 41 3a 84 38 83 ba c0 a7 d1 37 ec 19 9c 39
       0.0007367476 -0.001001135 2.4992856e-05 0.00029773952
0000a0 3e 2a 37 ba 89 3d ca b8 42 39 d9 39 17 ae 3b 3a
       -0.00069871906 -9.6435724e-05 0.00041432126 0.00071594253
0000b0 ab 15 a7 ba 49 d0 99 3a 04 00 00 00 6b 9e 42 39
       -0.0012747546 0.0011735047 6e-45 0.00018560297
0000c0 82 c8 91 ba 12 1a 77 39 c0 fb 6e 3a 95 f6 91 ba
       -0.0011122378 0.00023565468 0.0009116493 -0.0011136109
0000d0 85 9a 8e ba 45 78 f7 39 29 e1 8e ba a1 64 9e 3a
       -0.0010879791 0.0004720112 -0.0010900843 0.0012084433
0000e0 2c 32 06 b8 64 aa 94 ba 54 b1 a8 3a 98 57 9f 3a
       -3.1994816e-05 -0.0011342284 0.0012870231 0.0012156842
0000f0 01 27 8d 39 61 11 20 3b c9 82 02 bb b3 70 01 ba
       0.00026922676 0.002442442 -0.001991438 -0.0004937753
000100 e1 8d 91 b7 64 e7 d2 38 20 88 8a ba 18 ad 09 3a
       -1.7351414e-05 0.0001005668 -0.0010569133 0.0005251928
000110 8d 5e 2f 39 0a da 1f 3b 08 05 9b 38 96 f3 90 39
       0.00016724523 0.0024391436 7.391913e-05 0.00027647306
000120 27 61 af 39 40 57 e0 39 67 49 f1 b7 b2 26 ae ba
       0.00033450985 0.00042789616 -2.876362e-05 -0.0013286679
000130 e1 e6 d2 3a 7c 48 09 b9 61 c9 9e 39 76 52 cb 3a
       0.0016090536 -0.0001309234 0.00030286147 0.0015512246
000140 cd e2 44 3a b8 ac 2d bb ff 15 c6 b9 04 00 00 00
       0.00075106026 -0.0026500653 -0.0003778189 6e-45
000150 f2 05 03 ba c8 b2 a7 3a 15 e4 00 bb af bb 2b 3a
       -0.00049981393 0.001279437 -0.0019667197 0.00065510994
000160 92 8a 00 ba 96 88 ac b6 7e a4 63 b9 78 f0 d0 3a
       -0.0004903461 -5.1419e-06 -0.00021709685 0.0015940806
000170 bb 7f 2d 3a ea 32 92 3a 97 ae 06 ba 7a 55 d1 39
       0.00066184596 0.001115409 -0.000513771 0.0003992727
000180 2e 34 00 3a 1c 0b e6 3a a4 58 1f 3b f5 7f 8c 3a
       0.0004890588 0.0017550918 0.0024314309 0.0010719287
000190 29 ca f2 b9 7c ca 9e 38 3f ae 1b bb 2a 02 34 ba
       -0.00046308458 7.571743e-05 -0.0023754982 -0.00068667775
0001a0 79 e8 15 3a ea f3 84 ba da 58 be 39 ca e0 5c b9
       0.000571854 -0.0010143493 0.00036305824 -0.00021064575
0001b0 c0 2f 06 3b fd cb a1 3a c0 ab 26 ba 7b 28 57 ba
       0.0020475239 0.0012344118 -0.000635799 -0.0008207631
0001c0 d7 99 02 ba 6a 37 38 3a 9a 1c bd ba 42 63 1a b8
       -0.00049820304 0.00070273003 -0.001442808 -3.6808902e-05
0001d0 9c 35 36 3a 78 45 7d 3a 09 e9 0e ba bd f0 0a 3b
       0.00069507374 0.0009661536 -0.0005451595 0.002120062
0001e0 c1 8f 4a 3a 5e 1d 89 ba 1e 3b 68 3a 44 59 40 3a
       0.00077271095 -0.0010461023 0.0008858907 0.00073375204
0001f0 9a bb 32 ba 24 8d 4e b9 d0 f5 06 3b 87 d8 24 3a
       -0.0006818116 -0.0001969827 0.0020593293 0.00062883686
