ppo_2layer_2048_epoch10_followepoch5_follow5_follow5_640/ppo_agent_episode_25400.pth (torch, 596662 bytes, 21 tensors)

fc1.weight f4 [128, 260]
000000 03 65 8c bd 24 17 c3 bd 62 c2 0c be 52 cf 38 be
       -0.06855204 -0.09525898 -0.13746026 -0.18047836
000010 d8 2e 01 3c d5 05 77 be cf ab 1d 3e 09 d2 5d bd
       0.007884704 -0.24123318 0.15397571 -0.054155383
000020 fc f2 6f be 92 32 c7 be 24 2b ad be 89 71 6b 3e
       -0.23432535 -0.3890577 -0.33821976 0.22992529
000030 5d b8 ac be f0 54 55 be f2 24 f5 bd f3 1b 7e bd
       -0.33734408 -0.20833182 -0.119699374 -0.062038373
000040 be 0c a6 be c5 f0 5c be f5 e7 d8 bd 24 3f 23 3d
       -0.32431597 -0.21576221 -0.10591117 0.039855137
000050 b2 73 15 be cf 06 68 bd 56 37 f8 bd 9d 28 a7 bd
       -0.14594916 -0.05664712 -0.121199295 -0.08162043
000060 2b bf d6 bd d4 d0 3d 3d fa ae 33 be 0e 7d dd bd
       -0.10485681 0.046341732 -0.17547217 -0.10814868
000070 f5 d4 92 bd d9 9f 90 bd 84 20 e9 be d3 ba d5 3e
       -0.071695246 -0.070617385 -0.4553262 0.41744098
000080 98 ca 4f 3e 53 c2 78 be a6 bc 59 bd 44 b7 bb be
       0.20292127 -0.24292879 -0.053158425 -0.36663258
000090 d6 d7 63 be a0 d8 b7 be 65 ad ac be 7b 31 ea bd
       -0.22250304 -0.3590746 -0.3372604 -0.11435219
0000a0 71 76 2e 3d 23 ce 39 be 7a 04 b2 bd fc 48 f0 bd
       0.042593423 -0.18145041 -0.0869226 -0.11732671
0000b0 01 48 8e be ba b8 05 3d d6 45 e5 bc c6 d2 19 bf
       -0.2778931 0.032646872 -0.027987402 -0.6008724
0000c0 4f 5c 64 be 38 ca ad bd 8c 5e 8b be 3a 70 7e be
       -0.22300838 -0.08485836 -0.2722057 -0.24847499
0000d0 19 39 05 be 5b fb da be 72 32 3b be 15 69 9a 3d
       -0.13010062 -0.42769894 -0.18280962 0.07539574
0000e0 ae 7c 77 bc 7d aa 72 bc d2 fa 1e bd 22 aa 67 bc
       -0.01510541 -0.014811155 -0.03881342 -0.014139684
0000f0 8e 7d 96 3b 27 e8 16 3c c0 f4 98 3d c6 fa 20 bd
       0.004592604 0.009210623 0.07468557 -0.039301656
000100 ec a8 49 bd 43 1d 93 be 92 41 23 be f6 44 24 be
       -0.049233362 -0.28733262 -0.15942982 -0.16041932
000110 fa 15 b8 3c c3 7a 53 bd aa 44 20 bd f5 3d 9b 3d
       0.022471417 -0.051630747 -0.039127983 0.07580177
000120 6a 3c ca 3d d8 3f dc 3c 48 6f ed 3d cb df 81 bc
       0.09874804 0.026885912 0.11593491 -0.015853783
000130 1d 08 15 3e 62 e4 e3 3d 0b a8 84 be 7a 86 5d be
       0.14553876 0.11127545 -0.25909457 -0.2163333
000140 f6 c1 c0 3d 70 4b db 3d b0 98 24 3d 1c ee 14 be
       0.09411995 0.10707748 0.040184677 -0.14543957
000150 4f 58 e3 bc 9c ff ce 3d 5d ee a2 bc c7 99 86 3e
       -0.02775207 0.10107347 -0.019889051 0.26289198
000160 37 5a 27 3e 8a 10 2c bd 58 c5 dd 3d 12 ea 9a be
       0.16343008 -0.04200796 0.10828656 -0.30256706
000170 b6 c4 48 be 50 5c 39 be dd 28 39 3d 50 3f 08 be
       -0.1960629 -0.1810162 0.045204986 -0.13305402
000180 ce 12 3a 3d ec b2 b4 bd b9 b0 45 be f3 2d 48 3e
       0.04542809 -0.08823189 -0.19305696 0.19548778
000190 c1 c0 a5 3d fd 99 21 3c dc 53 ac 3d 03 88 b5 bd
       0.080934055 0.009863374 0.084144324 -0.08863833
0001a0 fc fe fb 3b 02 f6 08 bc de c5 dd bb 42 57 8b 3d
       0.0076903086 -0.008359434 -0.0067679724 0.068037525
0001b0 88 7d a3 bd 2e 5f 07 3d 00 ad b8 bd e5 f6 6d ba
       -0.079829276 0.033049755 -0.09017372 -0.00090776227
0001c0 3f 81 8b 3d 29 3d de 3d e6 73 4d 3d 8e ce 01 be
       0.06811761 0.10851509 0.050159357 -0.1267645
0001d0 ab e1 0a 3e 91 ed fa 3d f1 80 c3 3d 01 13 04 3e
       0.13562648 0.122523434 0.09546078 0.12897874
0001e0 56 62 3d 3e 82 92 7f 3d f7 41 03 3b 89 f2 6c bc
       0.18494543 0.06239558 0.0020028332 -0.014462122
0001f0 46 ff f5 3d 2b 5e 44 3d 54 38 26 bd 62 9a 61 3d
       0.1201158 0.047941368 -0.040581062 0.05507887
000200 f1 45 b5 3d cf 86 43 bd 72 c0 ac 3d 53 7c 56 3e
       0.08851231 -0.047735985 0.084351435 0.20945863
000210 b5 1c c6 3d 2c f8 29 3e 77 c7 ef 3d 93 99 53 bc
       0.09673444 0.16598576 0.11707967 -0.012915033
000220 05 f9 00 3d e5 08 a3 3d 3e d4 aa 3c df f7 7a 3d
       0.031487484 0.07960681 0.020853158 0.061271545
000230 f1 7c 8f 3d a3 60 31 3d aa 83 f7 3d 6f 87 64 bd
       0.070062526 0.04330505 0.1208566 -0.055793222
000240 e5 da ae 3d 29 e7 a6 bc e5 c2 07 bd b9 04 4c 3d
       0.085378446 -0.020373898 -0.03314485 0.04980919
000250 cb 8c c3 3d 84 c2 11 3b 4c 0c a6 bc e1 bd 45 3e
       0.095483385 0.0022241184 -0.020269535 0.19310714
000260 2d 99 e3 bc 6e cd d7 3d e6 75 2c 3c c2 fd 85 3d
       -0.027783 0.105372295 0.010526156 0.06542541
000270 da 9e 88 3c 96 9a 6a 3e 6a 64 e3 3a 10 52 66 3e
       0.016677309 0.22910532 0.0017348651 0.22492242
000280 0c da e4 bc 99 00 e8 3d 9e 5c 8a bd 0a 5f 0c 3d
       -0.027936004 0.11328239 -0.067559466 0.034270324
000290 86 f4 be 3d d2 bd 9d 3c ed 06 33 3e 38 66 15 3e
       0.09323983 0.019255552 0.1748311 0.14589775
0002a0 07 51 07 bd 7a ec 3d 3e ae 79 8d bb 74 ac 21 3d
       -0.033036258 0.1854724 -0.004317484 0.039471105
0002b0 20 34 12 3e 49 dc 1a bd 06 c5 04 bd 03 42 58 bd
       0.14277697 -0.037807737 -0.03241446 -0.05279733
0002c0 a5 33 28 3e e9 81 14 3d 14 d3 61 3e 4b b8 ac 3d
       0.16425951 0.036256704 0.22053176 0.084335886
0002d0 1c d4 f0 bd 44 13 0d be 0a 5f 92 3d b4 a4 35 bc
       -0.11759207 -0.1377688 0.071470335 -0.011086632
0002e0 ec 1e 7d bc c1 19 e8 3d a5 dd 05 bd 9d 14 2c bd
       -0.015449267 0.11333037 -0.03268208 -0.042011846
0002f0 fb 7b d7 bd b4 85 1a bd 62 51 38 3e d3 8d b8 bd
       -0.10521694 -0.037725165 0.17999795 -0.09011426
000300 9a 06 4b 3e 00 0a ad 3d 26 8e 23 3e 54 98 a8 bd
       0.19826737 0.08449173 0.15972194 -0.08232179
000310 45 ab 01 bc 7d 24 88 3d 2b af 2f 3d 36 d0 62 bc
       -0.007914369 0.066475846 0.042891663 -0.013843587
000320 8c 11 4b bc 10 af 04 be 7c 4a 82 bd df ec 99 3d
       -0.01239432 -0.12957406 -0.06361863 0.07515883
000330 bc 5d 8b 3e 4e b8 a4 3d 49 d6 2d bd 17 f4 75 3d
       0.2721995 0.08042966 -0.042440686 0.060047235
000340 c9 a1 61 3c 12 d5 34 3d ad e5 69 3d 5b b3 b1 3d
       0.013771483 0.044148512 0.0571038 0.086767875
000350 8a eb 9f 3c 47 50 74 3d d0 7e f5 38 b5 8b a1 3d
       0.019521493 0.05964687 0.00011706131 0.07887975
000360 01 9c 1f 3d ee 09 17 3e 65 50 16 3d 37 e6 49 bd
       0.038967136 0.14749882 0.036697764 -0.049291816
000370 10 f8 a9 3d f0 71 88 3d 08 ea aa 3c a2 0c 9e 3d
       0.08299267 0.06662357 0.020863548 0.07717253
000380 16 c2 b3 3d 3c 5c 85 3d 6d 5b d6 3c 7b ee 84 3b
       0.08777253 0.06511733 0.026166642 0.0040567494
000390 6c db c0 3d 6d 0d 21 3c 65 74 61 3d df ca 0f 3d
       0.094168514 0.009829861 0.055042643 0.035105582
0003a0 3f 7e cf 3d 8f 76 e3 ba 60 07 5f 3d c6 f3 22 3d
       0.101315014 -0.0017354059 0.054450393 0.03978326
0003b0 6d c6 3d bd e6 70 36 3d 15 5c 11 3e ff 74 d9 bd
       -0.04633181 0.044541262 0.14195283 -0.10618018
0003c0 3b 6b 40 bd b0 e5 b0 3d 84 e7 89 bb f0 b7 b1 3d
       -0.046977263 0.086375594 -0.004208507 0.086776614
0003d0 1d f9 88 3d 34 b0 e2 3d f8 ae 6b 3d 18 69 a6 3d
       0.066881396 0.11068764 0.05753991 0.08125514
0003e0 fe f8 0b 3c 53 7b 18 3b 9b 15 30 3d 74 32 27 3c
       0.008543251 0.0023266866 0.042989355 0.0102049
0003f0 a9 57 9f 3d fb 85 32 3d d4 cb 42 3d da fd 22 3e
       0.07780392 0.043584805 0.047557667 0.15917149

fc1.bias f4 [128]
000000 dd a0 c2 bc e1 ec bf bd c9 7b 7d 3c 37 85 b4 3d
       -0.023758346 -0.09371353 0.015471407 0.08814471
000010 6c fe 19 bd 43 b0 e4 bc 6f 2c 19 bd 3c 41 49 3c
       -0.03759615 -0.02791608 -0.03739589 0.0122836195
000020 c2 40 79 bd c8 56 a6 bc ce 07 00 be 24 b0 e0 3c
       -0.060852773 -0.020305052 -0.12502977 0.02742774
000030 9a de 00 bd 9e 69 54 3d 70 da 2c 3c 79 30 90 3d
       -0.03146229 0.051858537 0.010550126 0.070404954
000040 f5 5b 08 bc fe 4d 2d 3d 65 ec f8 3c 42 f1 88 bc
       -0.0083227055 0.042310707 0.03038616 -0.016716603
000050 8f 20 33 bc c4 84 39 bc 81 0d 57 3d ed a4 26 3d
       -0.010933056 -0.011323158 0.052503113 0.04068463
000060 78 ec fc bc bc 4c 35 3d c5 ca c5 3a af f2 b9 bc
       -0.030874476 0.044262633 0.0015090337 -0.022698728
000070 a0 10 be bc da 9b 84 bd 7d d0 c1 bd 72 77 7f 3d
       -0.023201287 -0.06475039 -0.09463594 0.06236977
000080 2a b9 93 3c 9b 1a d8 bb 1a 89 ff 3c 79 3f ec 3c
       0.018032629 -0.0065949685 0.031193305 0.02883886
000090 e6 1e 8b ba 8d 6f bb 3d 06 23 2c 3d a2 e1 81 3d
       -0.0010614067 0.09152136 0.04202559 0.06341864
0000a0 3d 72 ad 3d 01 03 59 3d f1 f6 17 3d 33 ca 55 bd
       0.08469055 0.05298138 0.037100736 -0.052194785
0000b0 6c ef 12 3d 4b 23 db bb e4 1f 6e bc d2 17 26 bc
       0.03587286 -0.006687557 -0.0145339705 -0.010137515
0000c0 e8 dd ad 3d f2 13 b7 bc 65 01 02 bd 9c f2 7b 3d
       0.08489591 -0.022348378 -0.03173961 0.061510667
0000d0 d6 47 df 3b f3 cb 3f 3c 1d 90 d1 3d 0c 29 a4 3d
       0.0068139834 0.01170634 0.102325656 0.080156416
0000e0 1d 28 8a ba 1f 62 96 3d 1d 1f 5f bc 91 0a 9b 3c
       -0.0010540519 0.07342934 -0.013618258 0.018925937
0000f0 56 21 70 3d 52 be 68 bc f1 96 87 3d 53 8f be bb
       0.05862554 -0.014205532 0.06620587 -0.0058154254
000100 17 5f 13 bd ce f1 7c bd 9b d3 5c 3d f7 b2 44 3c
       -0.035979357 -0.06175404 0.05391274 0.012005559
000110 8b a0 1a bd 92 a6 3e bd 80 de 90 3c d2 59 bf 3c
       -0.037750762 -0.046545573 0.017684221 0.02335826
000120 32 85 eb 3b 22 f5 5f bd 8b 7f 7d bd 9b 22 8f 3c
       0.007187509 -0.054677136 -0.061889213 0.017472556
000130 fd 8a 6b 3d a4 11 df 3d aa e3 a5 bd 86 c5 4f bd
       0.057505596 0.108920366 -0.08100064 -0.050725482
000140 5e 0e 59 bd 38 f4 81 3d d9 ad c5 bd 6d 5e b8 bd
       -0.052992217 0.06345409 -0.096522994 -0.09002385
000150 e7 33 d1 3d c4 7f e0 3c 78 cf cc 3d ab 2b ce bb
       0.10214978 0.027404673 0.10000509 -0.0062918267
000160 8b 68 52 3c 76 c8 ab bd 1d 40 7b bd d3 34 a3 b9
       0.012842308 -0.08387844 -0.06134044 -0.0003112914
000170 0c e3 1f bd b3 3c 17 bd 9b 71 1b bd d7 61 c6 3c
       -0.03903489 -0.03692312 -0.03795014 0.024216576
000180 0b 9f 13 3c 24 40 28 3d d2 b0 e5 bc 55 e3 4c bd
       0.009010087 0.041076794 -0.028038416 -0.05002149
000190 ad 30 b2 3d 34 64 bc bd 38 46 5f 3c fe 16 01 3d
       0.087006904 -0.091988 0.013627581 0.031516068
0001a0 da ff 2a 3d a4 29 8e 3d 30 49 56 3d 1b f4 82 3c
       0.041747905 0.06941536 0.05231589 0.01598554
0001b0 76 41 ba bb 79 0c 6f bd 54 06 ee 3d 9e d1 01 3e
       -0.005684073 -0.058361504 0.11622301 0.12677619
0001c0 e8 f6 fb bc fd 65 79 bd dc b3 39 3d 2b 70 09 3c
       -0.030757383 -0.06088828 0.045337543 0.008388559
0001d0 20 96 4f bd 0c c1 63 bd e9 cd 3d bd f3 6d ba 3b
       -0.05068028 -0.055604026 -0.04633895 0.0056893765
0001e0 02 f0 90 3d 72 3d f6 3d 20 2c 34 bd 77 53 45 bc
       0.07077028 0.120234385 -0.043987393 -0.012043825
0001f0 f7 c7 86 3c cc b3 1f bd 11 60 fa 3c 6a e0 bc bd
       0.016452773 -0.038989827 0.030563386 -0.09222491

fc2.weight f4 [64, 128]
000000 55 2a 84 3d 61 27 a2 bd 82 92 51 3e 6f fa 83 bd
       0.06453387 -0.07917667 0.20466045 -0.06444251
000010 eb 07 1e be c5 41 79 3e 82 b6 4c bd d3 b1 89 bd
       -0.15432708 0.24341495 -0.04997874 -0.067233704
000020 04 0f ce 3b 21 32 52 3e b3 3a 17 3d dc 60 01 3f
       0.006288411 0.20526935 0.036921214 0.5053842
000030 be 59 13 be 42 8e 89 3e a5 20 06 3f 94 c2 8b 3d
       -0.14389703 0.26866347 0.5239356 0.06824222
000040 28 2d f3 bc fd 02 a9 be 4a 0d 41 3e b0 a4 5e 3e
       -0.029684618 -0.33010092 0.18852726 0.21742511
000050 d2 34 80 3e 34 70 8a 3e e1 ac 0f be 40 a7 6c 3e
       0.250403 0.2703873 -0.14030792 0.23110676
000060 4a 08 fe 3e 16 05 cb 3e 2c 31 b6 3e a9 c2 d8 3b
       0.496157 0.39652318 0.3558439 0.006615002
000070 e6 4d 8d 3d a5 24 92 3e be 42 95 bd 05 4a 44 bc
       0.068996236 0.28543583 -0.07288121 -0.011980538
000080 dc 6c 80 3e 76 d9 cc bc ba 82 de 3c 03 dd e7 bd
       0.25083053 -0.025006037 0.027161945 -0.113214515
000090 bc fd 66 be 6a a1 9c be d4 74 66 be 5f fa da be
       -0.2255773 -0.305919 -0.22505504 -0.42769143
0000a0 6f 52 9f be b6 79 50 be 51 b0 a4 bc dd 3a 22 bd
       -0.3111758 -0.20358929 -0.020103605 -0.039606918
0000b0 a1 b4 4e be d9 c9 2f 3f df aa 90 3c af 70 4d be
       -0.20186092 0.6866737 0.017659603 -0.20062517
0000c0 fa ca b8 3e 9e 5d 10 3d 8c 88 80 3d 94 a7 c6 bd
       0.3609236 0.03524553 0.06276044 -0.09699932
0000d0 27 51 ba be 12 be 08 bd a0 9b 25 3e dd 44 49 3d
       -0.3639004 -0.03338439 0.16172647 0.04913794
0000e0 fc a8 9e 3e d1 9e ad be f2 40 10 3e 0a f4 a7 3d
       0.309883 -0.3391023 0.14087275 0.08200844
0000f0 60 01 47 3e cf cb 11 3f 36 53 34 3d d4 bf 86 be
       0.19434118 0.5695161 0.04402467 -0.26318228
000100 f9 c5 1c be 66 50 c7 bd 9b 53 98 3e a0 51 c1 bd
       -0.15309896 -0.09732132 0.29751286 -0.09439397
000110 99 6b 82 3d 97 75 36 be 24 1e bd 3e 04 df 0f be
       0.06368179 -0.17818294 0.36937058 -0.14049917
000120 72 f7 ca 3e ab 2e c0 3e 2d 0e 36 3e 63 b2 a5 be
       0.3964191 0.37535605 0.17778845 -0.3236266
000130 de 75 e2 3e a1 14 a1 36 cf 5b a2 3c 62 41 27 be
       0.4423055 4.8005754e-06 0.019819168 -0.16333535
000140 75 a6 4b 3f 77 80 80 3e 92 fc e3 bd 7b 6a 09 3d
       0.7955087 0.2509801 -0.11132158 0.033548813
000150 87 d7 77 be f7 1c 0c bc 08 56 b4 be 7a 66 07 3e
       -0.24203311 -0.008551828 -0.35221887 0.13222685
000160 47 1c 69 be 48 c9 37 3e ab c2 69 bb 26 41 e7 3d
       -0.22764693 0.17947876 -0.003566901 0.11291723
000170 fa 0b f5 3e ab 64 36 3e 09 9a f2 be eb db 0a be
       0.478607 0.1781184 -0.47383144 -0.13560455
000180 d6 67 18 3d 09 a0 2c 3e 43 1a 11 be e0 17 4e 3e
       0.0372084 0.16857924 -0.14170174 0.20126295
000190 c5 4d 12 3f 23 00 d0 3c 0a 59 d6 bd bb 7f 82 3c
       0.57149917 0.02539069 -0.104662016 0.015930047
0001a0 e9 4f 08 3f 7c 91 d2 be 38 50 82 3e f0 c3 10 3c
       0.53246933 -0.4112662 0.25451827 0.008835778
0001b0 7b f3 c6 bd 5d c6 28 be 81 77 06 bd d2 19 d1 3c
       -0.09714409 -0.1648192 -0.03282881 0.025525007
0001c0 df 8b 26 be ad f0 06 3f 1c 04 0d bd e9 b4 8b 3e
       -0.16264294 0.5271099 -0.034427747 0.2728646
0001d0 39 52 61 3d 9c 81 1d 3f f9 5f b2 3d 1e fc 1a bc
       0.055010054 0.61525893 0.087097116 -0.0094595235
0001e0 d3 1f 28 3e 6e c7 89 be f8 a7 1d 3e b2 57 53 3e
       0.1641839 -0.26909965 0.15396106 0.20638922
0001f0 5c bf 03 be 26 24 2f be da d7 08 be 0d b6 e6 3b
       -0.12865967 -0.17103633 -0.13363591 0.007040745
000200 d4 04 a7 bc a7 ff 47 3e f6 26 57 be 4a 80 ce 3d
       -0.020388044 0.19531117 -0.21010956 0.10083063
000210 a1 d4 27 3e 80 04 73 3e 1d 93 a3 3c 67 68 63 bd
       0.16389705 0.23732185 0.01996761 -0.055519488
000220 a4 ed 25 bd 8c 74 b6 bd e6 fb 3f 3b b9 3d ad bd
       -0.040509835 -0.08908948 0.002929443 -0.08459038
000230 a7 40 5a 3e 4f 64 2a 3e af 74 c2 3e 39 e8 09 3e
       0.21313725 0.16639827 0.37979648 0.13467492
000240 7d b0 4f bc 5b 4f 48 be 08 98 36 3e 42 9e 05 be
       -0.012676355 -0.19561522 0.17831433 -0.13048652
000250 b3 8b 1a 3a ec 69 8c 3e 33 c5 3b 3e 2d 21 2b 3e
       0.00058954506 0.27424562 0.18336944 0.16711874
000260 a1 0f 67 3e 94 06 df 3e 31 8d 83 bd e4 86 04 3e
       0.22564556 0.43559706 -0.064234145 0.12942082
000270 06 f0 74 be 69 30 ca bc f9 28 39 be d3 46 2c be
       -0.23919687 -0.024681287 -0.18082036 -0.16823892
000280 67 4d b8 bd 19 14 e0 3d 8e 84 81 be 5e a1 1e 3e
       -0.08999138 0.10941333 -0.25296444 0.15491244
000290 25 c6 de 3d cb a2 76 be d3 f1 e6 3d 67 11 b2 3e
       0.10877637 -0.24085538 0.11276593 0.34778902
0002a0 e6 9f 56 be 04 d6 89 be 3d c2 fe bd 4f 3c e1 3d
       -0.20959434 -0.26921093 -0.12439392 0.10997831
0002b0 3d a0 29 be b2 7c d3 3e f3 2a cc bd fb 6d 01 bf
       -0.16565032 0.41306072 -0.099691294 -0.5055844
0002c0 8a e5 99 3e dd ba 55 be 65 5e 87 bd 06 17 dd bd
       0.30057937 -0.20872064 -0.06609801 -0.10795407
0002d0 1d f8 08 bf 47 e3 e5 3c 31 32 f6 bd cf 2e aa 3d
       -0.5350359 0.028062476 -0.12021292 0.08309709
0002e0 c1 c9 10 be 89 5f d4 bd 97 fb a3 bd c7 d7 84 3e
       -0.14139463 -0.103697844 -0.08006971 0.25945875
0002f0 0b f7 51 3e 9e 69 29 3c a9 0e a9 ba ac ea 35 be
       0.20504396 0.0103401225 -0.0012898046 -0.17765301
000300 82 69 79 be c8 74 e8 3d 95 ca 84 be 85 f0 f8 bd
       -0.24356654 0.11350399 -0.25935808 -0.121552505
000310 4c bf 44 3e 1e 2f 3f 3e 81 03 90 3e bf c5 29 3e
       0.19213599 0.18670318 0.28127673 0.1657934
000320 d9 c0 66 3e cb 93 6f 3d aa ef fc 3d fa 26 73 be
       0.22534503 0.058490556 0.123504 -0.23745337
000330 75 e1 19 3e 9b a2 61 bd 87 9e 47 3e 9a 6e da bd
       0.15027411 -0.055086713 0.19494067 -0.10665627
000340 05 72 87 3e d6 d1 15 be 89 d7 61 3e fb 58 97 bd
       0.26454177 -0.14630827 0.22054876 -0.073900186
000350 64 61 be bd 1c 8a 84 bc 2e 00 18 3e 44 7f 09 3e
       -0.092959195 -0.016179137 0.14843819 0.13427454
000360 1b 59 92 bd 11 dc 68 3e 19 55 7b be cc 14 e3 3d
       -0.07145902 0.22740199 -0.24544181 0.11087951
000370 0e ec 4a 3e d6 52 15 be 70 89 c6 3e 79 fe a2 3d
       0.1981661 -0.1458238 0.38776731 0.07958693
000380 40 1f ed 3c d0 fc 39 3c 1f b5 b5 be c1 03 1f 3d
       0.028945565 0.011351779 -0.35489747 0.03882194
000390 87 96 5b bd c8 22 2a 3e ce 54 d2 be 83 5b 84 be
       -0.05361035 0.1661483 -0.41080326 -0.25851068
0003a0 9d 85 d2 bb 74 fc f0 bd 76 6c bc bc 63 06 cc be
       -0.0064246194 -0.117669016 -0.023000937 -0.39848623
0003b0 54 b8 27 3d dd 35 4f 3a af 36 62 3d a5 df 14 3d
       0.040947273 0.00079044496 0.05522793 0.036346097
0003c0 ce 05 97 be a0 3c 0c be 7a 7c a9 3c e5 f5 2d 3d
       -0.29496616 -0.13695002 0.020689238 0.04247083
0003d0 11 4c 02 bd f4 20 90 bd 91 96 b9 ba 65 dc 0b bd
       -0.031810824 -0.07037535 -0.0014159252 -0.03414573
0003e0 f1 91 1b be be e1 99 bd b6 e9 3a 3b 94 33 6a 3e
       -0.15192391 -0.0751376 0.002852065 0.22871238
0003f0 e0 0f af bd 1f c9 67 3e 78 49 11 be 5c f1 28 39
       -0.0854795 0.22635315 -0.14188182 0.00016111642

fc2.bias f4 [64]
000000 a0 34 33 3b 20 53 4b 3d 03 8a 92 bd 5d 8b cd 3b
       0.00273446 0.04963982 -0.0715523 0.006272717
000010 1a b6 0b be fc 3d bc 3b 0f a4 18 3d 9d 52 ab bd
       -0.13643685 0.005744694 0.037265833 -0.083653666
000020 12 4e b2 3c 96 ec 26 3d 2b 1e 98 bd 24 f3 ce bb
       0.021765742 0.04075297 -0.07427629 -0.0063156057
000030 f7 f1 8e bd 50 a9 87 3d a0 dd f8 bd 7b f8 38 3b
       -0.06979745 0.06624091 -0.121516466 0.0028224278
000040 9e f0 66 bd b4 cd 97 3d 79 65 4c 3c c4 80 dd 3c
       -0.056381814 0.07412282 0.012475365 0.02703894
000050 87 77 a7 3b 7b a6 bc bd c1 e7 4e bd 01 ba 90 3d
       0.0051106843 -0.09211441 -0.050513986 0.070667274
000060 bb 2d 44 3d 20 ae 3a ba 75 03 f2 3d 2c 30 25 3e
       0.047895174 -0.00071212836 0.118170656 0.16131657
000070 aa ce 91 3d f1 77 ca bc 9b 4e e7 bc 1c b3 0a be
       0.07119496 -0.024715396 -0.028235724 -0.13544887
000080 0b c6 74 bd 8d a5 a3 3d 10 da 4d bc 36 2e f1 39
       -0.05975918 0.07990561 -0.012564197 0.00046001532
000090 d6 04 8e 3b ed cd 61 3c 9a 74 1d 3e b3 12 24 bc
       0.0043340726 0.013782007 0.15376511 -0.010014224
0000a0 d5 1c 80 bd 34 0f 28 3b 8b 81 ca bd 20 d3 4b bd
       -0.06255499 0.0025643827 -0.098879896 -0.04976189
0000b0 fe dc a4 bc da d1 05 3e ae b9 fc bd ed b9 05 3d
       -0.020124909 0.13068333 -0.12340103 0.032648016
0000c0 e8 9b 3b bd b9 d3 20 3d 58 80 29 3e 43 5a 5f bc
       -0.04580298 0.039264414 0.16552866 -0.01363236
0000d0 c9 e7 01 3e ab 64 07 3d 63 30 93 3d f4 45 17 3d
       0.12686075 0.03305499 0.071869634 0.036931947
0000e0 9c 81 d9 bc b7 ee aa 3d 43 39 d9 bd 36 f4 02 bc
       -0.02655106 0.083463125 -0.10606625 -0.007992795
0000f0 2b 61 06 3d 44 d2 75 3e 79 f6 7c bc f9 85 9b 3d
       0.03280751 0.24005991 -0.015439623 0.07593913

policy_head.weight f4 [110, 64]
000000 09 a4 bf bb cb dc 3e be bb 99 eb 3e cd a6 c2 bd
       -0.005848412 -0.18638913 0.46015725 -0.09504471
000010 f5 fd 2d 3b 3c 54 f8 be 7f 55 10 be 91 43 31 3e
       0.0026549075 -0.48501766 -0.14095114 0.17310931
000020 15 8a 41 3f 27 44 ba be 8f c9 21 be 82 c6 c2 3d
       0.7560132 -0.3638012 -0.15799545 0.095105186
000030 9f 67 b9 bd fe 99 2e 3d 8e f7 64 3d e8 23 ce bd
       -0.09052967 0.042627327 0.05590015 -0.10065442
000040 51 c1 c3 bc 32 4a a7 bc 9c 8b 94 3e bc 42 1d bf
       -0.023895891 -0.020421121 0.29012764 -0.61429954
000050 5b f5 cd 3e 6e b1 09 bd 2b 11 81 3e ce f1 01 be
       0.40226254 -0.033616476 0.2520841 -0.12689897
000060 b0 51 9f bd 5b f2 97 be a4 a9 f9 3d d8 52 90 3e
       -0.077792525 -0.2967709 0.121905595 0.28188205
000070 d5 43 8c be 84 9c 0b 3d 15 0d 83 3e 93 f1 0b 3f
       -0.27395502 0.03408481 0.25595918 0.5466549
000080 92 d6 3c 3f e9 ed cf 3e 5f 19 25 3d 26 7b cf 3f
       0.7376491 0.406112 0.0403074 1.6209457
000090 40 30 8c 3e d6 f9 95 3d 81 01 2a be b0 ee 00 3f
       0.27380562 0.07323043 -0.16602136 0.5036421
0000a0 68 f8 48 3e 75 8f ff bd 1f a0 fd bb e5 5c 18 bf
       0.1962601 -0.12478534 -0.007740035 -0.59516746
0000b0 1f a0 d4 be 3a 0e f6 3e c2 93 62 3e 17 e0 3a be
       -0.41528413 0.4805773 0.22126678 -0.18249546
0000c0 cc b4 0d 3e b1 a3 1b 3f 9e 59 01 3e 93 40 1e 3e
       0.138385 0.6079665 0.12631842 0.1545432
0000d0 af 3f 0b 3c 7f 64 91 be da 16 31 be 04 de 4b 3f
       0.00849907 -0.28396985 -0.17293873 0.79635644
0000e0 5d f4 56 3d 1e ff 03 bf 68 c0 75 3e 31 a0 1e 3f
       0.052479137 -0.5156115 0.23999178 0.6196318
0000f0 ff b7 42 be 69 80 e6 3d 51 a9 74 3e 53 3c d3 3d
       -0.19015501 0.11254961 0.23892714 0.1031424
000100 fc 2d c8 3e 3c d9 a2 bd 6e 45 a5 3e 08 52 65 be
       0.39097583 -0.079515904 0.32279533 -0.22394574
000110 92 4f b9 bd 15 b0 6f bf 05 71 07 3e 3e 8e 90 3e
       -0.0904838 -0.93628055 0.13226707 0.28233522
000120 2c 0a 20 3f ab 4d 55 bf 03 f5 e1 bb 6e e8 b9 3d
       0.6251552 -0.83321637 -0.0068956628 0.090775356
000130 40 9b 08 3d 15 b9 09 bd cb 59 48 bd 3c 0d b5 be
       0.033351183 -0.033623774 -0.04891376 -0.3536166
000140 6f c8 a5 3d d2 e0 0e bf d6 32 95 3e 6d b0 2c bd
       0.0809487 -0.558118 0.29140347 -0.04216044
000150 2d fe 65 3e 23 c7 6e 3c 31 54 8d 3e f1 a2 b3 be
       0.22460242 0.014573845 0.27603295 -0.35085252
000160 d4 48 a5 3c f4 17 b2 3c a2 d4 b1 3e 1c 30 8c 3e
       0.020176329 0.021739937 0.34732538 0.27380455
000170 62 41 2c be 87 28 f8 3d 2b 39 2b bd 55 b2 80 3c
       -0.16821817 0.12117105 -0.041802566 0.015710035
000180 1c 3a ef 3e 67 d3 88 3e 7e 8e 89 3e 1f 70 5e 3f
       0.4672402 0.26723787 0.26866525 0.86889833
000190 ad 57 87 3e 3a 00 93 bd 61 80 43 be 08 8f 33 be
       0.2643408 -0.071777776 -0.19091941 -0.17535031
0001a0 67 c1 84 3e 25 8f f7 bd 72 52 5d 3c c8 41 b2 be
       0.25928804 -0.120878495 0.013508426 -0.34815812
0001b0 d0 ea 25 bf bd 9f e5 3e 17 dd b7 3d ed 18 6a 3e
       -0.6481142 0.44848433 0.089777164 0.22861071
0001c0 98 ea 10 3e 5c 8b 4b 3d 4f ab da 3e 09 35 66 3e
       0.1415199 0.04969345 0.42708823 0.22481169
0001d0 7d 56 89 be 01 4d 90 be b2 5d d3 be 2b fe 94 3e
       -0.26823798 -0.2818375 -0.4128242 0.29100165
0001e0 2f 93 0e bd e0 af 44 3d 17 2b 5e 3e 9a 3d d4 3e
       -0.034808334 0.04801929 0.21696125 0.41453248
0001f0 13 2a ff bd fa 0d 90 3d 11 d6 cd 3e 36 d2 26 3d
       -0.12459197 0.07033916 0.40202382 0.040727817
000200 9c a7 86 3e 29 f6 a8 3e dd e3 e8 3e dc b7 0f bd
       0.2629975 0.33000305 0.45486346 -0.03508745
000210 3f 74 d8 3b 56 c0 02 3e 6f 00 3d 3e 5f 33 d5 3e
       0.0066056545 0.12768683 0.18457197 0.41640756
000220 27 6c 0b bc cd e5 36 ba ba 78 65 3e fc bf bd bd
       -0.008509672 -0.0006976992 0.22409335 -0.09265134
000230 3b 36 20 3d 3f 6e e8 3d 7a 03 b8 3e 50 a7 af 3c
       0.03911422 0.11349153 0.35940152 0.021442086
000240 8b b3 9d 3e 2d d1 59 be ca 41 45 be c8 9b 58 3e
       0.30801043 -0.212712 -0.19263378 0.21153176
000250 4f 90 5f 3e 32 76 0f bd eb f0 9a 3e b2 96 15 be
       0.21832393 -0.03502483 0.3026193 -0.14608267
000260 1f a1 80 3e ff 8a 23 3e 54 ea 90 be b3 84 c1 be
       0.25122926 0.15970992 -0.28303778 -0.37796554
000270 b5 90 0f be 14 b9 c5 3d 0f 91 f9 bd 43 96 42 bf
       -0.14020045 0.096544415 -0.12185871 -0.7601053
000280 6a f1 20 bf 60 4b a9 bd 28 10 ed be 56 8a 99 be
       -0.6286837 -0.0826633 -0.4630139 -0.29988354
000290 59 d1 3b 3e a3 1c 78 3e 05 27 f4 be 77 f1 21 be
       0.18341579 0.24229674 -0.4768602 -0.15814768
0002a0 e9 60 ab 3e 68 54 46 bd ea 81 b6 3e 56 2c 32 3e
       0.33472374 -0.04842034 0.35645992 0.17399725
0002b0 a3 58 7f 3b 7f a5 9f 3e 21 22 50 3e 6f 11 b7 be
       0.0038962744 0.3118095 0.20325519 -0.35755488
0002c0 7a 65 8e 3e 57 ba a6 be 77 a8 f0 be 85 ee ef 3c
       0.27811795 -0.3256404 -0.47003528 0.02928854
0002d0 0c 23 66 bd 30 2b cd 3d 92 22 87 be 51 a6 c3 be
       -0.056185767 0.10018003 -0.26393563 -0.38212827
0002e0 2d 00 8c bd f8 43 ae 3d 94 75 e8 3e 75 4f e3 3d
       -0.06835971 0.08509058 0.45402205 0.110991396
0002f0 85 f0 63 3e 5b b9 a1 be b7 fa b4 3e 10 05 29 be
       0.2225972 -0.31586727 0.3534753 -0.16505837
000300 b6 49 3a 3e 86 eb 5e bd 97 dc a3 3e 73 94 6d 3e
       0.18192181 -0.05442383 0.32004234 0.2320116
000310 a0 d6 b4 3e 28 db 01 3e f8 9f 69 3d 46 5c 97 3e
       0.35319996 0.12681258 0.057037324 0.29562587
000320 e8 e9 d5 be ce 8f 05 bd 1f 35 ad 3e 1c 8e 50 bd
       -0.4178002 -0.032607846 0.3382959 -0.050916776
000330 16 94 20 bd b6 f2 97 bd 25 6c 72 3e a0 09 8e 3e
       -0.039203726 -0.0741934 0.23674066 0.27741718
000340 b4 01 4b 3e 6e 35 ab 3e 19 4c 9d 3e 4a 85 03 be
       0.19824868 0.334392 0.3072212 -0.12843814
000350 66 ff 83 3e ed f9 d5 bc 12 a7 24 3e cc ca f3 be
       0.2578079 -0.02612015 0.16079357 -0.4761566
000360 49 48 79 3e a6 e5 61 3d fd f3 60 bf 32 4e de bd
       0.24343981 0.05515065 -0.87872297 -0.10854758
000370 17 19 6c 3e e5 c2 1d 3d 4a 67 c3 bd 41 37 b0 3e
       0.23056446 0.038515944 -0.09541185 0.34417155
000380 dd f4 89 3d 01 a1 15 be c2 5f a2 3e e7 f2 bb 3b
       0.06736157 -0.146122 0.31713682 0.0057357433
000390 a0 98 19 3e ad d6 56 3d e8 c8 e8 be 7c 44 e3 be
       0.14999628 0.052450825 -0.4546578 -0.44388187
0003a0 ac 2b 32 3e 21 5d 35 bc b8 42 de 3d 50 c0 3c bd
       0.17399472 -0.011069567 0.10852569 -0.04608184
0003b0 ff e7 18 3e 67 31 0f bf 12 d6 91 3e 9d 7a b5 bd
       0.1493225 -0.55934757 0.28483635 -0.08861277
0003c0 c3 71 8a 3e ff ca 1a bf 8d 00 1c bf 28 42 16 3e
       0.27039918 -0.60466 -0.6093834 0.14673674
0003d0 51 4d f6 be 77 66 bb 3d bf 4d b9 3e eb a3 93 be
       -0.48105863 0.09150403 0.36192128 -0.28835997
0003e0 4a cb ad 3d 69 a2 68 3e 1b 87 99 3e 91 78 2d 3e
       0.0848604 0.22718205 0.2998589 0.16940524
0003f0 df 10 06 3e 94 4c 41 bf 71 89 2f be b6 15 06 bf
       0.13092373 -0.75507474 -0.17142273 -0.5237688

policy_head.bias f4 [110]
000000 01 80 d5 be 15 bb 4c bd c2 b4 8b bd c9 d0 d9 3d
       -0.41699222 -0.049983103 -0.06821586 0.10635526
000010 0e 8a d6 be 7a 0b e1 be c3 21 be 3d 24 f6 af 3d
       -0.41902202 -0.43954068 0.09283783 0.085918695
000020 00 c7 0c 3e ec fb 93 bc cc aa c1 3a c1 70 9d 3a
       0.13747787 -0.018064462 0.0014775633 0.0012011753
000030 e5 f2 18 3e d0 22 6a 3d f0 df 72 3e 2e 9a 27 3e
       0.14936407 0.057162106 0.23718238 0.16367409
000040 c6 63 fa 3d a7 e1 2b 3e 80 41 82 3e a0 9b 85 3e
       0.122260615 0.16785298 0.25440598 0.26095295
000050 74 92 5a 3d 62 38 20 bc f2 44 06 bc d7 8f 54 3d
       0.053362325 -0.009779068 -0.008195149 0.05189499
000060 db a4 f1 3c 04 7e 79 3e 7c 1a 59 3e 44 d3 6c 3d
       0.029497555 0.24364477 0.21201509 0.057818666
000070 cf 31 f0 3d 47 b1 22 bc 34 20 12 3d 31 8d d4 3c
       0.1172825 -0.0099299615 0.035675243 0.025946232
000080 5c 65 03 3d 4b c2 e4 3d 11 d1 80 3c 81 96 7a 3e
       0.032079086 0.11169871 0.01572469 0.24471475
000090 4a a7 67 3d 9f db 02 bd 76 e2 d7 3d 58 c0 1d 3e
       0.056556024 -0.03194773 0.10541241 0.15405405
0000a0 f6 33 9e bc f8 4f 4f 3e 1e 2e 08 3e 1e 83 96 3d
       -0.019311886 0.2024535 0.13298842 0.07349227
0000b0 6b 2b 98 3d a3 52 be 3c 9c 0b 61 3e f9 18 fe 3d
       0.07430156 0.023232764 0.21977085 0.12407107
0000c0 96 c5 ac 3d 8b a5 48 3e 42 30 80 bd 39 ce 06 3e
       0.08436124 0.195944 -0.062592044 0.13164605
0000d0 34 5b 2c 3e 67 96 82 3d a4 3f d3 3d de 0d cc 3d
       0.16831666 0.06376343 0.10314873 0.099635825
0000e0 9f 6d 67 3e 13 3c 47 3e 0f 2b b5 be d0 8b d0 be
       0.22600411 0.1945651 -0.35384414 -0.40731668
0000f0 cc b8 ea be dd a0 d4 be 8d 10 be be d0 e0 a6 be
       -0.45844114 -0.4152898 -0.37122002 -0.32593393
000100 0f c9 b4 be 04 87 ce be 70 a8 9a be 42 64 8f be
       -0.35309646 -0.40337384 -0.30206633 -0.28006178
000110 e2 2e b4 be 94 e5 ae be 2b eb 92 be 9d 43 ef be
       -0.3519202 -0.3415953 -0.28695044 -0.46731272
000120 7a a4 a2 be 1b 90 de be c6 e0 d9 be 55 44 d5 be
       -0.3176611 -0.4346932 -0.425543 -0.41653696
000130 90 22 07 bf df c4 ad be d4 ea fd be fd ad bd be
       -0.52787113 -0.33939263 -0.49593222 -0.37046805
000140 04 86 fa be 53 fc ab be 0e cf f6 be bc 4e a4 be
       -0.4893037 -0.33590946 -0.48204845 -0.3209132
000150 4f 7a 02 bf 1b 89 ab be b2 f2 b5 be f5 ee f4 be
       -0.5096788 -0.3350304 -0.35536724 -0.4783856
000160 1d d3 d1 be 8a 79 cc be 99 fd f0 be 09 9d f1 be
       -0.4098138 -0.39936477 -0.4706848 -0.4719012
000170 0a 32 d0 be 33 38 b8 be be 19 fa be 96 3e b2 be
       -0.40663177 -0.35980377 -0.48847765 -0.34813374
000180 88 b3 c7 be 3b a4 dd be f9 84 00 bf 64 28 b6 be
       -0.3900416 -0.4328936 -0.502029 -0.3557769
000190 b8 c4 9c be 9e af f0 be f9 49 bb be 85 96 c5 be
       -0.30618834 -0.47008985 -0.36579874 -0.385914
0001a0 f6 12 05 bf 2c 64 05 bf 65 0b e8 be 79 ba ef be
       -0.5198206 -0.52105975 -0.45321193 -0.46821955
0001b0 14 01 03 bf 35 1a 91 be
       -0.5117352 -0.28340307

value_head.weight f4 [1, 64]
000000 5b 22 ab bb 4d e0 8a bb b7 a6 b4 bb 24 d3 f0 3c
       -0.0052226014 -0.0042381645 -0.005513038 0.029397555
000010 23 e9 a1 3b 4a c6 4e 3d 09 d3 bc 3b e6 3d ce 3b
       0.004941122 0.050482072 0.005762462 0.006294
000020 10 f0 3e be f4 f1 07 3d c7 e5 0f ba 47 cc 4f bd
       -0.18646264 0.03318973 -0.00054892566 -0.050731923
000030 4e 84 d4 3d 82 b3 ae bd ce 1a f7 ba 6a ad f2 3c
       0.103767976 -0.08530332 -0.0018852593 0.029623706
000040 1a 77 a2 bc e5 54 af 3c 04 71 f8 bc 58 34 41 ba
       -0.019832183 0.021402786 -0.030327328 -0.00073701655
000050 cc 20 38 3a 18 6d af bd ca d9 c9 bb ff e9 51 3c
       0.000702393 -0.0856573 -0.0061599957 0.012812137
000060 79 82 ac 3c 2f 0c 4d bc 99 04 d0 bc 2e 81 00 bd
       0.021058308 -0.012515112 -0.025392817 -0.031373195
000070 d4 82 a1 3b db 24 a0 bd ef 85 2f be e4 0f 9c 3d
       0.004928926 -0.078195296 -0.17140935 0.076202184
000080 38 a4 c5 bd 5a 86 99 be bf 7c ba 3c bb 42 7a be
       -0.09650463 -0.29985315 0.022764562 -0.24439518
000090 83 95 c4 3c c0 4c ae b9 96 fe 4e 3d 92 64 d0 3b
       0.023997074 -0.0003324505 0.05053576 0.006359645
0000a0 b0 b2 6d bc 0b 2e d0 bd 6a eb 0c bc 84 cf ae bb
       -0.014507934 -0.10165032 -0.008601049 -0.0053347964
0000b0 94 be 9e 3c c4 5c b6 bc 65 22 8c 3b 7e 74 a9 3a
       0.019377984 -0.022261031 0.004276561 0.0012928394
0000c0 fe e0 51 3b 8e cd 0f 3b a3 39 02 bd 78 3a 5f bb
       0.0032024975 0.0021942589 -0.031793248 -0.003406195
0000d0 60 7b 6b bb 75 80 db 3c 73 f6 0d 3d d5 a0 8c be
       -0.0035931692 0.026794652 0.03465886 -0.27466455
0000e0 c0 2c 06 bc 0c 42 c3 bb 0e 04 b0 3b 59 d8 bb bb
       -0.00818938 -0.005958801 0.005371577 -0.0057325778
0000f0 7a 71 87 3c 74 14 37 3c 3f 15 42 3b 83 85 18 3b
       0.016533602 0.01117431 0.0029614714 0.0023272939

exp_avg f4 [128, 260]
000000 3b 87 95 3a 4d be 7b b9 c1 8b a1 39 51 6d be 3a
       0.00114081 -0.00024008118 0.00030812438 0.0014528428
000010 db 47 9e 39 c7 13 19 39 44 5c a8 b9 4d 57 ad b9
       0.00030189645 0.00014598585 -0.000321122 -0.00033062175
000020 44 d6 31 3a bc 26 b8 39 dd 6f 26 b7 42 06 3c 3a
       0.0006783942 0.00035124074 -9.920416e-06 0.00071725633
000030 a7 e7 b2 b9 57 f3 cf b8 eb ec 56 3a ee e7 4a 39
       -0.000341234 -9.915855e-05 0.00081987557 0.00019350622
000040 23 4b f3 b7 c6 8f 42 b9 b3 b2 b1 39 91 3a ae 39
       -2.9002846e-05 -0.00018554842 0.00033893212 0.00033231502
000050 7d 9b 17 38 af 07 86 39 7c 4d 20 3a 1f 48 d0 b9
       3.6146015e-05 0.00025564196 0.00061150617 -0.00039726586
000060 c8 4b 5a 36 03 36 99 3a dd 51 3a b9 8c 43 67 39
       3.2528642e-06 0.001168907 -0.00017768839 0.0002205504
000070 f6 b0 d7 39 14 a9 e6 38 0d e3 7a 39 5f a2 10 39
       0.00041139842 0.00010998748 0.00023926441 0.00013793398
000080 50 d1 c9 b8 17 78 4d 37 cd 9e 0b 3a 8b 69 a5 39
       -9.6234144e-05 1.2246913e-05 0.00053260924 0.00031549888
000090 f9 83 1a b8 93 8c b5 39 f5 ba ae 3a b0 cb 49 3a
       -3.683937e-05 0.00034627746 0.0013330864 0.00076978933
0000a0 8b 6c a4 3a 2f 2b 86 39 16 75 5f 3a 19 71 86 39
       0.0012544555 0.00025590646 0.0008524222 0.00025642736
0000b0 d9 10 08 39 42 52 04 b7 93 58 86 38 7b 63 c2 36
       0.00012976247 -7.886965e-06 6.406116e-05 5.7932316e-06
0000c0 fa 21 5c 3a 1a fe 36 39 64 a9 a5 38 6b a4 55 39
       0.0008397397 0.00017451533 7.8993646e-05 0.00020374513
0000d0 04 00 00 00 4f d5 34 19 04 00 00 00 be 22 87 af
       6e-45 9.348859e-24 6e-45 -2.4581043e-10
0000e0 4e 32 0e b8 24 63 4e b8 31 83 59 37 f7 fe fb b7
       -3.3902288e-05 -4.920656e-05 1.2964753e-05 -3.0040259e-05
0000f0 31 4c 34 38 46 2e fa b7 54 28 3f 38 7a cc 1d 38
       4.2986303e-05 -2.982387e-05 4.5575507e-05 3.762215e-05
000100 b7 0c cb 36 8b 33 33 2f 04 00 00 00 3e c6 62 ad
       6.0513516e-06 1.6298267e-10 6e-45 -1.2890631e-11
000110 28 f0 37 b9 9d e2 c6 35 a6 65 62 36 14 d9 8f 38
       -0.00017541705 1.4818103e-06 3.3735791e-06 6.859205e-05
000120 dc e1 1a 39 d3 0f 83 b6 31 2d 5b b9 c0 22 d9 36
       0.00014770724 -3.9059464e-06 -0.00020902303 6.4711494e-06
000130 be 68 2c 39 e8 9b 54 39 04 00 00 80 04 00 00 00
       0.00016442218 0.00020275975 -6e-45 6e-45
000140 50 39 c5 2e ae ad 16 31 ae a5 d9 b8 b4 21 8f b8
       8.9687036e-11 2.1926598e-09 -0.000103782266 -6.825049e-05
000150 65 ff 89 38 01 28 63 b7 79 b2 24 38 f4 d3 43 38
       6.58024e-05 -1.35395685e-05 3.9266863e-05 4.668902e-05
000160 d4 fb c9 37 46 be d7 38 b9 85 8f 38 a2 59 8c 26
       2.4078334e-05 0.0001028744 6.843679e-05 9.738746e-16
000170 04 00 00 80 04 00 00 80 ef e6 fc 36 0a f2 66 b8
       -6e-45 -6e-45 7.5370695e-06 -5.506169e-05
000180 31 9c 05 39 32 1a 56 b8 d6 eb f6 37 d7 b2 39 b9
       0.00012742054 -5.1045972e-05 2.9435305e-05 -0.00017709598
000190 5c ef 70 3a 09 30 3d 35 99 10 60 b7 57 38 2a 37
       0.0009190941 7.0477887e-07 -1.3355305e-05 1.0145907e-05
0001a0 26 18 79 23 4d 9b 02 00 e7 ce b9 1f 38 cf e0 36
       1.3503431e-17 2.39382e-40 7.869284e-20 6.6998437e-06
0001b0 3a 8a 10 b9 f3 e6 95 39 1a d9 c1 b8 de 09 8e 3a
       -0.00013784404 0.00028591565 -9.2433955e-05 0.0010836681
0001c0 e8 dc b5 38 49 c6 72 b9 32 46 6c b9 36 3e ba 39
       8.6718996e-05 -0.00023152785 -0.00022532864 0.00035523035
0001d0 cc b5 e3 39 39 d0 2a 26 04 00 00 00 52 fc 23 39
       0.00043432263 5.926279e-16 6e-45 0.00015638888
0001e0 ac 05 24 38 20 bf 82 38 2e d5 77 b9 3b 6a c1 3a
       3.910593e-05 6.234483e-05 -0.00023635171 0.0014756391
0001f0 02 08 8a 3a 89 0e ed 38 91 ef c7 3a 36 74 b9 39
       0.0010530951 0.00011303748 0.0015253891 0.00035372534
000200 f3 7a cf 37 f4 d7 98 b9 04 00 00 80 0d 00 00 80
       2.4733576e-05 -0.00029152597 -6e-45 -1.8e-44
000210 d1 d9 12 b0 b1 30 48 33 2e 41 f8 36 38 c3 4d 39
       -5.3424026e-10 4.6610413e-08 7.398564e-06 0.00019623048
000220 39 1f 86 3a fd ac 90 39 58 02 71 3a 72 a5 ba 39
       0.0010232694 0.00027594707 0.00091937697 0.0003559995
000230 fd 66 05 3a 52 a5 a0 3a f1 66 40 38 04 00 00 80
       0.0005088894 0.00122563 4.587224e-05 -6e-45
000240 04 00 00 80 20 d8 71 a8 d9 9e 8a b2 85 b7 a7 39
       -6e-45 -1.3425052e-14 -1.613755e-08 0.00031989455
000250 2f 4e 4b 3a 7a 54 b9 b4 2c 7a 75 3a 4e 1c 0e 38
       0.0007755486 -3.45204e-07 0.00093642133 3.38818e-05
000260 bc 0b 88 b7 e9 42 b9 3a 6c 47 3e 3a df 8d 96 39
       -1.6217928e-05 0.0014134321 0.00072585675 0.00028715932
000270 50 c0 02 a6 04 00 00 00 04 00 00 80 e0 72 04 34
       -4.536344e-16 6e-45 -6e-45 1.2335249e-07
000280 b7 d5 6e 3a 99 3e 16 b9 7a b3 76 38 82 04 57 b9
       0.00091108255 -0.00014328434 5.881812e-05 -0.00020505677
000290 6b 34 3d 39 e5 7e 5b b8 8e b0 13 39 cd b2 48 37
       0.00018043972 -5.233185e-05 0.00014084784 1.1962559e-05
0002a0 3c 7f 67 33 53 76 31 34 04 00 00 00 85 e1 32 35
       5.3899598e-08 1.6527456e-07 6e-45 6.663834e-07
0002b0 a8 17 d6 39 8a 6b bd b8 96 dd 86 39 60 70 10 b9
       0.00040834886 -9.032253e-05 0.00025723566 -0.00013774773
0002c0 28 c0 4b 39 7c ed ae b7 72 b6 35 37 2b 03 a5 9f
       0.00019431172 -2.0853004e-05 1.083092e-05 -6.988546e-20
0002d0 e7 ae c1 38 ee 5d e6 b6 04 00 00 80 04 00 00 80
       9.235535e-05 -6.865469e-06 -6e-45 -6e-45
0002e0 04 00 00 00 72 3b d0 2b 40 44 06 39 6b ae 7f 39
       6e-45 1.4795788e-12 0.00012804661 0.00024383671
0002f0 32 d4 f9 38 5a 56 ea b8 9d 0b ec 38 57 3a 77 b7
       0.0001191277 -0.00011174074 0.0001125552 -1.4735931e-05
000300 86 01 0f b8 6c 01 60 b7 bb 11 a7 b8 04 00 00 00
       -3.4095276e-05 -1.33517715e-05 -7.966483e-05 6e-45
000310 5f 03 00 00 00 73 f8 b2 03 a9 a4 13 79 ce 4b 39
       1.21e-42 -2.8923296e-08 4.156608e-27 0.00019436506
000320 b8 66 14 38 6b 89 83 38 3a 54 e1 37 18 32 2c 38
       3.5381614e-05 6.272163e-05 2.6861311e-05 4.105465e-05
000330 7b 11 8c b8 d4 03 52 b6 a9 45 3d 37 b3 eb 9e 37
       -6.678976e-05 -3.1294667e-06 1.1281497e-05 1.8944824e-05
000340 63 d2 86 39 9e b3 d6 3a 24 c4 8d 3a e9 66 81 b8
       0.00025715222 0.0016380434 0.0010815901 -6.170368e-05
000350 72 07 bb 39 80 d9 97 3a d4 07 e4 3a ad b0 66 3a
       0.00035672967 0.0011585206 0.0017397352 0.00088001305
000360 d3 a7 d6 39 83 4f b2 3a ec a1 bd 3a 12 8f 90 39
       0.000409423 0.0013604019 0.0014467812 0.00027572416
000370 6f 3b aa 3a 7d 35 c4 3a c0 8a 17 3a f1 48 89 3a
       0.0012987683 0.0014969554 0.0005780868 0.0010474009
000380 71 68 95 3a 86 06 d3 3a 9c 7a 84 3a 43 b2 b2 b9
       0.0011398924 0.0016099967 0.0010107341 -0.0003408362
000390 ad 15 45 b8 c2 27 8a 3a b5 b8 12 ba ab 17 bc 3a
       -4.6988647e-05 0.0010540413 -0.00055969815 0.0014350315
0003a0 be e8 91 3a be 3a aa 39 0f 86 ce 3a 14 fa 97 3a
       0.0011131985 0.00032468693 0.0015756505 0.0011594915
0003b0 61 4f 81 3a 79 f1 a7 3a 2d 7a 92 3a 1d 0e 69 3a
       0.0009865576 0.0012813053 0.0011175327 0.00088903477
0003c0 a7 92 90 39 5c e1 a1 3a 58 d8 57 b9 26 46 34 3a
       0.00027575085 0.0012350488 -0.00020584592 0.0006876908
0003d0 27 59 75 3a 14 22 8a b9 12 9a fd 37 fc ab 24 3a
       0.0009359293 -0.000263468 3.0231695e-05 0.0006281731
0003e0 49 7a 16 39 fc b1 95 3a fb 16 0d 3a dd de 32 3a
       0.0001435067 0.0011420841 0.00053821475 0.00068233703
0003f0 29 e8 ac 39 48 c8 b6 3a f1 3f aa 39 56 dd c3 3a
       0.0003297937 0.0013945187 0.00032472567 0.0014943283

exp_avg_sq f4 [128, 260]
000000 01 de 18 37 8f 5c 1d 37 fe 04 25 37 b3 14 32 37
       9.111595e-06 9.37948e-06 9.835929e-06 1.0614446e-05
000010 26 2d ca 35 8d 22 5d 36 7f e8 aa 36 1e 6d 63 36
       1.5063313e-06 3.2951677e-06 5.093461e-06 3.388915e-06
000020 4e e5 ab 36 9a 60 b6 36 3c c4 d8 36 e7 bb 18 37
       5.1228917e-06 5.4352686e-06 6.4601463e-06 9.103655e-06
000030 5f 4c a6 36 28 11 22 37 53 ff 24 37 73 be 16 37
       4.9560763e-06 9.659947e-06 9.834609e-06 8.985039e-06
000040 7e 9a 69 36 54 7f 5d 36 09 0a c8 36 9f f0 cf 36
       3.4809632e-06 3.300568e-06 5.9616327e-06 6.1970927e-06
000050 77 44 7c 36 4a f5 db 36 d0 5d b4 36 c1 ad 06 37
       3.7590778e-06 6.555264e-06 5.3753392e-06 8.027478e-06
000060 42 ce 66 36 cd 2e 2a 37 41 77 14 37 e7 95 24 37
       3.4392729e-06 1.0143686e-05 8.849253e-06 9.810064e-06
000070 ae e1 2c 37 62 f8 05 37 8e ce 41 36 82 5d cb 36
       1.0304544e-05 7.985249e-06 2.8879472e-06 6.060757e-06
000080 d6 47 c1 36 e8 9d 77 36 47 7f 4f 36 58 5d 61 36
       5.760211e-06 3.6897782e-06 3.0919489e-06 3.3581946e-06
000090 1b ec d9 36 cd 44 95 36 f6 e8 ac 36 55 33 12 37
       6.4945903e-06 4.4485555e-06 5.1531197e-06 8.71423e-06
0000a0 69 47 2b 37 89 fc 20 37 c2 09 28 37 2c c1 f8 36
       1.0209021e-05 9.595541e-06 1.0015852e-05 7.413464e-06
0000b0 92 99 01 36 17 ba 49 36 52 72 cc 36 d0 09 1e 36
       1.9311888e-06 3.0059653e-06 6.0929824e-06 2.3549546e-06
0000c0 69 c5 9c 36 51 c3 37 36 67 34 b5 36 d1 9a 3c 36
       4.672144e-06 2.7382814e-06 5.400321e-06 2.8104298e-06
0000d0 e8 9e 8f 2e f5 f3 d1 2e f0 fb 59 2e 34 68 41 33
       6.5311145e-11 9.547555e-11 4.9563853e-11 4.5031086e-08
0000e0 97 16 70 34 53 46 05 35 d2 c0 0e 35 b2 44 75 35
       2.235996e-07 4.9648696e-07 5.317971e-07 9.1369577e-07
0000f0 cc 38 23 35 09 93 49 35 ad f4 45 35 e9 45 2b 35
       6.080488e-07 7.50923e-07 7.374427e-07 6.3804197e-07
000100 88 a7 97 35 2b 05 50 30 0b 45 29 2d 5c 14 c9 31
       1.1299135e-06 7.5677303e-10 9.621868e-12 5.8521845e-09
000110 e7 b3 eb 33 b0 07 03 35 9b fe bf 34 d5 09 61 35
       1.0975764e-07 4.881249e-07 3.5761772e-07 8.383334e-07
000120 36 1d 88 35 11 f8 1a 35 31 e4 2a 35 df 48 8c 35
       1.0141291e-06 5.7730455e-07 6.3662e-07 1.0452021e-06
000130 e6 ab 60 35 41 85 2d 35 7d 1b 45 2a e8 f4 39 2f
       8.369665e-07 6.464143e-07 1.7506652e-13 1.691266e-10
000140 35 8a e1 30 29 3d 5f 33 c6 4a e7 34 f2 94 ce 34
       1.6410185e-09 5.197686e-08 4.3081508e-07 3.8478862e-07
000150 c4 7c 44 35 82 82 1f 35 51 9c 40 35 7a f5 ba 35
       7.319725e-07 5.942203e-07 7.1753044e-07 1.3929523e-06
000160 cd f4 7b 35 74 54 8b 35 21 9f a3 35 3a db 6c 2f
       9.386102e-07 1.0380886e-06 1.2190759e-06 2.154196e-10
000170 68 ea 84 2b b4 c1 06 32 e2 99 e4 32 96 06 bf 34
       9.444225e-13 7.8438696e-09 2.6612671e-08 3.5581314e-07
000180 fb 1e 27 35 16 2a 2b 35 78 58 00 35 92 d6 49 35
       6.225743e-07 6.376371e-07 4.7812455e-07 7.5190576e-07
000190 02 89 86 35 d0 7e 5f 35 43 3d 7f 35 8d 70 50 35
       1.0023653e-06 8.325851e-07 9.508405e-07 7.764982e-07
0001a0 0b e5 18 32 7e e6 58 32 de 38 1d 33 5e b0 fb 34
       8.899643e-09 1.2625263e-08 3.660613e-08 4.6880717e-07
0001b0 60 f6 b4 36 b2 2f b0 36 cb 0d ba 36 5c ae ec 36
       5.3931e-06 5.250761e-06 5.5448377e-06 7.053646e-06
0001c0 cd 22 e6 36 29 c0 dd 36 30 a7 03 37 17 2a c7 36
       6.8585855e-06 6.6086836e-06 7.847135e-06 5.935562e-06
0001d0 7d 36 22 37 66 c5 18 33 35 3b 23 2f 91 16 78 35
       9.668639e-06 3.556979e-08 1.4845798e-10 9.242004e-07
0001e0 7a d6 1c 36 1c dd 79 36 40 f9 a1 36 7d 95 c1 36
       2.3370653e-06 3.7232594e-06 4.8271904e-06 5.769251e-06
0001f0 90 50 e4 36 db 26 d9 36 e5 ec 11 37 69 b4 9e 36
       6.804308e-06 6.4716273e-06 8.69783e-06 4.7297694e-06
000200 d1 a2 3d 37 98 15 bf 36 4c b8 54 30 c9 52 c0 32
       1.13031865e-05 5.6947574e-06 7.738705e-10 2.2389388e-08
000210 32 45 97 32 ca b0 be 34 1c e8 ad 36 10 70 dc 36
       1.761018e-08 3.551889e-07 5.182823e-06 6.5695567e-06
000220 0d 48 df 36 8a c1 e8 36 eb 03 19 37 6c 75 0a 37
       6.6543057e-06 6.9366697e-06 9.120423e-06 8.25278e-06
000230 32 8a 11 37 9b 9f 2b 37 62 d1 0b 37 0b ae b5 2f
       8.67485e-06 1.0229555e-05 8.333796e-06 3.3047373e-10
000240 99 65 eb 31 3d eb f4 33 e0 b0 2a 34 02 78 32 36
       6.8509505e-09 1.1404925e-07 1.589683e-07 2.659392e-06
000250 07 2e e0 36 48 92 01 37 53 c3 d5 36 bb 5c 21 37
       6.6810785e-06 7.723058e-06 6.3706334e-06 9.617938e-06
000260 84 a8 1c 37 a4 f8 4b 37 bb 30 23 37 63 2e 35 37
       9.33756e-06 1.2157634e-05 9.726903e-06 1.0799241e-05
000270 a5 48 ab 33 95 3f 19 32 92 58 6d 31 db ee 9b 34
       7.976022e-08 8.920229e-09 3.4538385e-09 2.904479e-07
000280 4e 8e 21 36 53 fa 05 36 36 c4 84 35 ed 1b cf 35
       2.4073702e-06 1.9964252e-06 9.891871e-07 1.5430829e-06
000290 aa 5a 64 35 ff 64 94 34 ba 7a 35 34 34 25 b0 34
       8.506855e-07 2.7640633e-07 1.6901586e-07 3.2809623e-07
0002a0 c8 b6 4f 35 eb 45 f4 34 bc 28 a5 2f 7c e9 74 34
       7.737949e-07 4.5499414e-07 3.004227e-10 2.2809212e-07
0002b0 34 ff 21 36 9f 31 94 35 84 88 a2 35 cb 63 4f 35
       2.4139417e-06 1.1041301e-06 1.2109672e-06 7.7258727e-07
0002c0 1e 5f 05 36 61 e6 2e 34 f9 aa 0a 35 78 a9 02 33
       1.987391e-06 1.6288824e-07 5.1657804e-07 3.0422115e-08
0002d0 41 55 5a 35 12 b4 19 34 23 08 7a 31 15 94 91 2f
       8.133539e-07 1.4314745e-07 3.6384413e-09 2.6480565e-10
0002e0 27 fb a7 31 46 f1 11 32 98 fb 27 36 d9 eb f6 35
       4.8888924e-09 8.49497e-09 2.5031386e-06 1.8397069e-06
0002f0 02 a7 8d 35 88 2d 86 35 d0 16 9d 35 1d 4c 75 35
       1.0553924e-06 9.997029e-07 1.1704051e-06 9.138037e-07
000300 39 7d b9 34 17 bb e6 34 f8 1b 85 34 d5 05 9c 2f
       3.4550047e-07 4.2976964e-07 2.479353e-07 2.8380379e-10
000310 c6 06 13 31 1d 64 71 30 3e 5c a6 32 59 4b 95 35
       2.1395166e-09 8.781756e-10 1.936689e-08 1.1123294e-06
000320 4d 81 0f 36 54 33 fa 35 2d c1 09 35 51 4f f4 35
       2.1383923e-06 1.864139e-06 5.1317585e-07 1.8202501e-06
000330 45 50 19 35 64 13 01 35 ba ce 07 35 86 fb 15 35
       5.711375e-07 4.808446e-07 5.0592246e-07 5.587284e-07
000340 e7 da ab 37 55 18 ad 37 47 fe aa 37 62 2a a2 37
       2.0486723e-05 2.0634538e-05 2.0383986e-05 1.9331641e-05
000350 a7 57 ac 37 47 c0 9b 37 6a bf 93 37 e6 4b 8c 37
       2.0544814e-05 1.8566976e-05 1.76129e-05 1.6724644e-05
000360 b7 17 8a 37 23 83 8f 37 5a f2 71 37 82 5f 5f 37
       1.6461925e-05 1.7107994e-05 1.4421146e-05 1.3314073e-05
000370 12 79 71 37 63 40 b5 37 fd 9c ab 37 d6 30 a7 37
       1.4392908e-05 2.1606864e-05 2.0457892e-05 1.9930692e-05
000380 e6 2c ba 37 f8 5a b2 37 1d a2 93 37 fa ee 8c 37
       2.2193835e-05 2.1261614e-05 1.7599255e-05 1.6800583e-05
000390 7b ef 8a 37 5b 5f 83 37 c7 64 70 37 cd 1f 8a 37
       1.6562399e-05 1.566082e-05 1.4328579e-05 1.646569e-05
0003a0 e8 89 6f 37 39 67 5f 37 8d 24 b3 37 6f e2 a5 37
       1.4277619e-05 1.3315869e-05 2.1355483e-05 1.9774974e-05
0003b0 32 ef a3 37 a1 54 bb 37 d7 b6 a5 37 f6 3f 81 37
       1.9542498e-05 2.2331546e-05 1.9754674e-05 1.5407782e-05
0003c0 f5 85 75 37 9f 37 93 37 52 89 7f 37 95 b5 88 37
       1.4634327e-05 1.7549666e-05 1.5231157e-05 1.629702e-05
0003d0 51 1d 58 37 c1 e1 59 37 5c 0a 80 37 b7 d2 bb 37
       1.2881429e-05 1.298677e-05 1.5263613e-05 2.2390259e-05
0003e0 6a b5 aa 37 70 54 a4 37 38 d6 a7 37 94 1f 9c 37
       2.0350057e-05 1.9589643e-05 2.0007705e-05 1.8611354e-05
0003f0 cd 89 96 37 c1 91 8e 37 44 da 94 37 00 95 7f 37
       1.7945562e-05 1.6995591e-05 1.7744613e-05 1.5233876e-05

exp_avg f4 [128]
000000 d3 3b b7 3a c3 15 cc ba 0e 77 8e b9 d4 c1 f0 b8
       0.0013979621 -0.001557045 -0.00027173053 -0.00011480195
000010 9b 12 cf b6 e4 19 5b b9 b2 8f 17 b7 c2 2a d3 ba
       -6.1712467e-06 -0.00020895113 -9.033758e-06 -0.0016110765
000020 d8 00 f0 ba b1 d1 49 b9 2d 7b 09 b9 d3 1a 16 3a
       -0.0018310798 -0.0001924697 -0.00013111225 0.0005726043
000030 cf 25 50 3a 30 c7 df b9 17 c8 9e 37 3f 4c 2f ba
       0.0007940204 -0.0004268228 1.8928242e-05 -0.0006687082
000040 dc d1 a6 b9 ee 58 bd b9 83 12 c1 b8 14 ed 9b b9
       -0.00031818345 -0.00036115147 -9.206405e-05 -0.0002974054
000050 12 e4 bc 38 e8 e8 39 3a 1d d9 4a ba 1d 22 ba 37
       9.00702e-05 0.00070918957 -0.0007738041 2.2188813e-05
000060 13 02 48 3a 0e fd cc ba 8b cc 88 3a 80 c0 4c ba
       0.00076297036 -0.0015639381 0.0010436935 -0.0007810667
000070 46 12 3a ba 4a 9a 0a bb 04 00 00 00 b9 76 04 b8
       -0.000709806 -0.0021149092 6e-45 -3.158182e-05
000080 d9 0c a6 b8 29 7d 10 3a 7a f3 1f ba 73 12 0c 3a
       -7.91789e-05 0.00055118144 -0.00061016495 0.00053433253
000090 75 2e 3b 39 a7 09 a7 39 5c c8 06 bb cc 0c 1d b9
       0.00017851016 0.00031859914 -0.00205662 -0.00014977454
0000a0 14 78 5c ba e4 82 bc b9 a0 21 7d 38 87 ec 12 39
       -0.0008410227 -0.00035955675 6.0351216e-05 0.00014011758
0000b0 59 7e 1d ba 3c b9 a3 38 04 00 00 00 61 8d 6f b9
       -0.0006007902 7.806948e-05 6e-45 -0.00022845484
0000c0 85 a5 85 37 93 1f 98 ba 3c 0d 99 ba 62 5e ae 39
       1.5931912e-05 -0.001160609 -0.0011676918 0.00033258187
0000d0 3f ea ca 1d bd b7 f8 36 32 13 74 39 d5 0a 6f 39
       5.371116e-21 7.412366e-06 0.00023276804 0.00022796851
0000e0 f1 36 64 ba 9f 82 82 ba 27 87 9f 39 44 2a e6 b8
       -0.00087056967 -0.0009957141 0.0003042754 -0.00010975127
0000f0 72 ae e1 b8 76 d8 90 b9 6a c9 1f 3a f1 6a 17 39
       -0.00010761329 -0.00027627096 0.00060953817 0.00014440321
000100 8b 2f af b9 43 56 fb b9 de 0e df 39 5f a8 b2 ba
       -0.00033414023 -0.0004793872 0.0004254495 -0.0013630501
000110 42 91 fa b9 a3 1a 34 36 c2 70 7a 3a 75 34 65 3a
       -0.0004779194 2.6837595e-06 0.00095535454 0.00087434734
000120 17 05 db b9 0d 53 21 ba 7e 40 44 ba 53 b5 06 37
       -0.00041774727 -0.0006154038 -0.0007486417 8.02924e-06
000130 d0 a5 68 3a a4 ff 60 ba 8f b2 42 ba 40 d9 cb 39
       0.00088748056 -0.00085830153 -0.000742712 0.0003888104
000140 e8 84 9a 3a 16 5e dd 38 f5 a7 14 39 04 00 00 00
       0.0011788877 0.00010555626 0.00014176949 6e-45
000150 ed 3b af ba 6d 72 3a 39 a8 22 b6 3a 56 96 bd 39
       -0.00133693 0.00017780969 0.0013895826 0.00036160898
000160 7b 2d c0 ba c9 46 83 3a 8b 7f 81 39 3a 44 2a b9
       -0.0014661992 0.0010015602 0.00024699824 -0.0001623788
000170 6a a4 85 b8 8f fc 53 3a da 8c 84 39 ce f7 80 ba
       -6.372559e-05 0.00080866454 0.00025281945 -0.0009839477
000180 25 8d 7e ba e1 4e 63 3a 49 78 40 ba e7 35 b3 39
       -0.0009710363 0.00086711167 -0.00073421426 0.000341817
000190 6b 7e ad b9 c1 15 b0 b8 b3 c7 4f ba ee 98 1f ba
       -0.0003309132 -8.396386e-05 -0.0007926181 -0.0006088157
0001a0 11 91 63 ba 42 97 f4 39 39 78 bb 3a 9b 70 9e 36
       -0.00086809794 0.00046652002 0.0014302797 4.721876e-06
0001b0 dd 43 91 ba 8e 0a 1e 39 f1 f9 e4 b9 0e 92 19 3a
       -0.0011082847 0.00015071986 -0.0004367377 0.00058582507
0001c0 e1 c7 23 ba 45 82 b1 b9 98 af b6 b9 57 f5 ad ba
       -0.0006247741 -0.0003385713 -0.00034844573 -0.001327197
0001d0 e6 31 39 3a e8 a4 95 b9 5a cf df ba ed d8 0f b8
       0.00070646254 -0.0002854236 -0.0017075345 -3.4295885e-05
0001e0 94 02 55 39 7c 5d 0a 3a 05 0f b2 b9 23 25 64 39
       0.00020314223 0.00052782125 -0.00033961996 0.00021757609
0001f0 75 bd 5d 39 7f fe a4 ba 94 bf fa 38 a5 87 92 ba
       0.0002114678 -0.0012588053 0.00011956613 -0.0011179341
