ppo/ppo_agent_episode_15300.pth (torch, 596662 bytes, 21 tensors)

fc1.weight f4 [128, 260]
00000000: ebeb b63d 3633 613c 5104 723d 0c5d 5cbc
00000010: 6826 8f3d ddcf 19bc c6e3 83bd 4592 b73d
00000020: ea48 dc3d 4d0c ebbb fc5b 1e3d a11e 0f3d
00000030: bdd2 d93d d967 453e f704 ca3d 1981 5cbc
00000040: a261 16be ff2a 95bd b7c5 3dbd 9998 8d3d
00000050: ab24 8dbd 4004 e53c c83a c7bb eacb ff3b
00000060: 4aa0 423d 4d66 f13c 7e0a 99bc 237b ed3c
00000070: bd3d c23d 8b0b ba3d 6380 75bc eab5 0fbd
00000080: 8006 aa3c 0fcb 6dbc 7316 d4bd 6eac 1e3c
00000090: abe4 24be d87d b63d 5139 bc3c 1e9b b93d
000000a0: fd97 9bbc ca22 dabb 950a 873d 0e51 013b
000000b0: ab46 573d aebc 263e 43b4 35bc 0653 0f3d
000000c0: 37db b83c 4d5b ee3d 9ee3 afbc e0b8 853c
000000d0: eb9b 543e a8e8 803e 4415 0c3e fcbc 26bd
000000e0: c758 d93c 8f1b 8e3d 8c75 8fbc f15d 40bc
000000f0: 0e43 183e a209 1a3e 67a4 ce3c 84a5 d63d
00000100: 282f 0ebd 09cb 443e 0181 c73d 9496 bc3d
00000110: c256 9abc a393 153d 456d 523d 7993 8c3c
00000120: c535 aa3d 434f 60bc 3f06 093d c8fe 893d
00000130: a2ce 3d3d 25f0 ca3c fb63 423e 0055 dd3d
00000140: 29c3 d53b a702 e83c f4ab 7ebd 8f9a ec3d
00000150: 600b 73bc 8bd7 823c 1797 ffbc 9448 123d
00000160: e11e a33d 7105 433d daee 473c 3574 d13d
00000170: d85a 693e dd27 ed3d b906 4f3d acec 953d
00000180: 3d22 8dbb 9e60 5f3d 5c22 183c 6c36 a13d
00000190: 9132 a43d c719 233c 71bf 25bd f6f7 a83c
000001a0: d41d 8fbd 6d6c 6c3e 5579 573d c834 943b
000001b0: 6dc3 43bd 8a35 af3d 2a5e c3bc 719a 4f3d
000001c0: 110a 51bc dcd3 203e 02da dabc 2f90 a73d
000001d0: be73 023e cab4 c33d ffbd 8b3d 8dcf 97bd
000001e0: 63bb 97bd 3aa4 903c 8476 ce3d fc17 5a3d
000001f0: ee92 643e 07c5 c33d 6748 96bc d77f 143d
00000200: b4f7 e6bd 1eb9 de3d fadf e6ba 38dd 343d
00000210: 368e c73c fa49 cc3d 8285 0f3e 80b9 203e
00000220: 2591 343d 6975 193e e2d9 8f3c a052 083d
00000230: 1fb6 ee3d fbb9 0a3e fc54 ed3d 326a 353e
00000240: ebf1 423e 38ef 5d3c fc7a 183e 2faa c03a
00000250: 0af2 fb3c e92d ad3d a021 763d 738d 1a3e
00000260: 8b65 10bd 65b2 183d 4748 253d b802 d23d
00000270: d64c d9ba e5d9 5c3d 43fc 573d 15f7 a23d
00000280: 4201 a93d 337e 81bd fb32 4c3c 6be0 7c3d
00000290: 1aa8 353e 853e 863d c737 293d 806b 673d
000002a0: ac52 133e e2ee bcbd b89b 61bd 1876 b23d
000002b0: 8ad5 743e be67 c03d 8d8a d23d 8ab8 e63d
000002c0: 6753 073d 480d edbd 6a03 ab3d 0261 e33d
000002d0: d15e b83d 2a2c b13d b4d7 903d d7ec 533c
000002e0: cd50 8a3d 533f 3a3e 6f6c e73c 21fb b5bb
000002f0: 6c30 803c 23d4 f63d ef95 1d3b 7d33 cc3d
00000300: d237 dabb 7c16 bf3d faf8 bb3d 0db4 c83d
00000310: a558 5b3e 0469 afbc b46a 0e3e 096e 693b
00000320: b4aa f9bd ee5c e73c 0ad0 a6bc 899d 643d
00000330: 7d1e d43d b6e4 93bb 9576 e33d e29c b83d
00000340: 6a06 b03d 4c0c c73c 687b c23d 0107 333e
00000350: 0e76 a23d fbe6 093e fec0 1a3e 53ce 203e
00000360: ac50 fd3c 8ef8 6d3d 99b3 1b3d 4821 22bc
00000370: 03fd aabd 6486 d73d 31d8 6d3d 316a 043e
00000380: 2401 da3d 5e65 d73c ef44 f03d cae3 0fbb
00000390: a55e 463c 76d7 683d 5234 c73d 71a8 283e
000003a0: 2287 cf3d 0187 d53d c298 d93d 5fdf f83d
000003b0: ca39 513d 465f c1bb ef1e 793d 7773 4b3d
000003c0: e5e4 c83d a6ea 323d 4e50 0f3e 2ff1 543d
000003d0: e466 3f3e 8f3f 8fbd 28cd e43d 79a7 da3d
000003e0: 3091 bf3d e771 223e b1b5 cb3c 14cf ba3d
000003f0: 9a15 e43d 2eb4 da3d 9afe 043e 4bc2 a43d
0.089317165 0.01374512 0.059086148 -0.0134499185 0.06989747 -0.009387937 -0.06439929 0.089634456
0.10756095 -0.007173097 0.038661942 0.03494132 0.10635898 0.19277896 0.09864228 -0.013458514
-0.14685681 -0.072835915 -0.046331134 0.06913871 -0.068917595 0.027956128 -0.0060800053 0.007806291
0.047516145 0.029467726 -0.01868176 0.02898938 0.09484432 0.09084233 -0.014984223 -0.035085596
0.020755053 -0.014513745 -0.10355844 0.009684665 -0.16102855 0.089107215 0.02297655 0.090627894
-0.018993372 -0.006656979 0.06593815 0.001973215 0.05255763 0.16282913 -0.011090341 0.034991287
0.022565467 0.11638508 -0.021470841 0.016323507 0.20762603 0.25177503 0.13679987 -0.040707573
0.02653159 0.0693885 -0.017512105 -0.011741147 0.1486933 0.15042737 0.025224878 0.10480788
-0.03471294 0.19218077 0.097414024 0.09208408 -0.018840197 0.03651775 0.05137374 0.017160164
0.08311037 -0.0136907725 0.033453222 0.06738049 0.04633964 0.024772713 0.18983452 0.10807228
0.006523509 0.028321577 -0.062175706 0.11552917 -0.014834255 0.01597192 -0.031199975 0.035713747
0.07964874 0.04761261 0.012202943 0.10227243 0.2278856 0.11579869 0.05054352 0.07320532
-0.00430706 0.0545355 0.009285536 0.07871708 0.08017457 0.009954876 -0.040465776 0.02062605
-0.06988111 0.23088236 0.052605946 0.0045228936 -0.047793794 0.08555134 -0.023848612 0.050684396
-0.012758748 0.15705818 -0.026715282 0.08181798 0.12739465 0.09555967 0.06823348 -0.07412634
-0.07408788 0.017656434 0.10081199 0.05324553 0.22321674 0.09559064 -0.018345071 0.03625473
-0.11277714 0.10875152 -0.0017614358 0.044156283 0.024359804 0.099750474 0.14015773 0.15695763
0.044083733 0.14986195 0.01755995 0.033281922 0.116558306 0.13547508 0.11588475 0.17716292
0.19037597 0.013545804 0.14890665 0.0014699156 0.030755062 0.08456022 0.06009066 0.15093021
-0.03525309 0.037279505 0.040352132 0.10254425 -0.0016578685 0.053918738 0.05273081 0.079572834
0.08252193 -0.06322899 0.012463327 0.06173746 0.17739907 0.065548934 0.04131296 0.056499004
0.14387006 -0.09225251 -0.055080146 0.08713931 0.23909584 0.09394787 0.10280333 0.11265667
0.033038523 -0.11574799 0.083502606 0.11102487 0.0900246 0.08651002 0.07072392 0.012934885
0.06753693 0.18188219 0.028249947 -0.0055536185 0.01564809 0.120521806 0.0024045666 0.09970758
-0.0066594863 0.093304604 0.09178348 0.09799967 0.21420534 -0.02141238 0.13907892 0.0035618565
-0.12190762 0.028242555 -0.020362873 0.0558143 0.10357378 -0.0045133485 0.11106602 0.09014298
0.085949734 0.024297856 0.09496194 0.1748314 0.079326734 0.13467018 0.15112683 0.15703706
0.030922256 0.05809837 0.038013075 -0.00989563 -0.083490394 0.1052368 0.058067504 0.12931134
0.10644749 0.026293453 0.11731898 -0.0021955841 0.012107526 0.056846105 0.09726776 0.16470505
0.101331964 0.104261406 0.10624839 0.1215198 0.051080503 -0.00590125 0.060820516 0.049670663
0.09809283 0.04368081 0.13995478 0.051987823 0.18691593 -0.06994545 0.11171943 0.10676474
0.09353864 0.15863763 0.02486691 0.09121528 0.11136933 0.10678898 0.12987748 0.08044871

fc1.bias f4 [128]
00000000: a138 003e 0639 c5bd e25e 583d 2eaa 9f3d
00000010: c481 94bc 82c5 833d cf76 71bd 81db f33c
00000020: 8a6f bc3d e27d 1f3d aae7 bc3c b919 82bb
00000030: ead1 37bc 1903 26b7 665b 283d e213 86ba
00000040: a9ca 95bd 7673 963d a92b 603c d89b d23d
00000050: 7ebb 19bd 8d0c ab3d ef58 f53c fa3b e2b8
00000060: 25ed 953d 4f4a 28bb b06e 54bc e1bc 97bd
00000070: 67f7 243d 200e 3bbb 7354 8f3c 8be7 3c3d
00000080: beb3 663d 30b4 f0bd d53d c8bd 7a2c 5f3c
00000090: 94be c3b8 3688 4d3c 9ee6 0c3c 380c 083c
000000a0: 5512 a1bd 08d2 44bd 1a44 d93c 787d 733c
000000b0: 9bd8 bd3d f6a4 a93d 7203 6ebd 02e5 a33c
000000c0: 1381 5ebc 5930 3bbd 8954 d63d 59e0 993c
000000d0: 7070 89bc 7427 8bbc 216f a03d fff5 b3bd
000000e0: e775 dc3d d3bc 883d c380 bf3d 25bc 9abc
000000f0: 0642 26bd 5788 0d3c 5f7f 483d d194 683b
00000100: cd17 933d 8694 b43d e16c ec3d ef4e 9e3d
00000110: 84d4 103d a865 0fbd 18b0 1f3c beca e1bc
00000120: 41c5 593d 7fe5 523d fbde b63d f4ab 4ebd
00000130: a0be 1e3d ec8e 293e 80fa 4c3d d6ff 613d
00000140: c4ee a43d cefe c63d 2a61 f53b d33b 0dbc
00000150: b96b 36bd a975 743d 7020 b03c 890f 9b3d
00000160: bea9 4cbd 3450 e83d 3763 ecbc 5147 e6bc
00000170: bbb1 a1bd bd9a 00bc db3f cb3c 0ff0 093d
00000180: 4661 c53d a235 373d 13d6 6c3b 743f 43bd
00000190: 3934 0a3c 2298 ac3c 3810 da3d bbb8 41bd
000001a0: 0f55 ca3d bbce 603d 5e60 083d ac82 203c
000001b0: 6685 2bbd ae20 813d a252 583d fa87 0dbd
000001c0: 7d00 86bb 2c06 003c cf50 a13c 878a 6fbd
000001d0: 1181 933d 06ee 623d dab9 8e3d 1f0a 8d3d
000001e0: 7e3e 9cbd c30c 733d 8a1c 51bc 45fa 9f3b
000001f0: a642 943d a5bf 8b3c 6a62 0e3e 9812 6e3d
0.12521602 -0.09630017 0.052824862 0.07796131 -0.018128283 0.06434156 -0.058951195 0.029767754
0.09200962 0.03893841 0.023059685 -0.0039703515 -0.011219481 -9.895092e-06 0.04110279 -0.0010229314
-0.07314045 0.07346241 0.013682284 0.10283631 -0.037532322 0.08352003 0.029949633 -0.00010787691
0.07320622 -0.0025679057 -0.012965843 -0.07409073 0.040275004 -0.0028542355 0.017496323 0.046119254
0.05632376 -0.11753118 -0.097774185 0.013621444 -9.3338225e-05 0.012544682 0.008599905 0.008303694
-0.07864825 -0.048051864 0.026521731 0.014861457 0.0926983 0.08283417 -0.058108754 0.02000666
-0.013580578 -0.045700405 0.104653426 0.018783735 -0.016777247 -0.016986586 0.07833696 -0.087871544
0.107646756 0.0667664 0.09350731 -0.018888542 -0.04059031 0.008638463 0.048949596 0.0035489092
0.07182274 0.08817391 0.115442045 0.07729899 0.03535892 -0.035009056 0.009746574 -0.027562495
0.05316663 0.051488396 0.08929249 -0.050456956 0.038756013 0.16558427 0.050043583 0.055175625
0.080533534 0.09716569 0.0074883895 -0.00862022 -0.044536326 0.059682522 0.021499842 0.075713225
-0.049966566 0.113434225 -0.028855903 -0.028110178 -0.078952275 -0.0078493925 0.024810722 0.033676203
0.09637694 0.044728883 0.003613834 -0.047667935 0.008435302 0.021068636 0.10647625 -0.047295313
0.09879505 0.054884654 0.033295028 0.00979678 -0.041875266 0.06305061 0.05281318 -0.034553505
-0.0040894137 0.0078139715 0.019691853 -0.05848172 0.07202352 0.055402778 0.06969042 0.06886696
-0.07629107 0.059338342 -0.012763152 0.0048821294 0.07239275 0.017059157 0.1390473 0.0581232

fc2.weight f4 [64, 128]
00000000: 2d3e 0fbd 0ec7 00be 2db6 69be 7b76 243d
00000010: f503 9bbe 1dba f43d 41b2 bebd bc29 40bd
00000020: c8eb 40be 8336 69be 98f8 16bd ac93 82be
00000030: 5964 a43c d837 1fbe 0e2b 8b3c 10a2 a0bd
00000040: 2c9c f3bd 8225 13bb 3331 c3bd 9d2a 443d
00000050: ef07 00be a1de a0be b28a 723d db01 92bd
00000060: 1229 cb3d 2889 dcbc 456e e6ba e7fd 5cbd
00000070: 28cf 6fbd df10 a3be d875 333c ad89 de3c
00000080: 43dd 87be 15c5 8dbd d3bc 9ebd ff7e 43bc
00000090: f1f1 8fbe 89d3 38bd 9b2b 713d 6902 c2be
000000a0: 1f91 2fbd 7142 2dbd 429b 0fbe 1f92 eb3d
000000b0: d06b 193d 7e80 9b3d 6155 cdbd 0e7f 11be
000000c0: 488e a0be 03d8 9b3a 7d48 bb3c 0e9b 3a3d
000000d0: 7f24 793b f789 6abd fa17 8abc f131 d8bd
000000e0: 5d91 b0bc cfe5 42be e26a 6d3d f6bd 8abe
000000f0: 78ac 48be a815 c73d 23c9 1abd f78b 69be
00000100: 39cf a9bb 2687 953d 5169 e33d 6411 82be
00000110: 725a 4cbe bf45 003b 3a6d b1be d7b3 3dbd
00000120: 9964 c93d ffd5 82bd 05ba 5e3d 30e6 88be
00000130: 529d 0abe 06d7 ccbe 9f79 9e3a 7b4d 0fbd
00000140: 2d65 dabe 725a a3be b836 34be 5708 58bc
00000150: fd53 31bc f476 87bd d5b5 803d 7d4e 763d
00000160: eb26 893c efa9 403d 60b6 a0be 2944 853d
00000170: 5753 7cbd f9e0 a1bc e86b 66be 54dc 503d
00000180: ba62 75bd 3fd3 60bc fe8b 75bd 674e ecbd
00000190: b872 0d3d 3019 0a3c 1596 85bd d736 04be
000001a0: 9c27 86be 2414 ff3c 9279 14be 2ed9 a43d
000001b0: 49ba 23be 1a52 843d 6f0a 0fbd e450 15be
000001c0: dfee 6cbe 75d6 b4bd e62a a3bb cc41 5e3a
000001d0: 1dfe f33c f5f0 7dbe 65fa 90bc 9685 f13d
000001e0: 3472 22be 0045 8dbe fce4 d2bd 5388 45bd
000001f0: 6d65 37be 927d 87be ce13 933d 97ed b43d
00000200: 9e5c bcbd 48db 9bbd 2973 81be cddb 39bd
00000210: ace3 7bbe 51b1 7c3d 51f0 3cbe ce20 893d
00000220: 37f8 86be d9e0 91be 80a5 a23d bc9b 6cbe
00000230: b233 c03c 4359 3fbe a1c0 903d c771 3a3d
00000240: 76ac aabd 94cc 70bd 1ab0 4fbe 6030 5f3d
00000250: 9426 dabd 8fcb b7be f78a 63bd 8f90 19be
00000260: f8fc 8e3d c0bf 4fbd df9e 12bd 8e25 17bd
00000270: 38e4 90bd 0548 38be 1731 393d 34ff 723d
00000280: 5dbf bdbe f761 24bd 1d24 d4bd fccb 95bd
00000290: fc19 50be a544 afbc b158 b5bb 9aee 9abe
000002a0: 175c 36be 31a5 bb3d c334 1dbe 5425 00bd
000002b0: 692a 65bc d8e4 703d a8fd 71bd e510 9bbd
000002c0: 4bab 8fbe 3664 16be d3c5 29bc 6247 3fbc
000002d0: 030a bebc a32b 3abb 60a8 f6b7 658c 84bd
000002e0: 9e84 cc3d 7f1f 3cbe eba3 86bd 1772 b4be
000002f0: 16bd 6dbe e4db 983b be2c 113e 1594 9dbe
00000300: 3a06 a53b 08a9 593d 8dbb f0bc 2283 5cbe
00000310: 5dce 19be 1003 bdbd c14e afbe fadd 2b3d
00000320: 8a9f 98bd 6d1a 55bc 38c4 923d 3893 f0bd
00000330: 8848 0dbe 04a3 c3be 4ee2 ffbc 1ba5 333d
00000340: c71a 94be 1854 a7be 508d e7bd 710d cbbd
00000350: ea55 1cbe 01a4 80bd af90 343d 0c0f db3d
00000360: 8351 1abd 2da2 cb3d 2b4f 88be 80cd f13b
00000370: 73e9 bfbd 133a 0cbd d2f9 6fbe 4440 a7bd
00000380: aebd ed3c 0d46 dfbc 4b5b a0bd 2fae 36be
00000390: 5deb 68bd edab 46bd dc2c 9c3d 0db4 85bd
000003a0: 6e1a 7cbe 9224 0f3d 8afd 09be eec3 1c3d
000003b0: 2bc2 7fbe cc1b 103b 08cd 08bd 7576 71be
000003c0: 4ca7 9abd 439d d4bd c40d 863d 1b91 c0bc
000003d0: f4fe 7fbc 65f6 88be fec1 963d bd2c c1bc
000003e0: 03ad 6ebe 660d 46be 633f 30be 7931 fdbd
000003f0: 8851 8cbe a791 10be 6414 953d b7bb 41bc
-0.034971405 -0.12575933 -0.22823401 0.040152054 -0.30276456 0.11949561 -0.09311343 -0.0469148
-0.18839943 -0.22774701 -0.03685817 -0.2550329 0.02006738 -0.15548646 0.016988304 -0.07843411
-0.11895022 -0.0022452776 -0.095308684 0.0478922 -0.12503026 -0.31419852 0.0592143 -0.0712926
0.09919943 -0.02692087 -0.001758047 -0.053953078 -0.05854717 -0.3184881 0.010953389 0.027165258
-0.26535997 -0.06922356 -0.07750859 -0.011932134 -0.28114274 -0.04512361 0.058879476 -0.37892464
-0.042863008 -0.04229969 -0.1402407 0.1150248 0.037456334 0.07592867 -0.1002605 -0.14208624
-0.31358552 0.0011889938 0.022861714 0.045558028 0.0038016138 -0.05726048 -0.016857136 -0.105564006
-0.02155369 -0.19032978 0.05796326 -0.27098054 -0.19597042 0.097209275 -0.037789475 -0.22807299
-0.0051821736 0.07301168 0.11104072 -0.25403893 -0.19956377 0.0019572822 -0.34653646 -0.046314087
0.098336406 -0.06388473 0.05437662 -0.2673812 -0.13536575 -0.400078 0.0012090689 -0.034986
-0.42655316 -0.31904942 -0.17598999 -0.013185582 -0.010823247 -0.066144854 0.06284682 0.060133446
0.01674219 0.04703706 -0.3138914 0.06507141 -0.061602917 -0.019760596 -0.225021 0.05099137
-0.059908606 -0.01372224 -0.05994796 -0.115383916 0.034533232 0.008428857 -0.065227665 -0.12911545
-0.26202095 0.031137533 -0.144995 0.08049236 -0.15989031 0.06460972 -0.03492206 -0.14581639
-0.23137997 -0.08829967 -0.004979479 0.00084784324 0.029784257 -0.24798949 -0.017697522 0.117930576
-0.15863878 -0.27591705 -0.102975816 -0.048225712 -0.17909785 -0.2646299 0.07181512 0.08834379
-0.09197353 -0.07610184 -0.25283173 -0.045375634 -0.24598569 0.06169254 -0.18451048 0.0669571
-0.26361248 -0.28491858 0.07941723 -0.23106283 0.02346215 -0.18686394 0.07067991 0.045518663
-0.083336756 -0.05878885 -0.20282021 0.054489493 -0.106518894 -0.3589749 -0.05555245 -0.14996551
0.06981844 -0.050719976 -0.035796043 -0.03690105 -0.07074779 -0.17996223 0.04521283 0.059325412
-0.3706006 -0.04013249 -0.103584506 -0.073142976 -0.20322412 -0.021395037 -0.0055342545 -0.30260164
-0.17808567 0.09162367 -0.15352158 -0.0312856 -0.013987162 0.058811992 -0.059079796 -0.07571582
-0.28060374 -0.14686665 -0.010362106 -0.011674734 -0.023198133 -0.0028407357 -2.9403891e-05 -0.06472091
0.09986232 -0.1837139 -0.065742336 -0.35243294 -0.23216662 0.004664885 0.14177224 -0.3077704
0.0050361427 0.053139716 -0.029386306 -0.21534398 -0.15020128 -0.092291 -0.34239772 0.04195974
-0.07452305 -0.013006789 0.07166332 -0.1174683 -0.137972 -0.3821031 -0.03123584 0.04385863
-0.2892668 -0.32681346 -0.1130625 -0.09914673 -0.15267149 -0.06281281 0.044083294 0.10696229
-0.037675392 0.09943042 -0.266229 0.007379234 -0.09370699 -0.03423507 -0.23435143 -0.081665546
0.02902111 -0.027255083 -0.07829913 -0.17839883 -0.056865085 -0.048503805 0.07625744 -0.065284826
-0.24619457 0.034946986 -0.13475624 0.03827279 -0.24976413 0.0021989224 -0.033398658 -0.23580344
-0.075514406 -0.10381558 0.06545594 -0.023506692 -0.01562475 -0.26750484 0.0736122 -0.023580903
-0.23308186 -0.19341049 -0.1721168 -0.12362952 -0.27405953 -0.14118062 0.0727928 -0.01182454

fc2.bias f4 [64]
00000000: 65b7 f43d 5e51 383e c22e b33d 2023 653e
00000010: 5380 13bd 249f 503e 265f 653e 5799 0a3e
00000020: c599 42bc 3e10 b9bd 566a 153e 6d17 f63d
00000030: 5fc3 893d 2d4a 22bd beff a33d b9da 263e
00000040: 368b 81bd 2825 733d 8b54 ac3d 053f 343d
00000050: a1a7 9ebd 5615 703e 5150 62bc 5782 d63d
00000060: 9122 423e c77d dcbc 6935 4c3e 2d36 1c3e
00000070: 53e7 1fbe da6c 01bd f445 6cbd f99b acbd
00000080: 87cb 0c3e 2f40 fb3d c221 ae3d ddb4 503e
00000090: 25e8 313c 1d2a 963d 2ce3 60bd ce54 ff3c
000000a0: 5462 6cbd 53cb 0c3e d7fd 98bd 98fc abbd
000000b0: 36e9 68bd 64ec 2d3e 1ef8 033e e21f a1bd
000000c0: fb30 403d 60b4 d73d bb31 5c3e c9a2 68bc
000000d0: 1ffe 1ebd 677d 2dbe 9446 3a3e b967 5dbd
000000e0: 7c0b c13b b084 553d 5822 46bd e915 183e
000000f0: 1d35 a83d fbdd 1e3e 2029 a23c 956a 34bd
0.11949042 0.17999789 0.08749153 0.2237668 -0.03601105 0.20373207 0.22399577 0.13535057
-0.011877482 -0.09036301 0.14591345 0.12016187 0.06726717 -0.03962152 0.08007763 0.16294374
-0.063253805 0.059361607 0.08414563 0.044005413 -0.077468164 0.23445639 -0.013813094 0.10474079
0.18958499 -0.026915444 0.1994225 0.15255041 -0.15615587 -0.03159795 -0.0576839 -0.08428187
0.13749515 0.122681014 0.085025325 0.20381494 0.01085857 0.07332251 -0.054904148 0.031168368
-0.05771096 0.13749437 -0.07470291 -0.08397788 -0.056863032 0.16984707 0.12887618 -0.07867409
0.04692171 0.10532451 0.21503346 -0.014198967 -0.038816568 -0.16942368 0.18190986 -0.054053996
0.0058912616 0.052128494 -0.048372597 0.14852108 0.082132556 0.15514366 0.019795 -0.044046957

policy_head.weight f4 [110, 64]
00000000: c135 aebc c75f 423e 7e54 6c3d 9338 16bb
00000010: a0f8 3e3e 78af 093e c408 ef3d cff6 c33d
00000020: fd78 143d 586d ed3a f622 093d dce3 023e
00000030: 27f9 e93c 1a1f c03d b473 443e a413 94bb
00000040: ce8e 7c3d cdde 43b9 3554 e9bd 9deb 943d
00000050: 2226 c43d d53f bd3c 6814 3d3e 2ab0 613e
00000060: 311a 483e c3b3 ce3d efb5 273e 6583 bc3d
00000070: 8615 a33e 3ba8 ecbc 644e eabd 8cc4 2bbe
00000080: df40 073e 5cf4 2c3c 2f71 2d3d d032 50bd
00000090: 9914 5e3e 3df8 8abd 59a4 1ebd e392 0dbd
000000a0: fb11 a53d 6c1f e2bd f403 5b3d 2aea 8dbd
000000b0: a55b 76bd 0189 503e 7acb b8bd 6109 adbd
000000c0: ab28 5b3d 7677 e1bd 94d9 023e 53f3 033e
000000d0: 8071 de3d ae55 0c3d 9ab3 013d 09aa 2b3e
000000e0: ea79 4f3e 48ee 9a3d 2ef1 32bd dfc7 073e
000000f0: a417 5bbe 45e4 cdbc ac16 b13d 22f9 db3d
00000100: 2e0f 4a3d e46f 923b 098a ee3d f1eb d53d
00000110: 2aeb 993c 9c13 993d 4238 733c 5ac3 833d
00000120: fd7d 4e3e e1a1 5f3d a191 833b c424 873c
00000130: 8194 573a 3e61 693d ac4b 8e3c 7650 443e
00000140: fc81 e03d 7360 e53b 205e 7abd edf3 03bc
00000150: f97d 7cbd 269d 6f3d fdfc 773d ed1f 4c3e
00000160: 8004 0f3e 2c1f a53d df41 2d3e 3eb2 b93d
00000170: 3010 8c3e 8ab5 d83d 8f0a 6c3d e29e 92be
00000180: 7cb1 d7bc e2fd 833d e3f9 1a3e 186f 0d3d
00000190: 4d9a dc3d 103c d13c 003b d73d 8d9d 7b3c
000001a0: 2300 dfbb 3130 e03c 7056 453b 80d5 97bc
000001b0: babf dd3d 54db b73c b628 a13d a4fd 983d
000001c0: ac66 86bd 72b0 8cbe 19ed 1d3e 0d5b 4c3e
000001d0: 77c3 753d 2b9a 50bd 09fa e93c b6eb 11bb
000001e0: 19eb 963e 376c 253e ca69 a4bd f64a 8c3d
000001f0: 0301 28be dee7 0f3e a55e dcbb d81f db3d
00000200: 5c95 233e 12e2 913d 741b 0f3e fd05 9cbd
00000210: 5d0f 48bd 9277 c13d 8e72 253e 6753 bb39
00000220: d4d5 3cbb 91b2 2bbd 36d6 94bd e014 a4bd
00000230: 581d 1b3e 24a4 a1bd f1dd b03d d69e d73c
00000240: d478 adbd 839f 8cbd 982b 11bd 12c5 4a3d
00000250: d7ee b63d d768 d23d 2b3d 9bbd 7d8a dc3d
00000260: 09fb b3bd 127a 9b3c 9dce a23d a8c2 493d
00000270: 2b99 fabd fe3e b7bd 4637 d4bc 186c 403e
00000280: 2c94 483e a20e bdbd 662a 8d3d 8f46 003e
00000290: b90f 1b3d ff4e f63d cc11 553c df75 6c3d
000002a0: d89a 83bc 5d24 273e 53c4 3b3c 0ae7 893a
000002b0: 7e6c c23d ff4f 013e 5bdc 063c 3e7f 8a3b
000002c0: 5ff6 d2bd afd2 d03d b680 57bd f755 efbc
000002d0: f562 903d de97 d9bd 0a63 533e 6328 d0bd
000002e0: 2f34 8c3d f9f5 293d 2e49 e53d 80dc 303e
000002f0: 059e 453e ca52 183e 12c8 df3d bf95 513d
00000300: 2e6c 243e dc0f b53d efe1 553e bada 84be
00000310: 132c 993d f6f8 2d3d 0b80 783c 5ec8 12be
00000320: b1c2 733c a7ac 79bd 763d 233e 1510 5fbe
00000330: 7def 933d 1f78 acbd e60f cdbd 9736 153e
00000340: a265 aabd 32e1 ddbd a4a8 aabd f1a6 aebe
00000350: 5add e13b a854 053e f511 aebd 3951 3fbe
00000360: d019 00be 68fe 04bd 4229 4bbd 7777 afbd
00000370: 6c3e 51be 199a 123d 487e 453d 627e 003f
00000380: dcf4 753d f8c2 5f3d 7e49 babd e786 e73d
00000390: 3478 353d 6898 8f3d 1ce9 893c 20d7 ac3c
000003a0: fdf8 a63d 7bb8 723c 384c b0bd dae3 5cbc
000003b0: 1bae 0fbb 50b2 09be f152 8a3e 52cc 11bd
000003c0: fed2 b03d ced0 fc3e d569 3fbd b636 febb
000003d0: 27f5 edbc a77c b03d 2472 a03e 8a58 43bd
000003e0: 41de 01bc c4b3 24bb e4eb c33d 60ac 8d3e
000003f0: 6ae9 eb3e b2f7 a5bd cc81 d53d 2194 bf3e
-0.021265866 0.18981849 0.057697766 -0.0022921904 0.1864953 0.13445842 0.11671594 0.095685594
0.036248196 0.0018114252 0.033480607 0.12782234 0.028561188 0.09380932 0.19184762 -0.004518943
0.061659627 -0.00018679649 -0.11393014 0.07271502 0.09577586 0.023101727 0.18464816 0.22039858
0.19541241 0.100928806 0.16377996 0.09204749 0.3185236 -0.028888812 -0.11440733 -0.16774195
0.1320834 0.010556307 0.04234427 -0.05082971 0.21687545 -0.06785629 -0.038730953 -0.03456391
0.0806007 -0.110411495 0.053470567 -0.06929429 -0.060145993 0.20364763 -0.09023185 -0.084490545
0.05350558 -0.110091135 0.12778312 0.1288579 0.10861492 0.034261398 0.031665422 0.16764082
0.2026135 0.0756498 -0.043687038 0.13259839 -0.21395737 -0.025133261 0.086469024 0.10740878
0.049330883 0.004468905 0.11647422 0.10445393 0.018788893 0.07474443 0.014844956 0.06433745
0.20165248 0.05459774 0.004015163 0.016497023 0.0008223728 0.056977503 0.017370068 0.19171318
0.109622926 0.007000023 -0.06112492 -0.008053762 -0.061643574 0.058499478 0.060544003 0.19934054
0.1396656 0.08062586 0.16919659 0.090672 0.273561 0.10581501 0.057627257 -0.28636843
-0.026329748 0.06444909 0.15134387 0.034529775 0.10771618 0.025541335 0.105093 0.015357387
-0.006805436 0.02736673 0.0030111335 -0.018534422 0.108275846 0.022443451 0.07869093 0.07470253
-0.06562552 -0.27478367 0.15422477 0.19956608 0.060000863 -0.050928276 0.028561609 -0.0022265739
0.2947624 0.16154562 -0.0802799 0.06850235 -0.16406636 0.14053294 -0.0067251497 0.10699433
0.15974945 0.071231976 0.13975316 -0.0761833 -0.048842777 0.09446634 0.1615698 0.0003572956
-0.0028813975 -0.04191834 -0.0726742 -0.08011794 0.15147913 -0.078926355 0.08636082 0.026320856
-0.08470312 -0.06866362 -0.035441965 0.049504347 0.08932274 0.10273903 -0.07580026 0.10768602
-0.087881155 0.018979106 0.079495646 0.049257904 -0.12236246 -0.08947562 -0.025905263 0.18791234
0.19587773 -0.092313066 0.068928525 0.12526916 0.03785679 0.12026786 0.013004731 0.057729598
-0.016065046 0.16322465 0.011460382 0.0010521126 0.094933495 0.12628172 0.008231248 0.004226594
-0.10300898 0.10196435 -0.052612983 -0.029215796 0.070501246 -0.106246695 0.20643249 -0.10163953
0.06845891 0.041494343 0.111955985 0.17271614 0.19298561 0.14875332 0.10926832 0.0511682
0.16056892 0.088409156 0.20886968 -0.25948125 0.074791096 0.042473756 0.015167247 -0.14334247
0.014877961 -0.06095567 0.15941414 -0.21783479 0.07223413 -0.08421349 -0.10012798 0.14571606
-0.08320166 -0.10833968 -0.08332947 -0.3411174 0.0068928422 0.13020575 -0.08499519 -0.18683328
-0.12509847 -0.032469183 -0.049599893 -0.08567708 -0.20433968 0.03579149 0.048216134 0.50192845
0.06004797 0.054629296 -0.09096049 0.113050275 0.044304088 0.07011491 0.016834788 0.021098673
0.081529595 0.014814491 -0.086082876 -0.013482058 -0.0021923843 -0.13446927 0.27016404 -0.035595246
0.086339936 0.49378055 -0.04673179 -0.007757987 -0.029047562 0.086175255 0.31337082 -0.04769186
-0.007926525 -0.0025131563 0.09566477 0.27670574 0.46076518 -0.08103885 0.104251474 0.374177

policy_head.bias f4 [110]
00000000: ba91 3abe cad0 bdbe b978 333e 07ef 263e
00000010: 8b69 a0be 14dc 8ebe 6e15 e03d 2588 60bb
00000020: 03ce 393c 362a 8c3d 2114 22bd 8b9e 30bd
00000030: 9b14 20bd 4f5a 273c 248a 203e 6374 e93d
00000040: e33c fe3d 17cc 043e 2599 dc3d 0e52 323b
00000050: 8b83 9dbd ac68 7c3d 5ecc efbd a6f8 c53d
00000060: 9fb6 eb3d dfa3 ca3d a3e1 fe3d 9d63 153c
00000070: 9cc8 d13c 620a d13c 06e1 b03d 095a 0bbc
00000080: bc3e d13d 0832 493d b338 76bd eda0 d33d
00000090: cc78 48bd 5d59 ad3d afe9 39bd 2d3f 94bb
000000a0: 6d7b b5bb 0218 103d abb3 84bd 6fd0 54bd
000000b0: 71fe d5bc e8a1 b7bd cef3 793c d4b4 6ebd
000000c0: 9deb f13d 13eb c23d d851 373d 1ab0 783d
000000d0: f90f 073e e997 e13d 0947 9fbd de39 4bbd
000000e0: cfd8 f63d f002 073e 3de2 36be bafb 2bbe
000000f0: bda6 1dbe 0ea6 b2be 1c11 82be 2851 5fbe
00000100: a02c 97be a597 03be 96d4 05be e632 94be
00000110: 73b8 3fbe 35d1 56be 1405 88be d5f5 15be
00000120: 4426 6abe 4945 a9be 90f8 b0be 60c4 39be
00000130: 8c73 8fbe 788b 4cbe 134f 4dbe 7100 b4be
00000140: b315 5fbe 4b45 10be 854d 40be e383 61be
00000150: 3abd 7fbe f19a 88be 8007 a8be 167a 95be
00000160: 5e3b 38be 71a6 05be 6ca1 1ebe 45e6 04be
00000170: 414d f7bd 5433 0cbe c629 6cbe 1a17 60be
00000180: 8518 1bbe f3e1 90be 706f 3fbe f87b 60be
00000190: 11e5 9bbe 99ee 8cbe 2822 b2be 02b2 0abe
000001a0: e675 32be 21ba 92be 0709 53be c0b8 a0be
000001b0: 34b5 02be 27f7 79be
-0.18219653 -0.37073356 0.17526521 0.16302119 -0.31330523 -0.2790228 0.109415874 -0.0034260836
0.011340621 0.068439886 -0.039569978 -0.04311995 -0.03908215 0.010214402 0.15677696 0.11399152
0.12413957 0.12968479 0.107713975 0.0027209553 -0.076911055 0.06162326 -0.11708902 0.096665666
0.115094416 0.09894537 0.124453805 0.009117988 0.025608353 0.025517646 0.0863667 -0.008505353
0.10217044 0.04911998 -0.060112666 0.103334285 -0.048943326 0.0846431 -0.045388874 -0.0045241327
-0.005538395 0.035179146 -0.064795814 -0.05195659 -0.026122304 -0.08966428 0.0152558815 -0.05827792
0.11812518 0.09517493 0.044755787 0.06071482 0.13189687 0.11015303 -0.07777221 -0.049615733
0.12053072 0.13184714 -0.1785974 -0.16795245 -0.15395637 -0.34892315 -0.25403678 -0.21808302
-0.29526234 -0.12850817 -0.13069376 -0.28945082 -0.18722706 -0.20978244 -0.26566374 -0.14644559
-0.2286616 -0.33060673 -0.34564638 -0.18141317 -0.28017843 -0.19975078 -0.20049696 -0.35156587
-0.21785621 -0.14088933 -0.18779571 -0.22022967 -0.24974528 -0.2668071 -0.32818222 -0.29194707
-0.17991397 -0.13051774 -0.15491265 -0.12978466 -0.12075282 -0.13691455 -0.2306281 -0.21883813
-0.15146072 -0.28297386 -0.18694854 -0.2192229 -0.304482 -0.27525786 -0.34791684 -0.13544467
-0.17427787 -0.2865763 -0.20608912 -0.31390953 -0.12764436 -0.24410687

value_head.weight f4 [1, 64]
00000000: cfd6 d53d 7ffe 643d 391c ce3d 7dba 023e
00000010: 1a21 01be 2f55 aa3d 6900 823d bd26 60bd
00000020: 92a0 e6bd a914 4cbd 59d8 b23d b7a8 ba3d
00000030: 36e1 cd3d b7a6 40be 57b6 cb3d e6e8 8d3d
00000040: f714 9fbd b7d8 7ebc c20f d2bd 237b 803c
00000050: abba df3d 63e5 503d 80ac 3bbe 1720 ea3d
00000060: d670 933d be9d a2bd 8198 a03d e9bd ca3d
00000070: dca0 a1be 1953 cfbd 2f5d a9bd a838 6d3c
00000080: 7dde 863d 0053 953d b4a8 f63c ca5d 103e
00000090: c7c9 70be d040 09be aaa5 c4bd 9454 a33d
000000a0: d707 0b3a 34a4 ecba ee2c 7fbd 7c31 a9bd
000000b0: 03dc 9fbc 73be ae3d 3ddf e03c 63e4 0ebd
000000c0: 393d 0bbc 14a9 c63c 7af8 e93d 6578 59be
000000d0: 5e2c bc3d ee31 06be 56f3 4f3d 497a 57bc
000000e0: 6c59 3ebe f43c 86be dc51 02bd ef9e 523d
000000f0: 1fd2 0f3d c1f4 2a3d 58ef 13bd f099 9a38
0.10441362 0.05590677 0.10063977 0.12766452 -0.12610283 0.08317029 0.063477345 -0.054724444
-0.11261095 -0.04982439 0.08732671 0.09114211 0.10052721 -0.18813597 0.09946888 0.069291875
-0.077676706 -0.0155545985 -0.10256912 0.015683716 0.10924276 0.05100001 -0.18327522 0.11431902
0.07199256 -0.07940243 0.07841588 0.09899504 -0.31568038 -0.101232715 -0.082697265 0.01447884
0.06585405 0.072912216 0.03010974 0.14098278 -0.23514472 -0.1340363 -0.096019104 0.07975116
0.00053035974 -0.0018054307 -0.062298708 -0.082613915 -0.01951409 0.08532419 0.027450198 -0.034885775
-0.008498483 0.024250545 0.11424346 -0.21237333 0.0918815 -0.13104984 0.050769173 -0.013151714
-0.18588799 -0.2621838 -0.03181635 0.051421102 0.035112496 0.04173732 -0.036116928 7.371965e-05

exp_avg f4 [128, 260]
00000000: 6af6 4839 d11e cab9 5d5a 0039 45f2 0c3a
00000010: 33a4 8f36 c1db a9b9 cabb 9b38 8d91 e8b9
00000020: cb4b 85b9 2628 a939 8f7c f1b9 8d20 1eba
00000030: 0e81 85b9 dac2 cfb9 92ce c9b8 1094 6eb9
00000040: b42d bdb8 dc99 d739 9bd2 5bb9 3a02 9c39
00000050: c533 f439 9695 afb9 83c5 0939 5549 1cba
00000060: 0b1e 4cb9 98cf 683a f0fe 26b9 8fe4 9339
00000070: af7c 9e39 964a 0639 ff53 c5b9 1435 a8b9
00000080: 6cf3 fdb8 cf8c 9d39 cc51 51b9 4cca 3f39
00000090: b87d 443a 8c9c 8a39 2296 80b9 4343 f938
000000a0: 6245 c837 6a52 c1b9 4df2 84b8 b1ba 9a37
000000b0: 13d6 393a fb90 5ab9 7cbe 97b9 2dce e1b7
000000c0: a360 07ba 128f 84b9 b9a1 1138 7cc2 2cb9
000000d0: 0400 0000 0400 0000 9fbd 8d36 be9d 0438
000000e0: 889e 6637 a905 a637 97dc b2b8 9c91 4138
000000f0: 558b bfb7 7238 74b9 a307 5ab8 5963 d6b8
00000100: 1ce0 ef38 0400 0000 0400 0000 b53f a132
00000110: 2ec5 3e37 0b22 3138 7a87 8037 f26a 2a38
00000120: e6f9 2b38 a3bc a8b8 4add fc38 0ffa 4fb8
00000130: bed9 1138 0db8 0cb8 0400 0080 0400 0000
00000140: 7a1f 0336 2eeb 8437 838a 9637 4126 61b8
00000150: ef10 c837 a8f3 f738 47dc 3436 4964 9d37
00000160: 1830 6937 64a4 0937 5183 2c37 0400 0000
00000170: 0400 0080 8100 d1ae 8669 3fb7 88ce d036
00000180: 2afe f2b6 789a 5ab6 25db 04b8 153f 39b8
00000190: b1b8 51b6 d7dc 6fb8 1131 acb7 5084 3cb8
000001a0: 657e 00b5 a5ca 773a 115c 0db8 c040 a438
000001b0: d2ce d839 3322 7ab7 5bc1 b739 63bc 043a
000001c0: 9182 a2b8 bf3f 7338 a191 04b9 ab4f 2e3a
000001d0: 30ef d138 44c7 bfb4 1446 04b4 b417 2436
000001e0: 534e 80b9 4d3b 2d39 3af9 dbb9 d4a3 f839
000001f0: 774e fe38 56ba 1c3a 7690 bbb9 a159 2a3a
00000200: 052f ac39 9c9a 0638 1a01 2039 ca03 843a
00000210: 9316 e7b9 544e a1b6 9c83 5e38 5ae7 5939
00000220: c2b4 0db9 8717 23b9 afa6 1839 6af6 31ba
00000230: c715 fdb9 9327 a0b8 28ee d938 1379 10b9
00000240: 9746 45b8 5d3a 32b8 1622 9fb7 e1f1 0c38
00000250: e13f a938 161d a637 e59f 9ab8 445c deb7
00000260: 1b41 623a f8ff a2b9 7cb7 3039 b621 36b9
00000270: 1c6e 523a 34b2 0939 c964 2e39 8844 5bb4
00000280: 5a26 bbb8 c1b4 76b6 6fdc e7b4 2555 3238
00000290: dc3a 4cb8 1c35 46b8 be54 b937 d8c5 2637
000002a0: 331c ed37 1047 803a a16e 4d2b b9a6 c9b7
000002b0: 7cfe 83b9 cb71 ba38 5236 fab9 80f7 a938
000002c0: ad8a cb38 d35e e5b7 473d e4b8 eab7 e0b7
000002d0: 28e7 c836 615e 1837 c4ce 2bb8 d718 1b38
000002e0: c499 1bb7 e6e5 7b39 852c e9b7 63ab cdb8
000002f0: 16f7 ce37 cc14 0bb8 0cea 3db7 e797 fb37
00000300: 73e6 3638 9f58 8d38 8ea0 8bb8 ef5a 633a
00000310: 0430 39b8 d001 8cb7 7347 8eb8 38d2 3b38
00000320: 8d15 3ab8 3dac 5637 fd6a 0c39 ee5d 5db8
00000330: b650 1937 3adc bab7 f487 86b8 375c 9cb6
00000340: 578c 97ba e1b4 5fba 3a05 ddb9 9e43 54ba
00000350: 7a49 04ba 5d3f 2839 b36c 03ba 427e a4b9
00000360: 9ea4 7c39 74c7 89b9 d656 ee39 882b 0ab9
00000370: 75bd 1db9 d421 43ba 0b58 8ab8 36fe b538
00000380: e387 d839 3309 64ba 187b 733a df62 8aba
00000390: c0a1 68ba 3074 a6b9 175c 5b38 0d60 12b9
000003a0: 0599 b0b9 2aae 8aba c385 f0b8 421c c3ba
000003b0: f19b 8ab7 f5fd 0dba f826 3339 51db d638
000003c0: 5864 3e38 8eb5 cdb9 26fc d0b8 ba5d 9539
000003d0: 2926 ffb9 2350 dfb9 8323 1438 1579 84ba
000003e0: cb3e c7b8 a43f 8b39 9ca7 3cb5 9921 8bb9
000003f0: d303 6cba cac4 8c37 a2c8 ce38 2f7d 48b7
0.00019165283 -0.00038551402 0.00012240694 0.0005376677 4.2808474e-06 -0.0003239792 7.4259544e-05 -0.00044358932
-0.00025424207 0.00032264105 -0.00046059905 -0.0006032072 -0.0002546389 -0.00039627292 -9.6229036e-05 -0.00022752606
-9.020735e-05 0.0004112263 -0.00020963924 0.00029756298 0.00046577878 -0.0003349005 0.00013138917 -0.0005961855
-0.00019466148 0.00088810315 -0.00015925965 0.00028208314 0.00030229005 0.00012807021 -0.0003763735 -0.00032083003
-0.00012109321 0.00030050284 -0.00019962265 0.00018290541 0.000749554 0.00026438048 -0.0002452592 0.00011885774
2.3874167e-05 -0.00036873232 -6.3393825e-05 1.8445166e-05 0.00070890895 -0.0002084411 -0.00028942886 -2.6918098e-05
-0.00051642413 -0.00025283598 3.472131e-05 -0.0001647565 6e-45 6e-45 4.2242023e-06 3.161816e-05
1.3745979e-05 1.9791378e-05 -8.5287895e-05 4.6150395e-05 -2.2833856e-05 -0.00023290681 -5.1982362e-05 -0.0001022282
0.00011438152 6e-45 6e-45 1.8771837e-08 1.1370792e-05 4.2231793e-05 1.5321875e-05 4.063076e-05
4.1002313e-05 -8.0460006e-05 0.00012057515 -4.958553e-05 3.4773482e-05 -3.355001e-05 -6e-45 6e-45
1.9538843e-06 1.584514e-05 1.7945893e-05 -5.3679807e-05 2.3849743e-05 0.00011823262 2.6950308e-06 1.8762557e-05
1.389908e-05 8.2041115e-06 1.0282573e-05 6e-45 -6e-45 -9.504309e-11 -1.1409056e-05 6.2229265e-06
-7.2417506e-06 -3.2574444e-06 -3.1675347e-05 -4.4166187e-05 -3.1250931e-06 -5.7187714e-05 -2.0526846e-05 -4.494592e-05
-4.7867644e-07 0.00094524986 -3.3702763e-05 7.83219e-05 0.00041352824 -1.4909124e-05 0.0003504854 0.0005063472
-7.749082e-05 5.7995083e-05 -0.00012642752 0.00066494447 0.00010010449 -3.5721507e-07 -1.2318952e-07 2.4451701e-06
-0.0002447242 0.00016520657 -0.00041956623 0.00047424308 0.00012126279 0.0005978694 -0.0003577505 0.0006498341
0.0003284143 3.209208e-05 0.000152592 0.001007193 -0.00044076573 -4.8072925e-06 5.3051495e-05 0.00020780918
-0.00013514145 -0.00015553656 0.00014557944 -0.0006788733 -0.00048272146 -7.636766e-05 0.000103917264 -0.00013778014
-4.7034202e-05 -4.2492862e-05 -1.897015e-05 3.360387e-05 8.070446e-05 1.9802286e-05 -7.373075e-05 -2.6507427e-05
0.00086309173 -0.0003108976 0.00016853021 -0.00017369431 0.0008027272 0.00013131724 0.00016631479 -2.0420896e-07
-8.9239984e-05 -3.676207e-06 -4.318749e-07 4.2517804e-05 -4.8692207e-05 -4.725634e-05 2.209318e-05 9.940435e-06
2.8265733e-05 0.0009786803 7.298416e-13 -2.4038703e-05 -0.00025175873 8.890367e-05 -0.00047724188 8.1046484e-05
9.705625e-05 -2.7343083e-05 -0.00010883301 -2.6788523e-05 5.9873746e-06 9.08188e-06 -4.0962143e-05 3.6978014e-05
-9.274521e-06 0.00024022869 -2.7796495e-05 -9.807085e-05 2.4672172e-05 -3.315955e-05 -1.1319771e-05 2.9992267e-05
4.3606804e-05 6.739911e-05 -6.657942e-05 0.0008672913 -4.4152155e-05 -1.6690145e-05 -6.784396e-05 4.4780056e-05
-4.4365926e-05 1.2795496e-05 0.00013391297 -5.2777985e-05 9.138303e-06 -2.2275479e-05 -6.414941e-05 -4.6598975e-06
-0.001156221 -0.0008533728 -0.000421563 -0.0008097234 -0.0005046349 0.00016045333 -0.0005013451 -0.00031374587
0.00024093917 -0.0002627928 0.00045459595 -0.00013176922 -0.00015043265 -0.00074437005 -6.596752e-05 8.678103e-05
0.00041299974 -0.00086988806 0.0009288057 -0.001055803 -0.00088742 -0.00031748554 5.2299434e-05 -0.00013959427
-0.00033683344 -0.0010580469 -0.00011469007 -0.0014885741 -1.6523498e-05 -0.00054165657 0.00017085287 0.00010245166
4.5392982e-05 -0.00039235916 -9.965179e-05 0.00028489326 -0.00048665822 -0.0004259358 3.5319023e-05 -0.0010106886
-9.5007556e-05 0.00026559562 -7.027936e-07 -0.00026537178 -0.00090032554 1.6780938e-05 9.860216e-05 -1.19500755e-05

exp_avg_sq f4 [128, 260]
00000000: 3ef5 9a35 ec5c 9c37 10c5 0535 946e 9035
00000010: 2097 4635 e95c c835 6594 fd35 1e9c 9c37
00000020: 6038 0536 4d58 aa37 b113 5936 11b4 f135
00000030: 5547 f435 dac1 7b35 8ef9 7835 63c9 1936
00000040: c8b9 1935 ef88 d735 f525 9c37 6cac 9935
00000050: 8292 5c35 086d a437 c01b f835 2dc3 2036
00000060: 82f3 e535 b5bc ad37 a336 a337 1fc5 1735
00000070: c9a2 7235 9373 e135 4e3f 0436 8306 8d35
00000080: f502 3535 e2f8 3135 59e2 ab37 aeee 3736
00000090: 0472 9936 5576 2e36 17ea a737 e1bb b634
000000a0: 177e 9937 8eec 7d35 e91e ad35 ae14 1336
000000b0: 7680 1e36 6a8b ad35 fd89 b035 a7d7 be35
000000c0: 19b4 3d36 3521 4e36 5faf 2836 8cc2 8e36
000000d0: aebd 922c 19ba 892c ddae 7631 ddea ce32
000000e0: fda6 1834 eb10 de33 3e9b 4334 6001 1134
000000f0: 32e9 b633 659a 0334 2fc6 ec33 fc70 cc33
00000100: 58a0 c134 fc58 032d c180 a02e d661 d02f
00000110: 373a c932 d48d ab33 3106 7633 8af4 9033
00000120: ce51 b533 5b6f 9334 ce9f 6f34 84b7 3934
00000130: 4d06 c533 d60d a534 79e0 ad2d da14 782d
00000140: 6e34 a030 3c4c 3d33 ec47 3433 60e9 7233
00000150: 4fb7 1b34 b9d8 cb33 68e0 bf33 86ca e433
00000160: 5a54 5c34 f731 e133 47ed 1534 b4fa d12c
00000170: dbdb b02c 57bb b930 ee64 9732 8c87 9533
00000180: 935e 4133 f887 c633 e033 9437 66f7 ba33
00000190: 51d0 2834 dc9a a235 2e15 6535 2f83 0434
000001a0: 90de c934 6d70 0535 adc9 bf35 1e76 dd34
000001b0: 4a1c 8235 d5af bb35 789d 9a37 0010 5f35
000001c0: 8067 ad35 1d34 c034 6a4f 9c37 292e a135
000001d0: 27a0 8735 cc1b c233 a0cf 0c34 a054 c734
000001e0: 2a41 9d37 5627 0035 fbce 1035 9c23 6435
000001f0: 2f61 7135 86f9 a335 f7b0 be35 aeb0 9535
00000200: 421f ba35 1fc8 5a35 44db 0235 4c90 1c35
00000210: b4d3 0135 a1ad 0b35 20ee 8134 0d2b ea34
00000220: 0dae 0336 2a96 8835 057e 8c35 455d a737
00000230: ccb5 2035 e097 e534 ba3d 0a36 6dc5 cb34
00000240: c231 dd34 d55c a334 5abf 1234 287c d934
00000250: 7abb 7734 604f 2a35 1db8 6c35 59f7 7b35
00000260: 5d6f 8535 8e9f 3535 7b22 8535 7f86 1035
00000270: f3ec b134 d828 ea34 c92b cf34 747e 8734
00000280: 255f 8934 1021 6734 dba3 6734 6654 4235
00000290: 008f 1134 bc01 c932 4239 8233 3e35 4b33
000002a0: 777d 3034 b589 c034 2842 8634 97a0 d334
000002b0: 31b4 0935 8629 1834 6e67 c035 eed5 7d34
000002c0: 2b37 e533 0f36 c434 f663 0f34 0f31 8e33
000002d0: 83c1 4b35 6c08 6333 c1b0 b434 834e d334
000002e0: da4f 3834 f45e c634 ef9d c834 b5a7 7c34
000002f0: 2fba c134 73c4 8934 cb93 f033 37ef 3834
00000300: 2d7c 9337 94b0 f133 7257 4433 a3ae d834
00000310: 4eec af34 c554 dd33 0d79 0434 3e91 4034
00000320: 84e7 9437 7028 5f34 fd61 6734 9b40 1234
00000330: 7869 9533 6b72 0534 6f13 2533 3f19 4433
00000340: 46cb e537 2911 1337 bea0 d937 e767 dd37
00000350: 077e d937 83b7 c937 cd30 f536 eeaa e336
00000360: b377 c537 f02e e436 bdb7 a936 8f48 c937
00000370: db9f c237 b76d dd37 a412 e537 838a d537
00000380: ee32 1337 9e67 d537 bac2 ee36 cdb4 d537
00000390: 6fa4 d637 c9cb b236 bcb2 c137 8c82 c737
000003a0: f02b c237 bae8 ae36 7969 0837 2c1c e537
000003b0: 07e9 e537 7870 d437 af9b d637 f10b d837
000003c0: 3dc9 ca37 d561 d437 4bd6 cb36 32b1 9636
000003d0: 8999 9836 1d91 c737 b070 a336 f912 e737
000003e0: 999e 2c37 b150 e037 0725 de37 3df9 d437
000003f0: b63f 0937 b493 d437 419a f436 6940 ce37
1.1545269e-06 1.863992e-05 4.9833125e-07 1.0761019e-06 7.3980664e-07 1.4928202e-06 1.8893157e-06 1.8669347e-05
1.985136e-06 2.0306697e-05 3.2346982e-06 1.8008305e-06 1.8200177e-06 9.378688e-07 9.275035e-07 2.2916e-06
5.726729e-07 1.6058601e-06 1.8614324e-05 1.144957e-06 8.2169583e-07 1.9601095e-05 1.8485516e-06 2.3955465e-06
1.71327e-06 2.071108e-05 1.9456556e-05 5.653873e-07 9.038891e-07 1.6797443e-06 1.970638e-06 1.0507214e-06
6.743206e-07 6.629981e-07 2.049019e-05 2.7408055e-06 4.5730285e-06 2.5996899e-06 2.0016958e-05 3.4036842e-07
1.8297736e-05 9.4594077e-07 1.28985e-06 2.1916744e-06 2.3618609e-06 1.2930079e-06 1.3153182e-06 1.4218866e-06
2.8268025e-06 3.071572e-06 2.513603e-06 4.254578e-06 4.1706283e-12 3.914435e-12 3.589711e-09 2.408836e-08
1.4216853e-07 1.0340758e-07 1.8217267e-07 1.3504678e-07 8.5174534e-08 1.2256494e-07 1.1025656e-07 9.520042e-08
3.6065717e-07 7.466246e-12 7.298829e-11 3.7904496e-10 2.3425953e-08 7.9886064e-08 5.728197e-08 6.750004e-08
8.4433495e-08 2.7461905e-07 2.2316746e-07 1.729623e-07 9.1746735e-08 3.0743712e-07 1.9767509e-11 1.4101798e-11
1.1656434e-09 4.4074326e-08 4.197493e-08 5.655727e-08 1.4502187e-07 9.492346e-08 8.93495e-08 1.0653916e-07
2.0519784e-07 1.04864675e-07 1.3963027e-07 5.967971e-12 5.0266297e-12 1.3513767e-09 1.7624611e-08 6.963009e-08
4.502233e-08 9.244826e-08 1.7667131e-05 8.7063015e-08 1.5722004e-07 1.2115011e-06 8.533997e-07 1.2341182e-07
3.7601103e-07 4.970996e-07 1.4289304e-06 4.12504e-07 9.693988e-07 1.398376e-06 1.8431558e-05 8.3097257e-07
1.2919627e-06 3.5800704e-07 1.863363e-05 1.2008869e-06 1.0104894e-06 9.038885e-08 1.311405e-07 3.712821e-07
1.8746203e-05 4.7740957e-07 5.3945377e-07 8.498844e-07 8.9920917e-07 1.2217067e-06 1.4207607e-06 1.1152786e-06
1.3867177e-06 8.1502543e-07 4.874785e-07 5.832451e-07 4.8364313e-07 5.20342e-07 2.420138e-07 4.361722e-07
1.9621832e-06 1.0176493e-06 1.0467489e-06 1.9951383e-05 5.9869194e-07 4.2765078e-07 2.0599532e-06 3.7955343e-07
4.120066e-07 3.042866e-07 1.3666923e-07 4.0509735e-07 2.3071871e-07 6.344544e-07 8.818477e-07 9.3864725e-07
9.941683e-07 6.7659937e-07 9.919307e-07 5.38399e-07 3.3141222e-07 4.3615614e-07 3.8588612e-07 2.5237716e-07
2.5587465e-07 2.152558e-07 2.1573162e-07 7.239345e-07 1.35562e-07 2.3400268e-08 6.064012e-08 4.7313044e-08
1.6436921e-07 3.5862982e-07 2.500758e-07 3.9418657e-07 5.129869e-07 1.4171209e-07 1.4335217e-06 2.3640288e-07
1.06736785e-07 3.6547178e-07 1.3354278e-07 6.621314e-08 7.590499e-07 5.2860216e-08 3.3656218e-07 3.9358937e-07
1.7165385e-07 3.6949461e-07 3.7367815e-07 2.353034e-07 3.6084518e-07 2.5661174e-07 1.1202754e-07 1.7223361e-07
1.758159e-05 1.12545564e-07 4.5714337e-08 4.03602e-07 3.2768224e-07 1.0306534e-07 1.2337496e-07 1.7934232e-07
1.7750783e-05 2.0783204e-07 2.15492e-07 1.3620813e-07 6.957538e-08 1.2428215e-07 3.843473e-08 4.5657767e-08
2.7393584e-05 8.765878e-06 2.5943267e-05 2.6393636e-05 2.5927102e-05 2.4046522e-05 7.30725e-06 6.785026e-06
2.353997e-05 6.8003937e-06 5.0579824e-06 2.3994855e-05 2.320104e-05 2.6396343e-05 2.7307608e-05 2.5456078e-05
8.773741e-06 2.543983e-05 7.115622e-06 2.547577e-05 2.5587358e-05 5.328537e-06 2.3090623e-05 2.378344e-05
2.3147062e-05 5.212697e-06 8.130789e-06 2.7312046e-05 2.740744e-05 2.5324742e-05 2.5583284e-05 2.5754767e-05
2.4173985e-05 2.5317926e-05 6.0748184e-06 4.4909766e-06 4.547827e-06 2.3790222e-05 4.870897e-06 2.754618e-05
1.0288925e-05 2.6740456e-05 2.6481704e-05 2.538843e-05 8.18067e-06 2.5341149e-05 7.289724e-06 2.4587107e-05

exp_avg f4 [128]
00000000: 6334 2ab9 0400 0000 0400 0000 bc84 23bb
00000010: 0400 0000 87d2 41bb 0400 0000 3e92 803a
00000020: 5e9c 0439 0d4b 1fb0 24e8 2abb 503d e32d
00000030: 8ca5 2fba 81ce 0fad 1784 c9b8 0400 0000
00000040: ce22 4539 f9e5 aaba 0400 0000 e18e d539
00000050: 0400 0000 fba1 6032 e4c5 3fba 0400 0000
00000060: c3b9 69bb 0f00 b0ba 0400 0000 0400 0000
00000070: 541b d33a 0400 0000 daaf 86b9 d1de b9ba
00000080: c80e 61bb 0400 0000 0400 0000 2a2b edb9
00000090: db34 15b5 79ed cfba 663d c239 0365 9a23
000000a0: d9c2 822f a559 fb3a 0400 0000 c8f0 9cbb
000000b0: cfba 2b3a 8b08 21bb 2d15 93bb e46b 768e
000000c0: b297 23a0 0400 0000 b328 1ebb c3e0 6fba
000000d0: 18c6 fb3a 0400 0000 7969 c7b8 1e37 0dbc
000000e0: a09d b6ba dacc 7f93 6127 c53a 0b88 1139
000000f0: 430f 083b 0400 0000 5505 20bc 0400 0000
00000100: bff6 3ebb b330 7bba 901f 6c3a 9e9f f7bb
00000110: 6e8a 45b9 c6ae 96ba 464b 262b d910 63bb
00000120: bad1 a63a d54f 313b 7ab0 b9ba 0400 0000
00000130: 0400 0000 ce0d 8032 960b 003a d972 ad39
00000140: 9178 313a 0400 0000 0400 0000 afb4 de39
00000150: 0400 0000 1048 85bb c313 5cba 065b b737
00000160: 0400 0000 8715 0cbb e277 a2ba fe15 50bb
00000170: 34fa 81b8 151d 03bb 0400 0000 34f6 3dba
00000180: a96a 5f3a 515d 2f3a eec9 f7b7 0400 0000
00000190: 79f1 0ebb 5637 d53a d83f 39ba 0400 0000
000001a0: 0400 0000 7606 253a 17cb 1b36 dba8 feba
000001b0: 0400 0000 77bc 2239 b569 68b9 0400 0000
000001c0: 0269 b9ba 0400 0000 1a71 68ba 0400 0000
000001d0: 828e daba bdfe 213c 31dc fb39 3dc7 29ba
000001e0: 0400 0000 e077 1a37 0400 0000 0400 0000
000001f0: 0400 0000 13ab d826 972c 28ba d365 523a
-0.00016231979 6e-45 6e-45 -0.0024950942 6e-45 -0.0029574947 6e-45 0.0009809209
0.00012646752 -5.7950517e-10 -0.0026078308 2.583414e-11 -0.00067003886 -8.174462e-12 -9.6090305e-05 6e-45
0.0001880035 -0.0013038508 6e-45 0.0004073298 6e-45 1.3075346e-08 -0.000731556 6e-45
-0.00356637 -0.0013427752 6e-45 6e-45 0.0016106167 6e-45 -0.0002568949 -0.0014180784
-0.0034341086 6e-45 6e-45 -0.00045236322 -5.558374e-07 -0.0015863619 0.0003704831 1.6739494e-17
2.378531e-10 0.0019176496 6e-45 -0.0047894455 0.0006550969 -0.0024571742 -0.0044886083 -3.0373788e-30
-1.3856829e-19 6e-45 -0.0024133145 -0.00091506186 0.0019208817 6e-45 -9.508705e-05 -0.008619098
-0.0013932474 -3.2286525e-27 0.0015041643 0.00013878958 0.002076105 6e-45 -0.009766896 6e-45
-0.0029138771 -0.0009582147 0.0009007389 -0.0075568696 -0.00018838953 -0.0011496178 5.907951e-13 -0.0034647493
0.0012727298 0.002705564 -0.0014166974 6e-45 6e-45 1.4907439e-08 0.0004884539 0.000330827
0.000676998 6e-45 6e-45 0.0004247776 6e-45 -0.0040674284 -0.0008395279 2.1857686e-05
6e-45 -0.0021375136 -0.0012395347 -0.003175139 -6.197803e-05 -0.0020006348 6e-45 -0.0007246465
0.00085226685 0.00066896254 -2.9538725e-05 6e-45 -0.002181141 0.0016267102 -0.00070667034 6e-45
6e-45 0.0006295213 2.3215014e-06 -0.0019428985 6e-45 0.00015519733 -0.00022164623 6e-45
-0.0014145675 6e-45 -0.0008866951 6e-45 -0.0016674551 0.0098873945 0.00048038506 -0.0006476527
6e-45 9.207026e-06 6e-45 6e-45 6e-45 1.5034381e-15 -0.0006415336 0.0008026037

exp_avg_sq f4 [128]
00000000: 3407 f637 d630 a12b bdaa c12f 6bda 9238
00000010: d006 4d34 6b73 b339 b392 dd33 9351 9238
00000020: bd11 ef39 b71d 9139 0a39 f239 7f14 6038
00000030: 152a 1238 b9d0 1038 bfc2 2839 d794 1123
00000040: d9c6 8337 5208 7c38 e6f5 942a 1eda 5139
00000050: dec8 5730 4667 3839 7456 c438 4eeb c125
00000060: 4e5b 4f3a 2ab7 3438 6fc9 2a33 e2e6 a91a
00000070: 3048 2e38 82fe 4135 8546 be38 eeaf 9038
00000080: f4e2 9239 6773 d52f afe9 f02b e0b7 ec38
00000090: 1956 e636 2551 2739 3e26 3239 95e5 7236
000000a0: 5016 2034 43f8 0939 af1a 5f27 75d6 9039
000000b0: 3aca 9237 93e2 fa39 afe7 dd38 1b62 6233
000000c0: 2e12 5833 2e5f 9a30 600b d938 71da 8137
000000d0: 8743 9b38 b5eb b732 3235 b638 0e84 3638
000000e0: 0daf bf38 a3a5 9e36 f6f0 4238 8ca0 9438
000000f0: 385b ea39 50bb 142f c432 013a 28e8 8f2d
00000100: cb20 7939 16b4 4d37 06e2 4939 150e d638
00000110: c6af ed39 5af5 2137 7e02 9135 f48f 3f39
00000120: e7e3 3238 2e4e 3438 4c87 9d39 abf1 b032
00000130: c84c 8226 621a 143a 5050 3037 e2d6 6f38
00000140: dcb3 6b39 fa8e 0134 16ec 002e 3cde cd37
00000150: 3350 8024 ad65 3639 31f3 c237 43ba 0438
00000160: fc77 1a1f 21f1 3039 0623 043a 319b 9539
00000170: a0d3 c736 f040 a938 8a57 412d e83a 5938
00000180: 5d47 7338 e8f9 e036 3abd ba37 85fd f427
00000190: e0d6 4838 5797 1239 8cc8 9d38 ce2b 8625
000001a0: 9401 3c36 5ef5 0d38 457e 6138 64b4 e339
000001b0: 6123 3531 6fb1 3c39 64de e238 7f11 082e
000001c0: 1103 463a a9a9 a321 d8e6 0e38 ffc7 1432
000001d0: d0a7 6339 2e9a 853a 1487 7338 9af0 b538
000001e0: 696d 9e28 dc9c dc38 8b20 b126 e42a 9f25
000001f0: d928 7131 0b18 1437 32d1 4339 197c 9438
2.932884e-05 1.1453293e-12 3.5227812e-10 7.002506e-05 1.9094591e-07 0.00034227534 1.0317799e-07 6.977017e-05
0.00045598848 0.00027678694 0.00046200334 5.342485e-05 3.4848304e-05 3.4526664e-05 0.00016094277 7.891984e-18
1.5709013e-05 6.008923e-05 2.6460708e-13 0.00020013048 7.8501994e-10 0.0001758608 9.3621115e-05 3.3639612e-16
0.0007910029 4.308593e-05 3.9764412e-08 7.026977e-23 4.1552063e-05 7.226846e-07 9.073041e-05 6.8992245e-05
0.00028016383 3.8826473e-10 1.7117886e-12 0.00011287606 6.8645572e-06 0.0001595659 0.00016989649 3.6194444e-06
1.4909278e-07 0.00013157823 3.0961932e-15 0.00027625603 1.7498725e-05 0.00047852527 0.000105812556 5.2708952e-08
5.0307953e-08 1.1232026e-09 0.00010349485 1.5479718e-05 7.403554e-05 2.1411191e-08 8.688345e-05 4.3515167e-05
9.1401955e-05 4.7280496e-06 4.6477617e-05 7.087094e-05 0.0004469992 1.3527068e-10 0.0004928524 1.6360316e-11
0.00023758707 1.2260882e-05 0.00019253054 0.00010206938 0.00045335124 9.653473e-06 1.0804067e-06 0.00018268806
4.2650758e-05 4.2988155e-05 0.00030046178 2.0598995e-08 9.041374e-16 0.00056496833 1.0509117e-05 5.7182166e-05
0.0002247835 1.2066076e-07 2.9313517e-11 2.454139e-05 5.5647014e-17 0.0001739475 2.3239847e-05 3.1644722e-05
3.2710017e-20 0.00016874495 0.0005040619 0.0002853512 5.9552985e-06 8.0706435e-05 1.0990217e-11 5.1791692e-05
5.8002177e-05 6.704813e-06 2.2261043e-05 6.799847e-15 4.7883834e-05 0.00013980024 7.523698e-05 2.3274978e-16
2.8015102e-06 3.3845536e-05 5.3761778e-05 0.00043431215 2.6359077e-09 0.00017995176 0.00010817943 3.093836e-11
0.00075535575 1.1090218e-18 3.407043e-05 8.660208e-09 0.00021710922 0.0010193044 5.8061516e-05 8.675568e-05
1.7588973e-14 0.00010519635 1.2290663e-15 2.7611167e-16 3.5093335e-09 8.827085e-06 0.0001867458 7.080305e-05
