ppo/ppo_agent_episode_5900.pth (torch, 596626 bytes, 21 tensors)

fc1.weight f4 [128, 260]
0.041512825 0.014024005 -0.014011406 -0.04433555 0.06305749 -0.09013452 -0.0040877364 0.0851158
0.019334797 -0.025203886 0.038949933 -0.011759907 0.07652123 0.13111515 0.050693035 -0.028877562
-0.09965917 -0.066478886 -0.03559304 0.07235375 -0.0978941 -0.0030901327 0.0051516574 0.012170773
0.0059647644 0.04036331 0.0023597209 0.020482434 0.106301196 0.041067477 0.0004448767 -0.11462499
-0.047691926 -0.029170753 -0.085731015 -0.049375515 -0.098417684 0.028352516 -0.015428879 0.050354064
-0.0080034 0.0049626864 0.014381059 -0.031649053 0.07010727 0.036570355 -0.012773818 0.025240812
-0.027053032 0.030461358 -0.038859315 -0.0058152005 0.11043598 0.057816032 -0.00064434635 -0.002690135
0.05971409 0.058558144 0.03560413 0.05861577 0.08149787 0.10987609 -0.022245565 0.09059278
-0.003186316 0.019508177 0.039225068 0.051320456 0.01962805 0.03036873 0.049686346 0.030830424
0.056334544 -0.020277474 0.06182067 0.029532205 0.023811178 0.0049083135 0.054458734 -0.0057936306
-0.049122434 -0.0024583344 -0.034466296 0.09296375 -0.00755393 0.01670243 -0.030794637 0.02282709
0.034058418 0.003510674 -0.011315057 -0.018799419 0.119204976 -0.033707626 0.03754031 0.060753837
0.032089062 0.05026987 0.0335434 0.07728427 0.09299473 0.051386952 -0.046572983 0.013284034
0.105771214 0.10727227 0.034888085 0.04622237 -0.051447444 0.12170502 -0.02040588 -0.058736738
-0.0006666656 0.088305995 -0.038651172 -0.038125873 0.07460371 -0.024874903 0.024173792 -0.0009345478
-0.022817302 0.05161513 0.03777149 0.059079643 0.11524086 0.095466815 -0.01985668 0.038074397
-0.0464896 0.09815505 0.08247501 0.074414246 -0.018911883 0.027574223 0.15013568 0.15124379
0.078350894 0.14148861 0.029631106 0.09130867 0.031175787 0.028450241 0.12207068 -0.020438517
0.20821989 0.02574923 0.011928813 0.018248232 -0.06883676 0.0970859 -0.010712696 0.12841837
0.017584696 0.029409027 0.031279635 0.022557352 0.11711138 0.10973101 -0.0028729625 0.073990196
0.055932324 -0.024873272 -0.0061543803 0.117337406 0.15944058 0.076907136 0.0032902975 0.008766098
0.028213244 -0.015080427 0.06570222 0.071613535 0.26727954 0.013899167 0.047724944 0.105041906
0.048877873 -0.028586801 -0.012333967 0.018448098 0.060619995 0.029825708 -0.060498875 0.13269475
0.002330279 0.055375192 -0.06769676 -0.08508639 -0.059168108 0.07646213 0.014470639 0.031696457
0.062088218 0.018404968 0.018043565 0.074533865 0.17301698 -0.05169231 0.030309843 -0.016464176
0.0908501 0.048958555 0.05111138 0.039603457 0.018731344 -0.01394341 0.040400315 0.08559225
-0.0021213684 -0.01671668 0.07553441 0.10005907 0.065908134 0.09886422 0.053698413 0.11876275
0.047250114 0.07099909 0.0005532249 0.052279525 -0.057318814 0.114112936 0.0035602327 0.06490511
-0.008799716 -0.01650782 0.09435614 -0.043686394 0.020005109 0.013784854 0.086184844 0.12733518
0.029707288 0.062151343 0.033692524 0.046082653 0.013913831 0.019922715 0.037638906 0.07399134
0.071628734 -0.004269375 0.07066453 0.008478199 0.1200866 0.011286274 0.08606428 0.11608638
0.016079877 0.11585789 0.037405718 0.062920235 0.029780757 0.1013361 0.05864466 0.043851573
00000000: 5a09 2a3d f1c4 653c 1990 65bc 3299 35bd
00000010: 4924 813d 7298 b8bd 6bf2 85bb 3151 ae3d
00000020: 0264 9e3c 6178 cebc f789 1f3d a0ac 40bc
00000030: 2ab7 9c3d 0d43 063e 80a3 4f3d a390 ecbc
00000040: 1b1a ccbd 1526 88bd 02ca 11bd 342e 943d
00000050: b47c c8bd d383 4abb 3ccf a83b ec67 473c
00000060: 1274 c33b 0054 253d 8ca5 1a3b c7ca a73c
00000070: 71b4 d93d 5f36 283d 573e e939 82c0 eabd
00000080: 9c58 43bd 81f7 eebc be93 afbd fb3d 4abd
00000090: 368f c9bd 8943 e83c 69c9 7cbc 1040 4e3d
000000a0: b120 03bc 089e a23b 899e 6b3c 70a2 01bd
000000b0: 6694 8f3d ccca 153d 4749 51bc d2c5 ce3c
000000c0: 529e ddbc 198a f93c f22a 1fbd 708d bebb
000000d0: 422c e23d 81d0 6c3d 5ae9 28ba fa4c 30bb
000000e0: c396 743d aada 6f3d a3d5 113d 1717 703d
000000f0: 5be8 a63d b706 e13d 553c b6bc b588 b93d
00000100: 83d1 50bb 9dcf 9f3c 77aa 203d 6635 523d
00000110: 01cb a03c d8c7 f83c e983 4b3d 1690 fc3c
00000120: 0dbf 663d f21c a6bc ac37 7d3d 86ed f13c
00000130: a90f c33c ebd5 a03b 1f10 5f3d 7fd8 bdbb
00000140: 9b34 49bd 021c 21bb 882c 0dbd c763 be3d
00000150: f586 f7bb 89d3 883c 0945 fcbc e1ff ba3c
00000160: d780 0b3d 5613 663b ca62 39bc 3d01 9abc
00000170: bd21 f43d 0211 0abd dec3 193d 04d9 783d
00000180: d26f 033d c7e7 4d3d ce64 093d 3747 9e3d
00000190: 0574 be3d 207b 523d 50c3 3ebd 47a5 593c
000001a0: 949e d83d 90b1 db3d cfe6 0e3d ab53 3d3d
000001b0: 8eba 52bd 7b40 f93d 3b2a a7bc ef95 70bd
000001c0: 2cc3 2eba c6d9 b43d b150 1ebd e029 1cbd
000001d0: d4c9 983d 74c6 cbbc 1e08 c63c 71fc 74ba
000001e0: 5aeb babc 636a 533d 47b6 1a3d 7ffd 713d
000001f0: 6603 ec3d 1b84 c33d 7aaa a2bc e6f3 1b3d
00000200: e16b 3ebd 8405 c93d a8e8 a83d 7f66 983d
00000210: 18ed 9abc 56e3 e13c 2bbd 193e a7df 1a3e
00000220: 6f76 a03d 64e2 103e efbc f23c 0a00 bb3d
00000230: 5d64 ff3c 7b10 e93c 3100 fa3d ad6e a7bc
00000240: 9837 553e 0df0 d23c 1171 433c 517d 953c
00000250: 4afa 8cbd f9d4 c63d 4e84 2fbc 1b80 033e
00000260: c80d 903c 33eb f03c 131f 003d 32ca b83c
00000270: 17d8 ef3d a7ba e03d 5048 3cbb 2c88 973d
00000280: 4b19 653d 08c3 cbbc afaa c9bb 984e f03d
00000290: 6444 233e 7d81 9d3d 08a2 573b ae9f 0f3c
000002a0: 761f e73c e513 77bc e38e 863d 1eaa 923d
000002b0: ddd8 883e 55b9 633c 3b7b 433d 3620 d73d
000002c0: 2a34 483d de2e eabc 6814 4abc 7720 973c
000002d0: ac4c 783d 0b55 f43c abcd 77bd 22e1 073e
000002e0: 98b7 183b 19d1 623d 99a4 8abd c641 aebd
000002f0: 425a 72bd 2d98 9c3d 4216 6d3c 25d4 013d
00000300: 3750 7e3d 04c6 963c 19d0 933c 36a5 983d
00000310: 5d2b 313e 51bb 53bd 594c f83c e1df 86bc
00000320: 9e0f ba3d c488 483d 2b5a 513d 3c37 223d
00000330: 7a72 993c e672 64bc cd7a 253d fd4a af3d
00000340: a806 0bbb 6bf1 88bc c9b1 9a3d c5eb cc3d
00000350: d8fa 863d 5379 ca3d def2 5b3d e239 f33d
00000360: 5689 413d f967 913d 4b06 113a 0e23 563d
00000370: 22c7 6abd 0bb4 e93d cb52 693b f8ec 843d
00000380: af2c 10bc 683b 87bc cb3d c13d 81f0 32bd
00000390: c1e1 a33c ded9 613c ae81 b03d 2764 023e
000003a0: b35c f33c 6892 7e3d 2c01 0a3d 2ac1 3c3d
000003b0: d6f6 633c f634 a33c 412b 1a3d c688 973d
000003c0: 16b2 923d 1de6 8bbb 91b8 903d 25e8 0a3c
000003d0: f7ef f53d 10ea 383c 7842 b03d b2be ed3d
000003e0: f2b9 833c e746 ed3d bd36 193d 53dc 803d
000003f0: c6f6 f33c 4d89 cf3d 6235 703d b59d 333d

fc1.bias f4 [128]
0.10276993 -0.086773016 0.031914458 0.04843614 -0.035696805 0.021862749 -0.017062284 0.013959783
0.03672322 0.06324256 0.03192479 -0.055310186 -0.011942172 -0.048266027 0.014052351 -0.0010229314
0.012473249 0.08988556 0.0154011985 0.07910954 -0.0335942 -0.009197075 -0.017122278 -0.00010787691
0.012486799 0.014385958 0.036325406 -0.07409073 0.043664847 -0.0068571856 0.008024875 0.038094535
-0.011701347 -0.028036049 -0.08036619 0.014655412 0.020829128 -0.0067328056 -0.024275891 -0.04855197
-0.07888936 -0.047348373 0.03703849 0.015390884 0.08281993 0.027197212 -0.032548215 0.051222324
-0.016260434 0.018681258 0.078461245 0.041544568 -0.003198954 0.027872905 0.049336668 -0.00877197
0.11644368 0.046537116 0.08142983 -0.103570946 -0.006863583 -0.0012118338 0.05055012 0.020465087
0.06465163 0.10987833 0.08839945 0.0573749 0.068263784 0.0020060774 -0.03731006 -0.0040198113
0.05262547 0.09197018 0.067563 -0.0059302473 0.042909347 0.103048705 0.04940392 0.040353894
0.0035844706 0.050160162 0.022965208 -0.020027835 -0.044536326 0.060674854 0.009551621 0.060011514
-0.049966566 0.07233555 -0.03875623 0.001627345 -0.010627414 0.017315311 0.066550694 0.0392811
0.08585411 0.04662037 0.02305202 -0.038309246 0.0037252684 0.0025655872 0.07716032 -0.047295313
0.045862 0.046338245 0.04408774 0.0012008783 0.021677196 0.03746939 0.027176935 -0.008366838
-0.048624083 0.0078139715 0.03991694 0.033554867 0.032514617 -0.009587421 0.046150748 0.041382585
-0.06506225 0.028488874 -0.0039512613 0.0048821294 0.047886997 0.022086818 0.09854898 0.034736644
00000000: 0b79 d23d 0db6 b1bd bcb8 023d f964 463d
00000010: d036 12bd 8219 b33c 34c6 8bbc 93b7 643c
00000020: 166b 163d 5185 813d 92c3 023d ef8c 62bd
00000030: 1aa9 43bc 99b2 45bd d53b 663c e213 86ba
00000040: 995c 4c3c ec15 b83d 4f55 7c3c 2f04 a23d
00000050: 129a 09bd 54af 16bc 0544 8cbc fa3b e2b8
00000060: 6e95 4c3c 15b3 6b3c f3c9 143d e1bc 97bd
00000070: e9d9 323d 3eb2 e0bb c47a 033c 0409 1c3d
00000080: 02b7 3fbc dbab e5bc 0797 a4bd 411d 703c
00000090: d9a1 aa3c de9e dcbb 3cde c6bc 6ede 46bd
000000a0: bf90 a1bd 5ef0 41bd acb5 173d 0c2a 7c3c
000000b0: 7f9d a93d b0cc de3c 4751 05bd 80ce 513d
000000c0: 9a34 85bc 7009 993c 4ab0 a03d a32a 2a3d
000000d0: 8ba5 51bb b855 e43c 3f15 4a3d 4fb8 0fbc
000000e0: 067a ee3d b49d 3e3d afc4 a63d 011d d4bd
000000f0: e8e7 e0bb 65d6 9eba a50d 4f3d 66a6 a73c
00000100: 1368 843d e407 e13d c50a b53d f101 6b3d
00000110: e2cd 8b3d 6578 033b 6fd2 18bd 9fb8 83bb
00000120: ce8d 573d dd5a bc3d 785e 8a3d 8552 c2bb
00000130: b6c1 2f3d 330b d33d c45b 4a3d 204a 253d
00000140: 70e9 6a3b be74 4d3d 8821 bc3c 6a11 a4bc
00000150: b96b 36bd 3286 783d 677e 1c3c a2ce 753d
00000160: bea9 4cbd a924 943d dabe 1ebd a34c d53a
00000170: 9b1e 2ebc d7d8 8d3c bb4b 883d 38e5 203d
00000180: 48d4 af3d 00f5 3e3d 97d7 bc3c 28ea 1cbd
00000190: a223 743b 6923 283b 3b06 9e3d bbb8 41bd
000001a0: cbd9 3b3d 2ccd 3d3d 5995 343d ca66 9d3a
000001b0: 6094 b13c 8179 193d 2aa2 de3c 1015 09bc
000001c0: 0c2a 47bd 2c06 003c f27f 233d d470 093d
000001d0: 0c2e 053d 8f14 1dbc 9108 3d3d c980 293d
000001e0: 5b3f 85bd 8061 e93c 9579 81bb 45fa 9f3b
000001f0: 2825 443d 6aef b43c 0cd4 c93d 0348 0e3d

fc2.weight f4 [64, 128]
-0.01839956 -0.13513647 -0.13369271 0.0415808 -0.19808127 0.12395913 0.059740335 -0.057228845
-0.11146981 0.008669113 -0.06275553 -0.14178687 0.02706172 -0.010292476 0.023735592 -0.07843411
-0.025547555 -0.0023940706 -0.05636229 0.05759564 -0.066351146 -0.08106414 0.044609003 -0.0712926
0.087742575 -0.019730696 0.058144722 -0.053953078 -0.059761688 -0.20710985 0.020835314 0.013483333
-0.10691305 -0.05732546 -0.08662058 -0.0047362107 -0.10693698 -0.05122498 0.049044587 -0.16760395
0.05715129 -0.08492099 -0.1406839 0.09098369 0.060455818 0.063233934 -0.07836055 -0.06373462
-0.28290188 0.050747097 0.03942537 0.06585407 0.047825426 0.05033164 -0.030629618 0.0035008814
-0.021610148 -0.17350036 0.0669153 -0.009202504 -0.07915859 0.08349819 -0.062856495 -0.23961249
-0.037939623 0.07739267 0.114673816 0.008931807 -0.061429124 0.058538713 -0.29464677 -0.024465786
0.07478327 0.022975286 0.06461971 -0.111443296 -0.13700639 -0.2153724 0.015619883 -0.044914566
-0.22837147 -0.19876987 -0.18491274 0.0069833845 -0.010823247 -0.049957596 0.07141048 0.08471672
0.01674219 0.041952606 0.028916977 0.040994085 0.00142005 -0.02003187 -0.24097621 0.042953707
-0.048543803 -0.010334248 -0.038116917 -0.12270585 0.023768188 0.030360695 -0.052027047 -0.12911545
-0.077001445 0.047757898 0.07052826 0.040548347 -0.21001554 0.050735064 -0.031040898 -0.15829352
-0.08369163 -0.08829967 0.007095583 0.08707066 0.035935365 -0.14960241 -0.020730797 0.09906717
-0.16950138 -0.22918499 -0.10690858 -0.048225712 -0.14776953 -0.1785069 0.073131844 0.0984209
-0.0736245 -0.08535969 -0.16661337 -0.041515384 -0.15306026 0.06537236 -0.042269535 0.06474215
-0.18502125 -0.06519528 0.05078231 -0.12072412 0.027311428 -0.0443864 0.080047466 0.045518663
0.009729493 -0.056516845 -0.18679912 0.0751412 -0.05325566 -0.124252476 -0.073138446 -0.14996551
0.055712104 -0.039739158 0.017152652 -0.03690105 -0.06915093 -0.074425325 0.06156034 0.037127152
-0.21979454 -0.027201848 -0.11204109 -0.06697922 -0.045254253 -0.029425686 -0.010898505 -0.108290195
-0.09377267 0.03595191 -0.15394726 -0.059222102 0.007211258 0.04511967 -0.04747846 0.0025713637
-0.28550076 -0.103123374 0.0045298785 0.012022627 0.027045349 0.10308373 -0.018037453 0.043368716
0.100423105 -0.16993481 -0.047219843 -0.101022564 -0.109560676 -0.008505211 0.0953953 -0.31904176
-0.03326503 0.05737163 -0.022834027 0.046679266 -0.023699233 -0.028347187 -0.28663093 0.060023803
-0.07974841 0.073967524 0.07831248 0.03448011 -0.13948286 -0.22851682 -0.01584012 0.034081865
-0.09487625 -0.2240447 -0.12219042 -0.07700282 -0.15267149 -0.06428264 0.058562268 0.13380075
-0.037675392 0.09204793 0.073942535 -0.02058699 -0.03758943 -0.031974144 -0.25069892 -0.088848434
0.044052817 -0.021655392 -0.063719615 -0.18554856 -0.061470475 -0.016765838 0.090331264 -0.065284826
-0.0700854 0.056337874 0.078271635 0.00460042 -0.30286908 -0.00841139 -0.023243789 -0.2472607
0.06635659 -0.10381558 0.08105759 0.06743246 -0.013472108 -0.18671796 0.0757598 -0.0383892
-0.24359451 -0.14489256 -0.17612438 -0.12362952 -0.25297776 -0.06900485 0.07387071 0.009753061
00000000: adba 96bc 3761 0abe bee6 08be a150 2a3d
00000010: d1d5 4abe 49de fd3d 48b2 743d cb68 6abd
00000020: 494a e4bd e508 0e3c f985 80bd 9430 11be
00000030: 8ab0 dd3c c6a1 28bc 2571 c23c 10a2 a0bd
00000040: 1b49 d1bc d7e5 1cbb 25dc 66bd 68e9 6b3d
00000050: 1ce3 87bd f504 a6bd eeb7 363d db01 92bd
00000060: 61b2 b33d 45a2 a1bc 2929 6e3d e7fd 5cbd
00000070: acc8 74bd 9b14 54be d2ae aa3c 33e9 5c3c
00000080: 3bf5 dabd 1ace 6abd 2166 b1bd 3732 9bbb
00000090: c601 dbbd 49d1 51bd fae2 483d 5fa0 2bbe
000000a0: 7917 6a3d 0eeb adbd 710f 10be a855 ba3d
000000b0: 85a0 773d cb80 813d 7f7b a0bd 4c87 82bd
000000c0: 84d8 90be 30dc 4f3d 7f7c 213d 80de 863d
000000d0: 98e4 433d 8d28 4e3d f7ea fabc 0b6f 653b
000000e0: c407 b1bc 14aa 31be e40a 893d 19c6 16bc
000000f0: e61d a2bd 1901 ab3d e8ba 80bd fa5c 75be
00000100: 9466 1bbd 0c80 9e3d 1bda ea3d b756 123c
00000110: 1b9d 7bbd 4ac6 6f3d f1db 96be 796c c8bc
00000120: f927 993d ab36 bc3c 5757 843d 623c e4bd
00000130: 674b 0cbe 958a 5cbe 8aea 7f3c 56f8 37bd
00000140: 36da 69be 548a 4bbe c459 3dbe e0d4 e43b
00000150: fd53 31bc 56a0 4cbd a83f 923d f67f ad3d
00000160: eb26 893c 7fd6 2b3d 4ce3 ec3c 6ae9 273d
00000170: f920 ba3a e019 a4bc 78c2 76be 3af0 2f3d
00000180: ded5 46bd fa50 29bc 7c20 1cbd 344d fbbd
00000190: 81b5 c23c feb6 f83c 501a 55bd d736 04be
000001a0: efb2 9dbd c99d 433d 1f71 903d 0616 263d
000001b0: 500e 57be 92cf 4f3d 7b49 febc b217 22be
000001c0: 8466 abbd 75d6 b4bd 1082 e83b 1a52 b23d
000001d0: f630 133d 6031 19be a2d3 a9bc bae3 ca3d
000001e0: c591 2dbe 78af 6abe e3f2 dabd 5388 45bd
000001f0: e550 17be 83ca 36be 26c6 953d e690 c93d
00000200: 71c8 96bd 10d1 aebd b29c 2abe 090c 2abd
00000210: d4bb 1cbe f2e1 853d d222 2dbd 8897 843d
00000220: 3676 3dbe 1a85 85bd 1d01 503d 353e f7bd
00000230: 37bc df3c 84ce 35bd edef a33d c771 3a3d
00000240: 7468 1f3c 357e 67bd 4548 3fbe a1e3 993d
00000250: 9b22 5abd 1578 febd 9cc9 95bd 8f90 19be
00000260: 6032 643d 87c5 22bd b883 8c3c 8e25 17bd
00000270: 019f 8dbd 4e6c 98bd b226 7c3d a412 183d
00000280: d211 61be 69d6 debc cd75 e5bd 672c 89bd
00000290: 865c 39bd 230e f1bc a58f 32bc 40c7 ddbd
000002a0: e30b c0bd 4f42 133d 5aa4 1dbe e092 72bd
000002b0: 6b4c ec3b 67cf 383d c678 42bd 5384 283b
000002c0: 282d 92be 5932 d3bd 606f 943b 8dfa 443c
000002d0: 358e dd3c 901d d33d 48c3 93bc 65a3 313d
000002e0: a1aa cd3d 6403 2ebe 9869 41bd ebe4 cebd
000002f0: 5961 e0bd 7159 0bbc 9c5e c33d 7159 a3be
00000300: e940 08bd 84fe 6a3d 6d0e bbbc c232 3f3d
00000310: e524 c2bc 5c38 e8bc 4ac1 92be 85db 753d
00000320: 2253 a3bd 497c 973d 4b62 a03d 043b 0d3d
00000330: 98d4 0ebe 5000 6abe 24c3 81bc 6d99 0b3d
00000340: 7b4e c2bd f96b 65be f93e fabd a8b3 9dbd
00000350: ea55 1cbe 9ea6 83bd fdde 6f3d 1003 093e
00000360: 8351 1abd a083 bc3d 2f6f 973d 0ca6 a8bc
00000370: 60f7 19bd 52f7 02bd 9c5b 80be 2bf6 b5bd
00000380: ba70 343d a666 b1bc 6e7f 82bd 7100 3ebe
00000390: 77c8 7bbd 8358 89bc 99ff b83d 0db4 85bd
000003a0: ef88 8fbd 8bc2 663d e14c a03d 1fbf 963b
000003b0: a811 9bbe edcf 09bc c269 bebc e931 7dbe
000003c0: f7e5 873d 439d d4bd 8601 a63d 081a 8a3d
000003d0: 1eba 5cbc fe32 3fbe f427 9b3d fe3d 1dbd
000003e0: d770 79be b75e 14be f359 34be 7931 fdbd
000003f0: 4d86 81be 6a52 8dbd 8749 973d 4ecb 1f3c

fc2.bias f4 [64]
0.048703026 0.11046421 0.015795812 0.14608048 -0.04248807 0.13278629 0.15742859 0.14342965
-0.0003760826 -0.09036301 0.07478639 0.045515947 -0.003074689 -0.03962152 0.009163098 0.09308371
-0.063253805 0.059361607 0.08414563 0.017755706 -0.077468164 0.16531593 -0.013813094 0.030354816
0.1113372 -0.017387882 0.12363714 0.07712009 -0.10350893 -0.03159795 -0.048168655 -0.099353336
0.06745682 0.047896374 0.023944605 0.12982419 0.01085857 0.07555454 -0.054904148 0.031168368
-0.05771096 0.10323722 -0.07470291 -0.06850829 -0.056863032 0.09926239 0.06707523 -0.07867409
0.04692171 0.06956596 0.13815112 -0.014198967 -0.036559634 -0.12862967 0.1192397 -0.054053996
0.008894467 0.056351215 -0.048372597 0.07831053 0.021758413 0.09048866 0.019795 -0.008403003
00000000: d37c 473d 0f3b e23d 3866 813c 1f96 153e
00000010: f807 2ebd 21f9 073e f634 213e 39df 123e
00000020: f42c c5b9 3e10 b9bd 9b29 993d ee6e 3a3d
00000030: b980 49bb 2d4a 22bd d220 163c aca2 be3d
00000040: 368b 81bd 2825 733d 8b54 ac3d 6a74 913c
00000050: a1a7 9ebd 9448 293e 5150 62bc aaaa f83c
00000060: c204 e43d 0871 8ebc 7835 fd3d 23f1 9d3d
00000070: 7dfc d3bd da6c 01bd 7f4c 45bd c379 cbbd
00000080: cd26 8a3d fd2e 443d 7a27 c43c a2f0 043e
00000090: 25e8 313c 57bc 9a3d 2ce3 60bd ce54 ff3c
000000a0: 5462 6cbd 096e d33d d7fd 98bd 134e 8cbd
000000b0: 36e9 68bd 144a cb3d bd5e 893d e21f a1bd
000000c0: fb30 403d 9978 8e3d 7d77 0d3e c9a2 68bc
000000d0: 8ebf 15bd 7fb7 03be f233 f43d b967 5dbd
000000e0: 19ba 113c 88d0 663d 5822 46bd 4561 a03d
000000f0: b33e b23c 1e52 b93d 2029 a23c c0ac 09bc

policy_head.weight f4 [110, 64]
-0.09320741 0.074805215 0.025131525 -0.025170486 0.11810156 0.035437636 0.050551534 0.01219992
0.03759888 0.0018114252 0.010195885 0.11687404 -0.021920482 0.09380932 0.13153388 -0.107918404
0.061659627 -0.00018679649 -0.11393014 0.05426015 0.09577586 -0.100924574 0.18464816 0.13823275
0.11813703 0.10117954 0.025858985 0.04473466 0.33316132 -0.028888812 -0.1141507 -0.2305995
0.038815264 0.00929443 -0.060217638 -0.11855172 0.21687545 -0.09025994 -0.038730953 -0.03456391
0.0806007 -0.18138249 0.053470567 -0.034232873 -0.060145993 0.11396203 -0.12660317 -0.084490545
0.05350558 -0.15874498 0.034896668 0.1288579 0.11210061 0.20290568 -0.07414621 0.16764082
-0.07311056 0.069708824 -0.043687038 0.012997773 -0.25768358 -0.12755737 0.086469024 -0.014855021
-0.0052835117 -0.08944127 0.10422755 0.10293833 -0.060853276 -0.0034500216 -0.031026872 -0.0008131843
0.20297487 0.05459774 -0.005490684 0.0181967 -0.03309594 0.056977503 -0.019698674 0.106489316
0.109622926 0.007000023 -0.06112492 -0.017194103 -0.061643574 -0.042052783 0.060544003 0.14263369
0.07924273 0.08088722 0.056452602 0.06468765 0.30802783 0.10581501 0.05795435 -0.35503298
-0.10822898 0.075034544 0.09169062 -0.015205529 0.10771618 0.004119407 0.105093 0.015357387
-0.006805436 -0.0071398336 0.0030111335 0.025522752 0.108275846 -0.043555237 0.04923396 0.07470253
-0.06562552 -0.3402481 0.08205046 0.19956608 0.062722795 0.12505461 -0.059333693 -0.0022265739
0.03511165 0.15621139 -0.0802799 -0.044525214 -0.20858282 0.0883113 -0.0067251497 0.00081620953
0.17342745 0.08984804 0.1510989 -0.04129444 -0.07304639 0.11783912 0.16390297 0.030871078
-0.002285221 -0.04191834 -0.06529026 -0.04767274 0.16567314 -0.078926355 0.1171691 0.041465357
-0.08470312 -0.06866362 -0.035441965 0.10433197 0.08932274 0.10304708 -0.07580026 0.12086005
-0.06048911 0.02806209 0.10643835 0.07121639 -0.1007292 -0.08947562 -0.017395258 0.16216788
0.19754304 -0.086230025 0.10499361 0.13577388 0.03785679 0.12991294 0.013004731 0.057729598
-0.016065046 0.16947462 0.011460382 -0.0018874693 0.094933495 0.14395744 0.014081758 0.004226594
-0.10300898 0.08476023 -0.024542384 -0.029215796 0.09231922 -0.0961433 0.19455107 -0.10163953
0.028228587 0.016414259 0.111955985 0.16717373 0.17538159 0.16970457 0.10926832 0.04981849
0.17449374 0.1466709 0.2232671 -0.087999426 0.10691469 0.09434649 0.073415615 0.020551074
0.011749223 -0.06095567 0.20187543 -0.06463483 0.118415534 -0.08421349 -0.027268859 0.1750421
-0.08320166 -0.10833968 -0.08332947 -0.080687806 0.0068928422 0.08487479 -0.08499519 -0.033337276
0.021840394 -0.04177315 0.025167547 0.03552893 -0.16143402 0.03579149 0.039004724 0.24343775
0.09104804 0.16353983 0.027057339 0.13954957 0.044304088 0.07009235 0.016834788 0.021098673
0.081529595 0.0070028715 -0.086082876 -0.041601837 -0.0021923843 0.00045467535 0.14780922 -0.035595246
0.086339936 0.26314896 0.04145505 -0.007757987 -0.05123439 0.0039532203 0.21835376 -0.04769186
0.051629502 0.022384558 0.09566477 0.18043557 0.20499684 0.0106096575 0.104251474 0.25300395
00000000: 87e3 bebd 7a33 993d a1e0 cd3c 5632 cebc
00000010: 3bdf f13d 0e27 113d 200f 4f3d 2ce2 473c
00000020: 4801 1a3d 586d ed3a a40c 273c a85b ef3d
00000030: 9592 b3bc 1a1f c03d d1b0 063e 5304 ddbd
00000040: ce8e 7c3d cdde 43b9 3554 e9bd e43f 5e3d
00000050: 2226 c43d 8bb1 cebd 6814 3d3e e38c 0d3e
00000060: d4f1 f13d 3837 cf3d 39d6 d33c b13b 373d
00000070: 1f94 aa3e 3ba8 ecbc d8c7 e9bd 4622 6cbe
00000080: c1fc 1e3d aa47 183c c5a6 76bd 3fcb f2bd
00000090: 9914 5e3e 34da b8bd 59a4 1ebd e392 0dbd
000000a0: fb11 a53d 55bc 39be f403 5b3d c537 0cbd
000000b0: a55b 76bd ed64 e93d 43a4 01be 6109 adbd
000000c0: ab28 5b3d 0b8e 22be cfef 0e3d 53f3 033e
000000d0: 0195 e53d 82c6 4f3e f8d9 97bd 09aa 2b3e
000000e0: fdba 95bd 80c3 8e3d 2ef1 32bd 9cf4 543c
000000f0: 1aef 83be 669e 02be ac16 b13d 7962 73bc
00000100: 4f21 adbb fc2c b7bd 4175 d53d 55d1 d23d
00000110: 4941 79bd c219 62bb 112c febc e02b 55ba
00000120: a5d8 4f3e e1a1 5f3d 32eb b3bb 3f11 953c
00000130: 9c8f 07bd 3e61 693d 1d5f a1bc 1217 da3d
00000140: fc81 e03d 7360 e53b 205e 7abd a6da 8cbc
00000150: f97d 7cbd 8a3f 2cbd fdfc 773d 910e 123e
00000160: 034a a23d 33a8 a53d d83a 673d f57a 843d
00000170: d3b5 9d3e 8ab5 d83d 8a61 6d3d e2c6 b5be
00000180: 28a7 ddbd b6ab 993d 4bc8 bb3d 9c20 79bc
00000190: 4d9a dc3d 17fc 863b 003b d73d 8d9d 7b3c
000001a0: 2300 dfbb 44f5 e9bb 7056 453b 1715 d13c
000001b0: babf dd3d fa66 32bd 8da9 493d a4fd 983d
000001c0: ac66 86bd 0035 aebe 120a a83d 0d5b 4c3e
000001d0: cf74 803d 510e 003e e307 73bd b6eb 11bb
000001e0: 3cd1 0f3d e1f5 1f3e ca69 a4bd 1260 36bd
000001f0: bc96 55be 8edc b43d a55e dcbb e5f6 553a
00000200: f796 313e 4002 b83d acb9 1a3e 5c24 29bd
00000210: 5999 95bd a355 f13d 2ed6 273e 58e5 fc3c
00000220: a5c3 15bb 91b2 2bbd e6b6 85bd 7e44 43bd
00000230: 38a6 293e 24a4 a1bd 5af6 ef3d 94d7 293d
00000240: d478 adbd 839f 8cbd 982b 11bd 00ac d53d
00000250: d7ee b63d 590a d33d 2b3d 9bbd 7985 f73d
00000260: 6ec3 77bd 78e2 e53c 5afc d93d e6d9 913d
00000270: 1c4b cebd fe3e b7bd 8080 8ebc 560f 263e
00000280: b948 4a3e 5e99 b0bd e406 d73d 4f08 0b3e
00000290: b90f 1b3d e607 053e cc11 553c df75 6c3d
000002a0: d89a 83bc c18a 2d3e 53c4 3b3c f664 f7ba
000002b0: 7e6c c23d 9469 133e 2db7 663c 3e7f 8a3b
000002c0: 5ff6 d2bd c596 ad3d 1c0d c9bc f755 efbc
000002d0: dc11 bd3d c7e6 c4bd 6538 473e 6328 d0bd
000002e0: a33f e73c 3277 863c 2e49 e53d 972f 2b3e
000002f0: 3b97 333e 09c7 2d3e 12c8 df3d 790e 4c3d
00000300: 7dae 323e e530 163e 21a0 643e 0b39 b4bd
00000310: 17f6 da3d bc38 c13d ed5a 963d ba5a a83c
00000320: d07f 403c a7ac 79bd 6fb8 4e3e 445f 84bd
00000330: d883 f23d 1f78 acbd f162 dfbc 3c3e 333e
00000340: a265 aabd 32e1 ddbd a4a8 aabd a63f a5bd
00000350: 5add e13b d5d2 ad3d f511 aebd ab8c 08bd
00000360: a0ea b23c 531a 2bbd 2c2c ce3c c986 113d
00000370: f64e 25be 199a 123d 6bc3 1f3d bf47 793e
00000380: 6577 ba3d fc76 273e 5aa7 dd3c 15e6 0e3e
00000390: 3478 353d 948c 8f3d 1ce9 893c 20d7 ac3c
000003a0: fdf8 a63d 5878 e53b 384c b0bd b066 2abd
000003b0: 1bae 0fbb 7e61 ee39 4d5b 173e 52cc 11bd
000003c0: fed2 b03d 76bb 863e c5cc 293d b636 febb
000003d0: 27db 51bd 048a 813b 2198 5f3e 8a58 43bd
000003e0: 7579 533d d25f b73c e4eb c33d 1ac4 383e
000003f0: b1ea 513e 21d4 2d3c cc81 d53d bc89 813e

policy_head.bias f4 [110]
-0.076512225 -0.24272962 0.1774791 0.16868772 -0.1966375 -0.17967588 0.09062064 -0.009806074
0.01695477 0.052243125 -0.08156974 -0.08772116 -0.07862582 -0.016959745 0.13630036 0.0936124
0.102776885 0.09630935 0.08954784 -0.001126765 -0.077717595 0.04745789 -0.13644317 0.06915678
0.08959288 0.06511669 0.08809687 0.0014149104 -0.0070770374 0.011741524 0.05222116 -0.018129962
0.08722262 0.026548276 -0.078091614 0.07693962 -0.06901027 0.081795715 -0.08298125 -0.0467139
-0.00977601 0.014145005 -0.074864484 -0.06141549 -0.020397823 -0.11869536 -0.011084389 -0.08476588
0.09375059 0.082004584 0.015305538 0.053462952 0.09452166 0.09157236 -0.103705615 -0.046271034
0.09659645 0.11316734 -0.06851837 -0.06012663 -0.048482165 -0.22615689 -0.13449211 -0.10274843
-0.16491894 -0.013579949 -0.016294079 -0.15863805 -0.0726224 -0.13083503 -0.13885625 -0.04294622
-0.109573625 -0.19864306 -0.22856417 -0.07020306 -0.14926131 -0.08648731 -0.09849828 -0.2343856
-0.11057176 -0.04486964 -0.057056762 -0.099677525 -0.13199025 -0.12864658 -0.19849841 -0.17516088
-0.11544764 -0.023297636 -0.036681455 -0.030258866 -0.02177046 -0.016643114 -0.103603415 -0.101380356
-0.01599059 -0.16154581 -0.071519315 -0.10773331 -0.18612385 -0.15478687 -0.23107633 -0.021731554
-0.05422189 -0.17075455 -0.09621616 -0.20314899 -0.028779436 -0.11036368
00000000: 71b2 9cbd 1d8e 78be 15bd 353e 79bc 2c3e
00000010: 575b 49be f4fc 37be 5097 b93d a8a9 20bc
00000020: bbe4 8a3c e3fc 553d 090e a7bd 27a7 b3bd
00000030: 9306 a1bd 2aef 8abc 5292 0b3e dcb7 bf3d
00000040: b07c d23d d63d c53d dc64 b73d f6af 93ba
00000050: 672a 9fbd 3463 423d c2b7 0bbe 12a2 8d3d
00000060: 797c b73d e65b 853d 226c b43d 8474 b93a
00000070: 7ee6 e7bb 855f 403c dbe5 553d 4985 94bc
00000080: c6a1 b23d c57b d93c 7fee 9fbd 8592 9d3d
00000090: 4255 8dbd 8384 a73d 13f2 a9bd 1357 3fbd
000000a0: 8f2b 20bc 73c0 673c 8d52 99bd cf8e 7bbd
000000b0: 5619 a7bc 8e16 f3bd 4c9b 35bc bc99 adbd
000000c0: 4f00 c03d 05f2 a73d 14c4 7a3c f8fb 5a3d
000000d0: 9294 c13d 4a8a bb3d 9c63 d4bd b286 3dbd
000000e0: 5cd4 c53d 47c4 e73d 5c53 8cbd 5747 76bd
000000f0: 3c95 46bd ac95 67be 4db8 09be c56d d2bd
00000100: 83e0 28be 6f7e 5ebc 297b 85bc 0372 22be
00000110: 0ebb 94bd 9ef9 05be 5530 0ebe 60e8 2fbd
00000120: 2368 e0bd 1669 4bbe ba0c 6abe 9fc6 8fbd
00000130: f5d7 18be 4220 b1bd 77b9 c9bd c702 70be
00000140: 7273 e2bd 3ac9 37bd 5ab4 69bd bb23 ccbd
00000150: 7428 07be eebb 03be 2b43 4bbe 605d 33be
00000160: d06f ecbd afda bebc 4b3f 16bd 71e1 f7bc
00000170: f757 b2bc 2457 88bc 072e d4bd 81a0 cfbd
00000180: b3fe 82bc 446c 25be b878 92bd 48a3 dcbd
00000190: 4097 3ebe 7380 1ebe 469f 6cbe 5f06 b2bc
000001a0: c617 5ebd 48da 2ebe fa0c c5bd 4a06 50be
000001b0: dac2 ebbc 5a06 e2bd

value_head.weight f4 [1, 64]
0.100254655 0.06282046 0.09872927 0.11926819 -0.07912105 0.084026426 0.08509616 0.024709553
-0.121533126 -0.04982439 0.08497197 0.073490806 0.091432445 -0.18813597 0.10732212 0.097202696
-0.077676706 -0.0155545985 -0.10256912 0.08047573 0.10924276 0.037147544 -0.18327522 0.11900567
0.075600065 -0.08887694 0.09190742 0.101044424 -0.2117954 -0.101232715 -0.09165025 -0.024082132
0.049328573 0.0697687 0.05060813 0.12512724 -0.23514472 -0.1177595 -0.096019104 0.07975116
0.00053035974 -0.00794743 -0.062298708 -0.053195253 -0.01951409 0.08873502 0.020143578 -0.034885775
-0.008498483 -0.0053449105 0.10951257 -0.21237333 0.07577187 -0.07069335 0.030913258 -0.013151714
-0.080929406 -0.27060258 -0.03181635 0.033053704 0.013654838 0.02780864 -0.036116928 -0.009415768
00000000: 5052 cd3d 03a8 803d 9232 ca3d e142 f43d
00000010: 380a a2bd 0c16 ac3d e546 ae3d b06b ca3c
00000020: 5ce6 f8bd a914 4cbd c905 ae3d 5982 963d
00000030: ef40 bb3d b7a6 40be b3cb db3d 3512 c73d
00000040: f714 9fbd b7d8 7ebc c20f d2bd 76d0 a43d
00000050: abba df3d 0628 183d 80ac 3bbe 3fb9 f33d
00000060: 35d4 9a3d 1d05 b6bd f539 bc3d 61f0 ce3d
00000070: e5e0 58be 1953 cfbd 20b3 bbbd e447 c5bc
00000080: c20c 4a3d e4e2 8e3d 784a 4f3d 5b21 003e
00000090: c7c9 70be e52b f1bd aaa5 c4bd 9454 a33d
000000a0: d707 0b3a f035 02bc ee2c 7fbd 44e3 59bd
000000b0: 03dc 9fbc b5ba b53d 2504 a53c 63e4 0ebd
000000c0: 393d 0bbc 5c24 afbb 2048 e03d 6578 59be
000000d0: 482e 9b3d adc7 90bd cd3d fd3c 497a 57bc
000000e0: 51be a5bd 6c8c 8abe dc51 02bd 5263 073d
000000f0: 8bb8 5f3c f2ce e33c 58ef 13bd 9844 1abc

exp_avg f4 [128, 260]
0.00033130473 -0.00046663056 0.0002813185 0.00030496644 -0.00015008883 -0.0005813946 0.00034833798 0.00036848965
-0.00041512054 -0.00017802851 -0.00018119969 0.0001430259 0.0009034179 1.3241609e-05 0.00049958646 -0.00045753876
-0.00024700872 0.0003534303 -0.0007006161 0.00022136398 -0.00018614552 -0.00019677076 0.00023319187 0.00035238036
0.00061293127 -0.00014791181 0.00052672083 0.00023873324 -0.00029543138 -6.334659e-05 -0.00010097969 -0.00076901494
0.00027843143 0.00017000355 0.00053550577 0.0003019593 -0.00011841368 -0.00013158133 0.000114650305 -0.00016089022
0.0004021785 -0.00015446171 0.00013748504 -0.00036336094 0.0001225696 0.00027652088 0.00024959698 -0.00026255997
0.0006291452 -2.8883893e-05 0.00077448227 -9.7625336e-05 8.126396e-08 -3.354476e-06 7.1434944e-05 1.3918147e-05
1.6122525e-05 -4.370878e-05 -5.5421e-05 -0.000108664666 7.440756e-05 -3.4704158e-07 0.00015527089 3.316168e-05
8.245646e-05 2.6250653e-08 -6.25207e-05 2.1884187e-05 -2.1076725e-05 2.095863e-06 -1.4213064e-05 -1.8294735e-05
8.216081e-05 -4.63058e-05 0.00012418273 -5.793562e-07 -0.00022176221 1.3997771e-05 -6.3134024e-08 4.167241e-05
2.9400642e-05 9.793923e-08 2.951766e-06 9.515118e-05 -6.6027336e-05 -6.562463e-05 0.0001803329 2.6630412e-05
2.5876028e-05 2.075671e-06 -3.523586e-05 -1.8650978e-08 -2.9524548e-07 -3.036536e-05 1.3605537e-05 -5.771289e-05
0.00011820315 -9.643298e-05 0.000118025724 5.7406e-05 -0.00011248818 0.00010967697 -0.00015465505 -6.279849e-05
-0.00041540043 2.578281e-05 0.0001300879 -0.0005068918 0.0003309662 -0.0005396819 8.870501e-05 -0.00012804124
-0.00011126364 -0.0001722984 0.00035817322 -0.00047337485 -0.00052085164 -6.940789e-05 -0.0006392592 -0.00031187807
8.640123e-05 0.00013104921 9.285013e-05 3.5822464e-05 -3.3539214e-05 0.00031787215 -0.00015539867 -0.00033178655
-0.00035234133 0.00028785662 6.8726166e-07 0.00014045706 0.00024792983 4.8352085e-08 7.35021e-06 0.0005421363
1.7224274e-05 -9.643323e-07 -5.8715148e-05 -0.00036046305 8.861174e-05 -0.0006998741 -0.0005595145 8.5902975e-08
-0.00016362098 0.00013007005 -1.1270439e-05 -1.103763e-05 5.454318e-05 0.00014101145 -0.000165726 -0.00025509717
-0.00011520308 -0.00028181862 -0.0011634399 4.4508153e-05 0.00022591009 2.8048544e-07 0.00026298614 -0.00034099282
8.033953e-05 0.00016564227 -0.00052605773 -0.00017326769 5.6741936e-07 -0.0001939211 -4.5314588e-05 0.000107945605
-0.00015619355 -0.00025051335 -1.7801963e-06 0.0004751733 0.00018333214 -0.00012731519 -9.447575e-05 3.6455527e-05
8.58499e-05 -1.9525723e-05 0.00013636783 -2.3422228e-05 -4.3207274e-05 -0.00013626587 -3.90229e-09 -0.00014705406
-8.034495e-12 1.6867736e-05 -2.6935928e-07 0.00010862163 -3.0138171e-05 -0.0001358391 6.9284804e-05 4.794947e-06
1.9847346e-05 -4.1739568e-05 0.00012971807 -2.1031457e-05 0.0002180127 3.1418956e-12 1.793208e-06 2.8382067e-06
1.8258802e-12 8.3448176e-05 4.3118158e-05 0.00020268261 -6.3831365e-05 -8.980638e-05 -4.861753e-05 0.00018881512
0.00013630844 0.0007221259 -0.0004676233 0.0008072041 8.6472426e-07 0.0012773471 0.00042263983 0.00031968814
0.00072961336 0.0008227993 -8.725778e-06 0.00046744567 -3.062504e-05 0.00058485754 0.0004821779 0.0005505634
0.00027655615 -8.1056045e-05 0.000994659 2.8568436e-06 0.0003298782 0.00022293441 -6.013967e-05 0.00028161186
0.0002825838 0.00026052745 -0.00024913703 4.39539e-06 0.00029630496 0.0003245367 0.00036915115 0.0003013099
7.8713994e-05 0.00031062867 -0.00044820426 0.00030528253 0.0002622827 0.0011493235 0.00062858616 0.00046005842
-0.00017807102 0.0003329611 0.00013659078 0.00070747733 -1.7111812e-05 -0.00012634344 3.3189146e-05 0.0005357727
00000000: f8b2 ad39 18a6 f4b9 ee7d 9339 e7e3 9f39
00000010: 2a61 1db9 bb68 18ba 22a1 b639 d831 c139
00000020: 89a4 d9b9 2aad 3ab9 6c00 3eb9 39f9 1539
00000030: 59d3 6c3a 4728 5e37 aef6 023a d0e1 efb9
00000040: f380 81b9 9d4c b939 8da9 37ba f11d 6839
00000050: 0f30 43b9 4054 4eb9 f784 7439 b1bf b839
00000060: 1fad 203a c618 1bb9 a313 0a3a 7754 7a39
00000070: 21e4 9ab9 f1d8 84b8 0fc5 d3b8 b897 49ba
00000080: 6ffa 9139 fb42 3239 2f61 0c3a 4b50 9e39
00000090: dc54 f8b8 18f9 09b9 6a70 f038 a4b4 28b9
000000a0: 7cdb d239 00f7 21b9 dc29 1039 7b81 beb9
000000b0: 0786 0039 01fa 9039 57dc 8239 34a8 89b9
000000c0: 38ed 243a b04b f2b7 a006 4b3a 34bc ccb8
000000d0: 5683 ae33 751d 61b6 58cf 9538 fc81 6937
000000e0: dc3e 8737 f253 37b8 d873 68b8 e6e2 e3b8
000000f0: 410b 9c38 0851 bab4 36d0 2239 1517 0b38
00000100: 7aec ac38 cc7d e132 8c1d 83b8 ef93 b737
00000110: eccd b0b7 a7a6 0c36 a574 6eb7 a577 99b7
00000120: c04d ac38 7938 42b8 0c37 0239 0e85 1bb5
00000130: d788 68b9 f8d7 6a37 4c94 87b3 69c9 2e38
00000140: 66a1 f637 a952 d233 f416 4636 e78b c738
00000150: 2878 8ab8 f49f 89b8 bf17 3d39 6064 df37
00000160: 5910 d937 c24b 0b36 37ca 13b8 ef35 a0b2
00000170: 3b82 9eb4 1db9 feb7 5643 6437 be10 72b8
00000180: d5e3 f738 103c cab8 9484 f738 39c7 7038
00000190: a2e7 ebb8 6002 e638 e62a 22b9 afb2 83b8
000001a0: 1aca d9b9 2a48 d837 3468 0839 efe0 04ba
000001b0: 8885 ad39 7079 0dba 2407 ba38 cf42 06b9
000001c0: 3656 e9b8 00ab 34b9 32c9 bb39 4c2f f8b9
000001d0: c389 08ba 148f 91b8 f593 27ba 9183 a3b9
000001e0: 4f32 b538 416a 0939 89b8 c238 1440 1638
000001f0: 75ac 0cb8 14a8 a639 83f2 22b9 a3f3 adb9
00000200: 74ba b8b9 76eb 9639 437c 3835 a847 1339
00000210: 94fc 8139 aeab 4f33 d3a1 f636 271e 0e3a
00000220: d97c 9037 356e 81b5 e944 76b8 88fc bcb9
00000230: 11d5 b938 c177 37ba 62ac 12ba a979 b833
00000240: ac91 2bb9 6a63 0839 2b16 3db7 432e 39b7
00000250: 4bc5 6438 79dc 1339 bcc6 2db9 90be 85b9
00000260: 2f99 f1b8 0ec1 93b9 917e 98ba 44ae 3a38
00000270: 47e2 6c39 a095 9634 67e1 8939 48c7 b2b9
00000280: f57b a838 42b0 2d39 23e7 09ba 31af 35b9
00000290: c350 1835 4d57 4bb9 2b10 3eb8 db60 e238
000002a0: e3c7 23b9 5557 83b9 14ef eeb5 ae20 f939
000002b0: d93c 4039 e97f 05b9 4821 c6b8 d3e7 1838
000002c0: 500a b438 2ccb a3b7 f6fd 0e39 da7a c4b7
000002d0: 7539 35b8 97e2 0eb9 e814 86b1 8632 1ab9
000002e0: 2658 0dad 307f 8d37 759c 90b4 cbcb e338
000002f0: 3bd1 fcb7 0870 0eb9 ff4c 9138 48e4 a036
00000300: da7d a637 8511 2fb8 ee04 0839 b66c b0b7
00000310: 579a 6439 5c17 5d2c 28ae f035 0578 3e36
00000320: 227c 002c e600 af38 c5d9 3438 3387 5439
00000330: 34dd 85b8 6f56 bcb8 adea 4bb8 acfc 4539
00000340: 05ee 0e39 0c4d 3d3a 562b f5b9 8d9a 533a
00000350: 661f 6835 a86c a73a c295 dd39 d19b a739
00000360: 8643 3f3a 20b1 573a ee64 12b7 7f13 f539
00000370: 6373 00b8 2051 193a d2cc fc39 af53 103a
00000380: bdfe 9039 a2fc a9b8 385f 823a 33b8 3f36
00000390: 81f3 ac39 80c3 6939 7b3e 7cb8 4ea5 9339
000003a0: c127 9439 6797 8839 9b9e 82b9 1d7c 9336
000003b0: 6159 9b39 9426 aa39 a18a c139 21f9 9d39
000003c0: 4113 a538 e0db a239 f5fc eab9 540e a039
000003d0: fd82 8939 e6a4 963a b4c7 243a ff33 f139
000003e0: 93b8 3ab9 4891 ae39 cf39 0f39 0076 393a
000003f0: 568b 8fb7 0f7b 04b9 9334 0b38 1973 0c3a

exp_avg_sq f4 [128, 260]
1.4739177e-06 1.3180054e-06 2.3766054e-06 2.0230736e-06 2.3590794e-06 1.6682038e-06 1.4284133e-06 3.1442808e-06
2.9782987e-06 4.086025e-06 2.589389e-06 4.285638e-06 2.7774522e-06 1.1362054e-06 1.4875218e-06 3.2341634e-06
1.4209586e-06 3.0796673e-06 2.2928555e-06 3.2060093e-06 2.1858461e-06 3.7021377e-06 2.3315029e-06 4.39224e-06
1.9415413e-06 2.8625716e-06 2.6161658e-06 2.1126923e-06 2.7551434e-06 1.6503656e-06 2.1055641e-06 3.701152e-06
2.9634252e-06 3.5181408e-06 4.0894492e-06 2.3390387e-06 3.0489716e-06 2.322678e-06 1.6974809e-06 9.3785627e-07
9.755258e-07 1.4966977e-06 1.6965965e-06 1.6841742e-06 1.6899669e-06 2.51482e-06 1.4000832e-06 3.6066567e-06
3.546419e-06 2.096247e-06 3.274883e-06 4.5945253e-06 1.3888619e-08 3.1976217e-09 6.807563e-08 2.9338924e-08
5.370493e-08 1.619142e-07 1.0398221e-07 5.3773476e-07 1.1464495e-07 2.2572249e-07 2.0514948e-07 1.4474762e-07
1.4033006e-07 1.1586704e-08 3.9944097e-09 8.634971e-09 2.8649584e-08 1.196466e-07 8.21161e-08 1.3698052e-06
2.0749289e-07 1.4627027e-07 4.4722088e-07 1.2693467e-07 1.942701e-07 2.1684767e-07 5.1818874e-09 9.113009e-09
3.3715557e-09 4.9753144e-08 5.4448435e-08 1.617272e-07 1.4847143e-07 3.9154455e-07 1.2459522e-07 1.5454937e-07
1.9367978e-07 7.800267e-07 1.453512e-07 2.4107749e-08 1.8941153e-08 1.6113908e-08 3.7354702e-08 8.430723e-08
9.6442776e-08 1.4860451e-07 2.0676244e-07 1.4690498e-07 2.9044773e-07 3.3854056e-07 2.4404244e-07 2.0241733e-07
6.75039e-07 3.1042276e-07 1.3425764e-06 7.2856125e-07 1.1681886e-06 1.3191285e-06 1.6728036e-06 1.7349303e-06
3.4735808e-06 2.191977e-06 2.0902287e-06 2.0626405e-06 3.0550125e-06 1.0866137e-06 4.400851e-07 3.567626e-07
3.909092e-07 6.449678e-07 1.4960164e-06 1.4124289e-06 1.2996901e-06 1.455378e-06 3.0787894e-06 3.1022685e-06
3.0808947e-06 4.631201e-06 4.8144864e-07 5.1936706e-07 6.689771e-07 4.600843e-07 7.6446713e-07 1.0242941e-06
2.518214e-06 1.5470761e-06 1.4339386e-06 2.334815e-06 2.7799763e-06 3.859532e-06 2.9766077e-06 1.1687686e-06
4.7648044e-07 3.748252e-07 5.7822854e-07 6.705603e-07 1.2503855e-06 1.0910392e-06 1.8929844e-06 2.0485356e-06
2.9688028e-06 3.5007706e-06 3.620212e-06 2.9033777e-06 3.2079396e-07 8.23154e-08 6.026823e-07 5.408734e-07
2.1752882e-07 5.141692e-07 5.9527144e-07 1.1326307e-07 2.2388592e-07 1.5995138e-07 1.06738774e-07 1.1286162e-07
1.6942342e-07 1.0639875e-06 2.3761282e-07 6.3162844e-07 7.323065e-07 2.00467e-07 8.615207e-07 1.2525493e-07
1.2875387e-07 1.3069283e-07 5.976437e-07 6.533745e-07 1.6932387e-07 2.1456688e-07 8.150683e-07 6.868791e-07
2.7367057e-07 1.3864485e-07 7.2838174e-07 2.1479653e-07 1.2936349e-07 1.8341197e-07 1.3915063e-07 1.4475747e-06
1.247611e-07 1.336869e-07 3.6140256e-07 4.6848044e-07 5.619964e-07 8.723128e-08 2.0623456e-06 1.7240206e-06
4.030965e-07 3.5818906e-07 2.3584342e-07 1.7739345e-07 8.4568626e-07 1.5044424e-07 9.819325e-08 1.0932835e-07
1.0103661e-05 1.0772181e-05 1.1151503e-05 1.0177135e-05 9.644566e-06 9.667674e-06 8.528655e-06 6.834838e-06
6.847546e-06 6.467529e-06 6.817915e-06 6.543864e-06 7.6229144e-06 9.836789e-06 1.0025965e-05 1.034638e-05
9.060445e-06 9.972664e-06 8.22376e-06 7.069234e-06 8.756659e-06 6.9827915e-06 5.0963167e-06 5.5434944e-06
7.976514e-06 5.1947627e-06 8.647153e-06 1.0620057e-05 1.0551218e-05 9.649592e-06 9.711121e-06 7.5222515e-06
6.9097537e-06 7.5721273e-06 6.2666963e-06 6.388898e-06 7.5310454e-06 5.406632e-06 6.1099026e-06 1.0633191e-05
1.036506e-05 1.0517909e-05 8.874984e-06 8.980962e-06 8.356403e-06 8.374671e-06 8.003289e-06 5.705096e-06
00000000: 6dd3 c535 52e6 b035 c57d 1f36 24c4 0736
00000010: ad50 1e36 0ce7 df35 e8b7 bf35 5502 5336
00000020: c8de 4736 b01a 8936 5dc5 2d36 5acd 8f36
00000030: 4464 3a36 b87f 9835 dca6 c735 810a 5936
00000040: c4b7 be35 48ac 4e36 f5de 1936 d226 5736
00000050: 8db0 1236 3e72 7836 ea76 1c36 0e61 9336
00000060: 6d4b 0236 9b1a 4036 6391 2f36 c7c7 0d36
00000070: 01e5 3836 2182 dd35 514d 0d36 4f61 7836
00000080: 42df 4636 3319 6c36 1a38 8936 61f8 1c36
00000090: ef9c 4c36 4edf 1b36 00d5 e335 fec0 7b35
000000a0: d0ee 8235 24e2 c835 9db6 e335 c90b e235
000000b0: d2d2 e235 47c4 2836 7eea bb35 e409 7236
000000c0: 04ff 6d36 40ad 0c36 10c6 5b36 ac2a 9a36
000000d0: cb9a 6e32 28bd 5b31 f930 9233 fa04 fc32
000000e0: 32a9 6633 a3da 2d34 d34c df33 da58 1035
000000f0: ba32 f633 205e 7234 0f47 5c34 ec6b 1b34
00000100: a2ad 1634 dd0e 4732 333f 8931 0159 1432
00000110: 1a19 f632 3578 0034 ce57 b033 26da b735
00000120: 36cb 5e34 770e 1d34 9219 f034 894b 0834
00000130: 8f98 5034 a2d6 6834 5d0c b231 708f 1c32
00000140: 09b1 6731 29b0 5533 b0da 6933 3ca7 2d34
00000150: 846b 1f34 7935 d234 79c8 0534 35f2 2534
00000160: 4bf6 4f34 0763 5135 d511 1c34 8015 cf32
00000170: 09b4 a232 dc6a 8a32 ee6f 2033 640c b533
00000180: fa1b cf33 1990 1f34 6d02 5e34 efbc 1d34
00000190: d5ee 9b34 a9c0 b534 f004 8334 0d58 5934
000001a0: 5434 3535 2ea8 a634 9332 b435 5992 4335
000001b0: a8ca 9c35 e90c b135 1885 e035 c0db e835
000001c0: aa1b 6936 e119 1336 db45 0c36 e56b 0a36
000001d0: b704 4d36 c3d7 9135 d644 ec34 1489 bf34
000001e0: 27de d134 da21 2d35 bbca c835 b092 bd35
000001f0: 0371 ae35 6856 c335 339d 4e36 9130 5036
00000200: 5ec1 4e36 b765 9b36 e63c 0135 a26a 0b35
00000210: c293 3335 8101 f734 c835 4d35 7a7a 8935
00000220: 96fe 2836 21a5 cf35 c175 c035 d1af 1c36
00000230: a18f 3a36 2181 8136 bbc1 4736 95de 9c35
00000240: f9ce ff34 953b c934 9037 1b35 8e00 3435
00000250: ebd2 a735 d26f 9235 7312 fe35 9379 0936
00000260: a53b 4736 c8ee 6a36 c5f2 7236 a6d7 4236
00000270: 9639 ac34 5fc5 b033 03c8 2135 8930 1135
00000280: de91 6934 7005 0a35 beca 1f35 083b f333
00000290: 4b65 7034 1abf 2b34 4338 e533 555e f233
000002a0: c1ea 3534 55ce 8e35 8422 7f34 2d8d 2935
000002b0: b893 4435 f33f 5734 4043 6735 d07d 0634
000002c0: 983f 0a34 9254 0c34 c36d 2035 8e63 2f35
000002d0: 64cf 3534 b263 6634 11cb 5a35 f961 3835
000002e0: ffec 9234 68de 1434 0386 4335 d2a2 6634
000002f0: 2ae7 0a34 e6ef 4434 6f69 1534 4a4a c235
00000300: 12f6 0534 938b 0f34 ca06 c234 7683 fb34
00000310: 19dc 1635 e753 bb33 d466 0a36 e664 e735
00000320: 2969 d834 214d c034 253c 7d34 8a79 3e34
00000330: 1e03 6335 cc89 2134 4fde d233 e5c7 ea33
00000340: e582 2937 2aba 3437 5717 3b37 76be 2a37
00000350: 18cf 2137 5832 2237 4b16 0f37 d056 e536
00000360: f9c3 e536 a703 d936 72c5 e436 5d93 db36
00000370: 56c8 ff36 b008 2537 3135 2837 5d95 2d37
00000380: 5102 1837 4450 2737 c8f8 0937 4234 ed36
00000390: 90e9 1237 b94d ea36 0701 ab36 4102 ba36
000003a0: ded2 0537 ac4e ae36 3d13 1137 cc2c 3237
000003b0: 2305 3137 afe4 2137 f2ec 2237 a667 fc36
000003c0: 55da e736 1414 fe36 8346 d236 3760 d636
000003d0: 30b3 fc36 9e6a b536 aa03 cd36 3565 3237
000003e0: 98e5 2d37 1376 3037 c4e5 1437 f0ac 1637
000003f0: 7a32 0c37 f080 0c37 dd45 0637 676e bf36

exp_avg f4 [128]
0.00027820407 6e-45 6e-45 0.0004883082 0.0006094121 0.0004057218 -1.4443561e-05 -1.7253984e-05
-5.678224e-05 -0.00013310321 0.00016945862 6e-45 5.9824747e-06 6e-45 7.9251935e-05 6e-45
2.915626e-05 0.00026509672 6e-45 0.00019052521 1.7507008e-09 6e-45 0.00010959212 6e-45
0.00043227247 4.401263e-05 0.00023270164 6e-45 -6.224778e-05 -0.0010706892 0.00019168798 -7.850894e-05
2.5004708e-06 -0.00029451412 4.1683463e-20 0.00010588069 -1.6332136e-06 0.00017167922 -8.426116e-05 6e-45
-1.429372e-08 -5.7187734e-08 -6e-45 0.00017961227 0.00022629036 0.00030668985 8.180327e-05 0.00029019656
0.00071128365 -0.00018317616 0.00033490118 0.00030650536 0.0002586484 -1.5139378e-05 -0.0002907572 -4.1721116e-05
0.00013765976 1.1844384e-05 0.00017240258 1.2430966e-23 3.7937727e-05 1.2978932e-25 0.00025303895 9e-44
-1.0251975e-05 0.00017833684 0.000106171 -8.7424356e-05 -4.2483047e-05 -0.00014601708 1.5916778e-22 0.00026626667
-0.00018891237 0.00012424278 0.00044274796 -8.930921e-05 4.694e-42 0.0010758177 0.00030849918 -8.354198e-05
-2.6110724e-12 2.1303e-41 6e-45 1.2014695e-05 6e-45 0.00014199395 0.0002507498 0.00031139702
6e-45 0.00028346802 0.001972267 0.00015758113 -0.000116699026 0.0002393387 0.0007764681 0.00011383258
0.00011700128 -0.00016026617 3.3731536e-05 6e-45 -2.8123984e-06 0.000116487645 0.00019035995 1.6887703e-34
-1.2965417e-14 0.00032351117 3.896628e-05 1.5697984e-05 0.0035006795 -8.399575e-05 0.00021300215 6e-45
0.00011379066 6e-45 0.00024090688 -0.0009523265 0.00034098755 0.0005485334 -1.314422e-05 -3.978654e-05
8.6255156e-24 0.00020764205 6e-45 4.76995e-40 6e-45 0.00083010556 0.00018145755 3.5083773e-05
00000000: ebdb 9139 0400 0000 0400 0000 cf01 003a
00000010: f4c0 1f3a 0fb7 d439 9f52 72b7 a6bc 90b7
00000020: 7729 6eb8 9f91 0bb9 b4b0 3139 0400 0000
00000030: 11bd c836 0400 0000 0f34 a638 0400 0000
00000040: 9794 f437 aefc 8a39 0400 0000 b9c7 4739
00000050: 4f9d f030 0400 0000 d2d4 e538 0400 0000
00000060: a1a2 e239 349a 3838 5f01 7439 0400 0000
00000070: 068b 82b8 5e56 8cba daff 4839 2ba5 a4b8
00000080: c3cd 2736 0469 9ab9 37d8 441f 430c de38
00000090: cb34 dbb5 ca04 3439 5eb5 b0b8 0400 0000
000000a0: 7290 75b2 949e 75b3 0400 0080 4d56 3c39
000000b0: 5b48 6d39 37cb a039 cc8d ab38 8625 9839
000000c0: 7075 3a3a fa12 40b9 ad95 af39 74b2 a039
000000d0: 339b 8739 22ff 7db7 c570 98b9 b5fd 2eb8
000000e0: c358 1039 3eb7 4637 f7c6 3439 2a73 7019
000000f0: 531f 1f38 e1ab 2016 50aa 8439 4000 0000
00000100: e6ff 2bb7 eeff 3a39 1fa8 de38 9857 b7b8
00000110: d32f 32b8 291c 19b9 0b6c 401b b599 8b39
00000120: c716 46b9 2b47 0239 a020 e839 844b bbb8
00000130: 160d 0000 7402 8d3a 0fbe a139 4233 afb8
00000140: e6bc 37ac 623b 0000 0400 0000 b992 4937
00000150: 0400 0000 36e4 1439 1277 8339 0043 a339
00000160: 0400 0000 6f9e 9439 2641 013b 5d3c 2539
00000170: 50bc f4b8 fef6 7a39 e48b 4b3a 67b9 ee38
00000180: 955e f538 1f0d 28b9 f67a 0d38 0400 0000
00000190: a3bc 3cb6 d44a f438 5c9b 4739 e079 6007
000001a0: 6f90 69a8 ef9c a939 b96f 2338 2aaf 8337
000001b0: a86b 653b e026 b0b8 5459 5f39 0400 0000
000001c0: e5a2 ee38 0400 0000 f39b 7c39 8da5 79ba
000001d0: 93c6 b239 74cb 0f3a ff85 5cb7 79e0 26b8
000001e0: 7cd7 2619 7dba 5939 0400 0000 ab31 0500
000001f0: 0400 0000 719b 593a a445 3e39 ea26 1338

exp_avg_sq f4 [128]
1.3150995e-05 5.80053e-09 5.8853675e-07 1.7418663e-05 8.386509e-06 5.1183317e-05 5.5386904e-06 4.9336527e-06
4.837683e-06 2.8962465e-06 2.4387393e-06 9.861074e-09 6.7940996e-06 1.7780242e-07 1.0351806e-05 1.6543078e-10
2.9341268e-06 7.936827e-06 9.1087395e-09 1.4609133e-05 1.0637605e-06 1.5592589e-07 2.6182393e-06 7.0514767e-09
3.945814e-05 7.4906507e-06 2.4538913e-06 1.4729797e-15 2.8401155e-06 7.842375e-06 1.09300545e-05 3.5166477e-06
1.5534208e-05 5.5587734e-06 2.3563441e-08 6.1665282e-06 5.837957e-06 5.3099975e-06 3.966942e-06 2.3823276e-08
2.048114e-06 1.786926e-08 1.5244545e-08 8.489097e-06 1.2756095e-05 1.9138499e-05 6.5670924e-06 4.6430963e-05
5.4301803e-05 5.82178e-06 3.3776396e-05 1.2815363e-05 6.3596103e-06 1.0763235e-05 6.429797e-06 1.135011e-06
2.4165676e-05 3.9309866e-06 8.597739e-06 2.2679282e-07 3.990192e-06 7.787265e-11 2.6824633e-05 4.1163634e-07
1.6272495e-06 7.6078145e-06 1.6940781e-05 5.0117574e-06 1.994471e-06 3.641133e-06 5.2898254e-06 1.1922139e-05
7.5307044e-06 7.2778043e-06 1.4812344e-05 1.4570426e-05 1.5349661e-08 3.8508228e-05 1.14063505e-05 4.53489e-06
3.072778e-06 2.1323128e-06 1.6295962e-07 1.0292606e-05 1.1664615e-09 5.5762134e-06 1.7037404e-05 2.5455623e-05
6.856603e-13 3.3587537e-05 4.014036e-05 5.7931084e-06 1.9158038e-06 4.0197756e-06 7.374283e-05 5.546518e-06
2.1572629e-05 2.6436003e-06 3.2052465e-06 4.878854e-09 3.6004196e-06 1.6519763e-05 6.3728266e-06 4.8788387e-09
2.1061634e-05 9.5547775e-06 3.0026606e-06 1.2798706e-06 0.00038858724 6.351082e-06 1.2074663e-05 8.2342585e-06
5.5402697e-06 2.3247139e-11 9.226366e-06 9.393211e-05 2.5410582e-05 5.45577e-05 3.7003429e-06 6.4634805e-06
1.2898408e-07 1.7527907e-05 3.728726e-09 5.7878125e-09 7.9076386e-07 7.8326324e-05 1.5130258e-05 9.521657e-06
00000000: 18a3 5c37 004e c731 f0fb 1d35 4b1e 9237
00000010: c8b3 0c37 abad 5638 fdd8 b936 c18b a536
00000020: 6153 a236 235d 4236 39a9 2336 7669 2932
00000030: dff8 e336 f5e9 3e34 abac 2d37 a0e4 352f
00000040: eae7 4436 6a28 0537 a97c 1c32 c019 7537
00000050: 88c6 8e35 956c 2734 02b5 2f36 7249 f231
00000060: db7f 2538 3358 fb36 88ad 2436 5c47 d426
00000070: d098 3e36 bf92 0337 3a60 3737 8cff 6b36
00000080: 754f 8237 8085 ba36 8e68 ca32 13ea ce36
00000090: abe3 c336 882c b236 c61b 8536 f0a3 cc32
000000a0: 5572 0936 eb7e 9932 1cf3 8232 656c 0e37
000000b0: 0303 5637 9d8b a037 e55a dc36 debe 4238
000000c0: 1ec2 6338 b658 c336 21ab 0d38 9101 5737
000000d0: a364 d536 be93 3437 89bf d736 ae56 9835
000000e0: 65b7 ca37 ebe6 8336 023f 1037 5684 7334
000000f0: 7de3 8536 683e ab2e 7605 e137 defe dc34
00000100: de67 da35 a146 ff36 0d1c 8e37 ab2a a836
00000110: c0d8 0536 305a 7436 417f b136 3205 4837
00000120: 42b0 fc36 dd33 f436 8882 7837 8173 7437
00000130: 43da 8332 e583 2138 e75d 3f37 692a 9836
00000140: ed35 4e36 db18 0f36 00fa 2e34 68ae 2c37
00000150: 3751 a030 4f1b bb36 8ceb 8e37 8989 d537
00000160: 08ff 402b 58e0 0c38 625c 2838 6c62 c236
00000170: 4291 0036 9ce1 8636 61a6 9a38 3a1c ba36
00000180: def6 b437 b568 3136 b719 5736 dba2 a731
00000190: bd9e 7136 ec93 8a37 2ad6 d536 b8a2 a731
000001a0: 84ad b037 754d 2037 5181 4936 05c8 ab35
000001b0: 4cbb cb39 611b d536 4894 4a37 df25 0a37
000001c0: 8ee6 b936 e77b cc2d f1ca 1a37 6bfd c438
000001d0: cf28 d537 e2d4 6438 6853 7836 e0e0 d836
000001e0: e07e 0a34 e508 9337 391e 8031 23de c631
000001f0: e144 5435 2043 a438 f7d7 7d37 35bf 1f37
