ppo/ppo_agent_episode_700.pth (torch, 596526 bytes, 21 tensors)

fc1.weight f4 [128, 260]
0	0x3c3ce15f	0.011528342
1	0xbc95c25d	-0.018281156
2	0x3bc56f12	0.0060252035
3	0xbdb7408d	-0.08947859
4	0x3d7ccda1	0.06171954
5	0xbd5880ed	-0.05285733
6	0xbc1fbf14	-0.009750146
7	0x3d9f9998	0.077929676
8	0x3d8518df	0.064988844
9	0xbce5f3ab	-0.028070292
10	0x3ca57dce	0.02020159
11	0xbb882cf9	-0.004155752
12	0x3c9f8b01	0.019475462
13	0x3de8aefd	0.11361501
14	0x3b64165b	0.0034803364
15	0xbc59cd8e	-0.013293637
16	0xbd9d7f79	-0.07690329
17	0xbdb7e1bb	-0.089786015
18	0xbce78a90	-0.028264314
19	0x3d010fd2	0.031509228
20	0xbd89b24e	-0.06723462
21	0x3c75be6b	0.014999012
22	0x3d1b1e10	0.037870467
23	0x3d762238	0.060091227
24	0xbd59cb11	-0.053172175
25	0x3d1a376d	0.037650514
26	0xbcb6c9a9	-0.022312956
27	0x3d6408ad	0.055672336
28	0x3d5b7f95	0.05358847
29	0x3c788182	0.015167596
30	0xbc462049	-0.012092658
31	0xbd9f054d	-0.07764683
32	0xbdbc4d87	-0.09194475
33	0xbc8f3482	-0.017481092
34	0xbd9b56e2	-0.07584931
35	0xbd699361	-0.057025317
36	0xbda6d759	-0.08146543
37	0xbcb1d1d5	-0.021706501
38	0x3c1b2641	0.00946957
39	0x3cc8201a	0.02442937
40	0x39c4dd68	0.00037548994
41	0x3badb353	0.005300918
42	0x3b8a585e	0.00422196
43	0x3cfbca5c	0.03073614
44	0xbc950941	-0.01819289
45	0x3d300b00	0.04297924
46	0xbd610bc5	-0.054942865
47	0x3d007b91	0.031367842
48	0x3d9f2aaa	0.077718094
49	0x3ce036f5	0.027369956
50	0xbc8a00c5	-0.01684607
51	0x3d572a46	0.05253055
52	0x3d9984bc	0.0749602
53	0xbd57fcf4	-0.05273147
54	0xbd987e59	-0.07445974
55	0xbd16950f	-0.036763247
56	0xbc087bc3	-0.008330288
57	0x3d1275a0	0.035756707
58	0x3bf33f16	0.007423292
59	0x3b281d63	0.0025652281
60	0x3d16ae33	0.036787223
61	0x3d85e9d3	0.06538739
62	0xbd03c79a	-0.032172777
63	0x3cbc93a9	0.023019629
64	0xbd1fd269	-0.039019022
65	0xbc7550e4	-0.014972899
66	0xbd08b329	-0.033373985
67	0xba92235a	-0.0011149452
68	0xbc1e87eb	-0.00967596
69	0xbce22c84	-0.027609117
70	0xbc8c9171	-0.017159196
71	0x3ced078c	0.028934263
72	0x3b9e5337	0.0048316973
73	0xbd0d5313	-0.034503054
74	0x3d4c4477	0.04986998
75	0xbd15e223	-0.036592614
76	0xbd4ca862	-0.04996527
77	0x3b1dfdeb	0.0024107646
78	0x3b3cfbe0	0.0028836653
79	0xb90d85e7	-0.0001349669
80	0xbd86bd31	-0.06579054
81	0x3cbb9724	0.022899218
82	0xbb5f14e4	-0.0034039551
83	0x3d34de57	0.044157352
84	0x3be203ca	0.0068974243
85	0x3c1bf2f9	0.009518378
86	0xbc8275af	-0.015925257
87	0x3b1140c7	0.0022163854
88	0x3ce0a15b	0.02742069
89	0xba625c99	-0.0008635014
90	0xbd240c5e	-0.040050857
91	0xbbfd4a5f	-0.007729813
92	0x3d3fa170	0.04678482
93	0x3cf1159b	0.029429248
94	0x3cbc811c	0.023010783
95	0x3d3645ab	0.044500034
96	0x3d5b9c26	0.05361571
97	0x3ca28317	0.0198379
98	0x3af1f0c7	0.0018458598
99	0xbc13f662	-0.00903091
100	0x3c9a24a0	0.018816292
101	0x3c665e44	0.014060561
102	0xbd48bc61	-0.049007777
103	0xbd2f7afe	-0.042841904
104	0x3d85fd3b	0.065424405
105	0x3c932ae1	0.017964782
106	0x3bd420b9	0.0064736274
107	0xbd068b4c	-0.032847688
108	0xbd3d616e	-0.046235494
109	0x3cee1178	0.029061064
110	0xbd2368d3	-0.03989489
111	0xbb530e14	-0.0032204436
112	0xbc53a595	-0.012917896
113	0x3d6ce88f	0.057838973
114	0xbc8c973b	-0.017161956
115	0xbd0eacad	-0.034832645
116	0x3d59e042	0.053192385
117	0xbbf0984c	-0.007342374
118	0xbd4e76cc	-0.050406262
119	0xbc5f1eb9	-0.013618165
120	0xbd603f32	-0.054747768
121	0xbca1f831	-0.019771667
122	0x3d95ec95	0.07320515
123	0x3dc6abdf	0.097007506
124	0x3d945f31	0.07244719
125	0x3d32d282	0.043657787
126	0xbcba9a94	-0.022778787
127	0x3ad11c3d	0.001595385
128	0xbcf9efd7	-0.030509872
129	0x3d7ff979	0.062493775
130	0x3ca524fa	0.020159233
131	0x3cd43107	0.025902284
132	0x3c82c00d	0.015960718
133	0xbc8b8e69	-0.01703568
134	0x3d85bced	0.06530175
135	0x3d8d92ff	0.06912803
136	0x3d25c92f	0.040475067
137	0x3dc1738a	0.094458655
138	0x3ca7dadb	0.0204901
139	0x3d191870	0.03737682
140	0x3c21c929	0.0098746205
141	0x3dbd98f6	0.092576906
142	0x3d971da3	0.073787
143	0x3cadf869	0.021236615
144	0x3d7c0907	0.061532047
145	0x3cc813a8	0.024423435
146	0x3ca022d1	0.019547852
147	0xbc070cb8	-0.0082427785
148	0xbd031f67	-0.03201237
149	0x3cec365c	0.028834514
150	0xbd49948c	-0.04921393
151	0x3dae7d7e	0.085200295
152	0xbc09d0fb	-0.008411641
153	0x3cf8175f	0.030284582
154	0x3cb63366	0.022241306
155	0xbd76b733	-0.060233306
156	0x3c94746b	0.018121919
157	0xbc828d8f	-0.015936641
158	0xbd272cf7	-0.040814366
159	0x3d0d8021	0.03454602
160	0xbbba4e6f	-0.0056856195
161	0xbd23fb0d	-0.040034343
162	0x3be0c811	0.0068597873
163	0x3c9e87cb	0.01935186
164	0x3cd52c8d	0.02602222
165	0x3d1b8627	0.037969735
166	0xbd87f299	-0.06638069
167	0xbd04bd6e	-0.032407217
168	0x3c97ed05	0.018545637
169	0xbc8d8da4	-0.017279454
170	0x3a207248	0.0006120545
171	0x3d33a160	0.04385507
172	0x3e1cd6e6	0.15316352
173	0xbd21124e	-0.039324097
174	0x3d009e2e	0.031400852
175	0xba5017b8	-0.00079381047
176	0xbbde84ef	-0.0067907493
177	0xbd3a5138	-0.045487612
178	0xbb2c9464	-0.0026333565
179	0xba00cdb8	-0.0004913467
180	0xbca06c58	-0.019582912
181	0x3c70fb98	0.014708422
182	0x3c7f4df9	0.015582555
183	0x3cf2a928	0.029621676
184	0xbd10d2fe	-0.035357468
185	0x3cb0252c	0.0215021
186	0x3c212206	0.009834772
187	0xbd307cb1	-0.043087665
188	0xbd2e509a	-0.042557336
189	0x3d2839ac	0.041070625
190	0x3c29bbbf	0.010359704
191	0xbcca4e7d	-0.02469563
192	0x3c9b7fd3	0.01898185
193	0x3ce5b8ca	0.028042216
194	0xbcc25ca1	-0.02372581
195	0x3cd6e935	0.026234249
196	0x3da752b4	0.08170071
197	0xbd0c165e	-0.03420102
198	0xbcaede5d	-0.021346265
199	0xbca3e86d	-0.02000829
200	0x3b57a207	0.0032902972
201	0xbb7847f6	-0.003788469
202	0xbc90b59e	-0.017664727
203	0x3cc1ff1a	0.023681212
204	0xbc033eb8	-0.008010559
205	0xbd540ef2	-0.051772065
206	0x3cab0222	0.02087504
207	0x3d8b157d	0.06791208
208	0xbd061908	-0.032738715
209	0xbc672e9d	-0.014110235
210	0x3ce46cab	0.027883848
211	0x3da578fa	0.08079715
212	0xbbb28063	-0.005447434
213	0x3cd58f93	0.026069438
214	0xbcbf3d8b	-0.023344776
215	0x3d35b571	0.04436249
216	0xbc8ea553	-0.017412817
217	0x3ce52405	0.027971277
218	0xbd7eb95f	-0.062188502
219	0xbcf7ce6d	-0.030249799
220	0xbd99d953	-0.075121544
221	0x3d175bd6	0.036952816
222	0xbd08386d	-0.033256937
223	0xbca2c4bd	-0.019869203
224	0xbd641b91	-0.055690352
225	0xbd033b28	-0.032038838
226	0xbbaa2b08	-0.005193118
227	0xbdd73a19	-0.10509128
228	0xbd354e39	-0.044264052
229	0xbd5deb0c	-0.054179236
230	0xbc476136	-0.012169173
231	0x3cfc9392	0.030832086
232	0xbc1da89a	-0.009622717
233	0xbbb1706c	-0.005415013
234	0xbd18da14	-0.03731735
235	0xbc125989	-0.00893248
236	0xbcfa88ff	-0.030582903
237	0xbd1389b1	-0.036019985
238	0xbd01567c	-0.03157662
239	0x3ba9b02d	0.0051784725
240	0x3cd0d830	0.025493711
241	0xbd85860c	-0.06519708
242	0x3a417d0b	0.00073809986
243	0xbcb9f211	-0.022698434
244	0x3d590b2f	0.05298918
245	0xbdac35c1	-0.0840869
246	0x3d023e74	0.03179784
247	0x3d12b641	0.035818342
248	0xbb369e4a	-0.0027865344
249	0x3ce93916	0.028469604
250	0xbd2568e5	-0.04038324
251	0xbd0492cb	-0.032366555
252	0xbc9ed854	-0.019390263
253	0x3d6427b4	0.055701926
254	0x3cc72a02	0.024312023
255	0xbc21d70e	-0.009877933

fc1.bias f4 [128]
0	0x3d40e919	0.0470973
1	0xbd932c65	-0.07186202
2	0x3c9a141a	0.018808413
3	0x3d5155a1	0.051107053
4	0xbd154134	-0.036439136
5	0xbd3c2662	-0.045935042
6	0xbbba3a31	-0.0056832065
7	0xbc757759	-0.014982068
8	0x3d25353f	0.040333983
9	0x3d635c94	0.05550821
10	0x3c887cbf	0.016661046
11	0xbc489050	-0.012241438
12	0xbd0b5f21	-0.03402627
13	0xbc58b774	-0.013227332
14	0xbadb2c01	-0.0016721488
15	0x3ce1047c	0.027467959
16	0xbb9e4b0d	-0.004830724
17	0x3cef17d9	0.029186176
18	0x3c81027f	0.01574826
19	0x3d7c38b6	0.06157752
20	0xbc6ade2f	-0.014335199
21	0x3bae91f3	0.005327457
22	0xbc36e56c	-0.011163097
23	0x3d0dcbd8	0.03461823
24	0xbd14243b	-0.036167365
25	0xbca7f4b5	-0.020502428
26	0x3d4f1e1d	0.050565828
27	0xbd909bdf	-0.0706098
28	0x3cd61ca1	0.026136698
29	0x3d115adb	0.035487037
30	0xbcab0e3b	-0.020880809
31	0x3cec398b	0.028836032
32	0x3ae132b4	0.0017181248
33	0xbd11cf64	-0.035598174
34	0xbd525df6	-0.05135914
35	0xba70c705	-0.00091849297
36	0x3cf57405	0.029962549
37	0xbce0e42b	-0.027452549
38	0xbd1ddfae	-0.038543396
39	0xbd23bee3	-0.039976966
40	0xbcca415a	-0.024689365
41	0xbc0e3ea9	-0.0086819315
42	0x3d1f99ef	0.038965162
43	0x3bfadfee	0.007656089
44	0x3d77dbc8	0.060512334
45	0xbcab6227	-0.020920826
46	0xbd06ddbd	-0.03292631
47	0x3d739f03	0.059477817
48	0xbd2c5f75	-0.042083222
49	0x3caef796	0.021358293
50	0x3cfa8180	0.030579329
51	0xbc2adc64	-0.010428522
52	0xbc51b6e3	-0.012799951
53	0x3c685050	0.014179304
54	0x3d4cc262	0.049990065
55	0xbcd255d7	-0.025675697
56	0x3d8167cc	0.06318626
57	0x3d69efab	0.05711333
58	0x3d86580e	0.06559764
59	0xbd3c48d1	-0.04596788
60	0xbc7b1bf4	-0.015326489
61	0x3d2882b3	0.04114027
62	0x3d3db214	0.046312407
63	0x3cab705c	0.0209276
64	0x3d3a375f	0.045462962
65	0x3d948f16	0.07253854
66	0x3d6ce023	0.05783094
67	0x3d53f541	0.051747564
68	0x3d769819	0.060203645
69	0xbbb5c264	-0.005546855
70	0xbd2d0f57	-0.042250957
71	0xbc14eabc	-0.009089168
72	0x3d5574b7	0.05211326
73	0x3d83723d	0.064182736
74	0x3cf1caae	0.02951559
75	0x3c6b9249	0.014378139
76	0x3d819133	0.06326523
77	0x3d3cd981	0.046105865
78	0x3b5931cb	0.0033141251
79	0x3cd74258	0.026276752
80	0xbc8d7d4b	-0.017271658
81	0x3ca98daf	0.020697443
82	0x3c049895	0.008093019
83	0xbd19d98e	-0.037560992
84	0xbcbb035d	-0.022828752
85	0x3d577c4d	0.052608777
86	0xbc92b9c4	-0.017910846
87	0x3d088a56	0.033335052
88	0xbd0c21a6	-0.034211777
89	0x3cb591a4	0.022164173
90	0xbc9dcbe6	-0.019262265
91	0xbccacf0b	-0.024756929
92	0xbd10243e	-0.035190813
93	0xbc990699	-0.018679904
94	0x3d8c33b0	0.06845796
95	0x3a7a9b02	0.0009559841
96	0x3d730b4a	0.059336938
97	0x3d32323a	0.04350493
98	0xbbddf531	-0.006773614
99	0xbcd215f3	-0.025645232
100	0x3c642a17	0.013926051
101	0xbc1528af	-0.009103938
102	0x3d4c698c	0.049905345
103	0xbca553d5	-0.020181576
104	0x3d7daa27	0.061929848
105	0x3d34b793	0.044120383
106	0x3cde525f	0.027138887
107	0xb9659456	-0.00021894401
108	0xbcdce3d0	-0.026964098
109	0x3c890329	0.01672514
110	0x3c8a5f16	0.016891044
111	0xbcaabcc4	-0.020841964
112	0xbc17c81f	-0.009264021
113	0x3ce2e7a2	0.027698342
114	0x3c095271	0.008381472
115	0x3d40581f	0.04695904
116	0xbc483084	-0.012218598
117	0x3b7f3f21	0.003894754
118	0x3ce8b0a4	0.028404541
119	0xbbf23d3d	-0.007392554
120	0xbd62cb65	-0.055369753
121	0xbc61a6b6	-0.013772657
122	0x3a23ced2	0.0006248775
123	0x3d35b410	0.044361174
124	0x3c5a85c3	0.013337555
125	0x3d0dceb2	0.034620948
126	0x3d84d460	0.0648582
127	0x3ccaf03c	0.024772756

fc2.weight f4 [64, 128]
0	0x3bf953e3	0.007608877
1	0xbd96e97e	-0.07368754
2	0xbcdae1d5	-0.026719013
3	0x3d532b87	0.051555183
4	0xbe19aa1a	-0.15006295
5	0x3dec06f4	0.11524764
6	0x3db1acac	0.08675513
7	0xbd64604e	-0.055755906
8	0x3d27e91a	0.040993787
9	0x3d03a28b	0.032137435
10	0xbd521cc5	-0.051296968
11	0xbdbbc15d	-0.091677405
12	0x3d1ecb75	0.03876825
13	0x3d5ee183	0.054414283
14	0x3d049dc9	0.03237704
15	0xbd16db91	-0.03683049
16	0xbcb06bf9	-0.02153586
17	0xb94bff4d	-0.00019454696
18	0x3cac4534	0.021029092
19	0x3d2fa455	0.04288133
20	0x3d482792	0.048865862
21	0xbdba6b53	-0.09102502
22	0x3da203da	0.07910891
23	0xbc117c93	-0.008879798
24	0x3dc553c8	0.09635121
25	0xbb1f8629	-0.002434144
26	0x3d83f926	0.06444006
27	0xbd6c4323	-0.057681214
28	0xbd712459	-0.058872554
29	0xbd41da2a	-0.047327198
30	0xbbb2ec09	-0.0054602665
31	0x3d1f50e0	0.038895488
32	0x3d8dbb0b	0.06920441
33	0xbcc6da01	-0.024273874
34	0x3cba67e5	0.022754619
35	0xbb573390	-0.003283713
36	0xbd9c1300	-0.076208115
37	0x3ba789f9	0.005112883
38	0x3d6e0ede	0.058119647
39	0xbdbfe2dc	-0.09369442
40	0x3da9128c	0.08255491
41	0xbd84cd76	-0.06484501
42	0xbcb03763	-0.021510785
43	0x3ddd270e	0.10798465
44	0x3d643786	0.055717014
45	0x3d936fae	0.071990356
46	0xbd5fc25c	-0.054628715
47	0x3d1b51cb	0.0379198
48	0xbdadb9c7	-0.084827
49	0x3db6ae4f	0.089199655
50	0x3cd4aab2	0.0259603
51	0x3d4ad5d2	0.04952032
52	0x3d3a3c0a	0.045467414
53	0x3da72f0d	0.08163271
54	0xbcf8998f	-0.03034666
55	0x3d09b192	0.03361661
56	0x3c98ce9c	0.018653207
57	0xbc91042d	-0.017702186
58	0x3d7fd2a7	0.062456753
59	0x3cfb7ad7	0.030698223
60	0xbc740e82	-0.014896037
61	0x3dab4bf8	0.08364099
62	0xbd347ca3	-0.044064175
63	0xbda032f9	-0.07822222
64	0xbc38e3c6	-0.011284774
65	0x3dd7ca72	0.1053666
66	0x3dbae8e1	0.091264494
67	0x3c950256	0.01818959
68	0xbd2a62a4	-0.041597977
69	0x3d9ef254	0.07761064
70	0xbdafd1b9	-0.08584923
71	0xbc2aabfa	-0.010416979
72	0x3db4a3cc	0.08820304
73	0x3d31a001	0.043365482
74	0x3d3cddaf	0.04610985
75	0xbd90b62b	-0.07065996
76	0xbd6a0e5b	-0.057142597
77	0x3cb5f2c0	0.022210479
78	0xbbe81996	-0.007083128
79	0xbcb4ced1	-0.022071274
80	0xbdff8a31	-0.1247753
81	0xbce5d9b3	-0.028057909
82	0xbd874807	-0.06605535
83	0x3c045563	0.008076998
84	0x3db899b7	0.09013694
85	0xbc884da3	-0.016638583
86	0x3d253201	0.04033089
87	0x3d41b681	0.04729319
88	0x3ce91cec	0.028456174
89	0x3dae9b83	0.08525755
90	0xbb9dc776	-0.0048150374
91	0x3d80c2a9	0.062871285
92	0x3ccb501b	0.02481847
93	0x3aa8a8d6	0.00128677
94	0xbd4b9c13	-0.04970939
95	0x3d8d1efd	0.06890676
96	0xbd88f636	-0.06687586
97	0x3c65ed89	0.014033684
98	0xbbfb562d	-0.007670185
99	0xbd8b3b6b	-0.067984425
100	0x3d58ac13	0.052898478
101	0x3bfb653b	0.0076719797
102	0xbd2c29d5	-0.04203208
103	0xbce8c893	-0.028415954
104	0x3dabfb7c	0.08397576
105	0x3d0403ab	0.03223006
106	0x3dd70dee	0.10500704
107	0x3d83a765	0.06428412
108	0x3d26cc61	0.040722255
109	0x3d74e60f	0.059789713
110	0xbd35d717	-0.04439458
111	0x3d83751f	0.064188235
112	0xbd42f9df	-0.047601577
113	0xbdb12b94	-0.0865089
114	0x3cdafcf8	0.026731953
115	0x3dbd9a52	0.0925795
116	0x3d57052b	0.052495163
117	0xbc642b65	-0.013926362
118	0xbd064707	-0.03278258
119	0x3dc58dd6	0.09646194
120	0xbd3f4896	-0.046700083
121	0xbd74d62a	-0.059774555
122	0xbd426ba9	-0.047465954
123	0x3d05ad0a	0.032635726
124	0x3ce11ec9	0.0274805
125	0xbd8ee862	-0.06977917
126	0x3d9f8db7	0.07790702
127	0x3dba8db0	0.09109056
128	0xbd0e4be9	-0.034740362
129	0xbc839343	-0.01606143
130	0xbd441a77	-0.0478768
131	0xbc155b61	-0.009116025
132	0xbddd8955	-0.1081721
133	0x3d5a87ad	0.053352047
134	0xbc9e3387	-0.01931168
135	0x3d871743	0.06596234
136	0xbcdb6b57	-0.026784582
137	0xbd1cc916	-0.038277708
138	0x3d893f28	0.06701499
139	0xbd9b5538	-0.075846136
140	0x3d01bd05	0.031674404
141	0x3c22c19b	0.009933854
142	0x3db58fe7	0.08865338
143	0x3db9e54a	0.090769365
144	0x3c679a0a	0.014135847
145	0xbd5faad7	-0.054606285
146	0xbdc41aca	-0.09575422
147	0x3d7265d2	0.059179135
148	0x3d4da81d	0.050209153
149	0xbe070c20	-0.13188219
150	0xbd02fd2c	-0.031979725
151	0xbdae693c	-0.085161656
152	0x3d8cfa81	0.06883717
153	0xbcaa9161	-0.020821275
154	0x3cee2219	0.029068993
155	0xbd28f9c7	-0.04125383
156	0xbd8cfd8d	-0.068842985
157	0x3dad45a2	0.08460547
158	0x3d16d510	0.036824286
159	0x3d68a296	0.05679568
160	0xbd101e0a	-0.035184897
161	0x3bb7692d	0.0055972547
162	0x3c1dedc0	0.009639204
163	0xbd89f612	-0.06736387
164	0xbb8c1967	-0.004275489
165	0x3d10ebc7	0.035381105
166	0xb9f9a7ba	-0.00047617947
167	0xbce361f3	-0.027756667
168	0xbd819449	-0.06327111
169	0x3d5f1b3c	0.054469332
170	0xbd0ec0a7	-0.034851696
171	0xbd312a7b	-0.043253403
172	0x3b3562ce	0.00276773
173	0x3d5ef8c7	0.05443647
174	0xbc8043ac	-0.015657268
175	0x3dba59cf	0.09099161
176	0xbda090c7	-0.07840114
177	0xbd79cc86	-0.060986064
178	0xbc858b12	-0.016301665
179	0x3aa10272	0.0012284054
180	0x3d07e82e	0.03318041
181	0x3dfcec1c	0.12349722
182	0xbd147e8b	-0.036253493
183	0x3d9c26bd	0.07624576
184	0x3e157041	0.14593603
185	0xbc5313e6	-0.012883162
186	0xbd486ae2	-0.048930056
187	0xbd78ded8	-0.060759395
188	0xbd4686ee	-0.048468523
189	0xbbed1a82	-0.007235826
190	0x3de465e6	0.11152248
191	0xbe22dc0a	-0.1590425
192	0xbbaff575	-0.005369837
193	0x3daf1217	0.08548372
194	0xbd588f2d	-0.052870918
195	0x3d51542b	0.05110566
196	0xbb0735c7	-0.002063142
197	0xbc231ab5	-0.009955098
198	0xbdae03d7	-0.08496826
199	0x3da03007	0.078216605
200	0xbd8404f4	-0.06446257
201	0x3dc816c6	0.09769969
202	0x3d383463	0.044971835
203	0x3d9c5f20	0.07635331
204	0xbd7c9452	-0.061664887
205	0x3d0967fe	0.03354644
206	0xbcb2e482	-0.021837477
207	0x3d7e3f8d	0.062072325
208	0xbab1ae28	-0.0013555931
209	0xbd1b3816	-0.037895285
210	0xbbf20792	-0.0073861564
211	0xbda0cf02	-0.078519836
212	0xbd47abff	-0.048748013
213	0xbcf5a1a3	-0.029984301
214	0x3ce8c39b	0.028413584
215	0x3db715d8	0.08939713
216	0xbcb34262	-0.02188224
217	0x3e0a1831	0.13485791
218	0x3d6cefe9	0.057845984
219	0x3b734c55	0.0037124355
220	0xbc83e19b	-0.016098788
221	0xbbf9286e	-0.0076036965
222	0xbd4ace20	-0.049512982
223	0xbd834d66	-0.06411247
224	0x3c8a6a4b	0.016896388
225	0x39dad091	0.00041735594
226	0xbd0df9b8	-0.03466198
227	0xbdf8ec02	-0.1215439
228	0xbcff2f80	-0.03115058
229	0xbd4995fa	-0.049215294
230	0x3dd52509	0.104074545
231	0x3d0c7ea7	0.034300473
232	0x3dae9aac	0.08525595
233	0x3d340144	0.04394652
234	0x3df0f2e2	0.11765076
235	0x3cd3cfb7	0.025855882
236	0xbd647706	-0.055777572
237	0xb88f2681	-6.825943e-05
238	0xbd04c00c	-0.032409713
239	0xbc857119	-0.01628928
240	0x3dda2a8e	0.10652648
241	0xbdd0979e	-0.10185169
242	0x3dd44e40	0.103664875
243	0x3d875db6	0.06609671
244	0x3b43d5e3	0.0029882125
245	0xbd458927	-0.0482265
246	0x3d8912f1	0.06693066
247	0xbd4953a4	-0.04915203
248	0xbdeba406	-0.11505894
249	0x3cc6cd29	0.02426775
250	0xbde5a8b4	-0.11213818
251	0xbd0b7c34	-0.034053996
252	0xbda0ef23	-0.07858112
253	0x3d29e6a4	0.04147972
254	0x3da38c67	0.07985764
255	0x3b046ea0	0.002020754

fc2.bias f4 [64]
0	0xbc4eaa44	-0.012613837
1	0x3d4f7f8b	0.050658744
2	0xbd3d5a08	-0.04622844
3	0x3db4c6b5	0.08826963
4	0xbb984503	-0.0046468987
5	0x3d95ad57	0.073084526
6	0x3dcb46ec	0.09925637
7	0x3db366d7	0.087598495
8	0x3c7336df	0.014844625
9	0xbdb9103e	-0.09036301
10	0x3c97820c	0.018494628
11	0xbca84b58	-0.02054374
12	0xbd809671	-0.062786944
13	0xbcad3eae	-0.021148052
14	0xbd3dc089	-0.046326194
15	0x3cfd6ec6	0.03093661
16	0xbd818b36	-0.063253805
17	0x3d7f9034	0.062393382
18	0x3dac548b	0.08414563
19	0xbd2450aa	-0.04011599
20	0xbd9ea7a1	-0.077468164
21	0x3dc3bb60	0.09557223
22	0xbc10142d	-0.008793873
23	0xbce200ec	-0.02758833
24	0x3d4bdd97	0.04977187
25	0xbc8e7108	-0.017387882
26	0x3d823578	0.063578546
27	0x3c91e536	0.017809492
28	0xbd24d436	-0.040241443
29	0xbcff180f	-0.031139402
30	0xbd400aba	-0.04688523
31	0xbd8195db	-0.06327411
32	0x3c6f522b	0.014606993
33	0xbc0309b2	-0.007997917
34	0xbd1f1600	-0.03883934
35	0x3d8a23cd	0.0674511
36	0x3c8bc83b	0.01706325
37	0x3d9c55c2	0.076335445
38	0xbd6d8e22	-0.057996877
39	0x3d043dd1	0.032285515
40	0xbd6c6254	-0.05771096
41	0x3df6e739	0.12055821
42	0xbd8e31d7	-0.069431
43	0xbd8c4e13	-0.06850829
44	0xbd68e936	-0.056863032
45	0x3d2f2398	0.042758554
46	0x3ce210df	0.027595935
47	0xbda11fe2	-0.07867409
48	0x3d4030fb	0.04692171
49	0x3d919cf2	0.07110013
50	0x3d9d7423	0.07688167
51	0x3c8b007b	0.016968003
52	0xbd15bf8e	-0.036559634
53	0xbd67a53f	-0.056554075
54	0x3d802d8e	0.06258689
55	0xbd5d67b9	-0.054053996
56	0x3c1d6755	0.009607156
57	0x3d5ea6e2	0.05435837
58	0xbd462258	-0.048372597
59	0x3ca5683c	0.020191304
60	0x3c36476a	0.011125425
61	0x3d132c40	0.035930872
62	0x3ca22920	0.019795
63	0x3befdeca	0.0073202597

policy_head.weight f4 [110, 64]
0	0xbdd910ca	-0.105989054
1	0x3bc8acb3	0.006124103
2	0xbc216855	-0.009851535
3	0xbe1a7cd3	-0.15086679
4	0x3dc56303	0.096380256
5	0xbd095f6e	-0.033538274
6	0x3ca07198	0.019585416
7	0xbde016b1	-0.10941828
8	0xbdc50312	-0.09619726
9	0x3aed6d58	0.0018114252
10	0xbd376805	-0.044776935
11	0xbbc579c3	-0.006026478
12	0xbdaf4f2f	-0.08560025
13	0x3cc6492f	0.024204819
14	0x3d6c1685	0.057638664
15	0xbe1efc5e	-0.15525958
16	0x3d7c8ece	0.061659627
17	0xbc9727de	-0.018451627
18	0xbde95435	-0.11393014
19	0xbda6d2fa	-0.08145709
20	0x3dc42622	0.09577586
21	0xbcc7953b	-0.02436315
22	0x3da404e1	0.08008743
23	0x3d73c392	0.059512682
24	0xbc169464	-0.0091906525
25	0x3dcf3738	0.10117954
26	0xbd0bdb75	-0.034144837
27	0xbce0091b	-0.027348092
28	0x3e16d852	0.14730957
29	0xbcee2617	-0.029070897
30	0xbde9b13a	-0.114107564
31	0x3da3af52	0.07992424
32	0x3caa279c	0.02077084
33	0xbdde13a8	-0.10843593
34	0xbe0ff35a	-0.14057675
35	0xbdeb0ee9	-0.11477453
36	0x3e153938	0.14572608
37	0xbdc53c10	-0.09630597
38	0xbd47e3c1	-0.048801187
39	0xbd0da277	-0.034578767
40	0x3da511fb	0.0806007
41	0xbe4a37b8	-0.19747818
42	0x3d71f61c	0.0590726
43	0xbd0c37c5	-0.034232873
44	0xbd765ba5	-0.060145993
45	0x3c144c94	0.009051461
46	0xbdd78092	-0.1052257
47	0xbdad0961	-0.084490545
48	0x3d5b28ab	0.05350558
49	0x3de960f3	0.11395445
50	0xbd8d5715	-0.06901375
51	0x3cd418c8	0.025890723
52	0x3de59501	0.11210061
53	0x3e0940b7	0.13403593
54	0xbcd761f6	-0.026291829
55	0x3e2baa09	0.16764082
56	0xbd958bd3	-0.0730206
57	0xbd896099	-0.06707878
58	0xbd32f12e	-0.043687038
59	0x3d4b1248	0.04957798
60	0x3d212c67	0.039348986
61	0xbe2d97fb	-0.16952507
62	0x3db116ac	0.086469024
63	0x3ca37b41	0.019956233
64	0xbcfa83d4	-0.030580439
65	0xbe2de484	-0.16981703
66	0x3d73c49f	0.059513684
67	0xbcbc22a7	-0.022965742
68	0xbdbb9af1	-0.09160412
69	0xbda03a9f	-0.07823681
70	0xbd8be5b1	-0.068309195
71	0xbe016c00	-0.12638855
72	0x3d98668e	0.07441436
73	0x3d5fa1e1	0.05459774
74	0xbd93c567	-0.07215386
75	0xbdeafbc5	-0.114738025
76	0xbdd61034	-0.10452309
77	0xbc7a2a45	-0.015268867
78	0xbdcac3bb	-0.09900614
79	0x3d4f372c	0.050589725
80	0x3de081fc	0.109622926
81	0xbc673560	-0.014111847
82	0xbd7a5e20	-0.06112492
83	0xbe217d30	-0.15770411
84	0xbd7c7df9	-0.061643574
85	0x3cb70375	0.022340516
86	0xbd30a60b	-0.0431271
87	0x3d7a206e	0.061066084
88	0xbd7144af	-0.058903392
89	0x3da5a833	0.08088722
90	0xbba8ffc5	-0.005157443
91	0xbc50bb20	-0.012739927
92	0x3ded6eab	0.11593374
93	0x3dd844ea	0.10560019
94	0x3d6d988e	0.058006816
95	0xbd6930bb	-0.05693124
96	0xbe076ae4	-0.1322437
97	0xbd5f25be	-0.054479353
98	0x3c143055	0.009044726
99	0xbcbc21a7	-0.022965265
100	0x3cf16f71	0.029472085
101	0xbb4ad81f	-0.0030951572
102	0x3dc50314	0.09619728
103	0x3c7b55e3	0.015340301
104	0xbbdf0023	-0.006805436
105	0xbcba9ac3	-0.022778874
106	0x3c116cc6	0.008876031
107	0x3cd11517	0.025522752
108	0x3dddbfba	0.108275846
109	0xbe1dc171	-0.15405823
110	0x3d6570e2	0.056015857
111	0x3d98fda4	0.07470253
112	0xbd8666ac	-0.06562552
113	0xbdc492e9	-0.095983334
114	0xbcebd707	-0.028789056
115	0x3dc19322	0.094518915
116	0x3d8074cf	0.062722795
117	0x3d3f208f	0.04666191
118	0xbcc64d9d	-0.02420693
119	0xbb11ebb6	-0.0022265739
120	0x3d102eab	0.035200756
121	0x3d190983	0.037362587
122	0xbda469ca	-0.0802799
123	0xbce9d658	-0.02854459
124	0x3da62489	0.08112437
125	0x3d655085	0.055984993
126	0xbbdc5ea5	-0.0067251497
127	0x3ca7e88f	0.020496635
128	0x3e4211fe	0.18952176
129	0x3dd6f36b	0.10495647
130	0x3e2e7c66	0.17039642
131	0xbc3f1a3d	-0.011663971
132	0xbd9aa9ee	-0.07551943
133	0x3e06d774	0.13168126
134	0x3e355058	0.1770643
135	0x3d50c263	0.05096663
136	0x3c2ea316	0.010659
137	0xbd2bb291	-0.04191834
138	0xbd1b8677	-0.037970033
139	0xbd06e93d	-0.032937277
140	0x3e427d11	0.18993022
141	0xbd819438	-0.063270986
142	0x3e0c3a19	0.13694037
143	0x3d77e0c0	0.060517073
144	0xbdad78d4	-0.08470312
145	0xbd95b999	-0.073107906
146	0xbd112b98	-0.035441965
147	0x3e0ee97e	0.13956258
148	0x3db6eed7	0.08932274
149	0x3ddb07c2	0.10694839
150	0xbda956de	-0.08268522
151	0x3e0f42c2	0.1399031
152	0xbc6d2570	-0.014474258
153	0x3ce5e278	0.02806209
154	0x3ddbe40f	0.10736858
155	0x3dc7c4e7	0.09754353
156	0xbd87674a	-0.06611498
157	0xbdb71bab	-0.08940824
158	0xbc913bf6	-0.017728787
159	0x3e0845e2	0.13307908
160	0x3e563068	0.20916903
161	0xbd322972	-0.043496557
162	0x3de1f462	0.110329404
163	0x3e0c053a	0.13673869
164	0x3d1f048d	0.0388227
165	0x3ded679f	0.1159203
166	0x39b361b7	0.00034214344
167	0x3d6ddf37	0.058074202
168	0xbc839ad8	-0.016065046
169	0x3e312282	0.1729832
170	0x3c8eb1c8	0.017418757
171	0xbaf764f6	-0.0018874693
172	0x3dc26c7e	0.094933495
173	0x3e25aab4	0.161784
174	0x3cabfe29	0.020995216
175	0x3b8a7f3e	0.004226594
176	0xbdd2f65f	-0.10300898
177	0x3d97feb3	0.07421627
178	0x3c316d45	0.010829275
179	0x3c0e3a8c	0.008680951
180	0x3dbd11dc	0.09231922
181	0xbdb27a6e	-0.08714758
182	0x3e48362d	0.19551916
183	0xbdd02863	-0.10163953
184	0x3ca86e23	0.02056033
185	0x3d1430a5	0.036179204
186	0x3de5492e	0.111955985
187	0x3e33afa1	0.17547466
188	0x3e18590d	0.1487772
189	0x3e2cbe59	0.16869487
190	0x3ddfc812	0.10926832
191	0x3d50bd53	0.050961804
192	0x3e29f6c5	0.16598041
193	0x3e2fc4c8	0.1716491
194	0x3e5fce04	0.21855932
195	0xbcee6b3c	-0.029103868
196	0x3dd3e8cd	0.103471376
197	0x3deab2df	0.11459898
198	0x3da39f72	0.07989396
199	0x3d7b9575	0.06142183
200	0x3ca5bbb3	0.020231104
201	0xbd79aca7	-0.06095567
202	0x3e5322ca	0.2061874
203	0x3c1edcd0	0.0096962005
204	0x3e05947c	0.13044924
205	0xbdb51591	-0.08842004
206	0xbc3255a5	-0.010884677
207	0x3e38c84d	0.18045159
208	0xbdaa65a2	-0.08320166
209	0xbdb64f13	-0.08901801
210	0xbdaaa8a4	-0.08332947
211	0xbc969bcb	-0.018384835
212	0x3be1dd5a	0.0068928422
213	0x3d09fc43	0.03368784
214	0xbd81760d	-0.063213445
215	0x3962b85d	0.0002162172
216	0x3d66a364	0.056308165
217	0xbd2b1a53	-0.04177315
218	0x3d687104	0.056748405
219	0x3d7d5802	0.06185151
220	0xbdf206b5	-0.118176855
221	0x3d1ade2a	0.03780953
222	0x3d20ff66	0.039306067
223	0x3df809d0	0.121112466
224	0x3d9e1695	0.07719151
225	0x3e5104da	0.20412007
226	0x3d6cba49	0.057794843
227	0x3e087028	0.13324034
228	0x3d4bfcf1	0.04980177
229	0x3db5765b	0.08860465
230	0x3d46ad49	0.0485051
231	0x3cba9cce	0.022779848
232	0x3da6f8fd	0.081529595
233	0xba9a0ccf	-0.0011753085
234	0xbdc0eac0	-0.09419775
235	0xbd2a66b0	-0.041601837
236	0xbb0fae1b	-0.0021923843
237	0x3d219e21	0.039457444
238	0x3df9c64c	0.12196025
239	0xbd11cc52	-0.035595246
240	0x3db0d2fe	0.086339936
241	0x3e1f73f4	0.15571576
242	0x3d7d6c88	0.06187108
243	0xbc45ac72	-0.01206504
244	0xbd51db27	-0.05123439
245	0x3c000d17	0.007815621
246	0x3e38d65c	0.18050522
247	0xbd43588a	-0.04769186
248	0x3d6de38a	0.058078326
249	0x3d23a241	0.03994966
250	0x3dc3ebe4	0.09566477
251	0x3e0c428b	0.13697259
252	0x3dcb5f1a	0.099302486
253	0x3cc22465	0.023698995
254	0x3dd581cc	0.104251474
255	0x3e5ef1ea	0.2177197

policy_head.bias f4 [110]
0	0x3c0a7c85	0.008452539
1	0xbe1d2ed1	-0.1534989
2	0x3e2fb87f	0.17160223
3	0x3e16667b	0.1468753
4	0xbdd6db84	-0.10491088
5	0xbd929edf	-0.071592085
6	0x3dd55b14	0.104177624
7	0x3c641620	0.013921291
8	0x3c853fc0	0.01626575
9	0x3d2978bc	0.041374907
10	0xbd7fab0b	-0.06241898
11	0xbd86b1ca	-0.06576879
12	0xbd6f2a5c	-0.058390006
13	0x3c0ad7cb	0.008474301
14	0x3df7408c	0.12072858
15	0x3dce1402	0.1006241
16	0x3df12fa5	0.117766656
17	0x3df82a61	0.12117458
18	0x3dc73241	0.09726382
19	0x3b82b852	0.003989258
20	0xbd7701e4	-0.060304537
21	0x3d440bc7	0.047862794
22	0xbdf30cb2	-0.11867656
23	0x3da65cae	0.08123146
24	0x3d9cf032	0.07663001
25	0x3dad2c4f	0.08455717
26	0x3db595e5	0.08866481
27	0x3c550632	0.013001965
28	0x3bac7aba	0.0052636536
29	0x3c5f00f2	0.013611065
30	0x3d7c8713	0.061652254
31	0xbce8b4f0	-0.02840659
32	0x3db2b316	0.08725564
33	0x3d1d0153	0.03833134
34	0xbd1622a4	-0.03665413
35	0x3dcc03ca	0.0996166
36	0xbd7e64f8	-0.06210801
37	0x3d9b1c70	0.075737834
38	0xbd6481ef	-0.055787977
39	0xbd00faa4	-0.03148903
40	0xbaa51e1c	-0.0012597474
41	0x3c603bcb	0.013686131
42	0xbd953180	-0.07284832
43	0xbd455db3	-0.04818506
44	0xbd11f248	-0.035631448
45	0xbdbfa289	-0.09357173
46	0xbc65b8c6	-0.014021104
47	0xbd9326eb	-0.071851574
48	0x3dab66c6	0.08369212
49	0x3d9ee342	0.0775819
50	0x3ccdc156	0.025116604
51	0x3d08c3eb	0.033389967
52	0x3dc357f7	0.09538262
53	0x3dd0efec	0.102020115
54	0xbdc5e6a5	-0.096631326
55	0xbd78f92b	-0.0607845
56	0x3dc35800	0.09538269
57	0x3dfa3d81	0.12218762
58	0x3ca53392	0.020166192
59	0x3cc69992	0.02424315
60	0x3d41c1aa	0.047303833
61	0xbe0b313f	-0.13593005
62	0xbd2f5667	-0.04280701
63	0xbb9454fb	-0.004526732
64	0xbdb3ddbb	-0.08782526
65	0x3d8e9ea7	0.06963854
66	0x3d9d008f	0.07666122
67	0xbd7b590d	-0.061364222
68	0x3c0baeb1	0.008525536
69	0xbd6dd4d3	-0.058064293
70	0xbd3ea55b	-0.046544414
71	0x3d3288c4	0.04358746
72	0xbc865ac7	-0.016400708
73	0xbdd2fd94	-0.103022724
74	0xbe0c9e2d	-0.13732214
75	0x3cc07ece	0.023497965
76	0xbd72c20c	-0.05926709
77	0xbc25c79d	-0.010118392
78	0xbc8b41a4	-0.016999073
79	0xbe24d142	-0.1609545
80	0xbc967edb	-0.018371036
81	0x3d4b317e	0.049607746
82	0x3cf03dc0	0.02932632
83	0x3b2d34c1	0.002642915
84	0xbd467015	-0.048446734
85	0xbd18c8ad	-0.037300754
86	0xbde03714	-0.10948005
87	0xbda980af	-0.082764976
88	0xbd0fc504	-0.035099998
89	0x3d92cb2f	0.071676604
90	0x3d4968e6	0.049172305
91	0x3d626de9	0.0552806
92	0x3d7a374f	0.061087903
93	0x3d5938cb	0.053032678
94	0xbc7322a6	-0.014839804
95	0xbd21de3c	-0.03951858
96	0x3d859f5e	0.065245375
97	0xbd97913e	-0.074007496
98	0x3caa77a8	0.02080901
99	0xbc39d980	-0.01134336
100	0xbdd01f0c	-0.10162172
101	0xbd6f1750	-0.058371842
102	0xbe22ddfd	-0.15904994
103	0x3d77dcad	0.060513187
104	0x3cec112b	0.02881678
105	0xbdaff7cd	-0.08592186
106	0xbc826fd6	-0.015922468
107	0xbdf1343c	-0.11777541
108	0x3d697686	0.0569978
109	0xbcd4ea3b	-0.025990596

value_head.weight f4 [1, 64]
0	0x3dde9579	0.108683534
1	0x3d5a44c2	0.05328823
2	0x3ddbf12b	0.107393585
3	0x3e0571bb	0.13031666
4	0xbd51b38a	-0.051196612
5	0x3da3e910	0.080034375
6	0x3dbecb3e	0.09316109
7	0x3cd0bdf2	0.025481198
8	0xbcf85c7c	-0.030317537
9	0xbd4c14a9	-0.04982439
10	0x3dc4f080	0.09616184
11	0x3da24f70	0.07925308
12	0x3dc89025	0.097931184
13	0xbe10eea7	-0.14153539
14	0x3dfcea22	0.12349345
15	0x3dc9e137	0.098574094
16	0xbd9f14f7	-0.077676706
17	0xbc14894d	-0.009065938
18	0xbdd20fc2	-0.10256912
19	0x3dce52ad	0.10074363
20	0x3ddfbaab	0.10924276
21	0x3cd5c91e	0.026096877
22	0xbdd3298a	-0.10310657
23	0x3e099136	0.134343
24	0x3db9a55e	0.090647444
25	0xbdb6051d	-0.08887694
26	0x3daebc0e	0.08531962
27	0x3deafd57	0.11474102
28	0xbe1bb50e	-0.15205786
29	0xbdcfb20f	-0.10141384
30	0xbdbbf6aa	-0.09177907
31	0xbcb7cb24	-0.022435732
32	0x3d42eae1	0.04758728
33	0x3dbce8f7	0.09224122
34	0x3d73d2fc	0.059527382
35	0x3e024082	0.1271992
36	0xbe3396b4	-0.17537957
37	0xbde3c2e4	-0.11121157
38	0xbda8d161	-0.08243061
39	0x3da3b8c5	0.07994226
40	0x3a0b07d7	0.00053035974
41	0x3b918b5c	0.0044416618
42	0xbd8181eb	-0.06323608
43	0xbd59e344	-0.053195253
44	0xbc9fdc03	-0.01951409
45	0x3dd1343f	0.10215043
46	0x3c86efc0	0.016471744
47	0xbd0ee463	-0.034885775
48	0xbc0b3d39	-0.008498483
49	0xbc36f64b	-0.011167119
50	0x3dfc799a	0.12327881
51	0xbda990ea	-0.08279593
52	0x3d9b2e48	0.07577187
53	0xbcbd9e2c	-0.023146711
54	0x3cc375f3	0.023859954
55	0xbc577a49	-0.013151714
56	0xbda693f2	-0.08133687
57	0xbddc522d	-0.10757861
58	0xbd0251dc	-0.03181635
59	0x3cd7d3c1	0.02634609
60	0xbc92cee8	-0.017920926
61	0x3d1df6cd	0.038565446
62	0xbd13ef58	-0.036116928
63	0xbbe3f138	-0.0069562458

exp_avg f4 [128, 260]
0	0xb9d91338	-0.00041403784
1	0xb9b7e89a	-0.00035077782
2	0xb7c0b995	-2.2974602e-05
3	0x38ec6ae4	0.00011273267
4	0x39b7e007	0.00035071393
5	0xb7559e0c	-1.27325875e-05
6	0xba0a3597	-0.0005272268
7	0xba38a025	-0.00070429064
8	0xb9581c8c	-0.0002061
9	0x38e05f47	0.00010698899
10	0xb9c906ff	-0.0003834292
11	0xb91dd740	-0.00015052874
12	0xb94ab249	-0.00019330638
13	0xba58f926	-0.0008276872
14	0xb986d5eb	-0.00025717853
15	0x379e1bc7	1.8848003e-05
16	0x3851864d	4.995456e-05
17	0xb92401c0	-0.0001564091
18	0x3953125a	0.00020129365
19	0xb99bf58f	-0.0002974686
20	0x3940d5c0	0.00018390175
21	0xba436102	-0.0007453115
22	0x39dd8050	0.00042248005
23	0xba26aa8b	-0.00063578103
24	0x38b704a0	8.7269815e-05
25	0xb9c2f957	-0.00037188336
26	0xba1def3c	-0.00060247234
27	0xb9cd6c66	-0.0003918141
28	0xb9d764cd	-0.00041083098
29	0xb9d5529e	-0.0004068808
30	0x39a3807d	0.00031185514
31	0xb973fbe3	-0.00023268121
32	0x39ec31a6	0.0004505042
33	0x395e5525	0.00021203289
34	0xb8162f03	-3.580657e-05
35	0xb7ade1fb	-2.0728437e-05
36	0x3965e2ab	0.00021923582
37	0xb9d2c766	-0.00040202885
38	0x35414ea5	7.2012546e-07
39	0xba07698c	-0.0005165569
40	0xb9c570de	-0.0003765886
41	0xb967fe3e	-0.0002212459
42	0x39801c11	0.00024434974
43	0xba1e6242	-0.0006041863
44	0xb8523d92	-5.0125243e-05
45	0x39384b92	0.0001757576
46	0x39777704	0.00023600092
47	0xba2c69c8	-0.0006577042
48	0xb9ce0da9	-0.0003930156
49	0x397671ca	0.00023502778
50	0xb8e46d2b	-0.00010892221
51	0xb8a74451	-7.9759055e-05
52	0x26dda74b	1.53803e-15
53	0x26ad6491	1.2031545e-15
54	0x390b68cb	0.00013295111
55	0xb885a3be	-6.3724336e-05
56	0x3780f981	1.5374973e-05
57	0xb953f2b4	-0.00020212942
58	0x3902f9b5	0.00012490789
59	0xb93df69b	-0.00018116312
60	0xb95d5c0f	-0.00021110497
61	0xb80ef955	-3.4087647e-05
62	0xb8b7b0e0	-8.7590655e-05
63	0x38db50f2	0.00010457811
64	0xb74ee2ff	-1.23314085e-05
65	0x2ee410ea	1.0371244e-10
66	0x31c18e57	5.6332214e-09
67	0x2c9b9d8a	4.4228553e-12
68	0x37f42515	2.9104334e-05
69	0x3738a348	1.10052715e-05
70	0x399961b7	0.00029255237
71	0xb90d4fe1	-0.00013476565
72	0xb8c41f8a	-9.351883e-05
73	0xb923ee13	-0.00015633581
74	0xb8f84c40	-0.00011839764
75	0xb81dcf6c	-3.7624894e-05
76	0xb94359bf	-0.00018630082
77	0x382a8cde	4.066235e-05
78	0x278df4a0	3.9400585e-15
79	0xaf51d38e	-1.9083599e-10
80	0x369a5874	4.599855e-06
81	0x37ae2889	2.0761292e-05
82	0xb8f6c46f	-0.00011766783
83	0x37d2925f	2.510211e-05
84	0x39a844ab	0.0003209462
85	0x38b39f29	8.565031e-05
86	0x36c7a33c	5.949665e-06
87	0xb6e3edd0	-6.792812e-06
88	0xb7e2a1b7	-2.7016604e-05
89	0xb8b998dc	-8.84996e-05
90	0xb7d220d7	-2.5049243e-05
91	0xab548bcd	-7.551154e-13
92	0x37b2824c	2.1279928e-05
93	0xb8c3dff0	-9.340036e-05
94	0xb7d2d8ae	-2.513485e-05
95	0x38e3193c	0.00010828904
96	0x39520053	0.00020027281
97	0xb8d5b518	-0.00010190363
98	0xb8e2e12d	-0.00010818462
99	0xb93704a4	-0.00017453969
100	0xb94b0f2f	-0.00019365245
101	0xb84e1c0f	-4.914036e-05
102	0x390efcfc	0.0001363642
103	0xb0c4b261	-1.4311575e-09
104	0xba22453f	-0.0006190128
105	0x395a3828	0.0002081102
106	0xb8dc431e	-0.00010502919
107	0xba3401d5	-0.0006866728
108	0xb97f6a00	-0.00024358183
109	0x39c40f1e	0.00037395296
110	0xba7e8927	-0.00097097683
111	0x39c9af64	0.00038468384
112	0xb8e2b27a	-0.000108097636
113	0x39f8e03b	0.0004746931
114	0x399a1b57	0.0002939354
115	0xba21dfdf	-0.0006175022
116	0x398b08bb	0.0002651865
117	0x394d9b2e	0.00019608132
118	0x3344cda3	4.582183e-08
119	0x3897a327	7.2306306e-05
120	0x39faa43e	0.00047806086
121	0xbaa0cfe1	-0.0012268984
122	0xb987cacb	-0.000259003
123	0xb9911edf	-0.00027679556
124	0xba7e6207	-0.0009703938
125	0xb9b28fb5	-0.00034057876
126	0xb91659d0	-0.00014338573
127	0xb95762f9	-0.00020540868
128	0x39178b95	0.0001445248
129	0xb9c79914	-0.0003807029
130	0xb9111d93	-0.00013839295
131	0xb9c3ca4f	-0.0003734403
132	0xba796668	-0.0009513856
133	0x3883ea4d	6.290209e-05
134	0xb856d112	-5.1216288e-05
135	0x3904d5c2	0.00012668132
136	0x395a3832	0.00020811034
137	0xba399091	-0.0007078732
138	0x39ad176a	0.00033014576
139	0x38622d81	5.3924978e-05
140	0xba4d060e	-0.00078210316
141	0x3a20e79d	0.00061380287
142	0xba948bae	-0.0011333132
143	0x3378ebd7	5.7956495e-08
144	0xb92eecd4	-0.00016682158
145	0xba06e624	-0.0005145988
146	0x39c61fa2	0.0003778907
147	0xb8fb4131	-0.000119807555
148	0x398bb71b	0.0002664857
149	0x39064a5c	0.00012806937
150	0xb991bc43	-0.0002779682
151	0xb9bc4b62	-0.0003591432
152	0xb9f9dd05	-0.00047657653
153	0x396b7158	0.0002245357
154	0xb9f08815	-0.00045877756
155	0x3a707d54	0.0009173949
156	0xb8ab1c53	-8.159191e-05
157	0x386b6900	5.6126155e-05
158	0x38003411	3.056607e-05
159	0x396d8294	0.00022650725
160	0x30decc5b	1.6210707e-09
161	0x399bd431	0.00029722
162	0x37a07a52	1.9130446e-05
163	0x3486e5a0	2.512652e-07
164	0xb8a93a60	-8.069421e-05
165	0xb21527a7	-8.681957e-09
166	0xb887741f	-6.458931e-05
167	0x38a0dca1	7.67049e-05
168	0x30934bfb	1.0717253e-09
169	0x3921256b	0.00015368096
170	0x3897aa43	7.231955e-05
171	0xb9ca9ff2	-0.0003864761
172	0xba4288eb	-0.0007420915
173	0x3609aaa1	2.051391e-06
174	0xa3893685	-1.487666e-17
175	0x38f5aa69	0.00011714252
176	0xb8a5ca6e	-7.9055186e-05
177	0xb8bc41ea	-8.976816e-05
178	0xb809ed5f	-3.2884414e-05
179	0x3867b8b2	5.5246703e-05
180	0x35045ea7	4.931157e-07
181	0x381cadd5	3.7355192e-05
182	0xb552d914	-7.8546987e-07
183	0x39762918	0.00023475697
184	0x3717e086	9.052577e-06
185	0x3907f350	0.00012965244
186	0xb9dba6ff	-0.00041895357
187	0xb9e2a984	-0.00043232378
188	0xb83a0267	-4.4348093e-05
189	0x37b8edd1	2.2045251e-05
190	0xb917196d	-0.00014409954
191	0xb7f7fd1b	-2.9562556e-05
192	0xb4c15f3e	-3.601835e-07
193	0x38af4104	8.3567604e-05
194	0x296d40d5	5.2680804e-14
195	0xb9655c39	-0.00021873497
196	0x329c060c	1.816354e-08
197	0x38fafe5c	0.00011968307
198	0x289a09b9	1.7101651e-14
199	0x390b4e67	0.0001328528
200	0x38873ad1	6.448257e-05
201	0x2f266fe2	1.5137361e-10
202	0xb92072d5	-0.00015301567
203	0xb30341ea	-3.0560763e-08
204	0xb99f0b6c	-0.00030335353
205	0x2b86aae1	9.568701e-13
206	0x396abb8b	0.00022385844
207	0xb901a04f	-0.00012362118
208	0x3999235b	0.00029208776
209	0xba40f104	-0.0007360133
210	0xba60effd	-0.0008580683
211	0xb9d7b0d6	-0.0004113975
212	0xba77be21	-0.00094506337
213	0xbaa79f9e	-0.0012788658
214	0x3a0b5bc8	0.00053161057
215	0xb9a8d6f1	-0.000322036
216	0xb96313d1	-0.00021655789
217	0xbab3964a	-0.0013701406
218	0xba184642	-0.0005808809
219	0xb97742ef	-0.0002358069
220	0xba673d09	-0.00088210456
221	0xb9b4af71	-0.0003446299
222	0xba272e7e	-0.00063774723
223	0xba0a3601	-0.00052723294
224	0xba272377	-0.0006375829
225	0x3a0f9341	0.00054769596
226	0xba8a9862	-0.0010573978
227	0xb971df55	-0.00023066749
228	0x390f2480	0.0001365114
229	0x3a058be7	0.00050943944
230	0xba79220f	-0.00095036713
231	0x3587fbbc	1.0131548e-06
232	0xba63aed8	-0.00086854165
233	0xb91b2cb2	-0.00014798602
234	0xb8a9ab00	-8.090399e-05
235	0xb9991f3c	-0.00029205706
236	0x3a09e3e4	0.00052600936
237	0xba24e2ca	-0.0006289898
238	0xba0f47d6	-0.00054657215
239	0xb9a22e00	-0.0003093332
240	0xbae664e3	-0.0017577674
241	0xb9e3c188	-0.00043441006
242	0xba804934	-0.0009787441
243	0xba56ccb9	-0.0008193958
244	0xb9739867	-0.0002323106
245	0xba86ecd2	-0.0010293967
246	0x39afaeaf	0.0003350875
247	0xb8b72001	-8.732081e-05
248	0xb99d84ba	-0.00030044263
249	0xb8ecf681	-0.00011299272
250	0xbaba13e4	-0.0014196602
251	0xb9b21a1f	-0.00033970267
252	0xbaaadfed	-0.0013036706
253	0xba8647c9	-0.0010244782
254	0xba08277b	-0.00051938713
255	0x39c163f2	0.00036886294

exp_avg_sq f4 [128, 260]
0	0x35a638b2	1.2384464e-06
1	0x35484564	7.460678e-07
2	0x354ce16d	7.632396e-07
3	0x353f791f	7.13293e-07
4	0x3576b75a	9.1908953e-07
5	0x34b60afe	3.390814e-07
6	0x350389e2	4.900195e-07
7	0x35d7448f	1.6038701e-06
8	0x35b772e7	1.3668003e-06
9	0x358c94b7	1.0474095e-06
10	0x357b684b	9.365655e-07
11	0x355a80f1	8.1398963e-07
12	0x35e0b724	1.6742601e-06
13	0x3533eede	6.7030294e-07
14	0x356736a8	8.613374e-07
15	0x356d8899	8.8488156e-07
16	0x356c8381	8.8108214e-07
17	0x356c2298	8.796719e-07
18	0x3525b940	6.1736864e-07
19	0x35adadb3	1.2940058e-06
20	0x35972c62	1.1263294e-06
21	0x3534f6dc	6.7414453e-07
22	0x3550c902	7.7778543e-07
23	0x35ee1a3d	1.7740018e-06
24	0x3585d0ab	9.970003e-07
25	0x359c75fe	1.1657246e-06
26	0x353020d9	6.561291e-07
27	0x35592818	8.0897144e-07
28	0x35afcfa6	1.309895e-06
29	0x35c02024	1.4314469e-06
30	0x3535f52e	6.778454e-07
31	0x35232b9c	6.078569e-07
32	0x34b227f3	3.318415e-07
33	0x35626b72	8.4347914e-07
34	0x3560d6cd	8.375908e-07
35	0x35055ae9	4.967865e-07
36	0x350a0786	5.1419954e-07
37	0x35c92131	1.4985327e-06
38	0x35199ef7	5.7228266e-07
39	0x34c558d2	3.6758735e-07
40	0x34e8a84f	4.3335828e-07
41	0x35ab686c	1.2770884e-06
42	0x359fae56	1.1897162e-06
43	0x35a393e9	1.2187494e-06
44	0x356218a8	8.422744e-07
45	0x355cd7ea	8.2270583e-07
46	0x3539d380	6.9225644e-07
47	0x35e6b167	1.7187966e-06
48	0x35b5097a	1.3488309e-06
49	0x35d27c27	1.5682352e-06
50	0x34afc1aa	3.27372e-07
51	0x3564b966	8.520641e-07
52	0x30ba294c	1.3545018e-09
53	0x30deedbb	1.6220193e-09
54	0x32891fef	1.596342e-08
55	0x31b7d6a9	5.350405e-09
56	0x32952339	1.73619e-08
57	0x3385bf97	6.228145e-08
58	0x336511e5	5.3334492e-08
59	0x33043dbe	3.07898e-08
60	0x342bf774	1.6015639e-07
61	0x34ba7256	3.472839e-07
62	0x3439f01a	1.7316816e-07
63	0x3459b0a6	2.0273964e-07
64	0x338e7053	6.632822e-08
65	0x304f5436	7.542583e-10
66	0x3259295f	1.2640469e-08
67	0x3192a5e9	4.268021e-09
68	0x32872416	1.5732478e-08
69	0x335ed210	5.1879454e-08
70	0x3346ed1a	4.631611e-08
71	0x33666d31	5.3650357e-08
72	0x332821c7	3.914627e-08
73	0x332323b3	3.7983863e-08
74	0x339b852b	7.241973e-08
75	0x32f2a17e	2.8245946e-08
76	0x346d8eee	2.2124343e-07
77	0x33b8ef3e	8.6116856e-08
78	0x3195a69b	4.3554116e-09
79	0x3112f417	2.1384545e-09
80	0x30db4f4f	1.5956888e-09
81	0x32a9ae3b	1.975342e-08
82	0x33c22266	9.040086e-08
83	0x33a7801a	7.799845e-08
84	0x340b3098	1.2963062e-07
85	0x33ba8643	8.685722e-08
86	0x330c7c6e	3.270946e-08
87	0x337d8f33	5.903639e-08
88	0x32dd4c69	2.5762533e-08
89	0x33e34d92	1.0584621e-07
90	0x35273959	6.22958e-07
91	0x30f3d9a7	1.7742438e-09
92	0x309edcfa	1.1558818e-09
93	0x31d5890a	6.2146954e-09
94	0x31f3ef8d	7.0994646e-09
95	0x337e2372	5.917122e-08
96	0x33ad0926	8.0576044e-08
97	0x330ccd4a	3.2783e-08
98	0x33c50b22	9.1755524e-08
99	0x33a44499	7.649323e-08
100	0x3424cc01	1.5347906e-07
101	0x331d2e32	3.6596425e-08
102	0x343a34d4	1.7341819e-07
103	0x32bd4245	2.2032632e-08
104	0x347f8c30	2.3799726e-07
105	0x3513900c	5.4971383e-07
106	0x33ae6bab	8.122091e-08
107	0x353005f8	6.5573795e-07
108	0x34ca7990	3.771388e-07
109	0x3531a4a1	6.6177205e-07
110	0x353e3c58	7.086833e-07
111	0x3529e020	6.328355e-07
112	0x358870c5	1.016561e-06
113	0x35e00c43	1.6692869e-06
114	0x35e8a4d7	1.7333322e-06
115	0x36165be9	2.240524e-06
116	0x35b3bef3	1.3392113e-06
117	0x33a7716f	7.797177e-08
118	0x34ba72a0	3.47286e-07
119	0x34a20d9d	3.0184756e-07
120	0x34b4820d	3.3622237e-07
121	0x35bf122f	1.4235901e-06
122	0x34aeeea2	3.2583654e-07
123	0x35b01954	1.3120393e-06
124	0x35b969d8	1.3814379e-06
125	0x361c97af	2.3334103e-06
126	0x35d37d5a	1.5757207e-06
127	0x352cdc6e	6.439576e-07
128	0x35b9dad9	1.3847267e-06
129	0x358046f1	9.55739e-07
130	0x34cd0814	3.8190103e-07
131	0x3522ab63	6.0599103e-07
132	0x34b24790	3.3207152e-07
133	0x355b65e9	8.1732156e-07
134	0x3580a48e	9.584635e-07
135	0x35b9404c	1.3802287e-06
136	0x3596fb1c	1.1248953e-06
137	0x360f8395	2.1385251e-06
138	0x35e30a3c	1.6915797e-06
139	0x36191be0	2.2815002e-06
140	0x361b3379	2.312676e-06
141	0x35eb794c	1.7544166e-06
142	0x35f3c99b	1.8163586e-06
143	0x348f366b	2.667542e-07
144	0x3522e233	6.0678866e-07
145	0x342a91cc	1.5885524e-07
146	0x344f5c1a	1.9311884e-07
147	0x35277626	6.2384277e-07
148	0x35b679a0	1.3595454e-06
149	0x35af4d33	1.3060984e-06
150	0x35bec5ed	1.4213707e-06
151	0x35800c49	9.540319e-07
152	0x35f0fdd7	1.795527e-06
153	0x35e5df4f	1.7126821e-06
154	0x362c7708	2.5699283e-06
155	0x358b2be4	1.0369081e-06
156	0x348bced1	2.6041246e-07
157	0x34bc4c52	3.507326e-07
158	0x340b7851	1.2989155e-07
159	0x349f996e	2.9727693e-07
160	0x3369763f	5.4357084e-08
161	0x353cc94a	7.032837e-07
162	0x33496ac6	4.689607e-08
163	0x34cb9963	3.79233e-07
164	0x339598c7	6.966143e-08
165	0x33cc598e	9.51578e-08
166	0x33111adc	3.3784872e-08
167	0x3330ff84	4.1210583e-08
168	0x32bbd38b	2.1865864e-08
169	0x35028796	4.862608e-07
170	0x33ec459d	1.1002269e-07
171	0x3517983c	5.6473414e-07
172	0x34e35d5d	4.2349976e-07
173	0x3437ae06	1.7106512e-07
174	0x3239b475	1.08094484e-08
175	0x33a0d20c	7.488788e-08
176	0x340dfdcf	1.3223983e-07
177	0x3385056e	6.194283e-08
178	0x32f088d8	2.8001907e-08
179	0x32926c6a	1.7045938e-08
180	0x3316f57d	3.5147867e-08
181	0x3368491e	5.408321e-08
182	0x3590e19c	1.0794497e-06
183	0x3481c025	2.4167926e-07
184	0x3491cfad	2.715946e-07
185	0x34d116fa	3.8946e-07
186	0x344889b6	1.867655e-07
187	0x345a1204	2.0309386e-07
188	0x35339c8f	6.691052e-07
189	0x33028f96	3.0398574e-08
190	0x342be612	1.6009315e-07
191	0x329761c6	1.7623176e-08
192	0x3317d67a	3.5352492e-08
193	0x32a6a688	1.9400673e-08
194	0x323ce6a4	1.0995482e-08
195	0x33f42f03	1.1370687e-07
196	0x349352fd	2.7441266e-07
197	0x33a9cb50	7.906658e-08
198	0x33b70682	8.522785e-08
199	0x342100bb	1.4994559e-07
200	0x3401ea00	1.209919e-07
201	0x32c29a90	2.265486e-08
202	0x330d7524	3.293566e-08
203	0x33ecd81b	1.1028916e-07
204	0x339c9d42	7.292921e-08
205	0x331973e2	3.5728483e-08
206	0x332d29e9	4.031782e-08
207	0x3395bf7f	6.973186e-08
208	0x364ac1d7	3.0213175e-06
209	0x366482c7	3.405077e-06
210	0x368b8b6b	4.158753e-06
211	0x36510947	3.1148827e-06
212	0x3674b381	3.6463318e-06
213	0x36544e85	3.1636166e-06
214	0x366cb964	3.5274652e-06
215	0x3611e930	2.1742417e-06
216	0x3601defa	1.9352287e-06
217	0x35c51234	1.4682942e-06
218	0x35e4f17c	1.7057605e-06
219	0x35e57ddc	1.709846e-06
220	0x35cb8a1d	1.5164875e-06
221	0x366f1ffc	3.5632393e-06
222	0x3672dd0b	3.6189474e-06
223	0x3663eae1	3.3962353e-06
224	0x3659b39d	3.2440068e-06
225	0x362d2f47	2.5806528e-06
226	0x367f7ac3	3.8069418e-06
227	0x361358cc	2.1956394e-06
228	0x36122548	2.1777396e-06
229	0x35fe6f57	1.8956879e-06
230	0x36076c64	2.017966e-06
231	0x36110a3e	2.1612645e-06
232	0x360bc6f3	2.0828418e-06
233	0x3617fa76	2.264654e-06
234	0x364d1696	3.0560527e-06
235	0x364deeb1	3.0686317e-06
236	0x364ed813	3.0822164e-06
237	0x35fb59c1	1.8727079e-06
238	0x363f039e	2.8463323e-06
239	0x3635b9b1	2.7079188e-06
240	0x363382f8	2.6749312e-06
241	0x35e5529b	1.7085871e-06
242	0x3610e88d	2.1593034e-06
243	0x360103f4	1.92248e-06
244	0x3601c616	1.93378e-06
245	0x35d5af06	1.5920675e-06
246	0x35f32c73	1.8117847e-06
247	0x368dab1a	4.2220463e-06
248	0x366aef74	3.5008097e-06
249	0x364f7920	3.0915908e-06
250	0x3663bffa	3.393738e-06
251	0x36365023	2.716676e-06
252	0x361c9a60	2.333567e-06
253	0x362fc471	2.6191376e-06
254	0x362261d7	2.4196831e-06
255	0x35f8fdfb	1.8551358e-06

exp_avg f4 [128]
0	0xba57a0b7	-0.00082255475
1	0x3961d474	0.00021536817
2	0x2f8a4a2b	2.5154753e-10
3	0xba35dc0f	-0.00069373933
4	0xb9fcadeb	-0.00048194765
5	0xba16b2cd	-0.00057486893
6	0xb92cf296	-0.00016493569
7	0xb89dfe31	-7.53369e-05
8	0x398c7eec	0.00026797445
9	0xb9d42a3d	-0.0004046726
10	0xba20a200	-0.00061276555
11	0x3a26ff66	0.0006370455
12	0xba026346	-0.00049738993
13	0xb9093731	-0.00013085899
14	0xb9e29bc6	-0.0004322214
15	0xb888b570	-6.518781e-05
16	0xb99d21b7	-0.00029970493
17	0xb949ef22	-0.00019257938
18	0x36ddf03c	6.61428e-06
19	0xb981dc5b	-0.00024768975
20	0xb93bae3f	-0.00017898621
21	0xba4786a8	-0.0007611313
22	0xbadc3882	-0.0016801509
23	0xb53e755d	-7.09513e-07
24	0xba9e2113	-0.00120643
25	0xba46d9da	-0.0007585563
26	0xb9e38c98	-0.00043401564
27	0x024c9fe5	1.503344e-37
28	0xb8e41b79	-0.000108770044
29	0xb94c1a24	-0.00019464694
30	0xb8604c51	-5.3476837e-05
31	0xba42b78d	-0.0007427864
32	0xb96faf5d	-0.00022858144
33	0xb9dde7a6	-0.00042324996
34	0xb913c022	-0.00014090588
35	0xba10c46f	-0.0005522435
36	0xb9c1993f	-0.00036926006
37	0xbaeeca12	-0.0018218181
38	0xb9d93b39	-0.0004143359
39	0xb7375631	-1.0927718e-05
40	0xb9c1a086	-0.00036931428
41	0xb8383317	-4.39166e-05
42	0x0c01edac	1.000932e-31
43	0xba5d2814	-0.0008436453
44	0xb9a1e00c	-0.0003087524
45	0xba62edd1	-0.0008656653
46	0xb9d77554	-0.00041095412
47	0xba75cb8e	-0.00093763403
48	0xb8be73f6	-9.0815054e-05
49	0xba026cb7	-0.0004975306
50	0xb9aaf26f	-0.00032605554
51	0x39014738	0.0001232893
52	0xb9dd665b	-0.00042228666
53	0xba82a340	-0.0009966865
54	0x37a5d161	1.9767032e-05
55	0xba4b507d	-0.0007755829
56	0xbae0e477	-0.0017157932
57	0x38965f3c	7.170296e-05
58	0xba17cd3c	-0.0005790775
59	0x359ad67b	1.1536316e-06
60	0xbaf72a1a	-0.0018857152
61	0x399c2222	0.0002978007
62	0xba2068fa	-0.00061191584
63	0x39ae52d9	0.00033249593
64	0xba1ff632	-0.00061020546
65	0xba8b66a4	-0.0010635448
66	0xb894956e	-7.0850234e-05
67	0xb98581dc	-0.0002546449
68	0xb9ef0d35	-0.00045595472
69	0xb9baa653	-0.00035600606
70	0x371aeb83	9.23395e-06
71	0xba4619e0	-0.0007556956
72	0xb9a90a7b	-0.00032242
73	0xba5b6d00	-0.0008370429
74	0x3588c74e	1.0190795e-06
75	0xb98a5bf3	-0.0002638992
76	0xb9f19900	-0.00046081096
77	0x391a9f11	0.00014745841
78	0x39851cbe	0.0002538915
79	0xb84fe8df	-4.9569524e-05
80	0x2f03f41a	1.2001103e-10
81	0x37d83396	2.5773228e-05
82	0xb477e3bb	-2.3086515e-07
83	0xb9469dbd	-0.00018941514
84	0x38b9b168	8.854532e-05
85	0xba4e87e1	-0.0007878524
86	0xb82e136e	-4.1502928e-05
87	0x39242c15	0.0001565668
88	0x14648bdb	1.153864e-26
89	0xbb13634b	-0.0022489603
90	0xba2e80d0	-0.0006656768
91	0xba6383e0	-0.00086790137
92	0xb97903c6	-0.00023747896
93	0xba4621b9	-0.00075581257
94	0xb9de3a59	-0.00042386612
95	0xba434806	-0.0007449392
96	0xb92ad2e3	-0.00016291025
97	0xba19f739	-0.0005873326
98	0xba5174e4	-0.00079901353
99	0x3a2931ea	0.0006454276
100	0xba1eb3a0	-0.0006053988
101	0x3791dd38	1.738836e-05
102	0xba32bb8f	-0.00068181095
103	0xb9650090	-0.00021839351
104	0xb9caefb3	-0.00038707032
105	0xb9df6dc4	-0.00042615656
106	0xbabc2a4d	-0.0014355868
107	0xba0caa59	-0.000536596
108	0xb9c64429	-0.00037816286
109	0xb9ec1e2e	-0.00045035913
110	0xb8c0a939	-9.1867936e-05
111	0xb9ae758c	-0.00033275445
112	0xb993c821	-0.00028187133
113	0x390adef6	0.00013243765
114	0xba799b00	-0.0009521693
115	0xbacb9828	-0.0015533017
116	0xba901892	-0.0010993651
117	0xb9822768	-0.00024824892
118	0xb8bf3864	-9.118093e-05
119	0x373bb29e	1.1187656e-05
120	0xb53e8d01	-7.0985703e-07
121	0xb96a44b7	-0.00022341577
122	0xb9a92acc	-0.00032266078
123	0x39c11945	0.00036830656
124	0x26051c63	4.6182116e-16
125	0xba161474	-0.00057250937
126	0xba07e012	-0.00051832304
127	0xb99a648b	-0.0002944808
