ppo/ppo_agent_episode_27500.pth (torch, 596662 bytes, 21 tensors)

fc1.weight f4 [128, 260]
000000 2c 94 6b bd 03 2d cf bd f6 60 17 be 5c cd 27 be
       -0.057514355 -0.10116007 -0.14783081 -0.16386932
000010 64 4a dd 3c 5c 05 99 be c3 e2 04 3e f6 c4 9d bd
       0.027013011 -0.298869 0.12977128 -0.07703583
000020 6d 17 8c be c9 96 c5 be 4a 30 a0 be d8 f2 6f 3e
       -0.27361622 -0.38591602 -0.31286842 0.23432481
000030 ed 62 c0 be 6f 0b 35 be 5e cf d4 bd c7 2d 58 bd
       -0.37575474 -0.17680143 -0.10391115 -0.05277803
000040 fd 4f a5 be 58 25 42 be 5a 78 22 be ef 3c 79 3d
       -0.3228759 -0.18959558 -0.15866223 0.060849126
000050 29 f0 20 be c3 8f 9e bd 4e 58 fb bd af c1 d8 bd
       -0.15716614 -0.07742264 -0.12272702 -0.10583817
000060 d6 a1 a3 bd 05 7a 36 3d 0d 53 34 be 60 bc f9 bd
       -0.07989852 0.04454996 -0.17609806 -0.12194133
000070 17 9b 98 bd 70 51 92 bd ff 7d d9 be b0 f4 e8 3e
       -0.07451456 -0.07144439 -0.4247894 0.45499182
000080 bb b3 5c 3e a8 16 81 be e9 9b 0a bd 4a 6e b2 be
       0.21552937 -0.25212598 -0.033840094 -0.3484977
000090 55 da 8b be 24 48 cd be 67 5f b8 be 70 74 b9 bd
       -0.27315012 -0.400941 -0.36010286 -0.09055412
0000a0 2c 12 9d 3c b6 e5 4b be a7 33 c9 bd 5e 3d 11 be
       0.019173704 -0.19911847 -0.09824305 -0.14183566
0000b0 8b 36 96 be bc 96 cb 3c 13 0a 52 bd 3e e2 22 bf
       -0.29338488 0.02485215 -0.05127914 -0.6362647
0000c0 b4 0a 59 be b8 8c e5 bd f6 25 9f be af 0f 8f be
       -0.21195489 -0.112084806 -0.3108365 -0.27941653
0000d0 bb 2d 06 be a4 39 d4 be 2f e6 41 be f0 a8 69 3d
       -0.13103382 -0.41450226 -0.18935464 0.057045877
0000e0 cf 7d 94 bc 1d 62 45 bd bb 77 12 bd 3a f1 60 3c
       -0.018126396 -0.04818927 -0.035758715 0.013729388
0000f0 80 2b fd 3b a5 aa 66 ba 87 c6 c8 3d ef b8 40 bd
       0.007726133 -0.0008799232 0.09803491 -0.047051366
000100 a6 ae 12 bb 9c e9 8f be 92 41 23 be 1a c1 04 be
       -0.002238193 -0.28107917 -0.15942982 -0.12964287
000110 ff 2c a4 bc 77 9a 6a bd f7 f3 49 bd 76 8a 9e 3d
       -0.020040987 -0.057276215 -0.04930493 0.07741253
000120 f9 e0 96 3d 64 8a 62 bc f9 e3 14 3e 74 a4 b8 bc
       0.07367129 -0.01382694 0.1454009 -0.022539355
000130 33 f7 d2 3d 1a 4c c0 3d 0b a8 84 be 7a 86 5d be
       0.10301056 0.09389515 -0.25909457 -0.2163333
000140 3f 65 93 3d ee fb cc 3d a7 6f 83 3d 05 59 12 be
       0.071970455 0.10008989 0.0641778 -0.14291771
000150 6f 61 59 bd ed 43 fa 3d 7d d2 d9 bc 52 98 66 3e
       -0.053071436 0.12219987 -0.026589626 0.22519043
000160 48 0e 28 3e e6 5a 6e bd f9 8a aa 3d e6 62 9f be
       0.16411698 -0.058192156 0.08327288 -0.3113014
000170 a2 ca 58 be 67 31 3b be 0d f7 85 3d 88 3a bb bd
       -0.21171048 -0.18280564 0.06541262 -0.09142023
000180 28 65 4f 3d 40 22 8f bd 05 5f 35 be 10 dc 43 3e
       0.05063358 -0.069889545 -0.17712028 0.19126916
000190 8c 35 a9 3d 96 a9 82 3d 38 08 b7 3d a9 7e e6 bd
       0.082621664 0.06380002 0.089371145 -0.11254627
0001a0 42 73 8e 3c 39 99 84 bc 55 53 95 bb 01 90 5b 3d
       0.017388944 -0.016186344 -0.004557053 0.05360413
0001b0 8d 8c 4a bd ba cf 10 3d 5e 54 a4 bd 24 92 55 bc
       -0.049450446 0.035354353 -0.08023904 -0.013035331
0001c0 e8 0b 9e 3d 37 dc f3 3d c2 30 89 3d 16 19 0f be
       0.07717115 0.11907237 0.06698753 -0.13974413
0001d0 b4 6a 0a 3e 57 1b d8 3d 5b c6 eb 3d df 25 1e 3e
       0.13517267 0.1055209 0.11512443 0.15444134
0001e0 0e a0 4c 3e f7 c9 20 3c 50 82 6c 3b 82 c0 22 bd
       0.19982931 0.009813777 0.0036088414 -0.03973437
0001f0 9a eb c8 3d 14 d1 b4 3c ed 31 0e bd 0a 0e b0 3d
       0.098105624 0.022072352 -0.03471558 0.08596428
000200 14 83 bb 3d c7 50 07 bd d1 15 3d 3d 53 7c 56 3e
       0.091558605 -0.03303602 0.046163384 0.20945863
000210 4d 08 d3 3d fa 36 f6 3d 6e 7f b6 3d 2f a6 42 bc
       0.103043176 0.12022205 0.08911024 -0.011880442
000220 1c 3e 05 3d 69 12 97 3d de 6f d4 3c 78 2e 38 3d
       0.032529935 0.07376558 0.025932249 0.04496619
000230 14 2c e8 3d bf f9 93 3d d2 df e1 3d 93 6c 4a bd
       0.11336532 0.0722537 0.110290185 -0.04941995
000240 d5 8b 0b 3e b2 4c 1b 3d 89 bd f0 bc 66 3c f6 3c
       0.1362756 0.03791494 -0.029387252 0.030058097
000250 22 a5 fe 3d 3e 71 b1 3c 2a 5d fe bc ca d0 28 3e
       0.1243384 0.021660443 -0.031050283 0.16485897
000260 c3 3c 15 bd 40 3b d6 3d 0d a1 7c 3c ff 33 98 3d
       -0.0364349 0.1046052 0.015419257 0.074317925
000270 a9 d2 f8 bb d4 27 85 3e 6a 64 e3 3a 23 20 58 3e
       -0.007593472 0.2600695 0.0017348651 0.21106009
000280 7e b3 e4 bc f3 f2 fe 3d b0 92 e7 bd ee 69 73 3d
       -0.02791762 0.12448683 -0.11307275 0.059427194
000290 84 07 a0 3d 22 7c 2a 3c 50 59 41 3e 4d 41 f8 3d
       0.078139335 0.010405572 0.18881726 0.1212183
0002a0 d5 7f 92 bd 0f 8a 55 3e 3b 6d 9f 3d b2 be 5a 3d
       -0.07153288 0.20853446 0.07784506 0.053404517
0002b0 94 c0 16 3e 67 15 28 bc b6 d9 ee bc 47 9b 39 bd
       0.147219 -0.010259009 -0.029156547 -0.0453141
0002c0 3a 0d db 3d 37 3b 32 bc ad 44 71 3e aa 74 ba 3d
       0.10695882 -0.010878376 0.23561354 0.09104283
0002d0 f8 52 c0 bd d0 cb 02 be 0a 5f 92 3d b4 a4 35 bc
       -0.09390825 -0.12773061 0.071470335 -0.011086632
0002e0 44 d2 07 3d e9 3a 56 3d 51 24 96 bc be 70 94 bd
       0.03315951 0.052302275 -0.018327864 -0.07248066
0002f0 b3 3d 0b be c2 c8 12 3a 34 77 10 3e d0 94 94 bd
       -0.13597755 0.0005599373 0.14107972 -0.07254946
000300 db 59 34 3e b0 59 9d 3d f6 61 20 3e 1f 5b 53 bd
       0.17612402 0.07683122 0.15662369 -0.05160057
000310 ba e9 b4 bd e4 39 0a 3d 9c 60 5a 3d 98 47 79 3c
       -0.08833642 0.033746615 0.05331479 0.015214823
000320 36 b9 ae ba 66 5c 24 be bf f6 0d bd ee d8 9d 3d
       -0.0013330344 -0.16050872 -0.034659144 0.07707392
000330 7f d5 89 3e 9d a4 98 3d 65 e9 79 bd 36 8c a5 3d
       0.26920697 0.074532725 -0.061013598 0.08083384
000340 3c ff ee 3b 16 ab 2b 3d 42 51 81 3d 28 fe 96 3d
       0.00729361 0.041911207 0.06314327 0.07372695
000350 a1 2c 6f bb 44 31 a1 3d c8 30 c7 ba 22 0f 9b 3d
       -0.0036495107 0.07870725 -0.0015197033 0.07571246
000360 1f 9d 22 3d 45 e7 04 3e cc 17 b1 bc c5 3d 53 bd
       0.039700624 0.12978847 -0.021617793 -0.05157258
000370 57 f2 b7 3d d3 2f 16 3d 96 04 1d 3a 66 3a 77 3d
       0.089817695 0.036666702 0.0005989758 0.060358427
000380 49 ed 92 3d e2 49 79 3d f8 4a 44 3d 4b e3 ae bb
       0.07174165 0.060861476 0.04792306 -0.005337154
000390 10 14 03 3e bf 94 35 3d c8 c0 00 3d ee 45 91 3c
       0.12800622 0.04433131 0.03143385 0.01773354
0003a0 cc 8e ac 3d a6 3d 7a bc d1 7c 3a 3d 0e 1b 2c 3d
       0.08425674 -0.015273487 0.04552919 0.04201799
0003b0 6d 0e 4e bd 96 05 46 3d cb d2 03 3e 0d 2a eb bd
       -0.050306726 0.04834517 0.1287338 -0.1148263
0003c0 e6 9f 55 bd 16 3f 89 3d b9 ea ce bb f1 eb b0 3d
       -0.052154444 0.06701486 -0.006314602 0.08638752
0003d0 23 87 7f 3d 2d 7b cf 3d ca dd a1 3d cf 17 63 3d
       0.062384736 0.10130916 0.07903631 0.055442628
0003e0 61 63 9f 3c 0a 35 36 3a 66 8b 30 3d b6 94 2b 3c
       0.019456567 0.00069506525 0.04310169 0.010472467
0003f0 a1 fe 3b 3d cd 44 04 3d 70 9b 3f 3d 25 31 39 3e
       0.04589713 0.032292176 0.046779096 0.18085153

fc1.bias f4 [128]
000000 71 60 df bc 08 ca b8 bd 8d 64 c6 3b 23 be aa 3d
       -0.027267667 -0.090229094 0.006054467 0.08337047
000010 39 49 30 bd 3b 50 f9 bc 33 ba 37 bd 9b a0 73 3c
       -0.04303858 -0.030433765 -0.044855308 0.014869834
000020 97 e2 43 bd 89 28 bd bc 2b 0c b1 bd fb 47 ca 3c
       -0.047823515 -0.023090618 -0.08644899 0.024692526
000030 8a 9d 12 bd f7 fb 85 3d f6 91 9f 3c ed 45 92 3d
       -0.035794772 0.06542199 0.01947878 0.071422435
000040 da ff 51 3b cc 2d 20 3d 95 17 b3 3c b6 37 6b bc
       0.0032043369 0.039106175 0.02186183 -0.014356544
000050 7c 68 04 3b cc a9 a6 bc 1b 1f 63 3d 9b d5 08 3d
       0.002020388 -0.020344637 0.055449586 0.033406835
000060 ec 33 04 bd 67 d7 15 3d 0f 86 9e 3c 79 f3 8f bc
       -0.03227608 0.036582377 0.019351033 -0.017572151
000070 2b d7 bc bc f7 45 c7 bd 7d d0 c1 bd fd 49 87 3d
       -0.023051819 -0.097301416 -0.09463594 0.06605909
000080 92 8a 61 3b a8 2f 76 bb d7 58 bc 3c 7d d1 f1 3c
       0.003441487 -0.0037565026 0.02299158 0.029518837
000090 00 a8 e9 bc 5a 4a d5 3d 0b 1a 41 3d cb f6 11 3d
       -0.028522491 0.10414572 0.047143977 0.03563575
0000a0 bc bd a3 3d 9d f9 08 3d c5 04 10 3d 9d a1 d0 bc
       0.07995173 0.033441175 0.0351608 -0.025467688
0000b0 01 a0 14 3d ee a1 01 bc e4 1f 6e bc c2 ee e0 bc
       0.036285404 -0.007912142 -0.0145339705 -0.027457599
0000c0 73 d6 9c 3d ee 9f b5 bc a1 84 05 bd fe d2 82 3d
       0.076580904 -0.022170987 -0.032597188 0.063879
0000d0 f9 cd 83 3c 39 75 25 3c d3 05 cb 3d 46 e7 9c 3d
       0.016089426 0.010098749 0.0991322 0.076612994
0000e0 75 7e 61 ba b4 1d 9c 3d c6 65 00 bd 60 da a0 3c
       -0.00086019124 0.07622853 -0.03134706 0.01963538
0000f0 7d 60 eb 3c 8e 05 08 bc 12 84 9f 3d d6 c9 79 bb
       0.028732533 -0.008302106 0.07788862 -0.0038114688
000100 5b fc 60 bc d6 8d 6d bd 80 3a 67 3d 22 7e 81 bb
       -0.013732041 -0.057996593 0.056452274 -0.003951804
000110 c9 19 2f bd 78 42 2f 3c 43 b0 cb 3c 10 d3 26 3b
       -0.0427492 0.010697 0.024864322 0.0025455393
000120 a5 80 b7 3c 71 ca 08 bd 72 77 96 bd 6f ff a8 3c
       0.02240021 -0.03339619 -0.07347001 0.020629613
000130 aa 77 75 3d 20 44 bb 3d b7 c4 9e bd d4 ac 80 bd
       0.059928574 0.09143853 -0.07752364 -0.06282964
000140 46 5c 4f bd 07 a4 93 3d e9 26 7e bd 6d 5e b8 bd
       -0.05062511 0.0720902 -0.062048826 -0.09002385
000150 20 cc b0 3d dd 1e c3 3c 2d d5 e8 3d ca d0 ff bb
       0.08632684 0.023818428 0.11368785 -0.007806872
000160 3e 08 4d 3c 0b db d5 bd 14 36 c2 bd b6 66 37 3c
       0.012514172 -0.1044217 -0.09482971 0.011193922
000170 a9 36 00 bd 33 b4 3e bd b4 96 e7 bc 0b a9 e1 3c
       -0.031302128 -0.04655857 -0.028270103 0.027546426
000180 ff d4 ee 3b 1c 66 ff 3c 32 63 b7 bc e4 c8 8b bd
       0.0072885747 0.03117662 -0.022386167 -0.06825426
000190 d7 70 b6 3d f9 7f d1 bd 05 98 f6 3b 0d ed 19 3d
       0.08908241 -0.10229487 0.0075254464 0.037579585
0001a0 5b 75 eb 3c 40 16 92 3d 40 ba 5d 3d e1 4f 32 3d
       0.028742483 0.0713315 0.0541327 0.04353321
0001b0 1b b2 a8 bc 86 fb 9f bd e1 19 d7 3d a3 bf fd 3d
       -0.02059274 -0.07811646 0.10502983 0.123900674
0001c0 0b 64 7c bc 67 db 8b bd 30 f2 33 3d 45 40 58 3c
       -0.0154047115 -0.06828957 0.04393214 0.013198917
0001d0 e7 d2 5d bd 51 41 48 bd 8f 11 0d bd 3f 04 26 3b
       -0.05415621 -0.048890416 -0.034440573 0.002533212
0001e0 57 c1 98 3d 6e 9f fe 3d 20 5e 2c bd a7 f8 5a bc
       0.07458752 0.124327525 -0.042081952 -0.013364947
0001f0 b5 49 a3 3c 54 6a 67 bd c7 4b ba 3c 14 14 d8 bd
       0.019932607 -0.056497887 0.022741212 -0.105507046

fc2.weight f4 [64, 128]
000000 19 90 0f 3d 91 ee e8 bd 20 39 41 3e 10 cc 20 bd
       0.03504953 -0.11373628 0.18869448 -0.03925711
000010 d7 9a 23 be f3 a7 5b 3e fc 9f 89 bc 78 4b 92 bd
       -0.15977035 0.21450786 -0.01679992 -0.07143301
000020 e5 17 ac 3b d3 b0 50 3e df 4c f7 3d 4c a7 05 3f
       0.005251872 0.20379953 0.12075209 0.522084
000030 bb 31 22 be 60 03 84 3e fc 80 08 3f 07 1c b2 3d
       -0.15839283 0.25783825 0.53321815 0.08696752
000040 59 57 36 bd 0c 6d aa be ef c4 37 3e 0f b5 36 3e
       -0.044516895 -0.3328632 0.17946218 0.17842506
000050 5f 6c 84 3e e1 88 75 3e 97 06 15 be 05 6f 83 3e
       0.2586393 0.23977996 -0.14553295 0.2567064
000060 ff ce f5 3e 32 8e c5 3e 74 89 bd 3e e6 59 d7 3c
       0.48009488 0.3858505 0.3701893 0.026287984
000070 4a b4 82 3d a8 33 89 3e be 42 95 bd bf 91 06 bb
       0.06382044 0.26797223 -0.07288121 -0.0020533649
000080 4c a1 96 3e 91 af 4b bd 7c 26 b4 3c bc 66 f8 bd
       0.29419935 -0.04972798 0.021991007 -0.1212897
000090 7f 5e 81 be 59 bb a3 be ec 9c 78 be 2c 05 df be
       -0.25267407 -0.31978872 -0.24278611 -0.43558633
0000a0 82 07 a1 be d9 aa 50 be 9b 7b 2a bc 4e 04 c2 bd
       -0.3145104 -0.20377673 -0.010405446 -0.09473477
0000b0 44 64 5b be 1e 3f 28 3f df aa 90 3c 5e 8c 73 be
       -0.21424967 0.6572131 0.017659603 -0.23784015
0000c0 66 11 b1 3e be ff 3a 3c 4c 4e 5a 3d 6e 87 08 be
       0.34583586 0.011413513 0.053297326 -0.13332912
0000d0 e7 21 bf be 94 c6 08 bd 42 6b 08 3e 14 cc 98 3d
       -0.37330553 -0.033392504 0.13322166 0.074608
0000e0 2b a5 ae 3e 36 fb b6 be 31 37 07 3e 48 90 97 3d
       0.34110388 -0.35738534 0.13204648 0.07400566
0000f0 ff dd 48 3e d0 c8 0e 3f 4a da 0c 3d a2 09 7f be
       0.19615935 0.55775166 0.034387864 -0.24906018
000100 0e ca 5f be c0 d6 bf bd c1 d8 9b 3e 21 0e 0b be
       -0.21854421 -0.09367132 0.30438808 -0.13579609
000110 51 4b 83 3d bb 67 49 be 73 97 ad 3e e9 77 09 be
       0.0641085 -0.19668476 0.3390461 -0.13424648
000120 36 dd da 3e 09 cd c3 3e c7 64 4a 3e a8 0e ba be
       0.42746896 0.38242367 0.19765006 -0.36339307
000130 0e 1f e0 3e 29 5d db 3b 69 ef e3 3c 7e ef 0c be
       0.43773693 0.006694455 0.02782412 -0.13763234
000140 b9 66 4c 3f fc 30 88 3e a0 63 ec bd 7b 6a 09 3d
       0.7984424 0.26599872 -0.115424395 0.033548813
000150 5c fb 6e be 5b 44 01 bd c9 16 ba be 6d f8 0e 3e
       -0.23338073 -0.03155933 -0.3634551 0.13961954
000160 4b 1e 81 be 89 93 2f 3e 2e 5d 10 bc e1 89 0f 3e
       -0.25218424 0.17146124 -0.008811278 0.1401744
000170 a5 a6 f4 3e 42 6d 4b 3e 67 7a fb be fb 90 1f be
       0.4778339 0.19865897 -0.49116823 -0.1558265
000180 a8 cc 5b 3d 3d 37 18 3e da c6 0b be ff 5d 69 3e
       0.053661972 0.14864822 -0.13650075 0.22789763
000190 11 b8 13 3f a0 53 ff 3c 01 97 14 be c4 2b 72 3c
       0.5770274 0.031167805 -0.14510728 0.014780942
0001a0 5a 3a 0b 3f 2a 90 c7 be 52 7a 6c 3e a1 f7 c3 bb
       0.5438591 -0.38977176 0.23093536 -0.0059804474
0001b0 ed 7a b3 bd 80 a4 24 be 31 b6 f1 bc ad d3 6b 3c
       -0.087636806 -0.16078377 -0.029505821 0.014393729
0001c0 5c fc 38 be 14 99 02 3f bb 47 0a bd 0d 68 84 3e
       -0.18065017 0.5101483 -0.033759814 0.25860634
0001d0 50 e8 b6 3c d8 36 1a 3f e0 0f bd 3d 97 ce e7 bb
       0.022327572 0.60239935 0.092315435 -0.007074188
0001e0 76 cd 2e 3e f0 2d 8e be 02 ed 23 3e 76 45 73 3e
       0.17070565 -0.27769423 0.1600838 0.23756966
0001f0 84 2c 0f be c8 9f 39 be e9 99 14 be 68 c9 88 3b
       -0.13981825 -0.18127358 -0.14511837 0.0041744
000200 ca c1 ce bc 01 9c 34 3e ad b0 65 be 67 63 e7 3d
       -0.02523889 0.17637636 -0.22430678 0.11298256
000210 0f a7 26 3e b0 2d 53 3e f0 2a 19 3c 20 58 92 bd
       0.16274665 0.20622897 0.009348616 -0.07145715
000220 1e 74 74 bd 92 40 db bd a6 e0 99 3c a6 8f bc bd
       -0.05968105 -0.10705675 0.018783879 -0.09207086
000230 5e 35 64 3e 0b c4 1e 3e 0a b3 bc 3e c3 51 db 3d
       0.22285983 0.15504472 0.36855346 0.10708954
000240 0d 10 35 bd 9e 80 4c be 18 d3 4a 3e 26 fd 06 be
       -0.04420476 -0.19970939 0.19807088 -0.13182506
000250 37 c6 c0 3a 3b 8e 8c 3e ab 1e 2f 3e 1f ca ee 3d
       0.001470751 0.27452263 0.17101543 0.11659645
000260 46 4b 71 3e 9c 61 da 3e 5b ae 86 bd db 02 0a 3e
       0.23563871 0.42652595 -0.065762244 0.13477652
000270 b9 b5 82 be 66 b7 11 bc f9 28 39 be d8 14 42 be
       -0.25529268 -0.008893823 -0.18082036 -0.18953264
000280 74 cf c0 bd 30 91 a5 3d 9d 42 76 be d2 61 29 3e
       -0.094145685 0.08084333 -0.24048848 0.16541222
000290 34 db e6 3d ce bb 85 be 60 6c ef 3d 3d ef a5 3e
       0.112722784 -0.26119846 0.11690593 0.32409087
0002a0 3e 66 5e be 2a 68 64 be 7d c5 f3 bd bd 52 c1 3d
       -0.2171869 -0.2230536 -0.11902902 0.09439609
0002b0 10 19 34 be 0f 8c d1 3e f3 2a cc bd a9 cf 06 bf
       -0.17587686 0.4092717 -0.099691294 -0.52660614
0002c0 8c ad 95 3e c0 2f 48 be 5f b2 d5 bd 81 43 e4 bd
       0.29233968 -0.19549465 -0.10434412 -0.11145688
0002d0 8b c1 1b bf f5 28 99 3b 09 4f 1a be 13 57 9f 3d
       -0.608422 0.004674072 -0.15069212 0.0778028
0002e0 44 3a 0d be b9 30 be bd 36 40 9d bd 52 07 a4 3e
       -0.13791758 -0.09286637 -0.07678263 0.32036835
0002f0 67 15 35 3e b7 83 2b 3d 56 62 d7 3c 0d 37 22 be
       0.17683946 0.04187366 0.026292007 -0.15841313
000300 a8 42 84 be 59 57 ec 3d c3 79 94 be e0 1f d0 bd
       -0.25832105 0.11540098 -0.28999147 -0.1016233
000310 5d b7 4b 3e f1 0a 76 3e 69 52 9d 3e 1f 4c 29 3e
       0.19894166 0.24027611 0.30726936 0.16532944
000320 12 6e 63 3e ba 5e 0e 3d 30 b9 e3 3d d3 76 76 be
       0.22209957 0.034758307 0.11119306 -0.24068765
000330 30 7b 01 3e fb de 17 bd d1 2e 51 3e 0f f8 af bd
       0.12644649 -0.037077885 0.20428015 -0.08592235
000340 5a 88 82 3e d8 04 09 be a5 3f 73 3e fb 58 97 bd
       0.25494653 -0.13380754 0.23754747 -0.073900186
000350 32 79 c2 bd 29 8a 29 bd 1a a3 25 3e 8d 8b 30 3e
       -0.094957724 -0.041391525 0.161755 0.17240734
000360 de a1 0b bd a2 e9 72 3e 89 79 85 be c0 e7 dc 3d
       -0.034089915 0.23721936 -0.26069286 0.1078639
000370 c7 de 56 3e 27 3b 2a be aa e0 ca 3e 06 ab 97 3d
       0.2098342 -0.16624127 0.3962453 0.07405667
000380 9a 0b 04 3d 6a 2b 2a bc 6e 2b a2 be a8 9a 20 3d
       0.032237627 -0.010386327 -0.3167376 0.03920999
000390 d2 3a c7 bc 6d 06 0d 3e d3 63 d4 be e8 68 9d be
       -0.02432004 0.13771982 -0.4148241 -0.307441
0003a0 f1 37 e1 bc 32 d7 db bd 41 6b 97 3c 58 e8 b7 be
       -0.027492495 -0.107344046 0.01848376 -0.35919452
0003b0 be 5f ac 3d 16 9c f8 bb e4 a9 3e 3d 25 47 26 3d
       0.08416699 -0.0075869663 0.04654874 0.040595192
0003c0 9a 14 a2 be 30 09 e0 bd eb 78 db 3c e7 74 38 3d
       -0.31656343 -0.109392524 0.026791057 0.04503336
0003d0 d4 d7 13 bd 10 e9 c2 bd 57 66 ec bc 63 3e 1e bd
       -0.0360945 -0.095171094 -0.028857393 -0.038633715
0003e0 5c 48 49 be 03 03 98 bd 28 95 76 3c 09 87 52 3e
       -0.19656509 -0.074224494 0.01505021 0.20559324
0003f0 70 d1 d1 bd b5 56 68 3e be c6 0e be de 64 db bb
       -0.10245025 0.22689326 -0.13943002 -0.006695374

fc2.bias f4 [64]
000000 81 8b 98 39 5c 40 42 3d b2 d9 9c bd ca eb ee ba
       0.00029095638 0.04742466 -0.076587096 -0.001822823
000010 68 5d 0a be b6 01 0d 39 1c 9d fc 3c 92 72 ae bd
       -0.13512194 0.00013447445 0.030836634 -0.08517946
000020 12 4e b2 3c 5a cb 4a 3d 66 3c 6a bd 24 f3 ce bb
       0.021765742 0.049510337 -0.057186507 -0.0063156057
000030 f7 f1 8e bd 50 a9 87 3d a3 8b ea bd ef 5f 01 3c
       -0.06979745 0.06624091 -0.11452415 0.0078964075
000040 08 b1 2b bd 3f f6 91 3d 7e 7b a3 3c f4 51 1d 3d
       -0.041916877 0.07127046 0.019956347 0.038408235
000050 a1 35 4a 3a 7b a6 bc bd 02 6d 5f bd ac 27 96 3d
       0.000771368 -0.09211441 -0.054547317 0.073317856
000060 88 9a 28 3d 2b d3 3b 3c 23 ff e4 3d 97 98 1a 3e
       0.041162997 0.011463921 0.11181476 0.15097271
000070 9c 7e a0 3d f1 77 ca bc e6 b8 1f bd e7 cd e0 bd
       0.07836649 -0.024715396 -0.038994692 -0.10976773
000080 c1 97 83 bd 45 29 88 3d 88 90 02 bd 4c 92 bf bb
       -0.06425429 0.066484965 -0.031876117 -0.0058462974
000090 07 5f d7 3b 1d 1b 05 3a 9e fc 13 3e ed c4 58 3b
       0.0065726074 0.00050775876 0.14451835 0.0033076361
0000a0 8f fc 99 bd 34 0f 28 3b 30 78 e7 bd b9 29 6c bd
       -0.07518875 0.0025643827 -0.11302221 -0.057656977
0000b0 7a f9 93 bc 4d 3d 04 3e 27 02 08 be 29 48 29 3d
       -0.018063296 0.1291401 -0.13282071 0.041328583
0000c0 7e df 56 bd 2d d3 4b 3d 61 d3 0f 3e c5 7f 33 bc
       -0.052459233 0.04976194 0.14045478 -0.010955756
0000d0 24 0e 00 3e e2 58 c3 3c f1 30 90 3d 98 38 d8 3c
       0.12505394 0.023846094 0.07040585 0.026394174
0000e0 9c 81 d9 bc 06 ac b8 3d fa 99 fc bd 16 c4 33 bc
       -0.02655106 0.09017186 -0.12334056 -0.0109720435
0000f0 37 31 9d 3c cf 1e 75 3e 99 ca cd bc 65 0d 87 3d
       0.019188507 0.23937534 -0.02512102 0.06594352

policy_head.weight f4 [110, 64]
000000 62 08 fb 38 15 66 0a be 40 52 fb 3e b7 dd 29 bd
       0.00011970174 -0.13515504 0.4908619 -0.04147121
000010 a3 9b bc 3c 4c 34 dd be 00 88 ea bd 6b bf 4b 3e
       0.023023432 -0.43203962 -0.11451721 0.19897239
000020 15 8a 41 3f 5f 06 a5 be 0f f1 df bd 82 c6 c2 3d
       0.7560132 -0.32231423 -0.1093465 0.095105186
000030 9f 67 b9 bd fe 99 2e 3d aa 02 ab 3d d1 2e 88 bd
       -0.09052967 0.042627327 0.083501175 -0.066495545
000040 68 1a 8b 3c 68 39 2b 3c 5d 44 8e 3e b1 5e 1a bf
       0.016980365 0.010450698 0.27786532 -0.6030074
000050 95 2e d9 3e 6e b1 09 bd bf 10 8d 3e 3b f1 39 bd
       0.42418352 -0.033616476 0.2755184 -0.04539607
000060 e7 c8 c9 bd b6 5f 87 be dd 7c e6 3d 87 af 86 3e
       -0.09852772 -0.2644021 0.112542845 0.26305792
000070 6a 26 80 be 84 9c 0b 3d 45 1f 6c 3e 8e 9a 14 3f
       -0.25029308 0.03408481 0.23058803 0.5804833
000080 5e 67 28 3f 90 f5 ca 3e e1 73 42 bd 0b ff cd 3f
       0.65782726 0.39640474 -0.047473792 1.6093458
000090 bb 32 8e 3e c3 7b e6 3d 05 7b 06 be 8d 32 f6 3e
       0.2777308 0.112540744 -0.13132866 0.48085442
0000a0 68 95 55 3e 75 8f ff bd aa 03 25 3d a4 c9 16 bf
       0.20857775 -0.12478534 0.040286697 -0.5890143
0000b0 cc 99 be be 6a dc fb 3e 53 43 6e 3e ad cd 45 be
       -0.37226713 0.491916 0.2326787 -0.1931674
0000c0 ff 06 25 3e 27 8c 17 3f a5 4c 80 3d 48 0e 2d 3e
       0.1611595 0.5919823 0.06264619 0.16899979
0000d0 43 e0 a8 3d fd 1d 83 be 1b 0e 1b be 0d f6 48 3f
       0.082458995 -0.25608817 -0.151421 0.78500444
0000e0 5d f4 56 3d b1 b3 01 bf ba 02 87 3e f8 bb 1b 3f
       0.052479137 -0.5066481 0.26369268 0.6083369
0000f0 c3 b6 36 be 2c a6 f0 3d 44 a2 6f 3e 16 db 0b 3e
       -0.17843156 0.11750445 0.23401743 0.13657793
000100 5d 0a cb 3e d2 48 74 bd b7 ce a6 3e ec 0b 43 be
       0.39656344 -0.05963976 0.32579586 -0.19047517
000110 b2 ec aa bd aa 78 68 bf 8a 87 01 3e 23 1f 99 3e
       -0.08345927 -0.9080912 0.1264936 0.29906568
000120 2c 0a 20 3f be d4 55 bf 72 e7 c6 bc 6e e8 b9 3d
       0.6251552 -0.83527744 -0.024280284 0.090775356
000130 40 9b 08 3d 15 b9 09 bd 6d 53 40 bd 41 59 a3 be
       0.033351183 -0.033623774 -0.04695456 -0.31904033
000140 ed c1 c1 3d 2a 99 14 bf 86 6a 95 3e 21 b5 9b bc
       0.094608165 -0.5804621 0.29182833 -0.019007267
000150 1a 2b 82 3e 23 c7 6e 3c b5 a4 8c 3e 75 7e a5 be
       0.2542351 0.014573845 0.27469411 -0.32323042
000160 e1 03 97 3d d5 17 00 3d 47 35 b1 3e 55 18 88 3e
       0.07373787 0.031272728 0.3461096 0.26581064
000170 e7 e4 2a be 87 28 f8 3d 76 49 a2 bd 70 82 17 3c
       -0.16688882 0.12117105 -0.07924168 0.009247407
000180 f1 91 ec 3e f4 d6 88 3e d6 06 8f 3e 90 ac 63 3f
       0.46205094 0.26726496 0.27934903 0.88935184
000190 fd ec 81 3e 89 71 14 bd 5f 21 57 be 98 77 58 be
       0.2537612 -0.036241088 -0.21008824 -0.21139371
0001a0 d5 f6 82 3e 25 8f f7 bd fc 0e 50 3c c0 3b ad be
       0.25578943 -0.120878495 0.012698885 -0.33834648
0001b0 89 f7 22 bf ee 2a e5 3e b6 86 e7 3d f6 39 6d 3e
       -0.6365896 0.44759315 0.11304991 0.23166642
0001c0 ad 42 1f 3e 98 cb 52 3d 67 f8 d6 3e 79 44 67 3e
       0.15552779 0.051463693 0.4198639 0.22584714
0001d0 7d 37 8a be c6 50 81 be cc 22 c6 be e6 b5 8f 3e
       -0.2699546 -0.25256938 -0.38698423 0.28068465
0001e0 2f 93 0e bd 27 6e 5e 3d cd eb 68 3e 9d 27 e2 3e
       -0.034808334 0.05430427 0.22746201 0.44170848
0001f0 61 6c f9 bd 7b 6f 63 3d 6e fc d1 3e 3c d3 8c 3c
       -0.12178875 0.055526238 0.410129 0.017190568
000200 cb 31 81 3e ef 4c 9e 3e 08 46 eb 3e 7c 30 1c bd
       0.25233302 0.3091807 0.45951867 -0.038132176
000210 aa fa 54 3b 1b fd f2 3d 0a b7 0d 3e 14 7a df 3e
       0.003249804 0.11864682 0.13839355 0.43647826
000220 27 6c 0b bc d1 8c 00 bc 40 c1 49 3e fc bf bd bd
       -0.008509672 -0.007846073 0.19702625 -0.09265134
000230 3b 36 20 3d 3f 6e e8 3d 46 3a c0 3e 0d 69 d9 3b
       0.03911422 0.11349153 0.3754446 0.0066348375
000240 2a da a6 3e 96 d3 6b be d1 1e 47 be 0b 8e 47 3e
       0.3258832 -0.23029932 -0.1944535 0.19487779
000250 05 4d 6a 3e 32 76 0f bd 43 1e 96 3e 11 16 1d be
       0.22880943 -0.03502483 0.29319963 -0.15340449
000260 1f ac 84 3e 23 5d 0a 3e 4e c3 8b be 18 ae bc be
       0.25912568 0.13512091 -0.27297443 -0.36851573
000270 2d 86 f3 bd 14 b9 c5 3d 46 ed 15 be 6a 37 47 bf
       -0.118908264 0.096544415 -0.14641294 -0.7781893
000280 6a 47 1d bf 26 a6 98 bd 89 2f ec be 2c 11 8f be
       -0.61437094 -0.07453565 -0.46130016 -0.2794279
000290 ca 73 45 3e 4e 9d 80 3e 95 23 f2 be c4 34 11 be
       0.19282451 0.25120014 -0.47292772 -0.14180285
0002a0 cc c8 a1 3e 68 54 46 bd 58 6b b7 3e 6a b7 38 3e
       0.31598508 -0.04842034 0.35824084 0.18038717
0002b0 40 03 96 bc aa 6f 9e 3e 20 19 4d 3e ef c3 b9 be
       -0.018312097 0.30944568 0.20029116 -0.36282298
0002c0 3d f1 92 3e 1a f0 94 be b1 a6 db be f5 ee 90 3c
       0.28699675 -0.29089433 -0.42900613 0.017692069
0002d0 56 52 94 bd 67 ca cc 3d 59 c7 82 be 6b 70 d6 be
       -0.07242267 0.09999543 -0.25542715 -0.41882643
0002e0 2d 00 8c bd ea fa b1 3d b9 fb e9 3e 3f 1d d1 3d
       -0.06835971 0.08690436 0.45699862 0.102106564
0002f0 9d 6b 59 3e ac d3 a6 be 5d af bf 3e b9 d6 2d be
       0.21232457 -0.32583368 0.3743848 -0.16976441
000300 37 e5 3d 3e bb 21 6d bd 54 b7 a1 3e 46 44 70 3e
       0.1854447 -0.057893496 0.3158518 0.23463544
000310 88 5c b7 3e a4 3e 01 3e 96 e7 d6 3d 2e cb 8e 3e
       0.35812783 0.12621552 0.1049339 0.2788939
000320 e8 e9 d5 be 1f f2 11 bd e4 07 bb 3e 1c 8e 50 bd
       -0.4178002 -0.035631295 0.36529458 -0.050916776
000330 16 94 20 bd b6 f2 97 bd cd 9d 62 3e 8c e4 8f 3e
       -0.039203726 -0.0741934 0.22130509 0.28104055
000340 61 a0 38 3e 4f 17 b5 3e 8f 71 a5 3e a5 24 09 be
       0.1802993 0.35369346 0.323132 -0.13392885
000350 a8 f1 80 3e ed f9 d5 bc 54 77 42 3e 27 ff f6 be
       0.2518437 -0.02612015 0.18990833 -0.4824154
000360 bb 0d 71 3e d3 35 9a 3d 01 78 64 bf d1 ce dd bd
       0.23540394 0.075297974 -0.8924561 -0.10830463
000370 61 c1 5f 3e e5 c2 1d 3d 35 07 87 bd 87 41 a7 3e
       0.21851112 0.038515944 -0.065931715 0.3266718
000380 82 67 69 3d ca 40 1e be 95 0b 8d 3e 08 21 ee 3c
       0.05698348 -0.15454403 0.275479 0.029068485
000390 34 27 1f 3e a8 31 35 3d ec a5 ee be 95 c2 e6 be
       0.15542299 0.04423681 -0.46610963 -0.4507033
0003a0 71 c2 4e 3e 21 5d 35 bc 19 04 d7 3d 5e b6 5b bd
       0.20191361 -0.011069567 0.104988284 -0.053640716
0003b0 60 60 2b 3e f0 d4 09 bf bc bd 92 3e aa 38 b5 bd
       0.16735983 -0.5384054 0.2866038 -0.088486984
0003c0 18 fd 86 3e 23 bf 1d bf 7f 1e 24 bf 92 65 28 3e
       0.2636497 -0.61619776 -0.64109033 0.16444996
0003d0 5a f5 fa be d9 03 b4 3d 64 b7 af 3e 01 e1 83 be
       -0.49015313 0.087897964 0.34319603 -0.25757602
0003e0 4a cb ad 3d 86 7c 69 3e 5d cb 95 3e 91 1e 40 3e
       0.0848604 0.22801408 0.29256716 0.1876166
0003f0 c7 53 06 3e 1b 1b 40 bf 26 dc 3d be 04 a0 05 bf
       0.13117896 -0.7504136 -0.18541011 -0.5219729

policy_head.bias f4 [110]
000000 bb 8f cc be 53 99 50 bd 01 93 88 bd ac ec de 3d
       -0.39953408 -0.05092747 -0.06668664 0.10884985
000010 43 12 ce be c6 40 d8 be ab ad d1 3d 2c 83 8f 3d
       -0.40248308 -0.42236918 0.10238203 0.07007441
000020 1f d9 04 3e cf aa 25 bc b2 83 0a 3c 43 e7 2b 3c
       0.1297345 -0.010111525 0.00845425 0.010492149
000030 61 85 24 3e 09 f3 4b 3d ea ab 7b 3e ce df 3f 3e
       0.16066505 0.049792323 0.24577299 0.18737718
000040 4e 78 e0 3d 5f 5f 28 3e 51 d5 8b 3e 8f 98 85 3e
       0.10960446 0.16442631 0.27311185 0.26092955
000050 b1 af 8f 3d 4b 38 01 bd cd 8b a8 bb 70 5d 86 3d
       0.07015932 -0.031547826 -0.0051436187 0.065607905
000060 c4 a9 23 3d ef e1 74 3e 9d b3 46 3e 77 65 7a 3d
       0.039956823 0.23914312 0.19404455 0.06113192
000070 ba a7 0a 3e 89 83 83 bc cf 58 26 3d fb 59 83 3c
       0.13540545 -0.016053932 0.04061204 0.016034117
000080 a6 d1 44 3c 27 6f cb 3d 38 6a 81 3c 74 64 6b 3e
       0.012012875 0.0993331 0.01579772 0.22987539
000090 5a 65 78 3d b9 5c e8 bc d7 24 c1 3d c5 3c 20 3e
       0.06064353 -0.028364526 0.09430855 0.15648182
0000a0 10 61 84 bc fb 32 49 3e 5d 8a e5 3d c1 95 98 3d
       -0.016159564 0.19648354 0.11208031 0.07450438
0000b0 1d 02 a0 3d 68 e1 97 3c 57 3b 7f 3e 54 2b 0b 3e
       0.07812903 0.0185401 0.2492498 0.13590747
0000c0 a9 3d f7 3d 9f 3e 4b 3e 25 6b 80 bd a0 a7 d6 3d
       0.120723076 0.19848107 -0.06270436 0.10481191
0000d0 0a 71 2b 3e 6d 8e 9a 3d b2 b2 d6 3d a5 2e cb 3d
       0.1674234 0.07546697 0.10483302 0.09921006
0000e0 27 0f 68 3e f6 5b 4a 3e 31 27 a4 be 0a 1f c8 be
       0.2266203 0.19761643 -0.3206115 -0.3908618
0000f0 3a 5e e0 be 05 20 cf be d4 6a b6 be 93 6d 9c be
       -0.4382189 -0.40454116 -0.35628378 -0.30552348
000100 46 2e ac be 09 02 c8 be 4a b9 95 be 62 0c 83 be
       -0.33629054 -0.39064053 -0.29242927 -0.25595385
000110 5d aa a8 be b2 8d a9 be 9b e5 88 be a2 8b e5 be
       -0.32942477 -0.33115917 -0.26737675 -0.44833094
000120 99 46 9a be 64 4e d7 be 61 74 d0 be 8c a2 cd be
       -0.30131987 -0.42051995 -0.4071379 -0.40163076
000130 7a d8 02 bf 3e ba a6 be 78 5e f5 be 3b da b6 be
       -0.5111157 -0.32563967 -0.47923636 -0.35713372
000140 5e 7a ef be 47 a5 b2 be 05 19 eb be 0d 1f 9e be
       -0.46773046 -0.34891722 -0.45917526 -0.30883065
000150 d3 2d fc be 36 2a a4 be 62 52 a9 be 7e 38 ea be
       -0.4925371 -0.32063454 -0.33070666 -0.45746225
000160 23 47 c9 be 8c 11 c1 be a0 b3 e7 be 85 50 e8 be
       -0.39312086 -0.377087 -0.4525423 -0.45373932
000170 34 3d c3 be 1d 77 b0 be ec c7 f5 be f3 22 a8 be
       -0.38132632 -0.34465876 -0.4800409 -0.32839164
000180 fd 6b be be 60 ee d1 be d6 b1 fa be 38 e3 a8 be
       -0.37191764 -0.41002178 -0.48963803 -0.32985854
000190 a1 9a 93 be 4c 6c ea be 46 cf b5 be 2e 8d bd be
       -0.2882891 -0.4578575 -0.355097 -0.37021774
0001a0 c6 eb 00 bf 7b b0 00 bf b1 61 de be 3b fc e5 be
       -0.5035976 -0.5026929 -0.43433908 -0.44919
0001b0 63 57 fd be 49 cd 86 be
       -0.49480733 -0.26328495

value_head.weight f4 [1, 64]
000000 3a 39 9d 3c 61 0f 82 bc 8f 22 7a 3b 02 25 67 3c
       0.019192327 -0.015876474 0.0038167571 0.014107944
000010 84 3f a4 3c c7 c2 28 3d b7 ee 80 bc f0 a2 05 3b
       0.020049818 0.04120138 -0.015738828 0.0020391308
000020 10 f0 3e be d7 cc 96 3c 6f 7c b7 3b 47 cc 4f bd
       -0.18646264 0.018408222 0.0055995504 -0.050731923
000030 4e 84 d4 3d 82 b3 ae bd 4e c7 30 bb 1a 06 c5 3c
       0.103767976 -0.08530332 -0.0026974264 0.024050761
000040 e6 b6 5d bc 2f 82 b3 3c 4e 94 5c bd 5c 62 32 bc
       -0.013532376 0.021912662 -0.053852372 -0.0108877085
000050 d3 3b 45 bc 18 6d af bd 34 8d f0 3a 5d 56 39 3c
       -0.012038189 -0.0856573 0.0018352629 0.0113120945
000060 86 7d d9 3b 34 a1 64 bc 77 c7 ba bc 29 d4 c0 bc
       0.006637278 -0.013954449 -0.02280019 -0.023538666
000070 74 6c bd 3c db 24 a0 bd 02 54 16 be 9f d1 80 3d
       0.023123004 -0.078195296 -0.14680484 0.06289982
000080 53 b9 4e bd 26 ce 93 be ca 67 f1 3c af be 4a be
       -0.050469708 -0.28868216 0.029468436 -0.19799303
000090 26 d7 97 3c db 96 63 bc 43 40 2f 3d 48 68 46 bc
       0.018535208 -0.013890947 0.042785894 -0.0121098235
0000a0 c7 37 db bb 0b 2e d0 bd 04 8e 29 bc 3b 09 aa 3b
       -0.006689999 -0.10165032 -0.010348801 0.0051890886
0000b0 b4 f1 a1 3a 66 42 c6 bc e2 df a0 b9 80 79 78 bc
       0.0012355358 -0.024201583 -0.00030684384 -0.015165687
0000c0 13 c9 74 bb 4c 4c 1c ba 5a 3e a0 bc 91 e3 91 bb
       -0.0037351295 -0.0005962297 -0.019560982 -0.004452177
0000d0 5e 8d 8c 3c 16 f1 15 bc 7c 2c 13 3d c9 33 82 be
       0.017157253 -0.009151718 0.035931095 -0.25430134
0000e0 c0 2c 06 bc 93 88 9f bb 44 a5 99 3a f8 7e 4e bc
       -0.00818938 -0.004868576 0.0011722227 -0.012603514
0000f0 29 9a ef 3c 6b 72 6f 3c 0a 2d 10 bc 5d a2 3d bb
       0.029248314 0.014614682 -0.008799801 -0.0028935887

exp_avg f4 [128, 260]
000000 aa 83 47 ba ec a7 5f b9 95 0f 96 b9 c2 2a fd b8
       -0.0007610867 -0.00021329493 -0.0002862184 -0.000120719444
000010 4e 1a 2c b9 db 11 55 b8 d3 88 cc b7 83 be a9 38
       -0.00016412998 -5.0799787e-05 -2.4382409e-05 8.0940335e-05
000020 bd f8 5c 39 73 82 df b9 3c ce a6 39 91 47 2d 39
       0.00021073497 -0.00042631067 0.00031815644 0.00016525226
000030 39 23 d7 39 93 a4 48 39 63 11 9e 39 ed fc 58 3a
       0.00041034239 0.00019134795 0.00030149063 0.0008277435
000040 e5 a8 9d 39 c9 b8 58 38 88 7a a0 37 77 95 89 39
       0.0003007121 5.1670508e-05 1.9130544e-05 0.00026242036
000050 5a ea bd 39 8b d1 06 3a 23 c8 f4 b9 52 60 5e ba
       0.00036223495 0.00051429187 -0.0004668842 -0.0008482981
000060 4e 1b 6e 38 fb a7 2b 39 29 b0 9c 37 a7 02 52 ba
       5.676905e-05 0.00016370408 1.867868e-05 -0.00080112595
000070 20 b0 7f 38 7f c7 e8 b8 61 dc fb b8 c0 24 45 39
       6.0960767e-05 -0.00011099781 -0.000120096614 0.00018801074
000080 33 58 70 b6 19 55 88 37 5c b6 bb b9 a9 99 86 38
       -3.5814126e-06 1.625209e-05 -0.00035803288 6.418239e-05
000090 46 65 90 39 37 f8 bb 39 bb 96 0a 38 e9 66 f0 b8
       0.00027541275 0.00035852354 3.3042143e-05 -0.0001146326
0000a0 f3 7c 95 b9 dd 73 63 b9 ae c7 b3 38 23 01 8f b8
       -0.0002851259 -0.0002169157 8.5725784e-05 -6.818983e-05
0000b0 aa 91 72 39 02 53 d5 b8 ce b0 db 39 27 0a a2 b8
       0.00023133183 -0.00010172093 0.00041902665 -7.726653e-05
0000c0 d8 dc 1b 3a c1 2a c2 39 a7 1f d2 39 e0 85 00 ba
       0.0005945689 0.00037034418 0.00040077904 -0.00049027614
0000d0 04 00 00 80 04 00 00 80 a8 b9 1e 1b b1 75 47 2b
       -6e-45 -6e-45 1.3129442e-22 7.086233e-13
0000e0 37 3e 83 b7 d8 d8 1d 38 dd 0d 2b 38 59 c7 94 38
       -1.5645388e-05 3.763367e-05 4.078249e-05 7.094321e-05
0000f0 81 43 b1 37 3d df bc 38 59 bf 44 38 98 bf 81 b8
       2.1131478e-05 9.00612e-05 4.6908248e-05 -6.1868865e-05
000100 13 56 be b8 6e 38 ef 37 04 00 00 00 59 52 0a 9e
       -9.0759386e-05 2.8517297e-05 6e-45 -7.322688e-21
000110 26 e4 71 33 36 11 7a 38 e9 df e9 37 af 55 89 38
       5.6319685e-08 5.9620674e-05 2.788003e-05 6.548629e-05
000120 55 ed 35 38 0e 29 71 36 0e 9d 91 38 cc ee de 33
       4.3374795e-05 3.5935695e-06 6.9433925e-05 1.03811175e-07
000130 2b 03 8a b6 e7 71 de b9 04 00 00 80 04 00 00 00
       -4.1130893e-06 -0.00042428004 -6e-45 6e-45
000140 04 00 00 80 29 11 0a aa 01 32 3c b8 ac c9 76 b8
       -6e-45 -1.2262816e-13 -4.4869263e-05 -5.8838792e-05
000150 af 6b 3a 38 c1 1f f9 38 e5 bb cf 36 f9 9b 5b b8
       4.4446144e-05 0.0001187916 6.1909545e-06 -5.235893e-05
000160 d5 0d 8e 37 5a ba 50 38 5c 72 d5 b8 04 00 00 80
       1.693416e-05 4.9764618e-05 -0.000101779326 -6e-45
000170 4b de e3 37 25 d1 3c a7 26 cd 9b 33 21 e3 9e b8
       2.7164022e-05 -2.6203619e-15 7.255066e-08 -7.576333e-05
000180 27 9d 8c b8 47 e5 dc 34 9b 27 39 b8 f5 07 fb 38
       -6.704992e-05 4.1145015e-07 -4.4144323e-05 0.00011970095
000190 63 38 0c b8 d1 d5 3a b8 d8 de 8b 37 83 4f 7f 39
       -3.3431115e-05 -4.4544988e-05 1.6673861e-05 0.00024348315
0001a0 38 33 42 9f 04 00 00 00 b8 be 89 98 51 f0 be 34
       -4.1123465e-20 6e-45 -3.5606247e-24 3.556511e-07
0001b0 44 0e 00 3a a7 44 4d 37 4f a6 44 39 ad 4f 71 38
       0.0004884938 1.2234937e-05 0.00018753971 5.753308e-05
0001c0 c0 dc 0d 39 e1 16 99 39 da af 48 b9 80 af a8 39
       0.00013529044 0.0002919948 -0.00019138996 0.00032174215
0001d0 49 99 b9 39 c7 65 31 1e 04 00 00 80 9d 28 01 b5
       0.00035400156 9.391349e-21 -6e-45 -4.8115345e-07
0001e0 bc 1c ee b8 3b c8 7d b8 f8 21 10 39 bc 47 81 38
       -0.000113540766 -6.050638e-05 0.00013745565 6.164561e-05
0001f0 1e 78 34 3a d5 80 63 39 7b 25 8b b6 30 24 c9 39
       0.0006884354 0.000216964 -4.146886e-06 0.0003836467
000200 52 c1 ce b9 e2 82 94 38 3d da 10 0c 04 00 00 80
       -0.00039435417 7.081569e-05 1.115903e-31 -6e-45
000210 04 00 00 00 f7 c5 31 ab a6 7d 40 3a ae c3 7f 39
       6e-45 -6.3157764e-13 0.0007342942 0.00024391591
000220 b4 59 b3 39 5c c5 41 39 fb d9 90 38 9f c8 01 3a
       0.00034208375 0.00018479436 6.907057e-05 0.00049508543
000230 13 75 fe 39 3d 75 09 ba 46 e1 6a b8 c0 42 bb af
       0.00048533882 -0.0005243605 -5.599975e-05 -3.406253e-10
000240 c4 8b 2c 39 fe f3 51 a8 a2 c1 43 38 01 4b f4 39
       0.00016455265 -1.1654738e-14 4.6671958e-05 0.0004659519
000250 72 af 6c 39 10 a3 4d b9 80 01 4a 39 4e c7 40 3a
       0.00022572072 -0.00019611069 0.0001926478 0.00073539175
000260 c2 51 38 ba cb d3 e5 39 58 27 a5 39 9c bd 11 3a
       -0.0007031226 0.00043836082 0.00031500566 0.0005559565
000270 56 41 2b 9b ea b9 ed a3 04 00 00 80 d2 7b 10 2b
       -1.41659e-22 -2.5774329e-17 -6e-45 5.133091e-13
000280 ae 80 47 39 9f de 59 b8 3d 16 30 b9 29 33 8b 37
       0.00019026056 -5.1944164e-05 -0.00016792952 1.6593915e-05
000290 73 6a 1a 39 f8 4a b8 b7 31 77 00 b8 d0 b5 b3 b8
       0.0001472624 -2.196942e-05 -3.0628584e-05 -8.56925e-05
0002a0 89 3d 19 b8 d5 8b 1d 34 36 3a 26 8b 6f 9f 95 a8
       -3.653535e-05 1.4672635e-07 -3.201423e-32 -1.6611466e-14
0002b0 64 ca 22 38 c1 b8 87 38 ed e6 3a 39 c6 2a 08 b9
       3.88123e-05 6.471715e-05 0.00017824369 -0.00012985905
0002c0 67 f5 92 b7 eb 4b a8 b9 7a e5 26 38 12 88 e2 32
       -1.751883e-05 -0.0003210002 3.97912e-05 2.637174e-08
0002d0 a7 16 3c b8 74 e8 ba 2a 04 00 00 80 04 00 00 80
       -4.484379e-05 3.3201534e-13 -6e-45 -6e-45
0002e0 04 00 00 00 04 00 00 00 64 c4 b9 39 b3 15 6f b9
       6e-45 6e-45 0.00035432272 -0.000228009
0002f0 a4 7d af 39 11 c8 33 b8 61 33 24 39 0d 2b 15 34
       0.0003347221 -4.2863252e-05 0.00015659399 1.3892368e-07
000300 1f 72 07 37 0c e9 63 b8 f2 d5 0f 39 b1 05 dc 1b
       8.073198e-06 -5.433806e-05 0.00013717244 3.6399625e-22
000310 2e e4 a7 b8 93 91 fb 13 98 a4 fc b8 22 65 e2 b8
       -8.005682e-05 6.3504855e-27 -0.00012046954 -0.00010795357
000320 b9 f3 54 39 ae 7b 38 38 08 72 db b9 94 66 ab b8
       0.0002030869 4.3984204e-05 -0.00041855895 -8.173022e-05
000330 ff 02 5c b9 0e d1 3d 38 b0 87 35 b7 2d 8c 28 b9
       -0.00020981951 4.525581e-05 -1.0820033e-05 -0.00016073948
000340 ff 7d 70 3a 54 c5 c1 39 39 04 e8 39 c1 28 88 39
       0.00091740483 0.0003695885 0.00044253634 0.00025970305
000350 7c d9 c6 b9 49 10 54 39 c9 ee 83 38 fe 1a 92 b8
       -0.0003792754 0.00020223962 6.291044e-05 -6.96685e-05
000360 88 c3 bb b9 28 5a 69 39 2c 20 5b 37 92 02 40 b9
       -0.00035813102 0.00022254197 1.3060908e-05 -0.00018311504
000370 a8 0a fc b9 7d 93 85 b8 7b 39 18 b9 57 9d 34 ba
       -0.00048073125 -6.369406e-05 -0.00014517263 -0.00068899005
000380 b7 37 92 b8 f0 31 2b 38 f5 6a 58 b9 63 c5 0c b9
       -6.9722e-05 4.0816085e-05 -0.0002063921 -0.00013424973
000390 bb 3b 71 ba 8c f8 ac b9 77 d0 07 3a ce bf 22 3a
       -0.0009202321 -0.00032991578 0.0005180905 0.00062083907
0003a0 b6 4e 0e 3a d7 71 b5 39 46 53 10 39 f9 fc 7a 3a
       0.0005428599 0.00034607828 0.00013763932 0.0009574439
0003b0 75 fa c7 38 85 26 8c 39 aa 7f 4e ba e0 12 a9 b6
       9.535711e-05 0.0002673158 -0.00078773 -5.03879e-06
0003c0 be 27 13 ba ee 15 fd b8 ba 1b 94 39 2c e2 b7 b9
       -0.0005613527 -0.00012068065 0.00028249418 -0.0003507299
0003d0 12 01 25 ba e6 61 9d 39 26 df 16 39 6c 0e 8e 39
       -0.000629441 0.00030018314 0.00014388244 0.00027095096
0003e0 dd e6 ac 39 8f ae c3 39 c3 49 17 39 f5 29 72 b8
       0.00032978403 0.00037323355 0.0001442796 -5.773637e-05
0003f0 21 93 f1 b9 3e d4 d6 39 a1 3f 9f b6 e4 38 15 ba
       -0.00046076722 0.00040975393 -4.7459766e-06 -0.0005692376

exp_avg_sq f4 [128, 260]
000000 e9 38 06 37 b4 2f d8 36 ea da 12 37 9b e7 b7 36
       8.000273e-06 6.442855e-06 8.753248e-06 5.4807874e-06
000010 b8 08 7f 35 1e 76 f4 35 3a 99 f3 37 80 1b ea 37
       9.500759e-07 1.8213793e-06 2.9039209e-05 2.790778e-05
000020 2c 89 68 36 db 34 fb 37 b8 2f d2 36 ed 4a 13 37
       3.4650539e-06 2.9946144e-05 6.264043e-06 8.779328e-06
000030 30 4e 80 36 e2 2c 06 38 b0 0c 06 37 ef 2d fd 37
       3.8237995e-06 3.198989e-05 7.989976e-06 3.018134e-05
000040 56 25 86 36 e5 ea 16 36 da 22 36 36 26 90 eb 37
       3.9978577e-06 2.2488468e-06 2.71404e-06 2.8081307e-05
000050 78 6f 5f 36 e0 1a a3 36 8a a6 ce 36 27 b8 02 38
       3.3294473e-06 4.860907e-06 6.158666e-06 3.116592e-05
000060 a6 5f b2 36 97 2c 2d 37 7f 04 0b 38 7c f2 ea 36
       5.3159483e-06 1.0321985e-05 3.314437e-05 7.0019723e-06
000070 7a 77 ee 36 36 7d 0b 37 25 34 e8 35 c0 57 57 36
       7.1068616e-06 8.314199e-06 1.7300523e-06 3.2088574e-06
000080 89 c8 54 36 05 29 0b 36 ab 2a 03 36 29 20 a3 36
       3.1707189e-06 2.073649e-06 1.9545357e-06 4.8615225e-06
000090 f0 4d de 36 bb d7 8f 36 89 05 c7 36 0c 32 f5 36
       6.6251887e-06 4.2868464e-06 5.9313065e-06 7.307395e-06
0000a0 21 78 0a 37 28 2a 08 38 4b 6f 11 37 5f d9 98 36
       8.253411e-06 3.2464188e-05 8.668586e-06 4.5552583e-06
0000b0 05 13 1e 36 f6 b1 e7 37 25 0a 92 36 06 09 b0 35
       2.3554906e-06 2.7620215e-05 4.35232e-06 1.3115648e-06
0000c0 43 58 a0 36 f3 f3 01 38 c4 49 34 36 84 c0 81 36
       4.7786466e-06 3.0983192e-05 2.6865027e-06 3.8669114e-06
0000d0 17 7a 07 31 29 8a d8 2c 5a 2a 08 31 4a 29 95 33
       1.9714486e-09 6.154428e-12 1.9814679e-09 6.9458636e-08
0000e0 3d 4e 64 34 df 96 af 34 11 10 c2 34 f2 09 03 35
       2.1262618e-07 3.2706063e-07 3.6147006e-07 4.8815775e-07
0000f0 e9 f9 d1 37 7f 1e c4 34 2a 8b 27 35 ed 1f a5 34
       2.5031115e-05 3.6530034e-07 6.241486e-07 3.0756874e-07
000100 e8 a1 d4 35 19 2b 0f 30 fe 63 da 29 fe 9e f6 30
       1.5842352e-06 5.208434e-10 9.6984907e-14 1.7944044e-09
000110 07 5e 17 34 02 06 80 34 c7 9e 72 34 8b b6 c4 34
       1.4097178e-07 2.384623e-07 2.2595769e-07 3.6640662e-07
000120 1a 0f 1c 35 b1 b5 b0 35 5d c5 1c 35 44 2d e3 35
       5.8136504e-07 1.3165901e-06 5.840173e-07 1.6925992e-06
000130 fe b0 26 35 ac a2 4f 35 4e 4e fe 26 a5 eb ef 2b
       6.2097376e-07 7.735023e-07 1.7646015e-15 1.7047376e-12
000140 20 c8 b8 2f 36 f4 d6 32 67 b9 d9 34 a4 50 78 34
       3.3611602e-10 2.5023933e-08 4.0554298e-07 2.3126137e-07
000150 8f b3 2d 35 da 61 28 35 1e 2f 22 35 9d 9b 7e 35
       6.4708814e-07 6.272727e-07 6.041827e-07 9.484882e-07
000160 1c 6c 96 35 b9 16 2a 35 26 f3 4c 35 6a d0 98 2c
       1.1207335e-06 6.3363e-07 7.634975e-07 4.3432384e-12
000170 37 32 c4 30 95 46 00 31 3b f6 ac 33 dd 04 4f 34
       1.4275149e-09 1.8666573e-09 8.054163e-08 1.9280147e-07
000180 a0 2c 00 35 84 09 fe 34 80 24 0e 35 1c c6 2a 35
       4.7748654e-07 4.731811e-07 5.2952237e-07 6.361822e-07
000190 aa fd 57 35 34 9e 3f 35 8d 4a 01 35 80 54 3d 35
       8.046287e-07 7.138326e-07 4.816473e-07 7.053095e-07
0001a0 e3 93 21 34 96 ca e5 30 b2 f0 83 31 8c 0e 89 34
       1.5048094e-07 1.6719521e-09 3.8399657e-09 2.5528823e-07
0001b0 5a 2c 81 36 36 d1 88 36 61 fa 82 36 fc 05 d9 36
       3.849663e-06 4.077471e-06 3.90345e-06 6.4678006e-06
0001c0 e0 dc ee 36 b6 86 9f 36 ff 92 fc 37 d5 df 92 36
       7.118666e-06 4.7542517e-06 3.0109191e-05 4.3771965e-06
0001d0 51 c9 11 37 5a 22 81 33 9a db 86 2f c6 80 76 33
       8.689546e-06 6.013279e-08 2.4530494e-10 5.7393457e-08
0001e0 00 9e ed 35 de 2c f8 35 43 f5 8f 36 7c a8 81 36
       1.770386e-06 1.8490498e-06 4.2902843e-06 3.8641138e-06
0001f0 54 ae 95 36 8c 13 ca 36 0f 47 db 36 e6 ed 58 36
       4.4608405e-06 6.0223447e-06 6.534981e-06 3.2324983e-06
000200 6a 7a c6 36 c7 46 3a 36 e5 e7 0e 33 51 22 78 2f
       5.9151107e-06 2.7757358e-06 3.327286e-08 2.256766e-10
000210 45 b4 93 30 ad 3e b3 34 ae ec e8 37 51 4e a4 36
       1.0746893e-09 3.338695e-07 2.7766768e-05 4.896698e-06
000220 8d 2b a3 36 6a d0 d6 36 bc 0d 15 37 85 9c dd 36
       4.8628485e-06 6.4019596e-06 8.88429e-06 6.6045345e-06
000230 c2 ef b8 36 99 a2 19 37 55 d8 ba 36 56 86 65 33
       5.511539e-06 9.157368e-06 5.5684163e-06 5.3440395e-08
000240 ee 9c b4 33 ef 8c 57 34 9c a9 9b 34 02 b7 0e 36
       8.4104485e-08 2.0074707e-07 2.8994407e-07 2.1266173e-06
000250 23 28 ea 37 e7 08 a0 36 88 f4 b9 36 5d c9 12 37
       2.7913664e-05 4.769408e-06 5.541897e-06 8.749162e-06
000260 0f 2d cf 36 d1 cb ca 36 f7 48 0b 38 00 05 0e 37
       6.1743262e-06 6.0437965e-06 3.3208136e-05 8.465024e-06
000270 a5 cb bc 33 c2 b7 e2 32 65 1c 19 2e f0 ee be 33
       8.791475e-08 2.6393426e-08 3.4813392e-11 8.891027e-08
000280 de 2a 13 36 39 05 01 36 f4 be 29 35 02 15 6e 35
       2.192966e-06 1.9225538e-06 6.323528e-07 8.869248e-07
000290 9b 09 3a 35 ea a4 3e 34 6a e0 b2 33 92 64 37 34
       6.930438e-07 1.7755124e-07 8.3295916e-08 1.707979e-07
0002a0 a7 5e a3 34 1c da e6 32 4a 4e 12 33 3d 0c 5b 33
       3.0429985e-07 2.6874709e-08 3.4064477e-08 5.100104e-08
0002b0 b0 08 ce 35 c1 5b 48 35 19 a7 a8 35 b9 06 57 35
       1.5350724e-06 7.4639325e-07 1.2565607e-06 8.0103524e-07
0002c0 f5 37 88 35 03 b8 ca 34 9a f2 2e 35 f0 4b a3 32
       1.0149075e-06 3.7759318e-07 6.5173083e-07 1.901023e-08
0002d0 15 ea b7 34 04 bd 72 33 64 4b 21 2e 0f d3 3b 2c
       3.4256723e-07 5.6516924e-08 3.6674122e-11 2.669146e-12
0002e0 a6 fe 27 31 70 7a c6 30 42 a9 85 36 6e b5 5b 36
       2.444645e-09 1.4441195e-09 3.983413e-06 3.273915e-06
0002f0 12 6e db 37 2b fb 6f 35 0d 33 b1 35 67 c1 bf 34
       2.615809e-05 8.9399936e-07 1.3202385e-06 3.571724e-07
000300 18 48 86 34 88 e2 af 34 8a a9 0a 35 9c 46 73 32
       2.50119e-07 3.2761113e-07 5.165572e-07 1.4160516e-08
000310 8a c2 8c 33 9b 27 99 33 ef 2f 32 34 85 d9 22 36
       6.5546445e-08 7.131822e-08 1.659498e-07 2.4266494e-06
000320 5e 72 09 36 ab 13 ba 35 51 82 90 35 54 02 ae 35
       2.0481161e-06 1.3863804e-06 1.0766763e-06 1.2964688e-06
000330 f3 df 16 35 45 57 d0 34 d2 d5 c9 34 fd a7 b5 35
       5.6205243e-07 3.8806516e-07 3.7594742e-07 1.3534442e-06
000340 7b 03 31 38 6a 92 35 38 07 04 2c 38 dd e4 35 38
       4.220333e-05 4.329012e-05 4.1011746e-05 4.336691e-05
000350 23 63 30 38 04 2d 2a 38 58 8a 7a 37 23 5d 62 37
       4.2054e-05 4.0573083e-05 1.4933372e-05 1.3492335e-05
000360 61 e5 5f 37 26 85 64 37 bc 91 59 37 e3 ee 13 38
       1.3345242e-05 1.362086e-05 1.2968139e-05 3.527001e-05
000370 b0 07 11 38 0d 2b 94 37 6c 24 31 38 fa 8e a1 37
       3.4577854e-05 1.7663022e-05 4.223401e-05 1.9259274e-05
000380 ae bf 30 38 af b9 3b 38 4e 59 2b 38 53 4d 83 37
       4.2140186e-05 4.4757206e-05 4.085275e-05 1.5652424e-05
000390 d3 7c 25 38 20 f7 19 38 32 e9 13 38 fe f9 64 37
       3.9455317e-05 3.6708196e-05 3.526471e-05 1.3648065e-05
0003a0 96 ca 18 38 d9 8f 14 38 cf 0c 8a 37 15 dd 31 38
       3.6428297e-05 3.541992e-05 1.6456846e-05 4.2405987e-05
0003b0 0c 9b 31 38 4f c7 2b 38 b1 e7 82 37 40 77 21 38
       4.2344487e-05 4.0955198e-05 1.5605097e-05 3.849645e-05
0003c0 ee 66 6b 37 d4 25 26 38 3f e1 18 38 bf d9 19 38
       1.4031057e-05 3.9612714e-05 3.64494e-05 3.6680834e-05
0003d0 11 3f 14 38 bf 3c 11 38 4e 5f 17 38 ac 35 2f 38
       3.5344685e-05 3.4627268e-05 3.6089965e-05 4.1773237e-05
0003e0 5e 99 2f 38 f2 c6 93 37 d4 7d 2a 38 95 6e 2a 38
       4.1866086e-05 1.7616407e-05 4.0648345e-05 4.0634146e-05
0003f0 c1 60 91 37 49 43 71 37 c7 a0 1c 38 90 9e 1c 38
       1.7330402e-05 1.4380385e-05 3.7343034e-05 3.734097e-05

exp_avg f4 [128]
000000 4f e9 23 39 2d ca 7e 3a 4f 72 fc 38 42 2f cd b9
       0.00015631806 0.00097194576 0.00012037588 -0.00039135857
000010 07 ae ef ba 10 a8 a4 b9 7c 29 4e 3a 54 07 18 3b
       -0.0018286117 -0.00031405734 0.0007864458 0.0023197727
000020 34 03 bf 3a 7f a9 16 3a a9 71 49 ba d3 39 2b 3a
       0.0014573098 0.0005747303 -0.0007684478 0.0006531749
000030 28 0f 81 ba 56 b7 87 3a b5 60 bd 3a 54 5a 9b ba
       -0.0009846436 0.0010354321 0.0014448377 -0.0011852481
000040 00 48 11 3a 09 4e 9f 3a 1e e4 e8 b9 79 61 4d b7
       0.000554204 0.0012153994 -0.0004442045 -1.2241647e-05
000050 d7 76 0d 39 48 00 03 ba 76 a4 c1 39 76 09 99 3a
       0.00013491079 -0.00049972953 0.00036934362 0.0011675793
000060 66 85 c2 b7 78 c8 10 ba 90 c7 9b ba 88 0c d0 3a
       -2.318872e-05 -0.0005523036 -0.0011885036 0.0015872875
000070 32 4d 69 ba 43 bb b2 ba 04 00 00 00 44 94 dc 39
       -0.00088997476 -0.0013636131 6e-45 0.00042072136
000080 b7 66 fb 39 38 bc c0 b9 de d9 21 3a b3 bf b5 ba
       0.0004795098 -0.00036761328 0.00061741273 -0.0013866335
000090 42 88 c7 39 34 01 5a b9 98 c6 8b 3a e3 82 f8 b9
       0.00038057758 -0.00020790548 0.0010664044 -0.00047399764
0000a0 0f b2 3a 3a 9f f6 71 39 1f be e8 b8 54 b2 77 3a
       0.000712187 0.00023075425 -0.00011098035 0.0009448875
0000b0 3d db 2d 3a 20 4d 4e ba 04 00 00 00 67 16 1f b8
       0.00066320953 -0.0007869769 6e-45 -3.7929418e-05
0000c0 f5 94 19 b9 2e f1 78 3a 37 7c a9 3a 16 c3 84 ba
       -0.00014646708 0.0009496388 0.0012930696 -0.0010128941
0000d0 0e a6 1a 38 79 60 23 3a ce 36 4d ba 26 c1 03 39
       3.687111e-05 0.0006232332 -0.0007828296 0.00012565087
0000e0 9e 57 1a 39 d2 56 c7 b9 76 af d2 b9 97 84 d9 b7
       0.00014719224 -0.00038020924 -0.0004018505 -2.5930158e-05
0000f0 10 03 ac 37 bf 43 a0 ba e9 91 89 bb 4b ae 78 38
       2.0505424e-05 -0.0012227221 -0.004198302 5.929013e-05
000100 1d 8d 13 b9 54 c6 52 ba 46 cc d8 39 33 ae 88 b9
       -0.00014071581 -0.00080404175 0.00041350926 -0.0002606973
000110 77 e6 01 3b 00 b2 37 3a 83 db 8f ba 29 39 b9 b9
       0.0019821206 0.000700742 -0.0010975454 -0.00035328537
000120 9f d6 ef 3a d7 4e 90 3a 02 ed c8 3a aa 01 04 ba
       0.0018298215 0.0011009824 0.0015329423 -0.00050356484
000130 2a d5 f8 b8 ff 0b 40 3a e2 8c e7 3a 41 4b 68 3a
       -0.000118652664 0.00073260063 0.0017665888 0.00088613114
000140 9c a7 f5 39 9f 45 c2 b9 55 f8 f8 b9 04 00 00 00
       0.0004685492 -0.00037054435 -0.00047487268 6e-45
000150 11 de 13 37 ad 6f 9c 3a f2 54 14 ba b4 d0 16 3a
       8.813587e-06 0.0011935137 -0.000565841 0.0005753145
000160 80 2d ce 3a d8 2d 82 b9 7f 67 54 30 f3 f1 0e b9
       0.0015730113 -0.00024829688 7.727223e-10 -0.00013632308
000170 f4 ff 04 3a 9a ae 84 b9 5d 33 cf ba 6a bc 88 ba
       0.00050735404 -0.0002530709 -0.0015808154 -0.0010432128
000180 14 a1 7d 3a b6 46 f0 b9 1a fb 36 39 a7 db 9b ba
       0.00096751866 -0.0004582905 0.00017450415 -0.0011891023
000190 06 25 1f 38 bb 3e fe b9 aa d0 d6 ba 9a 26 c8 3a
       3.7943035e-05 -0.00048493393 -0.0016389091 0.0015270293
0001a0 a5 50 97 3a cf 3a 1f ba 56 e1 ca ba c2 22 ec 3a
       0.001154442 -0.0006074132 -0.0015478532 0.001801573
0001b0 f7 80 ae 39 e3 86 45 b9 ae ca 2b 3a 2b a3 9e ba
       0.00033283953 -0.00018837633 0.0006553334 -0.0012103071
0001c0 42 de cc b8 1e 0d 93 ba 2c 90 22 38 4b 6b 19 3b
       -9.768877e-05 -0.0011219119 3.875808e-05 0.00234099
0001d0 c6 5f 03 ba 3a 2b e4 b9 b6 af a2 39 4f 1f 75 ba
       -0.0005011525 -0.00043519755 0.00031029963 -0.00093506736
0001e0 cf 51 30 3a 4d 79 72 ba 14 ce b0 b8 c4 0b e1 3a
       0.00067260576 -0.00092496426 -8.430719e-05 0.0017169644
0001f0 9b 11 37 3a c1 4a 4c ba 1e d4 64 ba cf df 8a 3a
       0.00069835194 -0.00077931216 -0.00087291177 0.0010595265
