ppo/ppo_agent_episode_13200.pth (torch, 596662 bytes, 21 tensors)

fc1.weight f4 [128, 260]
0	0x3de55e4c	0.11199626
1	0x3d4e56f7	0.050375905
2	0x3c9201e5	0.017823169
3	0xbcc75ed6	-0.024337213
4	0x3d98c88e	0.07460128
5	0x3d06087a	0.032722928
6	0xbca66aa1	-0.020314516
7	0x3db342a9	0.08752949
8	0x3df843cb	0.121223055
9	0x3ad0f7a1	0.001594294
10	0x3d200569	0.03906766
11	0x3b9dd32a	0.0048164325
12	0x3da7e043	0.081970714
13	0x3e1ed776	0.1551188
14	0x3d885277	0.06656354
15	0x3c1090b7	0.008823565
16	0xbe2bb7dd	-0.16769357
17	0xbd8b0b06	-0.06789212
18	0xbd1ca847	-0.03824642
19	0x3d244c6d	0.040111948
20	0xbd9081bb	-0.07055994
21	0x3d367a1b	0.044550043
22	0x3c9bbfc3	0.019012338
23	0xbc9b4d21	-0.018957676
24	0x3d43f943	0.047845136
25	0x3ca136b2	0.019679401
26	0x3c430d6d	0.011905056
27	0x3d06da69	0.032923136
28	0x3da73df3	0.08166113
29	0x3d94eb87	0.07271486
30	0xbc8ba32a	-0.017045576
31	0xbd9973fb	-0.07492825
32	0xbc6934c2	-0.01423377
33	0xbd282c89	-0.041058097
34	0xbd9bf987	-0.07615953
35	0x3cdf7926	0.027279448
36	0xbe0202f8	-0.12696445
37	0x3dd4eeec	0.10397133
38	0x3d9e4b2a	0.0772918
39	0x3cc03620	0.023463309
40	0x3c75385f	0.014967053
41	0xbd0077fb	-0.031364422
42	0x3d574b90	0.052562296
43	0xbd308ecc	-0.04310493
44	0x3d6466d0	0.055762112
45	0x3dc78c4c	0.097435564
46	0x3a869f90	0.0010270942
47	0x3cb3fc3f	0.021970866
48	0x3ae33353	0.0017334021
49	0x3e04a681	0.12954141
50	0xbd1d0f47	-0.038344648
51	0x3bd6ff0e	0.0065611666
52	0x3e549beb	0.20762603
53	0x3e80e8a8	0.25177503
54	0x3e10a271	0.14124466
55	0xbd3fcd4e	-0.046826653
56	0x3d505d8e	0.05087047
57	0x3df3e5ce	0.11909066
58	0xbcf22e53	-0.029563105
59	0x3cd0c64c	0.02548518
60	0x3df0b6be	0.11753605
61	0x3e044335	0.12916262
62	0xbc36195a	-0.011114443
63	0x3d821732	0.063520804
64	0xbc9db66a	-0.01925202
65	0x3e44cb09	0.19218077
66	0x3dc78101	0.097414024
67	0x3e0feaa9	0.1405436
68	0xbb89af5e	-0.0042018136
69	0x3d39cc42	0.04536081
70	0x3d2281bc	0.039674506
71	0x3cd5922c	0.026070677
72	0x3da8d644	0.08243993
73	0x3b2f8147	0.0026779936
74	0x3d225d30	0.03963965
75	0x3d0133d2	0.03154356
76	0x3c4b4cc5	0.01240844
77	0x3c63655f	0.013879149
78	0x3e4263fb	0.18983452
79	0x3ddd5500	0.10807228
80	0xbbf417c2	-0.007449121
81	0x3d6a65d1	0.057226006
82	0xbd486e05	-0.048933048
83	0x3dd1bc0e	0.10240947
84	0xbc96af92	-0.018394265
85	0x3c2eaf0c	0.010661852
86	0xbcbeb51c	-0.023279719
87	0x3ce3ac34	0.027792074
88	0x3db58300	0.08862877
89	0x3d5820cf	0.052765664
90	0xbbb9a52b	-0.0056654415
91	0x3dd17435	0.10227243
92	0x3e695ad8	0.2278856
93	0x3decf15f	0.115694754
94	0x3d6845a7	0.05670705
95	0x3d3506b1	0.044195835
96	0xbbf872f6	-0.007582064
97	0x3d075b8e	0.033046298
98	0x3d2df933	0.042473983
99	0x3d8a7c0c	0.06761941
100	0x3d9037ec	0.07041916
101	0x3d0797b9	0.03310368
102	0xbd926976	-0.07149021
103	0x3bf36778	0.007428106
104	0xbd819ad3	-0.063283585
105	0x3e7e8d34	0.24858552
106	0x3dbe242e	0.092842445
107	0x3cd3428c	0.025788568
108	0x3d50477b	0.05084942
109	0x3d18ca7e	0.037302487
110	0x3c8c39a4	0.017117329
111	0xbb77a93a	-0.0037790076
112	0xbd8d3688	-0.06895167
113	0x3e3888eb	0.1802098
114	0x3b235114	0.0024920153
115	0x3da2e6dc	0.07954189
116	0x3df3142d	0.118690826
117	0x3de35cff	0.11101722
118	0x3d2f7eb4	0.042845443
119	0xbd724934	-0.059151843
120	0xbc4a8a9e	-0.0123621505
121	0xbc3ab9f2	-0.011396872
122	0x3d83e337	0.06439822
123	0x3d831e62	0.064022794
124	0x3e1fc63b	0.15602963
125	0x3e106ecd	0.14104767
126	0xbc828862	-0.015934173
127	0x3d160c5b	0.036632877
128	0xbde2b977	-0.11070531
129	0x3da76540	0.08173609
130	0x3d82eee5	0.06393222
131	0x3dd481ed	0.10376344
132	0x3e04d5b5	0.12972148
133	0x3dda3e6d	0.10656438
134	0x3db92f1a	0.09042187
135	0x3e2e9196	0.17047724
136	0xbbdf7a02	-0.0068199644
137	0x3e07a844	0.13247782
138	0xbc9a18b0	-0.0188106
139	0x3c8d3476	0.01723693
140	0x3d5fe5d7	0.05466255
141	0x3de71eae	0.112851486
142	0x3dd518b0	0.104050994
143	0x3e452bb6	0.19254956
144	0x3e383922	0.17990544
145	0xba880597	-0.0010377642
146	0x3db9efea	0.09078963
147	0xbd08492a	-0.0332729
148	0x3d92014f	0.07129156
149	0x3d35b9bc	0.044366583
150	0x3d5a1022	0.05323804
151	0x3dedbd52	0.116083756
152	0x3d014da8	0.0315682
153	0x3cdca219	0.026932763
154	0x3c9a4680	0.018832445
155	0x3d69ec7b	0.05711029
156	0x3d38f40b	0.045154613
157	0x3cf2b7b0	0.029628605
158	0x3de4fb07	0.11180692
159	0xba9fe232	-0.0012198149
160	0x3d3bc62a	0.04584328
161	0xbc8829f0	-0.01662156
162	0xbbf0f6ba	-0.007353631
163	0x3dd9f0dc	0.106416434
164	0x3e19a86c	0.15005654
165	0x3d401c59	0.046902034
166	0x3c7a8c26	0.015292203
167	0x3d645a51	0.055750195
168	0x3deb5066	0.11489944
169	0xbd025c83	-0.031826507
170	0x3c3d671f	0.0115602305
171	0x3e1f15de	0.15535685
172	0x3e811501	0.25211337
173	0x3dc6032f	0.09668576
174	0x3e1d2e61	0.15349723
175	0x3e066f3c	0.1312837
176	0xbc18985c	-0.009313669
177	0xbd022b6b	-0.031779688
178	0x3de91cbf	0.11382436
179	0x3d784764	0.06061496
180	0x3d8026bb	0.06257387
181	0x3d7bda55	0.061487515
182	0x3d350e4e	0.044203095
183	0xbc513194	-0.012768168
184	0x3d8ff101	0.0702839
185	0x3e0a7f81	0.13525201
186	0x3d4b76e0	0.049673915
187	0x3d81d57e	0.063395485
188	0xbd8c1cf6	-0.06841461
189	0x3e05cb5a	0.13065854
190	0x3c07cc42	0.008288445
191	0x3dba2627	0.09089308
192	0xbbbd732f	-0.005781553
193	0x3d8f8f9a	0.07009812
194	0x3d5fe14a	0.05465821
195	0x3d6ae205	0.057344455
196	0x3e68b39e	0.22724769
197	0xbd931433	-0.07181587
198	0x3e0b7753	0.13619737
199	0xbd730143	-0.059327375
200	0xbd42aa73	-0.047525834
201	0x3d9a2554	0.07526651
202	0xbd24d689	-0.04024366
203	0x3d5dfa21	0.05419362
204	0x3dc15c4f	0.094414346
205	0x3c649a37	0.013952783
206	0x3d4709c9	0.048593316
207	0x3cf2c2c0	0.02963388
208	0x3dab9b6e	0.08379255
209	0x3c17a00c	0.009254467
210	0x3da4df1e	0.08050369
211	0x3e432e15	0.19060548
212	0x3d8c792b	0.068590485
213	0x3dfbd3eb	0.122962795
214	0x3de26efc	0.11056325
215	0x3e295a20	0.16538286
216	0x3d75d040	0.060013056
217	0x3d1fa871	0.038978998
218	0x3ca2f6bb	0.01989304
219	0x3c97f0b2	0.01854739
220	0xbd56a63e	-0.052404635
221	0x3df39518	0.11893672
222	0x3d3ad81d	0.045616258
223	0x3dd0dff5	0.101989664
224	0x3d97ed0b	0.07418259
225	0x3d328c6d	0.04359095
226	0x3de3a278	0.11114973
227	0x3babe05e	0.0052452525
228	0x3d2edf78	0.042693585
229	0x3bd9a2e7	0.006641734
230	0x3db44dc0	0.08803892
231	0x3e4df356	0.20112357
232	0x3dcb64d9	0.099313445
233	0x3dfbd75b	0.12296935
234	0x3d961d38	0.07329792
235	0x3dfb9233	0.12283745
236	0x3cfbe91c	0.030750804
237	0x3cc44837	0.023960216
238	0x3da6316b	0.081148945
239	0x3d81afd3	0.06332364
240	0x3e1d6a40	0.15372562
241	0x3d69a825	0.05704512
242	0x3dfc16c9	0.123090334
243	0x3cffe5db	0.031237533
244	0x3e3c589b	0.18393175
245	0xbd71f5b9	-0.05907223
246	0x3db96c17	0.090538196
247	0x3e0332d3	0.12812357
248	0x3d955700	0.072919846
249	0x3e3e3883	0.18576245
250	0x3d34bb6b	0.04412405
251	0x3e141385	0.14460571
252	0x3d98ed2a	0.074671105
253	0x3e1558c0	0.14584637
254	0x3de96dc1	0.11397887
255	0x3dce7466	0.10080795

fc1.bias f4 [128]
0	0x3e05e1be	0.13074395
1	0xbdc53906	-0.09630017
2	0x3d585ee2	0.052824862
3	0x3da0767b	0.07835098
4	0xbc9481c4	-0.018128283
5	0x3d803733	0.062605284
6	0xbd468969	-0.04847089
7	0x3d19ccaf	0.037548717
8	0x3d8066ec	0.06269631
9	0x3d776a1a	0.06040392
10	0x3ca3fb55	0.020017305
11	0x3c1be893	0.009515899
12	0xbbd6879f	-0.006546929
13	0x3bf9a51f	0.007618561
14	0x3d26aa4d	0.040689755
15	0xba8613e2	-0.0010229314
16	0xbd63af93	-0.055587362
17	0x3d93d5d0	0.07218516
18	0x3c602ba9	0.013682284
19	0x3dd59aff	0.10429954
20	0xbd19bb7e	-0.037532322
21	0x3d185bee	0.037197046
22	0x3cf343e9	0.029695468
23	0xb8e23bfa	-0.00010787691
24	0x3d8d2a4a	0.068928316
25	0x3b6c80b9	0.0036087467
26	0xbc50a544	-0.012734715
27	0xbd97bce1	-0.07409073
28	0x3d52a096	0.051422678
29	0x3b8b82ee	0.0042575514
30	0x3ca45d23	0.020063942
31	0x3d45c653	0.04828484
32	0x3cd9eb78	0.026601538
33	0xbdf0b430	-0.11753118
34	0xbdc83dd5	-0.097774185
35	0x3bad2231	0.005283617
36	0x3bec3aa1	0.0072091375
37	0x3c09c626	0.008409059
38	0x3c1a15c9	0.009404608
39	0x3cc63430	0.024194807
40	0xbd4c2d63	-0.04984797
41	0xbc88b73c	-0.016688935
42	0x3cd9441a	0.026521731
43	0x3ac26ab0	0.0014832821
44	0x3dd2e66e	0.10297857
45	0x3d9fec71	0.078087695
46	0xbd18dc5f	-0.037319537
47	0x3cc9db48	0.024640694
48	0xbc67db83	-0.014151457
49	0xbd3b3059	-0.045700405
50	0x3dd398c6	0.103318736
51	0x3ccb130f	0.024789361
52	0xba409172	-0.0007345892
53	0xbc8b2774	-0.016986586
54	0x3da2b7ce	0.07945214
55	0xbd938ee1	-0.07204986
56	0x3dd6ab88	0.10481936
57	0x3da53511	0.08066762
58	0x3dd294fb	0.10282322
59	0x3be8263b	0.0070846356
60	0xbd362a45	-0.044473905
61	0x3c0d8857	0.008638463
62	0x3d1c95be	0.038228743
63	0x3b6894d1	0.0035489092
64	0x3d88fa4d	0.06688366
65	0x3dc9f8ff	0.09861945
66	0x3df070cf	0.117402665
67	0x3d08c9f5	0.033395726
68	0x3d4ffd4d	0.050778676
69	0xbd7c2543	-0.061558973
70	0x3c5a6616	0.013330003
71	0xbc98155d	-0.018564874
72	0x3d88fa3f	0.06688356
73	0x3a81ad5d	0.0009893585
74	0x3db1ba75	0.08678142
75	0xbd4eabf4	-0.050456956
76	0x3d1ebea0	0.038756013
77	0x3e2527a4	0.16128403
78	0x3d7d81e1	0.06189144
79	0x3d71414e	0.05890017
80	0x3cbf60c4	0.023361571
81	0x3dd885d5	0.105724014
82	0x3bf5612a	0.0074883895
83	0xbb015c7a	-0.0019738958
84	0xbd366bb9	-0.044536326
85	0x3d6d029b	0.057863813
86	0x3d0e2241	0.034700636
87	0x3da958bf	0.0826888
88	0xbd4ca9be	-0.049966566
89	0x3de5b872	0.11216821
90	0xbd7bbbbc	-0.061458334
91	0xbcfd0658	-0.030886814
92	0xbd5dcaaf	-0.054148372
93	0xbc1f85a3	-0.009736451
94	0x3ccb3fdb	0.024810722
95	0x3d060d85	0.032727737
96	0x3dd69632	0.10477866
97	0x3d77ae7b	0.060469132
98	0x3c7f3a8f	0.015577926
99	0xbd433f74	-0.047667935
100	0x3c83bea6	0.01608212
101	0x3cc41e1b	0.023940137
102	0x3dda7e88	0.10668665
103	0xbd41b8bb	-0.047295313
104	0x3dcb3fe3	0.09924295
105	0x3d85fb24	0.06542042
106	0x3c8707a8	0.016483143
107	0x3bf126d2	0.007359364
108	0xbd2b8566	-0.041875266
109	0x3d80696e	0.06270109
110	0x3d658f01	0.056044582
111	0xbd0d87fa	-0.034553505
112	0x3cf26dbe	0.029593345
113	0x3c00062c	0.0078139715
114	0x3cbda19d	0.023148352
115	0xbd6f8a87	-0.05848172
116	0x3d8ae461	0.06781841
117	0x3ba1998f	0.0049316357
118	0x3d9b96c6	0.07597117
119	0x3d947f5b	0.07250854
120	0xbd9c3e7e	-0.07629107
121	0x3c422646	0.011849945
122	0xbc511c8a	-0.012763152
123	0x3b9ffa45	0.0048821294
124	0x3d9442a6	0.07239275
125	0x3cd20d8b	0.025641223
126	0x3e0d9f62	0.13830331
127	0x3d7cc0d8	0.061707348

fc2.weight f4 [64, 128]
0	0xbd0a8e1e	-0.03382694
1	0xbe00c70e	-0.12575933
2	0xbe69b62d	-0.22823401
3	0x3d66fd44	0.056393877
4	0xbe9b03f5	-0.30276456
5	0x3df2d4bf	0.11856984
6	0xbdcbcde1	-0.09951378
7	0xbd23174b	-0.039817136
8	0xbe1a215d	-0.1505179
9	0xbe63912a	-0.22223344
10	0xbd1f2e6b	-0.038862627
11	0xbe89a699	-0.26884916
12	0x3c6cc579	0.014451378
13	0xbe219598	-0.15779722
14	0x3c811b15	0.015759984
15	0xbda0a210	-0.07843411
16	0xbdb83e2a	-0.08996232
17	0xbb07092c	-0.0020604832
18	0xbdc33133	-0.095308684
19	0x3d444b2a	0.047923245
20	0xbe0007ef	-0.12503026
21	0xbe56b252	-0.20966461
22	0x3d6c141a	0.057636358
23	0xbd9201db	-0.0712926
24	0x3dcbcb4f	0.099508874
25	0xbceab223	-0.028649395
26	0xbae79f13	-0.0017671309
27	0xbd5cfde7	-0.053953078
28	0xbd5017e9	-0.050804053
29	0xbea4af63	-0.3216506
30	0x3bfd88d6	0.0077372594
31	0x3c7402dc	0.01489326
32	0xbe4ba4fa	-0.19887152
33	0xbd8dc515	-0.06922356
34	0xbd9ebcd3	-0.07750859
35	0xbce00031	-0.027343841
36	0xbe918a57	-0.28425857
37	0xbd55d03d	-0.052200545
38	0x3d7f8b87	0.062388923
39	0xbec42e19	-0.3831642
40	0xbd887fbe	-0.0666499
41	0xbcd30b0e	-0.025762107
42	0xbe0f9b42	-0.1402407
43	0x3ddb95a0	0.10721898
44	0x3d262782	0.04056502
45	0x3d9d1cea	0.076715305
46	0xbd7e7866	-0.06212654
47	0xbe092364	-0.13392407
48	0xbea1eff0	-0.3162837
49	0x3a9bd803	0.0011889938
50	0x3ce0968d	0.027415538
51	0x3d59beb3	0.05316038
52	0x3d06fd7f	0.032956596
53	0xbd6a89f7	-0.05726048
54	0xbc864fe4	-0.016395517
55	0xbdcdac55	-0.10042635
56	0xbc9e6bdd	-0.019338543
57	0xbe48a97a	-0.195959
58	0x3d84e4f6	0.06488983
59	0xbe8f02bd	-0.27931777
60	0xbe0027da	-0.12515202
61	0x3dc715a8	0.097209275
62	0xbd8498ac	-0.06474432
63	0xbe698bf7	-0.22807299
64	0xba4f6b82	-0.0007912443
65	0x3d9dd088	0.0770579
66	0x3de2e269	0.110783406
67	0xbe428529	-0.18996109
68	0xbe5e5b6e	-0.21714565
69	0x3d24b496	0.040211283
70	0xbeb205f8	-0.3477018
71	0xbcdda45c	-0.027055912
72	0x3ddacba5	0.10683373
73	0xbbc81631	-0.006106161
74	0x3d44cae3	0.04804505
75	0xbe88e630	-0.2673812
76	0xbe0a9d52	-0.13536575
77	0xbebfd82c	-0.37469614
78	0x3c0d0c2d	0.00860886
79	0xbcd1f6a3	-0.0256303
80	0xbe9f664e	-0.3113274
81	0xbea67771	-0.32513002
82	0xbe3436b8	-0.17598999
83	0xbc2204a5	-0.009888803
84	0xbc3153fd	-0.010823247
85	0xbd4d2eb7	-0.05009338
86	0x3d7b57c4	0.061362997
87	0x3d659596	0.05605086
88	0x3c8926eb	0.01674219
89	0x3d472dcc	0.04862766
90	0xbe63bb58	-0.22239435
91	0x3d534eea	0.05158893
92	0xbd585b91	-0.0528217
93	0xbd163a47	-0.03667667
94	0xbe666be8	-0.225021
95	0x3d4fd67c	0.050741658
96	0xbd85acc7	-0.06527095
97	0xbc4f5378	-0.012654178
98	0xbd5f4530	-0.05450934
99	0xbdec4e67	-0.115383916
100	0x3d456bd2	0.04819853
101	0x3c518e2c	0.012790244
102	0xbd8899b4	-0.066699415
103	0xbe0436d7	-0.12911545
104	0xbe862915	-0.26203218
105	0x3d1030b8	0.03520271
106	0xbde4e83c	-0.11177108
107	0x3dbdd440	0.09268999
108	0xbe23ba49	-0.15989031
109	0x3d896637	0.06708949
110	0xbd08a04c	-0.033355996
111	0xbe1550e4	-0.14581639
112	0xbe7db5d1	-0.24776389
113	0xbdb4d675	-0.08829967
114	0x3ba8f62c	0.005156299
115	0x3a5e41cc	0.00084784324
116	0x3cf5fa92	0.030026708
117	0xbe5b8ada	-0.21439686
118	0xbcadf3d2	-0.021234427
119	0x3de43d09	0.11144454
120	0xbe227234	-0.15863878
121	0xbe6109a0	-0.21976328
122	0xbdd2e4fc	-0.102975816
123	0xbd458853	-0.048225712
124	0xbe37656d	-0.17909785
125	0xbe89f7c4	-0.26946843
126	0x3d910517	0.07081049
127	0x3dc41b41	0.09575511
128	0xbdb98285	-0.09058098
129	0xbd9bdb48	-0.07610184
130	0xbe817329	-0.25283173
131	0xbcebc305	-0.028779516
132	0xbe7be3ac	-0.24598569
133	0x3d7a2b13	0.061076235
134	0xbe4378b6	-0.19089016
135	0x3d989d55	0.07451884
136	0xbe66b4bb	-0.2252988
137	0xbe91f2e2	-0.28505617
138	0x3d9fd125	0.07803563
139	0xbe7ac008	-0.24487317
140	0x3c92d1bc	0.017922275
141	0xbe41e585	-0.18935211
142	0x3d8f66ad	0.07002006
143	0x3d3a71c7	0.045518663
144	0xbd5cdd4b	-0.05392198
145	0xbd6f4756	-0.05841764
146	0xbe4fb01a	-0.20282021
147	0x3d5f8a14	0.05457504
148	0xbdda2694	-0.106518894
149	0xbe81e383	-0.2536889
150	0xbd682d39	-0.056683753
151	0xbe19908f	-0.14996551
152	0x3d90a948	0.07063538
153	0xbd58da28	-0.052942425
154	0xbd12a823	-0.03580488
155	0xbd17258e	-0.03690105
156	0xbd808862	-0.06276013
157	0xbe3bbf17	-0.18334614
158	0x3d2e03e0	0.042484164
159	0x3d40f6ca	0.047110356
160	0xbe9baa6f	-0.30403468
161	0xbd2461f7	-0.04013249
162	0xbdd4241d	-0.103584506
163	0xbdb46d47	-0.088099055
164	0xbe538b61	-0.20658638
165	0xbcea75a9	-0.028620558
166	0xbaca4977	-0.0015433271
167	0xbe9d48f5	-0.30719724
168	0xbe4d7abf	-0.20066355
169	0x3ddcf3c0	0.10788679
170	0xbe1d34c3	-0.15352158
171	0xbd26aad3	-0.040690254
172	0xbc2cfb93	-0.010558027
173	0x3d759092	0.059952326
174	0xbca3b2b3	-0.019982671
175	0xbd8a2b1e	-0.06746505
176	0xbe914a8f	-0.28377196
177	0xbe166436	-0.14686665
178	0xbbb4a133	-0.0055123805
179	0xbb607164	-0.0034247274
180	0x3bbb9d10	0.0057255104
181	0xbb3a2ba3	-0.0028407357
182	0x3a561d49	0.0008167816
183	0xbd7f5168	-0.062333494
184	0x3dd26ed8	0.10275048
185	0xbe422c8d	-0.18962307
186	0xbd6f1039	-0.05836508
187	0xbeb8d715	-0.36101595
188	0xbe252b22	-0.16129735
189	0x3b98dbe4	0.004664885
190	0x3deb5dd0	0.11492503
191	0xbe9d9415	-0.3077704
192	0x3c1b4ca4	0.009478722
193	0x3d6b0daf	0.057386097
194	0xbcef8272	-0.029237006
195	0xbe192814	-0.14956695
196	0xbe2b1acf	-0.16709445
197	0xbd5a39b3	-0.053277683
198	0xbeaff6f8	-0.3436811
199	0x3d7c67a0	0.061622262
200	0xbd86ee85	-0.06588463
201	0x3d3e64da	0.0464829
202	0x3d87b106	0.066255614
203	0xbdf09338	-0.1174683
204	0xbe0d4888	-0.137972
205	0xbeb8ea63	-0.36116323
206	0xbcbf0521	-0.023317875
207	0x3d5ad97f	0.053430077
208	0xbe319161	-0.17340614
209	0xbeaab0eb	-0.33338103
210	0xbde78d50	-0.1130625
211	0xbdc3810c	-0.09546098
212	0xbe1c55ea	-0.15267149
213	0xbd3e1806	-0.04640963
214	0x3d30212e	0.043000393
215	0x3dd44e43	0.1036649
216	0xbd1a5183	-0.037675392
217	0x3dcf9fdc	0.10137913
218	0xbe30473a	-0.17214671
219	0xbbc00f80	-0.0058612227
220	0xbdb52207	-0.08844381
221	0xbd50e2e7	-0.05099764
222	0xbe6ff9d2	-0.23435143
223	0xbda649d8	-0.08119553
224	0x3cc4bf54	0.024017014
225	0xbccf7ac8	-0.025327101
226	0xbd93af7e	-0.07211207
227	0xbe36ae2f	-0.17839883
228	0xbd2e102d	-0.042495895
229	0xbd327497	-0.04356822
230	0x3d9a0c55	0.075218834
231	0xbd85b40d	-0.065284826
232	0xbe7c1d50	-0.24620557
233	0x3d22f46b	0.039783876
234	0xbdcd8bf3	-0.10036459
235	0x3d53c919	0.051705454
236	0xbe7fc22b	-0.24976413
237	0x3b9b97bf	0.004748314
238	0xbcff12d6	-0.031136911
239	0xbe717675	-0.23580344
240	0xbdbb5de9	-0.09148771
241	0xbdd49d43	-0.10381558
242	0x3d9bc129	0.07605202
243	0xbcc0911b	-0.023506692
244	0xbc74f12b	-0.014950077
245	0xbe6db1fe	-0.2321243
246	0x3d90b0eb	0.070649944
247	0xbcf3385d	-0.029689962
248	0xbe6ead03	-0.23308186
249	0xbe0b93c1	-0.13630582
250	0xbe303f63	-0.1721168
251	0xbdfd3179	-0.12362952
252	0xbe8c5188	-0.27405953
253	0xbe16e3bd	-0.14735313
254	0x3d93d0da	0.0721757
255	0xbb859880	-0.0040770173

fc2.bias f4 [64]
0	0x3de91c92	0.113824025
1	0x3e32c0a2	0.17456296
2	0x3da77485	0.08176521
3	0x3e5df2f2	0.21674708
4	0xbd12a994	-0.035806254
5	0x3e4ab5d0	0.19795918
6	0x3e60426e	0.21900341
7	0x3e0a98ea	0.13534895
8	0xbc4299c5	-0.011877482
9	0xbdb9103e	-0.09036301
10	0x3e0f613c	0.14001936
11	0x3de95d9c	0.11394808
12	0x3d7bfa0e	0.061517768
13	0xbd224a2d	-0.03962152
14	0x3d986489	0.074410506
15	0x3e210d8d	0.15727825
16	0xbd818b36	-0.063253805
17	0x3d732528	0.059361607
18	0x3dac548b	0.08414563
19	0x3d386024	0.04501356
20	0xbd9ea7a1	-0.077468164
21	0x3e6b7403	0.22993474
22	0xbc625051	-0.013813094
23	0x3dc95eef	0.0983256
24	0x3e3b1ab5	0.18271907
25	0xbcdc7dc7	-0.026915444
26	0x3e46544c	0.19368094
27	0x3e15babf	0.14622019
28	0xbe1c9c68	-0.15294039
29	0xbd016cda	-0.03159795
30	0xbd6c45f4	-0.0576839
31	0xbda910ca	-0.082551554
32	0x3e07d0a3	0.13263182
33	0x3def667f	0.116894715
34	0x3da6278c	0.08113012
35	0x3e4a8af3	0.19779567
36	0x3c31e825	0.01085857
37	0x3d9abc57	0.07555454
38	0xbd60e32c	-0.054904148
39	0x3cff54ce	0.031168368
40	0xbd6c6254	-0.05771096
41	0x3e0a50c7	0.13507377
42	0xbd98fdd7	-0.07470291
43	0xbdabfc98	-0.08397788
44	0xbd68e936	-0.056863032
45	0x3e282955	0.16422017
46	0x3e018f96	0.1265243
47	0xbda11fe2	-0.07867409
48	0x3d4030fb	0.04692171
49	0x3dd68f08	0.104765
50	0x3e55b8a7	0.2087122
51	0xbc68a2c9	-0.014198967
52	0xbd1efe1f	-0.038816568
53	0xbe311653	-0.17293672
54	0x3e361596	0.17781672
55	0xbd5d67b9	-0.054053996
56	0x3c49c548	0.012315102
57	0x3d5584b0	0.052128494
58	0xbd462258	-0.048372597
59	0x3e13c7ef	0.14431737
60	0x3da42841	0.0801549
61	0x3e1a8c6d	0.1509263
62	0x3ca22920	0.019795
63	0xbd163b37	-0.036677565

policy_head.weight f4 [110, 64]
0	0xbd5f30f7	-0.054490056
1	0x3e292511	0.16518046
2	0x3ce0b53c	0.02743017
3	0xbc628841	-0.013826431
4	0x3e22bb66	0.158918
5	0x3de739e9	0.11290342
6	0x3db93751	0.09043754
7	0x3dc3f39c	0.09567949
8	0x3d1478fd	0.036248196
9	0x3aed6d58	0.0018114252
10	0x3b8c1c83	0.00427586
11	0x3de6a9a6	0.112628266
12	0x3ab0d07e	0.001348987
13	0x3dc01f1a	0.09380932
14	0x3e2a7962	0.16647866
15	0xbd14e68f	-0.03635269
16	0x3d7c8ece	0.061659627
17	0xb943decd	-0.00018679649
18	0xbde95435	-0.11393014
19	0x3d94e9ee	0.07271181
20	0x3dc42622	0.09577586
21	0xbc3670d6	-0.011135301
22	0x3e3d1468	0.18464816
23	0x3e50e492	0.20399693
24	0x3e2c0c6b	0.16801612
25	0x3dceb3c3	0.100928806
26	0x3e15b48c	0.14619654
27	0x3d7f38aa	0.0623099
28	0x3e8bde2c	0.2731794
29	0xbceca83b	-0.028888812
30	0xbdea4e64	-0.11440733
31	0xbe61ccb3	-0.22050743
32	0x3de15bc2	0.110038295
33	0xbc8fa8b5	-0.0175365
34	0x3d038849	0.032112394
35	0xbda4cc0c	-0.08046731
36	0x3e5e1499	0.21687545
37	0xbdb8da34	-0.09025994
38	0xbd1ea459	-0.038730953
39	0xbd0d92e3	-0.03456391
40	0x3da511fb	0.0806007
41	0xbdfdeaa3	-0.12398269
42	0x3d5b03f4	0.053470567
43	0xbd8dea2a	-0.06929429
44	0xbd765ba5	-0.060145993
45	0x3e3c39e5	0.1838146
46	0xbdf83945	-0.12120298
47	0xbdad0961	-0.084490545
48	0x3d5b28ab	0.05350558
49	0xbe2417f2	-0.1602476
50	0x3dc13d8e	0.09435569
51	0x3e03f353	0.1288579
52	0x3dde7180	0.10861492
53	0x3cb6e43b	0.022325626
54	0xbc43c51b	-0.011948849
55	0x3e2baa09	0.16764082
56	0x3e30d0af	0.17267106
57	0x3d9aee48	0.0756498
58	0xbd32f12e	-0.043687038
59	0x3dc82c1b	0.097740375
60	0xbe84d8fa	-0.2594679
61	0xbd2b67d1	-0.041847054
62	0x3db116ac	0.086469024
63	0x3cd53ae3	0.026029056
64	0x3cb63f68	0.022247031
65	0xbc975581	-0.018473389
66	0x3dbb755a	0.091532424
67	0x3db77f90	0.089598775
68	0xbbb12a29	-0.005406637
69	0x3d624af9	0.05524728
70	0xbbc07133	-0.0058728694
71	0x3d83ade5	0.06429652
72	0x3e4e7dfd	0.20165248
73	0x3d5fa1e1	0.05459774
74	0xbcb500b4	-0.022095062
75	0x3a9b9a04	0.0011871462
76	0xbcb4860f	-0.02203658
77	0x3d69613e	0.056977503
78	0xbb6de478	-0.0036299508
79	0x3e278b7d	0.16361804
80	0x3de081fc	0.109622926
81	0x3be56073	0.007000023
82	0xbd7a5e20	-0.06112492
83	0xbc040f3a	-0.008060271
84	0xbd7c7df9	-0.061643574
85	0x3d0476c5	0.03233983
86	0x3d77fcfd	0.060544003
87	0x3e3b9f61	0.18322517
88	0x3dee3db9	0.116328664
89	0x3da51f2c	0.08062586
90	0x3e1a564e	0.15071985
91	0x3d8798af	0.06620919
92	0x3e624289	0.22095694
93	0x3dd8b58a	0.10581501
94	0x3d6c0a8f	0.057627257
95	0xbea64d7a	-0.32480985
96	0xbd339ee5	-0.043852706
97	0x3d26e601	0.040746693
98	0x3e117b2a	0.1420714
99	0x3c295719	0.010335707
100	0x3ddc9a4d	0.10771618
101	0x3b86fc17	0.004119407
102	0x3dd73b00	0.105093
103	0x3c7b9d8d	0.015357387
104	0xbbdf0023	-0.006805436
105	0x3c8a5bbe	0.01688945
106	0x3b455670	0.0030111335
107	0xbc97d580	-0.018534422
108	0x3dddbfba	0.108275846
109	0x3be4cbe7	0.006982315
110	0x3d489bbb	0.04897664
111	0x3d98fda4	0.07470253
112	0xbd8666ac	-0.06562552
113	0xbea042fe	-0.3130111
114	0x3e015918	0.12631643
115	0x3e4c5b0d	0.19956608
116	0x3d75c377	0.060000863
117	0xbd815cf3	-0.06316557
118	0xbbd6fa63	-0.00656061
119	0xbb11ebb6	-0.0022265739
120	0x3e8f3fc7	0.27978346
121	0x3e256c37	0.16154562
122	0xbda469ca	-0.0802799
123	0x3d24609b	0.040131193
124	0xbe4b6d8c	-0.19866008
125	0x3e03692a	0.12833086
126	0xbbdc5ea5	-0.0067251497
127	0x3d444e26	0.04792609
128	0x3e244aaa	0.16044107
129	0x3d8efa93	0.06981387
130	0x3e11c89b	0.14236681
131	0xbd9caa1d	-0.07649634
132	0xbd51f3eb	-0.05125801
133	0x3dc6358d	0.09678183
134	0x3e25c7bb	0.16189472
135	0x39bb76fe	0.00035756076
136	0xbb3cd5d4	-0.0028813975
137	0xbd2bb291	-0.04191834
138	0xbd916962	-0.07100178
139	0xbda32baa	-0.07967313
140	0x3e1b354c	0.1515705
141	0xbda1a424	-0.078926355
142	0x3daef0b3	0.085420035
143	0x3ce171f0	0.02752015
144	0xbdad78d4	-0.08470312
145	0xbd8c9f83	-0.06866362
146	0xbd112b98	-0.035441965
147	0x3d4ac636	0.049505435
148	0x3db6eed7	0.08932274
149	0x3dd46794	0.103713185
150	0xbd9b3d2b	-0.07580026
151	0x3ddf1864	0.10893324
152	0xbdafba70	-0.08580482
153	0x3c9b7a12	0.018979106
154	0x3da3b977	0.07994359
155	0x3d4c7040	0.049911737
156	0xbe09db6e	-0.13462612
157	0xbdb73efe	-0.08947562
158	0xbcd43746	-0.025905263
159	0x3e4486b2	0.19192007
160	0x3e47aca0	0.19499445
161	0xbdbbaec2	-0.09164192
162	0x3d8a6d53	0.06759133
163	0x3e012c51	0.12614562
164	0x3d1b0fb9	0.03785679
165	0x3e0507e6	0.12991294
166	0x3c5511cc	0.013004731
167	0x3d6c75df	0.057729598
168	0xbc839ad8	-0.016065046
169	0x3e247075	0.16058524
170	0x3c3bc453	0.011460382
171	0x3a89e70a	0.0010521126
172	0x3dc26c7e	0.094933495
173	0x3e0210bb	0.12701695
174	0x3c842ca6	0.016134571
175	0x3b8a7f3e	0.004226594
176	0xbdd2f65f	-0.10300898
177	0x3dd85e3d	0.105648495
178	0xbd51fd1a	-0.051266767
179	0xbcef55f7	-0.029215796
180	0x3d9062f5	0.070501246
181	0xbdd2f079	-0.10299773
182	0x3e55cc47	0.20878707
183	0xbdd02863	-0.10163953
184	0x3d962c34	0.0733265
185	0x3d29f5f9	0.041494343
186	0x3de5492e	0.111955985
187	0x3e31f10d	0.1737711
188	0x3e49a4e4	0.19691807
189	0x3e1a80a4	0.15088135
190	0x3ddfc812	0.10926832
191	0x3d66b8b5	0.056328494
192	0x3e246304	0.16053396
193	0x3db7b99f	0.08970951
194	0x3e53bec9	0.20678248
195	0xbe855909	-0.2604449
196	0x3dabfa92	0.08397402
197	0x3d241fa4	0.040069237
198	0x3c74f3da	0.014950717
199	0xbe12c85e	-0.14334247
200	0x3c73c2b1	0.014877961
201	0xbd79aca7	-0.06095567
202	0x3e22bfe1	0.15893508
203	0xbe6109fc	-0.21976465
204	0x3d9435ae	0.07236801
205	0xbdac781f	-0.08421349
206	0xbdcaf66a	-0.09910281
207	0x3e150a1b	0.14554636
208	0xbdaa65a2	-0.08320166
209	0xbddde132	-0.10833968
210	0xbdaaa8a4	-0.08332947
211	0xbeaea6f1	-0.3411174
212	0x3be1dd5a	0.0068928422
213	0x3e057b80	0.13035393
214	0xbdae11f5	-0.08499519
215	0xbe415a1d	-0.18882032
216	0xbe01efd0	-0.12689137
217	0xbd04fe68	-0.032469183
218	0xbd4d6832	-0.050148197
219	0xbdb13f59	-0.08654661
220	0xbe3ed6b9	-0.18636598
221	0x3d129a19	0.03579149
222	0x3d457e48	0.048216134
223	0x3f003629	0.5008264
224	0x3d7693a8	0.06019941
225	0x3d5b8f42	0.05360342
226	0xbdba53ea	-0.090980366
227	0x3de6cf20	0.11269975
228	0x3d357834	0.044304088
229	0x3d8f8c94	0.07009235
230	0x3c89e91c	0.016834788
231	0x3cacd720	0.021098673
232	0x3da6f8fd	0.081529595
233	0x3c9290d1	0.01789132
234	0xbdb04c38	-0.086082876
235	0xbc5ce3da	-0.013482058
236	0xbb0fae1b	-0.0021923843
237	0xbe0b50c6	-0.13605031
238	0x3e87ce03	0.26524362
239	0xbd11cc52	-0.035595246
240	0x3db0d2fe	0.086339936
241	0x3efc69bf	0.49299428
242	0xbd415490	-0.047199786
243	0xbbfe36b6	-0.007757987
244	0xbcedf527	-0.029047562
245	0x3dacb2cc	0.0843254
246	0x3ea07631	0.31340173
247	0xbd43588a	-0.04769186
248	0xbc412ff7	-0.011791221
249	0xbb24b3c4	-0.0025131563
250	0x3dc3ebe4	0.09566477
251	0x3e8d95c8	0.27653337
252	0x3eeb1bd6	0.45919675
253	0xbdaca19b	-0.08429261
254	0x3dd581cc	0.104251474
255	0x3ebfd73f	0.37468907

policy_head.bias f4 [110]
0	0xbe579a05	-0.21054848
1	0xbec94a93	-0.39314708
2	0x3e33b0a6	0.17547855
3	0x3e277a06	0.16355142
4	0xbeafa469	-0.34305122
5	0xbe9bfe52	-0.30467469
6	0x3dc7e727	0.09760886
7	0xbc5b9151	-0.013401345
8	0x39d223b9	0.00040080937
9	0x3d761b92	0.060084887
10	0xbd58538d	-0.052814055
11	0xbd5a7678	-0.053335637
12	0xbd3a8346	-0.04553535
13	0x3b7b4c31	0.0038344974
14	0x3e19a069	0.15002598
15	0x3de26349	0.110540934
16	0x3df29a7c	0.11845872
17	0x3e014e3c	0.126275
18	0x3dd4d1ed	0.10391603
19	0xbbf2c037	-0.0074081677
20	0xbda6a97c	-0.08137795
21	0x3d4e0055	0.050293285
22	0xbe01c169	-0.12671436
23	0x3db45977	0.088061266
24	0x3dd9442b	0.10608705
25	0x3dba61e5	0.09100703
26	0x3dee6011	0.11639417
27	0x3aecad9a	0.0018057108
28	0x3cc5e045	0.024154792
29	0x3cb01634	0.021494962
30	0x3da7d9b8	0.081958234
31	0xbc14938a	-0.009068379
32	0x3dc3edad	0.095668174
33	0x3d2762c5	0.04086568
34	0xbd8bcd83	-0.068263076
35	0x3db73083	0.089448
36	0xbd5f6eec	-0.054549143
37	0x3d9fad3f	0.07796716
38	0xbd4c551c	-0.049885854
39	0xbc605826	-0.013692891
40	0xbc252361	-0.010079236
41	0x3cebe6f7	0.028796656
42	0xbd835e45	-0.06414465
43	0xbd5ffc37	-0.05468389
44	0xbcf93513	-0.030420816
45	0xbdd26095	-0.10272328
46	0x3c041b72	0.008063184
47	0xbd8bfbbe	-0.068351254
48	0x3de2844a	0.110603884
49	0x3daf1e0e	0.08550654
50	0x3d240707	0.040045764
51	0x3d584d21	0.05280793
52	0x3e01e364	0.12684399
53	0x3dd61ccc	0.10454711
54	0xbda649f0	-0.08119571
55	0xbd47afa3	-0.048751485
56	0x3df67c72	0.12035455
57	0x3e0099e6	0.12558708
58	0xbe548b79	-0.2075633
59	0xbe47fd4a	-0.19530216
60	0xbe3ad6f1	-0.18246056
61	0xbebf6d50	-0.37388086
62	0xbe8ee890	-0.27911806
63	0xbe7aff69	-0.24511494
64	0xbea149d7	-0.31501648
65	0xbe190f0d	-0.14947148
66	0xbe220ecb	-0.15825956
67	0xbea1ab3d	-0.31575957
68	0xbe5704ee	-0.20997974
69	0xbe758fda	-0.23980656
70	0xbe955db8	-0.29173064
71	0xbe321a34	-0.17392808
72	0xbe81f2a5	-0.25380436
73	0xbeb385c2	-0.35062987
74	0xbebe29bf	-0.37141225
75	0xbe58e7ef	-0.21182226
76	0xbe9a3c81	-0.30124286
77	0xbe6b3874	-0.22970754
78	0xbe6c5dba	-0.23082629
79	0xbec0ba0d	-0.37641945
80	0xbe7789fb	-0.24173729
81	0xbe2c3930	-0.1681869
82	0xbe56a7f5	-0.20962508
83	0xbe7b5889	-0.24545492
84	0xbe8cb3dd	-0.27480975
85	0xbe951012	-0.29113823
86	0xbeb3d59e	-0.35123914
87	0xbea12018	-0.31469798
88	0xbe4bd756	-0.19906363
89	0xbe20bfec	-0.15698212
90	0xbe35bc03	-0.17747502
91	0xbe22ce50	-0.15899014
92	0xbe16fb66	-0.14744338
93	0xbe2811a7	-0.16412984
94	0xbe825233	-0.25453338
95	0xbe78e1cd	-0.24304886
96	0xbe37522e	-0.17902443
97	0xbe9d93a1	-0.30776694
98	0xbe547381	-0.20747186
99	0xbe7c2059	-0.24621715
100	0xbea7a36b	-0.32741866
101	0xbe9b3b22	-0.30318552
102	0xbec0ed61	-0.37681106
103	0xbe24326e	-0.16034862
104	0xbe4c3ee6	-0.19945869
105	0xbea215b3	-0.3165718
106	0xbe6d2089	-0.23156942
107	0xbeade1be	-0.3396129
108	0xbe1d22cd	-0.15345307
109	0xbe8986d3	-0.26860675

value_head.weight f4 [1, 64]
0	0x3dd961b4	0.106143385
1	0x3d5e0634	0.054205135
2	0x3dcf5d8e	0.10125266
3	0x3e045f07	0.12926875
4	0xbe147f76	-0.14501747
5	0x3db2f3bc	0.08737895
6	0x3d8c6e5d	0.068569876
7	0xbd6026b3	-0.054724406
8	0xbde6a092	-0.11261095
9	0xbd4c14a9	-0.04982439
10	0x3daecd4b	0.0853525
11	0x3db702dd	0.08936093
12	0x3dcfe143	0.10150387
13	0xbe40a6b7	-0.18813597
14	0x3dd0dce7	0.10198384
15	0x3d8d459e	0.06898044
16	0xbd9f14f7	-0.077676706
17	0xbc7ed8b7	-0.0155545985
18	0xbdd20fc2	-0.10256912
19	0x3c811032	0.015754793
20	0x3ddfbaab	0.10924276
21	0x3d6e1553	0.058125805
22	0xbe3bac80	-0.18327522
23	0x3ded0fba	0.11575265
24	0x3d96c222	0.07361247
25	0xbda29dbe	-0.07940243
26	0x3da777ad	0.08177123
27	0x3dd7b2ba	0.10532136
28	0xbe9bb55d	-0.30411807
29	0xbdcf5319	-0.101232715
30	0xbda95d2f	-0.082697265
31	0x3c842afd	0.01613378
32	0x3d93ebac	0.07222685
33	0x3d9c8fcf	0.07644617
34	0x3d0ec778	0.034858197
35	0x3e13999c	0.14414066
36	0xbe70c9c7	-0.23514472
37	0xbdf12be5	-0.1177595
38	0xbdc4a5aa	-0.096019104
39	0x3da35494	0.07975116
40	0x3a0b07d7	0.00053035974
41	0x3c50125a	0.012699688
42	0xbd7f2cee	-0.062298708
43	0xbda9317c	-0.082613915
44	0xbc9fdc03	-0.01951409
45	0x3db3bc6e	0.087761745
46	0x3cccba48	0.02499117
47	0xbd0ee463	-0.034885775
48	0xbc0b3d39	-0.008498483
49	0x3cc9bc12	0.024625812
50	0x3de7fbe0	0.11327338
51	0xbe597865	-0.21237333
52	0x3dbc2c5e	0.0918815
53	0xbe054930	-0.130162
54	0x3d54dba6	0.051967286
55	0xbc577a49	-0.013151714
56	0xbe49e84c	-0.1971752
57	0xbe863cf4	-0.2621838
58	0xbd0251dc	-0.03181635
59	0x3d5be463	0.053684603
60	0x3d1b01b1	0.03784341
61	0x3d3f4e56	0.046705566
62	0xbd13ef58	-0.036116928
63	0xbbaf4d2e	-0.0053497767

exp_avg f4 [128, 260]
0	0xb970b2c6	-0.00022954782
1	0xb8a5971b	-7.895959e-05
2	0x39a797c8	0.00031965808
3	0x39150209	0.00014210505
4	0x3b0c9476	0.0021450794
5	0xb93ff8b9	-0.00018307836
6	0x3972c97f	0.00023153982
7	0xb981e24d	-0.00024773405
8	0xb9ea1992	-0.0004465101
9	0xba040dd7	-0.00050374627
10	0xbac7f650	-0.0015255902
11	0x3a68c37f	0.0008879229
12	0xb8f6001e	-0.00011730216
13	0xba29546e	-0.00064594194
14	0xb8e6ccb0	-0.00011005381
15	0xb77a3a80	-1.4914782e-05
16	0xb9834dcc	-0.0002504423
17	0x3a316145	0.00067665084
18	0x3a186261	0.00058129994
19	0x3aa0cef1	0.0012268705
20	0xb928aa4b	-0.00016085168
21	0xba438172	-0.00074579485
22	0xb88a3f1b	-6.592107e-05
23	0xba978951	-0.0011561309
24	0xba57e345	-0.0008235465
25	0x3a5045a0	0.0007944945
26	0x392f8fa9	0.00016742818
27	0x3a280ba6	0.0006410427
28	0x39e763f3	0.0004413422
29	0x3a064260	0.0005121585
30	0x3a98449b	0.0011617126
31	0x37c1860b	2.3069812e-05
32	0x393b0b2f	0.00017837876
33	0x3731d7c3	1.0600258e-05
34	0xba879f1c	-0.0010347101
35	0x39a8a729	0.00032168
36	0xba979fed	-0.0011568047
37	0xba81c030	-0.0009899195
38	0xba9d7abc	-0.0012014727
39	0xb8ec3407	-0.00011263048
40	0xb99696c1	-0.0002872255
41	0x39859c84	0.0002548435
42	0x3adf5be7	0.0017040939
43	0x3a1cff18	0.00059889397
44	0x38d9305b	0.00010356373
45	0xb9faae1b	-0.00047813435
46	0xb9fdd913	-0.00048417653
47	0x396d1913	0.00022611422
48	0x3a1337d8	0.00056159263
49	0xba552c03	-0.00081318634
50	0x3af37d62	0.0018576796
51	0xba48edad	-0.0007664811
52	0x00000004	6e-45
53	0x00000004	6e-45
54	0x39344735	0.00017192664
55	0xb7c6bdda	-2.3691846e-05
56	0xb6f062fc	-7.1640807e-06
57	0xb6129451	-2.1842027e-06
58	0x37719b3e	1.44008645e-05
59	0x370f43ee	8.53928e-06
60	0xb8e1937f	-0.00010756309
61	0x39da1412	0.00041595154
62	0xb98f2003	-0.00027298936
63	0x39147cef	0.00014160921
64	0x395fb46d	0.00021334151
65	0x00000004	6e-45
66	0x00000004	6e-45
67	0xb69c7712	-4.663024e-06
68	0x3683e372	3.9305824e-06
69	0x38adc4c6	8.285935e-05
70	0xb8c73e0b	-9.500616e-05
71	0xb8643f1e	-5.441822e-05
72	0xb8b6dc01	-8.719415e-05
73	0xb98b7c03	-0.00026604542
74	0xb98a65f5	-0.00026397375
75	0x37cddec9	2.4541647e-05
76	0x38a1de6f	7.71851e-05
77	0x38cb1e5c	9.685449e-05
78	0x80000004	-6e-45
79	0x00000004	6e-45
80	0x334bad9f	4.7422528e-08
81	0x394cfb44	0.0001954856
82	0xb73aa0da	-1.1123915e-05
83	0x38ff5b63	0.0001217637
84	0xb7147162	-8.847886e-06
85	0xb9075477	-0.00012906069
86	0xb8e9d11e	-0.00011149257
87	0xb921d116	-0.00015432047
88	0xb705205f	-7.934955e-06
89	0x381e65fa	3.776511e-05
90	0xb8cd8670	-9.800203e-05
91	0x00000004	6e-45
92	0x80000004	-6e-45
93	0x00000004	6e-45
94	0xb7e85910	-2.7698028e-05
95	0x39aca3bf	0.00032928397
96	0xb52491c7	-6.1306895e-07
97	0xb899b057	-7.3284544e-05
98	0xb73d3fe1	-1.1280151e-05
99	0xb8d6a592	-0.00010235155
100	0x397aeae4	0.00023929361
101	0xb7f6f1d0	-2.9438088e-05
102	0xb6814754	-3.8528033e-06
103	0xb8dfbbff	-0.000106684856
104	0x38250d66	3.9351544e-05
105	0x38c7b2cd	9.522364e-05
106	0x3aa8457e	0.0012838093
107	0xba0a5da7	-0.00052782375
108	0xb9f4c64b	-0.00046687046
109	0xb9afa5f1	-0.00033502237
110	0x38beb5f0	9.0937945e-05
111	0xb9c5df07	-0.00037740936
112	0xb9a815b0	-0.00032059615
113	0xba467188	-0.0007570018
114	0xba236bb7	-0.00062340073
115	0xba22701f	-0.0006196517
116	0xba525ef6	-0.00080250145
117	0xba5aa058	-0.0008339933
118	0xb979ad4a	-0.00023811046
119	0x38afb007	8.377438e-05
120	0xb9f659c9	-0.00046987672
121	0x398724d6	0.0002577665
122	0x3a66da77	0.00088063575
123	0xba224392	-0.00061898783
124	0xb9d727ea	-0.00041037734
125	0x39817d74	0.00024698267
126	0xba15b042	-0.00057101634
127	0xb7c33418	-2.327007e-05
128	0x3ab704cb	0.001396322
129	0xb95076da	-0.00019880701
130	0x31f2baac	7.064349e-09
131	0xb9218ff5	-0.00015407785
132	0x385cdb2a	5.26562e-05
133	0x3883b70a	6.2806605e-05
134	0xb71c7709	-9.32604e-06
135	0x3a4a3cfd	0.00077147764
136	0xba85ec30	-0.0010217484
137	0x39332f83	0.0001708847
138	0x3af8b86b	0.0018975859
139	0xb99a0152	-0.00029374153
140	0x3a958dbf	0.0011410041
141	0xb92abdce	-0.00016283171
142	0xb7b11214	-2.1108463e-05
143	0xb987862b	-0.0002584917
144	0xba289312	-0.00064306066
145	0xb6d2ba0d	-6.280147e-06
146	0xb3938e69	-6.871125e-08
147	0xb9f1ae4f	-0.00046096972
148	0x3a2e018b	0.0006637803
149	0x3ac906b0	0.0015337076
150	0xba196e46	-0.0005852919
151	0x3921983d	0.0001541087
152	0x3a95f43d	0.0011440587
153	0xba3f7cee	-0.0007304688
154	0xba5d7e02	-0.00084492576
155	0x377057ad	1.4325528e-05
156	0x38fc09b2	0.00012018102
157	0xb96e8eae	-0.00022750601
158	0xb808a0dd	-3.2574742e-05
159	0x396530d2	0.00021857329
160	0xb76620cd	-1.3716705e-05
161	0xba0eddc5	-0.00054499164
162	0xb8a3e83d	-7.8157034e-05
163	0xb9c347fb	-0.00037246928
164	0xb8bdfa56	-9.058851e-05
165	0x396d1517	0.00022609938
166	0xb93510eb	-0.00017267808
167	0x37019d0c	7.7255645e-06
168	0x3720fd77	9.595758e-06
169	0xb8e2e103	-0.000108184315
170	0x3b147113	0.0022650405
171	0xb8555a24	-5.0867107e-05
172	0xb9db1dc1	-0.00041793103
173	0x389bd495	7.4305724e-05
174	0xb9b5fca9	-0.00034711257
175	0x3974458a	0.00023295559
176	0xb7e44d8d	-2.721583e-05
177	0xb8d5f2b7	-0.000102018406
178	0xb9832dea	-0.00025020476
179	0xb88d2fad	-6.732284e-05
180	0x3808936c	3.2562224e-05
181	0x37da3393	2.6011641e-05
182	0xb8f2b473	-0.000115730705
183	0x3b216408	0.0024626274
184	0x3836250f	4.3426695e-05
185	0xb9f69ab5	-0.00047036042
186	0x34d5b3cc	3.980516e-07
187	0x38fc28a2	0.00012023865
188	0xb56cc497	-8.8202927e-07
189	0xba162f53	-0.0005729098
190	0xb9bb11b9	-0.00035680624
191	0x36888ac1	4.069269e-06
192	0xb838841b	-4.399205e-05
193	0x37153d0d	8.895307e-06
194	0xb7d4bec1	-2.5361196e-05
195	0xb8ae222e	-8.303333e-05
196	0xb8af9e77	-8.374167e-05
197	0x3ae7694f	0.0017655286
198	0x341282b4	1.3644859e-07
199	0x3a484f64	0.00076412247
200	0x37d13c18	2.4942725e-05
201	0xb7d08657	-2.485809e-05
202	0x3ad5362e	0.0016266757
203	0x374ff92b	1.2396175e-05
204	0x3840ab36	4.593582e-05
205	0xb838f715	-4.409913e-05
206	0xb9419f50	-0.00018465263
207	0xb91177da	-0.00013872926
208	0x3940d995	0.00018391602
209	0x39aa77ed	0.00032514278
210	0xbad5816f	-0.0016289185
211	0x399fc53f	0.00030473803
212	0xbaca4cd4	-0.0015434274
213	0x3a9a8ea1	0.0011791774
214	0xb917db0c	-0.00014482083
215	0x3a9091ae	0.0011029744
216	0x3a8d7290	0.0010791589
217	0x3a400bd1	0.00073259795
218	0x3b318216	0.0027085594
219	0xb99f3aa1	-0.00030370525
220	0x3a5489ab	0.00081076723
221	0x3adf1652	0.0017020202
222	0xbaec51d3	-0.0018029757
223	0x38d2e9ca	0.00010057127
224	0x3aa39b52	0.0012482202
225	0xba80258e	-0.0009776817
226	0xba6d7aff	-0.00090591604
227	0xba304c03	-0.0006725194
228	0x3a519838	0.00079953996
229	0x3a808d68	0.0009807767
230	0x3aa5ceec	0.0012650169
231	0x3aaf1f83	0.0013360832
232	0xba150f95	-0.0005686221
233	0xba1e818f	-0.00060465274
234	0x38826f4f	6.219616e-05
235	0xbb39d702	-0.0028356914
236	0xb9de12d3	-0.00042357165
237	0xb9433bdd	-0.0001861895
238	0xba86b5e6	-0.0010277599
239	0xba71ddee	-0.00092264905
240	0x3a7d7e4d	0.00096700044
241	0x3a264cf4	0.00063438644
242	0xb99327c0	-0.0002806764
243	0x3977b019	0.00023621357
244	0x393e737a	0.0001816283
245	0x3a9fe821	0.0012199917
246	0x3abf5848	0.0014598453
247	0x3a14e99b	0.0005680562
248	0x3a93d700	0.0011279285
249	0xbaf90fd6	-0.0019001912
250	0xbacccee6	-0.0015625625
251	0xba9276b9	-0.0011174298
252	0xba31ac91	-0.00067777286
253	0xba5d2055	-0.0008435299
254	0xb9e281a2	-0.00043202663
255	0xb938ef1c	-0.00017636683

exp_avg_sq f4 [128, 260]
0	0x35f96bec	1.8583355e-06
1	0x3560c899	8.373841e-07
2	0x357fd73c	9.530811e-07
3	0x35758a89	9.147121e-07
4	0x365bb2b6	3.2737566e-06
5	0x35c7b173	1.48783e-06
6	0x35f66523	1.8357863e-06
7	0x365bf6da	3.277723e-06
8	0x36239fb6	2.4381857e-06
9	0x369f4970	4.7471185e-06
10	0x36440260	2.9207658e-06
11	0x360d1db2	2.1027922e-06
12	0x3680b81e	3.8361313e-06
13	0x366a3c81	3.4903935e-06
14	0x35c5243b	1.4688188e-06
15	0x363d2038	2.8181948e-06
16	0x355d2ae0	8.2391307e-07
17	0x36256a22	2.4648693e-06
18	0x361ef061	2.3683754e-06
19	0x35fbff7a	1.8775311e-06
20	0x363fc2c4	2.8574586e-06
21	0x35b81933	1.3716402e-06
22	0x36298440	2.5259942e-06
23	0x36553955	3.1772845e-06
24	0x3651232c	3.11639e-06
25	0x36468006	2.9578819e-06
26	0x35faf149	1.8696675e-06
27	0x350a13b6	5.143769e-07
28	0x35eaa66c	1.7482794e-06
29	0x3678c313	3.7068428e-06
30	0x365a4cc6	3.252922e-06
31	0x363a067d	2.7719936e-06
32	0x35bde939	1.4149474e-06
33	0x3608134a	2.0276807e-06
34	0x36110695	2.1610515e-06
35	0x36a96608	5.0484705e-06
36	0x361dc655	2.3510268e-06
37	0x3663d36e	3.3948704e-06
38	0x362a819d	2.540742e-06
39	0x359f3bf6	1.1863874e-06
40	0x35e4f8d8	1.7059747e-06
41	0x35a5c768	1.2351493e-06
42	0x35f726e5	1.8414254e-06
43	0x363f79f9	2.8532215e-06
44	0x3686dc14	4.0191317e-06
45	0x367da72d	3.7797247e-06
46	0x35e66e01	1.7168351e-06
47	0x366657e5	3.4323832e-06
48	0x3654f940	3.1735544e-06
49	0x3633a6f9	2.677027e-06
50	0x36a08101	4.7833896e-06
51	0x36886d8c	4.065869e-06
52	0x2e5fbb36	5.0870606e-11
53	0x2e51fcf9	4.7745783e-11
54	0x3334dbc2	4.2109384e-08
55	0x33acfb53	8.05509e-08
56	0x3400289d	1.1935704e-07
57	0x33a3322b	7.5994045e-08
58	0x34807035	2.39235e-07
59	0x342dbf50	1.618148e-07
60	0x3445e168	1.8429057e-07
61	0x348ce01e	2.62401e-07
62	0x3478342b	2.3115778e-07
63	0x34945104	2.7626095e-07
64	0x3476a867	2.29718e-07
65	0x2ec842f1	9.106838e-11
66	0x3074b6aa	8.9026264e-10
67	0x306c2f49	8.5923496e-10
68	0x32cc6238	2.379339e-08
69	0x33b6c06f	8.510039e-08
70	0x340618cd	1.2488745e-07
71	0x34136c42	1.3729826e-07
72	0x3451e50e	1.9547971e-07
73	0x345ed8e0	2.075426e-07
74	0x344e12c2	1.9192069e-07
75	0x343874c6	1.7178817e-07
76	0x347cd500	2.3546818e-07
77	0x362a4b6d	2.5375878e-06
78	0x2f848d54	2.411108e-10
79	0x2f3d1f13	1.720049e-10
80	0x32156a2b	8.697081e-09
81	0x33c73ec8	9.2780795e-08
82	0x33ee2ede	1.1091264e-07
83	0x33ed2d9d	1.10444695e-07
84	0x34823272	2.425109e-07
85	0x3423ec6d	1.5266569e-07
86	0x34180ddc	1.4161145e-07
87	0x341b20b8	1.4447403e-07
88	0x344eb957	1.9252671e-07
89	0x34565dcc	1.9964426e-07
90	0x34996fb4	2.8579746e-07
91	0x2ea0130e	7.2793424e-11
92	0x2e86d34a	6.131147e-11
93	0x2f9f3620	2.896039e-10
94	0x336b5c76	5.4799294e-08
95	0x343fd882	1.7867026e-07
96	0x33d92476	1.0111482e-07
97	0x348145ed	2.4079e-07
98	0x350f8b37	5.3474236e-07
99	0x3431627e	1.6520241e-07
100	0x34ea6423	4.3658756e-07
101	0x344eca5f	1.9258867e-07
102	0x34c18199	3.6043346e-07
103	0x349366e5	2.745575e-07
104	0x348a2005	2.57278e-07
105	0x349dd2d8	2.9396938e-07
106	0x3591cb0d	1.0862437e-06
107	0x351f04cc	5.9239096e-07
108	0x356cd7d8	8.8230945e-07
109	0x3610346e	2.148819e-06
110	0x358d1d60	1.0513868e-06
111	0x35b4b88f	1.3464759e-06
112	0x361255f0	2.1805718e-06
113	0x35355d8c	6.7563883e-07
114	0x361c0178	2.3246666e-06
115	0x360c4fa6	2.0907987e-06
116	0x36173a23	2.2534593e-06
117	0x34b15e8b	3.3037608e-07
118	0x34e2c1d5	4.2236812e-07
119	0x34e77068	4.310889e-07
120	0x356d91cf	8.850156e-07
121	0x35947363	1.1060441e-06
122	0x35debd9f	1.6595476e-06
123	0x3601482f	1.9264514e-06
124	0x3589f83b	1.027954e-06
125	0x35c9be90	1.5031128e-06
126	0x35f6c541	1.8385837e-06
127	0x3635b9da	2.7079282e-06
128	0x3648efe3	2.9941955e-06
129	0x36052edc	1.984582e-06
130	0x34b405b8	3.3531774e-07
131	0x3556f56d	8.0078354e-07
132	0x34924ae9	2.7249123e-07
133	0x3521d3df	6.0285487e-07
134	0x35c5172d	1.4684389e-06
135	0x3576136a	9.167039e-07
136	0x35fc300d	1.8789448e-06
137	0x35b27332	1.329556e-06
138	0x3637089e	2.727414e-06
139	0x35ae9ea2	1.3010178e-06
140	0x364884d7	2.9879645e-06
141	0x359c2888	1.1634702e-06
142	0x36121316	2.1766805e-06
143	0x350eb138	5.315701e-07
144	0x359e32ab	1.1786664e-06
145	0x34e2ff80	4.228168e-07
146	0x34d790dd	4.0152273e-07
147	0x3562bb41	8.446405e-07
148	0x3521e1bf	6.030568e-07
149	0x361b62b9	2.3154264e-06
150	0x35eab581	1.7487183e-06
151	0x35b60277	1.3560774e-06
152	0x35f8bd0a	1.8532457e-06
153	0x35f3bc17	1.8159652e-06
154	0x36257426	2.4654523e-06
155	0x35506c3a	7.764353e-07
156	0x353c88ee	7.0234717e-07
157	0x35ae8800	1.3003591e-06
158	0x351e120c	5.888585e-07
159	0x35300a43	6.558004e-07
160	0x358613d9	9.989554e-07
161	0x349c50c4	2.911603e-07
162	0x357a0260	9.3135714e-07
163	0x349e277d	2.9458525e-07
164	0x342f80d2	1.634501e-07
165	0x33a24a32	7.557209e-08
166	0x34002340	1.1933753e-07
167	0x34128f02	1.3649336e-07
168	0x33dad636	1.0190381e-07
169	0x3523e976	6.106196e-07
170	0x358648c0	1.0004951e-06
171	0x34e9c656	4.354394e-07
172	0x35a07331	1.1954454e-06
173	0x34becb00	3.553796e-07
174	0x35038e6c	4.9008554e-07
175	0x34a565a8	3.080761e-07
176	0x34f048df	4.4756504e-07
177	0x34b7aa35	3.4210248e-07
178	0x34427946	1.8111777e-07
179	0x3454ee03	1.9830627e-07
180	0x33eb0605	1.0944135e-07
181	0x342ad72f	1.5910767e-07
182	0x35914afb	1.0825164e-06
183	0x35b8b1d1	1.376082e-06
184	0x34bbb9d9	3.4966686e-07
185	0x35af6e27	1.3070575e-06
186	0x34e270b5	4.2177786e-07
187	0x34444d12	1.828196e-07
188	0x34eb098b	4.3779104e-07
189	0x35e137bc	1.6780027e-06
190	0x344e2d6b	1.9201768e-07
191	0x336f2a77	5.5685145e-08
192	0x3544b1fb	7.3274686e-07
193	0x334384ee	4.5522874e-08
194	0x33ae457f	8.115148e-08
195	0x34f7a341	4.6126118e-07
196	0x34b74262	3.4134706e-07
197	0x35510ae0	7.787439e-07
198	0x352f5f45	6.5331216e-07
199	0x3589e4cf	1.0273887e-06
200	0x348eb338	2.657996e-07
201	0x34529688	1.9612537e-07
202	0x3588b049	1.0184095e-06
203	0x348319d7	2.4419452e-07
204	0x345b94aa	2.0450048e-07
205	0x34169394	1.4023527e-07
206	0x34394441	1.7254298e-07
207	0x33ad3ab0	8.0666155e-08
208	0x37420522	1.1564496e-05
209	0x373ab2f4	1.112813e-05
210	0x3746e283	1.18544585e-05
211	0x3737d51a	1.0957267e-05
212	0x3708dd2f	8.15773e-06
213	0x372098a6	9.572284e-06
214	0x371ff678	9.534524e-06
215	0x36f8c627	7.414044e-06
216	0x37102050	8.590592e-06
217	0x36fb4da5	7.489422e-06
218	0x37013f16	7.7036875e-06
219	0x3702ea52	7.803161e-06
220	0x36e329e3	6.7700034e-06
221	0x371d25df	9.366747e-06
222	0x3741e363	1.1556639e-05
223	0x3724e3bd	9.828186e-06
224	0x372bac5c	1.0232525e-05
225	0x372385ef	9.746741e-06
226	0x371ada19	9.229895e-06
227	0x371950f8	9.138363e-06
228	0x37148985	8.853506e-06
229	0x37198b86	9.151996e-06
230	0x3709c4e1	8.211676e-06
231	0x36f59af3	7.3196074e-06
232	0x36f67acc	7.3456667e-06
233	0x36bcced1	5.626913e-06
234	0x373885b1	1.0998382e-05
235	0x374437b6	1.1695482e-05
236	0x3746add5	1.1842193e-05
237	0x3709fa53	8.2241195e-06
238	0x37185b73	9.081198e-06
239	0x371a7f9c	9.208827e-06
240	0x37208c63	9.5694295e-06
241	0x36f70256	7.3614456e-06
242	0x3701e49c	7.742226e-06
243	0x36da6e74	6.5097647e-06
244	0x36f76803	7.373282e-06
245	0x370e15f6	8.468973e-06
246	0x3707ebf4	8.101564e-06
247	0x3746f7bd	1.1859401e-05
248	0x373aa566	1.1124974e-05
249	0x3738746c	1.0994361e-05
250	0x37384d0b	1.0985193e-05
251	0x3709dae6	8.216803e-06
252	0x371cc701	9.344659e-06
253	0x36d2c53e	6.2814497e-06
254	0x370b028e	8.28564e-06
255	0x36fd15f7	7.5425446e-06

exp_avg f4 [128]
0	0x38eede03	0.00011390077
1	0x00000004	6e-45
2	0x00000004	6e-45
3	0xba662c60	-0.0008780416
4	0x24b58517	7.87217e-17
5	0xb9c63c00	-0.00037810206
6	0x28173b65	8.395063e-15
7	0x3adca327	0.0016833291
8	0xb90caaab	-0.00013415019
9	0x3b9ea773	0.004841739
10	0x378093a1	1.5327534e-05
11	0x3a84443e	0.0010091139
12	0x3716a083	8.978069e-06
13	0x3b178827	0.0023121925
14	0x3a568846	0.00081837585
15	0x00000004	6e-45
16	0x3ad8a3d0	0.0016528312
17	0xb908cb35	-0.00013045671
18	0x00000004	6e-45
19	0x3aedbe44	0.0018138369
20	0x00000004	6e-45
21	0x2289b5e2	3.73265e-18
22	0x37e6fa37	2.7534652e-05
23	0x00000004	6e-45
24	0x389937a1	7.30597e-05
25	0xb9c271c4	-0.00037087325
26	0x33e13fd4	1.0488989e-07
27	0x00000004	6e-45
28	0x3a7878e1	0.00094784616
29	0x00000177	5.25e-43
30	0x39f1a2db	0.0004608844
31	0x3853734f	5.041371e-05
32	0x3a50d465	0.00079662196
33	0x00000005	7e-45
34	0x00000004	6e-45
35	0x39bf8772	0.00036531274
36	0x360ed61c	2.1284277e-06
37	0xb9600fd0	-0.00021368195
38	0x3ac9878b	0.0015375478
39	0x00000004	6e-45
40	0x28aff96f	1.9537078e-14
41	0x3bd08256	0.0063631935
42	0x00000004	6e-45
43	0xbaa11f72	-0.0012292697
44	0x3a705724	0.00091682584
45	0xb8d37beb	-0.000100843456
46	0xbb1639de	-0.0022922675
47	0x0e3dd931	2.3400622e-30
48	0x00000004	6e-45
49	0x00000004	6e-45
50	0xb9c8e768	-0.00038319384
51	0xb9f7b6c4	-0.00047247682
52	0x39c4ea3f	0.0003755856
53	0x216f4fbf	8.1081893e-19
54	0x3a837c8b	0.0010031624
55	0x394a4f19	0.00019293687
56	0xb9731606	-0.0002318249
57	0x3ac04e71	0.0014671815
58	0x3adaa164	0.0016680178
59	0x3b67ff87	0.003540011
60	0xba9b1325	-0.0011831267
61	0x00000004	6e-45
62	0xbb3a5560	-0.0028432235
63	0x00000004	6e-45
64	0xba7d621f	-0.0009665805
65	0xb9036513	-0.00012530787
66	0x3b0d1cb2	0.0021531996
67	0xb4a9dbf4	-3.163874e-07
68	0xbb9dbb47	-0.004813585
69	0xb84642a0	-4.7268928e-05
70	0x0000021a	7.54e-43
71	0xba3ec91f	-0.0007277894
72	0x3abd5bfb	0.0014446968
73	0x3821178c	3.840732e-05
74	0xb9df7e9d	-0.0004262821
75	0x00000004	6e-45
76	0x00000004	6e-45
77	0x31eecc34	6.949927e-09
78	0x39dffc7c	0.0004272199
79	0x3a1c31bf	0.00059583405
80	0x1e0de2be	7.511367e-21
81	0x8008077b	-7.37367e-40
82	0x00000004	6e-45
83	0x39d8b247	0.00041331557
84	0x00000004	6e-45
85	0xbb2d42ac	-0.0026437445
86	0x3a207be8	0.0006121979
87	0x3a4b7241	0.00077608606
88	0x00000004	6e-45
89	0xb99a78dc	-0.00029463216
90	0xad10cd6e	-8.231067e-12
91	0xba5d27c9	-0.00084364094
92	0x3a074845	0.00051606103
93	0xba3e70e2	-0.00072647457
94	0x00000004	6e-45
95	0x391877fe	0.0001454055
96	0x3ab3c82a	0.001371627
97	0x3a1a569a	0.00058875384
98	0xb9968d12	-0.00028715335
99	0x00000004	6e-45
100	0xba2dcc17	-0.0006629838
101	0x3b0e6b8b	0.002173158
102	0x39220102	0.000154499
103	0x00000004	6e-45
104	0x2d000351	7.276694e-12
105	0x3aac46e6	0.0013143688
106	0x3204ea37	7.7366655e-09
107	0x3a27695e	0.00063862454
108	0x00000004	6e-45
109	0x3a98cf01	0.0011658372
110	0x3a962de3	0.0011457767
111	0x00000004	6e-45
112	0xbb16ab9b	-0.0022990468
113	0x00000004	6e-45
114	0xb9164aaf	-0.00014332937
115	0x00000004	6e-45
116	0xb98f069f	-0.0002728002
117	0x02e5a394	3.3742415e-37
118	0x3abc1705	0.0014350122
119	0x3a68112a	0.00088526553
120	0x00000004	6e-45
121	0x00000004	6e-45
122	0x00000004	6e-45
123	0x00000004	6e-45
124	0x00000004	6e-45
125	0xb9d6a02b	-0.00040936595
126	0x3a5790d3	0.00082231796
127	0x3ab44857	0.0013754469
