ppo/ppo_agent_episode_16100.pth (torch, 596662 bytes, 21 tensors)

fc1.weight f4 [128, 260]
0	0x3deccdde	0.115627035
1	0x3d1db8e6	0.03850641
2	0x3d5827ae	0.052772216
3	0xbd916bcc	-0.07100639
4	0x3d8c1fda	0.06842013
5	0xbd1ed2b7	-0.038775172
6	0xbd9e346b	-0.07724842
7	0x3de80d5e	0.113306746
8	0x3dc6a0b1	0.09698618
9	0xbb6ed785	-0.0036444378
10	0x3c84e3f8	0.016221985
11	0x3cc00768	0.023441032
12	0x3dee2707	0.116285376
13	0x3e0ce47e	0.13759038
14	0x3d7230b8	0.059128493
15	0x3c0c605e	0.008567898
16	0xbe1e2129	-0.15442337
17	0xbd406fc6	-0.046981595
18	0xbd411ed1	-0.04714853
19	0x3d924bfe	0.071434006
20	0xbd939e55	-0.07207934
21	0x3d0344de	0.0320481
22	0x3cf2c4c5	0.029634843
23	0x3cd099f9	0.025464045
24	0x3d474c9b	0.04865704
25	0x3d2aed64	0.0417303
26	0xbcd0364e	-0.02541652
27	0x3d3ae9c0	0.045633078
28	0x3e2fa277	0.17151819
29	0x3db7b337	0.089697294
30	0x3cce5252	0.025185738
31	0xbd032bfd	-0.032024372
32	0xbcd497b3	-0.025951242
33	0xbc148319	-0.009064459
34	0xbdc70880	-0.09718418
35	0x3d6396e2	0.055563815
36	0xbe183b98	-0.14866483
37	0x3d8f5f15	0.07000557
38	0x3cf6deb9	0.0301355
39	0x3cadaa15	0.021199265
40	0x3c82f8b1	0.015987726
41	0x3ca98d9b	0.020697406
42	0x3ddc5e12	0.1076013
43	0x3b8bf6ef	0.00427138
44	0x3d0c8878	0.034309834
45	0x3e27238c	0.16322154
46	0xbd927fb6	-0.07153265
47	0x3d59febb	0.053221446
48	0xbc2ec02c	-0.0106659345
49	0x3db55862	0.08854748
50	0xbd33c2e7	-0.043887045
51	0x3c01c70a	0.00792099
52	0x3e549beb	0.20762603
53	0x3e80e8a8	0.25177503
54	0x3e0e384a	0.1388866
55	0xbcf2d759	-0.029643701
56	0x3cef4fd3	0.029212868
57	0x3d5ded17	0.054181185
58	0xbd32c371	-0.04364342
59	0xbbe1c320	-0.006889716
60	0x3e044386	0.12916383
61	0x3e3cdbb2	0.18443182
62	0x3d5cd185	0.05391075
63	0x3dd8cd23	0.10586002
64	0xbd177030	-0.036972225
65	0x3e44cb09	0.19218077
66	0x3dc78101	0.097414024
67	0x3e08065f	0.1328368
68	0x3c5fc5a5	0.013657962
69	0x3d3b6423	0.045749795
70	0x3d088674	0.03333135
71	0x3d079bd7	0.033107605
72	0x3d9f602c	0.07782015
73	0xbc684859	-0.014177405
74	0x3d641256	0.05568155
75	0x3daf6dd9	0.08565874
76	0x3da53318	0.08066386
77	0x3ca1ff44	0.01977504
78	0x3e4263fb	0.18983452
79	0x3ddd5500	0.10807228
80	0x3bd0ace1	0.006368265
81	0x3cc7bc24	0.024381705
82	0xbd899513	-0.06717887
83	0x3df20ad6	0.11818473
84	0xbd4da621	-0.05020726
85	0x3c80f89e	0.01574355
86	0xbd667d27	-0.0562717
87	0x3d5b6cfb	0.05357073
88	0x3d83e354	0.06439844
89	0x3d80c734	0.06287995
90	0x3c5e353f	0.0135625
91	0x3dd17435	0.10227243
92	0x3e695ad8	0.2278856
93	0x3e1012b3	0.14069633
94	0x3d8c6d06	0.06856732
95	0x3dbe2177	0.09283727
96	0xbba8a2ae	-0.005146346
97	0x3da94e4b	0.08266886
98	0x3b97e267	0.0046351436
99	0x3d6b2b47	0.05741432
100	0x3d8b8fbf	0.06814527
101	0x3cbb3095	0.022850314
102	0xbd45195b	-0.048119884
103	0x3d217538	0.03941843
104	0x3d65e7b2	0.056129165
105	0x3e7648b3	0.2405117
106	0x3dd2f997	0.10301512
107	0x3ce94b74	0.028478362
108	0xbd91c3bf	-0.07117414
109	0x3da9bca2	0.08287932
110	0xbd4db9fc	-0.050226197
111	0xbc44546d	-0.011983019
112	0xbd9972eb	-0.07492622
113	0x3dff64de	0.12470411
114	0xbd156615	-0.036474306
115	0x3cbc2cb5	0.022970537
116	0x3df67274	0.12033549
117	0x3e2413ab	0.16023128
118	0x3e08906b	0.13336341
119	0xbe048769	-0.1294228
120	0xbd4d1e6f	-0.05007785
121	0xbc86f4c1	-0.01647413
122	0x3db93e36	0.09045069
123	0x3d9ef667	0.07761841
124	0x3e869257	0.26283523
125	0x3e52fb76	0.20603737
126	0xbd7536a3	-0.05986656
127	0x3d2431a3	0.0400864
128	0xbe0bded3	-0.1365922
129	0x3dcd8a9b	0.100362025
130	0x3dbadcdd	0.091241576
131	0x3e203869	0.15646519
132	0x3e076077	0.13220392
133	0x3db0c0ca	0.086305216
134	0x3e0881f0	0.13330817
135	0x3dd900a2	0.10595824
136	0x3dddf650	0.10837996
137	0x3d7bff57	0.061522808
138	0x3d23f186	0.040025257
139	0x3d0101e4	0.031495944
140	0x3dea1292	0.11429323
141	0x3dc74419	0.097297855
142	0x3dbc0c09	0.09181983
143	0x3db6d0d7	0.08926552
144	0x3e4b1704	0.19832999
145	0xbb1efdd4	-0.002426018
146	0x3e6085fc	0.21926111
147	0xbdb39c85	-0.08770088
148	0x3d76b597	0.06023177
149	0xbd24477e	-0.040107243
150	0x3db8b110	0.09018147
151	0x3e5af571	0.21382691
152	0x3cc4be3f	0.024016498
153	0x3da42eb9	0.08016724
154	0x3d67f9fe	0.056634896
155	0x3de5e455	0.112251915
156	0xbd92c3fe	-0.07166289
157	0x3e05c5e9	0.13063778
158	0x3c2f732a	0.01070861
159	0x3d8cecc5	0.06881098
160	0x3e1bd222	0.15216878
161	0xbced2acf	-0.028951077
162	0x3cb8e3c8	0.022569552
163	0x3dca4e7f	0.09878253
164	0x3e25e29e	0.16199729
165	0x3dab1dad	0.083552696
166	0x3ddae4f6	0.10688202
167	0x3d9da0a6	0.07696657
168	0x3df28689	0.11842067
169	0xbd5b4527	-0.053532746
170	0xbd228426	-0.039676808
171	0x3e363704	0.17794424
172	0x3e93e103	0.28882608
173	0x3dd13b5c	0.102164
174	0x3de12c82	0.10994817
175	0x3db16a83	0.086628936
176	0x3d300978	0.04297778
177	0xbd89c27e	-0.067265496
178	0x3d8c2676	0.06843273
179	0x3e2a73df	0.16645764
180	0x3de01abb	0.109425984
181	0x3daf33b3	0.08554783
182	0x3d969cb6	0.07354109
183	0x3d8d0529	0.0688575
184	0x3d43077c	0.04761456
185	0x3e127c78	0.14305294
186	0x3cc66e3f	0.024222491
187	0x3ddc0288	0.1074267
188	0xbc404d70	-0.011737213
189	0x3e0eed5c	0.13957733
190	0xbc237ef6	-0.009979
191	0x3e04631f	0.12928437
192	0xbb53678c	-0.0032257764
193	0xb9c13c67	-0.00036856832
194	0x3dd075de	0.101787314
195	0x3e24d8b3	0.16098289
196	0x3e8ee2b1	0.27907327
197	0xbc4da37e	-0.012551187
198	0x3e6cb7a7	0.23116933
199	0x3c1b3d96	0.009475132
200	0xbdddb340	-0.10825205
201	0x3d59bc8c	0.053158328
202	0xbd53182d	-0.051536728
203	0x3d99cc71	0.07509697
204	0x3dc34183	0.0953398
205	0x3d22ce13	0.03974731
206	0x3d8feaff	0.07027244
207	0x3daf24e2	0.08551957
208	0x3daec99e	0.08534549
209	0x3ac2486f	0.0014822612
210	0x3dc98ca7	0.098412804
211	0x3e3d07bb	0.1845998
212	0x3d9dde44	0.077084094
213	0x3e1052ed	0.14094134
214	0x3e479db6	0.19493756
215	0x3e14ecb8	0.14543426
216	0x3d6d3edc	0.057921275
217	0x3d44f3c9	0.048084054
218	0x3d34db0e	0.04415422
219	0x3c90f0f3	0.017693019
220	0xbd9e3a70	-0.0772599
221	0x3dfc80e0	0.123292685
222	0x3d7f4a85	0.062326927
223	0x3df392d7	0.11893242
224	0x3d912d72	0.07088746
225	0x3cd223ea	0.02565189
226	0x3deeacb8	0.11654037
227	0xbb54e250	-0.0032483526
228	0xbb193840	-0.0023379475
229	0xbca6a54d	-0.020342493
230	0x3dd4d2af	0.10391747
231	0x3e17b738	0.14815986
232	0x3dd4b836	0.10386698
233	0x3dc77438	0.09738964
234	0x3db54786	0.08851533
235	0x3dc16107	0.094423346
236	0x3c2f60b9	0.010704213
237	0x3c64bf78	0.013961665
238	0x3d52f624	0.05150427
239	0x3d107618	0.035268873
240	0x3dc82863	0.09773328
241	0x3db2320e	0.087009534
242	0x3dffc52c	0.124887794
243	0x3c2b83cf	0.010468437
244	0x3e2fa928	0.17154372
245	0xbd1b084d	-0.037849713
246	0x3dfb7bf5	0.12279502
247	0x3e065477	0.13118158
248	0x3d56b6c4	0.052420393
249	0x3e1dcb26	0.15409526
250	0xbc8775b2	-0.016535614
251	0x3df54835	0.11976663
252	0x3dd6dac9	0.10490949
253	0x3e06981c	0.13143963
254	0x3e25a68b	0.16176812
255	0x3d697c00	0.05700302

fc1.bias f4 [128]
0	0x3dfc9d75	0.1233472
1	0xbdc53906	-0.09630017
2	0x3d585ee2	0.052824862
3	0x3da6673a	0.08125158
4	0xbc9481c4	-0.018128283
5	0x3d8e635b	0.06952544
6	0xbd7176cf	-0.058951195
7	0x3cfe9d82	0.031080965
8	0x3dae61a8	0.0851472
9	0x3d5ef150	0.054429352
10	0x3cd9ab60	0.026570976
11	0xbb93bb2c	-0.0045083966
12	0xbc122b9e	-0.008921532
13	0x3aed4495	0.0018102104
14	0x3d401f7a	0.04690502
15	0xba8613e2	-0.0010229314
16	0xbd96c438	-0.073616445
17	0x3d8f8196	0.070071384
18	0x3c602ba9	0.013682284
19	0x3ddf6338	0.10907596
20	0xbd19bb7e	-0.037532322
21	0x3de1ed79	0.110316224
22	0x3cf36b55	0.029714266
23	0xb8e23bfa	-0.00010787691
24	0x3d9dcf95	0.07705609
25	0xbb4b27a5	-0.0030998972
26	0xbc546eb0	-0.012965843
27	0xbd97bce1	-0.07409073
28	0x3d0d62d7	0.03451809
29	0xbc48d0fc	-0.012256857
30	0x3cd6d1fe	0.026223179
31	0x3d41b6a0	0.047293305
32	0x3d154e8d	0.036451865
33	0xbdf0b430	-0.11753118
34	0xbdc83dd5	-0.097774185
35	0x3c7384e1	0.014863224
36	0xbc41d184	-0.011829738
37	0x3c381c6a	0.011237243
38	0x3c33a585	0.010964756
39	0x3b53c577	0.0032313743
40	0xbda11255	-0.07864825
41	0xbd4b2f4d	-0.049605656
42	0x3cd9441a	0.026521731
43	0x3c422f63	0.011852118
44	0x3dc96476	0.098336145
45	0x3daebd31	0.08532179
46	0xbd682348	-0.05667427
47	0x3ca3e502	0.02000666
48	0xbc5e8113	-0.013580578
49	0xbd3b3059	-0.045700405
50	0x3dd9eaff	0.10640525
51	0x3c9270fc	0.01787614
52	0xbca4e081	-0.020126583
53	0xbd017056	-0.031601273
54	0x3da44bb0	0.08022249
55	0xbdacedab	-0.08443769
56	0x3ddb8f36	0.10720675
57	0x3d926378	0.071478784
58	0x3dc0d47f	0.094155304
59	0xbc9e3493	-0.019312179
60	0xbd224caa	-0.039623894
61	0x3c0d8857	0.008638463
62	0x3d49e62c	0.049291775
63	0x3b6894d1	0.0035489092
64	0x3d8e08ba	0.06935258
65	0x3dae1e93	0.08501925
66	0x3df64799	0.12025375
67	0x3dbd0211	0.0922891
68	0x3d0c6cca	0.034283437
69	0xbd7a629c	-0.061129197
70	0x3bc6840a	0.0060582208
71	0xbca3bc3e	-0.019987222
72	0x3d54f061	0.051987056
73	0x3bc0d89b	0.0058851964
74	0x3dbff27a	0.093724206
75	0xbd4eabf4	-0.050456956
76	0x3d1ebea0	0.038756013
77	0x3e2793bb	0.16364948
78	0x3d2b36c8	0.04180029
79	0x3d510e1c	0.051038846
80	0x3d90852c	0.070566505
81	0x3dc6fece	0.09716569
82	0x3bf5612a	0.0074883895
83	0xbbb030e8	-0.005376924
84	0xbd366bb9	-0.044536326
85	0x3d70facf	0.05883294
86	0x3d00bddf	0.031431075
87	0x3da9c822	0.082901254
88	0xbd4ca9be	-0.049966566
89	0x3df049a3	0.11732795
90	0xbd40e9cb	-0.047097962
91	0xbcd641ff	-0.026154516
92	0xbd75dccb	-0.060025018
93	0xbc09a054	-0.008400042
94	0x3ccb3fdb	0.024810722
95	0x3d016f84	0.03160049
96	0x3dc69478	0.09696287
97	0x3d300336	0.042971812
98	0x3b28127a	0.0025645779
99	0xbd433f74	-0.047667935
100	0x3c80b51a	0.015711356
101	0x3cebb012	0.02877048
102	0x3ddef7cf	0.108871095
103	0xbd41b8bb	-0.047295313
104	0x3dc359dd	0.095386244
105	0x3d67ff83	0.05664016
106	0x3d1244f9	0.03571031
107	0x3c64773e	0.013944445
108	0xbd2b8566	-0.041875266
109	0x3d821857	0.06352299
110	0x3d7628a7	0.060097363
111	0xbd0d87fa	-0.034553505
112	0xbc30c644	-0.010789458
113	0x3c00062c	0.0078139715
114	0x3cec7cf7	0.028868182
115	0xbd6f8a87	-0.05848172
116	0x3d95a197	0.073062114
117	0x3d579a69	0.05263749
118	0x3d9742e4	0.07385805
119	0x3d9a1bd2	0.075248376
120	0xbd9c3e7e	-0.07629107
121	0x3d69d293	0.057085585
122	0xbc511c8a	-0.012763152
123	0x3b9ffa45	0.0048821294
124	0x3d9442a6	0.07239275
125	0x3d6aa542	0.05728651
126	0x3e136f87	0.14398013
127	0x3d8337be	0.06407116

fc2.weight f4 [64, 128]
0	0xbcef99bc	-0.029248111
1	0xbe00c70e	-0.12575933
2	0xbe69b62d	-0.22823401
3	0x3d6d9bad	0.058009792
4	0xbe9b03f5	-0.30276456
5	0x3df9741e	0.12180351
6	0xbdbeb241	-0.09311343
7	0xbd413cb5	-0.047177035
8	0xbe3e3581	-0.18575098
9	0xbe881b05	-0.26583114
10	0xbd29bade	-0.041437976
11	0xbe82a3ba	-0.25515538
12	0x3c18051b	0.009278561
13	0xbe1ffbcf	-0.15623401
14	0x3ca11ed5	0.019668022
15	0xbda0a210	-0.07843411
16	0xbdf3b83c	-0.11900374
17	0xbb862306	-0.0040935306
18	0xbdc33133	-0.095308684
19	0x3d3235cf	0.043508347
20	0xbe0007ef	-0.12503026
21	0xbeaedb86	-0.34151858
22	0x3d40698c	0.046975657
23	0xbd9201db	-0.0712926
24	0x3dcf6bf7	0.101280145
25	0xbcf52ab5	-0.02992759
26	0xbae66e45	-0.001758047
27	0xbd5cfde7	-0.053953078
28	0xbd621f06	-0.055205368
29	0xbea23076	-0.31677598
30	0x3c6f16d1	0.014592842
31	0x3c548344	0.012970749
32	0xbe821dc9	-0.2541335
33	0xbd8dc515	-0.06922356
34	0xbd9ebcd3	-0.07750859
35	0xbce57006	-0.028007519
36	0xbe8c9106	-0.27454394
37	0xbd3fbbbc	-0.046809897
38	0x3d719852	0.058983155
39	0xbec0bb52	-0.37642914
40	0xbd2f911f	-0.042863008
41	0xbd4d2982	-0.050088413
42	0xbe0f9b42	-0.1402407
43	0x3e0160ec	0.12634629
44	0x3d291295	0.041277487
45	0x3da20df1	0.07912815
46	0xbe1264d2	-0.14296272
47	0xbe117f0e	-0.14208624
48	0xbea08e48	-0.31358552
49	0x3a9bd803	0.0011889938
50	0x3cce4b57	0.02518241
51	0x3d44a6f8	0.048010796
52	0x3cb6e091	0.022323878
53	0xbd50d594	-0.050984934
54	0xbcb3c25d	-0.021943266
55	0xbdea001a	-0.114258006
56	0xbccac29c	-0.024751
57	0xbe455ac0	-0.192729
58	0x3d82e409	0.063911505
59	0xbe8ab218	-0.27089
60	0xbe49374e	-0.19650003
61	0x3dc715a8	0.097209275
62	0xbd07ab9b	-0.03312264
63	0xbe698bf7	-0.22807299
64	0xbc36e5ef	-0.011163219
65	0x3d972f57	0.07382076
66	0x3de66555	0.11249796
67	0xbe9065f9	-0.282028
68	0xbe4de55d	-0.20107026
69	0xbcd08e9d	-0.025458628
70	0xbeb10d9d	-0.345807
71	0xbd202a87	-0.039103057
72	0x3dd6e6e1	0.104932554
73	0xbd986e45	-0.07442907
74	0x3d533d78	0.051572293
75	0xbe88e630	-0.2673812
76	0xbe0a9d52	-0.13536575
77	0xbeccc1b8	-0.39991546
78	0xbbb589e9	-0.005540122
79	0xbd21675b	-0.039405208
80	0xbed80f40	-0.42199135
81	0xbea35a72	-0.31904942
82	0xbe3436b8	-0.17598999
83	0xbca39ea0	-0.0199731
84	0xbc3153fd	-0.010823247
85	0xbd7613e7	-0.060077574
86	0x3d7f193e	0.062279932
87	0x3d6afae5	0.057368178
88	0x3c8926eb	0.01674219
89	0x3d489846	0.048973344
90	0xbe9e5324	-0.30922806
91	0x3d77377b	0.060355645
92	0xbdabf514	-0.08396354
93	0xbcfb0c7b	-0.0306456
94	0xbe666be8	-0.225021
95	0x3d3a6442	0.04550577
96	0xbd6be5ea	-0.05759231
97	0xbc87eca5	-0.016592333
98	0xbd502e07	-0.050825145
99	0xbdec4e67	-0.115383916
100	0x3d76a7bf	0.06021857
101	0x3c437b22	0.011931213
102	0xbd821216	-0.06351106
103	0xbe0436d7	-0.12911545
104	0xbe85f55c	-0.26163757
105	0x3d1627b1	0.036658946
106	0xbe1b964e	-0.15194055
107	0x3db3d73a	0.087812856
108	0xbe23ba49	-0.15989031
109	0x3d87b864	0.066269666
110	0xbd0ad9b4	-0.033899024
111	0xbe1550e4	-0.14581639
112	0xbe6b4de8	-0.22978938
113	0xbdb4d675	-0.08829967
114	0x3b659ddc	0.0035036718
115	0x3a5e41cc	0.00084784324
116	0x3cfd9ba9	0.030958014
117	0xbe845688	-0.25847268
118	0xbc9a6c50	-0.018850476
119	0x3deed50d	0.1166173
120	0xbe227234	-0.15863878
121	0xbe8d0a89	-0.275471
122	0xbdd2e4fc	-0.102975816
123	0xbd458853	-0.048225712
124	0xbe37656d	-0.17909785
125	0xbe9d857a	-0.30765897
126	0x3d96658c	0.07343587
127	0x3db52f1f	0.08846878
128	0xbdb1a25e	-0.08673547
129	0xbd9bdb48	-0.07610184
130	0xbe817329	-0.25283173
131	0xbce6ca8e	-0.028172757
132	0xbe7be3ac	-0.24598569
133	0x3d8213c0	0.06351423
134	0xbe3cf051	-0.18451048
135	0x3d889817	0.06669634
136	0xbe85b5e8	-0.26115346
137	0xbea0b022	-0.3138438
138	0x3d97aeb0	0.07406366
139	0xbe6cb48d	-0.2311575
140	0x3c3cc48f	0.011521473
141	0xbe402e62	-0.18767694
142	0x3d94ecb1	0.07271708
143	0x3d3a71c7	0.045518663
144	0xbdaad227	-0.08340865
145	0xbd7a7496	-0.06114634
146	0xbe4fb01a	-0.20282021
147	0x3d4b4b6a	0.049632467
148	0xbdda2694	-0.106518894
149	0xbec11f0f	-0.37719008
150	0xbd8b5480	-0.068032265
151	0xbe19908f	-0.14996551
152	0x3d924a55	0.07143084
153	0xbd60eef0	-0.05491537
154	0xbd129edf	-0.035796043
155	0xbd17258e	-0.03690105
156	0xbd891cb5	-0.066949286
157	0xbe364c67	-0.17802583
158	0x3d46c61e	0.048528783
159	0x3d3469dc	0.044046268
160	0xbeb83c39	-0.35983446
161	0xbd2461f7	-0.04013249
162	0xbdd4241d	-0.103584506
163	0xbdb85801	-0.090011604
164	0xbe48d1cc	-0.19611281
165	0xbcc14fbe	-0.023597594
166	0xbbba1362	-0.00567858
167	0xbe998771	-0.29986146
168	0xbe365c17	-0.17808567
169	0x3da9f344	0.08298352
170	0xbe1d34c3	-0.15352158
171	0xbca7f975	-0.020504693
172	0xbc27d3ec	-0.010243397
173	0x3d7c09b7	0.061532702
174	0xbdd27e22	-0.10277964
175	0xbd9b10e5	-0.07571582
176	0xbe8fab4b	-0.28060374
177	0xbe166436	-0.14686665
178	0xbc0e8ecc	-0.008701038
179	0xbc1bb477	-0.009503475
180	0xbb948ae2	-0.0045331577
181	0x3afba6d0	0.0019199494
182	0xbbb78cbc	-0.0056014936
183	0xbd80d933	-0.062914275
184	0x3dc497e6	0.09599285
185	0xbe3ec508	-0.18629849
186	0xbd74d63d	-0.059774626
187	0xbeb46501	-0.3523331
188	0xbe6e4d2c	-0.23271626
189	0x3b98dbe4	0.004664885
190	0x3e142b78	0.14469707
191	0xbe9d9415	-0.3077704
192	0xbad5af2b	-0.0016302814
193	0x3d5a2e5a	0.05326686
194	0xbce9d235	-0.028542617
195	0xbe78c8ab	-0.24295299
196	0xbe1b4254	-0.15162021
197	0xbdebef1b	-0.11520215
198	0xbeaee01e	-0.34155363
199	0x3d44714b	0.047959607
200	0xbd8a3b24	-0.067495614
201	0xbcb66825	-0.022266457
202	0x3d8cf95f	0.06883501
203	0xbdf09338	-0.1174683
204	0xbe0d4888	-0.137972
205	0xbec38c6b	-0.38193068
206	0xbd1a1b26	-0.037623547
207	0x3d2062c7	0.0391567
208	0xbe91ca91	-0.28474858
209	0xbea75418	-0.32681346
210	0xbde78d50	-0.1130625
211	0xbdd9c91f	-0.10634064
212	0xbe1c55ea	-0.15267149
213	0xbd6a0ccc	-0.05714111
214	0x3d2f9563	0.042867076
215	0x3dd4a0f4	0.10382262
216	0xbd1a5183	-0.037675392
217	0x3dce90cb	0.10086211
218	0xbe85df16	-0.26146764
219	0x3b0a5e89	0.0021113476
220	0xbdd6b994	-0.10484615
221	0xbd3cec92	-0.04612405
222	0xbe6ff9d2	-0.23435143
223	0xbdb35876	-0.08757107
224	0x3cfdaddc	0.030966692
225	0xbcf8e202	-0.030381206
226	0xbd8e7398	-0.069556415
227	0xbe36ae2f	-0.17839883
228	0xbd031d05	-0.032010097
229	0xbd398554	-0.045293167
230	0x3d9eab2d	0.07747493
231	0xbd85b40d	-0.065284826
232	0xbe7bb33a	-0.24580088
233	0x3d23dbb5	0.04000445
234	0xbe10c8fe	-0.14139172
235	0x3d3866a0	0.045019746
236	0xbe7fc22b	-0.24976413
237	0x3b5c1f5d	0.003358803
238	0xbd05c0bb	-0.032654505
239	0xbe717675	-0.23580344
240	0xbd97c3e0	-0.07410407
241	0xbdd49d43	-0.10381558
242	0x3d95b79e	0.07310413
243	0xbcc0911b	-0.023506692
244	0xbc72e6b3	-0.014825511
245	0xbe8ec7f3	-0.27886924
246	0x3d93d561	0.07218433
247	0xbccef3a1	-0.025262656
248	0xbe6ead03	-0.23308186
249	0xbe4593f2	-0.19294718
250	0xbe303f63	-0.1721168
251	0xbdfd3179	-0.12362952
252	0xbe8c5188	-0.27405953
253	0xbe2e58ce	-0.17026064
254	0x3d9771b1	0.07394732
255	0xbc43f4c7	-0.011960215

fc2.bias f4 [64]
0	0x3dfeb16b	0.124361835
1	0x3e3d01a0	0.18457651
2	0x3dbd2380	0.09235287
3	0x3e69091a	0.22757378
4	0xbd138053	-0.03601105
5	0x3e5520fb	0.20813362
6	0x3e69f813	0.22848539
7	0x3e0a9957	0.13535057
8	0xbc4299c5	-0.011877482
9	0xbdb9103e	-0.09036301
10	0x3e19685e	0.14981219
11	0x3dfd7ed9	0.1237771
12	0x3d935c78	0.071953714
13	0xbd224a2d	-0.03962152
14	0x3dad2fb5	0.08456365
15	0x3e2b9962	0.1675773
16	0xbd818b36	-0.063253805
17	0x3d732528	0.059361607
18	0x3dac548b	0.08414563
19	0x3d343f05	0.044005413
20	0xbd9ea7a1	-0.077468164
21	0x3e7562b1	0.23963429
22	0xbc625051	-0.013813094
23	0x3ddff00a	0.10934456
24	0x3e452dab	0.19255702
25	0xbcdc7dc7	-0.026915444
26	0x3e502529	0.20326675
27	0x3e212d97	0.15740047
28	0xbe1a7c9f	-0.15086602
29	0xbd016cda	-0.03159795
30	0xbd6c45f4	-0.0576839
31	0xbd9bb20d	-0.0760232
32	0x3e125d14	0.14293319
33	0x3e015030	0.12628245
34	0x3db584e1	0.08863235
35	0x3e559644	0.20858103
36	0x3c31e825	0.01085857
37	0x3d962a1d	0.07332251
38	0xbd60e32c	-0.054904148
39	0x3cff54ce	0.031168368
40	0xbd6c6254	-0.05771096
41	0x3e0e6053	0.13903932
42	0xbd98fdd7	-0.07470291
43	0xbdabfc98	-0.08397788
44	0xbd68e936	-0.056863032
45	0x3e323fe3	0.17407183
46	0x3e08c91b	0.13357966
47	0xbda11fe2	-0.07867409
48	0x3d4030fb	0.04692171
49	0x3de499e3	0.11162164
50	0x3e601974	0.2188471
51	0xbc68a2c9	-0.014198967
52	0xbd1efe1f	-0.038816568
53	0xbe307848	-0.17233384
54	0x3e402eb4	0.18767816
55	0xbd5d67b9	-0.054053996
56	0x3a94d86e	0.0011356005
57	0x3d5584b0	0.052128494
58	0xbd462258	-0.048372597
59	0x3e1da560	0.15395117
60	0x3db82a47	0.08992439
61	0x3e22d7af	0.1590259
62	0x3ca22920	0.019795
63	0xbd39f815	-0.045402605

policy_head.weight f4 [110, 64]
0	0xbd1df1bc	-0.038560614
1	0x3e2b1a66	0.16709289
2	0x3d24b08e	0.04020744
3	0xbcc05ffb	-0.023483267
4	0x3e3ef8a0	0.1864953
5	0x3df005ca	0.11719854
6	0x3dc99be3	0.09844186
7	0x3dc3f6cf	0.095685594
8	0x3d1478fd	0.036248196
9	0x3aed6d58	0.0018114252
10	0x3c83940b	0.016061803
11	0x3ddaa2d0	0.10675585
12	0x3c027312	0.007962005
13	0x3dc01f1a	0.09380932
14	0x3e2fde0f	0.17174552
15	0xbcc555a7	-0.024088694
16	0x3d7c8ece	0.061659627
17	0xb943decd	-0.00018679649
18	0xbde95435	-0.11393014
19	0x3d94eb9d	0.07271502
20	0x3dc42622	0.09577586
21	0x3b9df276	0.0048201634
22	0x3e3d1468	0.18464816
23	0x3e4ba7c7	0.1988822
24	0x3e2f96d2	0.17147377
25	0x3dceb3c3	0.100928806
26	0x3e18d19a	0.14923707
27	0x3d8d6767	0.06904488
28	0x3e8ba97c	0.27277744
29	0xbceca83b	-0.028888812
30	0xbdea4e64	-0.11440733
31	0xbe36cd5f	-0.1785178
32	0x3de3b9d6	0.1111943
33	0xbc29513d	-0.01033431
34	0x3ccf1899	0.025280284
35	0xbd908ffb	-0.07058712
36	0x3e5e1499	0.21687545
37	0xbd8af83d	-0.06785629
38	0xbd1ea459	-0.038730953
39	0xbd0d92e3	-0.03456391
40	0x3da511fb	0.0806007
41	0xbdf98163	-0.12182882
42	0x3d5b03f4	0.053470567
43	0xbd8dea2a	-0.06929429
44	0xbd765ba5	-0.060145993
45	0x3e383f06	0.17992792
46	0xbde11ef9	-0.10992236
47	0xbdad0961	-0.084490545
48	0x3d5b28ab	0.05350558
49	0xbdf98c72	-0.12184991
50	0x3ddd42fd	0.108037926
51	0x3e03f353	0.1288579
52	0x3dde7180	0.10861492
53	0x3d565402	0.05232621
54	0x3c666331	0.014061735
55	0x3e2baa09	0.16764082
56	0x3e4c4ba6	0.19950733
57	0x3d9aee48	0.0756498
58	0xbd32f12e	-0.043687038
59	0x3df0dd26	0.11760931
60	0xbe667b50	-0.22507977
61	0xbd160a77	-0.036631074
62	0x3db116ac	0.086469024
63	0x3dea81ee	0.11450563
64	0x3d114ca6	0.03547349
65	0xbc7d9ac8	-0.015478797
66	0x3dd090ed	0.101838924
67	0x3db07b52	0.086172715
68	0x3c99eb2a	0.018788893
69	0x3d7b5198	0.06135711
70	0x395865e9	0.0002063733
71	0x3d83c35d	0.06433747
72	0x3e4e7dfd	0.20165248
73	0x3d5fa1e1	0.05459774
74	0xbc253b2e	-0.01008491
75	0xbb1563bd	-0.0022795044
76	0xbc898c63	-0.016790574
77	0x3d69613e	0.056977503
78	0x3a0f9a86	0.0005478043
79	0x3e337422	0.1752477
80	0x3de081fc	0.109622926
81	0x3be56073	0.007000023
82	0xbd7a5e20	-0.06112492
83	0xbc03f3ed	-0.008053762
84	0xbd7c7df9	-0.061643574
85	0x3d33420c	0.04376416
86	0x3d77fcfd	0.060544003
87	0x3e399b4b	0.18125646
88	0x3def39af	0.11680924
89	0x3da51f2c	0.08062586
90	0x3e236040	0.15954685
91	0x3d8e0aed	0.06935678
92	0x3e6d942e	0.23201057
93	0x3dd8b58a	0.10581501
94	0x3d6c0a8f	0.057627257
95	0xbe95bf25	-0.29247394
96	0xbd34e54f	-0.044164
97	0x3d39afb1	0.045333568
98	0x3e0ddcf2	0.13853815
99	0x3c921105	0.017830381
100	0x3ddc9a4d	0.10771618
101	0x3cd13c10	0.025541335
102	0x3dd73b00	0.105093
103	0x3c7b9d8d	0.015357387
104	0xbbdf0023	-0.006805436
105	0x3caf64d5	0.021410385
106	0x3b455670	0.0030111335
107	0xbc97d580	-0.018534422
108	0x3dddbfba	0.108275846
109	0x3a79bac9	0.00095264293
110	0x3d7705ea	0.060308374
111	0x3d98fda4	0.07470253
112	0xbd8666ac	-0.06562552
113	0xbe90d91d	-0.28290644
114	0x3e0cc86a	0.13748327
115	0x3e4c5b0d	0.19956608
116	0x3d75c377	0.060000863
117	0xbd082da2	-0.033246644
118	0x3c6c3f4b	0.014419387
119	0xbb11ebb6	-0.0022265739
120	0x3e968ddf	0.29405114
121	0x3e256c37	0.16154562
122	0xbda469ca	-0.0802799
123	0x3d6a5eeb	0.057219427
124	0xbe2ebd9f	-0.17064522
125	0x3e095f4a	0.13415256
126	0xbbdc5ea5	-0.0067251497
127	0x3df52ec0	0.119718075
128	0x3e268b56	0.1626409
129	0x3d99c51b	0.07508298
130	0x3e13b16e	0.14423153
131	0xbd903d90	-0.07042992
132	0xbd480f5d	-0.048842777
133	0x3dc923d7	0.09821289
134	0x3e285bf1	0.16441323
135	0x39bb535f	0.00035729536
136	0xbb3cd5d4	-0.0028813975
137	0xbd2bb291	-0.04191834
138	0xbd88b6dc	-0.06675503
139	0xbd99b726	-0.07505636
140	0x3e1f49cf	0.155555
141	0xbda1a424	-0.078926355
142	0x3db382f5	0.087652124
143	0x3cf84e56	0.030310791
144	0xbdad78d4	-0.08470312
145	0xbd8c9f83	-0.06866362
146	0xbd112b98	-0.035441965
147	0x3d4ac512	0.049504347
148	0x3db6eed7	0.08932274
149	0x3dd8b774	0.10581866
150	0xbd9b3d2b	-0.07580026
151	0x3de4a69a	0.11164589
152	0xbda6ca0c	-0.08144006
153	0x3c9b7a12	0.018979106
154	0x3da48c60	0.08034587
155	0x3d522c27	0.05131164
156	0xbdfdfeed	-0.12402139
157	0xbdb73efe	-0.08947562
158	0xbcd43746	-0.025905263
159	0x3e45a90c	0.19302768
160	0x3e4b36bf	0.19845103
161	0xbdb383a4	-0.08765343
162	0x3d89d07f	0.067292206
163	0x3e056d65	0.13030012
164	0x3d1b0fb9	0.03785679
165	0x3df64eff	0.12026786
166	0x3c5511cc	0.013004731
167	0x3d6c75df	0.057729598
168	0xbc839ad8	-0.016065046
169	0x3e23a437	0.15980612
170	0x3c3bc453	0.011460382
171	0x3a89e70a	0.0010521126
172	0x3dc26c7e	0.094933495
173	0x3e053d74	0.13011724
174	0x3c98212a	0.018570501
175	0x3b8a7f3e	0.004226594
176	0xbdd2f65f	-0.10300898
177	0x3ddd782c	0.108139366
178	0xbd4561e2	-0.04818905
179	0xbcef55f7	-0.029215796
180	0x3d9062f5	0.070501246
181	0xbdd58c84	-0.10427192
182	0x3e575019	0.21026649
183	0xbdd02863	-0.10163953
184	0x3d9d1bf9	0.07671351
185	0x3d29f5f9	0.041494343
186	0x3de5492e	0.111955985
187	0x3e33e124	0.17566353
188	0x3e4b65b2	0.19863012
189	0x3e1634f8	0.14668643
190	0x3ddfc812	0.10926832
191	0x3d6fbc6a	0.058529295
192	0x3e2907cc	0.1650688
193	0x3dc1b643	0.09458592
194	0x3e58880f	0.21145652
195	0xbe82cc85	-0.2554666
196	0x3d992c13	0.074791096
197	0x3d3c6cde	0.04600226
198	0x3ca13854	0.01968018
199	0xbe12c85e	-0.14334247
200	0x3c73c2b1	0.014877961
201	0xbd79aca7	-0.06095567
202	0x3e24cd66	0.16093978
203	0xbe5ab940	-0.2135973
204	0x3d9dad24	0.076990396
205	0xbdac781f	-0.08421349
206	0xbdbd5453	-0.09244599
207	0x3e19f89f	0.15036248
208	0xbdaa65a2	-0.08320166
209	0xbddde132	-0.10833968
210	0xbdaaa8a4	-0.08332947
211	0xbeaea6f1	-0.3411174
212	0x3be1dd5a	0.0068928422
213	0x3e09603d	0.13415618
214	0xbdae11f5	-0.08499519
215	0xbe39bc39	-0.18138207
216	0xbdf6e160	-0.120547056
217	0xbd04fe68	-0.032469183
218	0xbd34207a	-0.043976285
219	0xbd9f8974	-0.07789889
220	0xbe35b7aa	-0.17745844
221	0x3d129a19	0.03579149
222	0x3d457e48	0.048216134
223	0x3f00172b	0.5003535
224	0x3d86f71d	0.06590102
225	0x3d7319ec	0.059350893
226	0xbda7941d	-0.08182547
227	0x3ded9993	0.116015576
228	0x3d357834	0.044304088
229	0x3d8f9868	0.07011491
230	0x3c89e91c	0.016834788
231	0x3cacd720	0.021098673
232	0x3da6f8fd	0.081529595
233	0x3cb6e133	0.02232418
234	0xbdb04c38	-0.086082876
235	0xbc5ce3da	-0.013482058
236	0xbb0fae1b	-0.0021923843
237	0xbe03f287	-0.12885486
238	0x3e88e608	0.26738
239	0xbd11cc52	-0.035595246
240	0x3db0d2fe	0.086339936
241	0x3efbb3eb	0.49160704
242	0xbd2eb9bb	-0.042657595
243	0xbbfe36b6	-0.007757987
244	0xbcedf527	-0.029047562
245	0x3da5966e	0.08085333
246	0x3ea1fc25	0.31637684
247	0xbd43588a	-0.04769186
248	0xbc839b7b	-0.01606535
249	0xbb24b3c4	-0.0025131563
250	0x3dc3ebe4	0.09566477
251	0x3e8f41a5	0.2797977
252	0x3eeb03cf	0.45901343
253	0xbd96e00c	-0.07366952
254	0x3dd581cc	0.104251474
255	0x3ebb19b7	0.36543056

policy_head.bias f4 [110]
0	0xbe4a9074	-0.19781667
1	0xbec3a93b	-0.3821505
2	0x3e38bf66	0.18041763
3	0x3e281c69	0.16417088
4	0xbea7e7cf	-0.32794043
5	0xbe9633e8	-0.29336476
6	0x3dca9852	0.09892334
7	0xbc8dc6a4	-0.017306633
8	0xbb36cffd	-0.0027894967
9	0x3d6ca959	0.05777869
10	0xbd5ba761	-0.05362642
11	0xbd65c9f2	-0.056100793
12	0xbd5951f5	-0.053056676
13	0xbb53346d	-0.0032227293
14	0x3e12338d	0.14277478
15	0x3dd53de3	0.104121946
16	0x3de13782	0.109969154
17	0x3def1af2	0.11675061
18	0x3dbdd046	0.09268241
19	0xbc09ca41	-0.0084100375
20	0xbda88d15	-0.08230034
21	0x3d52127d	0.051287163
22	0xbe060414	-0.13087493
23	0x3daee99b	0.085406505
24	0x3dd03ce6	0.101678655
25	0x3db6dba5	0.089286126
26	0x3ddd0340	0.107916355
27	0xbbdd995b	-0.006762666
28	0x3c3d5e52	0.011558132
29	0x3c32f16c	0.010921817
30	0x3d992dbe	0.07479428
31	0xbc90bc01	-0.017667772
32	0x3db8039c	0.089850634
33	0x3d27c1fa	0.040956475
34	0xbd8b28c1	-0.067948826
35	0x3db71eb8	0.08941406
36	0xbd7a57a4	-0.061118737
37	0x3d8b5ec6	0.06805186
38	0xbd73bd22	-0.059506543
39	0xbc9ef4ec	-0.019403897
40	0xbc95566e	-0.01822969
41	0x3cb3588e	0.021892812
42	0xbd987bbe	-0.07445477
43	0xbd8145c9	-0.063121386
44	0xbd273386	-0.04082062
45	0xbdce8267	-0.10083466
46	0x3b85fd03	0.0040889992
47	0xbd8fd94f	-0.0702387
48	0x3dd979ef	0.1061896
49	0x3da342c8	0.07971722
50	0x3d187ec5	0.03723027
51	0x3d3e3e19	0.04644594
52	0x3df5ee4e	0.12008344
53	0x3dc5147b	0.09623047
54	0xbdb4cb16	-0.08827798
55	0xbd6e2c84	-0.058147922
56	0x3de50704	0.11182979
57	0x3dfb426a	0.12268527
58	0xbe458964	-0.19290692
59	0xbe3a42f8	-0.18189609
60	0xbe2b9d94	-0.1675933
61	0xbeb9bc85	-0.3627664
62	0xbe8946a9	-0.26811722
63	0xbe6cfaa6	-0.2314249
64	0xbe9d7828	-0.30755734
65	0xbe0ed261	-0.1394744
66	0xbe1365ae	-0.14394256
67	0xbe9b41c7	-0.30323622
68	0xbe4d494c	-0.20047492
69	0xbe6610d0	-0.22467351
70	0xbe8ea294	-0.27858412
71	0xbe248f98	-0.16070402
72	0xbe76706e	-0.24066326
73	0xbeafe1bd	-0.34351912
74	0xbeb82cd8	-0.35971713
75	0xbe499ae2	-0.1968799
76	0xbe95aaa5	-0.29231754
77	0xbe5ad8d4	-0.21371776
78	0xbe5d3394	-0.21601707
79	0xbeba0d51	-0.36338285
80	0xbe6bbd11	-0.23021342
81	0xbe1cb2fa	-0.15302649
82	0xbe4caf25	-0.19988687
83	0xbe6ec412	-0.23316982
84	0xbe869617	-0.26286384
85	0xbe902108	-0.281502
86	0xbeadceb0	-0.33946753
87	0xbe9b12d4	-0.30287802
88	0xbe435709	-0.1907617
89	0xbe135f3b	-0.14391796
90	0xbe2c7f09	-0.16845335
91	0xbe133ec0	-0.14379406
92	0xbe0abea7	-0.1354929
93	0xbe17b457	-0.14814888
94	0xbe79e19f	-0.24402474
95	0xbe6f0f96	-0.2334579
96	0xbe27bcff	-0.1638069
97	0xbe9744b9	-0.2954462
98	0xbe4b90f5	-0.19879515
99	0xbe6fb409	-0.23408522
100	0xbea2b1f4	-0.31776392
101	0xbe94449b	-0.28958592
102	0xbeb87943	-0.36030015
103	0xbe1993b8	-0.14997756
104	0xbe3ff1d5	-0.18744595
105	0xbe9b0ac5	-0.30281654
106	0xbe618514	-0.22023422
107	0xbea87860	-0.3290434
108	0xbe11bda1	-0.14232494
109	0xbe832e60	-0.2562132

value_head.weight f4 [1, 64]
0	0x3ddaa115	0.10675255
1	0x3d6ab494	0.05730112
2	0x3dceac04	0.10091403
3	0x3dfa9241	0.12234927
4	0xbe01211a	-0.12610283
5	0x3daf7cb1	0.08568705
6	0x3d81d187	0.06338792
7	0xbd6026bd	-0.054724444
8	0xbde6a092	-0.11261095
9	0xbd4c14a9	-0.04982439
10	0x3dafad8f	0.085780255
11	0x3db08061	0.08618236
12	0x3dd1d182	0.102450386
13	0xbe40a6b7	-0.18813597
14	0x3dd46405	0.1037064
15	0x3d8d9694	0.06913486
16	0xbd9f14f7	-0.077676706
17	0xbc7ed8b7	-0.0155545985
18	0xbdd20fc2	-0.10256912
19	0x3c807b23	0.015683716
20	0x3ddfbaab	0.10924276
21	0x3d6d12ee	0.05787938
22	0xbe3bac80	-0.18327522
23	0x3dec8f6b	0.11550792
24	0x3d8e98b8	0.069627225
25	0xbda29dbe	-0.07940243
26	0x3da228bf	0.07917928
27	0x3dd2e251	0.10297073
28	0xbe9fc0e9	-0.31201866
29	0xbdcf5319	-0.101232715
30	0xbda95d2f	-0.082697265
31	0x3c6990d3	0.01425572
32	0x3d968dc0	0.073512554
33	0x3d93d97b	0.072192155
34	0x3d0ae782	0.03391219
35	0x3e123d58	0.14281213
36	0xbe70c9c7	-0.23514472
37	0xbe0940d0	-0.1340363
38	0xbdc4a5aa	-0.096019104
39	0x3da35494	0.07975116
40	0x3a0b07d7	0.00053035974
41	0x3bed9dc7	0.0072514745
42	0xbd7f2cee	-0.062298708
43	0xbda9317c	-0.082613915
44	0xbc9fdc03	-0.01951409
45	0x3db2ecd1	0.087365754
46	0x3cd22ece	0.025657084
47	0xbd0ee463	-0.034885775
48	0xbc0b3d39	-0.008498483
49	0x3ccadce0	0.024763525
50	0x3deb0cdc	0.11477062
51	0xbe597865	-0.21237333
52	0x3dbc2c5e	0.0918815
53	0xbe083c7f	-0.13304327
54	0x3d54d821	0.05196393
55	0xbc577a49	-0.013151714
56	0xbe33a740	-0.1754427
57	0xbe863cf4	-0.2621838
58	0xbd0251dc	-0.03181635
59	0x3d5988aa	0.05310885
60	0x3d0e884c	0.03479795
61	0x3d2b071a	0.04175482
62	0xbd13ef58	-0.036116928
63	0xbb90eeaf	-0.0044229846

exp_avg f4 [128, 260]
0	0xba45f768	-0.000755182
1	0x39eeb3d7	0.0004552889
2	0xbaa24331	-0.0012379644
3	0x3b35c22c	0.0027734144
4	0xba178c3d	-0.000578109
5	0x3a2043c7	0.0006113615
6	0xb9e79638	-0.00044171675
7	0x398cbcfb	0.00026843682
8	0xbaefd7b7	-0.0018298541
9	0xba8f063f	-0.0010911896
10	0x3b0d34d1	0.0021546374
11	0xb6b1f549	-5.303566e-06
12	0xbb2bfdb0	-0.0026243739
13	0xb9ac4ccf	-0.00032863623
14	0xb9f50fcd	-0.00046741814
15	0xba0bfef5	-0.0005340421
16	0xba384da9	-0.0007030615
17	0xba8d7133	-0.0010791182
18	0xba8f0cb6	-0.0010913822
19	0xba590f74	-0.0008280196
20	0x3ae73e92	0.0017642549
21	0x3a5eaef8	0.00084947003
22	0x3af1ce0d	0.0018448249
23	0xba1060f0	-0.0005507609
24	0xbb0b3b6b	-0.0021245133
25	0xbabc82d3	-0.001438225
26	0xbadb2166	-0.0016718328
27	0x3986b8fe	0.00025696302
28	0xbae78b28	-0.0017665373
29	0xba75f1db	-0.00093820476
30	0x39c1c231	0.00036956512
31	0xb9cdd80d	-0.00039261617
32	0x391298f4	0.00013980624
33	0xb90a3dea	-0.0001318377
34	0x3a8cd172	0.0010743572
35	0xbb10fd5f	-0.0022123677
36	0xbb3b1957	-0.002854904
37	0x3a447b9e	0.0007495227
38	0xb7890754	-1.6335085e-05
39	0x39c2d909	0.00037164267
40	0xbb11fcaa	-0.0022275844
41	0x39b8db30	0.00035258522
42	0xbb62a555	-0.003458341
43	0xba80c040	-0.000982292
44	0xba968c20	-0.0011485852
45	0xb9df8587	-0.0004263336
46	0xba39b52a	-0.00070841855
47	0xbaa4b49d	-0.0012566034
48	0x3b33393c	0.0027347347
49	0x3b25b14c	0.002528268
50	0xb9fbe3ab	-0.00048044077
51	0x3b600a5e	0.0034185867
52	0x00000004	6e-45
53	0x00000004	6e-45
54	0xa31f2831	-8.627918e-18
55	0xb854160e	-5.056528e-05
56	0x38ed9a36	0.00011329765
57	0x39925955	0.00027913848
58	0xb920eb4f	-0.00015346448
59	0x37513acb	1.247106e-05
60	0xb92521af	-0.00015748174
61	0x38b52ef3	8.6394975e-05
62	0x378ba13c	1.6645172e-05
63	0xb8900eb8	-6.869197e-05
64	0xb7f0646d	-2.8656994e-05
65	0x00000004	6e-45
66	0x00000004	6e-45
67	0xb08472eb	-9.636926e-10
68	0xb8ba13c9	-8.8728564e-05
69	0xb8901c2b	-6.871702e-05
70	0xb94a491f	-0.00019291461
71	0xb8fda1e9	-0.00012094138
72	0xb7bb02d6	-2.2293458e-05
73	0xb95d6e56	-0.00021117306
74	0x3782f7ad	1.561254e-05
75	0xb8b9191c	-8.8261644e-05
76	0x3871bf18	5.7636847e-05
77	0xb79f4b14	-1.8989238e-05
78	0x80000004	-6e-45
79	0x00000004	6e-45
80	0x00000004	6e-45
81	0xb8f19d54	-0.0001152108
82	0xb8ad6d7c	-8.269676e-05
83	0x381c12a1	3.7210648e-05
84	0xb9313d6b	-0.00016902915
85	0xb9ab5427	-0.0003267836
86	0xb94a2104	-0.0001927652
87	0xb8f5b8e5	-0.0001171695
88	0xb86a721c	-5.589622e-05
89	0x3a1ed919	0.0006059572
90	0xba536c06	-0.0008065108
91	0x00000004	6e-45
92	0x80000004	-6e-45
93	0x357ed45e	9.493141e-07
94	0xb83a9ea5	-4.4493605e-05
95	0x3a6fb479	0.0009144019
96	0xb8e02323	-0.00010687697
97	0xb8da4a93	-0.000104089406
98	0xb90d361a	-0.00013466962
99	0xb8253899	-3.9391776e-05
100	0x38787854	5.9239872e-05
101	0xb89d1187	-7.489608e-05
102	0x36af687b	5.2275695e-06
103	0xb9078a7e	-0.00012926196
104	0xba448db2	-0.0007497921
105	0xba2c1748	-0.00065647485
106	0x39b4848e	0.00034431036
107	0xbad01de8	-0.0015878053
108	0x3986f359	0.0002573978
109	0xbae6259a	-0.0017558814
110	0x3afd9902	0.0019347968
111	0xb9015bcd	-0.00012336597
112	0x3a7ccc37	0.00096434675
113	0x385f11e2	5.3183998e-05
114	0xb9ab3c2f	-0.00032660502
115	0x3a0300a8	0.0004997351
116	0xba435952	-0.00074519694
117	0x37600428	1.3352408e-05
118	0xb5707601	-8.9578685e-07
119	0xba68fc37	-0.00088876806
120	0xba2c66a2	-0.0006576573
121	0xba2a59d5	-0.00064983714
122	0xb98c2442	-0.00026729895
123	0x3b14d5dd	0.002271048
124	0xbaac1649	-0.00131292
125	0x3ab5d7d6	0.0013873528
126	0x39cb328a	0.00038756832
127	0xb936536d	-0.00017387951
128	0xba168602	-0.00057420146
129	0x3a0815ae	0.0005191219
130	0xb9913b7e	-0.0002770088
131	0x39dbf041	0.00041949938
132	0x39b1f2e0	0.00033941027
133	0xb7ccc4d0	-2.4410343e-05
134	0x387083ed	5.7343324e-05
135	0xba039bff	-0.00050204986
136	0xba3c070d	-0.00071726815
137	0xb81e6460	-3.7763617e-05
138	0x3ae10b20	0.0017169453
139	0xba7a9389	-0.00095587276
140	0xba94618b	-0.0011320574
141	0xb8e4d811	-0.00010912133
142	0x3b06af51	0.0020551274
143	0x3a82ee55	0.0009989241
144	0xb7947ab1	-1.7700107e-05
145	0xba9bc956	-0.0011885564
146	0x3a386de3	0.00070354174
147	0xba2de5fe	-0.0006633698
148	0xb94e8726	-0.00019696038
149	0xb99d128c	-0.00029959192
150	0xb9309ec5	-0.00016843814
151	0xba257836	-0.00063121633
152	0xba5b16f5	-0.0008357608
153	0xba132c95	-0.0005614248
154	0x388004c1	6.104401e-05
155	0xb832c6ac	-4.2623535e-05
156	0xb9819883	-0.00024718427
157	0xba8fc03a	-0.0010967322
158	0xb9c1bcc6	-0.00036952476
159	0xba36c0a8	-0.0006971457
160	0x39f3b9cd	0.00046487004
161	0x39d5966e	0.00040738605
162	0x38602f7d	5.344999e-05
163	0xba1008db	-0.00054944836
164	0x3a376a2c	0.0006996717
165	0xb8f08510	-0.000114688766
166	0x38ade765	8.2923834e-05
167	0x3843dd35	4.6697638e-05
168	0xba62ac17	-0.0008646859
169	0xba25dbbb	-0.0006326993
170	0xb806265d	-3.198382e-05
171	0xb980f518	-0.00024596672
172	0xba07cc89	-0.00051803194
173	0xba533f33	-0.00080584286
174	0xb9afd159	-0.00033534577
175	0xb9cd54e0	-0.00039163884
176	0xb56f52e2	-8.915505e-07
177	0x37e05bae	2.6745573e-05
178	0xb9db3d73	-0.00041816718
179	0xb7af8a34	-2.0925982e-05
180	0xb88e11cd	-6.774403e-05
181	0x388599c7	6.3705775e-05
182	0x38408969	4.590434e-05
183	0x35b6bddb	1.3615312e-06
184	0xb9ad6757	-0.00033074126
185	0xbae7b49e	-0.001767773
186	0x3974cc03	0.00023345654
187	0xb72cb0ab	-1.0293133e-05
188	0x3a02b29c	0.00049857213
189	0xbad0580d	-0.0015895382
190	0x38c9eeed	9.62893e-05
191	0xb78ebbc8	-1.7015162e-05
192	0xb9160223	-0.00014305911
193	0xb9047b35	-0.00012634399
194	0xb91d8fe8	-0.00015026296
195	0xb8639fc0	-5.4269796e-05
196	0xb97298b8	-0.0002313581
197	0xb952d543	-0.00020106607
198	0xb9eff8e0	-0.0004577106
199	0xba8ec063	-0.0010891076
200	0xb9d6eb34	-0.000409925
201	0x3907d4b5	0.00012953843
202	0x376710d5	1.3772592e-05
203	0x3b29c228	0.002590308
204	0x368dc34f	4.2248644e-06
205	0xb7d03fc0	-2.4825218e-05
206	0x373e9ae0	1.1360942e-05
207	0x38b2ceac	8.526197e-05
208	0x3942bdd0	0.00018571992
209	0xb98cc832	-0.00026852038
210	0xb99efedf	-0.00030326002
211	0xbb035b30	-0.0020043366
212	0xbaef0fc2	-0.0018238949
213	0xba91492e	-0.0011084431
214	0xbb41f43c	-0.0029595038
215	0xba99f2c2	-0.0011745321
216	0xbaa2f039	-0.0012431211
217	0xba031bc5	-0.00050013914
218	0xbb64fc42	-0.0034940396
219	0xbb059eaa	-0.002038876
220	0x3b30b75a	0.0026964755
221	0xba221fd9	-0.0006184555
222	0xba8bbdbf	-0.0010661407
223	0x38d69f01	0.00010233932
224	0x39d242ca	0.00040104083
225	0x3a87ee84	0.0010370766
226	0x39a8092a	0.00032050285
227	0xbb23a2d0	-0.002496887
228	0xbb02b7a3	-0.0019945882
229	0xbb6d29f5	-0.0036188338
230	0xbb5e9412	-0.0033962769
231	0xba400cac	-0.0007326107
232	0x3a95bc05	0.0011423832
233	0xba356ad1	-0.0006920519
234	0x39b06c21	0.00033649898
235	0xbb13147a	-0.0022442625
236	0x3948ba83	0.00019142967
237	0x3aa7a981	0.0012791605
238	0xbb0c8425	-0.002144107
239	0xba37284b	-0.00069869
240	0xbaacd22f	-0.0013185198
241	0x3a082e03	0.00051948446
242	0xbb8ba215	-0.004261265
243	0x3ae38a0a	0.0017359864
244	0x3b2bab8d	0.0026194782
245	0xbb300f35	-0.0026864533
246	0xbb2d91be	-0.0026484574
247	0xbb3cec46	-0.0028827353
248	0x3a6e9ac2	0.000910204
249	0xba0b073b	-0.00053035066
250	0x3add95f4	0.0016905651
251	0x398521d0	0.0002539293
252	0x399b243b	0.00029590898
253	0xba6301ba	-0.000865962
254	0xba1513cb	-0.00056868483
255	0xbb121d64	-0.002229535

exp_avg_sq f4 [128, 260]
0	0x35be7e5f	1.4192882e-06
1	0x3715c0a7	8.925947e-06
2	0x358d4f3d	1.052838e-06
3	0x3663d16c	3.3947535e-06
4	0x35a4dc2c	1.2283031e-06
5	0x3649e6a8	3.0085594e-06
6	0x36c15206	5.761397e-06
7	0x37665551	1.3728933e-05
8	0x36a846df	5.0150406e-06
9	0x37a6eba5	1.9898473e-05
10	0x371810ce	9.063819e-06
11	0x36adb521	5.176888e-06
12	0x36dedc98	6.641796e-06
13	0x37031b20	7.814524e-06
14	0x36acd280	5.150505e-06
15	0x3610a7fe	2.1555456e-06
16	0x35cd2319	1.5283905e-06
17	0x366872c3	3.4637494e-06
18	0x375f2b68	1.3301942e-05
19	0x3658d61b	3.2311134e-06
20	0x36344b1e	2.6865814e-06
21	0x37309351	1.0524717e-05
22	0x36885b34	4.0637333e-06
23	0x371bba27	9.282062e-06
24	0x37041b33	7.874146e-06
25	0x3792be8b	1.7493285e-05
26	0x372bbb11	1.0235949e-05
27	0x36a5801c	4.932297e-06
28	0x36284bab	2.5077995e-06
29	0x361970fe	2.2864547e-06
30	0x3650a97a	3.1093064e-06
31	0x36ba7a22	5.55745e-06
32	0x3683a09b	3.922801e-06
33	0x36ca7e4b	6.0347716e-06
34	0x37706b28	1.4330064e-05
35	0x36e74da3	6.8933746e-06
36	0x374aa325	1.2078123e-05
37	0x36fe7087	7.58289e-06
38	0x3762d2f6	1.3519768e-05
39	0x36ace8db	5.1531074e-06
40	0x37151d3e	8.887901e-06
41	0x35f56a6c	1.8284895e-06
42	0x36871156	4.0253317e-06
43	0x36416b4b	2.8821694e-06
44	0x372bc8b1	1.0239121e-05
45	0x361f6a40	2.3754692e-06
46	0x36d8592d	6.447683e-06
47	0x36c6db68	5.926402e-06
48	0x3720b822	9.579615e-06
49	0x370f4393	8.539198e-06
50	0x370f4583	8.539649e-06
51	0x372e08ec	1.03732855e-05
52	0x2be65423	1.6365836e-12
53	0x2bd82e19	1.5360518e-12
54	0x31283858	2.4479245e-09
55	0x33e13b20	1.0488134e-07
56	0x34f021d3	4.4728094e-07
57	0x3511afc9	5.427251e-07
58	0x3480ef1e	2.4015839e-07
59	0x34ff4573	4.7547982e-07
60	0x3557aab8	8.034217e-07
61	0x3491c1f0	2.7149463e-07
62	0x357ab1ac	9.3390804e-07
63	0x35289031	6.2794703e-07
64	0x366c69c4	3.5228304e-06
65	0x2c4e2aaa	2.9298044e-12
66	0x2dfbee0e	2.8641114e-11
67	0x31b449e5	5.2470903e-09
68	0x33f3146e	1.13192854e-07
69	0x34f56061	4.570493e-07
70	0x3539a91a	6.9163946e-07
71	0x34cf436b	3.8605808e-07
72	0x34e492bb	4.257507e-07
73	0x35097370	5.120446e-07
74	0x350853b0	5.078573e-07
75	0x3523b2d5	6.0982467e-07
76	0x3462a5dc	2.110823e-07
77	0x34d6a5e7	3.9981316e-07
78	0x2d087600	7.756906e-12
79	0x2cc2b294	5.533638e-12
80	0x2ffb764c	4.574069e-10
81	0x345e98fd	2.0731018e-07
82	0x34ac8ca9	3.213984e-07
83	0x3492dda2	2.7355878e-07
84	0x3530b91d	6.5834485e-07
85	0x34afe6a1	3.2764095e-07
86	0x34fbfa75	4.6934625e-07
87	0x34e0ee7a	4.1896766e-07
88	0x35212215	6.002677e-07
89	0x35695c8c	8.693394e-07
90	0x34b9bd29	3.4596567e-07
91	0x2c24cb75	2.3418743e-12
92	0x2c0acd20	1.9724847e-12
93	0x3381eee5	6.050485e-08
94	0x3422e71f	1.5171507e-07
95	0x3436fa58	1.7041145e-07
96	0x34816f06	2.4108903e-07
97	0x34d9d4eb	4.0574318e-07
98	0x36f6d121	7.355717e-06
99	0x34b86651	3.4347116e-07
100	0x35230b80	6.0738967e-07
101	0x3541b8e6	7.2167165e-07
102	0x352cc2dc	6.435855e-07
103	0x34b898ec	3.4383936e-07
104	0x353719c8	6.821033e-07
105	0x36635674	3.3875958e-06
106	0x35c073d2	1.4338823e-06
107	0x3610c34c	2.157135e-06
108	0x367c802a	3.7625528e-06
109	0x36579486	3.2123949e-06
110	0x37637bb9	1.3559061e-05
111	0x3678965d	3.7042403e-06
112	0x36af3972	5.222094e-06
113	0x360079bf	1.9144352e-06
114	0x37431315	1.1627349e-05
115	0x36c2f8d5	5.8106184e-06
116	0x364dcf08	3.0667888e-06
117	0x34704e4e	2.2380229e-07
118	0x344c531b	1.9029214e-07
119	0x360cac12	2.0961784e-06
120	0x3726a39a	9.9324625e-06
121	0x365a2f3d	3.2512028e-06
122	0x361d5ae1	2.3447722e-06
123	0x369dbe02	4.7010844e-06
124	0x368774b5	4.0369e-06
125	0x36836e80	3.916968e-06
126	0x36b13f5f	5.2823884e-06
127	0x368d5bed	4.212829e-06
128	0x36980985	4.531061e-06
129	0x3627a390	2.4980145e-06
130	0x35acce9d	1.2875131e-06
131	0x35cc977e	1.5243274e-06
132	0x35157737	5.5680306e-07
133	0x36a432f3	4.893512e-06
134	0x3577d130	9.231908e-07
135	0x361ccb5a	2.3364178e-06
136	0x3656f9ec	3.2033959e-06
137	0x36e46c07	6.8075055e-06
138	0x365abd55	3.2594737e-06
139	0x374d24c5	1.2227513e-05
140	0x364e97b9	3.0784706e-06
141	0x3647ac48	2.9753592e-06
142	0x36cc0c1f	6.081085e-06
143	0x362b8582	2.5558697e-06
144	0x348717a8	2.5162922e-07
145	0x35ba8b70	1.3898662e-06
146	0x35b03f62	1.3131469e-06
147	0x36b1d910	5.3002805e-06
148	0x35b79a51	1.3679474e-06
149	0x3699dfe9	4.585822e-06
150	0x363387cb	2.675212e-06
151	0x362cc122	2.5742415e-06
152	0x363c7753	2.808364e-06
153	0x36301f70	2.6244343e-06
154	0x36032ab7	1.9545384e-06
155	0x362d8daf	2.586148e-06
156	0x3659e998	3.247149e-06
157	0x35740798	9.0908134e-07
158	0x364927db	2.9974533e-06
159	0x355009a4	7.750007e-07
160	0x35230524	6.072971e-07
161	0x354e0807	7.675266e-07
162	0x36919957	4.339188e-06
163	0x35930a17	1.095529e-06
164	0x352d7f6a	6.4632934e-07
165	0x33bdecdd	8.8440835e-08
166	0x34caeffd	3.7800046e-07
167	0x35015183	4.817486e-07
168	0x34d32ee3	3.9335927e-07
169	0x3501c855	4.8347766e-07
170	0x34489359	1.8680056e-07
171	0x358b6c73	1.038787e-06
172	0x3592bc73	1.0932694e-06
173	0x34f30c16	4.527107e-07
174	0x3612deb4	2.1885326e-06
175	0x3608a267	2.036011e-06
176	0x34dc8450	4.1074463e-07
177	0x35424632	7.237278e-07
178	0x34935ece	2.7449863e-07
179	0x348d0a87	2.6270956e-07
180	0x34da1806	4.0623144e-07
181	0x3434a162	1.6822517e-07
182	0x353229be	6.637091e-07
183	0x3531dc42	6.6258156e-07
184	0x35bda6f6	1.4130189e-06
185	0x35fc49dd	1.879696e-06
186	0x350b9808	5.200277e-07
187	0x34de8452	4.1446998e-07
188	0x35e0badb	1.6743683e-06
189	0x3569bee4	8.7077046e-07
190	0x34c7798b	3.7155073e-07
191	0x342b7220	1.5967134e-07
192	0x36e8e824	6.9411635e-06
193	0x35f58268	1.8291876e-06
194	0x34a4d39e	3.0701352e-07
195	0x35129039	5.459911e-07
196	0x35550c63	7.936671e-07
197	0x34cb210a	3.7835736e-07
198	0x34a33451	3.039918e-07
199	0x360c93ae	2.0947587e-06
200	0x36f60ffe	7.333233e-06
201	0x3516b53b	5.614308e-07
202	0x35ddee25	1.6535092e-06
203	0x35c6fe2e	1.4826126e-06
204	0x344a86ea	1.8861797e-07
205	0x33dc8c64	1.0270085e-07
206	0x3504dc18	4.949411e-07
207	0x33ddb7fd	1.0324582e-07
208	0x3805d0ce	3.1904136e-05
209	0x37d64fd4	2.554796e-05
210	0x380789ee	3.2314965e-05
211	0x37f9e809	2.9791163e-05
212	0x37ffb908	3.048453e-05
213	0x37e23490	2.6965776e-05
214	0x378301f6	1.561733e-05
215	0x3782bad2	1.5584203e-05
216	0x37c61721	2.361421e-05
217	0x376fc40f	1.4291159e-05
218	0x3788d782	1.6312817e-05
219	0x37be03f7	2.2651611e-05
220	0x37be8544	2.2711822e-05
221	0x37f12934	2.8748625e-05
222	0x380848ff	3.249291e-05
223	0x380159f4	3.0839772e-05
224	0x37d25298	2.5072412e-05
225	0x37eeabd5	2.8451826e-05
226	0x378d55dc	1.6848491e-05
227	0x37e42df9	2.7201126e-05
228	0x37e6c2e5	2.7508891e-05
229	0x37af4d65	2.0897665e-05
230	0x37cb1f17	2.4213963e-05
231	0x37b646ee	2.172912e-05
232	0x37c2093c	2.3130902e-05
233	0x37a80276	2.0028307e-05
234	0x37d358bb	2.5194478e-05
235	0x37eed995	2.847313e-05
236	0x38056c52	3.1810552e-05
237	0x38025812	3.1076437e-05
238	0x37f4f359	2.9200384e-05
239	0x37f0ee50	2.8721202e-05
240	0x37c72331	2.3739036e-05
241	0x37b9c77e	2.2146614e-05
242	0x379ceee3	1.870789e-05
243	0x378ccaf7	1.6783813e-05
244	0x379251b3	1.74426e-05
245	0x37e36d14	2.7111302e-05
246	0x37830f9b	1.5623684e-05
247	0x37f36657	2.9015513e-05
248	0x37e22980	2.6960624e-05
249	0x37f97c35	2.9740952e-05
250	0x37f42d6d	2.910822e-05
251	0x37f1e14e	2.8834354e-05
252	0x378ee7c3	1.7035642e-05
253	0x37e85d4c	2.77e-05
254	0x37a6062c	1.9791616e-05
255	0x37dfa497	2.6660315e-05

exp_avg f4 [128]
0	0xbacd50f4	-0.0015664385
1	0x00000004	6e-45
2	0x00000004	6e-45
3	0xbb22441d	-0.0024759837
4	0x00000004	6e-45
5	0xbb03a041	-0.0020084532
6	0x00000004	6e-45
7	0xbb233bb5	-0.0024907414
8	0xb0b28b97	-1.2990878e-09
9	0x3644a523	2.9302398e-06
10	0xbae89144	-0.0017743488
11	0x0eda8fb9	5.387955e-30
12	0x3a6dfc0b	0.000907839
13	0xadefcab9	-2.7261181e-11
14	0xba64426d	-0.0008707408
15	0x00000004	6e-45
16	0x383921f9	4.4139077e-05
17	0xbb2fe62b	-0.0026840072
18	0x00000004	6e-45
19	0xba6a538b	-0.00089388405
20	0x00000004	6e-45
21	0x3afe1dff	0.0019387602
22	0xb9967773	-0.00028699226
23	0x00000004	6e-45
24	0xbba045c4	-0.004891129
25	0x3956ed6f	0.00020497081
26	0x00000004	6e-45
27	0x00000004	6e-45
28	0xbb0b0de3	-0.0021217994
29	0x281c8309	8.688153e-15
30	0x38ded4e7	0.00010625441
31	0xba91c0ea	-0.0011120115
32	0xba8abd3a	-0.0010584958
33	0x00000004	6e-45
34	0x00000004	6e-45
35	0x3a5fed37	0.00085421227
36	0x0ab461f3	1.7370214e-32
37	0xbb3040b8	-0.0026894044
38	0xbb51d2fc	-0.0032016626
39	0x2aac57f6	3.0614373e-13
40	0x00000004	6e-45
41	0x399a8103	0.0002946929
42	0x00000004	6e-45
43	0xba4142b7	-0.0007372307
44	0xba7db6a2	-0.00096783985
45	0xbb795466	-0.003804469
46	0x3b321f5c	0.0027179336
47	0x80000004	-6e-45
48	0x80000004	-6e-45
49	0x00000004	6e-45
50	0xbb0bb424	-0.002131709
51	0x3a3cfef7	0.00072096236
52	0x3a07b6cf	0.0005177082
53	0x197f8eff	1.3212069e-23
54	0xbb077a22	-0.0020672162
55	0x39cba2af	0.00038840386
56	0xbab930de	-0.0014128943
57	0x3279deeb	1.4544393e-08
58	0xbb1d3237	-0.002398623
59	0xb8ebb458	-0.00011239265
60	0xba38ebce	-0.00070541806
61	0x00000004	6e-45
62	0xbac6e445	-0.0015174231
63	0x00000004	6e-45
64	0xbb566188	-0.0032711942
65	0xbacd9634	-0.0015685023
66	0xbb6368dc	-0.0034699952
67	0xbc9c032d	-0.019044483
68	0x39f333fb	0.000463873
69	0xba9d14a6	-0.0011984303
70	0x00b0ee10	1.6248448e-38
71	0x3ab39c45	0.0013703188
72	0xbb576e9d	-0.0032872327
73	0x3730661d	1.0514193e-05
74	0x3a21f6b1	0.00061784225
75	0x00000004	6e-45
76	0x00000004	6e-45
77	0x289efb24	1.7650439e-14
78	0x39adc2f9	0.00033142397
79	0xba7e6791	-0.00097047637
80	0x32e20823	2.6313563e-08
81	0x00000004	6e-45
82	0x00000004	6e-45
83	0x3ae3060f	0.0017320531
84	0x00000004	6e-45
85	0x3ad7d0be	0.0016465408
86	0xba81ebdf	-0.0009912214
87	0xb84fe0e8	-4.9562106e-05
88	0x00000004	6e-45
89	0xbb113121	-0.0022154527
90	0x37292bf5	1.00834195e-05
91	0xbabcb84d	-0.0014398188
92	0xba6c84da	-0.0009022482
93	0x3971e0e4	0.0002306733
94	0x00000004	6e-45
95	0xbafe16e2	-0.0019385482
96	0xbb3aad9c	-0.0028484827
97	0xb930c983	-0.00016859737
98	0xb9e333d8	-0.0004333544
99	0x00000004	6e-45
100	0xbb2a1dbc	-0.0025957664
101	0xba8856d9	-0.0010401859
102	0xba972cfd	-0.0011533793
103	0x00000004	6e-45
104	0x269c7268	1.0855684e-15
105	0xbb2cbb68	-0.002635682
106	0x36e480cb	6.809923e-06
107	0xbb6e66c1	-0.0036377164
108	0x00000004	6e-45
109	0xbb656749	-0.003500419
110	0xbab3d346	-0.0013719581
111	0x00000004	6e-45
112	0x395d27a2	0.00021090967
113	0x00000004	6e-45
114	0x3a2b2e6d	0.00065300503
115	0x00000004	6e-45
116	0xbafe4b15	-0.0019401038
117	0x3a239599	0.00062402483
118	0xbaf46e57	-0.0018648606
119	0xbafb11e5	-0.0019155113
120	0x00000004	6e-45
121	0xb83fe5ae	-4.5751854e-05
122	0x00000004	6e-45
123	0x00000004	6e-45
124	0x00000004	6e-45
125	0xbadf84b6	-0.0017053101
126	0xbb1a568e	-0.0023550126
127	0xba100c2e	-0.0005494979
