ppo/ppo_agent_episode_17000.pth (torch, 596662 bytes, 21 tensors)

fc1.weight f4 [128, 260]
000000 47 33 b3 3d e5 38 11 3d 0c 3c 25 3d b9 55 99 bd
       0.08750015 0.03545465 0.04034047 -0.074870534
000010 20 2b b5 3d aa 82 36 bd dd d6 5c bd 1e e2 f4 3d
       0.08846116 -0.044558205 -0.053915847 0.11957191
000020 1a ef 88 3d 09 2f 40 bc 3c bb 32 3c 6d e6 f1 3c
       0.0668623 -0.011729964 0.010908898 0.02952882
000030 a2 36 d8 3d 5d 77 17 3e 00 ef 2e 3d da b4 7a 3c
       0.105572954 0.14791627 0.042708397 0.015301907
000040 a6 7f 3b be bc e6 cd bc d2 a2 29 bd 30 a3 92 3d
       -0.18310413 -0.025134437 -0.041415043 0.07160032
000050 a3 63 cd bd 20 e2 d4 3c bd 88 22 ba 08 39 f4 3c
       -0.1002877 0.025986731 -0.0006200185 0.02981235
000060 4c 2e 52 3d b5 79 57 3d b4 04 5c bc 2e 9b 5c 3d
       0.051313683 0.052606303 -0.013428856 0.05385893
000070 df 07 1a 3e a9 2a 88 3d 6a 92 12 3d 51 72 e8 bc
       0.15042065 0.06648762 0.035784163 -0.028374823
000080 37 c1 95 bc 5a c3 3e bc c1 0f f7 bd a8 5f 8f 3d
       -0.018280609 -0.011643255 -0.12063552 0.07000667
000090 56 60 0f be 97 4a a7 3d 08 2c 61 3c 4b f0 5b 3c
       -0.14001593 0.08168524 0.013743408 0.0134239895
0000a0 ea 09 40 bc a4 8f 86 3d 79 5e d6 3d 38 18 12 3b
       -0.011721114 0.06570366 0.10467238 0.0022292268
0000b0 05 af 40 3d d9 fa 06 3e b3 9c 26 bd b7 93 b9 3c
       0.04704191 0.13181628 -0.040676784 0.022653444
0000c0 02 9f b0 3b 93 d1 d0 3d 05 92 ad bc f8 10 c9 3c
       0.005390049 0.10196223 -0.021187792 0.024544224
0000d0 eb 9b 54 3e a8 e8 80 3e 4a 38 0e 3e d4 56 39 bd
       0.20762603 0.25177503 0.1388866 -0.04524882
0000e0 f9 44 e1 3c a9 f8 7c 3d 1a f4 1f bd 60 b0 2f 3c
       0.027498709 0.06176058 -0.039051153 0.010723203
0000f0 dc 7e d2 3d 55 65 3b 3e 37 d8 7d 3d 17 74 dd 3d
       0.10278103 0.18300374 0.061973777 0.10813158
000100 36 4e 05 bd 09 cb 44 3e 01 81 c7 3d 5f 06 08 3e
       -0.03254529 0.19218077 0.097414024 0.1328368
000110 7e a2 e4 3a 28 81 3e 3d 81 56 0d 3d 36 c1 02 3d
       0.0017443446 0.04650989 0.034506325 0.03192254
000120 cd 27 68 3d 32 e3 1f bc e2 4c 32 3d e7 62 ae 3d
       0.056678582 -0.009758757 0.043530352 0.08514958
000130 67 a7 92 3d 51 3e fd 3b fb 63 42 3e 00 55 dd 3d
       0.07160836 0.007728376 0.18983452 0.10807228
000140 fe 02 41 3b cd da 00 3d eb fd 82 bd 9a 51 07 3e
       0.0029451246 0.031458665 -0.06396087 0.13214722
000150 ac c5 4f bd 2e a7 3f 3c c1 56 59 bd de c1 5a 3d
       -0.050725624 0.011697574 -0.05306125 0.053407542
000160 c2 09 93 3d d6 9f 8d 3d 7d ae bd bb 35 74 d1 3d
       0.071795955 0.06915252 -0.005788623 0.10227243
000170 d8 5a 69 3e 96 d8 0d 3e 6c 14 70 3d f0 c1 a4 3d
       0.2278856 0.13852152 0.058613226 0.08044803
000180 7e f7 2b 3b 62 6c 84 3d de d2 57 3c dc 1c 1c 3d
       0.0026240046 0.06465985 0.013172833 0.03811346
000190 05 e6 a1 3d b5 e9 88 3c 41 32 e6 bc 73 d6 7f 3d
       0.07905201 0.016713003 -0.028100135 0.062460374
0001a0 e9 13 78 3d c2 df 7d 3e d9 49 f0 3d 64 a6 b3 3c
       0.060565863 0.24792388 0.11732835 0.021929927
0001b0 67 07 6e bd d2 80 a9 3c de 1a 34 bd ca 45 3e bc
       -0.05811253 0.02069131 -0.043970935 -0.011613319
0001c0 25 a4 11 bd 25 a3 cc 3d 96 44 d1 bc 39 4c 8a 3d
       -0.03555693 0.09992055 -0.0255454 0.067528196
0001d0 6c 2c ba 3d d9 eb 1e 3e 53 53 01 3e fd bd 28 be
       0.09090504 0.15519656 0.12629442 -0.16478725
0001e0 7c 14 2f bd 01 90 be bc e4 56 ba 3d 16 73 bd 3d
       -0.042744145 -0.023262026 0.09098604 0.092504665
0001f0 ff 24 76 3e 90 ad 37 3e e1 d4 da bc 36 8b 69 3d
       0.2403755 0.17937303 -0.026712837 0.057017528
000200 47 71 e5 bd bb 55 c6 3d b4 c6 ab 3d 26 90 40 3e
       -0.112032466 0.096843205 0.08387509 0.18804988
000210 d3 27 0d 3e 41 54 6d 3d d6 33 be 3d 19 38 f9 3d
       0.13784723 0.05794168 0.09287231 0.12168903
000220 c3 82 d3 3d e8 dc ae 3d 26 1a 4d 3d dd 9e 9d 3c
       0.10327675 0.08538228 0.050073765 0.019240791
000230 9f 5b e7 3d fe 69 e8 3d 22 65 ce 3d ef 7b d1 3d
       0.11296772 0.113483414 0.10077883 0.102287166
000240 ef 9e 6c 3e d8 30 a1 3c 56 f5 5d 3e e8 59 c5 bc
       0.23107503 0.01967661 0.2167562 -0.024090722
000250 7f 43 72 3d 29 4a 96 bc ab 47 0b 3e 96 82 36 3e
       0.0591464 -0.01834591 0.13601558 0.17823252
000260 fc 89 62 3b e8 10 6a 3d b8 1e b4 3d 62 e4 68 3d
       0.0034567108 0.05714503 0.08794922 0.056858428
000270 ae 44 82 bd d1 77 bf 3d 72 b6 01 3c e6 63 89 3d
       -0.06360756 0.09349025 0.0079170335 0.06708507
000280 0a 70 1c 3e f2 13 52 bd 2b e8 be 3c 23 7b 11 3e
       0.15277115 -0.051288553 0.023304066 0.14207129
000290 5d 8c f2 3d a0 f3 ac 3d 61 0a fe 3d 45 37 b0 3d
       0.118431784 0.08444905 0.12404323 0.08604292
0002a0 11 3f 03 3e a8 a4 eb bc 7a 49 39 bb 8f a8 1e 3e
       0.12817027 -0.028765038 -0.0028272555 0.15493988
0002b0 6c 33 85 3e fa 0c 00 3e 51 09 11 3e 5b a2 bd 3d
       0.26015794 0.1250495 0.1416371 0.092594825
0002c0 80 47 03 bd 2e 20 19 bd 91 e0 42 3d f7 8f 1b 3e
       -0.03205061 -0.037384205 0.047577444 0.15191637
0002d0 b4 4f ce 3d ab 67 a2 3d de 6b 57 3d c6 fd 10 3e
       0.10073796 0.07929929 0.052593105 0.14159307
0002e0 b8 a5 85 3c 45 4c 1d 3e cc 98 b3 3c aa ce f3 3d
       0.016314372 0.15361126 0.021923445 0.119046524
0002f0 95 7a 4f bc 71 e7 fb 3d c1 46 28 3c 81 79 17 3e
       -0.012663503 0.12300003 0.010270775 0.14792444
000300 4e cf 1f bb 5a 78 84 3c 7b bb b3 3d 5a c7 3c 3e
       -0.0024385038 0.01617067 0.087759934 0.18435422
000310 09 e7 a4 3e 25 0f 37 3c 3b 62 8c 3e 0d 9f ef bc
       0.32207516 0.011173044 0.27418694 -0.029250646
000320 c4 7e d9 bd 18 01 e0 3d e3 bc 21 bd b2 03 88 3d
       -0.10619882 0.109377086 -0.039486777 0.0664133
000330 fd a2 1a 3e 64 53 5f 3d 3e 89 cb 3d c7 1a ea 3d
       0.15101238 0.054522887 0.09938286 0.114308886
000340 2e 1d b9 3d c3 65 cb 3b 6f 76 c9 3d 3b 6e 41 3e
       0.09038769 0.0062071993 0.098370425 0.18889706
000350 14 52 7d 3d 85 6e 31 3e c2 35 32 3e 50 98 01 3e
       0.061845854 0.17327316 0.1740332 0.12655759
000360 9e 45 89 3d 87 d5 8a 3d 8f f9 05 3d a3 31 34 bc
       0.067027315 0.06779008 0.0327087 -0.010998162
000370 83 0e 80 bd c6 df e6 3d 9e ef 85 3d 8d d1 08 3e
       -0.06252768 0.1127315 0.06539844 0.13361187
000380 78 db a1 3d 68 0c 73 3c ee fd d3 3d 98 24 59 bc
       0.079031885 0.014834501 0.103511676 -0.013253354
000390 8d f4 11 3d ef 23 4b bc cb 83 da 3d 30 54 0c 3e
       0.035633612 -0.012398704 0.10669669 0.1370399
0003a0 48 d1 bc 3d 70 81 b8 3d 15 27 b4 3d 88 46 91 3d
       0.09219605 0.09009063 0.08796517 0.07093531
0003b0 51 7a c2 3c 94 f0 d5 3c 9b 52 77 3d 91 13 cc 3c
       0.023739966 0.026115693 0.060381513 0.024911674
0003c0 ab bd c6 3d af 3d a0 3d ea 50 0b 3e 4e 56 ea 3b
       0.09704145 0.07824265 0.13605085 0.0071514016
0003d0 d6 20 25 3e 27 82 69 bd 06 33 0b 3e 97 f5 00 3e
       0.16125807 -0.05700889 0.13593683 0.12593685
0003e0 de 94 63 3d 93 93 0a 3e 39 81 a3 bc 93 bd da 3d
       0.055561893 0.13532858 -0.01995908 0.1068069
0003f0 f1 8b bc 3d 19 50 fe 3d 36 27 f4 3d 70 d1 b1 3d
       0.09206379 0.12417621 0.119215414 0.08682525

fc1.bias f4 [128]
000000 06 fb f9 3d 06 39 c5 bd e2 5e 58 3d 6a a6 a0 3d
       0.12206082 -0.09630017 0.052824862 0.07844241
000010 c4 81 94 bc 42 05 8d 3d cf 76 71 bd 77 fb 13 3d
       -0.018128283 0.068857685 -0.058951195 0.036128487
000020 1a db ba 3d 15 4b 40 3d 3f 64 e6 3c b4 63 f4 bb
       0.091238216 0.046946604 0.028123973 -0.0074581746
000030 dd 50 52 bc 9f 33 0d b9 4f 11 55 3d e2 13 86 ba
       -0.012836662 -0.00013466038 0.05201846 -0.0010229314
000040 34 58 3d bd fe b7 87 3d a9 2b 60 3c 9d bb ea 3d
       -0.046226695 0.066268906 0.013682284 0.11461566
000050 7e bb 19 bd fd b0 d2 3d f8 30 ea 3c fa 3b e2 b8
       -0.037532322 0.10287664 0.028587803 -0.00010787691
000060 8d a6 a0 3d 26 8c a2 bc b0 6e 54 bc e1 bc 97 bd
       0.07844267 -0.019842219 -0.012965843 -0.07409073
000070 b3 2c 2c 3d fc d0 48 bc f6 d1 fb 3c 2c 60 43 3d
       0.042034816 -0.012256857 0.030739766 0.04769914
000080 38 64 e1 3c 30 b4 f0 bd d5 3d c8 bd da ae 88 3c
       0.027513608 -0.11753118 -0.097774185 0.016684938
000090 84 d1 41 bc bb 74 2c 3c 8b 35 84 3c 77 c5 53 3b
       -0.011829738 0.010525878 0.016138813 0.0032313743
0000a0 55 12 a1 bd e6 fb 89 bd 1a 44 d9 3c 3c 37 4f 3c
       -0.07864825 -0.06737499 0.026521731 0.012647446
0000b0 01 52 d2 3d b3 12 b1 3d 6a 58 8a bd 02 e5 a3 3c
       0.10269547 0.08646145 -0.06755145 0.02000666
0000c0 94 19 cb bc 59 30 3b bd 85 87 d6 3d 7f d0 01 3c
       -0.02479247 -0.045700405 0.10475067 0.0079232445
0000d0 19 44 9d bc 56 70 01 bd 1c 32 ac 3d 96 38 a0 bd
       -0.01919751 -0.031601273 0.08407995 -0.07823293
0000e0 77 ff d7 3d 20 e1 b1 3d e0 f4 cb 3d 8f 6d ae bc
       0.10546773 0.08685517 0.099588156 -0.021292476
0000f0 b9 c7 dc bc b4 25 18 ba d7 03 52 3d d1 94 68 3b
       -0.026950704 -0.0005803958 0.051273193 0.0035489092
000100 03 d7 88 3d 76 1b a6 3d ed 78 01 3e b7 6f 8a 3d
       0.06681635 0.081107065 0.12643786 0.06759589
000110 bd 1f ea 3c 24 c5 87 bd 0a 84 c6 3b a7 ef d4 bc
       0.028579587 -0.066293985 0.0060582208 -0.025993181
000120 f8 20 65 3d 21 32 cd ba 97 38 bc 3d f4 ab 4e bd
       0.055939645 -0.0015655198 0.09190481 -0.050456956
000130 a0 be 1e 3d 68 24 22 3e e5 d8 10 3d 52 63 51 3d
       0.038756013 0.158342 0.035363097 0.05112011
000140 1c 8e 8d 3d ce fe c6 3d 2a 61 f5 3b bd e5 d2 bb
       0.06911871 0.09716569 0.0074883895 -0.0064360783
000150 b9 6b 36 bd 29 1a 5e 3d 0a 9f 03 3d 9a 2a af 3d
       -0.044536326 0.054224167 0.032134093 0.085530475
000160 be a9 4c bd 42 a7 ee 3d 20 f5 37 bd e8 97 e6 bc
       -0.049966566 0.11652996 -0.044911504 -0.028148606
000170 2e 5d 0d bd 45 82 7a bc db 3f cb 3c ee 8c 00 3d
       -0.03451269 -0.015289848 0.024810722 0.0313844
000180 a2 a3 d0 3d 7a 1a 2c 3d 2c e9 61 ba 74 3f 43 bd
       0.101874605 0.042017438 -0.0008617814 -0.047667935
000190 31 09 d2 3c 22 5a 0d 3d f3 b1 df 3d bb b8 41 bd
       0.025639148 0.034509785 0.10922613 -0.047295313
0001a0 dd 59 c3 3d 3e 53 79 3d 97 3f 0a 3d d6 b1 89 3c
       0.095386244 0.0608704 0.03375205 0.016808432
0001b0 66 85 2b bd 86 75 8b 3d b8 d7 84 3d fa 87 0d bd
       -0.041875266 0.06809525 0.064864576 -0.034553505
0001c0 43 1c b2 bc 2c 06 00 3c 82 d3 cd 3c 85 af 79 bd
       -0.021741992 0.0078139715 0.025125269 -0.060958404
0001d0 e1 d5 95 3d 40 b3 3b 3d d8 e9 9f 3d da dd a2 3d
       0.07316185 0.045825243 0.07808274 0.07952471
0001e0 7e 3e 9c bd a1 e7 48 3d 8a 1c 51 bc 45 fa 9f 3b
       -0.07629107 0.049049024 -0.012763152 0.0048821294
0001f0 a6 42 94 3d f2 5b da 3c 46 97 17 3e 41 6a 8e 3d
       0.07239275 0.026655171 0.148038 0.0695386

fc2.weight f4 [64, 128]
000000 0d 1e 0f bd 0e c7 00 be 2d b6 69 be a5 ad 2f 3d
       -0.034940768 -0.12575933 -0.22823401 0.04289021
000010 f5 03 9b be 55 63 f8 3d 41 b2 be bd a7 62 41 bd
       -0.30276456 0.12128321 -0.09311343 -0.047213223
000020 c2 89 40 be c0 a7 86 be e4 4c f1 bc 20 50 82 be
       -0.1880255 -0.26299858 -0.02945561 -0.25451756
000030 72 62 6a 3c 90 25 20 be d9 34 b1 3c 10 a2 a0 bd
       0.014305698 -0.15639329 0.021631645 -0.07843411
000040 a2 2b 3d be a8 d9 93 bc 33 31 c3 bd d8 e3 42 3d
       -0.18473676 -0.018048123 -0.095308684 0.04758057
000050 ef 07 00 be f8 5d b6 be c6 25 71 3d db 01 92 bd
       -0.12503026 -0.35618567 0.058873914 -0.0712926
000060 98 ea d4 3d 18 21 03 bd 45 6e e6 ba e7 fd 5c bd
       0.10396308 -0.032013983 -0.001758047 -0.053953078
000070 4b a3 44 bd 76 30 a2 be 29 4f 87 3c d7 13 83 3c
       -0.04800729 -0.31677598 0.016517239 0.016000671
000080 5f 25 7d be 15 c5 8d bd d3 bc 9e bd f9 f2 df bc
       -0.24721287 -0.06922356 -0.07750859 -0.027337538
000090 06 91 8c be 34 a1 23 bd 37 4c 78 3d 52 bb c0 be
       -0.27454394 -0.039948657 0.06061956 -0.37642914
0000a0 1f 91 2f bd 0b cf 7d bd 42 9b 0f be e8 9c 17 3e
       -0.042863008 -0.06196503 -0.1402407 0.14805949
0000b0 cd b7 35 3d 63 9c a6 3d 54 ef 15 be 0e 7f 11 be
       0.04436474 0.08135297 -0.14642078 -0.14208624
0000c0 3e 2b 9e be 03 d8 9b 3a 94 35 eb 3c 06 3a 32 3d
       -0.30892366 0.0011889938 0.028712071 0.043512367
0000d0 97 6a 31 3d 94 d5 50 bd 11 02 d5 bc 7b 4f ed bd
       0.043314543 -0.050984934 -0.026001962 -0.11587425
0000e0 c3 28 b4 bc 8d b7 62 be 80 5f 7d 3d d0 ab 8a be
       -0.021992093 -0.22140332 0.061858654 -0.27084208
0000f0 84 8f 82 be 8d fb c3 3d a4 d5 0c bd f7 8b 69 be
       -0.2550012 0.09569464 -0.03438343 -0.22807299
000100 7c 33 58 bc 93 32 8b 3d 2b 9f e5 3d cc 6c 82 be
       -0.013195869 0.06796756 0.112119995 -0.2547363
000110 ac 46 4a be 22 17 1d bd 9d 0d b1 be e7 9f cc bc
       -0.19753522 -0.03835214 -0.345807 -0.024978591
000120 23 9b eb 3d 35 f8 94 bd 8a 72 34 3d 30 e6 88 be
       0.11504199 -0.07273904 0.044054545 -0.2673812
000130 52 9d 0a be 0b 9c cb be 34 76 9f 3b 6f 4d 1a bd
       -0.13536575 -0.3976749 0.004866386 -0.037671503
000140 7e 80 d7 be 72 5a a3 be b8 36 34 be 29 d8 18 bc
       -0.4209022 -0.31904942 -0.17598999 -0.00932888
000150 fd 53 31 bc 11 6b 68 bd 8a 84 7b 3d 3f 00 73 3d
       -0.010823247 -0.05674273 0.061405696 0.059326407
000160 eb 26 89 3c c6 a6 51 3d 0c d6 9d be 04 28 84 3d
       0.01674219 0.05118444 -0.30827367 0.06452945
000170 ef 87 24 be 22 5a 03 bd e8 6b 66 be fb 2a 2a 3d
       -0.1606748 -0.03206838 -0.225021 0.041544896
000180 99 5d 88 bd 56 c8 55 bb 22 a7 d0 bc 67 4e ec bd
       -0.06658477 -0.003262063 -0.02547032 -0.115383916
000190 e1 5f 92 3d 2b e6 29 3c 95 9d 86 bd d7 36 04 be
       0.07147194 0.010369818 -0.06573025 -0.12911545
0001a0 5c f5 85 be 1c fc 00 3d ce 54 1b be 43 2a 99 3d
       -0.26163757 0.03149043 -0.15169069 0.07478764
0001b0 49 ba 23 be c9 67 7e 3d 5d 11 cd bc e4 50 15 be
       -0.15989031 0.062110696 -0.025032694 -0.14581639
0001c0 0a c1 66 be 75 d6 b4 bd f4 57 90 3b 73 62 d7 3a
       -0.22534576 -0.08829967 0.004405016 0.0016432538
0001d0 2b 0e fc 3c 83 76 81 be 79 d0 94 bc e3 72 f6 3d
       0.030768475 -0.2528573 -0.018165814 0.12033632
0001e0 34 72 22 be 79 f4 8b be fc e4 d2 bd 53 88 45 bd
       -0.15863878 -0.27334955 -0.102975816 -0.048225712
0001f0 6d 65 37 be ef fd 96 be 66 36 98 3d 3c ba b9 3d
       -0.17909785 -0.2949061 0.07432251 0.090687245
000200 45 88 bd bd 48 db 9b bd 29 73 81 be e0 b0 31 bd
       -0.09254507 -0.07610184 -0.25283173 -0.04338157
000210 ac e3 7b be 0f bf 80 3d 51 f0 3c be 67 01 88 3d
       -0.24598569 0.062864415 -0.18451048 0.066408925
000220 6c d7 86 be 35 23 9f be c8 75 af 3d 75 07 6c be
       -0.2633623 -0.31081548 0.08567387 -0.2304972
000230 3a 32 85 3c 58 5e 40 be 5c 63 98 3d c7 71 3a 3d
       0.016259301 -0.1878599 0.07440826 0.045518663
000240 dd 55 18 be 40 4c 9a bd 1a b0 4f be e2 d6 5a 3d
       -0.14876504 -0.07534075 -0.20282021 0.053427584
000250 94 26 da bd b6 1f c9 be 70 b7 66 bd 8f 90 19 be
       -0.106518894 -0.39282006 -0.056327283 -0.14996551
000260 65 68 97 3d fe a4 6b bd df 9e 12 bd 8e 25 17 bd
       0.073929586 -0.057530396 -0.035796043 -0.03690105
000270 83 c2 75 bd 67 4c 36 be 36 12 4e 3d 0d b1 3f 3d
       -0.059999954 -0.17802583 0.050310336 0.04679971
000280 36 a7 b4 be f7 61 24 bd 1d 24 d4 bd cf e2 b6 bd
       -0.35283822 -0.04013249 -0.103584506 -0.08929979
000290 cc d1 48 be 67 a3 8d bc 07 24 8b bb 71 87 99 be
       -0.19611281 -0.01728983 -0.004246238 -0.29986146
0002a0 17 5c 36 be 03 19 91 3d c3 34 1d be 8f 7f 69 3a
       -0.17808567 0.07084849 -0.15352158 0.00089072523
0002b0 9b 33 ef bb 4a 2c 82 3d cc 7b d8 bd e5 10 9b bd
       -0.007299853 0.06356104 -0.105704874 -0.07571582
0002c0 99 09 8d be 36 64 16 be 44 09 b1 bb 28 33 67 bc
       -0.27546385 -0.14686665 -0.005402716 -0.014111318
0002d0 08 f0 81 3c d0 a6 fb 3a 6d 30 20 bc 44 6d 84 bd
       0.015861526 0.0019199494 -0.009777171 -0.06466153
0002e0 69 fe c9 3d a2 6c 5e be a1 c7 7d bd 96 5e b4 be
       0.09862978 -0.21721128 -0.06195796 -0.35228413
0002f0 7c 80 95 be 28 26 4a 3b b9 23 13 3e 15 94 9d be
       -0.29199588 0.0030845497 0.14369096 -0.3077704
000300 d2 2b 80 bb 24 b7 41 3d 5a f1 ee bc 4c 35 5d be
       -0.003911474 0.047293797 -0.02916782 -0.21602362
000310 ab f3 17 be 0c b1 03 be 1e e0 ae be 17 c8 7b 3d
       -0.14839046 -0.12860507 -0.34155363 0.061470117
000320 9a cb 6b bd 83 85 a8 bc d0 8e 7a 3d 38 93 f0 bd
       -0.057567216 -0.020571476 0.061171353 -0.1174683
000330 88 48 0d be eb 5e c2 be c6 a0 e1 bc 44 bd 25 3d
       -0.137972 -0.37963042 -0.027542483 0.0404637
000340 13 41 91 be 18 54 a7 be 50 8d e7 bd 25 5d c4 bd
       -0.2836996 -0.32681346 -0.1130625 -0.095880784
000350 ea 55 1c be 6f fe 5c bd 4b 8b 2b 3d 09 7c d8 3d
       -0.15267149 -0.053953584 0.041880887 0.10570533
000360 83 51 1a bd b3 dc d2 3d 00 61 85 be 7f 15 c1 3b
       -0.037675392 0.10296001 -0.26050568 0.005892455
000370 88 a9 3c be 27 63 44 bd d2 f9 6f be 5e a1 bb bd
       -0.18424046 -0.04794612 -0.23435143 -0.09161638
000380 22 90 b3 3c 25 6e 8e bc e8 0e 36 bd 2f ae 36 be
       0.021919314 -0.017386505 -0.04444781 -0.17839883
000390 15 6d a8 bc ab c6 40 bd 03 bb 99 3d 0d b4 85 bd
       -0.020559827 -0.047064465 0.07506373 -0.065284826
0003a0 3a b3 7b be c4 69 0d 3d 1d 88 10 be a8 e8 03 3d
       -0.24580088 0.034524694 -0.14114423 0.0322043
0003b0 2b c2 7f be d0 96 89 ba 2b ee c5 bc 75 76 71 be
       -0.24976413 -0.0010497216 -0.024161419 -0.23580344
0003c0 3c 97 8e bd 43 9d d4 bd 4b 60 97 3d f4 01 ba bc
       -0.069624394 -0.10381558 0.07391413 -0.02270601
0003d0 72 d3 77 bc 27 d9 8b be 01 9d 94 3d 32 d6 b0 bc
       -0.015126096 -0.27314112 0.072565086 -0.021586511
0003e0 03 ad 6e be 8f 5d 43 be 63 3f 30 be 79 31 fd bd
       -0.23308186 -0.19078659 -0.1721168 -0.12362952
0003f0 88 51 8c be 1c 46 1c be d0 dd 98 3d 14 4d 21 bc
       -0.27405953 -0.1526112 0.074641824 -0.009845037

fc2.bias f4 [64]
000000 3c cf 02 3e 50 4a 40 3e 66 47 c5 3d 93 fd 6a 3e
       0.12774366 0.18778348 0.09632759 0.22948293
000010 53 80 13 bd 69 03 58 3e 16 28 6b 3e 42 69 09 3e
       -0.03601105 0.21095051 0.2296451 0.13419059
000020 c5 99 42 bc 3e 10 b9 bd 7b 30 1f 3e 84 79 00 3e
       -0.011877482 -0.09036301 0.15545838 0.12546355
000030 fe 89 98 3d 2d 4a 22 bd 1f 7b b0 3d 23 64 30 3e
       0.07448195 -0.03962152 0.086172335 0.17225699
000040 36 8b 81 bd 28 25 73 3d 8b 54 ac 3d 05 3f 34 3d
       -0.063253805 0.059361607 0.08414563 0.044005413
000050 a1 a7 9e bd 4a 02 79 3e 51 50 62 bc d7 32 e2 3d
       -0.077468164 0.2431728 -0.013813094 0.11044853
000060 3f 73 47 3e c7 7d dc bc 5c f5 51 3e ca 66 23 3e
       0.19477557 -0.026915444 0.20503753 0.1595718
000070 25 a0 1d be da 6c 01 bd f4 45 6c bd 22 af 8d bd
       -0.15393122 -0.03159795 -0.0576839 -0.069181696
000080 8f fd 13 3e 95 72 06 3e 73 1e b4 3d 18 01 59 3e
       0.14452194 0.13129647 0.0879487 0.21191823
000090 25 e8 31 3c 1d 2a 96 3d 2c e3 60 bd ce 54 ff 3c
       0.01085857 0.07332251 -0.054904148 0.031168368
0000a0 54 62 6c bd ae 1a 09 3e d7 fd 98 bd 98 fc ab bd
       -0.05771096 0.13389084 -0.07470291 -0.08397788
0000b0 36 e9 68 bd 72 b1 32 3e 03 00 10 3e e2 1f a1 bd
       -0.056863032 0.17450503 0.14062504 -0.07867409
0000c0 fb 30 40 3d 74 03 f4 3d fe 87 63 3e 07 a4 8a 39
       0.04692171 0.11914721 0.22219846 0.0002644362
0000d0 1f fe 1e bd ee 02 31 be f2 13 45 3e b9 67 5d bd
       -0.038816568 -0.17286274 0.1924589 -0.054053996
0000e0 e5 a7 26 bb b0 84 55 3d 58 22 46 bd b4 b3 22 3e
       -0.0025429663 0.052128494 -0.048372597 0.15888864
0000f0 41 7d c7 3d 2a 06 22 3e 20 29 a2 3c 4a 0e 33 bd
       0.09740687 0.15822664 0.019795 -0.0437148

policy_head.weight f4 [110, 64]
000000 24 de 28 bd 78 7c 26 3e 4a 44 18 3d 54 d7 e6 bc
       -0.041227475 0.16258419 0.0371745 -0.028178848
000010 a0 f8 3e 3e 4d 7f e3 3d 2b 5b bf 3d 49 98 b3 3d
       0.1864953 0.11108265 0.09343561 0.087692805
000020 fd 78 14 3d 58 6d ed 3a c9 9e 5e 3c 46 71 d1 3d
       0.036248196 0.0018114252 0.013587662 0.10226683
000030 9c fb 85 3b 1a 1f c0 3d e8 c9 2b 3e f6 48 d1 bc
       0.004088832 0.09380932 0.1677624 -0.025547486
000040 ce 8e 7c 3d cd de 43 b9 35 54 e9 bd 9d eb 94 3d
       0.061659627 -0.00018679649 -0.11393014 0.07271502
000050 22 26 c4 3d ee 37 17 ba 68 14 3d 3e 34 1d 44 3e
       0.09577586 -0.0005768527 0.18464816 0.19151765
000060 7b 4a 2d 3e c3 b3 ce 3d 7c 92 14 3e 2d 2d 88 3d
       0.16922943 0.100928806 0.14509004 0.066492416
000070 46 2e 8c 3e 3b a8 ec bc 64 4e ea bd d5 49 3a be
       0.27379054 -0.028888812 -0.11440733 -0.18192227
000080 e1 0d d5 3d cb c9 60 bc a4 7b a4 3c c3 20 9a bd
       0.10403038 -0.013719986 0.020078488 -0.0752578
000090 99 14 5e 3e 3d f8 8a bd 59 a4 1e bd e3 92 0d bd
       0.21687545 -0.06785629 -0.038730953 -0.03456391
0000a0 fb 11 a5 3d 00 f3 04 be f4 03 5b 3d 2a ea 8d bd
       0.0806007 -0.12983322 0.053470567 -0.06929429
0000b0 a5 5b 76 bd bc 3f 31 3e 93 ce e5 bd 61 09 ad bd
       -0.060145993 0.17309469 -0.112210415 -0.084490545
0000c0 ab 28 5b 3d 72 63 fa bd d9 a5 d6 3d 49 66 1a 3e
       0.05350558 -0.12225999 0.10480852 0.15078081
0000d0 80 71 de 3d 2a 50 56 3d 8c 09 30 3c 09 aa 2b 3e
       0.10861492 0.052322544 0.010744464 0.16764082
0000e0 04 3c 4c 3e 48 ee 9a 3d 2e f1 32 bd c1 26 ea 3d
       0.19944769 0.0756498 -0.043687038 0.11433173
0000f0 db d4 69 be 9c 74 33 bd ac 16 b1 3d 89 ff f2 3d
       -0.22835104 -0.04381238 0.086469024 0.11865146
000100 5e 60 08 3d 64 0e a0 bc aa 1e cb 3d 0b e8 a7 3d
       0.033295028 -0.019538112 0.09917958 0.081985556
000110 2a eb 99 3c e5 dd 64 3d 48 e7 89 bb a3 e9 6c 3d
       0.018788893 0.055875678 -0.004208479 0.05784
000120 fd 7d 4e 3e e1 a1 5f 3d 3b 90 47 bc d5 d5 cc bb
       0.20165248 0.05459774 -0.012180383 -0.0062510767
000130 99 ed a4 bc 3e 61 69 3d d9 5c 37 bb 7a 3e 32 3e
       -0.020132827 0.056977503 -0.0027978926 0.17406645
000140 fc 81 e0 3d 73 60 e5 3b 20 5e 7a bd ed f3 03 bc
       0.109622926 0.007000023 -0.06112492 -0.008053762
000150 f9 7d 7c bd 85 4b 1f 3d fd fc 77 3d 3c cc 32 3e
       -0.061643574 0.03889038 0.060544003 0.17460722
000160 7e 47 eb 3d 2c 1f a5 3d e2 cb 1f 3e e2 d3 89 3d
       0.114882454 0.08062586 0.15605119 0.067298666
000170 63 0f 6f 3e 8a b5 d8 3d 8f 0a 6c 3d 95 4f 97 be
       0.23345713 0.10581501 0.057627257 -0.29552904
000180 95 1d 4f bd dc 6b 2d 3d 50 4b 09 3e 91 b7 5f 3c
       -0.05056532 0.04233919 0.13407636 0.0136546055
000190 4d 9a dc 3d 10 3c d1 3c 00 3b d7 3d 8d 9d 7b 3c
       0.10771618 0.025541335 0.105093 0.015357387
0001a0 23 00 df bb 1c 32 71 3c 70 56 45 3b 80 d5 97 bc
       -0.006805436 0.01472142 0.0030111335 -0.018534422
0001b0 ba bf dd 3d 42 63 ad bb 3b 4f 6d 3d a4 fd 98 3d
       0.108275846 -0.0052913735 0.05793689 0.07470253
0001c0 ac 66 86 bd e2 ec 90 be 8d ec 09 3e e9 97 65 3e
       -0.06562552 -0.28305727 0.13469143 0.2242123
0001d0 77 c3 75 3d 8c 2f 08 bd 06 19 3c 3c b6 eb 11 bb
       0.060000863 -0.03324847 0.011480575 -0.0022265739
0001e0 56 83 96 3e 37 6c 25 3e ca 69 a4 bd 57 c5 5e 3d
       0.29397076 0.16154562 -0.0802799 0.054387417
0001f0 0f b8 31 be f8 e4 02 3e a5 5e dc bb 09 30 fe 3d
       -0.17355369 0.12782657 -0.0067251497 0.12411506
000200 5f f0 21 3e a4 3a 93 3d e8 49 0d 3e f4 49 97 bd
       0.1581435 0.07188919 0.13797724 -0.07387152
000210 5d 0f 48 bd 00 f7 bf 3d b9 f8 23 3e c7 bd 99 bb
       -0.048842777 0.093732834 0.16012849 -0.0046918127
000220 d4 d5 3c bb 91 b2 2b bd 35 4f 91 bd 10 b0 a4 bd
       -0.0028813975 -0.04191834 -0.07095186 -0.08041394
000230 a0 9e 1b 3e 24 a4 a1 bd 09 d6 aa 3d 9b f6 e7 3c
       0.1519723 -0.078926355 0.08341605 0.028315833
000240 d4 78 ad bd 83 9f 8c bd 98 2b 11 bd 12 c5 4a 3d
       -0.08470312 -0.06866362 -0.035441965 0.049504347
000250 d7 ee b6 3d fb 20 cf 3d 2b 3d 9b bd 6e c3 db 3d
       0.08932274 0.101137124 -0.07580026 0.10730635
000260 7d 26 ab bd 12 7a 9b 3c ce 4b 9b 3d 21 4b 3f 3d
       -0.083569504 0.018979106 0.07582818 0.046702508
000270 7f 64 f7 bd fe 3e b7 bd 46 37 d4 bc e3 fc 40 3e
       -0.12079715 -0.08947562 -0.025905263 0.18846469
000280 45 6d 46 3e f7 e1 bb bd c9 1c 82 3d 8e 8a ff 3d
       0.1937762 -0.09173959 0.063531466 0.12477599
000290 b9 0f 1b 3d ff 4e f6 3d cc 11 55 3c df 75 6c 3d
       0.03785679 0.12026786 0.013004731 0.057729598
0002a0 d8 9a 83 bc a0 60 1f 3e 53 c4 3b 3c 0a e7 89 3a
       -0.016065046 0.15564203 0.011460382 0.0010521126
0002b0 7e 6c c2 3d 04 32 00 3e 73 1b 59 3c 3e 7f 8a 3b
       0.094933495 0.1251908 0.013251173 0.004226594
0002c0 5f f6 d2 bd 0f c4 d3 3d 70 8a 56 bd 73 58 88 3c
       -0.10300898 0.103401296 -0.052378118 0.016643738
0002d0 f5 62 90 3d 3c 91 d5 bd 08 b6 53 3e 63 28 d0 bd
       0.070501246 -0.10428092 0.20674908 -0.10163953
0002e0 f8 20 9e 3d f9 f5 29 3d 2e 49 e5 3d 01 bb 2e 3e
       0.07721132 0.041494343 0.111955985 0.17063524
0002f0 98 c6 45 3e 3c f5 11 3e 12 c8 df 3d 7d 37 5b 3d
       0.19314039 0.14253706 0.10926832 0.053519715
000300 ed 70 2e 3e c7 0f cb 3d 04 e0 5f 3e 91 46 80 be
       0.17035265 0.09915119 0.21862799 -0.25053838
000310 13 2c 99 3d d0 b7 55 3d b5 6e cf 3c a1 fa 0c be
       0.074791096 0.05217725 0.025321344 -0.13767482
000320 b1 c2 73 3c a7 ac 79 bd 63 db 29 3e d0 e2 53 be
       0.014877961 -0.06095567 0.16587596 -0.20691991
000330 b3 32 a7 3d 1f 78 ac bd 46 50 b2 bd 85 a1 1c 3e
       0.08163967 -0.08421349 -0.08706717 0.1529599
000340 a2 65 aa bd 32 e1 dd bd a4 a8 aa bd f1 a6 ae be
       -0.08320166 -0.10833968 -0.08332947 -0.3411174
000350 5a dd e1 3b 98 7f 0f 3e f5 11 ae bd 3f 5b 33 be
       0.0068928422 0.14013517 -0.08499519 -0.17515276
000360 d8 85 f0 bd 68 fe 04 bd 2c 2d 1d bd c4 53 94 bd
       -0.11744279 -0.032469183 -0.038373157 -0.072425395
000370 d7 4f 38 be 19 9a 12 3d 48 7e 45 3d e8 73 01 3f
       -0.17999206 0.03579149 0.048216134 0.50567484
000380 2c b0 93 3d a6 08 84 3d fe 18 9d bd 45 81 fb 3d
       0.072113365 0.06446962 -0.076707825 0.122805156
000390 34 78 35 3d 68 98 8f 3d 1c e9 89 3c 20 d7 ac 3c
       0.044304088 0.07011491 0.016834788 0.021098673
0003a0 fd f8 a6 3d 48 73 e5 3c 38 4c b0 bd da e3 5c bc
       0.081529595 0.028009072 -0.086082876 -0.013482058
0003b0 1b ae 0f bb 88 06 fa bd 32 12 8c 3e 52 cc 11 bd
       -0.0021923843 -0.12208277 0.27357632 -0.035595246
0003c0 fe d2 b0 3d 8b 47 fe 3e 9f 7c 19 bd 55 1b 50 bd
       0.086339936 0.49663958 -0.037472364 -0.050807316
0003d0 27 f5 ed bc 65 9b a5 3d 72 30 a4 3e 8a 58 43 bd
       -0.029047562 0.0808628 0.3206821 -0.04769186
0003e0 5a 89 87 bc c4 b3 24 bb e4 eb c3 3d d2 45 92 3e
       -0.016544987 -0.0025131563 0.09566477 0.28568894
0003f0 da 37 ee 3e d4 82 8a bd cc 81 d5 3d d1 4c bd 3e
       0.46526986 -0.06763235 0.104251474 0.3697267

policy_head.bias f4 [110]
000000 56 56 4d be 10 c9 c4 be 0f 99 34 3e fa 17 2d 3e
       -0.20052466 -0.3843465 0.17636512 0.16903678
000010 40 d5 a8 be 16 e2 96 be 88 29 c7 3d da 30 a0 bc
       -0.32975197 -0.29469365 0.09724718 -0.019554544
000020 0e 57 e0 bb 27 2e 62 3d 9e 69 5a bd 37 05 5c bd
       -0.006846315 0.055219796 -0.05332338 -0.05371591
000030 d9 35 63 bd 52 bd 65 bb 19 6d 12 3e a5 07 d7 3d
       -0.055471275 -0.003505547 0.1429943 0.10499505
000040 bf 5d de 3d f2 1a e5 3d 43 8e bc 3d 2a c4 0b bc
       0.108577244 0.1118678 0.09206822 -0.008530656
000050 a0 d8 ab bd 15 02 4f 3d 5c 76 08 be 23 61 a9 3d
       -0.08390927 0.050539095 -0.133264 0.082704805
000060 d3 5e d0 3d 15 df b1 3d af 07 e5 3d 35 ef 47 bc
       0.10174336 0.08685128 0.11183106 -0.0122030275
000070 00 3a 26 3c 05 33 48 3c 63 7a 97 3d b3 d6 a2 bc
       0.010145664 0.012219195 0.0739639 -0.019877767
000080 65 28 b6 3d 23 94 1f 3d 1f ee 8d bd d5 fc b2 3d
       0.088944234 0.038959634 -0.069301836 0.0873963
000090 3c 4a 84 bd 00 ef 87 3d f0 95 72 bd a4 69 9e bc
       -0.064594716 0.066373825 -0.059225023 -0.019337483
0000a0 82 b3 af bc b1 cc b8 3c a3 b6 a0 bd 40 60 80 bd
       -0.0214479 0.022558542 -0.07847335 -0.06268358
0000b0 57 d2 38 bd af 56 d2 bd 20 d6 ff 3a e0 48 92 bd
       -0.04512247 -0.1027044 0.001951877 -0.07142806
0000c0 46 6f d5 3d 1a 92 9e 3d 00 4f 11 3d 7b a3 3c 3d
       0.10421614 0.077427104 0.03547573 0.046054345
0000d0 97 93 ed 3d e6 30 c1 3d ba ad b8 bd 94 0b 7d bd
       0.11600416 0.09433155 -0.09017511 -0.06177862
0000e0 86 68 dd 3d fa 1b 02 3e 68 50 47 be 9d d5 3c be
       0.10810952 0.12705985 -0.19464266 -0.18440862
0000f0 86 61 2d be 48 45 bb be 3f e2 88 be ca 2d 6d be
       -0.16931733 -0.36576295 -0.26735112 -0.23161998
000100 23 cb 9d be 77 a3 0f be dd e4 13 be 9b 09 9c be
       -0.30819044 -0.140272 -0.14442773 -0.30476078
000110 2e 36 4f be c4 e9 68 be a0 31 8f be f6 8e 25 be
       -0.20235512 -0.22745425 -0.27967548 -0.16167817
000120 21 4e 77 be d8 5a b0 be 36 7a b9 be ea 04 4b be
       -0.24150898 -0.34444308 -0.36226052 -0.19826093
000130 95 9e 96 be 83 c3 5c be 79 6d 5f be 97 2b bb be
       -0.29417863 -0.21558957 -0.21819104 -0.36556694
000140 84 83 6c be 11 a4 1d be 06 2d 4e be ac 80 70 be
       -0.23097044 -0.15394618 -0.20134363 -0.23486584
000150 ba 11 88 be bf e0 90 be 9b 63 ae be 51 37 9c be
       -0.26576024 -0.28296468 -0.34060368 -0.30510953
000160 a5 f6 43 be c0 3b 15 be db 3b 2e be 9c 01 14 be
       -0.19137056 -0.14573574 -0.1701502 -0.14453739
000170 10 78 0c be 6b ff 18 be 49 4b 7b be 34 c5 71 be
       -0.13717675 -0.14941184 -0.24540438 -0.23610383
000180 44 7d 2b be 09 99 98 be ad f0 4c be f0 c4 70 be
       -0.16747004 -0.29804257 -0.20013686 -0.23512626
000190 ab 2b a4 be d2 18 95 be 8c c1 b9 be d3 d5 19 be
       -0.32064566 -0.291205 -0.36280477 -0.15022974
0001a0 94 1b 42 be 52 3b 9c be 53 55 63 be 78 a2 a9 be
       -0.18955833 -0.30514008 -0.22200517 -0.33131766
0001b0 e4 4f 12 be bd 27 84 be
       -0.14288288 -0.25811568

value_head.weight f4 [1, 64]
000000 d7 24 dc 3d 26 78 64 3d 12 43 cd 3d 57 70 fd 3d
       0.10749214 0.055778645 0.10022558 0.12374943
000010 1a 21 01 be 03 52 c0 3d 55 eb 86 3d ae 4a 5d bd
       -0.12610283 0.093906425 0.06587855 -0.0540263
000020 92 a0 e6 bd a9 14 4c bd 64 01 ae 3d 0e ce b5 3d
       -0.11261095 -0.04982439 0.08496359 0.088771924
000030 f4 94 d0 3d b7 a6 40 be c0 40 c9 3d 1d c7 8e 3d
       0.101846606 -0.18813597 0.09826803 0.069715716
000040 f7 14 9f bd b7 d8 7e bc c2 0f d2 bd 23 7b 80 3c
       -0.077676706 -0.0155545985 -0.10256912 0.015683716
000050 ab ba df 3d 22 69 67 3d 80 ac 3b be d0 24 f3 3d
       0.10924276 0.056496747 -0.18327522 0.11872256
000060 6f a9 86 3d be 9d a2 bd 88 b3 aa 3d f2 57 d6 3d
       0.06575286 -0.07940243 0.08335024 0.10465993
000070 1c fb 94 be 19 53 cf bd 2f 5d a9 bd 67 bb 8d 3c
       -0.2909783 -0.101232715 -0.082697265 0.017301274
000080 d8 78 95 3d 2d 18 8e 3d 5d 31 00 3d 82 75 13 3e
       0.0729844 0.06938205 0.031297076 0.14400294
000090 c7 c9 70 be d0 40 09 be aa a5 c4 bd 94 54 a3 3d
       -0.23514472 -0.1340363 -0.096019104 0.07975116
0000a0 d7 07 0b 3a 14 6c 91 3b ee 2c 7f bd 7c 31 a9 bd
       0.00053035974 0.0044379327 -0.062298708 -0.082613915
0000b0 03 dc 9f bc 5d 71 aa 3d a0 48 b7 3c 63 e4 0e bd
       -0.01951409 0.083224036 0.022373497 -0.034885775
0000c0 39 3d 0b bc 28 cd e5 3c 59 09 ef 3d 6f 6a 6d be
       -0.008498483 0.028051928 0.11671705 -0.23185132
0000d0 5e 2c bc 3d 32 34 08 be 95 b4 52 3d 49 7a 57 bc
       0.0918815 -0.13301161 0.051441748 -0.013151714
0000e0 d3 7a 32 be f4 3c 86 be dc 51 02 bd 53 0b 62 3d
       -0.17429666 -0.2621838 -0.03181635 0.05518658
0000f0 64 70 12 3d 0c 1e 2b 3d 58 ef 13 bd 3e c7 dd b9
       0.035751715 0.0417767 -0.036116928 -0.00042300852

exp_avg f4 [128, 260]
000000 2c a5 2a 39 94 e0 5b b8 49 14 ad 37 77 cb ec 38
       0.00016273995 -5.2422824e-05 2.0632653e-05 0.00011291255
000010 58 bd 61 38 3d 2f 01 38 b6 1b a9 38 cc eb c2 38
       5.382052e-05 3.079999e-05 8.0637095e-05 9.2945615e-05
000020 29 03 1b 39 55 6e 1b 39 ce e4 f0 38 a8 10 56 39
       0.00014783129 0.00014823054 0.0001148671 0.00020414835
000030 f0 dd 07 39 2b 6f 1b 39 ba 83 18 b8 c3 0e 0d 39
       0.00012957281 0.00014823365 -3.6362304e-05 0.00013452307
000040 0d a6 85 37 0d b4 77 38 b5 de 0e 39 e9 c4 c4 38
       1.5932159e-05 5.9057074e-05 0.0001362514 9.382686e-05
000050 8a 04 ee 37 88 51 b2 38 df a2 55 38 5e cb 55 39
       2.8373925e-05 8.502888e-05 5.0934843e-05 0.00020389023
000060 ac e4 23 39 3e 41 3e 39 5d 39 50 39 c8 0e 81 38
       0.00015630078 0.00018144117 0.00019857795 6.1539526e-05
000070 5e cb 1c 39 8f cb dc 38 91 cd 1b 38 25 91 23 39
       0.0001495308 0.00010528333 3.714633e-05 0.00015598962
000080 6b ec 09 38 47 4a 39 38 c2 6d 8c 38 13 65 31 38
       3.2883527e-05 4.4176613e-05 6.696164e-05 4.229422e-05
000090 d9 33 15 39 75 d7 68 39 b2 29 83 39 dd d8 d4 37
       0.00014229062 0.00022205508 0.00025017333 2.5373354e-05
0000a0 e9 9b 7d 38 10 a7 18 38 24 e8 59 38 86 f0 fd 37
       6.0465103e-05 3.6395213e-05 5.195303e-05 3.0271953e-05
0000b0 19 22 2c 39 b0 cb 13 38 5b 9e f2 38 d3 0b 60 39
       0.000164159 3.523723e-05 0.00011568955 0.0002136671
0000c0 84 a6 5c 39 b0 00 b8 39 8a e8 d5 38 e1 9d 28 39
       0.00021042867 0.00035095727 0.00010199945 0.00016080543
0000d0 04 00 00 00 04 00 00 00 04 00 00 80 ac 72 98 b6
       6e-45 6e-45 -6e-45 -4.5433026e-06
0000e0 60 dd 84 37 03 6f cf 35 c1 0d 57 37 00 05 9c 36
       1.5838712e-05 1.545501e-06 1.2818201e-05 4.6497444e-06
0000f0 5a e2 6c 38 e5 d8 6a 37 32 0d 3d 38 79 f6 51 38
       5.647759e-05 1.3997987e-05 4.50734e-05 5.005903e-05
000100 d7 42 6a 37 04 00 00 00 04 00 00 00 04 00 00 80
       1.3963049e-05 6e-45 6e-45 -6e-45
000110 c1 e3 41 36 aa 30 38 35 25 91 0b 37 cb 1b 83 36
       2.8891811e-06 6.8616157e-07 8.31884e-06 3.9073398e-06
000120 aa 34 43 38 d8 7d 89 37 b0 c1 9a 36 f8 94 92 b6
       4.654067e-05 1.6390273e-05 4.612106e-06 -4.3684813e-06
000130 60 f1 22 37 65 d0 75 37 04 00 00 80 04 00 00 00
       9.712152e-06 1.4651659e-05 -6e-45 6e-45
000140 29 0a ae 14 34 ed b3 36 2f 3a 63 37 9b d2 8b 35
       1.7573518e-26 5.36223e-06 1.3543801e-05 1.0417601e-06
000150 74 c0 8f 37 e4 0f 44 37 84 51 cd 36 19 fa 7f 37
       1.7136546e-05 1.168621e-05 6.1189658e-06 1.5257415e-05
000160 85 a6 cf 35 fc dc 9f 37 48 9f 08 38 04 00 00 00
       1.5471165e-06 1.905718e-05 3.257327e-05 6e-45
000170 04 00 00 80 6b 81 01 0e 29 c6 99 36 68 ca ba b6
       -6e-45 1.596279e-30 4.582824e-06 -5.566795e-06
000180 65 ea 05 37 4c 1c 85 36 98 46 64 37 29 59 ba 37
       7.981992e-06 3.967003e-06 1.3606295e-05 2.2214446e-05
000190 73 9b cd 37 9c 46 bf 37 77 06 67 37 92 f1 53 37
       2.4510291e-05 2.2801854e-05 1.3770178e-05 1.2632825e-05
0001a0 9f f1 93 36 54 da 74 b8 d6 49 df 37 97 3f 00 37
       4.40907e-06 -5.8377467e-05 2.6618054e-05 7.6442e-06
0001b0 62 ea e3 38 6d 10 8f b5 e1 49 55 b3 8c 33 76 38
       0.00010867861 -1.0659111e-06 -4.966012e-08 5.8698977e-05
0001c0 20 54 44 38 ea d7 c8 35 71 b3 81 38 63 b5 89 37
       4.680839e-05 1.4964e-06 6.184623e-05 1.6416137e-05
0001d0 66 3c bd 38 f7 ed 26 38 41 58 68 b3 f5 ce f1 37
       9.0234724e-05 3.9799106e-05 -5.4096976e-08 2.882581e-05
0001e0 e2 e1 85 37 57 ca 8d 38 20 24 b0 37 1c 0d d1 38
       1.596002e-05 6.761093e-05 2.0997657e-05 9.9683384e-05
0001f0 f3 73 9e 38 9f ba 53 39 85 12 85 38 d2 b6 84 38
       7.555624e-05 0.0002019205 6.345384e-05 6.3283034e-05
000200 d4 8d 20 38 b0 fd 4f b8 45 c0 84 37 d4 8d c1 38
       3.827906e-05 -4.958891e-05 1.5825159e-05 9.229375e-05
000210 69 2a 91 37 d9 fa 9a 38 cb 59 e4 34 23 5b 16 38
       1.7305096e-05 7.390016e-05 4.2533642e-07 3.5847665e-05
000220 db 0c 4e 38 bf 42 81 38 a1 ac b0 37 b2 64 9f 37
       4.91262e-05 6.163632e-05 2.1061222e-05 1.9001167e-05
000230 d8 a1 41 37 e0 05 17 38 a6 da bc 36 17 5d 3b 38
       1.1541379e-05 3.6006677e-05 5.6282906e-06 4.467097e-05
000240 4c 5b 0c b3 6a 74 79 38 6b 84 44 36 90 a5 cf 37
       -3.2679324e-08 5.9474645e-05 2.9283353e-06 2.4753419e-05
000250 37 b4 8b 37 38 dc 86 38 09 d2 00 38 9a d2 23 38
       1.665401e-05 6.430637e-05 3.071319e-05 3.9058366e-05
000260 b9 a7 48 37 18 76 04 38 a4 12 74 37 0d c0 af 38
       1.195998e-05 3.1581236e-05 1.4547873e-05 8.3804225e-05
000270 df 85 d2 36 22 bc 70 37 7e 41 b3 37 d7 9e bb 38
       6.2740723e-06 1.4348918e-05 2.136896e-05 8.946441e-05
000280 ef 8f 09 39 3b 95 c4 b7 dd b4 68 37 6a 59 af 37
       0.00013118958 -2.3434512e-05 1.3870388e-05 2.0903262e-05
000290 69 b8 b4 38 35 c0 57 37 c1 15 d5 36 a6 0f c1 37
       8.617418e-05 1.285975e-05 6.350427e-06 2.301468e-05
0002a0 58 c8 0a 37 b3 7f b0 38 5b 88 04 37 03 f8 c2 b5
       8.272087e-06 8.41612e-05 7.899561e-06 -1.4526307e-06
0002b0 1a 39 2a 39 bd 9c 35 37 27 d5 2a 37 b5 5a 95 36
       0.00016233735 1.0824934e-05 1.0182418e-05 4.4511057e-06
0002c0 f1 5d 32 37 d3 d6 32 37 de 79 b8 b6 ed 9c 76 38
       1.0631499e-05 1.0659644e-05 -5.4978145e-06 5.879712e-05
0002d0 c9 2b 3c 37 94 b4 d4 35 20 7a 98 38 75 69 88 b2
       1.1215868e-05 1.5847786e-06 7.270672e-05 -1.588044e-08
0002e0 91 13 9e 38 d6 0b b6 37 d6 35 9c 36 9b ff 6f 36
       7.5376716e-05 2.1701602e-05 4.6554296e-06 3.5762557e-06
0002f0 86 b1 80 37 dc 48 15 38 26 7f 23 37 f1 8b 35 36
       1.5341455e-05 3.5592224e-05 9.745161e-06 2.7052558e-06
000300 f4 2b 2d 36 43 26 03 36 64 95 b1 b6 83 09 b3 37
       2.5804593e-06 1.9542792e-06 -5.2924024e-06 2.1342892e-05
000310 15 35 c2 37 8d ef f5 37 14 4d 6b ae 19 1c 44 38
       2.315132e-05 2.9317825e-05 -5.3501273e-11 4.675621e-05
000320 b3 07 0a 38 d2 9f d5 36 18 62 82 36 d9 46 e4 37
       3.2908934e-05 6.3665e-06 3.8857215e-06 2.7212709e-05
000330 1a 51 0f 37 da cb 14 32 8a 35 31 37 d1 c0 72 37
       8.542347e-06 8.661084e-09 1.0562488e-05 1.4469218e-05
000340 e6 20 c9 39 6a 4f 2b 3a b0 09 00 3a 92 52 b8 39
       0.0003836222 0.0006534966 0.0004884256 0.00035156735
000350 47 c5 81 39 33 f8 0f 3a 00 cf eb 39 48 26 c7 39
       0.0002475178 0.00054920017 0.0004497692 0.0003798476
000360 b6 6d 66 39 8e 78 c7 39 4c 71 ac 39 e4 19 8a 39
       0.0002197538 0.00038046058 0.0003289081 0.000263407
000370 ed 26 a5 39 16 58 95 39 69 80 19 3a 00 2c cf 39
       0.00031500254 0.00028485124 0.00058556214 0.000395149
000380 85 b4 bc 39 44 9b db 39 8a e8 c7 39 fe 36 ba 39
       0.00035992652 0.00041886617 0.00038129493 0.00035517657
000390 8d 96 cf 39 24 da 7e 39 3e 8b e8 39 57 e1 76 39
       0.00039594286 0.00024304591 0.00044354232 0.00023544334
0003a0 5e 10 b3 39 38 69 d6 39 1d 86 8d 39 53 68 d3 39
       0.00034153735 0.00040895655 0.00026993538 0.00040322784
0003b0 1f 10 a5 39 4d eb b7 39 f4 67 03 3a 91 0d bd 39
       0.00031483264 0.00035079793 0.00050127436 0.00036058997
0003c0 11 07 e8 39 c5 c9 d3 39 df 95 ed 39 81 7f fa 39
       0.00044255753 0.00040395386 0.00045315825 0.00047778714
0003d0 60 3c d1 39 c6 bc 91 39 a9 a2 8f 39 91 23 f4 39
       0.0003990857 0.00027797202 0.00027396277 0.00046565806
0003e0 ee 3a f8 39 f2 6a e2 39 1a 70 02 3a 9e 9b f1 39
       0.00047346152 0.0004318576 0.0004975811 0.00046083046
0003f0 bf d0 af 39 e7 71 ea 39 c2 1f ce 39 1b a3 85 39
       0.0003353413 0.00044716822 0.00039315043 0.0002548926

exp_avg_sq f4 [128, 260]
000000 c4 8b 07 36 de cd 80 36 b9 99 35 35 ec 3b 19 36
       2.0197922e-06 3.8386634e-06 6.765145e-07 2.2833656e-06
000010 66 8f 59 35 36 98 02 36 91 54 97 36 d2 13 be 36
       8.104747e-07 1.9460108e-06 4.5099955e-06 5.6647486e-06
000020 72 5f 92 36 2a 0d 38 37 50 c4 ce 36 9e b8 66 36
       4.3622504e-06 1.097032e-05 6.162132e-06 3.4380132e-06
000030 ca 36 bd 36 ba ea a6 36 dc b4 8a 36 ad 35 00 36
       5.639017e-06 4.9745113e-06 4.1337753e-06 1.910473e-06
000040 5a 83 80 35 5c 83 65 36 eb c1 e4 36 95 e7 57 36
       9.574972e-07 3.420012e-06 6.8175045e-06 3.2172295e-06
000050 7e 71 5a 36 b5 16 aa 36 66 df 9f 36 df 6c cb 36
       3.2550593e-06 5.0690383e-06 4.7645763e-06 6.0625457e-06
000060 76 f3 96 36 e0 6c 37 37 16 4f 80 36 5b 11 76 36
       4.498691e-06 1.0932999e-05 3.823904e-06 3.6666959e-06
000070 cd 77 69 36 ef 89 fd 35 b9 79 4f 36 32 16 88 36
       3.4789439e-06 1.8890113e-06 3.0916256e-06 4.0556997e-06
000080 6d fa 1d 36 4f 3c 42 36 1c 52 06 37 a6 fa 83 36
       2.354059e-06 2.8943357e-06 8.00614e-06 3.9332836e-06
000090 05 0b 1d 37 21 9e ef 36 2d 4d 14 37 ac 54 13 36
       9.360495e-06 7.1411637e-06 8.839456e-06 2.1953992e-06
0000a0 1d 77 c8 36 29 d5 8e 35 10 f6 16 36 07 4f 06 36
       5.974331e-06 1.0641862e-06 2.249497e-06 2.0013556e-06
0000b0 bf 83 dd 36 27 9a 27 36 3e da 7f 36 fa 0f 8d 36
       6.6016505e-06 2.4974668e-06 3.8124995e-06 4.2039874e-06
0000c0 fd 63 d7 36 85 e4 c2 36 48 a7 b0 36 52 d0 db 36
       6.4191395e-06 5.8082537e-06 5.264683e-06 6.5509603e-06
0000d0 45 ed 21 2b eb fa 17 2b ad 86 6c 30 7a 25 83 33
       5.752797e-13 5.3994195e-13 8.6047686e-10 6.10698e-08
0000e0 65 5f 6b 34 fc c9 9c 34 86 48 8b 34 cb fe 82 34
       2.1920785e-07 2.9204227e-07 2.5943535e-07 2.4399773e-07
0000f0 7b 31 b0 35 79 ae 5c 34 91 25 bb 35 9a c9 d6 34
       1.3127423e-06 2.055257e-07 1.3943519e-06 4.000729e-07
000100 3f df c9 35 b5 f0 90 2b f7 1c 31 2d bf 7e fd 30
       1.504064e-06 1.0298625e-12 1.0067717e-11 1.8444196e-09
000110 83 55 ee 33 79 92 77 34 11 6e cd 34 cb e7 4b 34
       1.1098293e-07 2.3056954e-07 3.826431e-07 1.8990174e-07
000120 e7 6f 25 35 cc 4c a6 34 e3 d9 1a 35 43 bc e0 34
       6.163013e-07 3.0975787e-07 5.768654e-07 4.186023e-07
000130 ea e4 6d 34 38 45 8e 34 f4 de 3f 2c 9f e0 08 2c
       2.2155623e-07 2.6499924e-07 2.7266496e-12 1.9451452e-12
000140 62 a3 36 2f 99 27 b1 33 4a 53 4a 34 75 6c 30 34
       1.6610849e-10 8.2494076e-08 1.8843016e-07 1.6430734e-07
000150 39 c6 d0 34 cc cf 87 34 de 28 8d 34 e5 66 cb 34
       3.8887245e-07 2.5296902e-07 2.629303e-07 3.7886562e-07
000160 13 0f a4 34 a8 68 f0 34 a5 af a4 34 ce b5 67 2b
       3.0558348e-07 4.477963e-07 3.067518e-07 8.231999e-13
000170 60 29 43 2b 3d b3 b8 32 61 68 a6 33 84 5e 08 34
       6.9335336e-13 2.1501927e-08 7.748964e-08 1.2700372e-07
000180 1f e2 09 34 2c 05 fc 34 97 db 32 36 58 f4 8d 34
       1.2841382e-07 4.694242e-07 2.6651885e-06 2.644108e-07
000190 14 77 11 35 75 b4 a9 35 83 6d 98 34 04 39 a0 34
       5.418999e-07 1.2644001e-06 2.8391887e-07 2.9843807e-07
0001a0 c9 88 36 35 d9 e3 ed 35 23 4d 9b 35 d9 e7 f2 35
       6.799933e-07 1.7724188e-06 1.157085e-06 1.8097882e-06
0001b0 71 3b 78 36 aa 65 91 36 86 b9 be 36 7b 79 30 36
       3.698948e-06 4.333172e-06 5.684039e-06 2.6296755e-06
0001c0 18 4d 47 36 83 f9 03 36 4e 2f bc 36 ec 22 55 36
       2.9698185e-06 1.9665756e-06 5.6083436e-06 3.17598e-06
0001d0 d5 14 3c 36 4d d0 5c 34 22 18 00 34 b9 eb 1a 36
       2.802631e-06 2.0564876e-07 1.1929708e-07 2.3084997e-06
0001e0 72 ff a7 36 2e 09 15 36 f7 cb 40 36 dc 62 40 36
       5.0067256e-06 2.2208073e-06 2.8728953e-06 2.8667773e-06
0001f0 17 7f 3c 36 71 36 7d 36 41 6d 87 36 2e 1c 68 36
       2.808816e-06 3.7731627e-06 4.0360324e-06 3.4587097e-06
000200 ee 73 27 36 c7 35 19 36 33 8f 51 35 27 53 65 35
       2.495242e-06 2.283008e-06 7.806695e-07 8.543015e-07
000210 83 f9 d6 34 cf b0 2e 36 85 fd e6 35 02 85 ae 35
       4.004215e-07 2.6030937e-06 1.7210119e-06 1.3002721e-06
000220 d1 3c 58 36 73 91 93 36 93 2f f4 35 83 0e c8 36
       3.2221908e-06 4.397874e-06 1.8193263e-06 5.962154e-06
000230 d2 ce 00 36 49 e3 d7 35 96 47 69 36 1d 6a 9d 35
       1.9193872e-06 1.6084897e-06 3.4761374e-06 1.1728295e-06
000240 9d 6f 86 34 eb 69 32 35 bb 14 1d 35 8b 7d 1d 36
       2.5040654e-07 6.64643e-07 5.8517224e-07 2.3467899e-06
000250 5f 58 e6 35 86 08 47 36 16 ae b3 35 6d aa f9 35
       1.7162055e-06 2.9658272e-06 1.3387205e-06 1.8601546e-06
000260 3f b6 1c 36 ae 1d cf 35 32 72 a6 35 bf f8 50 36
       2.3351893e-06 1.543134e-06 1.2401199e-06 3.1139205e-06
000270 20 57 bf 35 e6 2a 3f 35 a4 15 11 36 62 4f e2 34
       1.4255966e-06 7.121547e-07 2.161928e-06 4.215354e-07
000280 e7 1e c9 35 36 09 51 35 01 6b ed 35 de d1 19 35
       1.4984661e-06 7.787197e-07 1.7689018e-06 5.730234e-07
000290 77 46 23 35 b5 b4 bb 33 d4 06 36 34 49 58 e9 34
       6.082477e-07 8.7407365e-08 1.6952555e-07 4.3463868e-07
0002a0 f8 0a 6a 34 9f 8b f4 34 10 8b f0 33 36 55 a2 35
       2.1796939e-07 4.555013e-07 1.1201166e-07 1.209474e-06
0002b0 dc 78 d2 35 19 07 a5 34 19 ac 88 35 f4 76 6e 35
       1.5681394e-06 3.073881e-07 1.0182877e-06 8.883501e-07
0002c0 be d2 86 35 ee ad 00 35 8d 61 4c 34 9a 74 44 34
       1.0045112e-06 4.7936817e-07 1.903447e-07 1.8296342e-07
0002d0 4e 6c 3b 34 b4 9a e8 33 37 38 50 35 06 54 13 35
       1.7455133e-07 1.0831482e-07 7.756784e-07 5.488404e-07
0002e0 33 74 46 35 78 38 83 35 2e 52 7e 35 73 d2 65 34
       7.392984e-07 9.776695e-07 9.474196e-07 2.1403848e-07
0002f0 c8 3c 78 35 9e b7 ca 35 96 a4 37 34 cd 6f 01 34
       9.247565e-07 1.5103612e-06 1.7103079e-07 1.2054734e-07
000300 ec 9c 25 36 b1 7c 31 35 44 6c 49 34 f1 d1 15 35
       2.4678257e-06 6.611909e-07 1.875897e-07 5.581233e-07
000310 8b fa f5 34 7a 42 7c 34 1a 21 26 34 50 0a 11 36
       4.58171e-07 2.3493513e-07 1.5471997e-07 2.1612686e-06
000320 86 b2 2f 36 9a 62 cd 34 0c 7c 4f 35 43 67 70 35
       2.6180946e-06 3.8255968e-07 7.729402e-07 8.955723e-07
000330 18 c8 0c 34 78 20 6d 33 fa 83 61 34 0e f1 85 33
       1.311131e-07 5.5210393e-08 2.1002771e-07 6.237143e-08
000340 a9 b6 ae 37 25 40 9c 37 55 ec b0 37 95 e3 a2 37
       2.0827474e-05 1.8626519e-05 2.1090886e-05 1.9417881e-05
000350 a7 5b 93 37 97 aa 8c 37 5b 8f 4b 37 72 37 65 37
       1.7566445e-05 1.6768738e-05 1.213312e-05 1.3662373e-05
000360 b4 b4 69 37 1b fa 2a 37 70 f8 34 37 e0 10 82 37
       1.39299555e-05 1.0191022e-05 1.078668e-05 1.5505066e-05
000370 f3 91 70 37 d4 d0 9d 37 b4 38 ad 37 f1 d1 a0 37
       1.4339096e-05 1.8813102e-05 2.0649612e-05 1.9171248e-05
000380 28 50 8b 37 82 ed 95 37 96 e1 43 37 81 29 89 37
       1.6607417e-05 1.7872782e-05 1.1675429e-05 1.6351e-05
000390 44 43 7f 37 ac 7e 6c 37 e4 3c 60 37 4b c5 5c 37
       1.5214846e-05 1.4096189e-05 1.3365618e-05 1.3158958e-05
0003a0 24 10 85 37 b3 69 42 37 f8 18 9e 37 00 e8 99 37
       1.5862352e-05 1.1587911e-05 1.8846695e-05 1.8347055e-05
0003b0 0c d7 a0 37 30 d3 a3 37 ee 4e 97 37 13 51 a0 37
       1.9173625e-05 1.9529456e-05 1.8037357e-05 1.911124e-05
0003c0 7c e0 83 37 1c 48 73 37 a5 30 6a 37 83 18 57 37
       1.572095e-05 1.4500718e-05 1.3958813e-05 1.2820706e-05
0003d0 9b 03 3e 37 94 12 82 37 d3 9b 46 37 48 a9 a5 37
       1.1325722e-05 1.5505859e-05 1.1838e-05 1.974836e-05
0003e0 1c 64 93 37 4e 4b aa 37 8c 12 a2 37 8f 74 99 37
       1.7570383e-05 2.0300646e-05 1.9320541e-05 1.8293298e-05
0003f0 f0 48 53 37 5d 9c 89 37 cc 4c 81 37 14 b1 8c 37
       1.2593562e-05 1.6404485e-05 1.541376e-05 1.6771759e-05

exp_avg f4 [128]
000000 ac 06 12 3a 04 00 00 00 04 00 00 00 98 a6 20 bb
       0.0005570452 6e-45 6e-45 -0.002451336
000010 04 00 00 00 15 88 99 bb 04 00 00 00 1f cd 81 bb
       6e-45 -0.0046854117 6e-45 -0.00396122
000020 2c 6e 64 39 f3 94 f0 32 ba 36 55 bc 8d 28 ec 09
       0.00021784817 2.8007412e-08 -0.013013536 5.6853067e-33
000030 b5 c2 6c 3a 76 fe 80 2b 34 ef be bb 04 00 00 00
       0.0009031699 9.165574e-13 -0.005826855 6e-45
000040 62 38 31 ba 39 dd 3e bb 04 00 00 00 51 da 16 bb
       -0.0006760416 -0.0029123558 6e-45 -0.002301831
000050 04 00 00 00 db 48 90 35 f7 55 a9 ba 04 00 00 00
       6e-45 1.075004e-06 -0.0012919296 6e-45
000060 57 55 96 bc ad b0 21 bb 04 00 00 00 04 00 00 00
       -0.01835124 -0.0024671957 6e-45 6e-45
000070 1c be 1e bc 04 00 00 00 18 50 5c ba e0 1d 08 39
       -0.00968888 6e-45 -0.0008404269 0.000129811
000080 38 04 29 37 04 00 00 00 04 00 00 00 2e 30 f5 ba
       1.0074167e-05 6e-45 6e-45 -0.0018706375
000090 04 00 00 00 02 da 5f bc 20 92 2f bc 04 00 00 00
       6e-45 -0.013662817 -0.010715991 6e-45
0000a0 04 00 00 00 a5 ca 6f 34 04 00 00 00 87 d1 81 bc
       6e-45 2.2332331e-07 6e-45 -0.01584698
0000b0 d9 b5 66 bb c3 2e 68 bc 91 b6 95 3b 04 00 00 80
       -0.0035203604 -0.014171305 0.0045688828 -6e-45
0000c0 1d 35 72 25 04 00 00 00 31 ae d3 bb b1 10 85 3b
       2.100815e-16 6e-45 -0.006459974 0.0040608277
0000d0 85 0b ba bb 04 00 00 00 ad a0 d8 39 bc 2a 6f ba
       -0.0056776428 6e-45 0.00041318443 -0.00091234944
0000e0 b0 d9 a7 bb 81 b1 64 2e 13 e5 42 bb 7e 81 e7 37
       -0.005122386 5.1998853e-11 -0.002973859 2.7597645e-05
0000f0 e6 66 79 3b 20 41 09 29 3a 3b 05 bc 04 00 00 00
       0.0038055717 3.0476598e-14 -0.0081317965 6e-45
000100 12 7e 22 bc 83 e8 25 bb be 52 11 bc 00 f6 e0 39
       -0.009917753 -0.002531559 -0.008869825 0.00042907894
000110 30 f3 09 25 e0 a1 07 39 04 00 00 00 94 fc b6 bb
       1.1965251e-16 0.00012934906 6e-45 -0.005584309
000120 10 2a 60 bc 56 e9 3d 39 f9 90 a1 3b 04 00 00 00
       -0.0136819035 0.00018111369 0.004930612 6e-45
000130 04 00 00 00 27 01 dc 35 a8 22 c5 bb 00 fc 77 bb
       6e-45 1.6391613e-06 -0.0060160942 -0.0037839413
000140 d8 d5 21 04 04 00 00 00 04 00 00 00 75 80 ce b9
       1.9023651e-36 6e-45 6e-45 -0.0003938709
000150 04 00 00 00 ab 05 4e 3b 8d 2d e2 3a 2e d6 02 bb
       6e-45 0.0031436484 0.0017256007 -0.0019964087
000160 04 00 00 00 ed 73 a2 bb 3d 9f 57 25 21 f5 cc bb
       6e-45 -0.004957667 1.870223e-16 -0.0062548076
000170 21 9a 97 39 aa 48 07 bb 04 00 00 00 39 10 af bb
       0.000289158 -0.0020642676 6e-45 -0.00534251
000180 d9 89 1f b9 41 f3 90 bb 75 67 37 bc 04 00 00 00
       -0.00015214774 -0.0044235294 -0.0111941 6e-45
000190 60 47 fc bb 85 6c 72 39 68 b8 39 ba 04 00 00 00
       -0.0076989383 0.00023119345 -0.00070846686 6e-45
0001a0 04 00 00 00 7f 3e 36 39 c5 56 80 18 fb d8 82 bb
       6e-45 0.00017380154 3.317484e-24 -0.0039931512
0001b0 04 00 00 00 80 d8 02 bc 37 c2 f8 bb 04 00 00 00
       6e-45 -0.007986188 -0.0075915116 6e-45
0001c0 c0 0e 42 36 04 00 00 00 f7 20 3a 3a a7 90 20 1f
       2.8916838e-06 6e-45 0.0007100249 3.400097e-20
0001d0 7f 2d 5b bb 2c 51 d7 39 76 d9 ee ba b5 8d a7 bb
       -0.0033443866 0.00041068473 -0.0018222767 -0.0051133283
0001e0 04 00 00 00 6d d5 a3 33 04 00 00 00 04 00 00 00
       6e-45 7.629101e-08 6e-45 6e-45
0001f0 04 00 00 00 6b 86 0a 36 88 a9 da bb 52 79 98 ba
       6e-45 2.0641844e-06 -0.0066730417 -0.0011632836
