ppo_2layer_1/ppo_agent_episode_14400.pth (torch, 596662 bytes, 21 tensors)

fc1.weight f4 [128, 260]
-0.10192048 -0.19868629 -0.031295877 -0.081884354 0.010178921 0.008243949 0.04055225 -0.049945567
-0.038333945 0.06073434 -0.04216663 0.15803465 -0.21570106 0.040293485 -0.019887723 -0.087797016
-0.14940159 0.025144173 0.027262656 -0.29666534 -0.22165437 -0.11883405 0.00010890948 -0.12808861
0.027243016 -0.116300315 -0.09941449 -0.13967623 -0.2545396 -0.021705993 -0.03283224 -0.18276608
-0.20326915 0.3644552 -0.40506503 0.12040983 0.20162326 -0.09782515 -0.096366204 -0.15753186
-0.008315114 0.06565906 -0.060196556 -0.0810919 -0.11665323 -0.08463838 0.05847339 -0.02091681
-0.10884462 -0.064133786 -0.24787821 -0.03280643 -0.31384024 -0.17126901 -0.07186927 0.023573777
0.0633624 0.10947474 0.016852867 0.042265423 -0.01324425 -0.046402514 0.04148645 -0.022199027
0.009216917 -0.17878234 -0.026330506 -0.0141336415 -0.08618211 -0.04307052 0.13326088 0.23870328
0.018029762 0.05807727 0.05042347 0.03244823 -0.009636418 0.057230446 -0.15334655 -0.13238615
-0.27440143 -0.036816474 -0.01336546 -0.029762236 0.09179212 -0.14359194 0.13144137 -0.09359334
-0.041760545 0.050257534 0.063382305 -0.113673225 -0.012235213 -0.13483395 -0.067163214 0.08152505
0.104666986 0.07166721 0.07007503 0.046950124 0.050718702 -0.023581238 0.10555801 0.07071984
0.016416172 -0.19225872 0.20888287 -0.09567372 -0.15924813 0.06913763 0.10320762 0.116199575
-0.09910956 0.01949354 0.018253775 -0.1148262 0.083500355 -0.14151703 0.36272767 0.13107108
0.05486049 0.05815123 -0.023023715 0.12380661 0.025291437 0.059075594 -0.029387645 -0.014120203
-0.019657984 -0.028844276 0.08438406 0.32561022 0.060958818 0.10458696 -0.014854707 0.07936661
0.2667093 -0.116906814 0.04559995 -0.037965037 -0.2555869 -0.029868932 0.040328946 -0.13475595
0.05352512 -0.17983368 0.004577198 -0.019028395 -0.020263592 0.066346206 0.15926205 0.029397765
-0.06346799 0.06463509 0.18918426 -0.018937612 -0.109144695 0.12113116 -0.10191697 -0.017513325
0.2067082 -0.124252014 0.042737406 0.03127317 -0.019133415 0.06100825 0.079324394 0.041826632
-0.030394765 -0.027343938 0.038017962 0.17632903 0.073174395 -0.024313524 -0.059923906 -0.0023572335
-0.09846762 0.07449799 0.12355819 0.042882886 -0.20559867 0.00832653 0.04786338 0.0023323882
0.025677513 0.24988316 -0.02517836 0.15740995 -0.11252451 0.036006104 0.18992186 0.1378279
0.057379447 0.05953119 -0.038330823 0.10291032 -0.035046887 0.042804867 0.08517737 -0.04970741
0.024681386 0.1774904 -0.014991571 -0.14380807 0.07889414 -0.022017807 0.09503634 0.09732395
0.074352704 0.117540374 0.07645436 0.064526595 0.022588287 0.050456528 -0.12539703 0.017205713
0.18829861 -0.03349706 0.07829732 0.025251167 0.1439388 0.06480425 0.021661999 0.060594615
0.07833002 0.08494551 -0.015817417 0.0829796 0.09569734 0.0002009876 0.021209557 0.056840334
0.04711025 0.06879106 0.048081487 -0.0033085952 0.13996974 -0.023762235 0.03906846 0.13376403
0.04382101 -0.19256823 0.11063386 -0.003923369 -0.01419888 0.0774666 0.09154235 0.08679134
-0.04284099 -0.039454866 0.04812933 0.04282516 0.0837029 -0.036774717 -0.020131214 0.08814264
00000000: afbb d0bd 6b74 4bbe 1b30 00bd fcb2 a7bd
00000010: 7dc5 263c a111 073c 1e1a 263d b993 4cbd
00000020: 0e04 1dbd 92c4 783d ebb6 2cbd d6d3 213e
00000030: bde0 5cbe c80a 253d 94eb a2bc ecce b3bd
00000040: bbfc 18be 27fb cd3c ef55 df3c 85e4 97be
00000050: 5df9 62be 445f f3bd 5566 e438 a929 03be
00000060: bf2c df3c dc2e eebd d399 cbbd 4907 0fbe
00000070: 0453 82be c4d0 b1bc 197b 06bd 0827 3bbe
00000080: ca25 50be df99 ba3e af64 cfbe 6e99 f63d
00000090: 5476 4e3e 8d58 c8bd a55b c5bd 0850 21be
000000a0: 1e3c 08bc 4278 863d aa90 76bd 8313 a6bd
000000b0: e3e7 eebd e356 adbd cb81 6f3d bb59 abbc
000000c0: eee9 debd 9358 83bd c9d3 7dbe 0960 06bd
000000d0: abaf a0be 2561 2fbe 3230 93bd cb1d c13c
000000e0: 25c4 813d 4b34 e03d 060f 8a3c 821e 2d3d
000000f0: 69fe 58bc 9010 3ebd b2ed 293d bcda b5bc
00000100: 8d02 173c b812 37be 13b3 d7bc ca90 67bc
00000110: 3f80 b0bd b76a 30bd 8a75 083e a26e 743e
00000120: 27b3 933c 6ee2 6d3d d788 4e3d 6fe8 043d
00000130: 11e2 1dbc 796a 6a3d e106 1dbe 3c90 07be
00000140: 587e 8cbe dfcc 16bd cdfa 5abc efcf f3bc
00000150: 82fd bb3d c409 13be 9198 063e ddad bfbd
00000160: 1b0d 2bbd d8da 4d3d 95ce 813d 82cd e8bd
00000170: 3476 48bc e911 0abe de8c 89bd 9bf6 a63d
00000180: a55b d63d 42c6 923d 7f83 8f3d c64e 403d
00000190: 6abe 4f3d 712d c1bc cc2e d83d 90d5 903d
000001a0: 357b 863c 78df 44be 64e5 553e 95f0 c3bd
000001b0: f111 23be 0898 8d3d 845e d33d 0bfa ed3d
000001c0: f4f9 cabd ebb0 9f3c f188 953c 002a ebbd
000001d0: 3c02 ab3d d7e9 10be 71b7 b93e 7f37 063e
000001e0: 65b5 603d fc2f 6e3d 3b9c bcbc 528e fd3d
000001f0: fd2f cf3c 40f9 713d 5cbe f0bc 6d58 67bc
00000200: c809 a1bc d54a ecbc 8dd1 ac3d 62b6 a63e
00000210: f4af 793d b031 d63d 2861 73bc f68a a23d
00000220: 1f8e 883e d76c efbd 03c7 3a3d 3a81 1bbd
00000230: 49dc 82be b1af f4bc f72f 253d 77fd 09be
00000240: 283d 5b3d 5226 38be 52fc 953b 70e1 9bbc
00000250: d5ff a5bc 85e0 873d 9715 233e 95d3 f03c
00000260: 81fb 81bd 675f 843d 85b9 413e 0d23 9bbc
00000270: 4187 dfbd 9d13 f83d d8b9 d0bd 1b78 8fbc
00000280: 50ab 533e d777 febd 6b0d 2f3d 4c18 003d
00000290: aebd 9cbc c9e3 793d d474 a23d 6752 2b3d
000002a0: 71fe f8bc 6500 e0bc b9b8 1b3d 998f 343e
000002b0: 75dc 953d 282d c7bc c572 75bd d17b 1abb
000002c0: 64a9 c9bd 6792 983d 140c fd3d f7a5 2f3d
000002d0: 7588 52be 006c 083c 640c 443d fbda 183b
000002e0: a659 d23c 5fe1 7f3e d942 cebc 1330 213e
000002f0: 4073 e6bd 237b 133d e07a 423e c222 0d3e
00000300: b606 6b3d fad6 733d c800 1dbd a5c2 d23d
00000310: 538d 0fbd 2854 2f3d 7971 ae3d ff99 4bbd
00000320: 9e30 ca3c 0bc0 353e 359f 75bc 6c42 13be
00000330: 4093 a13d b05e b4bc 6aa2 c23d c751 c73d
00000340: 3b46 983d 02b9 f03d 1a94 9c3d 8526 843d
00000350: 120b b93c 81ab 4e3d 1468 00be fff2 8c3c
00000360: 5ad1 403e 3734 09bd 585a a03d 89db ce3c
00000370: b164 133e 17b8 843d 8174 b13c 0f32 783d
00000380: 7d6b a03d e9f7 ad3d 8793 81bc 35f1 a93d
00000390: f8fc c33d 33c0 5239 aabf ad3c 69d1 683d
000003a0: adf6 403d 54e2 8c3d 18f1 443d 04d5 58bb
000003b0: 3a54 0f3e 05a9 c2bc 4006 203d 70f9 083e
000003c0: a97d 333d 9b30 45be 0194 e23d 9b8f 80bb
000003d0: 6ba2 68bc cfa6 9e3d 8e7a bb3d a8bf b13d
000003e0: 097a 2fbd 6d9b 21bd 4323 453d 6f69 2f3d
000003f0: 6d6c ab3d 16a1 16bd 37ea a4bc 2184 b43d

fc1.bias f4 [128]
0.029918807 0.07345408 0.0564255 0.0029087102 0.029215403 0.07721304 0.038241543 -0.10445965
0.0027413734 0.060912024 0.025466904 0.09533438 -0.052404996 -0.030975917 -0.03661632 0.015044076
0.05834834 0.039876036 0.048058055 0.0912206 0.081743635 -0.0015671325 0.022047056 -0.029028533
0.021561682 0.017415298 -0.007662079 0.094963185 -0.04686376 -0.050368693 0.024348851 -0.018834759
-0.07831628 0.07740712 0.029975668 -0.04970353 0.05703386 0.040054817 0.04535848 0.045717224
-0.026416963 0.08579275 -0.060936503 0.002646412 -0.024967024 -0.07785155 -0.0041665896 5.716367e-05
0.050320867 0.061691195 0.010787602 0.052392084 0.038557187 0.07048109 0.032349613 -0.010692394
-0.0006319509 -0.03793051 0.06744672 0.030491462 -0.0393652 0.05160363 -0.015960433 0.036741536
0.030585684 -0.015540498 -0.075213134 0.006468048 0.06285925 -0.07077894 0.032521024 0.009221393
-0.08136897 0.054774087 -0.011926542 0.034656886 -0.014613348 -0.04327501 0.035330202 -0.021433663
-0.013720337 -0.024669215 0.012780154 -0.031451356 0.030613039 0.0108994385 0.0075499527 0.062844336
-0.020469563 -0.01821666 0.015453949 0.013340651 0.10115161 0.061909318 -0.052296195 0.022818126
0.0060304715 -0.012874097 0.01795206 -0.036308926 0.053808164 0.0031954648 0.095923625 0.09053021
0.055828586 -0.036917284 0.051821865 0.081853665 -0.044328745 0.03300214 0.01249117 -0.037225876
-0.03580261 0.011863627 0.077073015 0.03330603 0.09248611 0.018867724 0.07102622 -0.021730794
0.018009601 0.09141168 -0.010011604 0.021600971 0.080447994 0.062072545 0.0031437648 -0.009520422
00000000: 4918 f53c 186f 963d 6d1e 673d 0fa0 3e3b
00000010: 2455 ef3c df21 9e3d 2aa3 1c3d f1ee d5bd
00000020: 9da8 333b e37e 793d f89f d03c ac3e c33d
00000030: 9fa6 56bd 35c1 fdbc fffa 15bd 6e7b 763c
00000040: abfe 6e3d 0e55 233d 86d8 443d ded1 ba3d
00000050: 3569 a73d 3e68 cdba 079c b43c 3fcd edbc
00000060: 20a2 b03c 87aa 8e3c 2d12 fbbb 0f7c c23d
00000070: 37f4 3fbd 674f 4ebd 3e77 c73c 5a4b 9abc
00000080: 4964 a0bd a087 9e3d 888f f53c ee95 4bbd
00000090: 569c 693d 8510 243d d0c9 393d fc41 3b3d
000000a0: 6368 d8bc 1cb4 af3d 8e98 79bd 6d6f 2d3b
000000b0: a587 ccbc a270 9fbd e387 88bb 06c3 6f38
000000c0: 411d 4e3d e8af 7c3d 7bbe 303c 1599 563d
000000d0: 24ee 1d3d 6458 903d 0781 043d 272f 2fbc
000000e0: 82a9 25ba 065d 1bbd 8221 8a3d 3bc9 f93c
000000f0: 673d 21bd 545e 533d 74bf 82bc 4b7e 163d
00000100: d48e fa3c 939d 7ebc 5809 9abd ebf1 d33b
00000110: 5abc 803d 8df4 90bd c434 053d 5315 173c
00000120: c6a4 a6bd cb5a 603d 8b67 43bc 61f4 0d3d
00000130: d36c 6fbc 2341 31bd 67b6 103d a695 afbc
00000140: 44cb 60bc 1817 cabc da63 513c 23d3 00bd
00000150: 32c8 fa3c 8f93 323c 9865 f73b 88b4 803d
00000160: c9af a7bc 1b3b 95bc 8f32 7d3c bf92 5a3c
00000170: 9328 cf3d a094 7d3d 8934 56bd 14ed ba3c
00000180: 439b c53b e0ed 52bc 3310 933c abb8 14bd
00000190: f365 5c3d 016b 513b 9b73 c43d e767 b93d
000001a0: 84ac 643d 9436 17bd 2a43 543d e5a2 a73d
000001b0: 0f92 35bd 402d 073d c4a7 4c3c 297a 18bd
000001c0: c2a5 12bd a85f 423c 75d8 9d3d e76b 083d
000001d0: 5c69 bd3d 7c90 9a3c 3276 913d c704 b2bc
000001e0: df88 933c 0c36 bb3d b607 24bc 85f4 b03c
000001f0: ebc1 a43d c83f 7e3d 9f07 4e3b 8bfb 1bbc

fc2.weight f4 [64, 128]
0.09295639 -0.054051276 0.010785522 0.24269086 0.090743646 0.41654024 0.021077057 -0.12113714
0.29253903 -0.01133376 -0.057438713 0.08740046 -0.0122870235 0.08509922 0.024968084 0.05796521
0.08080561 -0.095274135 -0.117182694 0.1050044 0.092901215 0.22372703 0.008320197 -0.05186766
0.010650535 0.07876104 -0.13674587 0.33517975 0.2771536 0.22550903 0.33801973 -0.09379407
-0.015075203 0.28909612 -0.039864827 0.15519436 0.1857476 -0.24085295 0.4803537 -0.06771968
0.10060813 -0.214784 0.0009582475 0.14864352 -0.16128129 0.2917417 0.19688804 -0.018851748
0.08738901 0.085566096 -0.017006297 0.1807373 -0.14256354 0.034308087 -0.039268285 -0.0107386615
0.12396766 0.07152636 -0.16901588 0.24399987 -0.15046525 0.060952008 0.018553702 -0.051345725
0.09709175 0.045564562 -0.07603978 0.09658318 0.04223266 0.024438443 0.030227523 -0.18172044
0.020066015 -0.08005402 0.019393407 -0.01397499 -0.073817596 0.1679798 -0.22862817 0.28375757
0.21176448 0.0654073 -0.06259504 0.06941889 0.28668028 -0.099744044 0.09102012 -0.17127858
-0.08378515 0.2724132 0.0026847564 -0.016523713 0.15979168 0.12818977 0.20703948 0.106830694
0.1628043 -0.1071859 0.24683493 0.44628608 0.18164882 -0.13161577 -0.043357037 0.1022347
-0.022963546 -0.19410452 -0.15448843 -0.09578934 -0.15055181 0.14119482 0.026423212 0.17018642
-0.12317397 0.036792234 0.09512779 -0.100660734 0.1320055 0.09408343 -0.12328138 0.022628143
0.08797767 -0.15678118 0.1940839 -0.36740404 -0.33181885 0.29858488 0.060655598 -0.07624807
-0.16681512 -0.0679847 0.19540894 -0.13340762 0.29390514 0.20045155 0.19712651 -0.1411928
0.074345924 0.39503 0.33998215 -0.047275946 0.08580094 -0.12672345 -0.23163573 -0.016139418
0.13874468 0.04773675 0.11267338 0.13807558 -0.23382078 -0.13041335 -0.028280826 -0.24755515
0.15759341 0.030080415 -0.06799295 0.11954206 0.057830177 -0.053718183 0.022605782 -0.059107073
0.3348223 -0.24283317 0.20573503 -0.07557042 0.1409899 0.053558383 -0.32604903 -0.23046644
0.29642463 -0.17791262 -0.030264098 -0.025512815 0.2790087 -0.05602271 -0.12716024 0.39471632
0.103163026 0.044317268 0.07467319 0.1435768 0.18132354 0.12655634 -0.16287796 -0.19135787
0.31631324 -0.14486286 0.14684089 0.22938749 -0.015273378 0.044432424 -0.041721042 -0.101007044
0.012429009 -0.13297845 0.11353404 0.08524914 0.4347245 -0.16463345 0.022150563 0.16087687
0.18805902 0.22696769 0.24796675 0.0822565 0.12535155 -0.06138258 0.14834279 -0.10216053
-0.39398724 0.111107305 0.13925253 0.00025589913 -0.19763826 0.1572134 0.028577516 -0.08939387
0.4634352 0.20747824 0.037254766 0.012018485 0.08856118 0.26820925 -0.1561513 0.053870432
0.20762464 -0.06174794 0.008141295 0.10953151 0.11749075 0.26958886 -0.16775058 -0.023508329
0.18319468 0.27600157 -0.061139513 0.059889767 0.17593452 0.025420725 -0.12671734 0.22299394
0.06230473 0.09539934 -0.053290553 -0.0573174 0.0057364223 0.04346218 0.2446559 0.2723408
-0.1085428 0.05092998 -0.050007813 0.06634624 9.567722e-05 0.18576172 0.2561316 0.017624028
00000000: eb5f be3d df64 5dbd c2b5 303c f483 783e
00000010: ced7 b93d c344 d53e cba9 ac3c c016 f8bd
00000020: adc7 953e 3cb1 39bc db44 6bbd 03ff b23d
00000030: 834f 49bc 8048 ae3d de89 cc3c ee6c 6d3d
00000040: 697d a53d 161f c3bd 7bfd efbd 8c0c d73d
00000050: fe42 be3d b318 653e 7051 083c 2f73 54bd
00000060: 957f 2e3c 784d a13d 1c07 0cbe ae9c ab3e
00000070: 14e7 8d3e d7eb 663e ec10 ad3e 1b17 c0bd
00000080: fcfd 76bc 6804 943e 4d49 23bd 45eb 1e3e
00000090: 9e34 3e3e 28a2 76be ecf0 f53e 9eb0 8abd
000000a0: a30b ce3d 56f0 5bbe e732 7b3a 0236 183e
000000b0: ec26 25be 2b5f 953e 059d 493e fb6e 9abc
000000c0: 02f9 b23d 473d af3d ca50 8bbc 3313 393e
000000d0: 2dfc 11be a386 0c3d c8d7 20bd 36f1 2fbc
000000e0: c2e2 fd3d 6a7c 923d 8012 2dbe 1adb 793e
000000f0: 9013 1abe d0a8 793d effd 973c e54f 52bd
00000100: 0ad8 c63d e8a1 3a3d bfba 9bbd 67cd c53d
00000110: 27fc 2c3d 2133 c83c b69f f73c ec14 3abe
00000120: 7c61 a43c 5df3 a3bd ecde 9e3c 5bf7 64bc
00000130: ae2d 97bd e602 2c3e 811d 6abe ac48 913e
00000140: cad8 583e 43f4 853d d431 80bd 7e2b 8e3d
00000150: c2c7 923e 9b46 ccbd c268 ba3d a763 2fbe
00000160: 8c97 abbd be79 8b3e bdf2 2f3b bd5c 87bc
00000170: 6ea0 233e 2e44 033e 2802 543e 0dca da3d
00000180: 2cb6 263e 4884 dbbd 4cc2 7c3e 9c7f e43e
00000190: 2602 3a3e 49c6 06be 2697 31bd 6d60 d13d
000001a0: 0c1e bcbc 56c3 46be 3732 1ebe 342d c4bd
000001b0: 412a 1abe 6095 103e 7e75 d83c 5945 2e3e
000001c0: a242 fcbd 74b3 163d 5cd2 c23d 3727 cebd
000001d0: 732c 073e d0ae c03d f37a fcbd a85e b93c
000001e0: a32d b43d 3f8b 20be eebd 463e 621c bcbe
000001f0: 29e4 a9be 1ee0 983e 0172 783d f327 9cbd
00000200: 95d1 2abe 903b 8bbd 4819 483e 029c 08be
00000210: bc7a 963e 2c43 4d3e 88db 493e d894 10be
00000220: ad42 983d 5f41 ca3e 2412 ae3e 6ca4 41bd
00000230: 67b8 af3d cbc3 01be eb31 6dbe d036 84bc
00000240: 1613 0e3e 9c87 433d 4dc1 e63d af63 0d3e
00000250: b76e 6fbe 148b 05be 31ad e7bc 197f 7dbe
00000260: 2b60 213e 346b f63c e33f 8bbd 78d2 f43d
00000270: 56df 6c3d 9907 5cbd c32f b93c 421a 72bd
00000280: d46d ab3e 42a9 78be 34ac 523e aac4 9abd
00000290: a85f 103e 0960 5b3d e6ef a6be 65ff 6bbe
000002a0: f8c4 973e ba2e 36be 6aec f7bc 4000 d1bc
000002b0: 3ada 8e3e 1278 65bd 4b36 02be 4218 ca3e
000002c0: 2347 d33d 0686 353d 42ee 983d cc05 133e
000002d0: e1ac 393e fc97 013e 7bc9 26be 51f3 43be
000002e0: cff3 a13e ee56 14be 755d 163e 8ee4 6a3e
000002f0: 313d 7abc c6fe 353d afe3 2abd c8dc cebd
00000300: 0ba3 4b3c 812b 08be 8984 e83d 1a97 ae3d
00000310: 3694 de3e ac95 28be 1975 b53c e8bc 243e
00000320: 8b92 403e 386a 683e ffea 7d3e 1976 a83d
00000330: 285c 003e 4d6c 7bbd 2ce7 173e 8a39 d1bd
00000340: b2b8 c9be 3a8c e33d 3798 0e3e 332a 8639
00000350: af61 4abe 8dfc 203e 651b ea3c 2214 b7bd
00000360: 6147 ed3e 2d75 543e 7498 183d 2ee9 443c
00000370: 905f b53d b952 893e 20e6 1fbe 3ea7 5c3d
00000380: 8e9b 543e 68eb 7cbd 1163 053c 0e52 e03d
00000390: fe9e f03d 8d07 8a3e cfc6 2bbe 8a94 c0bc
000003a0: 6397 3b3e 1450 8d3e 6d6d 7abd f94e 753d
000003b0: 2e28 343e 203f d03c 31c2 01be 8658 643e
000003c0: 3f33 7f3d bb60 c33d 3247 5abd a6c5 6abd
000003d0: 99f8 bb3b 6605 323d 1487 7a3e 4170 8b3e
000003e0: b04b debd f49b 503d fed4 4cbd 8ae0 873d
000003f0: 51a6 c838 5238 3e3e ae23 833e 4460 903c

fc2.bias f4 [64]
0.02196677 -0.05490649 0.09434335 0.011516862 -0.058904704 -0.08009226 0.012884198 0.06357756
-0.14979707 -0.02176254 -0.102865875 0.047223583 -0.046839792 -0.1337274 0.085832104 0.06105559
-0.101127446 0.0023359635 0.083919846 0.017286316 0.16795559 0.20093201 0.01363494 -0.02281487
-0.0108352965 0.034393717 0.08189954 0.012526003 0.026388591 -0.024257645 -0.07267891 0.05084178
0.17437048 -0.0053985408 -0.03934055 0.09768587 0.05684332 -0.018357331 -0.109210745 -0.0038891176
-0.12214778 0.11209921 0.06281587 0.1164872 0.10166276 -0.004807465 0.033278473 0.086618446
-0.086968414 0.26670742 0.06973175 0.0478894 0.05150945 0.022214182 0.30271083 0.034936912
0.0019892156 -0.10249159 -0.09491312 -0.064634174 0.080323555 -0.008031041 -0.025660276 0.09409656
00000000: a8f3 b33c a1e5 60bd 1637 c13d 38b1 3c3c
00000010: 0f46 71bd 6907 a4bd 3e18 533c f434 823d
00000020: 6764 19be 5b47 b2bc 58ab d2bd 846d 413d
00000030: 15db 3fbd d6ef 08be bec8 af3d 6d15 7a3d
00000040: e81b cfbd f716 193b 2bde ab3d 089c 8d3c
00000050: 8dfc 2b3e 1fc1 4d3e 1565 5f3c 40e6 babc
00000060: 8786 31bc 6de0 0c3d f2ba a73d dd39 4d3c
00000070: e32c d83c f8b7 c6bc aed8 94bd 783f 503d
00000080: 2d8e 323e 3ee6 b0bb 8e23 21bd 880f c83d
00000090: 8bd4 683d 1d62 96bc e2a9 dfbd 91e0 7ebb
000000a0: 9e28 fabd 4594 e53d 9ba5 803d d790 ee3d
000000b0: 9134 d03d f087 9dbb 024f 083d 0365 b13d
000000c0: 7f1c b2bd e08d 883e 85cf 8e3d ad27 443d
000000d0: 93fb 523d 84fa b53c eafc 9a3e 021a 0f3d
000000e0: 805d 023b 1ce7 d1bd cf61 c2bd ec5e 84bd
000000f0: ad80 a43d a194 03bc 8035 d2bc b2b5 c03d

policy_head.weight f4 [110, 64]
-0.053251773 0.0860807 -0.11975068 0.34079581 0.065414734 -0.19388548 0.08665988 0.106649525
0.1508059 -0.08066836 0.1682801 -0.18755153 -0.03371391 0.31847262 -0.0035457814 -0.096446805
0.30361664 0.016533311 0.032447606 -0.041976627 0.06258075 -0.07867585 0.11877965 0.04424171
0.24849634 0.08885451 -0.11815365 0.0560506 0.2673425 -0.2690678 -0.091661826 0.037711404
-0.073795274 -0.177751 0.05387725 6.572532e-05 0.0027156794 0.022662835 -0.21274406 0.16817048
-0.1334918 0.024608603 0.021485483 0.13669676 0.0041597597 0.09553819 0.08584473 -0.20536716
-0.09002405 -0.24469037 0.03246839 -0.00255295 0.23106064 -0.037598807 -0.16687565 0.10645208
0.0003487154 -0.057339873 -0.06277769 0.09929624 0.20528765 -0.026552375 0.059636787 0.09830951
0.019799363 0.12912232 -0.1942615 0.23643121 -0.005908085 -0.099415585 0.18931867 0.079298995
0.13059048 -0.02170566 0.26429203 0.52095467 0.059428804 0.4347083 -0.08321578 -0.15380092
0.21939723 0.14536297 -0.14124134 0.1394243 -0.031415094 -0.17570044 0.26423714 -0.04185373
0.34541008 -0.25650406 -0.08456716 -0.063050285 0.36174047 -0.06360158 -0.09427857 0.11136936
0.061352823 -0.10384977 0.022514168 -0.28777385 -0.26277965 0.09256678 -0.123041585 0.08761352
0.19757663 -0.03558379 -0.04894581 0.2773376 -0.1451572 0.03833965 0.018573713 -0.24765228
0.094580255 -0.22741285 -0.12773813 -0.079453416 -0.002091608 0.05169489 -0.112732455 0.21309055
-0.069321506 -0.06103021 -0.0034662632 0.00095260725 0.13414693 0.0074986303 0.08335872 -0.046165094
0.19765313 -0.27012646 0.2415955 0.32708606 0.33110595 0.18104962 -0.21139897 -0.09818341
0.24785209 0.36934707 0.21194646 0.18489799 0.24145912 -0.12034887 -0.0378596 0.32799697
-0.0018407229 -0.13678482 0.12773964 0.038131043 -0.27346945 0.24994841 0.045410562 -0.21395586
0.25689536 -0.1763827 -0.13348162 0.07847221 -0.09598424 0.15525033 -0.064919434 0.10462309
-0.3479575 0.29252255 -0.04363371 -0.2982489 -0.28657517 -0.010746254 0.2595263 0.13985483
0.33076632 0.10797512 0.006093783 -0.40659934 0.32823938 0.15876941 0.27017513 0.064883135
0.09110372 -0.18839632 -0.0075856443 0.062679365 0.14330608 -0.05387419 -0.15728849 -0.05469203
-0.28668818 -0.08038754 0.24615228 -0.069014974 0.22504066 0.27169278 -0.07804513 -0.01789421
0.35259354 -0.1308966 0.023640849 0.37004545 0.35871184 0.43009177 -0.4402967 0.12356186
0.36235374 0.14455348 0.45272607 -0.014637828 0.3250892 -0.14453836 -0.15706182 0.029383592
-0.11354396 -0.023301369 0.17569192 -0.24247319 0.019060377 -0.08263257 -0.034986973 -0.06535642
0.41397312 -0.22474359 -0.19466138 0.12896036 -0.03420623 0.40126756 0.23809442 -0.06705762
-0.49318185 0.24750134 -0.16177496 -0.04396756 -0.13450602 0.2376103 0.2694561 0.4304069
0.54136896 0.13962133 0.40284187 -0.033133823 0.21745062 0.16736901 0.4538125 0.20671113
0.043675657 -0.5190396 0.1268848 0.13514422 0.24008735 0.13516945 -0.67999345 -0.044396106
-0.06154952 0.009345469 0.44385242 -0.15484113 0.033621 0.34606433 0.16255331 0.24803522
00000000: 881e 5abd 144b b03d d83f f5bd ca7c ae3e
00000010: 29f8 853d ea89 46be bc7a b13d 116b da3d
00000020: dd6c 1a3e 7435 a5bd 9e51 2c3e 820d 40be
00000030: 9917 0abd d80e a33e 5760 68bb e785 c5bd
00000040: a473 9b3e de70 873c c8e7 043d afef 2bbd
00000050: 562a 803d ce20 a1bd bf42 f33d cc36 353d
00000060: d375 7e3e 5af9 b53d 8afa f1bd 5095 653d
00000070: 1ee1 883e 41c3 89be 32b9 bbbd 4677 1a3d
00000080: fa21 97bd 5c04 36be 64ae 5c3d 03d6 8938
00000090: 8af9 313b 69a7 b93c 94d9 59be e234 2c3e
000000a0: 13b2 08be fb97 c93c 5302 b03c 3cfa 0b3e
000000b0: 984e 883b 87a9 c33d 5dcf af3d c54b 52be
000000c0: 875e b8bd 1d90 7abe 93fd 043d 654f 27bb
000000d0: 299b 6c3e 3501 1abd 73e1 2abe 8c03 da3d
000000e0: cad3 b639 37dd 6abd 9791 80bd d45b cb3d
000000f0: ed36 523e 5e84 d9bc b445 743d 7f56 c93d
00000100: 4632 a23c a438 043e 7dec 46be 061b 723e
00000110: 9c98 c1bb 669a cbbd c1dc 413e 8367 a23d
00000120: 83b9 053e 11d0 b1bc 4951 873e 495d 053f
00000130: 9e6b 733d 1692 de3e 096d aabd fd7d 1dbe
00000140: aba9 603e 08da 143e 92a1 10be 3ec5 0e3e
00000150: 1dad 00bd d1ea 33be 174a 873e d16e 2bbd
00000160: 97d9 b03e 8054 83be 8c31 adbd 8220 81bd
00000170: 0c36 b93e 8c41 82bd 1f15 c1bd 9e15 e43d
00000180: 194d 7b3d 30af d4bd a26f b83c 1857 93be
00000190: 0e8b 86be a793 bd3d 3afd fbbd b86e b33d
000001a0: 8751 4a3e 4fc0 11bd 677b 48bd 32ff 8d3e
000001b0: 17a4 14be 090a 1d3d e627 983c 8f98 7dbe
000001c0: 4bb3 c13d eade 68be c9cd 02be 79b8 a2bd
000001d0: 5c13 09bb 05be 533d 46e0 e6bd 6934 5a3e
000001e0: 6ff8 8dbd d0fa 79bd 3f2a 63bb 64b8 793a
000001f0: d05d 093e 12b7 f53b fab7 aa3d 9c17 3dbd
00000200: 9565 4a3e 044e 8abe d064 773e d377 a73e
00000210: b886 a93e 1265 393e f978 58be 6214 c9bd
00000220: f0cc 7d3e 0f1b bd3e 7e08 593e e655 3d3e
00000230: 0f41 773e 7879 f6bd ab12 1bbd 38ef a73e
00000240: 6944 f1ba 5211 0cbe 2ece 023e 4c2f 1c3d
00000250: 3004 8cbe 7af2 7f3e 6d00 3a3d 3f17 5bbe
00000260: ca87 833e ab9d 34be 68af 08be 0ab6 a03d
00000270: 6393 c4bd f1f9 1e3e 7bf4 84bd a144 d63d
00000280: 7c27 b2be 84c5 953e 43b9 32bd 14b4 98be
00000290: fbb9 92be 0e11 30bc a2e0 843e 1b36 0f3e
000002a0: 345a a93e 0f22 dd3d 5bae c73b ca2d d0be
000002b0: fe0e a83e 7394 223e 6554 8a3e 73e1 843d
000002c0: 9694 ba3d f7ea 40be ff90 f8bb 0a5e 803d
000002d0: d4be 123e 2fab 5cbd 3c10 21be c004 60bd
000002e0: cbc8 92be 39a2 a4bd 580f 7c3e b957 8dbd
000002f0: 0f71 663e 511b 8b3e 20d6 9fbd e196 92bc
00000300: 2487 b43e c209 06be 74aa c13c 9976 bd3e
00000310: 14a9 b73e fd34 dc3e 926e e1be 000e fd3d
00000320: 6e86 b93e d405 143e b6cb e73e 80d3 6fbc
00000330: 1772 a63e dd01 14be d0d4 20be dcb5 f03c
00000340: bc89 e8bd 83e2 bebc 95e8 333e e44a 78be
00000350: 8224 9c3c 443b a9bd 804e 0fbd 96d9 85bd
00000360: 49f4 d33e 2f23 66be 5055 47be 2f0e 043e
00000370: d51b 0cbd f172 cd3e 06cf 733e 8155 89bd
00000380: 5582 fcbe fe70 7d3e 56a8 25be 5417 34bd
00000390: f2bb 09be 1d50 733e 26f6 893e 4b5e dc3e
000003a0: 2897 0a3f e5f8 0e3e 4a41 ce3e 55b7 07bd
000003b0: 60ab 5e3e c862 2b3e 1d5a e83e 15ac 533e
000003c0: 3fe5 323d c7df 04bf 17ee 013e 3f63 0a3e
000003d0: 75d9 753e dc69 0a3e 0d14 2ebf b1d8 35bd
000003e0: 591b 7cbd bd1d 193c a040 e33e ac8e 1ebe
000003f0: 2cb6 093d 582f b13e 6074 263e f2fc 7d3e

policy_head.bias f4 [110]
-0.26717043 -0.10777002 0.1259914 -0.07358793 -0.34238607 -0.34583107 0.057522487 0.06498409
0.15015821 0.06274112 0.16735089 0.17869973 0.008098089 0.15735461 0.15908033 0.20659463
0.017328944 -0.00016521731 0.033625185 0.06415887 0.17398706 0.18545574 0.16766001 -0.016929138
0.041988533 0.007978576 0.17592941 -0.034629025 0.050902218 0.17577389 0.11429274 0.123118035
0.1626664 0.040167686 -0.045650892 -0.014841042 0.07895178 0.21748917 0.14495982 0.0852965
0.20674208 0.07853709 0.13209535 0.086919405 -0.009317629 0.08425456 0.102529295 -0.01308984
0.2665237 0.20324151 0.052633572 -0.00077797944 0.15190104 0.11399747 -0.027099423 0.1394216
0.08838837 0.144096 -0.4168575 -0.25777435 -0.33117425 -0.4533741 -0.43245274 -0.31039593
-0.28948244 -0.29297084 -0.36593956 -0.39195275 -0.41793084 -0.4666651 -0.4132336 -0.4750776
-0.47084835 -0.23389715 -0.29206792 -0.4364217 -0.40382126 -0.3741767 -0.27649048 -0.47942406
-0.28252333 -0.39718217 -0.4316341 -0.26059818 -0.2672953 -0.3337485 -0.23076165 -0.34370884
-0.43500653 -0.3890709 -0.24143112 -0.5312562 -0.35409412 -0.36542213 -0.38826233 -0.32285252
-0.23146555 -0.2359242 -0.37624547 -0.32209122 -0.38540018 -0.27353784 -0.25085962 -0.3320649
-0.3483483 -0.29851028 -0.34997985 -0.25745198 -0.3330494 -0.23119286
00000000: 90ca 88be 87b6 dcbd e403 013e 45b5 96bd
00000010: 3a4d afbe c510 b1be b39c 6b3d 6116 853d
00000020: 13c3 193e 6b7e 803d 085e 2b3e 10fd 363e
00000030: d9ad 043c 9121 213e f4e5 223e 8b8d 533e
00000040: 6ef5 8d3c 2f3e 2db9 90ba 093d ba65 833d
00000050: aa29 323e 1ce8 3d3e 11af 2b3e faae 8abc
00000060: 2bfc 2b3d 93b8 023c d726 343e 2ad7 0dbd
00000070: d87e 503d 12fe 333e 5012 ea3d 4f25 fc3d
00000080: 0592 263e df86 243d 6efc 3abd d827 73bc
00000090: 79b1 a13d 7bb5 5e3e 5970 143e eeaf ae3d
000000a0: 32b4 533e 0ed8 a03d 0144 073e cd02 b23d
000000b0: f8a8 18bc a88d ac3d e1fa d13d c576 56bc
000000c0: cb75 883e 8b1e 503e 4d96 573d 51f1 4bba
000000d0: f28b 1b3e 8177 e93d 9cff ddbc 89c4 0e3e
000000e0: f604 b53d e78d 133e 596e d5be 00fb 83be
000000f0: ac8f a9be a620 e8be 726a ddbe 37ec 9ebe
00000100: 0b37 94be 4600 96be 6e5c bbbe 08ae c8be
00000110: 08fb d5be baee eebe 5b93 d3be 5f3d f3be
00000120: 0913 f1be bc82 6fbe ed89 95be aa72 dfbe
00000130: a9c1 cebe 1794 bfbe 2990 8dbe 1277 f5be
00000140: e6a6 90be 765b cbbe 25ff dcbe 206d 85be
00000150: eeda 88be 15e1 aabe c84c 6cbe 9bfa afbe
00000160: 2db9 debe 4d34 c7be b839 77be 6800 08bf
00000170: d34b b5be 9c18 bbbe 52ca c6be ed4c a5be
00000180: 4e05 6dbe 1d96 71be 3fa3 c0be 24e9 a4be
00000190: 2c53 c5be 270d 8cbe ac70 80be 6904 aabe
000001a0: b55a b2be 57d6 98be 8f30 b3be bfd0 83be
000001b0: 7385 aabe d2bd 6cbe

value_head.weight f4 [1, 64]
0.0075502377 -0.01599042 0.028570315 0.009573943 0.017554667 0.0014165888 -0.17293458 0.0071981545
0.0070083765 0.0041685854 -0.016979199 -0.0994797 0.011148983 -0.14028198 0.007341162 0.01420232
-0.10404519 -0.024922032 0.015732707 0.009600594 0.021529604 0.020991927 -0.19577615 0.008630153
-0.010997596 0.043780297 0.09384901 0.10118648 -0.24120349 -0.0029856812 0.044667974 -0.14580032
-0.015613615 0.017394407 -0.24548773 0.03856511 0.019349184 0.085666396 0.009729866 -0.021460677
-0.0065023145 -0.023346338 6.167595e-05 0.049485963 0.005721979 -0.012571388 0.0063276975 0.02557848
-0.11248609 -0.0023668362 -0.0076564034 0.008144518 -0.0008116016 0.091781564 0.014095054 -0.16904844
0.010387011 -0.091515236 -0.0024914588 -0.14799784 -0.0027044348 -0.008637432 -0.12729524 0.009371375
00000000: fc67 f73b 57fe 82bc 4b0c ea3c 07dc 1c3c
00000010: cece 8f3c d5ac b93a c315 31be 7fde eb3b
00000020: 86a6 e53b a198 883b f617 8bbc 03bc cbbd
00000030: 39aa 363c 14a6 0fbe 218e f03b d9b0 683c
00000040: a515 d5bd 4a29 ccbc e1e1 803c cf4b 1d3c
00000050: da5e b03c 43f7 ab3c 8b79 48be 7c65 0d3c
00000060: 432f 34bc f852 333d e933 c03d db3a cf3d
00000070: 0cfe 76be 6bab 43bb c4f5 363d ae4c 15be
00000080: 3fd0 7fbc b77e 8e3c 2361 7bbe 73f6 1d3d
00000090: 2e82 9e3c dd71 af3d 046a 1f3c 4dce afbc
000000a0: 5e11 d5bb d240 bfbc 0658 8138 cbb1 4a3d
000000b0: 707f bb3b 39f8 4dbc 9358 cf3b f689 d13c
000000c0: 1b5f e6bd ec1c 1bbb 91e2 fabb 9670 053c
000000d0: a9c1 54ba f9f7 bb3d f1ee 663c 091b 2dbe
000000e0: 482e 2a3c 576c bbbd be47 23bb bf8c 17be
000000f0: e33c 31bb 0484 0dbc af59 02be 658a 193c

exp_avg f4 [128, 260]
0.0005887215 -0.00026824168 -0.00014271952 0.0002425895 -0.000114151684 0.0004823968 -0.00041401153 0.00022468009
4.1353767e-05 0.00024812348 0.0004206274 0.00039614373 -9.1624446e-05 0.0009170312 0.00023146493 -4.010228e-05
0.0006515309 0.00023111314 0.0006599687 0.0001864342 -0.00011447029 -6.935828e-05 -0.00012991247 0.00039401362
0.00069793 0.00023397946 0.00026415696 0.00096790545 -9.0294e-06 -8.917647e-05 -0.00022102121 0.00036726473
-2.0601516e-05 -1.8258204e-05 6.0842835e-05 0.0012105189 0.00013715503 -0.00018515934 -3.3507305e-05 0.00038846215
0.0004577 0.00024780218 0.00024924474 -1.8407809e-05 0.0003365632 0.0005097318 0.00016747852 6.859058e-05
0.00012101519 0.0003988028 0.0003155977 -0.00032775055 -6.2e-44 -1.1754711e-28 -6e-45 -1.6252443e-05
2.9589808e-05 0.00029557655 0.00041383647 -0.0001479863 -4.190593e-05 0.0002876364 6.767354e-05 8.979151e-06
6.410788e-05 -6.9228236e-38 6e-45 4.7308945e-13 2.4627521e-08 -1.1736696e-05 3.583165e-05 2.626891e-05
-2.4475507e-05 1.8946923e-05 -0.00027180984 4.9604958e-05 -2.0853571e-05 -0.00018302718 -6.613326e-16 -1.1967308e-10
5.4041136e-09 5.3391217e-05 4.841564e-06 -0.00016535641 -3.2409724e-05 0.00012677908 -0.00026270363 3.9443057e-05
1.2913361e-05 7.270639e-05 0.00030560562 4.145728e-09 8.285002e-08 6e-45 4.0989042e-11 3.1128115e-05
-5.0392344e-05 9.471426e-05 -6.297768e-05 0.0002694026 3.1564134e-05 -0.0001404895 9.775409e-05 -1.6136985e-06
6e-45 -3.024426e-15 5.2932078e-17 0.00044896506 0.00036296225 -0.000116542215 4.3618125e-05 -0.00025838037
0.00017031928 0.0005295446 0.00025825706 0.0005181412 0.0006257334 2.4725879e-15 1.249169e-07 -0.0003570297
-1.4623699e-08 0.00028727792 0.00023726202 0.00021932852 0.00023497583 0.00024495745 0.0009138524 0.0003782825
0.00040346498 0.00030533163 -2.7795419e-05 -2.181217e-10 4.567248e-05 0.00016495437 2.3502544e-06 0.00029353207
0.00042506162 0.00028471014 0.0008904079 -0.0005189046 0.0007981503 0.00020914547 0.00072496064 1.7401597e-05
6.185933e-07 6e-45 0.00017932183 0.00021622401 6.3336047e-06 -9.839892e-05 -0.00014767918 3.9905884e-05
0.0008470493 0.00053611404 0.0007056624 0.00050941337 1.5870215e-05 5.195491e-31 7.86688e-05 2.2401924e-08
-3.634992e-08 -3.34839e-05 3.9891416e-05 0.00010479907 8.132722e-05 -0.00049011456 3.5041714e-05 0.00018989248
3.9833132e-05 -2.0583377e-11 8.76165e-25 2.4131418e-06 2.9027171e-05 0.000106602514 0.00013335218 -3.1092437e-05
0.0001343996 3.753368e-06 -0.000114947616 -7.072547e-05 -1.3746407e-05 4.8009537e-05 1.1422113e-05 3.553437e-06
6.8035826e-07 0.0001607706 1.06802674e-11 -0.00015009873 6.569634e-05 -7.220451e-05 4.6777845e-05 0.00012268938
-4.173265e-05 9.287369e-05 -1.4983204e-05 6.3947824e-05 1.3837857e-07 6e-45 6.372318e-06 -4.06977e-20
6.5402564e-23 2.6787064e-05 4.0691433e-05 3.7514084e-05 0.00012356383 6.551971e-05 -2.9524504e-05 0.00031085685
0.00042447244 0.0013036781 0.0010994871 0.00036011214 0.0007570725 0.00040748925 0.00095210207 0.0011123241
0.00078425306 0.0004602466 0.00025383677 -8.914211e-05 0.00039738652 0.000116005 0.0008038466 0.0014264958
0.00035486845 0.00042217976 -4.4803433e-05 0.0006344971 0.0008050069 0.0008371371 0.0006382541 0.0002815273
-4.7667454e-05 0.0006311431 0.00078639935 6.397961e-05 0.0009920261 0.0007454967 0.0012492659 0.000690086
0.0005853119 0.00071441 0.00030011166 0.0001816898 0.00012891313 0.0008209249 5.336082e-05 0.00056562084
0.0005733824 0.0007876344 0.0006004977 0.00081778 0.00073655596 0.0005031761 0.0010379234 0.0006200234
00000000: 6e54 1a3a caa2 8cb9 fba6 15b9 a05f 7e39
00000010: b864 efb8 34ea fc39 b00f d9b9 1a98 6b39
00000020: 4573 2d38 9216 8239 a787 dc39 83b1 cf39
00000030: 8026 c0b8 ec64 703a 65b5 7239 7f33 28b8
00000040: 80cb 2a3a f656 7239 c001 2d3a 8d7d 4339
00000050: c50f f0b8 7174 91b8 1d39 08b9 9d93 ce39
00000060: 4af5 363a 6258 7539 8c7e 8a39 09bb 7d3a
00000070: fa7c 17b7 4104 bbb8 eec1 67b9 708d c039
00000080: 6bd1 acb7 3229 99b7 7f31 7f38 46aa 9e3a
00000090: 46d1 0f39 5527 42b9 328a 0cb8 82aa cb39
000000a0: 74f7 ef39 72eb 8139 10ad 8239 786a 9ab7
000000b0: bf74 b039 869f 053a 2c9d 2f39 4ad8 8f38
000000c0: 89c9 fd38 6816 d139 ce76 a539 efd5 abb9
000000d0: 2c00 0080 3802 1591 0400 0080 db55 88b7
000000e0: a137 f837 9df7 9a39 31f8 d839 c52c 1bb9
000000f0: 26c4 2fb8 e7cd 9639 f5eb 8d38 29a5 1637
00000100: a871 8638 0a75 bc81 0400 0000 b029 052b
00000110: 7e8c d332 bae8 44b7 f149 1638 0e5c dc37
00000120: c050 cdb7 35f0 9e37 b381 8eb9 eb0e 5038
00000130: b4ee aeb7 fcea 3fb9 bc9d 3ea6 fa94 03af
00000140: 16af b931 62f0 5f38 b874 a236 8663 2db9
00000150: adef 07b8 00f0 0439 7cbb 89b9 a96f 2538
00000160: 77a6 5837 f279 9838 b139 a039 3672 8e31
00000170: 48eb b133 0400 0000 8f45 342e 8f8f 0238
00000180: 5e5c 53b8 55a1 c638 e212 84b8 9b3e 8d39
00000190: bb63 0438 5d50 13b9 5401 cd38 4296 d8b5
000001a0: 0400 0000 d0ee 59a7 2b1b 7424 1263 eb39
000001b0: f84b be39 2068 f4b8 9bf2 3638 3a77 87b9
000001c0: bc97 3239 23d1 0a3a ad66 8739 ded3 073a
000001d0: 4208 243a 322b 3227 e520 0634 b72f bbb9
000001e0: b53b 7bb2 ca9d 9639 8ac9 7839 8dfb 6539
000001f0: d863 7639 a26d 8039 998f 6f3a 3854 c639
00000200: 2788 d339 eb14 a039 352a e9b7 cdd3 6faf
00000210: 7490 3f38 9af7 2c39 10b9 1d36 35e5 9939
00000220: ceda de39 2645 9539 436a 693a 1907 08ba
00000230: f63a 513a 0f4e 5b39 490b 3e3a a5f9 9137
00000240: 680d 2635 0400 0000 5608 3c39 31ba 6239
00000250: 4085 d436 855b ceb8 54da 1ab9 9e60 2738
00000260: 840c 5e3a 018a 0c3a 34fc 383a 278a 053a
00000270: 0721 8537 739a 280d fefa a438 5a6e c032
00000280: 291f 1cb3 1071 0cb8 1551 2738 93c7 db38
00000290: 388e aa38 087b 00ba c1f9 1238 e01d 4739
000002a0: 8012 2738 a50d b5ad 7994 8717 76f1 2136
000002b0: 607f f337 ca8f df38 74d4 0b39 4069 02b8
000002c0: 9eed 0c39 5fe2 7b36 0810 f1b8 7352 94b8
000002d0: 5ea0 66b7 d95d 4938 9aa1 3f37 9577 6e36
000002e0: dda1 3635 8894 2839 a6e3 3b2d d263 1db9
000002f0: 74c6 8938 806c 97b8 5433 4438 2ea6 0039
00000300: 170a 2fb8 2fc5 c238 5f60 7bb7 ba1b 8638
00000310: 3695 1434 0400 0000 cbd1 d536 8030 409f
00000320: 3a22 9e1a c8b4 e037 18ac 2a38 7158 1d38
00000330: ea90 0139 a067 8938 64ab f7b7 80fa a239
00000340: ba8b de39 2ee0 aa3a aa1c 903a 6fcd bc39
00000350: 4776 463a 48a4 d539 7d96 793a 67cb 913a
00000360: 5596 4d3a 414d f139 6515 8539 cef1 bab8
00000370: 5158 d039 b647 f338 3bb9 523a 42f9 ba3a
00000380: a30d ba39 0258 dd39 52eb 3bb8 6154 263a
00000390: 1907 533a 5273 5b3a 8250 273a f499 9339
000003a0: 8aee 47b8 4c73 253a 5e26 4e3a cb2c 8638
000003b0: df06 823a 706d 433a 68be a33a e3e6 343a
000003c0: 9e6f 193a 3e47 3b3a 4e58 9d39 fc83 3e39
000003d0: db2c 0739 5633 573a bfcf 5f38 2c46 143a
000003e0: 0b4f 163a 4079 4e3a b86a 1d3a 4960 563a
000003f0: 6f15 413a 94e7 033a ee0a 883a 1189 223a

exp_avg_sq f4 [128, 260]
7.15442e-06 6.9555635e-06 3.9113957e-06 3.999391e-06 4.4630265e-06 4.215857e-06 4.597587e-06 1.1861956e-06
2.162821e-06 3.3559784e-06 2.4529204e-06 1.1825254e-06 3.2621194e-06 4.4772864e-06 3.938051e-06 4.2157185e-06
3.2878866e-06 5.163023e-06 6.8799163e-06 1.181937e-06 3.142049e-06 1.1742144e-06 2.7482165e-06 2.2926477e-06
2.402795e-06 5.188296e-06 6.9613297e-06 6.2026497e-06 3.522058e-06 3.167223e-06 4.527814e-06 3.6863628e-06
2.9776809e-06 4.6905166e-06 1.5209903e-06 3.2808966e-06 4.140729e-06 2.1046478e-06 1.6447132e-06 8.532997e-06
3.670483e-06 5.0783274e-06 6.9408466e-06 7.654554e-06 4.2502793e-06 4.6871837e-06 6.1849687e-06 2.5440675e-06
5.04582e-06 2.2092406e-06 2.107946e-06 3.0677243e-06 1.0000052e-10 3.6583428e-10 2.6005382e-09 3.4036336e-08
6.164612e-08 2.2773641e-07 3.1350447e-07 4.5985456e-07 3.4138003e-07 3.2394203e-07 3.69536e-07 8.23474e-07
5.090978e-07 6.944258e-10 2.6804706e-10 2.8420422e-06 1.2679008e-08 7.045383e-08 2.1905781e-07 1.6607735e-06
2.521813e-07 4.9260996e-07 6.034866e-07 5.4269583e-07 4.5037217e-07 3.3119568e-07 4.4195886e-10 5.846592e-10
2.4278715e-09 3.033739e-08 1.0945845e-07 1.3035329e-07 2.15941e-07 4.090965e-07 4.381821e-07 3.4666937e-07
2.94257e-07 4.9135963e-07 6.3052823e-07 5.7397265e-10 1.1496182e-09 1.1309032e-10 3.2463724e-08 8.4124615e-08
1.481737e-07 3.2868348e-07 3.941661e-07 4.08739e-07 4.2609022e-07 4.5178115e-07 4.3970442e-07 4.4507078e-07
8.254933e-10 8.870259e-08 4.5871605e-08 3.474512e-06 5.3761977e-07 3.8006478e-06 1.7181338e-06 6.6792345e-06
5.2678956e-06 6.763064e-06 8.087486e-06 8.510939e-06 7.0942183e-06 4.9469932e-08 4.860046e-08 3.211849e-07
2.3594038e-07 3.5499293e-06 1.0629781e-06 5.74686e-06 4.772051e-06 7.7324785e-06 8.5735865e-06 7.100906e-06
8.201974e-06 5.7003904e-06 1.3603481e-07 3.6252132e-07 2.9871146e-06 3.2736867e-07 3.3451672e-06 3.6770766e-06
3.6139536e-06 4.467511e-06 7.1603763e-06 7.4334275e-06 6.92462e-06 8.010246e-06 7.357872e-06 1.4726587e-07
7.809623e-08 1.0199523e-09 1.3170445e-07 5.401543e-07 6.473897e-07 1.456387e-06 3.636091e-06 5.8696914e-06
4.047353e-06 6.95443e-06 9.089717e-06 7.745857e-06 2.380772e-08 5.525544e-08 2.2623304e-08 1.3621995e-07
5.3157258e-08 2.0696652e-07 2.1983031e-07 6.283119e-07 2.51046e-07 4.6763958e-07 5.170464e-07 4.471744e-07
3.2595023e-07 2.2378607e-08 3.006492e-08 1.0977296e-07 1.5870232e-07 2.4143543e-07 4.5265574e-07 1.180757e-06
2.433964e-07 7.901964e-07 3.378009e-07 8.5634133e-07 3.64129e-07 1.9695074e-07 1.03047405e-07 6.5810774e-08
1.7590938e-07 1.2501251e-06 1.6441373e-07 1.3896859e-07 8.8378863e-07 6.451096e-07 9.87807e-07 2.8153136e-07
3.020271e-07 3.5135693e-07 4.317181e-07 2.5343044e-07 1.7237637e-08 8.898492e-10 1.8484361e-07 3.598115e-08
9.964836e-09 8.862347e-08 1.4087297e-07 3.5163214e-07 6.763508e-07 5.068979e-07 3.4788258e-07 4.5233665e-07
1.226327e-05 1.2928156e-05 1.5263473e-05 1.17774625e-05 1.4478698e-05 1.1035357e-05 1.2623897e-05 1.0807593e-05
1.1397079e-05 8.219283e-06 8.092248e-06 8.610088e-06 8.433017e-06 1.4829155e-05 1.5458736e-05 1.2202652e-05
1.5214773e-05 1.02389085e-05 1.0881864e-05 9.582577e-06 1.0462831e-05 8.555573e-06 7.0518486e-06 8.664627e-06
7.929136e-06 7.7650475e-06 1.1551466e-05 1.2842846e-05 1.2735898e-05 1.5181886e-05 1.15246e-05 1.1508982e-05
1.2343647e-05 8.841254e-06 9.131003e-06 8.110349e-06 7.931778e-06 7.87883e-06 8.65445e-06 1.0795739e-05
1.5930547e-05 1.4785571e-05 1.2281932e-05 1.1678277e-05 1.45550675e-05 1.28438805e-05 9.050534e-06 1.0519115e-05
00000000: 0010 f036 d663 e936 a23e 8336 8232 8636
00000010: 1bc1 9536 f075 8d36 f944 9a36 5f35 9f35
00000020: fb24 1136 4537 6136 da9c 2436 43b7 9e35
00000030: c9ea 5a36 993b 9636 9a23 8436 bf74 8d36
00000040: 76a5 5c36 083e ad36 08da e636 0ca3 9e35
00000050: fedb 5236 b399 9d35 006e 3836 63db 1936
00000060: b43f 2136 2017 ae36 5e95 e936 5b20 d036
00000070: 7f5c 6c36 7a8c 5436 a0ed 9736 3b63 7736
00000080: 2bd4 4736 3b63 9d36 d424 cc35 602d 5c36
00000090: 97f0 8a36 933d 0d36 eabf dc35 f128 0f37
000000a0: 6b52 7636 8066 aa36 6be5 e836 0f6c 0037
000000b0: 9f9d 8e36 9a46 9d36 7a88 cf36 bfba 2a36
000000c0: 444f a936 7742 1436 3d76 0d36 1adf 4d36
000000d0: 4ae7 db2e 991e c92f 27b5 3231 592f 1233
000000e0: 5062 8433 b587 7434 ba4f a834 eee1 f634
000000f0: ea46 b734 41ea ad34 a464 c634 b40c 5d35
00000100: efa8 0835 dfe1 3e30 455c 932f eab9 3e36
00000110: ded2 5932 674c 9733 2736 6b34 bee7 de35
00000120: 8963 8734 e63b 0435 49ff 2135 c6ad 1135
00000130: aeca f134 30cf b134 2ef8 f22f bcb5 2030
00000140: 91d7 2631 504c 0233 6b0f eb33 3df7 0b34
00000150: 69dd 6734 cba1 db34 4a3f eb34 e01d ba34
00000160: 60fa 9d34 fae5 0335 9241 2935 bcc5 1d30
00000170: 9800 9e30 31b0 f82e 3e6e 0b33 ffa7 b433
00000180: ad19 1f34 ea75 b034 c79d d334 a970 db34
00000190: 65c1 e434 548c f234 8410 ec34 10f2 ee34
000001a0: ede8 6230 c47c be33 5d04 4533 a92b 6936
000001b0: f350 1035 a20e 7f36 a19a e635 301e e036
000001c0: e1c2 b036 47ee e236 7daf 0737 34ca 0e37
000001d0: df0a ee36 c478 5433 c5bc 5033 516f ac34
000001e0: cc56 7d34 523b 6e36 a6ab 8e35 27d5 c036
000001f0: 9b1f a036 beba 0137 46d7 0f37 5144 ee36
00000200: 369b 0937 fb45 bf36 f710 1234 8da0 c234
00000210: 3d76 4836 35c1 af34 897d 6036 b2c3 7636
00000220: 4087 7236 a1e7 9536 2a43 f036 a86c f936
00000230: 085a e836 bf63 0637 a4e3 f636 2220 1e34
00000240: dbb5 a733 622e 8c30 a56a 0d34 1fff 1035
00000250: 48c8 2d35 1479 c335 9103 7436 44f4 c436
00000260: 7fce 8736 195a e936 0a80 1837 34f4 0137
00000270: bb81 cc32 0052 6d33 2c55 c232 db43 1234
00000280: 064f 6433 863a 5e34 7f0a 6c34 44a9 2835
00000290: 80c7 8634 e50f fb34 28cb 0a35 2e13 f034
000002a0: 42fe ae34 143b c032 bb20 0133 53bc eb33
000002b0: c367 2a34 a29e 8134 8804 f334 807a 9e35
000002c0: 26ac 8234 e21d 5435 015b b534 54df 6535
000002d0: 827d c334 6879 5334 e94a dd33 db53 8d33
000002e0: 9ae1 3c34 f9c9 a735 b489 3034 6537 1534
000002f0: 7e3d 6d35 982b 2d35 ca94 8435 6025 9734
00000300: 4a26 a234 21a2 bc34 e2c6 e734 370f 8834
00000310: f711 9432 9299 7430 6d79 4634 b189 1a33
00000320: d031 2b32 4551 be33 de42 1734 f4c7 bc34
00000330: 798e 3535 c211 0835 9ec4 ba34 add8 f234
00000340: 58be 4d37 02e6 5837 0f0a 8037 d197 4537
00000350: 89e9 7237 7f24 3937 3acb 5337 4252 3537
00000360: 1536 3f37 8de5 0937 f1c3 0737 0c74 1037
00000370: 887b 0d37 bcca 7837 62ad 8137 feb9 4c37
00000380: f442 7f37 c7c7 2b37 4091 3637 dbc4 2037
00000390: 8489 2f37 e889 0f37 eb9e ec36 4a5e 1137
000003a0: 6107 0537 a046 0237 2bcd 4137 9b77 5737
000003b0: 44ac 5537 b4b5 7e37 c859 4137 b416 4137
000003c0: 8f17 4f37 e654 1437 5c31 1937 af11 0837
000003d0: ba12 0537 512f 0437 9432 1137 591f 3537
000003e0: 97a2 8537 8b0f 7837 7f0e 4e37 d1ed 4337
000003f0: 8a31 7437 0c7c 5737 bfd7 1737 417b 3037

exp_avg f4 [128]
0.0010354365 -0.001087417 0.0018727145 0.0010413682 0.0029388652 -0.00071875856 0.0010394232 0.0009457903
0.0003473614 0.001877422 -0.00031375923 -0.001907995 0.0011843585 0.0018351612 0.00013393059 0.00016567673
-0.0007156107 0.002040214 -0.000873984 -0.00014542509 -0.00038359378 0.0014845206 -0.0018259349 0.0015911777
0.0003136495 -0.0007268444 0.0009187588 -0.0006196285 -0.00047079765 0.0024124281 0.0019053412 -0.0010711306
-0.00017198669 -0.00041867918 -0.0005420135 0.0020196235 0.0006820626 -0.0012122603 0.00015713024 -0.00073725724
0.0009581545 -1.1607678e-05 6e-45 0.00035304067 0.0010278618 0.000415073 0.00078827934 -0.0004914572
-0.0018031665 0.001037342 6.501045e-05 -0.0019006572 0.0012233533 0.0023726202 -0.0020692765 0.0021563258
-0.0009327735 -6.3676424e-13 0.0012316835 0.001078174 0.00023142304 -0.0003143576 6e-45 0.00035775147
0.00019485211 2.2567236e-05 -8.60499e-05 0.0017704738 0.00013090424 6.4673426e-05 -0.00030904592 -0.0011789764
0.0009171867 0.0013766877 0.00057371537 -0.0006158873 0.00044069433 0.0016543604 -0.00036425702 0.0020502387
-0.0003031976 0.0022562088 -0.0016127537 -0.0006691371 0.00069420005 0.0009897093 0.0007776023 0.000618158
-0.0001538824 -0.000823119 -0.00061764487 -0.0011023593 0.0008728053 5.4211207e-05 0.001911577 0.0011280988
-3.8542494e-05 -0.000828488 -0.00060046226 0.0017303783 -0.00023748657 -0.000244971 -0.0010260958 -0.0018965628
-0.00017818213 -0.00040457936 -0.0020191034 -0.0016929806 -0.00015934432 0.0014739728 -0.0003946119 0.0022895439
-0.0017819667 -0.0022821666 -0.00074638106 -0.00060520676 -0.0007301852 0.00093201693 0.00022285832 3.1986998e-05
0.0011928475 -0.002155468 0.0009747042 -0.0018823387 2.9209823e-05 0.0028224157 0.00014362577 -0.00054602866
00000000: 7cb7 873a a987 8eba df75 f53a 857e 883a
00000010: fa99 403b 126b 3cba 413d 883a eaee 773a
00000020: 0f1e b639 d413 f63a 0d80 a4b9 b015 faba
00000030: 7a3c 9b3a cb89 f03a b86f 0c39 82b9 2d39
00000040: d297 3bba 1cb5 053b 131c 65ba 407d 18b9
00000050: 161d c9b9 3f94 c23a 3554 efba 108f d03a
00000060: 5371 a439 b489 3eba dcd8 703a 916e 22ba
00000070: 64d5 f6b9 d419 1e3b a4bc f93a 2e65 8cba
00000080: 5357 34b9 2b82 dbb9 e915 0eba a95b 043b
00000090: 72cc 323a b5e4 9eba 54c3 2439 7f44 41ba
000000a0: a92c 7b3a 99be 42b7 0400 0000 5118 b939
000000b0: 52b9 863a 289e d939 88a4 4e3a 22d5 00ba
000000c0: 3a58 ecba 6cf7 873a 3856 8838 791f f9ba
000000d0: ed58 a03a f67d 1b3b b39c 07bb 2551 0d3b
000000e0: 5f85 74ba b33b 33ab 7170 a13a 8451 8d3a
000000f0: 26aa 7239 5dd0 a4b9 0400 0000 9790 bb39
00000100: 3751 4c39 c54e bd37 b075 b4b8 3e0f e83a
00000110: 5743 0939 48a1 8738 7107 a2b9 e287 9aba
00000120: 5c6f 703a f971 b43a 6365 163a 7f73 21ba
00000130: fe0c e739 20d7 d83a c0f9 beb9 4c5d 063b
00000140: 7ef6 9eb9 e7dc 133b 0963 d3ba 0869 2fba
00000150: fafa 353a 22b9 813a 02d8 4b3a e20b 223a
00000160: 7e5b 21b9 95c6 57ba 72e9 21ba 0a7d 90ba
00000170: f9cc 643a d760 6338 e18d fa3a b7dc 933a
00000180: b0a8 21b8 e32e 59ba 5768 1dba dccd e23a
00000190: d105 79b9 736f 80b9 107e 86ba 1696 f8ba
000001a0: 67d6 3ab9 b91d d4b9 ef52 04bb 01e7 ddba
000001b0: aa15 27b9 5232 c13a eae3 ceb9 2c0c 163b
000001c0: e190 e9ba 6790 15bb c9a8 43ba bda6 1eba
000001d0: e669 3fba 9952 743a 13af 6939 c729 0638
000001e0: 5259 9c3a c142 0dbb 4b83 7f3a ceb8 f6ba
000001f0: 9e07 f537 47f8 383b 409a 1639 5d23 0fba

exp_avg_sq f4 [128]
1.99124e-05 2.0007494e-05 4.1903197e-05 2.8378281e-05 3.3748413e-05 2.5448888e-05 1.4712407e-05 2.5136185e-05
3.412195e-05 2.239254e-05 6.615097e-06 2.3331288e-05 2.0499034e-05 6.969325e-05 1.49961725e-05 1.5255213e-05
5.155148e-05 2.2746415e-05 5.0305945e-05 1.9158415e-05 9.149707e-06 5.8866255e-05 4.845791e-05 4.4633252e-05
2.145876e-05 1.5094702e-05 2.9620507e-05 3.6967867e-05 1.868538e-05 0.00011127718 4.1359493e-05 8.791775e-06
4.5696224e-06 2.3725312e-05 3.189686e-05 8.047966e-05 3.6920952e-05 2.6212045e-05 7.8527846e-05 1.775323e-05
8.085015e-06 2.0406482e-05 3.357381e-17 1.9029003e-05 2.9704288e-05 2.1038759e-05 6.494611e-05 3.276762e-05
5.426431e-05 7.723435e-05 1.8190307e-05 3.638862e-05 3.3202614e-05 2.014026e-05 3.4818477e-05 6.674148e-05
1.3343064e-05 2.777869e-07 1.643345e-05 1.9487734e-05 2.6710313e-05 1.777644e-05 5.7780623e-19 9.351469e-06
6.9109587e-06 4.5155937e-07 5.462368e-06 2.1206646e-05 8.913936e-06 2.472235e-05 1.1371003e-05 4.0171726e-05
8.247597e-06 2.229117e-05 1.4135143e-05 2.0677351e-05 2.8971734e-05 3.4517932e-05 1.973134e-05 5.1993684e-05
4.3450782e-05 5.3422547e-05 3.0149879e-05 1.9841505e-05 0.00011715202 1.740358e-05 2.2453702e-05 2.1752083e-05
1.2205263e-05 2.4037929e-05 1.0193046e-05 3.880389e-05 1.5896198e-05 2.5684732e-05 3.664405e-05 7.677918e-05
2.403872e-05 1.1031063e-05 2.4475577e-05 7.392223e-05 2.2001213e-05 1.2610835e-05 1.1584128e-05 2.089969e-05
2.0439467e-05 4.93836e-06 6.6738685e-05 2.2477216e-05 2.6898137e-05 4.136441e-05 3.3652047e-06 7.058893e-05
3.3661618e-05 2.5012445e-05 2.5697003e-05 2.6814696e-05 2.8330627e-05 2.110019e-05 3.0279889e-05 1.5413318e-05
7.089742e-05 3.2709802e-05 1.3496856e-05 4.887811e-05 2.263079e-05 8.322481e-05 5.8800347e-06 1.1461641e-05
00000000: 8e09 a737 c4d5 a737 37c1 2f38 e50d ee37
00000010: 158d 0d38 127b d537 4fd5 7637 8cdb d237
00000020: 2a1e 0f38 9dd7 bb37 40f7 dd36 8fb7 c337
00000030: 57f5 ab37 4728 9238 1298 7b37 a4f0 7f37
00000040: fb38 5838 8ecf be37 99ff 5238 62b6 a037
00000050: b181 1937 29e7 7638 493f 4b38 9734 3b38
00000060: 5602 b437 403f 7d37 8e79 f837 f20d 1b38
00000070: 8cbe 9c37 7b5d e938 6b79 2d38 6380 1337
00000080: c254 9936 b805 c737 fec8 0538 30c7 a838
00000090: 92db 1a38 f0e1 db37 51af a438 c5ec 9437
000000a0: e0a4 0737 962e ab37 f5d4 1a24 79a0 9f37
000000b0: 792d f937 647c b037 ad33 8838 f76f 0938
000000c0: dc99 6338 e0f8 a138 6397 9837 fc9f 1838
000000d0: 0943 0b38 e1f2 a837 0e0a 1238 8ff7 8b38
000000e0: 06dc 5f37 be22 9534 91da 8937 9779 a337
000000f0: f60f e037 9d1e 9537 ce89 2a21 41e4 1c37
00000100: afe4 e736 d96d f234 6249 b736 ede4 b137
00000110: 108d 1537 d862 cf37 16c6 3e37 107e 2838
00000120: 295f 0a37 ecfd ba37 fa25 6d37 4674 ad37
00000130: 5308 f337 59c7 1038 bb84 a537 cb13 5a38
00000140: ec3e 3638 0612 6038 5fea fc37 4f71 a637
00000150: 83af f538 e7fd 9137 f55a bc37 3e78 b637
00000160: 35c5 4c37 0fa5 c937 cd02 2b37 5cc1 2238
00000170: d358 8537 8b75 d737 40b2 1938 8204 a138
00000180: c2a6 c937 0e12 3937 e750 cd37 b206 9b38
00000190: 3f8f b837 2093 5337 7359 4237 be51 af37
000001a0: 6c75 ab37 30b4 a536 0ff6 8b38 748d bc37
000001b0: 4fa3 e137 b27e 2d38 c7d5 6136 2509 9438
000001c0: e32f 0d38 d1d1 d137 e58f d737 1ff0 e037
000001d0: 8fa7 ed37 5000 b137 9101 fe37 d94b 8137
000001e0: c3ae 9438 e231 0938 8e70 6237 7902 4d38
000001f0: 40d7 bd37 fb88 ae38 1d4d c536 604b 4037
