ppo_2layer_1/ppo_agent_episode_2800.pth (torch, 596626 bytes, 21 tensors)

fc1.weight f4 [128, 260]
00000000: b1ad 1f3d dfa4 83bd 6b52 e83c 5d45 00bd
00000010: ceff 71bd 77af 9d3c 75a2 90bd f4dc 733c
00000020: f168 2d3b 61ac 80bc 3eb0 7fbb ee12 003d
00000030: c6c5 98bd 6cdb 18bc 9921 59bd d929 85bc
00000040: 52bb 15bd f744 393d b0cf f7bb bf6f a5bd
00000050: c88e 67bd d85e 86bd 6ac0 17bd ccfa d5bc
00000060: 4313 c8bc ba31 a0bd cdee 73bd 9903 bdbd
00000070: 4dc2 82bc c061 3cbd cf16 73bd 3bf3 2dbd
00000080: ee1b 4dbd c660 65bc 1279 c5bd a4c9 13bc
00000090: 289e f0bb 8311 58bd a3dc 55bd 4761 c8bd
000000a0: c2ae 8bbc 2433 bfbc a6b8 0b3d 492b a2bc
000000b0: 7ff6 cc3b 35e2 8bbd e6b6 a0bc f497 23bd
000000c0: adea c4bd ec48 dbbd f3b2 89bd ec5e b5bd
000000d0: c1ac 2bbe 740d d9bd 95a0 a2bd feb4 89bc
000000e0: d8e6 253d 2672 ef3d a4cb 243c a580 623d
000000f0: 6623 8cbc 5e24 c13c d446 173d c0bb 513b
00000100: a63c 893c fc21 06be b84e 10bd 67cf 9a3b
00000110: 38fb 91bd f81a 1a3d b53e a73d 0ce9 0e3e
00000120: 4ca0 b3bb afec 2cbc 1031 873d 9c7d ae3d
00000130: 202d 8a3d a43c 303d 7f33 abbd 1a7c e1bd
00000140: 1bf9 3ebe 8a96 c9bc 6a02 b93c 5e3f 89bb
00000150: 215c b23d 48d2 be3d 7ab4 e03d e9f7 193d
00000160: 8a64 213d fe01 883d dede d03d c4ff 2fbe
00000170: b83b 04be 7107 febd 6698 31bd fcfa 1dbc
00000180: 433d 473c 3155 413d d0a3 fc3c e3be 80ba
00000190: 5c36 a73d 8b36 3a3d 19b0 de3d afb7 9e3d
000001a0: 46b4 eb3d 88aa 25bd f7c3 dc3d a8ce 183d
000001b0: 08b4 b23c ce18 ae3d ec3a 913d 8934 7e3d
000001c0: 4434 8f3c 75e3 943d e507 dbbc b502 36bd
000001d0: 9620 a63c 174a 48bd d6ae 4d3d faff 103e
000001e0: 9589 853d ac1e a7bc 618a 94bc 5763 f23d
000001f0: 7d52 a7bc 9d1f 613d 6a67 6b3d 34ef f2bc
00000200: e88e 49bd 53c2 793d e42a eebc d01f 4c3e
00000210: 9141 873d 211f 913d a2cc 8f3d 75ea 053e
00000220: 5e22 f83d b30c ddbc 54e9 9c3a e051 353d
00000230: 5e36 a7bd 29c0 80bd f9fa 87ba 004f 6bbd
00000240: 634c e93d 1618 37bd 247b a1bc 3ee7 64bb
00000250: 08ff 323d cd98 dcbc 8e3a f43c 9e27 8f3d
00000260: 8173 b0bc c7b4 ac3c 1ea5 b83d df51 60ba
00000270: d8eb 7eba 3e02 3abd 6cc8 973c 1318 833d
00000280: 7f83 b63d a7cc fbbc 3e93 8cbd 5865 0e3c
00000290: f1d4 c3bd 66c1 21bd e0af 123d 0c7c 873c
000002a0: 1b6c f43c f823 e33c 26f5 ac3c fad6 8d3d
000002b0: 17f2 a6bc ca51 d43d d731 9dbd 94e6 513c
000002c0: 1d22 67bd 27d1 993d c6d6 313d 4e50 9a3d
000002d0: 0df3 6b3d f74b 83bd 313c 8e3d dbc4 b0bc
000002e0: 920a dbbb 34c0 3d3e 06f7 cb3d 5fde 783c
000002f0: fe28 cfbc 86f6 b83d dc6e 913d d676 40bc
00000300: bb67 7a3c 8384 e2bd afb2 513d ffc8 ae3d
00000310: 5f00 693d 483d f73d 1b0e c33d 6521 593b
00000320: 2981 6d3d ff26 5dbc 0164 6c3d e821 ec3c
00000330: a379 03bc 8506 7c3d 63d7 9d3d b1db 1c3d
00000340: cd65 1bbd 79cd 503d fc81 343d 94e4 e5bc
00000350: a466 663b b298 a33c 9888 01bd 671e a6bc
00000360: 91d9 903d 585a 19bd bca1 323d ccd4 bd38
00000370: 426e ad3d 97cf 613d 61ad 813d a933 933b
00000380: a83c 103d 9e6f fc3a 192f 6fbd 5fed a4bc
00000390: 5cd8 633c 27fc f3bc de63 1abd 3884 3abc
000003a0: a242 3c3d 6cea 0b3c 0593 f83c 1e5b 90bb
000003b0: 4811 a93c d2da 4fbc 5001 063b 6d7e a63b
000003c0: 8182 3fbc 28fb adbd af91 a23c 808a 38bd
000003d0: dfe9 3fbc 49a0 4e3d 6e06 8d3d 1c52 863d
000003e0: 3825 7dbd bb20 b0bc 477d 82bc 42ff 433b
000003f0: 49a4 163b a1a2 733c e5d2 933d 76b4 7a3d
0.038984004 -0.06427931 0.028359612 -0.03131615 -0.059081845 0.019248707 -0.07062236 0.014884222
0.0026460255 -0.015707197 -0.003901496 0.031268053 -0.07459597 -0.009329658 -0.053010557 -0.016255306
-0.036555596 0.045231786 -0.0075626 -0.080779545 -0.05653265 -0.06561059 -0.037048735 -0.026120566
-0.024423247 -0.078219846 -0.05955391 -0.09229202 -0.01596179 -0.04599166 -0.059347924 -0.04246829
-0.050075464 -0.014000123 -0.09642233 -0.009020243 -0.0073430724 -0.052751075 -0.05221237 -0.09784179
-0.017051104 -0.023339815 0.03411164 -0.01979603 0.0062549706 -0.06830255 -0.019618463 -0.039939836
-0.09615073 -0.10707268 -0.06723585 -0.088559955 -0.16765119 -0.10598269 -0.07940785 -0.016809937
0.040503353 0.11691694 0.010058317 0.055298466 -0.017106723 0.023576912 0.03693278 0.0032002777
0.016752552 -0.13098902 -0.035231322 0.0047244313 -0.07127994 0.037623376 0.08166257 0.13956088
-0.0054817554 -0.010554477 0.06601155 0.08520052 0.06746888 0.04302658 -0.083594315 -0.110099986
-0.18649714 -0.024607915 0.022584159 -0.004188462 0.087089784 0.09317452 0.10971923 0.03758994
0.039402522 0.06641005 0.101987585 -0.1718741 -0.12913406 -0.12403763 -0.04335823 -0.009642359
0.012160602 0.047200385 0.03083983 -0.0009822514 0.08164665 0.045462172 0.10873432 0.077498786
0.11508994 -0.040445834 0.10779565 0.037306458 0.021814361 0.08500825 0.070913166 0.06206182
0.017480977 0.072699465 -0.026737163 -0.044436175 0.02027921 -0.048898783 0.050215565 0.14160147
0.06520382 -0.020400368 -0.01813239 0.11835354 -0.020425076 0.05496179 0.05747167 -0.029655077
-0.04920855 0.060976338 -0.029073186 0.1993401 0.06604303 0.070860155 0.070214525 0.1307772
0.1211593 -0.026983595 0.0011971393 0.044267535 -0.081646666 -0.06286652 -0.0010374478 -0.057448387
0.11391523 -0.044700705 -0.019712038 -0.003492787 0.043700248 -0.02692833 0.029813077 0.06989978
-0.021539452 0.021082295 0.090158686 -0.00085571216 -0.00097244745 -0.045412295 0.018528186 0.06401076
0.089118 -0.030737234 -0.06864022 0.008691154 -0.095621 -0.03949108 0.03581226 0.016538642
0.029836705 0.027727112 0.02111299 0.06925769 -0.02037911 0.103671625 -0.07675522 0.012811322
-0.056429017 0.07510596 0.043417715 0.07534848 0.05760484 -0.064109735 0.06945074 -0.021578243
-0.0066846097 0.18530351 0.09959225 0.015189736 -0.025288101 0.090313956 0.07101223 -0.011747083
0.01528352 -0.11060431 0.051195797 0.08534431 0.05688512 0.12072235 0.09524175 0.0033131477
0.057984505 -0.013498067 0.05771256 0.028824762 -0.008024606 0.061529655 0.077070974 0.03829545
-0.03793888 0.050977204 0.044069275 -0.028063096 0.0035156393 0.019970272 -0.031624407 -0.020278169
0.070727475 -0.037439674 0.043611273 9.051859e-05 0.08468296 0.055129614 0.063318975 0.0044922424
0.035214096 0.0019259339 -0.058394525 -0.020132719 0.013906565 -0.029783322 -0.037692897 -0.0113840625
0.045961984 0.008539777 0.030343542 -0.0044053933 0.020638123 -0.012686448 0.002044756 0.005080989
-0.011688829 -0.0849517 0.019844858 -0.04505396 -0.011713474 0.05044583 0.06885992 0.0655863
-0.061803073 -0.021499982 -0.015928878 0.0029906784 0.0022986105 0.014870317 0.07217959 0.061207257

fc1.bias f4 [128]
00000000: ca44 993c 30ef c93c 69fa 813d 3e03 80bc
00000010: e7ba e83c b4e8 453d 313e 4abb 5b76 a0bd
00000020: f3ac 94bc 61b4 663d 86b4 543c 3b21 823c
00000030: 4dd4 4ebd 8a93 fabc 116c 95bd 4f8e aa3b
00000040: 9abd bd3c 9862 013d 8281 383c 2e58 fb3c
00000050: c384 433d 2443 783a d8d1 d1bc f8de 6dbd
00000060: 22ca 0ebc 8eef b8bc 6132 3fbc ab44 2a3d
00000070: ed6f 90bd a34f 1dbd 2609 ae3c 5171 6fbd
00000080: 27e8 4ebd 2116 803d e9e2 ee3c d1f1 3ebd
00000090: a866 263d ce2c 933c 280d 413d f415 34bb
000000a0: fc18 25bd 3a55 c63c 1c46 36bd 0a8d 09bd
000000b0: 4539 44bd ec72 10bd 345f 90bc 7d2f 26bd
000000c0: 57f0 d23c 38bc a53d 15cf 6ebb db06 b43c
000000d0: e5f7 2a3d 9e2e 0d3d 822f 04bd 465c e8ba
000000e0: 81bc fc3b c92f 713c 406a 193d 26c9 c0bb
000000f0: 2a4b e5bc 3e28 c93c b8b5 d4bb 3178 113d
00000100: 17dc c3bc ceff acba 3349 aabd c7a6 49bc
00000110: 4245 203d 009f 8cbd fc5a 833c 61d2 01bd
00000120: b58c 1cbd 3831 4a3c ed1c 6abc 0af5 8ebc
00000130: 215d 8bbd 446a 60bd 163c 14bc 7eef 3abc
00000140: 8d8a c7bc 5a66 b9bc 306b 06bc 042c 1bbd
00000150: b264 183d d9fa aa3b fe07 2fbc 6347 893c
00000160: 8633 00bd 3e9a 1bbd c1f3 ecbb a5ec 8dbc
00000170: e6ea 013d f59d 163d 137b 42bd cdf6 f13c
00000180: 6a9a 7fbc 486b 28bd 7f1f 1dbc 9289 21bd
00000190: 0e23 313d f7d4 9dbb f35f 193d a518 3c3d
000001a0: 318e d53c 39c9 32bc f3de 533b 7f7a 0b3c
000001b0: 866f 82bd 0b11 69bb 6fca a8b9 ca28 20bd
000001c0: b8c6 9dbd 9fc8 5bbc 26fa f73c b0d1 98bc
000001d0: 86f0 1e3d 59c8 723b 800a 303d 6a51 57bd
000001e0: 1288 0d3d 718e 063d 04d9 8bbd bd95 37bd
000001f0: e0ee cf3c 7abf 6c3d c458 85bc 5030 5ebd
0.018709559 0.024650186 0.0634659 -0.015626546 0.028409434 0.048317626 -0.0030859823 -0.078350745
-0.018148875 0.056324366 0.012982493 0.015884986 -0.050495435 -0.03058793 -0.07296003 0.005204953
0.023161698 0.031588167 0.011261346 0.030681696 0.047734033 0.0009470454 -0.025612757 -0.058073968
-0.008715184 -0.022575166 -0.011669726 0.041569393 -0.07052598 -0.038406026 0.021244597 -0.058457676
-0.050514366 0.06254221 0.029160934 -0.046617333 0.040625244 0.0179657 0.047131687 -0.0027478905
-0.04030703 0.024210561 -0.044500455 -0.03358177 -0.04790618 -0.035265848 -0.017623521 -0.040572632
0.025749369 0.080925405 -0.0036439348 0.021975925 0.041740317 0.034468286 -0.03227187 -0.0017727695
0.007712901 0.0147208655 0.037454844 -0.0058833538 -0.027989943 0.024555322 -0.006491389 0.035515014
-0.023908658 -0.0013198794 -0.08314743 -0.012307829 0.03912855 -0.06866264 0.016034596 -0.031694774
-0.038220126 0.012340836 -0.014289123 -0.017450828 -0.06804872 -0.054788843 -0.009047529 -0.011409638
-0.024358058 -0.022631813 -0.008204266 -0.037883773 0.037205406 0.0052178917 -0.010683058 0.016757673
-0.031299137 -0.037988894 -0.007231206 -0.017324755 0.031718157 0.036771733 -0.047480654 0.02953663
-0.01560078 -0.041117936 -0.009590029 -0.039437838 0.04324632 -0.004816647 0.03744502 0.04592194
0.026068779 -0.010912233 0.0032328933 0.008513092 -0.06368928 -0.0035563137 -0.00032194282 -0.0391014
-0.07703918 -0.013414531 0.030270647 -0.018654674 0.0388036 0.0037045686 0.042978764 -0.052567877
0.034553595 0.032850686 -0.06828502 -0.044820536 0.02538246 0.057799794 -0.016277678 -0.054245293

fc2.weight f4 [64, 128]
00000000: ade6 413c 0427 89bc b37c aa3c bef5 cc3d
00000010: 13a0 053e 3b04 b13d d580 673d e580 9cbd
00000020: e08c c23d 1593 1c3e 7697 083c a05c 1c3d
00000030: d884 99bd 9121 3d3c c43c 923c 0b09 923c
00000040: e7d4 933d 89c3 d93a 4908 e5bd fcf2 5a3d
00000050: 0460 0b3d 10a1 c03d 0428 0d3c 728d 14bd
00000060: cfe5 613d be1d e6bb f26f 8cbc 839d a43d
00000070: e72d 823d 73a2 073e fe21 d23d e800 1bbd
00000080: 471b d83d e7c0 b83d b4bd 343c caac 1e3c
00000090: 156b ec3d 829d 8dbd 943d 1c3e 9350 ffbd
000000a0: c894 e53c b87b e6bc f7f8 12bb 2c9c 2c3d
000000b0: 281c af3b 97b1 5f3d ebe9 d43d aefb b73d
000000c0: 14c7 8f3c 9483 f73c d5d3 59bd e354 273d
000000d0: 9ec0 44bd b1e7 70bc a6c5 12bd f440 08bc
000000e0: b036 073e 023d d63c 95d9 d2bd 17fc 463d
000000f0: ec0e 20bc 59f2 963d 1529 a23c ab2c 043d
00000100: f6a9 8e3d a71d d9bb eda8 b13c a4f7 e23d
00000110: 2db6 133d 838c 473d da48 123d 13f1 cbbd
00000120: 2580 583c 4e15 9cbd f2f7 ef3d 4901 103c
00000130: a189 c1bd 66f5 203d 47ef 233c 0299 ff3d
00000140: a145 463d ff45 8dbc e17f f13d 0e4b 043d
00000150: 2407 f23d 4b67 bc3c d7c4 283d f41f b0bd
00000160: 4945 22bd 82e2 073e bc70 e13d e92a 833d
00000170: 1cc1 293d a542 973d 4a07 f03c 14ed 513d
00000180: a688 d43d aa3f 1b3c 2cdb 983d fc84 253e
00000190: 1616 723d 536d 423d bfa8 8e3d b78e 4f3d
000001a0: 9137 04bd 5236 99bd 5a59 86bd 8c36 83bd
000001b0: 5760 cabc 55b3 063e b784 85ba c34f b33d
000001c0: b38d 403c 0ecd 95bc 8020 29bd 7ca5 a7bc
000001d0: af1c 513d 7395 ca3d d659 cabc ea7f a73d
000001e0: 9123 603c 93c5 e4bd 868c 9d3d 28d4 bdbd
000001f0: 3d3c acbd 27d4 1e3e dc96 183d bf67 84bd
00000200: ebec 6bbd 8dab a5ba c18d 943d faff 94bd
00000210: cc29 803d 83b6 033e 1786 833d 3d8a 0ebc
00000220: 835e 5d3c 9115 e53d ba8e 2a3d 702c 96bd
00000230: c44f 3a3d e764 91bd 899a 00be 6bc4 e339
00000240: f250 db3c 1321 3b3c 4a09 883d fe3d 52bd
00000250: a67d 18be b8b8 91bd 7630 b2bb 9733 12be
00000260: 7ed5 65bb 0d7c 67bc 4628 7dbb 8cef b63d
00000270: f0c6 913d 5e16 783d 2867 923d c8b5 ebbc
00000280: 6572 333d 27c9 10be b5f7 fd3d ea89 b3bc
00000290: 4859 e83d 8489 153d 02b9 09be 14c7 82bd
000002a0: dad0 d83d a147 85bd 3cb0 cdbc 168c 713c
000002b0: f69b 003e 6f32 ef3c 3cf0 82bd 3126 cb3d
000002c0: 2c9c 933d 9255 4e3d 44de a63d e97c 8c3d
000002d0: e6c3 ba3c 86bc 0b3e 79b8 f3bd 442f 21be
000002e0: 41a3 4b3e 5afa a4bc 9ad0 ac3d 468c fa3d
000002f0: 060a d1bb 24a4 793d 9e65 32bd 338c 57bc
00000300: 0d43 93bd e85b 48bd b9fd 24bd a151 5c3d
00000310: eb53 593e dd48 d5bc 249f d83b 69ff e83d
00000320: 08b4 c73d 5352 ec3c 0cba 06bd 0131 bd3c
00000330: 17e6 003e 7ae8 2bbc cfb1 a1ba 65b1 77bd
00000340: c259 22be 9418 363c ef15 a83d 6ad4 adbc
00000350: 3c2c c0bd 6f78 0e3e 0c76 4c3d 4a7e 7fbd
00000360: 3b7a 523e 2149 883d 98ae 593c 72bd 993d
00000370: 391c 13bc 16d3 b03d 0715 edbc 41a8 103d
00000380: 155d 323e cbca b93d e95d a8bc 9082 b33d
00000390: 758f 333d 21d5 8b3d 5f0f 8dbd b88a b6bb
000003a0: 0991 c23d 8127 41bd 8cb1 25bd a4e9 473c
000003b0: a41d 7d3c 5996 763d 70f9 8bbc 05fc f53d
000003c0: 3ac3 893d 7256 95bc 4c69 a93d 702e 45bd
000003d0: fdcf 803d 3910 683d 1bcc fb3d 5165 f33d
000003e0: f530 9c3d 8db0 363b aa31 95bc 5822 2ebc
000003f0: db6f d73c f391 e13d 79a4 273e 271e 133c
0.011834783 -0.016742237 0.020811414 0.10007809 0.13049345 0.08643385 0.05651935 -0.07641772
0.09499526 0.15290482 0.008336892 0.03817427 -0.07496041 0.011543647 0.017851241 0.017826578
0.07218342 0.001661406 -0.11183221 0.053454384 0.034027115 0.0940572 0.0086154975 -0.036267705
0.055150803 -0.0070225885 -0.017143223 0.080378555 0.063564114 0.13245563 0.1026039 -0.03784266
0.10552078 0.09021168 0.011031557 0.009684751 0.11543862 -0.06914808 0.15257865 -0.1246654
0.028025046 -0.028135166 -0.0022426227 0.042141125 0.0053439327 0.054612722 0.10396179 0.08983551
0.017550983 0.030214109 -0.053180534 0.04085244 -0.048035257 -0.014703677 -0.035833023 -0.008316267
0.13204455 0.026152138 -0.10295407 0.048580255 -0.009769183 0.07370443 0.01979498 0.03226916
0.06966011 -0.0066258493 0.021686995 0.1108239 0.03606241 0.048717987 0.035714008 -0.09958091
0.013214146 -0.07621251 0.11717214 0.008789369 -0.09450079 0.03929653 0.010005779 0.12480356
0.048406247 -0.01724529 0.11791969 0.03229814 0.11817768 0.022998473 0.041203346 -0.085998446
-0.039616857 0.1327 0.110078305 0.06404669 0.04144393 0.07385758 0.02930035 0.051251486
0.10377626 0.009475628 0.07463679 0.16164011 0.059103094 0.04746754 0.069657795 0.050673213
-0.032279555 -0.07481064 -0.06560011 -0.06406888 -0.024704142 0.13154347 -0.0010186647 0.08755448
0.011752534 -0.018286254 -0.04129076 -0.020464651 0.051052745 0.098917864 -0.02470104 0.081786945
0.013680355 -0.11170497 0.07692818 -0.09268981 -0.08409927 0.15510617 0.037253246 -0.064651005
-0.05759899 -0.0012639627 0.072536 -0.07275386 0.06257972 0.12862591 0.0642206 -0.008699951
0.013511303 0.11185754 0.04164002 -0.073326945 0.045486227 -0.07099324 -0.1255895 0.00043443157
0.026771996 0.01142146 0.06642397 -0.05132865 -0.14891681 -0.071153104 -0.005437906 -0.14277492
-0.0035069878 -0.014128697 -0.0038628741 0.08932409 0.071180224 0.060568206 0.07148582 -0.028773203
0.043810267 -0.14139234 0.12400762 -0.021916348 0.11345154 0.0365081 -0.13449481 -0.063856274
0.1058671 -0.06507803 -0.02510845 0.014742872 0.12559494 0.029198853 -0.06393477 0.09919394
0.07207522 0.050374575 0.081478626 0.06859762 0.02279849 0.13646135 -0.1190042 -0.15740687
0.19886495 -0.020138908 0.08438225 0.12233786 -0.0063793687 0.060947552 -0.04355394 -0.013155985
-0.07190523 -0.048915774 -0.04028103 0.053788785 0.21223418 -0.02603572 0.006610768 0.113768406
0.09751135 0.028847849 -0.032892272 0.023094656 0.12587772 -0.010492438 -0.0012336316 -0.06047191
-0.15854552 0.011114258 0.082073085 -0.021219451 -0.09383437 0.1391313 0.049917266 -0.062376298
0.2055444 0.06654573 0.013286255 0.07506837 -0.008978897 0.086340114 -0.02894069 0.03531671
0.1741832 0.09071883 -0.020552592 0.08765137 0.043837983 0.068277605 -0.068876974 -0.005570736
0.095003195 -0.047156814 -0.040452525 0.0122017 0.015448961 0.060201976 -0.017086715 0.120109595
0.0672669 -0.018229697 0.08272037 -0.04813999 0.062896706 0.056656096 0.122947894 0.11884559
0.07626525 0.0027876229 -0.018212158 -0.010628305 0.026298454 0.11014166 0.16371335 0.008979357

fc2.bias f4 [64]
00000000: 7f4d 443d 089c 33bd 8493 473d 112b 453d
00000010: da06 5dbd ab43 2dbd 3947 2f3d be1e 363d
00000020: 1a5a f9bd 533c 57bc 257e 80bd 3a9f ef3c
00000030: 1f97 60bd 21e0 e8bd 2c4f b43c 0368 683c
00000040: 9c84 57bd e6a4 bd3b c924 683d 9da4 013c
00000050: 51e4 e63d 13eb f93d 978b 8c3c e77f 5dbd
00000060: 5a2b 333d df66 4fbd 41a0 773d dd39 4d3c
00000070: 0649 193d 9554 5d3c cdae 01bd 6e3a 733d
00000080: e9ab be3d f60a aa3b eb68 2f39 e77c 163d
00000090: c823 7cbc 89aa f4bc a139 60bd 724f ba3c
000000a0: bbd1 7abd eb06 a03d 1cf4 7a3d fa00 9d3d
000000b0: ad24 863d eefa 1dbc 30f7 833d b894 313d
000000c0: 70ad 93bd 1c6a e53d 65c9 143d 10ed 53bc
000000d0: 271b 113d 229c 883d aa7d 083e ea89 263d
000000e0: 31a6 f4bc a3d5 bdbd de7d 3dbd 2ad2 1bbd
000000f0: e907 f23c dce7 c03c 7a6e 93bc 0fec 953d
0.04792547 -0.043849975 0.048724666 0.048136774 -0.053961612 -0.04230086 0.042792533 0.04446291
-0.12175389 -0.013136941 -0.0627406 0.02925073 -0.05483162 -0.11370874 0.022010408 0.014184955
-0.0526167 0.0057874797 0.056675706 0.007912782 0.11274017 0.1220304 0.017156405 -0.054077055
0.043742515 -0.050635215 0.060455564 0.012526003 0.037423156 0.013508935 -0.031660844 0.059381895
0.09310133 0.005189295 0.00016728386 0.03674021 -0.01538939 -0.029866474 -0.05474246 0.02274296
-0.06123517 0.078138195 0.061267957 0.07666202 0.06549964 -0.009642346 0.06443632 0.04335472
-0.07210815 0.112018794 0.036324877 -0.012934938 0.035426285 0.06670405 0.13329187 0.04065887
-0.029864402 -0.092692636 -0.046262614 -0.038042225 0.029544787 0.02354806 -0.017997015 0.07320415

policy_head.weight f4 [110, 64]
00000000: da5e 18be 12ce 543e c52f 84be 7ee9 afbd
00000010: 2103 fdbd bcde 21be 5a8e 3b3d 9402 a0bd
00000020: 8fdb a1bd 849e 90bd 7394 d9bd d9fd 5abd
00000030: db5f 79be 7c62 543e 1dcd aabd d5bb 8dbe
00000040: 6e7c 693d 8e7d ab3c 86dd 18bc 50f8 a0bc
00000050: 94a1 67bd d414 0ebe eb6f a73d 5e6c 31bd
00000060: ae60 abbd 984e 9b3d d013 25be 5095 653d
00000070: 7bfb 303d f772 8cbe d903 00be a9ff 1c3d
00000080: 96ab 0cbb a649 93be df07 6c3d 3a84 e3bd
00000090: bd56 fdbd e16a 38be 0025 2ebe 6b06 57be
000000a0: 5dc5 40be c0ca 6ebe 62d3 53be e5f7 aebb
000000b0: beb3 cdbd 8792 62be ba57 513b bef9 ccbe
000000c0: 02b5 b7bd 143d 1ebe b412 d0bd 11d0 60be
000000d0: 62f3 f83b 8f14 acbd f06b 2dbd a95b ab3d
000000e0: 3aef 34be d057 a9bd 5f99 1dbe 3798 ec3d
000000f0: baf0 01bd eed0 98be 77a9 1f3c 50f4 ecbd
00000100: 80ad 90bd 84f0 c93d 4942 7dbe 97c5 53be
00000110: 10dd 19bd 02d1 1bbe 02e3 943d 5f8b 35bd
00000120: ab24 4ebd 8e79 54bc 1d28 dfbd fe88 043e
00000130: 72f1 5ebe 0147 4c3e d8e8 88bd e020 1abe
00000140: 2410 283e 7c69 ba3d 7129 0dbd dfb5 403d
00000150: 9097 93bc f869 f4bd 97f3 81bd 3a27 58be
00000160: eccb 2ebd cfbf 8ebd e21f 44be 8220 81bd
00000170: 7b0c 003e 8591 17be 8460 13be 566e e53d
00000180: 25f7 ac3d d97a 62be 5e3f 5f3c f06d 27be
00000190: 78bb 48be abde 83be 3675 b7bd b0c2 83be
000001a0: b6d8 403c debd 8abd 7291 87be dcc2 40bb
000001b0: 90be 3abe b788 57be bcad c2bd 1312 a8be
000001c0: e590 c23d 6cc6 23be 4cfb 07be cfc2 e5bd
000001d0: b8ab 12be fd3c 51bd cba5 95bd 5dcb 443e
000001e0: f17e 28bc ea7e b0bd 02c0 29be 2a21 923c
000001f0: f4c8 93bd 2afa 71be c4a8 403d 14c4 71be
00000200: 8ce5 ec3d 1362 44be 18db d43d f7f8 a63d
00000210: 13fe 3d3e 18e3 e63c 7a4c 4bbe 69b7 bd3c
00000220: 2e48 913d 1eca 513e e586 3d3d c45f c53d
00000230: d1c4 633d 69cd d0bd 0cf0 6a3b 3018 813e
00000240: 8e56 f63d 4b17 8ebc 4deb 3c3d 4f3a 1ebc
00000250: 9e36 9cbd c32e 4c3e 5bdf 75bc 42ce 9cbd
00000260: 6022 473d 9381 debd 4abd 6a3d 0ab6 a03d
00000270: 79de 5ebc ea63 323d 9bbf 8ebb 93d7 d43d
00000280: 90f4 71be e657 2d3e 84e3 06bd f1a3 83bd
00000290: a2d1 49bd 9d54 de3d 3182 d43d bdf7 583c
000002a0: ab73 d93d 3c21 f63d 7c8a e13c 519b f3bd
000002b0: 9d79 483e 12cb 873d 6e55 003e 590c 9b3c
000002c0: 03eb ba3d 5a48 c4bd 5613 e1bc dd8c f33d
000002d0: 431a 223e 87a7 d13d 1810 d1bd e0e5 65bd
000002e0: 92dc f4bd 865f 80bd 78c6 713d 5f8f 82bd
000002f0: 96d6 183e 3835 3c3d 873d 76bd 76ef bcbc
00000300: 20ba 853e a8ce 2fbe 8c08 1a3e e2a6 6c3e
00000310: e04f 6b3e adb4 9c3e aab6 d6be bf68 3f3e
00000320: 531c 663e 878d 1a3e 5c4d 983e 0734 843c
00000330: f24d 6d3e 8147 42be 8834 a13d e842 903d
00000340: 36fc 1fbe 8201 fabd ea0a 8b3e 1e53 56be
00000350: 51d2 793d 27cd 933d ab9a 57bd 8fa6 5d3d
00000360: 244e a73e 123e 01be b8b5 d5bd 2f0e 043e
00000370: 36fb 9bbd a2c3 8f3e 78e3 863e 4240 89bd
00000380: bad1 a3be a472 553e 1452 2abe 00ef cd3c
00000390: 496b a2bc 944c 693e 085b 613e 0d72 863e
000003a0: 64e6 c63e 8813 6a3e f76c 9a3e a0f8 c83c
000003b0: 778f 9d3e 0107 223e 3702 af3e 140c 9b3e
000003c0: bd24 333d b63f 3bbe c62e 643e fd41 4c3e
000003d0: da1e 8a3e 37f7 033e 0528 e0be 5a42 89bd
000003e0: c0f4 2a3d f39b d23b 45d7 a23e 1fdc 29be
000003f0: f393 053e 6de2 7e3e 25f1 183e 0b11 8c3e
-0.14879933 0.20781735 -0.25817695 -0.08589457 -0.123541124 -0.15807623 0.045790054 -0.07812992
-0.079032056 -0.070614845 -0.106240176 -0.053464744 -0.24352972 0.20740694 -0.083399035 -0.27682367
0.05700343 0.020933893 -0.009330159 -0.019649655 -0.056550577 -0.13875133 0.081756435 -0.043316238
-0.083680496 0.0758335 -0.16120839 0.0560506 0.04320858 -0.2743146 -0.12501468 0.038329754
-0.0021464578 -0.28767127 0.057624694 -0.111092046 -0.1237006 -0.18009521 -0.17006302 -0.20998542
-0.18825288 -0.2331953 -0.20686105 -0.00533961 -0.10044049 -0.22126208 0.0031943158 -0.40034288
-0.089700714 -0.15452987 -0.10159817 -0.21954371 0.007597373 -0.08402359 -0.042339265 0.08367092
-0.17669383 -0.08268702 -0.15390538 0.1155247 -0.031723715 -0.298469 0.009744993 -0.115700364
-0.070643425 0.09860328 -0.24732317 -0.20680843 -0.037564337 -0.15216449 0.07269861 -0.044322368
-0.050327938 -0.012968434 -0.10896323 0.12942883 -0.21771792 0.19948961 -0.066850364 -0.15051603
0.16412407 0.09102151 -0.03446335 0.047048446 -0.018016607 -0.119342744 -0.06345289 -0.21108714
-0.042674944 -0.06970178 -0.19152787 -0.063050285 0.12504761 -0.14801605 -0.14392287 0.112026855
0.084455766 -0.22117175 0.013625948 -0.16350532 -0.19602764 -0.2575582 -0.08957903 -0.25734472
0.011770418 -0.067744955 -0.26478153 -0.002941302 -0.18236756 -0.21048246 -0.095057935 -0.3282629
0.09500293 -0.1599366 -0.13279456 -0.112187974 -0.14323318 -0.051083554 -0.07307013 0.19218202
-0.010284171 -0.08617957 -0.16577151 0.01783808 -0.07216063 -0.23630586 0.047035947 -0.23609954
0.1156722 -0.19178037 0.10393351 0.08152955 0.18553953 0.028184459 -0.19853392 0.023158746
0.07093845 0.20487258 0.046271224 0.096374065 0.05560762 -0.10195429 0.0035848645 0.25213766
0.12028228 -0.017345091 0.046122838 -0.009657457 -0.07627605 0.19939713 -0.015006865 -0.07656528
0.048616767 -0.10864558 0.057309426 0.07847221 -0.013602846 0.043552317 -0.0043563372 0.1039268
-0.2362845 0.16928062 -0.03293182 -0.06427754 -0.049272187 0.108559825 0.103763945 0.013242659
0.10617765 0.12018058 0.027531855 -0.11894859 0.19577642 0.066305295 0.12532589 0.018926786
0.09126856 -0.095841125 -0.02747504 0.11892102 0.1583033 0.102370314 -0.10208148 -0.05612743
-0.11956133 -0.0626822 0.059027165 -0.06375002 0.14925608 0.04594919 -0.06011727 -0.023063403
0.26118565 -0.17168677 0.15042323 0.23110536 0.22979689 0.30606595 -0.41936237 0.18692301
0.22471742 0.15093051 0.2974652 0.01613809 0.23174265 -0.18972589 0.07871348 0.07044011
-0.15623555 -0.12207319 0.27156764 -0.20930144 0.06099159 0.07216864 -0.052637737 0.05411392
0.32676804 -0.12621334 -0.10435051 0.12896036 -0.07616274 0.28078943 0.2634542 -0.06701709
-0.31995946 0.20844513 -0.16632873 0.025138378 -0.019826548 0.22783118 0.22007382 0.2625889
0.3884765 0.22859013 0.3016126 0.024532616 0.30773517 0.15822984 0.34181377 0.30282652
0.04373621 -0.18286023 0.22283468 0.19947048 0.26976663 0.12887274 -0.43780532 -0.06702109
0.041737318 0.006427282 0.31804863 -0.16587876 0.1304472 0.24891062 0.1493574 0.27356753

policy_head.bias f4 [110]
00000000: 852c 6fbd 97de 52bd f5d9 c83d 90e5 903d
00000010: e24a cabd 66f0 cebd 6d48 88bc a8f2 953b
00000020: bbd5 e03b 4062 87bd 0697 4d3d aa99 b63c
00000030: fe2f 48bd 7e0e 023e 3f26 fb3d a317 0a3e
00000040: 0824 0ebd f8ed 133d e52e 3e3c ea8d 60bc
00000050: 545b d63d 4ff8 d53d dfa9 493d 236e f5bd
00000060: 4004 0fbd d325 a1bd 36cb 873d 308a 81bc
00000070: a451 a03d 9e38 063e d0f5 273e 998e 973d
00000080: 9677 973d a242 89bd 9ce5 d1bd ba9b e8bd
00000090: 4f2b 88bd 8255 073e 3f44 853d acf6 243d
000000a0: 45c9 373e 090e f63b 9427 383e afd8 4c3d
000000b0: acf9 c73c c6e7 70bc 9ee4 193d a69a 9abd
000000c0: ae5c 053e 8f3a 073e 5add 3bbd a7b8 e8bc
000000d0: 088b 1f3d ea2b 85bc 2bc1 debb 85d3 123e
000000e0: bef6 ab3d 49c4 123e b402 40be 54e7 4bbd
000000f0: 94ad ecbd 05b9 69be 2007 57be 7af7 a7bd
00000100: ac6e 4dbd c21b 9abd 46cf 05be 1919 24be
00000110: e50e 3fbe 1586 6fbe cea4 4ebe b337 7abe
00000120: fba9 71be b4d0 5bbc 43ca a2bd 44b0 68be
00000130: bfc3 3fbe 1eaa 1fbe 1867 96bd 7108 76be
00000140: 442e 82bd 88f6 1abe ad83 55be 0ca6 59bd
00000150: 396f 3bbd 8bc7 dfbd 4bf5 e7bc 73a5 d3bd
00000160: 8e62 5abe d6f6 3cbe cd9f 05bd 8974 83be
00000170: 3d79 15be 560a f9bd 223d 0abe 87b7 d2bd
00000180: 7b22 6cbc b7b8 ffbc d249 2bbe 94b9 99bd
00000190: 4513 28be 0623 febc b4c1 11bd c394 f3bd
000001a0: cfc7 05be d695 95bd 53ff f6bd cc71 31bd
000001b0: 05c2 c0bd 917a a1bc
-0.058392067 -0.05148181 0.09807197 0.070750356 -0.09877564 -0.10104446 -0.016636098 0.004576046
0.006861416 -0.066105366 0.050192855 0.02229007 -0.048873894 0.12700841 0.12263154 0.13485579
-0.03470233 0.036115617 0.01160786 -0.01370571 0.10466638 0.10447752 0.049234267 -0.119838975
-0.034916162 -0.078685425 0.06630556 -0.015812963 0.07828072 0.13107535 0.16402364 0.07400245
0.07395856 -0.06702162 -0.10248873 -0.113578275 -0.066488855 0.13216212 0.065071575 0.040274307
0.17947872 0.0075089973 0.17983848 0.050011333 0.024411045 -0.014703697 0.037571542 -0.07549028
0.13023636 0.13205932 -0.045865394 -0.028408362 0.03895095 -0.016256291 -0.0067979298 0.14338501
0.08396672 0.1433269 -0.18751031 -0.04978116 -0.11556545 -0.22824486 -0.20998812 -0.08201499
-0.050154373 -0.07524826 -0.1306735 -0.16025199 -0.18658026 -0.23390992 -0.20180055 -0.2443531
-0.23599999 -0.013416458 -0.079487346 -0.2272349 -0.18727015 -0.15592238 -0.07343882 -0.24026658
-0.06356481 -0.15133107 -0.20851012 -0.05313687 -0.045760367 -0.10926732 -0.028315207 -0.10334291
-0.21326658 -0.18453535 -0.0326231 -0.25674847 -0.1459703 -0.121601745 -0.13499883 -0.10288911
-0.014412518 -0.031216009 -0.16727379 -0.07506099 -0.164136 -0.03102256 -0.03558512 -0.118936084
-0.13064502 -0.073039696 -0.12060418 -0.043321416 -0.09412006 -0.019711765

value_head.weight f4 [1, 64]
00000000: 5089 d4bc fe74 94bd d381 763d f27a c93a
00000010: 87ce cabc a404 94bd f62c 02be 2797 953d
00000020: 9271 17bb bb8f cbbd 42ba c53a a7e8 a5bd
00000030: f8d0 d93b 61b2 d7bd cd05 403d 4e1b 6a3b
00000040: 28ba 82bd 7c5a 9fbd 2f2d 463d 6366 82bd
00000050: 2d32 c63d 99ab 4d3d 73c0 8fbd b6ed fa3c
00000060: b4c3 b239 1839 073e d344 093e db3a cf3d
00000070: 4d25 18be 116b 49bd 1f5e ee3d 4c65 16be
00000080: 2ed0 b5bc 24aa 96bd b048 74be 6e13 a43d
00000090: 971c dd3d f39e 9b3d a8f9 a5bd 6d74 f33b
000000a0: 1e7f 54bd 12a7 a73d 8f8d 553d 74e2 ed3d
000000b0: 6242 8f3d c284 c43c 7782 93bd d749 ed3d
000000c0: 3f06 ecbd adb8 0e3c f16b 373d 6fcb 943d
000000d0: 9417 8f3d e7e9 af3d aa9d 683c abf2 04be
000000e0: fad6 b53d 5001 c5bd 32ea 39bd 67b4 16be
000000f0: 30c5 413d e133 49bc 4a2e f7bd 99cc 843d
-0.025944382 -0.07248877 0.060182404 0.0015371724 -0.024756683 -0.07227448 -0.12712464 0.07304221
-0.0023108465 -0.09939524 0.0015085416 -0.081010155 0.0066472255 -0.1053207 0.046880532 0.0035721841
-0.06383163 -0.077809304 0.048382934 -0.06367185 0.09677539 0.050212476 -0.07019129 0.030630928
0.00034096616 0.13205373 0.1340516 0.10118648 -0.14857979 -0.049174372 0.11639046 -0.14687079
-0.022193994 -0.073566705 -0.23855853 0.080115184 0.10796469 0.075986765 -0.08104259 0.0074296505
-0.05187904 0.08186163 0.052136954 0.11615458 0.069950834 0.023989085 -0.072026186 0.115863495
-0.11524629 0.008711022 0.044780675 0.072653644 0.06986919 0.08589535 0.014197746 -0.12983195
0.08878894 -0.09619391 -0.04538936 -0.14717256 0.047307193 -0.012280435 -0.12069376 0.064843364

exp_avg f4 [128, 260]
00000000: d00f f838 999a a638 96de 9db9 1a84 5db7
00000010: f113 e238 2393 2439 e089 ae38 ca50 7837
00000020: 7edf cf38 4aa1 7439 6561 b039 e420 f6b8
00000030: d2d5 2d3a 87cf ef38 fe6b 74b8 1bea 2f39
00000040: 5112 c238 5723 3eb8 f669 8639 4905 d138
00000050: bf63 b739 23cc 81b9 91a4 af39 3f5a 9c39
00000060: 90b4 2eb7 9eef 6fb9 9c4e b4b7 21e6 4438
00000070: 0d13 5d38 6c9d 3739 9b40 da38 b3ba 0c38
00000080: d692 d438 bffd 8739 bdc9 8039 b603 9e37
00000090: fac2 c6b6 545d 5c38 54ee 3439 c4db dd37
000000a0: 59e4 b4b8 a6c9 efb7 ae8c ab38 9dfb 8739
000000b0: 2de1 5b38 1cbd 2039 82e9 7539 68b9 ab39
000000c0: 4590 e736 4f9f 4bb8 d9b9 a838 e7cd 0139
000000d0: 9dfb 49b1 5807 c932 1b8c 3026 a65b 9631
000000e0: bcbb 1db8 2e6a 61b8 9974 9237 35bc 7c37
000000f0: a9c7 9c38 2523 8f38 a2bf d637 c673 4438
00000100: 76a4 0d37 63e6 65b7 1fdb 9734 f9a9 c137
00000110: bf4c 0ab6 9894 d9b4 99e3 d3b7 1c54 53b6
00000120: 2004 f3b7 e359 d837 9bee e3b8 f5b7 ce38
00000130: 30f4 1538 3971 4339 6348 1cad 94ca c235
00000140: 05c4 7d36 dbdc 66b6 ed81 eb37 1df8 c536
00000150: 2d75 84b6 8929 3038 06bd c137 80ca 9d37
00000160: 7b5b ba38 71bf 5db8 2e7b 5738 10bf f825
00000170: 5e4f 9332 f179 db32 93a3 bcb6 7d7b 3838
00000180: 91cf 5eb7 8946 44b7 2a96 3cb8 122c 76b8
00000190: 30e5 2db8 3eb9 c4b8 14d1 15b8 5977 7f38
000001a0: 13f6 0439 fed6 84b3 efe5 7539 cf72 82b4
000001b0: 7747 3e38 78c7 f8b7 0f3c 6c38 f847 bb39
000001c0: 025b 1639 53a2 6b38 5ad5 0db8 ff6c 9039
000001d0: 74e5 5637 0d77 8c37 aa2a 8a39 253d 4ab8
000001e0: 2cd1 d637 5211 ba36 d6ea abb7 620e df38
000001f0: 029a c0b7 cbce 9839 edeb 7239 5d0b 8eb8
00000200: b20a 2739 4909 2639 97ce 5fae 89c5 1837
00000210: 0b12 9b37 8e93 e0b8 04b4 7938 58fa 5535
00000220: 8985 4d33 9ec6 26b8 2044 b9b8 c241 c638
00000230: 90d9 07b8 163d 78b7 b962 1b39 0af4 f1b3
00000240: 3024 6b38 f6ac 7138 7611 3e34 a0e5 ca38
00000250: 2aff 872e 4e1f 4339 7799 3db8 87e2 e238
00000260: 5c46 2439 6ef1 6439 ee13 2b39 1b84 3e38
00000270: ffbb 8838 af01 dfb7 ed59 2d35 a347 1036
00000280: d1d0 3436 f321 0234 a853 e737 96dc 0f39
00000290: b61d 08b7 6008 7f36 0a9a c737 816e d737
000002a0: 6e10 1938 b897 16b4 e70e 05b3 3197 0c33
000002b0: e5d4 ba34 dad7 3ab6 55d2 b638 06e2 04b8
000002c0: 9849 3837 7092 7738 fae5 04b8 14f2 52b8
000002d0: 1ce7 deb6 f17c 12b8 5ffe 1d38 c2a9 1b34
000002e0: ba42 65b4 6c84 5130 0110 6133 baa7 0437
000002f0: 2ec6 eab5 f5d2 ffb5 765f 1035 4769 e737
00000300: 8d17 a736 84a4 7b38 3c25 00b8 5099 a9b7
00000310: b726 d4b7 0156 c236 b0ee c633 e13b 2239
00000320: a0e0 0ab6 b132 a3b6 769d 2938 e64f 5bb7
00000330: 2090 2db8 6f73 18b8 f14c 2839 fced de37
00000340: ce6c 6038 78d3 a539 99e9 e539 bc8c c939
00000350: cf37 8a39 8ab4 9c39 4b1c 4539 f708 1fb9
00000360: 8d5a 7e38 1b1b 3937 3966 d337 f6d4 1439
00000370: 5d9d b6b9 56db 8539 592b 2f39 b6a7 7139
00000380: df48 8639 d28e d139 d4cd 9c38 aa27 5339
00000390: 31f3 8538 14b4 7f39 5f49 61b8 03b6 c438
000003a0: 050b 4539 cfde 9839 a2d2 bd39 4618 a539
000003b0: cf20 9c39 b58b a539 a49d 3d39 8896 a939
000003c0: ef21 9139 6aa9 ec38 dbef 4839 7721 5f39
000003d0: a437 a639 3ace ab39 ac20 0238 9c1f c039
000003e0: fedf de39 d90e b139 b33f 9b39 841b 3fb9
000003f0: 51e2 af39 38ae 5038 4de4 4439 6753 1037
0.00011828507 7.944293e-05 -0.00030111213 -1.3203384e-05 0.00010780234 0.00015695071 8.322648e-05 1.4800762e-05
9.912158e-05 0.00023329738 0.000336419 -0.000117363204 0.0006631288 0.00011435063 -5.827471e-05 0.00016776512
9.2540526e-05 -4.5332443e-05 0.0002563742 9.966881e-05 0.00034978797 -0.0002475689 0.00033501213 0.00029821877
-1.0413249e-05 -0.0002288208 -2.1494277e-05 4.6944366e-05 5.270825e-05 0.00017510884 0.00010407084 3.355248e-05
0.00010136298 0.00025938262 0.0002456437 1.8836796e-05 -5.923558e-06 5.2539006e-05 0.00017254922 2.644759e-05
-8.625602e-05 -2.858492e-05 8.180119e-05 0.00025936673 5.242338e-05 0.00015329238 0.00023452009 0.000327538
6.9011317e-06 -4.854734e-05 8.045481e-05 0.00012379103 -2.9392375e-09 2.340282e-08 6.1252145e-16 4.375994e-09
-3.7606558e-05 -5.3743068e-05 1.7458851e-05 1.5064191e-05 7.475849e-05 6.8253175e-05 2.5600024e-05 4.6837864e-05
8.4425465e-06 -1.3703105e-05 2.8285373e-07 2.3086543e-05 -2.0608275e-06 -4.0527516e-07 -2.5259144e-05 -3.1490408e-06
-2.8969778e-05 2.5791063e-05 -0.00010868647 9.85711e-05 3.5751786e-05 0.00018638828 -8.883646e-12 1.4513084e-06
3.7814036e-06 -3.4401226e-06 2.8074684e-05 5.8999417e-06 -3.9475476e-06 4.2000353e-05 2.3095414e-05 1.8810155e-05
8.886211e-05 -5.28688e-05 5.1374715e-05 4.315061e-16 1.7149144e-08 2.5550408e-08 -5.621879e-06 4.3984026e-05
-1.3280559e-05 -1.1698933e-05 -4.4962544e-05 -5.8692014e-05 -4.145986e-05 -9.380512e-05 -3.5719087e-05 6.090789e-05
0.00012680171 -6.185836e-08 0.00023450678 -2.429792e-07 4.5366087e-05 -2.9656789e-05 5.632272e-05 0.0003572104
0.00014339018 5.6179542e-05 -3.381572e-05 0.0002754703 1.2808818e-05 1.6744738e-05 0.00026353198 -4.82175e-05
2.5608191e-05 5.5452483e-06 -2.0494143e-05 0.000106361476 -2.2959899e-05 0.00029145772 0.00023166808 -6.773204e-05
0.00015930345 0.00015834453 -5.0887818e-11 9.105898e-06 1.8485842e-05 -0.000107086365 5.953388e-05 7.971298e-07
4.785173e-08 -3.976246e-05 -8.834177e-05 9.453624e-05 -3.238913e-05 -1.4796175e-05 0.00014818729 -1.12668275e-07
5.606207e-05 5.761996e-05 1.7701481e-07 9.6748816e-05 6.1844155e-11 0.00018608311 -4.5204037e-05 0.00010818714
0.0001566647 0.00021833714 0.00016315255 4.5422563e-05 6.520002e-05 -2.6584456e-05 6.457838e-07 2.149937e-06
2.6943637e-06 1.2119544e-07 2.7576301e-05 0.00013719717 -8.113149e-06 3.8002836e-06 2.3794379e-05 2.5681455e-05
3.6493344e-05 -1.4025034e-07 -3.098003e-08 3.2733798e-08 3.48001e-07 -2.7841802e-06 8.717614e-05 -3.1681753e-05
1.09843895e-05 5.902577e-05 -3.1685435e-05 -5.0293354e-05 -6.6430202e-06 -3.4925473e-05 3.766862e-05 1.4497257e-07
-2.1351562e-07 7.622194e-10 5.240145e-08 7.906865e-06 -1.7492036e-06 -1.9060377e-06 5.3783094e-07 2.758637e-05
4.9797295e-06 5.999628e-05 -3.0552255e-05 -2.0217762e-05 -2.5290397e-05 5.7916627e-06 9.2635105e-08 0.0001547183
-2.0694351e-06 -4.86368e-06 4.0439387e-05 -1.307202e-05 -4.138064e-05 -3.634713e-05 0.00016050391 2.6575282e-05
5.3507094e-05 0.0003162881 0.00043852328 0.00038442563 0.00026362992 0.0002988915 0.00018797924 -0.00015166761
6.064265e-05 1.103317e-05 2.5200761e-05 0.00014193714 -0.0003483099 0.00025531155 0.00016705449 0.00023046028
0.00025612765 0.00039969996 7.476998e-05 0.00020137304 6.387232e-05 0.0002438578 -5.3712512e-05 9.3799106e-05
0.00018791489 0.00029157705 0.00036205823 0.00031489338 0.00029779083 0.00031575342 0.0001808317 0.00032346346
0.00027681838 0.00011284913 0.0001916284 0.00021279404 0.00031703443 0.00032769312 3.1024843e-05 0.00036644645
0.00042510027 0.00033771133 0.00029611363 -0.0001822543 0.0003354722 4.975332e-05 0.00018777065 8.6024875e-06

exp_avg_sq f4 [128, 260]
00000000: 57eb 7934 20e8 4f34 e10f 7034 4c8e b034
00000010: bd76 9934 16b4 cf34 ac0f c734 4a5a d134
00000020: db09 e734 9526 ff34 5a00 fe34 7d8d da34
00000030: 6d25 de34 c026 5734 12ac 5534 dc7e 9e34
00000040: fdef 8734 a0db d434 fc56 d034 f21e e734
00000050: 1963 0535 9eb8 dd34 0d1c e134 1372 aa34
00000060: 5c12 df34 75be f634 7628 0d34 bd67 8634
00000070: f7d8 6f34 4223 a034 b607 a034 8920 a434
00000080: 3df1 b134 f147 f634 58ec a834 9c63 0035
00000090: c7ac fb34 db97 e534 44b0 d534 2368 8734
000000a0: 8e3e 8034 abbb 9134 3c3d 9f34 a1c5 9034
000000b0: 3d7a c734 dc24 b834 0654 da34 36fd d634
000000c0: 9406 bd34 b71e d434 fee6 c534 3843 b834
000000d0: 5c39 7930 d27a ad30 5ca3 f62f 6569 ca31
000000e0: f42d a532 00a1 0d33 0627 c732 109c 3733
000000f0: 5a8c 3e33 8426 3c33 86cb 8b33 a06f 6f33
00000100: d102 9533 2e62 9b30 93b5 2330 7c5f a630
00000110: 4298 1e32 1f10 eb31 8305 0233 3148 0933
00000120: 506f 1c33 b35d 4533 6460 5533 f749 3f33
00000130: 87e1 5e33 35c7 1233 c42d 2b30 b9cc c730
00000140: 5d19 4430 3c07 3c32 9a61 6432 cc8a 0c33
00000150: 82b4 f532 2488 2a33 07ae fd32 8eaf 1633
00000160: 0182 7633 24b5 4233 6825 6e33 2872 ed2f
00000170: 7e86 d930 73a6 d730 e993 1532 d724 9e32
00000180: e050 b732 236f 4f33 99b5 3833 b187 0c33
00000190: 2612 1733 7582 3e33 61c2 8833 ea43 3833
000001a0: a2f1 9833 ba10 a533 439b 6233 fbd0 7833
000001b0: f8bc a233 1b85 e033 d8de 9f33 ccf9 6434
000001c0: 8f89 8034 b544 9e34 a0c3 6c34 7f95 9234
000001d0: e33c 4634 7d86 2a33 2358 cf33 0337 7e33
000001e0: ac22 9833 31d9 f632 b964 af33 36c3 2434
000001f0: a1e6 4334 f565 ab34 3af5 9d34 4d15 8e34
00000200: e579 7b34 7e3c 9a34 0f44 e332 db83 9432
00000210: 0916 8333 dbe1 2a33 1d38 0734 d3d8 4334
00000220: c782 c133 6dee 0c34 12d2 2f34 02d2 b134
00000230: b2fb 6c34 373e 4834 34c7 9534 12c8 1633
00000240: f2bd ee33 3306 2533 b8ca 8233 b98f e633
00000250: bbfc aa33 86f9 5734 486d 3e34 6e3e 4b34
00000260: 3880 5f34 8b62 9034 c5a8 8a34 f88f 9d34
00000270: 6dd7 4f33 1b4e 5533 9198 3e33 9f30 0434
00000280: 955d 4333 5cec b432 65e4 8633 560e 6b33
00000290: 66e3 c332 8feb 2e33 d418 2033 2c4f d832
000002a0: 2175 c732 d553 4233 d06d 1233 f0f4 d133
000002b0: ab80 a533 40b6 2a33 ad59 d233 9641 3333
000002c0: 9a38 2f33 c50e c032 9e11 5433 f307 1d33
000002d0: da95 3533 80c6 1f33 cfd5 d933 866b da32
000002e0: 5589 5433 0cee 5233 1fbf 8d33 1661 4f33
000002f0: 136d 5c33 d42d da32 c969 1d33 899e d732
00000300: caf9 9c32 5ec5 ae32 4c8e 0a33 90e3 2933
00000310: e63c a433 5932 ae33 bf21 6333 a368 8e33
00000320: 9004 5433 dd5f a733 e4fa 3833 221a 4033
00000330: 631e 0433 ea4e 5333 71c7 2233 0c84 1d33
00000340: bd06 c935 6aa2 da35 0294 d635 7e83 cc35
00000350: 6800 c435 c793 ad35 f195 a935 611f 9835
00000360: 7fe6 8835 a156 7235 3400 8735 71d9 8835
00000370: 2b49 9335 5125 df35 1e90 d335 f26b c735
00000380: df22 bf35 3efa af35 deff ab35 c2ad a635
00000390: 12be 8f35 f5fb 8735 4f43 8035 23f8 9b35
000003a0: 4466 8c35 28d1 8235 3e4c dc35 696b db35
000003b0: d80f d335 0dea cc35 c906 b735 e0ca ac35
000003c0: a365 b535 1caf 9f35 f60d ab35 5735 6f35
000003d0: 0ec7 8d35 ddb0 9e35 dd2c 9135 8df4 d635
000003e0: f04c c935 786e cf35 eac5 c135 346a ce35
000003f0: 4740 ae35 e95c a435 85dc 9d35 a800 9b35
2.3275548e-07 1.9362824e-07 2.2357519e-07 3.288609e-07 2.8584864e-07 3.8687784e-07 3.707804e-07 3.8994978e-07
4.3034274e-07 4.7525523e-07 4.7311443e-07 4.070861e-07 4.1377953e-07 2.0037533e-07 1.989977e-07 2.9522096e-07
2.5320324e-07 3.9647875e-07 3.8806309e-07 4.304962e-07 4.9690567e-07 4.1298784e-07 4.1929925e-07 3.1747967e-07
4.1550345e-07 4.5959646e-07 1.3146368e-07 2.5034925e-07 2.2337541e-07 2.9827976e-07 2.9807933e-07 3.0571053e-07
3.3144343e-07 4.5873415e-07 3.14644e-07 4.7828667e-07 4.6878105e-07 4.2765063e-07 3.9802592e-07 2.522148e-07
2.3887372e-07 2.71449e-07 2.9660612e-07 2.6965884e-07 3.7155579e-07 3.429949e-07 4.06668e-07 4.004484e-07
3.520878e-07 3.9510425e-07 3.6862178e-07 3.432158e-07 9.0667185e-10 1.2622314e-09 4.4863213e-10 5.8909557e-09
1.9229425e-08 3.297555e-08 2.3184395e-08 4.2749946e-08 4.436547e-08 4.380719e-08 6.5097126e-08 5.5748046e-08
6.9388655e-08 1.1305639e-09 5.9557087e-10 1.2105228e-09 9.23143e-09 6.841233e-09 3.0272997e-08 3.1963456e-08
3.642282e-08 4.5952856e-08 4.9680594e-08 4.4537924e-08 5.189352e-08 3.417445e-08 6.2274474e-10 1.4537341e-09
7.134043e-10 1.0944685e-08 1.3293539e-08 3.2722525e-08 2.860384e-08 3.970503e-08 2.9532215e-08 3.5084263e-08
5.7394576e-08 4.533389e-08 5.5447714e-08 4.3191162e-10 1.5827053e-09 1.5690617e-09 8.706572e-09 1.8410374e-08
2.1340782e-08 4.829702e-08 4.3006e-08 3.27197e-08 3.5173933e-08 4.4356472e-08 6.368351e-08 4.2902606e-08
7.122004e-08 7.686454e-08 5.2760935e-08 5.7932066e-08 7.578086e-08 1.04550246e-07 7.4445495e-08 2.132503e-07
2.3941945e-07 2.9479784e-07 2.2050381e-07 2.7303392e-07 1.8462337e-07 3.9703526e-08 9.6552206e-08 5.9189016e-08
7.084358e-08 2.8736936e-08 8.167394e-08 1.5344708e-07 1.8244693e-07 3.1925416e-07 2.9421955e-07 2.646506e-07
2.3420542e-07 2.872875e-07 2.6457228e-08 1.7289429e-08 6.104171e-08 3.9786624e-08 1.2593269e-07 1.823967e-07
9.011051e-08 1.3125255e-07 1.6374568e-07 3.312162e-07 2.2070779e-07 1.8649085e-07 2.7898352e-07 3.510656e-08
1.11172895e-07 3.8422694e-08 6.090471e-08 1.07363526e-07 7.962213e-08 2.0114211e-07 1.7734885e-07 1.892856e-07
2.0815139e-07 2.689379e-07 2.58273e-07 2.934828e-07 4.8391872e-08 4.9663964e-08 4.437658e-08 1.2311146e-07
4.5487088e-08 2.1062242e-08 6.281406e-08 5.472824e-08 2.2804397e-08 4.072677e-08 3.7275484e-08 2.5181713e-08
2.3219913e-08 4.524539e-08 3.4093148e-08 9.776875e-08 7.706816e-08 3.9746965e-08 9.795199e-08 4.1736335e-08
4.079684e-08 2.2358458e-08 4.937612e-08 3.656164e-08 4.2278636e-08 3.7200607e-08 1.01437415e-07 2.5427436e-08
4.9485e-08 4.9110938e-08 6.600589e-08 4.8284242e-08 5.1321944e-08 2.539938e-08 3.6650622e-08 2.5101388e-08
1.8274381e-08 2.0346018e-08 3.2260047e-08 3.9555346e-08 7.6479225e-08 8.1116646e-08 5.2883248e-08 6.6314236e-08
4.9364246e-08 7.793981e-08 4.3069022e-08 4.472725e-08 3.076128e-08 4.9199038e-08 3.7899955e-08 3.6674507e-08
1.4977628e-06 1.6289534e-06 1.5987318e-06 1.5237454e-06 1.4603256e-06 1.2932513e-06 1.263512e-06 1.1334015e-06
1.0199873e-06 9.0278087e-07 1.0058343e-06 1.0196073e-06 1.0973648e-06 1.6625655e-06 1.5762669e-06 1.4858072e-06
1.4240758e-06 1.3111346e-06 1.281496e-06 1.2418534e-06 1.0709648e-06 1.0131613e-06 9.556333e-07 1.1620617e-06
1.0460576e-06 9.746627e-07 1.6413467e-06 1.6348032e-06 1.5725336e-06 1.5267302e-06 1.3636537e-06 1.2874043e-06
1.3515131e-06 1.1897387e-06 1.2744556e-06 8.911206e-07 1.0563251e-06 1.1823391e-06 1.0816399e-06 1.6015416e-06
1.4998059e-06 1.5454852e-06 1.4437221e-06 1.5379105e-06 1.2982717e-06 1.2245993e-06 1.1761591e-06 1.1548591e-06

exp_avg f4 [128]
00000000: a354 c339 2ecb f1b9 1e8b 713a f6eb adb9
00000010: 84eb 833a bd7e 0dba a000 f739 5f1b 62b9
00000020: a011 b8b9 7deb a33a 5e9b bdb8 a6e8 c104
00000030: a0de 7f39 0f2c a1b9 e861 4439 0c5c bf38
00000040: 5702 69b8 4838 59b7 9698 3aba aafc 24b8
00000050: 0296 bb37 91ea 9638 6847 67ba a638 e4b9
00000060: 4d4c 0ab9 61f0 0539 3ed5 a6b9 9fbf 263a
00000070: 2895 b8b7 b8d3 4f3a f78e 0b3a d5bf 17b9
00000080: daf7 42b9 8565 7d39 7875 1e3a ead5 083a
00000090: 9be4 28ba f378 9db6 0694 163a 57c6 8739
000000a0: ba62 1eb7 a87e ac39 0400 0000 6233 ac37
000000b0: 0bd4 9fb8 1b2b ffb7 d5e6 b239 5bab 2934
000000c0: 8898 0637 c68a 423a 3e08 a6b9 adb7 d63a
000000d0: 404f 3cb9 3874 3b39 8dd6 6d39 c3b9 6c39
000000e0: 9925 a73a ec8b 9538 c1af cdb9 535a 4839
000000f0: 0455 c238 d12d 7838 0400 0000 eb69 f839
00000100: 7d26 4017 88c1 c4a6 2bf2 fb99 d8f0 adb8
00000110: b373 643a ad9e 9839 5de2 7d3a f6e7 66ba
00000120: 3a3e 84ba 305c 6cb9 bd3e f2b8 830b 6324
00000130: 8e04 ffb9 6e33 4039 a2ea 5bb8 7b51 00b9
00000140: 70a5 f938 7b23 02ba d4fb d438 6c4a 65b8
00000150: 5136 0a3a 7c62 8539 1edb 05b9 e8a0 01b8
00000160: bbd8 b0b9 7e65 8f3a ad57 7338 2ad2 ae38
00000170: afa3 7637 b551 2539 4262 8738 c284 c939
00000180: 10ac 64ba 13d4 05b9 a875 4739 8156 233a
00000190: c68f 6139 709c e9b9 8ab1 d2b6 1a1b cb39
000001a0: 483f d22f c344 8226 0af5 61ba a0fc 06ba
000001b0: 71b2 a939 2ae4 943a 0400 0000 70e5 88b9
000001c0: 94bf 0e39 2d04 7e38 398b e339 23bc 3b33
000001d0: 678d 0938 9149 a0b9 c7fd 3a38 c279 95b8
000001e0: 6f5b 203a 818b 0eba 0400 0000 fcf8 a939
000001f0: 896e 3bba 9b1e 9539 0400 0000 9c56 d6b8
0.00037256358 -0.00046118483 0.00092141505 -0.00033172936 0.0010064696 -0.00053976086 0.00047111977 -0.00021563236
-0.00035108346 0.0012506094 -9.041162e-05 4.5587736e-36 0.0002440163 -0.0003074114 0.0001872849 9.124735e-05
-5.5553708e-05 -1.2947312e-05 -0.0007118074 -3.933596e-05 2.236199e-05 7.196249e-05 -0.0008822591 -0.00043529755
-0.0001318913 0.00012773417 -0.00031820865 0.0006360951 -2.2003966e-05 0.0007927972 0.00053237326 -0.00014471945
-0.00018593614 0.00024165779 0.0006044726 0.0005219864 -0.0006442756 -4.693045e-06 0.0005744103 0.0002589698
-9.44052e-06 0.00032900763 6e-45 2.0527925e-05 -7.621207e-05 -3.0418441e-05 0.0003412279 1.580169e-07
8.022536e-06 0.00074211915 -0.00031668128 0.0016381644 -0.000179586 0.00017877005 0.00022682008 0.00022575916
0.0012752294 7.130936e-05 -0.00039231594 0.00019107135 9.266476e-05 5.9170477e-05 6e-45 0.0004738116
6.2087125e-25 -1.3652689e-15 -2.6050603e-23 -8.2941435e-05 0.00087147503 0.00029109922 0.0009684915 -0.00088083686
-0.0010089346 -0.00022541056 -0.00011551145 4.923253e-17 -0.00048640784 0.00018329706 -5.2432188e-05 -0.00012237385
0.000119040604 -0.00049643934 0.000101558544 -5.4667165e-05 0.0005272376 0.00025441113 -0.00012765496 -3.0905852e-05
-0.00033730813 0.0010940281 5.801737e-05 8.336113e-05 1.4700853e-05 0.00015766064 6.4556036e-05 0.0003843662
-0.0008723149 -0.00012762872 0.00019021949 0.00062308466 0.00021511232 -0.00044557778 -6.279156e-06 0.0003873937
3.8243742e-10 9.0392e-16 -0.00086195825 -0.00051493384 0.0003236714 0.0011359502 6e-45 -0.00026110886
0.00013613544 6.0562208e-05 0.00043400543 4.371044e-08 3.2795037e-05 -0.0003057239 4.4582204e-05 -7.127553e-05
0.00061171403 -0.0005437658 6e-45 0.000324197 -0.0007149955 0.00028442297 6e-45 -0.000102204474

exp_avg_sq f4 [128]
00000000: afb0 0736 9dfd a737 011f 1538 d5e7 8436
00000010: b0a9 6e37 52a4 9c37 b37e 8e37 1b2e 3a37
00000020: 7760 9d36 17d9 5038 3729 2835 d40f 3835
00000030: 1b8b c036 0f87 eb37 430b 9c36 0e56 bd35
00000040: bae1 1f38 54c9 8c38 8d74 5137 63a7 5535
00000050: e222 9836 321d 5737 dcf5 5e37 84b7 9937
00000060: d5ff e037 3d27 4438 7572 5537 f7a3 a237
00000070: bd3a 1e35 88ef cb37 b850 2537 a993 7136
00000080: b5f7 a536 ce65 6537 0a15 4f38 84e9 6537
00000090: de49 9c37 1a57 2237 b183 3137 91eb ba36
000000a0: 3444 f134 1709 9336 1d1f 2930 1c9e 2938
000000b0: ccd8 1938 7330 7636 39fb 2837 8cbe 1837
000000c0: 573e 5238 c8e8 b137 057a b536 f335 8937
000000d0: 615c 3b38 2188 2a36 533e 7e37 1c13 9937
000000e0: 12dc 4e38 7560 e635 7add 9d36 1dc5 9836
000000f0: 7fc4 ef37 606c 7738 f232 1f29 1016 f235
00000100: 4edd 6d36 b0ed 8033 d8e8 5634 09c8 5b36
00000110: d1e3 9237 2b23 0e37 1f1b 8c36 34cf 2d37
00000120: 37f4 ce37 d484 c537 f738 e035 c7a1 9035
00000130: d991 aa37 9ca8 cc36 8a07 f134 f72c 2937
00000140: 009f eb36 a635 8c37 94c9 b636 c530 6337
00000150: d091 7537 49fe 6537 a975 a736 104f c235
00000160: cfc5 0a37 824f 9b38 8f29 6237 b092 6d37
00000170: c0f7 1c35 7fe2 a736 3943 0537 d3f2 8037
00000180: 29a2 d637 6147 0e38 97b9 ea35 3bb9 8f37
00000190: 0b72 0a38 7efd ec36 4694 6036 c53b d936
000001a0: bbcf 3036 d201 0536 2dea 8037 c963 a937
000001b0: 41a7 d936 5f6f aa37 569c 0433 c78c 7c37
000001c0: eddb 0638 d920 1836 4854 a237 3b5a a234
000001d0: 92b8 c036 50d9 e937 730e 5837 79d2 4235
000001e0: d38f 5c37 22a5 8938 1fe0 3f2e 4560 cf37
000001f0: 3350 5d36 b089 9237 1163 3635 faa7 d136
2.021941e-06 2.002605e-05 3.5553243e-05 3.9608954e-06 1.4225414e-05 1.8673167e-05 1.6986718e-05 1.1097199e-05
4.6901946e-06 4.9793245e-05 6.264485e-07 6.8568374e-07 5.73824e-06 2.8077075e-05 4.6504733e-06 1.4106643e-06
3.811878e-05 6.7132205e-05 1.2484507e-05 7.9592263e-07 4.534014e-06 1.2821796e-05 1.3289475e-05 1.8324477e-05
2.6822012e-05 4.6766585e-05 1.2722438e-05 1.9388257e-05 5.894506e-07 2.4311026e-05 9.85356e-06 3.5997748e-06
4.94622e-06 1.3673167e-05 4.937224e-05 1.3703833e-05 1.8631046e-05 9.676232e-06 1.0580684e-05 5.5706555e-06
4.4939372e-07 4.3819996e-06 6.1526056e-10 4.043999e-05 3.667995e-05 3.6685058e-06 1.0072073e-05 9.104271e-06
5.012596e-05 2.1208441e-05 5.4084253e-06 1.6356795e-05 4.467031e-05 2.5411211e-06 1.5154091e-05 1.824792e-05
4.9319184e-05 1.7164408e-06 4.704748e-06 4.5529e-06 2.858252e-05 5.899032e-05 3.534928e-14 1.8036826e-06
3.5444568e-06 6.0036996e-08 2.0015011e-07 3.2749979e-06 1.7510642e-05 8.472048e-06 4.1754824e-06 1.0359847e-05
2.4670835e-05 2.3546083e-05 1.670588e-06 1.077592e-06 2.0333495e-05 6.0993025e-06 4.4895233e-07 1.0083654e-05
7.022056e-06 1.6714283e-05 5.4474895e-06 1.3541609e-05 1.4637088e-05 1.3708669e-05 4.9906853e-06 1.4477137e-06
8.271497e-06 7.4057854e-05 1.3480326e-05 1.4160454e-05 5.847505e-07 5.0033555e-06 7.943069e-06 1.5371863e-05
2.55863e-05 3.3921915e-05 1.7488372e-06 1.7133183e-05 3.3007975e-05 7.0628585e-06 3.3464908e-06 6.474062e-06
2.6346959e-06 1.9819604e-06 1.5367836e-05 2.0192836e-05 6.486575e-06 2.031744e-05 3.087583e-08 1.5053148e-05
3.215291e-05 2.2668885e-06 1.9351151e-05 3.0240503e-07 5.7435327e-06 2.7876958e-05 1.28779675e-05 7.257691e-07
1.31465085e-05 6.5634275e-05 4.362743e-11 2.4721152e-05 3.2978248e-06 1.7468672e-05 6.7944444e-07 6.2482404e-06
