ppo_2layer_1/ppo_agent_episode_13200.pth (torch, 596662 bytes, 21 tensors)

fc1.weight f4 [128, 260]
00000000: 3b7b d6bd 73c3 61be 6702 ddbb 65a0 90bd
00000010: 17b5 21bb c342 ec3c 59de af3c 8f72 9abd
00000020: d872 16bd 9ddf 543d 785b 3ebd 0e37 df3d
00000030: f417 6ebe d0f3 1b3d c1f4 d2bc 3511 acbd
00000040: 8eb9 16be af55 623d 2df0 d93b cb94 92be
00000050: c0b4 57be 0c62 dfbd a430 2bbc 78e9 ebbd
00000060: 085a 483d 6728 f4bd f02b 12be 1027 d3bd
00000070: 3def 8ebe 7203 88bd 07d8 36bd 7c56 29be
00000080: bc8b 2cbe 5816 a83e c9da c5be 779c b93d
00000090: e3f9 543e 4553 dbbd 1d48 c1bd 03d0 26be
000000a0: 8416 073b 899b 9d3d dc7e 17bd f550 cdbd
000000b0: 16fd c3bd 47b2 85bd 5763 893d f254 f0bc
000000c0: 64e9 08be f7f3 81bd 2ed6 70be 1779 6bbd
000000d0: 6206 b4be 4429 3abe a009 0ebe cf0b 3b3c
000000e0: 26ea 573d ba41 213e 76c3 f53b c206 ce3c
000000f0: 9ba7 2ebd 65eb 24bd 0972 b23d fe41 3b3c
00000100: e7b3 6e3c 4ad3 36be 7968 f2bb 3f77 0c3d
00000110: cf5e fbbc a972 6fbd 6720 c53d ad88 733e
00000120: f203 463d 328f 9d3d 00c9 d63c e355 97bc
00000130: be03 7c3c 744b f03c 2486 0fbe 467c fdbd
00000140: 765d 6bbe d971 163d f9c3 2cbb 0500 4a3a
00000150: 44dd 9b3d d05d 02be 55d2 823d a55f 9bbd
00000160: bb6d a6bc 1623 c73c 9061 833d 6e5a d4bd
00000170: 6943 923b d6e6 f7bd 39e7 3ebd b9e9 443d
00000180: 19b5 b53d 358a 353d 79c0 703d 1455 0e3d
00000190: 3f7f 703d eea3 6ab9 e1e3 c73d 7c96 223d
000001a0: a579 7c3d b1d7 45be 3233 653e 2bce 4fbd
000001b0: 2582 0fbe 4844 803d 32d1 153e 1529 083e
000001c0: 6d15 81bd 6c98 253d 41e1 313c 91ea f0bd
000001d0: 398a af3d 8059 23be 215a b33e 7ca6 a43d
000001e0: a7a9 793d 2c75 ad3d fd45 8cbc f306 1b3e
000001f0: 1d89 9a3c 21ba bd3d 3007 e9ba 6c12 46bc
00000200: babf 06bd 73d7 1abc 9456 893d 7b23 a23e
00000210: 7e9e f73d d71d 8f3d be06 20ba 9b32 063d
00000220: c499 813e 0fa1 bdbd f97d 093d f972 20bc
00000230: 9197 75be 2494 22bd 3f48 453d 6ec8 94bd
00000240: 16cc 9a3d 95fc 2abe 84a0 983c e14b d2bc
00000250: e08a 26bd 1592 8e3d 1702 343e c2c0 c93c
00000260: e98c 46bd 80fd 533d 6901 453e 4fdd aaba
00000270: 0daf 45bd e896 f13d ce77 d9bc 2664 d9bc
00000280: da94 643e bec7 2fbe 22e0 1d3d 1507 913c
00000290: 7ae7 33bd e8af 243d ebd0 ba3d 1287 213d
000002a0: c390 45bd df3f 333d 5f9a d13d 4b35 343e
000002b0: 6a3c 133e beb8 bcbd 73a0 77bd 7a6b cdbc
000002c0: b331 dbbd 6efe 5f3d 8307 063e fbbe 503d
000002d0: 9b28 42be b7e4 67bd e5f5 773d 544a ecbc
000002e0: e0d2 a4bc b8bd 803e 4cad c43c 172c 2a3e
000002f0: f504 c4bd c399 803c fb42 473e 9b62 e53d
00000300: d2a0 593d 1aec 273d 1f31 c9bc 209a 0e3e
00000310: b841 47bd ba45 ae3d 90e4 963d 88cd 57bb
00000320: 7122 1a3d bc26 303e 570e d2bc 2792 11be
00000330: fa1b ae3d f405 9cbc 5a4c a53d 86c5 ac3d
00000340: 86c8 913d cf83 063e 67ae 703d 62ee 303d
00000350: 6f4f b53c 2292 023d 5b59 01be 864b b53c
00000360: 9a03 313e 3eb2 28bd ef79 8b3d ad30 e33c
00000370: c957 183e 9e75 733d 787c ab3c 16a1 683d
00000380: b7c3 883d 5e2a 823d c8c2 21bc 1751 8b3d
00000390: 3967 b83d 27fe 12bd 547e 88ba b7fe 503d
000003a0: db2e 023d 910f 853d f2c2 853d e8af a2bc
000003b0: 4d67 133e f720 29bb b93d d83c 0e6f 043e
000003c0: 9f06 043d e6d4 4dbe 62b9 ee3d 9ecd 49bc
000003d0: 905e 1fbd 1c10 c63d 2b4c a93d 1007 b93d
000003e0: 02c6 54bd c8f2 57bd 96cb 023d 546f 783d
000003f0: 2a95 993d 2530 57bd ba62 50bd 5938 b73d
-0.10472723 -0.22047214 -0.006744671 -0.07061843 -0.0024674588 0.028840428 0.021468328 -0.075413816
-0.036730617 0.051971067 -0.04647395 0.10899173 -0.23251325 0.038074315 -0.025751473 -0.084017195
-0.14719221 0.055257495 0.0066509456 -0.28629145 -0.21065044 -0.10907373 -0.010448609 -0.1151914
0.048913985 -0.11921769 -0.14274573 -0.10310185 -0.279169 -0.06641282 -0.044639613 -0.16536897
-0.1685018 0.32829547 -0.38643482 0.090630464 0.20798449 -0.10709242 -0.09437583 -0.16290288
0.0020612786 0.076956816 -0.036986217 -0.10025207 -0.09569757 -0.06528144 0.06708401 -0.02933738
-0.13370281 -0.06345361 -0.23519203 -0.057488527 -0.3516112 -0.18179804 -0.13870859 0.01141639
0.052713536 0.15747729 0.0075001074 0.025149707 -0.04264031 -0.040263552 0.08713157 0.011429308
0.014569259 -0.17854038 -0.007397708 0.03429341 -0.030684857 -0.058458958 0.09625321 0.23782606
0.048343606 0.07693328 0.026218891 -0.018473571 0.015381752 0.029332854 -0.14016014 -0.12377219
-0.22984871 0.036729667 -0.0026361926 0.00077056914 0.076105624 -0.12731099 0.06387774 -0.07586602
-0.020315995 0.024308722 0.06415093 -0.103688106 0.0044636023 -0.12104575 -0.04660723 0.048074458
0.08872432 0.044321258 0.058777306 0.034749106 0.0587151 -0.00022377048 0.09760261 0.039694294
0.061639447 -0.19320561 0.2238281 -0.050733726 -0.1401449 0.062630236 0.14630583 0.13296922
-0.06302915 0.040428564 0.010856927 -0.1176349 0.08571286 -0.1595211 0.350297 0.08039567
0.06095281 0.084696144 -0.017123217 0.1513937 0.018864209 0.09264017 -0.0017778631 -0.012089353
-0.03289769 -0.009450781 0.067059666 0.31667694 0.12090777 0.069881134 -0.000610452 0.032763105
0.25312626 -0.09259235 0.033567403 -0.009793037 -0.23983599 -0.03969206 0.048164602 -0.072647914
0.075584576 -0.16697915 0.018631227 -0.025670948 -0.040659785 0.06961457 0.17578922 0.024628047
-0.048474226 0.05175543 0.19238819 -0.0013035926 -0.048262645 0.11796361 -0.026546385 -0.026537012
0.22322407 -0.1716604 0.038543828 0.017703572 -0.043921925 0.04020682 0.09121879 0.039435454
-0.04823376 0.043762084 0.10234522 0.17598455 0.14378515 -0.09214924 -0.06045575 -0.025075663
-0.10702839 0.054686002 0.13088803 0.050963383 -0.18960802 -0.056614604 0.060537238 -0.028844036
-0.020120084 0.25144744 0.024008416 0.16618381 -0.09571258 0.01569832 0.19459145 0.11200448
0.053131886 0.04099665 -0.024559556 0.13925982 -0.04864666 0.08509393 0.073678136 -0.0032928903
0.037630502 0.17202276 -0.025641603 -0.14215909 0.0850143 -0.019045807 0.080712035 0.08436112
0.07118325 0.13136218 0.058760073 0.04319609 0.022132603 0.031877644 -0.12631743 0.022130739
0.1728653 -0.04118561 0.06810366 0.027733171 0.14877237 0.05943834 0.020933375 0.05679425
0.06677955 0.06355737 -0.0098731 0.06802576 0.09004063 -0.03588691 -0.0010413625 0.051024165
0.031782966 0.0649711 0.065313235 -0.01985927 0.14394875 -0.0025807002 0.02639662 0.12932989
0.032232877 -0.20100746 0.11656453 -0.012317089 -0.03890854 0.09671041 0.08266481 0.0903455
-0.051946647 -0.05272177 0.031932436 0.060653046 0.07499154 -0.05253615 -0.050875403 0.08946294

fc1.bias f4 [128]
00000000: a9fa e93c 0c8d 963d 0223 553d 1f65 313b
00000010: c639 da3c 0b39 ac3d b53c 0d3d 1410 c3bd
00000020: 87dc 353c 386f 733d 14be d63c f331 c23d
00000030: 5c11 74bd 8d8f efbc 0f25 0abd d1a0 0a3c
00000040: c5a1 563d 47c4 193d e3f4 3d3d d452 b33d
00000050: ce07 993d a06b 60b9 bdc9 b93c f4e1 ebbc
00000060: d39d 8a3c a100 663c 725b cbba 4cbb 903d
00000070: 8eb2 38bd 5f9c 4fbd 1e12 d23c 0b38 70bc
00000080: 2d69 18bd 92cf 9c3d 50af b33c c853 47bd
00000090: 0247 6c3d 82c3 333d 93fd 3a3d cf14 443d
000000a0: 5086 d3bb 12f4 b63d 8e98 79bd 0b4f c1b9
000000b0: 9431 15bd 94d4 6fbd 7503 03bc 0aa9 70bd
000000c0: 9d66 713d cff9 773d 09c5 7c3c 3037 5f3d
000000d0: b763 1b3d ca8b 7b3d 7200 093d 76dc 2fbc
000000e0: e0c4 153b 8c04 fcbc 19e1 853d 0f4e 093d
000000f0: 05c3 acbc 9238 4c3d 74bf 82bc 3dce f73c
00000100: 44d8 ec3c d052 6938 d69b 93bd 9b97 aa3b
00000110: 9a1c 923d 35f8 90bd 6a96 e33c 43ff 3a3c
00000120: 92be 8fbd 91e1 6e3d 2af0 0b3c d5da f33c
00000130: e828 9bbc 6feb 27bd 2dd2 033d 0905 8abc
00000140: b830 8dbc f43c dbbc b7cd c2bc 074c fcbc
00000150: 7c4a 003d ec61 df3c 05e8 773c 502a 873d
00000160: 925c 62bc 742a b7bc c427 7e3c 0ae5 973c
00000170: 55a4 cf3d ec5f 6e3d 7e43 50bd efc1 ba3c
00000180: 4222 0d3c 1dbf 92bc 1d2b 873c 9000 1dbd
00000190: b69f 873d 6afd 903c 804e c83d c045 bf3d
000001a0: 4c09 a53c 3700 473c 718d 513d 05ea a33d
000001b0: 5ade 6abd f78d bd3c 726c 453c 3524 09bd
000001c0: 5b73 dabc b789 8a3c ca05 a13d 799b ea3c
000001d0: 9167 ae3d 53af 7d3c 2348 8e3d 9f82 c9bc
000001e0: 3c36 933c 1e22 b43d 75a4 aabb e447 5d3c
000001f0: 50f3 a63d 6fa6 783d 695d 423d 9600 7ebc
0.028561907 0.07351121 0.05203534 0.002706833 0.026638877 0.084093176 0.034481723 -0.09524551
0.011099941 0.05943224 0.026213683 0.09482183 -0.059586868 -0.029243255 -0.033726748 0.008461193
0.05240037 0.0375407 0.04637612 0.087560326 0.07472192 -0.00021402398 0.022679204 -0.028794266
0.01692096 0.014038236 -0.0015514924 0.07066974 -0.045092158 -0.050686236 0.025643405 -0.014661799
-0.03720968 0.076567784 0.021934181 -0.048663884 0.057684906 0.043887623 0.045651983 0.047871407
-0.0064552203 0.089332715 -0.060936503 -0.0003687072 -0.036424235 -0.05855234 -0.00799643 -0.05875496
0.05893575 0.06054097 0.015427836 0.05449599 0.037936892 0.06141261 0.03344769 -0.010733714
0.0022852942 -0.030763887 0.065370746 0.033521708 -0.021089086 0.049858637 -0.015960433 0.03024971
0.028911717 5.5628654e-05 -0.07207458 0.005206061 0.071343616 -0.07078592 0.027781684 0.011413398
-0.0701877 0.058320586 0.008541146 0.029767433 -0.018940404 -0.04099601 0.03218286 -0.016848104
-0.017235145 -0.026762463 -0.023779733 -0.030797971 0.031321034 0.027268372 0.015131001 0.06599867
-0.013816016 -0.02235911 0.015512411 0.018541832 0.10138766 0.058196947 -0.050845616 0.022797553
0.008614125 -0.017913396 0.01650005 -0.038330615 0.06622259 0.017698962 0.09780598 0.09339476
0.020146035 0.012146047 0.05116028 0.0800362 -0.057340957 0.023138983 0.012049781 -0.033481795
-0.026666334 0.01691137 0.07862432 0.028638588 0.085158475 0.015483695 0.06947353 -0.024598418
0.017970197 0.0879557 -0.005207593 0.01350591 0.08151877 0.0607056 0.047452364 -0.015503069

fc2.weight f4 [64, 128]
00000000: bae8 c83d df6b 66bd bcc7 943c a0cc 6f3e
00000010: ba42 b23d 8e52 cd3e 751b d43c fd00 18be
00000020: d69e 903e efb1 1cbd 8103 5abd 3c62 ab3d
00000030: ee65 18bd 8fdb aa3d e144 073d 5f06 973d
00000040: a04d d23d 346a 95bd 78c0 dcbd 6b44 d93d
00000050: f4dc c83d d94f 663e 143d 6d3c cf91 50bd
00000060: e86b a639 16b9 903d 70d2 f7bd c39a ac3e
00000070: 65ab 843e ff2c 683e 737c a53e 53fa a8bd
00000080: 151e 03bb eafe 923e 3bdf e1bc 21a3 223e
00000090: 24ff 5f3e 86c0 71be b507 ee3e e6d0 7dbd
000000a0: 4559 d43d 59e1 53be e732 7b3a 68ee 083e
000000b0: b358 e3bd 4e52 8c3e 097b 483e ec8f 96bc
000000c0: 5917 ad3d ec0d 8c3d 6f82 cfbc 6678 223e
000000d0: 6882 20be 576a 973c 5c12 02bd 4fd8 9abc
000000e0: 0bdb 103e d621 903d 6a13 1dbe 490d 7d3e
000000f0: dfb6 fcbd f495 b73d effd 973c 4861 81bd
00000100: f8a8 b93d 329a 573d 41d8 3dbd 675f b03d
00000110: 95ba 223d 9b21 9d3c c38c 633d 547a 33be
00000120: a4de 253d 603e a6bd 5f6e b83c 04f9 96bc
00000130: 3d97 98bd f308 373e 8528 57be 0e2f 8c3e
00000140: f6d9 4b3e 9aea 813d ec80 54bd d7c8 823d
00000150: b8bd 8f3e 605a 99bd e553 d23d f831 1bbe
00000160: 4afb d8bd a319 883e f4ff fbbb c719 a9bb
00000170: a166 1c3e fa48 003e 5daf 5a3e a16e e03d
00000180: 3545 2b3e 9961 d5bd 728e 813e f816 db3e
00000190: 4178 403e 38b4 fcbd c863 00bd 22fa e63d
000001a0: d65a bbbc 5d1d 3bbe e1e1 14be a994 b4bd
000001b0: a960 0fbe d679 323e bef4 97bc 42b4 1f3e
000001c0: 29c1 e8bd 271f 5e3d 4242 ce3d 646f a2bd
000001d0: cc38 063e 7afe c63d b776 f8bd 6179 2c3d
000001e0: cd80 d33d 61a4 1bbe 8b8a 593e b078 b7be
000001f0: 6c23 a9be 45ac 9a3e e0f1 093d d2ee b1bd
00000200: 782a 25be e230 9fbd d617 4d3e 972b 04be
00000210: 0fa9 8e3e 7c07 483e 92c7 503e 97fe 0dbe
00000220: 6401 c13d 8cf7 cb3e f70e a43e 2fb1 58bd
00000230: 1158 833d 829e f3bd dccc 59be 02d6 d3bc
00000240: f966 e23d 84c6 313d 428c de3d dabe fe3d
00000250: a6be 6bbe 2f67 03be 8896 c3bc 5713 7bbe
00000260: 1f17 363e 421c dc3c a92b 7dbd d642 fb3d
00000270: 8a16 0a3d 7b8e 3fbd 34d3 263d b575 87bd
00000280: 0863 ad3e d131 80be af18 383e 5f23 7cbd
00000290: 2db5 113e 7bcd 373d baa7 a0be f9b6 7bbe
000002a0: 3fe8 9d3e d615 49be 6aec f7bc 2f6f 1bbd
000002b0: 5939 923e 0464 60bd d59d 04be 59ee a33e
000002c0: 8860 cd3d bd2d 3c3d d886 b63d be1f d53d
000002d0: e3fd 493e c86e eb3d f542 23be eb6a 2bbe
000002e0: 5bb3 9f3e b32c 1dbe 8761 123e 09e1 673e
000002f0: db59 54ba dbf8 783d afe3 2abd 4d2c 02be
00000300: 52f1 e1bb a880 01be 2f13 803d 4bd9 793d
00000310: b795 d83e 306e 13be b90c 053d 717f 1d3e
00000320: ad41 383e ba75 593e 77b0 5c3e cd50 ca3d
00000330: 09d5 f93d b3b2 51bd 93c1 3a3e e7db d7bd
00000340: 48eb c3be f654 c43d 3c40 da3d 54ce 403c
00000350: 938c 42be f833 183e 663d 933c 8cf9 93bd
00000360: 3ac9 cf3e 9e73 273e 8a7b 8f3c f65e e93b
00000370: 122d 593d 7a09 763e 46ac 2cbe 5a8d 4e3d
00000380: f9ed 593e 1377 2dbd 0f14 b23a 0be4 a13d
00000390: f2dd e03d d2d1 723e c445 28be 17d2 aabc
000003a0: 0787 563e 2c67 8b3e 098b 86bd b9b6 623d
000003b0: 6706 123e a396 553c fac7 eabd 04e4 523e
000003c0: b009 a13d 12d3 db3d f09e 6fbd 840b 1fbd
000003d0: 78ae ebba 9c25 253d f09e 6c3e 4809 843e
000003e0: a372 e9bd 400d 353d a075 93bd 1264 463d
000003f0: e92c d7bc 25f2 1b3e dcae 9a3e 5f0e e83b
0.09810014 -0.056255218 0.018161647 0.23417902 0.08704133 0.40102047 0.025891999 -0.14844127
0.28246182 -0.03825563 -0.053225998 0.08368346 -0.037206583 0.08342659 0.033024672 0.07374262
0.10268712 -0.07295647 -0.10778898 0.10608753 0.098077685 0.22491397 0.014479894 -0.050920304
0.00031742384 0.07066552 -0.12100685 0.33711824 0.25912014 0.22673415 0.3232151 -0.082508706
-0.0020006944 0.2871011 -0.027572265 0.15882541 0.21874672 -0.23608598 0.46490255 -0.0619668
0.10368589 -0.20691432 0.0009582475 0.13372195 -0.111009024 0.27406543 0.19578184 -0.018379174
0.08451719 0.06838593 -0.02533075 0.15866241 -0.15674746 0.018483324 -0.03175579 -0.018901972
0.14146058 0.07037704 -0.15339437 0.24712099 -0.123395674 0.08964148 0.018553702 -0.06317383
0.09065431 0.052637286 -0.046348814 0.086119466 0.03972872 0.019181063 0.055554163 -0.17527133
0.04049553 -0.08117366 0.022513567 -0.018429287 -0.074507214 0.17874508 -0.2101155 0.2737965
0.19907364 0.06343575 -0.051880762 0.063859634 0.2807443 -0.07487941 0.10269908 -0.1515578
-0.105948046 0.2658206 -0.007690424 -0.0051605436 0.15273525 0.12527838 0.21355958 0.10958601
0.16725619 -0.10419006 0.2530399 0.4279096 0.18795873 -0.123390615 -0.03134516 0.11278178
-0.022870462 -0.1827292 -0.14539291 -0.08817417 -0.14001717 0.17429289 -0.01854932 0.15596107
-0.113649674 0.054228928 0.100712314 -0.07931402 0.13107604 0.09716506 -0.12132018 0.042107943
0.10327301 -0.15199424 0.21244256 -0.35834265 -0.33034837 0.30209556 0.033677936 -0.086881295
-0.16129482 -0.077729955 0.20028624 -0.12907253 0.27863356 0.19534105 0.2038863 -0.1386665
0.09424093 0.398373 0.32042667 -0.05290335 0.06413282 -0.11895467 -0.21269554 -0.025858883
0.11054797 0.04340221 0.10866596 0.12438746 -0.23021945 -0.1283233 -0.02387549 -0.24519096
0.17782257 0.026868943 -0.061809216 0.12268607 0.0337129 -0.04676674 0.040728763 -0.06614248
0.33864617 -0.25038007 0.17978166 -0.06155717 0.1422927 0.044873696 -0.31377965 -0.24581517
0.30841252 -0.19637236 -0.030264098 -0.03794783 0.28559378 -0.054782882 -0.12950833 0.32017782
0.100281775 0.045942057 0.08912438 0.10406445 0.19725756 0.11495739 -0.15943511 -0.16740005
0.31191525 -0.15349083 0.14295016 0.22644438 -0.0008100548 0.060784202 -0.041721042 -0.12712212
-0.0068952227 -0.12646735 0.06253659 0.060998242 0.42301723 -0.14397502 0.032482836 0.15380646
0.17993803 0.21236315 0.21551691 0.09878693 0.12198836 -0.05119581 0.18237905 -0.1053999
-0.38265443 0.095865175 0.10656783 0.011767942 -0.18998937 0.14863575 0.017973613 -0.07225332
0.4058321 0.16352698 0.017514963 0.007121916 0.053021498 0.24027053 -0.16862592 0.050427772
0.21282186 -0.042349886 0.00135863 0.07904824 0.10979833 0.23712853 -0.16432863 -0.020852132
0.20949946 0.2722715 -0.065694876 0.05535004 0.14260255 0.013036403 -0.11463924 0.20594794
0.07863176 0.10733618 -0.058501184 -0.03882934 -0.0017981073 0.04031907 0.23107505 0.2578833
-0.11398818 0.04420209 -0.072001696 0.04843528 -0.026266532 0.1522909 0.30211532 0.0070817913

fc2.bias f4 [64]
00000000: b4ca eb3c 337b 73bd 53ee c63d 17fe 043c
00000010: 977c 83bd 2bc3 a4bd 3e18 533c 6521 863d
00000020: 2f12 13be 3660 6fbc aee6 d0bd c5d1 3c3d
00000030: 624d 53bd 3f8a f1bd 5e5e a73d 5636 683d
00000040: c549 cdbd 706b 88b7 9862 aa3d 69f7 9c3c
00000050: 278e 2c3e eea5 513e e1e1 c53c 5404 c3bc
00000060: da85 99bb 38db 293d 23a2 8c3d dd39 4d3c
00000070: e32c d83c c710 a8bc aed8 94bd 783f 503d
00000080: f14d 333e 944f 80bb 8e23 21bd 4b2e c73d
00000090: 2db2 4c3d 1f88 3ebd 46fe ebbd 8386 99bb
000000a0: f0b2 f6bd bbf4 e13d c8ab 7f3d 118e f93d
000000b0: 7036 c93d a3f7 a2bb 5bce 023d 46e9 b13d
000000c0: 7f1c b2bd 0e04 883e fef7 8f3d c766 313d
000000d0: 57fc 5b3d 98bf ea3c e7a8 983e 021a 0f3d
000000e0: 1dba 263b 1ce7 d1bd efd3 b9bd ec5e 84bd
000000f0: dec4 a43d 1365 dbbb 8035 d2bc 0d1b bb3d
0.02878318 -0.059443664 0.097134255 0.00811722 -0.06420248 -0.08045038 0.012884198 0.06549338
-0.14362405 -0.014610341 -0.10200249 0.04609849 -0.05158747 -0.117939465 0.08172296 0.056692444
-0.10023836 -1.6262493e-05 0.083195865 0.019160943 0.16851102 0.20473453 0.024155559 -0.023805775
-0.004685146 0.04146883 0.068668626 0.012526003 0.026388591 -0.020515813 -0.07267891 0.05084178
0.17510201 -0.0039157365 -0.03934055 0.097256266 0.04997461 -0.046516534 -0.11523108 -0.0046852245
-0.12045848 0.11033007 0.062419683 0.121853 0.09824836 -0.0049733683 0.031935077 0.086870715
-0.086968414 0.26565593 0.07029723 0.043310907 0.053707447 0.028655812 0.29816362 0.034936912
0.0025440522 -0.10249159 -0.09073626 -0.064634174 0.08045362 -0.0066953986 -0.025660276 0.09136019

policy_head.weight f4 [110, 64]
00000000: 6e6c 7cbd af8e 0c3e f49d c4bd e50f b43e
00000010: 77f9 213d 2296 48be bc7a b13d d4b2 0d3e
00000020: 9f17 1c3e aeb5 a6bd dfe8 1f3e 43e9 0fbe
00000030: 8660 12bc b360 9f3e acb7 9cba 2dca b3bd
00000040: 1ae4 833e 671c 533c 167a 743d 444c 3c3c
00000050: b5e6 b13d 6fb2 7cbd 2a42 083e 6365 803d
00000060: 9e22 823e 4c1d cb3d 0ca8 aabd 5095 653d
00000070: 1ee1 883e 6f30 8cbe 32b9 bbbd 4677 1a3d
00000080: a5f4 4abd d99b 39be 64ae 5c3d 76e2 b73c
00000090: 97f3 d93c 5ca6 ea3b 11b5 63be 0851 213e
000000a0: 24ef 05be 3bd2 fc3c 4003 e43c 5a7d 263e
000000b0: 8658 d7bb 0422 d73d 6600 af3d c8c3 40be
000000c0: 875e b8bd 1671 68be 1646 0c3d 3bc4 bb3c
000000d0: f394 773e 4bcc 2c3c 6a71 1cbe 8c03 da3d
000000e0: accf 233d 37dd 6abd 703f 90bd d45b cb3d
000000f0: 47e1 603e 8b48 21bd b445 743d 63bd f23d
00000100: a63c 413c c4ac 073e 5eb2 49be ea0b 5b3e
00000110: 7ae9 3dbb c8d6 ccbd c1dc 413e ae9c a03d
00000120: 39c5 063e 9540 ccbc 65cc 833e 468a 063f
00000130: 454c 4e3d d8d3 d63e 41d7 f6bd 5d53 39be
00000140: f773 643e 5111 273e f23a 15be fede 2c3e
00000150: 3d46 2bbb 6e25 54be 0a90 813e b59a 0bbd
00000160: 4700 af3e 8e5f 86be 99b6 bdbd 8220 81bd
00000170: 0c36 b93e 9373 48bd 1f15 c1bd 9e15 e43d
00000180: 58db 863d 9444 d7bd a26f b83c 7202 8abe
00000190: c403 53be 1684 6e3d 55f1 fdbd 6aed b43d
000001a0: ebe5 4d3e cf51 0abd 2d66 85bd 40fa 5b3e
000001b0: 4e80 25be 6700 903c 0c5d 803c 9246 80be
000001c0: 4bb3 c13d c448 67be bb37 ebbd 8998 a3bd
000001d0: b7e0 853c 033e 953d 8b5f dcbd 6934 5a3e
000001e0: 81f1 04bd d0fa 79bd 6549 85bc 64b8 793a
000001f0: 6426 003e a0e3 cc3b fab7 aa3d b695 2cbd
00000200: dcdd 473e 17aa 87be ff3f 753e 5742 a53e
00000210: 63c8 ab3e d6e9 313e f978 58be c125 d6bd
00000220: 4d72 803e 261f b63e e3f8 4e3e 3813 413e
00000230: 7793 653e b75a eabd e551 04bd 8104 ab3e
00000240: be20 043d 9167 07be f3cb dd3d db6e 9a3c
00000250: e658 8ebe 3734 7b3e f406 303d 68a7 54be
00000260: 77b8 743e 567d 29be 9cc0 debd 0ab6 a03d
00000270: 6393 c4bd 807a 0b3e 7bf4 84bd a144 d63d
00000280: ed2d b2be 97b2 983e 43b9 32bd 7904 98be
00000290: f591 91be 4b0f 923b 2477 7b3e f85a 0a3e
000002a0: 727b a33e 9275 ec3d f211 533b 395e ccbe
000002b0: c673 aa3e fb9e 243e c9ab 8e3e bb01 aa3d
000002c0: 9694 ba3d b750 42be 0283 93bc 71db 9a3d
000002d0: c249 083e 0b96 acbd e19a 20be c004 60bd
000002e0: 23a5 94be 39a2 a4bd 06be 743e b957 8dbd
000002f0: ce57 623e 2166 8b3e 20d6 9fbd 7e9f 90bb
00000300: e0dc b43e df0f 0dbe 9aae b93c 7eea ba3e
00000310: e480 b53e 1395 de3e 926e e1be 4d96 fc3d
00000320: 7bb6 b63e a14b 213e fe7a e83e 3c54 3bbd
00000330: 9b76 aa3e 4a5f 0fbe 9def 1dbe bec2 873c
00000340: d39d 01be 434c d7bc 0034 3f3e f963 6abe
00000350: 8ad8 bb3c a88a a8bd 07b2 8cbd 6d2c 91bd
00000360: 00ab d73e 03d8 6fbe de13 5dbe 2f0e 043e
00000370: d51b 0cbd 44a7 d53e 06cf 733e 8155 89bd
00000380: 8d8c fbbe 7539 773e 56a8 25be ddbf 30bd
00000390: 514f 0bbe 98ac 6a3e f826 913e 36ca db3e
000003a0: aaf4 0c3f bcaf 043e 1d38 ce3e 9151 34bd
000003b0: f069 5a3e 9a52 223e 6bdd e23e a040 413e
000003c0: 3fe5 323d 0ec0 03bf 04f6 0a3e 7d69 f73d
000003d0: aecc 793e e8b0 1f3e dc5d 2dbf b1d8 35bd
000003e0: be16 7fbd bd1d 193c 1812 e63e ac8e 1ebe
000003f0: e173 033d 1a02 af3e 6074 263e 7029 6d3e
-0.061626844 0.13726304 -0.0960044 0.35168377 0.03954455 -0.19588521 0.08665988 0.13837749
0.15243386 -0.081401214 0.15616177 -0.14053826 -0.008934146 0.31128463 -0.0011956594 -0.08778796
0.25759965 0.01288519 0.059686743 0.0114927925 0.08686582 -0.061693605 0.1330649 0.06269338
0.25417036 0.09917697 -0.08332834 0.0560506 0.2673425 -0.27380702 -0.091661826 0.037711404
-0.049549717 -0.18125857 0.05387725 0.022446852 0.02660541 0.007160945 -0.2223704 0.15753567
-0.13079506 0.030861964 0.027833581 0.16258755 -0.006571832 0.10504535 0.08544998 -0.18824685
-0.09002405 -0.22699389 0.034246527 0.022920718 0.24177913 0.010546754 -0.15277639 0.10645208
0.039992973 -0.057339873 -0.0704335 0.09929624 0.21960936 -0.039375823 0.059636787 0.11852529
0.011794245 0.13249499 -0.19696948 0.21391264 -0.0028978274 -0.10001904 0.18931867 0.07842384
0.13161172 -0.024933139 0.25741878 0.5255474 0.050365705 0.419585 -0.12052775 -0.18098207
0.22309862 0.163152 -0.14573267 0.1688194 -0.0026134395 -0.20717403 0.25305206 -0.034083087
0.341799 -0.26244777 -0.09263343 -0.063050285 0.36174047 -0.048938345 -0.09427857 0.11136936
0.06584805 -0.10511127 0.022514168 -0.2695499 -0.20606905 0.058231436 -0.12399546 0.08834346
0.20107238 -0.033769425 -0.06513629 0.21482182 -0.16162226 0.017578317 0.015669368 -0.2505384
0.094580255 -0.22586352 -0.11485239 -0.07988078 0.016342504 0.072872184 -0.10760411 0.21309055
-0.03245688 -0.06103021 -0.016270349 0.00095260725 0.12514645 0.006252721 0.08335872 -0.042134963
0.19518226 -0.26496956 0.23950194 0.32277176 0.3355132 0.17374358 -0.21139897 -0.1045642
0.25087205 0.3557064 0.2021213 0.18854988 0.22419535 -0.11443084 -0.032304663 0.33401874
0.032257788 -0.13223101 0.10829916 0.018851688 -0.278022 0.24531637 0.04297538 -0.20766985
0.23898493 -0.16551718 -0.10876581 0.07847221 -0.09598424 0.13620949 -0.064919434 0.10462309
-0.34800664 0.29823753 -0.04363371 -0.29690912 -0.2843167 0.0044573895 0.24557167 0.13511264
0.3193012 0.11545862 0.003220674 -0.39915636 0.33291453 0.16076271 0.27865437 0.08301111
0.09110372 -0.18976103 -0.018006805 0.075613864 0.13309386 -0.08427056 -0.15684082 -0.05469203
-0.2903224 -0.08038754 0.23900613 -0.069014974 0.22103807 0.27226356 -0.07804513 -0.004413544
0.35324764 -0.13775586 0.022666264 0.36507028 0.35449898 0.4347311 -0.4402967 0.12333355
0.35686097 0.15751506 0.45406336 -0.04573463 0.33293614 -0.14001194 -0.15423436 0.016572352
-0.12657861 -0.026281482 0.1867218 -0.22889699 0.022930402 -0.082295716 -0.068698935 -0.07088552
0.4212265 -0.23422246 -0.2158961 0.12896036 -0.03420623 0.41729176 0.23809442 -0.06705762
-0.4913067 0.24143012 -0.16177496 -0.043151725 -0.13604476 0.22917402 0.28350043 0.42927712
0.5506083 0.12957662 0.40277186 -0.0440231 0.21329474 0.15851822 0.44309554 0.18872309
0.043675657 -0.5146493 0.1357041 0.12080667 0.24394485 0.15594828 -0.67721343 -0.044396106
-0.062277548 0.009345469 0.4493568 -0.15484113 0.032092933 0.3418129 0.16255331 0.23160338

policy_head.bias f4 [110]
00000000: 9cd8 7abe 4556 d2bd be09 003e 2bdc 93bd
00000010: a8e6 a1be 0c79 a3be 32de ba3c b703 9e3d
00000020: d0b6 1b3e b41a 8a3d bd71 353e 9590 403e
00000030: 6e4b b63a 37f7 2a3e 5e2e 1c3e fd76 4f3e
00000040: 15cb ab3c 5cc8 2c3b a995 f23c 638c 793d
00000050: 7912 313e 966c 303e bcc0 353e 2e93 e0bc
00000060: e60c f43c b0d8 3e3c b102 323e eaf4 1abd
00000070: cb3a 3f3d c946 313e e144 de3d fcaf ed3d
00000080: d0d6 163e 9c8c 113d 065e 33bd d614 31bc
00000090: 603b 9f3d b256 5a3e 4f03 133e 5cb6 c33d
000000a0: d6ec 533e 8b77 9b3d 2199 043e 8a8f ba3d
000000b0: 97c0 c8bb 873f 963d 9c9b ad3d 337a 4bbb
000000c0: 2a93 7c3e e575 523e c763 843d ea50 70bb
000000d0: 4a0e 263e 22c2 d63d b1fd 27bd 866d 0b3e
000000e0: 459f b53d 8df9 163e cdd9 c9be cdce 6abe
000000f0: 4b37 9dbe 322e dbbe f56f d0be cd54 91be
00000100: 318b 8abe 53c8 89be b87c acbe 2254 bdbe
00000110: ef37 cbbe da4a e4be 6e79 c9be 8809 e7be
00000120: ad11 e3be 68fb 5cbe b2a4 8dbe a81a d9be
00000130: 4412 c2be 1a73 b3be 8088 81be d0d9 e9be
00000140: 3230 85be f64c bfbe 4339 d1be cbe7 74be
00000150: 81ff 7dbe 0d06 9ebe 5295 56be 37da a3be
00000160: 1831 d3be 4e5a bcbe f5e2 5fbe d624 01bf
00000170: 516c a9be 012a aebe 1677 b9be 9833 9abe
00000180: 2b2f 50be 538f 59be da6a babe 3d2e 98be
00000190: 7495 b9be dc18 7bbe d7dc 6ebe ea1f a5be
000001a0: 07fa a6be 5cc3 8ebe 1fa7 a4be 3cae 68be
000001b0: 9abe 9fbe f4b3 52be
-0.24496692 -0.10270361 0.12503716 -0.07219728 -0.3162129 -0.3192829 0.02281103 0.07715552
0.15206456 0.067433745 0.17719169 0.18805154 0.0013907978 0.16695867 0.15252063 0.20260234
0.02097086 0.002636454 0.02961238 0.0609249 0.17292203 0.17228922 0.17749304 -0.02741393
0.029791307 0.011648342 0.17383839 -0.037831225 0.04668693 0.17312159 0.10852981 0.11605832
0.14730382 0.035534486 -0.04379084 -0.01080819 0.07774997 0.21322134 0.14356731 0.09556267
0.20695814 0.075911604 0.12949039 0.09109409 -0.006126474 0.07336336 0.08476946 -0.0031048178
0.24665514 0.20552786 0.064643435 -0.0036669322 0.16216388 0.10486247 -0.041013423 0.13615999
0.08868269 0.14743634 -0.3942398 -0.2293045 -0.30706248 -0.42808682 -0.40710416 -0.2838501
-0.2705932 -0.26910648 -0.33688903 -0.3697825 -0.3969111 -0.44588357 -0.39350456 -0.4512446
-0.44349423 -0.21580279 -0.27664715 -0.4240315 -0.3790456 -0.35048753 -0.25299454 -0.4567399
-0.26013333 -0.37363404 -0.40864 -0.23916547 -0.24804498 -0.3086399 -0.20955399 -0.32002422
-0.41248393 -0.36787647 -0.21863921 -0.5044683 -0.3309045 -0.3401642 -0.36223668 -0.30117488
-0.20330493 -0.2124608 -0.36409646 -0.29722777 -0.36246836 -0.24521202 -0.23326431 -0.3225091
-0.3261263 -0.27883422 -0.32158753 -0.22722715 -0.31200105 -0.20576459

value_head.weight f4 [1, 64]
00000000: ee1b cb3b 9a60 cdbc e446 043c f918 c03b
00000010: 8043 bb3c 45c7 213a c315 31be 3294 c8bb
00000020: 9d49 d3ba 3919 0d3c 19c9 1abc 2798 e4bd
00000030: 6026 a33b bcb1 14be a8e0 2f3c 42b6 413c
00000040: 7235 a0bd b6b7 ccbc d2fe dbba 588b b03b
00000050: 06c0 ab3c 4494 db3a 2c7c 20be f6e4 71bb
00000060: ad00 33bc 3fd4 313d d162 bf3d db3a cf3d
00000070: 0cfe 76be 4bff 41bc c4f5 363d ae4c 15be
00000080: 8260 94bc 30f4 db36 2361 7bbe 364c 163d
00000090: 93a9 d03c 01f2 bd3d ba70 263c dea6 1fbc
000000a0: fcb5 5f3b f36f 1ebd 4577 d2bb 41fa 3c3d
000000b0: c5d6 373b db34 d8bb 42a1 d03b 4215 9d3c
000000c0: 1b5f e6bd 22d3 aabb c94b ec3a 2ecb 8c3c
000000d0: b900 63bc a676 d43d 8120 6d3c 091b 2dbe
000000e0: eddb b83b 576c bbbd ec39 d03b bf8c 17be
000000f0: 1f90 46bc d7a0 6e3c af59 02be e2b3 ed3b
0.006198398 -0.025070477 0.008073542 0.005862352 0.022859335 0.0006171356 -0.17293458 -0.006121182
-0.0016119961 0.008611971 -0.0094473595 -0.11161833 0.00497894 -0.14520925 0.010734715 0.011823239
-0.07822694 -0.024989944 -0.0016784316 0.005387705 0.020965587 0.0016752561 -0.15672368 -0.0036910153
-0.010925454 0.043415304 0.093450196 0.10118648 -0.24120349 -0.011840652 0.044667974 -0.14580032
-0.018112425 6.5551358e-06 -0.24548773 0.036693774 0.025471484 0.09274674 0.010158712 -0.009744374
0.003413557 -0.03868098 -0.0064229094 0.0461371 0.0028051597 -0.0065980977 0.0063668797 0.019175176
-0.11248609 -0.0052131573 0.0018027957 0.017186727 -0.013855153 0.10374193 0.014473082 -0.16904844
0.0056414516 -0.091515236 0.006354561 -0.14799784 -0.012119322 0.014564714 -0.12729524 0.0072541097

exp_avg f4 [128, 260]
00000000: cedd 81b7 b6a7 9d39 1b75 8f39 8c1a 3239
00000010: 01c0 c239 f36a 5e39 3d89 ceba 5ab7 b339
00000020: c9c6 eaba 2277 fbb9 7519 c639 0304 1fb9
00000030: c2e0 b7b9 0124 b7b8 066d 97b6 d7ab c739
00000040: 586d 5fba 1920 0fba 7caf 65ba 6324 173a
00000050: fd1f 1e3a e187 ba37 4b86 b8b5 00c8 9b38
00000060: 3eab 73ba 0e94 c5b7 af6f b339 93ea 2cb7
00000070: b9bf d1b7 8ab8 0436 a74b bcb9 ed19 3838
00000080: 5cdd bb38 f710 1cb9 e60d 9db8 03a3 de39
00000090: ed27 6bb9 3047 5eba 44f7 b6b8 cc64 483a
000000a0: b23d 6fb9 f291 503a 1c57 b5ba 0efe 7cba
000000b0: e3c2 9a39 99dc 17ba 4c2e ad39 f43e 003a
000000c0: f2b2 f039 8f43 263a b926 98ba ebf7 82b9
000000d0: 0400 0000 1e1b d0ab 98d0 989e 4ad0 8f37
000000e0: d2bb 5636 5076 7a39 a09f 8938 b641 b638
000000f0: 4ef7 0d38 f0c9 5a39 a038 0739 fab4 ebba
00000100: ab0c dab9 2b3a abad 3053 ae2a 49e0 15af
00000110: da06 d437 96fb 27b8 0d66 fa37 2ef9 ab39
00000120: 8996 de37 2a5e b638 e27d 7f38 1cb0 0bb9
00000130: d370 8637 cc2c 7339 0db1 b6a9 cade 792b
00000140: 824c bb36 8194 f7b7 f985 9838 3557 3938
00000150: aefa b138 8928 f1b8 3f47 9eb8 8a2c fe33
00000160: 5cbd cb38 a41a 2939 e064 93b9 0400 0000
00000170: 0400 0080 4349 648c 3ac9 2034 d059 88b5
00000180: 505b c438 5b1a 2b38 0012 56b8 2236 8d38
00000190: 4a7d 4939 f828 83b7 c43f c039 c25d 86b7
000001a0: 2053 979a ddf7 94b8 2be2 45b4 de1c 7939
000001b0: 3ada 31b7 857a 9138 3c27 3339 4885 a938
000001c0: da6f 5b39 037d b4b9 4951 70ba a80b 3f3a
000001d0: ce73 043a 13e4 63b4 0600 0000 3add 5635
000001e0: 1c66 4db8 68b8 3539 5b67 8a39 1c1d 1e39
000001f0: 34b1 eeb9 95c1 6039 b9cf 3eba 4b12 9db9
00000200: f981 9138 fc8c d7b7 09ae a737 2255 10b8
00000210: e2ce 4839 7421 0c38 ccd5 1bb8 b584 18b7
00000220: 1798 7839 9113 9338 054a b6b8 dc6f f439
00000230: df8a 6838 de5d 0c3a 27d2 c8b9 53ed 73b8
00000240: f8db d282 b3cc dd8c 96e5 6ab7 61bb 0e39
00000250: be1d 1bba 8967 9a39 f6b9 6a39 fb1e 10b9
00000260: 2b2f 17b9 0370 acb8 a01f 9e39 5f6e dd38
00000270: 0400 0000 d755 f69c c85a c82a 80aa 8235
00000280: 9c54 8ab6 3c54 2a36 a3ad d5b8 99dc 2f39
00000290: f27e 6439 e183 9638 8ea1 4039 06fb 8138
000002a0: a9c4 e6b8 a94d b3a4 f8cc adab f85d 60b8
000002b0: 8e2e 6a39 59b2 0f35 6bd5 1eb9 e1fc 8538
000002c0: 6b55 a336 20f7 03ba 8d00 d9b7 bd88 c9b8
000002d0: 708c 9b38 7806 aa33 f9db 8437 b68c b435
000002e0: 7e48 8238 2210 5e39 8190 1b34 9fd5 24b9
000002f0: 9d25 0fb6 154c a436 5b59 0f39 262a 1539
00000300: 965c 053a 93f2 8139 bf99 fd38 b129 ee2b
00000310: d7de d022 0400 0080 e668 c191 997a a234
00000320: 93ca 25b8 b08a 40b9 8a6c 12b9 1a73 e9b8
00000330: c667 0539 e37c afb8 4807 7ab8 6e53 dab8
00000340: a6c4 bdb9 1c26 1fba 709f 2aba f17e 52ba
00000350: ae4a 41ba a6c5 6eba 058f 883a 775e 8aba
00000360: 2cc1 793a 7717 2e39 187c 30b9 1c44 483a
00000370: ed32 f2b6 bb5d b2b9 cf84 c3b9 3c1e 42ba
00000380: 001f 9139 d0c8 1138 d1d9 ba39 c62e c4ba
00000390: 36f6 11ba 513c 70b9 de13 a639 46e0 a138
000003a0: 5dc9 cd39 bbd8 12ba 650d 46ba 1c25 afb9
000003b0: a356 20ba 0cff 1bba 3688 62b8 36f6 9cb9
000003c0: 5029 4dba 23d4 45b9 5e27 91b9 95e6 b8ba
000003d0: 4484 55ba c62c 06ba f0ab 8439 9a0b 8eba
000003e0: fc90 1cb9 9185 95ba 93c4 853a 2cc9 ed39
000003f0: cc8e 0db9 dfa6 3d38 a03a 42ba d4a0 33ba
-1.5481284e-05 0.00030070328 0.00027362336 0.00016985292 0.00037145618 0.00021211412 -0.0015757453 0.00034278148
-0.0017912026 -0.00047963212 0.0003778447 -0.00015164916 -0.00035071938 -8.732826e-05 -4.5128427e-06 0.00038084268
-0.00085230684 -0.00054598 -0.0008761806 0.0005765615 0.00060319883 2.2236201e-05 -1.3748153e-06 7.428229e-05
-0.00092952314 -2.3553173e-05 0.0003422475 -1.0306615e-05 -2.500402e-05 1.9776949e-06 -0.0003591452 4.3893164e-05
8.958086e-05 -0.00014883639 -7.488932e-05 0.00042464593 -0.0002242622 -0.00084792357 -8.724493e-05 0.00076444144
-0.000228158 0.0007956318 -0.0013835165 -0.0009650894 0.0002951837 -0.00057930645 0.00033031625 0.0004892193
0.00045909692 0.00063424645 -0.001160822 -0.00024980246 6e-45 -1.4786815e-12 -1.6179898e-20 1.714392e-05
3.199781e-06 0.00023885933 6.5624015e-05 8.690676e-05 3.384734e-05 0.00020865328 0.00012895698 -0.0017983012
-0.0004158964 -1.9466281e-11 3.0966332e-13 -1.3631153e-10 2.527556e-05 -4.005021e-05 2.9849843e-05 0.00032801315
2.653456e-05 8.695976e-05 6.0913975e-05 -0.00013321679 1.6026583e-05 0.00023190974 -8.113137e-14 8.877175e-13
5.581941e-06 -2.9513847e-05 7.272879e-05 4.4188655e-05 8.4867104e-05 -0.00011499326 -7.547298e-05 1.1835898e-07
9.715065e-05 0.0001612702 -0.00028113183 6e-45 -6e-45 -1.7586527e-31 1.4974367e-07 -1.0158928e-06
9.3630166e-05 4.0794122e-05 -5.103834e-05 6.733487e-05 0.00019215528 -1.5635494e-05 0.00036668603 -1.6017704e-05
-6.258643e-23 -7.103358e-05 -1.8429334e-07 0.00023757244 -1.0600832e-05 6.93696e-05 0.00017085386 8.0833735e-05
0.00020927135 -0.00034425416 -0.0009167386 0.00072878087 0.00050526566 -2.1223995e-07 8e-45 8.004314e-07
-4.8970905e-05 0.00017330202 0.00026398417 0.00015078898 -0.00045526924 0.0002143442 -0.0007278878 -0.00029959003
6.938348e-05 -2.5695648e-05 1.9988993e-05 -3.441156e-05 0.00019150556 3.3409757e-05 -3.7153994e-05 -9.090804e-06
0.00023707781 7.013151e-05 -8.6922235e-05 0.00046622648 5.5442444e-05 0.00053545635 -0.00038303548 -5.815674e-05
-3.0982983e-37 -3.417364e-31 -1.40009415e-05 0.0001361198 -0.00059172127 0.0002945031 0.00022385255 -0.00013744451
-0.00014418054 -8.222463e-05 0.0003015967 0.000105586594 6e-45 -1.6301104e-21 3.559013e-13 9.735377e-07
-4.1225703e-06 2.5381005e-06 -0.00010188974 0.0001677148 0.00021791065 7.177122e-05 0.0001837073 6.197956e-05
-0.000110038854 -7.776044e-17 -1.234928e-12 -5.3493277e-05 0.00022333322 5.353118e-07 -0.00015147559 6.3890366e-05
4.8677225e-06 -0.0005034078 -2.5868672e-05 -9.6098964e-05 7.4171345e-05 7.9174185e-08 1.5838059e-05 1.3451997e-06
6.212386e-05 0.0002117758 1.448807e-07 -0.00015719839 -2.1330554e-06 4.896438e-06 0.0001367083 0.00014225449
0.0005087344 0.0002478553 0.000120926175 1.6922489e-12 5.6614454e-18 -6e-45 -3.051468e-28 3.0264053e-07
-3.9527727e-05 -0.00018362212 -0.00013964079 -0.00011131745 0.00012722527 -8.367912e-05 -5.9611426e-05 -0.0001041059
-0.00036195404 -0.00060710474 -0.00065087434 -0.000802978 -0.0007373494 -0.00091084314 0.00104186 -0.0010556717
0.0009527381 0.00016602674 -0.00016830896 0.00076395436 -7.2180906e-06 -0.0003402064 -0.00037292248 -0.0007405018
0.00027679652 3.4757715e-05 0.0003563897 -0.0014967553 -0.00055679993 -0.00022910653 0.0003167679 7.7188524e-05
0.00039250674 -0.00056017534 -0.00075550965 -0.0003340625 -0.00061164255 -0.00059507857 -5.4009455e-05 -0.0002993808
-0.00078262854 -0.00018866411 -0.00027685886 -0.0014106805 -0.0008145014 -0.0005118366 0.00025305105 -0.0010837198
-0.0001493133 -0.0011407604 0.0010205678 0.00045354047 -0.00013500004 4.5216522e-05 -0.00074092485 -0.00068522734

exp_avg_sq f4 [128, 260]
00000000: 9643 6736 0766 6d36 8c8c 8136 ceb5 5d36
00000010: 3cd9 e537 6a8f d837 254c e637 ac21 7b35
00000020: 7243 1e36 335a 2636 c067 1336 1135 a135
00000030: 065b 2c36 db33 6c36 a7ec 6d36 2541 5436
00000040: 19cc 8f36 2dd6 ea37 6bad 9436 e4ab c335
00000050: 23fe 1436 7726 a635 7692 0136 9c40 ef35
00000060: 8b58 ba35 f724 e637 05ed 8536 02f5 6c36
00000070: 59ad 3036 158c 5636 81fb e037 d039 6536
00000080: bfb1 0a36 3cd7 1936 5e7e b935 e215 1b36
00000090: ffe9 d737 b840 1c36 87d4 c535 2de7 e137
000000a0: 9785 a136 9856 e437 898c 9036 0e25 ea37
000000b0: 3439 7a36 ab1c df37 cc52 6d36 7d56 d135
000000c0: dd31 1636 4723 1436 353c 6036 bb5e 4936
000000d0: 672d 762d 8a35 d731 7938 d430 fa30 4833
000000e0: 3e03 f333 4729 3834 955e e834 1327 9034
000000f0: f7ff 0d35 320e 5735 6c64 fa34 8345 3b35
00000100: 9a8b c934 eb45 3d30 9142 4230 4285 e131
00000110: a3e4 dc32 e898 0d34 1eb9 c233 884a c737
00000120: 0cf7 7034 4c50 7f34 86ac f634 0ff3 2335
00000130: c105 0335 9f1c 7734 2acc 842e 142f 6730
00000140: d8d4 9631 5ebb bb32 20e2 3e33 20cf 7a34
00000150: f1a1 3f34 f97d a534 952d d134 bca7 9434
00000160: 6d9f bc34 d43b ee34 015b 1835 c4c0 a72f
00000170: c48e 012e b411 0031 92c7 e132 dce3 d433
00000180: fa2e d033 2f61 3634 7f0c 5034 4ad5 6b34
00000190: cea3 4335 df9e a134 2c41 8934 e58c cd34
000001a0: 51b4 2031 734a dd32 8aa7 9f33 12c5 0b35
000001b0: b210 da34 6c8e 8635 50d9 af35 a020 4936
000001c0: db6b 0c36 c827 a136 dd45 e037 5f37 9136
000001d0: 4155 6536 468e da33 d5b5 4033 9f5d d533
000001e0: c145 8f34 9104 1e35 c011 6d35 eddf 1436
000001f0: ab0d 2c36 d90f de37 b8b6 e237 01d1 8236
00000200: 5d3a 9836 1f1d e935 2e62 7b32 2d27 9834
00000210: 3f65 9334 9a54 0935 df8d 0135 35df c035
00000220: f85a d237 893c dc37 0098 7836 77a3 de37
00000230: 8fc9 8e36 5b70 e037 8a9e 8936 8d4b 9933
00000240: ab12 f731 78c1 7f32 33d6 3934 bdb9 e534
00000250: fdee 5435 72bc c935 6572 d337 9f6f 2236
00000260: 773a 5936 ef6c 5b36 7e72 e137 a6fa df37
00000270: b6a2 2930 f5d8 2432 61c8 1c33 eb2f 0534
00000280: 3f16 d033 24b4 5534 0d8a 4034 6c80 5135
00000290: 359f ac34 cbd8 cf34 8234 3935 0ee7 d834
000002a0: 0978 bb34 eb07 2733 4dfd 0134 e1de 9b33
000002b0: 4a3f f533 6283 ad33 9390 7434 eb78 1535
000002c0: b63a 9434 c40a b135 8968 b634 3ff4 6c34
000002d0: 0758 8734 2ae2 2134 2a28 8432 d196 4834
000002e0: be77 8c34 a907 c637 2fa7 8933 d35f 0c35
000002f0: f499 dc34 6693 2235 58f8 9335 2b32 3234
00000300: 659f 0935 c60a b934 0647 cd34 4513 6c33
00000310: e71c 6d31 92b3 3a31 ef92 ae33 04d2 0433
00000320: 8ddb af32 a822 4a34 52f7 3d34 58c2 9a34
00000330: f376 c834 fb7b ce34 9eb5 8334 c982 2035
00000340: dacd 1338 e1d3 1538 7fe6 0f38 8cc1 0f38
00000350: f417 2837 8ccd 4237 0072 1737 8aa2 0838
00000360: de26 0938 c894 f637 9ad4 0437 fcf6 0338
00000370: 9523 0338 9af6 1438 f098 1138 0596 1338
00000380: ff20 0b38 d9b8 2837 1d00 0a38 c946 2e37
00000390: b2d1 0a38 9e5b 1337 73f5 0837 a21a 0338
000003a0: 592d 0438 d66c 0337 b4c6 1138 4f0a 1038
000003b0: 0396 1438 026a 3237 f8b0 3537 e01a 0a38
000003c0: d5b1 2d37 72d9 0c37 5fcc 0338 7b1e 0f37
000003d0: 0487 f836 fc6b 0a37 9631 0738 9cca 3e37
000003e0: 6a21 0d38 292d 4337 0b09 0d38 4dc5 2637
000003f0: 4ca2 0b38 1f89 2e37 d607 1c37 486f 0b38
3.4461023e-06 3.537514e-06 3.8608614e-06 3.303739e-06 2.7400085e-05 2.5815989e-05 2.7453594e-05 9.3553786e-07
2.3583093e-06 2.478843e-06 2.1965097e-06 1.2010879e-06 2.568298e-06 3.5196924e-06 3.5453502e-06 3.162838e-06
4.285492e-06 2.7994707e-05 4.430932e-06 1.4578659e-06 2.2201646e-06 1.2379159e-06 1.930775e-06 1.7825691e-06
1.3883849e-06 2.743535e-05 3.9913016e-06 3.5309354e-06 2.6326945e-06 3.1970023e-06 2.6819996e-05 3.415731e-06
2.0667064e-06 2.292406e-06 1.3820352e-06 2.3109537e-06 2.573896e-05 2.3283483e-06 1.4739497e-06 2.692974e-05
4.813726e-06 2.7220041e-05 4.307895e-06 2.7912229e-05 3.72862e-06 2.6597021e-05 3.5363946e-06 1.5596885e-06
2.2380766e-06 2.2074253e-06 3.3413646e-06 3.0006474e-06 1.3993562e-11 6.2634102e-09 1.5441081e-09 4.6610673e-08
1.1316159e-07 1.7151352e-07 4.3282185e-07 2.685052e-07 5.289907e-07 8.01144e-07 4.6639195e-07 6.976408e-07
3.754074e-07 6.885716e-10 7.0671385e-10 6.5635115e-09 2.5715343e-08 1.3187275e-07 9.0675016e-08 2.3757355e-05
2.2441617e-07 2.3777937e-07 4.5946598e-07 6.107593e-07 4.8809676e-07 2.301408e-07 6.038932e-11 8.410421e-10
4.389772e-09 2.185487e-08 4.4443482e-08 2.3358416e-07 1.7847175e-07 3.0825302e-07 3.896245e-07 2.768919e-07
3.5133726e-07 4.4374485e-07 5.675684e-07 3.051409e-10 2.9458005e-11 1.8636515e-09 2.6284201e-08 9.913467e-08
9.6943e-08 1.6985426e-07 1.9376056e-07 2.1963675e-07 7.288153e-07 3.010418e-07 2.5565657e-07 3.828674e-07
2.3385562e-09 2.5761642e-08 7.43449e-08 5.206831e-07 4.0617812e-07 1.0025228e-06 1.3101762e-06 2.9970324e-06
2.0924406e-06 4.802805e-06 2.6735413e-05 4.327783e-06 3.4173283e-06 1.01772955e-07 4.486886e-08 9.935615e-08
2.6686578e-07 5.886623e-07 8.831521e-07 2.218406e-06 2.5637953e-06 2.6471842e-05 2.7026384e-05 3.898633e-06
4.5367474e-06 1.7368328e-06 1.4632446e-08 2.834071e-07 2.745455e-07 5.115959e-07 4.8262694e-07 1.4370077e-06
2.5076311e-05 2.6254233e-05 3.7043355e-06 2.6540582e-05 4.2553943e-06 2.67552e-05 4.1013745e-06 7.13836e-08
7.1907684e-09 1.4886943e-08 1.7307393e-07 4.2789716e-07 7.932393e-07 1.5030512e-06 2.520643e-05 2.4204853e-06
3.236955e-06 3.269695e-06 2.6875405e-05 2.6700389e-05 6.171307e-10 9.595387e-09 3.6503824e-08 1.2404023e-07
9.689801e-08 1.9902706e-07 1.7931616e-07 7.8045446e-07 3.2153335e-07 3.8714492e-07 6.899428e-07 4.040125e-07
3.49188e-07 3.888992e-08 1.2106211e-07 7.2582914e-08 1.1420214e-07 8.079839e-08 2.2776867e-07 5.5682784e-07
2.7609866e-07 1.3190661e-06 3.39762e-07 2.2068069e-07 2.5209758e-07 1.5076571e-07 1.5385087e-08 1.8681318e-07
2.6164156e-07 2.3607006e-05 6.40997e-08 5.2293507e-07 4.109021e-07 6.0564196e-07 1.1024631e-06 1.6595793e-07
5.1268427e-07 3.4466774e-07 3.8235902e-07 5.4965557e-08 3.4504468e-09 2.7168636e-09 8.1292335e-08 3.0924653e-08
2.0472521e-08 1.8825324e-07 1.7691971e-07 2.882614e-07 3.733945e-07 3.8460698e-07 2.4532795e-07 5.979496e-07
3.5239245e-05 3.5721696e-05 3.4308523e-05 3.427411e-05 1.0019157e-05 1.1611159e-05 9.026844e-06 3.2576303e-05
3.2699543e-05 2.9394767e-05 7.917313e-06 3.1462856e-05 3.1265972e-05 3.5515615e-05 3.4713128e-05 3.5187248e-05
3.3170913e-05 1.00566185e-05 3.290187e-05 1.0387689e-05 3.3097058e-05 8.783214e-06 8.16338e-06 3.1257638e-05
3.1513486e-05 7.833549e-06 3.475575e-05 3.4341876e-05 3.542566e-05 1.0634309e-05 1.0829644e-05 3.2926793e-05
1.0353008e-05 8.395278e-06 3.142317e-05 8.530561e-06 7.406694e-06 8.250583e-06 3.223269e-05 1.1372056e-05
3.364814e-05 1.163342e-05 3.362544e-05 9.940309e-06 3.3291333e-05 1.0403134e-05 9.300149e-06 3.324382e-05

exp_avg f4 [128]
00000000: 7ee2 c5b9 53d7 283b 0a49 7f3a dd42 b1ba
00000010: e7ca 5eb9 ed3b 093a 21e6 23ba 62da 323b
00000020: c5d9 a83a 6a95 0cb9 8a6e 1db8 0212 d53a
00000030: f4c5 903a 9f0a 243a 8620 c13a 7ff5 c83a
00000040: 73bd 99b9 64e0 ed38 97f2 903a 3137 c53a
00000050: 12c2 f8ba be62 883a 5147 adba 88fe 603b
00000060: 6f81 ab38 339f b7b9 be2c 0539 4918 ed39
00000070: edf4 b239 dbee 453b 956c 583a d302 38ba
00000080: d50c 4d3a ebd3 283a ce5c baba d36a ed39
00000090: add8 45ba 7005 6bba 1d30 07ba 81ab 16b9
000000a0: df2d 8b3a 280d 66bb 0400 0000 bb7e 8e39
000000b0: 2c59 84ba 3222 373b f074 513b 2aa7 6db9
000000c0: 8c67 34ba 3bc4 843a aba7 003b dbba 3fbb
000000d0: 3031 07bb 331e 0eba 9f0f d1ba 0a27 893a
000000e0: ab65 aeba aedc ceb8 a5d5 57ba 50e0 10ba
000000f0: daf5 4cbb f1ec 7e3a 0400 0000 74fc 423a
00000100: bea5 3a3a 8698 663a 7b79 6cb9 19f4 b33a
00000110: dc6b 9539 1948 043b 83f4 e2ba 7992 a5ba
00000120: 4dbd ac3a 1b5c 5d3a f075 06ba ffff a2ba
00000130: 3862 2d3a db8a 6eb9 0d61 0b3a 2631 a33b
00000140: 1e55 583a 9851 7d3b dd49 5ab9 250c b83a
00000150: fa8f 533b 6fa3 0cb9 aedd fd39 4d8d 16bb
00000160: dff9 153a 6b5b 4339 8e57 a1b9 bd97 34bb
00000170: f2e5 96b9 41fd b83a ffe6 153b 677d 243b
00000180: daed 37b9 a014 c9ba 8087 773a 80f5 1f3b
00000190: add9 eaba 39d0 9139 8566 15bb 2f61 45bb
000001a0: 9aba e5b4 90ba edb9 0be3 e5ba 8922 adba
000001b0: 32e6 9139 8dff a939 904f 7fb8 4508 a73b
000001c0: b548 3dbb 0a05 1fba 7406 1c39 f456 82bb
000001d0: e173 10ba 18a3 23ba abcb 4e3a c68b 9137
000001e0: 6455 4dba 2016 e1ba 0d85 7d3a 6400 1d3b
000001f0: 335b ceb9 1e74 d939 eb03 82b9 3157 233a
-0.00037743518 0.002576311 0.00097383617 -0.0013523955 -0.00021247157 0.0005235065 -0.00062522484 0.002729081
0.0012882283 -0.00013407102 -3.7534664e-05 0.0016255977 0.0011045323 0.0006257686 0.0014734424 0.0015331953
-0.00029323585 0.00011342837 0.0011058626 0.0015046356 -0.0018978736 0.0010405404 -0.0013220106 0.00343314
8.178024e-05 -0.00035023093 0.00012700536 0.00045222256 0.0003413329 0.0030202183 0.0008255926 -0.0007019464
0.00078220415 0.00064402696 -0.0014218332 0.00045283753 -0.0007547241 -0.0008965349 -0.0005157011 -0.00014369005
0.0010618529 -0.0035103057 6e-45 0.00027178772 -0.0010097376 0.0027943966 0.003196057 -0.00022664355
-0.0006881885 0.0010129282 0.0019631188 -0.0029255662 -0.0020628683 -0.000542137 -0.001595009 0.0010463905
-0.0013305446 -9.86395e-05 -0.00082334346 -0.0005526589 -0.0031274469 0.0009724638 6e-45 0.0007438131
0.00071200344 0.00087965315 -0.00022551969 0.0013729363 0.00028499856 0.0020184575 -0.0017315302 -0.0012632153
0.0013178975 0.0008444206 -0.00051292684 -0.0012435912 0.0006614062 -0.00022749176 0.0005316891 0.004980224
0.00082524295 0.003865337 -0.00020817616 0.0014041705 0.0032281862 -0.00013412324 0.00048421085 -0.0022972405
0.00057211326 0.00018630705 -0.00030773546 -0.0027556263 -0.00028781552 0.0014113561 0.002287328 0.002509916
-0.00017540847 -0.001534123 0.00094424933 0.0024407804 -0.0017917656 0.00027811693 -0.0022796702 -0.003011774
-4.2790344e-07 -0.00045343162 -0.0017538978 -0.0013209145 0.00027828064 0.00032424592 -6.0870836e-05 0.0050974214
-0.0028882448 -0.00060661195 0.00014879723 -0.003977651 -0.00055104314 -0.00062422594 0.0007888625 1.7350434e-05
-0.00078328536 -0.0017172731 0.000967101 0.0023956532 -0.0003935933 0.0004147598 -0.0002479845 0.0006230949

exp_avg_sq f4 [128]
00000000: 6d04 2538 0bd0 c737 5b48 0c39 7d03 3738
00000010: 7ce2 c437 17ad d137 16ec 7937 016a 8137
00000020: 1d76 f737 2aae 8e38 cdd6 3637 9962 9038
00000030: 89f3 2a37 1ec8 d138 86fb b537 cfcb 6537
00000040: cfb5 0239 dbcc 2e37 3f64 8138 5155 1738
00000050: 0cdb 8637 dcae b938 d150 7a38 ae98 7338
00000060: 2069 6538 3bae 4838 8974 2738 ad93 0837
00000070: 02da 7a37 5396 1939 2730 4638 6935 2637
00000080: 2f0b d736 f4a2 9138 b3b0 1b39 e720 fa38
00000090: 5dd6 9338 0df7 3238 0f8c 2a39 fd2c f037
000000a0: 4b86 8037 7dcc be37 0ad2 5126 2b8d 0a38
000000b0: 3e2c 9938 acf1 ee37 cf51 c238 89fc 3437
000000c0: c87d c438 f8d9 e838 d0c7 7138 fe79 8038
000000d0: 96b6 a037 38ce 0338 e3bb 1d38 7a56 c138
000000e0: c7bd 3438 7238 9035 14da 0138 f6d5 fd37
000000f0: 1b05 5c37 a9d6 5737 a31a 6723 f4b7 1a38
00000100: 58db d136 af29 9036 1f01 bf36 fb4a bb37
00000110: e9f1 3c37 d8fa 0a38 16b6 e936 d06c 6338
00000120: a757 aa37 4f59 0238 8041 f036 64eb eb37
00000130: d916 0938 d170 fb37 5964 a738 4f3c 7c38
00000140: 852b 4238 401a 6038 9fa1 f436 0d78 9b38
00000150: 94cb 5539 1f8e ca37 07f4 9038 a750 0838
00000160: 851c 2037 acea 5f38 e2b4 ad37 0ef3 9338
00000170: 1fc5 f137 de0c 5e38 0aba 0238 5030 d538
00000180: b2e4 3c38 d6d3 2337 d999 8638 5c28 b038
00000190: 2ea2 0f38 4bf1 4038 67e7 4537 97b1 b437
000001a0: a8d3 7136 411b 7c37 247a b938 3528 aa37
000001b0: 22fe 4337 357c 1e39 75d4 4a36 6df1 b638
000001c0: a5a5 2738 8f2b 0339 63e8 5638 c9d4 3d38
000001d0: 7dd5 1238 8f9e 2038 0822 1238 19cb 7037
000001e0: a6bf fa38 cd04 e637 fa08 6a37 87c1 b337
000001f0: bcd4 9538 2f9c 0039 551e 4b36 f47b 4e37
3.9343187e-05 2.3819526e-05 0.00013378395 4.363385e-05 2.3470486e-05 2.4995343e-05 1.4896525e-05 1.542736e-05
2.9499695e-05 6.803528e-05 1.0898058e-05 6.88482e-05 1.0189492e-05 0.00010003171 2.1694006e-05 1.36969165e-05
0.00012465495 1.0418905e-05 6.1698716e-05 3.6080663e-05 1.6076046e-05 8.8540575e-05 5.967991e-05 5.807791e-05
5.469576e-05 4.784598e-05 3.9924435e-05 8.140615e-06 1.495192e-05 0.00014647217 4.7251724e-05 9.906807e-06
6.4088013e-06 6.944491e-05 0.00014847777 0.000119270575 7.0494345e-05 4.266859e-05 0.00016264639 2.8631179e-05
1.5321324e-05 2.2744987e-05 7.2796097e-16 3.3033237e-05 7.303849e-05 2.8484348e-05 9.265879e-05 1.0787634e-05
9.369437e-05 0.00011103222 5.7644967e-05 6.1262384e-05 1.915851e-05 3.142489e-05 3.76067e-05 9.219065e-05
4.3092088e-05 1.0745264e-06 3.0959098e-05 3.0259584e-05 1.3114211e-05 1.2864978e-05 1.2528176e-17 3.688778e-05
6.2542204e-06 4.296387e-06 5.692374e-06 2.2327053e-05 1.1261997e-05 3.313538e-05 6.9651387e-06 5.4222357e-05
2.0306396e-05 3.107759e-05 7.1601826e-06 2.8123795e-05 3.2684624e-05 2.9974066e-05 7.981872e-05 6.013765e-05
4.6293735e-05 5.343021e-05 7.290582e-06 7.413337e-05 0.00020389102 2.4146457e-05 6.911909e-05 3.250004e-05
9.543383e-06 5.33859e-05 2.0707437e-05 7.054779e-05 2.882123e-05 5.2940908e-05 3.1167678e-05 0.000101656304
4.5035682e-05 9.764879e-06 6.418274e-05 8.3998515e-05 3.42449e-05 4.600109e-05 1.1795993e-05 2.1540369e-05
3.6034999e-06 1.5026716e-05 8.844238e-05 2.0284302e-05 1.1682076e-05 0.00015114325 3.0224012e-06 8.723405e-05
3.997017e-05 0.0001250936 5.1238003e-05 4.5259283e-05 3.500794e-05 3.8294642e-05 3.4840807e-05 1.4352402e-05
0.00011956626 2.7420372e-05 1.3949577e-05 2.1428581e-05 7.1444985e-05 0.00012265214 3.0267013e-06 1.2307417e-05
