ppo_2layer_2048_epoch10_followepoch5_follow5/ppo_agent_episode_22100.pth (torch, 596662 bytes, 21 tensors)

fc1.weight f4 [128, 260]
-0.06513895 -0.08242439 -0.1116135 -0.09910559 0.032527864 -0.32284555 0.16219333 -0.039586417
-0.198133 -0.34975624 -0.3198874 0.14048132 -0.34233287 -0.13890736 -0.068280175 -0.056144353
-0.33764574 -0.24652153 -0.10073375 -0.06541747 -0.17961906 -0.079239346 -0.121702775 -0.020455798
-0.14222667 0.07944253 -0.1694269 -0.051021297 -0.1453091 -0.03887601 -0.43245798 0.40573516
0.19966078 -0.16738226 -0.089435585 -0.3116127 -0.21673678 -0.40695962 -0.3743977 -0.12107735
0.025331324 -0.18197347 -0.06491199 -0.05920463 -0.29778627 0.01570251 -0.03842778 -0.5418451
-0.16353017 -0.15663354 -0.2224823 -0.20503058 -0.12907529 -0.30961192 -0.17301744 -0.005559307
0.07558391 -0.052187525 -0.061775655 0.0031642872 0.0018295167 0.08553215 0.03184813 0.008583401
0.08186771 -0.14900059 -0.14970134 -0.24064566 -0.052671585 -0.15613474 -0.029302483 0.12556858
0.10242931 0.004345418 0.09970756 0.053509198 0.085604995 0.11969885 -0.2183703 -0.15719938
0.13955307 -0.044941474 0.024593996 -0.122519985 -0.07467929 0.027673997 -0.0625413 0.20341305
0.20669241 -0.06209412 0.11710432 -0.27503097 -0.22588758 -0.13824299 -0.013736587 -0.23075163
0.0132909585 -0.035219595 -0.1545047 0.124716684 0.097372696 0.112725124 0.03134318 -0.06982391
0.105921924 -0.0014649848 0.010734047 0.050650176 0.009234542 0.065067984 -0.07903721 -0.022506366
0.08772873 0.09124111 0.038538788 -0.07264098 0.12943475 0.12866277 0.18970273 0.09531636
0.15992953 0.09849301 0.026440024 -0.012031744 0.067694895 0.04202943 0.00815913 0.0937588
0.118040964 -0.064535856 0.029257081 0.10818673 0.14246742 0.11872516 0.15806122 0.0041198204
0.055467617 0.12416192 0.045506626 0.035227332 0.06632966 0.09636078 0.1296305 -0.042549215
0.11678122 0.038694724 -0.103806086 0.039569538 0.10305562 0.041335154 -0.008255639 0.19751623
0.01799836 0.090300135 -0.06109101 0.07044548 0.08829025 0.16236071 0.020163704 0.077867165
-0.014636068 0.053840227 -0.08964698 0.047606956 0.12453458 0.067076206 0.25718075 0.05153895
-0.12240094 0.1494837 0.029641103 0.08938508 0.19848633 0.12267938 -0.0057596015 -0.08323826
0.096775346 0.03831889 0.12323074 0.09833632 -0.047298808 0.0046714917 0.058875807 -0.0074506085
0.0060171727 0.120282926 0.006878615 -0.17960931 -0.109953865 -0.036637515 0.14359193 -0.03745811
0.20293237 0.13975677 0.14866345 -0.08571599 -0.037272964 0.043748565 0.1264964 -0.07531586
-0.025812745 -0.1467499 -0.009620495 0.010927077 0.23306406 0.03605233 0.0015708064 0.031998776
0.005963418 0.035729233 0.04380396 0.052024152 -0.0470205 0.10172048 0.018015042 0.087966315
0.015985068 0.10818335 0.013238745 -0.01489831 0.0780815 0.026473802 -0.0068964656 0.07848432
0.09902127 0.02587646 0.029803643 0.06933758 0.16547619 0.031339657 0.04615997 -0.04450886
0.09986179 -0.0447386 0.06002286 0.01262024 0.012106534 0.048134856 0.12003998 -0.075450964
-0.055947993 0.057986997 0.034003824 0.09325676 0.0672801 0.11326752 0.0756172 0.0865495
0.016040813 0.0062392456 0.045847822 0.012381114 0.097635046 0.027874053 0.034870397 0.16416612
00000000: 9267 85bd 1ece a8bd 9e95 e4bd dff7 cabd
00000010: f03b 053d 034c a5be 0216 263e 5e25 22bd
00000020: 61e3 4abe 4013 b3be 48c8 a3be 56da 0f3e
00000030: 4146 afbe bb3d 0ebe 7ad6 8bbd 9ff7 65bd
00000040: e7df acbe 2470 7cbe 7f4d cebd 98f9 85bd
00000050: 0fee 37be 3d48 a2bd 4e3f f9bd eb92 a7bc
00000060: dea3 11be c4b2 a23d 3f7e 2dbe b5fb 50bd
00000070: e9cb 14be 733c 1fbd 226b ddbe 85bc cf3e
00000080: e073 4c3e 4166 2bbe 012a b7bd b38b 9fbe
00000090: 3ff0 5dbe 035d d0be 0eb1 bfbe 67f7 f7bd
000000a0: a383 cf3c 4157 3abe 94f0 84bd 8e80 72bd
000000b0: 7177 98be 8da2 803c 7366 1dbd 5cb6 0abf
000000c0: 7474 27be 8b64 20be 66d2 63be 89f3 51be
000000d0: 502c 04be 7485 9ebe 7c2b 31be d92a b6bb
000000e0: bdcb 9a3d 96c2 55bd 7808 7dbd ee5f 4f3b
000000f0: 65cc ef3a 7b2b af3d 2f73 023d 65a1 0c3c
00000100: 42aa a73d 9c93 18be 4f4b 19be d16b 76be
00000110: 29be 57bd c9e1 1fbe c30b f0bc 0d95 003e
00000120: 75c6 d13d 0264 8e3b 7a33 cc3d 762c 5b3d
00000130: ac51 af3d ac24 f53d 779c 5fbe e0f8 20be
00000140: 00e7 0e3e 8d14 38bd 5979 c93c c2eb fabd
00000150: 75f1 98bd 94b4 e23c a715 80bd 834b 503e
00000160: 2da7 533e 6756 7ebd 64d4 ef3d dcd0 8cbe
00000170: 134f 67be 928f 0dbe 6c0f 61bc 284a 6cbe
00000180: 52c2 593c 6c42 10bd 7b36 1ebe 766b ff3d
00000190: 566b c73d 6edc e63d b561 003d d7ff 8ebd
000001a0: 98ed d83d bc04 c0ba dbdd 2f3c 8f76 4f3d
000001b0: 7a4c 173c 5d42 853d 43de a1bd 455f b8bc
000001c0: 1fab b33d 9edc ba3d d9da 1d3d cbc4 94bd
000001d0: 8b8a 043e 2cc0 033e 6f41 423e 3935 c33d
000001e0: 91c4 233e b4b6 c93d c098 d83c cb20 45bc
000001f0: 9fa3 8a3d 0d27 2c3d dfad 053c 9d04 c03d
00000200: 76bf f13d 602b 84bd 8cac ef3c 0191 dd3d
00000210: fbe2 113e 2d26 f33d cdda 213e 8fff 863b
00000220: 0332 633d 9b48 fe3d 2865 3a3d 894a 103d
00000230: d8d7 873d cd58 c53d dcbd 043e 1648 2ebd
00000240: fe2a ef3d 5c7e 1e3d 4998 d4bd ab13 223d
00000250: d30e d33d 0d4f 293d a942 07bc b241 4a3e
00000260: 4c71 933c 47ef b83d 913a 7abd b845 903d
00000270: 85d1 b43d e341 263e 5a2e a53c d278 9f3d
00000280: 1ecc 6fbc 9287 5c3d d698 b7bd 83ff 423d
00000290: fc0b ff3d 405f 893d 32ad 833e 821a 533d
000002a0: 58ad fabd 4112 193e e6d1 f23c 860f b73d
000002b0: 0040 4b3e 543f fb3d 0abb bcbb d278 aabd
000002c0: 2732 c63d 45f4 1c3d 6660 fc3d 8d64 c93d
000002d0: 65bc 41bd 5013 993b c227 713d 3c24 f4bb
000002e0: b42b c53b e556 f63d 0166 e13b 81eb 37be
000002f0: 7e2f e1bd 3811 16bd c309 133e ad6d 19bd
00000300: 81cd 4f3e 661c 0f3e 3b3b 183e dd8b afbd
00000310: 89ab 18bd b231 333d 4688 013e 343f 9abd
00000320: 4075 d3bc 9b45 16be 489f 1dbc 7c07 333c
00000330: 58a8 6e3e 9cab 133d 84e3 cd3a 2611 033d
00000340: c768 c33b d158 123d c86b 333d 4717 553d
00000350: 9198 40bd d452 d03d 4894 933c af27 b43d
00000360: 1ef3 823c 3b8f dd3d 52e7 583c 0b18 74bc
00000370: 32e9 9f3d 96df d83c bffb e1bb 63bc a03d
00000380: aacb ca3d dffa d33c c526 f43c dc00 8e3d
00000390: 9772 293e 035e 003d 3d12 3d3d ec4e 36bd
000003a0: 5784 cc3d d23f 37bd 88da 753d 20c5 4e3c
000003b0: 7c5a 463c 0e29 453d 85d7 f53d 0986 9abd
000003c0: b929 65bd c683 6d3d 9847 0b3d 66fd be3d
000003d0: 26ca 893d cdf8 e73d 31dd 9a3d dd40 b13d
000003e0: 0668 833c 9672 cc3b edca 3b3d 28da 4a3c
000003f0: e2f4 c73d 2058 e43c 43d4 0e3d 2a1b 283e

fc1.bias f4 [128]
-0.017808514 -0.089493155 0.025839075 0.096437365 -0.026275124 -0.029485201 -0.051352207 0.026924537
-0.07436269 -0.010791005 -0.06703772 0.021568572 -0.038296387 0.07281547 0.02940436 0.08095226
0.0033928258 0.046769246 0.033797424 -0.027592175 0.0019892333 -0.021809742 0.058951885 0.041230604
-0.023726035 0.04254169 -0.0039568017 -0.009598697 -0.019705918 -0.0847275 -0.09463594 0.05957813
0.02561617 -0.019961748 0.038457256 0.032725777 -0.021823563 0.074520595 0.05763982 0.052627068
0.08607211 0.09250373 0.035504684 -0.06674709 0.0064746486 -0.038284637 -0.0050170007 0.006228277
0.08681861 -0.025128344 -0.03539082 0.06607892 0.043744612 0.00621335 0.10218842 0.06687658
0.025328515 0.07335473 -0.012015311 0.014123591 0.041571867 -0.0059731486 0.08609095 0.005546593
-0.011869444 -0.06279924 0.06576045 0.010277162 -0.021055862 -0.009295989 0.02448805 -0.0017326172
0.02182256 -0.040636506 -0.066315696 0.035251632 0.04721404 0.1088223 -0.06661848 -0.05387916
-0.04390611 0.0506841 -0.06341093 -0.09002385 0.10434016 0.031458702 0.10893454 0.0034108406
0.02360501 -0.08265867 -0.067209885 0.004045417 -0.028512388 -0.041201312 -0.033178825 0.025222974
0.0018871567 0.0366536 -0.0048999423 -0.052049365 0.08809704 -0.083804615 0.022261389 0.042549483
0.047510326 0.053691383 0.048776563 0.0070381053 -0.024887912 -0.07831577 0.105085425 0.1289427
-0.037768316 -0.03896859 0.052133463 0.010075551 -0.048554063 -0.053390857 -0.035232045 0.0094785085
0.051327363 0.12784705 -0.04838865 0.0072215796 0.0048971195 -0.051521387 0.019084426 -0.08284108
00000000: 29e3 91bc 3048 b7bd 78ac d33c f480 c53d
00000010: ee3e d7bc f38a f1bc b156 52bd d990 dc3c
00000020: 774b 98bd c1cc 30bc 124b 89bd 93b0 b03c
00000030: acdc 1cbd 4720 953d 6ae1 f03c 4cca a53d
00000040: 2c5a 5e3b 1c91 3f3d 2b6f 0a3d fc08 e2bc
00000050: cc5d 023b 58aa b2bc 8877 713d 6ce1 283d
00000060: 1a5d c2bc 3240 2e3d 0fa8 81bb da43 1dbc
00000070: 4e6e a1bc 9d85 adbd 7dd0 c1bd 3208 743d
00000080: 01d9 d13c d286 a3bc 5b85 1d3d 770b 063d
00000090: 54c7 b2bc 419e 983d bb17 6c3d 7b8f 573d
000000a0: 9346 b03d 9872 bd3d 5c6d 113d b3b2 88bd
000000b0: 4a29 d43b 5ad0 1cbd a765 a4bb 9316 cc3b
000000c0: f5cd b13d f5d9 cdbc f7f5 10bd 6354 873d
000000d0: 8d2d 333d 5c99 cb3b 2a48 d13d 97f6 883d
000000e0: bf7d cf3c 013b 963d dedb 44bc a266 673c
000000f0: 4347 2a3d 67ba c3bb 7450 b03d 32c0 b53b
00000100: 0e78 42bc e39c 80bd 6aad 863d 8b61 283c
00000110: 587d acbc 344e 18bc 2a9b c83c fc18 e3ba
00000120: 3ac5 b23c 7772 26bd 86d0 87bd 0464 103d
00000130: 8263 413d 3ade de3d 456f 88bd 65b0 5cbd
00000140: e5d6 33bd 219a 4f3d 97dd 81bd 6d5e b8bd
00000150: 4bb0 d53d d7da 003d 1219 df3d 6988 5f3b
00000160: 4b5f c13c f348 a9bd 56a5 89bd 6b8f 843b
00000170: d092 e9bc b5c2 28bd 85e6 07bd 69a0 ce3c
00000180: 795a f73a 1622 163d b28f a0bb b731 55bd
00000190: 396c b43d c1a1 abbd 845d b63c 5e48 2e3d
000001a0: 309a 423d 7feb 5b3d efc9 473d e89f e63b
000001b0: bce1 cbbc 0564 a0bd 0737 d73d 8e09 043e
000001c0: f3b2 1abd 879d 1fbd e689 553d ed13 253c
000001d0: a0e0 46bd 5fb0 5abd 7a4f 10bd bf4b 1b3c
000001e0: a43c 523d 56ea 023e 2d33 46bd 00a3 ec3b
000001f0: 0478 a03b 1708 53bd f156 9c3c 96a8 a9bd

fc2.weight f4 [64, 128]
0.087300174 -0.07987049 0.22183011 -0.030102625 -0.25607985 0.23229858 0.02809652 -0.057623677
0.0686564 0.21034881 0.050908983 0.47111315 -0.11695291 0.339675 0.53625494 0.072202116
0.0023485324 -0.29842234 0.20047878 0.25178385 0.21796738 0.22292973 -0.054562394 0.25260118
0.5150689 0.4273163 0.3505666 0.14788707 0.06328464 0.23752172 -0.07288121 -0.016460724
0.23873238 8.223725e-05 0.07419256 -0.11227122 -0.23530391 -0.31329343 -0.23758508 -0.3573281
-0.3024093 -0.23826624 -0.0015043695 -0.03066973 -0.20632568 0.644724 0.017659603 -0.0888921
0.32373187 0.06484541 0.016454441 -0.10047687 -0.32719094 -0.04221493 0.12359149 0.055284895
0.25871179 -0.37587404 0.1971369 0.123139024 0.10918442 0.50762165 0.062083516 -0.3433865
-0.15023571 -0.07712432 0.26188165 -0.12710491 0.15731163 -0.20331205 0.3808393 -0.11209485
0.39555487 0.3377334 0.07861337 -0.2973436 0.46685392 0.0066009955 0.0011578007 -0.12923503
0.823244 0.24843709 -0.13793026 0.033548813 -0.20010567 -0.01153749 -0.31814444 0.16699801
-0.18024476 0.17497069 -0.056935042 0.18187058 0.4553373 0.21598822 -0.44962522 -0.12951025
0.080953844 0.15033048 -0.082078986 0.24813692 0.5012322 -0.00069989846 -0.16160025 0.02011592
0.5268204 -0.36466944 0.18829395 0.017986912 -0.10419748 -0.120965 -0.0358534 0.033660863
-0.17168118 0.5063377 -0.018149534 0.4022527 0.014353193 0.55151653 0.060714684 -0.008852459
0.13314445 -0.25539064 0.1917197 0.20562276 -0.05657637 -0.1521669 -0.14533597 -0.012725972
-0.016304558 0.13505547 -0.1659426 0.111036316 0.120956376 0.24126498 -0.0021263484 -0.067472465
0.023255888 -0.11094536 0.06469869 -0.11886303 0.19827819 0.1536667 0.34653348 0.114089206
-0.015172478 -0.18703899 0.21244355 -0.11862966 -0.009927073 0.24857293 0.1664614 0.11297492
0.25905368 0.4353005 -0.10969456 0.16798174 -0.17964265 -0.0055480585 -0.18082036 -0.17904077
-0.08771178 0.074747615 -0.258644 0.16842005 0.15419877 -0.2710371 0.13428403 0.31189176
-0.19092041 -0.19569747 -0.0625101 0.0667794 -0.16395444 0.38773754 -0.10645906 -0.5646058
0.31037498 -0.17177828 -0.036209304 -0.10011701 -0.51993597 -0.0055705244 -0.14043368 0.09890047
-0.07257929 -0.039531607 -0.06548951 0.29857218 0.19032805 0.050337482 0.057393074 -0.24457617
-0.26108626 0.122659616 -0.3081421 -0.08408922 0.18559803 0.1668622 0.28575423 0.16200478
0.2239641 0.06488208 0.12753247 -0.27793205 0.09951722 -0.025006251 0.20906316 -0.12114655
0.26312733 -0.23179233 0.25969607 -0.073900186 -0.05750141 -0.0045530396 0.14427915 0.20793268
-0.0065879854 0.23917821 -0.33268556 0.18243343 0.16743478 -0.1463613 0.3814975 0.057254378
0.060815554 -0.0013894449 -0.3059395 0.046340175 -0.04572602 0.15615459 -0.3599314 -0.2591951
0.025199547 -0.07388195 0.01968937 -0.41228068 0.1161235 -0.00084673276 0.06022366 0.002782855
-0.32495826 -0.07687616 0.007900438 0.080644846 -0.041236334 -0.09298714 0.028379055 0.008411601
-0.20189248 -0.05084622 0.035099786 0.19981006 -0.1516199 0.18867032 -0.14753295 -0.0043397616
00000000: 6fca b23d 2493 a3bd 6f27 633e c899 f6bc
00000010: e61c 83be aedf 6d3e ac2a e63c ce06 6cbd
00000020: ba9b 8c3d ae65 573e f085 503d be35 f13e
00000030: 0285 efbd e2e9 ad3e 0148 093f b4de 933d
00000040: d6e9 193b d0ca 98be 4f4a 4d3e d0e9 803e
00000050: d732 5f3e b147 643e d17c 5fbd f154 813e
00000060: 8edb 033f 34c9 da3e 777d b33e b56f 173e
00000070: 619b 813d e538 733e be42 95bd a4d8 86bc
00000080: 4376 743e ca76 ac38 45f2 973d 74ee e5bd
00000090: 82f3 70be ff67 a0be 8149 73be b5f3 b6be
000000a0: 64d5 9abe 11fc 73be 442e c5ba 163f fbbc
000000b0: 0a47 53be a20c 253f dfaa 903c 100d b6bd
000000c0: 2fc0 a53e accd 843d 77cb 863c d1c6 cdbd
000000d0: 9285 a7be 90e9 2cbd 891d fd3d 6a72 623d
000000e0: df75 843e 9072 c0be 41de 493e 5030 fc3d
000000f0: 159c df3d 7ef3 013f 494b 7e3d 5bd0 afbe
00000100: 64d7 19be 5bf3 9dbd 5a15 863e ca27 02be
00000110: 4d16 213e 0931 50be 5efd c23e fc91 e5bd
00000120: 2b86 ca3e 64eb ac3e 0c00 a13d 6c3d 98be
00000130: 7a07 ef3e 2a4d d83b 58c1 973a 3056 04be
00000140: 1ec0 523f 4b66 7e3e 973d 0dbe 7b6a 093d
00000150: 80e8 4cbe be07 3dbc d4e3 a2be 8701 2b3e
00000160: 1592 38be 842b 333e b834 69bd 483c 3a3e
00000170: f821 e93e 042c 5d3e 4735 e6be 569e 04be
00000180: 21cb a53d 3cf0 193e 0719 a8bd 9b17 7e3e
00000190: c150 003f 6479 37ba 897a 25be 24ca a43c
000001a0: b4dd 063f f4b5 babe 21d0 403e 4a59 933c
000001b0: 7d65 d5bd 7fbc f7bd 04db 12bd f9df 093d
000001c0: 31cd 2fbe 599f 013f 55ae 94bc 11f4 cd3e
000001d0: a829 6b3c 3030 0d3f f6af 783d e709 11bc
000001e0: 0557 083e 90c2 82be 2b52 443e c68e 523e
000001f0: a0bc 67bd a4d1 1bbe f4d2 14be 9880 50bc
00000200: 2391 85bc fb4b 0a3e dbec 29be 0267 e33d
00000210: fab7 f73d 2b0e 773e 355a 0bbb 012f 8abd
00000220: 2283 be3c 5237 e3bd bf80 843d 766e f3bd
00000230: 7009 4b3e ce5a 1d3e d66c b13e 9aa7 e93d
00000240: fc95 78bc 2687 3fbe cd8a 593e 1bf4 f2bd
00000250: 29a5 22bc e789 7e3e db74 2a3e 655f e73d
00000260: afa2 843e b5df de3e 8ba7 e0bd 6803 2c3e
00000270: 3ef4 37be 7dcc b5bb f928 39be 7756 37be
00000280: 3ca2 b3bd 4715 993d fd6c 84be 4e76 2c3e
00000290: 48e6 1d3e 60c5 8abe c181 093e 47b0 9f3e
000002a0: a480 43be eb64 48be 4c05 80bd a3c3 883d
000002b0: ace3 27be 8985 c63e 3507 dabd 018a 10bf
000002c0: 78e9 9e3e a5e6 2fbe 3550 14bd 260a cdbd
000002d0: 861a 05bf f288 b6bb d9cd 0fbe 548c ca3d
000002e0: 73a4 94bd e5eb 21bd 5d1f 86bd 74de 983e
000002f0: 5be5 423e ad2e 4e3d 0015 6b3d 2d72 7abe
00000300: 19ad 85be f734 fb3d cdc4 9dbe f836 acbd
00000310: 690d 3e3e eddd 2a3e 614e 923e 95e4 253e
00000320: d856 653e e5e0 843d df97 023e 1c4d 8ebe
00000330: afcf cb3d e9d9 ccbc a714 563e af1b f8bd
00000340: a0b8 863e f85a 6dbe e2f6 843e fb58 97bd
00000350: 9986 6bbd aa31 95bb eabd 133e 4eec 543e
00000360: 07e0 d7bb 22eb 743e c355 aabe d4cf 3a3e
00000370: 0674 2b3e bddf 15be a453 c33e 9183 6a3d
00000380: bb19 793d 091e b6ba 1aa4 9cbe 32cf 3d3d
00000390: 354b 3bbd fde6 1f3e ee48 b8be 38b5 84be
000003a0: 486f ce3c 6b4f 97bd 9a4b a13c 7416 d3be
000003b0: 28d2 ed3d 46f7 5dba 16ad 763d 8f60 363b
000003c0: ee60 a6be 4071 9dbd d770 013c 2029 a53d
000003d0: 6ee7 28bd 0b70 bebd 317b e83c d0d0 093c
000003e0: e7bc 4ebe 2044 50bd cbc4 0f3d 029b 4c3e
000003f0: 3f42 1bbe cb32 413e e112 17be 8f34 8ebb

fc2.bias f4 [64]
0.020806944 0.053342417 -0.056426473 -0.012168258 -0.15354879 -0.021505626 0.0378536 -0.073758155
0.021765742 0.026355367 -0.09423018 -0.0063156057 -0.06979745 0.06624091 -0.0936206 -0.018884435
-0.037302613 0.05866561 0.027274434 0.045460347 0.008578824 -0.09211441 -0.040028695 0.053338654
0.04966094 0.0020941235 0.124484666 0.17810315 0.06358912 -0.015188638 -0.058334213 -0.12748311
-0.024110781 0.08975821 -0.015015696 -0.0035925724 0.020581914 0.023418164 0.13677594 0.0037207461
-0.05430455 0.0025643827 -0.11583825 -0.06272571 -0.03044448 0.14980625 -0.1271005 0.026980903
-0.04337473 0.05397588 0.19124705 -0.010560494 0.12380499 0.045925327 0.058029607 0.024509482
-0.02655106 0.07796452 -0.10161912 -0.0017950267 0.008314389 0.24009354 -0.018511752 0.07808588
00000000: 5373 aa3c 947d 5a3d 721f 67bd 605d 47bc
00000010: e53b 1dbe 912c b0bc 600c 1b3d 840e 97bd
00000020: 124e b23c 36e7 d73c c1fb c0bd 24f3 cebb
00000030: f7f1 8ebd 50a9 873d 28bc bfbd 88b3 9abc
00000040: a0ca 18bd 5a4b 703d a26e df3c a134 3a3d
00000050: 328e 0c3c 7ba6 bcbd 21f5 23bd a279 5a3d
00000060: 4569 4b3d 903d 093b d1f1 fe3d ac60 363e
00000070: 033b 823d c4d9 78bc dbef 6ebd ef8a 02be
00000080: f983 c5bc 27d3 b73d 6504 76bc 5d71 6bbb
00000090: 679b a83c 73d7 bf3c fe0e 0c3e c3d7 733b
000000a0: 736e 5ebd 340f 283b 9b3c edbd 5676 80bd
000000b0: b466 f9bc cf66 193e a226 02be 0e07 dd3c
000000c0: b3a9 31bd d015 5d3d 44d6 433e ec05 2dbc
000000d0: 788d fd3d 321c 3c3d 74b0 6d3d 1cc8 c83c
000000e0: 9c81 d9bc ddab 9f3d af1d d0bd 1a47 ebba
000000f0: 1339 083c 15db 753e f5a5 97bc 7deb 9f3d

policy_head.weight f4 [110, 64]
0.07890793 -0.1396576 0.4630047 -0.21202411 0.018744204 -0.5524085 -0.06288537 0.17676961
0.7560132 -0.41153097 -0.07977071 0.095105186 -0.09052967 0.042627327 0.019236002 -0.19029401
0.024326617 -0.09349823 0.22854468 -0.5606621 0.3963045 -0.033616476 0.25133556 -0.15077184
-0.10669104 -0.31015357 0.21604748 0.42340514 -0.33689943 0.034087326 -0.0026319101 0.4444006
0.70520973 0.49435323 -0.025551379 1.6390038 0.25493154 0.01608259 -0.16908 0.5302422
0.22312126 -0.12478534 0.0077344878 -0.49780464 -0.598525 0.50104856 0.22941864 -0.10596941
0.15780649 0.59530723 0.300453 0.14517865 -0.07160887 -0.27227724 -0.27593148 0.7738676
0.052479137 -0.45935747 0.22668695 0.63678044 -0.19000615 0.15687543 0.21246454 0.11304966
0.36961046 -0.070717305 0.3224046 -0.18275014 -0.070532925 -0.89467746 0.1126169 0.23393404
0.6251552 -0.76772994 -0.01974595 0.090775356 0.033351183 -0.033623774 -0.085897036 -0.41542056
0.043047953 -0.6300843 0.3667 -0.053632643 0.2657099 0.014573845 0.35166398 -0.28969842
-0.035916016 -0.030191578 0.38041046 0.26085567 -0.13412602 0.12117913 -0.015050493 0.0025695283
0.43476754 0.34781003 0.27031308 0.9857342 0.2685383 -0.09691256 -0.12919995 -0.111410186
0.24156363 -0.120878495 0.007921443 -0.36226636 -0.653938 0.44915724 0.1196518 0.26752278
0.11372219 0.05556915 0.456557 0.24282588 -0.27852872 -0.30773097 -0.41862127 0.35448402
-0.034808334 0.051481448 0.20465587 0.4321296 -0.15930487 0.08065036 0.39422065 0.04847183
0.2694432 0.3229921 0.4494172 -0.017549045 0.030119319 0.14465886 0.16880955 0.38284916
-0.008509672 0.014932961 0.22492279 -0.09265134 0.03911422 0.11349153 0.3890448 0.022305163
0.3561187 -0.21789946 -0.23554695 0.19085313 0.22863719 -0.03502483 0.27371272 -0.06809738
0.24253313 0.21198586 -0.3338627 -0.39225265 -0.14396563 0.09678833 -0.10072517 -0.75116825
-0.66699237 -0.1114469 -0.45927072 -0.14785954 0.16474678 0.3144863 -0.47198042 -0.26698062
0.29868403 -0.04842034 0.34957033 0.19187063 0.014062675 0.24073778 0.2181536 -0.37670267
0.26806235 -0.36957982 -0.58047616 -0.032663573 -0.013248304 0.07099004 -0.22324 -0.39533284
-0.06835971 0.08462599 0.42763767 0.04738418 0.2223081 -0.34701487 0.3150435 -0.12554827
0.15961549 -0.046518598 0.32182172 0.2255188 0.32386616 0.12422651 0.055583827 0.32985663
-0.4178002 -0.0333203 0.331292 -0.050916776 -0.039203726 -0.0741934 0.1987668 0.3013163
0.15607628 0.35512543 0.33667243 -0.083329536 0.22423354 -0.02612015 0.15927023 -0.5310775
0.25192755 0.055242952 -0.839454 -0.11087157 0.24615781 0.038515944 -0.1248888 0.36088485
0.10882878 -0.18888983 0.31966028 -0.16887787 0.15079233 -0.019431733 -0.45206955 -0.37861857
0.18591824 -0.011069567 0.1006891 -0.063983396 0.15573621 -0.50515527 0.26806593 -0.08438522
0.2863739 -0.5701944 -0.54600745 0.1793412 -0.49995956 0.14030597 0.3355871 -0.26952577
0.0848604 0.22295417 0.31661516 0.20382659 0.13127686 -0.72066945 -0.16954061 -0.569572
00000000: 7b9a a13d 6702 0fbe f40e ed3e d91c 59be
00000010: 728d 993c a56a 0dbf 0bca 80bd 1803 353e
00000020: 158a 413f 30b4 d2be d35e a3bd 82c6 c23d
00000030: 9f67 b9bd fe99 2e3d d294 9d3c 6fdc 42be
00000040: 9d48 c73c 007c bfbd 9e07 6a3e 8d87 0fbf
00000050: 6ce8 ca3e 6eb1 09bd 0eaf 803e ef63 1abe
00000060: d580 dabd 73cc 9ebe 8d3b 5d3e 8fc8 d83e
00000070: 157e acbe 279f 0b3d 207c 2cbb 7a88 e33e
00000080: a088 343f de1b fd3e 2051 d1bc e0ca d13f
00000090: 6386 823e a3bf 833c 4f23 2dbe f4bd 073f
000000a0: e679 643e 758f ffbd 9671 fd3b 40e0 febe
000000b0: ef38 19bf b844 003f b8ec 6a3e 7d06 d9bd
000000c0: 0698 213e 0e66 183f fad4 993e b6a9 143e
000000d0: aca7 92bd ec67 8bbe e446 8dbe 301c 463f
000000e0: 5df4 563d e730 ebbe a020 683e 0b04 233f
000000f0: f990 42be f4a3 203e 4e90 593e 9586 e73d
00000100: 953d bd3e 3cd4 90bd 3712 a53e da22 3bbe
00000110: 9173 90bd 9509 65bf b0a3 e63d 688c 6f3e
00000120: 2c0a 203f f389 44bf 42c2 a1bc 6ee8 b93d
00000130: 409b 083d 15b9 09bd c9ea afbd 01b2 d4be
00000140: 0d53 303d 344d 21bf 1ac0 bb3e e7ad 5bbd
00000150: 210b 883e 23c7 6e3c 4d0d b43e 5a53 94be
00000160: ac1c 13bd 5454 f7bc 29c5 c23e e08e 853e
00000170: 5558 09be c42c f83d 5896 76bc 8865 283b
00000180: da99 de3e 2814 b23e 7a66 8a3e 1459 7c3f
00000190: da7d 893e 187a c6bd fe4c 04be 062b e4bd
000001a0: 755c 773e 258f f7bd f1c8 013c fa7a b9be
000001b0: 7b68 27bf f0f7 e53e 010c f53d bff8 883e
000001c0: 2ee7 e83d 7a9c 633d d7c1 e93e 59a7 783e
000001d0: 519b 8ebe ea8e 9dbe 8755 d6be ee7e b53e
000001e0: 2f93 0ebd 36de 523d 4f91 513e 1740 dd3e
000001f0: d120 23be 042c a53d 4ad7 c93e 668a 463d
00000200: 76f4 893e 385f a53e 031a e63e 04c3 8fbc
00000210: cabc f63c 7421 143e 69dc 2c3e ce04 c43e
00000220: 276c 0bbc 61a9 743c 2952 663e fcbf bdbd
00000230: 3b36 203d 3f6e e83d e130 c73e 51b9 b63c
00000240: 3155 b63e 0921 5fbe 3833 71be 016f 433e
00000250: de1f 6a3e 3276 0fbd 1324 8c3e a476 8bbd
00000260: 9b5a 783e d212 593e 0df0 aabe 57d5 c8be
00000270: ba6b 13be f638 c63d ff48 cebd 904c 40bf
00000280: 03c0 2abf 463e e4bd 8825 ebbe 7e68 17be
00000290: 61b3 283e 5904 a13e 6ba7 f1be afb1 88be
000002a0: 1ded 983e 6854 46bd e2fa b23e bc79 443e
000002b0: 2267 663c f783 763e a863 5f3e 2cdf c0be
000002c0: 783f 893e 9139 bdbe 169a 14bf 3dca 05bd
000002d0: 6a0f 59bc 3a63 913d 0799 64be 1169 cabe
000002e0: 2d00 8cbd 6450 ad3d 53f3 da3e ea15 423d
000002f0: bca4 633e efab b1be 624d a13e ba8f 00be
00000300: 3e72 233e 498a 3ebd d1c5 a43e 66ee 663e
00000310: c9d1 a53e 786a fe3d deab 633d f8e2 a83e
00000320: e8e9 d5be de7a 08bd 1b9f a93e 1c8e 50bd
00000330: 1694 20bd b6f2 97bd 8689 4b3e 2146 9a3e
00000340: 76d2 1f3e 00d3 b53e 5460 ac3e ada8 aabd
00000350: 7a9d 653e edf9 d5bc bc17 233e b2f4 07bf
00000360: a6fc 803e 6f46 623d 75e6 56bf a210 e3bd
00000370: cb10 7c3e e5c2 1d3d b3c5 ffbd e6c5 b83e
00000380: a0e1 de3d 566c 41be 83aa a33e 52ee 2cbe
00000390: 4e69 1a3e 4c2f 9fbc a975 e7be 4bda c1be
000003a0: 5a61 3e3e 215d 35bc 1636 ce3d ba09 83bd
000003b0: 5079 1f3e db51 01bf f03f 893e 29d2 acbd
000003c0: 9a9f 923e 43f8 11bf 25c7 0bbf 38a5 373e
000003d0: b3fa ffbe 5eac 0f3e 13d2 ab3e 48ff 89be
000003e0: 4acb ad3d 194e 643e 621b a23e ebb7 503e
000003f0: 716d 063e cb7d 38bf 0e9c 2dbe 78cf 11bf

policy_head.bias f4 [110]
-0.37561738 -0.04171261 -0.07551432 0.10569832 -0.37416223 -0.39840198 0.12639377 0.10492908
0.15203393 -0.007719381 0.0041921414 0.0022513224 0.14445168 0.043597955 0.22428764 0.14398348
0.10875391 0.15223347 0.26336938 0.24294192 0.13253593 -0.047090154 -0.006999004 0.052206796
0.03781317 0.24404964 0.20391169 0.04492348 0.13585593 -0.008939737 0.01687333 0.034749426
0.043609977 0.13017768 0.055952795 0.22893353 0.06462229 -0.02527282 0.079442896 0.16736889
-0.016047101 0.18660289 0.11517499 0.05631569 0.067725934 0.022296408 0.2423601 0.15398632
0.096171476 0.21481025 -0.08389009 0.14215948 0.16305809 0.07449104 0.10070504 0.082169004
0.20384327 0.18191724 -0.31627807 -0.36676183 -0.41186622 -0.37787712 -0.33079526 -0.28416413
-0.30885744 -0.3636242 -0.25985184 -0.24106675 -0.3106706 -0.296363 -0.24630491 -0.42263213
-0.28348702 -0.3958859 -0.3829189 -0.37801686 -0.48913002 -0.2947826 -0.4499444 -0.33469933
-0.44388694 -0.33034244 -0.4431275 -0.29068387 -0.46603557 -0.30244628 -0.30753013 -0.4358328
-0.35629827 -0.35289523 -0.42639518 -0.42926517 -0.3570358 -0.3100753 -0.44770104 -0.30824172
-0.35075325 -0.39154378 -0.46562302 -0.31068835 -0.26696 -0.41892552 -0.3352636 -0.34653917
-0.47824368 -0.47926924 -0.41180778 -0.42337453 -0.46861273 -0.23961145
00000000: ec50 c0be d7da 2abd 40a7 9abd 5c78 d83d
00000010: 3192 bfbe 58fb cbbe 5e6d 013e 0fe5 d63d
00000020: c8ae 1b3e dcf2 fcbb 3b5e 893b ec8a 133b
00000030: 24eb 133e c593 323d a9ab 653e 6870 133e
00000040: 5fba de3d 17e3 1b3e 5ad8 863e c4c5 783e
00000050: 80b7 073e 9be1 40bd e757 e5bb cbd6 553d
00000060: fce1 1a3d 26e8 793e 3ace 503e af01 383d
00000070: d11d 0b3e fa77 12bc f039 8a3c 6a55 0e3d
00000080: 60a0 323d 4c4d 053e c22e 653d 8d6d 6a3e
00000090: b158 843d f208 cfbc f5b2 a23d c062 2b3e
000000a0: 3675 83bc d414 3f3e dde0 eb3d 48ab 663d
000000b0: e5b3 8a3d f5a6 b63c 3f2d 783e 97ae 1d3e
000000c0: 8df5 c43d 38f7 5b3e 91ce abbd 4192 113e
000000d0: b3f8 263e c28e 983d 723e ce3d 3948 a83d
000000e0: 4abc 503e 8348 3a3e 33ef a1be 35c8 bbbe
000000f0: 21e0 d2be 1c79 c1be ff5d a9be f67d 91be
00000100: 9022 9ebe f32c babe 4d0b 85be 34da 76be
00000110: 3810 9fbe e4bc 97be 5b37 7cbe 3d63 d8be
00000120: 3625 91be 8fb1 cabe f20d c4be 6d8b c1be
00000130: 406f fabe bfed 96be 1d5f e6be b65d abbe
00000140: 2645 e3be a522 a9be 9ce1 e2be 84d4 94be
00000150: 379c eebe 3dda 9abe 9774 9dbe 7a25 dfbe
00000160: ba6c b6be afae b4be 7850 dabe a5c8 dbbe
00000170: 65cd b6be 31c2 9ebe 1239 e5be dcd1 9dbe
00000180: ee95 b3be 6d78 c8be 2466 eebe 8b12 9fbe
00000190: fbae 88be 687d d6be aca7 abbe 956d b1be
000001a0: 5bdc f4be c762 f5be 78d8 d2be 8cc4 d8be
000001b0: 02ee efbe b45c 75be

value_head.weight f4 [1, 64]
-0.0098776035 0.01447504 -0.014670328 0.040161673 -0.006043431 0.072841965 0.002256943 -0.0067957956
-0.18646264 0.058948893 0.008155029 -0.050731923 0.103767976 -0.08530332 0.0111207925 0.05654356
-0.01100244 0.02513106 -0.038288467 0.010207276 -0.0054803635 -0.0856573 -0.01401387 0.038057107
0.007936356 0.020388555 -0.038450982 -0.09023496 0.001947311 -0.087714605 -0.10146904 0.028888544
-0.037690643 -0.45892107 -0.03314802 -0.31709278 0.009007294 0.014939976 0.07307446 -0.04047376
-0.0062834783 -0.10165032 0.009397689 0.0052010473 0.04593027 -0.04181125 0.0016951363 -0.011989102
-0.0077406797 -0.0007905394 -0.055578616 -0.012834076 0.023692625 0.01012097 0.057133906 -0.33375198
-0.00818938 0.0017584288 -0.02022736 -0.03006858 0.023401776 0.010131548 -0.0057720426 0.010415125
00000000: acd5 21bc b828 6d3c d15b 70bc 9180 243d
00000010: f907 c6bb 2b2e 953d 38e9 133b 44af debb
00000020: 10f0 3ebe 6574 713d ac9c 053c 47cc 4fbd
00000030: 4e84 d43d 82b3 aebd fc33 363c 389a 673d
00000040: 9443 34bc a7df cd3c 5ed4 1cbd 6b3c 273c
00000050: 9f94 b3bb 186d afbd 6e9a 65bc c5e1 1b3d
00000060: 7d07 023c e605 a73c c77e 1dbd 1bcd b8bd
00000070: ea3c ff3a b7a3 b3bd 00cf cfbd aba7 ec3c
00000080: 8161 1abd b4f7 eabe 38c6 07bd fc59 a2be
00000090: 5493 133c cdc6 743c 10a8 953d d0c7 25bd
000000a0: a3e5 cdbb 0b2e d0bd c4f8 193c 8c6d aa3b
000000b0: 6121 3c3d 4642 2bbd 562f de3a f06d 44bc
000000c0: 87a5 fdbb 333c 4fba 67a6 63bd 0446 52bc
000000d0: 0917 c23c 6dd2 253c 3e05 6a3d 8ae1 aabe
000000e0: c02c 06bc 147b e63a d9b3 a5bc 6252 f6bc
000000f0: 15b5 bf3c cbfe 253c 6723 bdbb 33a4 2a3c

exp_avg f4 [128, 260]
0.00014511269 0.0004141548 0.0008617337 0.0008912541 0.0001524435 0.00033522927 -0.0001625959 0.0001437085
9.5346135e-05 1.2889213e-05 -0.00032342225 0.0010339858 -0.00011659748 0.00013640073 6.0134593e-05 0.0006636
-0.00012341312 -6.365362e-07 -0.00046010726 0.00018825462 7.982279e-05 0.0014840692 0.00024482587 0.00066061196
-1.7841336e-05 0.00021828116 0.00025646636 -0.0003670654 0.0011523063 0.0011152282 -0.000114335526 -7.631712e-05
-0.00018303079 -0.00030827438 0.00041060912 0.0008073133 -9.00163e-05 0.000747896 0.0004869005 0.0007818631
0.00074991066 0.0005031935 0.0006110919 0.0001667679 0.00040684282 0.00023171928 0.0005573298 0.00010643818
-0.0001875472 0.00065715914 0.0006205851 -2.6262554e-05 -6e-45 -6e-45 -1.277421e-21 3.4181335e-06
-0.000106129606 5.389849e-06 -4.7465783e-05 8.530879e-05 -1.1815184e-05 0.00022416005 4.6887635e-05 0.0004888015
3.158125e-05 6e-45 -1.1089292e-06 -3.803644e-21 6.2980785e-06 9.921207e-05 2.7192105e-05 3.8424092e-05
-0.00011724551 -9.953877e-05 -7.761295e-05 -5.5490505e-05 6.296232e-05 1.8593755e-05 -6e-45 -2.0058776e-06
2.4099524e-13 2.1073017e-06 0.000575256 0.00010680131 0.0004198413 3.711667e-05 -0.00015071122 8.219341e-05
6.6566885e-05 -7.316467e-05 -5.779779e-05 8.5375825e-07 -4.719172e-14 -6.4900773e-06 -7.1069544e-06 0.00010251771
7.040404e-05 0.00014251136 -0.00012801797 -3.4220073e-05 -6.63249e-05 -0.00020364174 5.1077994e-05 -5.8104833e-05
4.7669546e-06 -6e-45 -3.466394e-20 2.3000699e-05 0.0008863964 0.0012083697 0.0007688885 0.0012961385
0.0012074135 0.00075494463 0.000683717 -0.00048178388 0.00084040465 -6e-45 1.9503148e-05 -3.3842494e-05
0.0004866873 -0.00048240178 0.0005789792 0.0005854719 0.0014903126 6.169335e-05 0.00046966964 0.00040793486
0.0004212722 0.00088371936 6e-45 1.4305398e-12 0.0003867291 5.263712e-06 -5.0240436e-05 0.00027838396
-6.689635e-05 -0.00024258361 -0.00026002116 -5.2030064e-05 -0.00018628278 0.00023788078 0.00084959186 -6e-45
-4.9753567e-07 6.659632e-05 -2.2430338e-06 0.0006943201 0.00064387434 0.0006025542 0.0010695261 9.867175e-05
0.00047758553 -0.00025189863 -0.00010731863 0.00078606646 5.0631425e-06 5.7768986e-16 6e-45 6.801973e-36
0.0005929278 -9.5268195e-05 3.9405117e-05 0.000114874405 1.5955366e-05 -2.7112852e-05 -7.910357e-05 -5.6735742e-05
0.00012141505 6e-45 2.9419212e-05 -2.419982e-06 -8.978922e-05 -2.1116713e-05 0.00019568155 -0.00020866362
-9.94496e-06 -3.0183095e-05 -5.046471e-05 4.154708e-28 -0.00012085326 6.0203897e-06 6e-45 -3.476991e-07
3.0490267e-13 6e-45 0.0003161778 0.0006964409 0.0008510349 0.00047958712 0.0012502522 -4.3358643e-05
-1.0913314e-05 5.4360764e-05 1.591321e-05 -4.2915226e-06 -1.9554443e-05 1.4190821e-06 -6.1655795e-05 9.806021e-05
0.00030927095 3.279203e-05 4.2761527e-05 0.00013666377 6.1033634e-06 -3.3065312e-06 3.0934505e-05 2.6784473e-05
0.0012629516 0.0010037326 0.00055634894 0.0004978853 -0.000115858464 -3.3554443e-05 0.00081526797 -0.00021069335
0.00011146764 0.00045736722 0.0010902886 0.00043879708 0.000541564 0.0012822252 0.0013104196 0.00079103006
0.0011330282 0.0018267644 0.0010881805 0.0008146629 -2.3153529e-05 6.1755777e-06 0.0008515383 0.00040531115
0.0010728276 0.0002958337 0.0011603101 0.0017873731 -0.00012363348 0.00030291016 0.0006908716 0.00042694577
0.00039904175 0.0014549396 0.0001682386 0.0006242494 0.0016617503 0.00045075794 0.00012375962 0.000640309
0.00068838784 0.00085087033 0.0008816989 0.00035360345 -1.312403e-05 0.00040879063 -0.00012323206 0.0011108139
00000000: 6429 1839 eb22 d939 f8e5 613a 0da3 693a
00000010: 3ed9 1f39 b6c1 af39 817e 2ab9 75b0 1639
00000020: 91f4 c738 c03e 5837 0091 a9b9 ce86 873a
00000030: cc85 f4b8 cb06 0f39 0739 7c38 71f5 2d3a
00000040: 7568 01b9 6fde 2ab5 8d3a f1b9 3766 4539
00000050: 8966 a738 1985 c23a f95b 8039 eb2c 2d3a
00000060: faa9 95b7 67e2 6439 5576 8639 af72 c0b9
00000070: fc08 973a d92c 923a 6bc7 efb8 710c a0b8
00000080: f4eb 3fb9 e39f a1b9 0647 d739 e1a1 533a
00000090: 22c7 bcb8 730e 443a ae46 ff39 f2f5 4c3a
000000a0: a795 443a bfe8 033a af31 203a 6bde 2e39
000000b0: 854d d539 acf9 7239 c519 123a 9037 df38
000000c0: 51a8 44b9 3445 2c3a c3ae 223a 684e dcb7
000000d0: 0400 0080 0400 0080 d509 c19c 1663 6536
000000e0: e691 deb8 73da b436 ff15 47b8 cfe7 b238
000000f0: d439 46b7 810c 6b39 37a9 4438 ea22 003a
00000100: 1c76 0438 0400 0000 84d6 94b5 96b2 8f9d
00000110: 1554 d336 1310 d038 9a1a e437 8e29 2138
00000120: b4e1 f5b8 78bf d0b8 23c4 a2b8 7abe 68b8
00000130: a30a 8438 c9f9 9b37 0400 0080 b79c 06b6
00000140: 13ab 872a 2b6b 0d36 c7cc 163a 84fa df38
00000150: 251e dc39 b9ad 1b38 3c08 1eb9 405f ac38
00000160: d399 8b38 fc6f 99b8 e86b 72b8 d22d 6535
00000170: 5988 54a9 57c5 d9b6 4678 eeb6 c7fe d638
00000180: e2a5 9338 1a6f 1539 903c 06b9 8687 0fb8
00000190: e917 8bb8 aa88 55b9 943c 5638 97b5 73b8
000001a0: d4f3 9f36 0400 0080 22b2 239f a0f1 c037
000001b0: 0e5d 683a 2962 9e3a 3c8f 493a 31e3 a93a
000001c0: 1342 9e3a 7ae7 453a 793b 333a f097 fcb9
000001d0: 9a4e 5c3a 0400 0080 b19a a337 1af2 0db8
000001e0: 102a ff39 dfea fcb9 a3c6 173a 5b7a 193a
000001f0: 9856 c33a 5d61 8138 fe3d f639 17e0 d539
00000200: 33de dc39 67a9 673a 0400 0000 a154 c92b
00000210: e7c1 ca39 f19e b036 42b9 52b8 10f4 9139
00000220: b44a 8cb8 0b5e 7eb9 7353 88b9 db3a 5ab8
00000230: e754 43b9 a36f 7939 25b7 5e3a 0400 0080
00000240: 648e 05b5 a1a9 8b38 0787 16b6 0803 363a
00000250: adc9 283a baf4 1d3a 572f 8c3a feed ce38
00000260: 7264 fa39 4311 84b9 4010 e1b8 0710 4e3a
00000270: 10e4 a936 fd81 2626 0400 0000 77a9 1005
00000280: b66e 1b3a b9ca c7b8 ec46 2538 bae8 f038
00000290: e3d7 8537 6870 e3b7 68e4 a5b8 8af7 6db8
000002a0: 35a0 fe38 0400 0000 47c9 f637 f966 22b6
000002b0: 384d bcb8 cc23 b1b7 de2f 4d39 b7cc 5ab9
000002c0: 47d9 26b7 b431 fdb7 12aa 53b8 ffaa 0312
000002d0: 9a72 fdb8 c102 ca36 0400 0000 67ab bab4
000002e0: 1ba5 ab2a 0400 0000 aac4 a539 5c91 363a
000002f0: fc17 5f3a 1871 fb39 81df a33a fddb 35b8
00000300: 5418 37b7 6d01 6438 5c7d 8537 e6ff 8fb6
00000310: d908 a4b7 4a77 be35 344d 81b8 ada5 cd38
00000320: a525 a239 2d8a 0938 d75a 3338 674d 0f39
00000330: 7ecb cc36 c6e5 5db6 acbf 0138 38af e037
00000340: a089 a53a ad8f 833a f2d7 113a 8484 023a
00000350: 0af9 f2b8 cfbc 0cb8 b5b7 553a 91ed 5cb9
00000360: bcc3 e938 caca ef39 04e8 8e3a 590e e639
00000370: bff7 0d3a 5710 a83a 63c2 ab3a 215d 4f3a
00000380: 1e82 943a 0b70 ef3a 47a1 8e3a 1a8f 553a
00000390: d339 c2b7 cf37 cf36 c539 5f3a f17f d439
000003a0: 1f9e 8c3a 211a 9b39 8c15 983a 4a46 ea3a
000003b0: 9ca3 01b9 eacf 9e39 9c1b 353a b1d7 df39
000003c0: 7a36 d139 acb3 be3a 3569 3039 aba4 233a
000003d0: 16cf d93a b553 ec39 78c5 0139 69da 273a
000003e0: ed74 343a f10c 5f3a d021 673a da63 b939
000003f0: 482f 5cb7 f352 d639 db37 01b9 bb98 913a

exp_avg_sq f4 [128, 260]
8.050006e-06 7.4494587e-06 6.6504963e-06 7.3548e-06 1.6037134e-06 3.3651181e-06 4.011159e-06 1.6147261e-06
5.1235434e-06 6.2894933e-06 7.2490757e-06 1.0628699e-05 2.7454164e-06 6.8083255e-06 7.5549815e-06 6.9833777e-06
5.317849e-06 1.0384259e-06 3.4442685e-06 3.1092202e-06 4.9155956e-06 5.333377e-06 4.44233e-06 1.004769e-05
4.520151e-06 1.2377268e-05 8.746822e-06 9.097684e-06 1.04437595e-05 1.0499216e-05 1.8144284e-06 3.9238375e-06
2.485021e-06 2.3528369e-06 2.5441236e-06 4.8601623e-06 5.766575e-06 4.7984236e-06 5.4770703e-06 7.534148e-06
7.1523677e-06 8.615562e-06 7.931045e-06 3.6506733e-06 5.182494e-07 1.8493012e-06 3.4089512e-06 1.0747821e-06
3.2790172e-06 1.9017832e-06 2.8190261e-06 2.1452583e-06 8.597101e-10 1.7345502e-15 1.375416e-09 2.4738174e-08
2.338579e-07 3.7706968e-07 3.3830915e-07 1.8978167e-06 5.922009e-07 4.2941144e-07 6.320836e-07 5.5966035e-07
1.0055394e-06 2.3266366e-11 1.5569237e-08 1.5831821e-08 7.248806e-08 2.4261163e-07 3.763498e-07 3.5705628e-07
7.4822196e-07 8.5615795e-07 1.4161442e-06 6.506461e-07 8.2267997e-07 8.3347595e-07 1.7912552e-12 4.2731667e-09
4.2157425e-10 9.937138e-08 2.4620454e-07 3.531113e-07 4.163233e-07 7.8358426e-07 6.5118616e-07 5.1563296e-07
4.931343e-07 5.897902e-07 7.4964754e-07 1.2034227e-11 5.5316907e-09 2.7011524e-08 4.000035e-08 3.6641867e-07
4.4646845e-07 6.920692e-07 3.7266855e-07 7.464044e-07 6.883375e-07 9.185902e-07 6.6024774e-07 8.35423e-07
1.641251e-07 1.8859583e-09 1.3141431e-08 2.9130848e-07 5.5320857e-06 3.3105996e-06 6.927255e-06 6.6703146e-06
5.06567e-06 6.6623056e-06 4.736994e-06 3.834755e-06 9.910912e-06 3.7596366e-09 4.102385e-07 1.8335069e-08
1.822298e-06 4.0366554e-06 5.1286447e-06 5.3712647e-06 4.641381e-06 6.3241187e-06 7.2079083e-06 4.0527766e-06
7.068878e-06 4.0864293e-06 1.6158233e-11 1.0537781e-07 3.5703508e-07 1.3768397e-07 5.4091142e-06 6.330818e-06
5.4524753e-06 5.5053615e-06 5.806071e-06 6.7145975e-06 5.8960654e-06 7.0495234e-06 7.805696e-06 5.2771846e-11
1.2017199e-07 1.2972046e-07 2.202868e-07 2.7310348e-06 5.9192316e-06 7.196404e-06 6.3818165e-06 7.738963e-06
7.4040254e-06 8.004028e-06 9.420233e-06 9.283425e-06 9.20201e-08 8.1596047e-10 1.7406942e-08 1.0591244e-08
1.4338124e-06 8.608572e-07 1.0894704e-06 2.2834108e-06 3.82068e-07 3.5638257e-07 5.528269e-07 1.5673835e-07
3.3243393e-07 1.08030065e-08 1.7697539e-07 1.0016224e-08 9.862312e-07 2.05121e-06 1.0753168e-06 1.7691941e-06
6.8727377e-07 2.6577067e-07 2.3780962e-07 9.399351e-10 2.0637522e-07 1.7219922e-07 1.0824229e-11 8.209033e-08
1.4166096e-07 7.334296e-10 1.8548124e-06 1.8443218e-06 1.982111e-06 1.4366855e-06 3.1915658e-06 3.8736582e-07
3.4939634e-07 2.6602032e-07 3.715048e-07 3.3654384e-08 2.6484855e-07 8.67734e-08 7.12425e-08 1.4260032e-06
2.4960812e-06 1.3766296e-06 9.0362687e-07 7.409004e-07 3.6908406e-07 2.5989445e-07 4.3693063e-07 3.364217e-07
1.6877319e-05 1.8399605e-05 1.857401e-05 1.7663422e-05 1.6606244e-05 1.7245024e-05 1.2268327e-05 1.3289677e-05
1.3676269e-05 1.1586757e-05 1.1911082e-05 1.0548415e-05 1.0796808e-05 1.8759069e-05 1.7963284e-05 1.8750743e-05
1.7075983e-05 1.7674847e-05 1.4615348e-05 1.4626074e-05 1.40476495e-05 1.2451989e-05 1.2508769e-05 1.0779185e-05
1.2482434e-05 8.170719e-06 1.6169526e-05 1.6533979e-05 1.4620715e-05 1.4853299e-05 1.5477053e-05 1.2937442e-05
1.4198559e-05 1.5638443e-05 1.3816013e-05 1.2377506e-05 1.2662489e-05 1.2662675e-05 1.0751533e-05 1.8150453e-05
1.761481e-05 1.6652377e-05 1.6895981e-05 1.739665e-05 1.5150675e-05 1.4238774e-05 1.3982109e-05 1.4879988e-05
00000000: 830e 0737 5df6 f936 5427 df36 40c9 f636
00000010: 2c3f d735 4ad4 6136 9897 8636 91b9 d835
00000020: e7ea ab36 560a d336 163d f336 ea51 3237
00000030: e53d 3836 1273 e436 cc80 fd36 c252 ea36
00000040: fa6f b236 0b60 8b35 1524 6736 ffa7 5036
00000050: a5f0 a436 5cf5 b236 530f 9536 8092 2837
00000060: cdab 9736 f6a7 4f37 50bf 1237 41a2 1837
00000070: 9b37 2f37 ca25 3037 4987 f335 82a9 8336
00000080: 56c4 2636 6ee5 1d36 b6bb 2a36 7a14 a336
00000090: 817e c136 2502 a136 adc7 b736 d7cd fc36
000000a0: 5ffe ef36 8f8b 1037 940f 0537 17fe 7436
000000b0: d41d 0b35 8135 f835 56c5 6436 3b41 9035
000000c0: 160d 5c36 c640 ff35 802e 3d36 42f7 0f36
000000d0: b850 6c30 9bf9 f926 2609 bd30 d27f d432
000000e0: 5f1a 7b34 1070 ca34 dba0 b534 7cb8 fe35
000000f0: bcf7 1e35 dc89 e634 74ac 2935 913b 1635
00000100: 12f6 8635 33a7 cc2d 1dbd 8532 8bfe 8732
00000110: bcaa 9b33 4a40 8234 1f0d ca34 71b1 bf34
00000120: 6cd9 4835 bad2 6535 5812 be35 0fa8 2e35
00000130: 23d6 5c35 08bc 5f35 c518 fc2b 2cd3 9231
00000140: 4dc3 e72f fe65 d533 182e 8434 3f93 bd34
00000150: 0a83 df34 8057 5235 2ccd 2e35 076a 0a35
00000160: ee5f 0435 1352 1e35 633b 4935 57b5 532d
00000170: 4411 be31 f806 e832 dacc 2b33 33b8 c434
00000180: 28b2 ef34 a2c6 3935 2d13 c834 855c 4835
00000190: 31c6 3835 0a95 7635 e13b 3135 d541 6035
000001a0: 5d3a 3034 219a 0131 a0c4 6132 2265 9c34
000001b0: 41a0 b936 ab2b 5e36 ab70 e836 91d1 df36
000001c0: c6f9 a936 c58c df36 78f2 9e36 4bac 8036
000001d0: 0b47 2637 1d2e 8131 c03e dc34 3e7f 9d32
000001e0: af95 f435 9b72 8736 b916 ac36 d03a b436
000001f0: 29bd 9b36 c433 d436 76db f136 16fd 8736
00000200: 3331 ed36 291e 8936 1b21 8e2d 104c e233
00000210: 87ae bf34 48d6 1334 f07f b536 506d d436
00000220: 68f4 b636 b2ba b836 c5d1 c236 f44d e136
00000230: d1d6 c536 f28a ec36 36f5 0237 d117 682e
00000240: a008 0134 4a49 0b34 f987 6c34 d246 3736
00000250: d09d c636 a478 f136 6323 d636 98d6 0137
00000260: 1870 f836 0a49 0637 980b 1e37 02c0 1b37
00000270: 969c c533 1d4a 6030 4586 9532 c9f4 3532
00000280: 6b71 c035 a815 6735 eb39 9235 b33c 1936
00000290: 071f cd34 d954 bf34 fa65 1435 e94b 2834
000002a0: 5f79 b234 2098 3932 a006 3e34 d213 2c32
000002b0: a55e 8435 85a7 0936 9b53 9035 0c75 ed35
000002c0: 187d 3835 3eaf 8e34 9c58 7f34 072f 8130
000002d0: fd97 5d34 c3e5 3834 fe6b 3e2d a349 b033
000002e0: 781b 1834 859a 4930 def2 f835 6a8a f735
000002f0: 6804 0536 23d4 c035 af2e 5636 27f7 cf34
00000300: ab94 bb34 8ed1 8e34 3b73 c734 638b 1033
00000310: 8230 8e34 2e58 ba33 fbfd 9833 1965 bf35
00000320: 5982 2736 a2c4 b835 c490 7235 4ae2 4635
00000330: 8726 c634 9f87 8b34 4a93 ea34 729d b434
00000340: c493 8d37 da58 9a37 62cf 9b37 e92b 9437
00000350: a34d 8b37 68a9 9037 10d4 4d37 baf6 5e37
00000360: 2173 6537 be64 4237 b5d5 4737 19f9 3037
00000370: f023 3537 cb5c 9d37 dcaf 9637 ea4a 9d37
00000380: 653e 8f37 7244 9437 7134 7537 8262 7537
00000390: 32ae 6b37 e3e8 5037 c1dc 5137 3fd8 3437
000003a0: a56b 5137 f914 0937 cba3 8737 73b2 8a37
000003b0: 7e4b 7537 6f32 7937 b8d4 8137 e40d 5937
000003c0: 5936 6e37 4d2f 8337 53cb 6737 fca8 4f37
000003d0: fa70 5437 c671 5437 7c61 3437 cd41 9837
000003e0: 84c3 9337 b5b0 8b37 d8bb 8d37 05ef 9137
000003f0: a72f 7e37 12e3 6e37 b394 6a37 10a5 7937

exp_avg f4 [128]
0.0014183674 0.00031585517 0.001474647 0.0012199576 -0.0015529743 -0.0005416916 -0.00044457286 0.0004865264
-0.00054098864 0.0013719668 -6.280858e-05 0.00051906373 -0.00034002625 -0.0010023135 -0.0018854956 -0.0012069085
0.0023094655 -0.00114781 0.00092358136 0.00078120106 0.00067225704 -0.0004018964 5.1761665e-05 -0.00024462436
-0.0011684854 -0.001207178 -9.539107e-05 -2.8903807e-05 0.00052103255 -0.00084624736 6e-45 0.0017166672
-0.0020632742 -0.0011348135 -1.0217542e-05 -0.0008764437 -0.00063510233 0.00042050876 -0.0019976126 -0.0005413687
-0.00013573201 0.00015168198 -0.0008907457 -1.0870729e-05 -0.00011757622 0.0017923269 6e-45 -0.0015359304
-0.0011619155 -0.00012893885 0.0010081357 -0.00085909775 -0.00061767787 -0.00062125386 -0.00074930186 -0.0002524782
6.182887e-05 0.0005817019 0.00039794535 0.00055437733 -0.00035721157 0.0013232407 0.0012258914 -0.000104656414
-0.0012078604 0.00034762567 -0.0005270758 -0.0001815928 0.002372686 -0.0012584002 -0.0023175993 0.0011356131
-0.0003183762 0.0012850491 -0.0022516898 0.00020850115 -0.0020509316 0.0014157295 -0.0004282972 -0.0008429555
-0.00096943986 0.00015505594 -0.0015441588 6e-45 -0.0002576313 0.00019950078 0.00064021826 -7.648306e-06
-0.0008530237 -8.8760455e-05 -0.00055779505 4.634556e-06 0.0013347726 0.0008338102 -3.052476e-05 0.0008851378
-0.000710128 -0.0011084832 -0.0013300746 0.0005712239 0.0015954153 -0.0014992484 0.00087090046 -0.0017007465
0.001001675 -0.0007131159 -0.0018243871 -7.14645e-05 0.0013351317 -0.0010273397 -0.00034822477 0.0020161804
0.0023045172 -0.0006559869 -0.0008154978 -0.0003346572 0.0009414636 0.0007488604 -0.00041236953 0.00093744294
0.0012321529 -0.0009855481 0.0010921166 -3.36565e-05 0.00087846187 0.0008739806 -0.00031701478 -0.00010706942
00000000: 83e8 b93a 5d99 a539 f148 c13a fce6 9f3a
00000010: 2c8d cbba 4f00 0eba 8f15 e9b9 7814 ff39
00000020: 22d1 0dba 91d3 b33a 1ab8 83b8 c711 083a
00000030: 8d45 b2b9 0f60 83ba bc22 f7ba 2131 9eba
00000040: 675a 173b 1d72 96ba 7f1c 723a 84c9 4c3a
00000050: 683a 303a 9fb5 d2b9 aa1a 5938 ed40 80b9
00000060: dd27 99ba 2c3a 9eba b10c c8b8 7476 f2b7
00000070: e795 083a b3d6 5dba 0400 0000 cb01 e13a
00000080: ff37 07bb 06be 94ba 026c 2bb7 24c1 65ba
00000090: ff7c 26ba bb77 dc39 61ea 02bb a3ea 0dba
000000a0: 4953 0eb9 d20c 1f39 ef80 69ba 6d61 36b7
000000b0: 4193 f6b8 83ec ea3a 0400 0000 4651 c9ba
000000c0: 6a4b 98ba c233 07b9 6c23 843a 1335 61ba
000000d0: a9eb 21ba a4db 22ba cc6c 44ba 0d5f 84b9
000000e0: 1faa 8138 5b7d 183a 52a3 d039 a253 113a
000000f0: 2048 bbb9 9770 ad3a 17ae a03a fc7a dbb8
00000100: 1251 9eba 8741 b639 752b 0aba f269 3eb9
00000110: 117f 1b3b e7f0 a4ba dde2 17bb dad8 943a
00000120: bbeb a6b9 186f a83a 1691 13bb 1aa1 5a39
00000130: ec68 06bb 0090 b93a 148d e0b9 c9f9 5cba
00000140: 0222 7eba 8396 2239 5f65 caba 0400 0000
00000150: b012 87b9 1531 5139 52d4 273a 3951 00b7
00000160: 749d 5fba e824 bab8 fe38 12ba 8882 9b36
00000170: 89f3 ae3a 0e94 5a3a b607 00b8 9808 683a
00000180: e227 3aba 864a 91ba e655 aeba 30be 153a
00000190: 411d d13a 6e82 c4ba 244d 643a 95eb deba
000001a0: a34a 833a 66f0 3aba 4620 efba 36df 95b8
000001b0: 96ff ae3a cda7 86ba f091 b6b9 e521 043b
000001c0: 6207 173b 89f6 2bba 22c7 55ba ee74 afb9
000001d0: 8dcc 763a 2c4f 443a 4d33 d8b9 bbbe 753a
000001e0: 3180 a13a 822d 81ba 5a25 8f3a 642a 0db8
000001f0: 9448 663a d81b 653a 0135 a6b9 758a e0b8

exp_avg_sq f4 [128]
2.6072548e-05 2.8206667e-05 3.499382e-05 4.3302312e-05 1.9360126e-05 2.769537e-05 1.025137e-05 4.1365427e-05
2.7396432e-05 5.7422738e-05 3.805592e-05 5.5259778e-05 2.7278538e-05 2.3839952e-05 7.468954e-05 4.916892e-05
2.1346821e-05 2.5100406e-05 7.764754e-05 3.6395584e-05 2.7650416e-05 1.7664262e-05 2.3589095e-05 4.645336e-05
5.6736983e-05 3.1475152e-05 2.257946e-05 2.245039e-05 3.1736694e-05 1.234843e-05 2.4096684e-19 2.793236e-05
2.7810112e-05 2.5801119e-05 1.6070848e-05 3.1130134e-05 3.255103e-05 2.712827e-05 4.31898e-05 2.9052937e-05
3.8005343e-05 3.543329e-05 3.048332e-05 1.8554739e-06 1.9220735e-05 2.3391225e-05 7.9421566e-19 4.680723e-05
3.9858987e-05 1.617321e-05 4.333958e-05 2.6137099e-05 7.97004e-06 4.2220978e-05 4.319955e-05 2.802733e-05
7.9959565e-05 3.366154e-05 4.3467768e-05 2.7052789e-05 2.1756323e-05 5.6335135e-05 0.000116695905 2.0936957e-05
5.365527e-05 3.4140332e-05 5.7623525e-05 1.0478604e-05 3.7440375e-05 2.456547e-05 3.3968845e-05 5.9439448e-05
9.035888e-05 5.635477e-05 2.1054304e-05 5.3963275e-05 4.653742e-05 1.8328397e-05 3.1296775e-05 3.7692535e-05
0.00014394183 1.12512935e-05 3.0814146e-05 6.8886805e-19 1.5349518e-05 1.5087966e-05 0.00011302939 1.6703802e-05
3.542743e-05 4.862074e-05 7.404948e-06 2.7291195e-05 4.604545e-05 3.761848e-05 6.0815786e-05 4.746801e-05
2.6663643e-05 3.4709086e-05 3.9783816e-05 4.051921e-05 2.4372628e-05 1.18602065e-05 5.7318008e-05 3.002984e-05
3.1159587e-05 4.3024193e-05 2.682039e-05 4.9206537e-06 1.7103213e-05 3.17596e-05 1.4000978e-05 4.831794e-05
7.794815e-06 3.7068254e-05 3.1707285e-05 3.7780766e-05 3.558357e-05 2.7859429e-05 2.7756538e-05 4.412455e-05
2.9948378e-05 4.829387e-05 3.3569573e-05 3.092921e-05 2.6740989e-05 2.0957375e-05 3.674439e-05 2.4195386e-05
00000000: 5fb6 da37 5b9d ec37 54c6 1238 819f 3538
00000010: 8e67 a237 5b53 e837 4dfd 2b37 ca7f 2d38
00000020: 64d1 e537 32d9 7038 3c9e 1f38 bcc6 6738
00000030: 37d4 e437 e8fb c737 a4a2 9c38 ba3a 4e38
00000040: f311 b337 b68e d237 b5d6 a238 76a7 1838
00000050: d1f2 e737 b72d 9437 32e1 c537 ead6 4238
00000060: dff8 6d38 3004 0438 0569 bd37 d853 bc37
00000070: 041d 0538 1a2c 4f37 e13d 8e20 4950 ea37
00000080: c349 e937 7b6f d837 e2cf 8637 ba91 0238
00000090: 6787 0838 8491 e337 b226 3538 b5b6 f337
000000a0: ed67 1f38 359e 1438 6eb6 ff37 9909 f935
000000b0: 373c a137 4638 c437 3d69 6a21 e152 4438
000000c0: 432e 2738 b4ab 8737 85c7 3538 fe40 db37
000000d0: 10b7 0537 6e16 3138 2a31 3538 3c1c eb37
000000e0: f7af a738 ce2f 0d38 2951 3638 6cef e237
000000f0: 5981 b637 6449 6c38 a3ba f438 c6a1 af37
00000100: e80b 6138 e731 0f38 cab0 7138 43cd 2f37
00000110: 4c09 1d38 f211 ce37 c579 0e38 9f4e 7938
00000120: 0e7f bd38 795e 6c38 c69d b037 a056 6238
00000130: 2d31 4338 efbf 9937 a844 0338 0d18 1e38
00000140: 17ef 1639 f0c3 3c37 703e 0138 6651 4b21
00000150: d7c2 8037 5222 7d37 310a ed38 241f 8c37
00000160: ea97 1438 1fee 4b38 0578 f836 65ef e437
00000170: ed20 4138 89c8 1d38 7414 7f38 6318 4738
00000180: bdab df37 9994 1138 8cdd 2638 2cf3 2938
00000190: d273 cc37 33fb 4637 be68 7038 97e8 fb37
000001a0: 5ab1 0238 e074 3438 59fc e037 181c a536
000001b0: df78 8f37 9c35 0538 bee5 6a37 fea8 4a38
000001c0: 7ac6 0237 bc79 1b38 70fd 0438 ca76 1e38
000001d0: 913f 1538 abb3 e937 b6d6 e837 6012 3938
000001e0: a739 fb37 268f 4a38 0ecd 0c38 fdb9 0138
000001f0: d651 e037 9fcd af37 fd1d 1a38 32f7 ca37
