ppo_2layer_2048_epoch10_followepoch5_follow5/ppo_agent_episode_20800.pth (torch, 596662 bytes, 21 tensors)

fc1.weight f4 [128, 260]
000000 65 41 41 bd 93 0b a5 bd 04 39 05 be 29 77 01 be
       -0.047181506 -0.08058848 -0.13010031 -0.12643112
000010 2e 40 20 3d c8 d6 a4 be c9 e3 1c 3e a8 3d 55 bd
       0.039123707 -0.32195115 0.15321268 -0.052060753
000020 49 e8 35 be 6a e0 b9 be c7 db ae be 80 98 14 3e
       -0.17764391 -0.36304027 -0.34152052 0.14511299
000030 2f 8d b7 be 8b 3a 08 be 42 83 bd bd 3d 12 b2 bd
       -0.35849902 -0.13303582 -0.09253551 -0.08694885
000040 83 71 ac be 3e 90 7f be 21 53 bb bd 50 eb 34 bd
       -0.33680353 -0.24957368 -0.09146715 -0.044169724
000050 9a b9 12 be 1b 8d 93 bd 76 9f e5 bd 1b 47 da bc
       -0.14328614 -0.07204648 -0.112120554 -0.026645234
000060 6c eb 09 be 6a 01 b2 3d e5 b5 3b be 2b 73 9c bd
       -0.13468713 0.08691676 -0.18331106 -0.07639154
000070 5a f4 09 be 26 90 4f bd 4c a9 e4 be b0 c3 b8 3e
       -0.13472119 -0.05067458 -0.44660413 0.36086798
000080 fc d3 40 3e 76 2a 59 be 7d ea ac bd 59 89 9d be
       0.18830866 -0.21207604 -0.084431626 -0.3076885
000090 4f 6a 3b be 76 fb c7 be 90 26 c5 be ed 5b 03 be
       -0.18302272 -0.39059037 -0.38505983 -0.12828036
0000a0 6d 2b 43 3c a0 36 25 be 99 f7 84 bd 69 6f b0 bd
       0.011912209 -0.16134119 -0.06492538 -0.08615
0000b0 fc 31 92 be 9f 7c ca 3c 2b 84 17 bd d3 ca 05 bf
       -0.2855376 0.024717627 -0.03699128 -0.5226261
0000c0 e1 9b 28 be 0f 9d 3c be 44 be 6e be 66 05 81 be
       -0.16465713 -0.18419288 -0.23314768 -0.2519943
0000d0 0d a3 06 be 74 85 9e be ee bb 4e be ce 50 51 3c
       -0.13148136 -0.30961192 -0.20188877 0.012775613
0000e0 31 3b 40 3d 00 fc cd bc 90 e2 63 bc c9 55 c9 bc
       0.04693145 -0.025144577 -0.013908997 -0.024577038
0000f0 29 e9 cf bc be 13 48 3d b3 b8 81 3b a3 8a 0f 3d
       -0.025379734 0.048846953 0.0039587854 0.035044324
000100 f4 f2 8a 3d d4 ff 19 be 83 50 27 be bd 2f 5f be
       0.06784621 -0.15038997 -0.16339307 -0.21795554
000110 29 68 5f bd 0d 78 18 be 3b b2 0e bd 13 a5 a7 3d
       -0.054542694 -0.14889546 -0.034837943 0.08185782
000120 5e c2 f2 3d fe 8e 83 bc 77 db fe 3d 18 9b ed 3c
       0.11853479 -0.016059395 0.12444203 0.029004619
000130 5c f3 a0 3d 90 70 03 3e 77 9c 5f be 99 ee 13 be
       0.07858917 0.12835908 -0.2183703 -0.14446487
000140 dc ca de 3d 6d e7 ca ba e1 f9 27 3d b7 42 18 be
       0.10878536 -0.0015480347 0.041009787 -0.148692
000150 d8 28 9d bd 31 67 c4 3c fa 84 a9 bd e1 65 67 3e
       -0.07673806 0.023974987 -0.082773164 0.22597457
000160 70 a4 47 3e a3 c6 2d bd 1d 72 f0 3d 82 12 96 be
       0.19496322 -0.042425763 0.117405154 -0.29310995
000170 21 69 5a be c9 da 25 be cf d0 a0 bb b9 14 2e be
       -0.21329166 -0.16196741 -0.0049077044 -0.17000093
000180 b6 84 c6 3b e3 19 91 bd 7a 53 47 be 15 d0 24 3e
       0.006058301 -0.070850156 -0.19465438 0.16095002
000190 f1 30 01 3e fa a1 6f 3d 97 6d 24 3d 5f a8 94 bd
       0.12616326 0.058504082 0.040143576 -0.07258677
0001a0 5c 68 a8 3d d2 49 c5 bc a5 83 97 3c 3c 17 9c 3d
       0.0822303 -0.024083052 0.01849539 0.07621619
0001b0 ab fa 89 3c 3f 30 32 3d 52 37 92 bd cf 25 ad bc
       0.01684316 0.043503042 -0.07139458 -0.021136193
0001c0 96 7a 91 3d 7b da b3 3d 11 5d 6a 3d 82 c5 d4 bd
       0.071034595 0.08781906 0.05721766 -0.10389234
0001d0 17 33 03 3e dc 17 01 3e d5 70 3f 3e 12 0f a8 3d
       0.12812458 0.12606758 0.18695386 0.082059994
0001e0 ea 98 41 3e 95 b4 98 3d 5e 80 98 3c 74 46 8e 3b
       0.18905988 0.07456318 0.018615898 0.0043418948
0001f0 52 7a 66 3d 45 d0 48 3d 66 c9 70 bc 9f ed e3 3d
       0.056268997 0.049026746 -0.014696455 0.11129307
000200 76 5e ee 3d 54 0c d7 bd 8c ac ef 3c e5 9f 04 3e
       0.11639111 -0.10500398 0.029257081 0.1295162
000210 92 b2 29 3e 0a c4 02 3e 27 17 1a 3e 61 49 90 bb
       0.16572025 0.12770095 0.15047894 -0.0044032787
000220 d5 4f 89 3d 2f 73 d6 3d 95 51 58 3d 77 3b f6 3c
       0.0670468 0.10471188 0.052812178 0.030057652
000230 70 bc 42 3d 36 a9 8a 3d e0 11 14 3e 16 48 2e bd
       0.04754299 0.06770556 0.14459944 -0.042549215
000240 d0 5a 06 3e b5 a5 0e 3d 47 e5 d5 bd 80 9f ab 3c
       0.1312058 0.034826 -0.10444122 0.020950079
000250 e6 13 f5 3d 56 2e 22 3d f9 d2 6b bb 80 8a 3e 3e
       0.11966686 0.03959497 -0.0035983904 0.18607521
000260 c5 48 c3 bc 08 ae 98 3d 8e f5 3b bd c4 91 2f 3d
       -0.02383841 0.07455069 -0.045888476 0.042863622
000270 8a 41 94 3d cc 24 37 3e 5d 40 73 3d 60 47 d5 3d
       0.07239063 0.1788513 0.059387553 0.10414004
000280 50 85 41 bc 4d fc 85 3d 48 4c e3 bd a7 d4 63 3d
       -0.011811569 0.06542263 -0.11098534 0.055622723
000290 b6 80 c1 3d 66 1d 2e 3d 58 85 7f 3e 26 90 27 3d
       0.09448378 0.042508505 0.2495321 0.040908955
0002a0 47 cb 01 be 1c 15 0b 3e 5b 38 19 3d 8f 8a be 3d
       -0.126752 0.13582271 0.03740726 0.09303772
0002b0 3b ad 49 3e eb af f2 3d 47 3d 98 bc 50 e8 94 bd
       0.19694988 0.1184996 -0.018583907 -0.072708726
0002c0 37 bc 00 3e 0e 1d 0b 3d f5 c0 d6 3d 0c fd fe 3d
       0.12571798 0.033963256 0.104860224 0.124506086
0002d0 7b fa 7a bd e5 98 96 bb c2 27 71 3d a1 9f ab bc
       -0.061274033 -0.004595863 0.058875807 -0.02095014
0002e0 bb 07 0c bb e5 56 f6 3d 08 7a ea bc 93 10 29 be
       -0.0021366912 0.120282926 -0.028622642 -0.16510229
0002f0 13 46 d1 bd 19 10 86 bc 5a bf 3b 3e 77 55 9b bd
       -0.10218444 -0.016365098 0.18334714 -0.075846605
000300 bf 50 2e 3e 24 60 0f 3e e9 f8 20 3e ab ed 73 bd
       0.1702299 0.14001518 0.15719952 -0.05955283
000310 da f5 06 bd 3f 44 7f 3d 60 b6 8e 3d fd c0 6b bd
       -0.032949306 0.062320944 0.06968379 -0.057557095
000320 ec 5e 2e bc 68 2a 14 be a1 77 66 bc 5c 06 bc 3c
       -0.010642748 -0.14469302 -0.014066608 0.022952251
000330 78 e1 52 3e ab aa 72 3d 1d c2 39 bc ed 76 22 3d
       0.20593822 0.059244793 -0.011337784 0.039664198
000340 c0 38 78 bc a4 b1 b7 3c df d3 2d 3d 5b 75 5d 3d
       -0.015150249 0.022423573 0.042438384 0.054066997
000350 e5 de 82 bd d7 36 bb 3d 2a 14 db ba e6 cf 9c 3d
       -0.0639017 0.09141319 -0.0016714383 0.07656841
000360 1b 98 1f 3c 42 bf ef 3d c5 d9 1a 3c a2 cc 96 bc
       0.009740855 0.117064014 0.009451334 -0.018408123
000370 f2 fa 9f 3d 83 7f 3c 3c a5 07 6c bb b8 25 b1 3d
       0.07811536 0.011505011 -0.0036015299 0.086497724
000380 89 49 9e 3d ed 6b da 3c da cb 91 3c 4d ac 2f 3d
       0.077288695 0.026662791 0.0177974 0.04288893
000390 0f 17 fc 3d 0d f3 65 3c 93 57 26 3d 0c 42 81 bd
       0.123090856 0.014034999 0.04061086 -0.063114256
0003a0 ac 66 ac 3d 9a 2d 48 bd 3b d5 66 3d fc db 96 3c
       0.084180206 -0.048871614 0.056355696 0.018415444
0003b0 73 f3 25 bc 21 73 23 3d dd e5 00 3e 49 6c 73 bd
       -0.010128844 0.039904717 0.12587686 -0.05942944
0003c0 2b 44 99 bd 77 56 86 3d 23 c7 17 bb f6 c8 aa 3d
       -0.07483705 0.065594606 -0.0023159466 0.083391115
0003d0 73 a3 52 3d 3d ca d9 3d f0 1f 64 3d 26 f1 a2 3d
       0.05142541 0.10634277 0.05569452 0.07956152
0003e0 b3 6e 42 3c 01 71 ab bc 2c d7 1b 3d 30 6b d4 3b
       0.011867213 -0.020927908 0.038047 0.0064825043
0003f0 d5 13 8a 3d 24 7f 95 3c 3b d5 d9 3c 50 77 12 3e
       0.06742064 0.018249102 0.026590934 0.14303327

fc1.bias f4 [128]
000000 2a dd e0 bc a6 42 c8 bd 6e ef ce 3c 91 9d a2 3d
       -0.02744921 -0.09778337 0.025260653 0.0794021
000010 f5 35 07 bd 7f 31 86 bc 1f 85 57 bd de 71 b4 3c
       -0.03301044 -0.016381023 -0.05261719 0.022026952
000020 a0 e1 58 bd 8e 22 39 bc 0e d8 87 bd 38 8d aa 3c
       -0.052949548 -0.011299742 -0.06633006 0.020819291
000030 db 1d e2 bc 74 2b 87 3d 87 02 d0 3c 7e 4c a6 3d
       -0.027602127 0.06600085 0.02539183 0.081200585
000040 b2 53 4a 3b 4a 3f 55 3d e6 f6 f0 3c c2 d8 c3 bc
       0.003087264 0.05206231 0.029414605 -0.02390707
000050 50 b4 3e 3c 11 b1 99 bc c1 d2 63 3d 01 77 01 3d
       0.01163967 -0.01876119 0.055620912 0.03160763
000060 ad 2d bc bc da b1 5f 3d aa 22 ff 3b 49 66 ef bb
       -0.022970999 0.05461297 0.0077861147 -0.0073058945
000070 08 3d 82 bc 71 cd aa bd 7d d0 c1 bd 0b 64 50 3d
       -0.015898243 -0.08339966 -0.09463594 0.05087666
000080 e4 1d 8b 3c a4 b6 ad bc 2f 8c 46 3c de 4f e6 3c
       0.016982026 -0.021205254 0.012118383 0.028114256
000090 96 42 07 bd 1c 6a a4 3d 00 44 70 3d 67 33 6a 3d
       -0.033022486 0.08028051 0.0586586 0.057177927
0000a0 69 8b a5 3d b4 bf c1 3d 23 42 08 3d 19 74 49 bd
       0.08083231 0.094603926 0.033266198 -0.049182985
0000b0 54 e3 01 3c 27 e0 ca bc a7 65 a4 bb 5c 53 e2 bc
       0.007927734 -0.024765087 -0.0050170007 -0.02762764
0000c0 da 0b a0 3d 7e 55 c8 bc 4b 98 f7 bc be 34 6f 3d
       0.078147605 -0.024454828 -0.030223986 0.05839991
0000d0 16 c4 33 3d 03 25 c6 3b 5c 70 ca 3d 88 47 91 3d
       0.043888174 0.0060468926 0.09884712 0.07093722
0000e0 87 99 15 3c 68 ed 8d 3d 40 80 72 bc ed 99 ab 3c
       0.009130842 0.06930047 -0.014801085 0.020947421
0000f0 bb 8e 0c 3d ce 52 be bb eb a2 b2 3d 53 8a e6 3b
       0.034315806 -0.005808211 0.087224804 0.0070355325
000100 56 da b3 bb e5 fb 87 bd b1 f1 88 3d 42 cf fa 3b
       -0.005488674 -0.06639842 0.06686724 0.0076541016
000110 e3 24 9d bc f6 16 8c 3c 6b e3 c6 3c e9 4a 8b 3b
       -0.019182628 0.017100792 0.024278363 0.0042508733
000120 77 6a b8 3c d3 1d 19 bd a6 b9 90 bd 41 9d 2a 3d
       0.022511704 -0.03738196 -0.0706666 0.041653875
000130 17 2b 52 3d 63 58 e6 3d 9a da 51 bd f4 f0 44 bd
       0.051310625 0.11247327 -0.051233865 -0.048081353
000140 f0 89 3c bd 2c 7b 7c 3d 91 97 70 bd 6d 5e b8 bd
       -0.046029985 0.061640903 -0.058738295 -0.09002385
000150 06 6c d2 3d 56 1c 00 3d 5a 7b ce 3d fb 92 10 bb
       0.1027451 0.031277023 0.10082121 -0.0022060263
000160 32 2f b6 3c 12 1d 9b bd e3 7b 78 bd 73 63 c4 bb
       0.022239301 -0.07573904 -0.060665023 -0.0059933006
000170 db e4 13 bd 45 00 35 bd 34 a5 b9 bc 1f ba b9 3c
       -0.036106925 -0.04418971 -0.022661783 0.022671757
000180 f5 bb 13 3c 22 b7 1d 3d 7d 13 b7 ba 17 c1 47 bd
       0.00901698 0.038504727 -0.00139676 -0.04876813
000190 e5 7e b1 3d 18 ad ae bd 4f a4 2f 3c 71 f5 4e 3d
       0.08666781 -0.08529109 0.010720327 0.05052704
0001a0 7e 67 3e 3d aa 49 5f 3d b2 e4 5c 3d 91 00 28 3c
       0.046485417 0.05451361 0.05392904 0.010254041
0001b0 24 e7 70 bb 0d 10 b8 bd ac 0e c5 3d d3 be 04 3e
       -0.0036758864 -0.089874364 0.09621939 0.12963419
0001c0 57 ac 04 bd 22 74 2d bd 73 95 43 3d e1 35 45 3c
       -0.03239092 -0.04234708 0.047749948 0.0120367715
0001d0 74 1a 5b bd a1 29 5a bd 66 10 33 bd 53 37 3f 3c
       -0.053492025 -0.053262357 -0.04371681 0.011670905
0001e0 4a de 5d 3d bf 7a fd 3d ac 98 1c bd ce 7b 07 3c
       0.05416707 0.123769276 -0.038231537 0.008269263
0001f0 d5 da 8c 3b 96 5a 17 bd 93 53 85 3c 24 2c 7f bd
       0.0042985477 -0.036951624 0.016275203 -0.062297955

fc2.weight f4 [64, 128]
000000 e0 3f c0 3d a0 40 a6 bd cc 45 4a 3e 5a 16 27 bd
       0.09387183 -0.08117795 0.19753188 -0.0407928
000010 14 d4 91 be 3e 07 80 3e 38 f9 80 3b 4d 1c a7 bd
       -0.28482115 0.25005525 0.003935959 -0.08159695
000020 bf 5b 7e 3d f5 70 48 3e 8a c3 25 3d 31 5b f0 3e
       0.062099215 0.1957434 0.040469684 0.46944574
000030 fe 18 ea bd 4a 92 9b 3e e8 e6 08 3f d0 17 b8 3d
       -0.11430548 0.30385047 0.53477335 0.08988917
000040 56 c7 25 3c 14 8f a2 be 8e 5b 53 3e 7e 1a 80 3e
       0.010118326 -0.31749785 0.20640394 0.25020212
000050 33 5c 4e 3e 6b 30 68 3e 41 57 75 bd 2d 56 59 3e
       0.20152359 0.2267472 -0.059897665 0.2122428
000060 05 49 05 3f f9 b0 cd 3e b9 55 b3 3e 03 2f e5 3d
       0.52064544 0.40174082 0.3502634 0.111906074
000070 ec 97 6d 3d 73 03 92 3e be 42 95 bd 12 72 36 bd
       0.058006212 0.28518257 -0.07288121 -0.04454238
000080 7d 50 6d 3e 5e 9b 9b bb 94 83 36 3d 45 53 f2 bd
       0.23175235 -0.004748746 0.044559076 -0.11832289
000090 50 ba 87 be b1 55 b1 be 44 af 82 be 9c 6f c3 be
       -0.26509333 -0.3463569 -0.25524342 -0.3817109
0000a0 7b b4 9d be 34 f0 6f be f0 26 34 3b f1 1c 09 bd
       -0.30801758 -0.23431474 0.002748903 -0.033474866
0000b0 45 9f 57 be b2 9f 27 3f df aa 90 3c 46 47 f4 bd
       -0.2105685 0.6547805 0.017659603 -0.11927657
0000c0 7a 96 b2 3e 5a b6 47 3d 0b 86 0e 3c ec d1 ee bd
       0.3488043 0.04875789 0.0086989505 -0.11661133
0000d0 2e 0c aa be c4 d4 18 bd 01 c8 fe 3d de e6 8b 3d
       -0.33212417 -0.037312284 0.124404915 0.06831144
0000e0 fb 4b 81 3e 43 a4 c1 be 3d 6c 3d 3e ff 4d f6 3d
       0.2525328 -0.37820634 0.18498321 0.12026595
0000f0 23 ad 00 3e a6 76 03 3f 2b d7 48 3d 10 3d b1 be
       0.12566046 0.5135292 0.049033325 -0.346169
000100 36 ed 13 be 26 3c 9e bd a7 80 80 3e 73 06 bb bd
       -0.14445958 -0.07726316 0.25098154 -0.091320895
000110 28 0f 1d 3e 84 0c 60 be 65 0c c0 3e 8c 76 07 be
       0.15337813 -0.21879774 0.37509456 -0.13228816
000120 51 74 bb 3e 56 10 af 3e bf 6a 95 3d 57 d7 9a be
       0.3661218 0.3419215 0.07295751 -0.30242416
000130 80 a3 e6 3e 41 f2 b1 3b 90 0c 64 3b e1 13 18 be
       0.45046616 0.0054304902 0.0034797527 -0.14851333
000140 57 ca 4d 3f 86 e4 6e 3e 26 45 04 be 7b 6a 09 3d
       0.8038687 0.23329362 -0.12917003 0.033548813
000150 57 e2 5c be 6a 9f 65 bc ff 8e a9 be 2b e3 16 3e
       -0.21570717 -0.014015058 -0.3311691 0.14735095
000160 b0 6c 2b be 36 76 52 3e d7 95 48 bd 92 c6 24 3e
       -0.1674068 0.20552906 -0.048971023 0.16091374
000170 7a f4 dd 3e 2a de 47 3e 2e b7 ed be c2 d6 0f be
       0.43350583 0.19518343 -0.46428818 -0.14046767
000180 e3 3f a0 3d 94 39 16 3e af ae d9 bd 5a 3a 7e 3e
       0.078246854 0.14670402 -0.106290214 0.24826947
000190 58 02 fa 3e 9b 83 9f 3c d9 82 27 be 00 7b b7 3a
       0.48829913 0.019471934 -0.16358508 0.0013998449
0001a0 d1 af 08 3f db 39 bb be 4b 3a 56 3e 36 22 6f 3a
       0.53393275 -0.36567578 0.20920675 0.00091222243
0001b0 ff d4 df bd 9e c7 19 be ed 08 40 bd fe 85 a5 3c
       -0.10929298 -0.15017554 -0.046883512 0.020205494
0001c0 48 84 32 be b5 7f fd 3e 8a 42 fd bc 4e 33 bf 3e
       -0.17433274 0.49511495 -0.030915517 0.3734383
0001d0 95 ab c5 3c 43 6a 0c 3f 6d 2e 30 3d cd 41 91 bc
       0.024129668 0.5484964 0.043013025 -0.017731572
0001e0 2f c6 02 3e ee 4b 8b be fc 04 44 3e a0 dd 48 3e
       0.12770914 -0.27206367 0.19142526 0.19615793
0001f0 ee ee ab bd a1 42 0e be 89 da 1c be 5f a2 a1 bc
       -0.083951816 -0.13892604 -0.1531774 -0.019730745
000200 bb 6a cf bc ef db 10 3e 51 e8 2a be 6d 34 d5 3d
       -0.025319448 0.14146398 -0.16690184 0.1041039
000210 75 5d e8 3d ff fe 86 3e ba 38 c3 bc 1a 86 87 bd
       0.113459505 0.26366422 -0.02383076 -0.06617375
000220 13 76 54 3d c3 d0 c8 bd f0 de 49 3d 72 32 ec bd
       0.051870417 -0.09805443 0.049284875 -0.11533059
000230 42 81 5b 3e 2f b2 23 3e 78 59 be 3e 28 5c f0 3d
       0.21436027 0.1598594 0.37177634 0.117363274
000240 29 37 73 bc 62 5b 37 be a1 83 2d 3e 91 fd d6 bd
       -0.014844694 -0.17905954 0.16944744 -0.10497583
000250 6c be 80 3b cb b5 75 3e 1c b6 2d 3e 6d 61 0e 3e
       0.00392895 0.2399513 0.16964 0.13904352
000260 b0 a7 81 3e ef 70 d9 3e 43 5d e3 bd 32 11 2a 3e
       0.25323248 0.42468974 -0.11101773 0.16608122
000270 c1 6e 4c be 40 d6 92 3c f9 28 39 be 11 5c 2a be
       -0.19964124 0.017924428 -0.18082036 -0.16636683
000280 33 d5 ae bd e8 63 bb 3d 55 2c 85 be dc be 25 3e
       -0.08536758 0.09149915 -0.26010385 0.16186088
000290 e4 67 1a 3e fc a6 69 be 1e 84 01 3e 26 0e 95 3e
       0.15078694 -0.22817606 0.12648055 0.29112357
0002a0 9c 28 43 be 5c f6 67 be 50 f4 ad bd b8 d8 5e 3d
       -0.1905846 -0.22652572 -0.084938645 0.054405898
0002b0 36 cb 28 be 55 8e b9 3e 35 07 da bd 15 1b 03 bf
       -0.16483769 0.36241403 -0.10645906 -0.512132
0002c0 95 77 a3 3e 15 d3 36 be ca ca 4f bd f3 c3 a9 bd
       0.3192717 -0.17853959 -0.050730504 -0.082893275
0002d0 59 24 05 bf 3e 81 d2 3c 5a dd e8 bd 95 44 91 3d
       -0.5200859 0.025696393 -0.113703445 0.07093159
0002e0 4b 0a d7 bd 98 bc 4a bd 7b ea 87 bd ff 3d 88 3e
       -0.1050001 -0.049496263 -0.066365205 0.266098
0002f0 38 90 29 3e 41 10 e6 3c 82 95 23 3d dd 4b 8f be
       0.16558921 0.028083922 0.039937504 -0.27987567
000300 8a 90 83 be e9 65 b8 3d 99 6e 92 be 54 5a 83 bd
       -0.25696212 0.09003813 -0.28600004 -0.06413713
000310 15 d9 3b 3e d3 76 22 3e 9a d8 94 3e 7d 5b 16 3e
       0.18344529 0.1586564 0.29071504 0.14683338
000320 6c 85 62 3e 7b de 80 3d 81 2a 01 3e 91 ec 8e be
       0.22121209 0.06292435 0.1261387 -0.2791486
000330 39 59 ea 3d 8f b6 8e bc 10 c9 42 3e 26 6b 05 be
       0.11442799 -0.017421035 0.19022012 -0.13029155
000340 49 c3 8c 3e e6 f3 42 be ec 8b 85 3e fb 58 97 bd
       0.2749274 -0.19038352 0.26083314 -0.073900186
000350 32 0c 84 bd f2 2c a5 bc 9c a8 ea 3d 3f e4 41 3e
       -0.064476386 -0.020163033 0.11457941 0.18934725
000360 ab 5a 74 bc c6 f6 80 3e 65 73 9e be 3a 79 32 3e
       -0.014914195 0.25188273 -0.30947414 0.17429057
000370 20 fb 29 3e d6 e0 23 be 56 04 bf 3e 64 04 57 3d
       0.16599703 -0.16003737 0.37307996 0.05249442
000380 b5 52 85 3d f8 34 35 3c 8f 41 a5 be e0 f0 35 3d
       0.06509916 0.011059992 -0.3227658 0.04441917
000390 e7 24 7e bd 23 c6 24 3e e3 ab cb be b4 30 85 be
       -0.06204691 0.16091208 -0.39779577 -0.2601372
0003a0 aa 84 f1 3c 8d 28 b4 bd d7 70 3a 3b 27 3d d2 be
       0.029482204 -0.08796797 0.0028448605 -0.4106228
0003b0 69 e4 e8 3d ae e9 bb 3c 8f 50 6e 3d 5c 71 24 39
       0.11371691 0.022938576 0.058182295 0.00015682488
0003c0 a4 c8 9e be 02 a8 b1 bd e7 4f e8 3b f9 fa c4 3d
       -0.31012452 -0.08674623 0.007089603 0.09618182
0003d0 1c 6e a2 bc 6e f9 d9 bd 9a 06 51 3c 23 eb 80 bb
       -0.019827895 -0.10643278 0.012757922 -0.0039342805
0003e0 e0 b5 3b be eb 92 49 bd df ed cd 3c 64 4b 47 3e
       -0.18331099 -0.049212378 0.02513784 0.19462353
0003f0 19 d3 2a be 72 ea 2e 3e 6f c3 01 be b5 b8 a2 bc
       -0.1668209 0.17081621 -0.12672208 -0.019863466

fc2.bias f4 [64]
000000 0f b8 06 3c 6c 16 60 3d ee 3e 5f bd e1 92 0e bc
       0.008222594 0.054708883 -0.054503374 -0.008702011
000010 96 ab 0f be bb 40 b6 bc 03 4d 15 3d 27 66 90 bd
       -0.14030299 -0.022247663 0.036450397 -0.07050734
000020 12 4e b2 3c 72 7a b3 3c 22 f2 ba bd 24 f3 ce bb
       0.021765742 0.021908972 -0.091282144 -0.0063156057
000030 f7 f1 8e bd 50 a9 87 3d 41 1e c7 bd 71 60 cc bc
       -0.06979745 0.06624091 -0.09722567 -0.02494833
000040 e5 1c 1a bd 1e c7 83 3d e5 31 b8 3c 5c 22 38 3d
       -0.037625212 0.06434463 0.022484729 0.044954643
000050 ee cf 5a 3c 7b a6 bc bd 23 59 34 bd 20 46 4e 3d
       0.013355238 -0.09211441 -0.04403032 0.050359845
000060 f1 1b 73 3d ed 8f 4b bc 8c 12 f1 3d 8b 6f 35 3e
       0.05935282 -0.012424451 0.11771116 0.17718332
000070 05 14 6e 3d c4 d9 78 bc db ef 6e bd 92 fb f9 bd
       0.05812456 -0.015188638 -0.058334213 -0.12206186
000080 7b 32 b7 bc 7d be 9c 3d 2e b7 68 bc 08 c4 ad bc
       -0.022362938 0.0765352 -0.01420383 -0.021211639
000090 24 c5 aa 3c 68 6b a3 3c 5c f1 09 3e 56 d3 93 3b
       0.020845957 0.019948676 0.13470978 0.004511277
0000a0 d7 31 80 bd 34 0f 28 3b 93 5f f7 bd 8d ff 86 bd
       -0.06259506 0.0025643827 -0.12078776 -0.06591711
0000b0 c2 d3 e3 bc 87 d8 13 3e 86 5f f8 bd 74 29 c6 3c
       -0.027810935 0.14438067 -0.12127595 0.024189688
0000c0 cd d3 20 bd da e6 48 3d bc 41 42 3e fc 75 8c bc
       -0.03926449 0.049048282 0.18970388 -0.017146103
0000d0 34 aa 05 3e 8f 53 29 3d a0 6d 69 3d 21 b0 bf 3c
       0.13053209 0.041339453 0.056989312 0.023399414
0000e0 9c 81 d9 bc 0d 80 9b 3d 02 48 c0 bd f9 5f bd 3b
       -0.02655106 0.07592783 -0.093887344 0.005779263
0000f0 1f 6b e9 3b e7 4f 73 3e 65 9e 50 bc 25 97 9d 3d
       0.0071233655 0.23760949 -0.012733077 0.07694844

policy_head.weight f4 [110, 64]
000000 05 9b 56 3d e7 2d 09 be b7 d6 ef 3e 19 62 5f be
       0.052393932 -0.13396417 0.46843502 -0.21814765
000010 2f e7 7a 3c d6 d8 0d bf a3 cd ad bd ea 46 2c 3e
       0.0153139075 -0.5540899 -0.08486488 0.16823927
000020 15 8a 41 3f df 26 d4 be c7 ce 02 be 82 c6 c2 3d
       0.7560132 -0.41435906 -0.12774192 0.095105186
000030 9f 67 b9 bd fe 99 2e 3d 6b 9b d7 3c 71 00 56 be
       -0.09052967 0.042627327 0.026319226 -0.20898606
000040 fa c1 e9 3c a6 f3 fa bd 6f a6 74 3e de 91 0f bf
       0.028534878 -0.122535035 0.23891614 -0.5608195
000050 40 ff d4 3e 6e b1 09 bd 3a 88 85 3e 22 05 1d be
       0.4160099 -0.033616476 0.26080495 -0.1533399
000060 d5 e0 e9 bd 4c 10 af be 88 ca 6e 3e 5a 2b d8 3e
       -0.114198364 -0.3419212 0.23319447 0.42220575
000070 1a aa b7 be 27 9f 0b 3d 20 7c 2c bb ec 8b dc 3e
       -0.35871965 0.034087326 -0.0026319101 0.43075502
000080 d0 c4 35 3f bd 7a d4 3e 11 77 ae 3c ba c3 d0 3f
       0.7100344 0.41499892 0.02129701 1.6309731
000090 47 c3 85 3e f1 ec 28 3d a8 ef 18 be f3 06 0d 3f
       0.26125547 0.04124159 -0.14935172 0.5508873
0000a0 31 e7 63 3e 75 8f ff bd 36 c1 ab 3b 3b 17 01 bf
       0.22256161 -0.12478534 0.0052415384 -0.5042607
0000b0 52 e0 1b bf 30 44 07 3f f4 73 5d 3e 03 b7 bc bd
       -0.6088916 0.5283842 0.21626264 -0.09214594
0000c0 da 5d 32 3e 7c d5 1a 3f fa 22 a1 3e a6 ea 13 3e
       0.17418614 0.60482 0.31471997 0.1444498
0000d0 4e f8 66 bd a8 d8 94 be 5c 4f 88 be 3d c4 45 3f
       -0.056389146 -0.29071546 -0.26623046 0.7725256
0000e0 5d f4 56 3d 2b de e0 be 31 45 73 3e fe a4 26 3f
       0.052479137 -0.439195 0.23756863 0.6509551
0000f0 89 dd 3f be d9 cc 31 3e fe 56 83 3e 40 20 0d 3e
       -0.18736853 0.173633 0.25652307 0.13781834
000100 14 22 be 3e b3 57 d0 bd fe d8 a3 3e cd 9f 32 be
       0.37135375 -0.10172977 0.3200149 -0.17443772
000110 8e 92 9b bd 05 9f 6a bf 6c c4 d8 3d ad 5a 77 3e
       -0.075963125 -0.91648895 0.105843395 0.24155684
000120 2c 0a 20 3f 3e 22 48 bf f8 7d c2 b9 6e e8 b9 3d
       0.6251552 -0.7817725 -0.00037096418 0.090775356
000130 40 9b 08 3d 15 b9 09 bd ea 46 ac bd 2d 54 d2 be
       0.033351183 -0.033623774 -0.08411963 -0.41079846
000140 c6 4a 11 3d 8c 3d 20 bf f9 22 c7 3e 8f 71 8d bd
       0.0354717 -0.62593913 0.3889387 -0.06906425
000150 d6 df 84 3e 23 c7 6e 3c 49 0e b4 3e 79 e3 9b be
       0.25952023 0.014573845 0.3516715 -0.30446985
000160 49 01 5f bd cf a7 1f bd c8 f0 c1 3e ab c4 86 3e
       -0.054444585 -0.038978394 0.37879014 0.2632192
000170 d1 7f 10 be c4 2c f8 3d 58 96 76 bc 41 0d 91 3c
       -0.14111258 0.12117913 -0.015050493 0.017706515
000180 1a 51 ed 3e 43 18 ac 3e 1d 62 8d 3e 3b 1b 78 3f
       0.46350938 0.3361226 0.27613917 0.9691655
000190 41 70 8b 3e 77 f9 e1 bd d9 a2 03 be d8 d2 b9 bd
       0.2723408 -0.1103391 -0.1285509 -0.090734184
0001a0 fd 75 83 3e 25 8f f7 bd 15 9f 89 3c 26 f4 be be
       0.25675955 -0.120878495 0.016799489 -0.37295645
0001b0 bd 89 2a bf 22 6e e2 3e eb 68 ca 3d e4 33 8d 3e
       -0.6661642 0.4422465 0.09883293 0.27578652
0001c0 86 b9 e6 3d e2 b3 91 3d f3 22 ec 3e 6e 6a 7d 3e
       0.112658545 0.07114388 0.46120414 0.24747631
0001d0 c7 c5 90 be e8 28 9c be 23 64 dc be c5 7a b5 3e
       -0.28275892 -0.3049996 -0.43045148 0.35445228
0001e0 2f 93 0e bd 6b da 41 3d 8a e9 47 3e 29 23 d7 3e
       -0.034808334 0.04732744 0.19522682 0.42019013
0001f0 5d f7 36 be 44 c1 99 3d 7a 7f c1 3e c0 01 49 3d
       -0.17867799 0.075075656 0.3779257 0.049073935
000200 f2 f7 8e 3e 02 b4 b3 3e c3 57 e8 3e 56 61 84 bc
       0.27923542 0.35098273 0.45379457 -0.016159695
000210 56 52 fe 3c 28 09 18 3e 38 03 37 3e b4 90 c8 3e
       0.03104512 0.14847243 0.17872322 0.391729
000220 27 6c 0b bc 23 36 d3 3c 71 b0 61 3e fc bf bd bd
       -0.008509672 0.02578265 0.22039963 -0.09265134
000230 3b 36 20 3d 3f 6e e8 3d 6d e1 bc 3e 7a 6b 9a 3c
       0.03911422 0.11349153 0.36890736 0.018850077
000240 60 e1 ae 3e 45 b1 62 be f1 a0 6e be e2 5b 47 3e
       0.34156322 -0.22137935 -0.23303582 0.19468644
000250 3e 2d 5c 3e 32 76 0f bd 0f 42 90 3e 8f d6 79 bd
       0.21501634 -0.03502483 0.281754 -0.060995635
000260 83 e8 75 3e 28 52 60 3e eb 1e aa be 8d cd c9 be
       0.24014477 0.2190634 -0.33226714 -0.39414635
000270 bc be 0c be f6 38 c6 3d ff 48 ce bd 35 55 41 bf
       -0.13744634 0.09678833 -0.10072517 -0.7552064
000280 ee 7f 2f bf 83 16 41 bd 99 ab ed be 8d 0d 30 be
       -0.6855458 -0.04714061 -0.4641998 -0.17192669
000290 24 de 27 3e 20 83 9b 3e 3e ff f1 be e3 a1 87 be
       0.16393334 0.30373478 -0.47265047 -0.26490697
0002a0 cc 01 9d 3e 68 54 46 bd e9 90 b3 3e c6 cf 46 3e
       0.30665433 -0.04842034 0.35071495 0.19415197
0002b0 bd 0c 61 3c 0f f7 6c 3e d4 0c 60 3e 7b 52 c6 be
       0.013735947 0.2314112 0.21879894 -0.38734803
0002c0 a5 ad 87 3e 2a f9 b8 be 55 5e 16 bf ad 18 30 bd
       0.26499668 -0.36127597 -0.5873769 -0.042992283
0002d0 80 6b 67 bc a8 db 6d 3d 25 39 69 be a9 9c ca be
       -0.014124751 0.05807081 -0.22775705 -0.39572647
0002e0 2d 00 8c bd fe 71 96 3d dc 26 d9 3e d9 35 70 3d
       -0.06835971 0.07345961 0.4241246 0.058645103
0002f0 b0 c1 61 3e bd c1 b4 be 08 d4 95 3e 23 f1 03 be
       0.22046542 -0.3530406 0.2926333 -0.12884955
000300 ba 6a 19 3e 02 61 82 bd b5 29 a0 3e de 49 67 3e
       0.14982119 -0.06366159 0.3128182 0.22586772
000310 11 ce a6 3e b4 d7 fd 3d 31 e4 50 3d 6e 60 a5 3e
       0.3257909 0.12394658 0.05099887 0.32300133
000320 e8 e9 d5 be 40 97 1c bd 35 62 ac 3e 1c 8e 50 bd
       -0.4178002 -0.03823018 0.33668676 -0.050916776
000330 16 94 20 bd b6 f2 97 bd 66 f3 5c 3e 6a d0 9a 3e
       -0.039203726 -0.0741934 0.21577224 0.30237132
000340 46 c6 29 3e 7f fb b7 3e 9d d6 a4 3e cd 7a 9a bd
       0.16579542 0.35934064 0.32194987 -0.07542954
000350 6a 38 6c 3e ed f9 d5 bc 1d 38 10 3e 5b 6c 04 bf
       0.23068395 -0.02612015 0.14083906 -0.5172784
000360 79 25 82 3e 27 2f 47 3d ff c8 55 bf f2 5d df bd
       0.25419214 0.048628952 -0.8350982 -0.109065905
000370 32 f6 7c 3e e5 c2 1d 3d b3 c5 ff bd 9f 94 ba 3e
       0.24703291 0.038515944 -0.1248888 0.36441514
000380 65 67 f0 3d 79 82 72 be e6 ae a7 3e d3 ee 18 be
       0.11738471 -0.23682584 0.32750624 -0.14934854
000390 3c 5d 12 3e 1a 5f 24 bc c5 9d e5 be 54 82 cc be
       0.14293379 -0.01003244 -0.4484693 -0.39943182
0003a0 0e c1 2d 3e 21 5d 35 bc 7a bc d1 3d ed da 6c bd
       0.16968176 -0.011069567 0.10241027 -0.05782597
0003b0 0d 20 22 3e d9 4d 02 bf 43 79 88 3e 9d 35 95 bd
       0.15832539 -0.50900036 0.26655015 -0.072856165
0003c0 3e 95 91 3e ec c8 14 bf 17 e6 07 bf 67 38 3c 3e
       0.28434175 -0.5811908 -0.53085464 0.18380891
0003d0 dc f0 fb be 81 8f 22 3e 79 a4 af 3e 2f db 89 be
       -0.492072 0.15875055 0.3430517 -0.26925036
0003e0 4a cb ad 3d 0f 5d 6b 3e a7 82 a0 3e 06 68 3b 3e
       0.0848604 0.22984718 0.3134968 0.183014
0003f0 0d 35 07 3e 72 59 35 bf 03 bd 1d be 89 e1 0e bf
       0.13203831 -0.7083961 -0.15404133 -0.5581289

policy_head.bias f4 [110]
000000 9b 81 bd be 09 5a 3a bd ed c6 9e bd 5e cf dc 3d
       -0.37012944 -0.04549602 -0.07752786 0.1078174
000010 7a 08 bb be 9b 65 c6 be 71 85 ea 3d 25 ce bc 3d
       -0.36529905 -0.38749394 0.11451233 0.092190064
000020 19 dc 14 3e 20 f6 49 bc 29 7d e6 3a 1c 8a a4 bb
       0.14537086 -0.012326747 0.0017584908 -0.0050213467
000030 b1 d8 18 3e 78 a1 ff 3c d0 96 61 3e 6e 41 12 3e
       0.14926411 0.031204924 0.22030187 0.14282772
000040 68 d5 e4 3d 09 f5 14 3e 10 ce 88 3e 46 49 7d 3e
       0.111735165 0.14546598 0.26719713 0.24734983
000050 c5 ff dd 3d 9f 95 4b bd f1 81 1d bc b1 42 4d 3d
       0.108398 -0.049703237 -0.0096135 0.05011243
000060 80 ff 1e 3d 93 d2 6f 3e ce c4 49 3e d6 ce 0a 3d
       0.038817883 0.23420171 0.19703981 0.03388866
000070 9b d4 07 3e f4 23 83 3b 21 e6 a4 3c ea 3f a6 3c
       0.13264696 0.0040020887 0.020129265 0.020294148
000080 9d d5 04 3d f9 4a 18 3e 0e 0f 0c 3d 70 29 6a 3e
       0.03243028 0.1487235 0.034194045 0.2286737
000090 05 9b 86 3d 7a 42 d0 bc e6 b7 b3 3d 03 12 30 3e
       0.065725364 -0.025422323 0.0877531 0.17194371
0000a0 5f d1 9e bc 7d 67 3c 3e 99 a8 f6 3d 36 29 85 3d
       -0.019386945 0.18398853 0.12043876 0.06502001
0000b0 ad 31 7d 3d 0b 1a 25 3d c7 46 79 3e 43 20 24 3e
       0.061814953 0.04030804 0.24343406 0.16027932
0000c0 aa a7 c0 3d 07 a1 62 3e 5b 45 b0 bd c5 f7 10 3e
       0.094069794 0.2213174 -0.086069785 0.14157017
0000d0 22 52 26 3e b2 9f 9e 3d 25 9c c4 3d 3d 1d b1 3d
       0.16242269 0.07745303 0.09600095 0.08648155
0000e0 aa f9 53 3e be 87 41 3e 52 e3 9d be ac 03 b6 be
       0.20700708 0.18899438 -0.30837494 -0.35549676
0000f0 5c 5d cd be 31 54 bc be 1c c6 a2 be db 89 8b be
       -0.4011029 -0.36782983 -0.3179177 -0.27253613
000100 4e 6f 9b be 49 d6 b6 be 0e 10 7e be 13 18 6b be
       -0.30358356 -0.35710362 -0.24810812 -0.22958402
000110 86 55 98 be 88 af 94 be cd 1c 73 be c7 9d d2 be
       -0.2975275 -0.2904017 -0.23741455 -0.41136
000120 dc 09 8d be 93 96 c6 be 2e 6f bf be b0 7d bb be
       -0.27546585 -0.38786754 -0.3738951 -0.3661933
000130 d3 11 f7 be ff 99 92 be 62 2e e3 be de 2d a6 be
       -0.48255786 -0.28633115 -0.44371325 -0.3245687
000140 70 22 de be eb a7 a3 be f9 39 df be 4d 15 90 be
       -0.4338565 -0.3196405 -0.43598917 -0.2814125
000150 5e ba ea be 4d 46 95 be 76 a9 99 be 4c d7 d8 be
       -0.45845312 -0.29155198 -0.300121 -0.42351758
000160 83 94 ae be 18 17 ae be c4 9a d5 be a1 59 d5 be
       -0.3409768 -0.34001994 -0.4171964 -0.41669944
000170 82 af b2 be 28 a7 98 be 6b 1f e2 be 14 5a 98 be
       -0.34899527 -0.2981503 -0.44164595 -0.29756224
000180 89 e5 ac be 49 3a c3 be bd 8b e9 be 1e 22 9d be
       -0.3376887 -0.38130406 -0.45614424 -0.30690092
000190 b5 eb 82 be c0 08 d8 be 58 0a a5 be bb 79 ae be
       -0.25570455 -0.42194176 -0.32234454 -0.34077248
0001a0 35 c1 ef be b7 79 f1 be 8f 0f ce be 8e e3 d2 be
       -0.46827093 -0.47163174 -0.40246245 -0.41189235
0001b0 9f de eb be 7a a8 6b be
       -0.46068284 -0.23013487

value_head.weight f4 [1, 64]
000000 f2 a0 b5 3b 75 23 99 3b f0 0b 8a bc f4 3c 1f 3d
       0.005542868 0.0046734163 -0.016851395 0.03887649
000010 19 70 8f bb 7c 14 9b 3d c3 b7 54 b8 3a db 29 bb
       -0.0043773768 0.075722665 -5.071588e-05 -0.0025918023
000020 10 f0 3e be 60 10 80 3d cf a1 00 3c 47 cc 4f bd
       -0.18646264 0.06253123 0.007851078 -0.050731923
000030 4e 84 d4 3d 82 b3 ae bd 7d 71 db 3b ea c0 47 3d
       0.103767976 -0.08530332 0.0066968785 0.04876796
000040 d8 72 94 bc 14 78 e0 3c 38 c5 03 bd 73 74 c4 bb
       -0.018121168 0.027401008 -0.032170504 -0.005995327
000050 a5 d9 23 bc 18 6d af bd 30 52 10 bd f7 c2 d4 3c
       -0.010000621 -0.0856573 -0.03523463 0.025971873
000060 96 55 ae 3b 5d bc 66 3c 74 1e 23 bd f8 de bf bd
       0.005320261 0.014082995 -0.039823964 -0.093687
000070 a4 7d 5a 3c b7 a3 b3 bd 00 cf cf bd 4d b6 dd 3c
       0.013335619 -0.087714605 -0.10146904 0.027064467
000080 09 6d f3 bc 29 36 c8 be 9f d8 21 bd d8 bc 95 be
       -0.029715078 -0.3910382 -0.039513227 -0.2924564
000090 b5 ba d5 3b 6b df fa 3b 0f ea 8d 3d dc 53 ad bc
       0.0065225014 0.007656028 0.06929409 -0.021158151
0000a0 dc 15 aa bb 0b 2e d0 bd fd 17 c0 ba 8f b6 31 3c
       -0.005190594 -0.10165032 -0.0014655587 0.010846748
0000b0 81 82 40 3d d1 d8 4b bd 28 9a 4b 3a e0 9f 3a bc
       0.04699946 -0.04976732 0.00077668065 -0.011390656
0000c0 4e b5 b7 bb 78 65 8d bb 9d 15 4c bd 18 27 df bb
       -0.00560633 -0.0043150745 -0.0498253 -0.0068100803
0000d0 d8 77 c1 3c e9 0e b8 3a b9 e8 71 3d 34 3d a7 be
       0.023616716 0.001404253 0.059059832 -0.32663882
0000e0 c0 2c 06 bc 9f c4 50 3c da df 54 bc 18 e6 70 bc
       -0.00818938 0.012742191 -0.0129928235 -0.014703296
0000f0 fd 7a 42 3c 9e a0 5c 3c 6a a2 6f 3c ae 9b d1 3b
       0.011870143 0.0134660285 0.014626125 0.0063967323

exp_avg f4 [128, 260]
000000 c8 dd 9f 39 be 43 eb 38 d2 5e 0b 39 7f 5a 58 39
       0.00030492083 0.00011218291 0.00013291396 0.00020633078
000010 c4 3b b8 38 8e f8 d7 39 1f 07 f8 b7 76 55 d4 38
       8.784936e-05 0.00041193183 -2.956722e-05 0.00010124866
000020 f0 3c 72 39 ea 0a 53 b7 f1 10 aa 39 3f 1e 5e 3a
       0.0002310162 -1.2579121e-05 0.0003243755 0.0008473135
000030 7f 6e 04 39 c4 9c e1 b7 a3 61 58 39 53 30 07 3a
       0.00012629664 -2.689509e-05 0.00020635738 0.0005157042
000040 46 f4 93 39 d4 be 76 b7 a3 71 48 b9 9f 36 3e 39
       0.00028220023 -1.4707173e-05 -0.0001911582 0.0001814016
000050 ea e2 1c b9 8b c0 28 38 37 53 ae b7 61 30 13 3a
       -0.00014961851 4.023364e-05 -2.0781166e-05 0.0005614814
000060 6c ec 70 3a d0 c2 1b 3a c6 bb 01 39 c2 d2 85 39
       0.0009190503 0.000594181 0.0001237235 0.00025524764
000070 b2 a2 be b8 04 8e e3 39 c7 20 e8 b4 a7 cb 0b 39
       -9.0902104e-05 0.00043402624 -4.3237216e-07 0.0001333194
000080 cf 05 26 39 49 2a 61 37 d6 15 9f 38 2d 4a 53 39
       0.00015833158 1.342089e-05 7.585778e-05 0.0002015016
000090 0a 22 84 b6 56 6e 4e 39 29 19 ea 39 80 fe 73 39
       -3.937869e-06 0.00019686794 0.00044650704 0.00023269095
0000a0 34 d4 23 3a f0 70 25 3a 52 95 dd 39 e8 30 07 39
       0.0006249577 0.00063110795 0.00042263657 0.00012892822
0000b0 c8 9c 03 38 e3 c9 25 39 80 66 be 38 4e 02 c8 38
       3.1378848e-05 0.00015810835 9.078998e-05 9.5371724e-05
0000c0 65 57 b6 38 ee 4e fa 38 c7 c7 89 39 6d da 6b 39
       8.694715e-05 0.00011935631 0.00026279522 0.00022492716
0000d0 ef 18 3c 9f 04 00 00 80 e7 93 6b 10 18 7c 15 38
       -3.9831173e-20 -6e-45 4.6459518e-29 3.563994e-05
0000e0 de 00 3b b9 5a 60 78 36 5e f2 aa 38 95 1f fd 38
       -0.00017834033 3.7010964e-06 8.151376e-05 0.00012069863
0000f0 dd f4 c9 b7 eb b9 8f b8 7f a3 0a b8 72 a4 1a 34
       -2.407509e-05 -6.853401e-05 -3.305403e-05 1.4402193e-07
000100 e7 e8 2d 39 e1 ff 2f 9d 89 2b 86 37 07 6b f9 b4
       0.00016585329 -2.3293343e-21 1.5994317e-05 -4.6457737e-07
000110 23 cf d6 b7 6e 02 cd 38 47 13 59 38 2e 21 01 b6
       -2.5607244e-05 9.775614e-05 5.1754785e-05 -1.924181e-06
000120 54 a5 98 b7 28 01 27 39 e0 ce df 37 bc 91 d8 38
       -1.8196799e-05 0.00015926792 2.6680005e-05 0.00010326828
000130 52 c0 b8 b8 c2 c8 c9 b7 04 00 00 80 13 94 1b 35
       -8.809626e-05 -2.4054552e-05 -6e-45 5.7957476e-07
000140 b1 ad b2 0f 5c 13 a7 b5 5a d6 b9 35 7f c5 bd 37
       1.7619059e-29 -1.2448104e-06 1.3845959e-06 2.2622522e-05
000150 cc 78 20 b7 ec 8d 89 38 f8 e2 84 b7 cc d7 fb b8
       -9.564868e-06 6.559104e-05 -1.5841317e-05 -0.00012008808
000160 68 8b 07 b8 61 49 19 39 33 a4 28 38 04 00 00 00
       -3.231634e-05 0.00014618553 4.0207244e-05 6e-45
000170 3f d8 2d a7 e6 83 56 1e 38 06 5b 37 b0 e8 50 37
       -2.41258e-15 1.1356342e-20 1.3054865e-05 1.2451943e-05
000180 bb 50 b5 39 a8 60 3c 38 ef 81 07 38 40 2e 1f b8
       0.0003458316 4.491271e-05 3.230752e-05 -3.7951628e-05
000190 61 c7 e2 b8 ae 65 9a 39 07 e1 fd b8 15 e0 82 38
       -0.00010813657 0.00029448926 -0.00012105895 6.2406216e-05
0001a0 55 d3 a7 2b 04 00 00 00 44 a3 d7 93 d4 cb 52 37
       1.192472e-12 6e-45 -5.4434623e-27 1.2564433e-05
0001b0 f4 3b 9e 39 d9 b3 f1 b8 0b 0c 17 3a 20 79 b4 39
       0.00030180777 -0.00011525275 0.00057619874 0.0003442252
0001c0 26 04 e0 b8 4d 1f 75 39 49 f2 16 39 d8 c5 2e 39
       -0.00010681925 0.00023376681 0.00014395373 0.00016667636
0001d0 92 ee 59 39 c3 97 7b 05 2f 64 f7 b5 38 d9 a3 37
       0.00020783607 1.18298375e-35 -1.8432091e-06 1.9532265e-05
0001e0 e8 b1 1b 3a bb 29 35 39 8d 40 11 38 dc 7c 0b 39
       0.0005939291 0.00017277051 3.463081e-05 0.00013302587
0001f0 91 8a c2 39 03 cb 17 39 1c 7f ba 39 43 fa 75 38
       0.00037105803 0.0001447611 0.00035571388 5.8645626e-05
000200 ee 25 01 39 94 b0 1e 39 89 01 00 00 35 3d 10 39
       0.00012316529 0.00015133835 5.51e-43 0.00013755712
000210 3c e1 c0 29 b5 6a 5c b8 b2 82 5b 39 ae 29 65 39
       8.565585e-14 -5.2551466e-05 0.00020934155 0.00021854669
000220 b9 d1 31 3a ab 33 d2 39 3a e7 9e 39 35 93 0d 38
       0.0006783265 0.00040092817 0.00030308386 3.3754117e-05
000230 33 e1 d8 39 14 37 0e 3a 9f d4 fa 39 04 00 00 80
       0.00041366517 0.00054250774 0.0004784213 -6e-45
000240 d7 51 99 9f cb 3d 40 2c 61 f2 4a 39 c6 94 e5 b8
       -6.493341e-20 2.7319143e-12 0.00019354514 -0.00010947282
000250 50 f8 d8 39 46 2d d7 39 33 6c d1 38 6e 6a 0a b8
       0.00041383738 0.00041041727 9.98605e-05 -3.3000884e-05
000260 41 d6 14 3a 15 f4 0e b8 c8 4a 2a 39 ec 82 d4 35
       0.0005677678 -3.4082757e-05 0.00016240322 1.5833334e-06
000270 1c 66 19 ab 04 00 00 00 80 7d 9e 9f 71 b3 86 2b
       -5.4498225e-13 6e-45 -6.7123225e-20 9.571078e-13
000280 e7 f2 16 3a e6 81 83 39 64 e1 df b7 ac 43 07 39
       0.0005758241 0.0002508305 -2.6688627e-05 0.00012899813
000290 8e c1 0f b9 5c 12 1b b8 7f a7 05 38 26 7a fd b5
       -0.00013709647 -3.697198e-05 3.1865664e-05 -1.8885519e-06
0002a0 03 b2 b2 38 63 34 c3 a9 24 c1 a8 a9 5c a4 ee 12
       8.520859e-05 -8.668827e-14 -7.494203e-14 1.5060429e-27
0002b0 82 e2 24 b9 e4 6f ce 37 06 9b f1 38 dd ba 78 38
       -0.0001572464 2.4609217e-05 0.00011520651 5.9301838e-05
0002c0 f7 66 19 39 77 05 91 37 07 bd d9 38 0b df db 92
       0.00014629574 1.7287892e-05 0.000103825754 -1.3875827e-27
0002d0 79 61 1f b8 10 c5 4d b4 04 00 00 00 c2 7d 13 b8
       -3.7999333e-05 -1.9163804e-07 6e-45 -3.5164652e-05
0002e0 14 68 23 9e 66 03 00 00 67 f1 df 38 12 ec 87 b8
       -8.650671e-21 1.219e-42 0.00010678433 -6.481273e-05
0002f0 14 a7 21 39 71 bf 51 38 0e 9f 8c 38 b1 7a 57 b8
       0.00015416398 5.0007777e-05 6.7053465e-05 -5.137426e-05
000300 4c 50 12 b8 7d 3b 01 38 4c d3 a1 38 04 00 00 80
       -3.4883895e-05 3.08114e-05 7.716435e-05 -6e-45
000310 d5 1e 22 38 2a 36 52 b8 5f ee 8b 04 01 a5 1f 39
       3.8652524e-05 -5.0118346e-05 3.2897652e-36 0.0001522489
000320 b0 b7 22 b9 e9 d8 27 39 92 76 89 39 9f 49 ad b7
       -0.00015517953 0.00016007166 0.00026219018 -2.065749e-05
000330 d4 2a 2c 38 ea d6 26 38 d7 dc 11 b5 4e 84 64 b8
       4.1047882e-05 3.977764e-05 -5.4338074e-07 -5.4482654e-05
000340 85 b2 3b 3a 8c 6c 6c 3a b3 c9 68 3a 29 01 49 3a
       0.00071600854 0.00090188603 0.0008880153 0.00076677144
000350 c2 54 71 39 5a 61 f5 39 67 bb db 39 dc c1 aa 39
       0.00023015126 0.00046802574 0.0004191056 0.00032569363
000360 5e a9 8a 3a 69 51 6d 3a 89 96 10 3a 8a 51 05 37
       0.001057904 0.00090529636 0.00055155955 7.946403e-06
000370 84 3b e3 39 5d 26 89 3a bd 1c 51 3a 87 d6 f5 39
       0.00043341157 0.0010463704 0.00079769996 0.00046889877
000380 4e e3 ab 39 6c be 41 3a 10 4c 84 3a ff 29 2a 3a
       0.00032785017 0.0007390741 0.0010093469 0.0006491243
000390 49 00 30 3a f2 1b 2d 3a 59 08 12 3a 57 fe 9b 39
       0.00067139097 0.00066035904 0.0005570702 0.00029753402
0003a0 08 cd db 38 2a 1b 9d 39 76 32 6b 3a 52 7d 2d 3a
       0.00010480924 0.00029965612 0.0008972058 0.00066181005
0003b0 df ba 91 3a 5e be 26 3a 9c 81 38 3a 9c 24 3a 3a
       0.0011118314 0.00063607644 0.0007038356 0.0007100792
0003c0 ea fa 66 38 d9 22 00 3a 3a b0 1a 3a 4f d3 7a 3a
       5.5069955e-05 0.0004888005 0.00059008936 0.00095682306
0003d0 7f 00 31 3a 39 e5 d6 38 27 45 b3 b7 c8 a1 4e 3a
       0.0006752088 0.00010247011 -2.1370664e-05 0.00078823837
0003e0 8c 56 bb 39 70 99 e5 39 fa 5d cd 39 e5 5a 5b 3a
       0.00035731902 0.00043792604 0.00039170665 0.00083677314
0003f0 ec 22 b5 39 e7 dd 81 39 91 72 0c 3a 7b 52 85 3a
       0.0003454903 0.00024770127 0.0005357648 0.0010171676

exp_avg_sq f4 [128, 260]
000000 80 dd 12 37 4c 1b 25 37 e0 8b 14 37 56 dd c4 36
       8.75385e-06 9.841122e-06 8.854055e-06 5.867022e-06
000010 cb ed 8c 35 25 61 75 36 df 61 70 36 e9 c0 c1 35
       1.050002e-06 3.656439e-06 3.5819755e-06 1.4435765e-06
000020 1b 45 fc 36 02 1f a8 36 33 41 a2 36 5d be 33 37
       7.51823e-06 5.0104e-06 4.8355664e-06 1.0713554e-05
000030 a6 c4 33 36 7e 02 10 37 a7 98 12 37 23 4f c2 36
       2.6787543e-06 8.583649e-06 8.73782e-06 5.7908633e-06
000040 d7 80 85 36 de 35 43 35 8e 65 2e 36 b5 83 30 36
       3.978708e-06 7.272155e-07 2.5987133e-06 2.6302707e-06
000050 59 57 62 36 60 ed 87 36 93 a0 4a 36 c5 5c c2 36
       3.3727467e-06 4.0509476e-06 3.0193812e-06 5.7924503e-06
000060 6b ef 64 36 a3 49 4c 37 fc 7a bf 36 c7 9c 9b 36
       3.4114007e-06 1.2176492e-05 5.706561e-06 4.6376113e-06
000070 c8 2f cf 36 f9 91 17 37 43 71 31 35 64 4c 55 36
       6.174643e-06 9.034288e-06 6.6102456e-07 3.1783939e-06
000080 c3 84 05 36 bd f2 8a 35 f7 d2 e7 35 97 77 80 36
       1.9895822e-06 1.0352447e-06 1.727224e-06 3.8286194e-06
000090 bb 50 98 36 f2 65 4a 36 b6 d0 46 36 86 fb 20 37
       4.5393513e-06 3.0159686e-06 2.9625785e-06 9.5953055e-06
0000a0 6a 69 c8 36 62 ea 0d 37 ae e8 c0 36 df 8d 40 36
       5.9727363e-06 8.458826e-06 5.7491334e-06 2.869281e-06
0000b0 60 27 c4 34 66 79 de 35 15 9d 40 36 25 e7 36 35
       3.6536494e-07 1.657562e-06 2.8701663e-06 6.8136643e-07
0000c0 32 1c 10 36 f5 7b f4 35 de fb 38 36 b4 3a f5 35
       2.1474084e-06 1.8215493e-06 2.7564743e-06 1.8271007e-06
0000d0 3d d2 4c 32 6f 37 db 28 0b fc 47 31 5d 26 83 33
       1.19221655e-08 2.4337925e-14 2.9101581e-09 6.107141e-08
0000e0 16 97 a0 34 33 fc 49 34 d7 37 bf 34 6b 47 bd 34
       2.9912252e-07 1.8811333e-07 3.561715e-07 3.5255957e-07
0000f0 81 27 c3 34 b5 39 cd 34 31 23 04 35 23 2d 9a 34
       3.6350323e-07 3.8226213e-07 4.922504e-07 2.8717577e-07
000100 55 c1 15 35 1e 49 a0 2f c5 9b 9c 31 c9 f9 de 30
       5.578816e-07 2.9155783e-10 4.5579065e-09 1.6223619e-09
000110 50 f8 e5 33 ee 88 6b 34 49 48 c7 34 30 18 e0 34
       1.0708811e-07 2.1935895e-07 3.7119233e-07 4.174085e-07
000120 ad 1a 87 36 94 cb bd 34 90 b5 15 35 6f 12 0f 35
       4.026419e-06 3.5352116e-07 5.5771034e-07 5.3298476e-07
000130 be 6d f3 34 90 b4 c5 34 bf 13 dd 2d 57 d0 58 31
       4.5342125e-07 3.6825486e-07 2.513356e-11 3.1550564e-09
000140 d8 62 a4 2f 9e d4 3c 32 f3 46 a8 34 73 91 20 35
       2.990166e-10 1.0991384e-08 3.134406e-07 5.98163e-07
000150 ee dd 1e 35 dc cb 10 35 0a 8e 55 35 7c 77 1a 35
       5.9182537e-07 5.3940835e-07 7.955538e-07 5.7543343e-07
000160 8d 37 37 35 2c 91 09 35 13 e7 0e 35 18 15 72 2b
       6.825365e-07 5.124773e-07 5.323538e-07 8.6004944e-13
000170 7f 8d 12 31 ee 04 81 30 e6 73 65 33 66 7d 37 34
       2.1326227e-09 9.387386e-10 5.3423626e-08 1.7088823e-07
000180 dd 61 cd 34 ec 9d d8 34 38 5f 99 34 9b 61 0a 35
       3.825543e-07 4.0348039e-07 2.8567752e-07 5.155104e-07
000190 2d ff 3c 35 06 da 2c 35 8f f1 2b 35 99 85 01 35
       7.040679e-07 6.439226e-07 6.405398e-07 4.8250655e-07
0001a0 e5 5b a7 34 f6 8b 71 32 36 98 3f 32 d7 0b 64 34
       3.1173036e-07 1.405987e-08 1.1152272e-08 2.1238462e-07
0001b0 79 33 49 36 1d b8 19 36 72 b6 70 36 3c 66 be 36
       2.9981295e-06 2.2905945e-06 3.5868984e-06 5.674343e-06
0001c0 8a 2d 8e 36 b7 96 65 36 30 1d fa 36 47 b4 32 36
       4.237231e-06 3.4211387e-06 7.4539785e-06 2.6629002e-06
0001d0 30 cc 2a 37 b0 21 5f 33 53 d4 ba 33 f9 fc 07 34
       1.0180331e-05 5.1951872e-08 8.6999215e-08 1.2664886e-07
0001e0 ed a7 dc 35 15 2a 8e 36 42 0a ec 36 e2 70 81 36
       1.644015e-06 4.2368288e-06 7.0345423e-06 3.857641e-06
0001f0 16 c1 89 36 f0 37 8c 36 fe 0a 1b 37 8c 8b 02 37
       4.1053963e-06 4.178837e-06 9.241279e-06 7.781095e-06
000200 ef 76 11 37 c4 57 0a 36 f7 47 79 2f e8 f2 10 35
       8.670365e-06 2.0614689e-06 2.2671985e-10 5.3997655e-07
000210 01 b7 16 32 43 25 95 34 4d 71 7b 36 63 9c 66 36
       8.772759e-09 2.7780524e-07 3.7467864e-06 3.43637e-06
000220 d9 97 a9 36 32 44 19 37 c6 a9 cd 36 ed b4 06 37
       5.05427e-06 9.135389e-06 6.1292403e-06 8.0291475e-06
000230 51 fc b6 36 4f 3a 28 37 3f aa 21 37 f5 88 4b 30
       5.453396e-06 1.0027156e-05 9.635986e-06 7.40456e-10
000240 c0 44 52 34 86 0c d4 33 b2 43 84 34 29 b0 14 36
       1.9582785e-07 9.874297e-08 2.463617e-07 2.2156257e-06
000250 ff 5b 02 37 f8 ca ae 36 a1 ba 95 36 3a bb 2d 37
       7.770023e-06 5.2092328e-06 4.4622725e-06 1.0355196e-05
000260 c1 4b ca 36 38 1b eb 36 44 c5 1a 37 a9 5f 20 37
       6.028888e-06 7.0067144e-06 9.225045e-06 9.559016e-06
000270 79 fc da 34 40 f9 98 31 dc 89 01 33 07 bc c0 32
       4.0789362e-07 4.4521187e-09 3.0160535e-08 2.2437247e-08
000280 13 75 02 36 e1 f2 20 35 dc 93 18 35 c1 aa 52 35
       1.9439656e-06 5.995808e-07 5.6839576e-07 7.8479576e-07
000290 f1 5b c9 34 5f 0f e1 33 29 39 c0 34 23 d1 b5 33
       3.7506064e-07 1.0480175e-07 3.5804376e-07 8.466511e-08
0002a0 bf 68 c1 34 dd 0b 0e 33 fa b0 b8 33 9b b9 f9 33
       3.6025264e-07 3.307274e-08 8.6003595e-08 1.16287275e-07
0002b0 c2 fe 8f 36 04 d6 be 36 e4 d3 b2 35 28 7c 2b 35
       4.29139e-06 5.687356e-06 1.3323702e-06 6.3883135e-07
0002c0 24 04 08 35 fb 55 ff 33 c2 1d ba 34 24 97 91 30
       5.0669973e-07 1.18900026e-07 3.4666851e-07 1.0593095e-09
0002d0 f9 d5 ba 34 24 b2 e8 33 c1 fd 26 2f bc 55 57 34
       3.4800885e-07 1.08357455e-07 1.5187764e-10 2.0054625e-07
0002e0 ce b2 3c 33 f0 cb 30 32 6c d6 da 35 fe 26 4f 35
       4.3934783e-08 1.0290918e-08 1.6304671e-06 7.717025e-07
0002f0 c7 c8 93 35 75 d5 6b 35 fb 2f 1f 35 6d ad f5 34
       1.1010787e-06 8.7854943e-07 5.9301937e-07 4.576099e-07
000300 7f 6d a8 34 29 09 52 34 92 7e 95 34 8b 5a 8d 30
       3.1372107e-07 1.9561107e-07 2.7845505e-07 1.0284834e-09
000310 22 bf 3c 34 27 12 85 34 bf ef c8 30 4f f5 7f 35
       1.7578398e-07 2.4786388e-07 1.4620055e-09 9.5351874e-07
000320 8e 35 1e 36 8a 09 97 36 5f af 9d 35 e2 e3 20 35
       2.3575008e-06 4.501261e-06 1.1748451e-06 5.993626e-07
000330 be fb c0 34 24 8d c8 34 ae 44 c5 34 da 9a f5 34
       3.5945953e-07 3.7355596e-07 3.674408e-07 4.5747475e-07
000340 b0 c4 4f 37 5a 68 4d 37 64 d7 5e 37 91 07 82 37
       1.2383956e-05 1.2243248e-05 1.3282381e-05 1.5500731e-05
000350 59 f2 7d 37 95 05 80 37 98 9c 59 37 ed 38 5b 37
       1.5136401e-05 1.5261388e-05 1.2970668e-05 1.3066671e-05
000360 66 e8 18 37 f6 0c 50 37 98 6c 0d 37 22 b2 f0 36
       9.1140155e-06 1.2400784e-05 8.429539e-06 7.1732948e-06
000370 ec 4d 06 37 ac 44 62 37 53 42 58 37 91 3e 7f 37
       8.005165e-06 1.3486639e-05 1.2890046e-05 1.5213752e-05
000380 16 b1 4a 37 cf 46 3c 37 60 34 38 37 0c b9 6e 37
       1.2081369e-05 1.122216e-05 1.0979449e-05 1.422899e-05
000390 b1 37 25 37 08 af 5a 37 09 2e 19 37 f4 93 02 37
       9.847733e-06 1.3034565e-05 9.130229e-06 7.783052e-06
0003a0 6f d9 11 37 5a 58 fb 36 63 2d 84 37 c4 ae 87 37
       8.693299e-06 7.4906684e-06 1.5756761e-05 1.6174636e-05
0003b0 db 0b 7b 37 a3 c9 51 37 a2 9a 7b 37 db 61 71 37
       1.4963526e-05 1.2504318e-05 1.4996769e-05 1.4387503e-05
0003c0 f3 03 4d 37 d5 93 2c 37 c7 d0 46 37 30 d2 1b 37
       1.2219872e-05 1.0286419e-05 1.1850329e-05 9.287658e-06
0003d0 9e b8 3b 37 f2 c3 07 37 9f d6 10 37 82 b1 56 37
       1.1189053e-05 8.092249e-06 8.633039e-06 1.2796723e-05
0003e0 25 08 7e 37 c5 d9 62 37 59 6a 83 37 6f da 84 37
       1.5141476e-05 1.3521353e-05 1.5665939e-05 1.5837342e-05
0003f0 43 cf 3b 37 b4 64 34 37 91 3c 4e 37 9b c0 27 37
       1.1194325e-05 1.0752283e-05 1.22926585e-05 9.99882e-06

exp_avg f4 [128]
000000 b4 d0 85 3a 12 76 52 3a f4 c1 97 3a fd ec a1 b9
       0.0010209293 0.0008028458 0.0011578188 -0.00030884883
000010 1e f7 9e b9 1a 33 25 b9 1c 84 ec b9 9c a4 a0 38
       -0.00030320225 -0.00015754663 -0.00045111857 7.6600554e-05
000020 74 79 cb 39 46 d7 3f 3a c3 b1 9f 3a 75 f8 a3 ba
       0.00038809667 0.000731815 0.0012183714 -0.0012509959
000030 f8 85 68 39 96 96 6e 3a 66 1b 3e 3a 24 17 cd ba
       0.00022175151 0.00091014185 0.00072520075 -0.0015647155
000040 af 9d 6c 39 d9 7a 52 ba f9 50 c0 3a 72 bf bf 38
       0.00022565456 -0.000802917 0.0014672569 9.143249e-05
000050 db 0e b0 3a 4d bf 58 3a 68 d1 87 37 8a 7e af 3a
       0.0013432162 0.0008268252 1.6190766e-05 0.0013389152
000060 23 e3 9c 3a 8a 4b ad 3a 92 8a a3 ba 37 08 69 b8
       0.0011969547 0.0013221365 -0.001247721 -5.555918e-05
000070 76 64 60 3a 3c b6 a6 39 04 00 00 00 b8 d3 74 ba
       0.0008559892 0.00031797762 6e-45 -0.000933941
000080 1f 4e c0 b8 6d 45 8a 39 96 e2 b0 b7 eb 03 86 ba
       -9.1698246e-05 0.00026373137 -2.1086347e-05 -0.0010224556
000090 3c 1a c8 b9 5b 1a 79 ba 4f 83 8e b9 2a 5b 6b ba
       -0.0003816652 -0.00095025235 -0.00027182183 -0.0008978123
0000a0 ff 5a d9 ba 85 6c d8 b9 90 a6 7a 3a 2b 23 55 b7
       -0.0016582905 -0.00041279584 0.0009561563 -1.27039775e-05
0000b0 0d fe 54 ba 0d 1a cd 3a 04 00 00 00 91 6b fb 35
       -0.0008125015 0.0015648023 6e-45 1.8732263e-06
0000c0 6a fb 99 b8 ba 17 09 3a 5c cf 9a 3a 8c 91 ba ba
       -7.342438e-05 0.0005229671 0.0011811065 -0.001423405
0000d0 1d 41 05 ba a0 a6 0c 3a bb d9 56 b8 bd e4 35 ba
       -0.000508325 0.0005365405 -5.1224353e-05 -0.0006938687
0000e0 79 12 80 ba 28 fd c1 ba 4f 62 83 3a cf 30 a8 3a
       -0.000977113 -0.0014800178 0.0010023805 0.0012831929
0000f0 a1 7a ab 39 c6 0e c6 3a 7a 36 24 bb 8b e7 1a ba
       0.00032707027 0.0015110604 -0.0025056885 -0.00059091364
000100 f3 90 16 3a b8 a2 09 b8 06 1d 6d 3a 19 55 ae b9
       0.0005743645 -3.281489e-05 0.00090451573 -0.0003325127
000110 e1 02 8e 39 85 fd 8c 3a b0 f2 34 3a 10 58 ac 3a
       0.00027086496 0.0010756707 0.00069026183 0.0013148803
000120 3f 93 c2 3a 38 3e f8 39 00 a6 3e 3a a5 2e 17 bb
       0.0014844908 0.00047348603 0.0007272661 -0.0023068574
000130 c5 c1 d4 3a ff 36 b7 b9 dd 8a 20 38 3f 2a ad 39
       0.0016232064 -0.00034945455 3.82763e-05 0.00033028607
000140 a7 dd 0f 3b 80 1f 15 ba 98 14 ea 38 04 00 00 00
       0.0021952183 -0.0005688593 0.000111618254 6e-45
000150 a5 8c d4 b9 86 fa 1f 3a bf 0e 6f bb 81 a9 5e 3a
       -0.0004054058 0.00061026996 -0.0036477295 0.0008493886
000160 bb 70 ec b9 06 b3 a5 37 b6 a4 93 38 45 29 74 3a
       -0.00045097418 1.9752897e-05 7.040186e-05 0.0009314011
000170 30 7e cc 3a cf a3 c5 3a ec 1a 67 ba fb 93 8a 38
       0.0015601572 0.0015078726 -0.00088159624 6.607916e-05
000180 4b c7 26 ba a4 e8 59 3a 3f 54 85 3a 56 59 74 39
       -0.00063620944 0.0008312559 0.0010172202 0.00023302934
000190 19 98 15 ba a2 e3 a5 b9 5f a3 70 ba 35 4f a4 38
       -0.0005706563 -0.00031640852 -0.00091796176 7.834883e-05
0001a0 3e 45 2d 3a ca f5 d3 ba 7d 90 bb 38 ec b6 8e b9
       0.0006609744 -0.0016171273 8.943768e-05 -0.00027220638
0001b0 9f 5c b5 b8 a2 26 07 ba cf 1b 65 ba b2 e8 66 ba
       -8.6480046e-05 -0.0005155598 -0.00087398005 -0.0008808478
0001c0 95 fb 13 ba 41 3d 59 3a 6e 9d 69 ba 81 92 cf 3a
       -0.00056450936 0.00082870206 -0.00089117035 0.0015836508
0001d0 0b 47 16 37 16 69 c3 3a 2e 05 71 3a 17 66 da 36
       8.957238e-06 0.0014908637 0.0009194192 6.508791e-06
0001e0 6d 9f 35 b7 5c c1 f8 ba 0f c8 23 3a f5 7c 83 3a
       -1.082556e-05 -0.0018978524 0.00062477676 0.0010031747
0001f0 39 56 70 ba 1c 19 46 3a b2 87 8d 3a e7 f7 27 3a
       -0.00091681216 0.0007556842 0.0010797887 0.0006407485
