ppo_2layer_2048_epoch10_followepoch5_follow5/ppo_agent_episode_26100.pth (torch, 596662 bytes, 21 tensors)

fc1.weight f4 [128, 260]
00000000: a875 b7bd 6257 c2bd 833c a3bd 181c a2bd
00000010: 1614 0f3d 9b89 abbe ffe6 403e c929 80bd
00000020: 52cc 4cbe 1bac c2be ec1b 96be 6962 0f3e
00000030: d83d a0be a5b1 23be 91c7 9fbd 3daa 2dbd
00000040: fd10 c6be ab64 91be cff4 07be e856 a8bd
00000050: 6db5 2cbe fbfe b8bd 307d 26be 47ff 51bd
00000060: 0b25 edbd 362b d63c 693c 1bbe 8db1 7fbd
00000070: 804c 3bbe df6f 19bd ac9f f6be 53f7 053f
00000080: ed96 753e 90fe 16be 212d c8bd fd50 97be
00000090: 20a8 3dbe 0bbd bdbe 31d5 c9be 4462 d5bd
000000a0: 3a4f b93c 96e1 30be b7c3 88bd c1e2 de39
000000b0: 3b4c 98be 098f 64bc 8374 1bbb e751 0ebf
000000c0: a49e 4cbe 0479 1dbe 65b6 75be 9298 38be
000000d0: 133c ebbd 6fbe 9dbe 4764 42be d9b1 5abc
000000e0: f61e 873d c009 fdbc 7ae8 16bd 74ba 9a3d
000000f0: 4b10 4cbd e8ef 233d 2582 d53b d617 1d3d
00000100: f22c 513d 4c87 3abe a710 3cbe 3f90 8fbe
00000110: a525 29bd e6ab 60bd 50b3 5bbd 30fb 223d
00000120: 70f7 973d b4c4 923c afe6 f63d 847f 40b9
00000130: 534e 053e 3577 1a3e 1466 4dbe 582e e7bd
00000140: 78da fd3d f91f 1ebc 3b6f dabb 0616 2ebe
00000150: 5d2c 82bd 07d7 2b3d 3b74 a5bd 25a4 2f3e
00000160: b793 0b3e c8a2 83bd aca5 db3d a397 8abe
00000170: 8fad 74be a17f 1cbe da0f a8bc 436f 46be
00000180: 7a38 c6bb 1cf6 6abb a840 b4bd 7df4 403e
00000190: aa84 833d 6de5 8f3d 894a bc3d 6428 22bd
000001a0: d729 1b3e a92a 48bd 003e 54bc 2923 e93d
000001b0: e5de 62bd 6d72 793d 1ccb 86bd 4566 27bd
000001c0: b867 113e 8175 ec3d c088 fa3c 25b4 89bd
000001d0: 5efa c33d 69ea 443e 4481 5d3e 3cde c33d
000001e0: a62f 413e 9221 c93d 0741 0a3d fca6 1a3c
000001f0: 4b81 9a3d 1255 f73c 0a06 b13c aa37 933d
00000200: f31d b93d f5a3 71bd 20b9 a63d 3825 e03d
00000210: ad88 153e 815e a43d b502 2a3e ec2a 643c
00000220: 589d 8c3d f4b2 0f3e 27d0 91bb 991a 393c
00000230: e0a2 ae3d 70e6 873d b672 103e 4cca afbc
00000240: 27fa a03d f202 8c3c aba7 8cbd fbcb 0f3d
00000250: 3746 0e3d c48c 843d 956a b5bc cea7 4c3e
00000260: 6bb9 30bb 7dba d33d 0e6d 67bd ae4c 8e3d
00000270: 7648 773d a479 1b3e b3ed 44bd 93a2 a03d
00000280: 8f32 1f3d e46a 9f3d cf41 cfbd 418e b53d
00000290: c09e aa3d 6c5b a83d 1976 8a3e d374 7bb8
000002a0: e3f2 a7bd 4112 193e c22b ec3a 9a0b c73d
000002b0: 75f0 443e 5bb4 ca3d 16e2 ddba c3e3 b3bd
000002c0: 11eb 0a3e 86d3 053c c2df 623d 55b7 f63d
000002d0: 2e28 63bd f4b0 233d 6410 e93d 489c 93bb
000002e0: bc84 df3d 714a a23d eee2 133d b34b 64be
000002f0: 8852 15be f485 30bd 34bb 0a3e af38 ca3c
00000300: daae 4d3e b799 003e 3c03 583e 3913 9fbd
00000310: 2b94 70bd c931 263d 7e76 1e3e d809 9fbc
00000320: 4335 843c 4581 36be 774b 20bb a0e0 ad3d
00000330: 913b 683e e35c a23d 7170 263b 3e95 ee3b
00000340: 2df9 053d d75f 6c3d 95f7 0a3d d9cb 2d3d
00000350: 48f7 95bc ecd7 d13d 669a 323c 85b6 c03d
00000360: a42c 783c 2b93 023e 79f3 993b f0e7 24bc
00000370: e2ef df3d b28b 413d 75e6 fb3b dce3 a63d
00000380: 63f4 f93d 5928 2d3d 718a 4e3d cc7f be3d
00000390: d87b 243e d733 763d 9611 a63d 957a a53c
000003a0: 327a de3d 265b 2639 4197 683d 63e8 e73c
000003b0: 5cab 173d fd89 713d eeff 103e 4dd7 cbbd
000003c0: 4711 79bd f7d4 503d 3916 bb3d e455 db3d
000003d0: 937d 703d 23c0 023e c7a2 a93d c77c ad3d
000003e0: b115 463d 63d5 7e3c 259b 5a3d 0669 b4bc
000003f0: 759c 113e d73f 0a3d 595d ab3c fd91 123e
-0.08957988 -0.09489323 -0.07970526 -0.07915515 0.034931265 -0.33503422 0.18838118 -0.0625797
-0.19999817 -0.3802193 -0.29318178 0.14002384 -0.31297183 -0.15985735 -0.07801736 -0.04239868
-0.38684836 -0.28397116 -0.13276981 -0.08219701 -0.16866083 -0.09033009 -0.16258693 -0.051268842
-0.11579331 0.026143651 -0.15159763 -0.062425185 -0.18290901 -0.037460204 -0.48168695 0.5233051
0.23983355 -0.14745545 -0.09774233 -0.29553977 -0.18521166 -0.3705829 -0.39420465 -0.10419133
0.022620786 -0.17273554 -0.06677955 0.00042512084 -0.2974566 -0.013950118 -0.002372057 -0.55593723
-0.19982392 -0.15378195 -0.23995359 -0.18026951 -0.114860676 -0.30809352 -0.18983565 -0.013348066
0.06597702 -0.030888438 -0.0368428 0.07555094 -0.049820226 0.040023714 0.0065157586 0.03835281
0.051068254 -0.18215674 -0.18365727 -0.2803974 -0.041295666 -0.054851435 -0.053637803 0.039790332
0.07420242 0.017916061 0.12055718 -0.0001835805 0.1301816 0.15084536 -0.20058471 -0.11288136
0.12395185 -0.009651178 -0.0066660917 -0.17000589 -0.06356118 0.041953113 -0.0807881 0.1715246
0.13630567 -0.064275324 0.10724959 -0.27068815 -0.23894332 -0.15283062 -0.020515371 -0.1937838
-0.006049213 -0.003585226 -0.08801395 0.18843265 0.06421788 0.07026181 0.09193904 -0.0395893
0.1515268 -0.04886881 -0.012954235 0.113836594 -0.05538835 0.06090014 -0.06581709 -0.040869016
0.14199722 0.115458496 0.030582786 -0.06723813 0.09569238 0.19230045 0.21631342 0.09563872
0.18865833 0.09820856 0.03375342 0.009439226 0.07544192 0.030191932 0.021609325 0.071883515
0.090389155 -0.058994252 0.081407785 0.10944599 0.14602919 0.08025838 0.16602595 0.013926249
0.068659484 0.14033109 -0.0044498625 0.011297845 0.0852716 0.06635749 0.14106259 -0.021458767
0.07860213 0.017091248 -0.068679176 0.03510664 0.03473493 0.064721614 -0.022145549 0.19985887
-0.0026965986 0.10338304 -0.056500487 0.06948219 0.06037184 0.15183121 -0.04807825 0.078435086
0.038866576 0.0778406 -0.10119974 0.088650234 0.083310604 0.08220562 0.27043226 -5.9951864e-05
-0.08200624 0.1494837 0.0018018412 0.0971901 0.19232352 0.09897681 -0.0016928341 -0.087836765
0.13566233 0.008168107 0.055389173 0.120466866 -0.05545824 0.039963678 0.113800794 -0.004504714
0.10913989 0.07924355 0.03610509 -0.22294502 -0.14582264 -0.043096498 0.13547975 0.024685232
0.20086232 0.12558638 0.21094984 -0.07767338 -0.058735054 0.040574823 0.15474889 -0.019413874
0.016138678 -0.1782275 -0.0024459043 0.084901094 0.22678973 0.07927873 0.002539661 0.0072809746
0.032708336 0.057708587 0.03392752 0.042430732 -0.01830639 0.10246262 0.010901069 0.09409813
0.015147362 0.12751453 0.0046982137 -0.010065064 0.10934426 0.047252364 0.0076873847 0.081489295
0.12204816 0.042274807 0.050424997 0.09301719 0.16062868 0.060108032 0.08108823 0.020200053
0.10863151 0.00015864949 0.056784872 0.028309053 0.037028655 0.058969487 0.1416013 -0.09953175
-0.060807493 0.05098435 0.09135098 0.10709742 0.058713507 0.12768607 0.082830004 0.08471065
0.04836053 0.015553805 0.053370614 -0.022022735 0.1421984 0.03375229 0.020918535 0.14313503

fc1.bias f4 [128]
00000000: b237 2ebc 4105 b0bd 2b9e ce3c 36a4 cc3d
00000010: 7edb 16bd 702a e9bc 385d 40bd b211 9d3b
00000020: 603e fbbd 645b a1bc f2d1 aebd 2c98 a83c
00000030: ed1c 3fbd 9fe2 953d bde9 c93c e131 9e3d
00000040: 16eb 703c 03c0 343d 6815 0e3d 3880 92bc
00000050: 6dee d13b ff81 afbc 1cc1 5c3d 1cbb 443d
00000060: c15f b7bc 73fa 603d 9984 723c b3be d7bc
00000070: e79d 38bc c0c4 c0bd 7dd0 c1bd b0cb 813d
00000080: 56b2 8f3c e76f 0dbd ff36 e93c 0a77 c63c
00000090: 8b0a 2bbd 4f47 ae3d b3f4 503d b141 4f3d
000000a0: 3c08 b63d 9dfa c63d c911 323d 42d9 82bd
000000b0: 55b9 893c d67b 91bc a765 a4bb dc03 383c
000000c0: a764 ad3d 5131 6dbd 1718 2cbd 920a 603d
000000d0: f5f5 793d 869e e13a de4d db3d 4f13 453d
000000e0: 60ab 15bc 065c 4e3d d8df b5bc 181e ba3c
000000f0: 4698 6b3d ec96 be3a d97a c23d c8e2 1fbc
00000100: 907b 12bc 90f2 7abd 65a7 8d3d 7679 0a3d
00000110: 84da 0dbd c78c a7bc f32e ec3c d9c9 f4bc
00000120: 74f3 b93c bf5b 1fbd 9df1 82bd 124d 633d
00000130: 270b 203d bf01 d73d fc0f 6dbd beae 71bd
00000140: 923b 2cbd ac4e 593d c228 78bd 6d5e b8bd
00000150: b967 d53d 87d5 083d c67d fa3d e897 7db7
00000160: 24de a43c ae3f 7fbd fc1b 29bd 5269 8bbc
00000170: 1d68 26bd 2999 29bd 7b16 bfbc 1052 ad3c
00000180: df06 653c b515 233d 8b20 353b d4ad 81bd
00000190: 1fbc c53d 6f5e a7bd 91e0 653c e007 853c
000001a0: 4c6f 0d3d 8dcf 783d 0724 7d3d d786 9a3c
000001b0: 55c4 29bd c625 b9bd ddea df3d b37c 063e
000001c0: fabe 0cbd 74cd 64bd 9987 413d 783a 383c
000001d0: ca9a 86bd a3b8 6cbd c6bf 55bd 4bc9 5a3c
000001e0: 519d 613d 6f52 063e 684b 40bd 171c 4fbc
000001f0: af85 923c dd86 32bd 91c0 c33b c582 e6bd
-0.010633396 -0.08594752 0.025221905 0.09992258 -0.036830418 -0.028462619 -0.0469639 0.004793369
-0.122677565 -0.019696899 -0.08536138 0.020580374 -0.046658445 0.07318615 0.024647588 0.077243574
0.014704486 0.04412843 0.034688383 -0.017883405 0.0064065964 -0.021424292 0.0538951 0.048030004
-0.022384526 0.054926347 0.014802122 -0.02633605 -0.011268116 -0.09412527 -0.09463594 0.063376784
0.017541092 -0.034530547 0.028468607 0.024226684 -0.0417581 0.08509695 0.051014613 0.050599758
0.08888289 0.097157694 0.043473992 -0.06389095 0.016812006 -0.017759245 -0.0050170007 0.011231389
0.084664635 -0.05790836 -0.04201516 0.05469758 0.06102558 0.0017213381 0.10708211 0.048114117
-0.009135097 0.05038073 -0.022201464 0.022719428 0.057518266 0.0014540828 0.094960876 -0.009758659
-0.008940592 -0.061266482 0.069166936 0.03380724 -0.03463222 -0.02045287 0.02883098 -0.029881405
0.022699095 -0.038905855 -0.0639374 0.05549342 0.039073136 0.1049838 -0.057876572 -0.059004538
-0.042049 0.053053543 -0.060585745 -0.09002385 0.10420174 0.03340676 0.12231021 -1.5115344e-05
0.020125456 -0.06231659 -0.041286454 -0.017017994 -0.040626634 -0.04140583 -0.02332615 0.021157295
0.013978689 0.039815623 0.0027637805 -0.06331983 0.09655022 -0.08172309 0.014030592 0.016239107
0.03452997 0.06074481 0.061801936 0.018863125 -0.041447002 -0.09040408 0.109334685 0.13133506
-0.034361817 -0.055859998 0.047248457 0.011244409 -0.065724924 -0.05779327 -0.052184843 0.013353656
0.05508167 0.13117383 -0.046946913 -0.0126409745 0.01788601 -0.043585647 0.0059738834 -0.11255411

fc2.weight f4 [64, 128]
00000000: 3181 8e3d 0ba6 aebd 1f5b 413e 745e b6bd
00000010: c569 8cbe 1f4c 6e3e cd92 0a3d be97 5cbd
00000020: b6ed 943d a116 263e 4508 023d f2f5 fd3e
00000030: 5090 09be f156 9e3e f9d8 093f 8415 bc3d
00000040: 7498 d83c cb79 adbe 465a 343e 9135 7b3e
00000050: 96f8 613e 6809 903e d5a1 a3bd a87c 513e
00000060: 83e6 003f 4c54 d33e 3d88 c33e 0d89 073e
00000070: d010 b83d 1c53 5e3e be42 95bd e0c8 97bc
00000080: e437 573e 75fd 413b f6f9 2a3d 4dd2 e3bd
00000090: 37e7 65be 0454 c2be 8921 82be 9d46 c0be
000000a0: b14a acbe 2be1 62be 4e9d 6ebd 11ca 89bc
000000b0: 0f97 6dbe 77d8 2e3f dfaa 903c 7412 e0bd
000000c0: a725 9a3e 6f60 913d 629f e3bc bf22 07be
000000d0: e731 b8be 9ed3 babc 3dab df3d aa17 033c
000000e0: 90ea 813e 3d59 bfbe 0212 063e 94e8 e63d
000000f0: 246b 603d b50f 053f e1e8 033e 867a ccbe
00000100: bf6e 46be cc76 78bd 6903 903e 27d6 35be
00000110: f7f4 eb3d 92cc 4ebe 8a5f d33e 2cca ccbd
00000120: 4c5a cc3e c89d a13e cf16 603d 46d1 9fbe
00000130: fc3e df3e 159a 543d 3b53 713c b373 26be
00000140: 556f 5c3f 73d1 523e 1c79 a1bd 7b6a 093d
00000150: db7e 61be ff99 44bd 198a c1be 3ec2 1e3e
00000160: e8ca 29be d18b 2c3e dcce dabd dd88 4f3e
00000170: 7cb2 ee3e 5de9 2f3e 4cbb e2be 42b7 13be
00000180: 2799 0b3d 990b 153e 6188 01be 55b3 4d3e
00000190: 662d 043f 3317 053c 5f52 1dbe 958f 253c
000001a0: f760 e93e 6ae6 d3be 358f 663e f923 a33d
000001b0: b351 bdbd ed58 3abe 7877 e4bc 5e6a 4a3c
000001c0: 61fb 37be 62ed e53e 6b57 c4bc 1148 bf3e
000001d0: ed35 3f3d c72c 083f 72f5 8d3d 9e6a 69bd
000001e0: 94b3 d33d 3f44 8bbe 4b03 063e 82da 1a3e
000001f0: 498c c2bd 6fde 08be 1839 19be cf96 2fbd
00000200: e2cd a8bd 1558 023e b983 21be cec5 8b3d
00000210: 0fb0 923d 1b78 813e 281e 663c 87b9 a5bd
00000220: 3f6b 1ebc f0a5 a8bd 726b 933d f1c0 8cbd
00000230: 6029 363e f9f8 fb3d de39 c73e 435d 0d3e
00000240: a286 38bd 4866 2cbe 704d 543e 35af cbbd
00000250: 7141 7cbd 9737 8e3e 629c 233e fc0c 063e
00000260: 5bb7 603e 4f56 f03e 9fc8 16be e11b 283e
00000270: 3579 66be 92bc 933c f928 39be 66e1 3ebe
00000280: 108e c8bd 02ef 8f3d 7242 9cbe cd0e 223e
00000290: 09ec 3b3e d448 8fbe 6ba9 1a3e 4895 a33e
000002a0: df7f 2ebe 6eeb 3dbe d21e e2bd 09ff 1a3e
000002b0: 5a67 37be e143 bb3e 3507 dabd fc2a 06bf
000002c0: 4959 ae3e d161 21be 0248 c4bc d84f 99bd
000002d0: 9bfb eabe 199f e8bc 5d32 fabd e68c 053d
000002e0: 5646 84bd a503 24bd 6342 cbbd 5e49 a73e
000002f0: f09b 693e 97eb 363d 5715 493d 7484 3fbe
00000300: a310 94be 3958 b53d 188f 9abe bc70 91bd
00000310: 1fce 573e 3239 293e a679 953e 6f9f 3b3e
00000320: b32e 623e 3206 223d cc87 0d3e e6bc 8fbe
00000330: 4e00 773d 62d8 b038 f4a2 773e 1214 fcbd
00000340: b437 803e 24fe 8cbe f265 a03e fb58 97bd
00000350: 4c5a 77bd ea9c 99bc 9f1d 0c3e 6f7a 4f3e
00000360: 340a 703c 5666 7e3e 44ad a2be eeb0 3d3e
00000370: de74 263e 1430 53be ac0c c83e 86e6 9d3d
00000380: a366 ac3d 2bf7 9abc e648 a9be 4714 a3bc
00000390: 6a22 44bd e170 3e3e 7b7e b1be f839 93be
000003a0: 9ed1 a3bc 3ab1 d6bd 6830 b63b a8a0 f5be
000003b0: 5415 193e ad3b 0cbc 68f0 813d 1e20 983c
000003c0: d425 c7be 209a a6bd ab13 b3bb b3dc 9d3d
000003d0: e3c7 1bbd 4601 afbd 3c0a eb3c 2428 313d
000003e0: 4047 45be efa3 4bbd aed7 b33c 9ca8 523e
000003f0: facf 00be e36a 583e aa42 1dbe 18e1 973d
0.06958235 -0.08527764 0.18882416 -0.08904734 -0.27424446 0.23271225 0.033831406 -0.05385565
0.07271902 0.1621957 0.031746168 0.49601704 -0.13433957 0.30925706 0.538467 0.09183791
0.026439883 -0.33881983 0.17612562 0.24532153 0.22067484 0.28132176 -0.079898514 0.20457709
0.5035173 0.4127525 0.3818988 0.13235874 0.08987582 0.21711391 -0.07288121 -0.018528402
0.21017414 0.0029600535 0.041742288 -0.11124096 -0.22451483 -0.37954724 -0.2541621 -0.37553874
-0.33650735 -0.22156207 -0.058255486 -0.016819986 -0.23202156 0.6829905 0.017659603 -0.1094102
0.3010685 0.070984714 -0.02778596 -0.13196848 -0.35975572 -0.022805985 0.10921333 0.008001247
0.2537427 -0.3737277 0.13092807 0.112748295 0.054789677 0.5197709 0.12881805 -0.39937228
-0.19378184 -0.06066017 0.28127602 -0.17757474 0.11521333 -0.20195225 0.41283828 -0.09999499
0.3991264 0.3156569 0.054709252 -0.3121435 0.4360274 0.051904757 0.014729316 -0.16255073
0.8610738 0.20587711 -0.07884428 0.033548813 -0.22021048 -0.047998425 -0.37800673 0.15503785
-0.16581309 0.1685021 -0.106839865 0.20267053 0.46620548 0.17178865 -0.4428352 -0.14425376
0.034081604 0.14555205 -0.1264968 0.20087941 0.5163177 0.008123207 -0.15363453 0.010105033
0.4558179 -0.4138673 0.22515567 0.079658456 -0.092440985 -0.18197985 -0.027888998 0.0123544615
-0.17966987 0.4490767 -0.023967465 0.3735967 0.046682287 0.53193325 0.069315806 -0.056986444
0.10336986 -0.27200505 0.13087194 0.15122417 -0.094994135 -0.13366102 -0.14963186 -0.04286843
-0.08242394 0.12728913 -0.15772904 0.068248376 0.07162487 0.25286946 0.014045276 -0.08092027
-0.009669124 -0.08234775 0.07198228 -0.06872738 0.17789221 0.12303347 0.38911337 0.13805108
-0.04505027 -0.16835892 0.20732665 -0.099455275 -0.061585847 0.27776787 0.15977624 0.1309089
0.21944945 0.46940848 -0.14724968 0.16416885 -0.22507174 0.018034253 -0.18082036 -0.1864067
-0.09792721 0.07028009 -0.30519444 0.15825959 0.18351759 -0.2798525 0.1510369 0.3194983
-0.17040966 -0.1854684 -0.11041035 0.1513635 -0.17910519 0.36575225 -0.10645906 -0.5240934
0.34052494 -0.1575997 -0.023960117 -0.07485932 -0.45895085 -0.028396176 -0.12216637 0.032605074
-0.06458728 -0.04004254 -0.09924772 0.32673162 0.22813392 0.04465827 0.049092617 -0.1870287
-0.28918943 0.08854718 -0.30187297 -0.071015805 0.21074723 0.16525725 0.29194373 0.18322538
0.22088127 0.03955669 0.13821334 -0.28073806 0.060303025 8.4326384e-05 0.24183255 -0.123085156
0.25042498 -0.27537644 0.31327778 -0.073900186 -0.06038885 -0.01875158 0.13683175 0.20261548
0.01465087 0.24843726 -0.31772816 0.18524525 0.16255519 -0.20623809 0.39072168 0.077099845
0.08418014 -0.018916687 -0.3306343 -0.01990713 -0.047884382 0.18597747 -0.3466681 -0.28755164
-0.019997414 -0.10483022 0.0055599697 -0.47974133 0.14949542 -0.00855915 0.06344682 0.018570002
-0.38896048 -0.08134866 -0.005464991 0.07708111 -0.038032424 -0.08545165 0.028691404 0.04325117
-0.19265461 -0.049716886 0.02195343 0.20572132 -0.12579337 0.21134524 -0.15357462 0.0741598

fc2.bias f4 [64]
00000000: 81ce fc3a f299 613d 7002 83bd c717 10ba
00000010: a6e2 14be 7028 83bc 28f3 193d 1d7d a9bd
00000020: 124e b23c e21f 223d bdd3 ccbd 24f3 cebb
00000030: f7f1 8ebd 50a9 873d 23e8 f8bd 7fee 66bc
00000040: 6750 6bbd da1b 713d 8f35 023d c30f 103d
00000050: d3cc ab3b f643 b5bd b8c1 77bd 4e12 693d
00000060: ae0a 543d 1049 da3b 0167 083e 2b6e 433e
00000070: 71cb 8b3d 3055 cabc dbef 6ebd 086e f0bd
00000080: da5e f1bc 488a 8d3d 8977 fcbb b354 64bc
00000090: c6ed 663c 8eac 143d a22d 0f3e 82d8 b8bb
000000a0: 599b 8cbd 340f 283b ddd1 c4bd cf93 8cbd
000000b0: bcef f7bc 5bad 1a3e da4e 02be e0c6 c83c
000000c0: 27aa 1abd 9db4 573d d6e5 463e e6c7 a5bc
000000d0: 8587 053e 81d3 2a3d aea9 3b3d fa15 4e3d
000000e0: c698 f8bc c2e5 5a3d 2754 c8bd ac0b 583b
000000f0: 4b2a 6f3b 75c3 683e 6506 8dbc ef46 a63d
0.0019287617 0.055078454 -0.06396949 -0.0005496707 -0.14539585 -0.016010493 0.037585407 -0.082758166
0.021765742 0.039581187 -0.10001323 -0.0063156057 -0.06979745 0.06624091 -0.121536516 -0.014094948
-0.057449725 0.058864452 0.03178936 0.03517128 0.005242923 -0.08850853 -0.06048748 0.056902222
0.051767997 0.0066615418 0.13320543 0.19084994 0.06825913 -0.024698824 -0.058334213 -0.11739737
-0.029464174 0.06911141 -0.0077046794 -0.0139362095 0.014094776 0.036297373 0.13982251 -0.005641044
-0.06865568 0.0025643827 -0.09610341 -0.0686413 -0.030265681 0.15105192 -0.12725392 0.024508893
-0.037759926 0.05266248 0.19423613 -0.02023692 0.13039978 0.041705612 0.045816116 0.050313927
-0.030346286 0.05344177 -0.09781676 0.0032965941 0.0036493714 0.22730811 -0.017214963 0.08118998

policy_head.weight f4 [110, 64]
00000000: 6d11 8e3d c430 f8bd 3966 073f b489 0ebe
00000010: 2633 fe3d 2c43 fbbe 04f0 4ebd 8969 2a3e
00000020: 158a 413f b2ba bcbe eaac 47bd 82c6 c23d
00000030: 9f67 b9bd fe99 2e3d 5c1e b13d 7b69 06be
00000040: cc59 3b3d b1e4 83bd eeca 583e c4f9 09bf
00000050: fc97 bf3e 4ccb 4c3d a98d 683e c043 b4bd
00000060: 7f1e a5bd 7b02 85be 6d4c 223e 53fd ae3e
00000070: 1f9b 98be f220 0a3d 207c 2cbb b1f2 f73e
00000080: 05ff 333f a121 ff3e 47fe e5bd 29b7 d63f
00000090: 6907 723e e2ba 9a3d e9eb 2dbe c2e7 d53e
000000a0: 5f91 373e 758f ffbd 50ea 903d 978a f8be
000000b0: 33ac 0abf 1cef ff3e 9cbf 6f3e 6ad6 15be
000000c0: 4bbe 3b3e d42b 143f 8e0c 273e 1ca8 003e
000000d0: d945 0abd 8677 1ebe 7dd7 07be 2a97 543f
000000e0: a430 433d ef85 f1be cc50 8a3e 924b 203f
000000f0: 1d5a 12be 9d79 de3d 7ca7 223e 50a3 bb3d
00000100: b32d c33e 935e b5bc 24cf b23e 7f63 36be
00000110: 043a adbd 11c3 5dbf 45b7 de3d cef3 7c3e
00000120: 2c0a 203f 8962 3dbf bb96 46bd 6ee8 b93d
00000130: 409b 083d 15b9 09bd 2beb 70bd 0674 d6be
00000140: b64b 6f3d a5d1 21bf a2db a03e c4a0 1abd
00000150: 0810 813e e546 83bc 903d a43e 5ffc 9abe
00000160: c4c9 05bd 3e89 39bb 94c9 be3e 73d7 813e
00000170: 710a 0dbe 3035 f73d 5896 76bc daed f13c
00000180: 8f8d d13e 1504 ba3e 8a2c 9b3e f470 773f
00000190: ba02 833e 267e 86bd bf2d 16be 769b 32be
000001a0: 47d1 593e 258f f7bd a04a 033c a6e9 a2be
000001b0: e758 1ebf 3327 de3e c8ae 253e e3df 823e
000001c0: 9bc7 df3d 896d 183c 71fa e13e 115b 633e
000001d0: a58c 88be de34 9cbe 2977 cabe 35b6 e03e
000001e0: fa8b 0ebd f72f 8f3d 8205 6e3e ef3f da3e
000001f0: 897c 04be ac36 b53d 20d8 d33e 2d76 953d
00000200: 1453 833e b5de a63e 41ce df3e db60 14bd
00000210: e21d bc3c 8736 063e efdd 413e c91a cf3e
00000220: 276c 0bbc ddc2 3dbb 9449 703e fcbf bdbd
00000230: 3b36 203d 3f6e e83d 9d65 c23e 5826 b43b
00000240: f083 ba3e 5536 71be f6dc 6abe e0bd 3a3e
00000250: 315d 843e 993c 08bc b7f4 863e cf89 9fbd
00000260: 255e 653e 6bb6 283e 6b30 9fbe ad1f aebe
00000270: 6005 21be 3935 b33d ff48 cebd 0ac8 47bf
00000280: de1b 1fbf 4fd4 22be 4a1c d4be fdf6 4ebe
00000290: c931 3b3e f950 9e3e 4820 f5be 8dc1 6bbe
000002a0: d508 9f3e 6854 46bd 624d b33e a0c2 383e
000002b0: 64ce a4bc 2c4f 833e 6949 553e d600 babe
000002c0: 2304 853e 7e9d bcbe 68e6 01bf 8f8e 06bd
000002d0: cbd6 46bd c454 ae3d 9b3b 5bbe f4e9 11bf
000002e0: bfcc 70bd e87f 033e 39c5 d03e f2d9 7f3d
000002f0: 016e 3e3e 681b b4be de55 b43e 07f9 11be
00000300: 4dc9 463e b1a8 2cbd 83a0 a83e 954a 773e
00000310: 2b26 a63e 8895 e93d 2591 403d 5795 a63e
00000320: e8e9 d5be 67c6 10bd 573a ad3e 1c8e 50bd
00000330: 1694 20bd b6f2 97bd b56e 5d3e 73d6 9c3e
00000340: ab18 263e c9ba bb3e 5b82 b13e 8306 babd
00000350: 0422 603e 762e 5fbd 3f7c 513e 1b12 11bf
00000360: 6661 8b3e 9e7a c53d 48fa 5bbf 5f38 06be
00000370: b17d 7f3e e5c2 1d3d b3c5 ffbd d109 c13e
00000380: bfaf 993d c079 0cbe 48fa 813e ca3e 0cbe
00000390: 1b7a 213e 746a 81bc 882c edbe dddf c5be
000003a0: df5a 543e 215d 35bc 7025 e43d c309 8abd
000003b0: c617 323e 62bb fabe 590d 913e 8a73 b1bd
000003c0: f0b5 9e3e 745b 0fbf 6bcb 13bf 72f9 4d3e
000003d0: 725c febe 2cab b03d 65c8 973e 085f 0fbe
000003e0: f253 9a3d 324d 353e 3c68 ae3e 9757 553e
000003f0: 4930 263e ff9c 3cbf fb80 3abe 1099 12bf
0.069369175 -0.12118676 0.52890354 -0.13919717 0.124120995 -0.49074686 -0.050521865 0.16641821
0.7560132 -0.36861187 -0.048748888 0.095105186 -0.09052967 0.042627327 0.08648369 -0.13126175
0.045739934 -0.06440104 0.21171162 -0.5389674 0.37420642 0.049998567 0.22710289 -0.08801985
-0.08062457 -0.25978455 0.15849467 0.34177646 -0.29805848 0.033722825 -0.0026319101 0.48427346
0.70311004 0.49830344 -0.1123014 1.6774646 0.23635639 0.07555176 -0.16984524 0.4177838
0.17926548 -0.12478534 0.070759416 -0.48543236 -0.54169005 0.49987113 0.23412937 -0.14632574
0.1833431 0.57879376 0.16313383 0.12564129 -0.03375802 -0.15475282 -0.13265796 0.8304316
0.04765381 -0.47172496 0.27014768 0.6261531 -0.14292188 0.1086304 0.15884203 0.09162009
0.38120803 -0.022139823 0.3492366 -0.17811392 -0.08458331 -0.8662577 0.108748 0.24702379
0.6251552 -0.7397848 -0.04848359 0.090775356 0.033351183 -0.033623774 -0.058818024 -0.41885394
0.058421813 -0.6321052 0.31417567 -0.037750974 0.25207543 -0.016025016 0.32078218 -0.3027067
-0.03266312 -0.0028310562 0.37263167 0.25359687 -0.13773514 0.120706916 -0.015050493 0.029532362
0.40928313 0.3633124 0.30307418 0.9665673 0.25588018 -0.0656703 -0.14665888 -0.17442116
0.21271239 -0.120878495 0.008013397 -0.31818885 -0.61854404 0.43389282 0.16179955 0.25561437
0.109267436 0.009303459 0.44136384 0.22202708 -0.26669803 -0.30509084 -0.39544037 0.43889013
-0.03480146 0.069915704 0.23244289 0.42626902 -0.12938131 0.088483185 0.41375828 0.07297931
0.2564932 0.32591787 0.43712047 -0.03622518 0.022963468 0.13106738 0.18932317 0.40450123
-0.008509672 -0.002895526 0.23465568 -0.09265134 0.03911422 0.11349153 0.3796815 0.005497735
0.36428785 -0.23555882 -0.22935852 0.18236494 0.2585235 -0.008315229 0.26358578 -0.07789957
0.22399195 0.16475837 -0.31091627 -0.34008542 -0.15724707 0.08750386 -0.10072517 -0.7803961
-0.62151897 -0.15901302 -0.41427833 -0.20211406 0.1828071 0.30921152 -0.4787619 -0.23023053
0.31061426 -0.04842034 0.35019976 0.18042994 -0.020117946 0.2564634 0.20828785 -0.36328763
0.2597972 -0.36838907 -0.507422 -0.0328508 -0.048544686 0.085122615 -0.21409456 -0.5699761
-0.05878901 0.12841761 0.4077547 0.06246371 0.1859665 -0.3517716 0.3522176 -0.14255153
0.19412728 -0.042153064 0.3293496 0.24149545 0.32450995 0.11405474 0.04701342 0.32535812
-0.4178002 -0.03534546 0.33833572 -0.050916776 -0.039203726 -0.0741934 0.21624263 0.30632362
0.16220348 0.36665943 0.34669766 -0.09083273 0.21887976 -0.054487668 0.20457552 -0.5666825
0.27222747 0.09642528 -0.85928774 -0.13107441 0.24950291 0.038515944 -0.1248888 0.37702802
0.07504224 -0.13718319 0.25386262 -0.13695827 0.15769236 -0.015797831 -0.46323037 -0.38647357
0.2073779 -0.011069567 0.11139953 -0.06740143 0.17391881 -0.48971087 0.28330496 -0.086646155
0.30998182 -0.5599892 -0.57732266 0.20114687 -0.49679905 0.086263984 0.29645076 -0.14001095
0.075355425 0.17705229 0.340639 0.20834194 0.16229357 -0.7367706 -0.18213265 -0.57264805

policy_head.bias f4 [110]
00000000: b3f6 c3be dc7c 5cbd f923 99bd 5499 e33d
00000010: fb7a c1be d2ef ccbe 52da 013e e1b9 bf3d
00000020: ac4b 303e d77f 0bbd 10e8 60b8 067f 6b3c
00000030: d846 063e 6f8d 4c3d b816 763e b62d 263e
00000040: b90f 003e 1916 253e a158 893e fb41 793e
00000050: 0113 ce3d b53e 17bd 5095 e6bb 3b8f 513d
00000060: b2b7 bc3c 0f39 793e af48 573e 29fc 693d
00000070: 923c fc3d 8322 34bc 001f d93c 7973 483d
00000080: 3ab1 303d ac2c f53d 91f9 993d f62e 693e
00000090: d848 6c3d 3fe9 01bd c7f4 a83d dc45 2b3e
000000a0: bcca 03bd 13c6 4b3e 8ea9 043e d253 8a3d
000000b0: e532 9b3d ce49 d23c ae17 7f3e a3eb 083e
000000c0: dc9a b03d f232 593e e832 d9bd d451 e23d
000000d0: b6f8 363e 508f a73d b562 f73d 1f54 d03d
000000e0: 89e5 4f3e 6f09 453e d2b6 a5be 1361 bdbe
000000f0: 7281 d4be 307a c1be 1c5d adbe 3653 93be
00000100: 2e9a a0be 9a09 bcbe d580 84be a6c1 7bbe
00000110: 7d84 9dbe ff5e 9bbe bf4f 80be 79f8 d9be
00000120: 08a4 95be 5914 cdbe 24fa c5be fafc c0be
00000130: 76b1 fabe fea5 98be b841 e9be 4546 aebe
00000140: 6a25 e5be 5aca aabe 0794 e3be a675 97be
00000150: 7fa1 f0be 5727 9cbe ef1f a0be 89b2 dfbe
00000160: db21 bdbe 7c91 b4be 3a00 dbbe 51e6 dcbe
00000170: 9398 babe 2566 a0be 9f8c e6be ae2c a1be
00000180: c1f0 b5be f68f c7be 91a9 eebe 765c a0be
00000190: 6deb 88be 96ff d8be 7429 a2be 3893 b2be
000001a0: b588 f5be 13f6 f6be 199e d5be b11c d8be
000001b0: 1702 f0be de4b 79be
-0.38274154 -0.053830013 -0.07477564 0.111132294 -0.3778914 -0.40026718 0.12680939 0.093616255
0.17216367 -0.034057464 -5.3621887e-05 0.0143735465 0.13112962 0.04993957 0.24032104 0.16228375
0.12505998 0.16121711 0.2682543 0.24341576 0.100622185 -0.036925036 -0.0070368424 0.051161986
0.023036812 0.24338172 0.2102382 0.057125244 0.1231624 -0.010994556 0.02650404 0.04893825
0.043137766 0.11971411 0.07518304 0.2277182 0.057686657 -0.03171658 0.082498126 0.16725868
-0.032175764 0.19899778 0.12955305 0.06754269 0.07578067 0.025669958 0.24911377 0.13371138
0.08623287 0.2121084 -0.10605413 0.11050764 0.17868313 0.081816316 0.12079374 0.10172295
0.20302404 0.1924188 -0.32366043 -0.36988124 -0.4150501 -0.37788534 -0.338601 -0.28774422
-0.3136763 -0.36726075 -0.2587954 -0.2458559 -0.30765143 -0.30345914 -0.2506084 -0.42572382
-0.29226708 -0.40054587 -0.38667405 -0.37693006 -0.48963517 -0.29814142 -0.45557952 -0.34037986
-0.44755107 -0.33357507 -0.44448873 -0.29581946 -0.46998212 -0.30498764 -0.31274363 -0.436909
-0.36939892 -0.35267246 -0.4277361 -0.43144467 -0.3644453 -0.3132793 -0.4502916 -0.314794
-0.35535243 -0.3897702 -0.46613744 -0.31320542 -0.26742116 -0.42382497 -0.3167225 -0.34877944
-0.47955862 -0.48234615 -0.4172218 -0.4220939 -0.46876594 -0.24345347

value_head.weight f4 [1, 64]
00000000: f7e4 e0b9 9ab0 9ab8 6bd4 c2bb 86ee 1f3d
00000010: 81bf 543b 3ca5 a73d e9da cd3b 2cae b33b
00000020: 10f0 3ebe 7fe5 673d e47d 373c 47cc 4fbd
00000030: 4e84 d43d 82b3 aebd a6b1 253c 275e 293d
00000040: b763 5abb 395f 1f3d e924 2abd 26e0 c13a
00000050: 0268 a0bb cc02 22be bfd4 67bc 3124 0b3c
00000060: 13c2 ee3b 471b cf3b 6762 1cbd 97d4 62bd
00000070: e8c4 783c 4429 a0bd 00cf cfbd 2942 2a3b
00000080: df65 6cbd 545e ffbe dd3a 7cbd 921f 90be
00000090: 755d 8e3a 7ed6 66b9 08da 883d a922 76bc
000000a0: bcf1 84bc 0b2e d0bd 6f51 4ebc 8052 333c
000000b0: 26ac 183d 4295 3abd 2df9 62bb 9e5b f5bb
000000c0: 0a48 4bbb 3a04 2fbc 2a19 0bbd 5450 b1bb
000000d0: 2661 b23c 271c 343c f7f6 453d 95dd aabe
000000e0: 5095 a5bc e860 423c 0620 acbc 2d80 99bc
000000f0: ec3a 403c 7049 4aba 4989 ad3a 0b2c 373c
-0.00042895201 -7.376187e-05 -0.0059457324 0.039045833 0.0032462778 0.08185813 0.0062821996 0.0054834094
-0.18646264 0.05661535 0.011199448 -0.050731923 0.103767976 -0.08530332 0.0101131555 0.041349556
-0.0033323595 0.03890917 -0.041539107 0.0014791533 -0.004895211 -0.1582138 -0.014149844 0.008492515
0.007286319 0.0063203904 -0.03817978 -0.055378523 0.015183665 -0.07820371 -0.10146904 0.0025979376
-0.05771434 -0.49876654 -0.061579574 -0.28149086 0.0010861593 -0.00022014414 0.06682211 -0.015022912
-0.01622855 -0.10165032 -0.0125926575 0.0109449625 0.03727355 -0.0455525 -0.0034633384 -0.0074877283
-0.003101828 -0.01068216 -0.033959545 -0.005411187 0.02177484 0.01099304 0.048331227 -0.3337218
-0.0202128 0.011863925 -0.021011364 -0.018737877 0.011732798 -0.00077166315 0.0013239767 0.011179934

exp_avg f4 [128, 260]
00000000: 7013 2139 da93 3d39 9ab8 44ba 2288 6bb8
00000010: af3c c9b9 91a8 c038 969f 97b8 6740 3cba
00000020: 42bd f6b9 1056 47ba f976 05ba 7830 52ba
00000030: bb2f 48b9 2cf0 1ab9 0185 3037 00c2 7d38
00000040: b33a 02b9 0baa 2e39 7774 8239 3cc2 bcb9
00000050: 1ef3 03b9 5012 fbb9 2de9 b0b9 e2e2 0cba
00000060: 77be 2fb9 614c 28ba b029 4c39 aef3 283a
00000070: 2464 2ab9 3ebe 073a 2a1d 63b9 7697 3038
00000080: cd44 f239 0ed0 acb9 6389 b9b9 bc86 22b9
00000090: 3053 a9b9 6128 4eb9 5db2 e4b9 8d27 f038
000000a0: 6f1a 8a39 96be 69b9 14ff db39 e27c 04ba
000000b0: 5ffa df38 e762 c5b9 e53a 0cba 5294 8537
000000c0: 23b0 bcb8 5dea eab9 c412 1339 61ed 3db9
000000d0: 0796 9f02 0400 0080 8084 3284 f675 aeb5
000000e0: c08e 3039 d058 10b9 b3ea 20b8 453a 2bb9
000000f0: fc21 e339 3ea6 f7b8 d0a9 08ba 6177 5738
00000100: 74fe 6439 0400 0000 f6fc c2a3 6279 8936
00000110: b739 3537 2ada 1fb9 a71f d737 0da6 1539
00000120: 4b46 4039 53a6 23b9 6fdd bbb8 6fdd f737
00000130: 0828 3ab9 bbc1 0db7 0400 0000 0400 0080
00000140: 87b6 5ab6 900b 3f38 2704 2539 8aee cb38
00000150: 3a1a ebb8 2bf8 bcb8 648c d138 3050 65b9
00000160: 4522 e338 e9a1 5db8 f9d8 5738 0400 0080
00000170: b3cf 6fb7 9758 ef34 54e0 822c 0c8c 5138
00000180: af9d 3239 2372 89b9 711d 6cb7 42f9 6cb8
00000190: cf3c 06b9 174b b8b8 04a7 65b9 8385 d9b8
000001a0: 70ac c8b6 0400 0000 a9d1 fd29 c557 dd35
000001b0: 9934 5c39 f5d7 103a 00ea dfb8 a439 3f3a
000001c0: d031 99b9 3d35 9239 b332 9d39 b6fa 25b8
000001d0: 50dc 0239 0400 0080 9351 8aab 2c2e d628
000001e0: 496e b139 4538 b438 44f3 8f39 81eb ed39
000001f0: 9b25 ad39 10c9 ae39 0c24 753a f8fc 6439
00000200: fbda 173a 6bf6 1b3a 0400 0000 0a79 3091
00000210: c1eb 5fb9 7603 1339 4431 97b9 7552 3d3a
00000220: 826a 9437 4967 6138 e3a3 073a 3b79 7d39
00000230: 8d85 e837 9c77 2d3a aeba fe39 0400 0080
00000240: 53c8 9b38 4c3d 4c38 eebd 74ac 573c ed39
00000250: 8730 bcb7 9160 703a da36 3539 b8a5 61ba
00000260: c5d0 9eb9 01dc e138 b880 42b9 5736 3fb9
00000270: 66d0 1036 0400 0000 09fd c3b6 0400 0080
00000280: c22f 81b9 0d4d 2639 e1a9 ad38 8448 86b8
00000290: 3589 3637 1bde 8136 4fa9 8fb7 8af3 1039
000002a0: 3fc8 39b8 0400 0000 68c8 bb36 6415 9736
000002b0: 8087 b338 bd67 0b39 3ef0 71b9 7a3c 0c39
000002c0: 5011 1638 90a6 bcb7 ae6f 02b8 b448 0710
000002d0: b639 7bb7 3003 c437 0400 0080 2612 0790
000002e0: 2957 50b7 0400 0080 4d93 46b8 5e08 c9b8
000002f0: 993a fcb9 d712 d8b9 d924 aeb7 7649 4db9
00000300: d39a 63b7 705e fc37 d5b6 35b8 0400 0000
00000310: 2fc6 9236 c61b bfb7 9cee e8b7 0ca1 1bb7
00000320: 98ad 5ab9 3680 e5b8 8a31 2039 b373 2eb8
00000330: 84d1 9338 403c c237 e49b 9237 b681 8e38
00000340: ea32 72ba 7af2 79ba bec0 95b7 cde1 3dba
00000350: e7a1 0bba a8ba bcba 0333 28ba c96a 12ba
00000360: e9fc efb9 1c5d 3cb9 2a3c ddb7 3e4b 00b9
00000370: d73c 67ba 4f8b 24ba 4028 4fba ab94 60ba
00000380: de57 8dba c601 84ba b22f 8fba a8f2 98ba
00000390: a5fb 9cba dbcc ebb9 b4fd a3ba c313 feb9
000003a0: 3c1d 82ba b781 42ba 07f9 7dba 48ed b9ba
000003b0: 0cdd c1b9 8c90 c3ba 28f7 dcb9 a6d3 c9ba
000003c0: bf33 2dba 7480 6e36 1947 85ba 6af6 ebb9
000003d0: 0c5f 16ba 608e 9fba 5560 5dba 7c04 69ba
000003e0: d734 91ba f62b 18ba 40f1 9aba c3e3 4aba
000003f0: 6708 57ba 1851 77ba 0921 11ba 2805 3139
0.00015361398 0.00018079524 -0.00075043144 -5.615515e-05 -0.0003838292 9.1866714e-05 -7.229966e-05 -0.00071812276
-0.00047061784 -0.0007604072 -0.00050912757 -0.00080180867 -0.00019091267 -0.00014776055 1.0521385e-05 6.0500577e-05
-0.00012419633 0.00016657279 0.00024882305 -0.0003600287 -0.00012583702 -0.00047888095 -0.00033743065 -0.00053743843
-0.00016760254 -0.0006420073 0.00019470486 0.00064450025 -0.00016249769 0.00051781896 -0.00021659271 4.210273e-05
0.00046209097 -0.0003296141 -0.0003538831 -0.00015499716 -0.0003229617 -0.00019660733 -0.0004362044 0.00011451459
0.00026341106 -0.0002229161 0.00041960983 -0.00050540094 0.00010680104 -0.00037648456 -0.0005349352 1.5923903e-05
-8.9973466e-05 -0.00044806572 0.00014026003 -0.00018112875 2.3449062e-37 -6e-45 -2.098464e-36 -1.2998341e-06
0.00016837846 -0.00013765995 -3.8365553e-05 -0.00016329538 0.00043322134 -0.00011808843 -0.00052132923 5.1371175e-05
0.00021838566 6e-45 -2.1140655e-17 4.097049e-06 1.08018785e-05 -0.00015244694 2.5644737e-05 0.00014271606
0.00018336733 -0.00015606852 -8.9581e-05 2.9547808e-05 -0.00017753255 -8.449361e-06 6e-45 -6e-45
-3.2590776e-06 4.5548717e-05 0.00015737173 9.724226e-05 -0.00011210558 -9.0107635e-05 9.9920464e-05 -0.00021869014
0.00010830587 -5.2841297e-05 5.1462066e-05 -6e-45 -1.4293869e-05 4.4581677e-07 3.7197277e-12 4.9959912e-05
0.00017034145 -0.00026215715 -1.4073551e-05 -5.6498924e-05 -0.00012801889 -8.78779e-05 -0.0002190136 -0.00010372235
-5.980539e-06 6e-45 1.1271827e-13 1.6491327e-06 0.00021000429 0.0005525344 -0.000106770545 0.0007294661
-0.00029219547 0.00027886956 0.00029983147 -3.957256e-05 0.00012479839 -6e-45 -9.828131e-13 2.3778797e-14
0.0003384224 8.59355e-05 0.00027456332 0.00045379627 0.0003302515 0.0003333767 0.00093513797 0.00021838013
0.00057928235 0.00059495 6e-45 -1.392125e-28 -0.00021354762 0.00014020302 -0.0002883767 0.0007222065
1.7692571e-05 5.3740372e-05 0.00051742623 0.00024173122 2.7718745e-05 0.00066172495 0.00048585742 -6e-45
7.428289e-05 4.8694477e-05 -3.4779918e-12 0.0004524912 -2.2433944e-05 0.0009169663 0.00017281939 -0.0008607763
-0.00030291654 0.00010769815 -0.00018549233 -0.00018235423 2.1578976e-06 6e-45 -5.84091e-06 -6e-45
-0.0002464038 0.00015859697 8.280925e-05 -6.403125e-05 1.0879991e-05 3.870356e-06 -1.7125769e-05 0.00013823636
-4.429393e-05 6e-45 5.5963646e-06 4.502641e-06 8.560624e-05 0.00013294719 -0.00023073048 0.0001337397
3.577891e-05 -2.2488908e-05 -3.1098425e-05 2.6680064e-29 -1.4974203e-05 2.3366505e-05 -6e-45 -2.6638037e-29
-1.241806e-05 -6e-45 -4.7344063e-05 -9.5859854e-05 -0.00048108844 -0.00041212767 -2.0759575e-05 -0.0001957769
-1.3566302e-05 3.0084717e-05 -4.332404e-05 6e-45 4.3742107e-06 -2.2781907e-05 -2.7767666e-05 -9.276217e-06
-0.00020854769 -0.00010943452 0.00015277244 -4.1592586e-05 7.0485316e-05 2.3154658e-05 1.7477149e-05 6.795248e-05
-0.0009239154 -0.0009534728 -1.7851937e-05 -0.0007243425 -0.00053265545 -0.001439889 -0.0006416293 -0.000558537
-0.00045774065 -0.00017963763 -2.6373269e-05 -0.00012235061 -0.00088210165 -0.0006276862 -0.0007902421 -0.0008567075
-0.0010783633 -0.0010071329 -0.0010924248 -0.0011668997 -0.0011976851 -0.00044975322 -0.0012511523 -0.0004846138
-0.0009926925 -0.0007419842 -0.0009688292 -0.0014185095 -0.0003697652 -0.0014920398 -0.00042145816 -0.0015398159
-0.0006607137 3.5539533e-06 -0.0010168283 -0.00045006286 -0.0005736209 -0.0012173168 -0.00084448355 -0.0008888913
-0.001107837 -0.00058048905 -0.0011821166 -0.00077396276 -0.0008202851 -0.0009434386 -0.00055362337 0.00016881956

exp_avg_sq f4 [128, 260]
00000000: 1260 2637 5b8b 2237 e487 0537 28a6 0a37
00000010: 8f25 e735 abef 7c36 19f0 8b36 09ab 8036
00000020: 51a0 ba36 bfdd 0a37 8035 0637 2320 1437
00000030: 50ff 8136 fa6a 0c37 89f0 2d37 e8cc 1137
00000040: be1f d036 2b61 6f36 df78 e836 ffaa 8d36
00000050: a6ad a436 6fc8 eb36 1d03 e636 4c91 0f37
00000060: 0ea6 bc36 7fff 3237 2ce7 0f37 703d 2237
00000070: 9780 2937 4d9f 0d37 a951 d535 f360 e435
00000080: 919b ac36 7125 4a36 324b 5336 5ded b936
00000090: 201e 0c37 01c3 1337 ad48 de36 891e 3737
000000a0: 5c08 e436 408f 1c37 11a4 1437 d9d5 5136
000000b0: 7e19 ee34 4eae 3336 5ff6 b236 93d9 2936
000000c0: 9f8f 3436 88e7 3236 e651 c536 39c6 2836
000000d0: 5efb cc2e 46c5 352c e15b 2631 acb4 4333
000000e0: c151 c334 77b2 c034 412a 4335 8935 3635
000000f0: 8abb 9e35 7ad9 3335 87f9 5935 3cf4 3635
00000100: 7ae3 6335 abd8 802d a0dc 6831 7be7 9132
00000110: 1ff3 4034 c827 e134 af8b ca34 4047 5d35
00000120: 807b 1835 e57a 0b35 3757 4135 e52c 4635
00000130: e47c 1e35 fc4d 5335 3c35 a12b d691 0531
00000140: 0b86 2331 d737 bb33 a2a4 e134 04af 1435
00000150: ba2a 3335 c499 8a35 10f0 4035 c94a 1435
00000160: ae4e 5335 38ed ec34 3dd1 8935 ab68 0830
00000170: bad8 dc31 3904 9831 0961 8433 f497 b834
00000180: 8e71 1735 a233 3e35 5a6f 1235 d140 9335
00000190: 1579 9d35 eea4 8435 e321 4e35 c5ab 3d35
000001a0: 4c71 2133 f53d b12f 6ce9 a534 df96 8f34
000001b0: 5c80 b436 9939 9736 8096 0b37 23e0 0437
000001c0: fd76 8f36 a65e f536 6d3b f236 80b9 fd36
000001d0: 47af 5737 b8af 3731 d0e8 e132 41be aa33
000001e0: 1078 4436 73a2 ba36 92e2 8036 4b34 a436
000001f0: 9dac 0a37 8494 f336 83a4 0b37 0bf4 ca36
00000200: 5b4d 0537 02ca 9536 ebce 032f 4921 1034
00000210: 03fe 0734 6186 a434 f65e 9d36 49ed 1037
00000220: e425 dd36 bea3 d936 2bdd 1637 f421 0737
00000230: 1478 da36 6fed f436 e29e 0d37 e700 be31
00000240: 3579 5b34 16ce 2334 3397 4d34 03e6 cc36
00000250: 6d75 cf36 6bca 1b37 0d6e 0237 5aa4 1437
00000260: 10f1 4137 650d 3937 a388 1737 01b4 4a37
00000270: 8c28 1734 9e98 0b2e b132 bf32 05e4 242f
00000280: 6df6 0b36 ee01 4636 d55d a635 8115 7a35
00000290: 3614 ab34 d3c9 8234 2621 5934 e9b4 3634
000002a0: 6621 ee34 60b5 272c 4db1 e733 f32d 8333
000002b0: 818a ee35 c758 c235 b869 a735 a4b8 d135
000002c0: 5463 9235 f30b 0335 181f 0e35 ed33 1532
000002d0: 80ec e434 b280 a433 9369 b230 b7d5 6d34
000002e0: 8d76 0034 4334 ff2f c2c0 8036 96dd 1536
000002f0: 9735 e735 4f24 a335 5b97 5d35 9601 1a35
00000300: e8f2 ef34 5730 9d34 5368 9c34 38e3 6a32
00000310: 025b 8134 5e12 7833 177f 3532 6263 8535
00000320: 6225 ef35 826b e035 7c5b a835 03f1 7d35
00000330: 5785 7635 61b0 3135 35d6 7d34 014e 5435
00000340: cf6d a937 b42a ad37 78eb b837 3bf2 b837
00000350: ac2d b437 65f9 a337 cba5 8137 242c 8f37
00000360: e226 9937 5173 5b37 ae1e 6a37 8496 6637
00000370: d311 5937 41c7 be37 11b3 a237 3b6a b937
00000380: 694b 9e37 8d72 a237 9a12 9a37 beb2 a037
00000390: f18d 7c37 6636 6837 a67b 6637 e921 6e37
000003a0: 9229 8037 379a 6037 5cd3 c137 1df3 ae37
000003b0: f479 aa37 9c99 b237 2e85 a637 16dc 8f37
000003c0: 6785 8837 56c6 9e37 874c 9037 205a 7b37
000003d0: d4c3 6c37 a925 5037 099a 5337 f9cc 9a37
000003e0: f045 c237 d10b b537 b030 b937 29d4 9d37
000003f0: 668c b337 2829 8237 1c16 7f37 2e83 9037
9.916739e-06 9.688399e-06 7.959057e-06 8.264127e-06 1.7221772e-06 3.7690431e-06 4.170474e-06 3.8346084e-06
5.5618953e-06 8.27707e-06 7.999479e-06 8.82897e-06 3.874222e-06 8.369558e-06 1.03676075e-05 8.690382e-06
6.2025783e-06 3.5670334e-06 6.92821e-06 4.222034e-06 4.907796e-06 7.0268793e-06 6.8548966e-06 8.557294e-06
5.622168e-06 1.0669114e-05 8.577288e-06 9.670257e-06 1.0103125e-05 8.441345e-06 1.5893503e-06 1.701554e-06
5.1441098e-06 3.012214e-06 3.148522e-06 5.5410624e-06 8.351664e-06 8.807286e-06 6.624576e-06 1.09147595e-05
6.7959027e-06 9.331678e-06 8.859687e-06 3.1267903e-06 4.4349503e-07 2.6774537e-06 5.3334948e-06 2.5309607e-06
2.6905689e-06 2.6658836e-06 5.8805917e-06 2.5149332e-06 9.321498e-11 2.5831156e-12 2.4208406e-09 4.5566296e-08
3.6381064e-07 3.5892637e-07 7.270465e-07 6.787819e-07 1.1826498e-06 6.6999166e-07 8.120191e-07 6.815569e-07
8.489511e-07 1.4648135e-11 3.3885854e-09 1.6985487e-08 1.796984e-07 4.193846e-07 3.7727065e-07 8.24326e-07
5.680413e-07 5.196037e-07 7.2025017e-07 7.382608e-07 5.9041326e-07 7.871711e-07 1.1454514e-12 1.9436945e-09
2.3795816e-09 8.718023e-08 4.2029302e-07 5.538898e-07 6.674487e-07 1.0326553e-06 7.187491e-07 5.5243123e-07
7.871812e-07 4.4131025e-07 1.0268192e-06 4.9625254e-10 6.4274817e-09 4.4242623e-09 6.1643796e-08 3.438323e-07
5.641713e-07 7.085565e-07 5.4551276e-07 1.0971218e-06 1.1732651e-06 9.882767e-07 7.679029e-07 7.0657944e-07
3.7588777e-08 3.2240136e-10 3.0903482e-07 2.67456e-07 5.379361e-06 4.506856e-06 8.320087e-06 7.919999e-06
4.275584e-06 7.3125875e-06 7.21908e-06 7.5615826e-06 1.2855809e-05 2.672989e-09 2.6299318e-08 7.950849e-08
2.9276162e-06 5.5621435e-06 3.8410735e-06 4.8936686e-06 8.265631e-06 7.259254e-06 8.323349e-06 6.0484795e-06
7.9454285e-06 4.464063e-06 1.1987893e-10 1.3423154e-07 1.2665264e-07 3.0645154e-07 4.6900195e-06 8.638316e-06
6.5907243e-06 6.486166e-06 8.992191e-06 8.054532e-06 6.510885e-06 7.2994076e-06 8.441248e-06 5.5298304e-09
2.0440059e-07 1.5255532e-07 1.9147119e-07 6.1064507e-06 6.182751e-06 9.285849e-06 7.774227e-06 8.8597535e-06
1.1559823e-05 1.1029978e-05 9.032115e-06 1.2082049e-05 1.4077722e-07 3.1740492e-11 2.2258378e-08 1.4996722e-10
2.0856053e-06 2.9505422e-06 1.2395273e-06 9.316355e-07 3.1865937e-07 2.4361233e-07 2.0221759e-07 1.7015886e-07
4.4355255e-07 2.383281e-12 1.07890266e-07 6.108521e-08 1.7772692e-06 1.4479964e-06 1.2473238e-06 1.5625451e-06
1.0906756e-06 4.881869e-07 5.294437e-07 8.684748e-09 4.2640386e-07 7.660255e-08 1.298121e-09 2.2150094e-07
1.1964057e-07 4.6421364e-10 3.8371372e-06 2.233171e-06 1.7226438e-06 1.2155014e-06 8.2549167e-07 5.737178e-07
4.4693957e-07 2.92787e-07 2.913317e-07 1.3672256e-08 2.409434e-07 5.7758704e-08 1.05644835e-08 9.938196e-07
1.7817767e-06 1.6720589e-06 1.2543601e-06 9.460056e-07 9.1836176e-07 6.6194303e-07 2.3640389e-07 7.9089665e-07
2.0197504e-05 2.0643092e-05 2.2044158e-05 2.2047307e-05 2.147894e-05 1.9547248e-05 1.5455202e-05 1.7067483e-05
1.8257128e-05 1.3080266e-05 1.395463e-05 1.3744113e-05 1.2938358e-05 2.274255e-05 1.939529e-05 2.2103186e-05
1.8870183e-05 1.9365247e-05 1.8366893e-05 1.915672e-05 1.5053419e-05 1.3840943e-05 1.3737857e-05 1.4193801e-05
1.5278147e-05 1.3387346e-05 2.3105815e-05 2.0855625e-05 2.0322368e-05 2.1290783e-05 1.9850759e-05 1.7149414e-05
1.6274584e-05 1.8927425e-05 1.7201774e-05 1.498175e-05 1.4112291e-05 1.2406535e-05 1.2612444e-05 1.8453678e-05
2.315917e-05 2.1582384e-05 2.207639e-05 1.8814653e-05 2.1403841e-05 1.5516373e-05 1.5204332e-05 1.7227223e-05

exp_avg f4 [128]
00000000: 99ee 4aba cd7b 42bb 2641 b439 620c d83a
00000010: 12d0 273a 73cb 253a b819 05ba bf20 c2b9
00000020: 3353 5fb9 6bfa a43a c473 36ba 7fbd 20b7
00000030: 7fb0 3a3a 5969 6aba ce44 053b ce87 f538
00000040: 2de2 ecba 1ca3 8539 20b0 e739 66c9 bfba
00000050: b1f1 d53a 5e31 0dba 3050 37ba 9dc6 ca3a
00000060: 91cb 22ba 8262 5eb9 0485 d7b8 c25c afb8
00000070: 68c4 793a 24d5 353a 0400 0000 d086 24bb
00000080: 7efc 623a fb85 0839 e27f 95b9 cee1 6a3a
00000090: 38b9 abb9 e2a4 5a3a 82d6 553a fd6e b43a
000000a0: 0ad1 fb3a 5d69 a238 a225 1cba 3b4e fc38
000000b0: b6fe 55ba 579f e2b9 0400 0000 1630 b4ba
000000c0: ba14 f63a 2170 103a e7d7 bcba 7afc b53a
000000d0: 63ec 813a 9775 13ba 23a8 d83a e19b ac38
000000e0: abf4 7739 5360 f0b8 1b70 773a 10ae 0935
000000f0: 7114 e13a 0153 323a 6396 593b 6ea6 1eba
00000100: b964 a8ba 3d0d 2dba c001 86bb c03a a7ba
00000110: fe83 3237 9288 833a 0a5a 9f38 ff2b 16ba
00000120: a04b b1ba 14e1 62ba a684 bcba ca2b deba
00000130: 6f08 a739 97c3 6aba 4bf6 05bb be00 40ba
00000140: d35f 0a3a ac93 5bb9 17b6 91ba 0400 0000
00000150: b595 d139 352b 9c3a bd94 15ba 4fc3 8b3a
00000160: 1575 8839 0873 7439 4075 8eba 66ec abb9
00000170: 3c21 37b8 9fbc f5ba db03 44b9 fb99 e6ba
00000180: 32c5 2d3b 2860 eb39 6761 63ba c299 83b9
00000190: 5f55 9aba 8269 123a 0120 a839 858e 72b9
000001a0: 534a 583a 0f1c 513a 2491 0c37 070e 4f39
000001b0: f088 4539 63ca cc3a 9e4f e739 8d12 443a
000001c0: 3d1f 0e38 06c6 5439 75d4 a2ba 0d1f 3cba
000001d0: 536d 343a 6585 96b9 584b 1ab8 39d4 2c3b
000001e0: 0203 373a c04c cfb9 2e2c 1a3a 3f53 b339
000001f0: ef63 c839 92ac e9b9 8f3f 9038 a7b9 d438
-0.00077412423 -0.0029675842 0.00034380815 0.0016483183 0.00064015493 0.0006324567 -0.000507738 -0.0003702696
-0.00021297931 0.0012586837 -0.00069599994 -9.580864e-06 0.0007121637 -0.00089420896 0.00203352 0.00011707806
-0.0018072777 0.00025489263 0.00044190977 -0.0014632165 0.001632264 -0.00053860794 -0.0006992845 0.0015470568
-0.00062101433 -0.00021208267 -0.00010276775 -8.361928e-05 0.0009527863 0.00069363625 6e-45 -0.0025104769
0.000865884 0.00013019882 -0.00028514775 0.0008960039 -0.0003275366 0.00083406095 0.00081572693 0.0013765987
0.0019212079 7.7443874e-05 -0.00059565355 0.00012030868 -0.000816326 -0.00043224797 6e-45 -0.0013747241
0.0018774488 0.00055098726 -0.0014407606 0.0013884448 0.0009912368 -0.0005625127 0.0016529601 8.230634e-05
0.00023646902 -0.000114620336 0.0009439007 5.128977e-07 0.001717223 0.00068025297 0.003320121 -0.00060520216
-0.00128474 -0.0006601399 -0.004089564 -0.0012758598 1.0640359e-05 0.0010035208 7.598482e-05 -0.0005728602
-0.0013526566 -0.0008654755 -0.0014382794 -0.0016950306 0.00031859006 -0.0008955537 -0.0020440992 -0.00073243293
0.0005278561 -0.0002094048 -0.0011116889 6e-45 0.00039975127 0.0011914732 -0.00057060627 0.0010663065
0.00026027174 0.00023312506 -0.0010868683 -0.00032791792 -4.3661552e-05 -0.001874823 -0.00018693453 -0.0017593497
0.0026515243 0.00044894335 -0.0008673877 -0.00025100826 -0.001177471 0.000558518 0.00032067302 -0.00023132011
0.0008250821 0.00079768983 8.378443e-06 0.00019746284 0.00018838397 0.0015624281 0.00044119073 0.0007479571
3.388453e-05 0.00020291665 -0.0012422936 -0.0007176258 0.00068827457 -0.00028709616 -3.678663e-05 0.0026371612
0.0006981344 -0.000395393 0.0005881217 0.00034203564 0.0003822143 -0.00044569798 6.878294e-05 0.00010143528

exp_avg_sq f4 [128]
00000000: 119c 0738 fe25 5938 da40 1438 0d91 8538
00000010: 791b 9537 b94c d037 cbc3 8437 587b 0d38
00000020: b0ae bc36 ebe7 8338 cbde 1538 e299 2f38
00000030: 0313 d537 f13c fc37 954b 5138 564f 2e38
00000040: ebcc e637 39b3 9c37 adbb d138 5e20 6238
00000050: 5e13 0f38 2a0e e837 3842 c637 94bf 8838
00000060: 52a3 5438 5e51 3938 8708 1d38 7306 7037
00000070: 454f fd37 90bb 8b37 b988 801a 36e3 0d38
00000080: de4b fc37 8240 9637 1cd9 ec37 be7d 3d38
00000090: 5744 cd37 64c1 fb37 07ec ab37 0f57 9c37
000000a0: d826 7938 ae9f fc37 8414 8837 b60c 6b37
000000b0: 49f2 c037 01d8 d937 4dd2 531b 217c 6038
000000c0: ff95 1038 3b94 0437 4268 7f38 cf93 ef37
000000d0: f98e 1838 495e 0838 7aa2 5a38 c177 5e37
000000e0: 47ac 6237 6344 7637 661a 1338 af5d 0b38
000000f0: dc65 2538 f762 8438 8a05 e238 56f5 aa36
00000100: d6dd 3838 d5d0 0438 702a a538 1aa8 9337
00000110: 9e00 f137 b0a7 6137 6331 3638 f0a1 7537
00000120: 931c 5838 1d7e e637 de45 0838 f74c 8038
00000130: fba8 7038 ddd0 5537 3b9f 1438 ba51 c737
00000140: 7f5a f638 889b 2338 33f6 3238 63b9 371b
00000150: 8b09 8237 9108 cf37 b5e8 0a39 d1ce 8337
00000160: d0a2 f137 7e0a 0a38 daae e237 07a0 9237
00000170: 75bf f937 ecf2 1f38 1bbf 1238 d5ab 2a38
00000180: d3cf 0938 ca9d fb37 dbe6 4838 136d 0b38
00000190: cff5 9b37 6b04 c537 3426 5538 c704 9837
000001a0: 2f5b 9737 ce64 8638 d9e9 0538 4dec 2c37
000001b0: 5fd5 3a37 9c90 fe37 c0b2 9037 8db1 3e38
000001c0: 4f20 6037 2dcf 0b38 b36c 2438 1de8 3c38
000001d0: 004e d237 9ecc cf37 da2a b037 9e3e 7338
000001e0: 5204 d337 9135 7238 0716 bb37 377c da37
000001f0: 11fe 8937 625d d037 948b c737 9d25 6637
3.2331856e-05 5.1772215e-05 3.5346347e-05 6.368952e-05 1.7774977e-05 2.4831259e-05 1.58268e-05 3.3731892e-05
5.623173e-06 6.289765e-05 3.573186e-05 4.1866566e-05 2.5400432e-05 3.0069119e-05 4.9899874e-05 4.155872e-05
2.7513559e-05 1.8680106e-05 0.00010000854 5.3912743e-05 3.4111894e-05 2.766315e-05 2.3634275e-05 6.5206696e-05
5.0696843e-05 4.4183216e-05 3.743966e-05 1.4306616e-05 3.0196863e-05 1.6657432e-05 5.3160447e-23 3.3828626e-05
3.007607e-05 1.7911432e-05 2.8234492e-05 4.5178218e-05 2.4469728e-05 3.0011586e-05 2.0494697e-05 1.8637189e-05
5.9402402e-05 3.0115098e-05 1.6222017e-05 1.4010051e-05 2.3001006e-05 2.5969e-05 1.7521463e-22 5.3521366e-05
3.447197e-05 7.902326e-06 6.0893835e-05 2.8559849e-05 3.6372778e-05 3.2512737e-05 5.212657e-05 1.32601135e-05
1.3510761e-05 1.4678665e-05 3.5072117e-05 3.3227432e-05 3.943393e-05 6.312684e-05 0.000107775515 5.0949557e-06
4.407562e-05 3.1665742e-05 7.875718e-05 1.7602044e-05 2.8729726e-05 1.3450088e-05 4.3438176e-05 1.4640842e-05
5.1525025e-05 2.7476863e-05 3.2489996e-05 6.1178514e-05 5.7377834e-05 1.2744419e-05 3.5434245e-05 2.3760706e-05
0.0001174705 3.9007078e-05 4.2667798e-05 1.5197307e-22 1.5501651e-05 2.4680312e-05 0.00013247396 1.5712723e-05
2.8805254e-05 3.2911536e-05 2.7022721e-05 1.7479075e-05 2.9772267e-05 3.8134793e-05 3.4987093e-05 4.069119e-05
3.2856897e-05 2.9995008e-05 4.7898717e-05 3.3241766e-05 1.8591903e-05 2.3486287e-05 5.0818737e-05 1.8122037e-05
1.8043063e-05 6.408394e-05 3.192746e-05 1.0307017e-05 1.1136143e-05 3.0346499e-05 1.7249375e-05 4.5464887e-05
1.3358963e-05 3.333313e-05 3.920188e-05 4.5038865e-05 2.5070272e-05 2.4771605e-05 2.100079e-05 5.799403e-05
2.5155172e-05 5.7747184e-05 2.2302394e-05 2.6045467e-05 1.6449982e-05 2.4839017e-05 2.3787645e-05 1.3717826e-05
