ppo_2layer_2048_epoch10_followepoch5/ppo_agent_episode_9100.pth (torch, 596626 bytes, 21 tensors)

fc1.weight f4 [128, 260]
0	0xbdca7cb9	-0.0988707
1	0xbd9fb2db	-0.07797786
2	0xbe146884	-0.14492995
3	0xbe232c04	-0.1593476
4	0xbceb5fe9	-0.028732257
5	0xbe4fdf89	-0.20300116
6	0x3cbcd1fa	0.023049343
7	0xbdb39173	-0.087679766
8	0xbe1d456a	-0.1535851
9	0xbe8916d8	-0.2677524
10	0xbebb8fde	-0.366332
11	0x3e9edd21	0.31028083
12	0xbe8ddc94	-0.2770735
13	0xbdec1def	-0.11529147
14	0xbdcda823	-0.10041835
15	0xbd7158cc	-0.058922574
16	0xbe5ff58b	-0.21871011
17	0xbe15f5ec	-0.14644593
18	0xbd63c3f3	-0.055606794
19	0xbcdac9ee	-0.026707616
20	0xbd06fbe2	-0.032955058
21	0xbda9cd4b	-0.0829111
22	0xbda0371a	-0.0782301
23	0xbde0111b	-0.109407626
24	0xbdb02a45	-0.08601812
25	0x3e4749c2	0.1946173
26	0xbdf0d1b8	-0.11758751
27	0xbdcefbca	-0.10106619
28	0xbdd93e4c	-0.10607585
29	0xbd840ce7	-0.064477734
30	0xbe736102	-0.23767474
31	0x3e4def32	0.20110777
32	0x3d5c0552	0.05371601
33	0xbe395b72	-0.1810129
34	0xbd458543	-0.04822279
35	0xbe90a078	-0.28247428
36	0xbe341b3d	-0.17588516
37	0xbed0204e	-0.40649647
38	0xbe897e4e	-0.26854175
39	0xbde13188	-0.109957755
40	0xbce40d41	-0.027838351
41	0xbe53a106	-0.20666894
42	0xbd857e4b	-0.06518229
43	0xbdc63d7d	-0.09679697
44	0xbe341877	-0.17587458
45	0xbdc5e6c2	-0.09663154
46	0xbdab35a8	-0.083598435
47	0xbebc08bb	-0.3672541
48	0xbe18f76f	-0.14938138
49	0xbe0f9388	-0.14021122
50	0xbe1f19ec	-0.15537232
51	0xbe509c8b	-0.20372216
52	0xbe5b56bb	-0.21419804
53	0xbe9fdd4b	-0.3122352
54	0xbd7c0d77	-0.06153628
55	0x3d18c306	0.037295364
56	0xbce0f921	-0.027462544
57	0x3d091c09	0.033474002
58	0xbd3f41a0	-0.046693444
59	0x3d3199e6	0.04335966
60	0xbd789201	-0.060686115
61	0x3da2711e	0.07931732
62	0x3d5356cb	0.051596444
63	0x3db19ca9	0.08672459
64	0x3d861279	0.06546492
65	0xbda380ee	-0.07983576
66	0xbe15a925	-0.14615305
67	0xbe4c5fb1	-0.19958378
68	0x3ce32afb	0.027730456
69	0xbd55ff75	-0.052245576
70	0xbc25a438	-0.010109954
71	0x3d84f51e	0.06492065
72	0x3da62094	0.081116825
73	0x3c750633	0.014955091
74	0x3cce448b	0.025179168
75	0xbca4d58c	-0.020121358
76	0x3b4687e0	0.003029339
77	0x3de52e43	0.11190464
78	0xbe83b7f0	-0.2572627
79	0xbe071fe5	-0.1319576
80	0x3dfe0a19	0.1240427
81	0xbc6822ce	-0.014168454
82	0x3d43460f	0.047674235
83	0xbd36f67d	-0.044668663
84	0xbcbce272	-0.023057196
85	0x3db59be6	0.08867626
86	0x3b83ea39	0.0040257243
87	0x3e37317c	0.1788997
88	0x3e0e47ea	0.1389462
89	0xbdb1dc8d	-0.08684645
90	0x3d8eee5b	0.069790564
91	0xbe7af86a	-0.24508825
92	0xbe747528	-0.23872817
93	0xbe714ba9	-0.23564018
94	0xbc35ea77	-0.011103264
95	0xbdb38200	-0.0876503
96	0xbcc432b1	-0.023949953
97	0xbd2b2496	-0.041782938
98	0xbdcb13bc	-0.099158734
99	0x3db53f09	0.088499136
100	0x3e02a2b5	0.1275738
101	0x3d6f3d48	0.05840805
102	0x3d9c6674	0.07636729
103	0xbb8e30be	-0.0043393066
104	0x3c8fad20	0.017538607
105	0xbbb1051b	-0.00540222
106	0x3d996b4b	0.07491168
107	0x3cff0288	0.031129137
108	0xbba8e3f8	-0.005154129
109	0x3d2be2db	0.041964393
110	0xbc68256f	-0.014169081
111	0xbb980f85	-0.004640522
112	0x3c823f55	0.01589934
113	0x3dde405f	0.108521216
114	0x3d96d9f1	0.07365788
115	0xbe3ecb43	-0.18632226
116	0x3dba236b	0.09088787
117	0x3d800d11	0.06252492
118	0x3e0ae6bf	0.13564585
119	0x3d4138a1	0.047173146
120	0x3dfe3034	0.12411538
121	0x3d39e769	0.045386706
122	0x3b15b905	0.0022845876
123	0x3cb9a1ed	0.02266022
124	0x3d84c07d	0.06482027
125	0x3d8516df	0.06498503
126	0xbbb571dc	-0.0055372547
127	0x3e12614a	0.14294925
128	0x3dac8268	0.084233105
129	0xbdbeda47	-0.09318977
130	0x3d17a4c9	0.037022386
131	0x3d5ef862	0.054436095
132	0x3d8c309d	0.0684521
133	0x3e1cb0ff	0.15301894
134	0x3dddae2c	0.10824236
135	0x3d4014da	0.046894886
136	0x3d8ffc3b	0.07030531
137	0x3db54c86	0.08852486
138	0x3d825577	0.063639574
139	0x3c2f9986	0.010717755
140	0x3b819059	0.003953975
141	0x3db065ef	0.08613192
142	0x3d3f26a4	0.04666771
143	0xbd25b26a	-0.040453352
144	0x3e02ecec	0.12785691
145	0x3d1f0c88	0.03883031
146	0xbd9dfcca	-0.07714231
147	0x3ca03f2b	0.01956137
148	0x3db4df54	0.08831659
149	0x3d4e4f3c	0.050368533
150	0xbd3680a9	-0.044556294
151	0x3e0ff223	0.14057212
152	0xbce8e15c	-0.028427772
153	0x3d9168e6	0.07100086
154	0xb9dcc8ca	-0.0004211127
155	0x3d43e1a9	0.04782263
156	0x3cd5dd13	0.026106393
157	0x3e24ff50	0.16113019
158	0x3b03bfe6	0.0020103394
159	0x3de24c1b	0.11049672
160	0x3d87d0db	0.06631633
161	0x3d30908e	0.043106608
162	0xbd9da72e	-0.076979026
163	0x3de8e2d9	0.11371393
164	0x3ca86914	0.020557918
165	0xbdcd0cef	-0.100122325
166	0x3e00f45d	0.12593217
167	0x3d3276f4	0.043570474
168	0xbd4353c6	-0.047687314
169	0x3e0907fa	0.13381949
170	0x3d6d4896	0.05793055
171	0x3d41cc41	0.047313932
172	0x3e1e4184	0.1545468
173	0x3d09c872	0.033638425
174	0xbd27088e	-0.040779643
175	0xbd58de36	-0.052946292
176	0x3de5c0f9	0.11218447
177	0xbc58f95d	-0.013243047
178	0x3e1bb7bf	0.15206812
179	0x3dd7981d	0.1052706
180	0xbca74f39	-0.020423518
181	0x3d3a1742	0.045432337
182	0x3d812d03	0.063074134
183	0x3d0340ef	0.032044347
184	0x3c586216	0.013206979
185	0x3d349e01	0.044095997
186	0x3b9d391e	0.0047980687
187	0xbd284775	-0.04108377
188	0xbce025ad	-0.027361715
189	0x3af4083f	0.001861818
190	0x3e2c8466	0.16847381
191	0x3ccb72bf	0.024834989
192	0x3e68940d	0.22712727
193	0x3ce6706c	0.028129779
194	0x3e3ba79b	0.18325655
195	0x3c1f486c	0.009721857
196	0xbd1113fd	-0.035419453
197	0x3d20e8e1	0.03928459
198	0x3dbb9649	0.09159524
199	0x3bf07ffd	0.007339476
200	0xbd845296	-0.064610645
201	0xbddaf534	-0.106913
202	0x3d677a7e	0.056513302
203	0xbbb9253d	-0.005650191
204	0x3e80777e	0.25091165
205	0x3d8b13c6	0.06790881
206	0xbd1fd38e	-0.039020114
207	0xbd89daf0	-0.06731212
208	0x3d52efcb	0.051498216
209	0x3d059c1a	0.032619573
210	0x3d8488eb	0.064714275
211	0x3dadb8f9	0.08482546
212	0xbce7a0c4	-0.028274901
213	0x3d2afeec	0.04174702
214	0x3d4f1732	0.05055923
215	0x3d64a368	0.0558199
216	0x3d9961c5	0.07489351
217	0x3da2b93e	0.079454884
218	0x3d3ca85e	0.046059005
219	0xbdc0c5be	-0.09412716
220	0x3d9989f8	0.074970186
221	0x3c9df921	0.019283833
222	0x3cb10a3a	0.021611322
223	0x3dada8da	0.084794715
224	0x3d026a06	0.031839393
225	0x3ce5444f	0.027986674
226	0x3bc6e596	0.0060698492
227	0x3c5f116c	0.013614994
228	0x3d9b63d7	0.07587402
229	0x3d0b61f5	0.034028966
230	0x3d0d856f	0.03455108
231	0x3ccf0160	0.02526921
232	0x3dfdb39b	0.12387773
233	0xbe12a4af	-0.14320634
234	0x3d11ecf0	0.03562635
235	0x3d392b4d	0.04520731
236	0xbc4939f9	-0.012281888
237	0x3d79fbf0	0.061031282
238	0x3d979970	0.07402313
239	0xbd8855d3	-0.06656995
240	0xbd541024	-0.051773205
241	0x3d80b640	0.062847614
242	0xbd024274	-0.031801656
243	0x3da64451	0.08118499
244	0x3dc8a720	0.097975016
245	0x3e1269bf	0.14298151
246	0x3dd4211e	0.10357879
247	0x3d9f61f1	0.07782353
248	0x3d50dca7	0.05099168
249	0x3cfbbc88	0.030729547
250	0x3d2b2d48	0.04179123
251	0xbc2b2b3a	-0.010447318
252	0x3d68c4b8	0.05682823
253	0x3d767ab3	0.06017561
254	0x3d4291b5	0.04750224
255	0x3e22db2f	0.15903924

fc1.bias f4 [128]
0	0xbc55cfa6	-0.0130499955
1	0xbd9e5732	-0.07731475
2	0x3d2c2c8e	0.04203468
3	0x3da117b0	0.07865846
4	0xbd0d7e98	-0.034544557
5	0xbc83d34e	-0.016091969
6	0xbcc11b45	-0.023572573
7	0x3d0e8e1e	0.034803502
8	0xbd812f4e	-0.06307851
9	0xbc23d3a0	-0.009999186
10	0xbd9f4fb7	-0.07778876
11	0x3c1939fd	0.009352204
12	0xbd09a60a	-0.033605613
13	0x3da26e96	0.07931249
14	0x3cb71f01	0.022353651
15	0x3d62b7d1	0.055351082
16	0x3c6b6407	0.01436711
17	0x3d968ab2	0.07350673
18	0x3d0a2122	0.033723004
19	0xbc4d6743	-0.012536827
20	0x3c6c9113	0.014438885
21	0xbc9e19a7	-0.019299341
22	0x3d448419	0.04797754
23	0x3d0c35ea	0.034231104
24	0xbcae0e84	-0.021247156
25	0x3d1fa9ee	0.038980417
26	0xbc56dda9	-0.013114371
27	0x3c92c07c	0.01791405
28	0xbc65774a	-0.0140054915
29	0xbd7506ef	-0.059821066
30	0xbda7807c	-0.08178803
31	0x3cff0e87	0.031134857
32	0x3cbd1b5a	0.023084331
33	0xbc82b36a	-0.015954692
34	0x3d5a5c03	0.053310405
35	0x3d08fc50	0.03344375
36	0xbb585263	-0.003300809
37	0x3d8c1f1b	0.068418704
38	0x3d2139e0	0.039361835
39	0x3d6bbcb4	0.05755301
40	0x3d8a14e5	0.067422666
41	0x3da725b7	0.081614904
42	0x3d020b1c	0.031748876
43	0x3c99f527	0.018793656
44	0x3c5bb72a	0.013410369
45	0xbcc650b6	-0.024208408
46	0x3be36f52	0.0069407606
47	0x3b52c2b3	0.0032159507
48	0x3d708e3b	0.05872939
49	0xbc55d4ec	-0.013051253
50	0xbd241d12	-0.040066786
51	0x3d907254	0.07053056
52	0x3d03c56f	0.03217071
53	0x3c195a7c	0.009359952
54	0x3db810e1	0.089875944
55	0x3d971d4c	0.07378635
56	0x3bdb0065	0.0066833966
57	0x3d1f761f	0.03893101
58	0xbc22f6b8	-0.009946518
59	0x3ccab60f	0.024745015
60	0x3d8acc8e	0.06777297
61	0xbbf52e1e	-0.0074823042
62	0x3d8f89b0	0.07008684
63	0x3c8cec0b	0.017202398
64	0x3c806142	0.015671376
65	0xbd512e1b	-0.05106936
66	0x3cd408f7	0.025883181
67	0x3c2a248e	0.010384692
68	0xbcb39ce4	-0.021925397
69	0x3b9b9780	0.004748285
70	0x3ce0a2cd	0.02742138
71	0x3c9134ba	0.017725337
72	0x3c9eafa4	0.019370861
73	0xbd152de9	-0.036420736
74	0xbd13a2f4	-0.036044076
75	0xbb9deeb3	-0.004819715
76	0x3d63fc6f	0.05566066
77	0x3e0107c6	0.12600622
78	0xbd42e395	-0.04758032
79	0xbd2f34fb	-0.042775135
80	0xbd60eb40	-0.054911852
81	0x3d61b695	0.055105764
82	0xbd3152a6	-0.04329171
83	0xbda4da6f	-0.080494754
84	0x3df5f63f	0.12009858
85	0x3d2f5055	0.04280122
86	0x3da24243	0.07922795
87	0xbb572f20	-0.0032834485
88	0x3cf3e08d	0.02977016
89	0xbd863279	-0.06552596
90	0xbd38825f	-0.045046207
91	0x3c532cff	0.012889146
92	0xbc6083e0	-0.013703316
93	0xbd17d796	-0.037070833
94	0xbccaf281	-0.024773838
95	0x3d0c7929	0.034295235
96	0x3acdca71	0.0015700591
97	0x3cd79649	0.026316779
98	0x3c1e0a57	0.00964602
99	0xbcbe6098	-0.023239419
100	0x3d93826d	0.07202611
101	0xbda9dffe	-0.08294676
102	0x3b3698ff	0.002786219
103	0x3d5d24a5	0.053990025
104	0x3d56d315	0.052447397
105	0x3d43d4f8	0.047810525
106	0x3d6aeae1	0.057352904
107	0x3d048e9a	0.032362558
108	0xbba0e0e4	-0.0049096216
109	0xbd88db13	-0.0668241
110	0x3de354f2	0.111001864
111	0x3de3ac68	0.11116868
112	0xbb8da072	-0.004322105
113	0xbd4dcb8e	-0.050242953
114	0x3d2bf6c7	0.041983392
115	0x3cb23b0f	0.021756677
116	0xbd40a31b	-0.04703055
117	0xbd6b7da0	-0.057492852
118	0xbd3e1012	-0.046402045
119	0x3c1b0287	0.009461052
120	0x3d489feb	0.048980635
121	0x3ddc8a87	0.107686095
122	0xbd172487	-0.03690007
123	0x3c4b1362	0.012394758
124	0x3b9b0040	0.0047302544
125	0xbd275eb4	-0.0408618
126	0x3cc07f92	0.02349833
127	0xbd5e4bbf	-0.054271456

fc2.weight f4 [64, 128]
0	0x3ddb68c3	0.10713341
1	0xbd635730	-0.05550307
2	0x3e2fda3b	0.17173092
3	0xbd545dcc	-0.051847264
4	0xbe7a56ea	-0.24447218
5	0x3e91b79a	0.2846039
6	0x3c8bcc68	0.017065242
7	0xbd7dae7f	-0.06193399
8	0x3d1e7329	0.038684044
9	0x3e3d776e	0.1850259
10	0x3a29b84e	0.0006474302
11	0x3ee47ee9	0.44628075
12	0xbd84fcc8	-0.06493527
13	0x3e90455d	0.2817792
14	0x3ee5f20e	0.44911236
15	0x3dbab5d7	0.091167144
16	0x3d7a5bec	0.06112282
17	0xbe91df53	-0.28490695
18	0x3e980964	0.29694664
19	0x3e8642c4	0.26222813
20	0x3e56f647	0.20992385
21	0x3e2bfbdd	0.16795297
22	0x3b9c2d5a	0.0047661485
23	0x3e404d3d	0.18779464
24	0x3f01f523	0.50764674
25	0x3e97da2a	0.29658633
26	0x3e36e798	0.17861784
27	0x3def3dce	0.1168171
28	0x3d4793cb	0.04872493
29	0x3ec38dd4	0.38194144
30	0xbd9693b1	-0.07352389
31	0xbcaf46c8	-0.021396056
32	0x3e2fcb8e	0.17167494
33	0x3c443c89	0.011977323
34	0x3d9f9357	0.07791775
35	0xbdfa1c7a	-0.12212463
36	0xbe69aa94	-0.22818977
37	0xbe816f8a	-0.2528041
38	0xbe427814	-0.18991119
39	0xbeac6d62	-0.33677202
40	0xbe9489ab	-0.29011282
41	0xbe14976a	-0.14510885
42	0xbb22b7b8	-0.0024828743
43	0xbcc32cd3	-0.023825085
44	0xbe34c2ec	-0.17652482
45	0x3f1dd695	0.6165555
46	0x3ac80ea9	0.0015263158
47	0xbdca9792	-0.09892191
48	0x3ea6d973	0.32587776
49	0xbc812629	-0.015765266
50	0x3da34432	0.079719916
51	0xbe1e9ec5	-0.15490253
52	0xbe8e89dd	-0.27839556
53	0x3bb515c4	0.0055262763
54	0x3db8f70d	0.09031496
55	0x3d9a6d3e	0.075403675
56	0x3e7afb19	0.24509849
57	0xbea5a7dc	-0.3235463
58	0x3e6ebc9b	0.23314135
59	0x3dc492b4	0.09598294
60	0x3e209300	0.15681076
61	0x3ef85d0a	0.48508483
62	0x3d4a50d8	0.049393505
63	0xbe459395	-0.1929458
64	0xbe2a34b3	-0.16621666
65	0x3ce90e8e	0.028449323
66	0x3e218425	0.15773065
67	0xbd77d12f	-0.060502227
68	0x3e24a1d8	0.16077363
69	0xbe144be9	-0.14482082
70	0x3ece3547	0.40275022
71	0xbe05a100	-0.13049698
72	0x3e8f9bd8	0.28048587
73	0x3eb68d10	0.35654497
74	0x3d3d26e6	0.046179675
75	0xbe407bd5	-0.18797238
76	0x3ecd2127	0.40064356
77	0xbc599f50	-0.013282612
78	0x3cae791f	0.02129799
79	0xbe3c9ae8	-0.18418467
80	0x3f34d38e	0.70635307
81	0x3dd3b5f8	0.10337442
82	0xbd59c428	-0.053165585
83	0x3d2ffb63	0.04296435
84	0xbe69ba8e	-0.22825071
85	0x3d628f73	0.055312585
86	0xbe6d18fc	-0.23154062
87	0x3dcb819b	0.0993683
88	0xbe27a1ac	-0.16370267
89	0x3e5c19c4	0.21494204
90	0xbd93c8a0	-0.072160006
91	0x3dc745fc	0.09730145
92	0x3e92936a	0.28628093
93	0x3e3c8d3c	0.18413252
94	0xbeb05233	-0.34437713
95	0xbd6f53d9	-0.058429573
96	0x3e02f2d3	0.12787943
97	0x3e36490f	0.17801307
98	0xbe06cdc8	-0.13164437
99	0x3e8d5b05	0.27608505
100	0x3ec60b32	0.38680416
101	0x3de7925e	0.11307214
102	0xbd8fafe7	-0.070159726
103	0x3c9fa5eb	0.019488296
104	0x3ee9937a	0.45620328
105	0xbea07774	-0.31341136
106	0x3e396d6b	0.18108146
107	0x3ab1ff0b	0.0013580037
108	0xbde24ff3	-0.11050405
109	0xbd232b70	-0.039836347
110	0xbd628bba	-0.055309035
111	0x3d64f693	0.055899214
112	0xbdb4a3fe	-0.088203415
113	0x3ef0e0ce	0.47046512
114	0xbd2871c4	-0.04112412
115	0x3e884e97	0.2662246
116	0x3dde38fb	0.10850712
117	0x3ee34d84	0.44395077
118	0x3b944ae1	0.004525528
119	0xbd3ee884	-0.046608463
120	0x3dc91ad1	0.09819568
121	0xbe83f1e1	-0.25770476
122	0x3e3b2de6	0.18279228
123	0x3e231040	0.15924168
124	0xbc204c68	-0.009783842
125	0xbb74cbf8	-0.003735302
126	0xbd296992	-0.041360445
127	0x3cde109e	0.027107533
128	0x3ce1f704	0.027583607
129	0x3e3afcef	0.18260549
130	0xbdf9d112	-0.1219808
131	0x3da06347	0.07831436
132	0x3ca522b9	0.020158159
133	0x3e886229	0.2663739
134	0xbdec52ef	-0.11539256
135	0xbd0be013	-0.03414924
136	0xba8fcec3	-0.0010971654
137	0xbd843be0	-0.06456733
138	0x3d3f7b88	0.046748668
139	0xbdca3097	-0.09872549
140	0x3e603206	0.21894082
141	0x3dad0393	0.08447947
142	0x3e93ae50	0.28843927
143	0x3c9ae5e7	0.018908454
144	0x3cca63cc	0.02470579
145	0xbe1a3be1	-0.15061904
146	0x3e452ddf	0.1925578
147	0xbd69bf2f	-0.057067093
148	0x3d7d0bcc	0.06177883
149	0x3e2c1a02	0.16806796
150	0x3e55d714	0.20882827
151	0x3ddd0cd0	0.107934594
152	0x3e8dd27a	0.27699643
153	0x3e89a80a	0.26886016
154	0xbdfde19d	-0.12396548
155	0x3dd8caaa	0.1058553
156	0xbe6134f1	-0.21992852
157	0x3d267d1e	0.040646665
158	0xbe40c096	-0.18823466
159	0xbe20dc46	-0.15709028
160	0xbd34e241	-0.044161085
161	0x3d952939	0.07283253
162	0xbdaef096	-0.08541982
163	0x3e1c899a	0.15286866
164	0x3e2cd611	0.16878535
165	0xbe4cb7ec	-0.19992036
166	0x3d66c319	0.056338403
167	0x3e4e6b8b	0.20158212
168	0xbe2040e7	-0.15649758
169	0xbe98f588	-0.29874825
170	0xbde6fd40	-0.11278772
171	0x3d2333f5	0.039844472
172	0xbe354a84	-0.17704207
173	0x3ea074e3	0.31339177
174	0xbde64020	-0.112426996
175	0xbeaed75a	-0.34148675
176	0x3e74e932	0.23917082
177	0xbe183cca	-0.14866939
178	0x3b5a5e6f	0.0033320447
179	0xbd295578	-0.041341275
180	0xbebd484e	-0.36969227
181	0x3dc62489	0.09674937
182	0xbdb13242	-0.08652164
183	0x3d908101	0.070558555
184	0xbe3ce950	-0.18448377
185	0xbdf5f10a	-0.12008865
186	0xbc9ec378	-0.019380316
187	0x3e4a4011	0.19751002
188	0x3e30d0af	0.17267106
189	0x3c92d60d	0.017924333
190	0xbdfc6a61	-0.12324978
191	0xbebbdaf7	-0.36690494
192	0xbe51595e	-0.20444247
193	0x3d9a93f4	0.07547751
194	0xbde6198c	-0.112353414
195	0x3ca63c92	0.020292554
196	0x3e3fa2e4	0.18714482
197	0x3df5d125	0.12002782
198	0x3e287f89	0.16454901
199	0x3d582028	0.05276504
200	0x3e08718f	0.13324569
201	0x3d691721	0.056906823
202	0x3daed683	0.085370086
203	0xbe8031a9	-0.25037888
204	0x3e1412e5	0.14460333
205	0x3c85a0c4	0.01631201
206	0x3e270ac9	0.16312708
207	0xbe15f3ac	-0.14643735
208	0x3e8d6824	0.27618515
209	0xbe5e68d5	-0.21719678
210	0x3ea6bd26	0.32566184
211	0xbd83e1bf	-0.06439542
212	0xbd607d62	-0.054807074
213	0xbcdb790f	-0.026791124
214	0x3d462bfb	0.048381787
215	0x3e00cb2a	0.12577501
216	0x3d8e2bfd	0.06941984
217	0x3e371faf	0.1788318
218	0xbea13cfa	-0.31491834
219	0x3e1c825b	0.15284102
220	0x3e163ad1	0.14670874
221	0xbdef7221	-0.1169169
222	0x3e5fe2bc	0.21863836
223	0x3c923cdd	0.017851287
224	0x3d978ac3	0.073995136
225	0x3d8350ac	0.06411871
226	0xbe7259aa	-0.23667017
227	0x3d7ae039	0.06124899
228	0xbd6c238b	-0.057651084
229	0x3dc15b2f	0.0944122
230	0xbe9471be	-0.28993028
231	0xbe372ea1	-0.17888881
232	0x3cb13113	0.021629846
233	0xbd486ecf	-0.0489338
234	0xbd47a8fc	-0.04874514
235	0xbe95e8c0	-0.29279137
236	0x3e028622	0.1274648
237	0x3ddc09c4	0.1074405
238	0x3d3d7b32	0.046260066
239	0xbd241052	-0.040054627
240	0xbe992765	-0.29912868
241	0xbdd3a33d	-0.103338696
242	0xbc3092ea	-0.010777215
243	0x3d9870a0	0.074433565
244	0x3d7462eb	0.059664648
245	0xbdb8cf2f	-0.09023892
246	0xbd90a620	-0.07062936
247	0x3a2c09e9	0.0006562756
248	0xbdd5c8c6	-0.10438685
249	0xbd20987a	-0.039207913
250	0xbc853c46	-0.016264092
251	0x3e531d17	0.20616566
252	0xbe86db6e	-0.26339287
253	0x3e58e71d	0.21181913
254	0x3cf4c7a0	0.029880345
255	0x3d98515f	0.07437395

fc2.bias f4 [64]
0	0x3c56b57d	0.013104794
1	0x3d84e5a1	0.06489111
2	0xbd3d888b	-0.046272796
3	0x3b9b0a65	0.0047314637
4	0xbdebcc1a	-0.11513539
5	0xbc912c49	-0.017721312
6	0x3d2221e7	0.039583113
7	0xbd81eaae	-0.0634359
8	0x3d000650	0.03125602
9	0x3c890c88	0.016729608
10	0xbdb3bc8b	-0.08776196
11	0xbbcef324	-0.0063156057
12	0xbd8ef1f7	-0.06979745
13	0x3d87a950	0.06624091
14	0xbdb803f4	-0.08985129
15	0xbb25ba22	-0.0025287946
16	0xbd029d78	-0.031888455
17	0x3d71037e	0.05884122
18	0x3d0b49ca	0.034005918
19	0x3d434931	0.047677223
20	0x3c71983d	0.014745769
21	0xbdbca67b	-0.09211441
22	0xbd3f091e	-0.046639554
23	0x3d6a80fb	0.05725191
24	0x3d9467c2	0.07246353
25	0x3ba53291	0.0050414284
26	0x3db9c2b9	0.090703435
27	0x3e1a76d3	0.1508439
28	0x3d7a6977	0.061135735
29	0xbc78d9c4	-0.015188638
30	0xbd6eefdb	-0.058334213
31	0xbdbe5689	-0.09293849
32	0xbcab32e0	-0.020898283
33	0x3d858738	0.065199316
34	0xbb987af9	-0.0046533314
35	0xbccc9eb2	-0.024978016
36	0x3cf247be	0.029575225
37	0x3cf35e02	0.029707912
38	0x3e0ddfdf	0.13854931
39	0xbc4d6701	-0.012536765
40	0xbd699c24	-0.057033673
41	0x3b280f34	0.0025643827
42	0xbdebbffb	-0.11511227
43	0xbd594339	-0.053042624
44	0xbc6f86e2	-0.014619561
45	0x3dfc4cd0	0.12319338
46	0xbdd5505a	-0.104157165
47	0x3c69b1df	0.014263599
48	0xbd38cfbc	-0.045119986
49	0x3d0e43ad	0.03473251
50	0x3e21a9bf	0.15787409
51	0xbcb04f54	-0.021522202
52	0x3e0d7b91	0.13816668
53	0x3d9b0162	0.07568623
54	0x3dbbef6c	0.091765255
55	0x3cb0e595	0.021593848
56	0xbcd9819c	-0.02655106
57	0x3d8e8c86	0.069603965
58	0xbd9341b7	-0.071902685
59	0x3c283aee	0.010267956
60	0x3c8df48f	0.017328529
61	0x3e74e7a2	0.23916486
62	0xbbc6d3e7	-0.006067741
63	0x3dc3b3ec	0.09555802

policy_head.weight f4 [110, 64]
0	0x3d69b2b9	0.05705521
1	0xbe7d214a	-0.2471973
2	0x3ed1268b	0.40849718
3	0xbe86b664	-0.26311028
4	0xbddc2687	-0.10749536
5	0xbf187697	-0.59555954
6	0xbdb6a161	-0.08917499
7	0x3e159ef6	0.1461142
8	0x3f429b53	0.76018256
9	0xbef13ef8	-0.47118354
10	0xbe126abd	-0.1429853
11	0x3dc2c682	0.095105186
12	0xbdb9679f	-0.09052967
13	0x3d2e99fe	0.042627327
14	0xbdc6e2b9	-0.09711213
15	0xbecdd346	-0.4020025
16	0xbc1dfb25	-0.009642397
17	0xbe3a5a52	-0.18198517
18	0x3ee3117f	0.44349286
19	0xbf19b905	-0.6004794
20	0x3efb9dbf	0.49143788
21	0xbd09b16e	-0.033616476
22	0x3ea01a28	0.31269956
23	0xbea4e44d	-0.3220543
24	0xbe4fa269	-0.20276798
25	0xbe904c5e	-0.28183264
26	0x3eade117	0.33960792
27	0x3ed03f38	0.40673232
28	0xbebe6c0e	-0.37191814
29	0x3d0b9f27	0.034087326
30	0xbb2c7c20	-0.0026319101
31	0x3e958340	0.29201698
32	0x3f2522d4	0.6450627
33	0x3e825284	0.2545358
34	0x3e391152	0.18073013
35	0x3f9df34d	1.2339875
36	0x3ef0bbde	0.4701833
37	0xbe03841d	-0.12843366
38	0xbdc6a15b	-0.09698745
39	0x3f47d10a	0.78053343
40	0x3ea273ec	0.31729066
41	0xbdff8f75	-0.12478534
42	0xbe5832ef	-0.2111318
43	0xbf153a65	-0.5829223
44	0xbf1f6b56	-0.62273157
45	0x3f14230a	0.57865965
46	0x3e493d2b	0.1965224
47	0x3c2f1341	0.010685743
48	0x3db6a8b2	0.08918895
49	0x3f21bc30	0.63177776
50	0x3edf2546	0.43583125
51	0x3e7a4b32	0.24442747
52	0xbde7a5d8	-0.11310929
53	0xbebcdc87	-0.36887
54	0xbee6b101	-0.45056918
55	0x3edefde8	0.4355309
56	0x3d56f45d	0.052479137
57	0xbeb7d949	-0.35907963
58	0x3e6469fe	0.22306058
59	0x3f37a7fb	0.7174069
60	0xbe87f87e	-0.26556772
61	0x3e94a89a	0.29034883
62	0x3ec3e37b	0.3825949
63	0x3e1f6d2c	0.1556899
64	0x3eb4e1a0	0.35328388
65	0xbe147ba9	-0.14500298
66	0x3e9870e7	0.29773638
67	0xbe2806ac	-0.16408795
68	0xbd3eff4a	-0.04663018
69	0xbf73c6c6	-0.9522518
70	0x3dd0500c	0.10171518
71	0x3e499538	0.19685829
72	0x3f202216	0.6255201
73	0xbf4c6be8	-0.7985215
74	0x3d9b53ad	0.07584319
75	0x3db9e86e	0.090775356
76	0x3d089b40	0.033351183
77	0xbd09b915	-0.033623774
78	0xbdad3b3b	-0.08458563
79	0xbed3a86c	-0.41339433
80	0xbd231047	-0.039810445
81	0xbf14e664	-0.5816405
82	0x3efe5b4a	0.49679023
83	0xbe090e08	-0.13384259
84	0x3e97fcd4	0.2968508
85	0x3c6ec723	0.014573845
86	0x3eda7a0d	0.42671242
87	0xbe8cea85	-0.27522674
88	0xbe429e2f	-0.19005655
89	0xbe38429f	-0.17994164
90	0x3ed2fb0a	0.41207153
91	0x3e825d6b	0.25461897
92	0xbe3a4101	-0.1818886
93	0x3df82cc4	0.12117913
94	0xbc769658	-0.015050493
95	0xbd622264	-0.05520858
96	0x3ed97ae1	0.42476562
97	0x3e9dfe52	0.30858094
98	0x3e062369	0.13099445
99	0x3f519c1a	0.8187882
100	0x3ea46c33	0.321138
101	0xbe3cf9fc	-0.18454736
102	0xbdaac125	-0.08337621
103	0x3e4863d6	0.19569334
104	0x3eb69b2c	0.35665262
105	0xbdf78f25	-0.120878495
106	0x3c5c79fb	0.013456817
107	0xbeded2c9	-0.4352019
108	0xbf385b6a	-0.72014487
109	0x3ed1e169	0.40992287
110	0x3d2efb44	0.042720094
111	0x3e9cb852	0.30609375
112	0x3dbafa36	0.09129755
113	0x3e6681b8	0.22510421
114	0x3ef3c856	0.47613782
115	0x3eb8b070	0.3607211
116	0xbe9db8fa	-0.30805188
117	0xbeab7d07	-0.33493826
118	0xbec96602	-0.39335638
119	0x3ebcf948	0.36908937
120	0xbd0e932f	-0.034808334
121	0xbc40b577	-0.011762015
122	0x3e216c87	0.15764056
123	0x3ee20bdc	0.44149673
124	0xbe72c17a	-0.23706618
125	0x3dd84026	0.1055911
126	0x3eb6f432	0.3573318
127	0x3dcaf49d	0.099099375
128	0x3e8254fa	0.25455457
129	0x3ed0b951	0.40766385
130	0x3ee83c75	0.45358625
131	0xbbebc767	-0.0071954015
132	0x3d3e4554	0.046452835
133	0x3e5fb89d	0.21847768
134	0x3e1370b8	0.14398468
135	0x3ec98812	0.39361626
136	0xbc0b6c27	-0.008509672
137	0x3dc9d20f	0.098545186
138	0x3e4f694d	0.20255013
139	0xbdbdbffc	-0.09265134
140	0x3d20363b	0.03911422
141	0x3de86e3f	0.11349153
142	0x3eb47c45	0.3525106
143	0x3d848704	0.06471065
144	0x3ea16383	0.31521234
145	0xbe642657	-0.2228025
146	0xbe9b5c0a	-0.30343658
147	0x3e4a5390	0.19758439
148	0x3e4810b0	0.19537616
149	0xbd0f7632	-0.03502483
150	0x3e485be7	0.19566308
151	0x3db9f436	0.09079783
152	0x3e7882b6	0.24268612
153	0x3e59a287	0.21253406
154	0xbeb5cea8	-0.3550923
155	0xbee5a7af	-0.44854495
156	0xbe33f5bb	-0.17574207
157	0x3dc638f6	0.09678833
158	0xbdce48ff	-0.10072517
159	0xbf20ea52	-0.62857544
160	0xbf24a096	-0.64307535
161	0x3d6cdf3c	0.05783008
162	0xbeee5337	-0.46547863
163	0xbe1a16c0	-0.15047741
164	0x3db51d9d	0.08843539
165	0x3ea81188	0.32825875
166	0xbee918f1	-0.4552684
167	0xbebbeee2	-0.3670569
168	0x3e6d3587	0.2316495
169	0xbd465468	-0.04842034
170	0x3ea9df87	0.3317835
171	0x3e585638	0.2112664
172	0x3d2fa286	0.042879604
173	0x3e1b13bf	0.15144251
174	0x3e565b0d	0.2093317
175	0xbed77f2f	-0.4208922
176	0x3e87dd91	0.2653623
177	0xbec26023	-0.37963971
178	0xbf308ddd	-0.68966466
179	0xbe049947	-0.12949096
180	0x3d3f8ff4	0.046768144
181	0x3dc00c8f	0.09377395
182	0xbe413747	-0.18868743
183	0xbe52b461	-0.20576622
184	0xbd8c002d	-0.06835971
185	0x3c0d36c9	0.008619019
186	0x3ed26dc0	0.41099358
187	0x3cee8a5b	0.029118707
188	0x3e7c4281	0.24634744
189	0xbec31f0c	-0.38109624
190	0x3e6c4667	0.23073731
191	0xbd9c4174	-0.07629672
192	0x3e0b225c	0.13587326
193	0xbdd5bd8b	-0.10436543
194	0x3e9a09b1	0.3008552
195	0x3e82657d	0.25468054
196	0x3ea88f18	0.32921672
197	0x3df91871	0.12162865
198	0x3d1c5f2c	0.0381767
199	0x3e976761	0.2957106
200	0xbed5e9e8	-0.4178002
201	0xbce0749f	-0.02739936
202	0x3ea3c7ca	0.31988364
203	0xbd508e1c	-0.050916776
204	0xbd209416	-0.039203726
205	0xbd97f2b6	-0.0741934
206	0x3e702885	0.23452957
207	0x3ea2a5ae	0.3176703
208	0x3e3f78b4	0.18698388
209	0x3eca616c	0.39527452
210	0x3eb8b8e1	0.3607855
211	0xbd2627e8	-0.0405654
212	0x3e4cbc15	0.19993623
213	0xbcd5f9ed	-0.02612015
214	0x3e0ca6d3	0.13735513
215	0xbf0e9bf2	-0.55706704
216	0x3e8ade2c	0.2712263
217	0x3d96c9ff	0.073627464
218	0xbf49d526	-0.78840864
219	0xbd911b23	-0.07085254
220	0x3ea3fb25	0.32027546
221	0x3d1dc2e5	0.038515944
222	0xbdffc5b3	-0.1248888
223	0x3ee19e19	0.4406593
224	0x3ec26be6	0.37972945
225	0xbe84f171	-0.25965455
226	0x3ebf43d0	0.37356424
227	0xbe017006	-0.1264039
228	0x3e10cbd0	0.14140248
229	0xbc19ea76	-0.009394279
230	0xbecc40c8	-0.39893174
231	0xbecadf8a	-0.39623672
232	0x3e1aac4d	0.1510479
233	0xbc355d21	-0.011069567
234	0x3dfa23bf	0.12213849
235	0xbd169007	-0.03675845
236	0x3e373caf	0.17894243
237	0xbef6005f	-0.48047158
238	0x3e87296c	0.2639879
239	0xbd090551	-0.033452336
240	0x3e908084	0.2822305
241	0xbf121176	-0.57057893
242	0xbeee2fc1	-0.46520808
243	0x3e60a697	0.21938549
244	0xbef3d52e	-0.4762358
245	0x3e4138f1	0.18869378
246	0x3ebaa5db	0.36454663
247	0xbeb71dbd	-0.35764876
248	0x3dadcb4a	0.0848604
249	0x3e981cae	0.2970938
250	0x3e9e8862	0.30963427
251	0x3e284ccd	0.16435547
252	0x3e2522f7	0.1612662
253	0xbf240a5f	-0.64078325
254	0xbe2abc78	-0.16673458
255	0xbf0d95ea	-0.55306876

policy_head.bias f4 [110]
0	0xbeab5633	-0.33464202
1	0xbc80674d	-0.015674258
2	0xbdb8d71c	-0.09025404
3	0x3e0beb9f	0.13664101
4	0xbeac052e	-0.33597702
5	0xbeb74954	-0.35798132
6	0x3dbdeb02	0.0927334
7	0x3dd780ff	0.10522651
8	0x3dd1fd01	0.10253335
9	0xbd1a9aab	-0.03774516
10	0xbb643172	-0.003481951
11	0xbcba7e68	-0.022765353
12	0x3e114911	0.14188029
13	0x3d042efd	0.032271374
14	0x3e48bdea	0.19603696
15	0x3deb8316	0.11499612
16	0x3dd027fa	0.10163875
17	0x3e0390e9	0.12848248
18	0x3e7c5235	0.24640734
19	0x3e74eef7	0.23919283
20	0x3dc4933a	0.09598394
21	0xbd73f622	-0.059560902
22	0xbcb7a90b	-0.022419473
23	0x3d52d3fb	0.05147169
24	0x3c92065a	0.017825294
25	0x3e604b24	0.21903664
26	0x3e314489	0.173113
27	0x3c044d23	0.008075031
28	0x3dc88ed6	0.09792869
29	0x3c632b21	0.013865263
30	0x3be32168	0.0069314726
31	0x3b1ef93f	0.002425745
32	0x3d6c841b	0.057743173
33	0x3e0a5f77	0.1351298
34	0x3cdf662b	0.027270397
35	0x3e43c09a	0.1911644
36	0x3d8112cf	0.063024156
37	0xbc893cca	-0.01675262
38	0x3dbf2b99	0.093344875
39	0x3e3bf250	0.18354154
40	0xb8ef4a6c	-0.0001141027
41	0x3e2de096	0.16980204
42	0x3dbe5075	0.0929269
43	0x3d56ee65	0.052473444
44	0x3d266230	0.040620983
45	0x3d69f8cd	0.05712204
46	0x3e65b3ae	0.22431824
47	0x3e1b54ef	0.15169118
48	0x3d8d5244	0.069004565
49	0x3e40f149	0.18842043
50	0xbd3ebb1d	-0.046565164
51	0x3e11544b	0.14192311
52	0x3e236552	0.1595662
53	0x3dc59c30	0.09648931
54	0x3d805809	0.062667914
55	0x3db8d626	0.090252206
56	0x3e43c21d	0.19117017
57	0x3e2b8e71	0.16753556
58	0xbe8d0a1b	-0.27546772
59	0xbea4d2ae	-0.32191986
60	0xbebeba84	-0.37251675
61	0xbeaa6052	-0.33276612
62	0xbe908411	-0.2822576
63	0xbe7448d3	-0.23855905
64	0xbe89f688	-0.269459
65	0xbea41a62	-0.32051378
66	0xbe5ceab9	-0.21573915
67	0xbe4af68f	-0.19820617
68	0xbe86fa7e	-0.26362985
69	0xbe807c9b	-0.25095066
70	0xbe5153db	-0.20442145
71	0xbec2385c	-0.37933624
72	0xbe70fe9a	-0.23534623
73	0xbeb57619	-0.35441664
74	0xbeb20c51	-0.34775022
75	0xbea9db3e	-0.3317508
76	0xbee50bee	-0.44735664
77	0xbe841fbd	-0.25805464
78	0xbed11683	-0.40837488
79	0xbe921b01	-0.28536227
80	0xbed05099	-0.4068649
81	0xbe90b52a	-0.28263217
82	0xbece066c	-0.40239275
83	0xbe75a8ce	-0.23990175
84	0xbedd5a90	-0.43233156
85	0xbe826ff5	-0.2547604
86	0xbe8903a9	-0.26760605
87	0xbecae2bc	-0.3962611
88	0xbea22a83	-0.3167306
89	0xbe9eff87	-0.31054327
90	0xbec488bc	-0.3838557
91	0xbec4d1dd	-0.38441363
92	0xbea02b3e	-0.3128299
93	0xbe885fc4	-0.26635563
94	0xbecdd477	-0.4020116
95	0xbe829d3a	-0.2551058
96	0xbe9d3da8	-0.30711102
97	0xbeb4660b	-0.35234103
98	0xbedb19de	-0.42793173
99	0xbe8d80e4	-0.27637398
100	0xbe61bd87	-0.22044955
101	0xbec53154	-0.38514197
102	0xbe90691a	-0.28205186
103	0xbe9f8e19	-0.311631
104	0xbeddf683	-0.43352136
105	0xbedcf1a7	-0.43153116
106	0xbebb0ae6	-0.36531752
107	0xbec2d59c	-0.38053596
108	0xbedcb6a7	-0.43108103
109	0xbe43c72c	-0.19118947

value_head.weight f4 [1, 64]
0	0xbb96b3ff	-0.004599094
1	0x3cde3a95	0.027127543
2	0xba6ced1e	-0.0009038019
3	0x3d645c85	0.055752296
4	0x3c81cddd	0.015845234
5	0x3de97e96	0.114010975
6	0xbc098739	-0.008394056
7	0xba36a5be	-0.00069674465
8	0xbe48262d	-0.19545813
9	0x3dc76b4c	0.09737262
10	0xbc42ded9	-0.011893951
11	0xbd4fcc47	-0.050731923
12	0x3dd4844e	0.103767976
13	0xbdaeb382	-0.08530332
14	0x3c64ec48	0.013972349
15	0x3d80ea8f	0.062947385
16	0xbc8abbc1	-0.016935231
17	0x3d2427ca	0.04007701
18	0xbc9359ee	-0.017987218
19	0xbd02aa87	-0.03190091
20	0xbcb366c8	-0.021899596
21	0xbdaf6d18	-0.0856573
22	0xbd320598	-0.043462366
23	0x3d63ffd0	0.055663884
24	0x3c9ce093	0.019150054
25	0x3aa2bdd1	0.0012416189
26	0xbd263eec	-0.04058735
27	0xbe15e4cc	-0.1463806
28	0x3b955aa0	0.0045579225
29	0xbdb3a3b7	-0.087714605
30	0xbdcfcf00	-0.10146904
31	0x3d03965d	0.03212582
32	0xbcc67a6c	-0.024228297
33	0xbe765f03	-0.24059682
34	0xbcde4f46	-0.02713741
35	0xbed1ec71	-0.41000703
36	0xbc1bebf6	-0.009516707
37	0x3c95e716	0.018298667
38	0x3dc54b78	0.09633535
39	0xbc11487f	-0.008867382
40	0xbc890079	-0.016723858
41	0xbdd02e0b	-0.10165032
42	0xbb5b512e	-0.0033465135
43	0x3bd8b8b7	0.0066138166
44	0x3d80325a	0.06259604
45	0xbdc618be	-0.09672688
46	0xbb5fdc5f	-0.003415845
47	0xbd1c794f	-0.038201626
48	0xbc9f4a9c	-0.019444756
49	0xbd3eb71f	-0.046561357
50	0xbdbfe44f	-0.09369718
51	0xbd4ad611	-0.049520556
52	0x3d41a686	0.04727795
53	0x3bc56c5c	0.0060248803
54	0x3da30541	0.079599865
55	0xbe652d3d	-0.22380538
56	0xbc062cc0	-0.00818938
57	0xbc493adc	-0.0122821
58	0xbb9d32bc	-0.004797308
59	0xbcf290bc	-0.02961003
60	0x3d2b8866	0.041878127
61	0x3c38f2e2	0.0112883765
62	0xbbb69030	-0.0055713877
63	0x3cca58bd	0.024700517

exp_avg f4 [128, 260]
0	0xba2a984c	-0.00065076794
1	0xba85dcef	-0.0010212938
2	0x3829c38f	4.0474868e-05
3	0x390c3db7	0.00013374431
4	0xb846fcbc	-4.7442256e-05
5	0xb9a37047	-0.00031173436
6	0xba6824d6	-0.00088555866
7	0x38ebd234	0.000112448266
8	0xb9c07d2e	-0.0003671436
9	0x39114281	0.00013853052
10	0xb95211a5	-0.00020033734
11	0xba4e2073	-0.00078631117
12	0xb925ee32	-0.00015824361
13	0xba7bcf88	-0.00096058147
14	0xba666247	-0.0008788448
15	0x38502a04	4.9630195e-05
16	0xba250be0	-0.000629602
17	0xb96e6b17	-0.00022737343
18	0x395bd296	0.00020963917
19	0xb9f12adf	-0.00045999044
20	0xba32bc42	-0.0006818214
21	0xba063793	-0.00051199755
22	0xb89672ef	-7.1739654e-05
23	0x3955686d	0.00020352165
24	0x38e248cc	0.00010790079
25	0x378b488e	1.6603877e-05
26	0xba2c4522	-0.0006571581
27	0xba445657	-0.0007489672
28	0xba47c375	-0.0007620373
29	0xb9b31ad3	-0.00034161526
30	0xb998c69b	-0.00029139672
31	0xba8f9bb6	-0.001095644
32	0x39b34943	0.00034196125
33	0xb8132973	-3.5086134e-05
34	0xb93d20b0	-0.00018036622
35	0xb87a61fc	-5.96959e-05
36	0xba18ab74	-0.00058238884
37	0x3693038f	4.3813557e-06
38	0xb91422db	-0.00014127365
39	0xba92a08e	-0.0011186765
40	0xba370976	-0.0006982306
41	0xba05ad63	-0.0005099384
42	0xb9fbe87e	-0.0004804767
43	0xba089a89	-0.0005211016
44	0xb9ff5312	-0.00048699282
45	0xb932c865	-0.00017050056
46	0xb8a0b17c	-7.6624536e-05
47	0xb98d2c23	-0.000269265
48	0xba7f0d3b	-0.00097294495
49	0x38d1714c	9.987e-05
50	0xb7c57fb0	-2.354369e-05
51	0x3936c086	0.00017428593
52	0x34965898	2.8004138e-07
53	0x35bc9b11	1.4052222e-06
54	0x80000004	-6e-45
55	0xb7005d79	-7.651158e-06
56	0xba093b4c	-0.0005234971
57	0xb6a1f32d	-4.8264833e-06
58	0x38353d3a	4.3210784e-05
59	0xb99d4927	-0.00029999876
60	0xb8eb304b	-0.000112146685
61	0xb7d308db	-2.5157284e-05
62	0xb9597419	-0.00020737982
63	0x37ba075c	2.2176355e-05
64	0xb8a1b352	-7.710479e-05
65	0x367b6c00	3.746478e-06
66	0x35df5e71	1.6642281e-06
67	0x3479e90e	2.3274717e-07
68	0x3823766f	3.897253e-05
69	0xb72ca2c8	-1.0289899e-05
70	0x3800a2d6	3.066923e-05
71	0xb82ebb9b	-4.1659554e-05
72	0xb96ae455	-0.0002240104
73	0xb991b9d5	-0.0002779501
74	0x388d517c	6.7385816e-05
75	0xb820af8a	-3.8310456e-05
76	0x39194cab	0.00014619778
77	0xb9d2fc88	-0.00040242472
78	0xa8376bab	-1.01818874e-14
79	0x2801d4ef	7.207111e-15
80	0xb6fff7aa	-7.628424e-06
81	0x3739d071	1.1075391e-05
82	0x37ab8fca	2.0451746e-05
83	0xb8101e3c	-3.4360433e-05
84	0xb8854119	-6.3540596e-05
85	0xb5a47554	-1.2253099e-06
86	0xb8099dfa	-3.2810472e-05
87	0x390572e5	0.0001272667
88	0x3921da06	0.00015435377
89	0xb9911d9e	-0.00027678622
90	0xb8825dcf	-6.216356e-05
91	0x2974fe25	5.439932e-14
92	0x34d0ad10	3.886894e-07
93	0x38614d80	5.3716358e-05
94	0xb885d683	-6.38189e-05
95	0xb7a1e7e6	-1.9300682e-05
96	0x37e93d0d	2.7804193e-05
97	0xb81b53f7	-3.7033078e-05
98	0xb85dd858	-5.289199e-05
99	0xb920cfcc	-0.000153362
100	0x36e837f0	6.920651e-06
101	0x376b7d6e	1.4036295e-05
102	0x39cfa01e	0.00039601413
103	0x38dcc49b	0.00010527038
104	0xb7163123	-8.952137e-06
105	0xb917b847	-0.00014469131
106	0x00000004	6e-45
107	0xb8bc763d	-8.986562e-05
108	0xb87020d5	-5.7251036e-05
109	0xba8a9c95	-0.001057523
110	0xb950d8ee	-0.00019917238
111	0xba382c81	-0.00070256746
112	0xba1089eb	-0.00055137154
113	0xba926b2d	-0.0011170857
114	0xb9d78126	-0.0004110422
115	0xba6fea42	-0.00091520336
116	0xba928c76	-0.0011180777
117	0x35ba8c0f	1.3898842e-06
118	0xb7a826b1	-2.0045178e-05
119	0xb7a511c4	-1.9677806e-05
120	0x36687c3e	3.4643012e-06
121	0xba6be613	-0.00089988223
122	0xba672b4f	-0.0008818404
123	0xb857b8aa	-5.1431976e-05
124	0x389c14a7	7.4425065e-05
125	0xb9e3257c	-0.00043324742
126	0xb9d387ab	-0.00040346137
127	0xba2b8ab7	-0.00065438024
128	0xbac20012	-0.0014801046
129	0xbab2e29b	-0.0013647856
130	0x2a759eca	2.1815462e-13
131	0x383f64ed	4.5631943e-05
132	0x355b9eb4	8.18148e-07
133	0x3757d990	1.2865654e-05
134	0xb914685d	-0.00014153258
135	0xb9d6823f	-0.00040914302
136	0xba06965d	-0.00051341
137	0xba9bc59c	-0.0011884454
138	0xba24147b	-0.00062591553
139	0xba918c9d	-0.0011104528
140	0xba8dda81	-0.0010822566
141	0xba70667a	-0.00091705436
142	0xba14854d	-0.00056656153
143	0x2b39090a	6.5737747e-13
144	0x38ad0917	8.250976e-05
145	0x37824624	1.552987e-05
146	0xb91c682c	-0.00014916126
147	0xb859bcf0	-5.1912793e-05
148	0xba19e3fd	-0.000587046
149	0xba41e88a	-0.0007397017
150	0xb9e732a5	-0.00044097487
151	0xba023069	-0.000496632
152	0xba30590a	-0.0006727135
153	0xba8e6c9e	-0.0010866111
154	0xbafa18d3	-0.0019080885
155	0xba0ebc24	-0.0005444905
156	0xb7048162	-7.897937e-06
157	0xb806153c	-3.1967866e-05
158	0x80000004	-6e-45
159	0x3721a02b	9.63364e-06
160	0xba155376	-0.00056963356
161	0x38b0396c	8.40303e-05
162	0xb96ed706	-0.00022777551
163	0xb804a352	-3.1623356e-05
164	0xb882ddc5	-6.240191e-05
165	0xb8a2229c	-7.7312085e-05
166	0x38f93781	0.00011883584
167	0x395972fe	0.0002073757
168	0xb85f0555	-5.317231e-05
169	0xb93ce98d	-0.00018016082
170	0x1e7b11a8	1.32914806e-20
171	0xb5ee95f7	-1.7776027e-06
172	0xb4b3a8ce	-3.346417e-07
173	0xb9824013	-0.0002484327
174	0x38133fe7	3.5107045e-05
175	0xb982197a	-0.00024814514
176	0xb7c346f7	-2.3278857e-05
177	0xb80529c9	-3.1748586e-05
178	0xb8a1d5b3	-7.716883e-05
179	0x00000004	6e-45
180	0xb716796b	-8.9689665e-06
181	0xb843a6a8	-4.6646834e-05
182	0xb88bf63d	-6.673902e-05
183	0xba0b14ba	-0.00053055177
184	0xa96b3e40	-5.2234475e-14
185	0x20d475d3	3.5992166e-19
186	0xb6e335ab	-6.771375e-06
187	0x3883a08a	6.2764695e-05
188	0xb7f561f8	-2.9251896e-05
189	0xb9e5cab9	-0.00043829324
190	0xb9c4984c	-0.00037497503
191	0xb8d10cad	-9.968258e-05
192	0x393049ee	0.00016812209
193	0xb8b73b63	-8.7371816e-05
194	0x38f0658e	0.00011463008
195	0xb4ce7d71	-3.846176e-07
196	0xb8638db3	-5.4252985e-05
197	0x37826878	1.5545855e-05
198	0x9e31c364	-9.410708e-21
199	0x370d21f4	8.41216e-06
200	0xb8d0d9d0	-9.9587836e-05
201	0xb93f3ac7	-0.00018237076
202	0xb923ee46	-0.00015633655
203	0xb942a003	-0.00018560891
204	0x37edf48b	2.8366476e-05
205	0x38435ed5	4.6579942e-05
206	0x389f3007	7.5906566e-05
207	0x37ec6c8d	2.818394e-05
208	0xba87d476	-0.0010363001
209	0xba061ece	-0.00051162846
210	0xbae3eeac	-0.0017389855
211	0xbae49cd4	-0.0017441758
212	0xba033bd6	-0.00050061697
213	0xb9d79584	-0.00041119393
214	0xb9e0edec	-0.00042901875
215	0xba4be30c	-0.0007777668
216	0xba229e8e	-0.0006203436
217	0xba256521	-0.000630932
218	0xba82dc70	-0.0009983908
219	0xb96d58f2	-0.00022635216
220	0xb998f17d	-0.00029171622
221	0xba150c45	-0.0005685727
222	0xba525830	-0.0008024005
223	0xbae2532e	-0.0017267221
224	0xba918b3d	-0.0011104118
225	0xb9a67552	-0.00031749398
226	0xba8fc17c	-0.0010967697
227	0xba6b2a86	-0.0008970875
228	0xba5d26fe	-0.0008436291
229	0xb9ec6cff	-0.00045094636
230	0xba9f089e	-0.0012133305
231	0xba9e7c31	-0.0012091455
232	0xb9f2ec63	-0.0004633396
233	0x38cfca56	9.908217e-05
234	0xba7f700f	-0.0009744176
235	0xb9fdd62f	-0.000484155
236	0xba74b0c2	-0.00093342003
237	0xbab4f69a	-0.0013806403
238	0xbaa8ad18	-0.0012868969
239	0xb96e361e	-0.00022717609
240	0xbabd75fb	-0.0014454717
241	0xb81ecc22	-3.786025e-05
242	0xb9fcbe28	-0.00048206863
243	0xba11afbe	-0.00055574987
244	0xb9bab8fc	-0.0003561451
245	0xb9dcfa91	-0.00042148356
246	0xba88b763	-0.001043063
247	0xba17d909	-0.00057925336
248	0xba86d66f	-0.0010287295
249	0xbaa72749	-0.0012752797
250	0xba84db96	-0.0010136242
251	0xba922376	-0.0011149484
252	0xba10b74e	-0.00055204786
253	0xba151563	-0.0005687086
254	0xba7eab5c	-0.00097148656
255	0xba1b918a	-0.0005934468

exp_avg_sq f4 [128, 260]
0	0x370925d3	8.174643e-06
1	0x36fad06d	7.4748446e-06
2	0x36c4ed30	5.8688674e-06
3	0x36fe749f	7.5833664e-06
4	0x36853055	3.9693355e-06
5	0x36700d84	3.5770654e-06
6	0x36ab0a03	5.0973626e-06
7	0x364b4009	3.028663e-06
8	0x3601f888	1.9367162e-06
9	0x3663fec1	3.3973922e-06
10	0x368af4b0	4.141206e-06
11	0x36b9065d	5.5141704e-06
12	0x36662b50	3.4297882e-06
13	0x36e09150	6.692637e-06
14	0x36e38ae6	6.781297e-06
15	0x36f04826	7.1609566e-06
16	0x36c69873	5.9186073e-06
17	0x368a98bf	4.1305025e-06
18	0x36c49e36	5.8596734e-06
19	0x36dd16dc	6.5889744e-06
20	0x36f73a0e	7.367932e-06
21	0x36d9f0af	6.495123e-06
22	0x361d85b6	2.3472653e-06
23	0x37064fce	8.005603e-06
24	0x35facb28	1.8685578e-06
25	0x36bd18df	5.6355343e-06
26	0x36f38bb9	7.25823e-06
27	0x36e984eb	6.959415e-06
28	0x370770bc	8.072875e-06
29	0x36e71470	6.8867157e-06
30	0x368c8640	4.187954e-06
31	0x369707e0	4.5010675e-06
32	0x364f2525	3.0867025e-06
33	0x361a5552	2.2997451e-06
34	0x35d9d888	1.6230779e-06
35	0x36385013	2.7464746e-06
36	0x3664267d	3.399705e-06
37	0x36858747	3.9794572e-06
38	0x35b3e4ef	1.3403168e-06
39	0x36eac780	6.9969683e-06
40	0x36e36286	6.776597e-06
41	0x36cdd376	6.1340934e-06
42	0x36e40b5a	6.796251e-06
43	0x36eaab9b	6.993721e-06
44	0x364d3466	3.057788e-06
45	0x36843c59	3.940932e-06
46	0x36721f18	3.607891e-06
47	0x361bc551	2.3211653e-06
48	0x36baacd2	5.563351e-06
49	0x358e4959	1.0601171e-06
50	0x359b9bc2	1.1593731e-06
51	0x3563a083	8.4797665e-07
52	0x321d80d7	9.1678976e-09
53	0x321d80ff	9.167933e-09
54	0x2e770d6d	5.6173222e-11
55	0x33636228	5.294183e-08
56	0x34961eb7	2.7962025e-07
57	0x3488e8dc	2.5501402e-07
58	0x35df08d6	1.6617366e-06
59	0x353ef085	7.113052e-07
60	0x35754e28	9.1383345e-07
61	0x3588443a	1.0152646e-06
62	0x3515f9f9	5.5870584e-07
63	0x35194f5e	5.7112436e-07
64	0x35899635	1.0251011e-06
65	0x321e9e8f	9.2328625e-09
66	0x320d1b90	8.213547e-09
67	0x32eb0838	2.7361338e-08
68	0x33d15e5e	9.749486e-08
69	0x341cc1ad	1.4599091e-07
70	0x34bdabf8	3.5329117e-07
71	0x35160e24	5.589993e-07
72	0x351ff613	5.95902e-07
73	0x34f60378	4.5823595e-07
74	0x3574db9d	9.121666e-07
75	0x34f89362	4.6300835e-07
76	0x3551ac98	7.8109724e-07
77	0x352286c2	6.05458e-07
78	0x320cacac	8.188334e-09
79	0x31514855	3.0454619e-09
80	0x317b92b9	3.660871e-09
81	0x342bd39b	1.6002598e-07
82	0x34ead71b	4.3742406e-07
83	0x34b4fc81	3.3711333e-07
84	0x34c2357a	3.6174225e-07
85	0x350febc2	5.3614724e-07
86	0x355a2db5	8.127784e-07
87	0x3518010e	5.662595e-07
88	0x350c9cea	5.2382404e-07
89	0x351cb02a	5.837088e-07
90	0x35518b6a	7.806144e-07
91	0x3008fcd1	4.9835785e-10
92	0x31abaa4a	4.9961146e-09
93	0x3278d98f	1.4484967e-08
94	0x336b6dbb	5.4815e-08
95	0x340743ff	1.2597592e-07
96	0x34aef1b1	3.258588e-07
97	0x34cdb675	3.831698e-07
98	0x34c0c819	3.5908377e-07
99	0x3507db34	5.06104e-07
100	0x34dbb082	4.0920355e-07
101	0x35425863	7.239925e-07
102	0x358042fc	9.556238e-07
103	0x353b04c4	6.9669863e-07
104	0x345c6691	2.052641e-07
105	0x34293435	1.5758344e-07
106	0x30d22644	1.5290387e-09
107	0x346e636c	2.2201647e-07
108	0x3649f072	3.0091292e-06
109	0x367e4305	3.788796e-06
110	0x365820cb	3.2205596e-06
111	0x36da5b06	6.507503e-06
112	0x36dfcce0	6.6697685e-06
113	0x371323a2	8.770179e-06
114	0x36ecbefd	7.055582e-06
115	0x36f10fcb	7.1841982e-06
116	0x3713c46b	8.807615e-06
117	0x344ffdf9	1.9370772e-07
118	0x346b595c	2.1918589e-07
119	0x351a07a3	5.7380583e-07
120	0x35303155	6.5636897e-07
121	0x36297aee	2.5254517e-06
122	0x36165bd4	2.2405193e-06
123	0x365a4fab	3.2530904e-06
124	0x36640d8d	3.3982535e-06
125	0x36bc3c14	5.6098306e-06
126	0x36f39922	7.2597913e-06
127	0x36a24c97	4.8368925e-06
128	0x3725262b	9.843653e-06
129	0x36b762d5	5.4653306e-06
130	0x34056ed0	1.2426904e-07
131	0x34359f41	1.6914875e-07
132	0x3336e7ef	4.258612e-08
133	0x3482e126	2.4378204e-07
134	0x3667ec42	3.4559203e-06
135	0x36bd4ea5	5.6417944e-06
136	0x36c93e66	5.997531e-06
137	0x36bc3747	5.6092717e-06
138	0x36dd6591	6.598137e-06
139	0x36fd44ff	7.5480198e-06
140	0x36fdcdfc	7.5639673e-06
141	0x370d95ad	8.439104e-06
142	0x3727a814	9.993109e-06
143	0x329d9af8	1.8347677e-08
144	0x34a3123c	3.0374383e-07
145	0x34608aa2	2.091206e-07
146	0x34af6435	3.26692e-07
147	0x35c37ebd	1.4565518e-06
148	0x36bcd11d	5.6271806e-06
149	0x3692427e	4.35888e-06
150	0x36cdf9e4	6.138567e-06
151	0x36eef28d	7.1211894e-06
152	0x36d9b2d9	6.4879246e-06
153	0x3709d3bd	8.2151355e-06
154	0x373abf22	1.11309655e-05
155	0x37288129	1.0043653e-05
156	0x34215848	1.502641e-07
157	0x34864f00	2.5016925e-07
158	0x2fb34192	3.26065e-10
159	0x33f5aee9	1.14405175e-07
160	0x35e3cb51	1.6971991e-06
161	0x35903076	1.074294e-06
162	0x34a9fda5	3.1663254e-07
163	0x35396adf	6.907339e-07
164	0x35aeff94	1.3038393e-06
165	0x34f390e8	4.536771e-07
166	0x350799bf	5.051515e-07
167	0x3514cfff	5.543697e-07
168	0x3489ca7c	2.5665565e-07
169	0x3419f99d	1.4340044e-07
170	0x33014542	3.0098143e-08
171	0x34cf2c65	3.8589056e-07
172	0x350efdf1	5.3268656e-07
173	0x35c65533	1.4776946e-06
174	0x36097e49	2.0488098e-06
175	0x34e94844	4.3452212e-07
176	0x3508b10d	5.092159e-07
177	0x3495a72c	2.7875046e-07
178	0x352bd72b	6.4015575e-07
179	0x2df64fc1	2.800238e-11
180	0x35509f3a	7.7717743e-07
181	0x3517aedc	5.650634e-07
182	0x34c96252	3.7510705e-07
183	0x3482ad21	2.4340355e-07
184	0x33921b01	6.803567e-08
185	0x2f348d9f	1.6421219e-10
186	0x35509328	7.770018e-07
187	0x35a42af4	1.2231453e-06
188	0x35e8af89	1.7336434e-06
189	0x35c7188f	1.4833803e-06
190	0x3591bbd1	1.0858004e-06
191	0x353ca9ab	7.0282357e-07
192	0x352d7b83	6.4627255e-07
193	0x34cd23a5	3.821016e-07
194	0x34dcb082	4.110662e-07
195	0x33e6b45b	1.0743016e-07
196	0x34affede	3.278173e-07
197	0x34a5719d	3.081631e-07
198	0x3415812b	1.3923697e-07
199	0x34f17dc6	4.498126e-07
200	0x35548772	7.9173253e-07
201	0x34aec729	3.2554934e-07
202	0x354a5f91	7.538993e-07
203	0x357a2ba9	9.319579e-07
204	0x3494f21b	2.7743303e-07
205	0x34cdb6ad	3.831714e-07
206	0x354ec2b7	7.702433e-07
207	0x34c938c5	3.7480473e-07
208	0x378401f2	1.5736532e-05
209	0x378e51e6	1.6965856e-05
210	0x37a0cddf	1.9169353e-05
211	0x37875362	1.6132082e-05
212	0x377cc288	1.5065663e-05
213	0x377b49ee	1.4977979e-05
214	0x37647591	1.3617232e-05
215	0x37581462	1.2879349e-05
216	0x3763dcd2	1.3581668e-05
217	0x37310eb5	1.0553446e-05
218	0x37425905	1.1584028e-05
219	0x37256bca	9.859863e-06
220	0x37296aa9	1.0098019e-05
221	0x37940195	1.7643712e-05
222	0x378e1dbf	1.694157e-05
223	0x37853389	1.5878833e-05
224	0x378fcdd7	1.714278e-05
225	0x37813822	1.5404137e-05
226	0x37681ffb	1.3835724e-05
227	0x376035a6	1.3363931e-05
228	0x37498cf1	1.2013349e-05
229	0x3739a36b	1.1064908e-05
230	0x37506a5d	1.2422531e-05
231	0x3731e6a4	1.0603722e-05
232	0x37385415	1.09868315e-05
233	0x373d0c92	1.1268205e-05
234	0x3789e61f	1.6438831e-05
235	0x378f1013	1.7054414e-05
236	0x37862780	1.5992438e-05
237	0x378f8654	1.710948e-05
238	0x377cb8b9	1.506338e-05
239	0x374df073	1.2274936e-05
240	0x37525b15	1.2538182e-05
241	0x376a2404	1.3955872e-05
242	0x3764e045	1.3642076e-05
243	0x374f4790	1.2354823e-05
244	0x373fb119	1.1425721e-05
245	0x37309ce4	1.0526946e-05
246	0x374192d8	1.1537886e-05
247	0x378c053b	1.6691736e-05
248	0x37909350	1.7234735e-05
249	0x3794ee4c	1.775394e-05
250	0x3791dc59	1.7387954e-05
251	0x377aaf49	1.4941973e-05
252	0x3773f6f7	1.454143e-05
253	0x377c82d9	1.5050836e-05
254	0x3758e166	1.2927083e-05
255	0x37594d16	1.2952156e-05

exp_avg f4 [128]
0	0xbade99fc	-0.0016983147
1	0xbb13178c	-0.0022444455
2	0xbb552162	-0.0032521118
3	0x3bc2b7e0	0.0059423298
4	0xbaf75c87	-0.001887218
5	0x38f55d4c	0.00011699888
6	0x3a0d9c55	0.00054020184
7	0xba1f93c9	-0.00060873904
8	0xba585afe	-0.0008253305
9	0xbad1e20d	-0.0016012803
10	0xb9f8466d	-0.00047354717
11	0x3a88d789	0.0010440211
12	0xba471953	-0.0007595021
13	0xbb6f5596	-0.003651952
14	0xbaa7b0f6	-0.0012793827
15	0x3b51ca15	0.003201132
16	0xbae36e99	-0.0017351686
17	0x3a806573	0.0009795859
18	0xbb67decf	-0.0035380607
19	0x38c988fa	9.609941e-05
20	0xbb0a23e0	-0.0021078512
21	0xbb338385	-0.0027391624
22	0x3a037365	0.00050144485
23	0xba00ed25	-0.000491815
24	0xbb06d8c1	-0.0020575973
25	0xbb78e5f3	-0.0037978857
26	0x3adcfa33	0.0016859233
27	0x3ac4bd4a	0.0015010026
28	0xbb0532c5	-0.002032445
29	0x3a4ad93a	0.0007738058
30	0x00000004	6e-45
31	0xba87af2a	-0.0010351886
32	0x39b749b7	0.00034959402
33	0xb86ca5b5	-5.642111e-05
34	0xbafd5311	-0.0019327124
35	0x3b38fe54	0.0028227763
36	0xb90d2ad9	-0.0001346277
37	0x3ad59c42	0.0016297179
38	0xb9f11ea8	-0.00045989943
39	0x381073bb	3.4440058e-05
40	0x3b94c512	0.004540094
41	0xba6aed6c	-0.000896177
42	0x380f19f1	3.4118017e-05
43	0xbabb6c9c	-0.0014299336
44	0x3ad61de1	0.0016335809
45	0xba95a5e7	-0.0011417241
46	0x00000004	6e-45
47	0xb8a8faa8	-8.0575526e-05
48	0xbaa6cbf2	-0.0012725575
49	0xb99b803a	-0.0002965944
50	0xba8c8018	-0.0010719327
51	0x3b6e83ef	0.0036394557
52	0x370c5401	8.364209e-06
53	0xbae0d12e	-0.0017152184
54	0x3b7b3c8a	0.0038335645
55	0x3b539ad3	0.0032288327
56	0x3a11cc30	0.00055617373
57	0xb90a4eb5	-0.00013190026
58	0xbaf737b3	-0.0018861204
59	0xbb083237	-0.0020781884
60	0x391a10e5	0.00014692878
61	0xbb68282e	-0.003542434
62	0xb9f554c5	-0.000467932
63	0xba2aa5b5	-0.00065096776
64	0xbb209c62	-0.0024507274
65	0xba87794b	-0.0010335831
66	0x3992a3af	0.00027969244
67	0x3a1b00ca	0.00059128983
68	0x39e35b8f	0.0004336503
69	0xba8e40d2	-0.0010853058
70	0xbb5776e0	-0.0032877252
71	0xbb819bb5	-0.0039553293
72	0xbb38c45b	-0.002819321
73	0xba19aecd	-0.0005862534
74	0xba7b8582	-0.00095947844
75	0x3a6dd756	0.000907292
76	0xbacb46f2	-0.0015508814
77	0x39eef663	0.0004557847
78	0xbb08de4c	-0.0020884452
79	0xba9bca75	-0.0011885898
80	0xbb6816fa	-0.0035414086
81	0x3a9d169f	0.0011984891
82	0xb8f3874f	-0.00011612346
83	0x00000004	6e-45
84	0x3abcabe3	0.0014394488
85	0xba3f0f66	-0.00072883663
86	0x3b07a5f4	0.002069828
87	0xbafe7b54	-0.0019415417
88	0xba261f97	-0.0006337105
89	0xba06a276	-0.0005135903
90	0x36cb36d7	6.0562556e-06
91	0xbabf1f86	-0.0014581538
92	0xba33bbc6	-0.00068562885
93	0xbad767fa	-0.0016434186
94	0xbabcc2ae	-0.0014401281
95	0xbb03836b	-0.0020067345
96	0xba71c0e2	-0.0009222162
97	0xbae2db3d	-0.001730777
98	0xba4401d6	-0.000747708
99	0x3b245be6	0.002507919
100	0xbac16dc1	-0.0014757441
101	0xba8d3b92	-0.00107752
102	0x3b32497b	0.0027204442
103	0xb9ee373c	-0.0004543605
104	0x3a8b1596	0.0010611292
105	0x3b7b239a	0.003832078
106	0xbb1f7e67	-0.0024336816
107	0x3b09c7ac	0.0021023555
108	0xb968e757	-0.00022211425
109	0x3ac98858	0.0015375717
110	0x3b12bbe9	0.0022389835
111	0x3b8394a5	0.0040155225
112	0xbb410543	-0.00294526
113	0xbb2c8478	-0.0026324075
114	0x3af539ca	0.0018709239
115	0xbad9db16	-0.0016621079
116	0xba2bdb3a	-0.00065557996
117	0xba9b6ed3	-0.001185859
118	0xbb3b0c1e	-0.0028541158
119	0x3a3c7596	0.00071891525
120	0x3b1708c0	0.0023045987
121	0x3b269e68	0.0025424007
122	0xba2b3da3	-0.0006532317
123	0xbaf4cceb	-0.0018676793
124	0xbab1e041	-0.0013570861
125	0xbb3a4884	-0.002842457
126	0xbad1915c	-0.0015988755
127	0xba27cda0	-0.0006401185
