ppo_2layer_2/ppo_agent_episode_5800.pth (torch, 596626 bytes, 21 tensors)

fc1.weight f4 [128, 260]
0.079812706 -0.15007992 0.040352724 -0.04049472 -0.011909627 -0.025787272 -0.020839144 0.1039396
0.032633714 0.036458 0.0034182863 -0.01804445 -0.14981762 -0.023083823 -0.10162629 -0.041025892
0.008975478 -0.031658985 -0.009532388 -0.06544991 0.082841985 0.0007448369 -0.008643044 -0.041309036
-0.081348896 0.019499278 -0.0061495956 -0.10131724 -0.0007654372 -0.0013971006 -0.00028846404 0.018715717
-0.011353855 0.09443553 0.055711426 0.07465035 -0.03965823 -0.013601942 -0.040509246 -0.026098441
-0.031290207 -0.056668114 0.05532721 -0.12524077 -0.025841817 -0.058522172 0.11221031 -0.06998308
-0.0994839 -0.004926793 -0.08521632 -0.05352432 0.124770924 0.08590704 -0.04615614 0.07457867
0.034562275 -0.05281107 -0.026254015 -0.025207775 -0.08827716 -0.016069185 0.021111298 0.057643775
0.07635104 -0.0007011974 0.01747256 -0.033825148 -0.07707121 0.0026374618 0.009169947 -0.013919545
-0.01934266 -0.0059745526 -0.06092057 0.029592559 -0.053737782 0.05384796 -0.028149825 -0.020021424
0.0029201405 -0.08083166 -0.06198776 -0.030249212 -0.04628321 -0.046381287 -0.10058345 0.053273596
0.012650746 -0.03845512 0.039837662 0.100690424 -0.0006811599 -0.037901197 -0.078987956 -0.09384874
-0.01666592 0.04648855 -0.010631779 -0.057412583 0.0016672026 -0.02281006 -0.09283892 -0.03589685
-0.00908781 0.045372263 -0.12069949 0.1032476 -0.014265262 -0.013013432 0.085742876 0.013064961
-0.08212271 -0.06800343 -0.018749665 0.09063168 0.08882001 -0.091614135 -0.01591059 -0.1479611
-0.070201315 -0.1054568 -0.06451714 -0.018170761 0.06841587 0.06986995 -0.13517073 -0.0009415317
0.08540222 -0.08305608 -0.075872704 -0.023912366 0.10112219 -0.09623787 -0.0012320845 -0.16139998
0.023441182 0.0080359625 -0.11622031 -0.05560511 -0.0015823755 0.016842283 -0.092091344 0.035131883
0.16287887 0.06294052 0.10884432 0.08286319 0.0625472 0.10340029 -0.028420994 -0.110131726
0.063732915 -0.051757883 -0.01835246 0.058697987 -0.096449055 0.042372655 -0.12876949 0.02869797
-0.01871544 0.0499675 -0.036662925 0.010675308 -0.09443701 -0.06412326 0.04480243 -0.06050032
-0.09912582 -0.021831822 -0.038066503 0.15626648 0.16721597 -0.029984307 -0.0095478 0.05655293
0.021504303 -0.050661255 -0.051998228 -0.0039675874 -0.086921155 -0.0050828955 -0.09547544 -0.09260905
0.042789828 0.026695076 -0.057927296 0.07389602 -0.043548457 -0.04736039 -0.08934627 0.053033512
-0.038711876 -0.09920533 -0.034327805 0.06827378 -0.06884386 -0.02845604 -0.009278371 0.059386943
0.03629518 -0.037351962 0.0020010201 -0.04748277 0.00032923828 -0.046278503 -0.044055 -0.080304556
0.008221021 0.029955713 -0.052908223 -0.06564848 -0.008698539 -0.019778978 -0.053552438 -0.15154098
-0.062294338 -0.062173545 -0.016361302 -0.113741964 -0.017647864 -0.067173146 0.033820968 -0.098775044
-0.038556706 -0.028753791 0.081890486 0.00031483368 -0.077006415 -0.072635196 0.031656012 -0.02150151
-0.037778825 -0.038595486 0.0520243 0.05223259 -0.050862018 -0.03822478 -0.036180425 -0.07498717
-0.10623714 -0.07791542 -0.016797595 -0.10650511 -0.057346165 0.01861478 0.040041175 -0.040159162
-0.016031157 -0.06757228 -0.05035473 -0.08547043 -0.08606517 -0.017086329 -0.07848714 -0.016706478
00000000: d874 a33d 8dae 19be e648 253d cbdd 25bd
00000010: 9920 43bc d43f d3bc dab6 aabc 49de d43d
00000020: eeaa 053d fc54 153d 5405 603b f4d1 93bc
00000030: ca69 19be 491a bdbc 7221 d0bd c40a 28bd
00000040: e20d 133c daac 01bd bc2d 1cbc 9a0a 86bd
00000050: 0fa9 a93d 2941 433a 8e9b 0dbc aa33 29bd
00000060: 409a a6bd f3bc 9f3c 8c82 c9bb 6a7f cfbd
00000070: 9fa7 48ba eb1e b7ba fd3c 97b9 b451 993c
00000080: 8505 3abc 6a67 c13d aa31 643d 48e2 983d
00000090: ab70 22bd aeda 5ebc 06ed 25bd 66cc d5bc
000000a0: 292a 00bd d31c 68bd c99e 623d 1e3f 00be
000000b0: 38b2 d3bc f2b4 6fbd 85ce e53d 4a53 8fbd
000000c0: 37be cbbd ef70 a1bb e585 aebd 513c 5bbd
000000d0: e687 ff3d 08f0 af3d 380e 3dbd b4bc 983d
000000e0: 2c91 0d3d 6c50 58bd a912 d7bc 8980 cebc
000000f0: a8ca b4bd 86a3 83bc 9af1 ac3c e11b 6c3d
00000100: ef5d 9c3d 90d0 37ba 9d22 8f3c 3d8c 0abd
00000110: 83d7 9dbd 44d9 2c3b 8c3d 163c ce0e 64bc
00000120: 8074 9ebc 2ec6 c3bb d987 79bd 186c f23c
00000130: 261c 5cbd ae8f 5c3d 769a e6bc f803 a4bc
00000140: d45f 3f3b 128b a5bd e1e6 7dbd 32cd f7bc
00000150: 7793 3dbd 4efa 3dbd b2fe cdbd 6a35 5a3d
00000160: 1345 4f3c 1e83 1dbd d12c 233d c836 ce3d
00000170: de8f 32ba 493e 1bbd 70c4 a1bd c533 c0bd
00000180: f886 88bc c76a 3e3d ea30 2ebc 7529 6bbd
00000190: 0986 da3a 2adc babc 5522 bebd 9308 13bd
000001a0: 0ae5 14bc 44d8 393d 4b31 f7bd 7a73 d33d
000001b0: d8b8 69bc 4a36 55bc f699 af3d 6b0e 563c
000001c0: f42f a8bd 6245 8bbd e698 99bc 1a9d b93d
000001d0: 44e7 b53d 31a0 bbbd ed56 82bc 1d83 17be
000001e0: b5c5 8fbd bcf9 d7bd 9021 84bd d9da 94bc
000001f0: 9f1d 8c3d fa17 8f3d 326a 0abe 1fd1 76ba
00000200: 5ce7 ae3d 4e19 aabd 2663 9bbd dee3 c3bc
00000210: 2719 cf3d 5c18 c5bd e57d a1ba 0946 25be
00000220: b907 c03c 45a9 033c ea04 eebd 2fc2 63bd
00000230: b667 cfba d4f8 893c 639a bcbd 73e6 0f3d
00000240: b8c9 263e f6e6 803d c5e9 de3d 2db4 a93d
00000250: bf18 803d 88c3 d33d 25d3 e8bc be8c e1bd
00000260: 6786 823d 1300 54bd e657 96bc 4d6d 703d
00000270: 1587 c5bd f38e 2d3d 26dc 03be 0118 eb3c
00000280: 1f51 99bc b9aa 4c3d dd2b 16bd 7de7 2e3c
00000290: 3168 c1bd 0e53 83bd c182 373d 2fcf 77bd
000002a0: 7a02 cbbd a6d8 b2bc 9feb 1bbd 5204 203e
000002b0: aa3a 2b3e a6a1 f5bc 606e 1cbc 0ca4 673d
000002c0: cb29 b03c 2d82 4fbd 18fc 54bd 8902 82bb
000002d0: b803 b2bd 6b8e a6bb a188 c3bd d0a9 bdbd
000002e0: 6344 2f3d a2af da3c 2c45 6dbd cc56 973d
000002f0: de5f 32bd f8fc 41bd 2dfb b6bd ab39 593d
00000300: 5890 1ebd 2a2c cbbd 509b 0cbd 20d3 8b3d
00000310: 02fe 8cbd a41c e9bc 4f04 18bc b93f 733d
00000320: 41aa 143d 5ffe 18bd 8c23 033b 4b7d 42bd
00000330: 9d9d ac39 878e 3dbd 0473 34bd b776 a4bd
00000340: 76b1 063c af65 f53c 4bb6 58bd b672 86bd
00000350: 5184 0ebc 8607 a2bc cd59 5bbd 8f2d 1bbe
00000360: 5928 7fbd b0a9 7ebd 2308 86bc 8cf1 e8bd
00000370: 4192 90bc 1392 89bd db87 0a3d 924a cabd
00000380: a3ed 1dbd 128d ebbc 33b6 a73d 4310 a539
00000390: 8ab5 9dbd c3c1 94bd bca9 013d ef23 b0bc
000003a0: f8bd 1abd 4d16 1ebd 6f17 553d d7f1 553d
000003b0: b154 50bd 9691 1cbd ed31 14bd e092 99bd
000003c0: dc92 d9bd 1f92 9fbd 1c9b 89bc 5a1f dabd
000003d0: d0e3 6abd 067e 983c 3702 243d ef7d 24bd
000003e0: c653 83bc 5663 8abd c340 4ebd 1f0b afbd
000003f0: f042 b0bd a1f8 8bbc debd a0bd 06dc 88bc

fc1.bias f4 [128]
-0.038503915 -0.025400355 -0.033105142 -0.018451301 0.017257381 0.004087221 -0.020004714 0.04075943
0.0072206855 0.0033039642 0.04259388 -0.02090564 -0.10485487 -0.02536506 0.059958715 0.0148922
-0.048958093 -0.028589522 -0.06696162 0.03500622 -0.04740753 -0.08023168 0.043372944 -0.017023398
0.062366202 -0.055006366 -0.06450743 0.08130872 -0.06979219 -0.032414787 0.055471748 0.0804161
-0.017833091 -0.0052481918 -0.04334145 -0.056639586 0.015485503 -0.038415477 -0.0018938113 -0.04248063
0.034370787 0.039172404 -0.036690574 0.030251455 0.08493126 0.045294035 -0.039466646 0.04536259
-0.06485722 -0.019560324 0.05524468 0.04264065 -0.025685461 -0.04839617 0.04845718 -0.050123565
0.009909542 0.022335198 0.057335436 -0.0354342 -0.021843096 -0.040749058 -0.023244971 0.04434524
-0.0562526 -0.055687346 -0.004649531 0.0066292947 0.0020095918 0.007334643 -0.023181755 -0.04895349
-0.021041837 -0.08427227 -0.028195763 -0.093356706 -0.029140083 -0.001526025 -0.025921388 0.014096024
-0.050225265 0.03109929 0.07713164 -0.050878134 0.053134244 -0.05951199 -0.037970252 -0.008748624
-0.051793385 0.021154651 0.01598422 0.049187046 -0.012321514 -0.030850172 0.008298499 -0.049143374
0.008017901 0.03813407 -0.039412927 -0.07006683 0.012352197 0.0681804 -0.029702269 -0.045202997
0.009242311 -0.02781986 -0.019303622 0.025781928 0.008955064 -0.019834008 0.04586349 0.04164589
0.054142423 -0.005467406 -0.0060621025 0.056607705 -0.06958197 -0.06080588 0.005953409 0.032837182
-0.036914 0.008221949 0.0029281997 -0.030736556 0.06720918 0.02971865 -0.035005923 0.01623057
00000000: 48b6 1dbd 6814 d0bc 4299 07bd 2f27 97bc
00000010: 5a5f 8d3c 18ee 853b ede0 a3bc 5cf3 263d
00000020: 809b ec3b 5287 583b ec76 2e3d 4e42 abbc
00000030: 26be d6bd 63ca cfbc 4597 753d 6afe 733c
00000040: 4888 48bd 9334 eabc 2c23 89bd af62 0f3d
00000050: 662e 42bd 8250 a4bd d4a7 313d a774 8bbc
00000060: b473 7f3d 5b4e 61bd 791c 84bd 3085 a63d
00000070: 35ef 8ebd 5ec5 04bd 5836 633d 32b1 a43d
00000080: b416 92bc 06f9 abbb ce86 31bd e9fe 67bd
00000090: e8b6 7d3c 8c59 1dbd c339 f8ba 2b00 2ebd
000000a0: 62c8 0c3d 3e73 203d db48 16bd e6d1 f73c
000000b0: 71f0 ad3d 3d86 393d c7a7 21bd 20ce 393d
000000c0: ddd3 84bd f93c a0bc 3f48 623d f6a7 2e3d
000000d0: 516a d2bc 103b 46bd 097b 463d 5e4e 4dbd
000000e0: a25b 223c 4ef8 b63c 90d8 6a3d 7423 11bd
000000f0: 4bf0 b2bc 7ce8 26bd 3d6c bebc 5ba3 353d
00000100: 2069 66bd 6a18 64bd 185b 98bb 8e3a d93b
00000110: 5bb3 033b 7257 f03b aae7 bdbc 7483 48bd
00000120: ee5f acbc f196 acbd cdfa e6bc cd31 bfbd
00000130: 2fb7 eebc e704 c8ba 1759 d4bc 03f3 663c
00000140: 02b9 4dbd f0c3 fe3c 31f7 9d3d 9765 50bd
00000150: 4ba3 593d d8c2 73bd b286 1bbd 6356 0fbc
00000160: 4d25 54bd 854c ad3c 57f1 823c 5b78 493d
00000170: 2de0 49bc 80b9 fcbc 6df6 073c 904a 49bd
00000180: 845d 033c 7832 1c3d 736f 21bd 337f 8fbd
00000190: df60 4a3c 2aa2 8b3d 2c52 f3bc c726 39bd
000001a0: 106d 173c 7ae6 e3bc a122 9ebc 9f34 d33c
000001b0: 43b8 123c ee7a a2bc 5bdb 3b3d e194 2a3d
000001c0: 72c4 5d3d ed27 b3bb 9aa4 c6bb 7bdd 673d
000001d0: fe80 8ebd 960f 79bd d014 c33b 4880 063d
000001e0: 2233 17bd 5bb5 063c 0ae7 3f3b 3bcb fbbc
000001f0: f7a4 893d 8774 f33c 5f62 0fbd f9f5 843c

fc2.weight f4 [64, 128]
-0.042806238 0.18569255 -0.05562629 -0.06582805 -0.06395769 0.002747597 -0.29738384 0.040402617
0.010381038 0.038647216 -0.15162672 -0.05237604 -0.08959708 0.0024619426 0.09779586 0.16039291
0.12378136 0.050929464 0.01296938 0.11099496 -0.17628716 0.021850226 0.09673867 0.106718354
0.12707533 0.038700994 -0.23193498 -0.108737305 -0.09526892 0.08951661 -0.009749154 -0.10351789
0.09093563 -0.28847653 0.06099079 -0.04142392 -0.0013173374 0.05408469 0.1382208 -0.07452426
-0.091288626 0.15129949 -0.16355285 -0.1733346 -0.09967308 -0.045151025 0.0027163841 0.056795496
-0.20826507 0.06250122 0.07113043 -0.11635633 0.010922913 -0.0032615208 0.06874287 -0.055566106
0.18793274 -0.008339454 0.10715188 -0.046460457 -0.01283517 0.10011613 -0.04262531 -0.07954746
-0.20653902 -0.18762045 -0.13790745 0.026008919 -0.028360426 0.037214056 0.10332202 0.0049204947
0.092997156 -0.09234207 0.016534595 -0.072133146 0.01189501 -0.12977836 -0.108521715 -0.07261636
-0.13427147 0.1064572 0.05685206 0.051295016 0.05716185 -0.07357436 -0.03192585 0.15815067
0.19419338 -0.06944797 0.007708117 0.026380016 0.10291854 0.044290304 0.10807451 0.027839232
-0.0044297837 -0.13454604 0.07829537 -0.0619767 -0.22951922 -0.12530528 -0.15196419 0.034895267
-0.07047393 0.050994243 0.024401251 -0.19746706 0.13028161 0.1272008 0.09028714 0.13501145
0.05779682 -0.1487162 -0.023148516 -0.08265988 -0.1250365 0.053263802 -0.028824652 0.03842652
-0.036264665 -0.10515142 0.09011836 -0.021856032 0.037820652 -0.0029727146 -0.1700485 -0.09513112
-0.03226608 0.20495798 -0.12810399 0.1375019 0.062744915 -0.24038216 -0.07342364 -0.043024246
0.1621429 0.035710245 -0.05726966 0.02473887 0.075474486 0.14073196 0.04417396 -0.031415164
-0.020604307 0.013436776 0.08843904 0.099924535 -0.11768847 -0.005094642 0.009545828 0.004922669
-0.06579948 0.15942648 -0.07701321 -0.0882092 -0.10569638 0.0984349 -0.0018758477 -0.10003829
0.15573409 -0.056160208 0.052834004 0.009648276 0.1310252 -0.07827592 0.08744441 -0.10453603
-0.13022251 -0.016853625 -0.2432791 -0.22444223 0.017799547 -0.16307701 -0.023704842 -0.05936667
-0.18531659 0.070652805 0.014547025 0.022378076 -0.013588385 0.029396556 0.046342067 0.021468706
-0.017527888 -0.00566187 -0.0690723 -0.22881149 0.07643177 0.10821045 -0.17136218 -0.0656881
-0.07481489 0.06442527 -0.16445419 -0.01446794 -0.016851792 -0.259908 -0.03347018 0.010974745
-0.060719978 0.043499652 -0.17924665 -0.023494294 0.1049991 0.018360896 0.113235556 -0.12921242
-0.29703268 0.025491327 -0.098321676 0.13076037 0.06458751 0.0134708835 0.13828385 0.025330978
0.071008526 -0.15720315 0.10727076 0.0796578 0.13381813 0.049422186 -0.076551884 -0.02335249
-0.12867759 -0.16869937 -0.13100983 -0.011494262 -0.13629231 -0.22515725 -0.07779481 0.07653133
-0.24634197 0.094983235 0.026984055 -0.1626182 0.0021606958 -0.040216208 -0.066935666 0.048212137
-0.07803434 0.0708397 -0.12197201 0.031055538 -0.1469742 0.07914022 0.104093894 0.14988339
0.16548613 -0.13887556 0.065891825 0.045923416 -0.0156056 0.06855763 -0.068943135 -0.0014658548
00000000: 9855 2fbd 3026 3e3e 65d8 63bd dbd0 86bd
00000010: 40fc 82bd 0711 343b b242 98be 377d 253d
00000020: 3b15 2a3c 8b4c 1e3d 0944 1bbe 4288 56bd
00000030: ad7e b7bd 8b58 213b 3249 c83d 0a3e 243e
00000040: 1581 fd3d 6a9b 503d 867d 543c 5351 e33d
00000050: 9f84 34be 3fff b23c ec1e c63d 278f da3d
00000060: 0920 023e ef84 1e3d 5d80 6dbe aab1 debd
00000070: 5a1c c3bd 7c54 b73d eaba 1fbc 3001 d4bd
00000080: 763c ba3d 32b3 93be 7bd1 793d 21ac 29bd
00000090: 82aa acba e887 5d3d c189 0d3e 2da0 98bd
000000a0: 88f5 babd 41ee 1a3e 667a 27be a07e 31be
000000b0: 6621 ccbd 48f0 38bd 5d05 323b 65a2 683d
000000c0: 7043 55be a400 803d d5ac 913d 3a4c eebd
000000d0: 05f6 323c 3dbf 55bb 10c9 8c3d 4999 63bd
000000e0: 7171 403e 35a2 08bc 7272 db3d 524d 3ebd
000000f0: 9b4a 52bc b009 cd3d e197 2ebd c7e9 a2bd
00000100: f77e 53be 931f 40be 9c37 0dbe a810 d53c
00000110: 2054 e8bc c46d 183d 7f9a d33d 1a3c a13b
00000120: 4b75 be3d d71d bdbd 8f73 873c 8bba 93bd
00000130: 4ae3 423c 9ee4 04be a240 debd e3b7 94bd
00000140: 767e 09be 3c06 da3d b5dd 683d b91a 523d
00000150: 8b22 6a3d 27ae 96bd aec4 02bd 40f2 213e
00000160: a1da 463e bd3a 8ebd 5f94 fc3b e71a d83c
00000170: f5c6 d23d c069 353d 2b56 dd3d 1a0f e43c
00000180: b827 91bb 70c6 09be 5359 a03d 48db 7dbd
00000190: 1607 6bbe 0750 00be 809c 1bbe 57ee 0e3d
000001a0: a354 90bd 57df 503d 22e5 c73c ce34 4abe
000001b0: 8b68 053e ed40 023e 77e8 b83d 7140 0a3e
000001c0: 5cbc 6c3d 0f49 18be f5a1 bdbc 9549 a9bd
000001d0: 9109 00be 252b 5a3d ad21 ecbc 2065 1d3d
000001e0: 428a 14bd a159 d7bd fa8f b83d 6c0b b3bc
000001f0: d4e9 1a3d e0d1 42bb 3221 2ebe 1bd4 c2bd
00000200: 7029 04bd 81e0 513e b12d 03be 4ccd 0c3e
00000210: 6880 803d be26 76be 225f 96bd 313a 30bd
00000220: ca08 263e e844 123d 9793 6abd 2ca9 ca3c
00000230: 5e92 9a3d 0a1c 103e c1ef 343d 30ad 00bd
00000240: 5dca a8bc ec25 5c3c 871f b53d 3ca5 cc3d
00000250: a706 f1bd f4f0 a6bb 1b66 1c3c 574e a13b
00000260: e1c1 86bd b240 233e 1ab9 9dbd 06a7 b4bd
00000270: 5877 d8bd 3d98 c93d 01df f5ba e0e0 ccbd
00000280: c278 1f3e 3f08 66bd 7868 583d cd13 1e3c
00000290: 782b 063e 204f a0bd 0e16 b33d fc16 d6bd
000002a0: 0d59 05be 9d10 8abc 281e 79be 2fd4 65be
000002b0: 5bd0 913c a9fd 26be a830 c2bc 772a 73bd
000002c0: a2c3 3dbe 6bb2 903d a556 6e3c 3a52 b73c
000002d0: d1a1 5ebc 0cd1 f03c 2ed1 3d3d 24df af3c
000002e0: a596 8fbc 3587 b9bb c775 8dbd 8f4d 6abe
000002f0: 4388 9c3d 719d dd3d 9179 2fbe 7c87 86bd
00000300: 8d38 99bd 65f1 833d ae66 28be f00a 6dbc
00000310: c50c 8abc a912 85be 0718 09bd 6bcf 333c
00000320: 83b5 78bd b12c 323d 6f8c 37be 1b77 c0bc
00000330: c509 d73d 9769 963c 0be8 e73d 4350 04be
00000340: ab14 98be 30d3 d03c e05c c9bd 0ce6 053e
00000350: 7546 843d fbb4 5c3c 489a 0d3e e982 cf3c
00000360: eb6c 913d ddf9 20be c6b0 db3d a123 a33d
00000370: 9f07 093e eb6e 4a3d 3cc7 9cbd b94d bfbc
00000380: 0fc4 03be 87bf 2cbe 7127 06be 6e52 3cbc
00000390: 3690 0bbe 9f8f 66be e352 9fbd 75bc 9c3d
000003a0: 1241 7cbe 9286 c23d aa0d dd3c 6385 26be
000003b0: 769a 0d3b c0b9 24bd 9115 89bd 177a 453d
000003c0: 78d0 9fbd 6814 913d 76cc f9bd 2f68 fe3c
000003d0: 6880 16be 4514 a23d 2e2f d53d 087b 193e
000003e0: 3275 293e 6535 0ebe 4bf2 863d 311a 3c3d
000003f0: a1ae 7fbc f167 8c3d 0f32 8dbd ed21 c0ba

fc2.bias f4 [64]
-0.01752549 0.012000388 0.070154525 0.07241724 0.03376409 0.095168516 -0.105111875 -0.04485249
-0.019151177 -0.009431186 0.000915341 -0.09701837 -0.031256102 0.04019168 -0.057908762 0.06329746
0.011582324 -0.021496654 -0.024392499 0.096487224 0.015345708 -0.1329127 0.03188891 0.029588304
0.11838263 -0.023619879 0.11387263 -0.027404984 0.069061324 0.03294456 0.008796083 -0.09136505
0.050150692 -0.07325238 -0.077236004 -0.11359453 -0.056737516 0.14973074 -0.005936413 -0.0055716527
-0.10348629 0.025418036 -0.094624974 -0.14312358 0.03398324 -0.0377459 -0.107159905 -0.01937928
-0.105266236 0.024368739 -0.10417049 0.09675208 -0.026128907 0.030140106 -0.08890541 -0.02286524
-0.04297006 -0.094219394 0.006061737 -0.092964716 0.060191724 0.070727006 0.08379029 0.0422047
00000000: 9e91 8fbc 469d 443c 2dad 8f3d 7d4f 943d
00000010: 374c 0a3d b6e7 c23d e544 d7bd 3fb7 37bd
00000020: eee2 9cbc 4385 1abc 7ff3 6f3a 91b1 c6bd
00000030: 6606 00bd 08a0 243d bd31 6dbd 19a2 813d
00000040: cac3 3d3c c019 b0bc c7d2 c7bc 189b c53d
00000050: 906c 7b3c 441a 08be f29d 023d 2c63 f23c
00000060: 9872 f23d 7a7e c1bc 0e36 e93d 6b80 e0bc
00000070: 0670 8d3d e0f0 063d 721d 103c 991d bbbd
00000080: d06a 4d3d 5805 96bd e92d 9ebd 40a4 e8bd
00000090: 9965 68bd 0453 193e 3e86 c2bb 6992 b6bb
000000a0: 9ff0 d3bd 7c39 d03c bdca c1bd fd8e 12be
000000b0: 0332 0b3d 729b 1abd a776 dbbd 4cc1 9ebc
000000c0: d395 d7bd f3a0 c73c 5657 d5bd f425 c63d
000000d0: 4a0c d6bc 62e8 f63c 0a14 b6bd e24f bbbc
000000e0: 6001 30bd 19f6 c0bd 89a1 c63b 4964 bebd
000000f0: 998b 763d 52d9 903d 3e9a ab3d d6de 2c3d

policy_head.weight f4 [110, 64]
-0.6774864 0.043628212 -0.2596697 -0.20333691 -0.20698799 -0.1644439 -0.022226827 -0.008646838
-0.11355699 -0.13440168 -0.36285445 0.12183491 0.08638264 0.051325954 -0.012305812 -0.5922703
-0.17013231 -0.27214772 -0.16639195 0.03716559 -0.48618364 -0.35794425 -0.044240333 0.1443493
-0.46541268 -0.15161546 -0.68898225 -0.14636408 0.10511705 -0.3203042 0.27135667 -0.035229284
-0.072800614 -0.15051003 -0.05201878 -0.27017394 -0.15681042 0.02948981 -0.35143414 0.06680179
-0.10244025 0.05195025 0.040141776 0.0059213634 0.17129906 -0.058183353 -0.043604486 -0.28105175
-0.16153653 8.59385e-05 -0.25495628 0.026827525 0.1379318 -0.04071639 -0.07741027 0.04769463
-0.12930837 0.12646323 -0.2147905 -0.10633294 0.009760763 -0.16534129 0.0411004 -0.05797236
-0.59140354 -0.048700098 -0.16261525 -0.22601223 -0.13612424 -0.25990283 0.014549342 -0.07897214
-0.21853177 0.02351684 -0.32035014 0.14180261 0.09315838 -0.06259478 0.08701141 -0.5345256
-0.10308711 -0.1041785 -0.08417009 -0.044139743 -0.3558289 -0.22259021 0.12538242 0.23288395
-0.3849232 -0.08550774 -0.48910248 -0.04160878 0.26913297 -0.031188952 0.21896522 0.03863497
-0.016419733 -0.014379487 -0.092892624 -0.18237801 -0.060514092 0.07297486 -0.5275173 0.10647384
-0.0361036 0.019391697 -0.019253463 0.03876575 0.25413182 -0.06463972 -0.12693547 -0.40401605
-0.33297303 -0.0026736066 -0.27487645 -0.16373903 0.07912103 0.058295336 -0.07226634 -0.09276409
-0.0069968333 0.071101576 -0.22092773 -0.03986859 0.009370554 -0.17295346 0.018695299 0.04753507
0.32015294 -0.080770776 0.15469153 -0.006680052 -0.07787123 -0.032981716 -0.15728237 0.15224157
0.27474394 0.10433089 0.20806004 0.046369296 0.04440318 -0.03485968 0.01868026 0.15138185
0.09768922 0.18520314 -0.02920749 -0.2254254 -0.023094237 0.0463463 -0.121525794 -0.07366824
0.16669227 0.12777328 0.28991884 0.169707 -0.0122151375 0.26327094 -0.13305585 0.118133575
-0.121303014 -0.08903575 0.109826125 0.18796755 0.13453749 -0.2302473 0.1970142 -0.014494472
0.19685869 -0.18390532 -0.049540367 0.22879216 -0.12097563 -0.0802564 -0.06516536 0.22265707
0.25667033 0.16213821 0.22403905 -0.23784275 -0.061630063 -0.26131022 0.007685842 -0.23022772
0.2515151 -0.23122397 -0.120159745 0.20134225 0.16134034 -0.16156065 -0.2502683 0.024842191
-0.061524842 0.21038982 -0.2369076 0.20359026 -0.14155446 -0.027196966 -0.14087473 0.442883
0.35106847 0.38448548 0.32817864 0.05945697 0.076497905 0.114418745 0.05144805 0.05989164
0.42934737 0.42543954 -0.065840624 -0.1358157 -0.068972364 0.18605307 0.064696185 0.003297014
-0.20669958 -0.08642313 -0.23184013 0.25365743 -0.08031561 -0.22865304 -0.040774923 -0.013306086
-0.25194085 0.3105519 0.4542336 0.249692 0.46163878 -0.6996196 -0.114566974 -0.28472126
0.43324867 0.20901288 0.06129188 0.34763324 0.20885323 0.14426403 0.3189371 -0.06573556
0.35694617 0.40752557 0.3316056 -0.2920659 -0.023624657 0.18992662 0.47971073 0.049672652
0.36906496 0.3319437 -0.044093437 0.14666499 0.27764344 -0.031553835 0.04381673 -0.20942535
00000000: c06f 2dbf 7fb3 323d 6df3 84be 8d37 50be
00000010: a9f4 53be fb63 28be 0915 b6bc 78ab 0dbc
00000020: 9190 e8bd 98a0 09be 0fc8 b9be 9584 f93d
00000030: 62e9 b03d 2a3b 523d 519e 49bc 079f 17bf
00000040: 2a37 2ebe f256 8bbe a762 2abe f23a 183d
00000050: 10ed f8be 7844 b7be 5a35 35bd 4ed0 133e
00000060: 924a eebe 1541 1bbe 2461 30bf 77e0 15be
00000070: 9c47 d73d e9fe a3be 43ef 8a3e 954c 10bd
00000080: 7d18 95bd 4d1f 1abe a511 55bd 3d54 8abe
00000090: e992 20be 9d94 f13c 2def b3be 60cf 883d
000000a0: 32cc d1bd c9c9 543d b46b 243d ff07 c23b
000000b0: 0569 2f3e ab51 6ebd 9e9a 32bd 04e6 8fbe
000000c0: d569 25be e239 b438 a189 82be 66c5 db3c
000000d0: fe3d 0d3e 3bc6 26bd 4789 9ebd 725b 433d
000000e0: 6a69 04be 947f 013e 0af2 5bbe 16c5 d9bd
000000f0: 9beb 1f3c 3a4f 29be e558 283d 6d74 6dbd
00000100: 3966 17bf c179 47bd 9d84 26be c06f 67be
00000110: 2764 0bbe fc11 85be 5d60 6e3c 25bc a1bd
00000120: cbc6 5fbe 63a6 c03c ef04 a4be b434 113e
00000130: d2c9 be3d b131 80bd 0a33 b23d abd6 08bf
00000140: 561f d3bd 8a5b d5bd 5e61 acbd e0cb 34bd
00000150: 352f b6be b0ee 63be 4064 003e 2179 6e3e
00000160: a714 c5be af1e afbd a46b fabe f86d 2abd
00000170: cccb 893e f97f ffbc 6b38 603e b43f 1e3d
00000180: ad82 86bc f197 6bbc 7d3e bebd 4dc1 3abe
00000190: a0dd 77bd d873 953d 600b 07bf f50e da3d
000001a0: 5ee1 13bd 56db 9e3c 70b9 9dbc d6c8 1e3d
000001b0: 911d 823e d461 84bd 5ffb 01be 31db cebe
000001c0: 717b aabe ad37 2fbb 9bbc 8cbe 34ab 27be
000001d0: 350a a23d 17c7 6e3d 6000 94bd 19fb bdbd
000001e0: b145 e5bb b49d 913d e13a 62be 3f4d 23bd
000001f0: f486 193c b61a 31be e226 993c 22b4 423d
00000200: 16eb a33e 266b a5bd 7567 1e3e 56e4 dabb
00000210: f47a 9fbd d617 07bd a10e 21be 37e5 1b3e
00000220: 3dab 8c3e 6fab d53d b10d 553e bbed 3d3d
00000230: 1ce0 353d 06c9 0ebd 5807 993c d803 1b3e
00000240: 4911 c83d e4a5 3d3e 8c44 efbc ebd5 66be
00000250: 2030 bdbc 9ed5 3d3d 84e2 f8bd 60df 96bd
00000260: 61b1 2a3e 00d7 023e 3e70 943e acc7 2d3e
00000270: 0022 48bc 73cb 863e cb3f 08be 04f0 f13d
00000280: b76d f8bd 6058 b6bd 85ec e03d 917a 403e
00000290: 32c4 093e f3c5 6bbe 17be 493e 397a 6dbc
000002a0: 5395 493e ad51 3cbe d7ea 4abd 7e48 6a3e
000002b0: 12c2 f7bd 785d a4bd 6b75 85bd 3700 643e
000002c0: 4b6a 833e 8f07 263e 7e6a 653e 0d8d 73be
000002d0: ce6f 7cbd 74ca 85be 84d9 fb3b d1c0 6bbe
000002e0: 96c6 803e fac5 6cbe 5016 f6bd aa2c 4e3e
000002f0: 6736 253e 2870 25be 2b23 80be da81 cb3c
00000300: 7901 7cbd 6e70 573e e897 72be f779 503e
00000310: a7f3 10be 2ccc debc 7741 10be 90c1 e23e
00000320: 3fbf b33e 48db c43e 0807 a83e 2789 733d
00000330: efaa 9c3d 6054 ea3d 31bb 523d f050 753d
00000340: 6bd3 db3e 36d3 d93e 73d7 86bd 4513 0bbe
00000350: 6241 8dbd b284 3e3e 6f7f 843d b712 583b
00000360: 0ea9 53be 9cfe b0bd 8067 6dbe 63df 813e
00000370: 837c a4bd 0624 6abe 9b03 27bd c501 5abc
00000380: 64fe 80be a900 9f3e 4e91 e83e 42af 7f3e
00000390: eb5b ec3e 451a 33bf 17a2 eabd fcc6 91be
000003a0: c5d2 dd3e 7907 563e 320d 7b3d fcfc b13e
000003b0: 9fdd 553e f3b9 133e b94b a33e 5ea0 86bd
000003c0: a6c1 b63e 31a7 d03e 36c8 a93e a989 95be
000003d0: 7f88 c1bc 207c 423e a59c f53e 8d75 4b3d
000003e0: 15f6 bc3e 86f4 a93e 529b 34bd 592f 163e
000003f0: 4827 8e3e 983e 01bd 2c79 333d 9973 56be

policy_head.bias f4 [110]
-0.3959811 -0.33372927 0.016757343 -0.1301837 -0.20904082 -0.38186496 -0.08559894 -0.026688956
-0.03085874 0.013700891 0.02306945 0.14997779 0.15352781 0.054724712 0.20636939 0.1729527
0.16220981 0.067293525 0.21495779 -0.05764324 0.09112167 -0.030751904 0.041832674 0.023495687
0.008493691 0.2158694 0.032913305 0.27137175 0.24206395 0.21668158 0.15369496 0.1585536
-0.057192653 0.08037444 0.021453377 -0.055244684 0.08917671 0.062780924 -0.005248009 0.067645684
0.13427882 0.10276286 0.0566459 -0.014877557 0.09157045 0.07090656 0.011506841 -0.009619065
0.0024528273 0.07309619 0.12277198 0.13593201 0.18290393 0.057695035 0.053656377 0.17173761
0.20591429 0.23186903 -0.40032282 -0.3777129 -0.3852527 -0.3324668 -0.4145509 -0.2869549
-0.38200992 -0.31858537 -0.3895336 -0.2999425 -0.19430946 -0.19730699 -0.2904641 -0.2096327
-0.2094617 -0.26222584 -0.3459272 -0.30613837 -0.26509774 -0.32757694 -0.1904144 -0.30266795
-0.27892894 -0.427589 -0.20369019 -0.3214283 -0.22325088 -0.2714444 -0.285228 -0.3922872
-0.40924153 -0.3834926 -0.2458284 -0.30243593 -0.26281732 -0.38510606 -0.24626848 -0.23066886
-0.32467455 -0.34205514 -0.20087506 -0.3107279 -0.27303982 -0.37843874 -0.24052279 -0.31977335
-0.3153867 -0.33652714 -0.23610775 -0.3931399 -0.1883528 -0.35609263
00000000: 09be cabe 90de aabe b246 893c e04e 05be
00000010: cc0e 56be ce83 c3be 7f4e afbd cca2 dabc
00000020: 78cb fcbc b479 603c 25fc bc3c c793 193e
00000030: 6536 1d3e 0527 603d 7f52 533e 831a 313e
00000040: 541a 263e 30d1 893d e51d 5c3e 511b 6cbd
00000050: 009e ba3d 6beb fbbc bd58 2b3d 077a c03c
00000060: 1f29 0b3c de0c 5d3e 1ad0 063d 3df1 8a3e
00000070: 9ddf 773e c7e1 5d3e 3662 1d3e e05b 223e
00000080: d842 6abd 5b9b a43d febe af3c 4048 62bd
00000090: 47a2 b63d 4993 803d 7ef7 abbb d289 8a3d
000000a0: 6380 093e 5675 d23d 8805 683d ffc0 73bc
000000b0: 4a89 bb3d 7537 913d 3087 3c3c 4899 1dbc
000000c0: 9dbf 203b 75b3 953d e06f fb3d c331 0b3e
000000d0: 2b4b 3b3e a151 6c3d cac6 5b3d fcdb 2f3e
000000e0: 32db 523e 136f 6d3e 1df7 ccbe 9663 c1be
000000f0: d83f c5be 1739 aabe 0440 d4be c1eb 92be
00000100: ce96 c3be 9f1d a3be f370 c7be 1092 99be
00000110: 0ff9 46be d80a 4abe b6b7 94be f4a9 56be
00000120: 217d 56be 7742 86be 5f1d b1be 2bbe 9cbe
00000130: e4ba 87be 2ab8 a7be fefb 42be 4bf7 9abe
00000140: c6cf 8ebe f2ec dabe 2994 50be 4092 a4be
00000150: e19b 64be c3fa 8abe 6809 92be ded9 c8be
00000160: 1b88 d1be 2459 c4be 71ba 7bbe e2d8 9abe
00000170: fe8f 86be 9f2c c5be ce2d 7cbe 7534 6cbe
00000180: be3b a6be da21 afbe 31b2 4dbe ba17 9fbe
00000190: e0cb 8bbe b9c2 c1be 9b4b 76be 55b9 a3be
000001a0: 5e7a a1be 494d acbe 3bc6 71be a249 c9be
000001b0: 8edf 40be c651 b6be

value_head.weight f4 [1, 64]
0.06025317 0.06128491 -0.00011499855 0.0461647 0.08601052 0.060559426 -0.22865799 -0.0042152205
0.0017566279 0.025606515 0.021125099 -0.13640727 -0.057959016 -0.13025214 -0.23241337 0.014746761
-0.052277304 -0.012361247 -0.012512255 0.09806345 0.112627156 -0.017527653 0.067428224 0.104183964
0.012459265 0.1413299 0.1613612 -0.055896077 -0.25716278 -0.0377103 -0.16218756 -0.0010799052
-0.19242813 0.03502761 0.0011496136 0.012124539 0.005623131 0.09534478 0.004539263 -0.16273473
0.0036741272 0.07256903 -0.09322492 -0.0019646527 0.045336813 0.0077345697 -0.038154352 0.022037763
0.004922833 -0.0014020851 0.0020713916 0.030483784 -0.044502944 0.004702637 0.008369751 -0.017744403
0.006752488 0.023176309 0.016362492 0.0021943904 0.022220174 0.09765187 0.042856272 -0.10700701
00000000: 07cc 763d e305 7b3d 602b f1b8 3217 3d3d
00000010: 4926 b03d 290d 783d 5225 6abe d51f 8abb
00000020: a73e e63a c1c4 d13c 8b0e ad3c 59ae 0bbe
00000030: 6f66 6dbd d160 05be c5fd 6dbe 669c 713c
00000040: ba20 56bd d486 4abc 3400 4dbc 7dd5 c83d
00000050: 11a9 e63d 2796 8fbc cf17 8a3d 675e d53d
00000060: f221 4c3c c9b8 103e df3b 253e 49f3 64bd
00000070: d7aa 83be 1e76 1abd 7f14 26be 9b8b 8dba
00000080: e10b 45be 1c79 0f3d a2ae 963a 01a6 463c
00000090: 3e42 b83b 2044 c33d 19be 943b efa3 26be
000000a0: a0c9 703b 129f 943d b5ec bebd 67c1 00bb
000000b0: 18b3 393d 4672 fd3b bd47 1cbd 8a88 b43c
000000c0: b74f a13b 2bc6 b7ba 2fc0 073b 21b9 f93c
000000d0: b848 36bd 9418 9a3b 4821 093c b65c 91bc
000000e0: fa43 dd3b 3edc bd3c a20a 863c c3cf 0f3b
000000f0: 1507 b63c b4fd c73d 0f8a 2f3d 7e26 dbbd

exp_avg f4 [128, 260]
6e-45 -6e-45 6e-45 6e-45 4.5752747e-32 6e-45 6e-45 6e-45
4.5752747e-32 6e-45 6e-45 6e-45 6e-45 4.5752747e-32 -6e-45 6e-45
6e-45 4.5752747e-32 4.5752747e-32 6e-45 4.5752747e-32 6e-45 6e-45 6e-45
-6e-45 6e-45 6e-45 6e-45 6e-45 6e-45 6e-45 4.5752747e-32
6e-45 6e-45 4.5752747e-32 4.5752747e-32 6e-45 6e-45 6e-45 4.5752747e-32
6e-45 6e-45 6e-45 -6e-45 6e-45 -6e-45 6e-45 4.5752747e-32
-6e-45 6e-45 6e-45 6e-45 -6e-45 -6e-45 6e-45 -6e-45
6e-45 6e-45 -6e-45 6e-45 -6e-45 6e-45 6e-45 6e-45
-6e-45 6e-45 -6e-45 6e-45 6e-45 6e-45 6e-45 6e-45
6e-45 6e-45 6e-45 -6e-45 6e-45 6e-45 6e-45 6e-45
6e-45 6e-45 4.5752747e-32 6e-45 6e-45 6e-45 6e-45 -6e-45
6e-45 6e-45 -6e-45 -6e-45 6e-45 6e-45 6e-45 6e-45
6e-45 6e-45 6e-45 6e-45 -6e-45 6e-45 6e-45 -6e-45
6e-45 6e-45 -6e-45 -6e-45 -6e-45 6e-45 4.5752747e-32 4.5752747e-32
6e-45 6e-45 6e-45 4.5752747e-32 6e-45 6e-45 6e-45 6e-45
-6e-45 -6e-45 6e-45 6e-45 6e-45 6e-45 6e-45 6e-45
4.5752747e-32 4.5752747e-32 6e-45 6e-45 6e-45 6e-45 6e-45 6e-45
6e-45 4.5752747e-32 6e-45 6e-45 4.5752747e-32 6e-45 4.5752747e-32 -6e-45
-6e-45 6e-45 6e-45 4.5752747e-32 4.5752747e-32 4.5752747e-32 6e-45 6e-45
4.5752747e-32 6e-45 4.5752747e-32 4.5752747e-32 6e-45 -6e-45 -6e-45 6e-45
6e-45 -6e-45 6e-45 6e-45 6e-45 6e-45 6e-45 -6e-45
6e-45 -6e-45 6e-45 -6e-45 6e-45 6e-45 6e-45 4.5752747e-32
6e-45 -6e-45 6e-45 4.5752747e-32 -6e-45 6e-45 -6e-45 6e-45
6e-45 4.5752747e-32 6e-45 -6e-45 6e-45 6e-45 6e-45 -6e-45
6e-45 -6e-45 6e-45 6e-45 6e-45 6e-45 6e-45 6e-45
6e-45 -6e-45 6e-45 6e-45 6e-45 6e-45 6e-45 -6e-45
4.5752747e-32 4.5752747e-32 4.5752747e-32 4.5752747e-32 6e-45 4.5752747e-32 6e-45 6e-45
6e-45 4.5752747e-32 4.5752747e-32 6e-45 4.5752747e-32 6e-45 4.5752747e-32 4.5752747e-32
4.5752747e-32 6e-45 6e-45 -6e-45 6e-45 4.5752747e-32 4.5752747e-32 6e-45
6e-45 6e-45 4.5752747e-32 4.5752747e-32 4.5752747e-32 6e-45 6e-45 6e-45
4.5752747e-32 6e-45 6e-45 6e-45 6e-45 4.5752747e-32 6e-45 6e-45
4.5752747e-32 4.5752747e-32 4.5752747e-32 6e-45 -6e-45 6e-45 4.5752747e-32 6e-45
00000000: 0400 0000 0400 0080 0400 0000 0400 0000
00000010: d58f 6d0b 0400 0000 0400 0000 0400 0000
00000020: d58f 6d0b 0400 0000 0400 0000 0400 0000
00000030: 0400 0000 d58f 6d0b 0400 0080 0400 0000
00000040: 0400 0000 d58f 6d0b d58f 6d0b 0400 0000
00000050: d58f 6d0b 0400 0000 0400 0000 0400 0000
00000060: 0400 0080 0400 0000 0400 0000 0400 0000
00000070: 0400 0000 0400 0000 0400 0000 d58f 6d0b
00000080: 0400 0000 0400 0000 d58f 6d0b d58f 6d0b
00000090: 0400 0000 0400 0000 0400 0000 d58f 6d0b
000000a0: 0400 0000 0400 0000 0400 0000 0400 0080
000000b0: 0400 0000 0400 0080 0400 0000 d58f 6d0b
000000c0: 0400 0080 0400 0000 0400 0000 0400 0000
000000d0: 0400 0080 0400 0080 0400 0000 0400 0080
000000e0: 0400 0000 0400 0000 0400 0080 0400 0000
000000f0: 0400 0080 0400 0000 0400 0000 0400 0000
00000100: 0400 0080 0400 0000 0400 0080 0400 0000
00000110: 0400 0000 0400 0000 0400 0000 0400 0000
00000120: 0400 0000 0400 0000 0400 0000 0400 0080
00000130: 0400 0000 0400 0000 0400 0000 0400 0000
00000140: 0400 0000 0400 0000 d58f 6d0b 0400 0000
00000150: 0400 0000 0400 0000 0400 0000 0400 0080
00000160: 0400 0000 0400 0000 0400 0080 0400 0080
00000170: 0400 0000 0400 0000 0400 0000 0400 0000
00000180: 0400 0000 0400 0000 0400 0000 0400 0000
00000190: 0400 0080 0400 0000 0400 0000 0400 0080
000001a0: 0400 0000 0400 0000 0400 0080 0400 0080
000001b0: 0400 0080 0400 0000 d58f 6d0b d58f 6d0b
000001c0: 0400 0000 0400 0000 0400 0000 d58f 6d0b
000001d0: 0400 0000 0400 0000 0400 0000 0400 0000
000001e0: 0400 0080 0400 0080 0400 0000 0400 0000
000001f0: 0400 0000 0400 0000 0400 0000 0400 0000
00000200: d58f 6d0b d58f 6d0b 0400 0000 0400 0000
00000210: 0400 0000 0400 0000 0400 0000 0400 0000
00000220: 0400 0000 d58f 6d0b 0400 0000 0400 0000
00000230: d58f 6d0b 0400 0000 d58f 6d0b 0400 0080
00000240: 0400 0080 0400 0000 0400 0000 d58f 6d0b
00000250: d58f 6d0b d58f 6d0b 0400 0000 0400 0000
00000260: d58f 6d0b 0400 0000 d58f 6d0b d58f 6d0b
00000270: 0400 0000 0400 0080 0400 0080 0400 0000
00000280: 0400 0000 0400 0080 0400 0000 0400 0000
00000290: 0400 0000 0400 0000 0400 0000 0400 0080
000002a0: 0400 0000 0400 0080 0400 0000 0400 0080
000002b0: 0400 0000 0400 0000 0400 0000 d58f 6d0b
000002c0: 0400 0000 0400 0080 0400 0000 d58f 6d0b
000002d0: 0400 0080 0400 0000 0400 0080 0400 0000
000002e0: 0400 0000 d58f 6d0b 0400 0000 0400 0080
000002f0: 0400 0000 0400 0000 0400 0000 0400 0080
00000300: 0400 0000 0400 0080 0400 0000 0400 0000
00000310: 0400 0000 0400 0000 0400 0000 0400 0000
00000320: 0400 0000 0400 0080 0400 0000 0400 0000
00000330: 0400 0000 0400 0000 0400 0000 0400 0080
00000340: d58f 6d0b d58f 6d0b d58f 6d0b d58f 6d0b
00000350: 0400 0000 d58f 6d0b 0400 0000 0400 0000
00000360: 0400 0000 d58f 6d0b d58f 6d0b 0400 0000
00000370: d58f 6d0b 0400 0000 d58f 6d0b d58f 6d0b
00000380: d58f 6d0b 0400 0000 0400 0000 0400 0080
00000390: 0400 0000 d58f 6d0b d58f 6d0b 0400 0000
000003a0: 0400 0000 0400 0000 d58f 6d0b d58f 6d0b
000003b0: d58f 6d0b 0400 0000 0400 0000 0400 0000
000003c0: d58f 6d0b 0400 0000 0400 0000 0400 0000
000003d0: 0400 0000 d58f 6d0b 0400 0000 0400 0000
000003e0: d58f 6d0b d58f 6d0b d58f 6d0b 0400 0000
000003f0: 0400 0080 0400 0000 d58f 6d0b 0400 0000

exp_avg_sq f4 [128, 260]
2.51957e-09 1.0241389e-09 2.4374514e-09 3.9244865e-09 3.869897e-09 2.455452e-09 6.1893637e-09 7.561656e-09
5.3294738e-09 4.044899e-09 4.6988733e-09 2.5345834e-09 2.012729e-09 2.55576e-09 1.2255177e-09 2.4521796e-09
2.4203366e-09 3.7990264e-09 2.9576988e-09 4.682417e-09 5.009023e-09 3.4743695e-09 4.6791255e-09 3.6615722e-09
1.2295728e-09 6.4510286e-09 1.6506153e-09 7.281799e-10 2.7579181e-09 3.686993e-09 2.8605944e-09 3.4433847e-09
3.6886707e-09 4.86648e-09 4.634222e-09 5.905125e-09 4.6559734e-09 3.1662446e-09 2.9991163e-09 2.6965437e-09
4.4280073e-09 3.0287872e-09 2.3617648e-09 1.9998514e-09 5.3329408e-09 2.2582642e-09 5.3581224e-09 3.979926e-09
2.1380806e-09 3.876376e-09 2.901328e-09 1.927611e-09 2.9092403e-10 2.7938948e-11 4.2864066e-11 1.2334635e-10
1.5615902e-10 1.7385252e-10 1.7724977e-10 2.9418776e-10 2.3327912e-10 2.0031429e-10 2.7859884e-10 3.0817351e-10
3.6386566e-10 9.11053e-11 7.435533e-12 1.6795763e-11 5.9426616e-11 2.312092e-10 3.28019e-10 3.1009817e-10
1.6918839e-10 3.285904e-10 2.7928032e-10 4.9671456e-10 2.1342753e-10 6.899439e-10 1.6909274e-11 8.100139e-12
2.9819636e-11 1.5291525e-10 2.9032066e-10 4.416749e-10 1.9533322e-10 2.6396155e-10 2.0034857e-10 3.1190087e-10
8.070102e-10 2.1420242e-10 4.392393e-10 2.2179867e-11 8.409758e-12 2.5060416e-11 2.8129896e-10 2.3566796e-10
2.6684882e-10 2.93649e-10 4.7308785e-10 4.3395393e-10 1.8519526e-10 1.5369704e-10 3.569413e-10 2.6300503e-10
2.606183e-09 3.47332e-09 8.256307e-10 1.901143e-09 1.380344e-09 5.0221582e-09 2.718896e-09 3.791469e-09
5.374104e-09 7.971843e-09 4.2554804e-09 8.393102e-09 9.004161e-09 1.5174845e-09 9.469099e-10 7.0382e-10
1.0792603e-09 1.1107549e-09 1.8945046e-09 5.4594675e-09 6.1773564e-09 6.885157e-09 3.7284527e-09 7.613511e-09
9.291865e-09 3.7686947e-09 1.1765121e-09 4.633865e-10 1.8778872e-09 1.2184364e-09 1.4811978e-09 1.8325385e-09
6.049332e-09 8.1706215e-09 5.3736455e-09 5.9363705e-09 5.44443e-09 5.202566e-09 5.742987e-09 1.2500543e-09
1.4306214e-09 2.0613815e-09 2.2278424e-09 2.4078877e-09 4.700846e-09 5.758853e-09 4.0500794e-09 4.1677852e-09
8.429089e-09 6.4732344e-09 3.5467285e-09 8.140567e-09 1.9662183e-10 1.0153304e-09 4.5055637e-10 7.9342255e-10
2.2872805e-10 6.140843e-10 2.010288e-10 2.6672742e-10 2.2429782e-10 2.1580995e-10 5.348144e-10 1.5194238e-10
1.1052832e-10 8.1307633e-10 2.9718097e-10 2.4624198e-09 1.0810015e-09 2.269457e-09 4.679084e-10 8.8286767e-10
3.2572123e-10 2.591551e-10 2.2084844e-10 5.1219584e-10 6.4411565e-10 6.3766253e-10 7.445291e-10 3.3202216e-10
1.7894211e-09 1.1220621e-09 4.5617757e-10 1.385304e-09 3.9236916e-10 3.1241437e-10 1.7483413e-10 7.73244e-10
2.1503699e-10 1.08205965e-10 1.3865417e-10 7.747395e-10 6.7746436e-10 1.3820749e-09 4.205712e-10 2.951907e-09
6.8894435e-10 2.2340198e-10 5.9118116e-10 4.0369147e-10 1.1767237e-10 1.9724229e-10 2.2943901e-10 6.882909e-11
1.3642105e-08 1.4651722e-08 1.5312748e-08 1.2559064e-08 1.3431118e-08 1.0769314e-08 9.038238e-09 6.4115913e-09
6.9847803e-09 6.648379e-09 7.860602e-09 6.1016445e-09 7.1020634e-09 1.4067866e-08 1.730158e-08 1.3524036e-08
1.454398e-08 1.13653025e-08 1.18690675e-08 6.8666113e-09 7.0134663e-09 6.7909154e-09 9.041315e-09 5.427496e-09
7.2821664e-09 5.731316e-09 1.5327009e-08 1.8626082e-08 1.252348e-08 1.2332863e-08 1.3231698e-08 1.0640421e-08
7.866996e-09 5.072868e-09 8.275864e-09 5.03231e-09 5.7822462e-09 9.405229e-09 8.8044185e-09 1.4845872e-08
1.3147771e-08 1.2848904e-08 1.3930314e-08 1.09402665e-08 7.0450414e-09 1.0267088e-08 7.740752e-09 8.0991365e-09
00000000: bf24 2d31 afc1 8c30 1980 2731 26d8 8631
00000010: f9f7 8431 c5bc 2831 38aa d431 84e8 0132
00000020: 8c1e b731 4ffb 8a31 ba73 a131 dd2c 2e31
00000030: 4e50 0a31 68a1 2f31 126f a830 3383 2831
00000040: 0353 2631 9788 8231 6340 4b31 fae2 a031
00000050: d51b ac31 c1c1 6e31 06c6 a031 0f9f 7b31
00000060: bffd a830 d9a7 dd31 dddb e230 1b29 4830
00000070: cf85 3d31 445e 7d31 1c94 4431 aaa0 6c31
00000080: c87b 7d31 0336 a731 0c3b 9f31 07e6 ca31
00000090: 60fa 9f31 2a95 5931 0319 4e31 194e 3931
000000a0: 2a25 9831 fd22 5031 9b4c 2231 c26d 0931
000000b0: 0b3d b731 ce2f 1b31 8b1a b831 cdbf 8831
000000c0: 83ed 1231 f730 8531 b460 4731 e476 0431
000000d0: ebef 9f2f ebc0 f52d a684 3c2e e99e 072f
000000e0: dbb2 2b2f 2227 3f2f 60e3 422f 3fbb a12f
000000f0: 1e3f 802f 763f 5c2f 4d29 992f 916b a92f
00000100: 8a09 c82f b957 c82e aace 022d b2bc 932d
00000110: 36ae 822e 9b37 7e2f 9254 b42f 707a aa2f
00000120: 4c06 3a2f fda4 b42f 3689 992f 2e89 0830
00000130: 82aa 6a2f 7ca6 3d30 4dbc 942d c87f 0e2d
00000140: ed25 032e d121 282f 009b 9f2f 37d0 f22f
00000150: 6ac5 562f 491d 912f 1c49 5c2f 2578 ab2f
00000160: 4bd4 5d30 9f84 6b2f 7079 f12f 9f18 c32d
00000170: 2ff2 132d 0a6f dc2d 4fa5 9a2f 518f 812f
00000180: a2b3 922f 6c6f a12f 990a 0230 9691 ee2f
00000190: d59f 4b2f dffd 282f 063b c42f ab96 902f
000001a0: 7518 3331 4baf 6e31 98f2 6230 43a5 0231
000001b0: 89b6 bd30 5f8f ac31 53d7 3a31 1d46 8231
000001c0: 1ea7 b831 89f4 0832 9a37 9231 4131 1032
000001d0: b8b0 1a32 bd8f d030 6e24 8230 ee76 4130
000001e0: 1955 9430 37a9 9830 7a30 0231 fc95 bb31
000001f0: 9a40 d431 7b92 ec31 d11b 8031 93cc 0232
00000200: 0ea2 1f32 ca7d 8131 d7b2 a130 dabf fe2f
00000210: 240c 0131 eb75 a730 0493 cb30 b7dc fb30
00000220: 7dda cf31 c65e 0c32 16a3 b831 def8 cb31
00000230: b611 bb31 41c2 b231 d953 c531 60ce ab30
00000240: 849f c430 35a8 0d31 9e18 1931 0278 2531
00000250: 1485 a131 68df c531 e028 8b31 3a34 8f31
00000260: 87cf 1032 2c6b de31 b5ba 7331 98da 0b32
00000270: 2030 582f c38b 8b30 2cb2 f72f 2618 5a30
00000280: 397d 7b2f 57cc 2830 9408 5d2f 8ca2 922f
00000290: 399e 762f 1a49 6d2f 3802 1330 fa0f 272f
000002a0: ea0d f32e 297f 5f30 8160 a32f 5937 2931
000002b0: 5c92 9430 b6f4 1b31 209e 0030 4aae 7230
000002c0: 3011 b32f d678 8e2f 4fd3 722f 94ca 0c30
000002d0: 9c0d 3130 8347 2f30 94a7 4c30 f787 b62f
000002e0: a8ef f530 0d37 9a30 49c9 fa2f 0d65 be30
000002f0: 0db5 d72f 6ac0 ab2f 6f3b 402f 368c 5430
00000300: 886f 6c2f 8bf2 ed2e ae73 182f 72f5 5430
00000310: 5138 3a30 70f3 bd30 2236 e72f 7fda 4a31
00000320: 2660 3d30 11a2 752f ad80 2230 86ee dd2f
00000330: d461 012f c5de 582f 5745 7c2f 555b 972e
00000340: 9d5e 6a32 f4b6 7b32 1789 8332 59c3 5732
00000350: afbe 6632 f203 3932 9746 1b32 f44c dc31
00000360: c7fe ef31 c36f e431 4b0b 0732 a2a6 d131
00000370: 6906 f431 21af 7132 949e 9432 5757 6832
00000380: 1add 7932 2141 4332 b6e8 4b32 5aef eb31
00000390: 1afb f031 8655 e931 2054 1b32 c27c ba31
000003a0: 9d36 fa31 30ed c431 73a8 8332 30ff 9f32
000003b0: d926 5732 81e0 5332 a051 6332 11cd 3632
000003c0: 6a27 0732 6b4d ae31 a32d 0e32 abe8 ac31
000003d0: 2dad c631 a294 2132 3e42 1732 d60c 7f32
000003e0: 82e0 6132 14be 5c32 2b52 6f32 cdf3 3b32
000003f0: d710 f231 2163 3032 30fc 0432 6124 0b32

exp_avg f4 [128]
4.5752747e-32 -0.001531961 0.0005584119 4.9809823e-05 -0.00025726776 6.351808e-05 0.0008514004 -0.0008746022
0.00044064937 -0.0010069472 0.0005944435 1.8387944e-05 2.2046775e-24 -5.3974567e-05 -0.00028950095 3.1190364e-06
0.00045593263 0.00085444574 -0.0011219654 -2.4324323e-05 4.301627e-05 -0.00038124036 -0.0009002155 0.00017228675
-0.00065524987 -0.0013212757 -0.00020418523 -0.0007269602 -8.7812565e-05 -9.654962e-05 5.248039e-05 0.00093628076
2.1184978e-05 9.309285e-05 0.00063755317 0.00017056295 0.0013310398 0.00010110639 1.1159824e-06 -0.00033733927
-5.3131098e-05 -0.0010652231 6.571655e-13 0.00028786718 -0.00050636375 0.0006738713 -0.00018373436 0.00044081677
4.188587e-06 0.00026896602 -0.0002967961 6.997236e-05 -0.00035609803 0.00048329463 0.00029346975 -2.0204052e-05
3.606799e-06 0.00027405817 0.00010201679 -0.00029140574 0.00048553458 9.328786e-05 0.00047820745 0.0006509618
-0.00024010807 -0.00014699508 -7.669589e-05 -0.00022463893 -0.00014155588 0.00059682573 -0.000701807 6e-45
-0.0010200847 6e-45 -8.625437e-05 6e-45 -0.0005583947 -0.0003440284 -0.00015126452 0.0010737984
0.001632472 0.0012928435 -0.00059257675 0.00047670255 -0.00019361623 0.0003307683 -5.3441938e-05 -1.3442066e-05
-6.4337946e-06 0.00054784946 -0.00021925374 -3.0958632e-05 -0.0007995299 -0.00030656502 0.0002640843 -0.0014656457
-0.00027049697 0.00023672581 0.0006792883 6e-45 -3.082351e-06 0.0018204288 0.00078631146 -0.00017515794
0.00047976346 -0.00025768805 -0.001169376 -3.1782463e-06 0.00036515147 -0.0004930139 0.0016302132 -0.0007540895
-0.00021022318 -0.00058373046 9.546308e-25 -0.00057754526 0.00024233221 -0.00034902405 0.0008328667 -0.00031964688
-0.0013452596 6.809015e-05 6e-45 -0.0006664533 0.00014617214 -4.9066104e-05 0.0013017511 0.0003698677
00000000: d58f 6d0b 15cc c8ba 6362 123a e4ea 5038
00000010: e5e1 86b9 0235 8538 8330 5f3a 8f45 65ba
00000020: f506 e739 8bfb 83ba 6ed4 1b3a cf3f 9a37
00000030: 2394 2a18 c062 62b8 29c8 97b9 a350 5136
00000040: 3e0a ef39 e2fc 5f3a e90e 93ba 160c ccb7
00000050: 5e6c 3438 37e1 c7b9 71fc 6bba dfa7 3439
00000060: 13c5 2bba a82e adba 8e1a 56b9 7991 3eba
00000070: 0328 b8b8 af7a cab8 641e 5c38 bd70 753a
00000080: 65b6 b137 d83a c338 7821 273a 25d9 3239
00000090: 4976 ae3a 1409 d438 ddc8 9535 e9dc b0b9
000000a0: 15d9 5eb8 f59e 8bba c4f9 382b e1ec 9639
000000b0: 7fbd 04ba bda6 303a d1a8 40b9 6d1d e739
000000c0: b08b 8c36 0204 8d39 4c9b 9bb9 20be 9238
000000d0: abb2 bab9 b562 fd39 d8dc 9939 df7b a9b7
000000e0: 560c 7236 77af 8f39 d9f1 d538 d1c7 98b9
000000f0: 598f fe39 8aa3 c338 ebb7 fa39 4fa5 2a3a
00000100: 85c5 7bb9 b122 1ab9 cbd7 a0b8 0e8d 6bb9
00000110: 9e6e 14b9 4c74 1c3a 78f9 37ba 0400 0000
00000120: 5db4 85ba 0400 0000 76e3 b4b8 0400 0000
00000130: 3c61 12ba b65e b4b9 c39c 1eb9 b2be 8c3a
00000140: acf8 d53a a174 a93a 2757 1bba efed f939
00000150: 7605 4bb9 f86a ad39 d826 60b8 3c85 61b7
00000160: e0e1 d7b6 8e9d 0f3a 7ae7 65b9 94d9 01b8
00000170: 8b97 51ba 76ba a0b9 cb74 8a39 e91a c0ba
00000180: 7dd1 8db9 9a39 7839 4412 323a 0400 0000
00000190: 63da 4eb6 749b ee3a 7820 4e3a 9aaa 37b9
000001a0: c388 fb39 4e1a 87b9 bf45 99ba db49 55b6
000001b0: cd71 bf39 9a3d 01ba e1ac d53a 17ae 45ba
000001c0: 5b6f 5cb9 7d05 19ba d2b8 9317 6866 17ba
000001d0: 8f1a 7e39 37fd b6b9 bd54 5a3a 4796 a7b9
000001e0: 6c53 b0ba 9fcb 8e38 0400 0000 edb4 2eba
000001f0: c945 1939 54cc 4db8 859f aa3a cdea c139

exp_avg_sq f4 [128]
2.0841684e-08 4.2237905e-05 7.805494e-06 4.9561062e-05 6.816804e-06 1.5059397e-05 2.9458545e-06 8.687826e-05
1.1008961e-05 2.4676869e-05 7.401813e-06 7.472152e-05 5.1808986e-08 1.8736411e-05 2.1338596e-05 4.9973905e-06
8.437932e-06 9.1521775e-05 2.500809e-05 4.340683e-05 4.5604397e-06 1.657315e-05 1.4007052e-05 0.00015551891
1.8499042e-05 3.8662005e-05 2.3975164e-05 1.7529024e-05 1.0318507e-05 4.9540213e-05 6.7567653e-06 3.4532994e-05
2.2588601e-06 1.4554234e-06 8.628808e-05 1.5283089e-06 7.993123e-05 3.4984248e-06 4.7888407e-06 1.2940047e-05
2.5636262e-09 3.337106e-05 9.524255e-07 2.8709776e-05 4.3951688e-05 1.6052974e-05 5.579455e-06 1.1813331e-05
1.5776635e-05 2.6940606e-05 1.0454172e-06 7.0792717e-06 5.239701e-05 2.3021501e-05 0.00011173112 8.83061e-07
1.1587615e-05 1.1117883e-05 3.6231356e-06 2.6500398e-05 4.016299e-05 2.173229e-05 1.5410238e-05 1.73977e-05
3.9985002e-06 3.1778889e-06 8.211394e-06 1.8297842e-05 6.350036e-06 5.9727132e-05 4.666694e-06 7.473513e-11
4.760764e-06 1.0187244e-12 3.074327e-06 1.6911025e-07 8.315151e-06 2.112564e-05 9.163295e-06 1.56004e-05
4.9374798e-05 0.00024060863 2.5224945e-05 0.00016814939 1.9259589e-05 8.490215e-06 8.3764884e-05 4.898132e-06
4.4001945e-06 2.928457e-05 3.5298173e-05 9.439312e-06 2.0583011e-05 1.34800775e-05 5.7518613e-05 1.5795871e-05
7.975816e-06 1.6960847e-05 1.1416784e-05 3.7862222e-10 1.3459781e-05 6.522544e-05 5.248368e-05 4.03092e-06
8.440017e-06 2.7330516e-06 1.3466951e-05 9.743763e-06 8.869471e-05 1.0996486e-05 5.3654257e-05 4.874362e-06
1.0452862e-05 8.367529e-06 9.568198e-10 2.0453708e-05 1.0651882e-05 5.7825448e-05 0.00017835603 5.4899665e-06
1.543942e-05 7.5520506e-06 2.2530311e-10 1.131341e-05 7.332978e-05 7.377146e-06 4.5739703e-06 1.9459007e-05
00000000: 5907 b332 9b28 3138 57f4 0237 c9df 4f38
00000010: e7bb e436 9ea7 7c37 65b1 4536 6932 b638
00000020: 21b3 3837 2c01 cf37 175d f836 d0b3 9c38
00000030: 9584 5e33 232c 9d37 4900 b337 42af a736
00000040: a490 0d37 61ef bf38 77c8 d137 bb0f 3638
00000050: e105 9936 9206 8b37 d5ff 6a37 ca12 2339
00000060: 642e 9b37 0329 2238 461e c937 4b0b 9337
00000070: a61d 2d37 66c9 4f38 2cb8 e236 85d7 1038
00000080: ec96 1736 f857 c335 8ff5 b438 4b20 cd35
00000090: c1a0 a738 7bc6 6a36 d4af a036 1419 5937
000000a0: ca2b 3031 e7f7 0b38 2faa 7f35 c6d5 f037
000000b0: c458 3838 80a9 8637 2737 bb36 df31 4637
000000c0: 1158 8437 83fe e137 4350 8c35 7b8a ed36
000000d0: dcc4 5b38 4c1e c137 3051 ea38 7d0b 6d35
000000e0: 6d68 4237 f286 3a37 ff24 7336 2c4d de37
000000f0: af74 2838 bd4d b637 3c45 8137 47f1 9137
00000100: db2a 8636 b743 5536 abc3 0937 517e 9937
00000110: 6512 d536 8583 7a38 9996 9c36 2358 a42e
00000120: a7be 9f36 6a5f 8f2b 8950 4e36 ac94 3534
00000130: 4d81 0b37 f736 b137 0dbc 1937 9bdd 8237
00000140: c917 4f38 e34b 7c39 289a d337 4251 3039
00000150: a78f a137 3271 0e37 eeaa af38 a25a a436
00000160: 62a5 9336 23a8 f537 200d 1438 895d 1e37
00000170: aea9 ac37 7e28 6237 2440 7138 6081 8437
00000180: decf 0537 2447 8e37 b78a 3f37 5726 d02f
00000190: 52d1 6137 a4c9 8838 ec21 5c38 5741 8736
000001a0: 9999 0d37 7869 3736 1df0 6137 2579 2337
000001b0: 9c01 ba38 8c7d 3837 d20a 6138 738e a336
000001c0: b35e 2f37 4362 0c37 1b81 8330 0194 ab37
000001d0: 7cb5 3237 9a89 7238 1505 3b39 7436 b836
000001e0: e783 8137 9f67 fd36 30b9 772f bace 3d37
000001f0: a0c8 9938 3489 f736 1b7a 9936 e63b a337
