ppo_2layer_2/ppo_agent_episode_100.pth (torch, 596526 bytes, 21 tensors)

fc1.weight f4 [128, 260]
0.012242216 -0.024658266 0.018953355 -0.03536639 -0.035541218 0.005636586 -0.058558155 -0.0021524825
-0.048603695 -0.03796261 0.031213261 -0.0028767593 0.025111325 -0.021199686 -0.027472034 0.019922948
-0.054686315 0.011494991 0.06818954 -0.040138766 0.053243864 0.055228237 -0.052290935 -0.01319218
-0.016462177 0.0048933956 0.022283392 -0.06969161 -0.00035622568 0.040333472 -0.0065689194 -0.031895615
0.0041272985 0.019313091 -0.028719129 0.017048847 -0.004039585 0.026795447 -0.03446133 -0.01028184
-0.04633294 0.014542895 -0.04498357 -0.05823483 -0.021937637 -0.022268793 0.044605397 -0.031079147
0.035067953 -0.05233913 -0.022932908 0.057506636 0.002913592 -0.004794257 -0.0025716815 0.035216548
0.028255582 -0.02944674 -0.03700977 -0.004031032 -0.042543262 0.019765507 0.056838144 0.025791802
0.003423031 0.013452834 0.009673535 -0.05464273 -0.061467778 0.021277895 0.04013342 -0.031051328
0.030115023 -0.034336388 -0.045985162 0.0047369003 -0.041228082 0.01433322 -0.01737514 -0.044995625
-0.02908879 -0.013954478 -0.0028282905 0.053277094 -0.03039175 -0.053515416 -0.033896692 0.056299243
0.013192453 -0.055913765 0.02879381 0.042704497 -0.038219158 -0.0238883 -0.060933433 -0.055196963
0.04379127 -0.036088407 -0.02377302 -0.024070805 0.0372915 0.029545786 -0.055620145 -0.009140891
-0.02301014 0.059432913 -0.06388882 0.03913364 -0.011972339 0.0067467727 0.05469768 0.008149753
-0.027905915 -0.013466487 0.030049792 0.058188833 0.0021968521 -0.010511279 -0.043122202 -0.06661661
-0.04333532 -0.050753128 0.043785587 0.040612586 0.07355885 0.073091224 -0.0609681 -0.03525023
0.067755625 -0.040587217 -0.012501372 -0.020799281 0.046527922 -0.038288843 -0.028145798 -0.05335048
0.017410092 0.044821158 -0.004401028 -0.020335685 -0.056239873 0.014721478 -0.017614946 0.04487723
0.061107304 0.0005701574 0.0065859887 0.020815423 0.05495144 -0.007257837 -0.006923455 -0.038675502
0.041563988 0.010389384 -0.025225857 0.013047044 -0.04786632 0.041162126 -0.020774912 0.036955446
0.056954086 -0.01520941 0.02744822 0.034945626 -0.050630115 -0.0495756 0.039562367 -0.03334736
-0.032578222 -0.013125378 0.004765145 0.004095723 0.040095672 -0.035485685 -0.00447692 0.016050735
0.022523062 -0.04694987 0.003651611 0.048181076 -0.06128689 0.026460133 -0.053714212 -0.049651615
0.07402757 -0.057314537 -0.01781421 0.056651354 -0.051880874 0.061902452 -0.053265456 0.035498384
0.057148784 -0.038804583 0.035713226 0.057977136 -0.034061603 0.052809447 -0.024611296 -0.0091636125
-0.015694346 0.05709709 -0.041614987 -0.06044499 -0.05755111 -0.018761933 -0.030380635 -0.026685867
0.06057178 0.016247697 -0.040672563 -0.0047158534 0.032262515 0.0073296945 0.022323854 -0.015137953
-0.010211862 -0.012669214 -0.00870378 -0.053339332 -0.00952304 -0.06102594 0.041270766 -0.047244694
0.03623576 -0.017386222 0.030935742 -0.0014379136 -0.012050236 -0.059187543 0.06505043 0.030020408
-0.023171123 -0.003701893 0.039711956 0.068447106 -0.013986418 -0.025599822 0.010654748 -0.058445267
-0.055009123 -0.007859222 0.0046562 -0.024937524 -0.00461041 0.03075524 0.034903254 -0.00393651
0.04086451 -0.065864556 0.05218122 -0.03128266 -0.04834062 0.040509876 0.012091641 -0.023919068
00000000: 9393 483c 2200 cabc 1144 9b3c 59dc 10bd
00000010: ab93 11bd 1cb3 b83b adda 6fbd aa10 0dbb
00000020: ab14 47bd af7e 1bbd f4b2 ff3c 0388 3cbb
00000030: 44b6 cd3c f7aa adbc 080d e1bc 7335 a33c
00000040: c2fe 5fbd 7d55 3c3c f5a6 8b3d 8c68 24bd
00000050: 3d16 5a3d 0137 623d 052f 56bd 0324 58bc
00000060: b0db 86bc c758 a03b a98b b63c 7aba 8ebd
00000070: cdc3 bab9 b634 253d 1740 d7bb faa4 02bd
00000080: 4a3e 873b 7d36 9e3c 6144 ebbc 06aa 8b3c
00000090: 7f5e 84bb 2082 db3c 5327 0dbd 2a75 28bc
000000a0: 9cc7 3dbd 5345 6e3c b140 38bd a587 6ebd
000000b0: 8fb6 b3bc 0b6d b6bc 26b4 363d b299 febc
000000c0: 6aa3 0f3d 8e61 56bd cbdd bbbc 148c 6b3d
000000d0: f6f1 3e3b 2519 9dbb a889 28bb 3a3f 103d
000000e0: 4078 e73c 4a3a f1bc 8e97 17bd bf16 84bb
000000f0: d841 2ebd 46eb a13c 1dcf 683d 5449 d33c
00000100: ee54 603b 4769 5c3c bf7d 1e3c 0ed1 5fbd
00000110: a3c5 7bbd fb4e ae3c f162 243d 5b5f febc
00000120: c8b3 f63c 50a4 0cbd f05a 3cbd 0038 9b3b
00000130: c7de 28bd e2d5 6a3c 4f56 8ebc 554d 38bd
00000140: 9d4b eebc 53a1 64bc d75a 39bb 1539 5a3d
00000150: 1ff8 f8bc fb32 5bbd 42d7 0abd 099a 663d
00000160: 2925 583c d505 65bd ffe0 eb3c e9ea 2e3d
00000170: b18b 1cbd 65b1 c3bc 5695 79bd 3616 62bd
00000180: 7a5e 333d 70d1 13bd a3bf c2bc 2330 c5bc
00000190: f9be 183d 010a f23c f3d1 63bd adc3 15bc
000001a0: c37f bcbc ed6f 733d 24d8 82bd 984a 203d
000001b0: a127 44bc 0814 dd3b ad0a 603d 8b86 053c
000001c0: f29a e4bc 8aa2 5cbc fb2a f63c 6a57 6e3d
000001d0: 10f9 0f3b 8037 2cbc e8a0 30bd 4a6e 88bd
000001e0: 6080 31bd 83e2 4fbd 8458 333d 6259 263d
000001f0: 06a6 963d dab0 953d b0b9 79bd 8c62 10bd
00000200: 76c3 8a3d c83e 26bd 8ed2 4cbc 4163 aabc
00000210: 1094 3e3d c3d4 1cbd 0492 e6bc 0886 5abd
00000220: 9c9f 8e3c 6496 373d 8036 90bb 0697 a6bc
00000230: c85b 66bd 5b32 713c 384d 90bc 30d1 373d
00000240: a74b 7a3d 9e76 153a 47cf d73b 1b85 aa3c
00000250: c314 613d 26d3 edbb 26de e2bb 346a 1ebd
00000260: 003f 2a3d 3c38 2a3c 75a6 cebc 45c3 553c
00000270: 790f 44bd 9e99 283d 2630 aabc 985e 173d
00000280: b048 693d e430 79bc 17db e03c 2523 0f3d
00000290: 8661 4fbd c90f 4bbd 260c 223d 3e97 08bd
000002a0: be70 05bd d30b 57bc ef24 9c3b 6a35 863b
000002b0: 5c3b 243d 7059 11bd 20b3 92bb d57c 833c
000002c0: 4982 b83c 824e 40bd de4f 6f3b 8559 453d
000002d0: f607 7bbd ecc2 d83c 6f03 5cbd 7e5f 4bbd
000002e0: c49b 973d a6c2 6abd 1bef 91bc 400b 683d
000002f0: 0a81 54bd 6d8d 7d3d e12c 5abd c166 113d
00000300: d814 6a3d 8ef1 1ebd 0848 123d 6f79 6d3d
00000310: 2e84 0bbd b84e 583d a19d c9bc fa22 16bc
00000320: 6e91 80bc a3de 693d 7a74 2abd 2a95 77bd
00000330: b6ba 6bbd a0b2 99bc cfe0 f8bc 529c dabc
00000340: 1d1a 783d e419 853c 4698 26bd 7287 9abb
00000350: b325 043d ef2d f03b 84e0 b63c 2d05 78bc
00000360: a74f 27bc 8992 4fbc 4d9a 0ebc 587a 5abd
00000370: 8606 1cbc 56f6 79bd 890b 293d a783 41bd
00000380: f36b 143d 8d6d 8ebc f46c fd3c 6078 bcba
00000390: 5a6e 45bc a36e 72bd 2939 853d 5ced f53c
000003a0: 5ed1 bdbc 759b 72bb 01a9 223d ff2d 8c3d
000003b0: 4a27 65bc b8b6 d1bc 4191 2e3c 4e64 6fbd
000003c0: 3f51 61bd f7c3 00bc 0993 983b c749 ccbc
000003d0: ec12 97bb 6af2 fb3c b7f6 0e3d d7fd 80bb
000003e0: 8b61 273d ffe3 86bd fabb 553d 3f22 00bd
000003f0: d000 46bd afed 253d 051c 463c ecf1 c3bc

fc1.bias f4 [128]
-0.0068702414 -0.037800774 -0.017660666 -0.0011432605 0.034663092 -0.011397096 -0.055904143 -0.01910078
0.03879969 0.018161632 0.053596392 -0.0031444333 -0.05428381 -0.008476178 0.061866168 0.0076471292
-0.049206775 -0.028749624 -0.04068506 0.03740564 -0.021588443 -0.04900495 0.03626917 -0.012215878
0.01669608 -0.036345795 -0.06137343 0.06104753 -0.046510614 -0.027498016 0.076299705 0.060736563
0.032430436 0.014742573 -0.053024206 -0.040136684 0.019389516 -0.030338096 -0.010877719 -0.025595076
0.044518232 -0.03376921 -0.0032850879 0.04275657 0.038430747 0.022953345 -0.02261203 0.042870566
-0.045687377 0.008011111 0.054170083 0.060130972 -0.02287405 -0.026427923 0.04949803 -0.004213615
-0.002443562 0.03501286 0.0626368 -0.04776364 -0.019977748 -0.008719937 -0.012277712 0.03465343
-0.038200945 -0.05184631 0.015228593 0.029051429 0.00012836342 -0.02561112 -0.041961763 -0.007991951
-0.039390866 -0.05727441 -0.027152302 -0.06109519 -0.03005513 0.018996056 -0.017061317 0.015982786
-0.057199467 0.04758654 0.044937775 -0.04125236 0.04245378 -0.051778395 -0.01863726 -0.023156293
-0.018239308 -0.00027250423 0.03552494 0.050103784 0.012534083 -0.012801763 0.016126877 -0.03767584
-0.0063666906 0.049025875 -0.037610404 -0.043795176 0.019197663 0.05287911 -0.04729512 -0.034272384
0.00046698732 -0.021592459 -0.027814487 0.006160654 0.016353443 -0.001359395 0.04265497 0.021588432
0.02016155 -0.0053844913 0.032700133 0.03440478 -0.064396225 -0.051741358 0.0138642145 0.04778088
-0.003400548 0.009585026 0.04031642 -0.0026262419 0.05994835 0.029625235 -0.026938263 0.033764355
00000000: c31f e1bb fcd4 1abd 1aad 90bc 75d9 95ba
00000010: e3fa 0d3d e3ba 3abc befb 64bd 3d79 9cbc
00000020: 6cec 1e3d b4c7 943c e487 5b3d d612 4ebb
00000030: b358 5ebd abdf 0abc 6167 7d3d c594 fa3b
00000040: 0b8d 49bd 5584 ebbc 61a5 26bd a836 193d
00000050: 3fda b0bc 6ab9 48bd fb8e 143d 1b25 48bc
00000060: 38c6 883c 54df 14bd b562 7bbd fa0c 7a3d
00000070: ea81 3ebd 8543 e1bc 0543 9c3d e7c6 783d
00000080: c7d5 043d d58a 713c e92f 59bd 5d66 24bd
00000090: c3d6 9e3c 9987 f8bc 7638 32bc c4ac d1bc
000000a0: c058 363d 9551 0abd a14a 57bb 8321 2f3d
000000b0: 8f69 1d3d a708 bc3c dd3c b9bc 0c99 2f3d
000000c0: b022 3bbd 0941 033c 73e1 5d3d e54b 763d
000000d0: 5c62 bbbc 5f7f d8bc 72be 4a3d 5d12 8abb
000000e0: 2b24 20bb a569 0f3d b947 803d cea3 43bd
000000f0: 60a8 a3bc 11de 0ebc 7528 49bc c1f0 0d3d
00000100: 9878 1cbd cc5c 54bd 5981 793c 43fd ed3c
00000110: 4b99 0639 69ce d1bc 19e0 2bbd acf0 02bc
00000120: 5158 21bd 9298 6abd 816e debc f33e 7abd
00000130: 2d36 f6bc 9e9d 9b3c 2dc4 8bbc 55ee 823c
00000140: fd49 6abd 1bea 423d ac10 383d 3cf8 28bd
00000150: 04e4 2d3d 9515 54bd 2bad 98bc 44b2 bdbc
00000160: 9a6a 95bc e6de 8eb9 9982 113d a039 4d3d
00000170: c15b 4d3c 7cbe 51bc 831c 843c fb51 1abd
00000180: ac9f d0bb 5bcf 483d 5e0d 1abd 9262 33bd
00000190: 6b44 9d3c c497 583d 87b8 41bd 3361 0cbd
000001a0: fad5 f439 abe2 b0bc 35db e3bc 50df c93b
000001b0: a8f7 853c ba2d b2ba fab6 2e3d 39da b03c
000001c0: d629 a53c 6370 b0bb 93f0 053d 07ec 0c3d
000001d0: 2be2 83bd bfee 53bd bb26 633c e2b5 433d
000001e0: badb 5ebb 830a 1d3c d522 253d 071d 2cbb
000001f0: 678c 753d 9fb0 f23c a2ad dcbc 7e4c 0a3d

fc2.weight f4 [64, 128]
0.0040573627 0.06862854 0.066837326 -0.034500632 -0.08147776 0.05937866 -0.055704903 0.05858613
-0.017222025 0.051766668 -0.045818005 0.0022841145 0.015415928 -0.063834526 0.022812465 0.068704724
0.04377536 0.015831655 -0.004970437 0.07106782 -0.08018996 0.028036056 0.032436583 0.06705695
0.049877346 0.00069827295 -0.08356813 -0.04036232 -0.059633087 0.013794489 -0.07152483 -0.027799184
0.05240595 -0.023095954 0.015479048 -0.06258873 -0.016397102 0.019646576 0.035784874 -0.047501337
-0.07699524 0.073113784 0.0017172868 0.0042520547 -0.07490859 0.023988929 0.062000137 0.078487545
-0.0806119 -0.016749047 0.059374727 -0.039543927 -0.016602464 -0.06946205 0.026580246 -0.038441375
0.06863617 0.084506854 0.06682323 0.023237616 -0.046880785 0.029098883 0.029459955 -0.047004495
-0.052578706 0.015680704 0.0026433158 0.035582285 0.009802886 0.023605987 0.028364921 0.008993942
0.060791228 -0.03660175 0.03073688 -0.030129243 -0.061880432 -0.05856939 -0.08291227 -0.041511748
0.0025013736 0.0499002 -0.06726751 -0.0347855 -0.023154108 -0.06308478 -0.062632784 0.09081564
0.097485736 -0.02791417 -0.04098039 0.052551404 0.06440634 -0.0400195 0.05281665 -0.021119216
0.03929995 0.052462306 0.03234909 0.02471897 -0.049514 0.045346446 -0.025288014 0.0044786255
-0.01482067 0.09133935 -0.032567937 -0.031983767 0.082283996 0.073511705 0.03480319 0.07411416
-0.04689846 -0.0761268 0.0436486 -0.06661412 0.061205283 0.063394904 -0.04900688 0.038319785
-0.044978354 0.004874182 0.07676774 -0.020866985 -0.008979704 0.009060891 -0.03353153 -0.061710667
-0.015194123 0.081014395 -0.0060855434 0.089448005 0.022986172 -0.08275624 0.04866235 0.010375281
0.08211373 -0.048024427 -0.027684055 0.009576898 0.09324216 0.01702917 -0.007383146 -0.03595921
-0.0877424 -0.02756734 0.036353122 0.08690656 0.027038326 -0.030982642 0.013511008 -0.03161751
-0.023950532 0.0882899 0.0020106244 -0.04074447 -0.06067665 0.05863481 -0.008646621 0.0014974604
0.07334278 0.04235823 -0.0093207015 0.026045263 0.07297461 -0.067412876 0.05903786 0.023462625
-0.04765348 0.0103402315 -0.08848944 -0.09573826 0.07325951 -0.06438932 -0.0050967443 -0.06104984
-0.000740134 -0.009729205 0.08216725 0.04387808 -0.06466818 -0.06704072 -0.011013196 -0.0031699492
-0.0146141 0.008978805 -0.05515842 -0.07101629 0.0430701 0.02049307 -0.103025004 0.037157457
-0.03941321 0.05187957 -0.021189202 -0.023483707 -0.0066953097 -0.07996008 0.0027088996 0.0010967894
-0.011070457 0.06865443 -0.025622975 0.024057684 0.08192096 0.0022278002 0.07096939 -0.079343334
-0.041587617 -0.047601096 -0.03986879 0.042483665 0.0058766324 0.05341363 0.081180975 0.031909693
-0.019787604 -0.00073710456 0.066287175 0.06724195 0.08901398 -0.017286789 -0.08278793 -0.024074392
-0.07845908 -0.04637082 -0.0012644633 0.05187532 -0.020527132 -0.033243097 0.0870521 0.06648882
-0.10318591 0.112827055 0.016040409 -0.061057076 -0.021780984 -0.05301482 -0.0012207156 0.017225193
-0.07985623 0.078239664 -0.028658638 0.027559573 -0.0718875 0.030329637 0.059791498 0.07321529
0.073868036 -0.021814257 0.035591614 0.039999418 -0.061387103 0.09094376 -0.011863924 -0.019647053
00000000: a0f3 843b 1f8d 8c3d 02e2 883d 8950 0dbd
00000010: d0dd a6bd 0a37 733d d32a 64bd 03f8 6f3d
00000020: 3415 8dbc 4909 543d a9ab 3bbd 15b1 153b
00000030: 1793 7c3c adbb 82bd 35e1 ba3c 10b5 8c3d
00000040: cb4d 333d 63b1 813c 0cdf a2bb 018c 913d
00000050: a23a a4bd dfab e53c 39dc 043d 2755 893d
00000060: 304c 4c3d 4e0c 373a c525 abbd f652 25bd
00000070: d341 74bd 4802 623c 9c7b 92bd 1dbb e3bc
00000080: 9fa7 563d ba33 bdbc d59b 7d3c 852e 80bd
00000090: 3753 86bc dbf1 a03c 2993 123d c390 42bd
000000a0: aeaf 9dbd aebc 953d 9516 e13a d254 8b3b
000000b0: ad69 99bd 6e84 c43c dbf3 7d3d 14be a03d
000000c0: da17 a5bd 4c35 89bc ea32 733d d0f8 21bd
000000d0: e401 88bc 1f42 8ebd d1be d93c b474 1dbd
000000e0: 1f91 8c3d ee11 ad3d 9eda 883d d05c be3c
000000f0: 1106 40bd c860 ee3c 0156 f13c c987 40bd
00000100: c55c 57bd d274 803c 7b3b 2d3b bbbe 113d
00000110: 499c 203c 5861 c13c 8d5d e83c 545b 133c
00000120: 3900 793d b7eb 15bd e9cb fb3c 9ad1 f6bc
00000130: 5676 7dbd 75e6 6fbd e9cd a9bd 3908 2abd
00000140: 16ee 233b 2764 4c3d 8cc3 89bd 3e7b 0ebd
00000150: afad bdbc 9832 81bd 9e45 80bd 8dfd b93d
00000160: 9aa6 c73d 42ac e4bc 0edb 27bd 2440 573d
00000170: 79e7 833d 7deb 23bd 4656 583d 3502 adbc
00000180: fcf8 203d b7e2 563d 7b80 043d 707f ca3c
00000190: 31cf 4abd 32bd 393d cf28 cfbc 6fc1 923b
000001a0: 65d2 72bc 2010 bb3d f565 05bd 6901 03bd
000001b0: 8384 a83d 4e8d 963d ca8d 0e3d 2ac9 973d
000001c0: 9918 40bd 5ee8 9bbd e0c8 323d fc6c 88bd
000001d0: 64b2 7a3d 30d5 813d 70bb 48bd 35f5 1c3d
000001e0: 393b 38bd 9ab7 9f3b 6838 9d3d 3df1 aabc
000001f0: 9c1f 13bc 2274 143c 5c58 09bd 53c4 7cbd
00000200: c5f0 78bc e0ea a53d 3d69 c7bb 8430 b73d
00000210: 7f4d bc3c 1b7c a9bd 2c52 473d 15fd 293c
00000220: 3e2b a83d 43b5 44bd acc9 e2bc 6ce8 1c3c
00000230: bff5 be3d c280 8b3c 51ee f1bb f749 13bd
00000240: 4ab2 b3bd e7d4 e1bc 03e7 143d 11fc b13d
00000250: 7b7f dd3c 4fcf fdbc 465d 5d3c 5d81 01bd
00000260: e833 c4bc 56d1 b43d aec4 033b ace3 26bd
00000270: 1488 78bd 0e2b 703d 8faa 0dbc 6f46 c43a
00000280: bd34 963d d37f 2d3d dbb5 18bc e05c d53c
00000290: b673 953d c30f 8abd afd1 713d b134 c03c
000002a0: 4c30 43bd 136a 293c f439 b5bd 6c12 c4bd
000002b0: 1509 963d 8cde 83bd 9702 a7bb 660f 7abd
000002c0: 8d05 42ba 3e67 1fbc 4e47 a83d 80b9 333d
000002d0: c070 84bd a54c 89bd b170 34bc ecbe 4fbb
000002e0: fa6f 6fbc d61b 133c cced 61bd fd70 91bd
000002f0: 466a 303d 15e1 a73c c6fe d2bd 6b32 183d
00000300: bf6f 21bd ac7f 543d fa94 adbc e760 c0bc
00000310: 5464 dbbb 1cc2 a3bd cb87 313b 25c2 8f3a
00000320: dd60 35bc b29a 8c3d 46e7 d1bc 9f14 c53c
00000330: 2dc6 a73d 4900 123b 6658 913d c27e a2bd
00000340: c757 2abd 5ef9 42bd 754d 23bd 5a03 2e3d
00000350: c490 c03b 40c8 5a3d 3642 a63d bdb3 023d
00000360: 9d19 a2bc 403a 41ba 92c1 873d 26b6 893d
00000370: f64c b63d 069d 8dbc b88c a9bd a937 c5bc
00000380: 27af a0bd 54ef 3dbd 59bc a5ba 377b 543d
00000390: 8428 a8bc ea29 08bd 5f48 b23d 4a2b 883d
000003a0: 2253 d3bd df11 e73d 2d67 833c fc16 7abd
000003b0: 096e b2bc 1126 59bd 6b00 a0ba d91b 8d3c
000003c0: aa8b a3bd 1e3c a03d 85c5 eabc 9dc4 e13c
000003d0: c139 93bd dc75 f83c eee7 743d e6f1 953d
000003e0: 2048 973d d0b3 b2bc 83c8 113d 6ed6 233d
000003f0: 0b71 7bbd b940 ba3d e760 42bc dbf2 a0bc

fc2.bias f4 [64]
-0.07761711 0.0078730695 0.0037849816 0.07229207 -0.011536133 0.07524375 -0.08547018 0.037933446
0.08598496 0.07575637 0.0044701565 -0.089526236 -0.0120322285 0.07506448 -0.04235503 0.05522649
0.067689985 0.044099055 -0.07583054 0.080142364 -0.015033484 -0.0774054 0.015613507 0.02562135
0.021114016 0.0027768959 0.018550538 0.013067843 0.06689508 0.02082197 0.042667806 -0.07167258
0.06461807 -0.052861184 -0.017766 -0.043739438 0.0037794274 0.071857736 -0.066698425 -0.044583082
0.01968709 0.017858172 -0.026383242 -0.062425796 0.034856874 0.010412775 -0.06286271 -0.04895189
-0.035884924 0.08365642 -0.058399733 0.005570961 0.0055493847 0.022559503 -0.06387749 -0.043492105
0.046838824 -0.0794432 -0.010091764 -0.03896257 0.055418376 0.061799332 0.083916165 0.04575235
00000000: b8f5 9ebd 0cfe 003c 740d 783b dd0d 943d
00000010: 0c02 3dbc 6519 9a3d fd0a afbd 1a60 1b3d
00000020: e218 b03d 2826 9b3d 647a 923b 8859 b7bd
00000030: d322 45bc 68bb 993d 787c 2dbd 2c35 623d
00000040: 0ca1 8a3d 36a1 343d 0b4d 9bbd ae21 a43d
00000050: 014f 76bc b986 9ebd cbcf 7f3c dee3 d13c
00000060: 4df7 ac3c 95fc 353b 4cf7 973c 821a 563c
00000070: 4a00 893d d692 aa3c 70c4 2e3d 13c9 92bd
00000080: 7b56 843d f884 58bd 018a 91bc 2028 33bd
00000090: 45b0 773b 262a 933d 2f99 88bd c09c 36bd
000000a0: d246 a13c 4d4b 923c ab21 d8bc 31b2 7fbd
000000b0: 15c6 0e3d 589a 2a3c 2abe 80bd c781 48bd
000000c0: 12fc 12bd 0f54 ab3d 8f34 6fbd 9c8c b63b
000000d0: 9dd7 b53b b5ce b83c 34d2 82bd c724 32bd
000000e0: 11da 3f3d 1eb3 a2bd ed57 25bc 3797 1fbd
000000f0: 61fe 623d 4c21 7d3d 3ddc ab3d d166 3b3d

policy_head.weight f4 [110, 64]
-0.124355264 0.030828884 -0.09979571 -0.064490765 -0.10964513 0.010355578 -0.054457467 0.028107956
0.062250823 0.0031326339 -0.16460374 -0.029787311 0.10065653 0.015102579 -0.11505545 -0.11290867
0.018984836 -0.09605715 -0.07520502 -0.008683521 -0.052541338 -0.15495914 -0.12590006 -0.007056739
-0.13456757 -0.09655614 -0.14158334 0.09670926 -0.009796428 -0.094191305 -0.031256 -0.026741212
-0.12992278 -0.13067861 0.021131271 -0.06852322 -0.118715346 -0.029216364 0.08833554 -0.0021787153
0.04592706 0.046707682 0.0896329 0.04807787 0.031432234 0.09843686 0.08428783 0.028838776
0.053253278 0.04811335 -0.045217108 0.034818508 0.08420504 -0.055577017 0.06982812 0.09948508
0.07582245 0.062863395 -0.07102953 -0.012795588 0.059828863 -0.11264204 0.040844515 -0.070387445
-0.09029807 -0.06654097 0.033053987 -0.08354352 0.0027882427 -0.073135234 0.005829493 -0.08764165
-0.09759745 0.09015105 -0.1285996 -0.0016708625 0.103638515 -0.13304609 -0.0065760296 -0.07298935
0.010023974 -0.025102057 0.043336373 -0.12700513 0.06200451 -0.08892357 -0.0060429634 0.06986247
-0.1349044 -0.0049805236 -0.09024651 0.098583475 0.11993061 0.093954414 -0.0891936 0.041206002
-0.115242966 -0.0047526862 -0.059348173 -0.040028002 -0.045010805 0.0034663775 -0.115552455 0.038530916
0.03751532 -0.012089723 -0.035569124 -0.004669455 0.09734668 -0.004604124 -0.09696882 -0.08528446
-0.15374783 0.03392373 -0.11190617 -0.14450733 0.03234477 0.041040417 0.0334849 -0.046176236
0.10515701 -0.0035635086 -0.028081477 -0.013475249 0.04597244 -0.051932804 0.032834683 0.0062882826
0.14160676 0.056723557 0.15298942 0.01306289 0.11658198 0.020778904 -0.027793324 0.06365749
0.14412884 0.059391845 0.13471577 0.11372827 0.036804162 -0.028288458 0.024797728 0.058647282
0.028190797 0.08195379 -0.0346118 -0.042597793 0.050998375 -0.008222177 -0.047144823 0.08115955
0.0546709 0.15609087 0.10041124 0.09455129 0.056062665 0.12480328 -0.0150120845 0.115716025
-0.08757978 -0.04909438 -0.0049517374 0.07365045 0.07232723 0.010479079 0.0961252 0.08091344
0.08057656 -0.02596699 -0.090948105 0.09776929 -0.055678718 -0.09454785 -0.071451135 0.15574987
0.13889536 0.06705258 0.06391799 -0.04860321 -0.0308929 -0.07085133 -0.013513141 0.012185468
0.12034524 -0.054993287 -0.050616775 0.11161481 0.1075656 -0.014613692 -0.08381784 -0.033727303
-0.033782624 0.09481031 -0.06184834 0.078137234 -0.033938345 -0.014246514 -0.039349824 0.123907745
0.08783139 0.0868461 0.13822216 0.10362266 0.07126454 0.07086157 0.07960572 -0.0051824995
0.16187976 0.12520923 -0.054310985 -0.027255846 0.09771553 -0.023784079 0.034068897 0.035882216
-0.082142405 -0.00036727323 -0.07219207 0.076783866 0.0129471915 -0.07392346 0.03690507 -0.017374486
-0.11627146 0.13633548 0.11259053 0.037876785 0.14486791 -0.072746694 -0.062238347 -0.03931513
0.117920354 0.09046287 -0.054883227 0.13012297 0.14091137 -0.062304564 0.0658034 -0.04430824
0.08065812 0.058036022 0.018615626 -0.08308837 0.006577168 0.07817596 0.13391866 0.0069548525
0.11775008 0.098996565 -0.056139447 -0.04255682 0.14609863 -0.00440308 0.060534168 0.0030246552
00000000: f9ad febd db8c fc3c b161 ccbd bc13 84bd
00000010: a08d e0bd 71aa 293c cb0e 5fbd a842 e63c
00000020: b8fa 7e3d e04c 4d3b e28d 28be 8504 f4bc
00000030: 0325 ce3d cf70 773c 31a2 ebbd a93c e7bd
00000040: 1686 9b3c 9cb9 c4bd 1705 9abd 5445 0ebc
00000050: 9635 57bd 9cad 1ebe f2eb 00be 383c e7bb
00000060: 15cc 09be 3abf c5bd 39fb 10be 810f c63d
00000070: 3281 20bc 5fe7 c0bd 4b06 00bd 6310 dbbc
00000080: 7a0a 05be 9dd0 05be 7d1b ad3c e755 8cbd
00000090: 0821 f3bd 2857 efbc 43e9 b43d c7c8 0ebb
000000a0: 031e 3c3d 8e50 3f3d 7491 b73d 4ded 443d
000000b0: 16bf 003d 4499 c93d 199f ac3d 4c3f ec3c
000000c0: 1c20 5a3d 8112 453d 9335 39bd da9d 0e3d
000000d0: b173 ac3d baa4 63bd 0c02 8f3d d5be cb3d
000000e0: cd48 9b3d 86be 803d ee77 91bd 96a4 51bc
000000f0: 1c0f 753d dfb0 e6bd 944c 273d 4b27 90bd
00000100: 32ee b8bd a246 88bd 9e63 073d dd18 abbd
00000110: f3ba 363b edc7 95bd 5505 bf3b 777d b3bd
00000120: 2ce1 c7bd 1da1 b83d 9daf 03be d800 dbba
00000130: 6e40 d43d 3c3d 08be bc7b d7bb 717b 95bd
00000140: 983b 243c d4a2 cdbc 7b81 313d a20d 02be
00000150: 71f8 7d3d 901d b6bd 0d04 c6bb 0e14 8f3d
00000160: 6124 0abe a933 a3bb 2ad3 b8bd 22e6 c93d
00000170: 2e9e f53d 2c6b c03d 22ab b6bd a0c7 283d
00000180: 8104 ecbd 6cbc 9bbb 1217 73bd 67f4 23bd
00000190: 405d 38bd 2a2c 633b c4a6 ecbd 98d2 1d3d
000001a0: aaa9 193d f913 46bc eeb0 11bd 3a02 99bb
000001b0: b25d c73d 31de 96bb 9797 c6bd 9ea9 aebd
000001c0: 1270 1dbe 9cf3 0a3d 102f e5bd bbf9 13be
000001d0: f37b 043d ff19 283d 7627 093d 4b23 3dbd
000001e0: 8f5c d73d c189 69bb 200b e6bc 4ac7 5cbc
000001f0: 994d 3c3d 7eb7 54bd a97d 063d f00d ce3b
00000200: 5d01 113e f656 683d 42a9 1c3e bb05 563c
00000210: 88c2 ee3d 8538 aa3c d3ae e3bc dc5e 823d
00000220: 8396 133e dd44 733d eef2 093e 5eea e83d
00000230: f6bf 163d 32bd e7bc 9b24 cb3c 2238 703d
00000240: 63f0 e63c 63d7 a73d 1ac5 0dbd 067b 2ebd
00000250: ace3 503d 4fb6 06bc ee1a 41bd fa36 a63d
00000260: 98ee 5f3d 49d6 1f3e 68a4 cd3d 1ba4 c13d
00000270: f7a1 653d dd98 ff3d 3ff5 75bc 86fc ec3d
00000280: 075d b3bd 3017 49bd 2f42 a2bb 0cd6 963d
00000290: 4c20 943d 71b0 2b3c 4add c43d f2b5 a53d
000002a0: 5305 a53d bab8 d4bc 0043 babd 443b c83d
000002b0: 5e0f 64bd 4ea2 c1bd f954 92bd e57c 1f3e
000002c0: 963a 0e3e dd52 893d 6fe7 823d 2914 47bd
000002d0: 1b13 fdbc 811a 91bd 3966 5dbc 8fa5 473c
000002e0: 9177 f63d a440 61bd 8953 4fbd 4e96 e43d
000002f0: 5a4b dc3d 446e 6fbc b0a8 abbd a425 0abd
00000300: a65f 0abd e82b c23d af54 7dbd 6a06 a03d
00000310: ef02 0bbd 366a 69bc 482d 21bd 58c3 fd3d
00000320: f2e0 b33d 5edc b13d 1c8a 0d3e 1e38 d43d
00000330: 25f3 913d df1f 913d 5308 a33d f5d1 a9bb
00000340: cfc3 253e d936 003e 3275 5ebd a747 dfbc
00000350: 141f c83d d4d6 c2bc d48b 0b3d 3bf9 123d
00000360: 473a a8bd 948e c0b9 70d9 93bd dc40 9d3d
00000370: 7520 543c 2f65 97bd c529 173d f054 8ebc
00000380: bb1f eebd 879b 0b3e dd95 e63d b024 1b3d
00000390: 4158 143e 38fc 94bd a3ed 7ebd e708 21bd
000003a0: 3a80 f13d 9944 b93d 3ccd 60bd f53e 053e
000003b0: 124b 103e 1233 7fbd efc3 863d 8f7c 35bd
000003c0: 1630 a53d 2eb7 6d3d cc7f 983c 3c2a aabd
000003d0: 4985 d73b b81a a03d f921 093e 88e5 e33b
000003e0: f426 f13d b6be ca3d 7af2 65bd 0f50 2ebd
000003f0: e19a 153e b647 90bb adf2 773d 4b39 463b

policy_head.bias f4 [110]
-0.13488846 -0.09424118 0.03677369 -0.048416775 0.09122302 -0.12222928 -0.11059823 -0.02867333
-0.055923183 -0.014832024 0.00935313 0.06281124 0.083883986 -0.061989155 0.026675269 0.109684356
0.053766463 -0.06315868 0.0997774 -0.070063375 0.090787254 -0.005441948 0.00826487 -0.07325829
-0.05557534 0.092612274 -0.09152824 0.114819944 0.11125349 0.116218366 0.0031822103 -0.017297138
-0.078245714 0.085607514 -0.015411297 -0.09567405 0.052122526 -0.0030902403 -0.07937081 -0.06890098
0.013171597 -0.038568627 -0.025599783 -0.10933642 -0.056941353 0.10002577 0.009766529 -0.036621142
-0.041300684 -0.032989617 -0.025458567 0.018846007 0.05736979 -0.034579128 -0.043814298 -0.020072868
0.096048295 0.08598618 -0.12108245 -0.11966771 -0.084927484 -0.08819647 -0.13168268 -0.065401696
-0.11846414 -0.13557908 -0.115130894 -0.03531708 0.08075284 0.079683624 -0.016749473 0.06919974
0.086968504 0.04296555 -0.08288608 -0.01878062 0.051207118 -0.060772434 0.09625475 -0.02344238
-0.005944093 -0.1332864 0.09010367 -0.023747236 0.06865644 0.025416102 0.020595843 -0.13972293
-0.11593089 -0.13331243 -0.034243137 -0.0053897193 0.012876041 -0.119908266 0.043279905 0.07808062
-0.05343404 -0.11706192 0.08763582 -0.044910118 0.006102992 -0.09977749 0.046018206 -0.030922085
-0.04996044 -0.058948506 0.0900206 -0.08643487 0.06554739 -0.049684256
00000000: 3320 0abe 8501 c1bd 02a0 163d ab50 46bd
00000010: 22d3 ba3d 5853 fabd 5381 e2bd 55e4 eabc
00000020: b50f 65bd 0502 73bc df3d 193c 2ea3 803d
00000030: 5ecb ab3d 57e8 7dbd 1886 da3c 31a2 e03d
00000040: 393a 5c3d 5759 81bd 1858 cc3d 637d 8fbd
00000050: abee b93d 5e52 b2bb 6169 073c 7108 96bd
00000060: f8a2 63bd 81ab bd3d 2873 bbbd b826 eb3d
00000070: dfd8 e33d e503 ee3d a18c 503b bab2 8dbc
00000080: 4a3f a0bd fe52 af3d aa7f 7cbc c2f0 c3bd
00000090: 6e7e 553d a185 4abb 2a8d a2bd f51b 8dbd
000000a0: afcd 573c 23fa 1dbd a3b6 d1bc c6eb dfbd
000000b0: 563b 69bd 50da cc3d cb03 203c 0d00 16bd
000000c0: e82a 29bd 1f20 07bd 7c8e d0bc f162 9a3c
000000d0: 96fc 6a3d d8a2 0dbd 9f76 33bd db6f a4bc
000000e0: f8b4 c43d 8619 b03d 13fa f7bd 5814 f5bd
000000f0: 76ee adbd 5aa0 b4bd d3d7 06be 53f1 85bd
00000100: 549d f2bd 3ed5 0abe bfc9 ebbd a4a8 10bd
00000110: bf61 a53d 2b31 a33d 3136 89bc 98b8 8d3d
00000120: 8b1c b23d a5fc 2f3d 2dc0 a9bd d1d9 99bc
00000130: 8ebe 513d 84ec 78bd 3621 c53d 3c0a c0bc
00000140: abc6 c2bb 3b7c 08be 4688 b83d 9089 c2bc
00000150: bf9b 8c3d 6e35 d03c 9db8 a83c 8713 0fbe
00000160: 2d6d edbd 0e83 08be 8842 0cbd 3e9c b0bb
00000170: 08f6 523c 7792 f5bd 4546 313d bbe8 9f3d
00000180: a7dd 5abd 29be efbd 697a b33d acf3 37bd
00000190: 9cfb c73b 2458 ccbd 967d 3c3d 5050 fdbc
000001a0: 51a3 4cbd fd73 71bd b85c b83d c404 b1bd
000001b0: b63d 863d b881 4bbd

value_head.weight f4 [1, 64]
0.10476569 0.10257717 0.07936724 0.09410974 0.11498132 0.12075447 -0.08865656 0.020792661
0.0059168222 -0.027381904 0.13888197 -0.05262323 -0.07240276 -0.044469863 -0.121266015 0.04971244
-0.12441076 -0.09546135 0.038033336 0.13362102 0.046749983 -0.066346 0.09402134 0.11607232
0.017617874 0.10870764 0.11290656 -0.13537014 -0.08630736 -0.029623952 -0.09512346 -0.015724098
-0.08817329 0.09163794 0.018963069 -0.028789079 0.049261205 0.09830872 0.027334275 -0.03280573
-0.03325661 0.100270085 -0.1283147 -0.031922765 0.09685553 -0.06254843 -0.095282264 0.06723834
0.048609138 0.034165125 0.058882818 0.09677457 -0.013898156 0.040984817 0.060305096 -0.031532258
-0.053028606 0.046923984 0.093986444 -0.044494994 0.10627743 0.123223245 0.09580028 -0.052236546
00000000: 658f d63d fb13 d23d 4b8b a23d 9bbc c03d
00000010: 547b eb3d 1f4e f73d 9291 b5bd 5f55 aa3c
00000020: e7e1 c13b 0450 e0bc 1337 0e3e 758b 57bd
00000030: e647 94bd 0826 36bd 515a f8bd 469f 4b3d
00000040: 12cb febd 3e81 c3bd d8c8 1b3d f3d3 083e
00000050: e97c 3f3d 69e0 87bd 438e c03d 53b7 ed3d
00000060: 5c53 903c 1ca2 de3d 8e3b e73d 789e 0abe
00000070: eac1 b0bd eead f2bc 17d0 c2bd d3cf 80bc
00000080: 3394 b4bd acac bb3d 7058 9b3c 13d7 ebbc
00000090: 1ec6 493d 1556 c93d 21ec df3c 4d5f 06bd
000000a0: 1538 08bd 675a cd3d ee64 03be 72c1 02bd
000000b0: 315c c63d 6419 80bd 5923 c3bd 41b4 893d
000000c0: 601a 473d bbf0 0b3d 1c2f 713d bf31 c63d
000000d0: 17b5 63bc b2df 273d 7a02 773d f827 01bd
000000e0: 8634 59bd 5d33 403d f77b c03d 6240 36bd
000000f0: fba7 d93d 785c fc3d f032 c43d fdf5 55bd

exp_avg f4 [128, 260]
-9.851586e-05 6.1088176e-05 -7.259164e-05 0.0001185922 0.0001889629 -0.00012762946 -1.6326294e-06 -0.00022126605
8.755139e-05 0.000111040514 0.00028055042 -0.00025325653 -6.73156e-05 -0.00010064999 -2.5428835e-05 0.00025844367
1.4273122e-05 8.8743436e-05 -0.00017509096 0.00014618861 -1.828268e-05 0.00012228466 -5.4601423e-05 -7.925429e-06
-9.838217e-05 -0.00023516084 1.6732354e-05 0.00021458976 9.207347e-05 8.291907e-06 -3.8941107e-05 0.00014546508
-0.00015639141 0.00015704051 -1.9258177e-05 0.000129912 -9.7542856e-05 -0.00030053247 0.00020295318 0.00010016556
0.0001435229 -5.551129e-05 6.61079e-05 2.9229444e-05 -4.0278836e-05 -9.857841e-06 -5.9149617e-05 0.0003005417
0.00012509996 -2.591312e-06 -0.00017175698 0.00016335919 -1.9397972e-05 0.0 -2.597258e-11 4.151423e-09
-3.319257e-05 -3.1630945e-05 2.2619999e-05 4.837969e-05 -3.0651136e-05 2.4834506e-05 6.4715327e-06 0.00010973266
7.291951e-05 -6.020709e-06 0.0 0.0 4.870703e-06 -7.743114e-05 -1.0104844e-05 -0.00013983193
1.302315e-05 -3.4593818e-06 -2.878391e-06 -5.2688945e-05 4.063559e-05 7.0043397e-06 4.9795666e-13 0.0
0.0 9.308881e-06 -2.1644782e-05 -6.745968e-05 8.216435e-08 0.0 9.3544526e-07 -5.9885646e-05
2.3482842e-05 3.90714e-05 -1.5111299e-05 0.0 0.0 0.0 0.0 2.5239335e-05
8.342048e-06 -5.831264e-06 6.553756e-05 -2.071076e-08 2.5133404e-05 1.6396989e-05 4.1559368e-05 1.3305704e-05
4.079432e-05 3.80844e-05 6.0134164e-05 1.5576443e-05 0.00010420588 8.1014536e-05 -0.00018356352 1.7662589e-05
9.941974e-06 -4.1310817e-05 1.8175906e-05 6.368418e-05 0.00020972859 -0.00012575615 -4.4943192e-08 -5.9165e-06
-3.278728e-05 5.2246956e-05 3.803223e-05 -2.0041021e-05 3.6385998e-05 -0.00022769731 3.6669888e-05 -7.0526535e-06
3.8116836e-05 1.6530603e-05 3.80844e-05 6.6255865e-08 4.2064097e-05 3.0385573e-12 2.1769997e-12 1.0357764e-05
-3.2345186e-05 6.00344e-05 -5.465074e-05 -0.00027003366 -8.2860115e-06 0.0002651658 -9.436021e-05 0.0
3.63484e-05 -1.536084e-08 0.000117881595 1.3229732e-05 3.527991e-05 -3.1062027e-05 4.560869e-05 -2.571907e-05
-0.000114948256 0.00012670952 2.6836768e-05 -8.811053e-05 1.736303e-05 6.938368e-05 3.3133266e-12 -9.4557065e-05
-8.3610124e-05 -0.00014961118 1.9663032e-05 -0.00014709836 1.5357622e-05 -4.7741187e-06 1.720754e-05 9.6878e-06
2.0626056e-05 5.0059353e-12 -1.916472e-05 -1.0719647e-07 -0.00012580285 -0.00010895671 2.4290037e-13 7.231535e-05
0.0 -1.0045264e-05 -1.9164725e-05 -2.5675112e-05 0.0 0.0 0.00010247236 -0.000144078
-0.00017498211 8.718998e-06 -5.8237612e-05 -0.0001278042 7.4753334e-05 8.0244165e-05 0.0 -1.6105165e-05
9.308998e-12 0.0 5.0197486e-05 2.0576466e-05 0.0 -8.021052e-05 0.0 0.00011923146
-1.689186e-07 -3.0035351e-05 -2.8381376e-06 9.308881e-06 0.0 0.0 5.0663243e-06 1.1558739e-05
0.00015947277 -1.6343982e-05 0.00011217376 6.0100472e-05 -3.430445e-05 0.00032757336 0.00024266086 0.00040203836
1.75164e-05 9.926165e-06 -0.00020167373 0.00016986809 -0.00013624235 0.0003321431 0.00018163273 -0.00015270374
0.00023916256 0.00014511369 0.0002468798 5.2004034e-05 6.858976e-05 0.00023803148 0.00013969089 0.00019305837
0.00011934599 0.00031134216 -5.757288e-05 2.9138182e-05 0.00015877865 7.339646e-05 0.00021853975 0.00013915724
0.00021361736 -0.00019760281 0.00017268975 0.00031582869 0.00018206229 9.601153e-05 -4.3962897e-05 -2.1025799e-05
-8.01551e-05 0.00023545344 -8.427325e-05 -8.72137e-05 9.654204e-05 0.00017650274 5.055774e-05 -0.00018439454
00000000: 4d9a ceb8 771c 8038 573c 98b8 b4b4 f838
00000010: 5824 4639 46d4 05b9 b820 dbb5 a703 68b9
00000020: cb9b b738 6cde e838 d716 9339 84c7 84b9
00000030: ca2b 8db8 0d14 d3b8 0250 d5b7 b97f 8739
00000040: 9876 6f37 c51b ba38 9f98 37b9 354a 1939
00000050: c25d 99b7 8a39 0039 d503 65b8 75f7 04b7
00000060: 8652 ceb8 8295 76b9 755c 8c37 8003 6139
00000070: 9117 c138 781d 0b37 b254 23b8 fc87 1839
00000080: 00fd 23b9 3eab 2439 9f8c a1b7 fd38 0839
00000090: ec8f ccb8 c990 9db9 d4cf 5439 fa0f d238
000000a0: a37e 1639 cbd4 68b8 69a3 8a38 c131 f537
000000b0: 12f1 28b8 1b63 25b7 6b17 78b8 0692 9d39
000000c0: 442d 0339 67e6 2db6 aa19 34b9 664b 2b39
000000d0: d4b8 a2b7 0000 0000 0d75 e4ad 4ea4 8e31
000000e0: 4038 0bb8 78ab 04b8 14c0 bd37 4ceb 4a38
000000f0: 688f 00b8 b253 d037 0b26 d936 4620 e638
00000100: 5dec 9838 7f05 cab6 0000 0000 0000 0000
00000110: 056f a336 8762 a2b8 f987 29b7 d99f 12b9
00000120: 017e 5a37 ba27 68b6 612a 41b6 53fe 5cb8
00000130: 2270 2a38 d206 eb36 8f29 0c2b 0000 0000
00000140: 0000 0000 572d 1c37 d191 b5b7 2479 8db8
00000150: 5472 b033 0000 0000 4f1b 7b35 b92d 7bb8
00000160: 05fd c437 99e0 2338 8986 7db7 0000 0000
00000170: 0000 0000 0000 0000 0000 0000 0fb9 d337
00000180: d3f4 0b37 2daa c3b6 3671 8938 71e7 b1b2
00000190: 93d5 d237 448c 8937 0850 2e38 903b 5f37
000001a0: 911a 2b38 d0bc 1f38 9138 7c38 28aa 8237
000001b0: 1b89 da38 59e6 a938 f57a 40b9 1f2a 9437
000001c0: 74cc 2637 2745 2db8 7678 9837 2f8e 8538
000001d0: 97ea 5b39 69dd 03b9 9007 41b3 5986 c6b6
000001e0: 1385 09b8 be23 5b38 cc84 1f38 c41d a8b7
000001f0: 2b9d 1838 08c2 6eb9 fecd 1938 d5a5 ecb6
00000200: a4df 1f38 33ab 8a37 d0bc 1f38 8c48 8e33
00000210: fb6d 3038 c8d1 552c 5731 192c 42c6 2d37
00000220: 61aa 07b8 72cd 7b38 c938 65b8 4e93 8db9
00000230: 2604 0bb7 f405 8b39 41e3 c5b8 0000 0000
00000240: cc74 1838 d8f2 83b2 3337 f738 44f5 5d37
00000250: 84f9 1338 9948 02b8 f54b 3f38 48bf d7b7
00000260: 6010 f1b8 54dd 0439 851f e137 fbc7 b8b8
00000270: d3a6 9137 1482 9138 9627 692c f04c c6b8
00000280: d857 afb8 f2e0 1cb9 0af2 a437 6a3e 1ab9
00000290: 3ed4 8037 5e31 a0b6 e958 9037 c988 2237
000002a0: 1e06 ad37 7521 b02c ecc3 a0b7 e233 e6b3
000002b0: f2e9 03b9 b07f e4b8 a2bd 882a 02a8 9738
000002c0: 0000 0000 1588 28b7 efc3 a0b7 e260 d7b7
000002d0: 0000 0000 0000 0000 6ee6 d638 a513 17b9
000002e0: 677b 37b9 d047 1237 2944 74b8 2e03 06b9
000002f0: e4c4 9c38 c248 a838 0000 0000 9419 87b7
00000300: 00c4 232d 0000 0000 248b 5238 a09b ac37
00000310: 0000 0000 b236 a8b8 0000 0000 e70b fa38
00000320: fe5f 35b4 6df4 fbb7 d576 3eb6 572d 1c37
00000330: 0000 0000 0000 0000 65ff a936 68ec 4137
00000340: 2538 2739 6f1a 89b7 d43e eb38 6414 7c38
00000350: 1fe2 0fb8 27be ab39 c772 7e39 adc8 d239
00000360: 2ff0 9237 8e88 2637 6178 53b9 9e1e 3239
00000370: 47dc 0eb9 7e23 ae39 aa74 3e39 191f 20b9
00000380: b6c7 7a39 a929 1839 a56f 8139 e81e 5a38
00000390: d9d7 8f38 1798 7939 fd79 1239 b66f 4a39
000003a0: 6449 fa38 a33b a339 697a 71b8 c56d f437
000003b0: d27d 2639 6dec 9938 d127 6539 bdea 1139
000003c0: 79fe 5f39 9a33 4fb9 0d14 3539 cf95 a539
000003d0: f9e7 3e39 cc59 c938 cd64 38b8 8f60 b0b7
000003e0: f118 a8b8 0de4 7639 dbbb b0b8 80e6 b6b8
000003f0: 9d76 ca38 9813 3939 f60d 5438 085a 41b9

exp_avg_sq f4 [128, 260]
2.1945687e-09 2.9667941e-09 5.1004e-09 2.4131537e-09 7.348748e-09 6.507527e-09 9.1667635e-10 4.4828194e-09
2.2608853e-09 6.1164354e-09 1.1130737e-08 1.2488525e-08 9.084088e-09 8.135811e-09 7.0661743e-09 8.847397e-09
1.969734e-10 6.351666e-09 1.0745335e-08 8.2511455e-09 7.973064e-09 9.081487e-09 5.9388694e-09 2.7073228e-09
3.9375183e-09 1.2804864e-08 7.213481e-09 4.7945115e-09 2.7692546e-09 8.074864e-09 4.8387685e-09 6.7793224e-09
8.7597245e-09 1.1445298e-08 9.0543e-10 3.2922196e-09 1.252598e-08 1.3093558e-08 1.0204933e-08 1.8364076e-09
3.5854524e-09 1.4934338e-08 9.87194e-10 1.4230087e-09 7.770134e-09 2.8672258e-09 6.830813e-09 8.384807e-09
5.70721e-09 9.916375e-09 8.991257e-09 2.11523e-08 2.0144497e-10 0.0 1.0976971e-11 2.8903358e-12
2.871988e-10 1.3465365e-10 5.5631635e-11 6.082751e-10 4.5033358e-10 1.4728262e-09 1.2238063e-09 2.0553883e-09
7.007588e-10 3.2664874e-11 0.0 0.0 1.531419e-11 2.6914748e-09 3.006453e-10 1.7894428e-09
1.369041e-10 2.3511929e-10 2.9528716e-10 3.068173e-10 6.998007e-10 2.1901253e-10 9.273827e-12 0.0
0.0 4.234929e-11 3.425631e-10 1.286789e-09 9.656279e-11 0.0 1.3784703e-10 9.0994096e-10
1.9145514e-09 6.9413336e-10 8.0562135e-10 0.0 0.0 0.0 0.0 2.4208996e-10
4.783776e-10 1.1877152e-10 8.161379e-10 2.2643217e-11 3.5119205e-10 1.543373e-10 5.483843e-10 6.196579e-10
7.7076223e-10 1.7888543e-10 1.8413544e-09 1.0653071e-09 1.7446784e-09 1.4924256e-09 6.2845684e-09 3.0955896e-09
6.6787873e-09 7.752679e-09 4.853214e-09 4.6980886e-09 5.8574456e-09 2.3272073e-09 1.6864382e-10 4.5439366e-10
7.4584966e-10 1.5894058e-09 2.4819288e-10 4.5972155e-09 9.8644914e-09 8.971955e-09 1.3290908e-09 6.397025e-09
1.1998242e-08 1.7014792e-09 2.723838e-10 2.2444928e-10 4.199693e-09 3.085351e-10 1.497038e-10 2.5240483e-09
7.652819e-10 1.7440072e-09 2.5021762e-09 1.4271719e-08 7.516522e-10 8.440565e-09 6.2586003e-09 0.0
7.805136e-09 2.1863806e-11 9.571279e-10 1.3678344e-09 5.7286873e-09 1.0310552e-09 3.640998e-10 1.6975777e-09
1.4728554e-08 5.965532e-09 4.3066867e-10 1.9398954e-09 6.641919e-11 1.4313585e-09 7.9090914e-11 2.7024787e-09
1.9491562e-09 3.895272e-09 7.383959e-10 4.369874e-09 4.0886936e-11 1.5760974e-10 1.8548485e-10 1.752562e-10
1.2981241e-10 3.9239284e-10 8.5642805e-11 6.159919e-10 3.4745244e-09 1.9323694e-09 5.1057015e-12 1.4770978e-09
0.0 4.0636716e-11 8.498204e-11 3.0947467e-10 0.0 0.0 8.782071e-10 2.7313034e-09
2.3512408e-09 5.811219e-10 1.3903547e-09 5.8858873e-09 1.5382735e-09 2.9928322e-09 0.0 1.3933668e-10
1.9598656e-10 0.0 9.988268e-10 1.7846211e-09 0.0 2.7134763e-09 0.0 3.0171388e-09
1.4018713e-10 3.065583e-10 3.0843267e-10 4.234929e-11 0.0 0.0 5.1603014e-11 1.4452485e-10
4.4022414e-08 4.203436e-08 3.674242e-08 3.6550347e-08 2.6192966e-08 3.5955953e-08 4.2559748e-08 3.020523e-08
3.6586755e-08 2.2030813e-08 1.4865998e-08 2.0214978e-08 1.8639152e-08 2.7770302e-08 3.6279808e-08 3.194032e-08
4.5865765e-08 2.5126788e-08 3.1612647e-08 2.1683938e-08 1.38457885e-08 2.1561371e-08 3.1083715e-08 3.021795e-08
2.1070347e-08 2.6250394e-08 2.6864813e-08 3.076337e-08 3.0899173e-08 2.6909474e-08 4.0600316e-08 1.6058793e-08
3.302774e-08 2.5798244e-08 3.9805357e-08 2.436722e-08 1.9963181e-08 2.2490227e-08 1.57768e-08 3.5354535e-08
3.2916873e-08 2.4718187e-08 4.1406555e-08 3.6896676e-08 1.939839e-08 3.9149892e-08 3.1592336e-08 3.2135116e-08
00000000: 43cf 1631 65e0 4b31 983f af31 a6d4 2531
00000010: 4580 fc31 d098 df31 5df9 7b30 4c07 9a31
00000020: ea5d 1b31 bc28 d231 8039 3f32 1d8d 5632
00000030: 3e10 1c32 adc5 0b32 baca f231 43ff 1732
00000040: 1593 582f d83d da31 7c9a 3832 ecc0 0d32
00000050: e8f9 0832 cd04 1c32 d90e cc31 ba0b 3a31
00000060: c74a 8731 63fc 5b32 73da f731 f8bc a431
00000070: 3e4d 3e31 a1b9 0a32 4242 a631 8def e831
00000080: ad7d 1632 f4a0 4432 f9e1 7830 573d 6231
00000090: d831 5732 14f2 6032 c551 2f32 d964 fc30
000000a0: f263 7631 f548 8032 cdad 8730 ab93 c330
000000b0: 697d 0532 c508 4531 77b4 ea31 c50c 1032
000000c0: 2619 c431 ae5c 2a32 f777 1a32 66b2 b532
000000d0: b87d 5d2f 0000 0000 e21b 412d a963 4b2c
000000e0: a3e3 9d2f a20d 142f a7ab 742e 8e33 2730
000000f0: d192 f72f 776c ca30 db32 a830 c63e 0d31
00000100: 849f 4030 61a9 0f2e 0000 0000 0000 0000
00000110: 7db4 862d edf4 3831 1048 a52f 6cf0 f530
00000120: 1487 162f 1942 812f f955 a22f b2ac a82f
00000130: 195c 4030 8cce 702f 9b25 232d 0000 0000
00000140: 0000 0000 1041 3a2e 7853 bc2f ddda b030
00000150: 0558 d42e 0000 0000 7d90 172f 671f 7a30
00000160: 2591 0331 4bcd 3e30 9072 5d30 0000 0000
00000170: 0000 0000 0000 0000 0000 0000 2217 852f
00000180: d57e 0330 3697 022f 9956 6030 fe2b c72d
00000190: e311 c12f 17b2 292f 1dbd 1630 8c54 2a30
000001a0: 92dd 5330 c6af 442f e612 fd30 296a 9230
000001b0: 6ac9 ef30 0f1e cd30 a6ef d731 30ba 5431
000001c0: 3c7b e531 a530 0532 52c1 a631 d36c a131
000001d0: a342 c931 aaec 1f31 046d 392f 39ce f92f
000001e0: 8104 4d30 3f72 da30 0b72 882f 89f5 9d31
000001f0: 7e78 2932 1323 1a32 3aab b630 d4cc db31
00000200: d420 4e32 7ad9 e930 9dbe 952f dbc8 762f
00000210: e44c 9031 749e a92f e099 242f 8773 2d31
00000220: ed5b 5230 ccb1 ef30 c0f2 2b31 af2f 7532
00000230: d29c 4e30 ff01 1132 3b0b d731 0000 0000
00000240: 5a17 0632 ea50 c02d f28b 8330 65fe bb30
00000250: 11d6 c431 08b5 8d30 7e2a c82f 3550 e930
00000260: de08 7d32 60f9 cc31 3ac3 ec2f 004f 0531
00000270: ae0e 922e 73b9 c430 3aec ad2e 82b6 3931
00000280: ebf1 0531 2dd7 8531 fef7 4a30 d125 9631
00000290: 99d2 332e 334b 2d2f 58f1 4b2f 3cb2 402f
000002a0: f2ba 0e2f 62b8 d72f 9d54 bc2e 9452 2930
000002b0: 7bc4 6e31 9aca 0431 12a4 b32c c202 cb30
000002c0: 0000 0000 e0b8 322e a3e0 ba2e b022 aa2f
000002d0: 0000 0000 0000 0000 5566 7130 99b1 3b31
000002e0: 7793 2131 d1bc 1f30 c216 bf30 d03c ca31
000002f0: 306b d330 76aa 4d31 0000 0000 ca33 192f
00000300: 507d 572f 0000 0000 1847 8930 c646 f530
00000310: 0000 0000 fb77 3a31 0000 0000 1156 4f31
00000320: 2b23 1a2f 3f88 a82f 0a90 a92f 1041 3a2e
00000330: 0000 0000 0000 0000 d4f3 622e 21e8 1e2f
00000340: 2813 3d33 4589 3433 b8ce 1d33 88fb 1c33
00000350: f1fe e032 fd6d 1a33 f0ca 3633 00bb 0133
00000360: 9023 1d33 453e bd32 5a65 7f32 35a5 ad32
00000370: ee1b a032 8a8b ee32 12d2 1b33 c12e 0933
00000380: f1fd 4433 64d6 d732 79c6 0733 7c43 ba32
00000390: 6cde 6d32 f535 b932 e880 0533 fdc8 0133
000003a0: 2ffe b432 3a7d e132 59c4 e632 af20 0433
000003b0: 00b6 0433 8f26 e732 8560 2e33 a9f1 8932
000003c0: 62da 0d33 f09a dd32 74f6 2a33 1550 d132
000003d0: 807b ab32 8830 c132 8d85 8732 b9d8 1733
000003e0: 7c60 0d33 de53 d432 fdd6 3133 5378 1e33
000003f0: 83a1 a632 c325 2833 24b0 0733 ef04 0a33

exp_avg f4 [128]
9.971621e-05 -0.00049026695 -2.3927081e-05 -0.0005717876 0.000614892 9.2477705e-05 0.00033777277 -0.0005070565
-0.00047535563 -3.885663e-05 -0.0003768461 -0.00032824732 -0.00015970595 8.2261715e-07 0.00012718287 3.9567545e-05
0.00027173085 -8.776304e-06 -0.00032084112 -0.00038213297 -2.6050182e-05 -0.0005168883 -2.0549822e-05 -0.0004034033
-1.3130082e-05 3.5284054e-05 -0.000120707475 -0.0006602812 -0.00013020978 6.5219254e-05 0.00011498884 0.00020892384
-0.00015698862 -6.4894106e-05 2.900895e-05 0.00019637629 1.5532718e-05 0.00010253859 3.8132705e-05 0.0005673567
0.00035094502 -7.9695865e-06 -0.00010277482 -2.2949585e-05 2.6842916e-05 -7.826212e-05 4.6902518e-05 -7.503796e-05
0.0004492203 -4.3086246e-05 -0.00022876669 -0.00052086386 -0.00016980492 -3.1553278e-05 -0.00016404515 -0.00019773368
0.0005599624 -0.00011866662 -0.00019584093 4.6286855e-06 -0.0002131961 -3.5878358e-05 0.0013657153 1.842583e-05
-0.0005416427 1.3688643e-05 0.0004792915 -0.0003542681 -0.0004266797 -6.158103e-05 1.0175881e-05 0.0011208269
-0.00047925234 -0.0005630555 -0.00018834496 -1.4234351e-05 0.00014344665 -0.00051589013 0.00031567583 0.0001300724
9.371967e-05 -0.0004895113 -0.00019690976 -6.561051e-05 4.1146e-06 -0.00017145963 -0.00017104698 -0.00016337079
-0.00018480267 -9.500478e-05 -0.00017108642 0.00052885996 -0.00035501612 -0.00024992926 -0.0003635827 -8.65397e-05
-6.292405e-05 0.00035380494 0.00046253044 0.00026456962 5.2603515e-05 3.4632027e-05 -0.00032478935 -0.00022422339
0.0007063406 -0.000510279 -2.8136099e-05 0.00010451103 -0.0004391215 0.00013837339 0.00023585325 2.3323587e-06
6.0167808e-05 -0.0005289176 -2.7928178e-05 -0.0002291781 0.000118486714 -0.00040804365 -6.668352e-05 -0.00025435464
-0.00054611405 -5.1379106e-05 -0.00020575388 -0.00047154637 -5.6924673e-05 -0.0005168774 0.00013005568 -0.00017728882
00000000: bc1e d138 4285 00ba 04b7 c8b7 04e4 15ba
00000010: b430 213a 97f0 c138 1817 b139 fceb 04ba
00000020: 2739 f9b9 fdf9 22b8 6d93 c5b9 9c18 acb9
00000030: bd76 27b9 d2d1 5c35 645c 0539 54f5 2538
00000040: 1977 8e39 f03d 13b7 9136 a8b9 0559 c8b9
00000050: 5786 dab7 c97f 07ba 6862 acb7 e07f d3b9
00000060: 4649 5cb7 f7fd 1338 5524 fdb8 b916 2dba
00000070: ec88 08b9 52c6 8838 2a26 f138 9112 5b39
00000080: 509d 24b9 c217 88b8 3f58 f337 5cea 4d39
00000090: 424c 8237 fd09 d738 aef0 1f38 aaba 143a
000000a0: 0bff b739 1db5 05b7 d088 d7b8 dc83 c0b7
000000b0: b92c e137 a820 a4b8 32b9 4438 b35d 9db8
000000c0: 5485 eb39 81b7 34b8 17e1 6fb9 958a 08ba
000000d0: a90d 32b9 1358 04b8 8903 2cb9 bb56 4fb9
000000e0: 71ca 123a a8dc f8b8 a65a 4db9 1b50 9b36
000000f0: 648d 5fb9 187c 16b8 cd01 b33a 2b91 9a37
00000100: 07fd 0dba 46a8 6537 6b49 fb39 0fbd b9b9
00000110: fbb3 dfb9 1025 81b8 13b9 2a37 b6e8 923a
00000120: 2944 fbb9 049a 13ba 777e 45b9 12d0 6eb7
00000130: 2b6a 1639 cd3c 07ba 4b81 a539 0b64 0839
00000140: 5d8b c438 8c52 00ba 9079 4eb9 6098 89b8
00000150: 2510 8a36 d8c9 33b9 135b 33b9 834e 2bb9
00000160: 97c7 41b9 4e3d c7b8 a965 33b9 31a3 0a3a
00000170: 7521 bab9 f008 83b9 3e9f beb9 a67c b5b8
00000180: 18f6 83b8 e57e b939 c97f f239 efb5 8a39
00000190: 98a2 5c38 db41 1138 7d48 aab9 821d 6bb9
000001a0: b729 393a 3ec4 05ba d005 ecb7 ef2c db38
000001b0: e439 e6b9 5318 1139 604f 7739 9e85 1c36
000001c0: b15c 7c38 0fa7 0aba 4e47 eab7 874f 70b9
000001d0: 127c f838 b1ee d5b9 71d8 8bb8 e75a 85b9
000001e0: 1829 0fba e57f 57b8 a3bf 57b9 e239 f7b9
000001f0: 67c2 6eb8 0e7f 07ba 8e5f 0839 9be6 39b9

exp_avg_sq f4 [128]
5.2079134e-08 6.160271e-08 1.12398354e-07 3.3376489e-06 3.257769e-07 6.4768095e-08 1.7167824e-07 5.47416e-07
1.4847618e-06 1.5626345e-07 8.0180115e-07 3.3227338e-06 1.1054096e-06 5.962372e-08 4.0120574e-07 4.1834846e-07
1.0935566e-07 2.3031566e-07 3.5834518e-07 2.4923787e-07 2.8660924e-07 5.5698814e-07 9.653731e-09 9.335507e-08
1.6249223e-07 9.860355e-07 9.5094236e-07 3.7523037e-07 6.5548306e-07 3.9823965e-07 1.692179e-07 7.018798e-08
5.540727e-07 5.2809032e-08 3.8611663e-08 7.6222335e-07 1.7707033e-07 7.25248e-08 1.0218833e-07 4.0415392e-07
1.4743961e-06 3.222316e-08 2.2121888e-07 7.823353e-08 3.8948535e-08 4.260849e-07 1.6212198e-07 1.7605313e-07
4.599093e-07 3.6379507e-07 1.4846404e-07 1.4312801e-06 3.5255434e-07 3.609565e-08 5.000372e-07 7.686816e-07
5.0228476e-07 2.2668458e-07 1.15738175e-07 4.511166e-09 1.798446e-07 2.590314e-07 1.0885585e-06 1.3515495e-07
7.4935633e-07 3.0047307e-08 1.2693258e-07 1.5090251e-06 7.134148e-07 8.054632e-08 3.3086756e-08 2.5481058e-06
1.5946361e-07 6.2630846e-07 6.803645e-08 4.8687692e-08 3.5278486e-08 1.0287589e-06 1.3042094e-07 3.5727342e-07
1.9466131e-07 2.8400302e-07 6.810042e-07 4.6185583e-08 6.254135e-09 8.81189e-08 4.1133256e-07 1.4918577e-07
3.771825e-08 2.0803206e-07 1.558362e-06 2.2990694e-06 1.6196774e-06 8.111315e-07 9.994947e-08 1.7102833e-07
1.7823656e-07 1.1087217e-07 1.4809284e-06 3.3695994e-07 1.8620467e-08 1.5554309e-07 3.3585961e-06 3.960504e-07
1.0351076e-06 5.385424e-07 5.19792e-07 2.2804156e-07 1.3888108e-06 2.8821268e-07 8.212785e-07 7.562791e-08
9.313999e-08 1.2157351e-06 5.111715e-07 8.7469374e-07 1.6335932e-07 1.2376067e-06 2.6791847e-07 1.5835393e-07
4.1463852e-07 7.387717e-08 3.128344e-07 2.700801e-07 5.7809183e-07 1.865754e-06 2.6337926e-07 4.782581e-07
00000000: 9dad 5f33 734a 8433 a65f f133 5ffc 5f36
00000010: 70e6 ae34 a316 8b33 8e56 3834 24f2 1235
00000020: 0748 c735 5fc9 2734 5b3b 5735 22fc 5e36
00000030: 965d 9435 7d0a 8033 4c65 d734 6099 e034
00000040: e9d6 ea33 b04c 7734 9662 c034 fece 8534
00000050: 46df 9934 ef83 1535 8fd9 2532 7e7a c833
00000060: 8679 2e34 ec57 8435 4344 7f35 4573 c934
00000070: 74f4 2f35 a4cd d534 43b2 3534 40ba 9633
00000080: 96bb 1435 25d0 6233 f9d5 2533 979b 4c35
00000090: b920 3e34 eebe 9b33 a172 db33 7efa d834
000000a0: dde3 c535 bd65 0a33 2f88 6d34 5701 a833
000000b0: 5e48 2733 aac0 e434 c013 2e34 1e09 3d34
000000c0: 74e9 f634 9d4f c334 7c69 1f34 691a c035
000000d0: b346 bd34 9607 1b33 4b3a 0635 6657 4e35
000000e0: bfd4 0635 9566 7334 bc8b f833 a300 9b31
000000f0: 4f1b 4134 0111 8b34 961a 9235 1c1f 1134
00000100: 6027 4935 5d0d 0133 f64a 0834 b589 ca35
00000110: 7e81 3f35 cff8 ac33 461b 0e33 2000 2b36
00000120: 0639 2b34 971f 2835 6f1b 9233 af1c 5133
00000130: 1b85 1733 e313 8a35 d609 0c34 49cf bf34
00000140: 1804 5134 1479 9834 41ce 3635 965d 4633
00000150: f4e3 d631 e13b bd33 1ed5 dc34 df2f 2034
00000160: a8ff 2133 6b5f 5f34 e928 d135 b649 1a36
00000170: b163 d935 88bc 5935 cda3 d633 e9a3 3734
00000180: 4b61 3f34 9f18 ee33 50c4 c635 6ce7 b434
00000190: d7f2 9f32 5c03 2734 3e64 6136 c1a0 d434
000001a0: 07ee 8a35 5a90 1035 d687 0b35 96db 7434
000001b0: 2d67 ba35 a6bb 9a34 d475 5c35 e268 a233
000001c0: 4004 c833 572c a335 7037 0935 7fcc 6a35
000001d0: de67 2f34 d81b a635 6fd6 8f34 ff07 2a34
000001e0: 7c9b de34 67a6 9e33 a2f3 a734 87ff 9034
000001f0: 2b2e 1b35 d26a fa35 9266 8d34 a561 0035
