ppo_2layer_2/ppo_agent_episode_16600.pth (torch, 596662 bytes, 21 tensors)

fc1.weight f4 [128, 260]
000000 a1 d7 1a 3e f7 cd 1c bd 53 b5 6d 3e 44 12 fc bd
       0.15121318 -0.03828236 0.23213701 -0.123081714
000010 92 bb 1c bd dd e4 b6 3b 5b c8 a0 bd 74 61 e9 bc
       -0.03826482 0.005581482 -0.07850715 -0.028488852
000020 86 2c 68 3d 88 e8 6c 3c 3d 38 4f 3e a5 65 ce 3c
       0.056683086 0.014459737 0.20236297 0.025194952
000030 fb 54 3d be 89 49 a4 3d 75 3e 2a be ea 59 eb bc
       -0.18489449 0.08021838 -0.16625388 -0.028729398
000040 73 7c 17 be bc e7 36 be 2b 16 9e 3d c7 08 11 3e
       -0.14793567 -0.17861837 0.07719072 0.14163505
000050 c1 6f 00 3e d4 73 ac 3d bb 8d bd bd 4a 3a 27 be
       0.1254263 0.0842053 -0.092555486 -0.1633083
000060 89 3b 32 be 48 4a 90 bd 25 63 31 3e 6f e2 10 bd
       -0.17405523 -0.07045418 0.17322977 -0.035372194
000070 88 69 5f be 7b 0a 5f 3e 6d a8 55 3e 9f 8a 9f bd
       -0.218176 0.21781342 0.2086503 -0.07790112
000080 b1 d7 20 be eb e5 41 3e 86 1b 13 3e 90 61 26 3e
       -0.1570728 0.18935363 0.14365968 0.16248155
000090 a3 51 36 bd a0 84 b1 bd 39 9f c8 3d 02 8f ca 3d
       -0.04451145 -0.08667874 0.09795994 0.09890558
0000a0 42 de 5b 3c a1 6c 9a bc 41 19 6a 3e 6b 3d 4b be
       0.01341969 -0.018850626 0.22861196 -0.19847648
0000b0 7f 8f d2 bd 45 d9 2a bd cb ea 94 3a 78 33 1c be
       -0.10281276 -0.04171111 0.0011361478 -0.15254009
0000c0 de 57 54 be d7 3d 82 3d d1 10 27 be df cc bc bd
       -0.20736644 0.06359451 -0.16315009 -0.092187636
0000d0 89 97 02 3e f1 47 0b 3d 97 d2 1c bc ac 73 9f 3d
       0.12753119 0.034004156 -0.009571693 0.077857345
0000e0 d8 ad 3d 3d 79 54 e0 bd b0 c6 fa 3b 27 b7 b0 bd
       0.04630837 -0.10953612 0.00765308 -0.086286835
0000f0 ec 7b 18 bb 2f ea 66 3d 26 56 aa 3d 23 38 8f 3d
       -0.0023267223 0.05637568 0.08317213 0.06993129
000100 5b c8 3b 3d 24 4e c3 3d e0 90 28 3d 9e 8b 5a 3c
       0.04584537 0.095363885 0.04115379 0.013338951
000110 8c c9 1d be 90 da 67 bd b1 5e 56 bd 2f 7a 3b 3e
       -0.15408915 -0.05660492 -0.0523364 0.18308328
000120 ef 27 75 3b df 75 f6 3d 2f 54 37 3d 47 3b 01 bd
       0.0037407835 0.12034201 0.044758018 -0.031550672
000130 80 d3 bb bc 47 1a d0 bd 04 00 f2 3c ef 2e 15 bc
       -0.022928 -0.10161262 0.029541023 -0.009105428
000140 ab d1 bd 3d 08 dd 73 be dd 9c 14 be d4 c9 38 bd
       0.092685066 -0.23814785 -0.14512964 -0.045114353
000150 f9 f3 8f bd 5b 3d 77 3c 0b fb 84 bd f0 c4 cc 3d
       -0.07028956 0.015090312 -0.06493195 0.099985
000160 a8 57 1d 3d 4c 4f 27 3b 00 ab b4 3d 30 08 96 3d
       0.038413674 0.0025529442 0.08821678 0.073257804
000170 b6 2a a9 3c 77 b7 ee bd 57 c8 15 be 71 9e 6c bd
       0.020650249 -0.11656087 -0.14627205 -0.05776829
000180 ce ea 56 3d 18 84 2e bb f7 75 e4 bd b0 a2 0b bd
       0.05247002 -0.0026629027 -0.111553125 -0.034090698
000190 cd c0 68 bd a3 0c f8 3d 2e 4a a1 bd dc 8c 00 bd
       -0.056824494 0.12111785 -0.07875477 -0.031384334
0001a0 12 6c 55 be 2c 8f 58 3e 10 b7 65 be 48 8d 88 3e
       -0.20842007 0.21148366 -0.22433114 0.2667029
0001b0 c3 58 fa 3d a2 9a b0 3d c4 df a2 3c 46 ae 6b bd
       0.12223961 0.08623244 0.01988209 -0.057539247
0001c0 67 7f ce 3d 89 3f c0 bd ce a3 b4 bd 1f 49 ad 3d
       0.10082894 -0.09387118 -0.08820306 0.08461212
0001d0 ad fd 89 3e 32 a6 81 3c 60 8a 40 3e 8e 22 05 bd
       0.26951352 0.015826318 0.18802786 -0.032503657
0001e0 ad 20 57 be 13 96 ca 3c ab 2c 3e be e4 9a 59 bd
       -0.21008559 0.024729764 -0.18571727 -0.05312623
0001f0 9e ac 2e 3e 20 bd a0 3d dc 09 88 3d 44 dd 6b 3d
       0.17058036 0.07848573 0.066425055 0.057584062
000200 cd 33 24 3e d5 e7 b1 bd b4 7d 24 3e f4 22 fe 3d
       0.16035385 -0.086867966 0.16063577 0.124090105
000210 78 ad 4f bd 65 78 c5 bd 10 8d 71 3e 2a 1c 96 bd
       -0.050702542 -0.09642104 0.23588967 -0.073295906
000220 24 35 02 3e 88 ec 7f 3d 27 10 19 be 43 89 52 3d
       0.12715584 0.062481433 -0.14947568 0.051400434
000230 3f 9f 93 bc f6 29 74 3d 7e 72 42 be a3 8c 38 be
       -0.01802027 0.05961033 -0.18988988 -0.18022399
000240 66 2c ab 3e da e3 d4 3d 14 1d 7d bd b3 f4 4e 3e
       0.3343231 0.10395022 -0.06179531 0.20210533
000250 49 cd 23 3e 97 a4 d8 3c 67 f8 03 be 11 91 08 be
       0.15996279 0.02644567 -0.12887727 -0.13336588
000260 52 54 41 3e 06 a8 c8 bc 6e 09 1f 3d c6 cb 35 3e
       0.18879822 -0.024494182 0.038827352 0.17753515
000270 63 28 bf bd be 88 84 3a bd d9 d0 be f4 96 62 bc
       -0.09333875 0.0010111553 -0.4079112 -0.013829935
000280 25 62 9a 3c 24 b0 95 3d 9a bc 8e 3d 10 8a 67 3d
       0.018845627 0.07308987 0.06969567 0.05652815
000290 43 1e d9 3d 3a d9 01 bc e3 3d 0e bd a6 07 7e 3b
       0.10601475 -0.007925326 -0.03472699 0.0038761883
0002a0 0f ce 4c bd 74 76 f1 bb b1 3e 21 bc 2f 30 03 3e
       -0.0500012 -0.007368857 -0.009841607 0.1281135
0002b0 92 be 83 ba b6 b8 1e 3e 90 b4 01 3e 7f 29 43 3d
       -0.0010051301 0.15500149 0.12666535 0.047646996
0002c0 98 84 23 3d 0b 5a 35 be 85 09 6a be 92 2b 2f be
       0.039921373 -0.1771013 -0.22855194 -0.17106465
0002d0 30 ac 59 ba a3 c9 30 be 10 b9 ec bd 01 e4 0b 3e
       -0.0008303551 -0.17264418 -0.11558735 0.13661195
0002e0 d6 91 58 bd 8f 1e 9a be 4c 65 f5 bd 75 25 1d 3e
       -0.052873455 -0.3010144 -0.119822115 0.1534632
0002f0 c0 8f b2 bd 48 c4 db 3c 41 6f 0e be c3 66 d1 3d
       -0.087188244 0.026826993 -0.13909627 0.10224678
000300 72 7f c0 bc 26 ef 3d bd 9b 88 cb bd 8d 75 36 3e
       -0.02349827 -0.046370648 -0.09938165 0.1781828
000310 c7 53 a7 be d8 c3 5a 3d e2 98 ab bd 05 d8 82 3c
       -0.32681105 0.053409427 -0.083787695 0.015972147
000320 2f d0 0d be 8f 1b a0 bb 04 a1 9f bd 72 19 c2 bd
       -0.13848947 -0.0048860977 -0.07794383 -0.094775096
000330 6b de ca bd f0 1e 5a bd 8a 60 da bd 0c 4b 39 be
       -0.09905704 -0.05325216 -0.106629446 -0.18095034
000340 c1 39 a4 3d 2a 40 a7 bb 8b b1 00 be a6 06 83 bd
       0.08018828 -0.0051040845 -0.12567727 -0.063977525
000350 fe d4 77 3d bc e0 61 bd f4 43 b3 bc 3b 8f 20 3c
       0.06050586 -0.055145964 -0.021882989 0.009799774
000360 cc 6e 92 be ff 2c 9c 3c c3 f0 13 3e b1 24 82 bd
       -0.28600156 0.019064425 0.14447312 -0.063546546
000370 ad 14 6e be 0d c8 bd bd 3a 31 a4 3d 8a 67 78 bb
       -0.23250075 -0.09266672 0.08017202 -0.003790351
000380 7e 84 1c 3e 4b 92 50 3d 51 93 20 3e 6b 97 fe bd
       0.15284917 0.050920766 0.15681197 -0.124312244
000390 b3 8a 73 be 30 90 57 bd e4 87 af bc fe 81 c2 3d
       -0.23783378 -0.052627742 -0.021427102 0.0949745
0003a0 00 16 ba bd 4e de 13 3e a1 8f 46 3d 50 6c 0e 3d
       -0.090862274 0.14440271 0.04847682 0.034771264
0003b0 57 63 61 3e a7 a7 50 bd 54 7e 50 be a9 de 92 3c
       0.22010551 -0.050941136 -0.2036069 0.017928438
0003c0 5c c2 29 bd a9 2b 00 be cc a3 04 bd 09 21 4f be
       -0.04144512 -0.12516655 -0.03238277 -0.20227446
0003d0 0a f3 64 3c 00 fb 5a 3d 24 3b f8 3d 57 02 58 bd
       0.013973961 0.05346203 0.12120655 -0.052736606
0003e0 ef 3e 4c ba 4e 2f b4 bd 05 4d bd bb d6 67 a7 bd
       -0.000779136 -0.08798085 -0.0057770037 -0.08174102
0003f0 d4 79 1e be 57 5e b9 3d e3 dc 26 3e 71 e8 24 3c
       -0.15476161 0.09051197 0.16295199 0.010065184

fc1.bias f4 [128]
000000 09 ed c7 3c 10 ac 95 bc 96 4e e9 bb 31 70 25 bc
       0.02440502 -0.018270522 -0.007119964 -0.010097549
000010 bd c3 64 3d aa c6 2a 3d 7d 1e d8 bc ec a9 84 3d
       0.055850733 0.041693367 -0.026381725 0.064777225
000020 10 97 18 bd ea 78 c8 3c 14 ae 8a 3d 2e 78 a7 bc
       -0.03725344 0.024471719 0.06771484 -0.020443048
000030 3e 7c b0 bd 03 60 e8 3b 09 76 90 3d c3 7c 1b 3c
       -0.08617447 0.0070915236 0.070537634 0.009490195
000040 48 81 25 bd 48 ce 08 bd d2 19 89 bd 19 5d 16 3d
       -0.040406495 -0.03339985 -0.06694378 0.03670988
000050 2e 37 30 bc 47 61 69 bd dc cb 88 3d 11 63 ad bc
       -0.010755343 -0.056977537 0.06679508 -0.021165403
000060 3c 6e a7 3d 2d 45 71 bd 5d 7c 97 bd 65 a0 dd 3d
       0.081753224 -0.05890386 -0.07396767 0.108216085
000070 c3 f5 1c bd 17 a4 15 bd de ab 97 3d 74 94 9d 3d
       -0.038320314 -0.03653344 0.07405828 0.07694331
000080 ae 9a 9f bc eb 9a 3b 3c 01 85 40 bd 8c cb bc bc
       -0.019482937 0.01145051 -0.047001842 -0.023046277
000090 a3 37 9d 3c 0e dd fb bc 3d eb 72 3c 2e 5f a3 bb
       0.019191569 -0.030745056 0.014826593 -0.0049857115
0000a0 f4 ba 36 3d 3a 05 70 3d 57 84 e4 3c d4 24 aa 3d
       0.044611886 0.058598734 0.027895136 0.08307806
0000b0 e9 98 c4 3d 12 79 88 3d ed 12 82 bd 18 26 84 3d
       0.09599478 0.06663717 -0.06351266 0.06452578
0000c0 20 7c b0 bc 9d 3b 8e bc bc ca 95 3d 74 fe ad 3d
       -0.021543562 -0.01736241 0.07314059 0.08495799
0000d0 39 a1 d4 bc b7 68 56 3c ec c1 46 3d 15 77 10 bd
       -0.025955783 0.013086489 0.048524782 -0.035269815
0000e0 63 5a c1 bb f5 37 6b 3d 2c a3 a3 3d dd a6 c3 bb
       -0.0059006675 0.05742641 0.07990107 -0.0059708194
0000f0 c5 8e ae bc 7c 96 2d bd e4 d5 63 3c 8b e4 93 3d
       -0.021308312 -0.04237984 0.013905976 0.072213255
000100 84 08 4d bd 89 0a fa bc c4 6a 8e 3c 9b 70 b7 3c
       -0.05005695 -0.030522602 0.017384894 0.022392562
000110 85 b5 73 3a 41 11 69 bb 54 80 25 bc c6 94 dd 3c
       0.0009296763 -0.0035563263 -0.010101397 0.02704848
000120 18 9f 59 bc df 0e c0 bd e5 fd 83 3c 7d 6e f9 bc
       -0.01328256 -0.093778364 0.016112277 -0.030448193
000130 b7 91 05 bb 30 5f 24 bc d3 9c 8b 3b e9 4a 75 3d
       -0.0020381042 -0.01003246 0.0042606383 0.059885893
000140 0b d6 d7 bd 86 f1 e5 3c d6 af c1 3d be d0 6b bd
       -0.10538872 0.028069269 0.09457366 -0.05757212
000150 68 40 aa 3d 14 cb a0 bc a3 2b fa bc 02 67 e8 bb
       0.08313066 -0.019628085 -0.030538386 -0.0070923576
000160 7b 40 ec bc dc 86 0e 3d 29 b0 d9 3c 6b cc a5 3d
       -0.02883934 0.03479658 0.026573258 0.0809563
000170 f9 c8 7f bb 7b eb 64 3b 3f 49 02 3c 7a 28 8d bd
       -0.00390297 0.0034930396 0.007952034 -0.06892486
000180 8f 82 de 3c 41 97 a0 3d 77 74 e3 bc cb 87 b0 bd
       0.027161865 0.078413494 -0.027765496 -0.086196505
000190 84 61 06 3d c8 1f 45 3d a4 b8 09 bd 76 57 06 bd
       0.032807842 0.048126012 -0.033623353 -0.032798253
0001a0 df ba 05 3d 59 49 d5 3b 67 2b 94 3c 70 5c ae bb
       0.032648917 0.006508988 0.018087102 -0.005321078
0001b0 44 4b 24 3c bc 73 1b bc 94 8b a1 3d a7 43 94 3d
       0.01002771 -0.009488042 0.078879505 0.07239466
0001c0 ac 9f 3e 3d 3c d9 fa 3c 9a a4 c6 bb 09 e0 d5 3d
       0.046538994 0.030621164 -0.0060621025 0.10443122
0001d0 8f 1d 14 bd d9 8b 6e bd ba 0a a8 3a 03 a4 6b 3d
       -0.036161 -0.058238838 0.001282058 0.05752946
0001e0 bd f1 2b 3b e7 5f f9 3c 4e 5c d0 3c fd 59 37 bd
       0.0026236617 0.030441238 0.02543464 -0.044763554
0001f0 d4 09 79 3d d6 c6 53 3d c8 9a ce 3a 68 e1 94 bc
       0.06080039 0.051703297 0.0015762681 -0.018173888

fc2.weight f4 [64, 128]
000000 fc 16 ea bd f9 f5 21 3e 1b 9a c5 bc 4e 51 d8 bc
       -0.11430165 0.15816487 -0.024121335 -0.026405957
000010 82 17 96 bd 5a 71 d2 bb d4 c9 a9 be 85 9f 48 3d
       -0.073287025 -0.006422204 -0.33161795 0.048980255
000020 10 e4 6c 3d 72 cd 75 3d 0a 39 f0 bd b0 33 78 bd
       0.057834685 0.06001038 -0.11729629 -0.060596168
000030 4a ab 05 bd 87 6b 82 bc c8 a2 b8 3d dc 8f 55 3e
       -0.032634057 -0.015920414 0.09015423 0.20855659
000040 03 48 8e 3d 0b c0 95 3d 87 19 71 bd c2 71 2a 3e
       0.06947329 0.0731202 -0.058862235 0.16644958
000050 70 71 c9 be 7a e5 c4 3c cd 53 e2 3c c6 84 c4 3d
       -0.39344358 0.024035204 0.02762785 0.09595637
000060 6b df 95 3d 8f 94 a5 3d 50 e7 8e be 60 22 13 be
       0.07318004 0.08084976 -0.27910852 -0.14368582
000070 5c 12 88 bd 9c 69 d3 3d 81 69 29 3d 6b 8a 3f be
       -0.06644127 0.10322878 0.041360382 -0.18705146
000080 4c 40 0b 3e 5f 98 ee be 76 f8 cc 3d 97 65 1f be
       0.13598746 -0.46600625 0.10008328 -0.15566097
000090 eb 65 27 3d 5e 61 5e bb 27 4d da 3d 67 ee 3f bd
       0.04086868 -0.0033932547 0.10659247 -0.046858218
0000a0 e7 87 9c be 5e e7 15 3e e1 cb 06 be f3 46 8a be
       -0.30572435 0.14639041 -0.13163711 -0.27007255
0000b0 0e 1d cf bd 63 37 19 bd 17 12 2a bc e1 38 15 3e
       -0.101129636 -0.037406337 -0.0103802895 0.14572479
0000c0 6c 6b e7 be 94 57 c8 3d d6 c3 ae 3d e9 b1 c1 bd
       -0.45199144 0.09782329 0.085334465 -0.09457762
0000d0 54 66 b3 3c a0 8f 60 bd 21 6a 82 3d a7 63 ed bd
       0.02189938 -0.05482447 0.06367899 -0.11591273
0000e0 e6 1c 5d 3e 59 5d c0 bb c6 f7 18 3e 2f a5 eb bc
       0.21593055 -0.005870503 0.14938268 -0.02876529
0000f0 01 cb 22 3c c8 74 e3 3d 27 14 4b bd fd 83 1b be
       0.009936095 0.11106259 -0.049579766 -0.15187068
000100 75 ea c3 be ed 2e b1 be d5 6a 44 be 10 11 2c 3c
       -0.38264814 -0.34606114 -0.19181378 0.010502115
000110 b9 cc 6d bd 73 79 d2 3d 52 9d b2 3d 0c f2 e6 3c
       -0.058056567 0.10277071 0.08721413 0.028191589
000120 2e f5 8a 3d d7 1d bd bd f4 f5 8f 3d fa 10 18 be
       0.067850456 -0.09234207 0.07029334 -0.14850226
000130 ba ba 26 3d 2d e9 47 be d6 c1 b7 bd 1a 6a e8 ba
       0.04070542 -0.19522543 -0.08972518 -0.0017731816
000140 3f 08 dc bd f5 5c 0a 3e 40 44 6a bb 1c f0 9d 3c
       -0.1074376 0.13512023 -0.0035746247 0.019279532
000150 61 ab b4 3c 4c 72 09 be b2 66 29 bb 75 27 7a 3e
       0.022054376 -0.13422507 -0.0025848565 0.24429114
000160 ca e3 82 3e c1 25 44 bd 58 4d a8 3d 2e bd d7 3d
       0.25564414 -0.047887567 0.08217877 0.1053413
000170 9a 79 fc 3d 31 c7 3c 3c 97 41 dc 3d 62 92 8a bc
       0.12327881 0.0115221 0.10754698 -0.016915504
000180 a1 50 8c bc e6 7f 5d be 51 81 e2 3d 93 18 57 bd
       -0.01712829 -0.2163082 0.110598214 -0.05251367
000190 7b b0 53 be ce 6c 51 be 2d d4 10 be f5 4e 61 3d
       -0.2067279 -0.20451662 -0.14143439 0.05500694
0001a0 a9 c2 6c be 81 d8 ef 3d 4f 5c 02 3d c0 2a 0f be
       -0.23121132 0.11711217 0.031826314 -0.13981152
0001b0 dc cd 10 3e fd d8 31 3e 46 94 83 3e 42 96 de 3d
       0.14141029 0.1736793 0.2569906 0.10868503
0001c0 4e 72 cc 3b 9c 9e 36 be f5 a1 bd bc 4a 1b 9d bd
       0.006239212 -0.17833942 -0.023148516 -0.076712206
0001d0 f0 bc 5f be 3a a3 51 bc 96 f1 1d 3d 61 c3 4f 3d
       -0.21849418 -0.012795264 0.038560472 0.050723437
0001e0 c7 fd 44 bd bc 32 0f be cc 9b 64 3d d8 b6 25 be
       -0.048093583 -0.13984197 0.055812642 -0.1618303
0001f0 87 cb b3 3c a0 5d bc bd 25 0b 41 be 2e c0 49 bd
       0.021947635 -0.09197545 -0.18851908 -0.049255542
000200 0b 2a 37 bc 4f 72 8f 3e f6 99 92 bd 60 b3 78 3e
       -0.011179457 0.28016898 -0.07158272 0.24287176
000210 a0 2b 45 bd e5 1d 49 be 05 65 0c 3e 34 08 78 bc
       -0.048137307 -0.1964031 0.13710411 -0.0151386745
000220 32 9b 96 3e 41 09 ad 3d 54 76 29 be c5 01 08 bc
       0.2941528 0.08449031 -0.16549045 -0.008301203
000230 f5 c8 30 3d e3 7f c0 3d c2 38 cd 3d 31 07 23 bd
       0.043160398 0.093993925 0.10020591 -0.03980178
000240 d4 e3 a4 3b 0f de 8a bd db 02 e3 3d 84 ad 08 3e
       0.005032042 -0.067806356 0.11084529 0.13347441
000250 d6 38 48 be 1c 02 79 3c 5f bd 6e 3c 21 97 ef bd
       -0.19552931 0.015198257 0.014571517 -0.116987474
000260 dc 5b 82 bc da 36 70 3e 44 ca 34 be 3e 90 5a bd
       -0.015912943 0.23458424 -0.17655283 -0.053360216
000270 b3 de 29 be 38 8f b0 3d 27 1d c5 bc 27 02 08 bd
       -0.1658886 0.08621067 -0.024061752 -0.033205178
000280 50 99 06 3e 72 b3 dc bb ba 29 47 3d 3b 5a 00 3e
       0.13144422 -0.0067352587 0.048623778 0.1253442
000290 2d 40 24 3e 80 03 cb bd 4e 30 64 3e c3 01 11 be
       0.16040106 -0.09912777 0.22284052 -0.14160828
0002a0 57 aa d9 bc c7 54 57 3c 40 c8 05 be a9 91 8a be
       -0.026570482 0.013142771 -0.1306467 -0.27064255
0002b0 d6 26 21 3e 47 75 ce bd a4 8d 44 3d 2a 1d 90 bd
       0.15737471 -0.10080963 0.04798664 -0.070368126
0002c0 fb 7d 2b be 2b 1a 0d 3d fb c5 7d bd c4 18 9c bc
       -0.16747276 0.034448784 -0.061956387 -0.019054778
0002d0 87 fb 89 bd e0 bb 05 3e 6a bf 01 bd d3 2b e0 3d
       -0.06737428 0.1305995 -0.031676687 0.10945859
0002e0 bf 34 93 3c 50 5a 26 bc ce 9b eb bd f3 74 6b be
       0.017969487 -0.010153368 -0.11504327 -0.22993831
0002f0 56 b5 ce 3c 49 a0 20 3d b5 cf d0 bd fb cd c6 bd
       0.025232952 0.03921536 -0.10195867 -0.097072564
000300 6e bf 28 be b6 71 b2 3e d9 e0 0e be 0c e1 5b bd
       -0.16479275 0.3485238 -0.1395296 -0.05368142
000310 39 e6 02 bd 4e 52 4c be cf 77 9d bc f8 7f b1 bd
       -0.03195784 -0.19953272 -0.019222168 -0.08666986
000320 02 80 1b be b3 83 0c 3d 3e 60 5f be ea 33 00 3d
       -0.1518555 0.034305286 -0.21814057 0.03129951
000330 de 7f 49 3e 25 b6 0a 3d e0 d3 64 3e 98 08 4b bd
       0.19677684 0.033865113 0.22346449 -0.049568743
000340 4f fa 5c be 2f 4f aa ba 77 b5 b5 bd 92 da 2e 3e
       -0.2157986 -0.0012993569 -0.08872502 0.17075565
000350 4f 72 a9 3d 4d 41 32 3d 31 a0 b8 3d a7 b3 19 3d
       0.08273756 0.043519307 0.09014929 0.037524845
000360 9d b6 fa 3d da b8 0f be 99 68 03 3e 23 55 0b 3e
       0.12241862 -0.14035359 0.1283287 0.13606696
000370 80 25 29 3e a3 0e db 3c 94 ed e7 bd 9e b1 13 be
       0.16518211 0.026740378 -0.11324611 -0.14423224
000380 92 21 35 be 0a 1e 2d 3c c6 62 83 bd 68 47 0e bb
       -0.17688587 0.010566244 -0.06415324 -0.0021710042
000390 9e 02 85 be 16 31 89 be d7 88 8d bd f8 07 98 3d
       -0.2597856 -0.26795262 -0.06910866 0.07423395
0003a0 c0 5f 56 be 92 2a 03 3e ed f6 64 3c 1a c9 0f be
       -0.20934963 0.12809208 0.013974887 -0.14041558
0003b0 4f f0 fe bb 0c 9b 94 bd 49 74 97 bc f4 e1 a8 3d
       -0.007780112 -0.07256135 -0.018488066 0.08246222
0003c0 cb c4 a0 bd af 32 a1 3d 76 cc f9 bd fe 74 3f 3d
       -0.07850035 0.07870995 -0.12197201 0.04674243
0003d0 5a 9c 08 be e8 13 05 3e 36 c4 c4 3d e5 63 95 3e
       -0.13340893 0.12995875 0.09607737 0.29177776
0003e0 fd cd 51 3e da 5f 11 be e7 48 4a 3e e2 82 63 3e
       0.20488735 -0.1419672 0.19754373 0.22217897
0003f0 10 23 07 be 5e 86 e5 3d cf 73 85 be 09 92 90 3b
       -0.13196969 0.11207269 -0.26064917 0.00441194

fc2.bias f4 [64]
000000 bc 25 a6 bc 99 e6 5b 3d ce 35 bc 3d 32 7a f3 3d
       -0.020281665 0.053686712 0.0918995 0.11888541
000010 33 a9 aa 3d ef 8a 19 3e fe 2f d9 bd 3a f6 2b bd
       0.083330534 0.14994405 -0.10604857 -0.041982867
000020 0a 60 81 bd 6d dd fd bc a8 db 42 3b 06 88 c4 bd
       -0.06317146 -0.030989373 0.0029732976 -0.09596257
000030 f4 3a 66 3c 08 a0 24 3d be 9d 8c bd 53 5b e5 3d
       0.014052141 0.04019168 -0.068660244 0.11199059
000040 dd a5 bf bc 6d cd 48 bd 2d 6b 75 b8 4f 3f 20 3e
       -0.02339452 -0.049024034 -5.8512367e-05 0.1564915
000050 ef 35 3d 3d bb 8b 14 be de 53 4d 3d 03 b2 a3 3d
       0.046194013 -0.14506428 0.05012881 0.079929374
000060 42 f0 13 3e 7f 61 57 bd 72 d6 ff 3d 12 95 8f bd
       0.1444712 -0.052583214 0.12492074 -0.07010855
000070 a8 34 c0 3d 82 22 37 3d f1 81 19 bd 99 1d bb bd
       0.093850434 0.044710644 -0.037477437 -0.09136505
000080 3f d6 3a 3d dc 10 d1 bd 11 86 a7 bd f1 52 d3 bd
       0.045614477 -0.10208294 -0.08179868 -0.10318554
000090 89 e7 53 bd 9a 29 8b 3e fb 7b 66 3b e3 25 5b 3c
       -0.05173448 0.27180177 0.0035169113 0.013375732
0000a0 16 75 11 be fb 9a 02 3d 17 83 c6 bd 88 33 23 be
       -0.14204821 0.031886082 -0.09692972 -0.15937626
0000b0 86 14 4d 3d 9b 6d dd bc 5b 80 08 be eb f2 27 3c
       0.0500684 -0.027029803 -0.13330214 0.010250787
0000c0 64 ae ee bd 68 52 68 3c b5 5c cc bd a4 b7 73 3e
       -0.11654356 0.014179803 -0.0997862 0.23800522
0000d0 4a 0c d6 bc 9b b9 37 3d b5 18 b6 bd 26 47 0f bc
       -0.026128907 0.04485474 -0.08891431 -0.00874499
0000e0 0f 53 52 bd 9b de f9 bd 33 34 c7 3d 93 83 a8 bd
       -0.051348742 -0.12200662 0.09726753 -0.08228221
0000f0 9f 53 88 3d 1e 69 00 3e b1 20 95 3d 0a af 40 3d
       0.066565745 0.12540099 0.07281626 0.04704193

policy_head.weight f4 [110, 64]
000000 b6 80 68 be 45 42 2f 3e 70 60 78 be 87 99 aa bc
       -0.2270535 0.17115124 -0.24255538 -0.02082516
000010 24 30 12 be f5 f0 00 be 53 df 2a 3d 7b 0d f7 3d
       -0.14276177 -0.12591918 0.041716885 0.12063118
000020 33 70 a2 3e 5d 81 a0 3c 62 28 b1 bb 4a 74 7c 3e
       0.31726226 0.019592935 -0.0054064253 0.24653736
000030 c3 57 46 3c 2a 3b 52 3d a9 05 be 3d 62 36 c0 be
       0.012105885 0.051325954 0.09278423 -0.3754149
000040 91 0d 17 be 6e f5 32 be 3f 56 0b be dc 0e 00 3e
       -0.14751269 -0.17476436 -0.13607119 0.12505668
000050 7b c9 01 bf d7 6f 9c be 08 09 9c bd 4d 38 7f 3e
       -0.5069806 -0.30554077 -0.0761891 0.24923821
000060 63 08 cf be 01 f6 13 be b3 de 75 bf e8 11 07 be
       -0.40436086 -0.14449312 -0.9604294 -0.13190424
000070 e2 47 23 3e f8 ff 72 be ec 8f 71 3e 95 4c 10 bd
       0.1594539 -0.23730457 0.23590058 -0.035229284
000080 e1 bf 67 3d 4d f6 a6 3d 3c 71 3a 3e 71 8b f4 bd
       0.056579474 0.08152447 0.18207258 -0.11940659
000090 c0 eb 15 3e 74 60 02 bc 3e e9 3d be 5e 85 38 be
       0.14640713 -0.0079575665 -0.18546006 -0.18019626
0000a0 a4 27 0b 3e 0d 8e d5 3d 61 94 6a 3d fc 77 cc 3d
       0.1358934 0.10427485 0.05727041 0.09983823
0000b0 77 c6 9c 3e b6 97 56 be ed ce ed bd a7 3e a6 bd
       0.30620167 -0.2095631 -0.116117336 -0.08117419
0000c0 e0 16 30 3e 70 c8 4d 3e 90 b6 e5 3c c3 38 3b bd
       0.17196226 0.20095992 0.028041154 -0.04570843
0000d0 fe 3d 0d 3e cc 17 1c 3d f0 3c 1b 3e 1e 30 28 be
       0.1379318 0.038108632 0.15159965 -0.16424605
0000e0 0c d5 c5 3d 9e 8f e3 3e 06 29 3e be a8 47 8f 3c
       0.09659776 0.4444551 -0.18570337 0.017490223
0000f0 12 e3 4d 3e d2 bb 34 be 30 2d 01 3e 8f 86 87 3d
       0.20106152 -0.17649773 0.12614894 0.06617462
000100 5e 1b 4f be fa ac ee 3d 9a 76 3b be 3b 9e b0 bc
       -0.20225284 0.116540864 -0.18306962 -0.021559825
000110 fa c6 04 be 13 e5 57 be f2 97 32 3e 4f d1 f5 3d
       -0.12966529 -0.21083479 0.17440775 0.12002813
000120 f8 b7 2a 3e 4d 9e 1d 3e d3 49 2e bd 03 5d 78 3e
       0.16671741 0.15392418 -0.042550873 0.24254231
000130 1a 8f 6b 3e b1 31 80 bd 06 51 68 3e 7b 78 b0 be
       0.23003808 -0.06259478 0.22687158 -0.3446692
000140 1f d7 b9 bc 4c 7f 34 3d 34 3f f2 bd b6 fc f4 3c
       -0.022685586 0.044066712 -0.11828461 0.029905658
000150 4f 4e d9 be 83 0f 1b be fe c6 c4 3d 20 cf 83 3e
       -0.42442557 -0.15142636 0.09608267 0.2574396
000160 34 f7 ad be 65 8b ab bd 87 3f 1e bf 0a f8 44 3c
       -0.33977664 -0.08376197 -0.61815685 0.012022028
000170 ca d2 c4 3e 36 e7 28 bd 13 a9 3b 3e b4 3f 1e 3d
       0.3844207 -0.041236125 0.18326215 0.03863497
000180 35 58 8f 3d 4c 70 50 3e 30 3c 4b 3e 21 44 1c bd
       0.06999246 0.20355338 0.19847178 -0.03815091
000190 74 bf 86 3e e4 45 c7 bc 86 cc cb be df 7d 8b bd
       0.26317942 -0.024325319 -0.39804476 -0.068111174
0001a0 a3 3a 5c 3e d5 a2 ed 3d 88 3b 93 b9 9b 90 e4 3d
       0.21506743 0.11603323 -0.0002808238 0.11160394
0001b0 bd 75 c4 3e 0f ae 04 be da d5 f8 bd 9d 8a 3e be
       0.38371077 -0.12957023 -0.12150164 -0.18607564
0001c0 86 ed e2 bc 5e 63 55 3e 38 9b b3 3c 03 7e 5e be
       -0.02770115 0.20838687 0.0219246 -0.21727757
0001d0 35 0a a2 3d 64 54 08 3e e5 52 e7 3d 3e 67 31 be
       0.07912103 0.13313442 0.11295108 -0.1732454
0001e0 0d cc 03 3e 94 61 b9 3e 8c da 32 be 8f a0 d9 b8
       0.12870808 0.3620726 -0.17466182 -0.00010377273
0001f0 07 c2 4a 3e 1d b8 3b be a3 f0 db 3d 16 32 36 3e
       0.19800578 -0.18331952 0.10739257 0.17792544
000200 2b f3 ae 3e 95 ef 16 be 7e f4 f1 3d e4 9e 8b 3c
       0.34169897 -0.14739831 0.11814211 0.017043538
000210 76 68 0e be 29 f2 c6 bd ad e1 bc bd db 1d 48 3e
       -0.13907036 -0.09714157 -0.09222732 0.19542639
000220 8a b5 ba 3e fb b8 e8 3d e2 40 81 3e 14 f0 55 3d
       0.36466628 0.11363407 0.25244814 0.05223091
000230 d5 d9 e3 3c 06 c9 0e bd 10 1d f0 bc 07 21 14 3e
       0.027813831 -0.03485968 -0.029310733 0.14465724
000240 82 ab 2c 3e f0 23 80 3e 01 0b 71 bc c1 34 93 be
       0.168623 0.25027418 -0.014712096 -0.28751186
000250 9d b1 f2 bd ec 3b 68 3c 2b e6 13 be 68 a1 20 be
       -0.11850283 0.014174443 -0.14443271 -0.15686572
000260 bc be b4 3d b6 af 11 3e a7 55 26 3e ab c7 57 3e
       0.08825442 0.14227185 0.16243611 0.21072261
000270 e8 d1 f9 bc 7c 8b 92 3e 43 59 f8 bd 04 f0 f1 3d
       -0.030495599 0.28622043 -0.121264 0.118133575
000280 49 6e ab 3c d7 36 16 be ed 97 42 3e c7 51 7a 3e
       0.020926611 -0.14669357 0.19003268 0.24445258
000290 cc e0 3b 3e f4 f4 96 be 62 3d 2d 3e 01 fa 45 3d
       0.18347472 -0.2948376 0.16917947 0.048334125
0002a0 5d be 80 3e db 41 c9 bd c2 f5 3d bd 80 2c 9a 3e
       0.25145236 -0.09827014 -0.04637695 0.30112076
0002b0 fc cb 3f be ad e2 dd bd 98 79 80 bd e5 54 42 3e
       -0.18730158 -0.108342506 -0.06273192 0.18977697
0002c0 07 4d ad 3e ba 42 83 3e 75 41 a4 3e c6 f7 91 be
       0.3384783 0.25636846 0.3208119 -0.2850935
0002d0 ce 6f 7c bd e2 2e 7b be d1 4e 9d 3d 9b 02 8b be
       -0.061630063 -0.24529603 0.07681049 -0.27150425
0002e0 bc ea a8 3e 2f 9b 87 be c2 86 20 be 7e a8 58 3e
       0.32991588 -0.26485583 -0.15676406 0.21158025
0002f0 2b 7b 37 3e 66 fd 8d be 60 3b a3 be de 74 73 ba
       0.17918079 -0.2773239 -0.31881237 -0.0009287129
000300 03 f9 0b be b4 9f 45 3e 4f c0 ab be a7 68 18 3e
       -0.13669209 0.19299203 -0.33545157 0.14883672
000310 b1 72 60 be 38 7c cf bd 94 2b 66 be 09 3f dd 3e
       -0.21918751 -0.10131115 -0.22477561 0.43212155
000320 93 43 a8 3e 70 ba b8 3e 41 37 93 3e 35 53 12 3d
       0.32864055 0.3607974 0.28753093 0.035723884
000330 c8 d7 9f bd 60 54 ea 3d 28 fb 63 3d bd 78 54 bc
       -0.07804829 0.114418745 0.055659443 -0.012968239
000340 ba 17 c3 3e 42 37 d6 3e 44 05 10 be 15 8d 3c be
       0.3810404 0.41839033 -0.14064509 -0.18413194
000350 aa e4 be bd 70 e2 15 3e a9 fe 2c 3d af 9c 86 3c
       -0.09320958 0.1463716 0.04223505 0.016432134
000360 65 d1 87 be 3b 3d a9 bd d6 1b 95 be 7e 18 34 3e
       -0.26526943 -0.08263632 -0.291228 0.17587468
000370 d8 43 9a bd 24 1d 9b be b8 75 32 bd c5 01 5a bc
       -0.075324714 -0.3029567 -0.043569297 -0.013306086
000380 32 07 b0 be 75 96 99 3e a4 99 db 3e 8e dc 54 3e
       -0.3438049 0.29997602 0.42890656 0.2078726
000390 47 ef ee 3e 13 f9 48 bf c2 93 34 be 5b b4 d5 be
       0.4666693 -0.7850506 -0.1763449 -0.41739163
0003a0 88 a9 e2 3e 20 c7 03 3e 4c 03 5b 3d 62 17 a4 3e
       0.44269967 0.12868929 0.05346994 0.3204909
0003b0 81 98 81 3e 94 3a a1 3d db a7 8b 3e 8b 72 01 be
       0.25311664 0.07872501 0.272765 -0.12641351
0003c0 82 66 a7 3e 8b fb ba 3e 0d ab 92 3e 2b 1f c3 be
       0.32695395 0.36520037 0.28646126 -0.38109717
0003d0 7f 88 c1 bc b3 41 f8 3d 6e 70 cd 3e 43 8d 3a bd
       -0.023624657 0.12121906 0.4012484 -0.045544874
0003e0 36 89 a9 3e d2 74 9e 3e 44 d2 ea bd b2 d5 fc 3d
       0.33112496 0.30948502 -0.11465886 0.12345447
0003f0 ef 46 5a 3e 0d bb 5a 3b 13 c4 13 3d 3e 6f 64 be
       0.21316122 0.003337565 0.036075663 -0.2230806

policy_head.bias f4 [110]
000000 9e 6e 13 bf d3 87 d6 be 48 51 e3 bc 05 b9 63 be
       -0.57590663 -0.419005 -0.027748719 -0.22238548
000010 39 e1 be be b5 94 08 bf 8f 75 ce bc 38 3d 4c 3d
       -0.37281206 -0.5335191 -0.02520254 0.04986307
000020 a5 48 94 3d 86 ef 59 3e d2 23 ea 3d e5 57 96 3e
       0.07240418 0.21282777 0.114326134 0.29363933
000030 9e 71 41 3e 78 0b 98 3d 6d 96 77 3e fe d0 1a 3e
       0.18890998 0.074240625 0.24178477 0.15118787
000040 63 bf 65 3e 48 b2 a4 3d 54 5f 8f 3e f7 90 b8 3c
       0.2243629 0.08041817 0.28002417 0.022530062
000050 1a 22 19 3e 1a 98 eb 3d de 52 32 3e 30 f6 60 3d
       0.14954415 0.115036204 0.17414424 0.054922283
000060 5d 7e b0 3d ce 97 ac 3e 56 7d a3 3c 57 c3 87 3e
       0.08617852 0.33709568 0.019957226 0.2651622
000070 06 52 8f 3e ed b3 82 3e 09 6e 37 3e c6 d9 31 3e
       0.27992266 0.25527897 0.17913069 0.1736823
000080 91 13 70 3d f3 4f 64 3e e3 cc 9d 3d d1 50 9c 3d
       0.05861241 0.22296123 0.07705095 0.07632602
000090 e5 1d 64 3e 70 42 ed 3d 19 16 ad 3c 18 37 93 3d
       0.22277029 0.115849376 0.021128701 0.07188243
0000a0 b9 63 4b 3e 2b 0c 12 3e 93 2e 8e 3d 99 61 3e bd
       0.1986226 0.14262454 0.06942477 -0.046479795
0000b0 f4 f2 fc 3d 76 ce 04 3e 8d 1f 8e 3c 34 6a 72 3d
       0.12351027 0.12969384 0.017349029 0.059183314
0000c0 0a 22 c8 3d 2f fb 6b 3e b6 2c 3a 3e c6 7c 78 3e
       0.097721174 0.23045038 0.18181118 0.24266347
0000d0 9c 3b 5b 3e 7e 3c fe ba 56 de b7 3d f4 f4 33 3e
       0.21409458 -0.001939669 0.08977954 0.17573911
0000e0 de 26 87 3e c0 71 93 3e b2 6e 0d bf ce 18 0c bf
       0.2639684 0.28797722 -0.5524703 -0.5472535
0000f0 56 1c 10 bf a0 5e f9 be 17 bf 1a bf e0 69 f5 be
       -0.5629324 -0.48705006 -0.6044783 -0.4793234
000100 32 94 0a bf 6e 25 f8 be 95 ea 0f bf f4 0f de be
       -0.5413238 -0.48466057 -0.5621732 -0.43371546
000110 2d 47 ad be b7 e6 b2 be c1 13 e9 be 12 66 c6 be
       -0.33843365 -0.34941646 -0.45522884 -0.38749748
000120 88 5d bc be 9f 73 e0 be d7 2a 08 bf 5e f7 ea be
       -0.3679011 -0.43838212 -0.5319037 -0.4589185
000130 ab 83 d9 be 65 65 f6 be 03 84 b5 be 7b 2f ee be
       -0.42483267 -0.48124233 -0.3545228 -0.465206
000140 44 c4 e3 be 29 6f 18 bf ad be c0 be ee 59 f5 be
       -0.44485676 -0.59544617 -0.37645474 -0.47920173
000150 0b 27 ca be ea 52 e2 be 29 48 eb be 46 f3 0c bf
       -0.39482912 -0.44203883 -0.4595349 -0.55058706
000160 56 b0 12 bf 10 10 12 bf bd 95 d7 be 13 92 eb be
       -0.5730032 -0.5705576 -0.4210643 -0.46009883
000170 12 c7 c8 be 1b 80 0c bf 44 f6 cd be 29 d0 d0 be
       -0.3921438 -0.54882973 -0.40226948 -0.40783814
000180 f5 5f 02 bf 5c ef 01 bf 60 31 a7 be af a7 f5 be
       -0.5092767 -0.5075586 -0.32654858 -0.47979495
000190 cb 84 d7 be b8 70 0c bf e9 1c d3 be eb e9 f9 be
       -0.420935 -0.54859495 -0.41232994 -0.48811278
0001a0 5a 56 ff be 55 c3 00 bf e5 48 c3 be 54 60 14 bf
       -0.4987057 -0.50298053 -0.38141552 -0.57959485
0001b0 ec 96 ac be 10 c9 06 bf
       -0.33708894 -0.5265055

value_head.weight f4 [1, 64]
000000 76 b8 94 bc 13 a7 c1 3a 4f ad c8 3c a5 f5 4c 3c
       -0.018154364 0.0014774523 0.024496702 0.012509738
000010 0a db 2e 3c 2d ce 9c 3c 23 5f 53 bd bc 15 b5 bb
       0.01067234 0.019141281 -0.0516044 -0.0055262726
000020 27 14 8d 3c d5 14 3f bc fe 87 d7 bb 43 99 46 be
       0.017221523 -0.011662682 -0.006577491 -0.19394402
000030 fe d9 40 bc d1 60 05 be ef bb 94 be 03 97 4f bb
       -0.011770723 -0.13025214 -0.29049632 -0.0031675703
000040 85 19 ce bb 0e a7 b6 3c ec 61 96 3c 0b 9b dd 3a
       -0.0062896633 0.022296455 0.01835724 0.0016907168
000050 7f cb fd 3b f0 99 8f 3b 28 1c 66 3d d6 98 61 3d
       0.007745206 0.0043823645 0.056179196 0.055077396
000060 c9 db 07 3c 14 bd 01 3e de c9 de 3c e6 e4 0c bc
       0.008292147 0.12669784 0.027195867 -0.0085994955
000070 32 7c 99 be c8 b7 33 3c df fd 2e be 9b 8b 8d ba
       -0.29977566 0.01096911 -0.17089032 -0.0010799052
000080 b3 7b 61 3c d1 72 e5 3c da bd c9 bc 9c 84 2c 3b
       0.013762402 0.02800885 -0.024626661 0.0026324159
000090 a4 73 3b bb 5e 7c 41 3d 76 c7 cf 3c 34 ab c4 bc
       -0.0028602863 0.047237746 0.025363665 -0.024007417
0000a0 c5 9f b1 bc 15 b5 ec 3d 7e ff cd bd da 3f 9c 3c
       -0.02168263 0.11557976 -0.10058497 0.019073416
0000b0 fc ca 0e 3d 2a 8a 12 3c 74 c5 32 3c 6d 8c 13 3c
       0.03486155 0.008944074 0.010911334 0.009005648
0000c0 a4 60 d2 3b cc 49 8b bb 21 04 d1 bb 4e 95 93 bb
       0.006420212 -0.0042507406 -0.006378666 -0.0045038825
0000d0 b8 48 36 bd f0 31 ef ba 02 7f 13 3b ca a6 52 bc
       -0.044502944 -0.0018249135 0.0022506122 -0.012857148
0000e0 d9 4d 10 3c 2c 1f 4d 3c 70 4d 84 3b ce a1 e5 3c
       0.008807623 0.012519639 0.0040375516 0.028031256
0000f0 05 fb 84 bc 85 d9 40 3c 93 47 0f 3d 97 bd 85 bb
       -0.016232977 0.011770611 0.034980368 -0.0040814388

exp_avg f4 [128, 260]
000000 83 cc 81 b9 7e da a9 39 aa 32 22 b9 fa d1 2a b9
       -0.0002475717 0.0003239698 -0.00015468398 -0.00016290686
000010 58 e6 8a 38 5d 5e 10 3a 65 9b 84 37 a1 ba 46 39
       6.623258e-05 0.0005507225 1.5807987e-05 0.00018952276
000020 d9 2f b1 b9 59 8a f4 b8 53 77 21 39 c8 48 7c b8
       -0.0003379572 -0.00011660596 0.00015398608 -6.0149265e-05
000030 8f 34 82 b9 e4 89 7f 39 08 20 97 b9 1a 8c bc b9
       -0.0002483469 0.00024370063 -0.0002882483 -0.00035962538
000040 c9 69 05 3a 94 fa 55 ba 6f 40 bd b9 aa 02 a1 38
       0.00050893106 -0.0008162644 -0.00036096896 7.6775745e-05
000050 68 74 09 39 c4 b5 c1 b6 ac c5 07 b9 84 4d 02 b8
       0.00013108703 -5.7730085e-06 -0.00012948242 -3.1066607e-05
000060 44 c7 e9 38 b5 45 3a b9 28 8f d4 b9 5f a4 46 ba
       0.00011147422 -0.0001776431 -0.0004054245 -0.0007577594
000070 02 51 17 3a 11 27 99 38 15 87 89 39 a5 46 a9 38
       0.0005772264 7.302885e-05 0.0002623132 8.0717065e-05
000080 a3 72 21 3a 95 64 b9 37 f7 47 aa 38 f9 0a e3 b9
       0.0006158745 2.2100556e-05 8.119636e-05 -0.0004330499
000090 5b 7c 96 38 47 6b 11 b8 8c 1a 56 38 0a f6 41 39
       7.1757204e-05 -3.4670604e-05 5.10463e-05 0.00018497571
0000a0 33 d9 e3 39 d3 87 25 39 ca 40 02 ba be 7a 08 ba
       0.0004345864 0.00015786225 -0.0004968761 -0.00052062783
0000b0 19 10 08 3a ad 0b 42 39 96 16 a9 b9 8f 20 66 38
       0.0005190387 0.00018505631 -0.0003225102 5.4866596e-05
0000c0 96 dc 08 37 fa 30 8b b9 c4 e4 f1 b6 94 c7 32 39
       8.157591e-06 -0.00026548636 -7.2089915e-06 0.00017049751
0000d0 51 7f 15 ab 04 00 00 80 94 ed 21 2e 4b b3 67 b7
       -5.311212e-13 -6e-45 3.6818174e-11 -1.3810418e-05
0000e0 f3 0b 05 b9 15 ec fe 37 36 9e 2f b7 30 48 3c 37
       -0.0001268832 3.0389094e-05 -1.0467649e-05 1.1222481e-05
0000f0 cb 8d 81 37 69 4d 8b b8 80 6f 64 b8 b1 eb 92 38
       1.5444026e-05 -6.642455e-05 -5.446328e-05 7.0057235e-05
000100 aa 72 cc b7 04 00 00 00 04 00 00 80 3c f3 d3 1c
       -2.437209e-05 6e-45 -6e-45 1.4025683e-21
000110 f7 5d ba 33 d2 f4 11 38 60 fe 83 36 9c 73 c3 37
       8.678392e-08 3.47987e-05 3.9337174e-06 2.3299646e-05
000120 2e f8 73 39 44 a1 c8 b5 fe 4a e4 b5 b6 23 85 38
       0.0002326674 -1.4948096e-06 -1.7009149e-06 6.348586e-05
000130 f9 60 84 b8 17 99 e7 b8 04 00 00 00 98 86 0e b4
       -6.312313e-05 -0.000110434536 6e-45 -1.3273745e-07
000140 41 ea 14 88 13 17 6e b7 01 f2 85 b4 ed 9f 9f b7
       -4.4812494e-34 -1.4191278e-05 -2.4949262e-07 -1.9028748e-05
000150 18 46 0d 39 21 01 81 b9 3e 52 67 38 a2 74 f3 b8
       0.0001347292 -0.00024605638 5.5151286e-05 -0.000116088675
000160 02 7e 15 38 6f ea 4e 38 ff ef 1e b9 04 00 00 80
       3.5641722e-05 4.933256e-05 -0.0001515746 -6e-45
000170 04 00 00 80 ce df 11 10 a9 b1 6c 2a 65 a8 e5 b6
       -6e-45 2.876862e-29 2.1022649e-13 -6.8443355e-06
000180 26 1e 1e 37 ba 5c 86 38 99 22 a2 38 f5 a9 cd 37
       9.424553e-06 6.4068896e-05 7.731206e-05 2.4517047e-05
000190 cc 2e b4 b8 a5 30 2c b9 25 7d 75 39 07 eb 17 38
       -8.5917854e-05 -0.0001642132 0.0002341164 3.622009e-05
0001a0 62 21 00 00 d1 a8 50 27 b1 92 e6 23 23 97 83 38
       1.1975e-41 2.8957314e-15 2.4998776e-17 6.274718e-05
0001b0 9a 92 0b ba 51 39 c6 b9 b9 29 9d 39 c2 0e 8b b9
       -0.00053242745 -0.00037808207 0.0002997646 -0.0002652314
0001c0 b8 9b 33 3a 34 08 bd b9 d0 82 81 b9 7d b4 68 b8
       0.0006851512 -0.00036055 -0.0002470226 -5.5481203e-05
0001d0 d9 3b f8 39 04 00 00 80 04 00 00 80 78 fc 24 b1
       0.00047346836 -6e-45 -6e-45 -2.4008653e-09
0001e0 f9 5d 86 36 42 c1 83 37 83 92 ab b9 cd 1a 40 b9
       4.004451e-06 1.570641e-05 -0.0003272482 -0.00018320531
0001f0 1c 91 d0 b6 b8 3c 0a 39 62 01 bb b9 27 48 1a ba
       -6.215776e-06 0.00013183325 -0.0003566845 -0.00058853853
000200 75 5b 7a 39 42 e7 61 39 34 7f 45 39 2e 92 bc 2c
       0.00023875928 0.00021543822 0.00018834771 5.3595106e-12
000210 26 32 7c a8 e4 08 92 b8 c7 6b cf b7 9d 66 5c b9
       -1.3999684e-14 -6.9634785e-05 -2.472651e-05 -0.00021019061
000220 22 16 b9 b9 c0 b1 04 3a 0f 01 78 39 5c 5a d9 b9
       -0.0003530244 0.0005061887 0.00023651517 -0.00041456788
000230 61 bf c0 b8 a9 5c df b9 d7 91 e5 38 04 00 00 80
       -9.1909205e-05 -0.00042602912 0.00010946736 -6e-45
000240 04 00 00 00 09 00 00 00 37 df 20 2e 56 de 05 b8
       6e-45 1.3e-44 3.6578043e-11 -3.1916737e-05
000250 d5 05 43 b8 73 9a 1e ba c9 d1 25 3a 4f 7c e7 39
       -4.6497054e-05 -0.00060502364 0.0006325511 0.0004415237
000260 49 13 88 39 e8 ba ee 39 f7 67 ac b9 44 fd 13 39
       0.0002595431 0.00045534153 -0.00032883856 0.00014113361
000270 cb 9e e5 98 7f 52 ae b4 24 1b ae b6 21 aa 01 b4
       -5.9355453e-24 -3.247005e-07 -5.1887637e-06 -1.2075954e-07
000280 c8 fb fa 38 89 56 28 b6 43 a3 52 b9 ab 77 e6 37
       0.00011967827 -2.508432e-06 -0.0002008798 2.7473861e-05
000290 a1 15 d2 38 9d 5a 19 3a bb 3f e3 38 e3 4f e4 38
       0.00010017609 0.0005849989 0.00010836074 0.00010886767
0002a0 05 a7 4d b9 04 00 00 80 04 00 00 80 dc 59 43 0e
       -0.00019612543 -6e-45 -6e-45 2.4078871e-30
0002b0 fb a2 f9 b2 b4 33 2a b4 ee 32 a1 a3 d7 52 24 34
       -2.906153e-08 -1.5851293e-07 -1.7477225e-17 1.5303827e-07
0002c0 43 0b 83 37 4e b7 c4 b9 57 cf 6c b8 cd f8 b2 37
       1.5621661e-05 -0.00037520606 -5.6459885e-05 2.133511e-05
0002d0 03 11 2f 37 f6 56 85 38 8c 12 35 2c 4f b1 ad 14
       1.0434774e-05 6.358132e-05 2.5731943e-12 1.7538472e-26
0002e0 b1 9f 2a 14 2a cd cb 37 55 5e 0d b7 1b 0e 7b b8
       8.6143e-27 2.4295023e-05 -8.426218e-06 -5.98562e-05
0002f0 2c 3c 27 38 33 4e bd b5 b5 39 56 b7 5d 1a 85 36
       3.9871942e-05 -1.4104356e-06 -1.276883e-05 3.966778e-06
000300 9d 86 22 38 fc 2a 10 36 a9 da d8 37 04 00 00 80
       3.874918e-05 2.1482692e-06 2.5851028e-05 -6e-45
000310 04 00 00 80 ec 49 91 2e 4d dc 5c ac 8a 71 d3 b6
       -6e-45 6.606968e-11 -3.1386172e-12 -6.3015077e-06
000320 6c 59 fc b4 af f3 1c 38 3d e3 77 b8 6f 52 e7 38
       -4.700372e-07 3.7420246e-05 -5.910102e-05 0.00011030293
000330 13 f3 85 b3 03 00 8d 37 51 28 96 38 62 92 b5 b8
       -6.23751e-08 1.6808515e-05 7.160067e-05 -8.6580185e-05
000340 29 ef 26 39 da 03 d8 b9 44 f3 95 38 46 c1 d7 37
       0.00015920088 -0.000412016 7.1501854e-05 2.5719997e-05
000350 71 17 d7 39 9d 64 97 b9 97 f3 49 b9 0a ab 56 b8
       0.0004102546 -0.00028875927 -0.00019259598 -5.118087e-05
000360 7b 76 10 ba 37 35 f7 b8 2f 7e 4e b8 5a 08 1f b9
       -0.0005510819 -0.0001178779 -4.9231745e-05 -0.00015166533
000370 28 2a b4 37 12 70 a7 b9 2c 96 51 39 7e 37 8e 39
       2.1477303e-05 -0.0003193622 0.00019987737 0.00027125695
000380 db a4 1d ba 7f a0 31 3a 04 37 1c 3a 1b fe b4 b6
       -0.000601364 0.000677593 0.00059591257 -5.394e-06
000390 ab f9 f1 b9 fa 26 2a 39 7f 0d ef 39 92 0c ea 39
       -0.0004615312 0.00016226983 0.00045595688 0.00044641324
0003a0 c8 54 ca b9 bc 1d a6 b8 3e f5 06 39 26 2b 30 3a
       -0.0003859161 -7.921035e-05 0.00012870596 0.0006720297
0003b0 7c 7b 2e ba 52 a2 d5 b8 d9 58 a6 b9 de a1 fb 38
       -0.0006655974 -0.00010186866 -0.00031728184 0.00011998763
0003c0 52 d7 09 ba 4b 90 c1 b9 57 22 eb b9 92 6c 64 3a
       -0.00052582205 -0.00036919335 -0.00044848278 0.0008713688
0003d0 83 89 15 b9 76 37 a8 39 c5 24 01 b9 ad 3d 8f b9
       -0.00014260974 0.0003208478 -0.00012316096 -0.00027321037
0003e0 11 17 09 ba d0 18 81 b9 88 f5 ea 39 8f 4a 05 3a
       -0.00052295724 -0.00024623284 0.00044814893 0.00050846575
0003f0 24 63 15 ba f3 b7 79 39 a2 57 d0 b9 6c 9e 3c ba
       -0.0005698672 0.00023815017 -0.00039738143 -0.00071952376

exp_avg_sq f4 [128, 260]
000000 52 1f 22 36 d4 fd 24 36 4b b2 5e 36 92 41 41 36
       2.4158112e-06 2.4585652e-06 3.3184358e-06 2.8797408e-06
000010 4a 50 15 36 07 fe 27 36 36 45 66 35 1b dd d6 35
       2.2249465e-06 2.5032803e-06 8.578239e-07 1.6008593e-06
000020 22 f1 b1 35 88 a4 44 35 d4 b7 41 35 6f 5a 5f 35
       1.3257707e-06 7.3255114e-07 7.216561e-07 8.320557e-07
000030 db 2f 50 35 2a 61 2f 36 9f 54 1f 36 10 e3 3d 36
       7.7555677e-07 2.613359e-06 2.3742102e-06 2.8295362e-06
000040 37 17 05 36 14 e9 00 36 e7 37 3c 36 4e 76 1f 36
       1.9832057e-06 1.9209156e-06 2.8046722e-06 2.3761709e-06
000050 4b 1e cc 35 90 b2 3f 35 ce 84 4e 35 d9 6d a4 35
       1.5208001e-06 7.141289e-07 7.6934236e-07 1.2250922e-06
000060 48 3a d9 34 ea d7 94 35 67 e5 52 36 99 ca 2a 36
       4.0461805e-07 1.1089699e-06 3.1425968e-06 2.5449901e-06
000070 12 a8 19 36 43 79 48 36 f1 73 56 36 30 b5 dc 35
       2.2896606e-06 2.9872906e-06 3.1955972e-06 1.644401e-06
000080 3e 44 b5 35 2e ad cc 34 08 7b dc 35 2b 48 d7 34
       1.3505412e-06 3.8123966e-07 1.6427084e-06 4.009938e-07
000090 cb e3 d6 35 db cb 12 35 03 07 cb 35 a4 7e 45 36
       1.6010539e-06 5.4685887e-07 1.5126719e-06 2.9429002e-06
0000a0 79 34 53 36 22 b0 3e 36 a4 7e 5d 36 28 89 1f 36
       3.1471993e-06 2.841473e-06 3.300528e-06 2.3772682e-06
0000b0 91 f3 16 36 71 63 e7 35 57 e0 c9 35 13 7c 3c 35
       2.2493516e-06 1.7239782e-06 1.5040958e-06 7.021601e-07
0000c0 b0 dc b6 34 70 54 9a 35 23 7e 6b 35 44 52 f9 34
       3.4060713e-07 1.1498469e-06 8.7727875e-07 4.643972e-07
0000d0 9c ea 20 2f 32 81 b9 2d 6a 17 67 33 25 e7 10 33
       1.4635265e-10 2.108944e-11 5.3805174e-08 3.3737837e-08
0000e0 91 8b fe 33 d5 5b ac 33 3f 94 4b 34 61 97 f6 33
       1.1853184e-07 8.026078e-08 1.895978e-07 1.1482803e-07
0000f0 fa c9 83 34 b8 cf 3b 34 4e 98 84 34 06 ca 14 35
       2.454761e-07 1.74913e-07 2.4697732e-07 5.542828e-07
000100 ff 0f c6 34 8f bb ce 2e 8d 87 71 2e 87 ef af 31
       3.6892013e-07 9.4011125e-11 5.491745e-11 5.1204014e-09
000110 e2 8d d0 32 6d e4 0d 34 89 fe cb 33 a0 9b 10 34
       2.4278908e-08 1.3214749e-07 9.499224e-08 1.3467661e-07
000120 81 8d 3a 34 ff 47 6b 34 54 8f 15 34 70 be 3f 34
       1.7374079e-07 2.1912273e-07 1.3928849e-07 1.7857542e-07
000130 73 db 70 34 9d f8 4c 34 cd 7e b8 30 71 d6 67 31
       2.2431577e-07 1.9089426e-07 1.3423801e-09 3.373682e-09
000140 5e 1e 5e 31 d4 d1 27 33 44 24 70 34 f8 ca 10 34
       3.2322514e-09 3.9073555e-08 2.2364935e-07 1.3484885e-07
000150 51 6e e7 33 0e ab a5 34 c0 15 96 34 67 c5 29 34
       1.0776842e-07 3.0858104e-07 2.7955502e-07 1.5811166e-07
000160 07 e3 6f 34 58 2e 79 34 f5 9f 23 34 04 c4 14 30
       2.2341202e-07 2.3206792e-07 1.523875e-07 5.412064e-10
000170 e3 4b b2 2e a7 6e e2 31 39 4c bf 32 b8 b1 a6 33
       8.107983e-11 6.5900454e-09 2.2269989e-08 7.762304e-08
000180 9e 95 42 34 c0 22 fc 33 36 78 1d 34 78 fb 10 34
       1.8122088e-07 1.17409854e-07 1.4665497e-07 1.3502529e-07
000190 bf aa 28 34 30 dc 83 34 42 97 8f 34 21 2f 87 34
       1.5708336e-07 2.456086e-07 2.674588e-07 2.518e-07
0001a0 4c 33 9a 32 d9 a0 0a 31 10 36 dc 32 12 7c 15 34
       1.7951287e-08 2.0173074e-09 2.5635956e-08 1.3921843e-07
0001b0 63 3b 85 35 4d b6 8b 35 43 72 22 36 42 2c 22 36
       9.926556e-07 1.0409364e-06 2.420639e-06 2.4165643e-06
0001c0 5b d3 6b 36 62 aa 77 36 50 17 63 36 7b ca 82 36
       3.5140754e-06 3.6905044e-06 3.3839206e-06 3.8978737e-06
0001d0 60 05 98 36 fc 1b 95 31 93 5d 3e 31 24 d4 f7 33
       4.5305787e-06 4.339652e-09 2.770183e-09 1.1540422e-07
0001e0 1e cb a3 34 6e 0d 7a 35 75 8d 4c 35 13 e2 0f 36
       3.0508903e-07 9.31518e-07 7.620177e-07 2.1440253e-06
0001f0 4b e6 69 36 77 88 72 36 f7 44 74 36 7b 34 73 36
       3.4853754e-06 3.6140243e-06 3.6398976e-06 3.624037e-06
000200 ee 06 a7 36 97 de 4a 36 4f 07 aa 33 63 ad 05 34
       4.9777946e-06 3.022991e-06 7.917571e-08 1.2449668e-07
000210 3c e0 45 33 81 1a ee 34 72 00 e3 34 8a b2 80 35
       4.6071577e-08 4.435024e-07 4.228237e-07 9.588705e-07
000220 0d 98 25 36 ef 24 44 36 f3 a3 1c 36 ba 64 8b 36
       2.4675421e-06 2.9227774e-06 2.3341242e-06 4.154249e-06
000230 2c 21 4d 36 52 13 79 36 db 1d 2b 36 0e 85 78 32
       3.056669e-06 3.7115137e-06 2.5498364e-06 1.4465753e-08
000240 e7 ec e5 31 1d c4 8e 33 2a 94 96 34 51 14 46 35
       6.69171e-09 6.648063e-08 2.804748e-07 7.379031e-07
000250 6c a1 c3 35 67 1c ea 35 cb f1 14 36 a2 5a 3f 36
       1.4575612e-06 1.7442625e-06 2.219446e-06 2.8513973e-06
000260 58 cb 92 36 5f 0f 56 36 1d 43 4f 36 a2 e9 7e 36
       4.3748114e-06 3.1897432e-06 3.0884469e-06 3.7984942e-06
000270 0a 64 d1 2c 04 ee 8e 32 32 8d 20 34 a1 2b 55 34
       5.951244e-12 1.6639213e-08 1.4952528e-07 1.9853043e-07
000280 57 ed c0 34 3c f1 7b 33 7b 9b a1 34 a6 7f d5 33
       3.5935474e-07 5.8659893e-08 3.0101714e-07 9.9418045e-08
000290 10 77 8c 34 43 2d b1 34 e6 73 16 34 5c 96 a8 34
       2.6163661e-07 3.300175e-07 1.4012002e-07 3.140184e-07
0002a0 b6 d9 62 34 44 5f 79 32 11 61 d6 2e ca ec c7 33
       2.1127093e-07 1.45153685e-08 9.748836e-11 9.309731e-08
0002b0 ed 7c 5d 34 10 4c b7 34 9b de 86 33 93 a8 ad 34
       2.0627677e-07 3.414175e-07 6.280353e-08 3.2346415e-07
0002c0 f8 3b f5 34 f0 68 c4 34 4a 87 4c 34 7f d4 cf 33
       4.567844e-07 3.6584197e-07 1.9048198e-07 9.6778415e-08
0002d0 04 36 75 34 e0 e1 99 34 0b 8b 43 34 63 6a 2c 34
       2.2837054e-07 2.8662816e-07 1.8211374e-07 1.6057452e-07
0002e0 ca ac d9 32 28 53 1f 34 0c 0b ae 33 92 16 cb 34
       2.53407e-08 1.4838281e-07 8.104516e-08 3.782812e-07
0002f0 7e d2 2e 34 58 94 0a 35 c4 18 94 34 e1 6e d0 34
       1.628159e-07 5.1624875e-07 2.7585168e-07 3.8823694e-07
000300 8c 9c 63 34 51 99 30 34 8e aa 0a 34 dc c3 07 33
       2.1197974e-07 1.6447053e-07 1.2914299e-07 3.161027e-08
000310 ae b1 ac 31 b2 8d 4f 33 62 f4 4b 34 64 f3 16 34
       5.0260587e-09 4.8324814e-08 1.8994754e-07 1.4058384e-07
000320 55 97 4d 34 76 7f a2 34 9b 56 c4 34 6e d9 4b 34
       1.9147167e-07 3.0267591e-07 3.657086e-07 1.8984949e-07
000330 b4 32 19 34 76 a2 53 34 b3 fe cd 34 74 a0 4b 34
       1.4267681e-07 1.9710009e-07 3.8369544e-07 1.8964221e-07
000340 ff e3 ec 36 e0 57 e5 36 13 d1 be 36 34 b4 c1 36
       7.0598903e-06 6.834962e-06 5.6867807e-06 5.7728266e-06
000350 52 d8 b7 36 68 3b be 36 da e5 a4 36 2a 1d 9f 36
       5.479008e-06 5.669357e-06 4.914339e-06 4.7419644e-06
000360 9d 9e 6e 36 1a 35 7b 36 0c 02 92 36 b3 45 55 36
       3.5557089e-06 3.7432824e-06 4.3513774e-06 3.1780044e-06
000370 8f 4d 4b 36 04 05 d5 36 c1 f4 e1 36 ca 92 cd 36
       3.0294502e-06 6.3484786e-06 6.7340156e-06 6.1265646e-06
000380 b9 be da 36 c7 87 bf 36 bd 7a b3 36 a1 ee 85 36
       6.5191093e-06 5.70805e-06 5.3489043e-06 3.991489e-06
000390 71 31 46 36 f2 75 83 36 0c 06 87 36 48 4d 7b 36
       2.9533078e-06 3.917835e-06 4.0240175e-06 3.7446898e-06
0003a0 3d 76 55 36 81 39 88 36 11 a0 c7 36 4f e3 d8 36
       3.1808297e-06 4.05981e-06 5.9492963e-06 6.463764e-06
0003b0 2d 1d f9 36 85 56 c1 36 1f cb ae 36 42 a9 c1 36
       7.424175e-06 5.7619204e-06 5.2092505e-06 5.7715524e-06
0003c0 25 5d a4 36 e4 36 9c 36 79 a2 92 36 80 1c 74 36
       4.8984243e-06 4.6555524e-06 4.3700534e-06 3.6375422e-06
0003d0 56 a2 75 36 73 1e 84 36 46 69 8b 36 6c 15 d8 36
       3.6602337e-06 3.9374513e-06 4.1547783e-06 6.4397955e-06
0003e0 bb 71 c6 36 d2 0b d8 36 be b1 b3 36 a2 2c ca 36
       5.9141e-06 6.4386777e-06 5.3553076e-06 6.025265e-06
0003f0 49 95 9f 36 1e 33 ac 36 92 cd 9b 36 41 11 ac 36
       4.7559483e-06 5.1319503e-06 4.6432915e-06 5.128008e-06

exp_avg f4 [128]
000000 b6 53 b9 b8 1a 4c 80 39 8e c9 07 ba 98 2b 9d 39
       -8.83708e-05 0.00024470763 -0.00051798753 0.00029977853
000010 5c 67 fa 36 11 73 1b 38 71 62 a0 ba f3 0d f6 39
       7.462613e-06 3.7062044e-05 -0.0012236369 0.0004693117
000020 4b d6 cf 37 d1 dc 94 ba 74 3a ba b8 fb 8e de b9
       2.477611e-05 -0.0011357312 -8.880059e-05 -0.00042449668
000030 b3 fc 91 39 50 d4 19 39 ca 87 48 ba f0 31 11 3a
       0.0002784483 0.0001467031 -0.00076496287 0.00055387523
000040 a1 7f 76 ba a5 a4 70 b9 fd 9f f3 b9 95 dc 2d ba
       -0.00094031735 -0.00022949518 -0.00046467772 -0.00066322956
000050 ab 17 82 3a 2a b0 0e ba b7 59 c3 b9 59 7d b3 b9
       0.0009925266 -0.00054431206 -0.0003726014 -0.00034234932
000060 77 a3 84 3a 40 b5 77 ba 7b 43 77 b8 13 e1 b2 b9
       0.0010119517 -0.00094493106 -5.8952235e-05 -0.000341185
000070 c5 eb a8 3a 2c 45 fb 39 2d f5 bc b9 43 cf dd 39
       0.0012887648 0.00047925988 -0.00036040824 0.00042306827
000080 52 29 94 ba e0 07 06 bb ea b8 64 ba 97 49 22 ba
       -0.0011303818 -0.0020451471 -0.0008725064 -0.00061907753
000090 7c aa a1 ba 61 15 23 ba 07 59 68 3a bb 0c 31 3a
       -0.0012334133 -0.0006221142 0.0008863364 0.0006753911
0000a0 80 fe 10 3a 50 f8 b5 39 47 08 12 b9 64 36 4b 3a
       0.00055310875 0.00034708017 -0.00013926729 0.000775194
0000b0 2c 25 9a 38 e0 a5 05 3a 24 3d 8a 38 21 c0 03 ba
       7.350216e-05 0.00050982647 6.591741e-05 -0.0005025883
0000c0 83 50 a2 39 64 2a 8d ba 4e a0 ec 3a 36 c8 a8 b9
       0.00030959034 -0.001077008 0.0018053146 -0.00032192626
0000d0 6a ba 38 b8 fd 9d e9 b8 d0 bb e5 b9 26 59 5c ba
       -4.404263e-05 -0.000111397334 -0.00043818215 -0.0008405618
0000e0 a6 62 04 ba 16 f6 3e ba ea 43 86 3a bb 03 93 3a
       -0.00050501 -0.00072845945 0.0010243629 0.0011216322
0000f0 23 2b c2 39 01 c5 43 b9 1c 5d 69 3a cc b2 0d ba
       0.00037034703 -0.00018670039 0.0008902119 -0.0005405366
000100 27 37 ed 39 e1 ce 46 ba e0 28 06 ba b1 38 b8 b9
       0.00045245254 -0.0007583928 -0.0005117785 -0.00035137453
000110 83 c2 f2 b8 51 b9 b1 3a 74 a1 f0 37 0a bd 00 3a
       -0.0001157569 0.0013559257 2.8685412e-05 0.00049109815
000120 dc 1e ea 37 04 00 00 00 ec 6c 05 b9 d0 a8 22 ba
       2.7909344e-05 6e-45 -0.00012724445 -0.00062049646
000130 61 ef ed b9 56 6d 7b ba 53 bc bd b8 fb bf 6e b9
       -0.00045382514 -0.00095911825 -9.0473004e-05 -0.00022768967
000140 04 00 00 00 0b 08 e7 b9 9c ba 2a 3a af 63 f7 b9
       6e-45 -0.00044065746 0.00065127923 -0.0004718578
000150 3b 12 0e ba 1f ae 96 3a ff 36 29 39 33 a1 fe 39
       -0.00054195867 0.0011495984 0.00016137584 0.00048566758
000160 67 64 54 ba da e5 b4 39 b6 94 dd b9 b6 4d 33 38
       -0.00081021193 0.00034503528 -0.00042263203 4.27493e-05
000170 0f 00 73 39 5b 80 34 39 ad ab 80 b9 6c c6 b3 38
       0.00023174308 0.00017213954 -0.0002454197 8.572344e-05
000180 b9 d0 48 b9 9b f8 3f 39 c5 cf 11 39 04 00 00 00
       -0.00019151242 0.00018307792 0.00013905678 6e-45
000190 2b 04 98 b9 3d ca ec 39 73 2f 6b ba 6b c7 4e b9
       -0.00028994805 0.00045164107 -0.0008971609 -0.0001971998
0001a0 74 c6 d1 3a e3 c8 2c 3a 3d 37 5f b9 76 18 45 ba
       0.0016004578 0.0006591214 -0.00021287515 -0.00075185986
0001b0 4e b2 6d b9 0e 06 86 ba 89 12 4b ba 6c 21 1a 38
       -0.00022668505 -0.0010225193 -0.00077465974 3.6747588e-05
0001c0 76 30 17 ba 35 1e 94 b9 04 00 00 00 d4 bd f4 39
       -0.0005767414 -0.00028251266 6e-45 0.0004668074
0001d0 0d cb 48 b9 87 90 c7 b9 e3 99 ad b9 c8 78 23 ba
       -0.00019149129 -0.0003806392 -0.00033111786 -0.00062359544
0001e0 27 bd 8c ba 20 b9 0d ba b8 28 dc 38 ca 81 1c ba
       -0.0010737524 -0.0005406309 0.00010498002 -0.0005970268
0001f0 a5 20 3e ba 19 14 22 b8 34 dd 3e 3a 63 5d c2 38
       -0.0007252789 -3.8642527e-05 0.00072808866 9.2680355e-05
