ppo_2layer_2/ppo_agent_episode_5000.pth (torch, 596626 bytes, 21 tensors)

fc1.weight f4 [128, 260]
00000000: e26b a43d 8dae 19be e648 253d cbdd 25bd
00000010: 5c1d 1abc 5bee d3bc dab6 aabc 61c5 d43d
00000020: 3467 0e3d f010 153d 5405 603b f4d1 93bc
00000030: ca69 19be 1c9c a0bc 7221 d0bd 1f62 28bd
00000040: e20d 133c 50a7 eebc f382 dabb 9a0a 86bd
00000050: 04dc ae3d e4e7 303a 8e9b 0dbc aa33 29bd
00000060: 409a a6bd f3bc 9f3c 8c82 c9bb 6a7f cfbd
00000070: 9fa7 48ba eb1e b7ba 1f42 2139 ff78 ae3c
00000080: 8505 3abc 2d19 c23d fb8f 6d3d f9eb 9c3d
00000090: ab70 22bd 8ef7 57bc 2428 24bd 9939 bdbc
000000a0: 292a 00bd d31c 68bd 269d 643d 1e3f 00be
000000b0: f10a d1bc f2b4 6fbd f5b0 e53d 3f7d 89bd
000000c0: 37be cbbd ef70 a1bb e585 aebd c19e 5bbd
000000d0: e687 ff3d 08f0 af3d 380e 3dbd b4bc 983d
000000e0: dd3f 0c3d 6c50 58bd a912 d7bc 8980 cebc
000000f0: a8ca b4bd 86a3 83bc 9af1 ac3c e11b 6c3d
00000100: ef5d 9c3d 90d0 37ba 9d22 8f3c 3d8c 0abd
00000110: 83d7 9dbd 44d9 2c3b 8c3d 163c ce0e 64bc
00000120: 8074 9ebc 2ec6 c3bb d987 79bd 186c f23c
00000130: 261c 5cbd d93f 603d 769a e6bc f803 a4bc
00000140: d45f 3f3b 128b a5bd fd13 58bd 32cd f7bc
00000150: 7793 3dbd 4efa 3dbd b2fe cdbd 6a35 5a3d
00000160: 1345 4f3c 1e83 1dbd d12c 233d c836 ce3d
00000170: de8f 32ba 493e 1bbd 70c4 a1bd c533 c0bd
00000180: f886 88bc c76a 3e3d ea30 2ebc 7529 6bbd
00000190: 0986 da3a 2adc babc 5522 bebd 9308 13bd
000001a0: 0ae5 14bc 44d8 393d 4b31 f7bd 7a73 d33d
000001b0: d8b8 69bc 4a36 55bc 8081 b63d 33f3 823c
000001c0: cf86 a7bd 82ba 8abd 4225 97bc 9088 bd3d
000001d0: 1d53 b63d 31a0 bbbd 0116 78bc 1d83 17be
000001e0: b5c5 8fbd bcf9 d7bd 9021 84bd b4b0 92bc
000001f0: 9f1d 8c3d 6bad 8f3d 326a 0abe 1fd1 76ba
00000200: 8cb7 b23d 63e7 a4bd 2663 9bbd dee3 c3bc
00000210: 2719 cf3d 5c18 c5bd e57d a1ba 0946 25be
00000220: b907 c03c 63e0 1f3c ea04 eebd 4880 62bd
00000230: 418e 503a cd80 893c 5265 b8bd 73e6 0f3d
00000240: b8c9 263e 18f8 813d c5e9 de3d ae34 b03d
00000250: 549f 843d 21f7 d73d acc7 e5bc be8c e1bd
00000260: 7987 863d d0cb 52bd 2080 81bc 9693 783d
00000270: 1587 c5bd f38e 2d3d 26dc 03be 0118 eb3c
00000280: 1f51 99bc b9aa 4c3d dd2b 16bd 7de7 2e3c
00000290: 3168 c1bd 0e53 83bd c182 373d 2fcf 77bd
000002a0: 7a02 cbbd a6d8 b2bc 9feb 1bbd 5204 203e
000002b0: d819 2b3e a6a1 f5bc 606e 1cbc 3b29 7d3d
000002c0: cb29 b03c 2d82 4fbd 18fc 54bd cb35 413b
000002d0: b803 b2bd 6b8e a6bb a188 c3bd 301f bebd
000002e0: 6344 2f3d cfc3 ff3c 2c45 6dbd cc56 973d
000002f0: e57b 2dbd f8fc 41bd 2dfb b6bd ab39 593d
00000300: 5890 1ebd 2a2c cbbd 509b 0cbd ba85 8b3d
00000310: 02fe 8cbd a41c e9bc 4f04 18bc b93f 733d
00000320: 41aa 143d 5ffe 18bd 8c23 033b ab52 43bd
00000330: 9d9d ac39 878e 3dbd 0473 34bd b776 a4bd
00000340: c3f1 1b3c 05a1 003d 44e9 52bd be3e 83bd
00000350: 432c 0bbc f3dc 93bc cd59 5bbd 8f2d 1bbe
00000360: 265c 7fbd b3d7 76bd 074c 6fbc 8cf1 e8bd
00000370: 5170 81bc 1392 89bd 7f3f 0f3d af21 c7bd
00000380: bed5 17bd 030d eabc 2114 a83d 4310 a539
00000390: 66cf 9dbd 56e3 90bd 3837 093d 2cf8 adbc
000003a0: b3f0 1abd 774f 1ebd c3e3 5a3d 0354 5b3d
000003b0: 57ea 49bd 3fb2 1bbd 9457 14bd a71a 99bd
000003c0: 5413 d6bd 83b0 9fbd 05d9 87bc 5a1f dabd
000003d0: d0e3 6abd 10a4 a53c 0dd4 233d 61b2 23bd
000003e0: 489c 6dbc aba6 87bd d9fe 48bd 49a9 aebd
000003f0: f042 b0bd 8e64 8abc 411e 9dbd 06dc 88bc
0.080283895 -0.15007992 0.040352724 -0.04049472 -0.009406414 -0.025870493 -0.020839144 0.103892095
0.03476639 0.036393106 0.0034182863 -0.01804445 -0.14981762 -0.019605689 -0.10162629 -0.0411092
0.008975478 -0.029132515 -0.0066684424 -0.06544991 0.085380584 0.00067484216 -0.008643044 -0.041309036
-0.081348896 0.019499278 -0.0061495956 -0.10131724 -0.0007654372 -0.0013971006 0.00015378789 0.02129793
-0.011353855 0.09477458 0.05799864 0.07662196 -0.03965823 -0.01318158 -0.040077344 -0.023098754
-0.031290207 -0.056668114 0.05581393 -0.12524077 -0.025517913 -0.058522172 0.112153925 -0.06713342
-0.0994839 -0.004926793 -0.08521632 -0.053618196 0.124770924 0.08590704 -0.04615614 0.07457867
0.034240592 -0.05281107 -0.026254015 -0.025207775 -0.08827716 -0.016069185 0.021111298 0.057643775
0.07635104 -0.0007011974 0.01747256 -0.033825148 -0.07707121 0.0026374618 0.009169947 -0.013919545
-0.01934266 -0.0059745526 -0.06092057 0.029592559 -0.053737782 0.05474839 -0.028149825 -0.020021424
0.0029201405 -0.08083166 -0.052753437 -0.030249212 -0.04628321 -0.046381287 -0.10058345 0.053273596
0.012650746 -0.03845512 0.039837662 0.100690424 -0.0006811599 -0.037901197 -0.078987956 -0.09384874
-0.01666592 0.04648855 -0.010631779 -0.057412583 0.0016672026 -0.02281006 -0.09283892 -0.03589685
-0.00908781 0.045372263 -0.12069949 0.1032476 -0.014265262 -0.013013432 0.08911419 0.015985107
-0.081800096 -0.06773855 -0.018450383 0.09254563 0.08902571 -0.091614135 -0.015141965 -0.1479611
-0.070201315 -0.1054568 -0.06451714 -0.017906524 0.06841587 0.07015499 -0.13517073 -0.0009415317
0.08726415 -0.08051946 -0.075872704 -0.023912366 0.10112219 -0.09623787 -0.0012320845 -0.16139998
0.023441182 0.009758088 -0.11622031 -0.05529812 0.0007955768 0.01678505 -0.090037 0.035131883
0.16287887 0.06346148 0.10884432 0.08603798 0.06475702 0.10545183 -0.028049313 -0.110131726
0.06568808 -0.051463902 -0.015808165 0.060687624 -0.096449055 0.042372655 -0.12876949 0.02869797
-0.01871544 0.0499675 -0.036662925 0.010675308 -0.09443701 -0.06412326 0.04480243 -0.06050032
-0.09912582 -0.021831822 -0.038066503 0.15626648 0.16709077 -0.029984307 -0.0095478 0.0618069
0.021504303 -0.050661255 -0.051998228 0.0029481526 -0.086921155 -0.0050828955 -0.09547544 -0.09283292
0.042789828 0.031221299 -0.057927296 0.07389602 -0.042354483 -0.04736039 -0.08934627 0.053033512
-0.038711876 -0.09920533 -0.034327805 0.06812616 -0.06884386 -0.02845604 -0.009278371 0.059386943
0.03629518 -0.037351962 0.0020010201 -0.04768626 0.00032923828 -0.046278503 -0.044055 -0.080304556
0.00951809 0.03140356 -0.05149199 -0.064084515 -0.00849444 -0.018049693 -0.053552438 -0.15154098
-0.06234374 -0.0602643 -0.014605529 -0.113741964 -0.015800627 -0.067173146 0.034972664 -0.097232215
-0.037069075 -0.028570658 0.08206964 0.00031483368 -0.07705574 -0.07074611 0.033499926 -0.021236502
-0.037827205 -0.038650002 0.053439867 0.053546917 -0.04929575 -0.038011786 -0.036216334 -0.07475787
-0.10452905 -0.07797339 -0.016582975 -0.10650511 -0.057346165 0.020219833 0.03999715 -0.039965037
-0.014502592 -0.06623586 -0.049071167 -0.08528382 -0.08606517 -0.016893651 -0.07671786 -0.016706478

fc1.bias f4 [128]
00000000: 92bd 18bd 7aaf 29bd 9203 debc 1552 64bc
00000010: 16ed a53c 8a48 d2bb f1d7 aabd 1d2c 083d
00000020: 88e1 31b9 29ac 593c fbf1 1d3d 23dc babc
00000030: 31d3 d2bd c395 b6bc a3a6 6b3d 15f4 4a3b
00000040: 7905 82bd 662e fbbc b7ea 8dbd 84a0 e43c
00000050: 79c0 aabc 22b1 a9bd cab3 043d 682e 94bc
00000060: 7521 1f3d cd97 88bd 174e 3bbd e03c a63d
00000070: e401 76bd 844a 08bd 4332 8b3d 3728 b63d
00000080: 37b7 28bc bd65 c8bb 529d 3abd 9be7 4dbd
00000090: 023b 943c cde5 38bd 1600 823a 9076 06bd
000000a0: 482f c43c a346 c03c 8590 973b a938 933c
000000b0: 8ea0 b73d c7e9 d13c 9696 22bd d859 4c3d
000000c0: f957 48bd 487e febc 4f78 3f3d cf74 333d
000000d0: 1b79 e0bc 1e59 afbc 3024 453d 4434 2abd
000000e0: e492 303a a588 8d3c e669 593d 9996 39bd
000000f0: 6625 c5bc 7b1a f0bc e1fd 9bbc 245f 293d
00000100: 8bb1 2abd 69cf efbc 0ee8 d93c 31da 0c3c
00000110: bef4 a5bb f564 89bb eeba e4bc 7483 48bd
00000120: 4601 26bd f196 acbd 16ce 95bc a774 bebd
00000130: f497 1ebd 68fa 20bb cd21 d0bc 0d05 58b8
00000140: a0d8 8bbd 0a3b 023d 813a 7d3d 2441 49bd
00000150: 01e6 8b3d abe2 74bd 9752 0ebd 3a07 54bc
00000160: de1b 24bd 30dc 143c 5b5c 9d3c b470 0c3d
00000170: 7e6c 07bc 6c57 08bd be36 5f3b 5983 75bd
00000180: becd 6f3c 43f4 413d 81ed 43bd 2b7f 8fbd
00000190: add8 d53b 2019 923d f005 84bd cf2a 53bd
000001a0: 79f5 65bc d81e 92bc 39c3 8dbc 0e60 883c
000001b0: f528 1a3c 765a 97bc c48d 693d f993 d73c
000001c0: fd71 203d 556b 0bbc 7998 0d3b b8d3 6a3d
000001d0: e697 8abd 8a22 66bd 8311 d93b 2aae 213d
000001e0: c14e 15bd b15b 513c 0ae7 3f3b 678d a1bc
000001f0: 59dd 863d 4e48 ec3b e981 2ebd 6f70 943c
-0.037290163 -0.041427113 -0.027101312 -0.0139355855 0.020254653 -0.0064173387 -0.08341969 0.033245195
-0.00016964052 0.013285675 0.03856085 -0.022810047 -0.10294188 -0.022288209 0.057531964 0.0030968238
-0.063487 -0.030661773 -0.06929534 0.027908571 -0.020843731 -0.082857385 0.032398023 -0.018088534
0.038850266 -0.06669579 -0.04572877 0.0811708 -0.060060397 -0.03327419 0.06796696 0.08894389
-0.010297588 -0.006115644 -0.04556019 -0.050269704 0.018094543 -0.04514103 0.0009918239 -0.032827914
0.023948327 0.023471182 0.0046253824 0.017971354 0.0896617 0.025624169 -0.03969439 0.04989037
-0.048912022 -0.031066075 0.046745595 0.04381257 -0.027401498 -0.0214048 0.048130214 -0.04155375
0.00067357556 0.017277071 0.05307951 -0.045309637 -0.024065685 -0.029309502 -0.019041957 0.0413505
-0.041673224 -0.029273706 0.02659991 0.008596943 -0.005064576 -0.004192943 -0.027921166 -0.04895349
-0.04052856 -0.08427227 -0.018286746 -0.092995934 -0.038719133 -0.0024563316 -0.025406742 -5.1503117e-05
-0.06828427 0.031794585 0.06182337 -0.04913439 0.06830979 -0.05978648 -0.034746733 -0.012941176
-0.04006564 0.0090857 0.019209078 0.03428717 -0.008265613 -0.033286497 0.0034059728 -0.059939716
0.014636455 0.047352087 -0.047833923 -0.07006677 0.006526074 0.071336985 -0.06446445 -0.051554497
-0.014035576 -0.017836973 -0.017305003 0.016647365 0.009409179 -0.018475752 0.057019964 0.026315676
0.039171208 -0.008509477 0.0021605773 0.057330817 -0.067672536 -0.056185283 0.006624402 0.039472736
-0.03645206 0.012778209 0.0029281997 -0.019720746 0.065851875 0.007210768 -0.04260436 0.018120019

fc2.weight f4 [64, 128]
00000000: e05c 30bd 368d 243e a001 29bc 3117 4ebd
00000010: 22d9 35bd 393c 003d 6ce3 36be 5c6d d33c
00000020: 08a4 abbc b499 183d dda8 02be 85b3 1cbd
00000030: 7695 b7bd 8cf5 4abd 020a cf3d 7e7e 023e
00000040: fe10 af3d 9429 4b3d 7451 b63c f8be d13d
00000050: 99cf 3ebe 680c e43c 0141 e43d 0de5 9f3d
00000060: ce21 dc3d 5dd3 203d 84ab 67be a3d9 04be
00000070: 78ec cabd 4276 623d a29c ae3a 97fc efbd
00000080: 2358 be3d ac78 85be 92b7 0e3d f236 35bd
00000090: 5c36 94bc 30c5 7f3d 77f5 c53d b840 cebd
000000a0: 31d7 6dbd c9ee 033e 98b4 45be fb4d f5bd
000000b0: 02d5 dcbd a407 7abd 1e6b 02bd 5ea4 3a3d
000000c0: b921 47be 3db1 0d3d 00df c33d 9942 e4bd
000000d0: 37b9 72ba d399 293d e00a 373d 00b3 47bd
000000e0: bbf0 183e 874b 093b 3407 9a3d 58e1 4fbb
000000f0: 48a6 b8bb 3a42 d13d ed03 51bd de54 ddbd
00000100: 6779 38be 290f 2abe cd9a 2ebe d127 a83c
00000110: bbc1 04bd baa0 ce3c fc93 b53d 1a3c a13b
00000120: 05a1 433d d71d bdbd 1a88 073d 3bbe 93bd
00000130: 7844 223c b8e0 d3bd 48ac 0ebe b1eb b8bd
00000140: ff08 efbd 8da8 903d 73b0 73bc e677 043d
00000150: d2ca b33d 878f 4fbd 38f9 17bd 0e66 363e
00000160: ddad 3c3e 8ff5 2cbd f748 94bc cbcd ab3c
00000170: 51ec a13d 46cd 793c e856 a83d 46d6 453c
00000180: 8308 283c b60e 07be 3a3c 353d 48db 7dbd
00000190: 7637 57be e764 05be fcbf 20be 7d42 d53c
000001a0: 7f04 b9bc de9e 113d 056b de3c 7144 30be
000001b0: 715e 013e 153e dd3d a4ae 4e3d 3f4e d03d
000001c0: 506d 303d afc2 21be cffc c6bc df94 9dbd
000001d0: a0f2 0ebe 2124 3c3d 3cb4 f9bc be33 8b3b
000001e0: 2a7a 38bd 2df7 b5bd fa8f b83d 4130 6abc
000001f0: 59b5 fe3b 2578 2fbd 4ff2 0fbe 828c c3bd
00000200: c0ff 05bd 7554 603e ed02 95bd 858d 123e
00000210: 88ed bd3d c40b 5fbe b72c 66bd 6fa5 1cbd
00000220: 1e3b 0f3e 3608 383d f5be 0fbd 7df4 283d
00000230: e900 9a3d be13 aa3d 7efc 243d 23dd c2bc
00000240: 1cf0 15bd dd5c 263d 6ebd ca3d d07a f33d
00000250: 4468 dcbd 8a9d 94ba 5553 183d 5382 f23b
00000260: 2c28 26bd f212 0a3e 9074 b1bd 53dd adbd
00000270: deff cabd 7082 d83d 7a7c 8e3d 31cb 5fbd
00000280: 8d38 1b3e 56c9 04bd 4519 473d 693f 0a3b
00000290: dbb4 f33d 2710 28bd 1b24 c33d 451b 06be
000002a0: 0d59 05be 870d d2bb 5c05 92be ccf6 3cbe
000002b0: 5a60 e63c bebe 14be 28d6 1abd 3058 3dbd
000002c0: f2cc 08be 90cf 283d 71bc d73c 098d 243d
000002d0: cdb2 bcbc 0b76 8a3d baf9 613d 8410 213d
000002e0: 6200 7eb9 f807 803c 28ab 78bd d2a3 53be
000002f0: eac6 d03d ffa7 c23d 66d6 37be 0373 32bd
00000300: 7f30 87bd 49ee 383d c767 3cbe 1e9d 01ba
00000310: c8fe 6d3b 424d 51be fa07 ebbc 6bcf 333c
00000320: df9b 83bd b12c 323d 4f2d 33be 1b77 c0bc
00000330: f15e 093e da3e d03c c0ad b33d 8e25 babd
00000340: 23a7 8cbe 8bcf a53c 62bf cfbd d3c1 053e
00000350: 6380 c03d f836 373c 7fac 0c3e b5a1 403d
00000360: f2fc 1a3d f3c0 ffbd 70d7 ba3d 0e4a 913d
00000370: 7d04 ee3d d55f 653d 3447 8bbd 2d8e c7bc
00000380: 0df3 d3bd 95e2 58be 6e56 f9bd 9752 3cbc
00000390: 040d 11be 3f82 6fbe 4c3d dfbc e290 a43d
000003a0: 42bd 60be d2e1 b83d 8bd5 3e3d 43de 26be
000003b0: 8705 f63c cec5 88bc 0090 e4bd cb11 223d
000003c0: 4b02 72bd 4da8 6e3d 831f 00be 8e58 3f3d
000003d0: 95dc 03be 9411 953d 9c23 063e de7f d53d
000003e0: e988 183e e1bd cbbd 4bf2 863d 68b3 313d
000003f0: f179 a1bc e851 713d 43ea 25bd 4d76 d13b
-0.043057323 0.16069493 -0.010315329 -0.050315086 -0.044396527 0.031307433 -0.17860192 0.025808983
-0.02095224 0.037255958 -0.12759729 -0.03825714 -0.08964054 -0.049550578 0.10109331 0.12743565
0.08548163 0.0496002 0.022255637 0.102415025 -0.1863388 0.027837947 0.11145211 0.0780736
0.10748635 0.03926407 -0.22624022 -0.12973647 -0.09908384 0.05528856 0.0013321827 -0.117180996
0.092941545 -0.26068628 0.034843035 -0.044241853 -0.018092327 0.062443912 0.09665959 -0.10070938
-0.05806655 0.12884058 -0.19307172 -0.11977764 -0.107828155 -0.061042443 -0.031840436 0.04556691
-0.19446458 0.034592856 0.09564018 -0.11145515 -0.00092591665 0.041406464 0.044688106 -0.048754692
0.14935581 0.0020949559 0.07520905 -0.0031720009 -0.0056350566 0.1021771 -0.051029135 -0.10807203
-0.18015061 -0.16607346 -0.1705124 0.020526798 -0.03241132 0.025223125 0.088661164 0.0049204947
0.047760982 -0.09234207 0.03308878 -0.07214018 0.00990402 -0.10345596 -0.13932908 -0.090293296
-0.11671638 0.070633985 -0.014873612 0.032340907 0.08778919 -0.050673988 -0.037102908 0.17812368
0.18425699 -0.04222637 -0.018101199 0.020972153 0.07906402 0.015246695 0.08219701 0.012075013
0.010255936 -0.13189206 0.04424689 -0.0619767 -0.2101725 -0.13026772 -0.15698236 0.02603268
-0.022585152 0.0355519 0.02715064 -0.17213608 0.12633683 0.10802857 0.05045952 0.10171174
0.043073 -0.15796922 -0.02429047 -0.076944105 -0.13959742 0.045932893 -0.03048145 0.0042481115
-0.04503838 -0.08885036 0.09011836 -0.014293731 0.007773083 -0.042839188 -0.14057277 -0.09548284
-0.032714605 0.21907218 -0.07275949 0.14311798 0.09273821 -0.21781832 -0.056194987 -0.038243707
0.13987395 0.044929706 -0.03509422 0.041248787 0.07519705 0.08304547 0.040279858 -0.023787087
-0.03660594 0.040615905 0.09899412 0.11888659 -0.107620746 -0.0011338454 0.037188847 0.0074007898
-0.040565655 0.1348379 -0.08664811 -0.0848948 -0.09912084 0.10571754 0.06957336 -0.054637138
0.15158291 -0.03241857 0.048608083 0.0021094924 0.1189973 -0.04103103 0.09528371 -0.1309634
-0.13022251 -0.006410304 -0.28519714 -0.1845352 0.028122116 -0.14525887 -0.03780189 -0.04622668
-0.1335943 0.041213572 0.026334973 0.040173564 -0.023034478 0.06760796 0.0551698 0.03932239
-0.0002422347 0.0156288 -0.060710102 -0.20667961 0.1019419 0.09504699 -0.1795288 -0.043566715
-0.06601047 0.04514912 -0.18398963 -0.0004944372 0.0036315192 -0.20439628 -0.028690327 0.010974745
-0.064262144 0.043499652 -0.17497753 -0.023494294 0.13415124 0.025420595 0.087733746 -0.09089194
-0.27471265 0.020240566 -0.10143925 0.1306222 0.09399488 0.011182539 0.13737677 0.047029216
0.037838884 -0.12487974 0.09123123 0.07094203 0.1162195 0.055999596 -0.0680069 -0.024359787
-0.10349093 -0.21180184 -0.12174688 -0.0114943 -0.14165121 -0.23389529 -0.027250908 0.08035447
-0.21947196 0.09027447 0.04659037 -0.16295724 0.030031933 -0.016695883 -0.11160278 0.03956775
-0.059084218 0.058265973 -0.12512021 0.04671531 -0.12877114 0.072787434 0.13099521 0.10424779
0.14895977 -0.09948326 0.065891825 0.043383986 -0.019711467 0.058916003 -0.040506613 0.0063922764

fc2.bias f4 [64]
00000000: 302b 19bd 6974 b33c 35bb 623d 543e 993d
00000010: 42bd e03c 9db7 d03d 1d51 d5bd 2fd4 13bd
00000020: 6b39 62bc 09bb 44bc 2093 3c3c dca0 d4bd
00000030: 6606 00bd a061 2f3d 9bc7 47bd 5ae9 913d
00000040: c36c a73c b911 cabc 8161 02bd e6ed bd3d
00000050: b621 b03c f111 01be 2fdb b13c 0442 ec3c
00000060: da57 d13d 89bd c4bc 50d9 a73d 4059 92bc
00000070: 09cc 8c3d 3847 163d 2544 be3c 991d bbbd
00000080: 36ca 3c3d 7d3d 81bd 1212 84bd 9f0b ffbd
00000090: 3474 47bd 86a8 023e 27ce c5bc e72c aabc
000000a0: b7ec c6bd f111 103d 16b2 babd 1881 1ebe
000000b0: 883b 093d 17a6 0dbd d239 cbbd adb7 e9bc
000000c0: 2c0c cebd 12c8 b53c 936f d9bd 8277 a33d
000000d0: 4a0c d6bc e947 0d3d 7b08 a2bd 8112 85bc
000000e0: 4490 3bbd fb99 9fbd 43cd 8b3b b623 b2bd
000000f0: 1616 613d e8e8 963d cd1c bf3d 2882 603d
-0.037394702 0.021906095 0.055354316 0.07482591 0.027433995 0.101912715 -0.10415862 -0.036091026
-0.013807635 -0.012007483 0.011509687 -0.10382244 -0.031256102 0.04281771 -0.048774343 0.071245864
0.020437604 -0.024666654 -0.03183127 0.09273891 0.02150045 -0.126045 0.02171096 0.028840072
0.102218345 -0.024016159 0.08195746 -0.017864823 0.06874854 0.036689013 0.023225853 -0.09136505
0.04609128 -0.06310556 -0.06448759 -0.124533884 -0.048694804 0.12759599 -0.024146153 -0.020773364
-0.097131185 0.03517336 -0.091159984 -0.15478933 0.03350404 -0.034582224 -0.09923138 -0.028529966
-0.10060915 0.022190128 -0.10616984 0.07981779 -0.026128907 0.034492407 -0.07911774 -0.016244175
-0.04579188 -0.07793041 0.0042664125 -0.086982176 0.054952703 0.07368642 0.09331665 0.054811627

policy_head.weight f4 [110, 64]
00000000: 86ec 28bf 525b 10bc 038a b1be 67cf 71be
00000010: 34a7 7fbe 6b10 3bbe e657 8bbd 71a7 94bd
00000020: 9bb4 56be 1298 24be e3c8 d2be d674 a83d
00000030: 62e9 b03d 9b8a 533d 34cf aebc aeaa 1abf
00000040: fc24 3cbe c114 a0be 9fe8 86be ff69 e2bc
00000050: f6d1 d9be 0f59 bdbe 984e 15be f79e c23d
00000060: 37f7 f6be 311a b0bd d7db 1ebf 02fb 12be
00000070: dac3 cd3d 03fa afbe c705 783e 954c 10bd
00000080: 6a9b dfbd 7c41 4fbe 503a 0bbe 06d0 b0be
00000090: d109 89be b0cc 10bd e8c1 e7be c498 673d
000000a0: e9e2 29be 25c5 0a3c 7644 223d 021f c2bd
000000b0: 974b 603d f033 57bd fcea 67bd 8ac3 a3be
000000c0: 0a7d 71be 7338 ddbd 1c6f b8be bf21 a9bc
000000d0: fe3d 0d3e 33ba 84bd e3be 99bd 5043 263d
000000e0: 8c37 53be 7ad6 bb3d 28f0 79be 5e2c 38be
000000f0: 38c6 6fbd be31 56be 1557 34bc fa1e e1bc
00000100: 565c 11bf b31c eabd c338 77be 7e49 86be
00000110: bd07 31be 648e 8fbe c1e5 09bd 6b9b 1bbe
00000120: fa4d 9ebe fc4a a5bc 9114 bebe be83 b23d
00000130: d2c9 be3d 2cc0 80bd ca81 a13d 882c 0bbf
00000140: 693c 0dbe d451 28be 6438 3ebe 6653 e4bd
00000150: 49f7 9dbe d720 80be e601 cf3b d633 323e
00000160: 9abd cbbe 3808 a33b 8c91 e8be 0245 7abd
00000170: cef4 7a3e 8640 43bd e5d6 2b3e b43f 1e3d
00000180: d007 a3bd d7d9 98bd 977c 3abe 41ce 81be
00000190: d3e6 31be 0b0a 763b 2461 1bbf 8d87 b93d
000001a0: 28ca dfbd fc2f efbc ebd3 a7bc 5506 71bd
000001b0: d1c7 f03d 8506 acbd ca3f 25be c110 e3be
000001c0: 8da2 cfbe a9b3 eebd b853 bdbe 1b0b 5ebe
000001d0: 350a a23d b246 a73c 6eb5 afbd 24a8 eebd
000001e0: e516 acbd f469 c63c 884b 82be 45ca e3bd
000001f0: 045c 8bbd 19d3 57be 94a1 35bd e13f 7b3d
00000200: 253c 833e f4ff 88bd f9bf 063e e25b adbc
00000210: 6314 bdbd 3251 39bd 16fe 06be 7fd5 a73d
00000220: 6daf 593e 07dd 5c3d c84c 3d3e 13d1 253d
00000230: 1ce0 353d 57c0 0ebd 8e1f 8f3c 9cc5 d43d
00000240: 5193 743d 2f94 fa3d 484b 42bd 331f 4ebe
00000250: 086b 42bd e195 9dbb d4b9 debd 005a 58bd
00000260: eeb3 f03d 1902 1e3e ab27 643e 96cf 013e
00000270: 6752 65bc 4aa9 673e b3d3 f3bd 04f0 f13d
00000280: 9ade cebd 3544 a9bd 66d1 233d 6b47 0d3e
00000290: c069 af3d 33f9 57be 5273 253e 8139 f4bc
000002a0: 6d5d 0d3e f2bf 28be d07b 4abd 9f6f 303e
000002b0: c439 cbbd 1684 f1bd e6fd d7bd dff1 353e
000002c0: b95a 4b3e 0f06 b23d 57ee 113e 44d5 79be
000002d0: ce6f 7cbd e347 74be 9ae9 cfbc e29a 69be
000002e0: 25d8 403e 7760 75be 57b8 dcbd 3d4f 143e
000002f0: e119 023e baba 0cbe 7461 69be 1bcd 7bbd
00000300: b95d e43b f603 713e 387a 2dbe 842b 6a3e
00000310: 536a acbd 36a7 b73c 3a79 f7bd 3d4b e13e
00000320: b3af b63e 97fb c83e 0b02 af3e 363a 653d
00000330: efaa 9c3d 482c ea3d fce1 5a3d 3237 dc3d
00000340: 8999 db3e dd17 d83e ff29 d5bc 4cb9 bebd
00000350: 9cf5 05bd e7b0 573e e0dd ba3d 8b6a b83c
00000360: 5860 08be 03ce c3bd 4843 2bbe f657 8a3e
00000370: 4b68 9abd 2925 38be 4c6f 80bd c501 5abc
00000380: 7bcc 7ebe a46e a23e 5df7 e43e 9b51 823e
00000390: 98a5 e53e b4ad 23bf 2570 59bd 4230 74be
000003a0: 370d dc3e 51f9 633e efe2 7a3d 602c b33e
000003b0: 8903 663e 0d05 273e 132a a83e cbd1 6f3c
000003c0: 9e29 b83e eb53 cf3e e5cd ab3e 3be0 71be
000003d0: 7f88 c1bc 6e16 513e fc4f f23e 82ae 8d3d
000003e0: ea05 bd3e a25d b03e a614 13bc 8b05 313e
000003f0: bf41 9d3e 44c5 88bc 2fc2 923d 3b27 14be
-0.65985906 -0.008810835 -0.34675607 -0.23614274 -0.24966127 -0.18267982 -0.06803875 -0.072584994
-0.20967333 -0.16073635 -0.4116889 0.0822541 0.08638264 0.051645856 -0.021339037 -0.60416687
-0.18373483 -0.31265834 -0.2634935 -0.027638434 -0.42543 -0.3698201 -0.14580762 0.095029764
-0.48235485 -0.085987456 -0.620542 -0.14353564 0.10047121 -0.3437043 0.24220954 -0.035229284
-0.10918315 -0.20239824 -0.13596463 -0.3453371 -0.26765302 -0.035351455 -0.45265126 0.056542173
-0.16590466 0.0084698545 0.03961607 -0.094785705 0.054759588 -0.052539766 -0.056620583 -0.31985122
-0.23582855 -0.108017825 -0.3602227 -0.020645974 0.1379318 -0.06480827 -0.07507112 0.040591538
-0.20626658 0.091717675 -0.24408019 -0.17985675 -0.058538646 -0.20917413 -0.01100709 -0.027480591
-0.5678152 -0.11431255 -0.24142747 -0.26227945 -0.17288108 -0.28038323 -0.033666376 -0.15196006
-0.30918866 -0.020177357 -0.37125066 0.08716534 0.09315838 -0.06286654 0.078860834 -0.54364824
-0.13792576 -0.16437465 -0.18576199 -0.111487195 -0.30852726 -0.25025055 0.006317365 0.17402586
-0.39793092 0.004975345 -0.45423543 -0.061100967 0.24507448 -0.047668956 0.16781195 0.03863497
-0.079604745 -0.07463425 -0.1821159 -0.25352672 -0.17373209 0.0037542607 -0.606951 0.090590574
-0.1092723 -0.029197685 -0.020486793 -0.05884393 0.11756862 -0.08399681 -0.16137615 -0.4434872
-0.40553704 -0.11655361 -0.36977935 -0.21683924 0.07912103 0.020419452 -0.08579527 -0.11653164
-0.08402804 0.024220444 -0.2544825 -0.11122564 -0.0680466 -0.21076621 -0.044343546 0.061340217
0.25631824 -0.06689444 0.1315917 -0.021161977 -0.09232404 -0.04524345 -0.13182864 0.08195018
0.21258326 0.053921726 0.18486321 0.04048259 0.04440318 -0.0348514 0.017471101 0.103892535
0.059710804 0.12235295 -0.047435075 -0.20129089 -0.047465354 -0.0048091267 -0.10875288 -0.052820206
0.11753069 0.15430488 0.22280757 0.12676844 -0.013996697 0.22623172 -0.11905613 0.118133575
-0.10101052 -0.082649626 0.03999462 0.13796775 0.08565092 -0.21091156 0.16157272 -0.029812576
0.1380517 -0.16479471 -0.049434483 0.1723008 -0.09923127 -0.117927715 -0.10546474 0.17768048
0.19858827 0.08692562 0.14251076 -0.2439776 -0.061630063 -0.23855548 -0.025379945 -0.2281299
0.18832453 -0.2396258 -0.107773475 0.14483352 0.12705185 -0.13743106 -0.22791082 -0.0614749
0.0069691804 0.23536667 -0.16941154 0.22868162 -0.08418717 0.0224186 -0.12083669 0.44002715
0.35680923 0.39254448 0.34181246 0.055963717 0.076497905 0.11434227 0.05343817 0.10752715
0.42890576 0.42205706 -0.026021002 -0.09312686 -0.032704934 0.21063577 0.091243505 0.022511741
-0.13318002 -0.09560778 -0.16724885 0.27020234 -0.075394236 -0.17982925 -0.06271228 -0.013306086
-0.2488269 0.31725037 0.44719973 0.25452885 0.448529 -0.63936925 -0.053085465 -0.23846534
0.42978832 0.22263075 0.061251577 0.34994793 0.22462286 0.1631052 0.328446 0.014637421
0.3596925 0.40493712 0.33555523 -0.23620693 -0.023624657 0.20418712 0.47326648 0.0691805
0.36918575 0.34446436 -0.008977091 0.1728727 0.30714223 -0.016695626 0.07165944 -0.1446809

policy_head.bias f4 [110]
00000000: 9f24 c6be 5359 acbe 9308 60bc 0207 a1bd
00000010: 399e 50be ca66 c3be 47cd babd c281 6bbd
00000020: e24f 6dbd e1bc a43c 4b95 8d3c 183f 183e
00000030: 2c26 0e3e 93b8 6f3d f07b 4e3e f273 303e
00000040: 9eff 1d3e 7d9c 543d f281 5d3e c4d3 7cbd
00000050: f16f 093d a894 19bd 7664 123d 1ae5 39bd
00000060: 663e 053d 40b7 5b3e e85d 0f3d 9c89 923e
00000070: ea91 713e a33a 623e 11f6 153e 6307 353e
00000080: cf49 99bd 36fa da3d 529b 11bc 876e bebd
00000090: fb8a 803d e779 573d 0132 44bc 3297 833d
000000a0: 53d4 133e a760 c33d 5d99 773d 0a60 72bc
000000b0: 3751 a53d ff6d 473d aad0 58bb 371b cdbb
000000c0: b4e2 8ebc 0a99 bb3c 4612 a03d 0db2 c23d
000000d0: a6e4 3b3e 60b5 893d fb9b a63d 644f 023e
000000e0: 0764 4e3e 8991 703e c2e5 c5be bc77 bdbe
000000f0: bc8e bfbe 5ffc a5be 2ac2 cfbe 261a 99be
00000100: 7f63 bdbe c4e5 a0be 6b9d c4be 41a6 a2be
00000110: dec5 43be ea54 44be b402 92be 92d0 4ebe
00000120: 0f3b 45be 60a1 81be 2331 adbe c40d 97be
00000130: cd30 81be a65b 9fbe 9cb8 3dbe 57bc 96be
00000140: 637c 89be 3573 d5be fa9b 48be ecf8 9dbe
00000150: 6cf2 58be 2c8b 87be 325e 88be b027 c8be
00000160: 706e c9be 9349 c1be 870e 81be bbbd 96be
00000170: bd44 85be 1b9b c1be b7ea 6ebe 75f6 63be
00000180: a7ee a1be e405 acbe 9cf5 3ebe e044 9dbe
00000190: 3ea8 86be 8c28 bdbe 58fe 6bbe 7bbd 9ebe
000001a0: d5e8 9ebe 27f7 a6be c4ba 66be ddd0 c4be
000001b0: 9968 3fbe 3415 b2be
-0.38699815 -0.336619 -0.013673919 -0.07862665 -0.20372857 -0.3816436 -0.09121185 -0.057496794
-0.05793751 0.020109596 0.017283102 0.14867818 0.13881749 0.058525633 0.20164466 0.1723173
0.15429541 0.05190705 0.21631601 -0.061725393 0.03355402 -0.037495285 0.03574034 -0.045384504
0.03253021 0.21456623 0.035001665 0.28620613 0.23590818 0.2209268 0.14644648 0.17678599
-0.07484781 0.10692255 -0.008887129 -0.09298425 0.062765084 0.05260649 -0.0119748125 0.064253226
0.14436464 0.09539919 0.060448993 -0.014793405 0.08072131 0.048688885 -0.0033083358 -0.006259348
-0.017442085 0.022900123 0.078159854 0.09506617 0.18348941 0.06724048 0.0813522 0.12725598
0.20155345 0.23493017 -0.38651854 -0.37005413 -0.37413585 -0.32419106 -0.40577823 -0.29902762
-0.36989972 -0.31425297 -0.3840135 -0.31767467 -0.19118449 -0.19173017 -0.28517687 -0.20196751
-0.1926081 -0.25318432 -0.3382655 -0.2950269 -0.25232545 -0.3112461 -0.18527454 -0.29440567
-0.26852712 -0.41689458 -0.1959075 -0.30853975 -0.21186227 -0.26473367 -0.26634365 -0.3909278
-0.3934207 -0.37751445 -0.25206396 -0.29441628 -0.26029006 -0.3781365 -0.23331724 -0.22261985
-0.3162739 -0.33598244 -0.1864838 -0.3071661 -0.26300234 -0.36944997 -0.23046243 -0.31003937
-0.31037012 -0.32610437 -0.22532183 -0.384406 -0.18692245 -0.34781802

value_head.weight f4 [1, 64]
00000000: 71f4 613d 7b7b 873d aaf8 b73c 1836 583d
00000010: 6fd6 ca3d a6d8 873d 5b76 41be e36b ddbb
00000020: a147 b6bb 2dcd 7b3c 5d7f 7b3d 8c48 0abe
00000030: 6f66 6dbd bd1c 06be 811a 6ebe 8e8e 093d
00000040: b9f6 85bd 1699 a4bc 6d25 843b 2b9b df3d
00000050: cbaa e13d f736 d4bc 8a0d 843d ce3b c53d
00000060: a8d0 083c 7156 cf3d 3185 093e f18d 80bd
00000070: 91ae 7abe c843 2cbd 1a66 2abe 9b8b 8dba
00000080: f6dc 32be 6903 343d cefe 873b a18d 473c
00000090: 7e9d ce3b 1ebb e13d e1b6 0f39 c8ab 12be
000000a0: 9448 483b df68 a23d 59d9 bfbd da30 973a
000000b0: 9e14 653d 8e89 98bb 405d 30bd 1dfc ee3c
000000c0: ffcb 993b 2759 5cbb 69ea 19bb 1302 303d
000000d0: b848 36bd 3ff2 373c 742f 193b 0649 82bc
000000e0: 2ced 853b d875 d63c 40cf ac3c 7a56 383b
000000f0: 3700 043d 18d3 e83d 1a18 583d 2213 e4bd
0.055164758 0.06615349 0.02245744 0.052785963 0.09904181 0.06633119 -0.18892805 -0.006757246
-0.005562738 0.015368742 0.06140076 -0.13504237 -0.057959016 -0.130969 -0.23252298 0.033583216
-0.06541199 -0.020092528 0.004032782 0.10918268 0.11018904 -0.025905116 0.06447895 0.096305475
0.008350529 0.10123909 0.13429715 -0.06277073 -0.24480654 -0.04205683 -0.16640511 -0.0010799052
-0.17467102 0.043948565 0.004150248 0.012179763 0.0063053956 0.11022018 0.0001370567 -0.14323342
0.0030560838 0.07930159 -0.09367628 0.0011534945 0.055927865 -0.0046550697 -0.04305768 0.029172951
0.0046935077 -0.0033622475 -0.0023485667 0.042970728 -0.044502944 0.01122719 0.0023374232 -0.01590396
0.004087111 0.02617924 0.021094918 0.0028127716 0.032226767 0.11368388 0.05275736 -0.11136462

exp_avg f4 [128, 260]
00000000: 0400 0000 0400 0080 0400 0000 0400 0000
00000010: 0400 0000 0400 0000 0400 0000 0400 0000
00000020: 5373 a204 6f45 9c04 0400 0000 2071 a903
00000030: 0400 0000 0400 0000 0400 0080 6f45 9c04
00000040: 0400 0000 0400 0000 0400 0000 6f45 9c04
00000050: 6f45 9c04 0400 0000 0400 0000 6f45 9c04
00000060: 0400 0080 0400 0000 0400 0000 0400 0000
00000070: 0400 0000 0400 0000 0400 0000 0400 0000
00000080: 0400 0000 0400 0000 84bb 4582 ae2d a104
00000090: b386 8c00 0400 0000 0400 0000 0400 0000
000000a0: 0400 0000 0400 0000 6f45 9c04 0400 0080
000000b0: 0400 0000 0400 0080 6f45 9c04 0400 0000
000000c0: 0400 0080 6f45 9c04 0400 0000 0400 0080
000000d0: 0400 0080 0400 0080 0400 0000 0400 0080
000000e0: 0400 0000 0400 0000 0400 0080 0400 0000
000000f0: 1ace 2281 0400 0000 0400 0000 4c4c 5702
00000100: 0400 0080 0400 0000 0400 0080 0400 0000
00000110: 0400 0000 0400 0000 0400 0000 0400 0000
00000120: 0400 0000 0400 0000 0400 0000 0400 0080
00000130: 0400 0000 0400 0000 0400 0000 0400 0000
00000140: 0400 0000 0400 0000 0400 0000 2071 a903
00000150: 0400 0000 0400 0000 0400 0000 0008 1d82
00000160: 31b9 6204 0400 0000 0400 0080 0400 0080
00000170: 0400 0000 0400 0000 0400 0000 0400 0000
00000180: 0400 0000 0400 0000 0400 0000 0400 0000
00000190: 0400 0080 0400 0000 0400 0000 0400 0080
000001a0: 0400 0000 0400 0000 0400 0080 0400 0080
000001b0: 0400 0080 0400 0000 0400 0000 0400 0080
000001c0: 0008 1d82 0400 0000 6f45 9c04 a25d 5604
000001d0: 0400 0000 0400 0000 0400 0080 0400 0000
000001e0: 0400 0080 0400 0080 0400 0000 0400 0000
000001f0: 0400 0000 6f45 9c04 6f45 9c04 0400 0000
00000200: 6f45 9c04 0400 0000 0400 0000 0400 0000
00000210: 0400 0000 0400 0000 0400 0000 5ed2 6304
00000220: 6f45 9c04 6f45 9c04 0400 0000 0400 0000
00000230: 0400 0080 6f45 9c04 0400 0000 0400 0080
00000240: 0400 0080 0400 0080 0400 0000 0400 0080
00000250: 6f45 9c04 6f45 9c04 0400 0000 6f45 9c04
00000260: 6f45 9c04 0400 0000 6f45 9c04 6f45 9c04
00000270: 0400 0000 0400 0080 0400 0080 0400 0000
00000280: 0400 0000 0400 0080 0400 0000 0400 0000
00000290: 0400 0000 0400 0000 0400 0000 0400 0080
000002a0: 0400 0000 0400 0080 0400 0000 0400 0080
000002b0: 0400 0080 0400 0000 0400 0000 0400 0000
000002c0: 0400 0000 0400 0080 0400 0000 0400 0080
000002d0: 0400 0080 0400 0000 0400 0080 0400 0080
000002e0: 0400 0000 0400 0000 6f45 9c04 0400 0080
000002f0: 0400 0000 0400 0000 0400 0000 0400 0080
00000300: 2071 a903 0400 0080 0400 0000 0400 0080
00000310: 0400 0000 6f45 9c04 0400 0000 6f45 9c04
00000320: 0400 0000 0400 0080 0400 0000 0400 0000
00000330: 0400 0000 0400 0000 0400 0000 0400 0080
00000340: 6f45 9c04 6f45 9c04 6f45 9c04 ae2d a104
00000350: 6f45 9c04 6f45 9c04 6f45 9c04 6f45 9c04
00000360: 0400 0000 0400 0000 0400 0080 0400 0000
00000370: 6f45 9c04 6f45 9c04 6f45 9c04 0400 0000
00000380: 6f45 9c04 6f45 9c04 6f45 9c04 0400 0080
00000390: 0400 0000 0400 0000 0400 0000 0400 0080
000003a0: 0400 0080 6f45 9c04 6f45 9c04 6f45 9c04
000003b0: 6f45 9c04 6f45 9c04 0400 0000 0400 0000
000003c0: 0400 0000 0400 0080 5373 a204 0400 0000
000003d0: 0400 0000 0400 0000 6f45 9c04 6f45 9c04
000003e0: 6f45 9c04 0400 0000 0400 0000 0400 0000
000003f0: 0400 0080 0400 0000 0400 0000 0400 0000
6e-45 -6e-45 6e-45 6e-45 6e-45 6e-45 6e-45 6e-45
3.8191926e-36 3.673919e-36 6e-45 9.9588995e-37 6e-45 6e-45 -6e-45 3.673919e-36
6e-45 6e-45 6e-45 3.673919e-36 3.673919e-36 6e-45 6e-45 3.673919e-36
-6e-45 6e-45 6e-45 6e-45 6e-45 6e-45 6e-45 6e-45
6e-45 6e-45 -1.4527089e-37 3.789287e-36 1.290529e-38 6e-45 6e-45 6e-45
6e-45 6e-45 3.673919e-36 -6e-45 6e-45 -6e-45 3.673919e-36 6e-45
-6e-45 3.673919e-36 6e-45 -6e-45 -6e-45 -6e-45 6e-45 -6e-45
6e-45 6e-45 -6e-45 6e-45 -2.990257e-38 6e-45 6e-45 1.5817601e-37
-6e-45 6e-45 -6e-45 6e-45 6e-45 6e-45 6e-45 6e-45
6e-45 6e-45 6e-45 -6e-45 6e-45 6e-45 6e-45 6e-45
6e-45 6e-45 6e-45 9.9588995e-37 6e-45 6e-45 6e-45 -1.1536834e-37
2.6651208e-36 6e-45 -6e-45 -6e-45 6e-45 6e-45 6e-45 6e-45
6e-45 6e-45 6e-45 6e-45 -6e-45 6e-45 6e-45 -6e-45
6e-45 6e-45 -6e-45 -6e-45 -6e-45 6e-45 6e-45 -6e-45
-1.1536834e-37 6e-45 3.673919e-36 2.5198573e-36 6e-45 6e-45 -6e-45 6e-45
-6e-45 -6e-45 6e-45 6e-45 6e-45 3.673919e-36 3.673919e-36 6e-45
3.673919e-36 6e-45 6e-45 6e-45 6e-45 6e-45 6e-45 2.6780318e-36
3.673919e-36 3.673919e-36 6e-45 6e-45 -6e-45 3.673919e-36 6e-45 -6e-45
-6e-45 -6e-45 6e-45 -6e-45 3.673919e-36 3.673919e-36 6e-45 3.673919e-36
3.673919e-36 6e-45 3.673919e-36 3.673919e-36 6e-45 -6e-45 -6e-45 6e-45
6e-45 -6e-45 6e-45 6e-45 6e-45 6e-45 6e-45 -6e-45
6e-45 -6e-45 6e-45 -6e-45 -6e-45 6e-45 6e-45 6e-45
6e-45 -6e-45 6e-45 -6e-45 -6e-45 6e-45 -6e-45 -6e-45
6e-45 6e-45 3.673919e-36 -6e-45 6e-45 6e-45 6e-45 -6e-45
9.9588995e-37 -6e-45 6e-45 -6e-45 6e-45 3.673919e-36 6e-45 3.673919e-36
6e-45 -6e-45 6e-45 6e-45 6e-45 6e-45 6e-45 -6e-45
3.673919e-36 3.673919e-36 3.673919e-36 3.789287e-36 3.673919e-36 3.673919e-36 3.673919e-36 3.673919e-36
6e-45 6e-45 -6e-45 6e-45 3.673919e-36 3.673919e-36 3.673919e-36 6e-45
3.673919e-36 3.673919e-36 3.673919e-36 -6e-45 6e-45 6e-45 6e-45 -6e-45
-6e-45 3.673919e-36 3.673919e-36 3.673919e-36 3.673919e-36 3.673919e-36 6e-45 6e-45
6e-45 -6e-45 3.8191926e-36 6e-45 6e-45 6e-45 3.673919e-36 3.673919e-36
3.673919e-36 6e-45 6e-45 6e-45 -6e-45 6e-45 6e-45 6e-45

exp_avg_sq f4 [128, 260]
00000000: f517 ce32 34f4 2732 90dd c732 37e6 2033
00000010: 9e26 1933 23dc c832 adc1 7d33 aae3 9a33
00000020: fefd 5433 7998 2533 eea5 4033 66d4 cf32
00000030: f809 a532 6b8f c532 acfa 4832 8e97 c832
00000040: 4376 c632 d93e 1633 0381 e732 32f9 3f33
00000050: ea99 4733 6b34 0e33 a6d6 3f33 ce1e 1633
00000060: dba4 4932 093e 8433 cb58 8732 efd5 ee31
00000070: 7924 e232 7d29 1733 9d0e ea32 8e6c 0733
00000080: 3d3b 1733 6344 4733 c77c 3833 3e5a 6c33
00000090: b5e3 3e33 488f 0133 336a f532 0c17 d232
000000a0: 008b 3533 815a f832 6a27 c132 b7fb a332
000000b0: 4464 5a33 2d2c b932 ba6f 5b33 e368 1d33
000000c0: 4551 af32 33ed 1e33 ebe6 ed32 1d94 9d32
000000d0: 38d7 3e31 8f9e 922f a1f1 e02f 5bd3 a130
000000e0: 9c2e c530 8816 e430 828b e830 3efb 4031
000000f0: c706 1931 f366 0331 69c1 3631 1028 4a31
00000100: 5db0 6e31 a40d 6f30 0f15 9c2e 8948 302f
00000110: 5cee 1b30 45ab 1731 ab2c 5731 106b 4b31
00000120: f4f7 dd30 898c 5731 f633 3731 f0ea a231
00000130: 2701 0c31 1746 e031 7c79 312f 7908 aa2e
00000140: 1c7d 9c2f 669e c830 6f90 cc30 80dd 9031
00000150: 7f22 0031 4d27 2d31 ce6c 0331 ec99 4c31
00000160: 7b58 0432 2f83 0c31 0011 9031 10cb 682f
00000170: 5988 b02e 7283 832f f486 3831 fe97 1a31
00000180: 510c 2f31 c6a0 4031 2e2b 9b31 3d55 8e31
00000190: 3cf8 f230 10a5 c930 7925 6a31 b186 2c31
000001a0: 67b3 d532 ed66 0e33 4e66 0732 a8e3 9b32
000001b0: a75e 6232 1ae7 4d33 b0ef d232 e6ae 1533
000001c0: 4214 5c33 c44a a333 0bfa 2d33 400d a933
000001d0: 6555 b833 29dc 7832 4147 1a32 9dd8 e631
000001e0: 44fe 3032 9228 3632 5858 9b32 ba56 5f33
000001f0: c543 7d33 e603 8d33 c8dc 1833 9512 9c33
00000200: 9998 bb33 6b00 1533 45f1 4032 84fc 9731
00000210: 7dfb 9932 51d1 4732 bfe8 7232 8643 9632
00000220: 1404 7833 efbc a433 0150 5c33 a621 7333
00000230: 3436 5933 f70e 5533 14f2 6533 ca00 4d32
00000240: 629d 6a32 e585 a832 9cad b632 cd6b ba32
00000250: 8ffa 3a33 7c98 6633 c1cb 2533 b2df 2a33
00000260: dbe8 a933 2c92 8433 49a9 0b33 e8fe a333
00000270: e8fa 0031 7d82 2632 44c7 9331 1d1e 0232
00000280: 9e0a 1631 e069 c931 10df 0331 e1f7 2e31
00000290: 9122 1331 3f91 0d31 fc69 af31 c357 c730
000002a0: 5702 9130 2757 0532 e7f1 4231 c6e9 c932
000002b0: 3c51 3032 1117 ba32 3678 9931 c07d f531
000002c0: d1aa 5531 2500 2a31 4bdf 1031 1cd4 7731
000002d0: 8343 d331 c425 d131 cc32 f431 3bf4 5531
000002e0: 75ba 9232 bc02 2132 319f 9531 e22e 6332
000002f0: 4658 7d31 11f0 4c31 2d60 e530 fd9d fd31
00000300: 5f0f 0d31 4af6 8d30 8fe8 b530 402f fc31
00000310: b633 de31 42a7 6232 8ef1 8931 ae0c f232
00000320: abf7 e131 218c 1231 d2e6 c131 d07b 8231
00000330: a661 9a30 3463 0131 f181 1631 3a9a 3430
00000340: cb63 0a34 c3ac 1434 5273 1b34 ab73 fe33
00000350: fa99 0934 0fe2 d933 4c47 b933 1b6f 8333
00000360: 4910 8f33 6088 8533 0762 9e33 f728 7a33
00000370: 45d5 8e33 ff30 1034 f3e5 2f34 3c2d 0934
00000380: 7ca1 1334 39bc e833 fc0f f333 ebc2 8c33
00000390: daa6 8f33 5d74 8833 1b57 b633 3907 5e33
000003a0: ef28 9533 90bc 6a33 c498 1b34 9478 3d34
000003b0: d0b8 fd33 7fb0 fc33 948f 0734 f9fe d933
000003c0: bd64 9e33 b0bd 4f33 5c67 a933 9451 4e33
000003d0: b110 6d33 ef0b be33 875d b433 2f1a 1834
000003e0: 8c42 0534 7a42 0234 f857 0d34 a905 e033
000003f0: 456b 9033 0d39 d233 f7ec 9b33 0f07 a633
2.399245e-08 9.776205e-09 2.3267404e-08 3.7462282e-08 3.565821e-08 2.3383171e-08 5.90823e-08 7.212596e-08
4.95911e-08 3.855573e-08 4.4854396e-08 2.419456e-08 1.9213061e-08 2.2999037e-08 1.1698528e-08 2.3351983e-08
2.3104013e-08 3.4981756e-08 2.6950607e-08 4.4697295e-08 4.6473282e-08 3.3109625e-08 4.4665875e-08 3.4952613e-08
1.1737224e-08 6.158013e-08 1.5756447e-08 6.951033e-09 2.6326449e-08 3.519516e-08 2.724783e-08 3.1530867e-08
3.5211304e-08 4.6395495e-08 4.2954323e-08 5.5030107e-08 4.444492e-08 3.0165467e-08 2.8570048e-08 2.4457698e-08
4.2268766e-08 2.8912156e-08 2.248608e-08 1.9090164e-08 5.084827e-08 2.1556923e-08 5.1091526e-08 3.6649805e-08
2.0409638e-08 3.7002973e-08 2.769544e-08 1.834456e-08 2.7770977e-09 2.6669908e-10 4.091705e-10 1.1774363e-09
1.4346884e-09 1.6595587e-09 1.6919872e-09 2.8082492e-09 2.2268283e-09 1.9121529e-09 2.6594427e-09 2.9417642e-09
3.473381e-09 8.696708e-10 7.0977994e-11 1.6032876e-10 5.67274e-10 2.2070747e-09 3.1312009e-09 2.9601246e-09
1.6150339e-09 3.1366503e-09 2.6659541e-09 4.74153e-09 2.0373336e-09 6.5272263e-09 1.6141216e-10 7.73221e-11
2.846513e-10 1.4596935e-09 1.4884004e-09 4.216133e-09 1.864606e-09 2.5197153e-09 1.9124857e-09 2.9773402e-09
7.703529e-09 2.044725e-09 4.1928843e-09 2.117242e-10 8.0277736e-11 2.392216e-10 2.6852236e-09 2.2496347e-09
2.5472853e-09 2.8031066e-09 4.5160027e-09 4.1424344e-09 1.767837e-09 1.4671588e-09 3.4072782e-09 2.5105857e-09
2.4878046e-08 3.3155562e-08 7.881296e-09 1.8147901e-08 1.3176453e-08 4.7940468e-08 2.4556215e-08 3.4850835e-08
5.1241166e-08 7.603879e-08 4.0507114e-08 7.872086e-08 8.583701e-08 1.44855585e-08 8.980181e-09 6.718507e-09
1.0302362e-08 1.0603019e-08 1.8084549e-08 5.200011e-08 5.896779e-08 6.566533e-08 3.5591057e-08 7.267696e-08
8.7356234e-08 3.4692146e-08 1.1230729e-08 4.423386e-09 1.7925908e-08 1.1630918e-08 1.4139174e-08 1.7493004e-08
5.774571e-08 7.671212e-08 5.1295505e-08 5.660845e-08 5.0573547e-08 4.9606538e-08 5.3538386e-08 1.193275e-08
1.3656377e-08 1.9618662e-08 2.1266537e-08 2.1702272e-08 4.353438e-08 5.368973e-08 3.860237e-08 3.978466e-08
7.912032e-08 6.1733175e-08 3.2517423e-08 7.636646e-08 1.8769075e-09 9.692141e-09 4.300917e-09 7.573843e-09
2.1833908e-09 5.8619065e-09 1.9189805e-09 2.5461235e-09 2.1410964e-09 2.0600763e-09 5.1052194e-09 1.4504099e-09
1.0550804e-09 7.761435e-09 2.836822e-09 2.3505788e-08 1.0263019e-08 2.166374e-08 4.4665525e-09 7.1447346e-09
3.1092677e-09 2.4738338e-09 2.1081685e-09 3.60638e-09 6.1485834e-09 6.086994e-09 7.1071096e-09 3.1134408e-09
1.7081428e-08 9.372055e-09 4.3545687e-09 1.3223799e-08 3.6866523e-09 2.982237e-09 1.6689278e-09 7.3812303e-09
2.0526938e-09 1.03291e-09 1.323558e-09 7.339537e-09 6.466929e-09 1.3192961e-08 4.0146864e-09 2.8178274e-08
6.5765184e-09 2.132545e-09 5.6432805e-09 3.797574e-09 1.1232728e-09 1.882836e-09 2.1901736e-09 6.570279e-10
1.2888556e-07 1.3846424e-07 1.4477453e-07 1.18488366e-07 1.2815136e-07 1.014597e-07 8.6277026e-08 6.120373e-08
6.661919e-08 6.2181016e-08 7.3752794e-08 5.8244918e-08 6.651184e-08 1.342887e-07 1.63818e-07 1.2775575e-07
1.374919e-07 1.08375794e-07 1.1318477e-07 6.5547134e-08 6.6893065e-08 6.35416e-08 8.49088e-08 5.1694972e-08
6.945799e-08 5.4653867e-08 1.4491076e-07 1.7645863e-07 1.1814848e-07 1.1766769e-07 1.2625088e-07 1.0151229e-07
7.3757725e-08 4.8368463e-08 7.888477e-08 4.8037307e-08 5.5196043e-08 8.849735e-08 8.398916e-08 1.4165629e-07
1.24108e-07 1.2131378e-07 1.3163651e-07 1.04318424e-07 6.725035e-08 9.7892645e-08 7.2608536e-08 7.731261e-08

exp_avg f4 [128]
00000000: 6f45 9c04 7982 a6b9 2d95 a0b8 ec84 adb9
00000010: 3f5c 3b3a c4a3 cc37 0400 0080 8c5d 35b8
00000020: ef84 1bb9 b3af 00ba 90f9 39b9 26d9 4aba
00000030: 37d1 d699 6c8d b639 0fb6 38ba 57d6 383a
00000040: 7f87 3cb9 6d4f 053a 809e a3ba c369 4db9
00000050: 1fe8 96b8 ba62 4eba 30e4 f639 4566 c4b9
00000060: 344e 323a 95ad a0b8 6541 81ba 3d7d 84b9
00000070: 7c1e 7ab9 1f1c 223a 7a93 5ab9 676e 5638
00000080: 98e5 9c39 085d 4339 dfd4 b737 7200 5d39
00000090: 1ea4 10ba 7131 eab8 1bc8 9f39 c4c8 203a
000000a0: 0400 0000 fb23 8a39 6c88 b939 a193 3bb4
000000b0: 544d adb8 7a2b 4c39 9f0f 8938 ff00 9bb9
000000c0: d0ad 6aba f72f 96b3 2ed1 b6b9 f4c1 1bba
000000d0: ad55 d0b7 54f3 8fba ed7d f4b9 5ac8 cdb8
000000e0: 05da b739 a362 17b6 f28c 61b9 118d 56ba
000000f0: 2da5 af39 67ae 62ba a5e2 a5ba e2aa c8b9
00000100: ed3f 09ba 51e7 d639 3a12 ffb8 05e7 22ba
00000110: 971d e6b9 fad6 643a 0ba1 c139 0400 0000
00000120: 9c1c 8eb9 0400 0000 740d c1ba a922 3107
00000130: cf0c 233a 669e f237 2a9a c7b9 e890 b4b9
00000140: f91b ddb9 093b d7b9 87c8 5d39 a069 d8b9
00000150: 2766 9e3a 302f fd39 b951 ffb9 d00f 3eb9
00000160: e154 8db9 f281 933a f416 f7b9 4de1 1f37
00000170: 4646 efb9 f546 d93a 9a99 3ab9 7c90 e6b8
00000180: dfb6 bc39 f491 31ba 9064 26ba f6b8 f130
00000190: 5f88 bd38 52f4 3a3a 7596 4bb8 e603 e034
000001a0: 6848 9db9 bb23 acb8 201f 29b9 04c4 253a
000001b0: 25d0 e339 246f 53b8 333e 003b af5b 5eb7
000001c0: f5eb 2b3a 43aa 1bba 0400 0000 e66f 19b9
000001d0: 7b68 2238 7be3 82b9 a52a 8cb7 405c e138
000001e0: f384 273a 6bb6 f4b9 0400 0000 e12c 53b9
000001f0: 6427 5039 1867 0fb9 95ac d0b8 7749 48ba
3.673919e-36 -0.00031759197 -7.657181e-05 -0.00033096166 0.00071472296 2.4394954e-05 -6e-45 -4.3240885e-05
-0.00014831474 -0.0004908994 -0.00017735944 -0.0007738046 -2.2211583e-23 0.00034819113 -0.0007046172 0.0007050982
-0.00017979553 0.0005085383 -0.001248315 -0.00019589723 -7.195793e-05 -0.0007872988 0.0004709079 -0.0003746023
0.00068018143 -7.661727e-05 -0.0009861408 -0.00025270312 -0.00023853214 0.0006184 -0.0002084504 5.1124396e-05
0.000299257 0.00018631306 2.1914426e-05 0.00021076368 -0.00055176194 -0.00011167199 0.00030475933 0.0006133432
6e-45 0.0002634822 0.00035387592 -1.7469439e-07 -8.263686e-05 0.00019471152 6.535579e-05 -0.00029564646
-0.00089522917 -6.993644e-08 -0.00034869596 -0.0005941682 -2.4835428e-05 -0.0010982552 -0.0004663313 -9.81248e-05
0.00035066917 -2.2558168e-06 -0.00021510178 -0.00081844727 0.00033501667 -0.0008647204 -0.0012656046 -0.0003827429
-0.0005235661 0.00040989605 -0.000121627425 -0.0006214234 -0.00043891065 0.0008729544 0.00036931815 6e-45
-0.00027105666 6e-45 -0.0014728741 1.3326186e-34 0.0006219865 2.8922408e-05 -0.000380711 -0.0003444024
-0.00042173246 -0.0004105198 0.00021150905 -0.00041277427 0.0012084887 0.00048291078 -0.00048698278 -0.00018125703
-0.00026956855 0.0011253937 -0.00047128613 9.529595e-06 -0.0004563799 0.0016576933 -0.00017795563 -0.00010994167
0.00035994404 -0.0006773763 -0.00063473824 1.7587627e-09 9.0376234e-05 0.00071317435 -4.8539096e-05 4.1726088e-07
-0.0002999932 -8.2082544e-05 -0.00016128691 0.0006323459 0.00043451894 -5.0409828e-05 0.0019568324 -1.3253578e-05
0.00065582927 -0.0005938152 6e-45 -0.00014632902 3.8721115e-05 -0.00024965018 -1.6709158e-05 0.00010746019
0.00063903554 -0.0004667522 6e-45 -0.00020139247 0.000198511 -0.00013675948 -9.950359e-05 -0.00076403416

exp_avg_sq f4 [128]
00000000: d51e 5434 2f9d 4a37 44a0 a836 8634 3638
00000010: 318d 7837 1ce1 a837 246b e333 48d6 9c38
00000020: 96f2 8b36 49f9 0538 dd32 d936 de4d 8238
00000030: 8bcf 0335 cbd6 5937 aada cb37 5046 b636
00000040: 7b40 9f36 fc90 a638 c1b8 3738 c37b 2338
00000050: 5550 a937 bce2 7437 2e32 ac37 093c 0439
00000060: 9be4 c836 69fe 6236 ad28 0438 5409 b137
00000070: a51a a437 69c3 4338 339c 1b37 47e2 3838
00000080: b493 7337 7572 0337 2d8c 8638 94c6 0f37
00000090: 6d4d 4d38 6ca0 3737 a077 fc36 34f3 7f38
000000a0: dbf3 9e31 37c0 7e37 d102 8c36 95de b635
000000b0: 6746 2a38 de1e e037 405d ff36 b410 be36
000000c0: 021a 5237 7fa7 c835 c5ef 2436 54a4 9136
000000d0: dc47 6638 4884 2436 08c1 b738 a072 0437
000000e0: b664 4837 8471 1137 8813 ac36 e21a f537
000000f0: bb35 4f38 3b31 b237 ce9c cd37 2349 9238
00000100: 22d4 a237 31cb 1737 4c95 2038 7281 7337
00000110: 233a 9b36 d4ca 3238 8f95 a536 6e19 4430
00000120: d9cb 0236 4f13 2b2d b6c3 a437 ca91 d835
00000130: f43b ce37 239b ab37 f36f 2137 2c08 b736
00000140: 1c69 bf38 33da 2339 8bd1 2e37 6831 1a39
00000150: a7a8 0f38 fd84 ca37 8327 9738 67ea 8037
00000160: 5c39 0937 a1a8 2f38 dfce 0138 93b8 1436
00000170: 63a4 8337 7790 3d38 31c3 2938 daa4 e037
00000180: 4782 4237 7c3e c237 5a94 8537 515e 7831
00000190: b485 f737 bd48 5b38 30fc a636 1b2f 6d37
000001a0: e1b8 6d36 9f35 a536 c898 3938 164f 1a38
000001b0: e580 c038 f84b 2337 94d7 3338 c7dc 8036
000001c0: ddde 5737 93b5 cf36 8b1f 2031 a653 b737
000001d0: a7f4 8b37 5d29 4e38 eb72 2139 76ea 3437
000001e0: b428 c337 ce0a 8537 6ecb 1331 4155 6937
000001f0: dfd8 8438 f941 2035 ea3d b937 73d3 7637
1.9755255e-07 1.2076735e-05 5.0254475e-06 4.3441098e-05 1.4814826e-05 2.0131985e-05 1.059e-07 7.478573e-05
4.1707635e-06 3.1941836e-05 6.473025e-06 6.213387e-05 4.910332e-07 1.2984218e-05 2.430131e-05 5.432208e-06
4.746076e-06 7.942502e-05 4.3802665e-05 3.897749e-05 2.0183777e-05 1.4596324e-05 2.0527365e-05 0.00012610866
5.9870777e-06 3.382471e-06 3.1509135e-05 2.1104388e-05 1.956273e-05 4.6673613e-05 9.275088e-06 4.4079756e-05
1.45183185e-05 7.834858e-06 6.415728e-05 8.569699e-06 4.8947917e-05 1.0945001e-05 7.5241114e-06 6.102324e-05
4.6261284e-09 1.5184333e-05 4.172653e-06 1.3624837e-06 4.0596726e-05 2.6717255e-05 7.610448e-06 5.6643858e-06
1.2523031e-05 1.4949909e-06 2.4577469e-06 4.340467e-06 5.4903197e-05 2.4514902e-06 8.762075e-05 7.894501e-06
1.1944378e-05 8.669103e-06 5.128273e-06 2.9218794e-05 4.9402686e-05 2.1242178e-05 2.4510922e-05 6.975445e-05
1.9410687e-05 9.047611e-06 3.8286016e-05 1.45140675e-05 4.626128e-06 4.2627405e-05 4.934794e-06 7.134052e-10
1.9490165e-06 9.724512e-12 1.9641458e-05 1.6135684e-06 2.4585031e-05 2.045703e-05 9.622413e-06 5.4547763e-06
9.127168e-05 0.00015626177 1.0419996e-05 0.0001470499 3.4250927e-05 2.4142204e-05 7.207601e-05 1.5367941e-05
8.179191e-06 4.18803e-05 3.094866e-05 2.2161155e-06 1.5692965e-05 4.5195655e-05 4.0474526e-05 2.6779646e-05
1.1593634e-05 2.3155699e-05 1.5923917e-05 3.6142362e-09 2.9506955e-05 5.228141e-05 4.976544e-06 1.4137268e-05
3.5423366e-06 4.9236255e-06 4.4249726e-05 3.6790116e-05 9.179282e-05 9.733245e-06 4.28777e-05 3.840399e-06
1.2866888e-05 6.1902188e-06 2.3300994e-09 2.1854252e-05 1.6684016e-05 4.915275e-05 0.00015396967 1.0783426e-05
2.3264765e-05 1.5859867e-05 2.1506952e-09 1.3907732e-05 6.334646e-05 5.970065e-07 2.208255e-05 1.47119745e-05
