ppo_2layer_2/ppo_agent_episode_10200.pth (torch, 596662 bytes, 21 tensors)

fc1.weight f4 [128, 260]
0.098380856 -0.13175549 0.1404945 -0.07287103 -0.07963345 -0.06435598 -0.012038794 0.13552706
0.06967893 0.029815968 0.17423812 0.021497495 -0.16461086 0.045022868 -0.20209923 0.0047924947
-0.078869656 -0.029964974 -0.026541954 0.032569923 0.19155225 0.15626091 -0.09027392 -0.16601343
-0.12151396 0.06681281 0.08692191 -0.057585187 -0.051314984 -0.026195368 0.11209761 0.029121859
-0.046999555 0.1129627 0.15991545 -0.02155396 0.005350679 -0.0039317627 -0.055058125 0.01974497
-0.15967436 -0.03510225 0.08559188 -0.059958834 0.041688055 -0.09173787 0.10741224 -0.116458006
-0.1844456 0.010489223 -0.10909404 -0.16891871 0.124489725 0.030503158 -0.053650703 0.18837705
0.052927807 -0.04315225 -0.016987808 -0.06862181 -0.08779848 0.01617589 0.050019387 0.051646695
0.054032125 0.03599333 0.04284586 0.004725221 -0.14077546 0.029009065 -0.0065726526 0.033415765
-0.04484446 0.060056295 0.018919516 0.0048589082 -0.08560888 0.039271634 -0.023872515 -0.01450223
0.040436514 -0.16155995 -0.104090504 -0.000188896 -0.101700746 -0.014137782 -0.031611864 -0.016370382
0.011580951 -0.060801927 0.02211302 0.10402343 0.023674836 -0.10412365 0.028592728 -0.0074150995
-0.045949828 0.064250715 0.028087934 -0.013337085 -0.009686435 -0.070025854 -0.042475495 -0.060144514
-0.08601591 0.064319424 -0.1471804 0.15506694 0.14089859 0.05935325 0.010372475 -0.12216256
0.028904457 -0.15409073 -0.07724985 0.02740556 0.21559231 -0.10190238 0.14925295 -0.1410397
-0.19964209 0.1107688 -0.107508376 -0.088867165 0.16301991 0.048249297 -0.003664938 0.05339878
0.11497794 -0.12605818 0.017375011 0.024118235 -0.059360206 -0.14884908 0.13603432 -0.08591146
0.036740717 0.022828273 -0.2551654 0.029044254 -0.033759143 0.017154071 -0.19601971 -0.13471337
0.15061562 0.09401301 0.12885872 -0.013954715 0.11192795 0.12547873 -0.12110624 -0.11953368
0.07333273 -0.127271 -0.005382378 0.08187071 -0.08113179 0.035099443 -0.27981922 0.012937598
-0.08365053 0.055780347 -0.0029436012 -0.060240544 -0.02002812 -0.025898544 0.09957102 0.018618576
-0.059653692 0.017992973 -0.0113668805 0.17570424 0.08964661 0.14383985 0.12954143 0.07986237
0.090490654 -0.04966404 -0.16625988 -0.024710601 0.06369765 0.06831857 -0.06021062 0.034645673
-0.026656795 -0.0066286 0.003218757 0.040960435 -0.00022794689 -0.0007480279 -0.078773215 0.108774096
0.0054403353 -0.03189804 -0.025256107 0.08830415 -0.30004668 0.013483109 -0.026778493 -0.09567654
-0.060090788 -0.030579768 0.008947329 -0.085944906 -0.02184252 -0.030840114 0.022686515 -0.0450971
0.061760854 0.003593101 -0.08791819 -0.12176888 0.03261105 0.007876418 -0.04152907 -0.056819126
-0.13546324 0.023801839 0.010426366 -0.064734615 -0.17756186 -0.07278096 0.066014625 -0.08308183
0.059477676 -0.17161004 0.114660256 -0.070912294 -0.29078677 -0.07421953 0.0043375297 0.043006603
-0.030926729 -0.009076038 0.051872913 0.054182608 0.0659327 -0.013867226 -0.13769375 -0.08494994
-0.05961058 -0.07016862 0.049936026 -0.05095677 -0.054902647 0.055076174 0.13586555 0.008904438
0.093342364 -0.114885576 -0.039068792 -0.020988367 -0.22876675 -0.0097374795 0.005426441 0.0020972828
00000000: e77b c93d e9ea 06be cadd 0f3e 683d 95bd
00000010: dd16 a3bd 11cd 83bd 5d3e 45bc 9bc7 0a3e
00000020: d4b3 8e3d 9e40 f43c 7a6b 323e 841b b03c
00000030: c08f 28be e669 383d 1af3 4ebe 5c0a 9d3b
00000040: 6a86 a1bd 1b79 f5bc 836e d9bc 0a68 053d
00000050: 4626 443e dc02 203e 88e1 b8bd 6dff 29be
00000060: 50dc f8bd 28d5 883d 1d04 b23d 72de 6bbd
00000070: a92f 52bd ab97 d6bc 6f93 e53d f790 ee3c
00000080: 9b82 40bd fd58 e73d e0c0 233e ee91 b0bc
00000090: c054 af3b 04d6 80bb a184 61bd 34c0 a13c
000000a0: ad81 23be 60c7 0fbd cc4a af3d 6597 75bd
000000b0: 18c1 2a3d 10e1 bbbd f3fa db3d 8981 eebd
000000c0: 4fdf 3cbe fdda 2b3c b26c dfbd 07f9 2cbe
000000d0: 78f4 fe3d c2e1 f93c d7c0 5bbd eae5 403e
000000e0: d4ca 583d 6ac0 30bd 042a 8bbc 9789 8cbd
000000f0: b1cf b3bd 4d83 843c 21e1 4c3d 7c8b 533d
00000100: ca50 5d3d be6d 133d 247f 2f3d 07d6 9a3b
00000110: 7127 10be 6ba4 ed3c 685f d7bb f8de 083d
00000120: d3ae 37bd 97fd 753d 1afd 9a3c 7a37 9f3b
00000130: b553 afbd 4bdb 203d 4b90 c3bc c39a 6dbc
00000140: c2a0 253d f96f 25be 672d d5bd 6212 46b9
00000150: 7b48 d0bd 28a2 67bc 717b 01bd 2e1b 86bc
00000160: 07be 3d3c 710b 79bd 5d26 b53c 3c0a d53d
00000170: bbf1 c13c c83e d5bd 4c3b ea3c 5dfa f2bb
00000180: e335 3cbd e195 833d ab18 e63c ca83 5abc
00000190: dab3 1ebc b769 8fbd c9fa 2dbd 185a 76bd
000001a0: 1c29 b0bd e7b9 833d 75b6 16be dec9 1e3e
000001b0: b847 103e 651c 733d 50f1 293c 5d30 fabd
000001c0: 0ac9 ec3c f6c9 1dbe 2b35 9ebd a081 e03c
000001d0: 3bc4 5c3e 32b2 d0bd c4d5 183e b66c 10be
000001e0: fa6e 4cbe c1da e23d 5a2d dcbd fdff b5bd
000001f0: b1ee 263e 0ea1 453d 752f 70bb aeb8 5a3d
00000200: 8e79 eb3d 6515 01be 0a56 8e3c 9b93 c53c
00000210: b023 73bd e56b 18be 954c 0b3e 59f2 afbd
00000220: 6f7d 163d 5c02 bb3c 0aa5 82be 37ee ed3c
00000230: 0747 0abd b286 8c3c 64b9 48be 4df2 09be
00000240: fb3a 1a3e e589 c03d 8af3 033e 51a2 64bc
00000250: 7b3a e53d 7f7d 003e 8c06 f8bd 13ce f4bd
00000260: 782f 963d 5453 02be a95e b0bb d5ab a73d
00000270: 6d28 a6bd 6fc4 0f3d 7744 8fbe 38f8 533c
00000280: f850 abbd ef79 643d 6fe9 40bb cabe 76bd
00000290: 0312 a4bc 2f29 d4bc e4eb cb3d fc85 983c
000002a0: 6e57 74bd 0066 933c 273c 3abc d0eb 333e
000002b0: a498 b73d c14a 133e 82a6 043e e28e a33d
000002c0: 2a53 b93d 856c 4bbd 0840 2abe e36d cabc
000002d0: ea73 823d 9bea 8b3d 699f 76bd 9fe8 0d3d
000002e0: 5a5f dabc ba34 d9bb c8f1 523b 21c6 273d
000002f0: 0705 6fb9 4d17 44ba da53 a1bd f4c4 de3d
00000300: d744 b23b 85a7 02bd e5e5 cebc ced8 b43d
00000310: b89f 99be 42e8 5c3c 925e dbbc 10f2 c3bd
00000320: c221 76bd 6c82 fabc d197 123c e203 b0bd
00000330: 16ef b2bc 68a4 fcbc 12d9 b93c bdb7 38bd
00000340: f3f8 7c3d 3b7a 6b3b 740e b4bd f661 f9bd
00000350: 2a93 053d 170c 013c 631a 2abd 2cbb 68bd
00000360: e0b6 0abe 13fc c23c 59d3 2a3c 9593 84bd
00000370: c7d2 35be 2f0e 95bd ad32 873d ce26 aabd
00000380: dd9e 733d 8bba 2fbe ffd2 ea3d 773a 91bd
00000390: 01e2 94be 6900 98bd d621 8e3b b127 303d
000003a0: 0d5a fdbc aab3 14bc b178 543d 95ee 5d3d
000003b0: b907 873d 5d33 63bc 97ff 0cbe 3cfa adbd
000003c0: 392a 74bd 91b4 8fbd b889 4c3d 0cb8 50bd
000003d0: 99e1 60bd 8e97 613d 5720 0b3e ebe3 113c
000003e0: 482a bf3d 2149 ebbd 9906 20bd ccef abbc
000003f0: d541 6abe f389 1fbc 49d0 b13b 9172 093b

fc1.bias f4 [128]
-0.008396267 -0.012951591 0.009238661 -0.008528435 0.059214886 -0.015749611 -0.042857118 0.057815943
-0.024578178 0.021202493 0.06922883 -0.020414539 -0.108354434 -0.001638004 0.07069173 0.027804472
-0.05290069 -0.03332586 -0.054488245 0.03501969 0.008081431 -0.057067085 0.0636475 -0.021359714
0.0730019 -0.09407586 -0.051951334 0.10929282 -0.09506294 -0.04025926 0.07679156 0.08681369
-0.029812708 0.030925747 -0.05277391 -0.021312729 0.0152888205 -0.023093397 -0.010885891 -0.030750573
0.06506232 0.05666389 0.03273389 0.0503187 0.072365336 0.054890916 -0.037313234 0.06376166
-0.04640154 -0.05569809 0.04786124 0.06489061 -0.019639071 -0.008007363 0.04544454 -0.016254632
-0.021975918 0.03775723 0.07064683 0.0040388783 -0.017815633 -0.037137568 0.0014109233 0.05191426
-0.028604161 -0.010607705 0.021628037 0.017869553 0.011642282 -0.0033140809 -0.009704151 0.025860252
-0.016378127 -0.08427227 0.0016162854 -0.06270851 0.006602814 0.0008553573 -0.0010404595 0.043765496
-0.095877126 0.027518388 0.094451934 -0.04674292 0.08289566 -0.054758 -0.03632622 -1.4778885e-05
-0.03241384 0.041069165 0.027312797 0.07153764 -0.0038597202 -0.010115276 0.0006539688 -0.06887762
0.014572509 0.06763194 -0.015048959 -0.086196505 0.03847587 0.053692333 -0.057107624 -0.023299148
-0.0025042314 -0.000742347 0.012902503 0.012576999 0.010866635 -0.012177256 0.07023866 0.059438586
0.040255334 0.025671706 -0.0060621025 0.09495954 -0.059802707 -0.0556039 0.005791797 0.05604429
-0.012422418 0.022028195 0.019025495 -0.04082621 0.06257778 0.054177057 -0.0034015847 0.02162641
00000000: 7f90 09bc e932 54bc c15d 173c d9ba 0bbc
00000010: 4f8b 723d 5405 81bc f28a 2fbd 69d0 6c3d
00000020: 2d58 c9bc dab0 ad3c d8c7 8d3d 643c a7bc
00000030: eee8 ddbd 4bb2 d6ba d3c6 903d 34c6 e33c
00000040: 65ae 58bd b280 08bd 112f 5fbd ce70 0f3d
00000050: fa67 043c 2dbf 69bd 9f59 823d 91fa aebc
00000060: 0582 953d d8aa c0bd ecca 54bd ead4 df3d
00000070: 5cb0 c2bd e5e6 24bd e544 9d3d 60cb b13d
00000080: c839 f4bc fe57 fd3c 7529 58bd 0898 aebc
00000090: f67d 7a3c 5d2e bdbc bc5a 32bc a0e8 fbbc
000000a0: 653f 853d 6518 683d f913 063d fb1a 4e3d
000000b0: 4734 943d 4cd5 603d c3d5 18bd 7995 823d
000000c0: 8b0f 3ebd ae23 64bd 260a 443d 5ee5 843d
000000d0: 1ee2 a0bc 5131 03bc 0e24 3a3d 6f28 85bc
000000e0: d706 b4bc 53a7 1a3d 49af 903d 9158 843b
000000f0: 17f2 91bc 901d 18bd bbee b83a 0ca4 543d
00000100: 4653 eabc f1cb 2dbc 482d b13c 2b63 923c
00000110: 45bf 3e3c 0d31 59bb 29fe 1ebc e1d8 d33c
00000120: 6c2b 86bc f196 acbd 8ad9 d33a 526d 80bd
00000130: 6b5c d83b 0f3a 603a 0760 88ba 7343 333d
00000140: 3a5b c4bd 3e6e e13c 0470 c13d 8175 3fbd
00000150: 33c5 a93d ed49 60bd cdca 14bd d4f2 77b7
00000160: 60c4 04bd 2438 283d 16bf df3c 5482 923d
00000170: 5cf3 7cbb 8bba 25bc 1a6f 2b3a b60f 8dbd
00000180: 88c1 6e3c 9d82 8a3d e98f 76bc cb87 b0bd
00000190: e098 1d3d 7eec 5b3d afe9 69bd dbdd bebc
000001a0: 081e 24bb 109a 42ba 0565 533c c20f 4e3c
000001b0: f809 323c 1d83 47bc 49d9 8f3d e075 733d
000001c0: c7e2 243d 784d d23c 9aa4 c6bb 267a c23d
000001d0: aff3 74bd eac0 63bd 1dc9 bd3b b38e 653d
000001e0: 6687 4bbc 7974 b43c 5bdb 9b3c 6239 27bd
000001f0: c728 803d c3e8 5d3d 1fed 5ebb de29 b13c

fc2.weight f4 [64, 128]
-0.18596795 0.14538759 -0.07291498 -0.02518689 -0.058453005 -0.05317325 -0.34928316 0.046458848
0.023147754 0.074167766 -0.115114994 -0.055406526 -0.089402534 0.008777657 0.07033348 0.16860609
0.050091147 0.07407745 -0.039455764 0.14820634 -0.3090219 0.031726565 0.04614076 0.111442015
0.06292468 0.0398633 -0.296263 -0.1671811 -0.092816584 0.078592755 0.021069758 -0.17731337
0.12313922 -0.39244416 0.05596331 -0.11407002 0.011226818 0.05786455 0.059165 -0.11373103
-0.28065053 0.14458694 -0.18735948 -0.2752401 -0.12800437 -0.034483243 0.0014542426 0.13045593
-0.3194935 0.068834804 0.0599943 -0.1309139 0.014174346 -0.03646583 0.049784575 -0.037302583
0.16967687 -0.01947585 0.138505 0.013755068 0.021038128 0.14733967 -0.08707707 -0.14920959
-0.37309316 -0.27266183 -0.20735893 0.01826382 -0.049291886 0.07682425 0.06903795 -0.00256342
0.025928985 -0.09234207 -0.008317276 -0.105304815 0.04788664 -0.18943873 -0.07281741 -0.031347647
-0.1074376 0.11978302 0.0003337536 0.036404 0.031500254 -0.16201691 0.011294094 0.22050563
0.22929947 -0.0591719 0.05086313 0.048928626 0.119431466 0.021236565 0.09395732 0.010298113
-0.025032222 -0.20773597 0.10230656 -0.05251367 -0.23702575 -0.1678256 -0.17300056 0.07687499
-0.18368502 0.090539485 0.011965634 -0.2611342 0.113032214 0.14851338 0.15301795 0.10890201
0.01131121 -0.19194022 -0.023148516 -0.073694706 -0.1745031 0.008175893 -0.0077880085 0.065822534
-0.04660744 -0.15162864 0.024161432 -0.048573963 0.037746135 -0.055885404 -0.19219714 -0.067958884
-0.057012744 0.25323313 -0.044044122 0.20003518 -0.016107699 -0.21420038 0.09693756 -0.027704842
0.31453288 0.05278819 -0.07754525 0.0016725085 0.07561552 0.062190622 0.08122356 -0.02176916
-0.013507693 -0.00073573407 0.11536582 0.1250305 -0.22214177 -0.0056105624 0.01572749 -0.07303088
-0.029047152 0.19294208 -0.123127736 -0.058381014 -0.20522636 0.08790448 -0.041188344 -0.059567746
0.17851512 -0.106767915 0.04477572 0.06960932 0.13706435 -0.08993825 0.13767923 -0.1299371
-0.1006877 -0.0030021318 -0.16543064 -0.29627746 0.081617184 -0.1084318 0.05277547 -0.0917676
-0.1799047 0.08738865 0.043715216 -0.012582017 -0.037766162 0.08460416 -0.0059572407 0.13279311
-0.013242416 -0.0043990626 -0.10321144 -0.27157053 0.06598569 0.07738069 -0.1543555 -0.07298693
-0.12723847 0.23048589 -0.18364304 -0.013419153 -0.042197432 -0.23529918 -0.017969381 -0.06408809
-0.10638638 0.043499652 -0.24469166 0.010622273 0.14597964 0.03465688 0.15161775 -0.051363613
-0.2234926 0.011214825 -0.07889136 0.14009109 0.04166383 -0.01074028 0.10623505 0.040370584
0.1284557 -0.14038678 0.13103396 0.09438774 0.12859023 0.05910849 -0.10286238 -0.10833844
-0.1833492 -0.10718604 -0.049519744 -0.0021710042 -0.20263942 -0.29034472 -0.051155906 0.08641723
-0.2307865 0.10639808 0.045283966 -0.12107081 0.00389739 -0.07204102 -0.11313842 0.09073959
-0.046678197 0.09349015 -0.12197201 0.04320676 -0.13222797 0.13590302 0.09574623 0.20707372
0.21172847 -0.20557494 0.17055184 0.1728776 -0.085377365 0.09763596 -0.1837832 -0.0070134667
00000000: 626e 3ebe 7ce0 143e 7354 95bd bd54 cebc
00000010: 6b6c 6fbd 32cc 59bd 3ed5 b2be a24b 3e3d
00000020: 5ca0 bd3c 45e5 973d 69c1 ebbd f4f1 62bd
00000030: ad18 b7bd 29d0 0f3c 000b 903d 13a7 2c3e
00000040: 602c 4d3d ebb5 973d 5e9c 21bd 67c3 173e
00000050: 1e38 9ebe b7f3 013d 18fe 3c3d b63b e43d
00000060: a8de 803d b347 233d c9af 97be 8631 2bbe
00000070: 9f16 bebd 3df5 a03d 7c9a ac3c a391 35be
00000080: 6a30 fc3d 71ee c8be c939 653d 8b9d e9bd
00000090: b0f0 373c 6103 6d3d 0057 723d d0eb e8bd
000000a0: 6db1 8fbe 990e 143e 2adb 3fbe 45ec 8cbe
000000b0: 9413 03be 4d3e 0dbd 499c be3a 3d96 053e
000000c0: a794 a3be 43f9 8c3d 95bc 753d 4b0e 06be
000000d0: 843b 683c 325d 15bd e9ea 4b3d 98ca 18bd
000000e0: c6bf 2d3e d18b 9fbc 41d4 0d3e f05c 613c
000000f0: 2758 ac3c 36e0 163e 7655 b2bd 66ca 18be
00000100: 1106 bfbe 559a 8bbe e655 54be 029e 953c
00000110: 4ae6 49bd 0856 9d3d c563 8d3d 0dff 27bb
00000120: 0669 d43c d71d bdbd 2f45 08bc 0daa d7bd
00000130: c824 443d 3afc 41be 4b21 95bd 6466 00bd
00000140: 3f08 dcbd cd50 f53d a6fb ae39 5c1c 153d
00000150: 6906 013d c3e7 25be dd0a 393c 3acc 613e
00000160: 7bcd 6a3e 3c5e 72bd db55 503d 6269 483d
00000170: 7c98 f43d 4ef8 ad3c b26c c03d 6bb9 283c
00000180: 6010 cdbc bdb8 54be 1a86 d13d 9318 57bd
00000190: e1b6 72be 79da 2bbe 0f27 31be a270 9d3d
000001a0: ed17 3cbe c46c b93d 820b 443c 62b3 85be
000001b0: 6f7d e73d e413 183e bdb0 1c3e 0408 df3d
000001c0: a752 393c fa8b 44be f5a1 bdbc 40ed 96bd
000001d0: f1b0 32be 2ef4 053c 8d32 ffbb f7cd 863d
000001e0: 71e7 3ebd 8a44 1bbe 32ee c53c 7ef5 46bd
000001f0: b19b 1a3d 18e8 64bd 54cf 44be 072e 8bbd
00000200: 3286 69bd c6a7 813e 9c67 34bd 06d6 4c3e
00000210: 4bf4 83bc 5857 5bbe 3387 c63d 44f5 e2bc
00000220: 740a a13e 6e38 583d 0bd0 9ebd 1338 db3a
00000230: 4fdc 9a3d 98bb 7e3d 8a58 a63d 3d55 b2bc
00000240: 5f4f 5dbc 47de 40ba ea44 ec3d ff07 003e
00000250: 2279 63be cfd8 b7bb f0d6 803c 3791 95bd
00000260: 4bf4 edbc 9c92 453e 652a fcbd ee20 6fbd
00000270: dc26 52be 4407 b43d 1cb5 28bd 4ffd 73bd
00000280: abcc 363e 23a9 dabd bf66 373d 558f 8e3d
00000290: 995a 0c3e 8c31 b8bd c9fb 0c3e 3b0e 05be
000002a0: 5a35 cebd 6abf 44bb a666 29be aeb1 97be
000002b0: e926 a73d 7e11 debd 172b 583d a7f0 bbbd
000002c0: f038 38be d2f8 b23d ba0e 333d ce24 4ebc
000002d0: b1b0 1abd f244 ad3d f534 c3bb ebfa 073e
000002e0: b8f6 58bc 0326 90bb 8560 d3bd 4b0b 8bbe
000002f0: 8123 873d c479 9e3d 5e0f 1ebe 2c7a 95bd
00000300: cd4a 02be 7e04 6c3e ec0c 3cbe 02dc 5bbc
00000310: 37d7 2cbd 45f2 70be 8634 93bc 9e40 83bd
00000320: 1ae1 d9bd b12c 323d 7390 7abe 0b09 2e3c
00000330: b07b 153e 5ff4 0d3d af41 1b3e a762 52bd
00000340: 3edb 64be 63be 373c cb91 a1bd 0a74 0f3e
00000350: b1a7 2a3d 00f8 2fbc c391 d93d a05b 253d
00000360: e489 033e 8dc1 0fbe c42d 063e 5c4e c13d
00000370: 28ad 033e be1b 723d 83a9 d2bd 8be0 ddbd
00000380: e5bf 3bbe 5b84 dbbd 37d5 4abd 6847 0ebb
00000390: b580 4fbe 10a8 94be db88 51bd 84fb b03d
000003a0: 4c53 6cbe 3de7 d93d ae7b 393d f9f3 f7bd
000003b0: 5b6b 7f3b 3e8a 93bd 1eb5 e7bd aed5 b93d
000003c0: a331 3fbd c477 bf3d 76cc f9bd 92f9 303d
000003d0: c566 07be 292a 0b3e 9916 c43d 220b 543e
000003e0: 59cf 583e 3d82 52be 24a5 2e3e d306 313e
000003f0: 54da aebd 5df5 c73d aa31 3cbe 39d1 e5bb

fc2.bias f4 [64]
-0.033120908 0.037801255 0.08703771 0.08856292 0.054320198 0.12832676 -0.13612328 -0.042724863
-0.050007913 -0.032034848 0.0036233438 -0.119661085 0.020507308 0.04019168 -0.068660244 0.10257504
-0.0015722485 -0.0565215 -0.0055651683 0.13261582 0.038342208 -0.12451393 0.040519018 0.05344524
0.13447644 -0.031044275 0.11265084 -0.05322055 0.052551072 0.03418632 -0.005713883 -0.09136505
0.044724535 -0.0880236 -0.080307424 -0.11416628 -0.056506447 0.22608246 0.0068501504 0.006910081
-0.13868885 0.02695294 -0.09692972 -0.15838316 0.038025405 -0.034158982 -0.11782223 -0.009805544
-0.10845713 0.015196295 -0.09543708 0.19133787 -0.026128907 0.01925407 -0.081044056 -0.003759789
-0.052305818 -0.10119941 0.07532616 -0.08151872 0.058545265 0.106796905 0.08759494 0.06140528
00000000: caa9 07bd 7dd5 1a3d d440 b23d 7a60 b53d
00000010: db7e 5e3d 1768 033e e763 0bbe 4400 2fbd
00000020: 19d5 4cbd f936 03bd 9f75 6d3b df10 f5bd
00000030: f1fe a73c 08a0 243d be9d 8cbd dd12 d23d
00000040: e813 ceba 1783 67bd 045c b6bb 71cc 073e
00000050: b80c 1d3d 2901 ffbd 45f7 253d 65e9 5a3d
00000060: 31b4 093e 9050 febc 7cb5 e63d cbfd 59bd
00000070: cb3f 573d f406 0c3d 863b bbbb 991d bbbd
00000080: 1331 373d b845 b4bd 3878 a4bd 03d0 e9bd
00000090: 4e73 67bd 2982 673e 3a77 e03b f66d e23b
000000a0: 7304 0ebe 69cc dc3c 1783 c6bd 322f 22be
000000b0: 87c0 1b3d 4aea 0bbd c84c f1bd 6fa7 20bc
000000c0: c61e debd e2f9 783c 8474 c3bd 13ee 433e
000000d0: 4a0c d6bc b6ba 9d3c 6dfa a5bd cb66 76bb
000000e0: a03e 56bd a341 cfbd 9a44 9a3d 49f3 a6bd
000000f0: 29cd 6f3d 56b8 da3d fa64 b33d 1a84 7b3d

policy_head.weight f4 [110, 64]
-0.4254913 0.19842634 -0.1797854 -0.031403452 -0.12595396 -0.11334049 0.09536647 0.1049809
0.27643844 -0.015512484 -0.037892707 0.14141035 0.13738927 0.051325954 0.09278423 -0.41266993
-0.14120564 -0.1886587 -0.13772894 0.16239421 -0.641866 -0.29700437 0.0306291 0.19025052
-0.3689201 -0.15855962 -0.871651 -0.1494993 0.095562704 -0.21918622 0.23701952 -0.035229284
0.0736291 -0.030701563 0.16796711 -0.10161473 0.11825236 0.0397983 -0.13571914 -0.065851085
0.10123877 0.14613995 0.05727041 0.111515425 0.30054885 -0.16262439 -0.12969199 -0.08842587
0.14085698 0.19234237 0.015204562 0.011643219 0.1379318 -0.017598802 0.098428465 -0.09675157
0.045516677 0.33287454 -0.15900654 0.0371085 0.24722423 -0.15157957 0.16290161 0.14372014
-0.39306197 0.09412706 -0.08225502 -0.084698975 -0.07102191 -0.20820604 0.12272875 0.080267966
0.12286226 0.13516694 -0.06643318 0.14664686 0.2730074 -0.06259478 0.22687158 -0.39251894
-0.022413118 0.023364602 -0.07473333 0.09022374 -0.53490174 -0.14812177 0.20635462 0.23862725
-0.3324828 -0.095687926 -0.5726425 0.017448263 0.27159837 0.006106643 0.19158216 0.03863497
0.08068464 0.07184653 0.16266775 -0.02520833 0.213043 0.052129366 -0.3500376 0.0075022224
0.17806602 0.12028794 -0.0002808238 0.13770811 0.3631725 -0.115820885 -0.15317112 -0.19456181
-0.055497028 0.21977286 -0.001549151 -0.16638072 0.07912103 0.082639344 0.09051215 -0.15724026
0.13472381 0.27242437 -0.1959934 0.050433103 0.2221405 -0.14825626 0.10895541 0.23546539
0.3260333 -0.13030487 0.1263951 0.029415859 -0.11408406 -0.09515459 -0.16135457 0.1623359
0.34092572 0.113676436 0.250239 0.025874732 -0.04185897 -0.03485968 -0.029310733 0.124282576
0.12038748 0.21524478 -0.006697945 -0.2420514 -0.0852865 0.019457597 -0.121908925 -0.13278049
0.12667035 0.14058296 0.17931612 0.17514712 -0.02185577 0.27297205 -0.11917046 0.118133575
-0.07472744 -0.12587674 0.14124918 0.22331402 0.16932511 -0.2787094 0.21174671 0.026223792
0.2237734 -0.09746377 -0.04637695 0.26691315 -0.17570843 -0.12048235 -0.09828221 0.20837732
0.31620675 0.22194009 0.28044888 -0.28200763 -0.061630063 -0.265083 0.047990523 -0.28093398
0.30529726 -0.2631025 -0.15684247 0.20192745 0.17783423 -0.22991297 -0.30431762 0.01948954
-0.11137283 0.19354908 -0.2930671 0.15838598 -0.20833845 -0.070385605 -0.1590503 0.44569108
0.32578328 0.36449367 0.2908025 0.064690664 0.012784924 0.114418745 0.055659443 0.03515611
0.42230147 0.43261525 -0.13096556 -0.19378033 -0.08139905 0.15580672 0.025558252 -0.0038227509
-0.2601059 -0.09420366 -0.24541809 0.22242092 -0.07960671 -0.28109476 -0.04257325 -0.013306086
-0.27220324 0.31043124 0.4479173 0.22215085 0.4557485 -0.76924187 -0.18474649 -0.36678475
0.44612053 0.11956141 0.05346994 0.33523226 0.22343169 0.114328705 0.3148021 -0.11031089
0.33442956 0.37950438 0.30741057 -0.35390097 -0.023624657 0.15891844 0.4246628 -0.0018134847
0.3430958 0.3286474 -0.088573836 0.12431469 0.22670276 -0.006553462 0.02930068 -0.22594841
00000000: ffd9 d9be 4630 4b3e aa19 38be e8a0 00bd
00000010: 13fa 00be 0f1f e8bd 7f4f c33d 3a00 d73d
00000020: 5789 8d3e 1328 7ebc 6235 1bbd e0cd 103e
00000030: c6af 0c3e 2a3b 523d a905 be3d 7949 d3be
00000040: 3698 10be bf2f 41be d108 0dbe ab4a 263e
00000050: 5551 24bf f510 98be e1e9 fa3c 08d1 423e
00000060: 18e3 bcbe 745d 22be 8524 5fbf 5816 19be
00000070: 61b6 c33d 5a72 60be 3fb5 723e 954c 10bd
00000080: dbca 963d d881 fbbc 92ff 2b3e 621b d0bd
00000090: 4b2e f23d 8b03 233d f5f9 0abe efdc 86bd
000000a0: 4656 cf3d b6a5 153e 6194 6a3d 3362 e43d
000000b0: 8ae1 993e 0287 26be facd 04be 9f18 b5bd
000000c0: d03c 103e 66f5 443e 8e1c 793c 33c3 3e3c
000000d0: fe3d 0d3e 5d2b 90bc dd94 c93d b025 c6bd
000000e0: b26f 3a3d 886e aa3e 9cd2 22be 15ff 173d
000000f0: 5928 7d3e ad37 1bbe aecf 263e 5f2b 133e
00000100: 6b3f c9be b0c5 c03d 5275 a8bd a876 adbd
00000110: ef73 91bd f733 55be 3659 fb3d 8863 a43d
00000120: 359f fb3d 3469 0a3e 1e0e 88bd 982a 163e
00000130: a0c7 8b3e b131 80bd 0651 683e 3ef8 c8be
00000140: b79b b7bc 1f67 bf3c ca0d 99bd 39c7 b83d
00000150: 52ef 08bf 3cad 17be a04e 533e b45a 743e
00000160: 303b aabe 08f8 c3bd b398 12bf a9ef 8e3c
00000170: f10e 8b3e 3c1a c83b 1d2e 443e b43f 1e3d
00000180: fd3d a53d 4624 933d 6092 263e b381 cebc
00000190: f227 5a3e 9a85 553d 2138 b3be 34d5 f53b
000001a0: f056 363e 8659 f63d 883b 93b9 5b03 0d3e
000001b0: bff1 b93e 8033 edbd e4d8 1cbe 363b 47be
000001c0: da50 63bd 230c 613e e20c cbba b55f 2abe
000001d0: 350a a23d d13e a93d 6f5e b93d 9703 21be
000001e0: 0af5 093e 357b 8b3e 7eb2 48be f192 4e3d
000001f0: cd78 633e 7dd0 17be 0424 df3d d71d 713e
00000200: d6ed a63e a46e 05be b86d 013e 87f9 f03c
00000210: e7a4 e9bd 69e0 c2bd 223a 25be 623b 263e
00000220: d18d ae3e 31cf e83d 541f 803e 3ff7 d33c
00000230: 5074 2bbd 06c9 0ebd 101d f0bc dd87 fe3d
00000240: b68d f63d 2169 5c3e 6f7a dbbb 52dc 77be
00000250: b0aa aebd 8a65 9f3c 63ab f9bd 9cf7 07be
00000260: dfb5 013e fbf4 0f3e a59e 373e c459 333e
00000270: df0a b3bc fec2 8b3e a40f f4bd 04f0 f13d
00000280: b30a 99bd d5e5 00be a0a3 103e 6eac 643e
00000290: 9063 2d3e 00b3 8ebe 21d4 583e 47d3 d63c
000002a0: db24 653e 169b c7bd c2f5 3dbd d7a8 883e
000002b0: e9ec 33be 73bf f6bd 2f48 c9bd dd60 553e
000002c0: dae5 a13e 4344 633e ff96 8f3e 4e63 90be
000002d0: ce6f 7cbd f5b8 87be b691 443d 94d6 8fbe
000002e0: ec4f 9c3e 5fb5 86be 509b 20be 12c6 4e3e
000002f0: 2d1a 363e 4e6e 6bbe 85cf 9bbe 87a8 9f3c
00000300: 7017 e4bd bb31 463e e40c 96be ef2f 223e
00000310: ad56 55be 5426 90bd 15de 22be 9f31 e43e
00000320: 11cd a63e ea9e ba3e 11e4 943e 8a7c 843d
00000330: dc77 513c 6054 ea3d 28fb 633d daff 0f3d
00000340: e637 d83e bf7f dd3e d61b 06be 5a6e 46be
00000350: 8cb4 a6bd cc8b 1f3e 8a5f d13c 1e87 7abb
00000360: 9a2c 85be d9ed c0bd e14e 7bbe 4fc2 633e
00000370: d808 a3bd a7eb 8fbe 4a61 2ebd c501 5abc
00000380: 395e 8bbe d8f0 9e3e 6b55 e53e 837b 633e
00000390: de57 e93e 09ed 44bf 2f2e 3dbe 36cb bbbe
000003a0: e969 e43e 9ddc f43d 4c03 5b3d 90a3 ab3e
000003b0: 47cb 643e 2b25 ea3d be2d a13e adea e1bd
000003c0: 5a3a ab3e 664e c23e eb64 9d3e 8232 b5be
000003d0: 7f88 c1bc 84bb 223e 676d d93e 73b2 edba
000003e0: 41aa af3e 7944 a83e 3366 b5bd b398 fe3d
000003f0: c524 683e 6cbe d6bb fb07 f03c 055f 67be

policy_head.bias f4 [110]
-0.47023267 -0.35629496 -0.032972246 -0.18589762 -0.28042144 -0.45115474 -0.07335714 0.029851096
0.045447867 0.14827527 0.13703977 0.22639388 0.17204647 0.06961744 0.24815531 0.17140462
0.17302167 0.073005155 0.24413398 0.06329551 0.14259516 0.07281815 0.12168374 0.017296087
0.07199512 0.28112844 0.006993677 0.26851356 0.2538406 0.25301278 0.1806092 0.20090596
0.023013616 0.17164999 0.06912425 0.039426494 0.1746976 0.10554039 0.028871398 0.09490253
0.18283257 0.14075851 0.05735915 -0.04281202 0.10047977 0.10439721 0.08503259 0.06341412
0.059540283 0.18253405 0.15747927 0.21126246 0.19712344 -0.0021384165 0.08479702 0.15877211
0.22223347 0.27847412 -0.47005495 -0.44879335 -0.458003 -0.3919583 -0.49943984 -0.37475067
-0.44816992 -0.38649 -0.46696946 -0.36022383 -0.24965003 -0.26261413 -0.35705867 -0.28694367
-0.26313415 -0.33754808 -0.42521328 -0.3642804 -0.33221748 -0.38706392 -0.2640015 -0.37405327
-0.33759332 -0.4999734 -0.2714013 -0.38017872 -0.28730232 -0.33537337 -0.35929376 -0.4594669
-0.47256088 -0.4592615 -0.3261797 -0.3630568 -0.29929534 -0.4524171 -0.3046727 -0.30121982
-0.4057449 -0.39969105 -0.2132358 -0.3723004 -0.33797014 -0.45060286 -0.30984405 -0.38959154
-0.39627963 -0.40280107 -0.30242574 -0.47762498 -0.24676779 -0.42095983
00000000: 56c2 f0be 4b6c b6be e80d 07bd f25b 3ebe
00000010: 6693 8fbe c1fd e6be 453c 96bd 498a f43c
00000020: 8b27 3a3d 79d5 173e 2754 0c3e ccd3 673e
00000030: f32c 303e 9793 8e3d 6d1c 7e3e b184 2f3e
00000040: 982c 313e ba83 953d 42fe 793e 14a1 813d
00000050: 7704 123e af21 953d 5335 f93d 86b0 8d3c
00000060: 2d72 933d 11f0 8f3e 372b e53b 9c7a 893e
00000070: 65f7 813e e48a 813e 9ef1 383e 4bba 4d3e
00000080: 0d87 bc3c 04c5 2f3e 0491 8d3d ad7d 213d
00000090: ede3 323e 8f25 d83d b683 ec3c 425c c23d
000000a0: 7638 3b3e 0023 103e 6ef1 6a3d a85b 2fbd
000000b0: 56c8 cd3d 34ce d53d 9125 ae3d 43df 813d
000000c0: 83e0 733d 35ea 3a3e 3f42 213e 3055 583e
000000d0: bada 493e ad24 0cbb 0faa ad3d 2895 223e
000000e0: 2c91 633e 2994 8e3e 0bab f0be 3ec8 e5be
000000f0: 5f7f eabe c2ae c8be 94b6 ffbe 52df bfbe
00000100: 8776 e5be 04e2 c5be 9f16 efbe 426f b8be
00000110: 42a4 7fbe 5c75 86be 65d0 b6be 48ea 92be
00000120: 85b9 86be 1ad3 acbe 8eb5 d9be f682 babe
00000130: 6918 aabe 3e2d c6be 342b 87be e983 bfbe
00000140: 08d9 acbe 83fc ffbe 1cf5 8abe c9a6 c2be
00000150: 4a19 93be 0fb6 abbe 5af5 b7be 3f3f ebbe
00000160: 80f3 f1be 5324 ebbe 0701 a7be 95e2 b9be
00000170: 3d3d 99be 37a3 e7be 0ffe 9bbe 7c39 9abe
00000180: ccbd cfbe 4ea4 ccbe 7c5a 5abe 289e bebe
00000190: 6c0a adbe 6bb5 e6be e1a3 9ebe 8b78 c7be
000001a0: 2ae5 cabe f13b cebe 8cd7 9abe 438b f4be
000001b0: b2b0 7cbe 0c88 d7be

value_head.weight f4 [1, 64]
0.009313906 0.014865173 0.01668349 0.023438418 0.022091165 -0.007117964 -0.25477466 0.0032959087
-0.010826692 -0.016771704 0.01089586 -0.12728095 -0.09286553 -0.13025214 -0.29049632 -0.023029074
-0.031498205 0.030358104 0.011989327 0.048387505 0.09752397 -0.011703288 0.042842783 0.073556095
0.00072117243 0.14124528 0.051124666 -0.025150482 -0.20551349 -0.010728158 -0.18739863 -0.0010799052
-0.11237173 0.07050545 -0.004497848 0.0016810098 0.006091458 0.06528916 0.014908782 -0.08115834
0.004477371 0.079721265 -0.10058497 0.02859437 0.022695681 -0.019430513 -0.014887407 -0.022030957
-0.0042217635 0.009261755 0.0025285461 0.009251658 -0.044502944 0.006167306 -0.007506778 -0.011387104
-0.0005784236 0.01621625 -0.009701949 0.0036585578 0.008688165 0.061433252 -0.0067556063 -0.0941429
00000000: 5a99 183c 0e8d 733c d0ab 883c ed01 c03c
00000010: 88f8 b43c cf3d e9bb d371 82be 2c00 583b
00000020: 7062 31bc d064 89bc 8d84 323c f055 02be
00000030: 4830 bebd d160 05be efbb 94be 78a7 bcbc
00000040: 4304 01bd 8fb1 f83c e26e 443c fa31 463d
00000050: a6ba c73d 26bf 3fbc ea7b 2f3d 94a4 963d
00000060: 100d 3d3a 9aa2 103e 1968 513d 6208 cebc
00000070: 2172 52be 28c5 2fbc 6de5 3fbe 9b8b 8dba
00000080: 2623 e6bd 2965 903d af62 93bb 5455 dc3a
00000090: da9a c73b 53b6 853d f743 743c 5836 a6bd
000000a0: e9b6 923b e744 a33d 7eff cdbd bd3e ea3c
000000b0: 4bec b93c bd2c 9fbc 50ea 73bc 447a b4bc
000000c0: b856 8abb 9ebe 173c f7b5 253b 4494 173c
000000d0: b848 36bd 1d17 ca3b 6bfb f5bb fa90 3abc
000000e0: 5aa1 17ba f1d7 843c ecf4 1ebc 6ac4 6f3b
000000f0: ce58 0e3c 6fa1 7b3d 225e ddbb fecd c0bd

exp_avg f4 [128, 260]
-9.506784e-05 -1.4871575e-05 -8.011373e-05 -6.1119485e-05 -4.7529145e-05 -0.00010236409 -0.00012945266 -2.3023807e-05
-4.502942e-05 2.3387396e-05 -2.128205e-05 8.8540787e-07 -1.9128166e-14 -0.00014372062 2.8847278e-15 -1.9085996e-05
-1.2429484e-05 1.3153379e-05 3.1669977e-05 3.404436e-05 2.6033611e-05 -5.616799e-05 -1.44263995e-05 -2.8386408e-05
-4.3803716e-14 2.4117648e-05 9.0126605e-06 -3.9939423e-05 -3.3738256e-06 2.4615982e-05 -0.00011116262 -8.296686e-06
-1.0926236e-05 -5.9115173e-05 -6.480088e-05 -2.15578e-05 1.8809355e-06 -5.14542e-07 -1.9984358e-05 1.7172146e-05
-7.447095e-05 -4.3473225e-05 -7.5598706e-05 -8.157118e-05 -5.9831586e-06 7.644966e-08 -5.1912484e-06 -1.5651032e-05
-4.889385e-06 8.023674e-07 -8.5381274e-05 3.75344e-14 6e-45 6.427465e-33 6e-45 -1.9644578e-05
-5.6085168e-09 -2.110939e-05 8.967147e-06 2.8759148e-05 1.923418e-12 2.3895787e-05 1.671291e-06 2.5643321e-06
2.4210567e-10 -2.0455468e-34 -6e-45 6e-45 -3.5577963e-05 -2.8540147e-05 -9.844889e-06 -4.7258625e-05
3.2967075e-14 -4.822617e-08 -1.5023476e-05 -4.2586664e-05 -1.5271082e-10 -2.0928828e-13 6e-45 -2.2349032e-23
-4.2193273e-27 1.7243991e-07 7.005403e-06 5.2931347e-07 2.1452413e-05 -1.7705128e-07 1.2062808e-10 4.8606616e-08
-1.0503768e-05 -1.0057788e-07 1.4079834e-06 -1.9525245e-28 -6e-45 -3.658618e-28 -5.917175e-15 -5.9903977e-07
-3.3203287e-05 2.0467671e-06 -1.7434936e-13 7.922015e-06 -3.0210674e-07 -4.9552154e-13 2.3346649e-05 7.5689287e-16
6e-45 -2.0953136e-27 -6e-45 -4.1200806e-06 -3.1593896e-05 -3.67397e-05 -3.3975495e-05 -8.762591e-05
-3.098529e-05 -4.5810557e-05 -0.00014347823 -8.3203515e-05 -0.00013999094 -4.4805363e-14 6e-45 -1.716447e-22
-5.486851e-05 -6.817443e-05 -5.353152e-05 -0.00010835859 -0.00016265875 4.732197e-05 -8.97936e-05 -4.5996665e-05
-0.00010455245 -0.00010539066 6.5305e-41 1.8799607e-22 -1.5852928e-15 -5.56375e-05 2.4028018e-10 -7.306251e-06
-0.0001058027 -8.826077e-05 -2.1542764e-05 -3.7847247e-05 -0.000120825935 -2.0878731e-05 -8.9918794e-05 1.3493533e-27
-5.214953e-35 2.4027427e-10 2.429356e-10 1.1882123e-07 -5.0623697e-05 -0.000103045655 -7.634148e-05 -3.8665905e-05
-2.7582231e-05 -0.00016558553 -2.3713137e-05 -0.000104101986 6e-45 3.2937538e-07 -1.0112345e-06 -2.4197647e-05
-1.3151811e-28 5.204893e-23 -3.3738036e-06 -7.578521e-18 -6.06292e-05 1.9782563e-12 5.688314e-06 -4.3326807e-05
2.8945374e-22 2.457437e-05 -1.3679645e-27 -6.1509994e-25 -2.9080988e-05 3.2667845e-06 -7.18984e-19 -3.837753e-07
1.954506e-10 1.1126982e-14 7.852556e-06 -2.4824432e-05 2.3346729e-05 5.666076e-13 -2.1505353e-05 6e-45
-8.752078e-36 2.1999196e-30 2.9060295e-06 -5.2918225e-05 2.9133382e-12 3.2937498e-07 8.709807e-11 -4.2586744e-05
-2.5705192e-13 7.14502e-08 2.3712637e-05 -6.6906107e-18 5.983419e-13 -3.5749832e-20 -6.169846e-25 -3.0915604e-23
-1.651535e-05 -6.955463e-24 -2.0681322e-25 4.5923412e-07 -1.5991863e-15 -2.4953506e-15 3.670734e-08 -5.986521e-15
-3.9668044e-05 -0.000120193676 -5.361093e-05 -2.5654097e-05 -5.5607223e-05 2.5477306e-05 2.3098944e-05 -5.284531e-05
1.908036e-06 -0.0001362085 2.266479e-05 -1.1655305e-05 5.2548085e-06 -1.5589627e-05 -0.00013473588 -0.000115649884
-2.7789401e-06 -4.665074e-05 -0.00010302945 -1.2616782e-05 1.8890504e-06 -0.00012584163 -2.3344963e-05 7.0583023e-06
-5.353001e-05 -5.346287e-05 -0.00012224317 -9.4796465e-05 -0.00013136206 -0.000103886814 -3.348493e-05 -4.6353438e-05
-3.945937e-05 1.2487738e-05 -4.839244e-05 -3.2792694e-05 -5.287113e-06 -0.00011331347 -4.995334e-05 -0.00015190803
-6.0264934e-05 -9.12629e-05 -5.9137412e-05 -5.268448e-05 -2.8410375e-05 -3.3813434e-05 -5.3203155e-05 -8.8800196e-05
00000000: 285f c7b8 ee80 79b7 bb02 a8b8 462d 80b8
00000010: 085a 47b8 4dac d6b8 afbd 07b9 4023 c1b7
00000020: f9dd 3cb8 0d30 c437 db86 b2b7 c4ac 6d35
00000030: 8c4a aca8 b6b3 16b9 d6dd 4f27 dd1a a0b7
00000040: 3a88 50b7 55ad 5c37 61d5 0438 daca 0e38
00000050: c162 da37 ec95 6bb8 ea08 72b7 591f eeb7
00000060: 3f46 45a9 4150 ca37 1535 1737 a184 27b8
00000070: e269 62b6 6b7e ce37 fa1f e9b8 ff31 0bb7
00000080: d44f 37b7 6ff2 77b8 b5e5 87b8 06d7 b4b7
00000090: 7474 fc35 0f1f 0ab5 15a4 a7b7 e70c 9037
000000a0: 492d 9cb8 0557 36b8 bf8a 9eb8 3211 abb8
000000b0: f1c2 c8b6 a52c a433 7c30 aeb6 564a 83b7
000000c0: 7f0f a4b6 4562 5735 b90e b3b8 380a 2929
000000d0: 0400 0000 447e 050a 0400 0000 69ca a4b7
000000e0: 09b5 c0b1 1214 b1b7 9a71 1637 cd3f f137
000000f0: 3859 072c d073 c837 1f51 e035 e416 2c36
00000100: 5819 852f 2df3 8787 0400 0080 0400 0000
00000110: 8c39 15b8 8069 efb7 7a2b 25b7 9037 46b8
00000120: 7378 1429 3c21 4fb3 570d 7cb7 159f 32b8
00000130: 46e8 27af 3da3 6baa 0400 0000 8625 d899
00000140: 1025 a793 ec27 3934 f40f eb36 2516 0e35
00000150: b5f4 b337 7c1b 3eb4 c9a1 042f 8ac3 5033
00000160: 5739 30b7 46fd d7b3 f1f9 bc35 0b83 7791
00000170: 0400 0080 79e4 e791 4e30 d5a7 b3cd 20b5
00000180: c243 0bb8 315b 0936 c84c 44aa cce8 0437
00000190: 3c31 a2b4 177a 0bab 8cd8 c337 d628 5a26
000001a0: 0400 0000 0202 2693 0400 0080 393f 8ab6
000001b0: b083 04b8 f418 1ab8 e980 0eb8 cdc3 b7b8
000001c0: 34f6 01b8 b624 40b8 a572 16b9 8c7d aeb8
000001d0: 88ca 12b9 11c9 49a9 0400 0000 7681 4f9b
000001e0: 9d22 66b8 def8 8eb8 0887 60b8 933e e3b8
000001f0: 608f 2ab9 947b 4638 924f bcb8 8bec 40b8
00000200: 2b43 dbb8 2e05 ddb8 0bb6 0000 f745 631b
00000210: fb76 e4a6 505c 69b8 6e18 842f 3828 f5b6
00000220: 64e2 ddb8 a418 b9b8 bcb6 b4b7 2cbe 1eb8
00000230: ee63 fdb8 bc24 afb7 c992 bcb8 46d0 d512
00000240: 22a3 8a86 9917 842f 258e 852f a92a ff33
00000250: c854 54b8 371a d8b8 8519 a0b8 332d 22b8
00000260: 6460 e7b7 07a1 2db9 93eb c6b7 5451 dab8
00000270: 0400 0000 02d5 b034 c1b9 87b5 0dfc cab7
00000280: 11b8 2691 74b1 7b1a 8169 62b6 8ecc 0ba3
00000290: 1c4c 7eb8 1935 0b2c 3fde be36 ceb9 35b8
000002a0: ccf6 ae1b 0f25 ce37 3cc3 d892 3d5d 3e97
000002b0: f2f2 f3b7 ee3a 5b36 e534 54a1 ad09 ceb4
000002c0: 74e6 562f 2672 4828 79be 0337 103e d0b7
000002d0: b8d8 c337 617c 1f2b 6566 b4b7 0400 0000
000002e0: d822 3a85 8b7a 320e 3505 4336 83f4 5db8
000002f0: 0902 4d2c f4d4 b034 db87 bf2e 2b9f 32b8
00000300: 16b5 90aa 2a70 9933 80ea c637 08d7 f6a2
00000310: 146b 282b e5d2 289f 8ef2 3e97 aa7f 159a
00000320: 728a 8ab7 c989 0699 dd02 8096 a88c f634
00000330: 9077 e6a6 18cf 33a7 26a8 1d33 e9af d7a7
00000340: 3d61 26b8 7d10 fcb8 4cdc 60b8 c133 d7b7
00000350: cd3b 69b8 19b8 d537 9bc4 c137 38a6 5db8
00000360: cf0b 0036 31d3 0eb9 4420 be37 278b 43b7
00000370: 7652 b036 78c6 82b7 e347 0db9 0f89 f2b8
00000380: d47d 3ab6 daaa 43b8 8411 d8b8 abac 53b7
00000390: 478b fd35 5bf4 03b9 edd4 c3b7 5bd6 ec36
000003a0: 6985 60b8 523d 60b8 672e 00b9 77cd c6b8
000003b0: 3cbe 09b9 cfdd d9b8 2b72 0cb8 a06b 42b8
000003c0: 2d81 25b8 6d82 5137 fdf8 4ab8 e38a 09b8
000003d0: f467 b1b6 b5a2 edb8 fe84 51b8 8049 1fb9
000003e0: fbc4 7cb8 6564 bfb8 500a 78b8 88f9 5cb8
000003f0: d152 eeb7 e6d2 0db8 7426 5fb8 3e3a bab8

exp_avg_sq f4 [128, 260]
8.324961e-07 6.63309e-07 1.1223171e-06 9.714126e-07 6.2826757e-07 8.8196236e-07 9.3018235e-07 1.2687437e-06
6.545675e-07 6.5142575e-07 6.4450927e-07 3.274871e-07 3.044093e-07 1.0660515e-06 3.764287e-07 8.94302e-07
5.903949e-07 1.1464099e-06 8.226888e-07 1.0034746e-06 1.0951427e-06 4.7946463e-07 3.8665235e-07 4.2744065e-07
2.1545895e-07 4.564861e-07 1.0442751e-06 7.157265e-07 7.034815e-07 9.182042e-07 1.3324856e-06 1.4507907e-06
8.7638665e-07 7.2227766e-07 1.0519833e-06 2.3118207e-07 8.492611e-07 4.7670105e-07 4.2112404e-07 1.0850019e-06
7.2267693e-07 9.282261e-07 9.1415336e-07 8.788488e-07 9.3426326e-07 8.1336384e-07 7.246956e-07 4.6284256e-07
2.1910668e-07 5.804446e-07 2.2884146e-07 2.4400723e-07 6.12916e-10 1.4766925e-09 6.1751444e-09 3.6563044e-08
3.730281e-08 4.083825e-08 7.120064e-08 1.4290399e-07 1.0520214e-07 5.7005778e-08 5.523575e-08 1.4216339e-07
7.387266e-08 1.1528161e-09 8.598641e-10 3.0396077e-09 1.5160126e-08 4.1845567e-08 4.9945026e-08 7.3028964e-08
8.0179554e-08 9.51908e-08 1.6941011e-07 8.133533e-08 5.1828614e-08 8.364844e-08 4.529897e-09 3.4484215e-09
2.4679092e-09 1.2051361e-08 2.2675996e-08 5.297497e-08 3.3792272e-08 7.193858e-08 4.8635858e-08 7.0950705e-08
7.824478e-08 4.7036643e-08 6.236174e-08 2.0943378e-09 1.6440033e-09 3.348406e-09 1.1366085e-08 6.152484e-08
8.1324764e-08 7.20908e-08 6.9215865e-08 5.5316693e-08 7.0833956e-08 5.0163134e-08 5.996514e-08 3.701355e-08
5.8737354e-10 8.460153e-08 7.5857976e-08 1.8058195e-07 3.34922e-07 3.722799e-07 6.678399e-07 5.2414214e-07
1.0738974e-06 8.7091485e-07 1.2666161e-06 1.6685428e-06 2.0158102e-06 3.148834e-08 6.1295665e-08 2.0831052e-08
1.6058198e-07 4.276751e-07 2.4563948e-07 6.027416e-07 1.2530518e-06 1.3650825e-06 1.4933266e-06 1.4472632e-06
1.74704e-06 1.3988147e-06 5.421196e-08 4.2277446e-08 1.6174941e-07 1.4226457e-07 2.1855062e-07 2.3834136e-07
6.361776e-07 1.0508631e-06 5.331192e-07 1.9191689e-06 1.2549717e-06 1.2481581e-06 8.6371665e-07 2.903805e-08
2.6015748e-08 1.740124e-07 2.138429e-07 2.0684989e-07 6.4665437e-07 8.256819e-07 8.645874e-07 1.1118894e-06
1.6134603e-06 1.0877659e-06 1.4734848e-06 1.327627e-06 5.3928295e-10 1.2858716e-08 1.8740386e-07 1.5423215e-07
2.5015828e-08 2.6332598e-08 1.0849833e-07 6.7073884e-08 1.5789882e-07 7.144792e-08 6.010651e-08 1.5204614e-07
7.640267e-08 1.0300343e-07 3.257798e-08 4.1393264e-08 7.872622e-08 1.3012937e-07 5.9721124e-08 1.0358146e-07
1.3042994e-07 1.13066875e-07 1.14183564e-07 4.0575188e-08 1.9897996e-07 6.2904626e-08 4.8181228e-08 1.7101831e-08
3.849612e-08 3.7650324e-08 6.9853115e-08 1.4809568e-07 4.192698e-08 5.3378674e-08 1.024596e-07 1.3758965e-07
1.4372523e-07 3.612334e-08 4.266277e-08 4.1167034e-08 9.334842e-09 5.4747247e-08 3.4689325e-08 1.0671585e-07
1.4317709e-07 1.301495e-07 5.52151e-08 5.4150178e-08 5.0742823e-08 5.6946345e-08 7.9408856e-08 3.509027e-08
3.259552e-06 3.2261069e-06 2.5768593e-06 2.3274056e-06 2.8092338e-06 2.6869684e-06 1.7472807e-06 1.7051669e-06
1.5374079e-06 2.2487968e-06 1.6485376e-06 1.3839889e-06 1.4530995e-06 2.8332572e-06 3.6404647e-06 3.0584672e-06
3.1563404e-06 1.9839802e-06 2.4662554e-06 1.7615139e-06 1.2968616e-06 1.6198037e-06 1.7146583e-06 1.6731152e-06
1.5145122e-06 1.6885907e-06 2.9155713e-06 3.2254343e-06 2.9613157e-06 2.8181137e-06 2.35584e-06 1.7601807e-06
2.2173692e-06 1.7464737e-06 1.98137e-06 1.4633811e-06 1.2666046e-06 1.9087704e-06 2.3354446e-06 2.9853863e-06
3.2768662e-06 2.6393207e-06 2.7413766e-06 2.6527605e-06 1.889098e-06 1.8748781e-06 1.9932866e-06 1.945596e-06
00000000: b278 5f35 3f0e 3235 86a2 9635 7c61 8235
00000010: 38a6 2835 febf 6c35 a5b1 7935 b449 aa35
00000020: 89b5 2f35 a3dd 2e35 5702 2d35 7cd1 af34
00000030: b26d a334 4015 8f35 f717 ca34 f70f 7035
00000040: a17b 1e35 58de 9935 bed6 5c35 20af 8635
00000050: d1fc 9235 8fb4 0035 1895 cf34 ff7a e534
00000060: e858 6734 f912 f534 0529 8c35 5a20 4035
00000070: e1d6 3c35 837a 7635 dbd7 b235 cab8 c235
00000080: d540 6b35 8be2 4135 df31 8d35 d83a 7834
00000090: c7f8 6335 4bed ff34 d916 e234 62a0 9135
000000a0: fbfd 4135 362b 7935 2464 7535 08ea 6b35
000000b0: 15ca 7a35 f055 5a35 b488 4235 997c f834
000000c0: 9643 6b34 d9cf 1b35 76b7 7534 1900 8334
000000d0: 217a 2830 80f4 ca30 252d d431 7e09 1d33
000000e0: e036 2033 2166 2f33 f7e6 9833 2671 1934
000000f0: 7deb e133 84d6 7433 593c 6d33 93a5 1834
00000100: eda3 9e33 1c71 9e30 8f5b 6c30 58e1 5031
00000110: 7839 8232 b0b9 3333 2383 5633 19d4 9c33
00000120: 2d2f ac33 b26b cc33 19e7 3534 92aa ae33
00000130: 2a9a 5e33 37a2 b333 65a5 9b31 46f9 6c31
00000140: eb97 2931 720a 4f32 0bc9 c232 9886 6333
00000150: ff22 1133 a77c 9a33 b1e3 5033 905d 9833
00000160: 8607 a833 5605 4a33 bbeb 8533 fbeb 0f31
00000170: 39f3 e130 c819 6631 9244 4332 a31f 8433
00000180: c3a4 ae33 56d0 9a33 d3a3 9433 5995 6d33
00000190: 611d 9833 f372 5733 2fc6 8033 d4f8 1e33
000001a0: bd74 2130 2fae b533 5de7 a233 fde5 4134
000001b0: 54cf b334 c3dd c734 9c45 3335 c6b2 0c35
000001c0: d522 9035 d0c8 6935 9900 aa35 b2f2 df35
000001d0: 5b47 0736 cc3d 0733 a6a1 8333 f8ef b232
000001e0: 706c 2c34 389b e534 6fe0 8334 16cc 2135
000001f0: 882e a835 e137 b735 506e c835 963f c235
00000200: d67b ea35 e8be bb35 aed6 6833 8b94 3533
00000210: 57ad 2d34 63c1 1834 bdaa 6a34 c6ea 7f34
00000220: cbc5 2a35 620b 8d35 ac1b 0f35 12cb 0036
00000230: 8070 a835 6386 a735 28da 6735 596f f932
00000240: 3c79 df32 2ad8 3a34 b09c 6534 771a 5e34
00000250: c095 2d35 6ea4 5d35 fe15 6835 3b3c 9535
00000260: 138e d835 5aff 9135 8dc4 c535 eb30 b235
00000270: aa3c 1430 3be9 5c32 2e39 4934 039b 2534
00000280: 63e2 d632 ff31 e232 96ff e833 420a 9033
00000290: e68a 2934 e96e 9933 e713 8133 2042 2334
000002a0: d012 a433 bc32 dd33 deeb 0b33 60c8 3133
000002b0: 3210 a933 b0b9 0b34 0940 8033 8370 de33
000002c0: 4f0c 0c34 2ccf f233 1435 f533 e444 2e33
000002d0: 32a7 5534 2f16 8733 d2ef 4e33 53e7 9232
000002e0: ee56 2533 f8b4 2133 2802 9633 3b04 1f34
000002f0: 3413 3433 7942 6533 c307 dc33 5bbc 1334
00000300: e452 1a34 0826 1b33 363c 3733 a2cf 3033
00000310: 125f 2032 3c23 6b33 51fd 1433 a92b e533
00000320: 38bc 1934 39bf 0b34 a525 6d33 c092 6833
00000330: 53f0 5933 2b95 7433 7b87 aa33 29b6 1633
00000340: adbe 5a36 1880 5836 1bee 2c36 8630 1c36
00000350: 4586 3c36 c451 3436 1c84 ea35 17dd e435
00000360: ef58 ce35 09ea 1636 5243 dd35 7fc1 b935
00000370: 1e08 c335 fd22 3e36 b54e 7436 1140 4d36
00000380: 84d1 5336 8524 0536 f281 2536 286d ec35
00000390: d30f ae35 0868 d935 3623 e635 cd8f e035
000003a0: 3e46 cb35 89a3 e235 22a9 4336 8a74 5836
000003b0: 04bb 4636 d31e 3d36 0619 1e36 593f ec35
000003c0: 1dce 1436 6168 ea35 adf7 0436 6469 c435
000003d0: 3400 aa35 6d18 0036 a2ba 1c36 8c58 4836
000003e0: 22e8 5b36 2f1f 3136 7ef8 3736 1406 3236
000003f0: ea8c fd35 52a4 fb35 67c4 0536 1691 0236

exp_avg f4 [128]
-0.00013473588 -0.0007189997 -1.4882694e-05 0.0005685994 0.0002751838 0.000204043 -9.7703e-05 -0.0014527779
0.00010388684 0.00030259226 -0.0009641848 0.0011940813 -6e-45 0.0009777311 -0.00019619925 0.00018472127
-0.00066962553 0.0018014105 3.1647e-05 0.0011066622 0.0017437071 0.00022314044 -0.00012488525 0.001418342
-0.0002245372 -8.054369e-11 -0.0001172173 -0.0011823624 2.1429498e-10 0.00020132422 0.00068514346 -0.001612993
-0.00038340478 -0.0027409527 0.0009920739 0.00061516627 0.0003404206 5.2763677e-05 -0.0003023941 -0.0020101003
0.0002962267 0.00024279299 -9.678766e-05 -0.001006032 -0.0005702275 7.226595e-05 -0.0006077062 0.00080539274
-0.00018783877 3.6648947e-15 0.00048721238 0.0001771517 0.0011706712 3.744783e-05 0.0019293058 -0.0004593426
0.00016349686 -0.0006036519 0.00087001745 -0.0008317566 0.00034660322 -5.1753286e-05 0.0001032011 0.00022158156
0.0007794944 -0.0012826567 -0.0031017319 -0.00040418535 0.000121186495 0.0005518957 0.00088810147 5.033619e-05
-4.055624e-05 6e-45 -0.00092912564 -0.00045648962 -0.0011250951 -0.0002961407 -0.0009711027 -0.00086670264
6e-45 0.0020638714 2.2664031e-05 0.0010360341 -0.0008245971 0.00086370343 0.0010245426 -1.658084e-05
0.00046628385 0.0005064246 8.345186e-05 -0.0016593034 0.00049674127 0.00055844494 0.001106934 0.0014415722
0.00013736484 -0.0009237 -0.00013329319 6e-45 -0.0009496206 -0.0023264866 -0.00015337058 0.0001135706
-0.0021967497 -6.274547e-05 -0.0003047456 -0.00037628325 0.0022773412 1.3749045e-05 -0.0016119316 -0.0008952539
0.00043777004 -0.00027437354 6e-45 0.00035835532 0.0008100774 0.00014616756 0.0026148022 -0.00026428976
-0.0011097804 -0.0036052603 0.00011142432 -0.0009092941 0.00036538646 0.0002476686 -0.00045981962 -0.0006684728
00000000: e347 0db9 417b 3cba afb0 79b7 0f0e 153a
00000010: 8b46 9039 60f4 5539 e6e5 ccb8 236b beba
00000020: d3dd d938 3fa5 9e39 59c1 7cba b882 9c3a
00000030: 0400 0080 3627 803a d6ba 4db9 bdb1 4139
00000040: cf89 2fba 4e1d ec3a b5bc 0438 6c0d 913a
00000050: 1a8d e43a cefa 6939 a1f3 02b9 a9e7 b93a
00000060: bf71 6bb9 111e b1ae 8fd2 f5b8 80f9 9aba
00000070: ad9e 6b2f 8f1a 5339 339b 333a 106b d3ba
00000080: b803 c9b9 8ea1 33bb 7a08 823a 1c43 213a
00000090: 7b7a b239 914e 5d38 a68a 9eb9 e3bb 03bb
000000a0: e04e 9b39 3f96 7e39 7bfa cab8 d5dc 83ba
000000b0: 527b 15ba 7d8d 9738 794e 1fba fe20 533a
000000c0: 96f6 44b9 b00a 8427 8a70 ff39 ccc1 3939
000000d0: 3571 993a 4d11 1d38 c3e0 fc3a ecd3 f0b9
000000e0: 5b70 2b39 653e 1eba e211 643a 3e0a 5aba
000000f0: 4cb8 b539 ab11 59b8 ab6d d838 5958 6839
00000100: fc56 4c3a d11e a8ba 6d46 4bbb d7e8 d3b9
00000110: 8125 fe38 18ad 103a 7bcf 683a 1320 5338
00000120: ee1a 2ab8 0400 0000 9190 73ba 0055 efb9
00000130: ed77 93ba 5543 9bb9 9991 7eba 6e33 63ba
00000140: 0400 0000 0442 073b a31e be37 89cb 873a
00000150: c629 58ba 286a 623a f249 863a 1517 8bb7
00000160: 8f77 f439 94c1 043a e002 af38 fc7c d9ba
00000170: be37 023a 9b64 123a 8b16 913a 23f3 bc3a
00000180: 9809 1039 7524 72ba 9ec4 0bb9 0400 0000
00000190: f6ef 78ba f877 18bb 1ad2 20b9 c02c ee38
000001a0: 58f7 0fbb 3896 83b8 43c6 9fb9 e247 c5b9
000001b0: 723f 153b b3ab 6637 7347 d3ba 79af 6aba
000001c0: 8084 e539 cbd9 8fb9 0400 0000 a3e1 bb39
000001d0: 605b 543a 8e44 1939 1a5d 2b3b 5f90 8ab9
000001e0: 0d76 91ba 3b46 6cbb 7aac e938 b25d 6eba
000001f0: 5791 bf39 84d9 8139 f213 f1b9 733c 2fba

exp_avg_sq f4 [128]
4.1948615e-06 1.9213545e-05 4.7438145e-05 4.10934e-05 1.1317809e-05 1.9926465e-05 1.3697448e-05 9.004523e-05
1.396397e-05 3.0918567e-05 1.5496575e-05 6.826853e-05 2.9937917e-13 2.6065896e-05 1.9086898e-05 1.1382666e-05
8.934341e-06 0.00010477329 1.743719e-05 2.9910787e-05 4.400855e-05 1.6139422e-05 1.0817762e-05 0.000106999665
2.7761365e-05 2.6578368e-06 4.075584e-06 1.8051522e-05 1.6229319e-06 5.6472614e-05 9.798316e-06 2.4552313e-05
9.843406e-06 2.4211475e-05 0.000103756814 1.4693216e-05 0.00011478298 1.7781023e-05 1.1096205e-05 1.4069622e-05
1.683328e-05 9.151154e-05 1.8586803e-05 2.9437766e-05 3.517001e-05 8.875109e-06 2.3563955e-05 2.4470308e-05
8.471345e-06 1.9857982e-06 1.487434e-05 3.0406884e-05 4.596767e-05 1.3197305e-05 0.000100131336 1.3128746e-05
1.0612533e-05 1.0004858e-05 1.6784581e-05 9.953933e-05 2.537066e-05 1.3061721e-05 1.7273162e-05 1.9342648e-05
1.7226208e-05 8.1218655e-05 1.7027969e-05 3.071114e-05 1.6919053e-05 3.1640677e-05 2.1082162e-05 4.3326945e-06
1.3168108e-05 5.436536e-18 3.703324e-05 8.271062e-06 3.0624087e-05 3.2487987e-05 1.567144e-05 1.1307905e-05
1.7625389e-09 0.00024692315 4.9445887e-05 0.00012496185 4.6613575e-05 2.1558315e-05 7.6547214e-05 2.5644604e-05
2.1288468e-05 2.2638098e-05 5.0924504e-05 4.2950494e-05 3.551618e-05 1.729618e-05 5.8991263e-05 1.6498265e-05
1.7774897e-05 2.928554e-05 1.7925828e-05 1.8735216e-10 3.455474e-05 1.6557977e-05 8.779186e-06 1.5699976e-05
1.3577745e-05 8.3462055e-06 1.1331603e-05 1.3838711e-05 9.254147e-05 2.5291421e-05 6.7169436e-05 1.3607317e-05
1.5935759e-05 1.04152605e-05 5.106195e-15 2.789716e-05 1.23852005e-05 4.445512e-05 0.00020621307 1.2842249e-05
3.0048684e-05 2.0153178e-05 1.979627e-05 1.29551045e-05 6.229986e-05 1.8261766e-05 1.9266843e-05 1.48238905e-05
00000000: 96c1 8c36 c62c a137 52f8 4638 b45b 2c38
00000010: 9fe1 3d37 c227 a737 17ce 6537 aad6 bc38
00000020: cb46 6a37 8fae 0138 a4fe 8137 632b 8f38
00000030: 1689 a82a 16a8 da37 cd1c a037 2ef8 3e37
00000040: b4e4 1537 bbb9 db38 1546 9237 ede8 fa37
00000050: d295 3838 2563 8737 ef7d 3537 0265 e038
00000060: 14e1 e837 4a5d 3236 00c1 8836 596d 9737
00000070: 84d3 d935 02dd 6c38 7263 2437 b1f5 cd37
00000080: 1b25 2537 bf19 cb37 0498 d938 e282 7637
00000090: a5b7 f038 7528 9537 d629 3a37 910c 6c37
000000a0: 3235 8d37 e2e9 bf38 dbea 9b37 1ff1 f637
000000b0: 8383 1338 4ee6 1437 35ab c537 9645 cd37
000000c0: 2620 0e37 c143 0536 ce8c 7937 4912 ff37
000000d0: 69cd 4038 fe69 5d37 9afd d138 8943 5c37
000000e0: 7b0c 3237 8ada 2737 9dcc 8c37 c5bf d038
000000f0: 14d3 d437 aa23 5b37 d5e5 9037 0542 a237
00000100: 0081 9037 ef53 aa38 49d7 8e37 d6cf 0038
00000110: 64ed 8d37 ebb5 0438 99d9 b037 9061 9136
00000120: 98ec 5c37 a192 c822 2354 1b38 f1c3 0a37
00000130: 5d72 0038 b643 0838 2976 8337 15b7 3d37
00000140: d33d f230 7775 8139 1e64 4f38 3108 0339
00000150: f282 4338 21d8 b437 f987 a038 5e1f d737
00000160: a394 b237 f2e6 bd37 c597 5538 be25 3438
00000170: 35f7 1438 4417 9137 636d 7738 c165 8a37
00000180: 4d1b 9537 38aa f537 6c5f 9637 f2fe 4d2f
00000190: dfee 1038 fce5 8a37 514a 1337 71b3 8337
000001a0: f9cb 6337 ae06 0c37 dd1c 3e37 d02c 6837
000001b0: d312 c238 ea28 d437 51dd 8c38 fb4a 6437
000001c0: c8ad 8537 34bd 2e37 56f8 b727 b204 ea37
000001d0: 08ca 4f37 5275 3a38 e63a 5839 0a75 5737
000001e0: 0f11 fc37 9f0e a937 2b10 a637 c059 5937
000001f0: fca6 8238 d830 9937 3b9f a137 20b4 7837
