ppo_2layer_2/ppo_agent_episode_200.pth (torch, 596526 bytes, 21 tensors)

fc1.weight f4 [128, 260]
000000 6a 12 38 3d a5 62 e7 3a 69 77 e0 3c 84 fb 13 bd
       0.044939436 0.00176533 0.02740069 -0.036128536
000010 f5 c9 05 bd 0d 2b 65 3c 11 ea c6 bc 44 d0 0b 3d
       -0.032663304 0.013987315 -0.024281533 0.034134164
000020 16 5b 8a bd 17 39 90 bc b9 71 54 3d 85 b5 6d 3c
       -0.067556545 -0.017605348 0.051866267 0.01450861
000030 4a b8 5e 3c 1d 91 2e bc ed c4 5c bd 88 26 d8 3c
       0.013593743 -0.010654715 -0.05389874 0.02638556
000040 95 b6 db bc 15 e9 d6 bb 4f 63 85 3d 98 90 ca bc
       -0.02682046 -0.0065585473 0.06513082 -0.02472715
000050 1f 0f 8c 3d 2c d8 7f 3d d6 e1 3b bd 00 fb cb bc
       0.068388216 0.062462017 -0.04586967 -0.02489996
000060 7a 43 a1 bc f7 2b 8f bc 05 8f 74 3c b3 83 c6 bd
       -0.019685496 -0.017477019 0.014926677 -0.096930884
000070 59 3b 8e 3c a9 71 c6 3c 40 4b 0f 3d 25 02 ff bb
       0.017362284 0.02422412 0.034983873 -0.007782238
000080 7e b3 35 3b db 1d 2c 3d b8 7b 89 bc b5 62 5f 3d
       0.0027725394 0.04202066 -0.016782627 0.054537494
000090 cd c6 0c 3c 1f 63 b5 3c 4d 45 ac bc 45 14 8e bc
       0.00859232 0.022141991 -0.021029139 -0.01734365
0000a0 4d 36 02 bd 90 b3 4d bb 2c 7d 21 bd c5 22 5b bd
       -0.031790067 -0.0031387545 -0.039426014 -0.053499956
0000b0 30 3e b6 bc 02 47 23 bc 70 d6 22 3d 83 54 7d bc
       -0.02224645 -0.00996566 0.039755285 -0.015462044
0000c0 8f 8a ac 3c 96 63 34 bd 0b dc 15 bd 94 b7 52 3d
       0.021062164 -0.044040285 -0.036586802 0.051444605
0000d0 1e 26 b0 3c 82 93 aa bb 01 1f f6 bb 38 ba 1e 3d
       0.02150255 -0.0052055726 -0.00751102 0.03875181
0000e0 35 4e 07 3d 6c 1e 61 bc 86 2c 90 3a 1f 37 91 bc
       0.03303357 -0.013740163 0.0010999597 -0.01772648
0000f0 26 ef 26 bd 7d 7f 08 3d f9 ea 57 3d 45 e3 99 3c
       -0.040755413 0.033324707 0.05271432 0.018785128
000100 52 da 6e 3c d0 bb b4 3c a5 ea 2b bc e9 d1 26 bd
       0.014578419 0.022062212 -0.010492955 -0.04072753
000110 12 61 5b bd c7 b0 cf 3c 5c 4a 47 3d 4c 47 00 bd
       -0.05355937 0.025352849 0.0486549 -0.031317994
000120 65 d2 de 3c a8 7f 1d bc 21 43 a2 bd 5a 6d 0a bc
       0.027199933 -0.009612955 -0.0792296 -0.008448923
000130 31 d6 19 bc a8 72 f9 3c 85 43 81 bc 42 57 b4 bc
       -0.009389446 0.03045018 -0.015779266 -0.022014264
000140 ef c0 54 bd 8a 77 e1 3b c9 7d 43 bc 61 c0 13 3d
       -0.05194181 0.0068807052 -0.011931845 0.03607214
000150 3f 16 1d bc 56 5b 08 bd 07 da 3a bd 07 c4 37 3d
       -0.009587823 -0.03329023 -0.045618083 0.04486468
000160 b0 33 ad b7 5c 15 73 bd 68 f9 71 3c cd 45 1f 3d
       -2.0647276e-05 -0.05934654 0.014768936 0.038884927
000170 70 d3 0b bd 1c ac 66 bc ac 49 3f bd 08 cf 15 bd
       -0.03413719 -0.01407912 -0.04670112 -0.036574394
000180 58 8d 2b 3d 6d 41 c1 bc d7 a2 05 bd 42 9a e1 bc
       0.041882843 -0.023590768 -0.032626 -0.027539376
000190 29 57 22 3d 92 86 4f ba a6 fd 69 bd 12 03 65 3c
       0.039633904 -0.0007916476 -0.057126664 0.013977783
0001a0 c4 3d d6 bc 54 ca 47 3d bb ee 77 bd 29 7d 39 3d
       -0.026152499 0.04877694 -0.060530405 0.045285378
0001b0 e7 34 fd bc 8a af 3f 3d 72 81 2c 3d d2 df 3b bc
       -0.030909015 0.046798266 0.042115636 -0.011466937
0001c0 53 c4 3b bd 95 e5 91 bc 46 47 46 3d 0c 4f c1 3d
       -0.045841526 -0.017809669 0.048407815 0.09438905
0001d0 34 3a de 3c 63 c1 f4 3c 5a 29 95 bc 65 01 72 bd
       0.027127363 0.02987737 -0.018208195 -0.05908336
0001e0 0a 0a d6 bc 28 eb 9b bd 18 89 9c 3c be 49 74 3d
       -0.026127834 -0.07613212 0.01910834 0.05964064
0001f0 49 02 dd 3d a4 bd 96 3d 1c 24 9d bd 7e f2 ac 3c
       0.107914515 0.0736039 -0.07672903 0.021111723
000200 58 05 9a 3d 9d 86 9a bc fe 23 9c 3c 7f 02 71 bc
       0.075205505 -0.018863017 0.019060131 -0.014710068
000210 4f 77 15 3d bc 7d 99 bc f9 75 22 bc 19 e9 4d bd
       0.036490735 -0.018736713 -0.009915822 -0.050271127
000220 c8 80 25 3d 16 e1 30 3c dd 57 e9 3b d5 a2 c0 bc
       0.04040602 0.010795852 0.00712107 -0.023515144
000230 76 50 32 bd ec 23 26 3d d9 12 82 bc 59 0e 15 3d
       -0.043533765 0.0405616 -0.015878128 0.036390636
000240 3f ff 82 3d fd 3c 37 3d 5a e6 cb 3c d6 61 d3 3c
       0.063963406 0.044735897 0.024890114 0.025803488
000250 88 61 89 3d c0 eb 3f 3d 94 9d 89 3c c7 53 11 bd
       0.06708056 0.046855688 0.016798772 -0.035480287
000260 16 07 03 3d fa fa 2c 3c 2e f4 9a bc 3b dc 36 3d
       0.03198918 0.010557884 -0.018915262 0.044643622
000270 ac ff 58 bd e9 73 82 3d d1 72 6a bd b9 d7 0d 3d
       -0.052978203 0.06369764 -0.057238404 0.034629557
000280 1c 24 6e 3d a8 ea d5 3b 4e da a5 3c 0e 94 ca 3c
       0.058139905 0.0065282173 0.020245697 0.024728801
000290 1c ad 37 bd c1 43 55 bd e2 10 1b 3d 23 01 c3 bc
       -0.044842824 -0.05206657 0.037857898 -0.023804253
0002a0 6f a0 58 bd ad a1 fc bc 6f 3a ee 3b 9a 82 4e 3c
       -0.052887376 -0.030838812 0.0072701494 0.01260438
0002b0 32 53 aa 3d 1d 84 57 bd 33 46 65 3c 8d eb 32 3d
       0.083166495 -0.052616227 0.013993788 0.04368167
0002c0 10 60 12 3d a4 1c 97 bd e7 95 c3 bc 4e 3d bc 3c
       0.035736144 -0.0737851 -0.02387519 0.022978451
0002d0 11 5c 66 bd 56 36 99 3c f1 1c 60 bd 20 6a 22 bd
       -0.056240145 0.018702667 -0.0547151 -0.03965199
0002e0 e2 71 d9 3d 88 57 4c bd 00 46 33 3b 09 91 46 3d
       0.106174245 -0.049888164 0.0027354956 0.04847816
0002f0 8b 2e 1f bd 8c 35 7b 3d 19 a3 ac bd 9f 6b 7d 3d
       -0.038862746 0.061330363 -0.08429546 0.061870214
000300 47 02 83 3d 1b 5a e2 bc 60 17 ae 3c b1 03 8f 3d
       0.06396919 -0.027630856 0.02125138 0.06983126
000310 fc 72 97 bc 59 60 b1 3d f9 d7 ce bc c2 f1 18 3d
       -0.018487446 0.08660955 -0.025249468 0.037339933
000320 a1 81 a3 bc 5d 02 92 3d 25 54 0d bd 3d 9c 63 bd
       -0.019959273 0.07129357 -0.034504075 -0.055568922
000330 95 e1 3b bd 6a cc c2 bc 2c 4d ad 3c 4d 5b 8c bb
       -0.04586943 -0.023779113 0.021154962 -0.004283345
000340 5b af 7d 3d 43 35 86 3c 25 c6 ee bc 26 95 c0 3b
       0.06193481 0.016382819 -0.029147217 0.005877155
000350 c8 b3 3e 3d 7c 9e f4 bb 99 95 bc 3c ae d6 9b bc
       0.04655817 -0.007465182 0.023020552 -0.019023266
000360 0d 09 9e 3c 65 89 54 bc d7 34 97 bc cd 54 9e bd
       0.019291425 -0.0129722105 -0.018457813 -0.07731018
000370 8e 77 20 bb b9 d6 56 bd d3 d2 6b 3d f1 29 2e bd
       -0.0024485323 -0.05245087 0.057574105 -0.042520467
000380 76 20 fa 3c f1 47 a6 3b e1 5d 61 3d 9f f2 f0 bb
       0.030533057 0.005074494 0.05502117 -0.0073531414
000390 f7 de fc bc b8 f5 46 bd f0 a5 ad 3d 9a d5 e2 3c
       -0.030868037 -0.04857418 0.08478916 0.027689744
0003a0 e0 90 57 bc 43 56 fe b8 12 ab 4b 3d 05 66 a9 3d
       -0.0131570995 -0.00012127731 0.049723692 0.08271412
0003b0 33 75 51 bc 7b 27 8d bc c9 6d 4f bb a5 cb 5b bd
       -0.01278429 -0.01723074 -0.003165113 -0.053661007
0003c0 2f 51 77 bd 61 fa 8b 3b 5b ec e9 3b a1 31 2a bd
       -0.060380157 0.004271791 0.0071387715 -0.041551236
0003d0 da 47 92 bb 8b c6 06 3d be 21 33 3d 51 ad 1d 3c
       -0.004464132 0.03290419 0.04373335 0.009623841
0003e0 a3 c1 25 3d 6c a7 7d bd 02 dc 70 3d 07 24 20 bd
       0.04046787 -0.061927244 0.058803566 -0.03909686
0003f0 4f b3 19 bd fc 7c ee 3c 3a 63 a5 3c 2e ae 02 bd
       -0.037524518 0.029112332 0.020188916 -0.031904392

fc1.bias f4 [128]
000000 b7 d1 77 3b c2 1a b7 bc 50 ad dd bb 43 fb 87 3b
       0.0037814209 -0.022351626 -0.006765045 0.004149826
000010 8a 3d 15 3d 2c b1 63 bc 9c f2 6e bd d3 45 ad bc
       0.03643564 -0.013897222 -0.05833684 -0.021151459
000020 ac 17 34 3d 8a ed ae 3c 02 93 69 3d cc 59 98 3b
       0.043967888 0.021353502 0.057024963 0.0046493765
000030 3f d7 67 bd b4 55 f9 bb 0d 77 67 3d 65 c7 81 3c
       -0.05660176 -0.0076090936 0.05651002 0.015842149
000040 7e b9 12 bd 52 94 a0 bb 30 6a 26 bd a3 25 51 3d
       -0.03582143 -0.0049004937 -0.040628612 0.051061284
000050 dd 10 4a bc 1f 12 26 bd 42 19 48 3d a0 52 9e 39
       -0.012333122 -0.040544625 0.048852213 0.0003019767
000060 ee f1 d6 3c 29 ef 16 bd c8 c9 81 bd 0f b6 6b 3d
       0.026238408 -0.036849175 -0.06337315 0.05754667
000070 ca 03 37 bd 64 1a ac bc 4a ad a7 3d 6b 70 8b 3d
       -0.044681348 -0.021008678 0.08187349 0.068085514
000080 d4 df 04 3d 19 e6 0e 3c 7b 34 01 bd 55 d6 21 bd
       0.03244002 0.008721852 -0.03154419 -0.039511044
000090 e1 5c 02 3d 07 9d 00 bd 1b eb 6c 3c c5 d2 02 bd
       0.031826857 -0.031399753 0.01446035 -0.031939287
0000a0 76 3f 29 3d cc 36 1a bd 75 93 0f bc 81 5b 2c 3d
       0.041320287 -0.037649915 -0.008763184 0.042079452
0000b0 2c b4 0d 3d 0c ca d3 3c 46 eb 94 bc 6e bf 1d 3d
       0.034595653 0.02585318 -0.018178593 0.03851264
0000c0 d4 9b 5c bd a4 68 36 3a 72 99 84 3d c3 ab 79 3d
       -0.053859547 0.00069583417 0.0647458 0.06095482
0000d0 a5 a8 3b bb 9c 82 c8 bc af 89 86 3d 80 b4 dc 39
       -0.0028634456 -0.024476342 0.0656923 0.00042096153
0000e0 e0 2b 93 bb 47 41 c7 3c 11 30 90 3d 3d cf 35 bd
       -0.0044913143 0.024323119 0.07040418 -0.04438709
0000f0 3f 89 a7 bb b4 96 84 bc d0 c0 b2 bc d8 b4 55 3d
       -0.0051127966 -0.016185142 -0.021820456 0.05217442
000100 d9 89 34 bd 93 ff 48 bd e6 29 6f 3c 04 a1 11 3d
       -0.044076774 -0.04907186 0.014597392 0.035553947
000110 28 10 39 3b 96 45 a3 bc 12 bc eb bc 19 6a 65 bc
       0.002823839 -0.019930642 -0.028776202 -0.014002346
000120 fd 08 ec bc 76 61 72 bd 4b 08 a7 bc 3f 2a 54 bd
       -0.02881288 -0.059174977 -0.020389697 -0.0517981
000130 da e9 0b bd 46 70 f0 3c d9 8f 6a bc f9 4b 2c 3c
       -0.034158565 0.029350411 -0.0143165225 0.01051616
000140 55 5a 82 bd 3f 7f 8f 3d 0f 70 36 3d 89 66 89 bc
       -0.06364886 0.07006692 0.04454046 -0.016772525
000150 a9 b6 1f 3d d3 e0 3c bd 95 9c ac bb ad 6d a4 bc
       0.038992558 -0.046112847 -0.0052676895 -0.020071829
000160 ac 1a 5c bc 43 e8 11 bc ae 44 2e 3d db fe 43 3d
       -0.013434093 -0.008905473 0.042545967 0.04785047
000170 d0 32 bb 3c e0 11 0f bc e8 bc 0e 3d 71 6b 2b bd
       0.022851378 -0.008732289 0.034848124 -0.04185051
000180 77 67 03 bc 06 af 2b 3d ed 24 15 bd dc 64 42 bd
       -0.008020273 0.041914962 -0.03641217 -0.04745947
000190 7f d6 d1 3c 9e 2b 69 3d 4e bd 45 bd f7 e2 b4 bc
       0.025614975 0.056926362 -0.04827624 -0.022080882
0001a0 e3 7a ec ba 4b c3 b3 bc eb 31 ed bc 82 c7 e8 3b
       -0.0018041994 -0.021943709 -0.028954467 0.0071038613
0001b0 ba f2 bf 3c a0 02 28 3b 4c 06 16 3d 23 e0 b2 3c
       0.02343117 0.002563633 0.0366271 0.021835392
0001c0 2b f4 10 3d 26 4e ab bb 3e 20 04 3d 4e 37 ed 3c
       0.035389107 -0.005227822 0.03225731 0.028957035
0001d0 9f 36 84 bd 8e 68 4e bd 37 aa 18 3d 12 88 22 3d
       -0.06455731 -0.05039268 0.037271705 0.039680548
0001e0 d9 db 17 bc 02 68 c3 3c 0a 75 39 3d 60 06 de 3a
       -0.009268724 0.023853306 0.045277633 0.0016939156
0001f0 a3 d4 9d 3d c2 89 fe 3c 6c 9f ca bc 25 27 10 3d
       0.07706573 0.031071547 -0.024734221 0.03519358

fc2.weight f4 [64, 128]
000000 e2 ac d9 bb 5a 1c c9 3d e7 0c d7 3d 56 50 1a bd
       -0.0066429237 0.09819861 0.10500508 -0.03767427
000010 8e 89 b1 bd a2 5e 88 3d 95 e7 6b bd 0f 1a 83 3d
       -0.086688146 0.06658675 -0.0575939 0.06401455
000020 de 88 6c bc 35 d0 74 3d 8f 13 68 bd 25 a8 6a 3c
       -0.014436929 0.059768874 -0.056659278 0.014322315
000030 bf 49 53 3b 5c 96 28 bd 24 3a 28 3d 00 0a a6 3d
       0.003224 -0.04115902 0.041071072 0.08107376
000040 95 d9 2f 3d 41 05 ad 3c b8 cc 26 3c 61 57 60 3d
       0.04293211 0.02112067 0.010180645 0.05477083
000050 08 42 df bd aa 77 ca 3c d6 38 94 3d 8c 9b 98 3d
       -0.10901266 0.024715263 0.07237403 0.07451543
000060 f1 dd 83 3d b2 47 4e bc 6b 73 c2 bd 74 35 7f bd
       0.06438816 -0.012590336 -0.094946705 -0.062306836
000070 60 f0 8c bd e1 18 10 3d 8f 1f 7a bd 17 2a 72 bd
       -0.068817854 0.035179976 -0.061065253 -0.05912217
000080 05 0b 6f 3d 04 3a b8 bc 69 9c 6d 3c cf 98 4b bd
       0.05836012 -0.022488602 0.014502623 -0.049706277
000090 ca 1c 64 bc 90 a0 27 3c 4c 75 84 3d c8 03 a3 bc
       -0.0139228795 0.010231152 0.06467685 -0.019899264
0000a0 3f a0 9b bd 37 37 8f 3d 0f 2e fa 3a d4 2a 11 3c
       -0.07598924 0.06992953 0.0019087213 0.008860309
0000b0 a0 ee 93 bd 77 d9 b0 3c ca c8 53 3d 0b 26 84 3d
       -0.072232485 0.02158807 0.05170516 0.064525686
0000c0 1b be 70 bd 0c e8 bd bc 92 53 72 3d 4e 4b 44 bd
       -0.05877505 -0.023181938 0.05916173 -0.04792338
0000d0 c0 67 fa bc 19 9c 19 bd 82 27 46 3d 38 07 d2 bc
       -0.03056705 -0.037502382 0.04837752 -0.025638208
0000e0 d3 df ad 3d 57 87 92 3d 71 fe ae 3d f2 5d 15 3c
       0.08489957 0.0715472 0.085446246 0.009116637
0000f0 57 24 44 bd 6d 9d 1f 3d b6 5b 4a 3d ba 39 c5 bd
       -0.04788622 0.038968492 0.04940387 -0.09630151
000100 8f 47 62 bd e6 d6 7e 3c cf e7 20 bb 71 db 31 3d
       -0.055244025 0.0155541655 -0.0024552231 0.043422166
000110 16 e7 e9 3c 76 b1 9d 3c 1b 31 54 3d 11 ee db 3c
       0.028552573 0.019249659 0.051804643 0.026846917
000120 a6 6f 8a 3d 35 5d 0f bd 68 f7 6d 3d 3a 82 a3 ba
       0.067595765 -0.035001 0.058097273 -0.0012474724
000130 68 91 85 bd 87 4a 62 bd c3 24 8c bd 1b e2 2e bd
       -0.06521875 -0.055246856 -0.06842949 -0.0426961
000140 24 13 5c bc 2f f7 4e 3d 8a 8e 35 bd b8 3e 16 bd
       -0.013432298 0.0505287 -0.04432539 -0.036680907
000150 51 cd e9 bc 31 be 3a bd a3 eb 75 bd 6f 7f f1 3d
       -0.028540285 -0.045591537 -0.060039174 0.11791884
000160 53 7f f9 3d dc 47 a3 bc 88 5c 01 bd 5a 12 58 3d
       0.12182488 -0.019931726 -0.031582385 0.052751876
000170 77 b6 8f 3d c3 93 4e bd 6d 00 81 3d 81 96 e3 bb
       0.07017224 -0.050433885 0.06298909 -0.0069454317
000180 87 a7 03 3d f5 e1 4e 3d 92 20 81 3d ab 13 b5 3c
       0.03214219 0.05050846 0.063050404 0.022104105
000190 d0 8b a0 bd d1 bd 48 3c b8 23 05 bd af 26 b0 3b
       -0.07839167 0.012252287 -0.032504767 0.005375705
0001a0 07 36 4f bb 42 0c c5 3d f0 39 8a bc f0 7f 94 bc
       -0.0031617896 0.096214786 -0.01687333 -0.018127412
0001b0 4f 11 a0 3d 18 19 97 3d 8c 55 72 3d af 44 bc 3d
       0.07815801 0.07377833 0.059163615 0.09192788
0001c0 39 e9 5b bc af 16 a2 bd 8c 78 78 3d 9a d1 8c bd
       -0.013422304 -0.07914483 0.060661837 -0.06875916
0001d0 0e 41 e6 3c f6 5d 71 3d ac ec 41 bd f3 97 0f 3d
       0.028107192 0.0589275 -0.04734485 0.03505702
0001e0 95 d1 2e bd 60 cf b4 bc 03 a0 aa 3d 30 a1 97 bc
       -0.04268034 -0.02207154 0.08331301 -0.018509477
0001f0 15 2a b6 bb 37 fb 8e bb 9e 04 c8 bc de 5f a1 bd
       -0.005559216 -0.0043634432 -0.024416264 -0.07879613
000200 9f 17 0d bd e7 6a e0 3d 55 58 d0 3b fb 9c b7 3d
       -0.034446355 0.1095789 0.0063581862 0.089654885
000210 a8 a6 b9 3c 0c 0a af bd 4a f5 2e 3d 90 2e 4a 3c
       0.022662476 -0.08546838 0.042714395 0.012340203
000220 66 95 b2 3d 7d 5a 2c bd a3 1d e0 bc 2c 54 8d 3c
       0.08719902 -0.042078484 -0.027357882 0.01725205
000230 b9 a1 b4 3d b4 38 d5 3c 6e 09 bd b9 20 25 02 bd
       0.08819909 0.026028015 -0.00036055915 -0.031773686
000240 19 c1 b6 bd 50 18 80 bc a9 3f 30 3d 9d b0 a4 3d
       -0.08923549 -0.015636593 0.04302946 0.08041499
000250 b5 0a 83 3c f5 9d 09 bd 5f 44 12 3d f9 1e fc bc
       0.015996316 -0.033597905 0.035709735 -0.030776488
000260 66 01 92 bc 49 86 ac 3d 56 61 32 bb d8 52 54 bd
       -0.017822932 0.0842405 -0.0027218661 -0.05183682
000270 ea 25 6d bd ea 8f 89 3d dc 73 9e bb 97 03 b0 bc
       -0.057897486 0.067169026 -0.004835589 -0.021486087
000280 93 c1 9c 3d 0f b6 3f 3d 6c 33 a5 bb f3 bb 0c 3d
       0.07654109 0.046804484 -0.0050415304 0.03435893
000290 26 ae 8e 3d 94 f5 8d bd 27 f7 8f 3d 9e 66 06 3d
       0.0696681 -0.06931606 0.070295624 0.032812707
0002a0 70 d8 63 bd b7 e2 05 3c f1 de b0 bd 55 10 cd bd
       -0.055626333 0.008171729 -0.08636273 -0.10012881
0002b0 af 50 9b 3d 95 0b 8d bd 21 15 aa bb 2d e4 7f bd
       0.075837485 -0.06886975 -0.005190507 -0.062473465
0002c0 0d c8 57 3b a5 68 41 bc eb f3 af 3d a1 80 34 3d
       0.0032925636 -0.011804734 0.085914455 0.044067983
0002d0 b6 43 84 bd 54 81 5f bd b1 46 0d 3c 6f 4a a9 3b
       -0.06458227 -0.054566696 0.008622811 0.005166344
0002e0 a9 9b 00 bc 04 3a cc 3b a1 ba 4b bd 5a 7f aa bd
       -0.007849612 0.006232502 -0.04973853 -0.08325072
0002f0 f3 dc 3e 3d 3a 88 d5 3c f2 e9 cb bd 24 7d 87 3b
       0.046597432 0.026065934 -0.09956731 0.004134791
000300 fa 32 28 bd 88 91 54 3d 68 60 0a bd 18 5d 91 bc
       -0.04106424 0.051896602 -0.033783346 -0.017744586
000310 3c 8a a1 3b c4 db b1 bd 88 55 90 3c 5f 6c 29 3c
       0.004929809 -0.08684495 0.01761891 0.010340779
000320 60 f5 43 bc 36 06 92 3d 08 10 8d bc 8a f9 08 3d
       -0.011960357 0.07130091 -0.017219558 0.033441104
000330 ea 84 ac 3d fe 7e a7 3b 8c 2e ae 3d 2a 52 a4 bd
       0.08423789 0.005111574 0.08504972 -0.08023484
000340 cf 81 52 bd 72 7c 33 bd eb 5f 0a bd ce 85 59 3d
       -0.051393326 -0.043819852 -0.03378288 0.05310612
000350 6f d1 a4 3b ee 8c 6c 3d 1c 46 ac 3d 81 b4 33 3d
       0.0050298492 0.05775159 0.0841181 0.043873314
000360 95 9e 7c bc fc fd bf bb 3e 39 8d 3d 28 e4 86 3d
       -0.015418668 -0.0058591347 0.06895684 0.06586486
000370 4e e5 b9 3d 92 c0 9e bc 49 65 9e bd e1 08 9c bc
       0.090769395 -0.019378934 -0.07734162 -0.019047203
000380 64 a8 ae bd f5 7c 31 bd 27 39 6c 3c 97 be 3d 3d
       -0.08528212 -0.04333206 0.014417923 0.04632434
000390 1d 8f f3 bc 17 2a 6e bd 15 19 aa 3d 7a 81 86 3d
       -0.029731328 -0.05814561 0.08305565 0.065676644
0003a0 9c a5 cc bd fd fc f4 3d 66 03 9a 3c e5 31 65 bd
       -0.09992525 0.11962316 0.018800449 -0.055955786
0003b0 ed d2 e5 bc db c5 56 bd 5d cf 05 3c 47 ab 9c 3c
       -0.028054679 -0.052434783 0.008167115 0.01912464
0003c0 43 d5 99 bd f6 0c a1 3d 67 55 dd bc d3 37 f1 3c
       -0.075113796 0.078638 -0.027018262 0.029445564
0003d0 49 72 a0 bd b9 a2 e2 3c d5 ff 8a 3d b0 d7 95 3d
       -0.07834298 0.027665483 0.06787077 0.0731653
0003e0 3c c1 98 3d f5 e0 05 bd af f2 34 3d 6f 46 59 3d
       0.074587315 -0.03268524 0.044176754 0.053045686
0003f0 fa 35 80 bd b9 6b a3 3d 75 e9 bf bb 8b 26 ae bc
       -0.06260295 0.07979531 -0.0058566877 -0.021258613

fc2.bias f4 [64]
000000 59 27 8e bd 04 f6 27 3c 8d 00 26 3b cc ce 9b 3d
       -0.06941099 0.010251526 0.0025329918 0.07607803
000010 f9 64 59 bc 81 d1 9b 3d b4 8a ae bd 08 05 86 3d
       -0.013268703 0.07608319 -0.08522549 0.065439284
000020 1f 7f 20 3e 5a a4 bb 3d 8d a4 53 3c 9e 77 b9 bd
       0.15673493 0.09162207 0.01291765 -0.09056018
000030 39 4b a6 bc f0 ee 93 3d d2 fe 21 bd 54 ef 77 3d
       -0.02029954 0.07223308 -0.039549656 0.060530975
000040 6e a0 9a 3d 99 cd 61 3d 30 11 a0 bd ce d1 a7 3d
       0.07550131 0.055127714 -0.07815778 0.08194314
000050 e7 dc 91 bc 3f 09 92 bd 21 cc b1 3c 22 8b c9 3c
       -0.01780553 -0.0713067 0.021703782 0.024602477
000060 06 07 de 3c fb b1 a2 3b 0a cf 87 3c fe d9 94 3c
       0.027102958 0.0049650646 0.016578216 0.018170353
000070 0e 7a 82 3d 25 81 a9 3c b2 c0 1b 3d 70 5c 9b bd
       0.06370936 0.020691464 0.038025565 -0.075859904
000080 d9 24 87 3d c2 f8 44 bd f2 93 e1 3c b7 e7 19 bd
       0.06598825 -0.048088796 0.027536366 -0.037574496
000090 53 35 74 3c 32 f2 92 3d ea 4d 3b bd 53 44 40 bd
       0.014905292 0.07175101 -0.0457286 -0.04694016
0000a0 d5 62 42 3d 42 96 b7 3c 4e 5b d4 bc 6c 68 80 bd
       0.047457535 0.022410516 -0.025922444 -0.06269917
0000b0 35 36 1f 3d 5b 06 27 3c ce 21 4a bd 45 4a 38 bd
       0.038870055 0.010194386 -0.049348645 -0.044992704
0000c0 f3 75 ab bc b0 a5 ba 3d 1f 53 42 bd 1f 6a cf 3a
       -0.020930266 0.09113634 -0.04744255 0.0015824473
0000d0 02 8d 95 3b 2e fe dc 3c 21 05 6b bd cc 42 32 bd
       0.0045639286 0.026976671 -0.05737794 -0.043520734
0000e0 b2 71 71 3d bc a8 a4 bd 15 ea 27 bc 38 8b e1 bc
       0.05894632 -0.08039996 -0.010248681 -0.027532205
0000f0 16 fe 73 3d 52 5c 6c 3d c0 13 b0 3d b0 dc 37 3d
       0.059568487 0.05770523 0.08597517 0.0448882

policy_head.weight f4 [110, 64]
000000 88 3c 54 be 91 a6 35 bc 32 c3 ee bd 5c ee cd bd
       -0.20726216 -0.011087076 -0.11658324 -0.10055229
000010 02 76 08 be 16 bc cc bc e4 82 72 bd 6b c4 fe bc
       -0.13326266 -0.02499203 -0.05920686 -0.031099519
000020 20 5a 0c bd 76 8c 64 bd 6f b7 81 be 19 f1 f8 bc
       -0.034265637 -0.055798016 -0.2533526 -0.030388402
000030 f7 e3 b4 3d c5 d4 c9 bc 10 f3 05 be b5 07 16 be
       0.08832543 -0.02463759 -0.13081002 -0.14651377
000040 5a 8d 7c bd 35 7c 38 be 32 14 a6 bd e0 b2 93 bd
       -0.06165824 -0.18016131 -0.08109321 -0.07211852
000050 2b 33 60 bd ba be 76 be 93 9e 52 be b9 80 02 bd
       -0.054736298 -0.24096194 -0.20568304 -0.03186104
000060 a3 59 35 be d1 f6 fd bd 0a 68 17 be 4b 31 af 3c
       -0.17709975 -0.12400592 -0.14785782 0.02138581
000070 85 fc d5 bc 4f c8 f5 bd 04 b7 21 bd c4 c7 0b bd
       -0.026121387 -0.120010965 -0.039481178 -0.03412606
000080 2f 8c 05 be 8c 73 35 be 5d 91 a7 bd 3d 89 bd bd
       -0.13041757 -0.17719859 -0.08182023 -0.09254692
000090 ab ef 26 be ed c8 a4 bd f2 04 d8 bb 7b bc 2d bc
       -0.16302364 -0.08046136 -0.0065923864 -0.010604019
0000a0 a0 22 2c bd 32 0b 2b 3c a0 0a a5 3c 12 96 ae 3c
       -0.04202521 0.010439681 0.020146668 0.021311793
0000b0 a7 ee 30 bb 28 95 d7 3c dd 54 e4 3a ed 08 81 bc
       -0.0026997717 0.02631624 0.0017420311 -0.015751326
0000c0 69 21 99 bc a9 ff b0 3b b5 84 07 be ea 65 e8 3c
       -0.018692689 0.005401571 -0.13234217 0.028368909
0000d0 12 01 ab 3d 11 eb b4 bd f7 7a d7 3c fe be cb 3d
       0.083498135 -0.08833898 0.026303751 0.09948538
0000e0 8e 50 75 3c 0e f8 69 3d d5 85 e4 bd b3 73 a0 bd
       0.014972819 0.05712133 -0.11158339 -0.07834568
0000f0 7b 12 ba 3c c0 f1 00 be c9 2e 07 3c c2 38 92 bd
       0.02271389 -0.1259222 0.008250901 -0.07139732
000100 0d 81 1b be a3 bb cd bd c2 56 a0 3c 7f 92 e5 bd
       -0.15185948 -0.100455545 0.01957262 -0.112095825
000110 42 2f 80 bc 85 8a cd bd 4f 99 b3 3b d0 fc 09 be
       -0.015647534 -0.10036186 0.0054809223 -0.13475347
000120 2a 52 34 be 5d bc 3a 3d d6 32 4f be 54 7d a8 ba
       -0.17609468 0.045589793 -0.20234236 -0.0012854734
000130 72 12 c3 3d 98 a0 23 be 85 da 2f bc dd 8f ca bd
       0.095250025 -0.1597923 -0.010733251 -0.09890721
000140 4e 46 44 bd eb 4f b9 bd bd f4 1e 3d ee ed 35 be
       -0.04791861 -0.09048446 0.03880762 -0.17766544
000150 07 db 7b 3d d7 17 1c be fb fc 93 bd 39 70 4a 3d
       0.061488178 -0.15243469 -0.072259866 0.04942343
000160 14 3b 2b be b4 f3 d5 bc ee b5 c0 bd 0e 8a 3f 3d
       -0.16721755 -0.026117183 -0.094097 0.04676252
000170 49 07 d6 3d ad c8 b0 3d 77 eb bb bd 0e fc 22 3d
       0.10450608 0.08632026 -0.09175771 0.03979116
000180 fd 5f eb bd 37 53 28 bd 16 c8 15 be 67 67 54 bd
       -0.11492918 -0.041094985 -0.14627108 -0.051856425
000190 45 f4 a2 bd 0a 25 1c bd 47 a4 41 be 77 bb 11 3d
       -0.07956747 -0.03812126 -0.18910323 0.03557917
0001a0 ce f7 fa bc a4 36 0d bd 2b 03 a9 bd 52 dd 70 bc
       -0.03063574 -0.034475937 -0.08252557 -0.014701204
0001b0 32 9a 90 3d fa 7e 56 bd 92 2e 0d be 76 47 f7 bd
       0.070606604 -0.052367188 -0.13787296 -0.12074177
0001c0 d1 cf 57 be 3e 8a 88 39 e3 4e 38 be 21 a6 1a be
       -0.2107537 0.0002604294 -0.17998843 -0.15102436
0001d0 cc b0 01 3d c4 43 7f 3c 42 3d dc 3a 0f 23 3d bd
       0.031662747 0.015580121 0.0016802924 -0.046176013
0001e0 93 ff 8e 3d f9 f3 e3 bb 7d 63 81 bd 82 69 6f bd
       0.06982341 -0.006956574 -0.06317804 -0.05845023
0001f0 ad 63 92 3c 79 aa 80 bd a2 36 e5 3b 9b 52 ce 3b
       0.017869795 -0.06282515 0.006995038 0.0062964684
000200 97 f4 60 3e 82 88 e5 3d e1 31 3a 3e a6 20 91 3d
       0.21968304 0.112076774 0.1818309 0.07086305
000210 eb 99 12 3e f3 59 92 3d aa de e3 bc d5 3a 07 3e
       0.14316528 0.07146063 -0.027816135 0.13206036
000220 7d 5c 73 3e dc b6 03 3e 4b c3 5c 3e d5 48 e9 3d
       0.2376575 0.12862724 0.21558873 0.11390845
000230 1f 29 3c 3d cd d2 54 b9 4b a0 2e 3d 5e 1e e9 3d
       0.045937654 -0.00020296425 0.042633336 0.11382745
000240 d9 39 e3 3d d6 73 31 3e 33 65 ee bc b2 43 d2 3c
       0.11095018 0.17329344 -0.02910099 0.025667045
000250 ac e0 5c 3d c5 db 9f 3d ba ee 10 3d 63 19 f2 3d
       0.0539252 0.078055896 0.035383917 0.118212484
000260 fb df eb 3d 0c 05 4d 3e c7 1e 09 3e a3 b0 36 3e
       0.1151733 0.20021456 0.13390647 0.17840819
000270 9d cd 9f 3d 51 28 2d 3e 07 b6 8f bb 59 6c f4 3d
       0.078028895 0.1690991 -0.004385713 0.11934728
000280 27 1c 8c bd 81 ec 72 3c 12 33 be 3d f1 7e d6 3d
       -0.06841307 0.014826895 0.09287085 0.10473431
000290 27 bf 06 3e b5 4c 8f 3d 58 9b 28 3e 92 ad b7 3d
       0.13158856 0.069970526 0.16465509 0.08968653
0002a0 78 8d 2f 3e e2 61 b4 3b f6 62 98 bc e8 18 07 3e
       0.1714381 0.0055048326 -0.018601876 0.13193095
0002b0 48 8b a4 bb 4d e8 05 bc da 12 23 bc 90 ef 5d 3e
       -0.0050214864 -0.008173061 -0.009953225 0.21673417
0002c0 5d ab 5e 3e ad 7b f7 3d 5d 5b 15 3e 16 e3 26 bd
       0.21745057 0.12084136 0.14585634 -0.04074391
0002d0 9e c8 f3 bc bc bf c1 bc 92 91 3a 3d 47 a0 47 3c
       -0.029758748 -0.023650996 0.045548983 0.012184209
0002e0 60 cb 36 3e 39 f0 5f bd 51 2d 40 3c df 2d 35 3e
       0.17851019 -0.054672454 0.011729554 0.1769328
0002f0 bb d7 23 3e 11 fc 4a 3c 0b 6f 16 bd 70 0a 09 bd
       0.16000263 0.012389199 -0.036726993 -0.03345722
000300 d0 12 31 3d 07 35 2c 3e 62 e6 96 bc 3f ee 15 3e
       0.04323083 0.16817103 -0.018420402 0.14641665
000310 9a 96 f9 3c 78 55 5f 3d ef f7 8e bc 9d b7 52 3e
       0.03046732 0.05452487 -0.017452208 0.20577855
000320 56 d4 3f 3e 4d 5e 2a 3e cb 84 75 3e 0c 8f d5 3d
       0.18733343 0.16637535 0.23976438 0.10427675
000330 4a 50 aa 3d b3 29 12 3e 74 cd f4 3d e0 81 6f 3d
       0.08316095 0.1427372 0.119532496 0.058473468
000340 f5 e8 80 3e f6 f0 59 3e 56 07 48 bd 54 63 5d 3d
       0.25177732 0.21283326 -0.04883512 0.054049805
000350 6c b2 cc 3d 52 66 9a 3d 21 9b f2 3d eb e6 ca 3d
       0.09994969 0.07539047 0.11845995 0.09907325
000360 3c d0 24 bc fa 62 76 3d af b5 a0 bd 0e 85 26 3e
       -0.010059413 0.060152985 -0.078471534 0.16261694
000370 82 a6 3b 3d 1e 66 75 bd 99 2a 43 3d 47 5d 27 bc
       0.04581309 -0.05991184 0.047648046 -0.01021511
000380 1e 3b 0c be c9 6a 58 3e b8 ec 5c 3e 89 5c 9c 3d
       -0.13694426 0.21134485 0.21574676 0.07634837
000390 a7 30 60 3e ca 4c 0c 3b 58 77 8b 3c 8e 41 02 bd
       0.2189356 0.0021408075 0.017024681 -0.0318008
0003a0 e9 42 5e 3e 29 cc 0e 3e 84 1b 13 3d 71 68 2b 3e
       0.21705212 0.13945068 0.035914913 0.1673906
0003b0 2e 6e 56 3e 81 c0 cd 3c 69 46 0d 3e ef cc fa 3c
       0.20940468 0.025116207 0.1379639 0.030615298
0003c0 34 4c 28 3e e5 0b 07 3e 0e 43 e0 3d 94 db 89 bd
       0.16435319 0.13188131 0.1095029 -0.06731334
0003d0 36 31 03 3c cd a6 13 3e e1 f2 53 3e f9 dc e3 3b
       0.008007338 0.14419098 0.2069812 0.006953832
0003e0 fc b3 37 3e 51 d8 f3 3d 59 61 49 3c ef 03 57 3d
       0.17939752 0.119064935 0.012291276 0.052493986
0003f0 65 1e 5d 3e a2 c0 06 3d e9 fb 03 3e bc 85 3c 3b
       0.21593626 0.032898553 0.12889065 0.0028766235

policy_head.bias f4 [110]
000000 01 c5 2d be 94 e3 f8 bd 55 02 c0 3d 5e 7e a4 3c
       -0.16969682 -0.12152782 0.09375445 0.020079788
000010 5b 4b 77 3d 3d 52 15 be ff a3 01 be 10 50 50 bd
       0.0603746 -0.14582153 -0.12660216 -0.050857604
000020 3b 61 8c bd 20 ad 0b bd ae 62 52 bb be 19 35 3d
       -0.06854483 -0.03410065 -0.0032102275 0.044214003
000030 d3 c6 a7 3d 65 be 58 bd 00 d8 09 3d 43 63 ad 3d
       0.081922196 -0.05291595 0.03365326 0.08466198
000040 6b e1 64 3d 07 5c 7d bd 64 c5 bb 3d 3b 7f ac bd
       0.055879038 -0.061855342 0.09168509 -0.08422705
000050 df a0 ae 3d f6 b7 7f bc 75 71 4f bc 7a b1 81 bd
       0.085267775 -0.015607825 -0.012661328 -0.06332679
000060 47 24 42 bd 8e 54 b1 3d dc 7a c2 bd cd c7 00 3e
       -0.047397878 0.08658706 -0.0949609 0.12576218
000070 1a 47 d3 3d e2 ac ed 3d 14 3e 35 3c 87 18 85 bc
       0.10316296 0.116052404 0.011062164 -0.016247047
000080 d1 fa aa bd 91 5c 99 3d 20 a3 20 bd c8 4c c7 bd
       -0.08348621 0.07488359 -0.039218068 -0.09731442
000090 9b d6 01 3d 2f 41 db 3a 8d 29 9e bd 57 8a 92 bd
       0.031698804 0.00167278 -0.07722769 -0.071552925
0000a0 19 06 51 3c 1a 72 1e bd 9d 5f c2 bc 17 6e cc bd
       0.012757801 -0.038683034 -0.023727233 -0.099819355
0000b0 98 f8 80 bd 54 42 c6 3d 9b a1 a1 ba a2 5f 4e bd
       -0.062974155 0.0968062 -0.0012331487 -0.05038417
0000c0 4a d5 59 bd ca 0a 33 bd 96 a9 0c bd 22 d9 44 bb
       -0.053181924 -0.04371146 -0.034341417 -0.0030036648
0000d0 3c 06 2d 3d 2d e4 22 bd 31 0e 20 bd 8f d0 bc bb
       0.042242274 -0.039768387 -0.039076034 -0.005762167
0000e0 d5 b1 ba 3d d2 2c a8 3d ef bb 16 be 88 a8 16 be
       0.0911595 0.08211674 -0.14720128 -0.14712727
0000f0 89 e3 de bd fa 4b f1 bd a6 d3 1c be 58 c2 b3 bd
       -0.10883243 -0.117820695 -0.15315112 -0.087773025
000100 d7 78 14 be 0d a8 29 be 31 65 14 be fe 7b 8e bd
       -0.14499222 -0.16568013 -0.14491726 -0.069572434
000110 c7 8b 60 3d 87 d8 5e 3d 8c 3f 2d bd 3b 3b 31 3d
       0.054820802 0.054405715 -0.04229693 0.043269377
000120 68 14 7b 3d 84 d5 77 3c 2d c9 dc bd ed 8a 31 bd
       0.061298758 0.01512659 -0.10780559 -0.04334538
000130 72 09 de 3c 98 2b b8 bd 87 54 90 3d 09 c6 52 bd
       0.027104113 -0.0899269 0.07047372 -0.051458392
000140 17 95 01 bd 52 96 28 be 84 f6 84 3d 18 6d 67 bd
       -0.031636324 -0.16463593 0.064923316 -0.056500524
000150 e9 b0 2c 3d 8e 84 73 3b 8d 25 2f bc 7c 11 26 be
       0.042160902 0.0037157866 -0.010690105 -0.16217607
000160 87 6b 14 be e4 64 24 be 6a ba 6f bd 3d 90 f4 bc
       -0.14494143 -0.16054112 -0.058527388 -0.029853934
000170 98 ca 8e bc 47 63 1a be f8 13 9d 3c cb 5b 41 3d
       -0.017430589 -0.15076934 0.01917456 0.04720668
000180 0a 59 a2 bd 93 ad 10 be e0 91 84 3d de cb 9b bd
       -0.07927139 -0.14128713 0.06473136 -0.07607244
000190 9f e9 b6 bc 4b 2b 01 be 98 26 a3 3c 29 8d 5a bd
       -0.022328196 -0.12614171 0.019915864 -0.053357277
0001a0 d6 a3 9d bd 30 c0 a8 bd d6 99 7e 3d c6 e8 ec bd
       -0.07697265 -0.08239782 0.062158428 -0.115678355
0001b0 90 53 16 3d e3 bb 97 bd
       0.036700785 -0.074088834

value_head.weight f4 [1, 64]
000000 02 0c fc 3d cb 02 cd 3d 40 44 a1 3d e2 1d b7 3d
       0.12306978 0.10010298 0.07874346 0.089412466
000010 b3 5e dd 3d 5e f6 f1 3d a0 12 be bd 9f ae 71 3c
       0.10809078 0.11814569 -0.09280896 0.014751106
000020 04 95 69 ba 52 48 27 bd 0f 36 06 3e 50 1e 56 bd
       -0.00089104497 -0.040840454 0.13106559 -0.052275002
000030 3d 39 7d bd 24 53 24 bd df cb 02 be 7b d7 41 3d
       -0.061822165 -0.04011835 -0.12773083 0.04732464
000040 34 f0 ff bd 16 6b ba bd ae 8c 25 3d 7f 37 0a 3e
       -0.12496987 -0.09102456 0.040417366 0.13497733
000050 26 9a 2e 3d cb 6f 93 bd 20 b0 b1 3d f8 75 e8 3d
       0.042627476 -0.07199057 0.08676171 0.11350626
000060 5d 51 78 3c fd 7f d3 3d 95 5c ea 3d 16 68 05 be
       0.015156117 0.10327146 0.1144344 -0.13027987
000070 fc 42 ac bd d9 7c e8 bc 1d 07 be bd 24 b2 2e bc
       -0.08411214 -0.028379845 -0.092787005 -0.010662589
000080 4b bd b6 bd 69 5e b8 3d 8d 79 76 3c ca d3 d6 bc
       -0.089228235 0.09002382 0.015043628 -0.026224036
000090 4c a9 31 3d 86 1d c6 3d 42 02 5b 3d 69 d0 05 bd
       0.043374345 0.096736 0.05346895 -0.03266946
0000a0 3a b4 06 bd 05 52 ee 3d 5f d0 03 be cb 58 de bc
       -0.03288672 0.11636738 -0.12872456 -0.02714195
0000b0 c7 fc c6 3d a5 69 88 bd 35 51 ef bd 51 f8 81 3d
       0.09716182 -0.06660775 -0.11685411 0.06346191
0000c0 29 4d 2b 3d 9e 4a f5 3c 65 27 55 3d 9d 16 c5 3d
       0.041821633 0.029942807 0.052039523 0.09623454
0000d0 65 0d 5b bc ad 0a 28 3d 89 ae 63 3d 6e 17 01 bd
       -0.013369893 0.041025806 0.05558637 -0.031516485
0000e0 53 ea 3d bd d1 4c 32 3d 66 e8 b7 3d 4d b3 63 bd
       -0.046366047 0.04353029 0.08979873 -0.055590916
0000f0 11 a3 d4 3d b8 1f 00 3e 3d f8 b4 3d 7b 77 53 bd
       0.10382665 0.125121 0.0883641 -0.051627617

exp_avg f4 [128, 260]
000000 83 bc bd 39 1d ee e8 39 da 2d 3b ba 25 22 8e b9
       0.0003618934 0.00044427897 -0.00071403163 -0.0002710979
000010 17 8f 45 3a a5 bf 36 3a 70 b5 76 39 58 d6 0c b9
       0.00075362757 0.0006971306 0.00023527979 -0.0001343129
000020 27 68 80 39 62 f9 4c 3a bb c7 5a ba b1 33 2b 3a
       0.00024491662 0.00078191434 -0.0008345802 0.0006530835
000030 6a 49 7e 39 18 87 41 ba 1c d1 d5 39 8e 66 44 39
       0.00024250677 -0.0007382496 0.00040782325 0.00018730221
000040 05 12 b3 39 b5 29 3b 3a c6 fa c3 b9 07 97 04 3a
       0.00034154966 0.0007139699 -0.0003738014 0.0005057905
000050 ef 40 71 b8 e6 77 8f 38 8f de 92 38 ff be a3 39
       -5.751935e-05 6.841104e-05 7.003277e-05 0.00031232086
000060 ff d4 76 b9 f4 4e 49 3a d3 5a d1 38 22 1f 26 3a
       -0.00023539735 0.00076793064 9.982814e-05 0.00063370366
000070 7e cc 61 39 a2 59 a7 b9 f4 b4 37 ba df 78 bc 38
       0.00021533851 -0.00031919504 -0.000700786 8.9870526e-05
000080 35 97 3e 38 2e 38 f0 b9 25 88 36 ba 6f 4c 06 b9
       4.5440353e-05 -0.00045818224 -0.0006963036 -0.0001280771
000090 03 6f 28 3a a1 22 04 3a d8 04 5e b9 14 cf 88 39
       0.00064252334 0.00050405605 -0.00021173374 0.00026094227
0000a0 57 77 61 b9 b2 76 d5 38 1d 32 fc b7 15 84 46 38
       -0.0002150213 0.0001017874 -3.0064077e-05 4.732989e-05
0000b0 04 ff 1a ba d2 69 98 b9 a8 b0 a5 b9 1c 2a 8f 3a
       -0.0005912634 -0.00029070541 -0.00031602872 0.0010922584
0000c0 02 cc 17 b9 d4 68 d8 38 54 8b 2d 3a c9 c5 c8 3a
       -0.00014476481 0.000103192084 0.0006620188 0.0015317734
0000d0 7f 99 1d b5 e9 82 1e 35 93 73 eb 34 86 a3 87 38
       -5.8710424e-07 5.9050086e-07 4.3856252e-07 6.46776e-05
0000e0 f5 46 2e b8 01 be a7 37 54 96 3b b9 fb d4 a2 38
       -4.1550917e-05 1.9996429e-05 -0.00017889711 7.764433e-05
0000f0 75 7a e0 38 d8 70 71 39 39 ee 1b b8 96 71 a5 b9
       0.00010703962 0.00023025589 -3.7176742e-05 -0.0003155588
000100 a4 d4 1c 38 cb a2 03 37 02 17 0a b7 45 7e 1e b9
       3.7391335e-05 7.846112e-06 -8.230798e-06 -0.00015115093
000110 d7 99 de 33 e9 b5 46 39 43 4c 35 b8 29 c0 a5 b8
       1.0365664e-07 0.00018950518 -4.3224787e-05 -7.903606e-05
000120 b9 6d 04 38 19 77 22 38 eb e6 55 36 76 d5 28 38
       3.157344e-05 3.8734728e-05 3.1873885e-06 4.0253122e-05
000130 01 70 b1 b9 98 26 4d b6 70 d9 17 b8 2e d7 5b 38
       -0.0003384352 -3.0569845e-06 -3.620371e-05 5.241407e-05
000140 d0 8c e7 36 80 62 da b7 7c 22 4a 38 84 50 52 38
       6.900729e-06 -2.6033493e-05 4.819267e-05 5.0142888e-05
000150 f2 0a 22 b9 8f d6 4c 39 97 52 7f 37 97 73 9c 39
       -0.00015453601 0.00019534885 1.5218414e-05 0.0002984076
000160 ba 8b 2a 39 51 fb 0f b8 d2 b0 73 b8 15 b5 1d b8
       0.00016264516 -3.4327913e-05 -5.810039e-05 -3.7600363e-05
000170 87 fa c9 33 20 6b f0 37 d8 bc 1e 38 bc 8e 69 b6
       9.4053625e-08 2.8660113e-05 3.784601e-05 -3.4802788e-06
000180 15 af c9 b8 c6 c5 a6 38 86 5d 6c 38 f0 4a 18 39
       -9.6170384e-05 7.952335e-05 5.6353885e-05 0.00014523766
000190 82 ce 3f 39 49 b8 4c 39 22 db 5f b8 9d 8c 8f b9
       0.0001829211 0.00019523608 -5.3371426e-05 -0.0002737985
0001a0 0d a7 d0 b5 dd 99 1f 38 ae 4c 10 39 be ab 07 3a
       -1.5545826e-06 3.805185e-05 0.00013761476 0.0005175433
0001b0 8f ad e9 b8 ea a4 13 b9 09 7c ca 39 c9 cf 93 39
       -0.000111426336 -0.00014080448 0.00038620856 0.00028192837
0001c0 66 95 61 b9 1f aa b1 39 13 b0 41 39 c2 27 6a 39
       -0.00021513327 0.0003388682 0.00018471507 0.0002233079
0001d0 3b 78 02 39 94 ae cc 39 d8 18 0d 39 4d c7 68 b9
       0.00012442555 0.00039039983 0.00013456063 -0.0002219949
0001e0 3f 47 0b b9 de 9a a0 39 d8 82 03 3a 85 8b c7 39
       -0.00013282614 0.00030632963 0.00050167507 0.00038060188
0001f0 25 5e 43 b8 00 96 12 ba 74 68 7f 38 5b 50 da b9
       -4.6579302e-05 -0.000559181 6.0894017e-05 -0.0004164007
000200 b9 12 ef b8 fc f9 59 ba ad 24 27 36 d5 86 0b 39
       -0.000113998954 -0.00083151436 2.4906287e-06 0.00013306302
000210 43 b2 a3 b7 d7 ba f2 38 2f de b8 b9 8f 80 e0 39
       -1.9514124e-05 0.00011574261 -0.00035260755 0.00042820393
000220 42 6f 91 36 06 53 ae 39 8c 2d b1 39 8d f3 84 39
       4.334289e-06 0.00033249723 0.00033794006 0.0002535846
000230 ef 27 1a 3a 96 49 2d b9 2b 8a 20 b9 71 0b ea 37
       0.00058805844 -0.00016525979 -0.0001531026 2.7900302e-05
000240 df dc c3 b4 f2 6a d1 38 b1 b3 a1 b0 65 c8 94 39
       -3.6482285e-07 9.985817e-05 -1.1765363e-09 0.00028378065
000250 1b 64 1d 3a ca fb d4 37 f7 78 f9 b9 25 60 6f b9
       0.00060039916 2.5389618e-05 -0.00047583107 -0.00022828633
000260 2a 05 e2 b9 c9 53 19 b9 cf 69 1a b9 16 af b2 b9
       -0.00043109927 -0.0001462243 -0.00014726001 -0.00034081255
000270 f6 74 78 39 8d a0 ae 34 aa e6 23 39 8c 67 8b b9
       0.00023694694 3.2526842e-07 0.0001563082 -0.00026589294
000280 0d 0f 91 af c5 69 ee b6 c0 1b dc 35 d7 69 e9 37
       -2.638604e-10 -7.105266e-06 1.6399354e-06 2.782505e-05
000290 98 3f 6c 38 a0 12 c4 38 4e 56 8f 38 83 b2 ac b9
       5.632601e-05 9.3494775e-05 6.834847e-05 -0.00032939398
0002a0 b0 5b 47 36 73 ac 5b b4 6e e7 0f ba 40 26 9f 39
       2.970668e-06 -2.0458701e-07 -0.0005489503 0.00030355342
0002b0 4d eb 36 36 ec 05 6a ba a9 a2 1e 38 5f e8 e2 b8
       2.7257076e-06 -0.0008927274 3.7821625e-05 -0.00010819802
0002c0 cb 59 04 39 80 6b b2 34 4e 5f 58 b9 4b 6f 1e 38
       0.00012621951 3.32333e-07 -0.00020634869 3.7773785e-05
0002d0 5c 25 05 b6 b2 2a 12 b7 7a 8d a7 b9 d6 8d fc 38
       -1.984029e-06 -8.712219e-06 -0.0003195813 0.000120427154
0002e0 ae 30 bd b7 ef 7e 3a 35 61 1e ae b8 84 6f ae 39
       -2.2553224e-05 6.947511e-07 -8.302625e-05 0.00033270952
0002f0 b1 2a 08 b9 38 bd 06 39 bd ca 05 39 c4 f1 24 38
       -0.00012985874 0.00012849725 0.00012759394 3.932581e-05
000300 d7 cb e5 b7 b2 b6 ad b8 88 5d cf 35 e5 a2 c2 b7
       -2.7393848e-05 -8.2833125e-05 1.5449923e-06 -2.3202456e-05
000310 7e d4 54 b5 1c 99 1a b9 2f bd bd 39 e9 c8 2a b9
       -7.928537e-07 -0.00014743622 0.00036189842 -0.00016287308
000320 dd 7c dd b8 27 4b c9 b7 94 0f 8f 39 c3 8f b6 37
       -0.00010561359 -2.3996063e-05 0.00027286692 2.1763035e-05
000330 8a 34 10 39 6c 76 15 39 79 a7 11 39 d1 7b af b7
       0.00013752482 0.00014253863 0.00013890666 -2.0919282e-05
000340 8b 46 1a 39 28 7f 84 39 e6 82 98 3a 57 36 35 3a
       0.00014712864 0.0002527174 0.001163569 0.00069126993
000350 91 40 13 39 0a 40 37 39 15 13 9d 39 ee 40 12 3a
       0.00014043065 0.00017476096 0.0002995959 0.0005579133
000360 6b 5b 10 3a 94 af 37 ba 3d 98 b2 3a da 51 06 3a
       0.00055067864 -0.0007007059 0.0013625693 0.0005123891
000370 b3 97 b0 39 31 16 8e 3a 99 47 43 3a 06 22 24 3a
       0.0003368236 0.0010840354 0.00074493286 0.00062611734
000380 21 83 07 3a 82 5f 07 3a 02 e8 22 3a d6 6f 6c 38
       0.0005169381 0.0005164073 0.00062143814 5.637094e-05
000390 b7 f1 34 3a 2d b6 9c 3a 8d 59 58 3a 16 db 49 3a
       0.00069024734 0.0011956148 0.000825309 0.0007700188
0003a0 11 e9 bb 3a 70 35 64 3a 2a 53 82 3a 2c d8 2e b9
       0.0014336427 0.00087054726 0.0009942998 -0.00016674463
0003b0 52 c8 13 3a a1 f6 7e 3a 8b 21 f0 3a 8a 53 a1 b8
       0.0005637455 0.00097260816 0.0018320543 -7.6926386e-05
0003c0 20 40 80 3a 06 0b 0f 3a 19 76 82 3a a6 1b 93 39
       0.0009784736 0.000545666 0.0009953409 0.00028058625
0003d0 1a 0e 23 ba 14 f7 08 3a 41 ba 98 3a ea 35 07 3a
       -0.0006220058 0.0005224806 0.0011652188 0.0005157875
0003e0 7c ad 7b 3a 07 43 2d 3a 31 06 e2 39 c0 cc 17 3a
       0.00096007413 0.0006609414 0.00043110692 0.0005790703
0003f0 d2 7d 75 3a 11 fc 79 3a 2e 26 9e 3a c9 8b 96 b9
       0.0009364757 0.0009536157 0.0012065822 -0.00028714378

exp_avg_sq f4 [128, 260]
000000 50 12 be 35 91 dd 2a 35 69 3d 8d 35 8d e1 82 35
       1.4161433e-06 6.3652357e-07 1.0523191e-06 9.751399e-07
000010 ce 0b 9b 35 d0 2d 24 35 2e ba 4e 35 2a 45 d9 35
       1.1551836e-06 6.1161427e-07 7.701191e-07 1.6187889e-06
000020 29 50 83 35 94 3e ea 35 4f 53 c3 35 4b d6 c6 35
       9.78359e-07 1.7452571e-06 1.4552878e-06 1.4814517e-06
000030 a6 37 46 35 32 87 25 35 75 9f 8d 35 da 4e 5e 35
       7.3841727e-07 6.1664025e-07 1.0551727e-06 8.281619e-07
000040 cc 3b fe 34 de 1c 33 35 97 d5 0e 36 55 89 b4 35
       4.7354695e-07 6.6724704e-07 2.1283975e-06 1.3451014e-06
000050 41 c3 6b 35 24 f6 75 35 87 7f af 35 74 af 1a 36
       8.7828454e-07 9.1627794e-07 1.3075631e-06 2.3049915e-06
000060 4b 62 bd 35 48 5c c2 35 af d3 2a 35 b0 df 2f 35
       1.4110204e-06 1.4480984e-06 6.3637975e-07 6.551809e-07
000070 4e d1 45 35 1b 74 3f 35 8d 18 ec 34 64 de d8 35
       7.36928e-07 7.1322e-07 4.3976289e-07 1.6157978e-06
000080 f2 4c de 35 fa 3c 8f 35 38 6f 50 35 aa b1 22 36
       1.6562683e-06 1.0672077e-06 7.764788e-07 2.4243295e-06
000090 4e 14 f8 35 63 8c c7 35 df cf 8e 35 74 d4 17 35
       1.8483349e-06 1.4867513e-06 1.0640323e-06 5.6561043e-07
0000a0 ed c9 64 35 e8 ff 82 35 77 1d f5 34 df 70 68 35
       8.523046e-07 9.760233e-07 4.5656245e-07 8.6590984e-07
0000b0 40 02 45 35 1f 88 b4 35 28 93 b3 35 f5 63 8c 35
       7.3391493e-07 1.3450662e-06 1.3379367e-06 1.0459904e-06
0000c0 b8 4e 74 35 ba 71 ea 35 f7 ac 08 36 c5 4e 06 36
       9.1011634e-07 1.7467457e-06 2.0366258e-06 2.0013406e-06
0000d0 b2 11 0b 31 5e 01 fa 30 25 4e d7 32 de 0d cb 32
       2.023722e-09 1.8190283e-09 2.506483e-08 2.3638616e-08
0000e0 a0 ea 03 33 6d 67 35 33 30 03 a3 33 9c c9 0f 34
       3.0714205e-08 4.223641e-08 7.590859e-08 1.3391258e-07
0000f0 f8 bb 8c 33 b3 32 3e 34 94 60 15 34 ae a0 2e 34
       6.553449e-08 1.7713573e-07 1.3911841e-07 1.6263468e-07
000100 81 d6 f9 33 15 fe 32 31 f8 c8 70 31 67 1f 93 32
       1.1633984e-07 2.6046838e-09 3.5038834e-09 1.7127332e-08
000110 64 e4 12 32 77 e1 26 33 25 9e 87 33 05 91 8e 33
       8.5502485e-09 3.8854946e-08 6.315194e-08 6.638769e-08
000120 37 14 a6 33 0a 70 80 33 e3 df 8b 33 1b ba ec 33
       7.7336544e-08 5.980844e-08 6.513417e-08 1.1023459e-07
000130 a5 0c e2 33 bd bc 58 34 32 ff 17 32 2d 7b 44 32
       1.0526245e-07 2.018523e-07 8.8473815e-09 1.14367085e-08
000140 cd 61 bf 32 7b ee d6 32 92 88 1f 33 7c 69 85 33
       2.2279801e-08 2.5021327e-08 3.7144282e-08 6.2124826e-08
000150 7b d6 91 33 30 d2 ac 33 09 8e de 33 41 ea c3 33
       6.7911024e-08 8.047607e-08 1.03635166e-07 9.1230056e-08
000160 2b a7 a1 33 2a 78 04 34 bd 7c 94 33 2f bf b0 32
       7.5275544e-08 1.2337173e-07 6.914477e-08 2.0576037e-08
000170 03 16 8c 31 86 d1 8e 32 6a fa 2d 32 54 9b da 33
       4.0770387e-09 1.6626256e-08 1.0126863e-08 1.017967e-07
000180 5e 8d 31 33 82 6e 29 33 60 59 b2 32 05 d0 a1 33
       4.1339597e-08 3.9448885e-08 2.076257e-08 7.534985e-08
000190 fc a1 a2 33 c0 02 8e 33 85 0e 08 34 77 5e 0b 34
       7.5731776e-08 6.6128905e-08 1.2671269e-07 1.297975e-07
0001a0 98 15 42 33 c0 d6 4e 34 f2 f8 c4 34 0e 6d fb 34
       4.5188784e-08 1.926337e-07 3.6688976e-07 4.683174e-07
0001b0 6d 8a 37 34 d6 d5 27 35 04 c2 a6 34 f5 8b 37 35
       1.7093562e-07 6.252352e-07 3.1061074e-07 6.8376477e-07
0001c0 50 36 b5 35 40 e1 4c 35 be e2 8f 35 6e f6 b2 35
       1.3501358e-06 7.6323704e-07 1.0720321e-06 1.3333754e-06
0001d0 ef 10 c2 35 a2 c3 ce 33 6b bb 20 34 87 50 e6 34
       1.4459055e-06 9.628208e-08 1.4969343e-07 4.289943e-07
0001e0 8d a0 80 34 74 27 b4 34 8c 19 fe 34 70 1b e3 34
       2.3958674e-07 3.355632e-07 4.7329775e-07 4.2302008e-07
0001f0 8a d0 1b 35 63 cf 9a 35 b5 ec 73 35 63 d9 74 35
       5.8045464e-07 1.1534252e-06 9.086901e-07 9.121342e-07
000200 e2 59 7f 35 6f 38 e7 35 aa 26 fe 34 d4 e8 85 34
       9.51257e-07 1.7227266e-06 4.733932e-07 2.4942585e-07
000210 b8 11 0f 34 5c 0f d7 34 7f 6f 0c 35 04 83 d7 34
       1.3324359e-07 4.0058046e-07 5.231631e-07 4.0142197e-07
000220 10 e2 44 35 d3 c0 49 35 0d 09 ad 35 6e d4 37 35
       7.3344654e-07 7.515893e-07 1.2892139e-06 6.848194e-07
000230 de 01 3a 35 6b 32 83 35 09 25 3c 35 ef a7 35 34
       6.9293117e-07 9.774934e-07 7.008935e-07 1.6918032e-07
000240 2b a3 46 33 cc ba 67 34 83 a4 06 33 36 e4 00 35
       4.6248868e-08 2.1581508e-07 3.134893e-08 4.8015806e-07
000250 c2 cd 7f 34 1b 14 e6 34 16 61 e0 34 a6 e2 45 35
       2.382358e-07 4.2855467e-07 4.179389e-07 7.3718036e-07
000260 49 1c 6d 35 3f 84 89 35 7e ab b5 35 d0 5e 74 35
       8.833054e-07 1.0245784e-06 1.3535462e-06 9.1035054e-07
000270 98 38 17 34 4b 35 cd 33 cc 0f 1c 34 26 b3 76 34
       1.408356e-07 9.55575e-08 1.4534379e-07 2.2975709e-07
000280 a8 e0 09 32 56 43 18 34 42 b6 74 33 e8 a7 03 34
       8.0255305e-09 1.41806e-07 5.697644e-08 1.226141e-07
000290 30 b3 2b 33 8d 47 0d 33 f0 93 5f 33 7d 36 57 33
       3.997701e-08 3.2894196e-08 5.2055782e-08 5.0108145e-08
0002a0 10 2f f0 32 3a dc 92 33 36 46 b4 34 9e 3c 83 34
       2.7961079e-08 6.838714e-08 3.3578698e-07 2.4444756e-07
0002b0 06 9f e0 33 b4 51 06 35 65 06 e4 33 b1 80 c9 33
       1.0459739e-07 5.0037784e-07 1.06182405e-07 9.383201e-08
0002c0 32 29 ef 33 69 3d e8 32 3c 26 64 33 7c 40 12 33
       1.1136798e-07 2.703628e-08 5.312016e-08 3.4051922e-08
0002d0 f4 28 85 32 ad d6 c9 33 f2 9f 87 34 65 ff 7e 34
       1.5501861e-08 9.398841e-08 2.5262085e-07 2.3748505e-07
0002e0 a4 fd ad 33 1a be 54 34 a9 db a1 34 df 46 9e 34
       8.102077e-08 1.9813197e-07 3.014841e-07 2.948136e-07
0002f0 f9 44 3a 34 f5 f1 34 33 86 f4 1e 34 7a d9 e1 32
       1.7347692e-07 4.2129574e-08 1.4803854e-07 2.6292344e-08
000300 f2 70 18 34 dc cc 7b 33 93 e8 31 33 a5 63 05 35
       1.4197192e-07 5.862681e-08 4.142255e-08 4.9691363e-07
000310 07 8e a6 33 95 05 49 34 79 7a 3a 34 4a c1 22 34
       7.755812e-08 1.8721614e-07 1.7367155e-07 1.5157744e-07
000320 1f 43 b6 33 c7 07 86 33 d2 be 11 33 6b ed 1f 33
       8.487245e-08 6.241276e-08 3.3933993e-08 3.7236003e-08
000330 89 bc 34 34 59 38 80 33 aa c6 7d 33 6a 4f 0f 33
       1.6832395e-07 5.970714e-08 5.9086837e-08 3.336701e-08
000340 8f c5 df 36 2f 0d 04 37 ce 74 d9 36 80 af dc 36
       6.6689167e-06 7.870883e-06 6.480702e-06 6.576942e-06
000350 56 c9 d4 36 a5 01 d7 36 f1 94 e5 36 a9 0c 8a 36
       6.341531e-06 6.4076908e-06 6.842071e-06 4.1141943e-06
000360 65 b0 b4 36 87 78 5d 36 f7 09 9d 36 47 8e 85 36
       5.384953e-06 3.3001722e-06 4.6801247e-06 3.980272e-06
000370 d4 67 7d 36 56 e8 fc 36 d2 90 e8 36 36 59 ae 36
       3.7760374e-06 7.5372327e-06 6.930998e-06 5.1959896e-06
000380 dd 6a 0d 37 37 7c c2 36 02 fa a0 36 ca fb a5 36
       8.429136e-06 5.796111e-06 4.7974763e-06 4.9466953e-06
000390 71 ba be 36 e0 ca 92 36 75 59 a0 36 71 2f 2d 36
       5.684146e-06 4.374757e-06 4.7787858e-06 2.5806623e-06
0003a0 f8 e2 9c 36 ec 41 44 36 cd cd cf 36 03 89 cf 36
       4.675585e-06 2.9244648e-06 6.193039e-06 6.185031e-06
0003b0 58 e6 ee 36 62 74 e4 36 39 c4 02 37 24 d0 91 36
       7.1197683e-06 6.8084782e-06 7.7942905e-06 4.3455675e-06
0003c0 a1 51 86 36 77 6a a1 36 97 11 7e 36 8e 4b 73 36
       4.003014e-06 4.810568e-06 3.7859188e-06 3.62538e-06
0003d0 8a eb 73 36 84 01 83 36 92 23 ac 36 39 9d d0 36
       3.6346923e-06 3.9042807e-06 5.1301404e-06 6.217186e-06
0003e0 60 2c f9 36 d6 1f e3 36 3c 38 06 37 c4 48 b1 36
       7.425944e-06 6.7688334e-06 8.0001155e-06 5.283482e-06
0003f0 03 72 fe 36 64 d6 bd 36 47 6e b4 36 4d 16 a8 36
       7.5830626e-06 5.6575973e-06 5.377256e-06 5.0093863e-06
