ppo_2layer_2/ppo_agent_episode_19100.pth (torch, 596662 bytes, 21 tensors)

fc1.weight f4 [128, 260]
0	0x3e3998ef	0.18124746
1	0xbdc47bac	-0.09593901
2	0x3e5da161	0.21643592
3	0xbe07e53e	-0.13271043
4	0x3c75e461	0.015008063
5	0xbbccd0e4	-0.0062504876
6	0xbde55e9d	-0.11199687
7	0x3cfabe36	0.030608278
8	0x3e105ba4	0.14097458
9	0x3ca4c7e1	0.020114841
10	0x3e0ad351	0.13557173
11	0xbd217837	-0.039421286
12	0xbe8ea1ec	-0.27857912
13	0x3d879c35	0.06621591
14	0xbdd50bbf	-0.10402631
15	0x3bbdc38d	0.0057911337
16	0xbcbadbf4	-0.02280996
17	0xbe732e97	-0.23748241
18	0x3d85f046	0.06539969
19	0x3d828ccd	0.06374512
20	0x3d1db4d3	0.038502526
21	0x3dc4c363	0.096075796
22	0xbdfbec49	-0.12300927
23	0xbe31c1f3	-0.17359142
24	0xbe68b455	-0.22725041
25	0xbdda8008	-0.10668951
26	0x3e29430e	0.16529486
27	0x3cedfa14	0.02904991
28	0xbdbedcb1	-0.09319437
29	0x3e9364e8	0.28787923
30	0x3ea067bb	0.3132914
31	0xbdedd8d3	-0.116136216
32	0xbe59e196	-0.2127746
33	0x3e1f1779	0.15536298
34	0x3df1bb6b	0.11803325
35	0x3e02c925	0.12772043
36	0xbcd1992c	-0.025585733
37	0xbe71dd84	-0.23619658
38	0x3dad560c	0.08463678
39	0x3d3a3682	0.04546214
40	0x3dc11cc3	0.09429314
41	0xbd436a53	-0.04770882
42	0x3e71089e	0.23538443
43	0xbe78879e	-0.24270484
44	0xbe2de08f	-0.16980194
45	0xbda1889e	-0.07887386
46	0x3d77dfbb	0.0605161
47	0xbe269ab4	-0.16269952
48	0xbe8335b2	-0.25626904
49	0xbc5e38d6	-0.013563355
50	0xbe69e42b	-0.22840945
51	0xbe1b85c0	-0.1518774
52	0x3e029789	0.12753119
53	0x3a16f479	0.0005758475
54	0x3c2f13db	0.010685886
55	0x3da7b46a	0.08188708
56	0x3ccd014f	0.025025038
57	0xbe2bbd99	-0.16771545
58	0xbb057de2	-0.0020369221
59	0xbe139af0	-0.14414573
60	0xbc634ead	-0.013873738
61	0x3c9642f4	0.018342473
62	0x3e0ef55a	0.13960782
63	0x3d4ef29c	0.05052434
64	0x3d637bfc	0.055538163
65	0x3dc91bfe	0.09819792
66	0x3d2890e0	0.04115379
67	0xbc0e1be8	-0.008673646
68	0xbe53ef95	-0.20696862
69	0xbd17ccaa	-0.037060417
70	0xbc27281d	-0.010202435
71	0x3e47b671	0.1950319
72	0x3c510780	0.012758136
73	0x3e1ae50b	0.15126435
74	0x3d155903	0.03646184
75	0xbd07498c	-0.033029124
76	0xbd82abac	-0.063804
77	0xbde1a402	-0.1101761
78	0x3d110e18	0.03541383
79	0xbd183bf5	-0.037166554
80	0x3df3c69a	0.119031146
81	0xbe992c6e	-0.2991671
82	0xbe0834dc	-0.13301414
83	0xbb6c0abf	-0.0036017147
84	0xbe0b35d7	-0.13594757
85	0x3dc0eb5a	0.0941989
86	0xbd9e9ca2	-0.07744719
87	0x3e22977e	0.15878102
88	0xbc2f48e6	-0.010698533
89	0x3bc5ccb9	0.0060363677
90	0x3dd38f01	0.1033001
91	0x3d3a034a	0.045413293
92	0x3bf36ce9	0.0074287546
93	0xbda1fb8e	-0.079093084
94	0xbe1baa6f	-0.15201734
95	0xbd23b3e2	-0.03996647
96	0x3d57a15c	0.05264412
97	0xbb6fb7be	-0.0036578025
98	0xbdff4b5a	-0.12465544
99	0xbd89d107	-0.06729322
100	0x3c9ecbc2	0.019384269
101	0x3e198ed7	0.14995895
102	0xbdaeada8	-0.08529216
103	0xbd100cc5	-0.035168428
104	0xbe584f74	-0.21124059
105	0x3e59e342	0.21278098
106	0xbe129bf7	-0.14317308
107	0x3e811b11	0.25215963
108	0x3d5e2af2	0.054240175
109	0x3cdf62cb	0.027268788
110	0x3d94a3ee	0.072578296
111	0xbd5cf21f	-0.053941842
112	0x3d4339bd	0.047662485
113	0xbd793906	-0.060845397
114	0xbd9b5d7a	-0.075861886
115	0x3e30b5e1	0.17256881
116	0x3e7da255	0.24768956
117	0xbce448d8	-0.027866766
118	0x3e409577	0.18807016
119	0xbd36ab22	-0.0445968
120	0xbe352e0f	-0.17693351
121	0x3d41c261	0.047304515
122	0xbe4f1157	-0.20221458
123	0x3cf8cf3d	0.030372256
124	0x3e52dc01	0.20591737
125	0x3df22728	0.11823875
126	0x3de26527	0.110544495
127	0x3d366169	0.04452649
128	0x3e19cf13	0.15020399
129	0xbe0adeda	-0.13561574
130	0x3e1bfbdc	0.15232795
131	0xbc815629	-0.015788155
132	0xbe71e748	-0.23623383
133	0xbe67958b	-0.2261564
134	0x3e2451c4	0.16046816
135	0xbdfdb223	-0.123874925
136	0x3e1806a8	0.14846289
137	0x3dc3fca8	0.09569675
138	0xbdf63628	-0.12022048
139	0x3dabbde3	0.083858274
140	0x3c88e683	0.016711479
141	0x3d98bf0c	0.07458314
142	0xbdf0e22c	-0.11761889
143	0xbe40e029	-0.1883551
144	0x3eba8233	0.3642746
145	0x3e16cf66	0.14727554
146	0xbd94cf0f	-0.07266056
147	0x3e088303	0.13331227
148	0x3e68c068	0.22729647
149	0x3d824555	0.0636088
150	0xbdfc94fc	-0.12333104
151	0xbdae56f2	-0.08512677
152	0x3e480679	0.19533719
153	0x3c02cbcc	0.007983159
154	0x3d84ae05	0.06478504
155	0x3e25b203	0.16181187
156	0x3c00a750	0.00785239
157	0x3d199177	0.03749224
158	0xbeb6b976	-0.3568837
159	0xbe0ce683	-0.13759808
160	0x3d8a8edd	0.0676553
161	0x3d912b62	0.07088353
162	0x3beeecce	0.007291413
163	0x3dda1f31	0.106504805
164	0x3d989448	0.074501574
165	0x3d231823	0.03981794
166	0xbc827095	-0.015922824
167	0xbc36e907	-0.0111639565
168	0xbcf67adc	-0.03008788
169	0x3d8a28cf	0.06746065
170	0xbc92f67f	-0.017939804
171	0x3dc81a64	0.097706586
172	0xbd63212e	-0.055451564
173	0x3dca9fd7	0.09893768
174	0x3e2ed467	0.17073213
175	0x3dc8956f	0.09794127
176	0x3d28d7c2	0.041221388
177	0xbde91c34	-0.113823324
178	0xbe275feb	-0.16345184
179	0xbe40565e	-0.18782946
180	0xbcab6afa	-0.020925034
181	0xbe72d968	-0.23715746
182	0xbd452445	-0.048130292
183	0x3da3bfd7	0.07995575
184	0xbd778376	-0.060428105
185	0xbe81af86	-0.25329226
186	0xbdabbbdc	-0.08385441
187	0x3e133388	0.14375126
188	0xbe38c974	-0.18045598
189	0xbcd0c1da	-0.02548306
190	0xbe30ea59	-0.17276897
191	0x3d18a59a	0.037267305
192	0xbcac19ed	-0.021008456
193	0x3cec71ef	0.028862922
194	0xbd68cd5a	-0.056836464
195	0x3e38bb50	0.18040204
196	0xbe9b7b2e	-0.30367416
197	0x3c128908	0.008943804
198	0xbc1445b3	-0.009049821
199	0xbc850943	-0.016239768
200	0xbe17df9b	-0.14831392
201	0x3abc14ac	0.0014349422
202	0xbe270264	-0.16309506
203	0xbdf332d6	-0.118749306
204	0xbde70a20	-0.11281228
205	0x3bf1ee6d	0.007383159
206	0xbdd1f5c9	-0.10251958
207	0xbe18b345	-0.14912136
208	0x3d222c17	0.03959283
209	0x3d0bcfa1	0.034133557
210	0xbe2144a6	-0.15748844
211	0xbd39f7e2	-0.045402415
212	0x3d22a5ac	0.03970878
213	0xbc2950ce	-0.010334207
214	0xbd363f6f	-0.04449409
215	0xbd27fec7	-0.04101446
216	0xbe8d6370	-0.27614927
217	0xbd180186	-0.037110828
218	0x3e0a2d8f	0.13493942
219	0xbe0d7793	-0.13815145
220	0xbe2fefba	-0.17181292
221	0xbdc09280	-0.09402943
222	0x3cade8c9	0.021229165
223	0xbd216573	-0.03940339
224	0x3d856751	0.06513847
225	0x3da4d58b	0.080485426
226	0x3e1f771f	0.15572785
227	0xbe21d7b9	-0.15804948
228	0xbe836de6	-0.25669783
229	0xbe10b4d8	-0.14131486
230	0xbdb22f0b	-0.08700379
231	0x3dca0d66	0.09865837
232	0xbd47c6ef	-0.048773702
233	0x3e6ee1a8	0.23328269
234	0x3d1018b1	0.035179798
235	0x3c5b534a	0.013386557
236	0x3e2b7848	0.16745102
237	0xbd33ba8a	-0.04387907
238	0xbe9475f6	-0.28996247
239	0x3d5c1146	0.05372741
240	0xbcba882a	-0.022770006
241	0xbe1f9ab2	-0.15586355
242	0xbd12c786	-0.03583481
243	0xbe694002	-0.22778323
244	0xbd0ceb46	-0.03440406
245	0x3d6316b3	0.05544157
246	0x3cf58bec	0.029973947
247	0xbce03841	-0.027370574
248	0xbda399c6	-0.07988314
249	0xbdb55b9a	-0.08855362
250	0xbd302631	-0.043005172
251	0xbd16f1ab	-0.036851566
252	0xbe2112ca	-0.15729824
253	0x3d9f61f7	0.07782357
254	0x3e17cdca	0.14824596
255	0xbcfb09bc	-0.03064429

fc1.bias f4 [128]
0	0x3c4d85ce	0.012544109
1	0xbc47c7c5	-0.012193625
2	0x3a804a88	0.0009787837
3	0xbca19aef	-0.019727198
4	0x3d437ee0	0.04772842
5	0x3cff32d7	0.031152172
6	0xbd2f627c	-0.04281853
7	0x3d888130	0.066652656
8	0xbc732e2b	-0.01484255
9	0x3cf276b2	0.029597614
10	0x3d8e00f0	0.069337726
11	0xbcf9c361	-0.030488672
12	0xbd9c4c01	-0.07631684
13	0x3c200339	0.009766393
14	0x3d83bc41	0.06432391
15	0x3cf01586	0.029307138
16	0xbcf3fe18	-0.029784247
17	0xbd1843cd	-0.037174035
18	0xbd56695b	-0.05234657
19	0x3d2b5b40	0.04183507
20	0x3b93ea4f	0.0045140157
21	0xbd50b70a	-0.05095581
22	0x3d850938	0.06495899
23	0xbcb05f70	-0.021529883
24	0x3da8aace	0.082357034
25	0xbd89f4f0	-0.06736171
26	0xbd9506c6	-0.072766826
27	0x3dd44213	0.10364165
28	0xbd18acc3	-0.037274133
29	0xbd3ed402	-0.046588905
30	0x3d9c38b1	0.076280005
31	0x3d9a8529	0.075449295
32	0xbc85d3ed	-0.016336406
33	0xbb287b24	-0.0025708163
34	0xbd6bbf3f	-0.057555433
35	0xbca5985b	-0.02021425
36	0x3c34afde	0.011028258
37	0xbd257c66	-0.04040184
38	0x3ca53c2a	0.02017029
39	0xbc43d197	-0.011951826
40	0x3d6e0f88	0.05812028
41	0x3d6e0c37	0.058117118
42	0x3d2837b2	0.04106874
43	0x3d5e927b	0.054338913
44	0x3da9355d	0.08262131
45	0x3d9d8d2f	0.07692944
46	0xbd2d2c77	-0.042278733
47	0x3d7fb2a6	0.06242623
48	0xbd78998d	-0.060693312
49	0xbce6ea62	-0.028187934
50	0x3d9977c8	0.074935496
51	0x3d942884	0.0723429
52	0xbd048d9e	-0.03236162
53	0x3c67f695	0.014157911
54	0x3d44ef1d	0.0480796
55	0xbd154260	-0.036440253
56	0x3a79f1e4	0.00095346407
57	0x3d82b5e0	0.06382346
58	0x3d961ca3	0.07329681
59	0xbb86a061	-0.004108474
60	0xbce2a11d	-0.027664715
61	0xbd261504	-0.040547386
62	0x3c895095	0.016762057
63	0x3dabb868	0.08384782
64	0xbd2da92e	-0.04239767
65	0xbcfad7a7	-0.03062041
66	0x3cbcac61	0.023031415
67	0x3c9af4a9	0.018915491
68	0x3c1f433c	0.00972062
69	0x3b818153	0.003952184
70	0xbc6f62dc	-0.014610972
71	0x3ca38bb0	0.01996407
72	0xbcdb864a	-0.026797432
73	0xbdc00edf	-0.093778364
74	0x3cab9222	0.020943705
75	0xbd56f892	-0.05248315
76	0xba153fb3	-0.0005693391
77	0xbb7da951	-0.0038705657
78	0x3a0c65f3	0.0005355768
79	0x3d54bf48	0.051940233
80	0xbdd7d60b	-0.10538872
81	0x3cb9e1b0	0.022690624
82	0x3dad0baf	0.08449494
83	0xbd64686d	-0.05576365
84	0x3da5b0e3	0.08090379
85	0xbd22d92f	-0.039757904
86	0xbd0bcc67	-0.03413048
87	0xbc5b75d2	-0.01339479
88	0xbd3b47f2	-0.04572291
89	0x3d1f781f	0.038932916
90	0x3cac28ba	0.021015514
91	0x3d993cea	0.074823216
92	0xbc253bae	-0.0100850295
93	0x3ba12163	0.00491731
94	0x3c7a88a7	0.0152913695
95	0xbda93b08	-0.082632124
96	0x3c67f597	0.014157674
97	0x3dbf074d	0.093275644
98	0xbcd8d43a	-0.026468385
99	0xbdb087cb	-0.086196505
100	0x3d06f1ec	0.03294556
101	0x3d987089	0.074433394
102	0xbc435e8f	-0.0119244
103	0xbcc93652	-0.024562035
104	0x3d170093	0.036865782
105	0xbb5134af	-0.003192227
106	0x3c77069f	0.015077262
107	0x3bca5638	0.006174829
108	0x3c116d40	0.008876145
109	0x3bd1f750	0.006407656
110	0x3d774950	0.06037265
111	0x3d992a3b	0.07478758
112	0x3d61a46e	0.055088453
113	0x3c73858c	0.014863383
114	0xbbc6a49a	-0.0060621025
115	0x3dd9a6d3	0.10627522
116	0xbb923e75	-0.004463012
117	0xbd8784df	-0.0661714
118	0xbb2e5229	-0.0026599264
119	0x3d52486a	0.05133859
120	0x3bdfc4f5	0.006828899
121	0x3d1c4f5d	0.038161624
122	0x3c2ad6da	0.010427201
123	0xbd5a3123	-0.053269517
124	0x3d8093a5	0.06278161
125	0x3d55a7fe	0.052162163
126	0xbb4119d4	-0.0029464858
127	0xbbeb4a85	-0.0071805143

fc2.weight f4 [64, 128]
0	0xbdb7fd51	-0.08983863
1	0x3e40fd5d	0.1884665
2	0x3c94a603	0.018145567
3	0xbc902db9	-0.017599927
4	0xbd79806c	-0.06091349
5	0xbd04e050	-0.032440484
6	0xbebc4b6c	-0.36776292
7	0x3d89dea3	0.06731918
8	0x3dd91fd0	0.10601771
9	0x3db95a42	0.090504184
10	0xbe00e992	-0.125891
11	0xbd938ad0	-0.07204211
12	0x3cc4ad1d	0.024008328
13	0xbd71d095	-0.05903681
14	0x3df85ea9	0.1212743
15	0x3e640dee	0.22270939
16	0x3dfb9e17	0.122860126
17	0x3d57b67f	0.052664276
18	0xbd89c5f4	-0.0672721
19	0x3e450154	0.19238788
20	0xbec372f7	-0.3817365
21	0x3ce77301	0.02825308
22	0x3d835efb	0.064146005
23	0x3de8e386	0.11371522
24	0x3dbf026c	0.09326634
25	0x3dc1a3f5	0.094551004
26	0xbe8352a1	-0.25648978
27	0xbdfd8cea	-0.12380393
28	0xbc6c12f0	-0.014408812
29	0x3de0bf8e	0.10974036
30	0x3da8831a	0.08228131
31	0xbe222869	-0.15835728
32	0x3e05863d	0.13039489
33	0xbef09a88	-0.46992898
34	0x3dee7f9c	0.11645433
35	0xbe1557b8	-0.14584243
36	0x3d33656a	0.043797888
37	0x3b8606e3	0.0040901764
38	0x3e19d688	0.15023243
39	0x3b898709	0.0041970056
40	0xbe87f35c	-0.26552856
41	0x3e22ae37	0.1588677
42	0xbd936519	-0.07197017
43	0xbe95093d	-0.2910861
44	0xbdde28d6	-0.108476326
45	0xbca85ada	-0.020551134
46	0xbd383a5a	-0.044977523
47	0x3e2e51c0	0.17023373
48	0xbef07a78	-0.46968436
49	0x3d2eb054	0.04264863
50	0x3da28d11	0.079370625
51	0xbd91df63	-0.07122686
52	0x3cc49bbc	0.024000041
53	0xbc3318e3	-0.010931226
54	0x3d6dee65	0.05808868
55	0xbdada26e	-0.08478247
56	0x3e40a37f	0.18812369
57	0x3c9ac607	0.018893255
58	0x3e1ab430	0.15107799
59	0xbcf3a03e	-0.029739495
60	0x3c46a56d	0.0121244015
61	0x3d2b9902	0.041893966
62	0xbd845e87	-0.06463342
63	0xbe21a9ed	-0.15787478
64	0xbecbcb36	-0.39803475
65	0xbec5527c	-0.38539493
66	0xbe557dd5	-0.20848782
67	0x3ca254e3	0.019815868
68	0xbcfa99a0	-0.030590832
69	0x3dd499df	0.10380911
70	0x3de3c79e	0.11122058
71	0x3cb325fc	0.021868698
72	0x3dd2e67e	0.10297869
73	0xbdbd1dd7	-0.09234207
74	0x3d8c536c	0.06851849
75	0xbe44265c	-0.19155258
76	0x3d4bd50b	0.04976372
77	0xbe7568f2	-0.23965815
78	0xbd967d73	-0.07348146
79	0x3c814130	0.015778154
80	0xbddc083f	-0.1074376
81	0x3e0e2e8e	0.13884947
82	0x3ced2724	0.028949328
83	0xbb828a14	-0.0039837454
84	0xb9500efa	-0.00019842005
85	0xbdf5380f	-0.11973583
86	0xbc6435ab	-0.013928811
87	0x3e68a146	0.22717771
88	0x3e8ee69f	0.27910325
89	0xbd6638e5	-0.056206603
90	0x3dcea83e	0.100906834
91	0x3e1a621a	0.15076485
92	0x3e2c4afd	0.16825481
93	0x3d23d4fa	0.039998032
94	0x3de63568	0.11240655
95	0xbbd4a83f	-0.006489783
96	0x3ace6447	0.0015746438
97	0xbe6c53f3	-0.23078899
98	0x3df2396a	0.11827357
99	0xbd571893	-0.05251367
100	0xbe27152b	-0.16316669
101	0xbe8b79dd	-0.27241412
102	0xbe151c19	-0.145615
103	0x3d971e08	0.07378775
104	0xbe6b809d	-0.22998281
105	0x3e04c323	0.12965064
106	0x3d6d8cbe	0.05799555
107	0xbdda0324	-0.1064513
108	0x3e1ff71a	0.15621606
109	0x3e2bb04b	0.16766469
110	0x3e26e1c2	0.16297057
111	0x3df55ea3	0.11980941
112	0x3cdd98c3	0.027050382
113	0xbe2b2599	-0.16713561
114	0xbcbda1f5	-0.023148516
115	0xbd8a2a55	-0.067463554
116	0xbe4e35ea	-0.20137754
117	0x3c48c75c	0.012254562
118	0x3d70b966	0.05877056
119	0x3d7d5a45	0.061853666
120	0xbd01119d	-0.031510938
121	0xbda49bec	-0.08037552
122	0x3d729c74	0.059231237
123	0xbe647590	-0.22310472
124	0x3d0f6e87	0.035017516
125	0xbde51100	-0.11184883
126	0xbe42ef2f	-0.19036554
127	0xbdb39fe4	-0.08770731
128	0xbb81936b	-0.003954341
129	0x3e9e91c1	0.30970576
130	0xbd99d191	-0.07510675
131	0x3e8264f0	0.25467634
132	0xbcdfb499	-0.027307795
133	0xbe2ed499	-0.17073287
134	0x3e444225	0.19165857
135	0xbc9827fa	-0.01857375
136	0x3e7f6863	0.24942164
137	0x3db14c7c	0.08657166
138	0xbe27c952	-0.16385391
139	0x3a646404	0.0008712413
140	0x3d341a53	0.043970417
141	0x3dc2cd19	0.095117755
142	0x3db644f8	0.088998735
143	0xbd8a9297	-0.06766241
144	0xbc99e95e	-0.018788036
145	0xbda81d44	-0.08208707
146	0x3dd4a078	0.103821695
147	0x3e0279f5	0.12741835
148	0xbe12f57d	-0.14351459
149	0x3d35f99b	0.044427495
150	0x3c83c741	0.016086223
151	0xbdea332c	-0.114355415
152	0xbcd37629	-0.02581318
153	0x3e7c611b	0.24646418
154	0xbe411f11	-0.18859507
155	0xbd4f5345	-0.05061652
156	0xbe4a2c60	-0.1974349
157	0x3d8fdafd	0.070241906
158	0xbc0d8974	-0.008638728
159	0xbd346983	-0.044045936
160	0x3dd69607	0.10477834
161	0xbc7d46b2	-0.01545875
162	0x3d60567e	0.054769985
163	0x3de395e2	0.11112572
164	0x3e22ddf8	0.15904987
165	0xbdef40b0	-0.1168226
166	0x3e790e2a	0.2432181
167	0xbe0d0696	-0.13772044
168	0xbc11700b	-0.008876811
169	0x3c5a3d8b	0.013320337
170	0xbe29d194	-0.16583854
171	0xbe99d454	-0.30044806
172	0x3e287969	0.16452564
173	0xbdb24067	-0.0870369
174	0x3d4bbd47	0.049741056
175	0xbd5e4d5e	-0.054273
176	0xbe1a14fb	-0.15047066
177	0x3d58e76a	0.05295507
178	0xbd99f827	-0.075180344
179	0xbcf8a2db	-0.030351093
180	0xbd7f32e3	-0.06230439
181	0x3dd9f037	0.106415205
182	0xbd94ef0a	-0.072721556
183	0x3d5708e6	0.05249872
184	0x3cd49fe4	0.025955148
185	0xbbfe8edb	-0.0077684945
186	0xbe12906a	-0.14312902
187	0xbe5f8141	-0.2182665
188	0x3cfc28cb	0.03078117
189	0x3cdbb448	0.026819363
190	0xbdba3b36	-0.09093325
191	0xbd99004c	-0.0747076
192	0xbe1dc566	-0.15407333
193	0x3eccb3c4	0.399809
194	0xbe1fba70	-0.15598464
195	0xbda6f763	-0.08152654
196	0xbccc6787	-0.02495171
197	0xbe703235	-0.23456652
198	0xbd3026b5	-0.043005664
199	0xbda43a48	-0.08018929
200	0xbe2639b9	-0.16232957
201	0x3d0c83b3	0.034305286
202	0xbe7a173e	-0.24422929
203	0x3ce7468e	0.028231885
204	0x3e4cdc6c	0.2000596
205	0x3d8f543f	0.069984905
206	0x3e6bc9a4	0.23026139
207	0xbd43bc2a	-0.04778687
208	0xbe5cfa4f	-0.2157986
209	0x3c687c8f	0.014189853
210	0xbe0b9c87	-0.13633929
211	0x3e3a9f76	0.18224892
212	0x3daf8d2f	0.085718505
213	0x3d81a84f	0.063309304
214	0x3da0e49c	0.07856104
215	0x3d349db0	0.044095695
216	0x3df00f36	0.11721651
217	0xbe1ac8a7	-0.15115605
218	0x3df76ebe	0.12081669
219	0x3e04b070	0.1295793
220	0x3de7e6d1	0.113233216
221	0x3b5dcb16	0.0033842972
222	0xbdf6179f	-0.12016224
223	0xbdf7db70	-0.12102401
224	0xbe34e148	-0.17664063
225	0x3cf3e1c5	0.029770741
226	0xbd0ad052	-0.033890076
227	0xbb0e4768	-0.0021710042
228	0xbe827825	-0.25482288
229	0xbe86772a	-0.2626279
230	0xbd4ff2a5	-0.050768513
231	0x3d467882	0.04845477
232	0xbe45fe46	-0.19335279
233	0x3e251d4e	0.1612446
234	0x3c1f9484	0.009739999
235	0xbe1df684	-0.1542607
236	0xbcdd7a90	-0.027035981
237	0xbd9d3b2a	-0.076773
238	0x3d13dd04	0.03609945
239	0x3da57a9d	0.08080027
240	0xbd8c4efd	-0.06851003
241	0x3d99fa3c	0.075184315
242	0xbdf9cc76	-0.12197201
243	0x3d37bb8a	0.044856586
244	0xbe1fbddc	-0.1559977
245	0x3deedf4a	0.11663683
246	0x3dd2d504	0.10294536
247	0x3eafa675	0.34306684
248	0x3e4fe8f5	0.2030371
249	0xbe1bdd55	-0.1522115
250	0x3e67f0c6	0.22650442
251	0x3e7c90df	0.24664639
252	0xbe302024	-0.1719976
253	0x3dc0c817	0.09413164
254	0xbe8fac36	-0.28061074
255	0x3cc77aa3	0.02435047

fc2.bias f4 [64]
0	0xbb4bf4ad	-0.003112118
1	0x3d563b50	0.05230266
2	0x3de665aa	0.1124986
3	0x3df7365f	0.12070917
4	0x3dbe1604	0.09281543
5	0x3e1da261	0.15393974
6	0xbde4c1ba	-0.11169763
7	0xbd3e20da	-0.04641805
8	0xbd67273b	-0.056433897
9	0xbd1badac	-0.038007423
10	0x3a3b061b	0.00071343937
11	0xbdec03e2	-0.11524178
12	0x3c3899d6	0.011267146
13	0x3d24a008	0.04019168
14	0xbd8c9dbe	-0.068660244
15	0x3dd5472c	0.104139656
16	0xbcd5d00b	-0.02610018
17	0xbd83b12f	-0.064302795
18	0x3c91e286	0.01780821
19	0x3e2050b3	0.15655784
20	0x3da39873	0.07988062
21	0xbe17ffad	-0.14843626
22	0x3d9356be	0.07194279
23	0x3db2470a	0.08704956
24	0x3e18fd60	0.14940405
25	0xbd57617f	-0.052583214
26	0x3e06fa26	0.13181362
27	0xbd924f68	-0.07144052
28	0x3dc88e65	0.097927846
29	0x3d2b9132	0.041886516
30	0xbd1981f1	-0.037477437
31	0xbdbb1d99	-0.09136505
32	0x3d46854e	0.048466973
33	0xbdb6f0ae	-0.08932625
34	0xbdb47b16	-0.08812539
35	0xbdd4c7d9	-0.103896804
36	0xbd448444	-0.0479777
37	0x3e90ed24	0.28305924
38	0x3b446e94	0.0029973136
39	0x3c94fb66	0.018186282
40	0xbe15a2bf	-0.14612864
41	0x3d37d1e5	0.044877905
42	0xbdc68317	-0.09692972
43	0xbe247d9c	-0.16063541
44	0x3d3b9637	0.045797553
45	0xbce9b94f	-0.028530745
46	0xbdfd78b5	-0.12376539
47	0x3c37bdc3	0.011214676
48	0xbde6d933	-0.11271896
49	0x3c32dbdb	0.010916675
50	0xbdc3f337	-0.09567874
51	0x3e67eba8	0.2264849
52	0xbcd60c4a	-0.026128907
53	0x3c9058fd	0.017620558
54	0xbda013e8	-0.07816297
55	0xbc87d5e5	-0.016581485
56	0xbd4c104a	-0.049820222
57	0xbe073b17	-0.13206135
58	0x3da9ca12	0.08290495
59	0xbdbb93f6	-0.09159081
60	0x3d9143ac	0.070929855
61	0x3e0b22b2	0.13587454
62	0x3dcc155b	0.09965011
63	0x3d346ec4	0.044050947

policy_head.weight f4 [110, 64]
0	0xbe458442	-0.19288734
1	0x3e1131e7	0.14179192
2	0xbe7749ab	-0.24149196
3	0x3b8e5dd8	0.004344683
4	0xbe22f3fd	-0.15913387
5	0xbdeffdb7	-0.11718314
6	0x3d2a61c4	0.041597143
7	0x3df5e5bb	0.12006708
8	0x3ea200f5	0.31641355
9	0x3d8061bf	0.062686436
10	0xbba62728	-0.0050705858
11	0x3e84f75b	0.25969967
12	0x3c230203	0.00994921
13	0x3d523b2a	0.051325954
14	0x3dbe05a9	0.09278423
15	0xbeb42243	-0.3518239
16	0xbe15406f	-0.1457536
17	0xbe0acc77	-0.1355456
18	0xbe3176ad	-0.17330427
19	0x3df71fb0	0.12066591
20	0xbee07794	-0.4384123
21	0xbe8566bc	-0.26054943
22	0xbd6c3e02	-0.057676323
23	0x3e815609	0.25260952
24	0xbec1dac5	-0.3786222
25	0xbe13f601	-0.14449312
26	0xbf675158	-0.90358496
27	0xbd8d066a	-0.06885989
28	0x3e6b90c1	0.23004438
29	0xbe60e90e	-0.21963903
30	0x3e718fec	0.23590058
31	0xbd104c95	-0.035229284
32	0x3c62c1d3	0.013840157
33	0x3df12d08	0.11776167
34	0x3e2e0614	0.16994506
35	0xbdce0cd5	-0.10061041
36	0x3e1ffb69	0.15623249
37	0xbca448d3	-0.020054257
38	0xbe3de699	-0.18544997
39	0xbe436bc4	-0.19084078
40	0x3e2d899c	0.16947025
41	0x3df198df	0.11796736
42	0x3d6a9461	0.05727041
43	0x3e00d76b	0.12582175
44	0x3ea08b61	0.31356338
45	0xbe62fdbc	-0.22167104
46	0xbd97ded3	-0.07415547
47	0xbd9ea453	-0.07746186
48	0x3e2f9c3f	0.17149447
49	0x3e47f228	0.19525969
50	0x3d397afb	0.0452833
51	0xbd454bc5	-0.048167963
52	0x3e0d3dfe	0.1379318
53	0x3cdc787d	0.026912922
54	0x3e4179cb	0.18894117
55	0xbe2b2ac9	-0.1671554
56	0x3dd4fff1	0.104003794
57	0x3ef08788	0.46978402
58	0xbe5394d2	-0.20662239
59	0x3d22d69f	0.03975546
60	0x3e68a07b	0.22717468
61	0xbe5f9d46	-0.21837339
62	0x3e1ba2bd	0.15198798
63	0x3d38ff1d	0.04516517
64	0xbe520dbb	-0.2051305
65	0x3dd0f286	0.10202508
66	0xbe1d8d93	-0.15386038
67	0xbc3d1b7d	-0.011542198
68	0xbe1f1f39	-0.15539254
69	0xbe3d00d6	-0.1845735
70	0x3e4761c4	0.19470888
71	0x3e078fbc	0.13238424
72	0x3e40a402	0.18812564
73	0x3e3d5dc6	0.18492803
74	0xbcec0984	-0.028813131
75	0x3e7c4bd9	0.24638309
76	0x3e890eb8	0.26769042
77	0xbd8031b1	-0.06259478
78	0x3e685106	0.22687158
79	0xbec337b2	-0.3812843
80	0xbc1b4a7a	-0.009478206
81	0x3d73a177	0.059480157
82	0xbe0726e9	-0.13198437
83	0x3cf788aa	0.030216534
84	0xbeb7eeb6	-0.3592431
85	0xbe174212	-0.14771298
86	0x3dfe27fe	0.12409972
87	0x3e84c85a	0.25934106
88	0xbea3edb8	-0.32017303
89	0xbdab8b65	-0.08376197
90	0xbf0e3719	-0.5555282
91	0x3d0b877c	0.034064755
92	0x3ee998dc	0.45624435
93	0xbd031c00	-0.032009125
94	0x3e3ba913	0.18326215
95	0x3d1e3fb4	0.03863497
96	0x3d74c580	0.059758663
97	0x3e934520	0.28763676
98	0x3e55488a	0.20828453
99	0xbccd4325	-0.025056431
100	0x3e8e697e	0.2781486
101	0xbd2e6f4b	-0.042586606
102	0xbeeac690	-0.45854616
103	0xbd9299c7	-0.07158237
104	0x3e7203de	0.23634288
105	0x3de3cfba	0.11123605
106	0xb9933b88	-0.0002808238
107	0x3dbe60d4	0.09295812
108	0x3ec8e0b3	0.39233932
109	0xbe0551c9	-0.1301948
110	0xbd97c015	-0.074096836
111	0xbe3fe8ef	-0.18741201
112	0xbc0ca366	-0.008583879
113	0x3e63bd3b	0.22240154
114	0x3cb14c04	0.021642692
115	0xbe5c2e91	-0.21502139
116	0x3da20a35	0.07912103
117	0x3e078257	0.13233314
118	0x3e1627cb	0.14663617
119	0xbe265034	-0.16241533
120	0x3e13c638	0.14431083
121	0x3ed355ed	0.41276494
122	0xbe34e2f9	-0.17664708
123	0x3cd719f4	0.026257493
124	0x3e49eb3f	0.19718646
125	0xbe4c8447	-0.19972335
126	0x3e2c968b	0.16854303
127	0x3e3eb4ec	0.18623704
128	0x3eafd7e7	0.34344408
129	0xbe12ff68	-0.14355242
130	0x3df5006a	0.119629696
131	0x3cd33838	0.025783643
132	0xbe197116	-0.14984545
133	0xbdb46d66	-0.088099286
134	0xbd9db3b7	-0.077002935
135	0x3e5aa419	0.21351661
136	0x3ec4f01c	0.3846444
137	0x3e0b24e1	0.13588287
138	0x3e73b490	0.23799348
139	0x3d32df56	0.04367002
140	0x3cd619bf	0.026135324
141	0xbd0ec906	-0.03485968
142	0xbcf01d10	-0.029310733
143	0x3dfe23db	0.12409183
144	0x3e42f807	0.19039927
145	0x3e851320	0.25991154
146	0xbc284937	-0.010271362
147	0xbe967927	-0.29389307
148	0xbde44ec0	-0.11147833
149	0xbb1911b7	-0.0023356506
150	0xbe1b2560	-0.15150976
151	0xbe2c606d	-0.16833659
152	0x3d952192	0.07281794
153	0x3e11afb6	0.14227185
154	0x3e2a632b	0.16639392
155	0x3e54ec96	0.20793375
156	0xbd8c58c7	-0.068528704
157	0x3e8c82e8	0.27443624
158	0xbdf85943	-0.121264
159	0x3df1f004	0.118133575
160	0x3c5794bd	0.013158021
161	0xbe4b2dd7	-0.19841705
162	0x3e5b1f91	0.2139876
163	0x3e6ba0eb	0.23010604
164	0x3e5210c2	0.20514205
165	0xbe99d4ae	-0.30045074
166	0x3e0d6647	0.13808547
167	0x3d429b84	0.047511593
168	0x3e8cbc31	0.2748733
169	0xbd8b7e46	-0.06811194
170	0xbd3df5c2	-0.04637695
171	0x3e9625e9	0.29325798
172	0xbe3c6bf1	-0.18400551
173	0xbdb5e778	-0.0888204
174	0xbd6124a3	-0.05496658
175	0x3e4067d2	0.18789604
176	0x3eb87312	0.36025292
177	0x3e862d87	0.2620661
178	0x3ea63f75	0.3247029
179	0xbe917d73	-0.28416023
180	0xbd7c6fce	-0.061630063
181	0xbe65d181	-0.224432
182	0x3dbe1f8e	0.09283362
183	0xbe87b708	-0.2650683
184	0x3eaa64d1	0.33280042
185	0xbe7ff69c	-0.24996418
186	0xbe1f53b0	-0.15559268
187	0x3e4c8021	0.19970752
188	0x3e24f152	0.16107681
189	0xbe83732c	-0.25673807
190	0xbea6d9a7	-0.3258793
191	0xbc71da12	-0.014761465
192	0xbe0a93e6	-0.13532981
193	0x3e48f490	0.19624543
194	0xbeb83ba3	-0.35983
195	0x3e0ef540	0.13960743
196	0xbe5ef86d	-0.21774454
197	0xbdef263e	-0.11677216
198	0xbe80a8b1	-0.251287
199	0x3ed9c86a	0.42535716
200	0x3ea681dc	0.3252095
201	0x3eb02f98	0.3441131
202	0x3e9e2b6b	0.308925
203	0x3d326f21	0.043563012
204	0xbdc9274c	-0.098219484
205	0x3dea5460	0.114418745
206	0x3d63fb28	0.055659443
207	0xbaeeedde	-0.0018228849
208	0x3eba905b	0.3643826
209	0x3ed22647	0.41044828
210	0xbe181998	-0.14853513
211	0xbe3ac210	-0.18238091
212	0xbddf96a6	-0.10917406
213	0x3e1d4b6e	0.15360805
214	0x3d4b6443	0.049656164
215	0x3ceca203	0.028885847
216	0xbe88ae8d	-0.26695672
217	0xbda93d3b	-0.08263632
218	0xbea70e15	-0.3262793
219	0x3e2ed6e3	0.1707416
220	0xbd7a5e96	-0.06112536
221	0xbe9c1483	-0.304844
222	0xbd3275b8	-0.043569297
223	0xbc5a01c5	-0.013306086
224	0xbeafcf95	-0.3433806
225	0x3eaf63e3	0.34255895
226	0x3ed656c7	0.4186308
227	0x3e63cd18	0.22246206
228	0x3eebcb3d	0.46053496
229	0xbf48ca69	-0.78433853
230	0xbe21d6cb	-0.15804593
231	0xbedb2646	-0.42802638
232	0x3eddb7ec	0.43304384
233	0x3db723cb	0.08942374
234	0x3d5b034c	0.05346994
235	0x3eac2809	0.33624294
236	0x3e85aa88	0.26106668
237	0x3d7729cc	0.060342595
238	0x3e8665c4	0.26249516
239	0xbe075094	-0.13214332
240	0x3ea3a92f	0.31965014
241	0x3ebc8758	0.3682201
242	0x3e939651	0.2882562
243	0xbec69c2f	-0.38791034
244	0xbcc1887f	-0.023624657
245	0x3de21fdf	0.11041235
246	0x3ecbb506	0.39786547
247	0xbd68ad5a	-0.056805946
248	0x3eab5d78	0.33469748
249	0x3e957d05	0.29196945
250	0xbe00002c	-0.12500066
251	0x3e08ef64	0.1337257
252	0x3e63965f	0.22225331
253	0xbbc0b89e	-0.005881383
254	0x3d06f03e	0.032943957
255	0xbe6820ae	-0.22668716

policy_head.bias f4 [110]
0	0xbf162e2b	-0.58664197
1	0xbed84b48	-0.42244935
2	0xbce7d25c	-0.02829855
3	0xbe69c5f8	-0.22829425
4	0xbec8627f	-0.39137647
5	0xbf0ad983	-0.54238147
6	0xbd3fdaeb	-0.046839636
7	0x3d92239f	0.071357004
8	0x3d37ac55	0.044842083
9	0x3e700bcc	0.23442
10	0x3df3e494	0.11908832
11	0x3e9ff1be	0.31239122
12	0x3e392d85	0.1808377
13	0x3da276f1	0.079328425
14	0x3e793af0	0.24338889
15	0x3e26cc36	0.16288838
16	0x3e7413ba	0.2383565
17	0x3dca127d	0.098668076
18	0x3e95a645	0.29228416
19	0x3cd35e38	0.025801763
20	0x3e05a5e8	0.1305157
21	0x3e077e01	0.1323166
22	0x3e39a63c	0.1812982
23	0x3d7b7671	0.06139225
24	0x3e0a0cc7	0.13481437
25	0x3ead397f	0.3383293
26	0x3ca62486	0.020281088
27	0x3e81171e	0.2521295
28	0x3e9416a9	0.28923538
29	0x3e83e6a0	0.2576189
30	0x3e2f5de6	0.17125663
31	0x3e350c60	0.17680502
32	0x3d0f3ae3	0.034968268
33	0x3e862f6c	0.26208055
34	0x3db5ae7b	0.0887117
35	0x3d83e176	0.06439488
36	0x3e65bb67	0.2243477
37	0x3de39a08	0.111133635
38	0x3cd5a61e	0.026080187
39	0x3d911bde	0.07085393
40	0x3e4ed8a3	0.20199828
41	0x3e292270	0.16517043
42	0x3d89b931	0.067247756
43	0xbd6d37db	-0.057914596
44	0x3dfc3b12	0.12315954
45	0x3e0dfcb1	0.13865925
46	0x3d11c391	0.035586897
47	0x3d4d7258	0.050157875
48	0x3dda228b	0.1065112
49	0x3e490e85	0.19634445
50	0x3e350a08	0.17679608
51	0x3e7a01c9	0.24414743
52	0x3e5edd98	0.21764219
53	0xb9bd924d	-0.00036157892
54	0x3dd9dcf7	0.10637849
55	0x3e2b3b17	0.1672176
56	0x3e86ddca	0.26341087
57	0x3e9bb7bd	0.3041362
58	0xbf1064ca	-0.5640379
59	0xbf0fd5f9	-0.5618587
60	0xbf139738	-0.57652617
61	0xbf010651	-0.50400263
62	0xbf1e4d42	-0.61836636
63	0xbefd4033	-0.49463043
64	0xbf0e1c7a	-0.555122
65	0xbefd099f	-0.49421403
66	0xbf12e74b	-0.57384175
67	0xbee6f63c	-0.45109737
68	0xbeb879df	-0.3603048
69	0xbeb977bf	-0.36224172
70	0xbef142c2	-0.47121245
71	0xbecd7593	-0.40128765
72	0xbec7410e	-0.3891682
73	0xbee70d12	-0.4512716
74	0xbf0a7061	-0.54077727
75	0xbef4914f	-0.47767112
76	0xbedbe1d8	-0.42945743
77	0xbefee253	-0.49782047
78	0xbebfa1e2	-0.37428194
79	0xbef610ee	-0.4805979
80	0xbee5e1dc	-0.4489888
81	0xbf1c37de	-0.61022747
82	0xbec8e804	-0.39239514
83	0xbefce653	-0.49394473
84	0xbec41be3	-0.38302526
85	0xbeea4ac1	-0.45760158
86	0xbef55df0	-0.4792323
87	0xbf10ac4d	-0.5651291
88	0xbf1654a0	-0.5872288
89	0xbf13e938	-0.5777774
90	0xbee00236	-0.43751687
91	0xbef31130	-0.4747405
92	0xbecfbb85	-0.40572754
93	0xbf10aa7b	-0.5651013
94	0xbed81f78	-0.4221151
95	0xbed817c5	-0.42205635
96	0xbf05cd5f	-0.52266496
97	0xbf0487c4	-0.5176966
98	0xbeafe31d	-0.3435296
99	0xbefc42d4	-0.49269736
100	0xbee1bdd9	-0.44090155
101	0xbf0fd87c	-0.56189704
102	0xbed8c965	-0.42341152
103	0xbf00a861	-0.50256926
104	0xbf024d05	-0.5089877
105	0xbf05905a	-0.5217339
106	0xbecd2169	-0.40064552
107	0xbf18d005	-0.5969241
108	0xbeb41260	-0.3517027
109	0xbf0a087b	-0.5391919

value_head.weight f4 [1, 64]
0	0xbc6cd3e7	-0.014454818
1	0x3a064bc0	0.0005122982
2	0x3c97df89	0.018539207
3	0x3cb5678e	0.022144105
4	0xba4508fb	-0.0007516292
5	0x3c2af491	0.010434286
6	0xbd39e7cf	-0.045387086
7	0x3b90156b	0.0043970845
8	0x3c3b13cf	0.011418297
9	0xbc9691ae	-0.018380012
10	0x3bfb3dfb	0.0076673008
11	0xbe3eb8a9	-0.1862513
12	0xbd4e053b	-0.050297957
13	0xbe0560d1	-0.13025214
14	0xbe94bbef	-0.29049632
15	0x3b53004a	0.0032196217
16	0xba8c195c	-0.001068871
17	0x3ca3b344	0.019982941
18	0x3bf892dd	0.007585867
19	0x3ab760d3	0.0013990648
20	0x3c50f438	0.012753539
21	0x3b0d885e	0.0021596174
22	0x3cc3e489	0.023912685
23	0x3d08fb8c	0.03344302
24	0x3c75f66d	0.015012366
25	0x3e01bd14	0.12669784
26	0x3d852243	0.065006755
27	0x3c300d6f	0.01074539
28	0xbe95561a	-0.29167253
29	0x3a8d20e5	0.001076725
30	0xbe2efddf	-0.17089032
31	0xba8d8b9b	-0.0010799052
32	0x3b2084e5	0.0024493274
33	0x3d74337f	0.059619423
34	0xbc1b7dca	-0.00949044
35	0x3bbff5f4	0.0058581773
36	0x3ab09cdb	0.0013474481
37	0x3d4a9ba7	0.049464848
38	0x3cb65707	0.022258295
39	0xb9d79829	-0.00041121364
40	0xbc320a33	-0.0108666895
41	0x3dae6538	0.085154
42	0xbdcdff7e	-0.10058497
43	0xbbc9d394	-0.0061592553
44	0x3d03574c	0.032065675
45	0xbabed02c	-0.001455789
46	0xbb449d9b	-0.0030001167
47	0xbbbfef85	-0.0058574104
48	0x3c2968f5	0.010339965
49	0x3a3a6804	0.00071108365
50	0x3ba85b66	0.0051378487
51	0x3b229e4b	0.0024813588
52	0xbd3648b8	-0.044502944
53	0xbce5ed5b	-0.028067281
54	0x3c05927d	0.008152601
55	0xbbe15a94	-0.006877253
56	0x3c6327e0	0.013864487
57	0x3ce4df34	0.027938463
58	0x3cd3eac2	0.025868777
59	0x3cb4c223	0.022065228
60	0xbcff60b5	-0.031174043
61	0x3d06ba89	0.032892738
62	0x3d2afb18	0.041743368
63	0x3bddbec8	0.0067671277

exp_avg f4 [128, 260]
0	0x3a40deee	0.0007357438
1	0x389d3b59	7.497398e-05
2	0x39d25d26	0.00040123722
3	0x37e36a1e	2.7109923e-05
4	0x398b5471	0.0002657506
5	0xb8c45d54	-9.363392e-05
6	0x3735308d	1.0799745e-05
7	0xb8cf16e8	-9.874796e-05
8	0x39cfb226	0.00039614848
9	0x39890833	0.00026136785
10	0x394a26c8	0.00019278668
11	0x39d508fd	0.00040633223
12	0x397e08df	0.00024226632
13	0x39bb43cd	0.00035717935
14	0xb864abd9	-5.451948e-05
15	0x3895fced	7.151985e-05
16	0x3992ee3f	0.00028024797
17	0xb979f12f	-0.00023836338
18	0x3a064161	0.00051214366
19	0x3a2a75fd	0.0006502567
20	0xb73d8f3e	-1.1298629e-05
21	0x39591b78	0.00020704966
22	0x332d1cdc	4.030595e-08
23	0xb8f3933c	-0.000116145675
24	0x39240d21	0.0001564515
25	0x39e8cc28	0.00044402597
26	0x3a04429e	0.0005045327
27	0x3a1b2185	0.00059177756
28	0xb865e9af	-5.481549e-05
29	0x3797f698	1.8115432e-05
30	0x3a2bdb54	0.0006555815
31	0x38098fa2	3.2797114e-05
32	0x39655d32	0.0002187386
33	0x390c2ece	0.00013368877
34	0x39cf4c6b	0.00039539053
35	0x396c715a	0.0002254894
36	0x385463d8	5.0637726e-05
37	0x3966dbb4	0.00022016355
38	0xb9292c34	-0.00016133563
39	0xb8a35cdd	-7.789743e-05
40	0xb98a21d1	-0.00026346606
41	0x3a139ef1	0.0005631289
42	0x39268449	0.00015880274
43	0xb8d95b67	-0.00010364391
44	0x395702de	0.00020505066
45	0xb8f182f9	-0.00011516171
46	0xb8daa2c3	-0.00010425367
47	0xb829cfca	-4.048626e-05
48	0xb9375e06	-0.00017487266
49	0x3995209c	0.0002844379
50	0xb4365da2	-1.6984134e-07
51	0x34c86cd5	3.733209e-07
52	0x80000004	-6e-45
53	0x223a4d32	2.5248567e-18
54	0x800000ca	-2.83e-43
55	0x36e0dfab	6.7017586e-06
56	0x37ab2ca6	2.040558e-05
57	0x37ea58db	2.793635e-05
58	0xb8dcc361	-0.0001052681
59	0x377ca48d	1.5058683e-05
60	0xb8072b72	-3.222697e-05
61	0x38ffb2d8	0.0001219266
62	0x38b24ea6	8.502351e-05
63	0xb8a23744	-7.735056e-05
64	0xb7666035	-1.3731468e-05
65	0x00000004	6e-45
66	0x80000004	-6e-45
67	0x2e8b69d4	6.339787e-11
68	0x2fbbd3f4	3.4165704e-10
69	0x368bd11e	4.1668673e-06
70	0x3868ce1f	5.5505076e-05
71	0x3952f098	0.00020116789
72	0x36f7c3a0	7.3839474e-06
73	0x39092f12	0.00013082873
74	0xb6a6621d	-4.9586074e-06
75	0xb89967b9	-7.3149284e-05
76	0xb583ee3b	-9.829595e-07
77	0x385b6d68	5.231556e-05
78	0x00000004	6e-45
79	0x0000b038	6.3215e-41
80	0xa756f9ee	-2.9833953e-15
81	0x2bee8022	1.6946481e-12
82	0xb7281b70	-1.0019969e-05
83	0xb588a20f	-1.0179955e-06
84	0x392c6d03	0.00016443808
85	0x390f80e4	0.00013685558
86	0x38de512d	0.00010600905
87	0x38f8b974	0.00011860105
88	0xb8b1a03e	-8.469865e-05
89	0x381b32cc	3.7002188e-05
90	0xb8c824a1	-9.543566e-05
91	0x00000004	6e-45
92	0x00000004	6e-45
93	0x2338fb64	1.0027894e-17
94	0xae6ecece	-5.4298614e-11
95	0x336b57a0	5.4794896e-08
96	0xb7c78072	-2.378246e-05
97	0x3780a8c5	1.5337378e-05
98	0xb8a5567e	-7.8839235e-05
99	0xb805a361	-3.186183e-05
100	0x3848c309	4.7865356e-05
101	0x38e77a75	0.00011037748
102	0xb8145178	-3.5361823e-05
103	0xb7cbdef5	-2.4303308e-05
104	0x80000004	-6e-45
105	0x1f36f0a1	3.8739043e-20
106	0x00000004	6e-45
107	0xb8e49664	-0.000108999
108	0x37b88e5e	2.2000804e-05
109	0xb78b466b	-1.6602882e-05
110	0xb9131103	-0.0001402535
111	0x39a03b1b	0.00030561615
112	0xb91041c9	-0.00013757417
113	0xb738dfcd	-1.1019362e-05
114	0xb802cf9e	-3.1187774e-05
115	0xb9a0c893	-0.00030667018
116	0xb9547b94	-0.00020263932
117	0x80000004	-6e-45
118	0x00000004	6e-45
119	0xaf8b7eee	-2.5374142e-10
120	0xb0cfdb29	-1.5123521e-09
121	0x3824232c	3.9133403e-05
122	0xb8e96587	-0.00011129217
123	0xb91520d5	-0.00014221978
124	0x3a1fd842	0.00060975936
125	0x3998fe9a	0.00029181392
126	0x3a2b53f1	0.00065356406
127	0x3a214e9e	0.00061533775
128	0x3a0df66d	0.00054154434
129	0x392f1d8f	0.00016700312
130	0x00000004	6e-45
131	0xb962c7ec	-0.00021627516
132	0x3681ccfc	3.868363e-06
133	0xb74b1607	-1.21048715e-05
134	0xb86c70b3	-5.6371744e-05
135	0x367f9467	3.8084343e-06
136	0xb9513252	-0.00019950539
137	0x39f92c32	0.0004752591
138	0xb9cdb548	-0.00039235712
139	0xb95ac045	-0.00020861726
140	0x39977f7e	0.00028895953
141	0x38cae66e	9.6750315e-05
142	0xb8e66445	-0.00010985931
143	0x80000004	-6e-45
144	0x80000004	-6e-45
145	0x224d0ea0	2.7790423e-18
146	0xb733a834	-1.0708394e-05
147	0x367e23fd	3.7869897e-06
148	0xb4588815	-2.0166074e-07
149	0xb479fa5f	-2.3281017e-07
150	0x398c4d72	0.00026760582
151	0x39cb4857	0.00038773075
152	0x39f939d9	0.0004753608
153	0x38c07f53	9.1789894e-05
154	0x39b0635a	0.0003364336
155	0x3a2bd55c	0.00065549253
156	0x80000004	-6e-45
157	0x99f5a0c0	-2.5397333e-23
158	0x80000004	-6e-45
159	0x2e3101bf	4.024669e-11
160	0x3912a0ca	0.00013983544
161	0xb7167e9f	-8.970178e-06
162	0x39a5e245	0.00031639836
163	0xb8e286f4	-0.00010801657
164	0xb898891a	-7.273462e-05
165	0x38c0da1f	9.195902e-05
166	0x38477949	4.7558253e-05
167	0xb94b4a4c	-0.00019387266
168	0x3944c722	0.000187662
169	0x80000004	-6e-45
170	0x0005217c	4.7119e-40
171	0x32b72409	2.132039e-08
172	0xb7191fd0	-9.126918e-06
173	0xb7b9c7c7	-2.2146747e-05
174	0xb9601572	-0.00021370294
175	0xb7e00263	-2.6703992e-05
176	0x38627ff6	5.400177e-05
177	0x378fc2b0	1.7137587e-05
178	0xb4e92de6	-4.3433027e-07
179	0xb6833b1e	-3.9109864e-06
180	0x383fe314	4.574943e-05
181	0x391861f8	0.00014532346
182	0x80000004	-6e-45
183	0x393488e0	0.00017217128
184	0x9ef2e094	-2.571563e-20
185	0x3257957c	1.2548636e-08
186	0x28f50070	2.7200654e-14
187	0x312349fc	2.3761677e-09
188	0x38ab1eba	8.159639e-05
189	0x37114174	8.657913e-06
190	0x3703fdda	7.867313e-06
191	0x3830e587	4.2175434e-05
192	0x35545118	7.909416e-07
193	0x39019173	0.00012356583
194	0x38ff4ecd	0.00012174025
195	0x80000004	-6e-45
196	0x80000004	-6e-45
197	0x00000004	6e-45
198	0xb8d97654	-0.00010369407
199	0x05a5e9ea	1.5602452e-35
200	0x33813b5b	6.017827e-08
201	0xb4c530b0	-3.6729534e-07
202	0xb766118b	-1.3713153e-05
203	0xb2a99e8e	-1.9746292e-08
204	0xb730d84a	-1.0540776e-05
205	0x381d3b13	3.7486734e-05
206	0xb289ea53	-1.6055457e-08
207	0x320d6439	8.230068e-09
208	0x3817f4e5	3.622928e-05
209	0x3a36b6d0	0.000696999
210	0x39c26101	0.00037074837
211	0x3a65e5d5	0.00087699044
212	0x39a9dbf1	0.0003239806
213	0x3a624b4d	0.00086324365
214	0x3a34f504	0.0006902965
215	0x3a2cdfcf	0.00065946294
216	0x3a221c29	0.0006184006
217	0x39a168cf	0.00030786401
218	0x3a071ff8	0.0005154605
219	0x3a775782	0.0009435342
220	0x3a1262a1	0.0005584155
221	0x39d975ce	0.00041477237
222	0x3a58a901	0.00082649296
223	0x3a379d33	0.00070043205
224	0x3a034baf	0.0005008531
225	0x3a81a778	0.0009891829
226	0x3a0ac730	0.00052939635
227	0x38bba2fc	8.947213e-05
228	0x38eb50be	0.000112207126
229	0x390338d8	0.0001251431
230	0x3901c600	0.0001237616
231	0x39b77369	0.00034990467
232	0x37f50987	2.9210712e-05
233	0xb76a933d	-1.39817685e-05
234	0x398c4849	0.00026756737
235	0x396b31e4	0.00022429932
236	0x3a57b940	0.00082292035
237	0x3a48ca06	0.00076594984
238	0x393fa982	0.00018278326
239	0x3a4108fd	0.0007363705
240	0x3a04d471	0.00050670566
241	0x3792e5fa	1.7511647e-05
242	0x3a2bb891	0.0006550635
243	0x3a1bcc6d	0.00059432426
244	0x3a075733	0.0005162835
245	0x399a65ec	0.00029449107
246	0x3a854846	0.0010168634
247	0x3a5ec9d7	0.00084987044
248	0x3a87b792	0.0010354391
249	0x395afd32	0.00020884423
250	0x3a3eba9c	0.0007275732
251	0x3a62a146	0.00086452474
252	0x3a1e8db8	0.00060483394
253	0x3a64b19a	0.00087239745
254	0x3a37cef1	0.00070117327
255	0x39ef652d	0.00045661014

exp_avg_sq f4 [128, 260]
0	0x364d9992	3.063677e-06
1	0x365f354e	3.3260617e-06
2	0x368dfea6	4.2317724e-06
3	0x366a20f9	3.488791e-06
4	0x361ccc7a	2.3364832e-06
5	0x363e2e40	2.8339127e-06
6	0x3559c97b	8.113199e-07
7	0x35dffa43	1.668763e-06
8	0x35da3ffe	1.626089e-06
9	0x35704287	8.950378e-07
10	0x3595b883	1.1155065e-06
11	0x3560cfdc	8.374898e-07
12	0x3595ed67	1.1170458e-06
13	0x36ab8eca	5.11282e-06
14	0x36651965	3.413844e-06
15	0x3686f63e	4.0221776e-06
16	0x364dc3f3	3.0661438e-06
17	0x363a72e2	2.778303e-06
18	0x3624eb10	2.4574729e-06
19	0x362cb7be	2.573695e-06
20	0x358028fb	9.54867e-07
21	0x35803211	9.551314e-07
22	0x350491fd	4.9386273e-07
23	0x3515c30c	5.5790656e-07
24	0x34c33e5a	3.6366947e-07
25	0x35822057	9.695167e-07
26	0x367dcecb	3.7820307e-06
27	0x361d8587	2.3472546e-06
28	0x3601f93f	1.9367578e-06
29	0x363dfdf2	2.831101e-06
30	0x368deb9b	4.2295555e-06
31	0x3651cfd0	3.126439e-06
32	0x358634e2	9.999169e-07
33	0x34d70362	4.0049332e-07
34	0x35fb2e36	1.8714406e-06
35	0x354e3535	7.6818407e-07
36	0x35171e59	5.6296045e-07
37	0x352a586a	6.3458594e-07
38	0x35f9e38c	1.861817e-06
39	0x365ec4e7	3.319519e-06
40	0x367206b5	3.6064714e-06
41	0x365904fe	3.2338426e-06
42	0x3649a494	3.004713e-06
43	0x3611d071	2.1728013e-06
44	0x365196a8	3.123112e-06
45	0x35c82c13	1.4913988e-06
46	0x35168679	5.607504e-07
47	0x35065c37	5.005308e-07
48	0x35a0b7a7	1.1974379e-06
49	0x351f53a3	5.9353823e-07
50	0x342090a7	1.4953785e-07
51	0x34e323f9	4.2308218e-07
52	0x2a223980	1.440844e-13
53	0x317b774b	3.6593117e-09
54	0x30950d2e	1.0844923e-09
55	0x342a5357	1.5862803e-07
56	0x34c36981	3.6398345e-07
57	0x33dd0e88	1.0293758e-07
58	0x3424c339	1.5344712e-07
59	0x342ceeab	1.6105575e-07
60	0x344092dc	1.793482e-07
61	0x34b00fe6	3.2794122e-07
62	0x345060b7	1.9406694e-07
63	0x34c1bcd3	3.608644e-07
64	0x34f35f31	4.5331538e-07
65	0x29e2ce75	1.0072231e-13
66	0x29737e39	5.406632e-14
67	0x3145702f	2.8731042e-09
68	0x3332fe17	4.1674948e-08
69	0x34044dd7	1.2321776e-07
70	0x33def2a9	1.038182e-07
71	0x3435e760	1.6941112e-07
72	0x3492782e	2.728206e-07
73	0x344c9ef3	1.9056806e-07
74	0x3481eb7e	2.4199466e-07
75	0x34a39639	3.0470417e-07
76	0x3435a309	1.691625e-07
77	0x34129075	1.3649863e-07
78	0x2d3705c0	1.0403622e-11
79	0x32bd0cfe	2.2008404e-08
80	0x31bd8b10	5.5164335e-09
81	0x33bcbd03	8.788813e-08
82	0x346f3777	2.2278788e-07
83	0x3416fe18	1.4062277e-07
84	0x342b98ca	1.59812e-07
85	0x346eed30	2.2251766e-07
86	0x340207bf	1.2110011e-07
87	0x34ff71e2	4.7580312e-07
88	0x34c1e638	3.6116558e-07
89	0x3414752a	1.3826198e-07
90	0x34d634d6	3.989905e-07
91	0x2d921899	1.6609202e-11
92	0x2c71d0b7	3.436402e-12
93	0x31933eaf	4.2853894e-09
94	0x338e579b	6.6283256e-08
95	0x33cfe138	9.680156e-08
96	0x351b491c	5.784839e-07
97	0x342c987b	1.607422e-07
98	0x340cbeb9	1.31079e-07
99	0x3434cabd	1.6837562e-07
100	0x34ad6377	3.229613e-07
101	0x34fd5bf7	4.7191836e-07
102	0x347e3587	2.3675067e-07
103	0x34495a98	1.8752542e-07
104	0x328d6ba0	1.6463503e-08
105	0x342cf72a	1.6108666e-07
106	0x3028d96d	6.1427025e-10
107	0x34687673	2.1649775e-07
108	0x35a974b2	1.2625444e-06
109	0x35f0cf45	1.7941717e-06
110	0x36748986	3.6438882e-06
111	0x36847224	3.9471943e-06
112	0x369dc0bd	4.7014023e-06
113	0x36b16fa6	5.2880087e-06
114	0x36a40e4a	4.8892443e-06
115	0x36a7817b	4.9920613e-06
116	0x36ac1be2	5.1292454e-06
117	0x3055b02c	7.7739304e-10
118	0x31b92526	5.388432e-09
119	0x344936e8	1.8739559e-07
120	0x347e73d9	2.3697739e-07
121	0x35d0519b	1.5520958e-06
122	0x35cd997e	1.5318362e-06
123	0x3644df35	2.93362e-06
124	0x36a65e0c	4.958134e-06
125	0x36a6a1cd	4.9660216e-06
126	0x368f8baa	4.277991e-06
127	0x36bedfb0	5.688482e-06
128	0x36c65b15	5.911463e-06
129	0x368c2223	4.176299e-06
130	0x309e0f15	1.15003e-09
131	0x351cfd5d	5.848322e-07
132	0x3504427a	4.927057e-07
133	0x356c06ec	8.7926924e-07
134	0x358c5799	1.0456307e-06
135	0x35b0aa0f	1.3162515e-06
136	0x36779f03	3.6898425e-06
137	0x3690d561	4.316375e-06
138	0x36478eeb	2.97365e-06
139	0x36ca494a	6.028601e-06
140	0x36897db1	4.0975506e-06
141	0x36c4e412	5.867806e-06
142	0x3692b13a	4.371771e-06
143	0x30160f94	5.459182e-10
144	0x3102a8a6	1.9013355e-09
145	0x32d2713b	2.4498709e-08
146	0x347182e2	2.2492489e-07
147	0x3593e92b	1.1020214e-06
148	0x35d3eb38	1.5789183e-06
149	0x366416e8	3.398798e-06
150	0x368b0170	4.14269e-06
151	0x36971265	4.502292e-06
152	0x36a7df0b	5.0029535e-06
153	0x36adc0b1	5.178234e-06
154	0x36ace600	5.152775e-06
155	0x36c1212f	5.7557113e-06
156	0x30a866d7	1.2252838e-09
157	0x326bffe5	1.3736984e-08
158	0x30a384f1	1.1897595e-09
159	0x33157ef8	3.4807243e-08
160	0x353e891a	7.0980025e-07
161	0x3533dde7	6.7005607e-07
162	0x3528162b	6.2617136e-07
163	0x34e8ec3f	4.338526e-07
164	0x34f710d3	4.6019576e-07
165	0x3558fef8	8.08373e-07
166	0x348b00c7	2.5891333e-07
167	0x3460ef27	2.0948629e-07
168	0x3484fe4f	2.477195e-07
169	0x30f51eb1	1.7834819e-09
170	0x31bb751e	5.455731e-09
171	0x3460848a	2.0909843e-07
172	0x34b4ad9c	3.365393e-07
173	0x350736b3	5.0371017e-07
174	0x34aa8bf2	3.176679e-07
175	0x3462384b	2.106837e-07
176	0x3508abdf	5.0914053e-07
177	0x3406e690	1.25636e-07
178	0x34f31dbe	4.5283917e-07
179	0x33f069ea	1.11951366e-07
180	0x3495955d	2.786209e-07
181	0x3488617e	2.540291e-07
182	0x31a9a679	4.937473e-09
183	0x3566b028	8.593802e-07
184	0x33681e8b	5.4044488e-08
185	0x347085d1	2.2400424e-07
186	0x3435946e	1.6910937e-07
187	0x34a85b60	3.1358923e-07
188	0x34420802	1.8070571e-07
189	0x35105a10	5.377524e-07
190	0x341bf04f	1.4522924e-07
191	0x34ccda8a	3.815697e-07
192	0x342e6b28	1.6243996e-07
193	0x351b467c	5.784457e-07
194	0x3416e510	1.4053171e-07
195	0x2e0f6d7b	3.2611674e-11
196	0x3284e95f	1.5472947e-08
197	0x2f169a53	1.3697248e-10
198	0x33d8c98f	1.0094947e-07
199	0x33ca0da8	9.408842e-08
200	0x340e74d5	1.3267284e-07
201	0x350c760a	5.2325834e-07
202	0x34e43ec9	4.2513992e-07
203	0x34a1d9ca	3.014705e-07
204	0x33f3bd25	1.13499745e-07
205	0x34bc8f4d	3.5121994e-07
206	0x34352c5c	1.6873076e-07
207	0x33a87137	7.843703e-08
208	0x36fdf3dc	7.5683765e-06
209	0x36de6292	6.6275907e-06
210	0x36b995a3	5.5308496e-06
211	0x36d17fee	6.2435784e-06
212	0x36b66bd5	5.436576e-06
213	0x36a82b86	5.011857e-06
214	0x369febfa	4.7660405e-06
215	0x368355c5	3.914089e-06
216	0x363a6b5d	2.7778653e-06
217	0x3635b57a	2.7076735e-06
218	0x366d23e5	3.5336645e-06
219	0x367d2fad	3.7727689e-06
220	0x365ca5e7	3.2879123e-06
221	0x36a14263	4.8059023e-06
222	0x36df6d92	6.6586736e-06
223	0x36bde027	5.6587337e-06
224	0x36d385d7	6.303871e-06
225	0x36b9bffa	5.5357787e-06
226	0x36bd56b0	5.6427307e-06
227	0x368ceb92	4.199749e-06
228	0x36605523	3.3428157e-06
229	0x36887ea4	4.0678588e-06
230	0x36a53f4e	4.924753e-06
231	0x365e332d	3.3110366e-06
232	0x36393b85	2.7601793e-06
233	0x368d5032	4.2114634e-06
234	0x36ddf643	6.614982e-06
235	0x36d0431d	6.206696e-06
236	0x36fe019b	7.569977e-06
237	0x36c01921	5.7249713e-06
238	0x368e5240	4.241505e-06
239	0x36af930b	5.2325245e-06
240	0x36ab1bda	5.0994395e-06
241	0x36948a3d	4.4268368e-06
242	0x369adc85	4.6152295e-06
243	0x361a5569	2.2997503e-06
244	0x36abb194	5.11687e-06
245	0x363b3458	2.789564e-06
246	0x364c887a	3.0477809e-06
247	0x36e248a8	6.743783e-06
248	0x36ce14d8	6.141705e-06
249	0x36debf63	6.638396e-06
250	0x36daac59	6.51697e-06
251	0x36da2c73	6.502081e-06
252	0x3693367c	4.387284e-06
253	0x36934d53	4.389943e-06
254	0x369dd4dd	4.703745e-06
255	0x3696bb7f	4.492176e-06

exp_avg f4 [128]
0	0x3a4a5e3b	0.000771973
1	0xb8958759	-7.130084e-05
2	0x3a8eb233	0.0010886848
3	0x3a002f76	0.0004889885
4	0xb8461779	-4.722874e-05
5	0xba89c054	-0.0010509589
6	0x39713847	0.00023004516
7	0x38642de6	5.4402182e-05
8	0xb9e180c6	-0.00043011288
9	0xb9104fd1	-0.00013762644
10	0x3984cbca	0.00025328837
11	0x3ac29917	0.001484665
12	0xb9f0fc01	-0.00045964125
13	0xba2429a4	-0.00062623085
14	0x3a1babd2	0.0005938384
15	0xb8880164	-6.4852444e-05
16	0xba61dc84	-0.0008615928
17	0xb907fc2a	-0.00012968542
18	0x396056d2	0.00021394648
19	0x3a8ec7ea	0.0010893319
20	0x3a7fa15a	0.0009751521
21	0x3a25e301	0.00063280767
22	0xba49eec8	-0.00077031227
23	0x393d745f	0.00018067796
24	0xba30e6bf	-0.0006748251
25	0x39b549e5	0.00034578066
26	0xb737cd9c	-1.0955522e-05
27	0xbae88cc6	-0.0017742149
28	0x3a082ea9	0.0005194941
29	0x39b1b5fa	0.00033895654
30	0x3872777b	5.780857e-05
31	0x397619cf	0.00023470003
32	0x39317da0	0.00016926834
33	0xbade86f1	-0.0016977472
34	0x3abcc24e	0.0014401169
35	0xb9e4be1d	-0.00043629194
36	0xba559a1a	-0.0008148268
37	0xb9928ba8	-0.00027951342
38	0x3a57ec62	0.0008236823
39	0x3a45558a	0.00075277
40	0x398698cf	0.00025672323
41	0x39bf01a3	0.00036431578
42	0x3a4a901d	0.0007727163
43	0x38fa2989	0.000119286655
44	0xb715e3cd	-8.934131e-06
45	0xb9d3f91a	-0.0004043065
46	0x38c101aa	9.203267e-05
47	0x395d5f12	0.00021111619
48	0x39ab2dc6	0.00032649765
49	0x3aa7be32	0.0012797771
50	0x3a5d639f	0.00084453257
51	0x3a1f1d88	0.0006069769
52	0x3a4d2d21	0.0007826854
53	0xba58bbc1	-0.00082677236
54	0x3964dc44	0.0002182583
55	0x398a5eac	0.00026391947
56	0xba1a51c0	-0.00058868155
57	0xb99d5b70	-0.000300135
58	0x3a130df7	0.0005609686
59	0x393acf77	0.00017815629
60	0xb8ab67b8	-8.1732345e-05
61	0x3a888105	0.0010414427
62	0x39c13ddd	0.0003685792
63	0x3af9a090	0.0019045044
64	0xba5d2c88	-0.00084371166
65	0xbaa0a270	-0.0012255441
66	0xb815c718	-3.570979e-05
67	0xba6c04c8	-0.0009003398
68	0xba087128	-0.000520485
69	0x3a9e2cab	0.0012067755
70	0x3a4a2a8c	0.00077120285
71	0xba9a7f18	-0.0011787144
72	0x399171f1	0.00027741448
73	0x00000004	6e-45
74	0x3ab671b7	0.0013919388
75	0xb9c64737	-0.00037818562
76	0x39a4f9c9	0.00031466622
77	0xb8f10166	-0.00011492036
78	0x39b9c02f	0.00035429138
79	0x3a89c410	0.0010510702
80	0x00000004	6e-45
81	0x3ad93d76	0.0016574103
82	0x3a01fcc4	0.00049586245
83	0xb9d10de8	-0.00039873947
84	0xb9bc6c30	-0.0003593876
85	0x3a00f6c4	0.00049195834
86	0x3a439f9d	0.0007462444
87	0x3a5b7b17	0.0008372529
88	0x3931c244	0.00016952405
89	0x3ac56c9f	0.0015062279
90	0xba716905	-0.00092090695
91	0xba451e89	-0.00075195037
92	0x39e770bf	0.00044143756
93	0x3a0cff0e	0.0005378582
94	0x394219e1	0.00018510922
95	0xb9dbaee8	-0.0004190125
96	0xb8ef729a	-0.00011417754
97	0xb88831b7	-6.4942455e-05
98	0xb9ff80d7	-0.00048733383
99	0x00000004	6e-45
100	0xba5d15c0	-0.0008433722
101	0x3ad2f238	0.0016093915
102	0xba01dac4	-0.0004953558
103	0xb96f6988	-0.0002283213
104	0x386177a8	5.375562e-05
105	0x39c5858a	0.00037674262
106	0xb9ef5843	-0.00045651392
107	0x3926c75d	0.00015905262
108	0x3acc07d5	0.0015566299
109	0x3a0f4768	0.00054656575
110	0x3a268f46	0.0006353747
111	0xb8f06cbf	-0.00011464347
112	0xb9b15f7b	-0.0003383121
113	0x3781146b	1.5387506e-05
114	0x00000004	6e-45
115	0x396b57e7	0.00022444093
116	0x3ac8770d	0.0015294269
117	0x3934f8fe	0.00017258895
118	0x3b29e3a0	0.0025923029
119	0x3a530cf8	0.0008050944
120	0xba797760	-0.00095163845
121	0x39e43e81	0.00043534118
122	0x399f5b3d	0.0003039482
123	0x3a27461f	0.0006380993
124	0x3a1d4450	0.0005999254
125	0xba462805	-0.0007559064
126	0x3918c772	0.00014570149
127	0xba0614f4	-0.00051148166
