ppo_2layer_2/ppo_agent_episode_2000.pth (torch, 596626 bytes, 21 tensors)

fc1.weight f4 [128, 260]
0	0x3dc70d77	0.09719365
1	0xbdd78dfc	-0.10525128
2	0x3c9eb48a	0.019373197
3	0xbcb1a5d1	-0.021685513
4	0x3b0ac591	0.0021174888
5	0xbcf5f4ed	-0.030024016
6	0x3c6c5a6d	0.014425856
7	0x3d52dadb	0.051478248
8	0x3cd209cb	0.025639435
9	0xbd0a759b	-0.033803564
10	0xbcae120e	-0.021248844
11	0x3c75cafd	0.015002009
12	0xbddc44e0	-0.10755324
13	0xbd5c10d5	-0.05372699
14	0xbdca95bd	-0.098918416
15	0xbad44bc1	-0.0016196893
16	0xba814fe4	-0.0009865728
17	0xbd18b534	-0.037282184
18	0x3cee65d4	0.02910129
19	0x3cab820c	0.020936035
20	0x3e08d770	0.13363433
21	0xbaebe7a6	-0.0017998114
22	0xbd01786b	-0.03160898
23	0xbca2a254	-0.019852795
24	0xbd93dc00	-0.07219696
25	0x3c9ffa9f	0.019528685
26	0x3d6be872	0.057594724
27	0xbd324422	-0.043522008
28	0xbbaf8320	-0.0053562075
29	0x3c8fbc8f	0.017545966
30	0x3d24ed3c	0.040265307
31	0x3d83829a	0.06421395
32	0xbd192dfb	-0.037397366
33	0x3dfc45f3	0.12318029
34	0x3c05ecb7	0.008174113
35	0x3dc050b1	0.09390391
36	0x3bea6689	0.0071533364
37	0x3b5433dd	0.0032379546
38	0xbd3d2812	-0.046180792
39	0xbcccf16c	-0.025017463
40	0x3d807e25	0.0627406
41	0xbcf8d8fb	-0.030376902
42	0x3d50dd00	0.050992012
43	0xbde35b57	-0.11101406
44	0x3d6d0ef2	0.05787558
45	0xbd84dc2e	-0.064873084
46	0x3da195ce	0.07889901
47	0xbc608424	-0.01370338
48	0xbd9f5805	-0.0778046
49	0xbcd87ece	-0.026427653
50	0xbd0d1e26	-0.03445258
51	0xbc89dd1c	-0.016829066
52	0x3d622f49	0.055220876
53	0x3b6e6ecd	0.003638196
54	0xbd2428ac	-0.04007785
55	0x3d8aa85f	0.067703955
56	0x3c935a54	0.017987408
57	0xbc9011b2	-0.017586563
58	0xbb837135	-0.004011298
59	0xbcee0c4e	-0.029058602
60	0xbd34bfbb	-0.04412816
61	0x3c666d87	0.014064199
62	0x3cbb1a7f	0.022839783
63	0x3c826ef6	0.01592205
64	0x3d1c9a6c	0.038233206
65	0x3d954c15	0.07289902
66	0x3c6326cc	0.01386423
67	0xbd62c67c	-0.05536507
68	0xbdaf4c46	-0.0855947
69	0x3a0b5998	0.00053157797
70	0x3c0aebb6	0.008479049
71	0xbc181278	-0.009281747
72	0xbbe055b8	-0.006846156
73	0x3ad3db75	0.0016163426
74	0xbd50221a	-0.05081377
75	0x3d1a4c0e	0.037670188
76	0xbd38a493	-0.045078825
77	0x3d7c6d4f	0.061627682
78	0xbbfddba7	-0.007747132
79	0xbbc4e1b1	-0.00600835
80	0xbcbfbfe9	-0.02340694
81	0xbcd21e79	-0.025649296
82	0x3b8f65fe	0.004376172
83	0x3c888c27	0.016668392
84	0xbd197f4e	-0.037474923
85	0xbd020406	-0.03174212
86	0xbd99d035	-0.075104155
87	0x3d5424e8	0.05179301
88	0xbcb347cd	-0.021884823
89	0xbd8594a7	-0.06522494
90	0x3cd7c55b	0.026339224
91	0x3d60a267	0.05484238
92	0x3b16a47f	0.002298623
93	0xbd88bc25	-0.06676511
94	0xbda2947a	-0.07938476
95	0xbd270bf2	-0.040782876
96	0x3ad1515c	0.0015969682
97	0x3ca72b93	0.02040652
98	0x3b9c16fc	0.004763482
99	0xbbd048af	-0.006356321
100	0x3ce95fec	0.028488122
101	0xbcaaa843	-0.020832187
102	0xbd949586	-0.07255082
103	0x3b852c91	0.0040641506
104	0x3d8a212e	0.0674461
105	0x3d95ea35	0.07320062
106	0x3b8fd8c6	0.004389855
107	0x3d26fe98	0.040770143
108	0x3ccbd647	0.024882449
109	0x3d0ead9a	0.034833528
110	0x3d7b38c7	0.061333444
111	0x3d8525ac	0.06501326
112	0xbcddf283	-0.027093178
113	0x3c00a496	0.00785174
114	0x3d0b96f6	0.034079514
115	0x3e0da690	0.1383307
116	0x3dc6ca95	0.09706608
117	0xba128b80	-0.0005590245
118	0xbc47650b	-0.012170087
119	0xbd852b83	-0.0650244
120	0xbdaa7915	-0.08323876
121	0xbdc33d9d	-0.09533236
122	0xbc3c14e0	-0.011479586
123	0x3cbd3740	0.023097634
124	0x3c0c63a3	0.008568677
125	0x3dbad925	0.09123448
126	0xbdc93997	-0.098254375
127	0x3cdd5d06	0.027021896
128	0x3da8fae6	0.0825098
129	0xbc835dd9	-0.016035961
130	0x3cca46b0	0.02469191
131	0xbd080efe	-0.033217423
132	0x3de9a821	0.11409021
133	0xbd183f98	-0.037170023
134	0xbd192160	-0.037385345
135	0xbdc33444	-0.09531453
136	0x3da0e94a	0.07856996
137	0xbb525282	-0.0032092636
138	0xbd2e92c9	-0.042620454
139	0xbd958ac8	-0.07301861
140	0x3d320b09	0.043467555
141	0x3d6ee892	0.058327265
142	0x3c0a92dc	0.008457866
143	0x3cd02a95	0.02541093
144	0x3e050b7e	0.12992665
145	0x3dce2a18	0.100666225
146	0x3e0b5caf	0.13609575
147	0x3d78c020	0.0607301
148	0x3d879437	0.066200666
149	0x3e0a4b97	0.13505398
150	0x3ceee411	0.029161485
151	0xbd1c3881	-0.038139824
152	0x3dd300d6	0.10302894
153	0x3c5196b9	0.012792283
154	0x3c3bb94f	0.011457755
155	0x3dcf3383	0.10117247
156	0xbd9465ae	-0.07245956
157	0x3d09a7bd	0.033607233
158	0xbe283cf3	-0.164295
159	0x3cecf6f8	0.028926358
160	0x3d37f8a7	0.044914868
161	0x3d2a5cea	0.041592516
162	0xbc3efd01	-0.0116570005
163	0x3cfe2da8	0.03102763
164	0xbdcbfc54	-0.09960237
165	0xbd492bed	-0.049114157
166	0x3d13c4f6	0.03607651
167	0xbd9c54dc	-0.07633373
168	0xbd8fb8c2	-0.07017662
169	0xbd2478d0	-0.04015428
170	0xbd8ae497	-0.06781881
171	0x3dff3ba2	0.12462546
172	0x3e3f8668	0.18703616
173	0xbd0bf4d3	-0.03416903
174	0x3d2dad1b	0.042401414
175	0x3d868e84	0.065701514
176	0x3d748463	0.059696566
177	0xbd83578a	-0.06413181
178	0xbc43ca07	-0.011950023
179	0x3d2d0731	0.042243186
180	0xbd4e9930	-0.05043906
181	0xbc04710f	-0.008083596
182	0xbda18e5b	-0.0788848
183	0xbd8864d6	-0.06659858
184	0x3ddf9824	0.109176904
185	0x3cf1fdac	0.029539905
186	0x3b138008	0.0022506732
187	0x3df732b0	0.12070215
188	0xbd0477c3	-0.032340776
189	0xbc207190	-0.0097927
190	0xbd931bea	-0.071830586
191	0x3d88c489	0.06678111
192	0xbc0b8355	-0.008515199
193	0xbda5de23	-0.0809901
194	0x3b0b7a95	0.0021282781
195	0x3dfa8133	0.12231674
196	0xbd6fb991	-0.05852658
197	0xbc1d74f2	-0.0096104015
198	0xbd747989	-0.059686217
199	0x3c513590	0.012769118
200	0xbcaf3e84	-0.021392114
201	0xbc613512	-0.013745563
202	0x3c0d5068	0.008625127
203	0x3cd55ad7	0.026044292
204	0xbcd7b47f	-0.026331184
205	0xbd4d3592	-0.050099917
206	0xbd650055	-0.05590852
207	0xbd826195	-0.063662685
208	0x3c87b113	0.016563928
209	0x3d18b42a	0.037281193
210	0xbce5e2bb	-0.028062215
211	0xbc542b92	-0.012949841
212	0x3bbd75d8	0.0057818703
213	0x3b0f728e	0.0021888348
214	0xbc9f3642	-0.019435052
215	0xbdd7228e	-0.10504638
216	0xbd458712	-0.048224516
217	0xbd24dd27	-0.04024997
218	0x3c98c77e	0.018649813
219	0xbde24b5f	-0.11049532
220	0xb84326fc	-4.652793e-05
221	0xbd3e519d	-0.04646455
222	0x3d9e75ee	0.07737337
223	0xbd9dbdfe	-0.07702254
224	0x3b682119	0.0035420118
225	0x3c02d91f	0.007986336
226	0x3d92b613	0.07163634
227	0xbd248a7c	-0.04017113
228	0xbd16ceff	-0.0368185
229	0xbd32efbc	-0.04368566
230	0x3d808a84	0.0627642
231	0xbc8574b0	-0.016290992
232	0x3b0ae3b4	0.002119285
233	0xbd02c501	-0.03192616
234	0x3d16f334	0.03685303
235	0x3d8b56d4	0.068036705
236	0xbd111daa	-0.03542868
237	0xbcff87bb	-0.031192651
238	0xbc76445a	-0.015030945
239	0xbde3467c	-0.11097428
240	0xbda90077	-0.08252042
241	0xbd742785	-0.059608
242	0x3c83e7f2	0.016101811
243	0xbd6fc493	-0.058537077
244	0xbd8581ff	-0.065189354
245	0x3cf2b727	0.02962835
246	0x3ce533cd	0.027978802
247	0xbc89be65	-0.01681442
248	0xbc01c0c3	-0.007919493
249	0xbd62e20d	-0.05539136
250	0xbc0a4538	-0.008439355
251	0xbd0e7a2a	-0.034784473
252	0xbdad8c26	-0.08473997
253	0x3c17f17d	0.009273884
254	0xbd4a4f05	-0.049391765
255	0xbd8bad6a	-0.068201855

fc1.bias f4 [128]
0	0xbbb6e385	-0.0055813217
1	0xbd21c18e	-0.03949123
2	0xbc1d5ac4	-0.00960416
3	0xbc37174a	-0.011174986
4	0x3cc5f340	0.024163842
5	0xbc4d67d8	-0.012536965
6	0xbd0dcb4a	-0.0346177
7	0xbceaf78c	-0.028682493
8	0x3cd3773e	0.025813695
9	0x3c8e4141	0.0173651
10	0x3d333962	0.043755896
11	0xbc8d1247	-0.01722063
12	0xbd964ac1	-0.07338477
13	0xbcf654b8	-0.030069694
14	0x3d93f1ef	0.072238795
15	0x3ccc1f02	0.02491713
16	0xbcd7b303	-0.026330477
17	0x3ad91ee6	0.0016564995
18	0xbd8c55e5	-0.068523206
19	0x3d1ea1ed	0.038728643
20	0xbd1b82ab	-0.03796641
21	0xbd87aa08	-0.06624228
22	0x3d3dc6a9	0.046332035
23	0xbb6cf8d6	-0.003615906
24	0x3d1248d7	0.035713997
25	0xbd54272f	-0.05179518
26	0xbd8f7d06	-0.07006268
27	0x3d2c78f9	0.042107556
28	0xbd65d841	-0.05611444
29	0xbc8e2e6e	-0.017356124
30	0x3d82b856	0.063828155
31	0x3d67b6f3	0.05657096
32	0x3cc3ed54	0.023916878
33	0xbbcb4549	-0.006203328
34	0xbc98002a	-0.018554766
35	0xbd1655ff	-0.036703106
36	0x3cb4f2d3	0.022088444
37	0xbd5a4e80	-0.05329752
38	0x3cbcc5e9	0.02304359
39	0xbd287114	-0.041123465
40	0x3d19d130	0.037553012
41	0xba31f98a	-0.00067891984
42	0xbccdef09	-0.025138395
43	0x3d0d698e	0.034524493
44	0x3d2faef7	0.04289147
45	0x3ca47775	0.020076493
46	0xbd121ce3	-0.03567208
47	0x3d36f578	0.04466769
48	0xbd7e7d37	-0.062131133
49	0xbb9e6018	-0.0048332326
50	0x3d897a70	0.06712806
51	0x3d532256	0.051546417
52	0x3b0a1ae9	0.0021073169
53	0xbcf49657	-0.029856844
54	0x3d639bd5	0.055568535
55	0xbc18cc76	-0.009326091
56	0x3cc1569f	0.023600874
57	0x3c9562a2	0.018235508
58	0x3d969c45	0.07354025
59	0xbd1a50c9	-0.0376747
60	0xbcb6c7ce	-0.022312071
61	0xbcba057b	-0.022707691
62	0xbca5f461	-0.02025813
63	0x3d23b25f	0.03996503
64	0xbd651952	-0.05593235
65	0xbd18fabe	-0.0373485
66	0x3ab08607	0.0013467678
67	0x3ca6cc7b	0.020361176
68	0x3bda1753	0.0066556125
69	0xbc8d3fab	-0.017242273
70	0xbc946fe3	-0.018119758
71	0xbd2782dd	-0.040896285
72	0xbd776507	-0.06039908
73	0xbd9918d1	-0.074754365
74	0xbccdf524	-0.025141306
75	0xbd8bcb80	-0.06825924
76	0xbcdd6f18	-0.027030513
77	0x3c38c2c5	0.011276905
78	0xbd0c115a	-0.034196235
79	0x3c00040d	0.007813466
80	0xbda33d85	-0.07970718
81	0x3d39ec1a	0.04539118
82	0x3d7f2551	0.062291447
83	0xbd101b07	-0.035182025
84	0x3d7feebf	0.062483545
85	0xbd86232d	-0.06549678
86	0xbcf31e47	-0.029677523
87	0xbc12ade6	-0.008952593
88	0xbcd9a76c	-0.02656909
89	0xba8afd54	-0.0010604062
90	0x3ce408b1	0.027836176
91	0x3d6d1cfc	0.05788897
92	0xbc40df79	-0.01177203
93	0xbcf769d7	-0.030201836
94	0x3ca374ba	0.01995312
95	0xbd876886	-0.06611733
96	0xbc8e873c	-0.01739847
97	0x3d14cdc6	0.036329053
98	0xbd3267af	-0.04355591
99	0xbd828f15	-0.06374947
100	0x3c36a761	0.011148305
101	0x3d26aa65	0.040689845
102	0xbd7cf86a	-0.061760344
103	0xbd263729	-0.04057995
104	0xbc20d14e	-0.009815527
105	0xbc53d0a1	-0.012928159
106	0xbd2d88eb	-0.042366903
107	0x3c2fe922	0.010736736
108	0x3d11d5f4	0.035604432
109	0xbc4bb42d	-0.012433094
110	0x3d213655	0.039358456
111	0x3cb8edff	0.022574423
112	0x3d789c7b	0.060696106
113	0xbc3433d5	-0.010998686
114	0x3c1d0ad3	0.0095851
115	0x3cce6e30	0.025199026
116	0xbd90ad91	-0.07064355
117	0xbd6ca2c6	-0.05777242
118	0x3cdd0990	0.026982099
119	0x3d67b9e5	0.056573767
120	0xbc3d0a51	-0.011538104
121	0x3c9772b2	0.018487308
122	0x3c08c2b4	0.008347202
123	0xbc7a7017	-0.015285513
124	0x3db3a01a	0.08770771
125	0x3cb31561	0.02186078
126	0xbd52921e	-0.05140888
127	0x3c7f7c72	0.015593635

fc2.weight f4 [64, 128]
0	0xbceb348b	-0.028711578
1	0x3dfb2cc6	0.12264399
2	0x3cc81d49	0.024428027
3	0xbd8705c1	-0.06592894
4	0xb920b626	-0.00015326645
5	0x3d2b79e5	0.041864295
6	0xbe370d75	-0.17876227
7	0x3d07f0d9	0.033188675
8	0xbce1dc58	-0.027570888
9	0x3d09ac0c	0.033611342
10	0xbdb15794	-0.08659282
11	0xbc90d0b5	-0.017677644
12	0xbd220d7c	-0.03956364
13	0xbcd05be6	-0.025434446
14	0x3db1e7c9	0.08686788
15	0x3e151185	0.14557464
16	0x3dc94e5e	0.098294005
17	0x3d42d81a	0.04756937
18	0xbbdac93a	-0.00667682
19	0x3d9230d8	0.071382225
20	0xbe0e85a0	-0.13918161
21	0x3c99afa4	0.01876051
22	0x3dab3cdc	0.083612174
23	0x3da9476c	0.08265576
24	0x3db93348	0.09042984
25	0xbd2085a7	-0.03918996
26	0xbdebdfdf	-0.115173094
27	0xbddcda35	-0.10783807
28	0xbe048b12	-0.12943676
29	0x3d9c4fd4	0.076324135
30	0xbd085b02	-0.033289917
31	0xbd979ed8	-0.07403344
32	0x3d5ff07e	0.05467271
33	0xbe0c0538	-0.13673866
34	0x3d5577a8	0.052116066
35	0xbc8ca2ae	-0.017167415
36	0xbc4081d5	-0.011749704
37	0x3cb5ad78	0.022177443
38	0x3de75690	0.11295807
39	0x3bc22d24	0.0059257913
40	0xbd27f9b0	-0.041009605
41	0x3e1ec1c2	0.155036
42	0xbd95054a	-0.072763994
43	0xbd9c845c	-0.07642433
44	0xbe35edd1	-0.17766501
45	0xbd49fd94	-0.049314097
46	0x3c81334f	0.015771536
47	0x3dddc8ed	0.10829339
48	0xbe290ed6	-0.16509566
49	0x3c407d2a	0.011748591
50	0x3da6ae64	0.08138731
51	0xbdcb0c13	-0.09914412
52	0xb9863f7f	-0.0002560578
53	0x3b14faa3	0.00227324
54	0xbb4ec3af	-0.0031549742
55	0xbd95b528	-0.073099434
56	0x3e249ef0	0.16076255
57	0x3d7608ab	0.06006686
58	0x3dbff30d	0.0937253
59	0x3c4dc685	0.012559538
60	0xbd1d4fcf	-0.03840619
61	0x3d870177	0.06592076
62	0xbd00b256	-0.031420074
63	0xbdac9522	-0.08426882
64	0xbe05ba2c	-0.130593
65	0xbd9b9c50	-0.075981736
66	0xbd681a99	-0.05666599
67	0x3ced5598	0.028971478
68	0xbceddcd3	-0.029035961
69	0x3d12f576	0.03587862
70	0x3d9fd276	0.07803814
71	0x3c6bf2fa	0.014401192
72	0x3d9058d4	0.070481926
73	0xbdc360da	-0.09539957
74	0x3d4088b7	0.04700538
75	0xbd17eee4	-0.03709306
76	0xbd1f5086	-0.038895153
77	0xbdc7c072	-0.09753503
78	0xbe028a1f	-0.12748002
79	0xbda8b521	-0.082376726
80	0xbdae93f4	-0.085243136
81	0x3d656546	0.056004785
82	0x3c5955dd	0.0132651
83	0xbcaa1254	-0.020760693
84	0x3d0f586a	0.034996428
85	0xbdb8f4d6	-0.09031074
86	0xbd70e92d	-0.058816124
87	0x3e307ee3	0.17235903
88	0x3e3b5955	0.18295796
89	0xbdb19305	-0.0867062
90	0xbd556afa	-0.052103974
91	0x3ccf9928	0.025341585
92	0x3d55424c	0.05206518
93	0xbd3e5f0d	-0.046477366
94	0x3d940bc8	0.072288096
95	0x3ccf70f3	0.025322413
96	0x3d9bd8cb	0.07609709
97	0xbcbf0411	-0.023317369
98	0x3db7b5c9	0.0897022
99	0xbd51a7d7	-0.051185455
100	0xbe368c56	-0.17826971
101	0xbc98ca91	-0.018651279
102	0xbdc9d7fa	-0.098556474
103	0x3bc55578	0.0060221516
104	0x3d8f5eea	0.07000525
105	0x3d8239ce	0.063586816
106	0x3c0e76d5	0.008695324
107	0xbe06e59c	-0.13173527
108	0x3df643e0	0.12024665
109	0x3dc1d2eb	0.094640575
110	0x3d42378c	0.047416255
111	0x3e251b5e	0.16123721
112	0x3d49b461	0.04924429
113	0xbdea3646	-0.11436133
114	0xbce29da5	-0.027663061
115	0xbd18235a	-0.03714309
116	0xbd883eea	-0.06652625
117	0x3d34cc1b	0.044139963
118	0xbcef404e	-0.029205468
119	0x3d72603a	0.0591738
120	0xbda43f66	-0.08019905
121	0xbccb824d	-0.024842406
122	0x3da85047	0.08218437
123	0x3c7ca0ff	0.015419244
124	0x3c8df99c	0.017330937
125	0xbc4f0488	-0.012635358
126	0xbd97cc6f	-0.074120395
127	0xbdd78c60	-0.10524821
128	0xbc92ecb2	-0.01793513
129	0x3de60fc2	0.11233474
130	0xbdbc4fb4	-0.0919489
131	0x3df04a69	0.117329426
132	0x3df263fe	0.11835478
133	0xbe321a23	-0.17392783
134	0xbdc1a833	-0.094559096
135	0xbc116d78	-0.008876197
136	0x3db43758	0.087996185
137	0xbb49dd48	-0.003080206
138	0xbc86776b	-0.016414365
139	0x3cbae4a0	0.022814095
140	0x3dc40a66	0.09572296
141	0x3d825c0e	0.06365214
142	0x3c94c4fb	0.018160334
143	0xbc715694	-0.0147301145
144	0xbda00dc6	-0.07815127
145	0xbc31c89b	-0.010851051
146	0x3d722c92	0.059124537
147	0x3db7b7e5	0.08970622
148	0xbd38b7aa	-0.04509703
149	0xbc3f4609	-0.0116744125
150	0x3c526120	0.012840539
151	0xbc0b6455	-0.008507808
152	0xbd349d65	-0.044095416
153	0x3d976f2d	0.07394252
154	0xbc186644	-0.009301726
155	0xbd96241a	-0.073311046
156	0xbd8cc027	-0.06872588
157	0x3d9e3237	0.077244215
158	0x3c6dd9e2	0.014517279
159	0xbd4aaaa9	-0.04947916
160	0x3daa0a6b	0.08302768
161	0xbbb55cf0	-0.0055347607
162	0x3c7b0c83	0.015322807
163	0x3c8903d2	0.016725454
164	0x3dbda49f	0.092599146
165	0xbd43420a	-0.0476704
166	0x3da06a38	0.078327596
167	0xbcdaf109	-0.026726263
168	0xbde93be3	-0.113883756
169	0x3c301df2	0.010749327
170	0xbe3d3d23	-0.18480353
171	0xbe3cdd30	-0.18443751
172	0xbc726aa7	-0.014795936
173	0xbe0423db	-0.12904303
174	0x3bc8a0b0	0.006122671
175	0xbbdadef6	-0.006679411
176	0xbcfdbb20	-0.030973017
177	0xbc71d681	-0.014760614
178	0x3d83d749	0.06437547
179	0x3d164aa4	0.036692277
180	0xbd69799b	-0.057000738
181	0xbc999e47	-0.01875223
182	0xbc8ee1ce	-0.017441656
183	0xbb35c44f	-0.0027735417
184	0xbb951824	-0.004549997
185	0x3d1985f6	0.03748127
186	0xbd15e4da	-0.036595203
187	0xbe2e766f	-0.17037366
188	0x3d84f563	0.06492116
189	0x3dc20382	0.09473325
190	0xbe1e8129	-0.15478958
191	0xbd0a7bba	-0.0338094
192	0xbd68033f	-0.05664372
193	0x3d100c52	0.035168
194	0xbdbfe1bf	-0.093692295
195	0xbc84af00	-0.016196728
196	0xbc945af4	-0.018109776
197	0xbe071d63	-0.13194804
198	0xbbe2231c	-0.006901158
199	0x3c320d8c	0.010867488
200	0xbc887738	-0.01665841
201	0x3d3c1fbd	0.045928705
202	0xbdb8536d	-0.09000287
203	0xbb220fbf	-0.0024728624
204	0x3dccdeaa	0.10003407
205	0xbc143926	-0.009046828
206	0x3d98ddcf	0.07464182
207	0xbdaf06d2	-0.08546223
208	0xbe15daeb	-0.14634292
209	0xbcc4df29	-0.024032192
210	0xbd81609d	-0.06317256
211	0x3d86927d	0.06570909
212	0x3d85a72c	0.06526026
213	0x3d3e6162	0.04647959
214	0x3ddca1e3	0.10773065
215	0x3d6bf71e	0.057608716
216	0x3cfd0e1b	0.030890515
217	0xbdd68ea0	-0.10476422
218	0x3d8b6dd7	0.0680806
219	0x3d870174	0.06592074
220	0x3dbad1c2	0.091220394
221	0xbbdfb493	-0.006826946
222	0xbd8cdb71	-0.068777926
223	0x3ce03b9f	0.02737218
224	0xbd5df4ae	-0.054188423
225	0xbdc774e9	-0.09739096
226	0xbcdeb62b	-0.027186474
227	0xbcd8f073	-0.026481843
228	0xbde96ee5	-0.113981046
229	0xbdad4713	-0.08460822
230	0x3d81c50d	0.063364126
231	0x3d91f573	0.07126894
232	0xbdc51756	-0.096235916
233	0x3dda263c	0.10651824
234	0x3d5e17aa	0.054221787
235	0xbde0424b	-0.109501444
236	0xbc5b0760	-0.013368458
237	0xbcda9a3a	-0.02668487
238	0xbdb673b8	-0.0890879
239	0x3d980732	0.074232474
240	0xbd812ed3	-0.06307759
241	0x3db7339e	0.08945392
242	0xbe01a1a0	-0.12659311
243	0x3da1a39a	0.07892533
244	0xbe208fe6	-0.15679893
245	0x3c8c75b2	0.017145965
246	0x3db7c84b	0.0897375
247	0x3df3002a	0.11865266
248	0x3dd158a7	0.10221987
249	0xbde92868	-0.1138466
250	0x3d7ec3cc	0.062198445
251	0x3da2dc59	0.07952184
252	0xbd8a4496	-0.06751363
253	0x3dcb5c37	0.09929698
254	0xbc891530	-0.016733736
255	0xbcd9bda8	-0.026579693

fc2.bias f4 [64]
0	0xbd3364f0	-0.043797433
1	0x3c96ca8d	0.01840713
2	0x3cb44925	0.022007534
3	0x3db978c2	0.09056236
4	0xbce6dde4	-0.028181978
5	0x3dba3edb	0.0909402
6	0xbdcf3793	-0.10118022
7	0x3d3cecb4	0.046124175
8	0x3ddb7d01	0.10717202
9	0x3d60b41c	0.054859266
10	0x3cb484ae	0.022035923
11	0xbd889209	-0.06668479
12	0xbcc04130	-0.023468584
13	0x3d8e306e	0.06942831
14	0xbd48ea8b	-0.049051803
15	0x3d9516cf	0.07279741
16	0x3d5b0fb0	0.053481758
17	0x3cf8738c	0.030328535
18	0xbd34e8b9	-0.044167254
19	0x3daa9bb5	0.0833048
20	0xbca95170	-0.020668715
21	0xbdc9a72a	-0.09846337
22	0x3c94bf3f	0.0181576
23	0x3d0aea44	0.03391482
24	0x3cf8dd1e	0.030378874
25	0xbc52887c	-0.012849923
26	0x3d57d79f	0.052695867
27	0x3b950835	0.0045480975
28	0x3d42091e	0.047371976
29	0x3ce73aa4	0.028226204
30	0x3d1a6b1b	0.0376998
31	0xbd9fb248	-0.07797676
32	0x3d4969bb	0.049173098
33	0xbd1a09b1	-0.0376069
34	0x3c89c2c1	0.016816499
35	0xbd226914	-0.03965099
36	0x3c584278	0.013199441
37	0x3d8914b8	0.06693405
38	0xbd058269	-0.032595072
39	0xbd4c3bb9	-0.049861643
40	0x3b98c800	0.0046625137
41	0x3d3b439f	0.045718785
42	0xbd5fd734	-0.054648593
43	0xbd938381	-0.07202817
44	0x3d48bf59	0.04901061
45	0xbc074af8	-0.00825762
46	0xbd7db7df	-0.06194293
47	0xbd161e78	-0.03665015
48	0xbcd19feb	-0.02558895
49	0x3da41b2f	0.08012997
50	0xbd49425f	-0.049135562
51	0x3c8de224	0.017319746
52	0xbc975966	-0.018475246
53	0x3d47c6df	0.048773643
54	0xbd58bc73	-0.052914094
55	0xbcc07d27	-0.023497177
56	0x3d37dd0d	0.044888545
57	0xbd5b5e69	-0.053556833
58	0xba867f17	-0.0010261264
59	0xbd34714f	-0.044053372
60	0x3d8f7177	0.070040636
61	0x3d83a324	0.06427601
62	0x3dc68801	0.096939094
63	0x3d1d302b	0.038376015

policy_head.weight f4 [110, 64]
0	0xbed6ff30	-0.41991568
1	0xbc29e38f	-0.010369196
2	0xbe42d1bb	-0.19025318
3	0xbe111dc2	-0.14171508
4	0xbdda8be1	-0.10671211
5	0xbd95d730	-0.073164344
6	0xbd3da0c2	-0.04629589
7	0xbd796bc3	-0.060893785
8	0xbdd85be0	-0.10564399
9	0xbd644307	-0.055727985
10	0xbea39ab8	-0.3195398
11	0x3dbbd12e	0.09170757
12	0x3db4da7b	0.08830734
13	0x3d9da1ee	0.07696901
14	0xbd92aded	-0.0716208
15	0xbe8d567b	-0.27605042
16	0xbdb8c19b	-0.09021302
17	0xbe67bd55	-0.22630818
18	0xbe370bc1	-0.17875578
19	0xbd703434	-0.058643535
20	0xbd5f247a	-0.054478146
21	0xbe809821	-0.25116065
22	0xbe6aa8ff	-0.2291603
23	0xba77fae5	-0.00094596884
24	0xbe560421	-0.20900013
25	0xbdf86708	-0.12129027
26	0xbea540ea	-0.32276088
27	0xbbcbceeb	-0.006219735
28	0x3d9934ec	0.07480797
29	0xbe4036e5	-0.1877094
30	0x3e2f3657	0.17110573
31	0xbd0b2e83	-0.033979904
32	0xbd89ae2c	-0.06722674
33	0xbe505114	-0.20343429
34	0xbddfb581	-0.10923291
35	0xbe461282	-0.19342998
36	0xbe5d4bf7	-0.2161101
37	0xbcb7efde	-0.022453245
38	0xbe1c150f	-0.15242408
39	0xbc2c2a62	-0.010508152
40	0xbda993ba	-0.0828013
41	0xbcbe1396	-0.023202699
42	0x3cf68b3e	0.030095693
43	0xbd040147	-0.03222778
44	0xbd0ddc0a	-0.034633674
45	0x3d2ca118	0.04214582
46	0x3d1815f8	0.037130326
47	0xbdc1d73f	-0.09464883
48	0xbde54744	-0.111952335
49	0xbd66e075	-0.056366403
50	0xbe671368	-0.22565997
51	0x3c3352f3	0.01094507
52	0x3e0da611	0.1383288
53	0xbd88e338	-0.066839635
54	0xbc00464c	-0.00782926
55	0x3e0a9dac	0.1353671
56	0xbd9c107e	-0.07620333
57	0x3d79158e	0.06081157
58	0xbe29bced	-0.16575976
59	0xbd88ed53	-0.06685891
60	0xbd80b2bb	-0.0628409
61	0xbe231607	-0.15926372
62	0x3c1840fe	0.009292839
63	0xbd941d1e	-0.07232116
64	0xbeb3f502	-0.35147864
65	0xbde83045	-0.11337332
66	0xbd6392ec	-0.055560037
67	0xbe200c08	-0.1562959
68	0x3bf2f66a	0.0074146288
69	0xbe1a11fa	-0.1504592
70	0x3c431508	0.01190687
71	0xbe1a31c8	-0.15058053
72	0xbe633761	-0.22189094
73	0x3d951969	0.07280237
74	0xbe840869	-0.25787666
75	0x3dfb2e6e	0.12264715
76	0x3dc30789	0.095229216
77	0xbd164d47	-0.03669479
78	0x3d56740c	0.052356765
79	0xbe67bb9a	-0.22630158
80	0xbd415d96	-0.04720839
81	0xbdd7404f	-0.10510313
82	0xbd9328d9	-0.071855254
83	0xbe2c09b2	-0.16800573
84	0x3d7c2e1f	0.061567422
85	0xbe08d712	-0.13363293
86	0xbdcb10a3	-0.099152826
87	0x3d87ec8b	0.06636914
88	0xbe3abf91	-0.1823714
89	0xbd068b6c	-0.032847807
90	0xbe73c20d	-0.23804493
91	0x3d6744da	0.056462146
92	0x3e6aa707	0.22915278
93	0x3db195b3	0.08671131
94	0x3ddcdec2	0.10784675
95	0x3d23536d	0.039874483
96	0xbcf0bbbe	-0.029386397
97	0xbd8524d0	-0.06501162
98	0xbe1f6846	-0.15567121
99	0xbdc8d763	-0.09806707
100	0xbdfea73b	-0.124342404
101	0x3b8cb518	0.004294049
102	0xbe9da09c	-0.30786598
103	0x3d11f2cf	0.03563195
104	0xbd426eb5	-0.04746886
105	0xbd978b62	-0.07399632
106	0xbd2472b9	-0.04014847
107	0xbc481509	-0.012212046
108	0x3cfe4e63	0.031043237
109	0xbb21a0fd	-0.0024662607
110	0xbd8305bd	-0.06397579
111	0xbe45b758	-0.19308221
112	0xbe9157ce	-0.28387302
113	0xbd70a178	-0.05874774
114	0xbe82556f	-0.25455806
115	0xbe2eb6db	-0.17061941
116	0x3da3ce04	0.07998279
117	0x3d01a857	0.031654682
118	0xbcf54479	-0.029939877
119	0xbca22b3c	-0.019796006
120	0x3cf62354	0.030046143
121	0xbb8a9ec6	-0.004230353
122	0xbe09b224	-0.13446862
123	0xb9f0a4a3	-0.0004589903
124	0xbd8a8da7	-0.06765299
125	0xbdf85e68	-0.121273816
126	0xbb376070	-0.0027981065
127	0x3bbd018a	0.0057680057
128	0x3e9d8088	0.30762124
129	0x3b751cc5	0.0037401181
130	0x3e578046	0.21045026
131	0x3d1ee5af	0.038793262
132	0x3d89125a	0.066929534
133	0x3d4c599a	0.04989014
134	0xbce879b6	-0.028378349
135	0x3de204e4	0.11036089
136	0x3e8145de	0.25248617
137	0x3ddd8352	0.10816063
138	0x3e54280f	0.20718406
139	0x3d0e4486	0.034733318
140	0x3d3ad35b	0.04561172
141	0xbcead0e3	-0.028664058
142	0xb94a0e39	-0.0001926952
143	0x3e22d948	0.15903199
144	0x3dde6aea	0.10860236
145	0x3e3d1bee	0.18467686
146	0xbcbd3aaf	-0.023099272
147	0xbdca3187	-0.09872728
148	0x3d5cd309	0.053912196
149	0x3dae55e4	0.08512476
150	0xbd205cad	-0.039150883
151	0x3acd4136	0.0015659693
152	0x3e436d78	0.19084728
153	0x3e1273da	0.14302006
154	0x3e90fa55	0.28315988
155	0x3e53b249	0.20673479
156	0x3d401d58	0.046902984
157	0x3e945583	0.2897149
158	0xbdb38f3d	-0.08767555
159	0x3df3765a	0.11887808
160	0xbdb50a6f	-0.08839881
161	0xbcfe4243	-0.031037455
162	0x3d819f0f	0.06329166
163	0x3e2c691e	0.16836974
164	0x3de30a35	0.11085931
165	0xbd2b1a2b	-0.041773003
166	0x3e6db977	0.2321528
167	0x3db78d79	0.08962531
168	0x3e343097	0.1759666
169	0xbdc774d4	-0.0973908
170	0xbd246d08	-0.040143043
171	0x3e579c9b	0.21055834
172	0xbd55de85	-0.052214164
173	0xbb14ec3f	-0.0022723821
174	0xbd2b42c0	-0.041811705
175	0x3e6eba95	0.23313363
176	0x3e6a6874	0.22891408
177	0x3dc9bfc4	0.098510295
178	0x3e21f945	0.15817745
179	0xbdeb472c	-0.11488184
180	0xbd7c8612	-0.061651297
181	0xbe15db28	-0.14634383
182	0x3c23f943	0.010008159
183	0xbdb9f788	-0.09080416
184	0x3e657885	0.22409256
185	0xbe480ef6	-0.19536957
186	0xbd6bea6a	-0.0575966
187	0x3e5245f2	0.20534495
188	0x3e20772c	0.1567046
189	0xbd9363df	-0.07196783
190	0xbe1e1154	-0.15436298
191	0xbc00b5d1	-0.007855848
192	0x3c8da8e7	0.017292453
193	0x3e844ce5	0.25839916
194	0xbcc630d5	-0.024193207
195	0x3e448995	0.19193108
196	0x3d82188e	0.0635234
197	0x3da9b819	0.08287067
198	0xbd476dd7	-0.048688736
199	0x3e6ff581	0.23433496
200	0x3e48c0ac	0.19604748
201	0x3e3f06d2	0.18654945
202	0x3e886ee0	0.2664709
203	0x3d3b5eb0	0.045744598
204	0x3da33586	0.07969193
205	0x3dd799b7	0.10527366
206	0x3dc4c970	0.09608734
207	0x3d7a4ca3	0.061108243
208	0x3e8a868a	0.2705577
209	0x3e650bd7	0.22367798
210	0xbc85f531	-0.016352268
211	0x3e0a55e8	0.13509333
212	0x3dc843e6	0.097785756
213	0x3d9cfa93	0.07664981
214	0x3e3572e1	0.17719604
215	0x3e14c6cb	0.14528958
216	0xbd8db8e0	-0.06920028
217	0x3d5459b6	0.051843368
218	0xbe2464ec	-0.16054124
219	0x3e19e36d	0.15028162
220	0x3bade7e9	0.005307187
221	0xbe1e7cf2	-0.1547735
222	0xbcd79060	-0.02631396
223	0xbc842953	-0.016132986
224	0xbe2b6efe	-0.16741559
225	0x3e857523	0.2606593
226	0x3e814cf3	0.2525402
227	0x3d2e1d7a	0.04250858
228	0x3e83aa89	0.25716045
229	0xbd360f8e	-0.044448428
230	0xbc8d3ffe	-0.017242428
231	0xbd03c990	-0.032174647
232	0x3e6c303a	0.23065272
233	0x3e746270	0.23865676
234	0x3d6480d4	0.055786923
235	0x3dea6ace	0.114461526
236	0x3e817af0	0.25289106
237	0x3c85555c	0.016276054
238	0x3e2735db	0.16329138
239	0x3d07f609	0.03319362
240	0x3e3b5e41	0.18297674
241	0x3e328ca1	0.17436458
242	0x3e017f52	0.12646225
243	0xbb847b06	-0.004042986
244	0xbcc21409	-0.023691194
245	0x3e672608	0.22573102
246	0x3e7fb0dc	0.2496981
247	0x3d1b4e40	0.037916422
248	0x3e2ae335	0.16688235
249	0x3e7a0884	0.24417311
250	0x3db62f92	0.08895792
251	0x3ce2bfce	0.02767935
252	0x3e77b48c	0.24189967
253	0x3de00581	0.1093855
254	0x3e51aa26	0.20475063
255	0xbcb207f6	-0.021732312

policy_head.bias f4 [110]
0	0xbe424094	-0.18969947
1	0xbe0ea521	-0.13930179
2	0x3d92e45b	0.071724616
3	0x3ceb1a31	0.028699012
4	0x3d32a8e9	0.043618117
5	0xbe262ef2	-0.16228846
6	0xbdf2f575	-0.118632235
7	0xbd7d0d55	-0.061780293
8	0xbd4598e1	-0.0482415
9	0xbc88b173	-0.016686177
10	0x3cb328cd	0.021870041
11	0x3d6a0290	0.05713135
12	0x3de6bffb	0.11267086
13	0xbd1a7651	-0.03771049
14	0x3d57bdb5	0.052671153
15	0x3ddd9615	0.108196415
16	0x3db08058	0.0861823
17	0xbce08734	-0.02740822
18	0x3de00b74	0.109396845
19	0xbd4bfd28	-0.049801975
20	0x3d941331	0.07230223
21	0x3a5d5fe2	0.00084447686
22	0x3c5351fa	0.012897963
23	0xbd8a4472	-0.06751336
24	0xbc523e1c	-0.012832191
25	0x3d95caa9	0.07314045
26	0xbd856b22	-0.065145746
27	0x3e0ca5e9	0.13735165
28	0x3e0f8b49	0.14017977
29	0x3e14c6df	0.14528988
30	0x3d80c02e	0.06286655
31	0x3c9a1303	0.018807894
32	0xbd3683e3	-0.04455937
33	0x3d8c818a	0.06860645
34	0xbbc0daf4	-0.0058854762
35	0xbdb13160	-0.08651996
36	0x3cda90ad	0.026680315
37	0x3bcef01e	0.0063152453
38	0xbd8ab694	-0.06773105
39	0xbdb338d7	-0.08751076
40	0x3cf843ad	0.030305708
41	0x3c3627ce	0.011117889
42	0xbb911740	-0.0044278204
43	0xbd9a7451	-0.07541717
44	0xbd00bc42	-0.031429537
45	0x3dd833dd	0.10556767
46	0x3ab077cc	0.0013463437
47	0xbca6b9b8	-0.02035223
48	0xbd2caa0c	-0.042154357
49	0xbd115db8	-0.035489768
50	0xbc4eafb9	-0.012615138
51	0xbbc96f7b	-0.0061473227
52	0x3d7ed99c	0.062219247
53	0xbc8e4986	-0.017369043
54	0x3be56d7c	0.007001577
55	0x3d10f0e9	0.035386
56	0x3e00cc98	0.12578046
57	0x3dff0405	0.124519385
58	0xbe1dd3cf	-0.1541283
59	0xbe1bd142	-0.15216544
60	0xbe04c032	-0.12963942
61	0xbde77a0f	-0.11302578
62	0xbe2a0d77	-0.16606699
63	0xbdebe358	-0.11517972
64	0xbe1edabe	-0.15513131
65	0xbe32aff1	-0.17449929
66	0xbe26853d	-0.16261764
67	0xbdc23b4f	-0.094839685
68	0x3d314cb2	0.043286033
69	0x3d16bf45	0.036803503
70	0xbd5b7fa7	-0.053588536
71	0x3c4b2154	0.012398083
72	0x3d48f3a9	0.049060497
73	0xbc322c9e	-0.010874895
74	0xbdfd5de4	-0.12371424
75	0xbd815558	-0.06315106
76	0x3c117c9a	0.008879805
77	0xbde35c70	-0.111016154
78	0x3d4ff4ca	0.05077056
79	0xbd81b9cf	-0.06334268
80	0xbd3e0a12	-0.046396323
81	0xbe399442	-0.18122962
82	0x3d430bca	0.047618665
83	0xbd86450f	-0.06556141
84	0x3d09c20d	0.033632327
85	0xbc63055b	-0.013856257
86	0xbd03bb93	-0.032161307
87	0xbe273fc5	-0.1633292
88	0xbe1ea426	-0.15492305
89	0xbe339a59	-0.17539348
90	0xbda10afb	-0.078634225
91	0xbd786704	-0.06064512
92	0xbd166f00	-0.03672695
93	0xbe143639	-0.1447381
94	0x3c2f7761	0.0107096145
95	0x3c93050f	0.017946748
96	0xbdd0c5da	-0.10193987
97	0xbe17b86a	-0.14816442
98	0x3d3fafa3	0.04679836
99	0xbdb498b9	-0.08818192
100	0xbd1043e9	-0.035221014
101	0xbe11a30c	-0.14222354
102	0x3b5d8258	0.0033799615
103	0xbd910e05	-0.07082752
104	0xbdc29ffd	-0.095031716
105	0xbdc3321d	-0.09531043
106	0x3d13bda8	0.036069542
107	0xbe1008eb	-0.14065902
108	0x3c9a9518	0.018869922
109	0xbdce7d83	-0.10082533

value_head.weight f4 [1, 64]
0	0x3df980d5	0.12182776
1	0x3daad03d	0.083404996
2	0x3d772bee	0.06034463
3	0x3da61279	0.08108992
4	0x3deb6a0a	0.11494835
5	0x3dd455a6	0.10367899
6	0xbe006ac2	-0.12540725
7	0x3be2823c	0.006912498
8	0xbb75d7bd	-0.0037512623
9	0xbd2b4750	-0.041816056
10	0x3df63f61	0.12023807
11	0xbdfe4119	-0.1241476
12	0xbd7aea0b	-0.061258357
13	0xbe0c5e02	-0.13707736
14	0xbe2cbad2	-0.16868141
15	0x3d1c7c9d	0.038204778
16	0xbddb5f0e	-0.107114896
17	0xbdab42a5	-0.08362321
18	0x3da3a584	0.07990554
19	0x3e05afe9	0.13055386
20	0x3d29de21	0.041471604
21	0xbd8e0e49	-0.069363184
22	0x3d9f9ac8	0.07793194
23	0x3e0105f5	0.12599929
24	0x3cd991fc	0.026558869
25	0x3de7ebcb	0.11324271
26	0x3e1433a9	0.14472832
27	0xbdf40e88	-0.11916834
28	0xbde82fcc	-0.113372415
29	0xbc7a5184	-0.015278224
30	0xbe10ec64	-0.14152676
31	0xbc11a30a	-0.008888969
32	0xbdd36947	-0.103228144
33	0x3d960de8	0.07326871
34	0x3c208ce7	0.009799219
35	0xbb9380bc	-0.0045014303
36	0x3d077f08	0.03308013
37	0x3df27420	0.11838555
38	0x3d139938	0.036034793
39	0xbd035a05	-0.03206827
40	0xbcf867fe	-0.030323025
41	0x3de6e0cd	0.11273346
42	0xbde2a438	-0.110664785
43	0xbcf5c0c5	-0.029999146
44	0x3d9f5868	0.07780534
45	0xbd310583	-0.043218147
46	0xbdd4290b	-0.10359391
47	0x3d3e0f07	0.04640105
48	0x3cecdc39	0.028913604
49	0x3c992c2e	0.018697824
50	0x3ce634de	0.02810138
51	0x3dabf322	0.08395983
52	0xbd3ebb65	-0.046565432
53	0x3cdad088	0.026710764
54	0x3cface1a	0.030615855
55	0xbd4b76da	-0.049673893
56	0xbd1ac6d1	-0.037787262
57	0x3cfae6ce	0.030627634
58	0x3d91f83d	0.07127426
59	0xbd5cf862	-0.053947814
60	0x3db09364	0.086218625
61	0x3e1305a9	0.14357628
62	0x3d9630aa	0.07333501
63	0xbd541c06	-0.051784538

exp_avg f4 [128, 260]
0	0x3998902e	0.00029099121
1	0x38cf48e1	9.884104e-05
2	0xba2153dc	-0.00061541586
3	0xba1064b6	-0.0005508171
4	0xb471ddd2	-2.2525572e-07
5	0xb94f0646	-0.00019743395
6	0xb983572c	-0.00025051215
7	0x38d222e7	0.000100200814
8	0xb89c1e8b	-7.444349e-05
9	0xba0e14df	-0.000541998
10	0x387a4f27	5.967836e-05
11	0x39b29ba3	0.00034066764
12	0xb9075aac	-0.00012908381
13	0xb899c92d	-7.3330804e-05
14	0xb91d4496	-0.00014998237
15	0xb9c17b0f	-0.00036903514
16	0xb9690dc4	-0.0002222574
17	0xb9933c41	-0.00028082918
18	0xb8cad394	-9.67152e-05
19	0xb935aa81	-0.00017325023
20	0xb904ba7a	-0.00012657969
21	0xb83527bc	-4.319077e-05
22	0x395b9e61	0.00020944468
23	0xb9b55f9d	-0.00034594248
24	0x38177fd6	3.6120262e-05
25	0xb7c8155d	-2.3851806e-05
26	0x39479e82	0.00019037168
27	0xb4a80e3d	-3.1302798e-07
28	0xb9d6649c	-0.0004089222
29	0xb9ac6228	-0.0003287953
30	0xb9011a63	-0.00012312229
31	0xb97e5ce7	-0.00024257936
32	0xb91c8fe5	-0.00014930924
33	0xba08065b	-0.00051889353
34	0xb7914dc4	-1.732156e-05
35	0xb8d79da9	-0.000102813654
36	0xb850ca7c	-4.9779643e-05
37	0x39b18cfb	0.0003386511
38	0xba15360c	-0.00056919525
39	0x391ed31e	0.00015146701
40	0x3a0508b6	0.00050748454
41	0xb91358ce	-0.00014052095
42	0x38c5693b	9.413293e-05
43	0xb96c4e1e	-0.00022535815
44	0x39be3122	0.0003627623
45	0xb949fb2f	-0.00019262427
46	0x3968fa0c	0.00022218394
47	0x39a8ee30	0.0003222092
48	0x39aa6593	0.00032500605
49	0xb88fed17	-6.862933e-05
50	0xb9e49796	-0.0004360049
51	0x39dc1e67	0.0004198432
52	0x1c1ed1f1	5.254916e-22
53	0x26e38b16	1.5788988e-15
54	0x23cfa4c3	2.2512764e-17
55	0xb8462911	-4.7245125e-05
56	0xb66f57e7	-3.5664941e-06
57	0xb8d3364b	-0.00010071377
58	0xb89bd56c	-7.430729e-05
59	0xb81b6471	-3.7048423e-05
60	0x3848035f	4.7686855e-05
61	0xb7d9bc5b	-2.5956126e-05
62	0xb89ea77f	-7.565226e-05
63	0xb970a9a9	-0.00022951387
64	0xb9020bb6	-0.00012402129
65	0xa5e929b0	-4.0447306e-16
66	0x872a4132	-1.2808538e-34
67	0x2c89c18f	3.9152635e-12
68	0xb256c96b	-1.2502237e-08
69	0xb8ef0a62	-0.00011398342
70	0x399d3aff	0.0002998933
71	0x2e4a1c69	4.5954716e-11
72	0xb8852389	-6.348553e-05
73	0x36900aaf	4.292778e-06
74	0x308f5bc0	1.0430696e-09
75	0x38ca2285	9.63854e-05
76	0x33e23bb0	1.0534802e-07
77	0x3915ec60	0.00014297804
78	0x955a83de	-4.4128774e-26
79	0xa212cfc4	-1.989668e-18
80	0x3742d706	1.1613365e-05
81	0xb845bfe8	-4.7147187e-05
82	0x3433b63b	1.6736969e-07
83	0x3756f3ff	1.2812204e-05
84	0xb8874b71	-6.451354e-05
85	0x389e756e	7.5559e-05
86	0xb8cdbbd0	-9.8101445e-05
87	0xb93bc290	-0.0001790619
88	0x37b57f36	2.1636119e-05
89	0x39adc460	0.00033143442
90	0xb89260eb	-6.979875e-05
91	0x2329e777	9.210523e-18
92	0xb4139dc8	-1.3747842e-07
93	0x2b1d1d8b	5.5818604e-13
94	0x2a332129	1.5909898e-13
95	0x38927e74	6.985376e-05
96	0x38a138e1	7.687673e-05
97	0xb79453b5	-1.7681954e-05
98	0xb76e8038	-1.4215759e-05
99	0xb955634b	-0.00020350252
100	0x38a6a517	7.946247e-05
101	0xb8a6357b	-7.925458e-05
102	0xb8a992f2	-8.085919e-05
103	0x38bd3032	9.0211994e-05
104	0xb9d9da48	-0.00041552098
105	0xb8e2b051	-0.00010809361
106	0xad36ad0a	-1.0383925e-11
107	0xb929887f	-0.00016167945
108	0xb9f48ce5	-0.0004664428
109	0xb9d9756d	-0.00041476954
110	0xba2f90b9	-0.00066972856
111	0x39730669	0.00023176674
112	0xb903b796	-0.00012561525
113	0xb83e1aa2	-4.5324334e-05
114	0x3969da25	0.00022301877
115	0xba08ee98	-0.00052235415
116	0xb967376a	-0.0002205052
117	0xb874ea2f	-5.8392234e-05
118	0xb9c7072e	-0.00037961587
119	0xb43d1d64	-1.7612689e-07
120	0xb8798678	-5.949146e-05
121	0x3a0afd9c	0.0005302073
122	0x370cb4df	8.386763e-06
123	0xb8b68e19	-8.704904e-05
124	0xb9e7fe68	-0.000442493
125	0x378b3b06	1.6597576e-05
126	0xb9ea31ff	-0.00044669208
127	0xb6ebd229	-7.0280116e-06
128	0xba699509	-0.00089104526
129	0xba45cc2e	-0.0007545379
130	0xb8d12710	-9.9731726e-05
131	0x31218800	2.350589e-09
132	0xb9944a4c	-0.00028284115
133	0xba54a5ee	-0.00081118837
134	0xb82774fc	-3.9924853e-05
135	0xba01c280	-0.0004949942
136	0xb92a380a	-0.0001623334
137	0xb98c2a28	-0.0002673429
138	0x393fbf29	0.00018286392
139	0xb9ac26ff	-0.0003283545
140	0x398ed6e1	0.00027244448
141	0xba13131c	-0.00056104525
142	0x3969672d	0.00022259048
143	0xb877c385	-5.907148e-05
144	0xb97a69a8	-0.00023881218
145	0xad11b1ea	-8.281801e-12
146	0xb8ee8561	-0.00011373568
147	0x39b0a8ac	0.00033695006
148	0xb9e108f7	-0.00042922024
149	0xb80e5697	-3.393608e-05
150	0xb99f20a9	-0.00030351177
151	0xb884e782	-6.337372e-05
152	0xb9bf2854	-0.00036460406
153	0xba00363f	-0.0004890896
154	0x37db1eb3	2.612113e-05
155	0xba252c3c	-0.0006300842
156	0xb3c29661	-9.061183e-08
157	0xab2c8804	-6.1295435e-13
158	0xb8273bac	-3.9871476e-05
159	0x3a0d42a0	0.0005388651
160	0x397643d9	0.00023485663
161	0x39e4d8f0	0.0004364918
162	0x36f3ca80	7.2655384e-06
163	0xb71cb0e9	-9.339515e-06
164	0xb994aff4	-0.00028359855
165	0xaf4e4fde	-1.8763965e-10
166	0x388136f5	6.161436e-05
167	0x38ae0363	8.2975974e-05
168	0xb8e61d09	-0.00010972663
169	0x3a151d1c	0.00056882366
170	0xaca2aca6	-4.6234848e-12
171	0x2cdb87ed	6.239445e-12
172	0xb8284971	-4.012272e-05
173	0xb9bff297	-0.00036611102
174	0x392b217c	0.00016320305
175	0xb5989fff	-1.1371447e-06
176	0x3930ba2d	0.00016854024
177	0xb8682e06	-5.5355973e-05
178	0x2abb8d7c	3.3316047e-13
179	0x3897ee35	7.2446106e-05
180	0xb7d67545	-2.5565396e-05
181	0xb33a0dd9	-4.3319094e-08
182	0xb9d0a66a	-0.0003979684
183	0x2d00ed51	7.3286524e-12
184	0xb8281077	-4.0069655e-05
185	0xb42655c7	-1.549116e-07
186	0x3a21233f	0.00061469147
187	0x3807922c	3.232264e-05
188	0xb817460d	-3.6066445e-05
189	0xb7bc95d1	-2.248111e-05
190	0xb849ce48	-4.811425e-05
191	0x3890a585	6.8972855e-05
192	0xb9a594e6	-0.0003158219
193	0xb92362fe	-0.00015581769
194	0xb8492dfe	-4.7964968e-05
195	0xb9564f66	-0.00020438209
196	0xacfe513c	-7.228133e-12
197	0x3a364e6a	0.00069544336
198	0xb42651e4	-1.5489746e-07
199	0x2cd4525f	6.0345474e-12
200	0xb9c4805c	-0.00037479668
201	0xad6067c1	-1.2755964e-11
202	0xb8077b34	-3.230125e-05
203	0xb8190c26	-3.6489357e-05
204	0xb96ef977	-0.00022790382
205	0x3778787c	1.4810004e-05
206	0xb88050c0	-6.1185565e-05
207	0x34c32fef	3.6356457e-07
208	0xb943eccf	-0.00018684867
209	0xb9c6ff5d	-0.00037955763
210	0x39954093	0.00028467606
211	0xb9546211	-0.00020254428
212	0xb920e2a7	-0.00015343224
213	0xb8eb9217	-0.000112328846
214	0x3a1ce2cc	0.0005984723
215	0xba30c989	-0.0006743898
216	0x3845cdfa	4.716029e-05
217	0x396b5f5a	0.00022446868
218	0xba2c5a07	-0.00065746944
219	0xb8813340	-6.1607454e-05
220	0x394bf893	0.0001945219
221	0xba5881f0	-0.0008259108
222	0x3913a07f	0.00014078802
223	0xb7a46851	-1.95989e-05
224	0xb88c5aa5	-6.692604e-05
225	0xb925c5ff	-0.00015809386
226	0xba484a24	-0.00076404423
227	0xb9058fa6	-0.00012737382
228	0x389dd97b	7.526852e-05
229	0xb9a32259	-0.00031115374
230	0xb91eed1c	-0.00015156384
231	0xb9569d04	-0.00020467123
232	0x3a04b25e	0.0005061979
233	0x3981501a	0.00024664478
234	0xb8aae138	-8.148182e-05
235	0xb9cbaf84	-0.00038849947
236	0x39adc107	0.00033140948
237	0x3a5150cb	0.00079847564
238	0xba5c5d2e	-0.0008406219
239	0x399f3056	0.00030362856
240	0x37c465e1	2.3412462e-05
241	0x39b489a9	0.0003443484
242	0xb9d5fb32	-0.0004081368
243	0x391fda2f	0.00015244701
244	0xb9a659d6	-0.0003172892
245	0xb9b352d9	-0.00034203267
246	0x389e7507	7.555825e-05
247	0xb96efa94	-0.00022790796
248	0xba2c51ae	-0.00065734505
249	0xba7764d2	-0.00094373256
250	0xb9affac2	-0.0003356543
251	0xba157d39	-0.00057025586
252	0xb7ccf3ea	-2.4432276e-05
253	0xb9179723	-0.00014456785
254	0xb98ee8e2	-0.00027257862
255	0xb9d5ba5d	-0.00040765377

exp_avg_sq f4 [128, 260]
0	0x372aaa1c	1.0172396e-05
1	0x36dae468	6.5234963e-06
2	0x373caae4	1.1245462e-05
3	0x36e47bf7	6.809361e-06
4	0x373a169d	1.1091729e-05
5	0x37866ee0	1.6025675e-05
6	0x376b3083	1.40183865e-05
7	0x3761eb1c	1.3465786e-05
8	0x3743ca63	1.1670028e-05
9	0x37312917	1.0559589e-05
10	0x371d9785	9.393208e-06
11	0x3768ee81	1.3883809e-05
12	0x373326e6	1.0678288e-05
13	0x36de7c79	6.630606e-06
14	0x36f79dbd	7.379537e-06
15	0x370118e1	7.694792e-06
16	0x372e1258	1.0375479e-05
17	0x36fa2a26	7.4554873e-06
18	0x3740177e	1.14495615e-05
19	0x377198d2	1.4400301e-05
20	0x379a398a	1.8385024e-05
21	0x375eb04e	1.327328e-05
22	0x37144f00	8.839881e-06
23	0x37753c7f	1.4617223e-05
24	0x37283122	1.002502e-05
25	0x378d9147	1.687616e-05
26	0x36e2ce03	6.759308e-06
27	0x36b01b0c	5.2483574e-06
28	0x371f1377	9.4816705e-06
29	0x3722013e	9.656242e-06
30	0x370fe07e	8.575733e-06
31	0x37404238	1.145951e-05
32	0x37277dde	9.983281e-06
33	0x378dbaa7	1.6895427e-05
34	0x37011f53	7.696292e-06
35	0x376c015a	1.4067011e-05
36	0x374e9610	1.2313496e-05
37	0x374f1232	1.2342398e-05
38	0x37657808	1.3677411e-05
39	0x36d9f2fb	6.4953906e-06
40	0x37129be3	8.738573e-06
41	0x370b656e	8.308662e-06
42	0x36e6325b	6.8603963e-06
43	0x371c0538	9.29954e-06
44	0x374d7118	1.2245284e-05
45	0x3712d69c	8.752246e-06
46	0x377d0c70	1.5082871e-05
47	0x3736d139	1.0896759e-05
48	0x3773d55f	1.4533608e-05
49	0x37552baa	1.2705956e-05
50	0x374cb12f	1.2200601e-05
51	0x37493246	1.1992239e-05
52	0x33be7b48	8.869989e-08
53	0x33c7d038	9.3045344e-08
54	0x333faa80	4.4625722e-08
55	0x346a7932	2.1837039e-07
56	0x34f9ebd2	4.6551446e-07
57	0x353d16b4	7.0441024e-07
58	0x355911ce	8.086471e-07
59	0x35f4c426	1.8236503e-06
60	0x3566b1e7	8.594056e-07
61	0x35947698	1.1061375e-06
62	0x35f8143b	1.8483328e-06
63	0x35d7d37b	1.6080297e-06
64	0x35753b5a	9.135598e-07
65	0x33957030	6.95876e-08
66	0x32ce6321	2.4026635e-08
67	0x3373e3fa	5.678519e-08
68	0x346116e7	2.096309e-07
69	0x35802781	9.54824e-07
70	0x35c6f748	1.4824118e-06
71	0x3578a3d5	9.2625606e-07
72	0x3538965f	6.876416e-07
73	0x35c33f35	1.4547028e-06
74	0x354e039f	7.674625e-07
75	0x35909f22	1.077515e-06
76	0x355eab02	8.2950294e-07
77	0x35a07896	1.1956024e-06
78	0x3290d575	1.6860875e-08
79	0x32ab24b9	1.992372e-08
80	0x336b119d	5.473122e-08
81	0x341dc85d	1.4694656e-07
82	0x350c3bd6	5.2241137e-07
83	0x35bd409f	1.4100405e-06
84	0x3527955f	6.242971e-07
85	0x3525982c	6.168873e-07
86	0x3535a18c	6.7662836e-07
87	0x35d1f838	1.5643955e-06
88	0x35aedc58	1.3028139e-06
89	0x35b6a601	1.360837e-06
90	0x35754e7e	9.1383833e-07
91	0x3376f29c	5.749699e-08
92	0x33c7f504	9.311228e-08
93	0x335a43db	5.0818795e-08
94	0x34845f2b	2.465616e-07
95	0x34efca9b	4.4664634e-07
96	0x3581045d	9.612519e-07
97	0x35190303	5.7001324e-07
98	0x36297295	2.5249658e-06
99	0x356114a4	8.384907e-07
100	0x35ae31bd	1.2978486e-06
101	0x354a2664	7.530673e-07
102	0x3565d180	8.561401e-07
103	0x358c8038	1.0468129e-06
104	0x365895f2	3.2273788e-06
105	0x3626f782	2.4879996e-06
106	0x363f12ff	2.8472275e-06
107	0x36bc9ad8	5.620863e-06
108	0x36a6a01d	4.965825e-06
109	0x36a0031c	4.7687336e-06
110	0x370aa648	8.264156e-06
111	0x374978a3	1.20086215e-05
112	0x37435623	1.1642961e-05
113	0x376ff670	1.4302888e-05
114	0x3782d660	1.5597034e-05
115	0x3770020e	1.4305593e-05
116	0x376eaeaf	1.4226577e-05
117	0x36843abb	3.9407437e-06
118	0x35a0c50e	1.1978279e-06
119	0x36014eb7	1.9268316e-06
120	0x36000cfe	1.9081049e-06
121	0x3651feac	3.1291665e-06
122	0x36c11c11	5.7551156e-06
123	0x3704fb28	7.92629e-06
124	0x373226b0	1.0618634e-05
125	0x37250215	9.835251e-06
126	0x374e8dd7	1.23115815e-05
127	0x3716b8ed	8.983753e-06
128	0x37537b49	1.2605285e-05
129	0x375a6bcd	1.3018912e-05
130	0x35fe3b90	1.894181e-06
131	0x36115492	2.165591e-06
132	0x365676df	3.1957677e-06
133	0x360c38b8	2.089464e-06
134	0x370977af	8.193702e-06
135	0x36f944ce	7.428788e-06
136	0x372ba374	1.0230451e-05
137	0x36de84a8	6.631559e-06
138	0x3718ed9a	9.115227e-06
139	0x37457415	1.17691425e-05
140	0x376cae6a	1.4107305e-05
141	0x375ab6c3	1.3036365e-05
142	0x3723e667	9.769202e-06
143	0x35c6737f	1.4785763e-06
144	0x35cb44a5	1.5144657e-06
145	0x361c8d6e	2.3328134e-06
146	0x3682db39	3.899823e-06
147	0x36bef565	5.691009e-06
148	0x37561d2e	1.2762188e-05
149	0x36ef4987	7.1313148e-06
150	0x37648958	1.3621837e-05
151	0x372a56f6	1.0153037e-05
152	0x376dc07d	1.4171118e-05
153	0x370ca755	8.38361e-06
154	0x377d417e	1.5095224e-05
155	0x379d10a6	1.8723611e-05
156	0x35933a1a	1.0969263e-06
157	0x3659edec	3.2474009e-06
158	0x36445cf5	2.9260384e-06
159	0x35fdfaff	1.8923018e-06
160	0x3580165d	9.543252e-07
161	0x35e1aa9f	1.6813464e-06
162	0x362a3139	2.5360625e-06
163	0x35d015fa	1.5503604e-06
164	0x35f393fb	1.8147979e-06
165	0x353b3765	6.974354e-07
166	0x366b2636	3.503997e-06
167	0x35b1d924	1.3250724e-06
168	0x3523c499	6.100832e-07
169	0x364e17ba	3.0710203e-06
170	0x363ccd08	2.8133527e-06
171	0x35eb2460	1.7519451e-06
172	0x3645be07	2.9465898e-06
173	0x36000359	1.9075435e-06
174	0x36119407	2.1692847e-06
175	0x357c2658	9.3933113e-07
176	0x35a77dbb	1.2479062e-06
177	0x35b7e5ec	1.3701479e-06
178	0x350e582c	5.302743e-07
179	0x35f6ffd3	1.8402883e-06
180	0x35322db2	6.637666e-07
181	0x35b4dfe4	1.3476206e-06
182	0x36813c50	3.851521e-06
183	0x35df948b	1.6658026e-06
184	0x36409184	2.869493e-06
185	0x35e3ccb4	1.6972394e-06
186	0x36018691	1.9300826e-06
187	0x35ec97a3	1.7627502e-06
188	0x35a55fb5	1.2321312e-06
189	0x35ee223f	1.7742349e-06
190	0x36102719	2.148043e-06
191	0x351d4385	5.858531e-07
192	0x353999a0	6.9141424e-07
193	0x3564c1d1	8.521866e-07
194	0x3506fdc9	5.0288196e-07
195	0x36476b12	2.9715634e-06
196	0x35cc7441	1.5233019e-06
197	0x369c590f	4.65953e-06
198	0x35372f81	6.824194e-07
199	0x364469ae	2.926779e-06
200	0x360e371a	2.1191722e-06
201	0x36174d5f	2.254579e-06
202	0x3573d720	9.08376e-07
203	0x3528eb16	6.292697e-07
204	0x34ef8a27	4.4617738e-07
205	0x35ba59e4	1.3884242e-06
206	0x355ce420	8.228835e-07
207	0x34cc3cd7	3.8042228e-07
208	0x38438e77	4.6624304e-05
209	0x384362f4	4.658378e-05
210	0x3839bed9	4.4285178e-05
211	0x383fadd1	4.5699828e-05
212	0x38295a92	4.037709e-05
213	0x381e400e	3.772979e-05
214	0x3801fd3f	3.099185e-05
215	0x37deef4d	2.6575895e-05
216	0x37f458b1	2.9128367e-05
217	0x38001293	3.0534877e-05
218	0x37c6b125	2.3685929e-05
219	0x37c5ddf0	2.3587578e-05
220	0x37ff8071	3.0458179e-05
221	0x38477afd	4.755984e-05
222	0x3854ab2a	5.0704148e-05
223	0x38500e1a	4.9604198e-05
224	0x38302a5c	4.200112e-05
225	0x383fa69f	4.5693127e-05
226	0x3816699d	3.5861147e-05
227	0x380625a1	3.1983134e-05
228	0x37e41530	2.7189584e-05
229	0x37f5c054	2.9295836e-05
230	0x381faee6	3.807144e-05
231	0x37e060d4	2.674797e-05
232	0x38062f83	3.199234e-05
233	0x37ced658	2.4656925e-05
234	0x38511fa8	4.9858965e-05
235	0x3867dd72	5.528093e-05
236	0x3830ba6f	4.21353e-05
237	0x383c30dd	4.48682e-05
238	0x3822630a	3.8716047e-05
239	0x3811dba8	3.4775265e-05
240	0x380ed21b	3.4051114e-05
241	0x3801031e	3.07589e-05
242	0x3828626a	4.0145977e-05
243	0x37e6712f	2.7470842e-05
244	0x37e27a80	2.6998343e-05
245	0x37f32a3f	2.898753e-05
246	0x38145477	3.5364614e-05
247	0x384d6918	4.8973685e-05
248	0x38501c93	4.9617676e-05
249	0x38414a29	4.6083853e-05
250	0x384d8cde	4.9007e-05
251	0x383371fd	4.2783086e-05
252	0x3800d7b9	3.0718486e-05
253	0x381d0672	3.743772e-05
254	0x38007e3d	3.0635147e-05
255	0x3800e108	3.0727155e-05

exp_avg f4 [128]
0	0xb9cbd938	-0.00038881018
1	0x3a96ca8e	0.0011504458
2	0x3a575a41	0.0008215048
3	0x3a143d06	0.0005654845
4	0xba1e6ef0	-0.00060437527
5	0x37e40452	2.718173e-05
6	0x3adb87c9	0.0016748841
7	0xb88a6cca	-6.600616e-05
8	0x3911cc84	0.00013904466
9	0x39a2f372	0.0003108043
10	0xb956bee6	-0.00020479746
11	0x38ed401c	0.00011312982
12	0xb9be8cd3	-0.00036344546
13	0x3438e55b	1.7219774e-07
14	0x3982609e	0.00024867518
15	0x396bee7d	0.0002250019
16	0x392ff947	0.00016782164
17	0x3a01e78a	0.00049554615
18	0x36a0653b	4.7801564e-06
19	0xb8273989	-3.9869486e-05
20	0x38db19c7	0.00010447535
21	0x39ab81b8	0.0003271231
22	0xb955206c	-0.00020325341
23	0x388da0e7	6.753374e-05
24	0x38c3c93c	9.3358074e-05
25	0xb8a5b6b8	-7.901847e-05
26	0x3810f773	3.456273e-05
27	0x384896c8	4.782414e-05
28	0xba0c5986	-0.0005353916
29	0x38dcecae	0.000105345025
30	0x38c16944	9.2225644e-05
31	0x39887d80	0.00026033446
32	0xb6988a2e	-4.5460392e-06
33	0xb8cb4ace	-9.693728e-05
34	0x392c1f28	0.00016414805
35	0x3a55b5a9	0.00081523746
36	0xb9ab73d2	-0.00032701954
37	0x36e2277f	6.739923e-06
38	0x39ee1389	0.00045409452
39	0x3a212f0f	0.0006148675
40	0x38630076	5.4121447e-05
41	0xb7470d0d	-1.1864363e-05
42	0x383d24f2	4.509552e-05
43	0xba72db65	-0.000926426
44	0x39b0929e	0.00033678574
45	0xba1410b9	-0.0005648244
46	0xb7a6dc5d	-1.9891357e-05
47	0x3a02adab	0.0004984985
48	0x380b815f	3.326067e-05
49	0xba441571	-0.00074800017
50	0xb84c2877	-4.8675076e-05
51	0x399526fb	0.00028448537
52	0x39a70801	0.00031858686
53	0xba148b62	-0.00056665216
54	0xb9e68797	-0.0004397004
55	0x382025af	3.818207e-05
56	0x3992607e	0.00027919182
57	0x3802e162	3.120432e-05
58	0xb8e9d0cc	-0.00011149197
59	0xba31481c	-0.00067627593
60	0xb87731ef	-5.8935893e-05
61	0x39d3b7f2	0.00040382106
62	0xbae36f41	-0.0017351882
63	0xba774e18	-0.0009433939
64	0xb94de619	-0.00019636042
65	0x399bb6b9	0.00029700043
66	0xb8df79dd	-0.000106561674
67	0x387147fd	5.7525922e-05
68	0xb8d90639	-0.000103485254
69	0xb9d66e62	-0.00040899502
70	0x399b770f	0.0002965261
71	0x398d4999	0.0002694845
72	0x30086f51	4.96347e-10
73	0x2a236209	1.4511321e-13
74	0xb81b4188	-3.701591e-05
75	0xb8748a3a	-5.8302867e-05
76	0xb7997c86	-1.8297007e-05
77	0x39b71321	0.00034918732
78	0xb8b6323a	-8.687792e-05
79	0xb946269c	-0.00018897135
80	0xb85823ea	-5.153186e-05
81	0x396e9338	0.00022752292
82	0xb9dbebc8	-0.00041946606
83	0xb88f6be1	-6.8388654e-05
84	0xb9b347a1	-0.00034194908
85	0xb92906d7	-0.00016119644
86	0x38c18845	9.228339e-05
87	0x3987829a	0.00025846512
88	0xb9dad7f8	-0.0004174111
89	0x39c388f0	0.00037295325
90	0xb97be760	-0.00024023419
91	0xb9ab4621	-0.00032667912
92	0xb8b784d4	-8.750861e-05
93	0x37a13322	1.9216506e-05
94	0x38eaec64	0.00011202021
95	0x343db203	1.7666757e-07
96	0xb889c18a	-6.5687185e-05
97	0x384bf8eb	4.8630794e-05
98	0xb9572d8c	-0.00020520965
99	0xaa40fac5	-1.7140029e-13
100	0xb9a6e63f	-0.00031833534
101	0x39b8263f	0.0003512371
102	0xb91d3306	-0.00014991694
103	0x38c6574b	9.457635e-05
104	0x38ca5830	9.648537e-05
105	0xb8a5a7dc	-7.899079e-05
106	0x3a5c673e	0.0008407718
107	0x39b6e0d1	0.00034881246
108	0x39b03a27	0.00033612663
109	0xb93f79a6	-0.00018260497
110	0xb8212c21	-3.842649e-05
111	0xb955add5	-0.0002037802
112	0x397f28c6	0.00024333884
113	0xb8b57930	-8.6533255e-05
114	0x3561faae	8.418382e-07
115	0x3974ab41	0.0002333345
116	0x37ba15c9	2.2183072e-05
117	0x389ae438	7.385801e-05
118	0x398ec303	0.00027229646
119	0x397ee358	0.0002430802
120	0xba14e4b8	-0.00056798337
121	0xb9717d18	-0.00023030152
122	0x349cd94b	2.9215366e-07
123	0x3a239dc7	0.0006241467
124	0x39131d43	0.00014029913
125	0x39fc6383	0.00048139328
126	0xb9b0ce5a	-0.0003372308
127	0xb9f607d7	-0.00046926618
