ppo_2layer_2048_epoch10/ppo_agent_episode_9300.pth (torch, 596626 bytes, 21 tensors)

fc1.weight f4 [128, 260]
00000000: dc4c 13bd 93ed 8dbd 1e6b 47be 9e04 18be
00000010: ff96 17bb 6bbf 6fbe 7fa9 b43d d9ca d0bd
00000020: afa0 5fbe e41f 95be 4b94 bdbe b38d 7d3e
00000030: f266 a6be c9bc 02be 69f8 1abd 996f 6cbd
00000040: cf1d 92be 680e 24be baf7 03bd 60f4 d3bc
00000050: 833e 50bd 0585 ddbd cc69 97bd a25b 9fbd
00000060: f931 f5bd 5a40 103e 8f9f 07be 7b37 febd
00000070: 3722 c0bd f566 95bd ba82 9bbe ff5d c43e
00000080: eada 983d f45c 25be e58b afbd 8f27 93be
00000090: 5de8 67be 5b0b d9be 16b1 94be 1b91 acbd
000000a0: 4b5c 51bd 6f4e 73be fae5 48bc 2da8 4cbd
000000b0: 22a1 9bbe 7424 89bc bbbc 8d3c 95b5 ffbe
000000c0: 9295 59be 0e76 a9bd 8be4 42be 50cb 51be
000000d0: 8c27 0abe e2b7 b6be b7f7 5cbc a6bd 96bc
000000e0: 2229 b03c 2370 59bc 7d65 afbc 459f 613d
000000f0: a734 5bbd de53 ab3c 1735 d63d 339e 923d
00000100: 51e9 253e a6f3 53bd d295 edbd 004e bfbd
00000110: 1040 743d b135 1cbe c92d 04bd 8c31 3d3d
00000120: 5696 bf3d 6fc1 383d 6b37 c73d 8078 ed3c
00000130: db31 1c3c 286c ee3d d7c7 32be ba21 1abe
00000140: 52a7 c83d 3c53 dfbb 3c14 f83c 1a6e cebd
00000150: 532d f9bd d8c9 713d d28e 2ebd 2495 513e
00000160: 261c c63d d277 6f3d 451a a83c 4ec3 48be
00000170: f1f5 afbd c6e5 5dbe b838 053c 1a71 2bbd
00000180: 46eb bb3c 7ada 7bbd b416 d5bd aa43 853c
00000190: f0ba 033e 4eb0 863c dad8 763d cee7 96bb
000001a0: 47a2 283c c3e5 293d 2f77 573d 214c 4d3d
000001b0: 000c 0bbd eada a43d 2b57 98bc f2fe 923d
000001c0: ddf2 f93c cf9a e73d 59d2 8b3d 829d 16be
000001d0: 1edf ab3d 7d27 12bd a444 2d3e 4089 32bd
000001e0: 6e1c e13d 8da4 633d 1568 023c 4df9 bcbb
000001f0: a286 5d3d 83bb 3a3d 560c 433c 9eb3 8f3d
00000200: 1da3 c53d d673 a1bd 9e96 233d 2f98 263e
00000210: 6c84 ebba d59c 403e 3b31 ca3d 28dc a7bc
00000220: 6dd1 f03c f167 923d 1ef3 aa3c 3b3e 883c
00000230: 3892 f93c 8763 b13d 35d2 373d 9c67 9fbc
00000240: c738 853d ef0a dc3d b89e 75bd 80a5 cfbc
00000250: 11d2 843d 6761 343c b248 84bd d99b 113e
00000260: 54bd c23c 2dd2 c23d 44f7 243d a8d4 843d
00000270: 8649 80bb e038 c03d 676e a93c c06c 143e
00000280: 291d 9f3d 7627 cd3d 8fd3 fdbd 4cd8 0e3e
00000290: a3fc ed3d 275a d5bb ab18 523e b9df 7d3d
000002a0: d6fa 073c 2494 213e eac5 533d dd23 89bd
000002b0: 1622 0b3e a539 183c 2fc5 db3c e94d b1bd
000002c0: a2d0 0d3e 2654 e43d e899 e43a 2f16 873d
000002d0: 0500 9dbd 5c95 9e3d ef66 633d ad88 6fbb
000002e0: 7a4b 113e 6963 833d 87c8 a33d d864 70bd
000002f0: 030e 7abd 499c 5c3d 8ac1 b73d 7204 093e
00000300: 6fdb 733e 9339 a63c 86f3 2a3e 6346 dabc
00000310: 8c76 b73d a6e7 973d a6bb a83d fa54 c4bc
00000320: 262f 7bbc d9fb 2bbd f454 ee3d cdbc 163d
00000330: 86a0 8b3e 96af 6dbb d9cb bebd 7ae7 abbc
00000340: 7dc1 9e3c 0015 253d c77e d93d 76b0 ac3d
00000350: 9790 02bd 57da 363d 2e51 b93c 74b6 123c
00000360: 6070 883d 11db ab3d cf31 d33c 92b0 87bd
00000370: 1c76 7f3d db8c 343d 4c5c 00bc 9194 df3d
00000380: cde8 a13d c552 843d 78fe 31bb 7975 303d
00000390: 5200 ce3d 1a50 513d 8fe1 583d bf88 1f3d
000003a0: cadb 1a3e ee07 b4bd c250 573d 85cd 723d
000003b0: 6d43 91bc 87ba 853d 5391 bf3d 6705 cfbd
000003c0: 6344 a7b9 1174 853d 45f0 733d fc00 4b3d
000003d0: 539d ed3d 4bec 033e b15a 133e a951 933d
000003e0: b7a9 773d 3825 2a3d 5dc9 533c 7b6c 3ebc
000003f0: ad15 d73d 34f0 123d f3f6 74bb b96e 693e
-0.03596197 -0.06930079 -0.19474456 -0.14845511 -0.0023130772 -0.23412864 0.08821391 -0.1019494
-0.2183864 -0.29125893 -0.370272 0.24761085 -0.32500416 -0.12767328 -0.03783456 -0.057723615
-0.28538367 -0.1602112 -0.032218672 -0.025873363 -0.050840866 -0.10816387 -0.07393226 -0.077811494
-0.11972422 0.14087048 -0.1324446 -0.12412926 -0.09381526 -0.07295028 -0.30373174 0.38352963
0.074636295 -0.1614874 -0.08571605 -0.28741118 -0.22647233 -0.42391476 -0.29041356 -0.08426114
-0.051113408 -0.23760389 -0.012261862 -0.049965072 -0.30396372 -0.016741015 0.017301908 -0.49943224
-0.21248463 -0.0827447 -0.19032495 -0.20487714 -0.13491648 -0.35687166 -0.013486794 -0.018400978
0.021503989 -0.013271364 -0.021410698 0.055083532 -0.05351701 0.020914014 0.10459345 0.0715908
0.16202284 -0.051746033 -0.116008416 -0.09341049 0.059631407 -0.15254857 -0.032270227 0.04618983
0.09354846 0.045106348 0.09727367 0.028988123 0.009533371 0.11641723 -0.17459045 -0.15051928
0.09797539 -0.006815342 0.030283086 -0.10079594 -0.12166848 0.059030384 -0.042616673 0.20467049
0.09673338 0.05846388 0.020520339 -0.19605753 -0.085918315 -0.21669683 0.008131199 -0.04185591
0.022939336 -0.061487652 -0.10404721 0.016267616 0.1286428 0.01644149 0.0602654 -0.00460527
0.010292596 0.041478883 0.052603897 0.05012143 -0.03394699 0.08049567 -0.018596252 0.07177533
0.030511314 0.11308824 0.0682723 -0.14708522 0.083921656 -0.03568219 0.16920716 -0.043587923
0.10991751 0.05557685 0.007959385 -0.0057670237 0.054083474 0.04558898 0.011904797 0.07016681
0.09650252 -0.07883422 0.03993856 0.16268991 -0.0017968542 0.18809827 0.09872671 -0.02049072
0.029396737 0.071487315 0.02086788 0.016631236 0.03046523 0.086615615 0.044878203 -0.019458584
0.0650497 0.10744273 -0.05996582 -0.025347471 0.064853795 0.011009551 -0.06459178 0.14219607
0.02377192 0.09512744 0.040274873 0.064858735 -0.0039150147 0.09385848 0.020682527 0.1449461
0.07769234 0.10017292 -0.12393867 0.13949698 0.11620452 -0.006510991 0.20517223 0.061980937
0.00829955 0.15779167 0.051702417 -0.066962935 0.13587222 0.009291087 0.026827423 -0.08657438
0.13849118 0.111488625 0.0017440887 0.06596028 -0.07666019 0.07743332 0.055518087 -0.003654997
0.14188948 0.06415445 0.07997232 -0.058689922 -0.06104852 0.053859983 0.089724615 0.13380602
0.23814176 0.020291125 0.1669446 -0.026644891 0.08958158 0.0741723 0.08238916 -0.023966301
-0.015331065 -0.041988228 0.11637297 0.03680115 0.27270907 -0.0036267987 -0.093162246 -0.0209844
0.019379372 0.04030323 0.10619884 0.08432095 -0.031876173 0.04464182 0.022621717 0.008954633
0.06662059 0.08391393 0.025780587 -0.06625475 0.062368497 0.044079643 -0.007834505 0.10917009
0.07905731 0.064610995 -0.0027159732 0.04308078 0.10058655 0.05110178 0.052949484 0.03894877
0.15122905 -0.08790575 0.05256725 0.05927803 -0.017732346 0.06529718 0.0935389 -0.10108452
-0.00031903674 0.065162785 0.05955531 0.049561486 0.11602273 0.12883107 0.14390065 0.0719331
0.060464587 0.0415394 0.012926427 -0.011622543 0.10502181 0.035873607 -0.0037378639 0.22796144

fc1.bias f4 [128]
00000000: 0a7b 93bb 3cb4 96bd 6ff2 e33c bad6 9c3d
00000010: a8c4 b7bc 2d2e b4bc 5309 b9bc a167 083d
00000020: 6ed1 40bd 3f7b 12bc 14b0 8ebd 9e02 e83b
00000030: 832e 9dbc 4d60 ab3d 8082 b23c b16c 603d
00000040: 089e 9e3c 4e9a 913d bf5f 1c3d 9ea4 8bbc
00000050: b7c3 c5bb 8740 a1bc b921 5d3d a336 4c3d
00000060: b336 b8bc 8c8f 5d3d 11f7 b0bc ec98 af3c
00000070: 3136 4abc 12e8 06bd 3c1c 51bd 9218 0e3d
00000080: 3d4d e53c 5c40 d9ba bdaf 383d 1b8f 0f3d
00000090: 124a bc3c 4a06 943d f2df 393d e829 323d
000000a0: 2aeb 993d 207e 743d 7fe6 3e3d aa16 a039
000000b0: 3087 be3c c7fb c6bc a6c0 5b3c e2b0 f83b
000000c0: 769a 803d bd9e d0bc c072 03bd 721d a03d
000000d0: be81 4a3d 2f99 b03c 704f c23d ed37 803d
000000e0: f331 a6bb c282 3e3d e48f 6fbc dd15 d43c
000000f0: 50d3 983d 2442 13bc ad9e 0c3d 9758 093d
00000100: 10cf 473c d6a0 35bd 3a6e 2a3d 3d7d 083c
00000110: bb1d 0cbd 555e 05bb 5908 bf3c c6d3 6b3c
00000120: 86bf aa3c 2abb 1ebd f869 2cbd 5fea 89bc
00000130: 7583 543d 64fd 033e bdbf 03bd f6fd 4ebd
00000140: 3c6c 50bd b092 373d 64f5 29bd 6fda a4bd
00000150: 2fd0 ff3d 58e4 e13c 2389 ca3d 078e 5c3b
00000160: 0837 193d 4eb0 75bd 5bcc 83bd c4dd 453c
00000170: ae1f 90bc cd9e 17bd 0b30 e9bc ca34 253d
00000180: e423 773c 1e03 083d e8c9 823c 0819 11bd
00000190: 7622 ab3d e096 bfbd 1901 38bc 323b 6a3d
000001a0: 9bdc 533d e51e 5c3d 2a06 503d 4ab1 993c
000001b0: ce2c 4e3c 21c2 c4bd cb53 ed3d cc18 063e
000001c0: 6e31 333c 6490 4cbd 166b 353d a95e 923c
000001d0: 7500 81bd 9690 2ebd ebfa 1dbd 151d 183c
000001e0: 89b0 4d3d 66d8 ee3d 2776 1dbd acc9 073c
000001f0: e51b 6f3b b898 f4bc 3bd3 0f3c e34e 70bd
-0.0045007514 -0.07358596 0.027825562 0.07658143 -0.02243264 -0.021994675 -0.022587454 0.033301953
-0.047074728 -0.008940517 -0.06967178 0.00708039 -0.019187218 0.08367977 0.021790743 0.054791156
0.019362465 0.071095094 0.038177248 -0.017046269 -0.006035294 -0.01968409 0.05398724 0.049856793
-0.02248702 0.054091975 -0.021602185 0.021435224 -0.012342022 -0.032936163 -0.051052317 0.0346914
0.027990932 -0.0016574967 0.045089472 0.035048585 0.022984538 0.07227762 0.045379587 0.043496996
0.07515557 0.059690595 0.046606537 0.00030534464 0.023257822 -0.024289979 0.01341263 0.0075894454
0.06279461 -0.025466317 -0.032091856 0.07818116 0.049440138 0.021557419 0.09487808 0.06260667
-0.0050718724 0.04651142 -0.014621709 0.025889331 0.0746218 -0.008987937 0.034331013 0.03353175
0.012195364 -0.04434284 0.041609026 0.00833064 -0.03420804 -0.0020350416 0.02331941 0.014393752
0.020843279 -0.038752712 -0.042093247 -0.01683539 0.05188318 0.1288963 -0.032165278 -0.050535165
-0.05088447 0.044817626 -0.04149379 -0.080494754 0.1249088 0.027574703 0.09889438 0.003365399
0.037405998 -0.05998259 -0.06435462 0.012076799 -0.017593231 -0.03701668 -0.028465291 0.040333547
0.015084241 0.033206098 0.015965417 -0.035424262 0.08356182 -0.09354949 -0.01123073 0.05718536
0.051724058 0.0537404 0.05078713 0.018761296 0.012583924 -0.0960734 0.11588248 0.13095397
0.010937078 -0.04994239 0.04429158 0.017867403 -0.06298915 -0.042618357 -0.038569372 0.009284277
0.050217185 0.116623685 -0.038442757 0.008287828 0.0036485132 -0.029857978 0.008778389 -0.058668982

fc2.weight f4 [64, 128]
00000000: 3ec9 f33d 3b2b 80bd 06dd 1f3e 4c7a 70bc
00000010: 2268 8dbe 5032 843e c87d 1db9 6592 9bbc
00000020: ada1 f13d 854e 5f3e 8027 93bd 7e9c f93e
00000030: 9ea1 b6bd 184a 813e f323 ee3e 6262 84bb
00000040: 52ce 483d c69f 98be b968 983e 1aa9 6e3e
00000050: ba6f 153e 7c42 3f3e e626 dbbc e1d7 643e
00000060: d7b3 fd3e f977 a03e 64d4 443e 3748 cb3d
00000070: d545 2b3d 0d8a cb3e 23d5 42bc 18e1 1bbd
00000080: 8817 4c3e 4439 1f3d e916 473e 1937 f9bd
00000090: 9977 7abe bd50 6abe a2a9 26be 5d86 b3be
000000a0: 2c19 9cbe 3264 43be dd6e a03d c4a4 bebd
000000b0: b16e 4ebe 761c 243f b97a 64bd 0677 80be
000000c0: 497c b93e b9f2 b43a 9232 c13d 2a9d 1cbe
000000d0: 3307 52be 0d05 7bbc fc78 0e3e 41d9 e03d
000000e0: 11f8 203e 0fe9 b0be d749 2c3e be67 1b3e
000000f0: f547 483e 916c f83e 940b a6bc 7c75 c9bd
00000100: 86ef 92bd c904 113d a297 123e 79b7 a9bd
00000110: 5159 383e cb4c 30be d6a8 de3e 8beb 2ebe
00000120: fe69 b83e 830e bc3e 985c 983c 2c95 5ebc
00000130: e76a d33e 0e5f a5bc 7c0f ebbb 8611 22be
00000140: d3b6 3f3f 2d79 da3d a23c fbbc 63fb 2f3d
00000150: 0913 66be ff78 af3d 85aa 2bbe 0bee 0f3e
00000160: defe 21be b845 3f3e 2296 18be 6ad0 0c3e
00000170: 74a4 903e ddd5 5e3e 9852 aebe da5e 1bbd
00000180: aff2 cd3d 09de 073e ae29 36be 1a69 953e
00000190: 6964 e13e eb4f 8c3d 2ef0 bbbd 96a7 bdbc
000001a0: c13f f33e 5663 a1be e8fc 373e 703e d6bd
000001b0: 9878 18bd 5ba8 35bd d5c6 34bd 41fd 8e3d
000001c0: 6f05 a4bd 4823 093f 4b0e 54bd 181c 7c3e
000001d0: 47a1 0c3d cb7d f23e f094 733b 3dc7 08bc
000001e0: f25c df3d 0128 8dbe 90a5 573e 792a 243e
000001f0: 2caf 1f3d 547c c2bc 7f0b 85bd 16ab 31bd
00000200: 7c23 10bd 7145 583e 9b70 24be 3622 ca3d
00000210: 9835 073d 9620 8d3e a9f5 dabd b31f 37bd
00000220: 1fe6 f83c 34c9 a0bd 8f79 e9bc de62 50bc
00000230: 2526 7e3e 5daf fa3d ff51 af3e f231 7a3d
00000240: dcbc dbbc 9ac6 17be 9b38 3f3e 23d9 8cbd
00000250: c273 163d 9218 623e 2d85 783e fc69 c43d
00000260: fd4d 943e 01ab a63e 2a83 2bbe 4c19 0c3e
00000270: 9796 75be de3c 523d dc49 93be 9be0 2cbe
00000280: 9610 53bd ce7e 883d 1bd9 f33a 6523 2b3e
00000290: fad8 343e 1a6c 67be 76af 473d ce8c 403e
000002a0: a308 2fbe 3e79 aabe 84ce ebbd 006e 0dbc
000002b0: dbe9 5fbe 2298 b83e b1ca 46be 4e6e f2be
000002c0: 1f67 8c3e ef75 f2bd a458 3abd f4c8 56bc
000002d0: 871d d4be dc0d b83d d12e 86bd 079e f23d
000002e0: 2aa1 60be d74e 14be 52ec d4bc 4f05 5e3e
000002f0: da5e 493e 463d 7b3d 0e58 56be 53ec ccbe
00000300: 1045 66be 7e97 313d 1879 0ebe bf6b 353d
00000310: cb23 3d3e 2658 443e 81c3 8e3e 2c38 a43d
00000320: 0132 1f3e fada d13c f217 cd3d eb51 d9be
00000330: f7be 233e 68c6 963c 63ef 293e 314e efbd
00000340: 07bc 923e 8977 5dbe 9159 943e bfe1 83bd
00000350: d33e 77bd 1e38 95bd 2b1e 943d 24c9 063e
00000360: 76a1 803d c405 013e 7903 bebe fb5f 2e3e
00000370: 722b f73d 8658 f2bd 2ad8 9e3e af61 283d
00000380: 6d1a da3d 2383 9c3d b7c0 7ebe c593 593d
00000390: 90a9 13be abc1 d53d be03 c5be 8eea 58be
000003a0: cd0c eb3c 7faf 4ebd 6706 aabc f0a5 c2be
000003b0: 21e0 293e 04f8 133d df6b 013d 1bcc 61bd
000003c0: 920c 95be 607f 63bd 5bc3 a63b e5ba 173e
000003d0: ec7d d53b 012a acbd 7641 9dbc 1b4b c9bc
000003e0: 3d45 16be 4fa5 34bd d540 28bc 3341 6b3e
000003f0: a4a9 84be cd4d 813e 4eb7 9ebc 5dd2 263e
0.11903618 -0.062582456 0.15611658 -0.014677595 -0.2761851 0.25819635 -0.00015019544 -0.018990705
0.11798415 0.21807297 -0.071852684 0.48752207 -0.08917545 0.25251842 0.46511802 -0.0040400485
0.049024887 -0.29809397 0.29767397 0.23306695 0.14593402 0.18677706 -0.026751947 0.22347976
0.4955127 0.31341532 0.19221646 0.09925883 0.041814644 0.39753762 -0.011891636 -0.038056463
0.19930851 0.038872972 0.19442333 -0.12168712 -0.24459685 -0.22882362 -0.16275647 -0.3506345
-0.30487955 -0.1908119 0.078336455 -0.0930877 -0.20159413 0.6410593 -0.0557811 -0.25090808
0.36227635 0.0013805247 0.09433474 -0.15294328 -0.20510559 -0.015321028 0.1391334 0.10978938
0.1571963 -0.3455281 0.16825043 0.15176293 0.195587 0.4852033 -0.020269193 -0.098368615
-0.07174592 0.035404954 0.14315656 -0.08286948 0.18002822 -0.17216794 0.43488187 -0.1708204
0.36018366 0.36729822 0.01859884 -0.01358537 0.41292498 -0.020186927 -0.0071734767 -0.15826997
0.7488834 0.10667644 -0.03066856 0.04296435 -0.22468199 0.08568 -0.16764267 0.1405565
-0.1581988 0.1867894 -0.14901021 0.13751379 0.28250468 0.2176127 -0.3404739 -0.037932254
0.10056054 0.13268293 -0.17789337 0.2918175 0.4402192 0.06851181 -0.0917667 -0.0231512
0.47509578 -0.315211 0.1796757 -0.10461128 -0.037224382 -0.04435001 -0.044134934 0.06981898
-0.08008849 0.5356946 -0.051771443 0.24620092 0.034333494 0.47361597 0.003716763 -0.008348283
0.109064 -0.27569583 0.21059251 0.16031827 0.038985416 -0.023740925 -0.06496333 -0.04337605
-0.03519009 0.2112024 -0.1605858 0.098698065 0.033010095 0.27563924 -0.10691387 -0.044707965
0.030383168 -0.078508765 -0.028500346 -0.012718884 0.24819238 0.12240479 0.34242246 0.061082788
-0.026823454 -0.14821854 0.18673937 -0.06877353 0.03673149 0.22079685 0.24269553 0.095905274
0.2896575 0.3255234 -0.16749254 0.13681525 -0.23983227 0.05132758 -0.28767288 -0.16882555
-0.05152949 0.06664811 0.0018604131 0.1671272 0.17660895 -0.22599831 0.048751317 0.18803713
-0.17093138 -0.33295625 -0.11513999 -0.008632183 -0.21866553 0.36053568 -0.19413258 -0.4734978
0.27422425 -0.118389 -0.04549469 -0.013109434 -0.41428778 0.089870185 -0.06551898 0.118465476
-0.21936479 -0.144832 -0.025991593 0.21681713 0.19665089 0.06133773 -0.20932028 -0.4002405
-0.22487283 0.043357365 -0.13913381 0.044292208 0.18470685 0.19174251 0.27883533 0.080185264
0.15546419 0.025617111 0.10014333 -0.4244531 0.15990816 0.018405154 0.16595225 -0.11684836
0.28659078 -0.2162763 0.28974584 -0.06439542 -0.06036265 -0.07286094 0.072323166 0.13162667
0.06280796 0.12599856 -0.37112024 0.17028801 0.120688334 -0.11833291 0.31024295 0.041108783
0.106495716 0.076422 -0.24878202 0.05311944 -0.14420152 0.1043733 -0.38479418 -0.21183226
0.028692627 -0.050460335 -0.020755006 -0.38017225 0.16589405 0.036125198 0.031597015 -0.05512629
-0.29111153 -0.055541396 0.005089206 0.14817388 0.006515255 -0.08406449 -0.019196253 -0.024571946
-0.1467485 -0.044102963 -0.010269363 0.2297409 -0.25910676 0.2525467 -0.019374516 0.16291185

fc2.bias f4 [64]
00000000: 5897 4f3c 24f7 7a3d 1f82 57bd c952 7c3b
00000010: f3a5 0bbe e0aa c6bc 3a9a 333d 57e5 98bd
00000020: 923a bc3c f00c 543c e754 a0bd 8c79 8bbb
00000030: f7f1 8ebd 50a9 873d 1be0 b6bd 0314 15bc
00000040: 73e7 1abd 477a 723d 7c2e 2f3d 287c 813d
00000050: ffae ac3c 4d12 88bd d758 2dbd ca42 763d
00000060: 7a5f 533d e422 cc3b e120 d63d 1efb 273e
00000070: e92e 583d c4d9 78bc dbef 6ebd ae3f c8bd
00000080: d25d 3abc 3887 853d 1036 5b3c 5529 5abc
00000090: eaa0 093d b8a0 fe3c efa9 083e 45b3 1fbb
000000a0: 512b 78bd 340f 283b 3b5a e3bd f6c3 64bd
000000b0: ec55 acbc 215e 073e 69bf c4bd 6321 c23c
000000c0: e5a0 15bd d1df 1f3d 287f 2d3e f1a6 43bc
000000d0: 1286 103e 7c59 8e3d f498 a83d 34fc 453c
000000e0: 9c81 d9bc affc 923d ff41 b5bd 16bf 8f3c
000000f0: 9012 a73b 6213 803e ce98 8f3c 5f35 ca3d
0.0126703605 0.061270848 -0.052614328 0.0038501492 -0.13637523 -0.024251401 0.043848254 -0.07465618
0.022977147 0.012942538 -0.07828694 -0.004256433 -0.06979745 0.06624091 -0.089294635 -0.009099009
-0.037818383 0.059198644 0.04276894 0.06322509 0.021079538 -0.066441156 -0.042321052 0.06012229
0.051604725 0.006229745 0.1045549 0.16404387 0.052779112 -0.015188638 -0.058334213 -0.09777771
-0.011374908 0.065199316 0.013379589 -0.013315518 0.033600725 0.031082496 0.13346075 -0.0024368328
-0.060588185 0.0025643827 -0.111011945 -0.055850945 -0.021037064 0.13219501 -0.09606821 0.02369756
-0.036530394 0.039031807 0.16943038 -0.011941657 0.14113644 0.069506615 0.082322985 0.012084056
-0.02655106 0.07177102 -0.088504784 0.017547172 0.0050986484 0.25014788 0.017528918 0.09873461

policy_head.weight f4 [110, 64]
00000000: aead fc3c 3c63 88be 9576 fd3e 36da b4be
00000010: c400 02be 6e21 25bf 97c6 46bd 2a07 b53d
00000020: 2507 423f bd2a 0dbf 0a9d edbd aa04 c13d
00000030: 9f67 b9bd fe99 2e3d 7e16 b0bc 596f dfbe
00000040: 06d0 053b e37b 4bbe 452d bf3e ae02 14bf
00000050: 9b6a 0a3f 600d 403e 9a59 c23e 607e a3be
00000060: 01e7 42be c5ee 7bbe 6f73 b73e 54ac 013f
00000070: 4fa8 cfbe 279f 0b3d 207c 2cbb 25eb b33e
00000080: 845b 393f 8452 823e 118d 833e c6b2 c93f
00000090: 5db3 d43e 9902 e8bd 515d e7bd 2950 423f
000000a0: 8ea9 933e 758f ffbd 97d9 0bbe 684b 13bf
000000b0: 254d 2fbf 0adc 313f 8ea7 363e f3c6 013d
000000c0: 5b87 b53d 4c82 153f 00bf fb3e 0855 953e
000000d0: cf22 acbd 5489 a4be 10a6 e2be f0fd de3e
000000e0: 5df4 563d c085 c8be 753b 893e 8796 3e3f
000000f0: 1633 45be 9723 a33e b71d e43e a37a 1e3e
00000100: 1760 cb3e 361f e5bd 4e13 a83e 62ed 1ebe
00000110: 2640 06bd e918 6cbf f937 173e 0163 843e
00000120: b850 273f d7a8 49bf a36d c33d 02ec b93d
00000130: 409b 083d 15b9 09bd f698 d8bd 58c0 d0be
00000140: a131 333c 4e40 11bf 8fd9 ef3e 5dad a7bd
00000150: 808a 943e 23a1 3ebd 274a e63e a1cb 74be
00000160: 9f39 26be 3616 e2bd 3033 e33e 1550 8f3e
00000170: e99f 1dbe c42c f83d 5896 76bc 64ab 98bd
00000180: a4ed aa3e 52fe 9d3e ace1 083e 4af8 853f
00000190: 42f6 ad3e d604 0bbe 5757 9ebd 65d8 e03d
000001a0: c6be b23e 258f f7bd bb2c 0d3c ddef b9be
000001b0: 61af 32bf faca f23e f9a4 ad3d c58d 913e
000001c0: 2fa3 d23d 5c27 733e 94d1 053f 1ea8 b33e
000001d0: d489 8dbe 1cf3 8cbe ec60 cfbe 52f9 bc3e
000001e0: 2f93 0ebd 46ba 2a3c c937 333e fdd4 e83e
000001f0: 6f3e 81be 110e 163e 218f b33e f9d4 f23d
00000200: 5f3b 873e 1590 e03e 0415 f13e bd2b 7a3c
00000210: 3930 323d 7efe 803e 6af0 0a3e e364 ca3e
00000220: b4eb 0cbc b50f e53d 39b9 613e 9b53 c9bd
00000230: 3b36 203d 3f6e e83d 8101 c43e dc5b 8e3d
00000240: d9d4 be3e aeaa 4abe e035 97be 24df 423e
00000250: aef4 623e bec9 eabd cce0 4c3e b224 f33d
00000260: 1358 873e d69a 533e 828b b9be 593e e7be
00000270: 91df 2dbe f638 c63d ff48 cebd efe2 3abf
00000280: e035 37bf 3cdf 6c3d f982 00bf d597 89be
00000290: e8a7 fe3d aafb b33e 8732 e6be b0ee b1be
000002a0: 6ea1 813e 6854 46bd e46f a83e 07af 4c3e
000002b0: 818e 883d d73a 283e e366 7a3e 52e9 d6be
000002c0: 990d 8c3e a176 b9be 6d89 37bf a221 ffbd
000002d0: 31da 9a3d e17e c93d 5887 3fbe 1ab4 52be
000002e0: 2d00 8cbd 9b95 bb3c 600d e23e 77bb 5f3d
000002f0: 7d9e 893e 5b93 bdbe 9569 8f3e 9ebe 54bd
00000300: 6c29 123e d0ed ecbd 1d81 9a3e 012a 7b3e
00000310: fcdc ac3e 6757 be3d 3247 4f3d 10ce a13e
00000320: 46a3 d4be 6a2f 28bd 08be a03e d067 4fbd
00000330: 1694 20bd b6f2 97bd 1982 5f3e 7388 a43e
00000340: fea1 233e d072 c23e bf96 b93e 2d24 42bd
00000350: 3f58 463e 07c9 d6bc 09e7 223e d15d 1abf
00000360: daaf 8c3e 8e69 ad3d 2004 4fbf 5fe7 bebd
00000370: f6d5 a13e e5c2 1d3d b3c5 ffbd 4224 fa3e
00000380: 4d0e df3e 71f1 84be fd1e c53e 0883 17be
00000390: 91b4 003e f774 adbc d465 d7be ad95 d6be
000003a0: b944 1b3e 215d 35bc 0c4e 063e c657 1bbd
000003b0: a991 2a3e d8ce 01bf 2be0 813e d6ba 3ebd
000003c0: 277d 963e 402d 17bf 4e62 f4be 1a5b 573e
000003d0: b54d 03bf 1239 2a3e 2b8a b93e bd1d b7be
000003e0: 4acb ad3d f8db 903e 3058 9c3e 9a41 203e
000003f0: 2f88 163e 30fc 2cbf 9b14 4fbe 7e09 18bf
0.030844536 -0.2663821 0.49504533 -0.35322732 -0.12695605 -0.64504135 -0.048529234 0.08839257
0.7579215 -0.5514334 -0.116022184 0.09424718 -0.09052967 0.042627327 -0.0214951 -0.4363964
0.002041818 -0.19871478 0.37339225 -0.5781659 0.5406892 0.18755102 0.37958986 -0.31932354
-0.19033433 -0.24602802 0.35830256 0.50653577 -0.40558097 0.034087326 -0.0026319101 0.3514034
0.72405267 0.2545358 0.25693563 1.5757682 0.41543093 -0.113286205 -0.112970956 0.75903565
0.28840297 -0.12478534 -0.13657223 -0.57536936 -0.6847709 0.6947638 0.17837355 0.031683873
0.08863708 0.5840194 0.4916916 0.29166436 -0.08405077 -0.32136023 -0.4426732 0.43553114
0.052479137 -0.39164543 0.26803175 0.74448436 -0.19257769 0.3186309 0.4455392 0.1547647
0.39721748 -0.11187594 0.32827228 -0.15520242 -0.03277602 -0.9222551 0.14767446 0.25856784
0.6535754 -0.78773254 0.09542396 0.09078218 0.033351183 -0.033623774 -0.1057605 -0.40771747
0.010937125 -0.56738746 0.46845672 -0.08187363 0.29011917 -0.04654039 0.4497845 -0.23905803
-0.16232918 -0.11039393 0.4437499 0.27990785 -0.15393032 0.12117913 -0.015050493 -0.07454565
0.3338443 0.30858094 0.13367337 1.0466397 0.33976942 -0.13576064 -0.077315025 0.10978774
0.34911174 -0.120878495 0.008616622 -0.36315814 -0.69798857 0.47420484 0.08478732 0.28428474
0.10285031 0.23745483 0.52272916 0.350892 -0.27644217 -0.27529228 -0.40503633 0.36908966
-0.034808334 0.010420388 0.17501749 0.45474997 -0.25242946 0.14653803 0.35070136 0.118570276
0.26412484 0.43859926 0.47086346 0.015269217 0.04350302 0.25194162 0.13568273 0.39530095
-0.008601118 0.111846365 0.22043313 -0.098303996 0.03911422 0.11349153 0.38282397 0.069511145
0.37271765 -0.19791672 -0.2953329 0.19030434 0.2216365 -0.114642605 0.20007628 0.118722335
0.26434383 0.20664534 -0.3623925 -0.45164755 -0.16979815 0.09678833 -0.10072517 -0.73002523
-0.7156658 0.05783008 -0.5019985 -0.2687365 0.12434369 0.35152942 -0.44960424 -0.34752417
0.25318474 -0.04842034 0.32897866 0.19988643 0.066678055 0.16428696 0.2445331 -0.41974884
0.27354124 -0.3622332 -0.7169407 -0.12457587 0.07561148 0.09838653 -0.18703973 -0.20576516
-0.06835971 0.022898486 0.4415083 0.05462214 0.2687873 -0.37026486 0.2801024 -0.0519396
0.14273614 -0.11568797 0.3017663 0.24527742 0.33762348 0.092940144 0.050605007 0.31602526
-0.41530818 -0.041060843 0.31394982 -0.050636113 -0.039203726 -0.0741934 0.21826972 0.32135352
0.15979764 0.3797822 0.36247823 -0.04739778 0.193696 -0.026218904 0.15908445 -0.602994
0.27477914 0.084673986 -0.8086567 -0.09321474 0.31608552 0.038515944 -0.1248888 0.48855788
0.43565598 -0.25965455 0.38500205 -0.14796078 0.1256888 -0.021173937 -0.42069876 -0.4191107
0.15162934 -0.011069567 0.1311571 -0.037925504 0.16657127 -0.50706244 0.2536634 -0.0465649
0.2939236 -0.5905342 -0.4773125 0.21030846 -0.51290447 0.16623333 0.36238226 -0.35764876
0.0848604 0.28292823 0.30536032 0.15650025 0.14700387 -0.6757231 -0.20222704 -0.59389484

policy_head.bias f4 [110]
00000000: 8c4a a6be 10c7 613c fba1 a8bd 3a22 f53d
00000010: 9478 a6be f783 b2be 6641 b73d dd2b b13d
00000020: 20a0 e93d d993 8cbc db0d c1bc aa9b 84bc
00000030: b3b8 1c3e 7bad 273d 389b 473e d330 023e
00000040: e3aa c83d 442a 003e 51a3 793e fa24 743e
00000050: 1d0a aa3d 0709 19bd 923a d7ba bcce 5a3d
00000060: 372b 203c 524b 633e ad33 1c3e 86ec 2f3c
00000070: 3053 c53d 09e0 9d3b c582 e43b 4003 b83b
00000080: 6862 673d a476 1a3e e6cc 413d 9bf8 603e
00000090: 9163 853d 90c0 17bd 4700 c43d c795 353e
000000a0: ee9c bdba 915a 2e3e fe85 cc3d c22a 693d
000000b0: c256 503d 17dc cb3c 5c0c 723e c074 213e
000000c0: 38f0 d83d 9e74 613e 90fd 69bd 8f86 223e
000000d0: b1f9 2e3e 549f a23d 31d7 953d ea37 bc3d
000000e0: e187 3e3e c669 383e 7347 88be 8999 a0be
000000f0: e37f b7be f503 a8be 50a4 89be ea65 68be
00000100: 4768 85be e790 a1be a316 57be 2268 41be
00000110: cdb4 81be 6b57 70be 547d 44be df28 babe
00000120: 963c 6abe 0982 b0be 97f2 abbe af56 a6be
00000130: 6c6a e0be d0f7 77be 5c0f c8be c575 8dbe
00000140: 496b c9be 9d10 8bbe 18f3 c7be 28f7 6ebe
00000150: db0d dbbe 29da 7fbe 7f3e 82be f90b c8be
00000160: 9845 9ebe f0d7 98be 8ea5 bebe 3a3f bfbe
00000170: a2de 99be de28 85be ee7c cabe 0faf 7abe
00000180: aee4 97be f78e aebe 6a39 d6be 2d7a 84be
00000190: 5c88 58be 0af7 c1be c9a6 8fbe 8b70 9bbe
000001a0: 27cc d9be 2569 d8be 1f0e b5be c482 bebe
000001b0: eea6 d7be 2431 3cbe
-0.3247875 0.01378037 -0.0823402 0.11969419 -0.3251387 -0.34866306 0.08948021 0.086509444
0.114074945 -0.017160343 -0.023566177 -0.016187508 0.15304832 0.04093693 0.19492805 0.12713937
0.09798219 0.12516123 0.24378707 0.2384223 0.0830271 -0.037362125 -0.0016420654 0.053419814
0.009775928 0.22196701 0.15254088 0.010737544 0.096350074 0.004817967 0.0069735968 0.005615622
0.056490332 0.1508432 0.047314547 0.21969835 0.065131314 -0.037048876 0.095703654 0.17732917
-0.0014466324 0.17026736 0.099864945 0.056925543 0.05086399 0.02488522 0.23637527 0.15767193
0.10592693 0.22017142 -0.05712658 0.15871643 0.17087437 0.07940546 0.07316435 0.09190352
0.18606521 0.180091 -0.2661701 -0.31367138 -0.35839757 -0.3281552 -0.26883173 -0.22695127
-0.2605612 -0.31555864 -0.21004729 -0.1888738 -0.25333253 -0.23470847 -0.19188434 -0.36359307
-0.22874674 -0.3447421 -0.3358352 -0.3248801 -0.43831193 -0.24215627 -0.39074218 -0.27628914
-0.39339665 -0.27161112 -0.39052653 -0.2333647 -0.42784008 -0.24985565 -0.25438306 -0.39071634
-0.3091247 -0.29852247 -0.37235683 -0.37352926 -0.30052668 -0.26007742 -0.3954844 -0.24480842
-0.29666656 -0.3409345 -0.41840678 -0.25874463 -0.21145767 -0.37883788 -0.28056934 -0.303593
-0.42538568 -0.4226772 -0.35362336 -0.3720914 -0.42119545 -0.1837812

value_head.weight f4 [1, 64]
00000000: cf74 6abc 6095 533c fb70 24ba 1b2e 833d
00000010: c16b d93b bf8b ea3d a76f 21bc 69f3 f63b
00000020: 4974 46be 329a c23d f465 11bc 377c 5bbd
00000030: 4e84 d43d 82b3 aebd 0f69 903c 2745 6e3d
00000040: 1902 dabc 1862 5b3d 4dd1 a7bc b993 9bbc
00000050: 3ad7 42bc d5ce 23be 8181 06bd c38d 2e3d
00000060: 4134 8d3c 2399 d43b ed84 15bd b32e 16be
00000070: ad3b 343c b7a3 b3bd 00cf cfbd b9d0 343d
00000080: 7295 55bb 035f 76be 130f 93bd f09c c8be
00000090: 8c0d c4bc ee03 4a3c 1912 c03d bbd3 cabc
000000a0: 404c 73bb 0b2e d0bd 0d7e 7f3b fffb 333c
000000b0: d979 803d f77a b5bd b570 a7bb 922c 2ebd
000000c0: 7600 95bc 5ff7 25bd 42fd c3bd 698e 23bd
000000d0: ca01 513d b0d0 773b bf8e a73d bb48 5fbe
000000e0: c02c 06bc f160 93bc cbac 1abc e6c0 85bc
000000f0: d22b 403d 7241 533c a29f b939 d1aa 6a3c
-0.014310076 0.012914032 -0.0006272939 0.06405278 0.0066351597 0.11452436 -0.00985328 0.007536341
-0.19380297 0.09502067 -0.008874405 -0.053585257 0.103767976 -0.08530332 0.01762822 0.058171418
-0.026612328 0.053560346 -0.020485545 -0.018991338 -0.011892134 -0.15996869 -0.03283835 0.042615663
0.01723683 0.006487982 -0.03650372 -0.14666252 0.011000556 -0.087714605 -0.10146904 0.044144366
-0.0032590297 -0.24059682 -0.071806096 -0.39182234 -0.02393224 0.0123300385 0.09378452 -0.024759164
-0.0037124306 -0.10165032 0.0038985044 0.0109853735 0.062732406 -0.08861344 -0.0051098713 -0.042522974
-0.018188696 -0.040519115 -0.095697895 -0.039930735 0.051027097 0.0037813596 0.081815235 -0.21805088
-0.00818938 -0.017990561 -0.009440611 -0.016327333 0.04691679 0.012894021 0.00035404885 0.014322952

exp_avg f4 [128, 260]
00000000: b3a1 2939 959f e4b9 f6fd 81b9 29be 9d38
00000010: 7921 1139 dcab 84ba 2947 31b9 9a97 85b8
00000020: 99b2 9fba c30f 94ba 34de 37b9 f758 2cb7
00000030: 8e16 11b9 51e2 8cba 345b a7b8 f2d2 7b39
00000040: 2fd7 d8b7 82bd 9838 9a31 96ba e4a1 8cba
00000050: b3fa b9ba dfb1 3839 2fc9 4439 b70a 37b9
00000060: 2ef7 f2b8 a241 c7b9 eaf4 afba 37ea 4839
00000070: f5ee 163a 1c9f 57b8 e37d 8ab8 a9a3 2638
00000080: 8876 98ba 6b3c d7b8 fa03 9eb8 1db3 d838
00000090: 4edc 2139 6b54 f537 a582 6139 9452 063a
000000a0: 92ca 26ba f2dc 5cb9 bcf3 31b8 92f5 5aba
000000b0: ffff 7638 7a2d 14b8 53b1 f839 d97e 1b39
000000c0: 9154 d139 f9e7 8038 1f7c b4b8 7c13 35b8
000000d0: 0400 0080 0400 0080 fe64 f683 baac a136
000000e0: 17db 2db7 c6aa 12b9 abaf a237 2e85 02b7
000000f0: 0503 bd38 0872 83b7 76fd 88b8 727e 8cb8
00000100: e2e6 3737 0400 0080 0adf 7f82 2b46 7934
00000110: dd62 aab7 1656 25b7 633c a0b8 e5ef d5b8
00000120: cb67 0fb8 e66f 7537 7127 45b7 8a88 6b38
00000130: 92a2 c039 5a47 c838 dbd2 53b6 37bb e036
00000140: 0400 0080 5f6f 5c35 6e63 8a38 5e48 9438
00000150: 9fe5 02b8 e8eb 21b8 c796 55b7 f967 32b8
00000160: b2b8 5f38 aafe fc37 9a5a 5238 0400 0080
00000170: 96c7 3d9d ad36 5a34 1190 2d37 4faa 65b7
00000180: aa0d 0cb9 27db 7db7 6744 4eb9 3279 9a38
00000190: 4776 8137 7240 a838 862f 8eba 7b23 3c37
000001a0: 3a36 6bb6 9852 cbb5 40bf 2304 f862 8137
000001b0: 30c9 8537 38e9 15b9 4ff2 9238 f19c 1d37
000001c0: ca64 1938 fce6 d238 83e8 7238 3619 a6b8
000001d0: 08c1 b838 9af8 af9d 73c2 7c05 13eb 6938
000001e0: 546c 4eb9 49fc dd38 3c5c a3b8 cf41 6137
000001f0: c57a 5137 c4d4 4b36 a957 00ba a298 fbb8
00000200: cc49 edb8 f94b dd39 4623 2db8 4cfc ddb8
00000210: a893 6938 95dc 0f38 b4eb bdb8 49c4 0638
00000220: a67a 57b7 5473 af38 dd8f 1437 feb2 70b9
00000230: 1ce1 66b8 4ea0 8138 9c0b 0cb9 0400 0000
00000240: 6202 63b7 fdca 9eb8 df36 28b5 9144 e1b8
00000250: fcf4 7c39 30ce 9238 9435 dc38 f745 9739
00000260: 4ea4 f8b8 e8f4 c538 4c33 4438 9bd3 e439
00000270: 0400 0000 d97b 009a 0400 0080 36cd 0f38
00000280: f7d5 e0b8 b774 3939 a7f2 dab8 a54c 70b8
00000290: d36e c637 4db9 a8b8 8a5f e6b7 4897 a536
000002a0: e450 4b36 b62f 9837 0400 0000 3085 72b8
000002b0: a3c1 5639 eb46 35b9 e0d4 7838 963a 9535
000002c0: 5f6d 83b8 304f 14b8 8363 8a38 0400 0080
000002d0: 144c a538 ad80 0c35 e95e ec35 387a 13b8
000002e0: 8024 b41c 0400 0000 b9f5 6e39 d1ab acb8
000002f0: 3d5f 45b7 92db c0b7 1cfd 1739 717b ae39
00000300: a94d feb7 6749 54b8 242a 92b8 0400 0000
00000310: a6d9 bbb5 c6cf 6c38 5509 07b8 8d8b 1ab9
00000320: c414 be36 3c40 2e38 bce7 a0b9 39fd bd38
00000330: aa97 c8b7 b523 1db9 a1ab 1ab8 eae2 ffb8
00000340: c11d 9aba 151c 17ba 7128 4aba 5151 96ba
00000350: dea0 8aba a44c c438 4c1b 5aba 67c2 6aba
00000360: 16ea 6238 d2f1 d338 7358 54ba b678 62ba
00000370: a657 80ba b66d 2d38 7b46 75ba 0603 a8ba
00000380: 3874 81ba fa76 84ba 5365 6339 ef35 1839
00000390: 049a fc39 7edd 99ba e444 4eba a9b4 4bba
000003a0: 4992 a1ba 8d31 97ba 76d6 b139 7883 8cba
000003b0: e4db d7ba af00 83ba 5dee 96ba 3804 8dba
000003c0: afa5 5439 1c1f 75ba 5d10 93ba fdda 9aba
000003d0: 5326 95ba f759 8eba 4240 8dba 3d36 c8ba
000003e0: b0fa beb9 bb35 4eba 9b0f 79ba 6b9d 7f38
000003f0: 90cd 9bba b9ff 8cba 2406 8fba 82fa d3ba
0.00016177334 -0.00043606447 -0.00024794013 7.5217635e-05 0.00013840747 -0.0010122019 -0.00016906545 -6.370172e-05
-0.0012183964 -0.0011296201 -0.00017535017 -1.0272713e-05 -0.0001383668 -0.00107486 -7.9801684e-05 0.00024015809
-2.584941e-05 7.2832234e-05 -0.0011458874 -0.00107294 -0.0014189094 0.0001761387 0.00018766963 -0.00017456232
-0.000115855 -0.00038005138 -0.001342443 0.00019160738 0.0005757653 -5.1408177e-05 -6.603801e-05 3.9729905e-05
-0.0011632005 -0.000102632526 -7.534768e-05 0.00010333045 0.00015436226 2.9245586e-05 0.00021506341 0.00051239994
-0.0006362583 -0.00021063144 -4.2427084e-05 -0.0008352633 5.8889385e-05 -3.5328303e-05 0.00047434363 0.00014829206
0.00039926593 6.146724e-05 -8.606188e-05 -4.317191e-05 -6e-45 -6e-45 -1.4481767e-36 4.818282e-06
-1.0362614e-05 -0.00013987263 1.9393707e-05 -7.779612e-06 9.012785e-05 -1.5669517e-05 -6.532196e-05 -6.6992725e-05
1.0961407e-05 -6e-45 -1.879845e-37 2.3215459e-07 -2.0311616e-05 -9.85481e-06 -7.6406424e-05 -0.00010201315
-3.419052e-05 1.4629191e-05 -1.1751298e-05 5.6155528e-05 0.00036742218 9.5500334e-05 -3.1564184e-06 6.697515e-06
-6e-45 8.211845e-07 6.598873e-05 7.0706694e-05 -3.1208267e-05 -3.8605096e-05 -1.2730895e-05 -4.253534e-05
5.3339354e-05 3.0159328e-05 5.015228e-05 -6e-45 -2.5117125e-21 2.0322723e-07 1.0345147e-05 -1.3689117e-05
-0.0001335653 -1.51310005e-05 -0.00019671173 7.3658666e-05 1.5433076e-05 8.022868e-05 -0.0010847903 1.1213934e-05
-3.5049293e-06 -1.5148717e-06 1.9248376e-36 1.5424084e-05 1.594852e-05 -0.00014296628 7.006956e-05 9.39447e-06
3.657191e-05 0.000100566045 5.791384e-05 -7.920193e-05 8.8097586e-05 -4.6579162e-21 1.1884698e-35 5.577046e-05
-0.00019686046 0.00010585093 -7.789626e-05 1.3426367e-05 1.2485955e-05 3.0373203e-06 -0.0004895875 -0.00011997043
-0.000113147864 0.0004220901 -4.1279265e-05 -0.00010585095 5.5689045e-05 3.429929e-05 -9.0561254e-05 3.2130894e-05
-1.2843555e-05 8.366132e-05 8.854983e-06 -0.00022954863 -5.5045923e-05 6.1810584e-05 -0.00013355765 6e-45
-1.3530809e-05 -7.5718366e-05 -6.2664725e-07 -0.000107416075 0.00024123857 7.000228e-05 0.00010500397 0.00028853092
-0.00011856166 9.439309e-05 4.6777815e-05 0.00043645207 6e-45 -2.6569823e-23 -6e-45 3.4284974e-05
-0.000107210064 0.00017686455 -0.000104402476 -5.729184e-05 2.3655046e-05 -8.045379e-05 -2.7462625e-05 4.9349946e-06
3.0296442e-06 1.814203e-05 6e-45 -5.7821337e-05 0.00020480766 -0.00017287924 5.9326063e-05 1.1118416e-06
-6.266939e-05 -3.53597e-05 6.598888e-05 -6e-45 7.881984e-05 5.234131e-07 1.7610993e-06 -3.5161356e-05
1.1920836e-21 6e-45 0.00022788988 -8.2336024e-05 -1.1764289e-05 -2.2990429e-05 0.00014494773 0.00033279837
-3.0315323e-05 -5.06131e-05 -6.969672e-05 6e-45 -1.399593e-06 5.646029e-05 -3.21952e-05 -0.00014738571
5.6648587e-06 4.1544656e-05 -0.00030690234 9.059389e-05 -2.3912482e-05 -0.00014985989 -3.6876303e-05 -0.000122016136
-0.0011758135 -0.00057643774 -0.0007711715 -0.0011468326 -0.0010576507 9.360284e-05 -0.00083201076 -0.000895536
5.410061e-05 0.000101063066 -0.0008100338 -0.0008639203 -0.0009791746 4.134859e-05 -0.0009356511 -0.0012818284
-0.0009876555 -0.0010106259 0.00021686153 0.00014515941 0.00048179936 -0.0011738983 -0.0007868542 -0.0007770756
-0.0012326922 -0.0011535153 0.00033919857 -0.0010720333 -0.0016468731 -0.000999471 -0.001151513 -0.0010758704
0.00020279617 -0.0009350644 -0.0011220087 -0.0011814531 -0.0011379219 -0.0010860552 -0.0010776597 -0.0015274953
-0.000364264 -0.0007866283 -0.00095009216 6.0943345e-05 -0.0011886824 -0.0010757364 -0.0010911864 -0.001617268

exp_avg_sq f4 [128, 260]
00000000: 4832 bb36 0e35 4237 dda9 bb36 270b ac36
00000010: f0c4 0037 fb01 3836 9bb6 3037 6f63 1936
00000020: bb27 1d36 9ee0 2b37 bcd1 3037 4a1e a836
00000030: e7d8 0337 37a4 5637 0e8f c236 24f5 a436
00000040: 6145 0a36 33b6 d735 ea9c aa36 19ac aa36
00000050: 7901 4137 a0e0 cb36 276f 4e36 420f 3b37
00000060: f317 c935 a99d d536 482f 9536 5e61 b536
00000070: 3e63 b536 8576 be36 638b da35 9662 0a37
00000080: fd0c 1636 976a 0436 937d ad35 0795 4336
00000090: e341 2436 f9e3 3a36 fd69 2d36 66c2 c636
000000a0: 7df0 bc36 b6c9 ca36 e408 9936 7923 3d36
000000b0: b50d 9b35 39e9 3a36 e390 1f37 b395 8435
000000c0: 9f15 8036 8d9e 8b35 7713 d535 3a20 7935
000000d0: 330d 532a e0a2 a12f a7af d230 de27 6134
000000e0: f43f 5834 7fdb 5834 06ae a234 f88d 2d35
000000f0: 0cf7 e934 f2fe de34 b379 1935 918f cd34
00000100: 9a39 1e35 1721 a430 0074 8430 c43b 6b31
00000110: b000 8534 21b7 3534 697b 3c34 7090 a434
00000120: db57 db34 0453 0e35 b7f0 3a35 962a e834
00000130: 10ae 3035 1f9b c834 533d c231 95cb 1a32
00000140: eebd 3d31 e919 f232 2e3a 4134 32b0 3335
00000150: 9c72 9f34 bd39 2035 dbf8 0e35 a9dc 0735
00000160: 1af5 ed34 72e4 f534 d0b2 1d35 bf49 d72a
00000170: acbc 8e31 f5d1 f631 f61e 3e33 8e4f 1d34
00000180: 5993 8134 4b69 f434 91a1 b034 aae0 0f35
00000190: d7f4 dc34 eec5 2a35 1e8e e736 9793 0435
000001a0: 2c03 d031 7647 7832 2e58 da32 1d8d 3835
000001b0: 8e3a 4e36 4dd8 2936 5164 7136 35fc 2a37
000001c0: e82d a236 5c0e 9736 3e20 5e36 51fd 7936
000001d0: 2719 ee36 ca86 a934 9db5 1c32 20c5 5134
000001e0: f857 1536 9303 5b36 137b d635 80bc 0436
000001f0: 11ab 1536 399c 3436 d851 c536 192b 8036
00000200: 9ebf 6837 fa0d 7036 b908 8134 44f4 5334
00000210: 6184 a833 e73d de33 a43b 1a36 23e5 7a36
00000220: eaf3 9e36 6308 9136 8d52 bb36 ff4f c236
00000230: bcb5 bf36 fa1b b936 a942 d336 4972 392d
00000240: b52a 6b34 63ac 9135 271e 2b35 1d93 2636
00000250: 9b2c 6736 2be7 8236 62e8 8c36 8356 a336
00000260: 46a3 8e36 c0c5 fb36 0fb4 d736 51de ef36
00000270: 72da 092d 1f0b 0233 60a7 1830 4d61 8c33
00000280: 0dae 0736 f235 6435 7939 a834 5063 2935
00000290: 935a 2135 79ea 1435 c04b 8834 32fe 2534
000002a0: 95bb 9934 3dbe 9233 98c2 3b2f 48e3 8f34
000002b0: 1165 ac35 03be 8a35 7f5f 9334 6d15 3a34
000002c0: 8ae2 b233 3221 0e33 357a be34 4bd4 7b24
000002d0: 31ab 0635 5aed 3d32 7dd7 2f34 c4b1 ad34
000002e0: cbc0 4834 e9e3 6c29 78b1 7f35 ae7d cf35
000002f0: 9cb2 2d35 68f4 c935 9ab2 3f35 feea 0035
00000300: 7e37 fa34 6901 b334 edfe b634 1c7a d231
00000310: 8924 8134 5f8f e634 53f3 8134 da63 1a35
00000320: 37bd a735 1947 6035 3bfa 0035 4043 6e35
00000330: b928 5934 e92a f234 dd4d 8734 238d 9534
00000340: 81d5 9c37 5cfa 5b37 281a 9d37 a016 9737
00000350: b3d3 3e37 2f6f 9637 ba86 1e37 0a13 3037
00000360: 3ac8 8237 d237 1837 2878 2037 7ecd 7237
00000370: 5d84 0337 bfc7 4937 1db9 9d37 286e a637
00000380: 69e2 9a37 4098 9737 150a 8f37 c90f 8237
00000390: 93f2 2b37 9bee 6d37 0c2d 6937 e56a 1737
000003a0: 0d07 f636 a93b 6337 42c0 a537 c539 9437
000003b0: 7258 9c37 1a6f 9737 87c1 a137 ef58 2a37
000003c0: 2c0a 8e37 ed16 7737 294d 8237 12a7 6f37
000003d0: dbe9 7737 5683 6d37 0c53 6937 f5f2 9d37
000003e0: b39c 9a37 8621 8f37 f974 a237 9592 9337
000003f0: cced 9637 b2b5 8737 29d6 1d37 ae37 8f37
5.578888e-06 1.1575654e-05 5.592809e-06 5.1272978e-06 7.675248e-06 2.741929e-06 1.0532934e-05 2.2856655e-06
2.341795e-06 1.0244692e-05 1.053925e-05 5.0103163e-06 7.85871e-06 1.2793628e-05 5.7983043e-06 4.916119e-06
2.0603986e-06 1.6071775e-06 5.084662e-06 5.0864296e-06 1.1504039e-05 6.0760212e-06 3.0761091e-06 1.1149621e-05
1.4982637e-06 6.3662487e-06 4.4460503e-06 5.4055554e-06 5.4057737e-06 5.6762387e-06 1.6282833e-06 8.248395e-06
2.2359302e-06 1.9731576e-06 1.2926051e-06 2.914401e-06 2.4476255e-06 2.7848857e-06 2.5840702e-06 5.923491e-06
5.630833e-06 6.0435514e-06 4.5607903e-06 2.8183842e-06 1.1552389e-06 2.7851913e-06 9.510873e-06 9.878335e-07
3.8172143e-06 1.0402451e-06 1.5875402e-06 9.2806624e-07 1.8745144e-13 2.940146e-10 1.5329434e-09 2.0969262e-07
2.0139834e-07 2.019642e-07 3.030147e-07 6.4654114e-07 4.3579382e-07 4.153622e-07 5.717404e-07 3.8288684e-07
5.894341e-07 1.1941975e-09 9.637233e-10 3.4230974e-09 2.477368e-07 1.692356e-07 1.7553761e-07 3.0652473e-07
4.0855852e-07 5.3019926e-07 6.9640686e-07 4.3244353e-07 6.5818404e-07 3.7365768e-07 5.653115e-09 9.010269e-09
2.7611082e-09 2.818429e-08 1.7995691e-07 6.6939094e-07 2.9699447e-07 5.9688665e-07 5.3261255e-07 5.061252e-07
4.4323025e-07 4.5801022e-07 5.8747264e-07 3.8242844e-13 4.1541934e-09 7.1834116e-09 4.426598e-08 1.4650706e-07
2.4135332e-07 4.5525152e-07 3.290011e-07 5.359858e-07 4.1156338e-07 6.361796e-07 6.900881e-06 4.9388603e-07
6.0539573e-09 1.4451748e-08 2.541864e-08 6.875069e-07 3.0730475e-06 2.5308866e-06 3.597019e-06 1.0191511e-05
4.8333204e-06 4.5018223e-06 3.3099345e-06 3.725134e-06 7.095881e-06 3.1576775e-07 9.121689e-09 1.9536355e-07
2.2253935e-06 3.2635623e-06 1.5980062e-06 1.9779254e-06 2.2302304e-06 2.6913024e-06 5.8805854e-06 3.8197145e-06
1.3872892e-05 3.5770922e-06 2.403447e-07 1.973977e-07 7.847189e-08 1.03489405e-07 2.2982504e-06 3.7386278e-06
4.7371623e-06 4.322313e-06 5.5826445e-06 5.7909633e-06 5.7134002e-06 5.5166865e-06 6.2960503e-06 1.0541409e-11
2.1901617e-07 1.0853513e-06 6.374634e-07 2.4821559e-06 3.4447646e-06 3.9012134e-06 4.199378e-06 4.86785e-06
4.2509373e-06 7.503404e-06 6.428461e-06 7.148636e-06 7.836053e-12 3.02781e-08 5.553513e-10 6.536957e-08
2.0217879e-06 8.501512e-07 3.1334255e-07 6.3101925e-07 6.0108977e-07 5.54755e-07 2.538709e-07 1.5459298e-07
2.8634955e-07 6.833259e-08 1.7076685e-10 2.6801195e-07 1.2844413e-06 1.0337102e-06 2.7450366e-07 1.7330395e-07
8.329978e-08 3.3092142e-08 3.5479175e-07 5.4606768e-17 5.0168006e-07 1.1055215e-08 1.6376539e-07 3.2353103e-07
1.8696589e-07 5.2600207e-14 9.5253154e-07 1.545928e-06 6.4707433e-07 1.5046799e-06 7.1412944e-07 4.8025674e-07
4.6606505e-07 3.3342374e-07 3.4085625e-07 6.1256866e-09 2.4054705e-07 4.2945155e-07 2.4205164e-07 5.7514774e-07
1.2497538e-06 8.3549963e-07 4.804785e-07 8.875977e-07 2.0224515e-07 4.5107234e-07 2.5202363e-07 2.7856103e-07
1.869607e-05 1.31117085e-05 1.8728038e-05 1.8011138e-05 1.1374173e-05 1.7933167e-05 9.448902e-06 1.049485e-05
1.5590445e-05 9.072903e-06 9.564719e-06 1.4472169e-05 7.839027e-06 1.2027041e-05 1.8802059e-05 1.9840038e-05
1.8463661e-05 1.80715e-05 1.7051623e-05 1.5504558e-05 1.0248873e-05 1.41818555e-05 1.38983705e-05 9.02519e-06
7.332192e-06 1.3544145e-05 1.975906e-05 1.7669876e-05 1.8637835e-05 1.8052338e-05 1.9282814e-05 1.0153496e-05
1.6932456e-05 1.4727685e-05 1.5533138e-05 1.4284409e-05 1.4776796e-05 1.415688e-05 1.3907218e-05 1.8828994e-05
1.84312e-05 1.7062539e-05 1.9366375e-05 1.7592023e-05 1.7992126e-05 1.6177863e-05 9.407792e-06 1.7072856e-05

exp_avg f4 [128]
00000000: f218 85ba 0c92 6638 a06c 04bb c230 3d3a
00000010: be17 bd3a da0f 39ba dd09 833a e5e0 e13a
00000020: b41c 00bb 4ff3 adba 0257 2d3a 9b78 a2b7
00000030: 211d bbba 26d6 9db9 2d99 90ba 0f4f 8839
00000040: 08aa 213a 623c 3f3a 2698 b3b9 d79b dfb9
00000050: f11e 053b 6f46 853a aeb6 7eb9 3986 e5ba
00000060: ed3e b7ba edf8 223a e742 563a 28a4 c1ba
00000070: 925c 86ba 6dff 87b9 6799 3db5 a3c1 563a
00000080: e4c8 65ba b97e e038 3cac a2b9 1dc5 4e39
00000090: 4cde 20bb 7244 da3a e6ef 8f3a d0e1 c839
000000a0: 7800 e8b8 9627 913a 0f81 713a a4b6 4f3a
000000b0: 73a0 a339 f219 b6b9 0400 0000 0afb 7538
000000c0: a509 6dba 635f a4b9 d7dd 88ba b4b8 37ba
000000d0: 6092 00ba 380b 87b8 4b23 5cba 7500 8dba
000000e0: e07d 91ba 6baf d839 61f6 13bb 83a6 a23a
000000f0: b8e8 bab9 4141 2b39 0cd7 79b8 9dd6 cfba
00000100: 4a6a d1ba bd01 e5ba 30d3 e4b9 d4f0 d339
00000110: aff2 cdb9 d8c4 613a 9a74 f839 fb8d 5b38
00000120: 6171 a539 5ea0 b4b7 3657 893a eb28 3d3a
00000130: 9472 8bba 65d1 1e3a 2ea7 203a b7cf 733a
00000140: e58b bab9 fdce 8a3a 0494 ca38 0400 0000
00000150: 6c10 8e38 1c1e 49b9 b2d1 d839 a85d d9b9
00000160: ffb3 1139 0ac2 14ba 7243 81b9 23c6 373a
00000170: 3b70 193a 03be edba 52ca bc3a 8242 ba3a
00000180: 2cde 433a 936d 6aba 1588 4dbb 7bc3 f039
00000190: e064 a53a 9e23 57b7 cf1d 12ba ef84 c1b9
000001a0: 1539 95ba 438a 303a f596 323b 229a 49ba
000001b0: 6a38 8c3a f8ff 583a a87c 57ba 2c30 af39
000001c0: 527c 2db7 7967 a239 434a be39 7c82 9eb9
000001d0: 6504 8f3a 6668 5c39 2d8b 283a ebfd bcba
000001e0: be81 dbb9 d74d 853a b0da 443a f050 6eba
000001f0: a7b1 b23a fe56 9b39 cce0 9cba a6da 05bb
-0.0010154529 5.497229e-05 -0.0020206347 0.00072170433 0.0014426631 -0.0007059552 0.0009997446 0.0017233161
-0.0019548358 -0.0013271364 0.00066123914 -1.9368066e-05 -0.0014275649 -0.00030104927 -0.0011031978 0.00025998845
0.0006166999 0.00072950695 -0.000342549 -0.00042649984 0.0020312632 0.0010168086 -0.00024291381 -0.0017511315
-0.0013980545 0.00062169024 0.00081734214 -0.0014773654 -0.0010250977 -0.00025939514 -7.0631216e-07 0.0008192306
-0.0008765592 0.00010704756 -0.00031027372 0.00019719121 -0.0024546562 0.0016652478 0.001098153 0.00038315216
-0.000110627094 0.001107442 0.00092126516 0.0007923639 0.00031209327 -0.00034733076 6e-45 5.864635e-05
-0.00090422697 -0.00031351586 -0.001044209 -0.0007008419 -0.0004904624 -6.439391e-05 -0.0008397593 -0.0010757582
-0.0011100136 0.00041329427 -0.0022577273 0.0012409243 -0.00035650074 0.0001633214 -5.9566504e-05 -0.0015856806
-0.0015977111 -0.0017471832 -0.00043644896 0.00040424487 -0.0003928146 0.0008612401 0.0004738912 5.23459e-05
0.00031555726 -2.1532349e-05 0.0010478261 0.0007215875 -0.0010639005 0.0006058424 0.00061284273 0.0009300666
-0.00035580914 0.0010590252 9.659681e-05 6e-45 6.7741465e-05 -0.0001918007 0.00041354966 -0.00041459245
0.00013895331 -0.0005674666 -0.00024655048 0.00070104207 0.00058532105 -0.0018138293 0.0014403558 0.0014210495
0.0007471766 -0.00089427194 -0.0031361629 0.00045922011 0.0012618564 -1.2823291e-05 -0.00055739 -0.00036910872
-0.001138481 0.000673447 0.0027250622 -0.0007690509 0.0010697965 0.00082778884 -0.00082201743 0.00033414492
-1.0340549e-05 0.0003097614 0.00036294953 -0.00030233327 0.0010911344 0.00021019726 0.000642943 -0.0014418935
-0.000418676 0.0010170293 0.00075093936 -0.000909104 0.0013633267 0.00029628718 -0.001196885 -0.0020424514

exp_avg_sq f4 [128]
00000000: 46e8 d437 7fe8 9e37 e13a ae37 4157 4238
00000010: 69cf 3438 3ea9 dd37 cb4c 8037 9bb4 c437
00000020: 758b f137 2159 7338 7ec8 6537 fbc3 2138
00000030: 2ade bb37 8fb7 a737 c1aa 3b38 3aa5 0d38
00000040: b0cc 5137 213b ba37 d0c9 9738 b8ba 0838
00000050: b7a8 b637 0f02 a737 a035 b537 02e4 1a38
00000060: f613 4f38 a973 f337 5b04 1738 8dff 1b38
00000070: cda0 9a37 5c57 3538 0efb 9d37 aa1e 0738
00000080: 0f49 9d37 387d 6337 2e44 ef37 d1f3 1638
00000090: c1e3 5338 b8de 0e38 8609 8737 714e 5c37
000000a0: 39c1 3838 6cad ce37 5475 4e37 4cf8 ba37
000000b0: 2014 0038 0dd4 d337 a538 df34 94a3 dd37
000000c0: d83e ac37 f84c 7a37 716a 1f38 f842 1838
000000d0: 50fe 2638 8452 6e37 4997 6238 205f 2638
000000e0: 30ee 6638 1a14 2838 7ce7 eb37 2f1d e837
000000f0: 0fc3 ea37 f58e 3038 7fe0 1c37 357d e637
00000100: 130c e537 203f c037 4b97 1c38 fe9a 3537
00000110: 8148 e637 d175 8337 d228 fb37 498c b337
00000120: b17c e437 40fe e137 69a2 2438 dbfc 1638
00000130: f1a1 fa37 70e8 2837 8708 c537 6d92 8f37
00000140: 01c4 b738 1a1b 2638 70fa f137 dbeb 0a25
00000150: 08b4 2c37 7434 de37 e55e a838 ec22 7a37
00000160: a2c0 1438 eb47 f537 ca97 9f36 077d d037
00000170: e744 9b37 2719 1538 4598 bf37 be2a 9237
00000180: 03ce d837 90fc bb37 24ca 9038 08b4 4238
00000190: 88e5 2438 01ad 6d37 2926 0938 8626 3138
000001a0: deb8 9737 a95d 5938 25ec 8e37 324b 6037
000001b0: df2f ae37 1058 7037 be67 2d37 4e55 6a38
000001c0: 48ea 0738 b435 c837 23f8 0d38 26f2 2638
000001d0: 2748 9d37 9f54 0438 1464 9b37 2836 1138
000001e0: 77d0 a937 71c3 6e38 50a3 9c37 6120 1738
000001f0: b4bf 0338 0027 8138 2626 aa37 ce51 4638
2.538053e-05 1.8943332e-05 2.0769834e-05 4.6334466e-05 4.310851e-05 2.6424063e-05 1.5294549e-05 2.3449122e-05
2.8794379e-05 5.8018722e-05 1.3696144e-05 3.8567912e-05 2.239559e-05 1.9993427e-05 4.47433e-05 3.37709e-05
1.2505028e-05 2.2200462e-05 7.2378316e-05 3.2598822e-05 2.1774655e-05 1.990891e-05 2.1601852e-05 3.692881e-05
4.9371236e-05 2.9021716e-05 3.600526e-05 3.719288e-05 1.843311e-05 4.3235123e-05 1.8832765e-05 3.2215066e-05
1.8749879e-05 1.3559409e-05 2.8522769e-05 3.598986e-05 5.0518433e-05 3.406286e-05 1.6097689e-05 1.3131285e-05
4.404897e-05 2.463787e-05 1.2305874e-05 2.228855e-05 3.053632e-05 2.5251904e-05 4.15782e-07 2.6421425e-05
2.0533262e-05 1.4919082e-05 3.8007685e-05 3.6301994e-05 3.981433e-05 1.4205118e-05 5.4023494e-05 3.9666076e-05
5.5058103e-05 4.0073042e-05 2.8121976e-05 2.7670145e-05 2.7985805e-05 4.209481e-05 9.350594e-06 2.747644e-05
2.730455e-05 2.2917578e-05 3.73342e-05 1.0824528e-05 2.7451899e-05 1.567128e-05 2.994054e-05 2.1403788e-05
2.7237782e-05 2.6940485e-05 3.9251903e-05 3.5998277e-05 2.9877732e-05 1.0067699e-05 2.34882e-05 1.7115113e-05
8.7626286e-05 3.9602724e-05 2.8846058e-05 1.2049503e-16 1.0293916e-05 2.6488888e-05 8.02854e-05 1.4909292e-05
3.5465353e-05 2.9239765e-05 4.75624e-06 2.4853753e-05 1.8509525e-05 3.5547793e-05 2.283988e-05 1.742446e-05
2.5845138e-05 2.2409746e-05 6.904107e-05 4.642087e-05 3.9314415e-05 1.4166581e-05 3.2698885e-05 4.2235966e-05
1.8086688e-05 5.182406e-05 1.7037682e-05 1.3368948e-05 2.0764708e-05 1.4325618e-05 1.0335758e-05 5.5869394e-05
3.24047e-05 2.3866865e-05 3.3848115e-05 3.9803002e-05 1.8749457e-05 3.1550062e-05 1.8524042e-05 3.462113e-05
2.0243444e-05 5.692564e-05 1.8672697e-05 3.603136e-05 3.141137e-05 6.158464e-05 2.0283343e-05 4.7283065e-05
