ppo_2layer_2048_epoch10/ppo_agent_episode_8300.pth (torch, 596626 bytes, 21 tensors)

fc1.weight f4 [128, 260]
00000000: e4cb e6bc d77e e1bd fcd9 32be 3070 0bbe
00000010: ca4e b7bc 1062 2fbe 4843 2f3d b10a a1bd
00000020: db12 52be a659 8fbe 0b5e bcbe 88d4 893e
00000030: 5c0c 96be 1e51 d3bd 6b98 52bd 7fc2 19bd
00000040: 0d0c 61be 4604 11be 7e99 11bd e1e7 9cbc
00000050: 0c8c 6fbd 3c14 ffbd d444 86bd a63d fdbd
00000060: 926a cbbd 7097 0b3e dcc6 fdbd 148c 07be
00000070: 2ba0 91bd 6df2 01bd ebb0 99be 1dab 823e
00000080: e560 8f3d b9dc 26be 1b69 b7bd 4910 87be
00000090: 8e8d 63be e3c1 c8be 895f 91be 2db7 90bd
000000a0: cc35 2fbd d879 4dbe 30dd 1bbd 1896 babd
000000b0: 8e8a 96be d50c 7fbd 8b1e 28bd d47b dabe
000000c0: 2d10 28be 62cf edbd b847 37be b241 76be
000000d0: 8c27 0abe 2dc2 c0be 8346 67bd e1b7 28bd
000000e0: a7a2 113c c24a 50bc eeaf 43bd b237 173d
000000f0: 32ef 01bc 0bb8 af3d 0e69 9c3d a2ea a13d
00000100: b485 943d 67cd 27bd 86b5 1fbe 3c5b edbd
00000110: fcff c43c f2f0 f1bd d030 27ba b2d8 403d
00000120: db75 bf3d ca07 6e3d aec5 9c3d 6d04 7e3d
00000130: a94b 84bc 68d8 c73d 6e11 31be c0f1 2ebe
00000140: b7fa ca3d 648c dabc 9c6e 0b3c f6bc 57bd
00000150: fe85 f5bd 163a 623d a4ee 9fbc 3609 5d3e
00000160: f81a ef3d b16d dc3c ccb7 9e3d 302d 49be
00000170: 671b 38be 1cb1 88be 621e 2bbd abbe ccbc
00000180: 6819 423d af12 8dbd 5b7c fbbc 08fc 793d
00000190: b30a cd3d 4c9a 1b3d 65df 483b d55b b73c
000001a0: bf44 1d3d 0182 8a3d cd41 9c3d afaa d43c
000001b0: b255 f5bc b6c7 df3d 335d 453c e860 fa3c
000001c0: 76a8 3e3d 35d1 df3d 8f44 743d 08f2 17be
000001d0: 3f08 c93d 7ba1 72bc 12c0 f93d 4439 d3bc
000001e0: c75a c23d 115f 593d 4ef9 07bc e2dc 16bc
000001f0: 557b 003d 1783 653d 88c1 c73b 3881 c73d
00000200: d64c f53d 4348 e6bd 26c0 473d a33f 023e
00000210: ef13 d73c 281b 253e ee07 de3d 7814 b53c
00000220: 96a4 553d 3581 4e3d 350f 013d b62d 983c
00000230: 2ef0 ab3c 1cfa 8e3d de1d 863d 2ac7 2bba
00000240: 9274 803d 3ab2 be3d 7042 2fbd d694 3f3c
00000250: 005e bd3d c441 573d 50ce 94bd b526 ff3d
00000260: 2a9a db3c f481 af3d 4e37 ba3c 7d17 713d
00000270: 8ab1 593b b410 f83d 3f0d 9f3b 7f7d 023e
00000280: 2ec2 0f3e 2cae a63d 7697 d9bd a383 163e
00000290: 5670 0f3e a67f babc 3f04 313e 57b8 113d
000002a0: 7cd4 533d 3493 053e 0a04 5a3d 6fd4 d3ba
000002b0: 725b 2b3e 9b38 b43a 79d8 04bd 8275 cabd
000002c0: 944e 093e 434f cc3d 5c58 04b9 2f16 873d
000002d0: 5d16 30bd a603 6f3d 90d9 663d d62c 223b
000002e0: 6961 ce3d 6963 833d 04ae f23c 8b58 e2bc
000002f0: 7df5 38bd c244 0a3d 790a d93d 9e2b af3d
00000300: 29dc 6e3e 0dde 623c 426b 013e 245d 2fbd
00000310: d79e ff3c d95b 373d d609 c93d 98ce 91ba
00000320: b30d 98bd 7ff3 5bbd d8f4 073e 0795 973d
00000330: 00cc 7b3e 0524 623c 2370 85bd bdc5 bebc
00000340: c179 cc3b 6ea0 633d 85d7 b13d e85b 973d
00000350: 5f9f 40bd 1b09 19bb 64af eb3c f18f b63c
00000360: 1a53 da3c bfd9 973d 80d7 503d 0bda b7bd
00000370: 91d6 3f3d 75b2 b23c 5a1a 8abb b333 ad3d
00000380: ee24 293d fb83 3c3d 5028 26bb ca83 0a3d
00000390: 3a21 e43d db08 363d 733e 493d fefd 4a3d
000003a0: ced2 d83d 9fec 96bd 25fc 193d 0bd2 723d
000003b0: 3fdd 19bd 77ec 153d 23cd cd3d 0133 a6bd
000003c0: f42a cfbc c948 a43d 46e4 123d b242 203d
000003d0: 8252 ef3d 1fa9 f33d e561 ec3d 2fd0 673d
000003e0: e06e 753d e865 af3c 8aa6 8f3c e7e5 7abc
000003f0: de97 c43d c912 1a3d d8bd 723c 0b54 433e
-0.028173395 -0.11010521 -0.17465967 -0.13617015 -0.022376437 -0.17127252 0.042788774 -0.07863367
-0.20515005 -0.27998084 -0.367905 0.2691996 -0.29306304 -0.10318206 -0.05141489 -0.037539
-0.21977253 -0.14161786 -0.035546772 -0.019153537 -0.05848317 -0.12455031 -0.06556097 -0.12365274
-0.09932436 0.13631988 -0.12391445 -0.1323703 -0.07110628 -0.031725336 -0.3001779 0.25521174
0.07000903 -0.16295137 -0.08955594 -0.26379612 -0.22221968 -0.39210424 -0.283932 -0.07066188
-0.042775914 -0.20066011 -0.038052738 -0.09110659 -0.29402584 -0.062268097 -0.041044753 -0.42672598
-0.1641242 -0.11611821 -0.17898452 -0.24048498 -0.13491648 -0.37648144 -0.05646373 -0.041190986
0.008888877 -0.012713136 -0.0477752 0.03691835 -0.007930564 0.08580025 0.07637225 0.07906081
0.07252064 -0.04096737 -0.1559659 -0.11589667 0.024047844 -0.11813535 -0.0006377818 0.047081657
0.09348651 0.058112897 0.07654892 0.06201594 -0.016149359 0.09758073 -0.17291805 -0.17084408
0.09911101 -0.026678272 0.008510258 -0.05267044 -0.119884476 0.055231176 -0.019522972 0.21585545
0.11675066 0.026907774 0.077499 -0.19646144 -0.17979203 -0.26697624 -0.041777022 -0.024993261
0.04738751 -0.06888329 -0.030698946 0.06103137 0.10011806 0.037988946 0.0030650732 0.022382656
0.03839564 0.067630775 0.07629738 0.025960295 -0.02994809 0.10926764 0.012046146 0.030563787
0.046547376 0.10928575 0.059635695 -0.14838421 0.09816026 -0.014809008 0.12194838 -0.025784142
0.09489971 0.053069178 -0.008299185 -0.009207936 0.03136762 0.05603322 0.006096069 0.097414434
0.11977546 -0.112442516 0.04876723 0.12719588 0.026254622 0.1612364 0.10841356 0.022104487
0.052158915 0.05041619 0.031508643 0.018576484 0.02098855 0.06981298 0.065486655 -0.000655281
0.06272234 0.09311338 -0.04278797 0.0116932 0.09246445 0.052552953 -0.072659135 0.12458555
0.02680691 0.085697085 0.02273145 0.05886029 0.0033217394 0.12112561 0.004853874 0.12743185
0.14038917 0.081386894 -0.10624592 0.14698653 0.14007697 -0.022765946 0.17286776 0.03557619
0.051716313 0.13044435 0.05322651 -0.0016161333 0.16734102 0.001374978 -0.032433007 -0.09885694
0.13408881 0.099760555 -0.00012621417 0.06596028 -0.042990077 0.05835309 0.056359828 0.0024745963
0.10077173 0.06415445 0.029623993 -0.027630111 -0.04515599 0.03375698 0.105977006 0.08553241
0.23326172 0.013846886 0.12638572 -0.042813435 0.03120367 0.044765327 0.09816329 -0.0011124192
-0.07424488 -0.053699013 0.13276994 0.074014716 0.24589539 0.013802533 -0.06515529 -0.023287648
0.0062401 0.05557292 0.08683685 0.073905766 -0.047026988 -0.0023351375 0.028770156 0.022285433
0.026650954 0.07414579 0.050986767 -0.08977135 0.046835486 0.02181361 -0.004214567 0.084571265
0.041294985 0.046024304 -0.0025353618 0.03381709 0.1113915 0.04444204 0.04913182 0.049558632
0.10587083 -0.07369351 0.03759398 0.059282344 -0.037564512 0.036602464 0.10048892 -0.08115197
-0.025289036 0.08021695 0.03586223 0.039126106 0.11685659 0.11897492 0.115421094 0.056595024
0.05992019 0.021410897 0.017535467 -0.015313602 0.09599279 0.03761557 0.01481577 0.19075029

fc1.bias f4 [128]
00000000: a63b 2dbc 2d43 aabd fd26 263d 0cbb 833d
00000010: 9a26 f8bc d24f 91bc 75b9 c0bc b97f e83c
00000020: bfc4 54bd de03 d8bb 30c8 6cbd 401e 9d3a
00000030: 92dd bfbc 71c2 a43d 32ae a03c 7b66 283d
00000040: 090d 5e3c 7844 9e3d 8af4 083d 6f03 48bc
00000050: b460 25bb 4219 60bc b25e 593d 6e76 2d3d
00000060: ed96 b2bc 969c 383d cec7 e1bc 4254 773c
00000070: 2ed1 1dbc a14a 2abd b66a a7bd ea6d 433d
00000080: e60b c43c 9582 343b eec2 a13c b356 133d
00000090: 3d23 813c 8b55 8c3d ae63 573d 03f2 673d
000000a0: 10c0 953d 0f55 2a3d 782d 223d 82ba 86bb
000000b0: a20c bc3c 8b17 a3bc 2256 4b3d 9210 2fbc
000000c0: 1230 8f3d 2df7 063c e698 febc cb22 993d
000000d0: 6ff2 473d 4403 833c 7e8a bc3d 11c7 8d3d
000000e0: 8643 853b afc2 6f3d 0d1b 33bc 040e ce3c
000000f0: 4a54 903d aa4d 3fbc 8781 143d 48f1 cb3c
00000100: 8d6d d63c 86da 2cbd 6904 163d e7c3 c33c
00000110: b186 f2bc 1fbb 00bc 6c23 043d 38ca 923c
00000120: 7401 ba3c 1cc8 1dbd 51a9 35bd 5fea f0bc
00000130: ebf2 693d c502 033e 75da 0cbd 3946 20bd
00000140: 9a96 60bd bfe8 d73c d3a0 f3bc 6fda a4bd
00000150: 2c36 fc3d 689f fc3c af96 cf3d 48fc 93bb
00000160: bba8 303d 36a7 5fbd 735f 2ebd 04be 963c
00000170: fbf5 94bc cb1b 14bd 9e66 7abc b471 0b3d
00000180: 48da de3b 85aa 083d ae21 59bb ddbf febc
00000190: fb4d 983d 4b58 a7bd d3f8 de3b 4c3c 6a3d
000001a0: 9775 5f3d 1c58 763d b011 483d 5731 15bc
000001b0: 0131 d13b 4f60 97bd ccdc f03d 4d07 043e
000001c0: 22d0 243a 7314 5fbd 14aa 3d3d 1441 133c
000001d0: 0433 5abd 4fd8 3bbd 1ad6 58bd 968d 473c
000001e0: 9c38 4b3d a27c eb3d 3462 02bd 1182 443c
000001f0: 2fa8 403c 0bd9 16bd 7639 823c 0a7f a0bd
-0.010573303 -0.08313594 0.040564526 0.06432161 -0.030291844 -0.017738257 -0.023525933 0.028381215
-0.051945444 -0.006592258 -0.0578081 0.0011987165 -0.023421083 0.08044899 0.019614313 0.041113358
0.0135529125 0.07727903 0.033436336 -0.01220785 -0.0025234642 -0.013677897 0.053068824 0.04234927
-0.021800483 0.045071207 -0.027561095 0.015095772 -0.009632392 -0.041575078 -0.0817465 0.047712244
0.023931455 0.0027543653 0.01974627 0.035971355 0.015763873 0.068522535 0.052585296 0.056627285
0.07312024 0.041585024 0.039594144 -0.004111589 0.022955243 -0.019908687 0.04964269 -0.010685103
0.069915906 0.008237642 -0.031078767 0.07477339 0.048815187 0.015992768 0.09206103 0.069227345
0.0040668873 0.058535274 -0.010931742 0.025153168 0.07047327 -0.011676231 0.03625634 0.024895325
0.026175285 -0.042200588 0.0366253 0.023897124 -0.029605241 -0.007857113 0.032260343 0.017918691
0.022705771 -0.038520917 -0.044350926 -0.029408632 0.05711643 0.12794025 -0.034388024 -0.03912947
-0.054831125 0.0263561 -0.029739773 -0.080494754 0.1231502 0.03083773 0.101361625 -0.0045161583
0.043129664 -0.054602824 -0.042571496 0.018401153 -0.018183699 -0.036159318 -0.015283255 0.034043983
0.0068009235 0.033365745 -0.0033131647 -0.031097347 0.074367486 -0.081711374 0.0068045645 0.05718641
0.0545555 0.06014262 0.048844993 -0.009106002 0.0063840155 -0.07391416 0.11760864 0.1289341
0.0006287118 -0.05446286 0.046304777 0.008987684 -0.05327131 -0.045860585 -0.05293856 0.012179753
0.049614534 0.11498381 -0.031831935 0.011993901 0.011758848 -0.036828082 0.01589654 -0.07836731

fc2.weight f4 [64, 128]
00000000: aec5 d73d b913 f8bd 1810 373e aac0 08bd
00000010: 8509 8abe d12a 8c3e 12bd e23b 16de 99bc
00000020: e10d f83d 6031 623e 4fc8 79bd 4605 f23e
00000030: fca7 a0bd fd0c 7a3e f5e9 e33e 7f14 173c
00000040: b8ff b43d 1c67 96be 8911 a63e 195a 843e
00000050: 2a97 093e 3e75 2f3e 5560 9f3b 0c83 4b3e
00000060: ce70 f73e 5901 9d3e 84d6 2f3e a66f f53d
00000070: b6e2 b03d 1829 cf3e b5b8 2fbd 06ab 5dbb
00000080: fb1e 4b3e dad0 fd3c 2bbd 323e 2bf2 04be
00000090: 5560 4bbe 3321 64be 6ab4 2dbe 77d1 aabe
000000a0: ca37 98be 96b9 62be 07a0 6a3d dc5d 41bd
000000b0: b402 3bbe 5fa4 1c3f 7838 55bc 832b 2cbe
000000c0: 358e af3e fc30 a6bb 088b d93d e2af 1dbe
000000d0: e19c 6abe e221 8fbc 1750 fd3d ac89 bd3d
000000e0: 7220 583e c095 afbe 4659 5c3e df63 023e
000000f0: 72e3 293e 7c9b 043f 06e7 773d bee1 afbd
00000100: 0e4d 92bd 12b5 f13c c144 063e ccad 6fbd
00000110: c579 303e 2a03 1ebe a38d d43e d486 19be
00000120: 5333 a73e e22b c43e ab98 f53c fb2a 59bd
00000130: f785 c73e 1b66 46bc dc50 66bc 3999 20be
00000140: 580b 363f 70a5 b93d a62f 1bbd 63fb 2f3d
00000150: c329 63be 5e18 b03d 85cf 35be 75d7 0a3e
00000160: 3b11 28be d987 403e 6739 dabd c582 e43d
00000170: 4a73 833e bbe3 443e 9f1b adbe f586 1cbc
00000180: 9467 fb3d f60f 153e 82fb 1cbe e38d 8c3e
00000190: 8487 dd3e 7c1a 933d 6772 00bd ef45 33bb
000001a0: 079a ea3e 04d0 9ebe 7597 273e 4476 0a3c
000001b0: ed78 70bd 72dd 0cbd 4851 23bd a09a 833d
000001c0: 0157 10bd ff20 ff3e 4510 57bd fc79 703e
000001d0: e96f 923d 7085 ea3e d93e 1db9 401e 48bc
000001e0: 7e0d e33d 8aec 8abe a15c 593e 2610 2a3e
000001f0: 14ce 703d 0dff 04bd 7b5d 65bd 7ab2 ebbb
00000200: bb4b 283c daf2 5d3e b2ae 08be 31bd a23d
00000210: cab1 363c 5554 8b3e 3034 f5bd b4c5 7fbd
00000220: 5c0e 733d dc41 aebd 1df8 72bb d6d0 0fbd
00000230: 916f 613e 8635 d83d 12ba 9c3e 89b6 193d
00000240: cb6a 363c 8cac 13be dd05 483e f9d2 99bd
00000250: 5fb4 6a3d 5979 2a3e 5ede 5c3e f258 df3d
00000260: 02bf a23e a188 913e 0546 2cbe da1c 033e
00000270: 60a7 7abe 1641 663d c261 62be 366a 34be
00000280: aad9 26bd 766b 9e3d 95d0 9abc 395d 233e
00000290: f9f6 443e ac43 5abe 066d 513d b61e 473e
000002a0: ef5d 26be a80f 88be f9a2 c1bd 146f 243d
000002b0: cb0c 4dbe d44d a13e a52f 6ebe e8df d6be
000002c0: 63b4 823e bc98 d2bd 93b1 09bd c1a3 15bc
000002d0: b38c d4be 4e24 bf3d 96db 70bd ade5 a93d
000002e0: 2a4e 35be c3e2 18be 303d 69b9 9f8c 513e
000002f0: ec04 483e f844 2a3d c389 f6bd c044 c4be
00000300: aee7 4cbe 6a7a 7c3d c750 f4bd b30c 4b3d
00000310: a3c5 373e ec7e 033e d05f 4e3e 2f47 7e3d
00000320: 58ed 193e 7bde e43c 53c3 0b3e bd99 a4be
00000330: 23b8 223e ecdd 9a3c d2d0 2b3e 01d5 0bbe
00000340: 582f 893e 3c01 72be 236e 983e bfe1 83bd
00000350: c38f 64bd f8c3 72bd d8a2 163d 9ad6 f93d
00000360: 60bb 8b3d bd98 1d3e c4bc bdbe 8d88 0d3e
00000370: 0aaf 0b3e b186 ecbd ea14 863e 1db4 9d3c
00000380: 1ee1 d53d e523 893d e51e 5dbe 228f 693d
00000390: 7575 d1bd dd5c d43d 9d6c a6be 6c59 3bbe
000003a0: 3fc4 0b3d 8a56 3abc 9716 a0bb c11b 99be
000003b0: e8cf 193e 8b5c aa3d e5de f03c 77aa 77bd
000003c0: c363 99be 2269 7ebd aa60 76bb d443 023e
000003d0: a856 8f3c a9c2 a6bd d772 5dbd 1680 b7bc
000003e0: 5fdc 05be ce00 1ebd f36f b63b 9af2 5d3e
000003f0: b4a5 90be 30ca 3f3e 08b8 973c a1d4 2c3e
0.10535751 -0.12113137 0.17877233 -0.033386864 -0.26960388 0.27376416 0.0069195116 -0.018782657
0.12112022 0.22089148 -0.060982045 0.47269648 -0.078445405 0.24419017 0.44514433 0.009221195
0.08837837 -0.2937554 0.32435253 0.2584999 0.13436571 0.17134568 0.0048637786 0.19874209
0.4832825 0.3066509 0.17171675 0.11984186 0.08636992 0.4046104 -0.04290076 -0.0033823862
0.19836037 0.030983377 0.17454974 -0.12983005 -0.19860967 -0.2227829 -0.16963354 -0.33362934
-0.29730064 -0.22141108 0.05728152 -0.047208652 -0.1826275 0.6118831 -0.0130139515 -0.16813473
0.34288183 -0.0050717574 0.10622221 -0.15399125 -0.22911407 -0.017472211 0.123687916 0.092547745
0.21106127 -0.34293938 0.2151843 0.1273341 0.1659067 0.5179975 0.060523055 -0.08587979
-0.07143603 0.029505286 0.13112165 -0.058515355 0.17233951 -0.15430894 0.4151431 -0.14992839
0.32656345 0.3831473 0.029980024 -0.053019505 0.38969395 -0.012109305 -0.014057364 -0.1568345
0.7111106 0.09064758 -0.037887238 0.04296435 -0.221839 0.08598398 -0.17754944 0.13558753
-0.16412823 0.18801822 -0.1065548 0.11157755 0.25673896 0.19227497 -0.33810136 -0.009553661
0.12275615 0.1455687 -0.15330318 0.27452 0.43267453 0.07182786 -0.031359103 -0.0027354916
0.4582064 -0.31018078 0.1636637 0.008451048 -0.058709074 -0.034390874 -0.039872438 0.06425977
-0.035239223 0.49829862 -0.05250575 0.23484033 0.071502514 0.4580493 -0.000149961 -0.012214243
0.11086558 -0.2713359 0.21226741 0.16607723 0.05879028 -0.032469798 -0.055997353 -0.007192907
0.010271962 0.21674672 -0.13347891 0.07946242 0.011150787 0.27212778 -0.119728446 -0.062444404
0.059339866 -0.085086554 -0.0037074157 -0.03511127 0.22015215 0.10557084 0.3061071 0.037527595
0.01113386 -0.1442129 0.19533487 -0.07510943 0.05730092 0.16647853 0.21569201 0.10905637
0.31786352 0.28424552 -0.16823585 0.12803975 -0.24477911 0.056214415 -0.22107604 -0.17618641
-0.040734924 0.0773534 -0.018898288 0.1595353 0.19234838 -0.21314877 0.051129363 0.19445309
-0.1624677 -0.26574445 -0.09454913 0.040144995 -0.20024411 0.3150469 -0.23260362 -0.41967702
0.2552825 -0.10283038 -0.033616614 -0.00913328 -0.41513595 0.093330964 -0.058803163 0.0829576
-0.17705598 -0.14930253 -0.00022243406 0.20463799 0.19533128 0.04156968 -0.12037995 -0.38333702
-0.20010254 0.06164018 -0.119294696 0.049572658 0.17946486 0.12841386 0.20153737 0.062079605
0.15031946 0.027938118 0.13648729 -0.32148543 0.15890555 0.018904649 0.16778877 -0.13655473
0.26793933 -0.23633283 0.29771528 -0.06439542 -0.055801164 -0.05926892 0.036776394 0.12199135
0.06822848 0.15390296 -0.3705808 0.13821621 0.13640991 -0.11549128 0.2618783 0.019250924
0.10443328 0.066962995 -0.21593817 0.057021268 -0.10227481 0.10369275 -0.3250474 -0.1829583
0.0341227 -0.011373172 -0.0048855054 -0.29903987 0.15020716 0.083184324 0.02940316 -0.060465302
-0.29958925 -0.06211198 -0.0037594237 0.12721187 0.017497376 -0.08142597 -0.054064598 -0.022399943
-0.13072346 -0.038574986 0.0055675446 0.21674576 -0.2825142 0.18729472 0.01852037 0.16877986

fc2.bias f4 [64]
00000000: 9e1e 8d3c bed3 833d 5ffd 66bd b6f3 113c
00000010: c113 fbbd 70ff adbc 1d82 293d 832a a2bd
00000020: 923a bc3c 6e0d 893c 076b 9dbd 8c79 8bbb
00000030: f7f1 8ebd 50a9 873d 47d7 bcbd a618 23bc
00000040: 2e60 0abd c6cb 773d 3916 2f3d 036c 793d
00000050: 3e5a a43c 3e2a a9bd 5291 39bd e042 783d
00000060: 648c 7f3d 0779 e43b eced ca3d fcf6 1b3e
00000070: f181 533d c4d9 78bc dbef 6ebd 19ca c7bd
00000080: 4d02 d6bb 3887 853d 364d 8b3b 4f20 d4bc
00000090: 464d 213d 580a 113d 26ab 093e 34be bfbb
000000a0: 1ee8 61bd 340f 283b 365c d8bd 3dc1 5fbd
000000b0: db5d 8dbc 8bad 093e fcd3 c4bd 53a4 6c3c
000000c0: 28d6 26bd dac3 1d3d 2eb5 263e f164 26bc
000000d0: f6d3 0e3e 1dfb 903d 1f51 b53d 95e5 b03c
000000e0: 9c81 d9bc 4dd7 8e3d c598 aabd a3aa 7a3c
000000f0: d0aa 0e3c 360c 7b3e 8319 843c 5d91 ce3d
0.017226513 0.06436871 -0.056393977 0.008908203 -0.12259627 -0.021239966 0.04138385 -0.07918265
0.022977147 0.016730037 -0.076864295 -0.004256433 -0.06979745 0.06624091 -0.092207484 -0.009954607
-0.03378313 0.060497068 0.042745803 0.060894024 0.020062562 -0.0826001 -0.045304604 0.060610652
0.062389746 0.0069724354 0.09908661 0.15230936 0.051637594 -0.015188638 -0.058334213 -0.09755344
-0.006531036 0.065199316 0.0042511476 -0.025894312 0.039380334 0.035410255 0.13444194 -0.0058515314
-0.055153005 0.0025643827 -0.10564463 -0.054627646 -0.017256668 0.13445108 -0.09610745 0.014443475
-0.04073158 0.038516857 0.16280052 -0.010155902 0.13948044 0.07079146 0.08853363 0.021593848
-0.02655106 0.06974659 -0.0832992 0.015299472 0.008707717 0.24516377 0.016125446 0.100863196

policy_head.weight f4 [110, 64]
00000000: 5089 803d b302 62be e054 ea3e 6bd6 abbe
00000010: 72ad f1bd 2306 1fbf f2e5 62bd f14e c23d
00000020: 2507 423f d603 ffbe a354 d8bd aa04 c13d
00000030: 9f67 b9bd fe99 2e3d da5b 8abd b053 e6be
00000040: f2df ed3c cb23 5abe 8d51 cc3e 5854 19bf
00000050: c8c6 063f 02b2 09bd 17ee b93e 9f46 9ebe
00000060: fba3 3ebe d37b 80be 4070 bf3e 89df f83e
00000070: 28ef bbbe 279f 0b3d 207c 2cbb 6eb7 9e3e
00000080: 5e6c 2a3f 8452 823e af57 7d3e a90f b03f
00000090: 0d06 ed3e a923 15be e840 babd 6162 453f
000000a0: 6b68 a33e 758f ffbd 4594 61be 4378 0dbf
000000b0: 9402 2dbf ef31 283f 363c 503e 5bf1 053d
000000c0: 7734 ea3d a88f 153f dff0 fd3e 4ac2 8b3e
000000d0: a680 a4bd 6014 cbbe 50aa e7be e8fd de3e
000000e0: 5df4 563d 75a8 c4be 05bf 773e 6506 373f
000000f0: 2cfe 36be 6423 a83e ddb5 d53e 26ae 373e
00000100: 57b0 bc3e f5b9 28be cf62 9a3e 2116 22be
00000110: 5a78 51bd a508 70bf b670 ec3d 7d56 643e
00000120: b850 273f 3cf8 50bf a03b bc3d 02ec b93d
00000130: 409b 083d 15b9 09bd c4f8 efbd f829 cdbe
00000140: 251f 22bd bceb 11bf b781 fb3e 8591 f9bd
00000150: aa75 973e 82bd 6e3c 316d e83e a106 7dbe
00000160: ce0c 44be e43a 23be 7d06 da3e 09fa 7e3e
00000170: 61ef 3fbe c42c f83d 5896 76bc 9597 60bd
00000180: c637 c13e 52fe 9d3e d405 e53d 06a4 693f
00000190: e4f4 a13e c834 21be b44b b7bd 8c09 0c3e
000001a0: a1fb af3e 258f f7bd 8cff 61bc 9f76 d1be
000001b0: d4ca 36bf dc20 e83e 6e4b 643d 9917 923e
000001c0: 33d3 a93d e4cd 7a3e 22f7 fd3e 6e8d b83e
000001d0: 0e96 98be 0d94 94be 9a48 d5be 48f9 bc3e
000001e0: 2f93 0ebd 0259 2fbc 6c17 2c3e 9915 ed3e
000001f0: 019f 8fbe eddd 013e 73d1 ad3e ffaa b23d
00000200: 0223 813e 74dc e13e 7cac eb3e f1b1 1a3b
00000210: 9884 1c3d 9cb6 7c3e 31f3 083e 85f2 c63e
00000220: b4eb 0cbc 45db e53d 77eb 4d3e 9b53 c9bd
00000230: 3b36 203d 3f6e e83d 45a2 b93e ba17 863d
00000240: d98a b13e 4795 60be ece9 9ebe f0c4 4a3e
00000250: 8b89 5a3e 3276 0fbd d8a7 463e dce4 f83d
00000260: 549a 813e ea94 513e 909f b4be 141d ebbe
00000270: 3b87 3abe f638 c63d ff48 cebd 29ca 2dbf
00000280: 9782 31bf 3cdf 6c3d 0eb7 fcbe e66f 18be
00000290: c079 ce3d cfd3 b13e e89f e5be 3cca afbe
000002a0: 7d01 703e 6854 46bd d5c4 a63e 323d 503e
000002b0: 8402 633d b244 273e 5df3 673e 1ae9 dcbe
000002c0: 93c8 873e 8f7f c0be 42f0 35bf 85fe 09be
000002d0: d747 9b3d 5a02 c53d 9e7e 42be 61b4 52be
000002e0: 2d00 8cbd 0bc2 593c 7802 db3e 8ec0 3a3d
000002f0: e1cd 833e a43a bdbe 5eee 883e 18e1 5abd
00000300: dd90 153e 7d05 e6bd c25c 9a3e 7023 833e
00000310: dc5c ac3e 2eba da3d 531e 433d ab65 9f3e
00000320: 46a3 d4be 215e ffbc c054 a43e d067 4fbd
00000330: 1694 20bd b6f2 97bd a5f9 6f3e 34ba a63e
00000340: f070 363e 54c0 cb3e c5ba bc3e 285c 27bd
00000350: 2e5c 473e edf9 d5bc ad4a 1b3e dffc 13bf
00000360: ea33 8d3e 97ea b63d 98fb 4cbf d66d 9cbd
00000370: bf97 a33e e5c2 1d3d b3c5 ffbd a0b8 f43e
00000380: e8a5 da3e 71f1 84be 738a c73e 736d 29be
00000390: 8536 0d3e 1820 15bc 638b d1be 07b8 d0be
000003a0: 57a6 1e3e 215d 35bc d8a7 093e 95cb 11bd
000003b0: 951a 363e e129 fcbe 6f0b 853e 0bb8 f2bc
000003c0: c099 963e 244d 11bf 650a f2be 6dab 5b3e
000003d0: b74f ffbe ce12 393e 2165 bb3e bd1d b7be
000003e0: 4acb ad3d ec24 973e 3295 9f3e d0eb 273e
000003f0: 998d 1f3e 865c 29bf 2810 3fbe c1e5 12bf
0.0627619 -0.22071342 0.4576788 -0.33562025 -0.1180066 -0.6211874 -0.055395074 0.09487713
0.7579215 -0.49807614 -0.10563018 0.09424718 -0.09052967 0.042627327 -0.067558005 -0.44985723
0.02903745 -0.21302716 0.39905968 -0.59894323 0.52647066 -0.033617027 0.3631446 -0.30913255
-0.18617241 -0.2509447 0.37390327 0.48608044 -0.367059 0.034087326 -0.0026319101 0.3099932
0.66571605 0.2545358 0.2474048 1.3754779 0.4629368 -0.14564385 -0.09094411 0.7710324
0.31915602 -0.12478534 -0.22029217 -0.5526163 -0.6758206 0.6570119 0.20335469 0.032700878
0.11435788 0.5842233 0.49597833 0.27296668 -0.0803235 -0.39663982 -0.45247126 0.4355309
0.052479137 -0.38409773 0.24193962 0.7149413 -0.17870396 0.328395 0.41740313 0.17937526
0.36853287 -0.16477187 0.3015351 -0.15828754 -0.051140167 -0.9376319 0.115449354 0.22298618
0.6535754 -0.81628776 0.0919106 0.09078218 0.033351183 -0.033623774 -0.1171737 -0.40071082
-0.039580483 -0.5700033 0.49122402 -0.12185959 0.29581958 0.014571549 0.45395806 -0.2470956
-0.1914551 -0.15940434 0.42583075 0.24900068 -0.1874366 0.12117913 -0.015050493 -0.05483206
0.37737864 0.30858094 0.11182752 0.91265905 0.3163215 -0.1574279 -0.08949986 0.13675517
0.34371665 -0.120878495 -0.013793837 -0.40910813 -0.7140324 0.4533757 0.055735998 0.2853363
0.08292236 0.24492604 0.4960261 0.36045402 -0.29801983 -0.29019204 -0.41656953 0.36908937
-0.034808334 -0.010702373 0.1680581 0.4630554 -0.28050998 0.12682314 0.3394886 0.08724021
0.2522202 0.44113505 0.46030033 0.0023604596 0.03821239 0.24679035 0.1337402 0.38856903
-0.008601118 0.11223463 0.20109354 -0.098303996 0.03911422 0.11349153 0.36256614 0.06547494
0.34676245 -0.21931945 -0.31037843 0.19801688 0.21341531 -0.03502483 0.19399965 0.121530265
0.25313056 0.20466962 -0.35277987 -0.45920622 -0.18215649 0.09678833 -0.10072517 -0.67886597
-0.6933989 0.05783008 -0.4935841 -0.14886436 0.10081816 0.3473191 -0.4484856 -0.3433398
0.23438068 -0.04842034 0.32572046 0.20335844 0.05542232 0.16334799 0.2265143 -0.43146592
0.26520213 -0.3759732 -0.7106973 -0.13475998 0.07582062 0.09619589 -0.18993613 -0.20576622
-0.06835971 0.013290892 0.4277532 0.04559379 0.2574301 -0.36958802 0.2674436 -0.053437322
0.14606042 -0.112315156 0.30148894 0.25612974 0.33664596 0.10680042 0.04763634 0.31132254
-0.41530818 -0.031172814 0.3209591 -0.050636113 -0.039203726 -0.0741934 0.23435076 0.32563937
0.1781652 0.39795172 0.36861244 -0.04085937 0.19468758 -0.02612015 0.15165205 -0.57807726
0.2757867 0.08931463 -0.800714 -0.07638137 0.3195171 0.038515944 -0.1248888 0.47797108
0.427047 -0.25965455 0.38972816 -0.16545658 0.13790329 -0.00910189 -0.40926656 -0.40765402
0.15493141 -0.011069567 0.13442934 -0.03559454 0.17783578 -0.492507 0.25985286 -0.029628774
0.29414177 -0.5675833 -0.47273555 0.21452112 -0.49865505 0.1807358 0.36600593 -0.35764876
0.0848604 0.29520357 0.31168514 0.16398549 0.15581359 -0.66156805 -0.18658507 -0.57381827

policy_head.bias f4 [110]
00000000: 39c5 a1be 3309 13bc 5ff7 afbd 039a 053e
00000010: 73bc a1be 17ea adbe 55a9 a03d 8997 c43d
00000020: 3abb d23d 2cc6 7cbd 082e 83bc 33fb 91bc
00000030: ba4a 1b3e 16d0 c13c 4907 4c3e 0233 fe3d
00000040: 53b6 cb3d 78aa 053e 5319 7b3e 0f2f 7c3e
00000050: c26f a73d 5471 4fbd 335c 19bc 557f 473d
00000060: 331e 193b 5994 5e3e d771 2e3e 7c3c 9b3c
00000070: 6951 bb3d 2f34 b23c b7e1 5b3b de6c 333c
00000080: 5edf 4c3d a302 093e 2e70 213d 816d 583e
00000090: c1e7 953d 10e5 ecbc 5b89 d53d 3723 373e
000000a0: dbdd 2a3b aa28 293e 28f9 c23d c442 463d
000000b0: 8d2c 3a3d c62f 103d 5cec 5d3e dac7 123e
000000c0: 26d7 bd3d 2ffa 4e3e 1e88 41bd 5e2f 253e
000000d0: 1c30 243e e41c ae3d 718b 8f3d 7c8d ac3d
000000e0: 3ec9 3a3e 5af6 393e 7e41 84be ffd6 9bbe
000000f0: d9dc b3be 9715 a3be 4e86 86be ddf9 61be
00000100: 0c7f 7fbe 77b1 9cbe 54c2 4abe ca50 39be
00000110: 3f97 7bbe 2757 66be 9d85 3cbe 7b97 b5be
00000120: d93b 61be b111 acbe efe3 a7be eaee a0be
00000130: a59f dbbe 1f48 6fbe 38e3 c8be 5856 88be
00000140: 3f46 c6be 0911 8abe e1e5 c3be 87ca 64be
00000150: 91af d6be 6a1f 76be 31e5 7dbe 854f c3be
00000160: 9f6b 9abe a1db 95be bdf8 babe 0978 babe
00000170: 1755 96be 8e15 80be 42d7 c5be 565a 72be
00000180: 436b 94be 4dcd a9be dd22 d2be 6bf6 82be
00000190: ad2c 50be f321 bdbe 16d6 89be d642 96be
000001a0: c8cc d4be f2d7 d3be 11b7 b0be 67cf babe
000001b0: fbab d2be f727 32be
-0.3159578 -0.008974361 -0.08592104 0.13047032 -0.31589088 -0.3396766 0.078447975 0.095992155
0.10289617 -0.06171243 -0.01601316 -0.017819976 0.15165225 0.023658793 0.19924654 0.12412073
0.09946885 0.1305331 0.24521379 0.24627326 0.08175613 -0.050645187 -0.009360361 0.048705418
0.0023363947 0.21736278 0.17035614 0.01894974 0.09146387 0.021753399 0.0033551285 0.010951249
0.050017707 0.13379912 0.039413624 0.21135522 0.07319594 -0.02891782 0.10426589 0.17884527
0.0026072178 0.16519418 0.09520179 0.048403516 0.045452643 0.03520181 0.21672195 0.1433405
0.09269552 0.20212625 -0.047248952 0.1613135 0.16033977 0.08501604 0.07009018 0.084254235
0.1824083 0.18160382 -0.25831217 -0.30437467 -0.3512943 -0.3185241 -0.2627434 -0.22067972
-0.24950808 -0.30604145 -0.19800693 -0.18097225 -0.24569415 -0.22494183 -0.18410344 -0.35467133
-0.21995486 -0.33607247 -0.32791087 -0.31432277 -0.42895237 -0.23367356 -0.39235854 -0.26628375
-0.3872547 -0.26966122 -0.3826132 -0.22342883 -0.41930822 -0.24035421 -0.24794461 -0.38146606
-0.30160233 -0.29269126 -0.36517897 -0.36419705 -0.29361793 -0.25016445 -0.3864079 -0.23667273
-0.28988084 -0.33164445 -0.41042224 -0.25578627 -0.20329542 -0.36939964 -0.26921147 -0.29347867
-0.41562486 -0.4137569 -0.3451467 -0.3648636 -0.41146836 -0.17398058

value_head.weight f4 [1, 64]
00000000: 72f2 45bc b533 643c 1cba 5ebb 8667 903d
00000010: d931 063c 7bac 033e 3c17 dbbb 34ba ba3b
00000020: 4974 46be 3767 e23d 9085 90bc 377c 5bbd
00000030: 4e84 d43d 82b3 aebd 31d3 533c b4e6 9c3d
00000040: eea5 97bc df83 493d e233 d5bc 011f aebc
00000050: b521 cbbc 8a18 c1bd 4311 44bd cac6 733d
00000060: 01c4 183d 5c90 573b 2bad 2ebd 9970 1fbe
00000070: 45aa 3d3c b7a3 b3bd 00cf cfbd 8abd 613d
00000080: 9b15 24bb 035f 76be 147b 30bd d81d c4be
00000090: 2712 edbc b4e8 a13c c310 cc3d f326 0dbd
000000a0: 8f5f c1bc 0b2e d0bd 9c6b 65bb 7317 973c
000000b0: d938 923d 9e0d d2bd c342 10bc a4f0 2bbd
000000c0: 37fe 65bc 400d 45bd 35fa dfbd 29e0 83bd
000000d0: 79f2 713d a24f 903c 34f9 bd3d 3d2d 65be
000000e0: c02c 06bc 33b7 71bc d5b6 2dbc 8bef b4bc
000000f0: f3f4 623d f0c9 303c 1f35 40bc 0270 b63c
-0.012081729 0.013928344 -0.0033985442 0.070509955 0.008190596 0.12858765 -0.0066861194 0.0056984667
-0.19380297 0.11054843 -0.017641813 -0.053585257 0.103767976 -0.08530332 0.01292877 0.07661191
-0.018511739 0.049198028 -0.026025716 -0.021255018 -0.024796346 -0.094285086 -0.047868025 0.059515752
0.0372963 0.0032892441 -0.042645615 -0.15570296 0.01157624 -0.087714605 -0.10146904 0.0551124
-0.0025037292 -0.24059682 -0.043086126 -0.3830402 -0.02893932 0.019764282 0.099641345 -0.034460973
-0.023605136 -0.10165032 -0.0035006767 0.018443799 0.07139749 -0.102565035 -0.00880498 -0.04197754
-0.01403766 -0.04810834 -0.10936395 -0.064392395 0.05906913 0.017616097 0.09276047 -0.22380538
-0.00818938 -0.014753151 -0.010602673 -0.02208688 0.055409383 0.010790333 -0.011731415 0.022270206

exp_avg f4 [128, 260]
00000000: 78d0 0a3a cf86 cbb8 7ad6 4939 e967 8539
00000010: a935 433a 0b31 1c39 7ebb a7b9 12cf 8a39
00000020: 8bf2 b039 3f0f 2837 56d4 c439 98ef 64b7
00000030: 5afb d439 10cf b1b7 71f9 1bb9 b17a 0fb9
00000040: c532 e637 3aed 2e3a 45c9 4cb9 1c60 a7b7
00000050: 001b ac39 4c49 5539 a343 1f3a fa6b 8538
00000060: a954 d2b8 3a84 123a a20e 9a39 fa8f c939
00000070: de94 e2b7 dc72 9939 a76f bc38 52eb 49b8
00000080: 52c1 4439 87ab 1138 b226 bab8 5161 9839
00000090: 178b c4b7 41c1 1bb8 a9d9 8eb7 d90c 373a
000000a0: 76e4 433a 6a9e 3f3a 2a72 3d38 4a20 4139
000000b0: 5f5c 1f39 e2f7 1339 c682 b837 3caa 8d37
000000c0: 1fc0 0e3a d51b 75b8 48f5 22b7 0864 c5b8
000000d0: 0400 0080 f90c c724 2a00 4f35 7c4f 0337
000000e0: 5648 29b6 3a2b 1137 d777 5bb8 4355 deb7
000000f0: 60c4 44b7 7555 ce39 19f2 b038 05b3 a738
00000100: 8520 a8b7 483b 0134 0400 0000 2e0a eab3
00000110: 009e 1a38 ef66 eeb6 53b5 7837 9b2f 3738
00000120: f253 af36 ab5b 1bb8 ad06 3eb8 48fb 8337
00000130: 29bd f338 751a 95b8 0400 0080 c8fb 8334
00000140: e488 1f1d 24a3 be36 7488 9a37 46e4 4238
00000150: 58e2 7f37 6781 1fb8 9134 90b8 ec96 3cb7
00000160: 2bbf a4b7 96be d5b7 ead1 2e37 a4a1 79b5
00000170: 33e2 9c35 e3bd c637 f342 7036 732d ceb6
00000180: caf9 e837 dc3c dab7 c87e 06b8 8ead 3338
00000190: 5f94 14b8 898f 9a39 f54d 5fb8 43b4 cf38
000001a0: 0400 0000 8b3e 4438 8779 3c07 f47d a237
000001b0: d267 c139 31f8 9f38 e340 9239 37f8 a739
000001c0: 167e c838 b3f9 8439 93e8 f839 691b 2939
000001d0: f0ef ec38 c3f6 33b7 ee8a a535 a81e 28b8
000001e0: 7b8a a438 6b4d 1639 75cd d139 026b bbb8
000001f0: 6b35 7f39 1959 88b7 3bb1 9239 4cf7 173a
00000200: 0b13 6c3a 3821 09b8 0400 0000 a70a 68b7
00000210: aaf0 b205 7f62 1639 2268 183a 5ba5 1938
00000220: 7fe4 7f39 0c12 8a39 47cb a539 2e24 f638
00000230: 2e6f d239 5754 0c39 ded0 4c39 0400 0080
00000240: 482c 7c38 2196 6338 343f 1238 ffda ddb5
00000250: 4542 5139 e22d e638 6af7 073a 6382 4b39
00000260: 9e2e 7e39 03d3 9939 b6d8 d339 9ad7 043a
00000270: 0400 0080 974a ba36 0400 0000 4ae4 4435
00000280: d5a7 f3b8 f6b9 49b8 4f80 65b8 cced 36b7
00000290: 40a4 73b8 7d59 c437 1307 6138 ef63 a538
000002a0: 3238 cfb7 73f0 f4b7 1857 1286 bbaf 0fb8
000002b0: a073 00b8 b35b 2fb8 6773 3c38 7d26 2a37
000002c0: 2684 1ab6 d3d8 6a35 f6e2 71b8 0400 0080
000002d0: 994b b337 b709 b1b7 1278 3b02 72cd 6938
000002e0: 6b84 ce36 0400 0000 daf1 0f38 69b8 acb8
000002f0: 4cad 97b8 5826 0339 b646 a639 3199 0036
00000300: e619 33b8 4825 ed38 0cae 26b7 e3b1 349e
00000310: 6f74 2eb7 3f26 93b8 4fea 6237 8f7c f2b7
00000320: b55d dcb6 c18e 82b8 ba37 f1b8 dd43 b5b8
00000330: 4549 07b6 cc94 aa39 337c abb7 75ac 1eb8
00000340: 62bc 9739 f66e 623a 3c0d 243a aa95 0c3a
00000350: 7539 38b9 4d92 203a 54e0 7a3a ab42 8e39
00000360: f1fa ed39 13d3 1139 3a5a 31b9 9f60 063a
00000370: b167 b439 5eb4 663a 3062 7d3a 0bed 863a
00000380: 3e3e 393a a822 6f38 b9b8 113a d840 653a
00000390: 7636 8039 83d4 2d3a f795 1038 7acb 2739
000003a0: 0d1f f9b8 06be c439 0899 093a e1c2 cd39
000003b0: 63d5 5b3a bc84 c539 ff68 c738 e7f4 613a
000003c0: 8b06 e939 b482 e339 cf8f b339 5263 dc39
000003d0: 4be9 033a 4654 263a 8bd1 273a 07bd f438
000003e0: 574e 9d37 a8f9 a538 db95 3c3a 7284 2f3a
000003f0: e67b e939 eca0 263a 039f df39 52d6 2a3a
0.00052953465 -9.7049044e-05 0.00019248753 0.00025445156 0.00074466557 0.00014895589 -0.00031992415 0.0002647569
0.00033750045 1.001713e-05 0.00037542236 -1.3645644e-05 0.00040623063 -2.1196465e-05 -0.00014874876 -0.00013683249
2.7441778e-05 0.0006672923 -0.00019529935 -1.9952706e-05 0.00032826513 0.00020340568 0.00060754473 6.3620464e-05
-0.000100293495 0.00055891613 0.0002938407 0.00038444978 -2.7010621e-05 0.0002926801 8.9853354e-05 -4.8141294e-05
0.00018764034 3.473044e-05 -8.876379e-05 0.00029064206 -2.342979e-05 -3.713486e-05 -1.7029075e-05 0.00069828104
0.0007472703 0.00073096773 4.5167435e-05 0.00018417943 0.00015197833 0.00014111356 2.1995405e-05 1.6887781e-05
0.00054454984 -5.8438472e-05 -9.713061e-06 -9.412324e-05 -6e-45 8.632447e-17 7.711375e-07 7.826715e-06
-2.5225067e-06 8.652738e-06 -5.232528e-05 -2.6504165e-05 -1.17282325e-05 0.00039355052 8.437428e-05 7.9965255e-05
-2.0042304e-05 1.2035628e-07 6e-45 -1.0898326e-07 3.686361e-05 -7.104936e-06 1.482417e-05 4.3674936e-05
5.225179e-06 -3.7040252e-05 -4.5305747e-05 1.5733429e-05 0.00011622377 -7.109802e-05 -6e-45 2.4583846e-07
2.1114246e-21 5.6814333e-06 1.8421772e-05 4.64658e-05 1.5251884e-05 -3.802907e-05 -6.876246e-05 -1.12408125e-05
-1.9639343e-05 -2.5480327e-05 1.0420083e-05 -9.2994946e-07 1.1688738e-06 2.3691862e-05 3.5801756e-06 -6.1445694e-06
2.7772872e-05 -2.6015965e-05 -3.2066164e-05 4.283856e-05 -3.542413e-05 0.0002948011 -5.3239946e-05 9.9041055e-05
6e-45 4.678829e-05 1.4179262e-34 1.9370556e-05 0.0003688918 7.62794e-05 0.00027895634 0.00032037657
9.5602285e-05 0.00025363042 0.00047475527 0.00016127307 0.00011298049 -1.0726685e-05 1.2333892e-06 -4.0082872e-05
7.8459234e-05 0.00014333955 0.00040016664 -8.9367866e-05 0.00024338595 -1.6253953e-05 0.00027979337 0.0005797043
0.0009005523 -3.2694283e-05 6e-45 -1.3830758e-05 1.6827446e-35 0.00014341807 0.0005813857 3.6632042e-05
0.00024403816 0.00026334857 0.00031622706 0.00011736933 0.00040137157 0.0001338286 0.00019532765 -6e-45
6.0122722e-05 5.4260836e-05 3.4867975e-05 -1.6529519e-06 0.0001995648 0.00010975801 0.0005186709 0.00019408161
0.00024240694 0.0002933965 0.00040406518 0.00050675275 -6e-45 5.5519154e-06 6e-45 7.3347894e-07
-0.00011618404 -4.8095324e-05 -5.471735e-05 -1.0903412e-05 -5.8088684e-05 2.3406692e-05 5.365077e-05 7.886427e-05
-2.4702491e-05 -2.9199035e-05 -2.7523534e-35 -3.425752e-05 -3.0625262e-05 -4.1808653e-05 4.493017e-05 1.0141751e-05
-2.3024709e-06 8.7487314e-07 -5.767025e-05 -6e-45 2.1373666e-05 -2.1104568e-05 1.3773049e-37 5.5742865e-05
6.154694e-06 6e-45 3.43191e-05 -8.235948e-05 -7.23252e-05 0.00012507418 0.0003171467 1.9162655e-06
-4.2701045e-05 0.00011307985 -9.9348945e-06 -9.565907e-21 -1.03983175e-05 -7.01663e-05 1.3525204e-05 -2.890665e-05
-6.56742e-06 -6.225473e-05 -0.000115021554 -8.643393e-05 -2.0159216e-06 0.0003253579 -2.0442623e-05 -3.783075e-05
0.0002894132 0.000863775 0.00062580756 0.0005362878 -0.00017569012 0.0006125316 0.00095701707 0.00027134022
0.00045391129 0.00013906909 -0.00016913647 0.0005126092 0.00034409532 0.00088006805 0.0009665815 0.0010294033
0.0007066465 5.7014317e-05 0.0005558837 0.0008745319 0.0002445464 0.0006631093 3.447194e-05 0.00016002162
-0.00011879029 0.00037525612 0.00052489387 0.00039245843 0.0008385984 0.00037673663 9.5086165e-05 0.0008619562
0.00044446098 0.00043394195 0.00034248686 0.0004203567 0.0005032017 0.0006344955 0.0006401769 0.00011670036
1.8752338e-05 7.914315e-05 0.0007193961 0.0006695456 0.00044533535 0.00063563767 0.00042652347 0.00065169216

exp_avg_sq f4 [128, 260]
00000000: 2298 c936 96b3 8836 253f 9e36 0999 ac36
00000010: 2d8c 0236 2376 3b36 21f4 4736 9849 0e36
00000020: 348a 0336 5be0 0e36 0888 5236 2f79 6736
00000030: 91ed 8d35 62fb 8e36 827a 9c36 5e2c b436
00000040: 76da 3536 2d4b 2336 4240 2636 d337 9236
00000050: 84be aa36 1919 8a36 ed79 0536 7c96 a436
00000060: 77a1 4d35 ecab b836 58e2 b736 49b7 7336
00000070: 4ac7 a536 a812 b336 d3a8 2336 54f8 1836
00000080: 327e 5a36 3f9c af35 045f 8b35 2531 e935
00000090: 2584 c735 d1b6 0136 6f52 d835 d57b 9e36
000000a0: 2269 a836 7e78 8736 6168 6636 f25e 3d36
000000b0: f072 8135 f15d 2236 5afb 3936 7a88 a035
000000c0: be45 9436 7fec f834 cdd3 7a35 de4e 2a35
000000d0: 9ab9 a72d 51d7 a632 9f1e cd31 3f1b 9132
000000e0: 1c0e 3034 09ed 2c34 6149 7d34 0313 ac34
000000f0: 70e3 ba34 bde4 0c35 faf1 e034 aef6 2035
00000100: 7ba0 ff34 9ec8 e131 9396 2030 ad8f 2233
00000110: b4aa 5433 e266 2334 45e5 a634 9886 3b34
00000120: 7927 d134 99a5 a334 5c37 e134 3ef5 8034
00000130: c15d 1635 42a1 6134 c094 3830 5e89 a732
00000140: 9b55 5530 4a53 5733 1e3f 3c35 2931 9434
00000150: 224d ef34 c22b d434 0e69 f034 4987 0835
00000160: f4ba fb34 5d6b e134 c3d3 fe34 7017 2b2e
00000170: bf92 2331 09e4 1933 75c5 8933 80af 2834
00000180: 9a29 a834 3a83 d034 fd26 a934 2404 d334
00000190: 71a9 ae34 1e53 2a35 01c9 d734 bd4b df34
000001a0: b5dd 1e33 7594 e334 0393 6133 fea5 3f34
000001b0: 2b1d 3f36 11b5 1536 81f7 3f36 4a7a a036
000001c0: aed9 9036 ffa6 a536 4e84 ac36 c71e 9836
000001d0: f82e dd36 54a6 0d34 88f3 f531 4be7 2235
000001e0: fb30 ae35 9125 1736 2ee9 0b36 a66a a535
000001f0: 45a0 0f36 7544 4036 b49f ad36 74ad 4136
00000200: d4d8 f836 c29d 3b36 8524 f731 355c 1c35
00000210: d165 d533 4765 1034 e800 f335 37f0 1336
00000220: 43e6 4236 1dbe 9236 cd6c a936 a53a b036
00000230: c721 d236 3747 a936 c6e0 b236 0606 ef2f
00000240: c857 7634 c554 9934 1f7f ff34 42b5 1836
00000250: 99a4 4236 d4b2 4c36 5f7c 7836 4c4d b136
00000260: d921 4b36 320a f736 28e8 eb36 35df d136
00000270: 7b9e 4030 7581 2933 058c 8732 abaf fa32
00000280: dcdf 6e35 782f 0735 74fc de34 3407 de34
00000290: 7529 5035 8a29 2a34 9c67 0134 3444 c334
000002a0: be7f cc34 c8d6 1c35 0ddf 9332 8d91 a834
000002b0: dd8a 4335 5c4f 8635 2f14 e834 a1f0 9533
000002c0: a251 8e34 8692 7c33 42f0 6135 8d21 c827
000002d0: 0412 f934 af1f 6933 ffd3 7430 0f2a 1d35
000002e0: 3211 b332 5b42 bc2c b4f8 1035 1ef4 2935
000002f0: 1d47 8135 9c8e 2335 07c5 8535 b9e2 0f35
00000300: 6191 7134 cfd9 e534 6bd0 de34 928a 3e31
00000310: ba56 3734 31a3 5233 e373 6734 6cd4 0d35
00000320: aa48 bf35 5f4f f734 9127 4034 f408 1835
00000330: 3acd 9333 4f68 0f35 292b b734 0698 e334
00000340: 4681 1937 880c 3e37 29ea 3837 1bf7 2937
00000350: 974d 1837 33db 2637 b4a1 1637 e2e6 f436
00000360: a204 0137 6bf8 ed36 ac5a db36 5393 ca36
00000370: b658 df36 debf 3537 0ad8 3f37 84dd 1737
00000380: a8a6 3937 40b3 2237 749c 2837 907f 2337
00000390: 37d3 ec36 c12a 0237 bc1c e036 0203 e136
000003a0: a387 cc36 54b2 dc36 1c4d 3037 5646 3837
000003b0: 98e4 3237 702e 3137 9c51 2837 cdf3 2837
000003c0: 1906 0437 0ee5 0d37 60df 0137 8d6b fe36
000003d0: 0492 f036 605a f836 bd67 f836 bb93 3937
000003e0: 392d 2637 1a51 3837 73ad 3e37 cb7d 2337
000003f0: 36a3 2337 3576 1d37 79b3 0e37 e3f0 0637
6.0079774e-06 4.0740224e-06 4.716118e-06 5.143815e-06 1.9453103e-06 2.7933936e-06 2.9795413e-06 2.1202486e-06
1.9600966e-06 2.129024e-06 3.137162e-06 3.449222e-06 1.057446e-06 4.2611946e-06 4.663424e-06 5.369583e-06
2.7098263e-06 2.433265e-06 2.477333e-06 4.357638e-06 5.0885737e-06 4.1156422e-06 1.9889515e-06 4.9050996e-06
7.6603413e-07 5.5036417e-06 5.480175e-06 3.6316508e-06 4.9405835e-06 5.3367876e-06 2.4387161e-06 2.279431e-06
3.2557987e-06 1.308399e-06 1.038396e-06 1.7374156e-06 1.4865115e-06 1.932891e-06 1.6117245e-06 4.723183e-06
5.0190292e-06 4.0373407e-06 3.4333427e-06 2.821846e-06 9.6447e-07 2.4194562e-06 2.7713454e-06 1.1960649e-06
4.4188628e-06 4.6365673e-07 9.344047e-07 6.34447e-07 1.9068126e-11 1.9422858e-08 5.9697665e-09 1.6892612e-08
1.639641e-07 1.6104981e-07 2.3589156e-07 3.205133e-07 3.4810682e-07 5.248692e-07 4.1899312e-07 5.996361e-07
4.7614216e-07 6.5711694e-09 5.842164e-10 3.7849237e-08 4.951535e-08 1.5217987e-07 3.1086725e-07 1.7464697e-07
3.8958004e-07 3.0481604e-07 4.1949795e-07 2.4020295e-07 5.6015784e-07 2.1013423e-07 6.7150197e-10 1.9503826e-08
7.76106e-10 5.013434e-08 7.0127305e-07 2.7602917e-07 4.457334e-07 3.9519915e-07 4.477992e-07 5.0860814e-07
4.688842e-07 4.1987633e-07 4.7465264e-07 3.8901715e-11 2.3803037e-09 3.5830485e-08 6.415477e-08 1.5710066e-07
3.1322708e-07 3.88385e-07 3.150707e-07 3.9304825e-07 3.253331e-07 6.3450887e-07 4.019312e-07 4.1592094e-07
3.6988883e-08 4.2390062e-07 5.25206e-08 1.7848649e-07 2.8478196e-06 2.2308125e-06 2.8605284e-06 4.782608e-06
4.3168757e-06 4.936824e-06 5.1414017e-06 4.533536e-06 6.591781e-06 1.3192158e-07 7.1581248e-09 6.068628e-07
1.2978265e-06 2.252262e-06 2.0848343e-06 1.2324497e-06 2.140195e-06 2.8650077e-06 5.1743937e-06 2.8860204e-06
7.416218e-06 2.7956999e-06 7.192798e-09 5.824871e-07 9.937106e-08 1.344789e-07 1.8105175e-06 2.204453e-06
2.9042283e-06 4.373271e-06 5.0492586e-06 5.252036e-06 6.26242e-06 5.044883e-06 5.3309805e-06 4.3478127e-10
2.294247e-07 2.856015e-07 4.7589944e-07 2.275527e-06 2.9004061e-06 3.050246e-06 3.7027273e-06 5.2840096e-06
3.026906e-06 7.3623605e-06 7.0305723e-06 6.25467e-06 7.007441e-10 3.946612e-08 1.5779742e-08 2.9183715e-08
8.898767e-07 5.0360495e-07 4.1534406e-07 4.1355963e-07 7.7546366e-07 1.5847596e-07 1.2051754e-07 3.6371205e-07
3.8090906e-07 5.8427077e-07 1.7214484e-08 3.139834e-07 7.2845233e-07 1.0006875e-06 4.3228053e-07 6.982123e-08
2.6508957e-07 5.8806584e-08 8.4168653e-07 5.5547527e-15 4.6392972e-07 5.4278356e-08 8.906795e-10 5.854826e-07
2.0846162e-08 5.3506483e-12 5.400609e-07 6.3312643e-07 9.631946e-07 6.0929756e-07 9.966615e-07 5.3601576e-07
2.2497763e-07 4.281305e-07 4.1502366e-07 2.7727407e-09 1.7074754e-07 4.9042857e-08 2.1555711e-07 5.283571e-07
1.4251757e-06 4.6065085e-07 1.7895788e-07 5.663744e-07 6.8825514e-08 5.342344e-07 3.411781e-07 4.2392656e-07
9.1496095e-06 1.13278e-05 1.1021774e-05 1.0130719e-05 9.077971e-06 9.945407e-06 8.978346e-06 7.298645e-06
7.690078e-06 7.09207e-06 6.537264e-06 6.03722e-06 6.656245e-06 1.0833113e-05 1.1434788e-05 9.051877e-06
1.1065662e-05 9.697687e-06 1.0050007e-05 9.745258e-06 7.0579367e-06 7.758558e-06 6.6790653e-06 6.7058727e-06
6.095464e-06 6.577271e-06 1.0508371e-05 1.0983631e-05 1.066285e-05 1.0560834e-05 1.00325815e-05 1.0070345e-05
7.869233e-06 8.457586e-06 7.741008e-06 7.5823104e-06 7.169556e-06 7.401497e-06 7.4030527e-06 1.10612555e-05
9.9049e-06 1.0986138e-05 1.1365267e-05 9.744846e-06 9.753558e-06 9.385451e-06 8.505646e-06 8.043108e-06

exp_avg f4 [128]
00000000: 9cb6 563a 3e38 12ba ff33 f339 614b d4b9
00000010: b6a2 c7b7 5c8d 7738 6d98 01b8 5ad5 21ba
00000020: db97 18b8 fd0e 843a 9096 ceba ed14 123a
00000030: c65f 6e3a 2b05 0439 c782 db3a e020 183a
00000040: efbf 4d3a 7877 aeba 81ff 4b3a 13e1 bb3a
00000050: d6bb 3aba 8fc1 933a 8b77 103a 18a2 bdb9
00000060: c4a8 7f3a a46a d339 77df b139 17df d039
00000070: 7965 db38 ed86 7bba 7f40 ef38 86d6 453a
00000080: b7fe 99b9 6d37 24b9 c101 c038 5d6b a4ba
00000090: 520b f9ba 4ac1 9c39 426c d839 a801 6cb9
000000a0: 9c37 a3ba 0486 b2b8 cb19 d039 5d7f 1bba
000000b0: b729 1aba 3fc0 6539 1301 a539 da32 4f38
000000c0: c5c9 bd3a cc01 93ba a426 d239 fd46 a0ba
000000d0: cf00 3eba 3a3e 393a 8d77 daba 52a0 2dba
000000e0: be79 873a f98e 01b9 f1d7 643a 59dc 533a
000000f0: 2cec bab9 bd56 a33a b142 85b9 e181 a73a
00000100: f2ff 84b9 6465 4cb9 04a5 dfb9 c387 ea39
00000110: b766 ac3a cad6 0238 aa24 893a 1f3a 9b38
00000120: 6dd5 06ba 5c58 7d3a 2bbc de39 75ce fcb9
00000130: 855e 5d3a 6d7a 5cb8 a254 6939 bd8e f339
00000140: 5bf8 253b 429b 16b9 ce56 c939 0400 0000
00000150: c369 24ba 98ba 5cb9 20a8 c63a cc5d 473a
00000160: db66 8bba c948 e9b9 c5cf 483a 65d3 a739
00000170: 1187 f039 cd3e 3b3a b0d6 a838 fdad 6ab9
00000180: 4e33 a53a 126c 3d39 89ee 6cba 91b4 5b3a
00000190: d44b e53a 9267 a739 6679 b53a 31b8 89b9
000001a0: ef09 5bb8 6961 88ba 4080 373a 0c97 5d1e
000001b0: c1ec 70ba d69b 1fb9 2a4b 75b9 0be8 ddb9
000001c0: e9d8 6b3a 08a0 9439 ec5a 79b9 0d9c 7e3a
000001d0: 773b 32ba 098f 583a f2f8 4839 ff00 0b39
000001e0: 05e9 7bba 761d 1eba a2de 033a de89 9839
000001f0: 5bc9 013a d7c9 1eba dd1e 8a39 4332 f5b9
0.0008190663 -0.0005577839 0.00046387312 -0.00040491953 -2.3798417e-05 5.902104e-05 -3.0897954e-05 -0.00061734545
-3.638105e-05 0.0010075268 -0.0015761424 0.0005572576 0.0009093251 0.00012590426 0.0016747349 0.00058032386
0.000784873 -0.0013310751 0.00077819085 0.0014334045 -0.00071233266 0.0011272895 0.00055109774 -0.00036169658
0.0009752626 0.0004032451 0.00033926565 0.00039839066 0.000104616345 -0.00095949956 0.000114084214 0.000754692
-0.0002937221 -0.00015660907 9.1556e-05 -0.0012544204 -0.0019000566 0.0002989865 0.0004127939 -0.00022507331
-0.0012452486 -8.512664e-05 0.0003969207 -0.00059317594 -0.000588085 0.00021910759 0.00031472053 4.9400005e-05
0.0014479688 -0.0011215745 0.0004008311 -0.0012228187 -0.00072480453 0.00070664624 -0.0016667709 -0.0006623316
0.0010335965 -0.0001235566 0.00087296875 0.00080818456 -0.00035652646 0.0012461763 -0.00025417426 0.0012779796
-0.00025367696 -0.00019492727 -0.0004265682 0.00044733108 0.001315317 3.1194453e-05 0.0010463197 7.401802e-05
-0.0005143497 0.00096643507 0.00042483336 -0.00048219008 0.00084445655 -5.2566105e-05 0.0002225214 0.0004645492
0.0025325033 -0.00014362953 0.00038402382 6e-45 -0.0006271863 -0.00021050347 0.0015156306 0.00076052244
-0.0010635512 -0.00044495452 0.00076603546 0.00032010223 0.00045877 0.0007142842 8.050853e-05 -0.00022380795
0.0012603791 0.00018064704 -0.000903823 0.00083810935 0.0017493912 0.00031929888 0.0013845384 -0.0002626791
-5.222292e-05 -0.0010405007 0.0007000007 1.1730878e-20 -0.00091905525 -0.00015221475 -0.00023393022 -0.0004232529
0.00089968607 0.00028347992 -0.00023780362 0.00097125844 -0.0006799022 0.000826106 0.00019166226 0.00013256444
-0.0009609613 -0.00060316117 0.00050304283 0.00029094418 0.0004950964 -0.0006057298 0.00026344406 -0.0004676749

exp_avg_sq f4 [128]
00000000: 3b64 8b37 b818 a937 7b02 9937 c589 0c38
00000010: e90b 0638 4b84 dd37 b862 2b37 bc3e a237
00000020: d186 1538 27b6 1838 ce79 f837 d8a9 0238
00000030: 1742 8237 d707 8237 07cd 0738 2377 1138
00000040: 11a5 2937 57af 8a37 3c4a 7438 4b8b d237
00000050: 4208 9c37 2f41 8f37 c93d 9437 4f48 f837
00000060: 9808 1f38 7560 e337 0515 f136 685b eb37
00000070: 31b6 a237 d353 1e38 7beb 0e37 ea41 2e38
00000080: e148 7037 8cd8 3237 99f4 1a37 5222 3338
00000090: 124f 5638 b5f2 c737 68d9 8137 7d71 4637
000000a0: 4b35 2938 14f8 8837 aa09 3937 f63f a437
000000b0: f58a c837 67c3 c137 5bd7 4437 7212 2836
000000c0: a3c3 b637 e875 1f38 0ac8 0038 493a 2b38
000000d0: 1115 8837 7e81 4137 5aa0 4738 6c09 8338
000000e0: 4d8c 7b38 c711 fc37 7a64 b737 f3b8 a437
000000f0: 2ab0 d337 1d43 0938 83cd 9f35 a77d 2838
00000100: 8963 4038 7098 ad37 3155 0538 0381 5537
00000110: 6599 c437 4ba8 6237 19d3 cc37 c148 a937
00000120: 5a25 b037 ae19 c237 3815 0338 00e4 c137
00000130: 1713 d837 72c9 0137 2a2b d137 0563 9537
00000140: e27d 7b38 b797 1837 a94f 2b38 05ce 5c28
00000150: 2d60 0c37 1477 9d37 d20e f138 5f68 5037
00000160: 3b7f 3538 8920 c337 3bb6 0538 2ebe c537
00000170: 8b84 8237 3dff a537 f54c 9d37 2683 b037
00000180: 25b1 8b37 3e4d 9e37 d7f8 2a37 e13d 0438
00000190: edc4 1d38 41e4 d636 f48c 7938 efc4 1d38
000001a0: 1c35 8637 1a66 6b38 0a1c 7937 7477 8f35
000001b0: 201b d337 6a1a a737 3cb1 2b37 2b11 6538
000001c0: 99dd 1938 35a2 a437 3562 e037 85bc c337
000001d0: 8521 0238 68d0 ae37 7f19 2a37 62b7 da37
000001e0: 099a 8f37 0c14 4738 bd10 8d37 8779 c037
000001f0: 84bc 3238 1b95 6b38 f385 9437 d1da 0636
1.6616765e-05 2.015788e-05 1.8240176e-05 3.350691e-05 3.195918e-05 2.6406857e-05 1.0215379e-05 1.9341118e-05
3.5649926e-05 3.6409267e-05 2.9620624e-05 3.1152595e-05 1.5527983e-05 1.5500858e-05 3.2377455e-05 3.468165e-05
1.01116175e-05 1.6532531e-05 5.824327e-05 2.5098814e-05 1.8600495e-05 1.7077282e-05 1.7671746e-05 2.9597575e-05
3.7916558e-05 2.7105425e-05 7.1848067e-06 2.8056747e-05 1.9396744e-05 3.7748203e-05 8.518687e-06 4.154622e-05
1.4322083e-05 1.06600455e-05 9.236065e-06 4.270889e-05 5.1095216e-05 2.3835668e-05 1.5479236e-05 1.1828143e-05
4.0342373e-05 1.6327984e-05 1.1029109e-05 1.9580108e-05 2.3906565e-05 2.3098384e-05 1.1732652e-05 2.5044687e-06
2.1787191e-05 3.8018363e-05 3.070388e-05 4.082386e-05 1.6222273e-05 1.1533846e-05 4.7594636e-05 6.248322e-05
5.997373e-05 3.004902e-05 2.1862088e-05 1.9636447e-05 2.5235193e-05 3.272585e-05 1.1906235e-06 4.0171344e-05
4.5869067e-05 2.0694191e-05 3.178901e-05 1.2725827e-05 2.343645e-05 1.35098335e-05 2.4416995e-05 2.0180249e-05
2.0998228e-05 2.313856e-05 3.1252595e-05 2.3113564e-05 2.5758096e-05 7.735902e-06 2.4934841e-05 1.7808294e-05
5.99603e-05 9.09523e-06 4.0843766e-05 1.2257127e-14 8.367043e-06 1.8771309e-05 0.00011494536 1.2422067e-05
4.3272255e-05 2.3260962e-05 3.1879386e-05 2.357279e-05 1.5558928e-05 1.9788387e-05 1.8751694e-05 2.1041906e-05
1.665258e-05 1.8871036e-05 1.0190727e-05 3.152888e-05 3.761512e-05 6.4042692e-06 5.94975e-05 3.7615126e-05
1.5998776e-05 5.6123456e-05 1.4848085e-05 1.0689096e-06 2.5165791e-05 1.9920251e-05 1.023366e-05 5.4613844e-05
3.668442e-05 1.9625857e-05 2.6748612e-05 2.3333598e-05 3.1025633e-05 2.0839463e-05 1.0138726e-05 2.607302e-05
1.7118657e-05 4.7463967e-05 1.6816304e-05 2.2944774e-05 4.2614076e-05 5.616723e-05 1.770535e-05 2.0094924e-06
