ppo_2layer_2048_epoch10/ppo_agent_episode_5900.pth (torch, 596626 bytes, 21 tensors)

fc1.weight f4 [128, 260]
00000000: 37f2 9ebd 4d03 bdbd 4cb6 38be cf0a 20be
00000010: b88b 69bd 95e5 20be 4ae1 e13c 38af 78bd
00000020: cd9c f2bd 824d 6cbe 5fdf babe c34b 9f3e
00000030: a156 2dbe 8444 d6bd 21de c1bd 0e51 7bbd
00000040: ced0 42be 47b6 eabd 203c 07bd fe24 37bd
00000050: efe5 a6bc 33e0 b9bd d496 60bc 483e d5bd
00000060: 5e9d 01be 3ba6 343e e22f 02be 2066 00be
00000070: 5d54 a0bd 0435 8abd df38 1cbe a146 723d
00000080: 276d ef3b b594 0bbe fe15 eebd e0c0 53be
00000090: 1218 fcbd 1257 abbe a0d8 5cbe 6bd8 c3bd
000000a0: fbcb 40bd dd2d 36be 161a 31bd af2e c6bd
000000b0: a20f 0dbe 23b3 44bd 8930 bebd 0460 82be
000000c0: 13b2 2dbe ec67 4cbe 0faa cbbd 69db 23be
000000d0: 529f 2bbe a8ae 8bbe 84a6 84bd e6b9 e13c
000000e0: 5f36 1b3c 3251 283d 7e38 acbd bf11 5f3d
000000f0: 301f 97bb c282 233d 466c a43d a7e4 c63d
00000100: dc08 b03c b578 1ebd 3a9f 13be f54c 4cbe
00000110: a1bf 743c 1942 abbc f350 57bd d78a c23c
00000120: 8a2a 9e3d b0d2 173d fb38 da3c 670a 233d
00000130: b3a8 f2bc 9907 cf3d 3cef 85be d5f1 e0bd
00000140: 2fc7 a03d 6b78 78bd 2893 0e3b f005 bdbc
00000150: d7af 39bd ef0c 9a3d 9d93 093d ccf4 4f3e
00000160: 9e29 d63d 4026 eebd 6ef7 ed3d 781c 55be
00000170: 923d 6ebe 83b3 45be 8670 61bd 9529 a1bd
00000180: f51f 273d e062 29bd ed10 95bd f6fc 323d
00000190: fde4 d23d bd73 283d 8eb8 a73c 8063 563d
000001a0: 2b67 0a3d 4a4a fb3c e857 9d3d c384 4f3d
000001b0: 4c69 ac3b 04a1 763d a8ed 89bb bd0c 0b3d
000001c0: 99d3 5c39 3011 fc3d a890 8e3d 50c8 37be
000001d0: 6ff6 b23d 69bf 633d 379a ff3d 2b27 a2bc
000001e0: 5cc5 d23d 22ff 2e3c 827b 98bc 4f71 9b3c
000001f0: 3eb1 213d 271a 243d f81a debb 7c32 de3d
00000200: 7743 053e 78f8 9bbd e8a3 cd3c c7f5 a33d
00000210: 2274 ff3b 3cf6 163e 2ff2 d43d e0bb d33d
00000220: 3bc0 bf3d 60d3 e43d dcb4 933d a6b1 ac3c
00000230: c770 003c e41d 8a3d 7ae4 143d 3014 1ebd
00000240: e37b 773d b7f8 263d dcad 14bd 0f8d 363d
00000250: 148c c63d ab4b 193d 2975 2cbc 92f3 f23d
00000260: 602f 7d3a ccbd c23d 7c4f 0d3c 355d 4a3d
00000270: e497 9e3b c917 173e 1dbc 96b8 5ed2 8e3d
00000280: 235d ec3d fdde 273d b89e cfbc 67a0 eb3d
00000290: d33c b83d 0935 a0bd e8e1 cf3d d659 c43d
000002a0: 7889 5dbd 7d02 aa3d b3b8 983d 316d ec3c
000002b0: 6b34 1d3e 357d 163d e5e6 343c d9c1 3abd
000002c0: 60fc 193e c915 b63c d018 563d 2f16 873d
000002d0: 4941 e73b 48ce 9d3d adf3 b63d c02c cc3b
000002e0: f326 a53d 9a85 d73d f588 97bc 9a00 073c
000002f0: b972 1c3c 242f 863c 1359 e53d a4b7 283d
00000300: c521 683e a07e b83b 6e91 fc3d 0878 4bbd
00000310: 4f0a 78bc 4243 8c3c cd0d d63d d847 813c
00000320: 81cb b7bd bf96 b0bd 68d8 e33d cab4 11ba
00000330: 1c88 1f3e 98d7 d83c 10d2 053c 1fa3 8bbc
00000340: d8cc 373d 00ae 4d3d c82d bf3d abee b03d
00000350: f89d 09bd d2a9 a03c 28f5 333d c262 953c
00000360: b58b 493d fa57 853d 3b1f 693d 2cc3 e1bd
00000370: 7aef 0d3d bdaa de3c d4fa da3c 428c cf3d
00000380: e21f ec3c 6401 c93c 538e e03b 8be5 203d
00000390: cef3 a93d fb69 4f3d 0eff 1d3d 65fb 203d
000003a0: 439d c83d eb8a 0fbe 41ec 3e3d abce 893d
000003b0: 3d2e e6bc 9508 933d 0689 353d 14fa d1bc
000003c0: 2ae1 44bd 9707 f63c 9f23 2f3c 8d88 173d
000003d0: 4922 ab3d e2df 0b3e ccbb da3d a423 9e3d
000003e0: 4ac6 9e3d d198 ca3c 2cab e43c 647e 87bc
000003f0: 93f8 2e3d 9012 303d 5e2f c13c 3f48 0c3e
-0.077610426 -0.09229145 -0.1803829 -0.15629123 -0.05701801 -0.15712579 0.027573247 -0.060713977
-0.118463136 -0.23076442 -0.36498544 0.3111249 -0.16927578 -0.10462287 -0.09466196 -0.061356597
-0.19024965 -0.11460548 -0.033016324 -0.044713013 -0.020373313 -0.09075966 -0.013707835 -0.1041227
-0.12657687 0.17641537 -0.12713578 -0.12538958 -0.07828591 -0.06748393 -0.1525607 0.05914939
0.007306713 -0.13630946 -0.116252884 -0.20679045 -0.123092785 -0.33464867 -0.21567011 -0.09562763
-0.04706953 -0.17790933 -0.043237768 -0.09676873 -0.13775495 -0.0480224 -0.09286601 -0.2546388
-0.16962461 -0.19961518 -0.099445455 -0.16001667 -0.16759995 -0.2728169 -0.06477073 0.027554464
0.009473412 0.04109306 -0.084092125 0.054460283 -0.004611872 0.039919622 0.08028464 0.09711581
0.0214886 -0.038689334 -0.14416209 -0.19951232 0.014938266 -0.020905541 -0.052567434 0.023747845
0.077229574 0.03706616 0.026638499 0.039804842 -0.029621458 0.10108871 -0.26159084 -0.10983626
0.07850491 -0.060661715 0.0021755192 -0.02307412 -0.04533371 0.07521998 0.03358804 0.20308226
0.104571566 -0.11628389 0.11619459 -0.20811641 -0.23265675 -0.1930676 -0.05503895 -0.07869259
0.04080196 -0.04135406 -0.07278619 0.043698274 0.10297582 0.041126 0.020473745 0.052340984
0.033789795 0.030675072 0.076827824 0.05066372 0.005261576 0.06021215 -0.004209239 0.033947695
0.00021059661 0.12307966 0.06961185 -0.17947507 0.0873841 0.055602465 0.12480586 -0.019794067
0.102915496 0.010680946 -0.01861358 0.018974928 0.039475672 0.040064003 -0.0067781173 0.10849473
0.13014017 -0.07615751 0.02510257 0.08005863 0.0077958265 0.14742368 0.10397755 0.10338569
0.09362837 0.11173129 0.072122306 0.021080803 0.007839388 0.067439824 0.036350705 -0.03859347
0.060420882 0.040764537 -0.036298618 0.044568118 0.096946865 0.03742568 -0.01052598 0.118628636
0.00096582435 0.09508857 0.008624908 0.049405295 0.004839884 0.14755167 -7.187596e-05 0.06973718
0.11541202 0.040984143 -0.025344238 0.11505204 0.08995976 -0.07822616 0.1015051 0.09587447
-0.05408618 0.08301256 0.074571036 0.02886066 0.15352027 0.0367405 0.011041378 -0.045595024
0.1503768 0.022227185 0.052269757 0.06596028 0.007057343 0.07705361 0.08933196 0.0062309206
0.080640696 0.10523529 -0.018497923 0.0082398895 0.009548836 0.0163799 0.1119863 0.04119076
0.22669132 0.0056303293 0.12332426 -0.049675018 -0.0151391765 0.017121915 0.10451851 0.015781328
-0.08974362 -0.086225025 0.111252606 -0.00055582507 0.15579265 0.02646999 0.008167759 -0.017045556
0.04487309 0.050214767 0.09334904 0.08639272 -0.033597916 0.019612227 0.04393497 0.018235568
0.0492055 0.06510921 0.05691455 -0.11023554 0.03465221 0.027181024 0.026730932 0.10134174
0.028823797 0.024536796 0.006852904 0.03928141 0.08298455 0.05063818 0.038573317 0.03930225
0.0979562 -0.14017837 0.046612028 0.06728872 -0.02809822 0.07179371 0.04432013 -0.025631942
-0.048066296 0.030032916 0.010689645 0.03699546 0.08356149 0.13659623 0.10680351 0.07721642
0.077526644 0.024731072 0.027913652 -0.01653976 0.042717528 0.042986453 0.023582157 0.13699435

fc1.bias f4 [128]
00000000: 15d7 cdbb 323d 8dbd 357d 353d 1685 963d
00000010: 75cc 08bd e92c acbc fa6c 98bc e918 073d
00000020: 13e7 15bd 4ca4 dfbb 1222 89bd 7cbc a4bb
00000030: 57be c5bc cb7d 963d e8ba 933c 3e48 343d
00000040: af31 9f3c 14e0 9f3d cd93 1a3d d03c 49bc
00000050: 4ba7 91ba 8452 86bc c931 1a3d b1ca 3c3d
00000060: ce6b afbc 7f1f 4b3d 57db 11bc 5e2f 093d
00000070: 6553 78bc 4434 25bd 52ec 3bbd 8488 443d
00000080: 7e80 a63c dc47 b6ba ef71 283d 1779 053d
00000090: f7c9 db3c 1227 903d 1516 473d f264 953d
000000a0: 38c6 763d 11e2 3c3d f975 873d 0e38 b03c
000000b0: 62f5 513c db94 80bc 21bd 3b3c ea79 4a3c
000000c0: e122 8e3d f397 793b aad0 05bd 3982 903d
000000d0: 4ea1 813d 0046 b93c d97a a03d bef7 9c3d
000000e0: d287 063c 68fc 423d baab 26bc 2939 013d
000000f0: c5e4 8d3d b59d 77bb c16f 843d 1494 443c
00000100: b7e9 a83c fb8f 0abd f370 fb3c 8bb0 a93c
00000110: 89ae b9bc 547f 0d3c c33b c93c 5a52 a23c
00000120: 9439 563c ae4e cabc 6f19 32bd c675 8cbc
00000130: a3eb 5e3d f61d 033e 922f 28bd 1366 21bd
00000140: 362d 5bbd 9085 373d 1b16 cdbc 6fda a4bd
00000150: 0373 f33d bd32 643d fe26 9a3d 5049 1dbb
00000160: 5781 3a3d 8afc 12bd 09e0 0ebd 4bcc ba3c
00000170: 0050 58b9 cda9 16bd e9f7 d3bc a492 1c3d
00000180: 7f92 1a3c c759 013d 6921 9bbb 7497 c0bc
00000190: cb8e 7a3d bb86 82bd 0be5 e9bb a68d 843d
000001a0: 0fdf 553d 3280 4f3d 93a5 733d dd0c 163c
000001b0: dfa9 36bc 07bd 6cbd b210 ea3d 8745 de3d
000001c0: 8aaf 42ba 070e 2dbd c897 183d 86fe 933c
000001d0: 6ac7 35bd 68ef 42bd 7f94 2dbd f380 463c
000001e0: d8b8 5f3d b902 d03d c848 0abd d10a 593c
000001f0: d783 de38 49cf 1dbd ce75 ce3c 9096 62bd
-0.0062817433 -0.06896438 0.04430886 0.07349603 -0.03339811 -0.021017509 -0.018606652 0.03298274
-0.036597323 -0.0068250056 -0.066959515 -0.005027352 -0.024138613 0.07348212 0.01803346 0.044014208
0.01943287 0.078064114 0.03773861 -0.012282565 -0.0011112479 -0.016396768 0.037645135 0.04609174
-0.02141371 0.049590584 -0.008902392 0.03349244 -0.015156602 -0.040333048 -0.04587967 0.047981754
0.020324942 -0.0013906914 0.04112428 0.032586183 0.026829703 0.07038702 0.048605043 0.072946444
0.06024763 0.04611403 0.066142984 0.021511104 0.0128148515 -0.01569598 0.011458666 0.012358168
0.069402464 0.0038084954 -0.0326697 0.07056088 0.063295946 0.022616386 0.07835931 0.076644406
0.008211093 0.047603995 -0.010172779 0.031548653 0.069284 -0.003778321 0.06466628 0.011998195
0.020619256 -0.033828717 0.030693507 0.020714065 -0.022666233 0.008636314 0.02456463 0.019814659
0.013075251 -0.02469572 -0.043481287 -0.017146003 0.05442394 0.12804398 -0.04106099 -0.039403986
-0.053509913 0.04480511 -0.025034955 -0.080494754 0.11887171 0.05571245 0.075269684 -0.0023999996
0.045533504 -0.03588537 -0.034881625 0.022802493 -0.00020629168 -0.03678303 -0.025875049 0.038225785
0.009434341 0.03157976 -0.0047342074 -0.023509718 0.061171334 -0.06373354 -0.0071378998 0.0647233
0.05221468 0.050659366 0.059484076 0.00915834 -0.011148899 -0.057797458 0.11428966 0.10853105
-0.000742667 -0.042249706 0.037254125 0.018065702 -0.04437963 -0.047591597 -0.042377945 0.012115705
0.05461964 0.10156769 -0.033760816 0.013247208 0.00010610342 -0.03852776 0.025202658 -0.05531937

fc2.weight f4 [64, 128]
00000000: 85b9 b53d 6a5c 8cbd 27c1 2f3e d782 debc
00000010: 6ad5 85be afba a63e b743 043c 532b 6dbd
00000020: 173c a33d 3647 7e3e 3ef1 77bd dc03 a03e
00000030: f4a6 1dbd b5ee 683e b456 e43e c339 773d
00000040: b8ac ca3d 3593 86be 1d38 993e 5daa 8f3e
00000050: 63f5 253e d742 403e 96e6 0c3d 2a9e 543e
00000060: 5244 ed3e 26d4 833e 1f2a 6d3d 4412 c13d
00000070: 9791 d83d fe3c bb3e b1f4 e1bc b3c2 2dbc
00000080: 8e8b 353e d1fc 163d 4469 d23d e692 04be
00000090: b14e 2ebe d9ab 4abe bea7 47be 004a 96be
000000a0: 972e 86be f188 23be 9cc9 3eba 251a eebc
000000b0: dc43 45be c54e 0a3f a1f9 d63a 47d3 d7bd
000000c0: 146a a03e fcc8 dcbc 8703 f83d 045b 22be
000000d0: 81a2 6ebe 54ac f63a ae5a e53d 3713 b43d
000000e0: c6b3 2a3e 14a0 9abe 8293 803e 6032 cf3d
000000f0: be1d 0d3e 7b3e f53e 6b07 a23d cea6 c4bd
00000100: a9b7 c7bd 2cc4 333d da66 ca3d f298 b1bb
00000110: cdfa 373e cbb8 36be 51e2 ba3e 0b83 cabd
00000120: 004d 813e 7e51 b23e 75c6 803c 3b2f fdbd
00000130: 6bea b03e a1f1 e43b 4f51 a03c 4a54 4bbe
00000140: b2cb 203f 292f 8e3d 4be2 25bc 63fb 2f3d
00000150: a433 5ebe ce96 793d 68f7 3fbe 2074 a13d
00000160: b79c e1bd aaff 093e 78b5 9fbd cfa3 b73d
00000170: dcc2 4e3e ca32 4c3e 2f9d 86be ee85 8c3c
00000180: d90d 2a3e 1907 4b3e e1ae fbbd dfa4 703e
00000190: 97e8 763e c08f be3d 764f a7bd 7673 443c
000001a0: 8a25 d43e 5a42 7fbe 293b 033e 94e6 a73c
000001b0: f50f e4bd d09b 9abc 504b 47bd ef7f 993d
000001c0: 0f0a 6cbd 5c91 d33e 6ba1 40bd 0617 523e
000001d0: 3863 d13d 035b c13e 36d6 a2bb 878a 063c
000001e0: 4eb9 043e a70b 83be 9151 273e 9d9b 153e
000001f0: 3a5b 933d af38 623d 3366 dfbb 8067 5fbc
00000200: 9d4f 943d 82e8 203e 711c f1bd 7c92 da3d
00000210: 8ccd 7cbd 26c0 903e 8f5c b8bd 6997 26bd
00000220: e6cc 7b3d c2d1 023c 8d8f b8bc a14d 0bbe
00000230: 164b 7f3e 5426 ad3c 2788 813e 83bf 1abd
00000240: 9539 483d cfaa 05be 0d8f 1c3e f8aa 003c
00000250: f333 723d 84e3 123e c71a 043e a43d c43d
00000260: 08ee 863e 2be3 1b3e 9357 eabd 0bbe 923d
00000270: 2683 3bbe b254 343d 56e6 3dbe 7b13 36be
00000280: c24d ebba 7b47 953d 9c1e 873a 14cb 113e
00000290: 4a81 5b3e a74c 3bbe 98d2 6a3c 575d 1b3e
000002a0: 5038 08be 948b 99be ded3 babd aef8 963d
000002b0: 555a 4bbe d55f 793e 4cb1 e6bd 2a91 a2be
000002c0: b5d7 5f3e 5d4f b1bd f7d2 2dbc 1639 b0bc
000002d0: bc69 96be ae20 ed3d d406 6fbd e7db cf3d
000002e0: 8c14 11be fd8c 0ebe 106f 153b 1cdf 1d3e
000002f0: 90a9 573e c486 8a3c ecf1 1cbe 2018 85be
00000300: 75dc e3bd 9b6a d23d ae40 93bd 286f 543d
00000310: ce30 533e 2b5b f13d 5ba1 e13d a8a1 1b3d
00000320: 0007 113e b8c2 813d f0ba 903d 8922 42be
00000330: 422f f93d 44e2 3a3d 2ae3 e53d f9e0 09be
00000340: 4e65 763e 49fd 5fbe fc8f 6e3e bfe1 83bd
00000350: 45ca cebc 9127 1cbd 5297 0b3d 7308 b83d
00000360: 7172 113e 5d62 363e c966 c7be eaf2 f63d
00000370: 9cca 1d3e 9e00 66bd 4fdc 413e 061f ef3c
00000380: 583e d73d 5009 803c d89e 11be 5907 ac3d
00000390: 9f15 e3bd b99b a43d fb19 83be 8604 f3bd
000003a0: 6b0c 7e3d 00ec 853b a9b6 e0bc 2393 8ebe
000003b0: ef53 113e 91ec c33d e8af 513d 2302 20bd
000003c0: 7cd4 91be 8ec0 eebd 3adb 97bc 4185 a03c
000003d0: 5682 893d 6468 88bd 8ef5 d6bd 92db 523d
000003e0: d595 a5bd bd4a cfbc 8596 f53b 971e 563e
000003f0: c41a 7fbe e414 0f3e 9ec4 ae3d 58ff 073e
0.08873276 -0.06853564 0.17163526 -0.027161999 -0.26139385 0.32564303 0.008072785 -0.057902645
0.079704456 0.24831852 -0.0605328 0.31252944 -0.038489297 0.2274731 0.445974 0.06035782
0.09896225 -0.26284185 0.29925624 0.28059664 0.16206889 0.18775497 0.03439959 0.2076346
0.46341187 0.25747794 0.057901498 0.09427312 0.10574644 0.3656997 -0.027582498 -0.010605502
0.17729017 0.0368622 0.10273984 -0.12946662 -0.17022206 -0.19792117 -0.19497582 -0.29353333
-0.2620742 -0.15970208 -0.0007277967 -0.029065201 -0.19264168 0.5402644 0.00164013 -0.10538345
0.3133093 -0.026951306 0.12110048 -0.15855032 -0.23304178 0.0018819668 0.111989364 0.087927274
0.1667014 -0.30200255 0.2511254 0.1011703 0.13780877 0.4789923 0.07911571 -0.09602128
-0.09751827 0.043888256 0.09882899 -0.005419844 0.17966767 -0.1784393 0.3650079 -0.09888276
0.2525406 0.348278 0.015719632 -0.12362524 0.34553847 0.006986812 0.019570021 -0.19856372
0.62810814 0.06942589 -0.010124753 0.04296435 -0.21699387 0.060934834 -0.18746722 0.07883477
-0.11016219 0.13476434 -0.07798284 0.08966791 0.2019152 0.1994125 -0.26291797 0.017153706
0.16606845 0.19826926 -0.12289215 0.23500393 0.24112163 0.09304762 -0.08169453 0.011990419
0.4143489 -0.24927655 0.12815537 0.02049569 -0.11135856 -0.018873125 -0.048655808 0.074951045
-0.05762678 0.41321838 -0.04702894 0.20516595 0.102240026 0.3776475 -0.0049693836 0.008211738
0.12961313 -0.25594828 0.16339709 0.14610143 0.071951345 0.05522984 -0.006817603 -0.013635516
0.072417475 0.15713695 -0.11773003 0.10672471 -0.061719462 0.28271598 -0.09002029 -0.04067174
0.061474703 0.0079845805 -0.022529388 -0.13603832 0.24930987 0.02113644 0.25299188 -0.037780296
0.04888304 -0.1305344 0.15288945 0.007853262 0.059131574 0.14344603 0.1290084 0.095820695
0.26353478 0.15223376 -0.11442485 0.07165154 -0.18311748 0.044026084 -0.18544897 -0.17780869
-0.0017952251 0.072890244 0.0010308805 0.14237624 0.21436039 -0.1829096 0.014332436 0.15172325
-0.13302732 -0.29989302 -0.09122442 0.07371651 -0.19858678 0.24352963 -0.112642854 -0.31751376
0.2185963 -0.086577155 -0.01060938 -0.021511596 -0.29377544 0.11578499 -0.05835612 0.10149365
-0.14167994 -0.1392097 0.0022801794 0.1541714 0.21060777 0.016909964 -0.15326661 -0.25994968
-0.11126033 0.1027424 -0.07190071 0.05186382 0.20624086 0.11784967 0.11017104 0.037995964
0.14162827 0.06335968 0.070669055 -0.18958487 0.12167217 0.04562594 0.11224969 -0.13464727
0.24062082 -0.21873964 0.23297113 -0.06439542 -0.025242934 -0.03812367 0.034079857 0.089859866
0.14203812 0.1781096 -0.38945606 0.12058051 0.1540932 -0.056152932 0.18931697 0.029189598
0.10509938 0.01562944 -0.1422075 0.08399839 -0.11088108 0.08037514 -0.2560576 -0.11866097
0.06202356 0.0040869713 -0.02743085 -0.2784663 0.14192174 0.09566606 0.051193148 -0.039064538
-0.28482425 -0.11657821 -0.018537153 0.01959479 0.06714313 -0.06660536 -0.104960546 0.05147893
-0.08085219 -0.025304193 0.00749475 0.20910107 -0.24912554 0.13972813 0.085335955 0.13281

fc2.bias f4 [64]
00000000: 50f0 b63c bfd0 9b3d 4445 2cbd 7ac9 5a3c
00000010: afb7 e0bd 1039 44bc eca6 1b3d 42de 8bbd
00000020: 4b12 053d bb26 9c3c bb74 a8bd f53f 513b
00000030: f7f1 8ebd 50a9 873d c8e8 a5bd e4e3 96b9
00000040: 8e3a 11bd afd5 633d 6ded fa3c 7d9f 4a3d
00000050: 1824 8a3c 3e2a a9bd 6d9d 51bd 06f0 803d
00000060: 4f93 993d b6fa 3d3b 0241 a63d 3ee9 0e3e
00000070: e122 833d c4d9 78bc dbef 6ebd 41c1 b4bd
00000080: 948a 5dbb 3887 853d 8ac5 edba 18d5 76bc
00000090: ea45 e63c 26be f73c 72fe 083e 031e b2bc
000000a0: 5551 7dbd 340f 283b c5b3 e5bd 97e8 57bd
000000b0: a9af f1bb 0934 f53d 5f13 c6bd e9db 0d3c
000000c0: b650 46bd e9c1 ae3c 78f0 0f3e ed77 9ebc
000000d0: afd2 133e 075c a73d 007f b83d 95e5 b03c
000000e0: 9c81 d9bc 35e0 7e3d deca 89bd bed3 3c3c
000000f0: 369b 3f3c 89b1 713e 82d3 473c abac c33d
0.022331387 0.076081745 -0.042058244 0.0133537 -0.10972535 -0.011976495 0.038000986 -0.06829502
0.03248815 0.019061437 -0.082253896 0.003192899 -0.06979745 0.06624091 -0.0810104 -0.0002878002
-0.035456233 0.055623706 0.030630792 0.049468506 0.016862914 -0.0826001 -0.051175524 0.06295781
0.074988 0.0028988547 0.08117868 0.13956162 0.06403137 -0.015188638 -0.058334213 -0.08825923
-0.0033804523 0.065199316 -0.0018140536 -0.015065454 0.02810951 0.030242037 0.13378313 -0.021742826
-0.061845142 0.0025643827 -0.11215929 -0.05271205 -0.0073756767 0.119728155 -0.096716635 0.008658388
-0.048416816 0.021332698 0.14056575 -0.019344294 0.14435838 0.0817185 0.09008598 0.021593848
-0.02655106 0.06222554 -0.06728147 0.011525093 0.01169472 0.2360288 0.0121964235 0.09554418

policy_head.weight f4 [110, 64]
00000000: ab30 c43d 8449 51be 3b40 b63e e9f4 8fbe
00000010: 25bc 9bbd d9f5 1dbf ee03 e0bd 185e bc3d
00000020: 3f07 423f 3c8b efbe cd90 41be 00d0 c23d
00000030: 9f67 b9bd fe99 2e3d cb5f e6bd ce52 d9be
00000040: eefa 77bd 2fd8 8ebe 447e f13e 3ff5 18bf
00000050: f14b f83e 02b2 09bd 9203 ab3e 3197 a4be
00000060: 9fb5 8bbe 5394 97be 4228 c03e 628c b43e
00000070: 1bdb d6be 279f 0b3d 207c 2cbb 36fa 553e
00000080: ee86 1f3f 8452 823e ac56 103e f9d2 823f
00000090: 8593 003f 854f fabd d0c1 89bd 8b98 4e3f
000000a0: 7087 a73e 758f ffbd bc16 88be 1420 1dbf
000000b0: 316a 25bf d60b 1a3f b78a 093e 3f6f 013d
000000c0: 786f a0ba c637 183f fa31 e43e 926e 6a3e
000000d0: afc3 d0bd d5df dfbe 2494 e1be e8fd de3e
000000e0: 5df4 563d 342e a0be 398d 523e d4bd 2b3f
000000f0: 0acf 78be 8e3c a03e 652c d23e ea6a 493e
00000100: d37f a63e d532 34be 47fb 833e 62ee 1abe
00000110: af6f 75bd bf03 77bf 5ec0 ac3d 7662 1a3e
00000120: e350 273f 3fd8 4abf 6d12 6f3d e1ee b93d
00000130: 409b 083d 15b9 09bd 0d9e b8bd be14 c8be
00000140: 34ae d7bd ef04 04bf 65df 023f fa51 35be
00000150: 0bd0 983e 82bd 6e3c 9a57 ef3e e2d4 77be
00000160: a40e 58be cda9 3dbe e93e df3e a2da 6b3e
00000170: 7129 55be c42c f83d 5896 76bc f559 f5bd
00000180: 6e3c d23e 52fe 9d3e d4bd 433c 2561 323f
00000190: 84c3 983e 6218 2cbe c90c 67bd 1758 b53e
000001a0: c379 b23e 258f f7bd eb90 2fbc 532f d7be
000001b0: a31d 34bf 896b c13e 1487 2a3d 7884 a73e
000001c0: cc42 af3d c256 9c3e 4e66 f83e 8417 c33e
000001d0: 43cd 94be 3b5c afbe 92b5 c4be 48f9 bc3e
000001e0: 2f93 0ebd 2d12 73bd b07b 223e 326e 0a3f
000001f0: 3774 95be 1f0e 133e 2466 b63e 58e5 033e
00000200: 27f9 813e b8c6 cb3e 2828 e63e 11e6 6fb9
00000210: a06d 003d a45e 793e e320 013e 5b8e ca3e
00000220: 27e2 0cbc 078a 003e 9da8 4b3e 64bf bdbd
00000230: 3b36 203d 3f6e e83d 60c6 b93e 3806 a23d
00000240: 061f a63e 8a62 5ebe 62a3 a3be 8402 5c3e
00000250: 2759 493e 3276 0fbd a404 253e 3dab 0f3e
00000260: 324a 803e 8149 6d3e 8ef3 acbe c0aa dbbe
00000270: 4264 2fbe f638 c63d ff48 cebd 8b53 00bf
00000280: 7966 17bf 3cdf 6c3d ca9e c9be 9329 0fbe
00000290: 8b37 713d a631 b33e 6f2f dcbe 7bdc c8be
000002a0: adb5 443e 6854 46bd 2f58 aa3e 280a 7a3e
000002b0: e9bd 643d 21de 1f3e e410 4f3e b824 d5be
000002c0: fff2 883e 94de c1be 3859 27bf da1f 0cbe
000002d0: c7b2 963d 1599 003e 139e 41be 61b4 52be
000002e0: 2d00 8cbd e9b5 583c af30 d53e bcec 6c3c
000002f0: 8ac4 813e a63c b6be ab66 763e 1173 81bd
00000300: 7db4 fe3d eb04 c3bd b1d6 923e c15c 833e
00000310: b642 af3e 8c5a ec3d ab01 173d 1316 903e
00000320: 46a3 d4be 02cd c6bc 2971 a13e 1c8e 50bd
00000330: 1694 20bd b6f2 97bd 157b 583e f243 a13e
00000340: e26d 253e 8e09 cd3e 6674 bd3e bcf2 18bd
00000350: 4ab3 3a3e edf9 d5bc 0de4 0c3e e4f1 10bf
00000360: 526f 813e e281 7a3d 63ac 45bf 504c 8abd
00000370: 962a ab3e e5c2 1d3d b3c5 ffbd e51e f43e
00000380: 222d dc3e 71f1 84be 1624 cd3e 83a0 d7bd
00000390: a1cd 1c3e bf34 1abd d7a6 c8be 48a9 bdbe
000003a0: c0a2 273e 215d 35bc 97a4 e93d 295b 4dbd
000003b0: 4068 303e 43ab fbbe 1add 823e 309e cbbc
000003c0: cb44 8c3e 639c 0bbf 1397 e4be cdd4 673e
000003d0: 6e80 f8be 92c6 3a3e 1f25 c13e bd1d b7be
000003e0: 4acb ad3d 9f10 983e 4961 923e 0a7f 1f3e
000003f0: 9d9d 1e3e f976 23bf 95dc 4dbe fb9f 0bbf
0.09579595 -0.204382 0.3559588 -0.2811654 -0.07604245 -0.6170326 -0.109382495 0.091976345
0.75792307 -0.46785915 -0.18902893 0.09512329 -0.09052967 0.042627327 -0.1124874 -0.42445987
-0.06054204 -0.2789931 0.47166646 -0.59749216 0.4849544 -0.033617027 0.3340116 -0.321466
-0.27287003 -0.2960535 0.37530714 0.35263354 -0.4196404 0.034087326 -0.0026319101 0.20896229
0.6231526 0.2545358 0.14095563 1.0220634 0.50225097 -0.122221984 -0.0672642 0.8070151
0.32720518 -0.12478534 -0.26579845 -0.6137707 -0.6461516 0.6017431 0.13431822 0.031600233
-0.0012240252 0.59460104 0.4456938 0.22893742 -0.10193574 -0.43725458 -0.44058335 0.4355309
0.052479137 -0.3128525 0.20561685 0.6708653 -0.24297729 0.312962 0.41049495 0.1966969
0.32519397 -0.17597516 0.25777647 -0.15129998 -0.059920963 -0.9649009 0.08435129 0.15076622
0.653578 -0.79236215 0.05836718 0.09078766 0.033351183 -0.033623774 -0.09014521 -0.39078325
-0.105312735 -0.5157003 0.51122123 -0.17707053 0.29846224 0.014571549 0.46746522 -0.24202302
-0.21099335 -0.18521805 0.43602684 0.2303262 -0.2081659 0.12117913 -0.015050493 -0.119800486
0.4106173 0.30858094 0.011947114 0.6967948 0.29836667 -0.16806176 -0.056408677 0.3541877
0.34858522 -0.120878495 -0.0107157035 -0.42028293 -0.7035772 0.37777355 0.041632727 0.32718253
0.08557662 0.3053494 0.48515552 0.38103878 -0.29062852 -0.34250054 -0.38419777 0.36908937
-0.034808334 -0.059343506 0.15867496 0.54074395 -0.29190227 0.14360856 0.35624802 0.12880456
0.253854 0.39800048 0.44952512 -0.00022878523 0.031354547 0.24352509 0.12610202 0.39561734
-0.008598841 0.12552653 0.1988854 -0.092650205 0.03911422 0.11349153 0.3628416 0.079113424
0.32445544 -0.21717277 -0.3196059 0.21485335 0.19662915 -0.03502483 0.16115052 0.14030166
0.25056607 0.23172571 -0.33779567 -0.4290371 -0.17128089 0.09678833 -0.10072517 -0.50127476
-0.59140736 0.05783008 -0.3937896 -0.13980703 0.05889086 0.34998816 -0.4300494 -0.39230713
0.19209929 -0.04842034 0.33270404 0.24417937 0.055845175 0.15612079 0.20221287 -0.41629577
0.2674789 -0.37865126 -0.6537051 -0.13684025 0.07358318 0.12558396 -0.18907957 -0.20576622
-0.06835971 0.0132269645 0.41638705 0.014460739 0.2534526 -0.35593146 0.24062602 -0.06320775
0.12436769 -0.095224224 0.28679422 0.25656703 0.34230584 0.11540708 0.036866825 0.2814184
-0.41530818 -0.024267677 0.31531647 -0.050916776 -0.039203726 -0.0741934 0.21140702 0.3149715
0.16155198 0.40046352 0.37002867 -0.037340865 0.18232456 -0.02612015 0.1375887 -0.56619096
0.25280243 0.061159022 -0.77216166 -0.06752837 0.33430928 0.038515944 -0.1248888 0.4767982
0.43003184 -0.25965455 0.40066594 -0.10528662 0.15312816 -0.03764796 -0.3918979 -0.37043214
0.16370678 -0.011069567 0.11408346 -0.050135765 0.17227268 -0.491541 0.25559312 -0.024855703
0.27396235 -0.545355 -0.4464651 0.22639771 -0.48535484 0.18239811 0.37723634 -0.35764876
0.0848604 0.2970018 0.28589848 0.15575805 0.15489812 -0.6385341 -0.20103677 -0.54540986

policy_head.bias f4 [110]
00000000: 085e 9dbe ae15 b5bc 5c3e 9abd a678 0e3e
00000010: 8316 9bbe 1057 a8be 0759 a93d 0a73 923d
00000020: cbd2 153e 79f1 9cbd 4130 02ba 1a80 15bd
00000030: 6544 033e d046 6f3c 87f4 463e cc26 de3d
00000040: 3558 b83d 1870 ee3d 486b 5f3e c8d0 653e
00000050: 11ca a23d 0593 82bd 924a 24bd ebec 103d
00000060: 44a1 563c 11aa 5a3e 1be0 2b3e 2299 c2bb
00000070: 4ec0 d73d 72b4 663c fd95 463b d077 093b
00000080: 7dcc 723d f0a2 083e ae2d d53c 6f3a 6b3e
00000090: cb57 703d 43cb a5bc f9ba cc3d c6e5 403e
000000a0: 310d a13b d799 333e 334d c53d 8df7 5f3d
000000b0: 4d80 183d eb1e 143d 2a79 4a3e f667 003e
000000c0: 3f1d 9e3d df3d 2c3e 45fa 1dbd d7e7 093e
000000d0: 27c3 233e 9709 ce3d e10b 4d3d f62c a83d
000000e0: 2555 3d3e 95da 2d3e 5415 7ebe a10a 96be
000000f0: d92a b0be 75ee 9cbe d314 83be 2b2a 5abe
00000100: d3af 7bbe 6c29 96be e6aa 42be 1be0 2ebe
00000110: 961b 73be c765 63be 65fe 34be e738 b5be
00000120: 9f2f 59be 0b5e a7be 9e7f a4be f9c1 9abe
00000130: 375f d6be 04a6 69be 7eda c5be df09 82be
00000140: e187 c2be ee0f 83be 0cf3 bfbe 96d8 54be
00000150: 8954 d2be 8297 69be acc6 75be e777 bdbe
00000160: 8902 93be edca 90be bbab b5be bea9 b6be
00000170: c384 90be 851d 75be f31e c0be c9d1 65be
00000180: c59f 8fbe 0b95 a8be f9e3 cdbe 0927 7dbe
00000190: 0a9d 48be fe2f b6be 8e49 83be 17fd 90be
000001a0: 6a50 d0be 1345 cfbe e600 acbe 1341 b4be
000001b0: 7903 cdbe 6793 25be
-0.30735803 -0.022105064 -0.07531425 0.13913211 -0.30290613 -0.32878923 0.08268934 0.07150848
0.14631192 -0.07663245 -0.0004966297 -0.03649912 0.12819059 0.014604285 0.19429217 0.10847244
0.09001199 0.11642474 0.21818268 0.22442925 0.07948697 -0.06375698 -0.04011018 0.035382193
0.013099972 0.21353938 0.16784708 -0.005938665 0.10534726 0.014081107 0.0030301802 0.0020975955
0.059277046 0.13343406 0.026022758 0.2297151 0.058677476 -0.020238524 0.099966 0.18837652
0.0049149026 0.17539154 0.09633865 0.054679442 0.037231732 0.0361623 0.19772783 0.12539658
0.07720422 0.16820477 -0.038568754 0.13467346 0.15992413 0.10060423 0.050060157 0.082117006
0.18489511 0.16977914 -0.24812824 -0.29304984 -0.3440769 -0.30650678 -0.25601825 -0.21305148
-0.2457879 -0.29328477 -0.19010505 -0.17077677 -0.23740992 -0.22206794 -0.17675169 -0.35394976
-0.21209572 -0.32688937 -0.32128614 -0.30226114 -0.41869518 -0.22817236 -0.3864326 -0.25398156
-0.37994292 -0.2559809 -0.37490118 -0.20785746 -0.4108012 -0.22811702 -0.24001569 -0.3700554
-0.28712872 -0.2827982 -0.35482582 -0.35676378 -0.2822629 -0.23937042 -0.37523612 -0.22443308
-0.28051582 -0.3292621 -0.40212992 -0.24721922 -0.19591156 -0.3558349 -0.25642055 -0.28318092
-0.4068635 -0.40482387 -0.33594435 -0.35205898 -0.40041712 -0.16169511

value_head.weight f4 [1, 64]
00000000: edb6 3cbc ac10 0b3d 6ff0 ebbb 2b2b ac3d
00000010: 700e 1e3c 50fa 093e 9890 a9bc c5dc 28bc
00000020: 45a1 4fbe 8009 fb3d f014 babc f9a1 76bd
00000030: 4e84 d43d 82b3 aebd 337d 563c 294d b83d
00000040: e863 b2bc d9a6 723d 9e5d 04bd c031 fdbc
00000050: fab2 13bd 8a18 c1bd 5412 6bbd 5261 873d
00000060: e59e 293d 8c3a e13b ba92 3bbd 278f 35be
00000070: ee05 4d3c b7a3 b3bd 00cf cfbd 448e 273d
00000080: 2d8d 2bbc 035f 76be 2b75 ccbb da4a f4be
00000090: 0a02 38bd 4352 033d 56b4 d13d 52a1 3ebd
000000a0: db05 10bd 0b2e d0bd dfd9 5d3b 55fa 583c
000000b0: 1521 b13d 6e33 f7bd 34c2 29bc cc17 5cbd
000000c0: ad72 b7bc d9a0 94bd 2ff2 05be f629 a0bd
000000d0: 11a4 7b3d 1ad2 673c 5c50 c43d 3d2d 65be
000000e0: c02c 06bc 3137 cabc 0858 43bc a5ac 49bd
000000f0: 78d4 833d 51d5 253c fc83 0fbd 12fd b43c
-0.011518222 0.033951446 -0.007200293 0.08406671 0.009646997 0.13474393 -0.02069883 -0.010306542
-0.20276363 0.12257671 -0.022715062 -0.060213063 0.103767976 -0.08530332 0.013091373 0.08999092
-0.021776155 0.05924115 -0.032315843 -0.030907512 -0.036059357 -0.094285086 -0.057390526 0.06610359
0.0414113 0.0068734344 -0.045794226 -0.1773039 0.012513621 -0.087714605 -0.10146904 0.04090716
-0.010470671 -0.24059682 -0.0062395534 -0.47713357 -0.04492382 0.032060873 0.102394745 -0.046540566
-0.035161834 -0.10165032 0.0033851785 0.013243278 0.08648888 -0.12070356 -0.010361243 -0.053733632
-0.022393549 -0.07257242 -0.13080667 -0.078205034 0.061435763 0.014149213 0.0958564 -0.22380538
-0.00818938 -0.02468452 -0.011922844 -0.049236912 0.064370096 0.010121659 -0.03503798 0.02209333

exp_avg f4 [128, 260]
00000000: 6a0a 77ba 2243 a2ba 9c2e 0038 18f8 88ba
00000010: 9e97 4539 1386 3eb9 9333 95ba d4ca d237
00000020: 055a 11b9 98b1 b938 8d35 e737 89b1 76b8
00000030: c1ae 8639 2316 2d37 8426 a0ba 8cdd 77ba
00000040: e918 67b9 f496 453a b412 3439 f43c 3f38
00000050: 34a6 cb39 61af c9b2 274e 1638 2cff 42ba
00000060: 70af ed36 e79b 4b39 3cbe 0a39 d700 8bba
00000070: d8f6 a8b9 d951 043a 0e4a f938 bbac 4fb9
00000080: d453 59b9 9a9c c938 dcfa a1b9 7791 ca38
00000090: fdc9 3b38 ef1a b039 1423 8bba f400 a938
000000a0: 3e5f f8b7 4642 f8b6 a3c2 53ba d163 af39
000000b0: efbe fd38 5008 223a 3053 6a39 5ea1 2039
000000c0: bfb5 c5b8 0250 1339 ca4c e439 56f3 0838
000000d0: 81a2 6e37 0400 0000 56e5 9d36 2fe0 4f38
000000e0: 0082 0436 99dc dd36 8e32 1739 ab2f e038
000000f0: 45a8 1637 16a9 70b8 0234 6639 6106 d3b8
00000100: 90e7 00b8 378d b9b6 ba90 3785 78b1 cf9d
00000110: a03b bbb6 18f8 0137 1f9f 0038 bd72 1439
00000120: 195e da38 7b79 f7b6 45fa 10b9 23d2 dc38
00000130: fc1c fe33 8326 b5b9 ebdc 6fb8 d3c4 5137
00000140: 2d38 709d 9b81 c2b6 df21 9537 e720 ed38
00000150: 0f44 70b8 a4bb 4038 7af7 87ba 736c a737
00000160: 68e0 66b8 c8d8 acb8 895b ee37 0331 9db4
00000170: 17b7 c29c 6707 eab4 3239 4237 f2a5 2d38
00000180: d7d1 2038 62e3 7ab7 451a 3438 b6d3 e3b6
00000190: 7b30 7db8 983e c2b8 1c69 5d38 4ecd 9937
000001a0: 82e6 11b8 a76d c31d fa47 14b8 423d 7437
000001b0: b7c4 0db9 072d 4239 1ba5 97b9 888b 8738
000001c0: e1e1 b639 a300 bcba 01da 8339 bab5 bf36
000001d0: 5f11 abba f19c e89b c1e8 d59d e95a 79b4
000001e0: 216c 5439 7acc b938 2455 b8b9 bea9 d538
000001f0: 7ec9 173a 3cec 97b8 66bb 64ba 841e 4939
00000200: 72da 053a e014 09ba fe94 1a39 9176 9837
00000210: 8c81 ee38 deb0 6e38 bac0 a938 ccff 0939
00000220: 3110 6a38 5536 35ba 2882 e9b8 6e26 083a
00000230: 3bc4 66b9 a389 9eba f265 98b8 b6cc a936
00000240: 5267 7738 9653 dd37 0af6 2f38 2511 a9b9
00000250: 4809 8e37 a0b3 d4b9 0a7a 82ba 8c24 7939
00000260: 0174 9eba ffee 9bb9 796c 85ba 611c c3ba
00000270: 70b0 6c35 4809 d1b9 05f1 feb8 ae72 be9b
00000280: 98d9 8a39 a2e0 7ab8 806c 02b7 9e61 c338
00000290: 190d 8e38 6613 fb37 1d5d 7b36 a283 ad38
000002a0: 7aee 9538 d6b8 fb1b 50c8 0eb8 f515 af37
000002b0: 4f3e 3938 0745 b437 96e8 b3b7 0bb0 02b9
000002c0: d8a0 97b9 f68e 5db7 e313 cfb8 4fc9 4583
000002d0: d2df d4b7 8fb5 07b9 78ef f035 d3de 9ab9
000002e0: 632b 50b5 f0b1 3105 1a5b bc39 15e8 a1b8
000002f0: 6ffc e038 4c70 73b8 b7b4 e936 7fcc aab7
00000300: 4ccf 6fba 9aef 9a37 ccf3 1639 0400 0000
00000310: 8b3c beb6 d9f9 0936 d802 1eb7 482c a738
00000320: 84aa 8a39 503c 30b7 3852 f6b9 0f41 92b7
00000330: 9c29 b536 7ebb 4b38 ae19 4236 fb4b 1ab7
00000340: 7909 5439 2ada 653a 7954 27ba e7c1 6739
00000350: 89ee 8dba 672e 3aba fa5d 0b3a 5895 89ba
00000360: 0dfe 8aba e6b7 203a fe64 a5ba 7a0c 36ba
00000370: 92d6 8139 74ea 48ba cd08 023a e1ef 2c39
00000380: 0264 4cba dd24 d6ba 30ba 1aba aa83 72ba
00000390: cd1f caba d5bc 30ba 3acb a039 f126 a4b9
000003a0: 6879 a4ba f5a8 3638 1c00 81ba fea6 143a
000003b0: 7851 10ba 6dac acba 5998 afba c41a 3fba
000003c0: f428 2cba 0525 1db9 7422 333a 2e47 b4ba
000003d0: 0702 ca39 34bb 3239 a6d0 5439 d290 5dba
000003e0: bf69 4dba 9297 4cba 2b1b 4eb7 4c0d 6aba
000003f0: cbad 9dba bf32 78ba c58c e339 f09f 92ba
-0.0009423854 -0.0012379626 3.0560986e-05 -0.0010449914 0.00018843866 -0.00018169759 -0.0011383168 2.51284e-05
-0.00013861812 8.854567e-05 2.7562282e-05 -5.8816313e-05 0.00025688673 1.0316758e-05 -0.001221851 -0.00094553153
-0.00022039156 0.00075374474 0.00017173105 4.5594716e-05 0.00038843008 -2.3479233e-08 3.5835572e-05 -0.0007438536
7.083574e-06 0.00019417667 0.00013231573 -0.0010605109 -0.0003222737 0.00050475966 0.00011887039 -0.00019805405
-0.00020725961 9.613596e-05 -0.00030895218 9.6592055e-05 4.477239e-05 0.00033589403 -0.0010615312 8.0587255e-05
-2.9608254e-05 -7.398691e-06 -0.00080780144 0.0003345297 0.00012099544 0.0006181048 0.00022346969 0.00015318903
-9.427545e-05 0.00014048818 0.0004354476 3.265155e-05 1.4223741e-05 6e-45 4.705663e-06 4.9561433e-05
1.9745203e-06 6.611994e-06 0.00014419315 0.00010690031 8.979875e-06 -5.7377933e-05 0.00021953884 -0.00010062452
-3.0733238e-05 -5.529869e-06 -8.631201e-36 -5.4975942e-21 -5.5799756e-06 7.746763e-06 3.066577e-05 0.00014157123
0.00010412577 -7.375316e-06 -0.00013826143 0.000105295585 1.1833069e-07 -0.00034551704 -5.7187786e-05 1.25031975e-05
-3.1792778e-21 -5.7967386e-06 1.7777957e-05 0.00011307169 -5.7283843e-05 4.595112e-05 -0.0010373436 1.9958452e-05
-5.5045268e-05 -8.241978e-05 2.8414435e-05 -2.927919e-07 -1.2885171e-21 -4.3591282e-07 1.1576618e-05 4.1400963e-05
3.83424e-05 -1.4954103e-05 4.293981e-05 -6.7897736e-06 -6.036505e-05 -9.2623e-05 5.2788397e-05 1.8334624e-05
-3.478537e-05 5.172945e-21 -3.5352983e-05 1.4557796e-05 -0.0001352009 0.00018518056 -0.00028923978 6.463291e-05
0.00034882038 -0.0014343451 0.00025148693 5.7133993e-06 -0.0013051442 -3.8482601e-22 -5.6621292e-21 -2.3223005e-07
0.00020258177 8.859574e-05 -0.0003515865 0.000101882484 0.00057902175 -7.244243e-05 -0.00087254343 0.00019180222
0.0005106098 -0.0005229246 0.00014742088 1.8175024e-05 0.00011372854 5.6908342e-05 8.094446e-05 0.0001316063
5.5805027e-05 -0.0006912698 -0.00011134549 0.0005193715 -0.00022007611 -0.0012095462 -7.2669136e-05 5.060424e-06
5.8985614e-05 2.6384176e-05 4.1952393e-05 -0.00032246966 1.6932041e-05 -0.00040569622 -0.0009954583 0.00023760105
-0.0012089015 -0.0002974197 -0.0010179422 -0.0014885777 8.81736e-07 -0.00039870501 -0.00012156557 -3.1506973e-22
0.0002648353 -5.981385e-05 -7.773866e-06 9.316507e-05 6.773527e-05 2.9930565e-05 3.7456114e-06 8.273801e-05
7.1492934e-05 4.1643914e-22 -3.4041994e-05 2.087185e-05 4.4165467e-05 2.1489815e-05 -2.144677e-05 -0.00012463347
-0.00028920802 -1.3205912e-05 -9.8742334e-05 -5.8124188e-37 -2.5376594e-05 -0.00012942239 1.7951088e-06 -0.00029539186
-7.7549174e-07 8.355182e-36 0.0003592603 -7.720307e-05 0.00010728172 -5.80403e-05 6.964979e-06 -2.0360805e-05
-0.0009148016 1.8469804e-05 0.00014395936 6e-45 -5.6694894e-06 2.0560021e-06 -9.418196e-06 7.9714286e-05
0.00026448455 -1.050446e-05 -0.00046982034 -1.7434852e-05 5.3990643e-06 4.8573587e-05 2.89232e-06 -9.196806e-06
0.00020221424 0.0008768166 -0.0006383132 0.00022102111 -0.0010828535 -0.00071022514 0.0005316433 -0.0010496778
-0.0010604277 0.00061309186 -0.0012618599 -0.0006944608 0.00024764665 -0.0007664331 0.0004960418 0.0001649256
-0.0007796885 -0.001633789 -0.0005902378 -0.0009251187 -0.0015420854 -0.00067420054 0.00030668994 -0.0003130953
-0.0012548389 4.3549535e-05 -0.0009841952 0.0005670636 -0.0005505304 -0.0013173945 -0.0013396844 -0.000729006
-0.0006567382 -0.00014986478 0.0006833442 -0.0013754123 0.00038529953 0.00017045141 0.00020295623 -0.0008452061
-0.0007835887 -0.0007804568 -1.2284882e-05 -0.0008928373 -0.0012029944 -0.0009468011 0.00043401695 -0.0011186581

exp_avg_sq f4 [128, 260]
00000000: 6fe7 9c36 452f a036 946a 9036 601d a536
00000010: f38d 4e36 2c1f 6a36 5b06 8236 c065 5a36
00000020: 3faf 5735 f8b9 2436 996c ad35 c7c1 3736
00000030: 5c67 5236 d8b6 a736 2951 c136 cdc8 8536
00000040: 352b 8036 e139 3d36 d924 9b36 47d2 4c36
00000050: 5084 7236 d596 3c36 daf6 ea35 7707 c736
00000060: 6df3 9d35 0f6a 2c36 16ca a036 a36f a036
00000070: ac50 9b36 6fbd b136 dfb8 9736 651b 6e36
00000080: 69b9 1836 7671 e835 e5df 1836 db9d 8f35
00000090: 7b0f ee35 4c60 4336 09e8 c435 bc58 9036
000000a0: 482e 7736 ecf3 6b36 2abd c336 89bc ab36
000000b0: 3dde 4336 9516 9236 f597 5b36 4d90 f735
000000c0: 9dc4 9936 108f 8135 37b3 df35 ef97 e135
000000d0: 9213 0233 40cf 3931 1e5d ee31 ebf8 aa33
000000e0: e182 2c34 cdf5 2c34 2d7f bc34 d2fa 0d35
000000f0: 65d5 3235 82e7 8a35 9b3f 5735 f055 0535
00000100: eb6a f234 ef80 3d31 2b64 7d31 4908 1b32
00000110: bea3 ab32 df14 2634 7c08 5b34 6b99 b234
00000120: 920f 5434 1a7b 9034 7cf0 0f35 33aa 3e35
00000130: 275d 0735 bc43 1935 7580 1f33 8aaf 2b31
00000140: f570 8531 3e82 c432 85fe 5834 1de2 4b34
00000150: 83ef 8634 2a51 9e34 f82f e534 e7d3 f134
00000160: 05e0 2735 438f d834 4d59 1b35 6c5c 4d2d
00000170: 0b94 9330 eee1 5032 d3f3 5733 945b a134
00000180: 9452 ee34 71f5 8d34 b0ac 8d34 f536 ba34
00000190: 7ab2 9b34 b482 1435 0bf3 7535 3cf9 c534
000001a0: 2e29 d833 4569 2c34 0cf0 6a34 d512 1134
000001b0: a0e1 b035 74eb e635 b9b8 7936 0514 8836
000001c0: e4f8 9136 9901 e136 4874 c736 0cfb bd36
000001d0: e3d7 fe36 92d0 0834 6194 d933 f628 b334
000001e0: 59a6 8735 e5b8 b535 d2f2 b635 af25 6836
000001f0: d0d4 5936 3de4 5036 ba35 ec36 e29a 3136
00000200: a177 fa36 4f80 b836 3bb0 4e34 d8a5 0034
00000210: 2d74 2c34 1997 a634 f35d 0b36 fddb 0436
00000220: da98 4936 7b08 6836 9243 9b36 fb22 db36
00000230: 84ad a536 2788 c536 3d37 d836 0ff0 ad34
00000240: 173e 4035 62b4 b434 94c0 6435 eb9e 7d35
00000250: 524c 1136 2438 7136 e199 5836 f177 bc36
00000260: 4989 7f36 270d 0037 07e5 d736 0fc3 bf36
00000270: 288d 1734 63aa c634 9a8f a834 6f71 dd32
00000280: 4ac4 7235 7dac 9134 c49a ea33 8a09 f734
00000290: dcba 3f35 03bd d134 73cc de34 3ee0 1535
000002a0: 2ea7 a834 dc73 d833 6f9f 9134 987b 8c34
000002b0: f2ec e834 3f64 bb34 9fde 8a34 060d 7334
000002c0: 5961 f234 9f09 9234 ad7e f834 6cba 652f
000002d0: ed60 b534 05b6 bb34 1dfe f033 cb55 3f35
000002e0: 9af1 ff32 35b5 5632 9e7e fc34 50be da34
000002f0: 2561 4935 6075 9d35 b567 ab34 601d 8535
00000300: 4472 e934 736b 3734 0593 d434 d56a ff30
00000310: 8a5e a834 d726 7934 29ac de34 b4e8 1f34
00000320: 0c13 ec35 6197 2e34 cae6 0b35 cdb3 8535
00000330: 6449 5433 5809 c334 4ff0 8234 191c ae34
00000340: 6c75 4e37 7bd1 3e37 3a11 5337 0d44 4a37
00000350: 5ba2 3837 7bad 3c37 7595 1b37 af8d 0f37
00000360: 8794 2337 1d0f d036 647d 0637 54bd 0337
00000370: e9c6 bd36 2ae8 4d37 e9d9 3737 4487 5c37
00000380: f4b8 4a37 67e9 4f37 aecf 2f37 c2e1 2c37
00000390: 8d88 1437 71ed 3037 9001 db36 1965 f836
000003a0: a633 f836 6993 0137 cac1 4637 93da 3a37
000003b0: 84d6 4737 4e05 4137 a76a 2d37 8c3d 2e37
000003c0: df07 3437 b976 2537 1632 1a37 aaba fc36
000003d0: 35fe 2137 8666 f136 a97e ff36 595f 6437
000003e0: 1d7c 4e37 579d 5937 f171 1f37 498e 2c37
000003f0: 1b9f 1937 82af 1537 3874 1b37 2432 0b37
4.6761047e-06 4.7738745e-06 4.3039418e-06 4.920803e-06 3.0779017e-06 3.4886862e-06 3.875042e-06 3.2543758e-06
8.034876e-07 2.4546152e-06 1.292111e-06 2.7381918e-06 3.1352602e-06 4.9982737e-06 5.7612965e-06 3.987085e-06
3.819727e-06 2.8196885e-06 4.6236496e-06 3.0520766e-06 3.6137826e-06 2.8101979e-06 1.7506202e-06 5.931531e-06
1.1768258e-06 2.5691731e-06 4.7918975e-06 4.781368e-06 4.6287514e-06 5.297064e-06 4.5216725e-06 3.548071e-06
2.2757688e-06 1.7318368e-06 2.2780089e-06 1.0700272e-06 1.7736887e-06 2.9113316e-06 1.4670669e-06 4.3018645e-06
3.6832807e-06 3.515971e-06 5.8334745e-06 5.1181455e-06 2.9186624e-06 4.353768e-06 3.2721994e-06 1.8444931e-06
4.582644e-06 9.652886e-07 1.6666953e-06 1.6808025e-06 3.0285783e-08 2.7038851e-09 6.937298e-09 7.96152e-08
1.6066362e-07 1.610817e-07 3.511026e-07 5.2891585e-07 6.66207e-07 1.0349179e-06 8.01863e-07 4.9671416e-07
4.5153806e-07 2.757641e-09 3.6873284e-09 9.024071e-09 1.9981481e-08 1.5467548e-07 2.0399051e-07 3.326671e-07
1.9749703e-07 2.6911658e-07 5.36216e-07 7.102819e-07 5.0426974e-07 5.709551e-07 3.7136903e-08 2.4983557e-09
3.883651e-09 2.287663e-08 2.0209161e-07 1.8988108e-07 2.5133713e-07 2.9488848e-07 4.2689476e-07 4.5043927e-07
6.253834e-07 4.0337372e-07 5.787195e-07 1.1673423e-11 1.0737734e-09 1.2158564e-08 5.0280345e-08 3.005522e-07
4.4391038e-07 2.644188e-07 2.6388943e-07 3.4685186e-07 2.900086e-07 5.5324494e-07 9.1623286e-07 3.687545e-07
1.0065774e-07 1.6057045e-07 2.1880277e-07 1.3511028e-07 1.3178687e-06 1.7204861e-06 3.7211414e-06 4.0554464e-06
4.3503114e-06 6.7057085e-06 5.944199e-06 5.6618646e-06 7.5949224e-06 1.2741864e-07 1.013184e-07 3.337115e-07
1.0106697e-06 1.3539362e-06 1.3630727e-06 3.4592629e-06 3.2459393e-06 3.1127267e-06 7.0396027e-06 2.646521e-06
7.4645072e-06 5.4985644e-06 1.9249357e-07 1.1981263e-07 1.6061013e-07 3.1029847e-07 2.07673e-06 1.9797583e-06
3.0040305e-06 3.457563e-06 4.627226e-06 6.530781e-06 4.937583e-06 5.8869077e-06 6.443732e-06 3.2398427e-07
7.1615926e-07 3.3658858e-07 8.5216857e-07 9.44811e-07 2.1651108e-06 3.5944477e-06 3.2276077e-06 5.6167996e-06
3.8077872e-06 7.632457e-06 6.4341616e-06 5.7149514e-06 1.4114323e-07 3.7004347e-07 3.1396922e-07 2.577937e-08
9.0437663e-07 2.7133856e-07 1.0924626e-07 4.6014276e-07 7.142496e-07 3.9066808e-07 4.149948e-07 5.583314e-07
3.1414078e-07 1.00793585e-07 2.7124358e-07 2.6166958e-07 4.3385768e-07 3.4904403e-07 2.586648e-07 2.2635876e-07
4.5146842e-07 2.720162e-07 4.6285768e-07 2.0893659e-10 3.37844e-07 3.49639e-07 1.1222094e-07 7.127789e-07
2.9795775e-08 1.2497641e-08 4.7030784e-07 4.0744135e-07 7.50197e-07 1.1731572e-06 3.192669e-07 9.917821e-07
4.348277e-07 1.7082293e-07 3.9595048e-07 1.8584055e-09 3.1361225e-07 2.3204062e-07 4.1475985e-07 1.4892686e-07
1.7588914e-06 1.6260084e-07 5.211738e-07 9.961601e-07 4.9426845e-08 3.632838e-07 2.4389234e-07 3.243047e-07
1.2305896e-05 1.1373656e-05 1.2580591e-05 1.2055983e-05 1.1005056e-05 1.1246065e-05 9.273518e-06 8.5564525e-06
9.750139e-06 6.2006425e-06 8.016217e-06 7.85229e-06 5.655795e-06 1.2273007e-05 1.0958386e-05 1.3144516e-05
1.2083201e-05 1.2392505e-05 1.0479167e-05 1.0304562e-05 8.853281e-06 1.0545701e-05 6.5268905e-06 7.4027453e-06
7.3969886e-06 7.723321e-06 1.184684e-05 1.1137355e-05 1.191127e-05 1.15049315e-05 1.03364355e-05 1.0385538e-05
1.0730669e-05 9.862409e-06 9.190777e-06 7.531916e-06 9.655535e-06 7.194295e-06 7.6143374e-06 1.3612059e-05
1.2307454e-05 1.2970841e-05 9.503668e-06 1.0285127e-05 9.156555e-06 8.921956e-06 9.265779e-06 8.29672e-06

exp_avg f4 [128]
00000000: c130 47ba 55b9 8139 3070 ce39 5c02 b63b
00000010: 178c acbb 621c 553b 5f43 6bba 6586 71ba
00000020: c3db 873a ba98 113a 53f6 5a3a 6391 76ba
00000030: 7dd8 453b cab3 d9ba c04c 0d3b e67c c2ba
00000040: 3101 c139 9647 49ba de96 42b9 0a87 443a
00000050: d5d6 a439 ba87 e6ba dc3a 5d3a 8eb5 b0b9
00000060: aee1 543b e486 84bb 53f6 d5b9 6c59 773b
00000070: ff93 0cbb 0750 403a 7045 773a c75a bdbb
00000080: 90f4 cfb8 aa7e d0b8 991f 00ba fb27 a33b
00000090: 4457 9e3a 9e4d a0bb 6b93 6dbb 63a4 10bb
000000a0: c1d8 013b 355a 54ba bf37 d5ba 04aa 9c39
000000b0: dab5 1cbb 785b 563b 0400 0000 7aae 013b
000000c0: cf18 8fb9 a53a b4b9 3670 1abb e654 613b
000000d0: a7c9 b7bb 06f9 64ba 2d6e 453b e704 fa3b
000000e0: a02e 353b b3c5 7cbb 52bd d1b8 f224 c0ba
000000f0: e565 8c3b ef2d 9e38 a618 86ba 0f8f 04b8
00000100: 1fa4 00bb 4224 043b aa70 61bb 410e 193b
00000110: 3938 423b 4d8a f0b9 270b 20bb df9c f8ba
00000120: 2604 19b9 6fe9 c33a 798c 9139 1ac5 593a
00000130: 0aee 78b9 e45c f93a fa9c 28bb 56d4 0cbb
00000140: 0774 ac3a 1a21 11ba d18c b939 0400 0000
00000150: e8c0 7638 6521 c9ba af9a 1f3b 426f 57ba
00000160: 091e ca39 ef87 ad3a c004 2a3a 4c04 133b
00000170: 438f 323b acfa 373a 5bda e6ba 4d4a 82ba
00000180: 5f48 d33a 45c1 ce3a bdaf 01b8 83d5 6c3b
00000190: 9046 56bb 2ef8 b73b fc82 df3a 23ee 1ebb
000001a0: d64a 5d3b 5ab2 b33b 25fa 11bb 83d4 bfb8
000001b0: 6c8d 1339 4c91 1d3a cd82 da3a 8c24 093b
000001c0: 196b bbbb 6ef4 d8ba 7cbe 023a 5e4c f539
000001d0: 4638 d73a 77f8 ecba f627 0abb fac7 c83a
000001e0: 02ff 213b 76e2 aa3a adcb 12bb acd8 293b
000001f0: 3072 9cbb 1f4e b63a a800 283b 3e61 253b
-0.00075985125 0.0002474288 0.00039374968 0.0055544805 -0.0052657234 0.0032518138 -0.00089745776 -0.0009213447
0.0010365177 0.0005554069 0.0008352745 -0.00094058196 0.0030188852 -0.0016609367 0.002156064 -0.0014838248
0.00036812716 -0.00076782086 -0.00018557484 0.0007496929 0.0003144058 -0.0017588057 0.00084392517 -0.00033704605
0.0032483148 -0.0040444005 -0.00040810052 0.0037742509 -0.0021450517 0.0007336144 0.0009432649 -0.005778644
-9.9160825e-05 -9.941806e-05 -0.0004887521 0.0049791313 0.001208045 -0.004892065 -0.0036251198 -0.0022070638
0.0019813033 -0.00081006 -0.0016267224 0.0002988131 -0.0023912103 0.0032708328 6e-45 0.0019787834
-0.0002729357 -0.0003437597 -0.0023565418 0.0034382879 -0.0056087556 -0.0008734617 0.0030125484 0.007629979
0.00276462 -0.0038569986 -0.0001000116 -0.0014659448 0.0042846077 7.542583e-05 -0.0010230734 -3.1604486e-05
-0.0019629074 0.0020163213 -0.0034399428 0.0023354443 0.0029635562 -0.0004587941 -0.002442071 -0.001896765
-0.00014592762 0.0014946888 0.00027761215 0.00083072635 -0.000237398 0.0019024876 -0.002572833 -0.0021488867
0.0013157137 -0.00055362436 0.00035390866 6e-45 5.883063e-05 -0.0015345035 0.0024353673 -0.0008218178
0.0003855082 0.0013239364 0.0006485693 0.002243298 0.0027246035 0.0007018249 -0.0017612682 -0.0009940356
0.0016119591 0.0015774152 -3.0919666e-05 0.0036138005 -0.0032695867 0.005614302 0.0017052586 -0.0024250827
0.003376653 0.0054839076 -0.0022274342 -9.147173e-05 0.00014071696 0.00060107256 0.0016671062 0.0020926325
-0.005719554 -0.0016552338 0.0004987491 0.0004678694 0.0016419969 -0.0018079419 -0.0021080947 0.0015318387
0.0024718647 0.0013037461 -0.0022399232 0.00259165 -0.0047743544 0.001390878 0.0025635157 0.0025234963

exp_avg_sq f4 [128]
00000000: 6e21 9b37 6c22 f837 0e20 a737 7db4 6438
00000010: 590c 6a38 61e8 1638 1971 6c37 2e90 0038
00000020: cd02 4238 2738 2b38 4772 e437 8e13 ae37
00000030: 117b e237 9ae8 a637 27c0 1c38 83d5 8338
00000040: 6075 4c37 7dba c337 b951 7938 5a21 0038
00000050: 8f99 b037 4de7 a837 bc32 8e37 5395 0c38
00000060: bc19 5a38 ef80 0538 aa45 7e38 5065 2438
00000070: e562 8837 2ed0 6038 0adc d137 2385 9b38
00000080: 5a7e 6637 bdff 8437 3939 1d37 a76e 8438
00000090: de9d 8838 e717 3f38 bec0 d237 29b5 9d37
000000a0: 633a 4638 165a c537 baae 8c37 0740 ee37
000000b0: 67db 2038 c5a8 e837 ef8e a133 a161 ff37
000000c0: 73f6 2538 0db3 a637 5d68 2738 d4a1 5838
000000d0: 2960 4b38 a6b4 4537 23c8 3d38 2fb7 b938
000000e0: ba82 7838 e2b6 6a38 dc11 e037 66ae db37
000000f0: 6b4d 0738 8d1a 1b38 c44a 9538 9e8a c736
00000100: 0548 9038 3901 1538 1e3e 5e38 e6a9 9537
00000110: 7b2f ed37 3d9a 8e37 84c4 dc37 7143 cb37
00000120: 1eb8 c637 af90 0538 cdd2 7e37 4869 de37
00000130: bd81 d737 c0d6 2e37 a05e ed37 650a b137
00000140: 2e0b 8f38 c510 a538 5b6d 9f37 cf75 fd2f
00000150: 105e 1c37 55e7 cc37 e940 c038 124c 9e37
00000160: 60f5 ae38 c2ec bf37 45ae 7e38 db4c d737
00000170: dc79 cd37 6a8d c237 bb51 9237 7796 d437
00000180: e901 b837 4168 bb37 9ecd 0337 1bc2 5538
00000190: 15e1 ab37 b8ae 3a38 3fa5 9138 07de 9238
000001a0: 844f d337 6ebf a138 001e 9637 5367 5a37
000001b0: 25ee d837 b8e9 1738 2558 3437 3a25 8a38
000001c0: 9f05 4038 4770 e137 3537 0738 72ae b237
000001d0: 94da 0338 87bf c437 d38f 7837 1371 2738
000001e0: d8e9 b337 efd2 6638 5156 be37 42c1 2f38
000001f0: d111 4e38 b37a 0338 3000 ef37 8106 b037
1.8493007e-05 2.9579933e-05 1.9922878e-05 5.452753e-05 5.5801447e-05 3.5979207e-05 1.4093029e-05 3.0651856e-05
4.6255813e-05 4.0821873e-05 2.7232933e-05 2.0751522e-05 2.6998607e-05 1.9897056e-05 3.7372254e-05 6.2863364e-05
1.2186676e-05 2.3332652e-05 5.9442336e-05 3.054864e-05 2.1052341e-05 2.0134868e-05 1.6951344e-05 3.351767e-05
5.1999217e-05 3.182975e-05 6.06232e-05 3.9195e-05 1.6258515e-05 5.3599644e-05 2.5017205e-05 7.4157746e-05
1.3738487e-05 1.5854714e-05 9.371252e-06 6.314861e-05 6.5143904e-05 4.556021e-05 2.5123703e-05 1.8800218e-05
4.7261256e-05 2.352618e-05 1.6770664e-05 2.8401626e-05 3.8351307e-05 2.7735145e-05 7.523146e-08 3.044383e-05
3.956859e-05 1.9872119e-05 3.99131e-05 5.1649127e-05 4.8488528e-05 1.17841755e-05 4.5247503e-05 8.855608e-05
5.9249556e-05 5.596027e-05 2.6711197e-05 2.6188045e-05 3.225861e-05 3.6979607e-05 7.1188e-05 5.9467993e-06
6.87987e-05 3.5525507e-05 5.2986776e-05 1.78413e-05 2.8274711e-05 1.6999542e-05 2.6317553e-05 2.423089e-05
2.3689176e-05 3.1844418e-05 1.5188661e-05 2.6513488e-05 2.5690411e-05 1.0421209e-05 2.8296665e-05 2.1104885e-05
6.820854e-05 7.870937e-05 1.90052e-05 4.610414e-10 9.320225e-06 2.4426417e-05 9.167364e-05 1.887049e-05
8.342671e-05 2.2879223e-05 6.072062e-05 2.5665786e-05 2.449465e-05 2.3192453e-05 1.7442615e-05 2.5342435e-05
2.1935399e-05 2.2340684e-05 7.856082e-06 5.0963932e-05 2.04896e-05 4.4508575e-05 6.944918e-05 7.003178e-05
2.5190187e-05 7.712735e-05 1.7895363e-05 1.301787e-05 2.5860101e-05 3.6218873e-05 1.0749359e-05 6.587287e-05
4.5781602e-05 2.6874373e-05 3.2237924e-05 2.1300486e-05 3.14364e-05 2.3454208e-05 1.4815439e-05 3.992121e-05
2.1447355e-05 5.503272e-05 2.268996e-05 4.1903237e-05 4.913082e-05 3.1347106e-05 2.8491108e-05 2.0983864e-05
