ppo_2layer_2048_epoch10/ppo_agent_episode_700.pth (torch, 596526 bytes, 21 tensors)

fc1.weight f4 [128, 260]
0.050128575 -0.024210868 -0.08733068 -0.049372703 -0.07024911 -0.039026044 0.0672142 -0.045657948
-0.019602137 -0.024965435 -0.11898373 0.015504358 -0.036861967 -0.061253984 0.053604543 0.008187686
0.013455329 -0.018551331 0.0033191834 -0.018949632 0.014431247 -0.022338798 0.0029610917 -0.046122666
0.015030306 0.0190357 -0.02412702 -0.010947853 -0.067094415 -0.010810361 -0.009547444 0.03150384
-0.072722785 -0.03763512 0.02522184 -0.09020326 0.030322794 -0.006739814 -0.06625492 -0.08795548
0.040958066 -0.046389807 0.08158006 -0.028337099 -0.0062959245 -0.057151403 -0.06595861 -0.027372502
-0.0038282652 -0.030951252 0.015814163 -0.021535756 -0.13194166 -0.17829572 -0.06430196 -0.084797546
-0.027871732 0.009772669 0.01262431 0.08929129 -0.019571869 -0.0018774604 -0.033608705 0.030531064
0.031996444 -0.08156705 -0.20148665 -0.17748417 -0.07535874 -0.0044295937 -0.042969946 -0.010954071
0.093288355 0.018864064 0.024655033 0.010017623 0.03587047 0.06587547 -0.113226 -0.15685473
-0.06984139 -0.07895977 -0.03294815 -0.07933708 0.018459808 0.04954163 0.07534702 0.008360689
0.036635183 -0.014874192 0.016192228 -0.029814916 -0.24083088 -0.17451738 0.012366887 -0.03401229
-0.00961417 -0.0020870701 -0.05276062 0.06644888 0.08384508 0.020412525 0.023049153 0.05684295
-0.020372292 0.039871313 0.056361757 -0.040865526 -0.0004117138 0.023239432 0.042085163 0.047068443
0.010790727 0.03422956 0.0100627495 -0.08534066 0.09993085 0.09451075 0.07775478 -0.004636802
0.028624631 0.00071260973 -0.053990655 0.01040666 0.08232647 -0.01729796 0.07980566 0.112253375
0.08279613 -0.026474064 0.018447949 0.10095672 0.041160386 0.051311962 0.011036993 0.066054754
0.12683114 0.020767642 0.020827472 0.015634216 0.013702681 -0.07499681 0.026190512 -0.067268655
0.0717493 0.058494482 -0.051462088 0.039576128 0.051097557 0.051111735 -0.017802995 0.04702034
-0.010431202 0.08046123 -0.024416992 0.05788717 0.010466235 0.06820828 -0.036015034 0.0634466
0.06500035 -0.03515966 -0.07541619 0.055476435 0.045522157 0.04353813 0.037797593 0.04937772
-0.08286158 0.08442192 0.0007732008 -0.009265847 0.06339455 0.036234573 0.049642444 -0.014407756
0.099651866 0.06618643 0.088625476 -0.011453702 0.05487072 -0.0070320927 0.040219266 0.08420623
0.026657496 0.02528594 -0.038829952 0.055868007 -0.015851922 0.00037595475 0.038286433 0.013906976
0.10340837 0.010648066 0.07529612 -0.03429026 -0.022223486 -0.008572984 0.04222111 0.01460327
-0.022248365 -0.09309007 0.07445803 -0.022921266 0.039870728 -0.039657872 -0.06982973 -0.10331018
-0.0025464797 0.035638332 0.059650797 0.06682585 -0.022376874 -0.0057248822 -0.019601451 0.015727978
-0.009195681 0.016525218 0.014678257 0.018548986 -0.051747818 0.004130753 -0.022966595 0.06979892
-0.012722483 -0.021617608 -0.0014002781 0.01772574 0.045912277 0.04499272 -0.03235602 0.02605234
0.028586514 -0.0459998 0.017482262 -0.00012996283 -0.032952838 0.060133748 0.021975424 0.0180987
-0.021449633 0.03279196 -0.033843633 0.03605756 0.040505737 0.030177323 0.076854564 0.077175155
0.016913481 -0.030952208 -0.020624185 -0.0512316 -0.024871707 0.03658007 0.017621206 0.06886488
00000000: 9f53 4d3d df55 c6bc 6dda b2bd 083b 4abd
00000010: c4de 8fbd c6d9 1fbd 99a7 893d d403 3bbd
00000020: a994 a0bc 5084 ccbc bead f3bd fe05 7e3c
00000030: 93fc 16bd 75e5 7abd 7090 5b3d a525 063c
00000040: be73 5c3c f6f8 97bc a886 593b 423c 9bbc
00000050: 0971 6c3c dbff b6bc e00e 423b 1feb 3cbd
00000060: ac41 763c c2f0 9b3c 07a6 c5bc a05e 33bc
00000070: cc68 89bd f11d 31bc e26c 1cbc 2c0a 013d
00000080: afef 94bd 4927 1abd 089e ce3c 7dbc b8bd
00000090: 8267 f83c a8d9 dcbb a9b0 87bd 0122 b4bd
000000a0: a5c3 273d 3d03 3ebd 7213 a73d 3423 e8bc
000000b0: 0b4e cebb 9717 6abd 4f15 87bd 4c3c e0bc
000000c0: a2e3 7abb 7b8d fdbc b48c 813c c16b b0bc
000000d0: b71b 07be 2793 36be bfb0 83bd 56aa adbd
000000e0: 4253 e4bc 8b1d 203c 32d6 4e3c 5ade b63d
000000f0: 2f55 a0bc 1e15 f6ba 48a9 09bd 481c fa3c
00000100: b40e 033d a00c a7bd 8452 4ebe 69be 35be
00000110: af55 9abd 2026 91bb 4101 30bd b478 33bc
00000120: f70d bf3d cf88 9a3c 5af9 c93c f520 243c
00000130: eaec 123d b8e9 863d 08e3 e7bd 879e 20be
00000140: 0109 8fbd a9b5 a1bd a4f4 06bd 7b7b a2bd
00000150: 0639 973c 2aec 4a3d 8a4f 9a3d 45fb 083c
00000160: c60e 163d e2b2 73bc 90a5 843c 693e f4bc
00000170: 5f9c 76be afb4 32be 7c9e 4a3c 7950 0bbd
00000180: c084 1dbc 3ac7 08bb 851b 58bd 5a16 883d
00000190: f8b6 ab3d 2b38 a73c 94d1 bc3c 27d4 683d
000001a0: cbe3 a6bc 1a50 233d 96db 663d 9c62 27bd
000001b0: 4adb d7b9 9f60 be3c 7e61 2c3d d7ca 403d
000001c0: 97cb 303c 4c34 0c3d 3bde 243c 15c7 aebd
000001d0: 8ca8 cc3d da8e c13d e63d 9f3d 50f0 97bb
000001e0: 347e ea3c 6ece 3a3a 4e25 5dbd b280 2a3c
000001f0: c89a a83d 74b4 8dbc 2671 a33d 19e5 e53d
00000200: 0491 a93d 23e0 d8bc 2720 973c 66c2 ce3d
00000210: cb97 283d 7e2c 523d 81d4 343c b747 873d
00000220: 06e0 013e e720 aa3c 609e aa3c 5413 803c
00000230: 3681 603c ed97 99bd 7c8d d63c 26c4 89bd
00000240: 4cf1 923d e997 6f3d e9c9 52bd 941a 223d
00000250: ac4b 513d 8a5a 513d 96d7 91bc 6698 403d
00000260: a2e7 2abc dbc8 a43d 2506 c8bc 191b 6d3d
00000270: 927a 2b3c c8b0 8b3d 8084 13bd 4bf0 813d
00000280: e71e 853d 9303 10bd ce73 9abd 423b 633d
00000290: 7175 3a3d 0a55 323d a6d1 1a3d 4b40 4a3d
000002a0: 55b3 a9bd 66e5 ac3d a1b0 4a3a c7cf 17bc
000002b0: 00d5 813d b46a 143d e055 4b3d 820e 6cbc
000002c0: 4716 cc3d c08c 873d 4681 b53d 4fa8 3bbc
000002d0: 1fc0 603d 786d e6bb f5bc 243d 5174 ac3d
000002e0: d260 da3c 7624 cf3c 280c 1fbd dad5 643d
000002f0: e4db 81bc cb1b c539 3cd2 1c3d 16da 633c
00000300: c4c7 d33d 3a75 2e3c da34 9a3d f273 0cbd
00000310: 070e b6bc b375 0cbc 0bf0 2c3d 8e42 6f3c
00000320: 3442 b6bc 02a6 bebd 747d 983d 61c5 bbbc
00000330: 7d4f 233d 4b70 22bd e402 8fbd 4a94 d3bd
00000340: d7e2 26bb 80f9 113d 6554 743d fedb 883d
00000350: b54f b7bc cb97 bbbb 3993 a0bc f6d7 803c
00000360: 7ba9 16bc e55f 873c 127d 703c 0bf4 973c
00000370: 85f5 53bd 455b 873b 7124 bcbc bcf2 8e3d
00000380: f671 50bc 6917 b1bc 8989 b7ba 9235 913c
00000390: 830e 3c3d 494a 383d bf87 04bd b86b d53c
000003a0: 442e ea3c 496a 3cbd f636 8f3c a246 08b9
000003b0: 8ef9 06bd ce4e 763d ce05 b43c ba43 943c
000003c0: 24b7 afbc dd50 063d 9f9f 0abd 18b1 133d
000003d0: 58e9 253d 6f36 f73c ed65 9d3d 020e 9e3d
000003e0: 248e 8a3c 7c8f fdbc 0df4 a8bc 3ad8 51bd
000003f0: c0bf cbbc fcd4 153d 595a 903c 0809 8d3d

fc1.bias f4 [128]
-0.0020680367 -0.063175336 0.03741772 0.05151494 -0.042061824 -0.015669426 -0.035117075 0.030001609
-0.033725616 -0.00085244136 -0.03770056 0.0115426015 -0.042563774 0.056570597 0.024933036 0.033387862
0.011579508 0.008819858 0.050812904 -0.013609514 0.019713415 -0.012150574 0.0046016 0.0401181
-0.028661495 0.04589905 -0.013284959 0.021043317 -0.0032887598 -0.031498358 -0.036208373 0.03820503
0.022880957 -0.014475799 0.050970223 -0.010850889 0.029978244 0.061871212 0.038043723 0.054495268
-0.019349858 0.04640211 0.05557418 0.028837377 -0.043752052 -0.010461843 0.04241547 0.020647958
0.041705664 0.010743836 -0.038095336 0.011408806 0.059866674 0.003336234 0.04259443 0.03523912
-0.00032468978 -0.012130723 -0.0073476657 0.031003132 0.053889364 0.021012112 0.047654875 0.03728861
0.010846339 -0.03501267 0.016350592 0.03100233 -0.017555911 0.02551947 0.038361456 0.015874896
0.0076451534 -0.025629994 -0.026564442 -0.027779493 0.0548023 0.07042412 -0.047076996 -0.052629385
-0.04092396 0.052348856 0.000121174984 -0.040100396 0.026750538 0.062070075 0.06671872 -0.0030876007
0.051265962 -0.026971813 -0.04816149 0.013162883 -0.0106917685 -0.034236006 -0.033087652 0.025694152
0.008140997 0.045688313 0.039761424 -0.040319182 0.06845542 -0.052453082 -0.026365086 0.047581922
0.06112823 0.011234771 0.049578533 0.016938422 0.005222605 -0.05649139 0.05004042 0.05441797
0.0025812476 -0.05991403 -0.03541924 0.03617581 -0.061006457 -0.04064132 -0.035475 0.018318588
0.04068944 0.032048937 -0.04071557 -0.0021461893 -0.0072092284 -0.025341587 0.0153694535 -0.050050575
00000000: e687 07bb 1262 81bd 5343 193d 5401 533d
00000010: 0549 2cbd 2b5d 80bc ecd6 0fbd efc5 f53c
00000020: df23 0abd 5f76 5fba e76b 1abd 2e1d 3d3c
00000030: 5a57 2ebd 92b6 673d 5e40 cc3c b6c1 083d
00000040: fab7 3d3c 2a81 103c 3121 503d 70fa 5ebc
00000050: 077e a13c 3313 47bc 05c9 963b e052 243d
00000060: 83cb eabc a400 3c3d 28a9 59bc 0963 ac3c
00000070: 3c88 57bb 6c04 01bd 3b4f 14bd e17c 1c3d
00000080: d870 bb3c e72b 6dbc 27c6 503d edc7 31bc
00000090: ef94 f53c ab6c 7d3d bcd3 1b3d 6e36 5f3d
000000a0: 9883 9ebc 2410 3e3d c0a1 633d 5d3c ec3c
000000b0: 5a35 33bd 2668 2bbc d8bb 2d3d e825 a93c
000000c0: 8fd3 2a3d ea06 303c db09 1cbd 00ec 3a3c
000000d0: c236 753d b8a4 5a3b 7f77 2e3d e556 103d
000000e0: 203b aab9 f1bf 46bc b0c4 f0bb 48fa fd3c
000000f0: 18bb 5c3d 9821 ac3c c231 433d f1bb 183d
00000100: d8b4 313c 7269 0fbd adf1 853c 99f8 fd3c
00000110: 6ad1 8fbc 350e d13c e720 1d3d 120c 823c
00000120: 3284 fa3b fef5 d1bc ac9d d9bc d291 e3bc
00000130: 6078 603d 853a 903d cfd3 40bd e991 57bd
00000140: e29f 27bd c16b 563d 531f fe38 5040 24bd
00000150: f223 db3c 313d 7e3d d3a3 883d 5859 4abb
00000160: 42fc 513d fef3 dcbc fc44 45bd 22a9 573c
00000170: 872c 2fbc 0e3b 0cbd eb86 07bd 8b7c d23c
00000180: d161 053c ab23 3b3d e0dc 223d ba25 25bd
00000190: 5b32 8c3d 0bd9 56bd 98fb d7bc 43e5 423d
000001a0: 9861 7a3d 0c12 383c dc12 4b3d 72c2 8a3c
000001b0: 6322 ab3b 8463 67bd 2ff7 4c3d 61e5 5e3d
000001c0: 262a 293b 6a68 75bd c413 11bd 162d 143d
000001d0: e8e1 79bd 8377 26bd 3c4e 11bd dd10 963c
000001e0: f8a9 263d bf45 033d 5fc5 26bd 15a7 0cbb
000001f0: 643b ecbb 2999 cfbc 29d0 7b3c d501 4dbd

fc2.weight f4 [64, 128]
0.02640675 -0.041973248 0.030471185 0.11078692 -0.05178766 0.13664375 0.06318742 0.09051323
0.102241725 0.121764235 0.07805001 0.01746623 -0.04774525 0.1035138 0.108840704 0.05664991
0.09511181 -0.12908317 0.060101457 0.04825669 0.019664623 0.0035286539 0.08100511 0.076159626
0.114510894 0.058938675 0.11929808 0.048632465 0.09681313 0.13372697 0.019367341 -0.01950772
0.16203593 -0.12698652 0.0053830673 -0.011402079 -0.07584071 -0.03104849 -0.03724842 -0.046094604
-0.104753815 0.05719413 -0.025160471 -0.03835917 0.0018635339 0.16792439 -0.043102145 -0.01530259
0.050601732 -0.12317379 -0.026312478 0.060760878 -0.024391938 -0.079180285 -0.02348108 0.04795971
0.14704722 0.0065350016 0.100363016 0.029450765 0.11891381 0.15026718 0.09942411 0.10106047
-0.053795837 -0.008437737 -0.008871151 0.031894322 0.12548055 -0.11712417 0.0771502 0.026363565
0.1626531 0.05842334 -0.007018053 -0.020585997 0.053180426 0.09284086 -0.06513636 -0.09591178
0.17385475 0.108496584 -0.0038910855 0.073590465 -0.02108629 -0.012626743 -0.04828702 0.14813086
-0.027512645 -0.0014521959 0.015801314 0.033088773 0.045075804 0.06838666 -0.074578725 0.03432927
0.08663955 0.09375381 -0.020075288 0.10392854 0.07117151 -0.017342845 0.009679481 -0.062526315
0.14929637 -0.003986437 0.030666122 0.16439821 0.0020271495 0.039836366 0.09116197 0.1059572
0.026405362 0.11516365 0.08140904 0.05662789 -0.06402684 0.09353074 -0.0207583 -0.019804763
0.13862166 -0.07701087 0.06642281 0.1280262 0.021850472 0.15963453 0.057721324 0.0013027433
-0.026878629 0.08487835 -0.06696837 0.065900266 -0.035960697 0.099692255 -0.030094521 -0.02500262
-0.06102026 0.006909749 -0.02062287 -0.008104631 0.13403349 -0.028725415 0.091605544 -0.035035584
0.010166435 -0.08637105 0.040032655 0.018862782 -0.058134273 0.04906415 0.08910839 0.051553406
0.060279217 0.041064803 -0.031187074 0.034299836 -0.06932827 0.040110953 0.033731434 -0.10595889
-0.029602334 0.107354425 0.037840858 0.1492239 0.08045169 -0.0075220075 -0.0054681203 0.07497468
-0.13019805 -0.15117775 -0.04085675 0.045936216 -0.115475416 0.097487725 -0.12987067 -0.073221706
0.06323915 -0.04703582 0.04418383 -0.061711445 -0.1836272 0.035602506 0.0147870425 -0.029254662
-0.1257709 -0.0246074 -0.016087363 0.045350008 0.08823754 0.031692393 -0.09534824 0.0026901043
-0.033106808 -0.03781141 0.06313135 -0.008883243 0.06799465 0.01913098 0.036563408 0.02247529
0.10412636 -0.03622449 0.13883828 -0.08057925 0.04464561 0.010106301 0.08167811 -0.07961148
0.07422014 -0.03725105 0.099319704 -0.09016038 0.01719143 -0.045619264 -0.0403786 0.1033469
0.07823664 0.056596287 -0.13249268 0.0024527416 0.10682331 -0.034201548 0.08558521 0.08309272
0.07403422 -0.026543265 -0.037046462 0.08403876 -0.045411713 0.008563044 -0.19154033 0.065270126
-0.0025999397 -0.03925213 -0.021448875 -0.057467654 0.06357142 0.00915107 0.081881054 0.021027328
-0.087527536 -0.07457617 -0.07053356 0.064430214 0.033148393 -0.008327247 -0.054573506 0.024026638
-0.027813505 -0.004447077 0.003504271 0.06283815 -0.06212965 -0.022901323 0.06775826 0.010969856
00000000: f852 d83c 24ec 2bbd b59e f93c 41e4 e23d
00000010: 4c1f 54bd 57ec 0b3e 6868 813d 005f b93d
00000020: 1c64 d13d 875f f93d afd8 9f3d 5715 8f3c
00000030: 8690 43bd 0bff d33d e0e7 de3d bc09 683d
00000040: fbc9 c23d 612e 04be f22c 763d cfa8 453d
00000050: b417 a13c fd40 673b 02e6 a53d 94f9 9b3d
00000060: b084 ea3d ae69 713d 8d52 f43d d632 473d
00000070: f645 c63d b9ef 083e 42a8 9e3c a7ce 9fbc
00000080: bfec 253e c108 02be 7164 b03b c9cf 3abc
00000090: 6052 9bbd 6759 febc cd91 18bd b2cd 3cbd
000000a0: 2b89 d6bd 6444 6a3d 551d cebc 811e 1dbd
000000b0: d241 f43a 5ff4 2b3e e08b 30bd b7b7 7abc
000000c0: c343 4f3d 8a42 fcbd 448d d7bc 66e0 783d
000000d0: 9ad1 c7bc 4629 a2bd 655b c0bc 6771 443d
000000e0: 8c93 163e 9123 d63b 208b cd3d bb42 f13c
000000f0: 1589 f33d a4df 193e de9e cb3d cbf8 ce3d
00000100: 0659 5cbd 6f3e 0abc 4e58 11bc 9fa3 023d
00000110: f97d 003e ccde efbd ed00 9e3d 67f8 d73c
00000120: 898e 263e 504d 6f3d b2f7 e5bb f7a3 a8bc
00000130: b8d3 593d 5923 be3d 3666 85bd 656d c4bd
00000140: fb06 323e 7533 de3d 9501 7fbb 99b6 963d
00000150: 28bd acbc 66e0 4ebc 9cc8 45bd 9eaf 173e
00000160: 3362 e1bc 9c57 beba c271 813c 1888 073d
00000170: 68a1 383d 4e0e 8c3d bbbc 98bd d99c 0c3d
00000180: 1470 b13d ff01 c03d ee74 a4bc 7dd8 d43d
00000190: 5ec2 913d 9512 8ebc b096 1e3c cc0d 80bd
000001a0: 26e1 183e a8a0 82bb 8537 fb3c 0158 283e
000001b0: edd9 043b 752b 233d 20b3 ba3d 1700 d93d
000001c0: 0f50 d83c ebda eb3d c8b9 a63d a5f2 673d
000001d0: 8120 83bd 0b8d bf3d 4f0d aabc 993d a2bc
000001e0: d6f2 0d3e e0b7 9dbd af08 883d 4d19 033e
000001f0: c3ff b23c 3c77 233e 326d 6c3d d0c0 aa3a
00000200: 9230 dcbc b3d4 ad3d b626 89bd b8f6 863d
00000210: 864b 13bd 742b cc3d c988 f6bc 4bd2 ccbc
00000220: 61f0 79bd 2d6b e23b 4bf1 a8bc 49c9 04bc
00000230: 1340 093e 9051 ebbc b09b bb3d 7981 0fbd
00000240: 1e91 263c 4ee3 b0bd 48f9 233d 1f86 9a3c
00000250: 341e 6ebd 7df7 483d 767e b63d aa29 533d
00000260: 57e7 763d 9133 283d 097c ffbc fc7d 0c3d
00000270: fbfb 8dbd 624b 243d f929 0a3d f900 d9bd
00000280: 9880 f2bc a3dc db3d 04ff 1a3d 26ce 183e
00000290: dbc3 a43d 2c7b f6bb eb2d b3bb 538c 993d
000002a0: a352 05be 57ce 1abe 6859 27bd 9d27 3c3d
000002b0: 607e ecbd a5a7 c73d d1fc 04be 43f5 95bd
000002c0: 8783 813d a2a8 40bd 1bfa 343d 24c5 7cbd
000002d0: c508 3cbe efd3 113d 5a45 723c 79a7 efbc
000002e0: 16ca 00be 7595 c9bc a5c9 83bc eec0 393d
000002f0: e2b5 b43d e2cf 013d f045 c3bd 764c 303b
00000300: 019b 07bd 23e0 1abd 024b 813d 068b 11bc
00000310: c740 8b3d 93b8 9c3c 83c3 153d 191e b83c
00000320: 3340 d53d 2160 14bd 9f2b 0e3e bc06 a5bd
00000330: 51de 363d e694 253c da46 a73d 580b a3bd
00000340: bb00 983d 8f94 18bd 2168 cb3d 01a6 b8bd
00000350: 0bd5 8c3c 44db 3abd 0864 25bd 8aa7 d33d
00000360: 883a a03d 82d1 673d 29ac 07be 2dbe 203b
00000370: 2ec6 da3d ec16 0cbd 4c47 af3d 842c aa3d
00000380: 419f 973d 4371 d9bc 08be 17bd 831c ac3d
00000390: a201 3abd 024c 0c3c 2623 44be 58ac 853d
000003a0: c063 2abb d7c6 20bd 8db5 afbc 3463 6bbd
000003b0: bc31 823d 5fee 153c 41b1 a73d 8141 ac3c
000003c0: a341 b3bd 64bb 98bd e673 90bd fdf3 833d
000003d0: 9cc6 073d 016f 08bc 7888 5fbd 83d3 c43c
000003e0: 26d9 e3bc c9b8 91bb e9a7 653b 4ab1 803d
000003f0: a97b 7ebd 8e9b bbbc d8c4 8a3d e9ba 333c

fc2.bias f4 [64]
0.10859383 0.09502102 0.07138338 0.018951662 -0.06965424 -0.022397764 0.06339584 -0.015617595
0.032587517 0.021976657 0.015141222 0.009247544 -0.063142784 0.06636374 -0.0163892 0.00046092775
0.0047333017 0.04791156 0.026134131 0.021661872 0.020457756 -0.08206948 -0.03587376 0.040680982
0.06251145 0.02978474 -0.015869664 0.08049406 0.038401492 -0.012487537 -0.05255753 -0.06392575
0.007262551 0.079024136 0.006532994 -0.018558804 0.040960714 0.047464065 0.005732167 -0.049824428
-0.024431365 0.013491807 -0.058190253 -0.04757261 -0.01656779 0.07421257 -0.014847431 -0.06706953
0.0058277138 -0.039590213 0.076057 -0.03251781 0.09736562 0.060327508 0.061826453 0.035383385
-0.023854513 0.08925744 0.023550436 -0.015912265 0.023371276 0.06651971 -0.002975287 0.026770089
00000000: 7166 de3d 619a c23d 7331 923d 8440 9b3c
00000010: e2a6 8ebd 847b b7bc aed5 813d f1e0 7fbc
00000020: 7d7a 053d 6408 b43c e312 783c 0383 173c
00000030: 0151 81bd b6e9 873d a542 86bc ada8 f139
00000040: d019 9b3b e93e 443d 3f17 d63c 3d74 b13c
00000050: 0697 a73c 0b14 a8bd 5df0 12bd 1aa1 263d
00000060: 0106 803d 21ff f33c 1901 82bc 12da a43d
00000070: e24a 1d3d 8798 4cbc 9146 57bd 81eb 82bd
00000080: b2fa ed3b 68d7 a13d ba12 d63b a208 98bc
00000090: 6cc6 273d ae69 423d e7d4 bb3b b314 4cbd
000000a0: 4924 c8bc bd0c 5d3c e758 6ebd 7fdb 42bd
000000b0: 2db9 87bc c3fc 973d a442 73bc c05b 89bd
000000c0: 68f6 be3b 5929 22bd c6c3 9b3d 6531 05bd
000000d0: a067 c73d fa19 773d bc3d 7d3d 2bee 103d
000000e0: 8a6a c3bc 9bcc b63d d8ec c03c 705a 82bc
000000f0: 1e75 bf3c 7c3b 883d 08fd 42bb f24c db3c

policy_head.weight f4 [110, 64]
0.048166502 -0.20175646 -0.05978882 -0.025320146 -0.004077891 -0.12069831 -0.13385302 -0.17273536
0.08133338 -0.018855555 -0.18221937 0.043223497 -0.09060611 0.040894967 -0.12065499 -0.14636923
-0.16892615 -0.045765147 0.27202022 -0.15797465 0.06716116 -0.03326152 0.0469402 -0.0073348675
-0.060538813 -0.10474953 0.3113773 -0.063891664 -0.04911825 0.038314622 -0.018739473 -0.04318159
0.14392406 0.26650837 -0.040133677 0.15323038 0.15201405 -0.12355305 0.29461467 0.42326805
0.15122822 -0.12542139 -0.12939753 -0.15690154 -0.09714773 0.11012069 -0.06458 0.0917003
-0.15040076 -0.088636495 0.36335734 0.092631415 0.11091479 -0.10670892 -0.15492636 0.06962109
0.052856643 -0.108452745 -0.07988651 0.060568288 0.012119552 0.32255736 0.06191081 0.27758154
0.09519144 -0.11998678 -0.027184246 0.018658446 -0.0865095 -0.2593213 -0.053678237 -0.062944986
0.2170383 -0.19518489 -0.078450166 0.03985854 0.033290837 -0.03612433 -0.17229289 -0.17726703
-0.16901033 -0.1479021 0.3130329 -0.007069943 -0.03808607 0.014911618 0.28187114 0.06620939
-0.2064483 -0.06564159 0.4306234 0.007712244 -0.025673453 0.117693745 -0.022448674 -0.16689475
0.24771896 0.3228392 -0.024364319 0.13959055 0.047167286 -0.15520564 0.17916302 0.38859332
0.13085356 -0.11877482 -0.015528986 -0.13219498 -0.22286238 0.11386201 -0.18045703 0.08646204
-0.005925047 0.0009677948 0.5120173 0.17618155 -0.0028465395 -0.13885146 -0.0702907 0.16547647
-0.034404796 -0.14957564 -0.098906904 0.10054622 -0.2210452 0.2079584 0.069539964 0.27965882
0.091420285 0.21964723 0.2235779 0.0050569586 0.012875825 0.17256409 0.066735074 0.18843393
0.09976032 0.13723327 0.13071175 -0.045545846 0.039165717 0.124363266 0.1635016 0.066174746
0.09803294 -0.05788173 -0.03579542 0.10822794 0.08436745 -0.034806866 0.0991693 0.08133067
0.15196644 0.10221747 -0.0478247 -0.11550497 -0.055866573 0.10224778 -0.08971275 -0.09140251
-0.15324913 0.058024775 -0.02145885 0.088666625 0.00072485773 0.20492075 -0.043030966 -0.0040786923
0.13555247 -0.005875365 0.20400888 0.1237555 0.03519602 0.0415643 0.069653064 -0.11093646
0.1357402 -0.047904488 -0.066063 -0.03318085 0.083237834 0.046678092 -0.082260296 0.10460817
-0.061930712 0.017286845 0.19912326 0.05753366 0.16774942 -0.0710962 0.090357624 0.025861204
0.061080597 -0.022727646 0.16113319 0.17093435 0.2276564 0.10317277 0.030200833 0.16256082
-0.1890436 0.035862684 0.22542293 0.0038681563 -0.039098606 -0.068535626 0.0994093 0.20097296
0.058977842 0.2438541 0.16932997 -0.00043303065 0.096345425 -0.02569466 0.096388794 -0.12642796
0.1611622 0.02623108 -0.3627733 -0.029638126 0.20080431 0.030079454 -0.092151165 0.19866836
0.17222035 -0.2602119 0.12906083 -0.02186142 0.094033636 0.0070232116 -0.103525236 -0.08160529
0.13561743 -0.0135435825 0.05465864 -0.021224556 0.10122117 -0.20516689 0.102901496 -0.049598876
0.15588915 0.060815044 -0.10651758 0.13952264 -0.18146163 0.095363714 0.23871559 -0.19620179
0.0873948 0.20627761 0.15169936 0.036127288 0.11329978 -0.21123184 -0.06848013 -0.19924174
00000000: 3d4a 453d 3f99 4ebe 1fe5 74bd 326c cfbc
00000010: d49f 85bb ad30 f7bd c410 09be 8ae1 30be
00000020: 1d92 a63d f776 9abc b797 3abe 1f0b 313d
00000030: b28f b9bd 7b81 273d f719 f7bd d1e1 15be
00000040: fafa 2cbe 3c74 3bbd 3c46 8b3e 1bc4 21be
00000050: ca8b 893d 3b3d 08bd 5e44 403d 5459 f0bb
00000060: 8cf7 77bd ec86 d6bd d86c 9f3e a2d9 82bd
00000070: 3830 49bd cbef 1c3d 8683 99bc 2edf 30bd
00000080: d460 133e c973 883e 3663 24bd 6de8 1c3e
00000090: 92a9 1b3e 6209 fdbd bcd7 963e 97b6 d83e
000000a0: 92db 1a3e 776e 00be c980 04be ccaa 20be
000000b0: 64f5 c6bd f586 e13d 8542 84bd 5ecd bb3d
000000c0: a802 1abe 0d87 b5bd f909 ba3e 8ab5 bd3d
000000d0: 4b27 e33d 358a dabd 04a5 1ebe 8195 8e3d
000000e0: 3580 583d 791c debd 8a9b a3bd 7416 783d
000000f0: 1691 463c 3d26 a53e 3196 7d3d 2b1f 8e3e
00000100: bbf3 c23d a1bb f5bd 7fb1 debc 99d9 983c
00000110: e52b b1bd c3c5 84be b6dd 5bbd 4de9 80bd
00000120: 4a3f 5e3e 8cde 47be 7baa a0bd b542 233d
00000130: f95b 083d 1bf7 13bd 8c6d 30be 7d85 35be
00000140: 0b11 2dbe a673 17be d945 a03e fbaa e7bb
00000150: 2400 1cbd dc4f 743c 6a51 903e ca98 873d
00000160: 2f67 53be 196f 86bd ac7a dc3e feb6 fc3b
00000170: 2251 d2bc 6b09 f13d 48e6 b7bc 75e6 2abe
00000180: 0aaa 7d3e 2e4b a53e ae97 c7bc d3f0 0e3e
00000190: 7c32 413d 3aee 1ebe 8376 373e b4f5 c63e
000001a0: 7afe 053e 3640 f3bd 4a6d 7ebc 1f5e 07be
000001b0: 0936 64be 7c30 e93d bac9 38be 0313 b13d
000001c0: e626 c2bb 9cb3 7d3a 9113 033f f068 343e
000001d0: 028d 3abb 142f 0ebe 92f4 8fbd aa72 293e
000001e0: 0bec 0cbd 5b2a 19be b48f cabd 2deb cd3d
000001f0: ac59 62be 0cf3 543e f86a 8e3d 712f 8f3e
00000200: 8f3a bb3d 34eb 603e 9bf1 643e d8b4 a53b
00000210: 20f5 523c a4b4 303e 66ac 883d d3f4 403e
00000220: 234f cc3d e186 0c3e 4dd9 053e 488e 3abd
00000230: 3b6c 203d 2bb2 fe3d f76c 273e a086 873d
00000240: 7ec5 c83d 6515 6dbd 389e 12bd 9ca6 dd3d
00000250: d7c8 ac3d a591 0ebd 4619 cb3d b290 a63d
00000260: 179d 1b3e 6557 d13d d5e3 43bd df8d ecbd
00000270: 59d4 64bd 4967 d13d 51bb b7bd 3d31 bbbd
00000280: 57ed 1cbe 63ab 6d3d 78ca afbc d996 b53d
00000290: 6104 3e3a bfd6 513e 3d41 30bd 8da6 85bb
000002a0: 44ce 0a3e 2286 c0bb b4e7 503e 8673 fd3d
000002b0: b429 103d 543f 2a3d 44a6 8e3d a832 e3bd
000002c0: 7bff 0a3e 7f37 44bd 0a4c 87bd a5e8 07bd
000002d0: 9978 aa3d 8731 3f3d 1678 a8bd cf3c d63d
000002e0: 0fab 7dbd 249d 8d3c f8e6 4b3e 6aa8 6b3d
000002f0: 81c6 2b3e e29a 91bd 6b0d b93d e0da d33c
00000300: a62f 7a3d 542f babc 1900 253e 6a09 2f3e
00000310: c21e 693e 3f4c d33d bd67 f73c 5876 263e
00000320: a594 41be c0e4 123d 45d5 663e e580 7d3b
00000330: dc25 20bd 685c 8cbd 1a97 cb3d dbcb 4d3e
00000340: c092 713d e4b4 793e d664 2d3e 6408 e3b9
00000350: c050 c53d 9c7d d2bc 7d67 c53d 5576 01be
00000360: b407 253e 90e2 d63c 6cbd b9be a8cb f2bc
00000370: a59f 4d3e 3069 f63c c0b9 bcbd b86f 4b3e
00000380: 885a 303e 7f3a 85be 8628 043e b816 b3bc
00000390: b594 c03d f822 e63b 0a05 d4bd ad20 a7bd
000003a0: 4cdf 0a3e e7e5 5dbc bde1 5f3d 1fdf adbc
000003b0: 0b4d cf3d 4517 52be 05be d23d 3128 4bbd
000003c0: 68a1 1f3e 3219 793d e425 dabd 06df 0e3e
000003d0: 14d1 39be 0d4e c33d dc71 743e 1fe9 48be
000003e0: 0bfc b23d 703a 533e 1457 1b3e 35fa 133d
000003f0: b709 e83d 294d 58be 4f3f 8cbd 0706 4cbe

policy_head.bias f4 [110]
-0.040781323 0.0821705 0.022940766 0.1959773 -0.0703578 -0.059221175 -0.04796653 -0.063332856
0.06578409 -0.1246877 -0.04583793 -0.09132665 0.087326325 -0.03565899 0.15154366 -0.016135577
-0.014558478 0.09553124 0.07275012 0.09551659 0.017714491 -0.12462659 -0.08522146 -0.073753335
-0.07311012 0.10926793 0.01724351 -0.009818108 0.027111191 -0.10191289 -0.054914393 -0.12520514
-0.03986342 0.05550757 -0.06881577 0.10119626 0.040577456 -0.07298315 0.0150010055 0.10367757
-0.09553908 0.06460539 0.026585411 -0.08487759 0.010372743 -0.022195136 0.0931313 -0.007545562
0.03399529 0.071021415 -0.09487207 0.086109966 0.07992087 0.002587017 -0.066194035 -0.07797213
0.14788187 0.07268437 0.008737243 -0.010764225 -0.08702669 -0.059299808 8.2332575e-05 0.04175389
0.0067408825 -0.0049996777 0.06698486 0.07110688 0.019082582 0.03503862 0.069458276 -0.095607795
0.040584236 -0.074913256 -0.054378543 -0.0501963 -0.13615648 0.034041144 -0.13865457 0.015676003
-0.12690005 0.010365887 -0.120539226 0.054492854 -0.16272348 0.040126767 0.025449838 -0.10757804
-0.030070381 -0.04086021 -0.10447715 -0.10429759 -0.014095496 0.018250301 -0.13115363 0.045064922
-0.01278836 -0.081981055 -0.14623481 0.005969503 0.04545294 -0.10290518 -0.00060525135 -0.03231259
-0.13650669 -0.13958454 -0.08621484 -0.0967111 -0.13080367 0.084169716
00000000: 510a 27bd 0249 a83d 46ee bb3c 46ae 483e
00000010: c017 90bd e791 72bd 8d78 44bd a8b4 81bd
00000020: cfb9 863d 445c ffbd 8ec0 3bbd 7709 bbbd
00000030: 25d8 b23d 290f 12bd 432e 1b3e c22e 84bc
00000040: af86 6ebc e2a5 c33d 04fe 943d 349e c33d
00000050: fb1d 913c 3a3c ffbd 9788 aebd fd0b 97bd
00000060: c2ba 95bd ddc7 df3d 4342 8d3c 21dc 20bc
00000070: 4a18 de3c b5b7 d0bd eaed 60bd c735 00be
00000080: d347 23bd e85b 633d 48ef 8cbd fc3f cf3d
00000090: 8c34 263d 3178 95bd c7c6 753c e854 d43d
000000a0: fea9 c3bd d54f 843d a6c9 d93c 4dd4 adbd
000000b0: 70f2 293c 93d2 b5bc 9fbb be3d c340 f7bb
000000c0: a53e 0b3d ad73 913d 4a4c c2bd 6c5a b03d
000000d0: 8ead a33d f18a 293b bd90 87bd daaf 9fbd
000000e0: 586e 173e 8bdb 943d a726 0f3c 6f5c 30bc
000000f0: 0d3b b2bd 5be4 72bd f7a9 ac38 2106 2b3d
00000100: 9fe2 dc3b 56d4 a3bb 5c2f 893d 7ca0 913d
00000110: 1353 9c3c a884 0f3d 2440 8e3d 05ce c3bd
00000120: a83b 263d 1f6c 99bd 09bc 5ebd a39a 4dbd
00000130: 9b6c 0bbe ba6e 0b3d 77fb 0dbe f66a 803c
00000140: 16f2 01be aed5 293c 45dd f6bd e633 5f3d
00000150: fca0 26be f75b 243d 2e7c d03c e051 dcbd
00000160: 2956 f6bc 095d 27bd 1ef8 d5bd fa99 d5bd
00000170: ccf0 66bc a881 953c 234d 06be ff95 383d
00000180: 4586 51bc afe5 a7bd 94be 15be d29b c33b
00000190: dd2c 3a3d f3bf d2bd bba9 1eba 355a 04bd
000001a0: 69c8 0bbe 40ef 0ebe 6891 b0bd 7810 c6bd
000001b0: 66f1 05be 2c61 ac3d

value_head.weight f4 [1, 64]
-0.0225954 0.081041 0.015282705 0.104098566 0.012117244 0.19812994 -0.031175975 0.039248295
-0.17311698 0.14545979 -0.042073503 -0.052864626 0.10736769 -0.08490329 0.038968045 0.12231924
0.033921506 0.17087007 -0.08215266 0.025793007 -0.067696266 -0.09465877 -0.12819058 0.09289103
0.09799057 0.047678187 -0.12368784 -0.09496112 0.081810415 -0.0927666 -0.0815141 0.09001933
-0.017180711 -0.24793744 0.055369437 -0.24556574 -0.08804419 0.055260964 0.029164847 -0.1606214
-0.09873022 -0.1020167 0.034180216 0.05783819 0.13888368 -0.13346863 -0.0022164052 -0.060279574
0.024990672 -0.07362371 -0.21491714 -0.14260866 0.038132846 0.05763822 0.13565621 -0.19017349
-0.010103413 -0.027027775 0.02195159 -0.076108314 0.118675835 -0.06205616 -0.08722091 -0.018427718
00000000: fd19 b9bc d3f8 a53d 5064 7a3c a131 d53d
00000010: 6887 463c 93e2 4a3e c264 ffbc d2c2 203d
00000020: 9445 31be 69f3 143e 4455 2cbd 9488 58bd
00000030: 97e3 db3d c7e1 adbd f59c 1f3d 8282 fa3d
00000040: 47f1 0a3d 90f8 2e3e a73f a8bd db4b d33c
00000050: 57a4 8abd 75dc c1bd 6444 03be a73d be3d
00000060: 48af c83d 344a 433d 0d50 fdbd fa7a c2bd
00000070: 388c a73d 6afc bdbd ddf0 a6bd 0e5c b83d
00000080: 90be 8cbc 50e3 7dbe 10cb 623d 9675 7bbe
00000090: 8350 b4bd 5259 623d 1eeb ee3c f079 24be
000000a0: 1233 cabd 22ee d0bd 8e00 0c3d bde7 6c3d
000000b0: 8637 0e3e 00ac 08be 1c41 11bb b7e7 76bd
000000c0: 3db9 cc3c 07c8 96bd 3d13 5cbe 0108 12be
000000d0: 3031 1c3d 0e16 6c3d 76e9 0a3e d7bc 42be
000000e0: c988 25bc 5a69 ddbc d2d3 b33c adde 9bbd
000000f0: 510c f33d 9a2e 7ebd e0a0 b2bd baf5 96bc

exp_avg f4 [128, 260]
0.00010336384 1.6037366e-05 6.969722e-05 8.239379e-05 6.255014e-05 0.00024501514 0.0006839 0.00022086193
0.00039019983 0.00052399136 0.00020144763 0.00034347354 0.00026753568 1.2346858e-05 0.00016107867 0.00024159171
0.00024472675 0.00025288275 0.0004737783 6.832538e-05 0.00011010156 0.0003796249 0.00022434483 -1.8279487e-05
0.00043750805 0.0003948169 2.7821445e-05 0.00024776725 0.000111228044 0.0003394737 0.00041044157 0.00017882703
0.0003733967 0.00010357891 0.0004552371 0.00042046068 4.6439767e-05 0.00020927338 0.0004236893 7.107944e-05
-3.6230016e-05 0.00010032444 4.4868513e-05 -5.8925393e-06 0.00013564735 0.00022761922 0.00033932237 0.00040173865
0.00036620692 0.00026981154 0.00015348541 0.00012230132 7.840188e-06 7.04108e-07 2.2318818e-06 2.1069072e-05
5.5800965e-06 3.2731587e-05 -4.215627e-05 1.7079023e-05 -3.1422875e-05 -3.7637674e-05 0.00024101898 2.4850151e-05
3.7187478e-05 2.3960192e-06 1.8955062e-20 1.2012463e-20 7.2614957e-06 5.4709995e-05 2.3731269e-05 1.0271874e-05
-2.5995769e-05 -4.884214e-05 -0.000102455815 0.00023317746 -1.1309236e-05 -1.5884469e-06 6.73774e-06 1.0141715e-05
1.1619874e-06 4.6632376e-05 3.8061878e-06 5.7649002e-05 2.537655e-05 -1.575901e-05 1.7969169e-05 1.9298946e-05
0.000112840586 6.7821005e-05 -2.4025941e-05 4.7179938e-07 4.1026422e-05 1.5233489e-05 9.263001e-06 6.3224834e-06
3.0792213e-05 1.3498564e-05 -2.8959364e-05 -1.761831e-06 1.8224287e-05 -6.3258203e-06 5.090137e-05 6.517648e-06
8.033382e-05 0.000112342816 8.475936e-06 -4.5554402e-06 0.00022125478 8.409772e-05 5.0156148e-05 0.00013172273
7.293108e-05 0.00020390606 0.000310979 0.00013796893 -2.4646326e-05 0.000115994306 6.531137e-06 2.5730037e-19
3.8664202e-05 1.1340671e-05 9.400965e-05 7.21727e-05 4.4992925e-05 -3.261472e-05 0.00018567708 0.0002674465
0.00014838361 -5.206444e-05 0.00013283451 -3.22761e-05 1.7278177e-05 0.00011678487 9.720015e-05 7.103428e-05
0.00011583585 8.159394e-05 9.0493595e-05 0.00029201646 0.00017698339 0.00014572966 0.00032079013 -2.5873765e-05
-2.7082577e-05 0.00016833005 1.335777e-06 3.896493e-05 0.0001365315 7.7876095e-05 1.0227682e-06 7.094658e-05
-2.0936315e-05 0.00048910774 0.00020946705 0.00045188793 0.00010679635 0.00010428267 3.0578198e-05 3.0164834e-05
1.7780556e-05 3.3633478e-05 -3.6982052e-05 0.0001919349 -3.5429512e-06 4.232088e-05 -4.603474e-05 3.3552099e-06
8.439456e-05 3.177223e-05 0.000111037654 2.437352e-05 7.0292394e-06 0.00021423776 2.29335e-05 -1.7342778e-06
0.00017559715 0.00021032937 2.5896466e-05 7.966719e-05 -3.725441e-05 3.4107226e-05 6.418623e-05 0.00016221721
0.00024444808 -2.9000124e-05 3.742136e-05 2.4781628e-05 6.8542286e-06 -8.834359e-06 2.1130389e-05 0.00013616525
-1.3454091e-05 2.5204563e-05 -1.5937261e-05 5.2522773e-05 5.7366622e-05 3.688337e-05 0.0002412474 3.1254838e-06
0.00010005133 1.8680446e-05 3.697489e-05 -4.9215687e-05 -1.0571777e-05 1.8278779e-05 -5.345959e-05 3.5366324e-05
0.00073541957 0.00080031395 0.00092042406 0.00090286724 0.0007265153 0.00063763466 0.00037896773 0.00047188258
0.0006055158 0.0003011002 0.00032456132 0.000524033 0.00066920946 0.0008652058 0.00075429765 0.0007592411
0.00073417363 0.000494162 0.00041871832 0.00088464515 0.0007287182 0.00052495435 0.0007033286 0.00047166925
0.0004934183 0.0006584096 0.00080109446 0.0006458307 0.00065806444 0.0005596576 0.0004833588 0.00070129347
0.00051191886 0.0008716211 0.00044731863 0.00016540966 0.00071075384 0.00058565225 0.00032916458 0.0009310856
0.000996951 0.000709458 0.0007356888 0.0009910595 0.0006245345 0.0006960066 0.00068467646 0.0006108929
00000000: 0ac5 d838 fb87 8637 692a 9238 d4ca ac38
00000010: 5a2d 8338 6075 8039 c147 333a 2c97 6739
00000020: bc93 cc39 775c 093a b03b 5339 3d14 b439
00000030: 0844 8c39 5a25 4f37 3ae7 2839 c853 7d39
00000040: ab4e 8039 5995 8439 7265 f839 e949 8f38
00000050: 53e6 e638 6408 c739 1b3e 6b39 e656 99b7
00000060: 5661 e539 6dff ce39 1962 e937 c2e6 8139
00000070: 1a43 e938 64fb b139 8930 d739 8483 3b39
00000080: 75c4 c339 8138 d938 e4ac ee39 4771 dc39
00000090: 52c8 4238 6570 5b39 9d22 de39 7c10 9538
000000a0: aff5 17b8 4665 d238 3331 3c38 87b8 c5b6
000000b0: 8f3c 0e39 12ad 6e39 14e7 b139 73a0 d239
000000c0: 76ff bf39 7e75 8d39 edf0 2039 033e 0039
000000d0: 5a89 0337 ef01 3d35 70c7 1536 7dbd b037
000000e0: aa3c bb36 4649 0938 f3d0 30b8 ec44 8f37
000000f0: 0ecc 03b8 25dd 1db8 0aba 7c39 4b75 d037
00000100: c0f9 1b38 4ccb 2036 8706 b31e b5e8 621e
00000110: c6a7 f336 6978 6538 8312 c737 5d55 2c37
00000120: 7d11 dab7 d9db 4cb8 8cdd d6b8 1981 7439
00000130: ccbc 3db7 9f32 d5b5 bf14 e236 5626 2a37
00000140: 95f5 9b35 2297 4338 cf6d 7f36 25cc 7138
00000150: badf d437 3732 84b7 7fbc 9637 2ce4 a137
00000160: d4a4 ec38 203b 8e38 518b c9b7 9d4b fd34
00000170: c913 2c38 5693 7f37 4968 1b37 b825 d436
00000180: e326 0138 e477 6237 c3ed f2b7 0d78 ecb5
00000190: 5ce0 9837 6242 d4b6 ee7e 5538 2cb2 da36
000001a0: e478 a838 9799 eb38 de33 0e37 efda 98b6
000001b0: a100 6839 9f5d b038 c15e 5238 0d1f 0a39
000001c0: 93f2 9838 9ecf 5539 e50a a339 c1ab 1039
000001d0: 95bf ceb7 f841 f338 0a26 db36 22e2 9720
000001e0: 5f2b 2238 d043 3e37 0c27 c538 6c5b 9738
000001f0: c9b6 3c38 cacb 08b8 50b2 4239 1038 8c39
00000200: 6c97 1b39 c45f 5ab8 7e49 0b39 3360 07b8
00000210: 9af0 9037 66ea f438 efd7 cb38 3df8 9438
00000220: e6ec f238 6a1d ab38 61c7 bd38 c919 9939
00000230: 9e94 3939 02cf 1839 b92f a839 7d0b d9b7
00000240: 642f e3b7 c181 3039 f348 b335 466e 2338
00000250: e529 0f39 6951 a338 0c46 8935 28c9 9438
00000260: 65a0 afb7 7737 003a 62a4 5b39 5feb ec39
00000270: dbf7 df38 55b2 da38 1741 0038 7d0a fd37
00000280: 7427 9537 ac11 0d38 2d1d 1bb8 2242 4939
00000290: 70c3 6db6 b381 3138 6d15 41b8 112a 6136
000002a0: fcfc b038 2c43 0538 e3dc e838 bc75 cc37
000002b0: b5dc eb36 03a5 6039 5161 c037 55c5 e8b5
000002c0: 8020 3839 dc8b 5c39 3d3c d937 ff12 a738
000002d0: 9e41 1cb8 5b0e 0f38 b89b 8638 da18 2a39
000002e0: 4429 8039 4b45 f3b7 e1f4 1c38 24e2 cf37
000002f0: 60fd e536 4837 14b7 2a41 b137 95c7 0e39
00000300: e1b8 61b7 636e d337 02b1 85b7 e64b 5c38
00000310: f19c 7038 38b3 1a38 5bf7 7c39 67bf 5136
00000320: a6d2 d138 f4b3 9c37 7c15 1b38 f16c 4eb8
00000330: 705d 31b7 6155 9937 cc39 60b8 4d56 1438
00000340: 2cc9 403a 29cc 513a 9d48 713a 65ae 6c3a
00000350: 9e73 3e3a f026 273a 30b0 c639 0267 f739
00000360: 7abb 1e3a fcdc 9d39 e229 aa39 425f 093a
00000370: e36d 2f3a face 623a 0fbc 453a cf07 473a
00000380: 8f75 403a a78a 013a 6c87 db39 88e7 673a
00000390: 7307 3f3a 179d 093a 955f 383a 604a f739
000003a0: be58 013a 1f99 2c3a 8a00 523a f74c 293a
000003b0: f581 2c3a fcb5 123a 526b fd39 02d7 373a
000003c0: 4b32 063a 807d 643a 1786 ea39 d171 2d39
000003d0: e251 3a3a 7586 193a b993 ac39 1914 743a
000003e0: 20ac 823a ecfa 393a 3ddb 403a 70e6 813a
000003f0: cdb7 233a 3674 363a dc7b 333a 5424 203a

exp_avg_sq f4 [128, 260]
2.3697264e-07 1.9727456e-07 4.2401828e-07 2.900719e-07 2.5931817e-07 4.2326457e-07 5.06699e-07 4.3718728e-07
5.2520073e-07 6.0712483e-07 4.4923593e-07 6.11588e-07 5.99902e-07 2.5327867e-07 3.1776648e-07 3.1636932e-07
4.7874056e-07 2.5591422e-07 3.844789e-07 3.911876e-07 4.1059096e-07 5.186198e-07 4.812128e-07 4.395959e-07
5.2965333e-07 3.672516e-07 3.3194635e-07 3.36051e-07 2.4928121e-07 3.0383217e-07 3.5072725e-07 3.7721327e-07
4.2063667e-07 5.6381543e-07 5.3350374e-07 5.0384784e-07 3.860683e-07 3.5016228e-07 4.8705596e-07 2.2532566e-07
1.9298793e-07 2.8563696e-07 3.8106313e-07 3.313781e-07 4.2369817e-07 3.7796536e-07 3.566958e-07 5.021805e-07
4.8065357e-07 6.669058e-07 3.689327e-07 5.2668906e-07 5.6341554e-10 7.9628926e-10 5.955753e-10 7.771055e-09
2.34787e-08 3.7977415e-08 4.8753158e-08 5.1957944e-08 5.090022e-08 6.321266e-08 7.483843e-08 6.423571e-08
5.6714523e-08 7.44298e-10 7.365815e-10 6.452683e-10 7.114331e-09 3.7459937e-08 4.9081756e-08 4.3602334e-08
4.7499334e-08 6.667466e-08 6.869381e-08 5.940448e-08 6.658276e-08 7.043182e-08 7.8936147e-10 6.3956074e-10
1.4537298e-09 3.1920717e-08 4.0916095e-08 2.1630417e-08 3.522644e-08 4.620008e-08 5.7106664e-08 4.911059e-08
6.0532386e-08 6.309038e-08 4.7200547e-08 2.7103284e-10 2.1296245e-09 1.3425403e-09 2.1056303e-08 3.5174928e-08
4.730212e-08 4.5729358e-08 6.9674236e-08 3.5876656e-08 5.8358207e-08 6.823523e-08 7.821759e-08 4.785848e-08
1.036414e-07 1.0030944e-07 1.3349329e-07 1.5793398e-07 1.743683e-07 3.6936012e-07 2.9441304e-07 4.1087515e-07
4.354221e-07 4.6175975e-07 5.790221e-07 4.771354e-07 4.9993577e-07 1.1267198e-07 1.6477856e-07 2.7274214e-07
4.9302418e-08 2.0604506e-07 2.70604e-07 2.6980067e-07 4.8359794e-07 4.858941e-07 5.5000174e-07 5.7283785e-07
3.6936933e-07 4.8133603e-07 9.940317e-08 6.8203924e-08 1.7397277e-07 2.535593e-07 2.5650172e-07 2.6321757e-07
2.557632e-07 4.307074e-07 3.494672e-07 6.4396403e-07 4.87259e-07 3.8392096e-07 5.8456465e-07 2.9290545e-08
1.4518403e-07 1.9931824e-07 3.026135e-07 1.5782078e-07 3.8095155e-07 4.1870493e-07 4.7054277e-07 4.1655787e-07
5.288822e-07 4.0685538e-07 5.6340184e-07 6.4838844e-07 1.8738527e-07 1.277446e-07 6.8336675e-08 6.1891235e-08
1.12651456e-07 8.2496996e-08 7.742311e-08 6.7609726e-08 3.5459493e-08 5.5729476e-08 2.3277497e-08 2.8717073e-08
4.4563293e-08 8.804296e-08 1.4656177e-07 1.17539074e-07 5.1071588e-08 1.1950974e-07 8.61853e-08 5.983628e-08
8.5173475e-08 8.7405475e-08 5.878206e-08 3.166302e-08 4.061748e-08 6.407223e-08 6.949949e-08 1.4924915e-07
1.0880143e-07 9.00066e-08 8.465475e-08 1.2431032e-07 7.5821426e-08 6.308015e-08 3.8943355e-08 4.499478e-08
5.14249e-08 1.7536511e-08 4.531607e-08 6.57343e-08 1.5559195e-07 1.3702599e-07 1.5378151e-07 3.7207855e-08
8.765853e-08 1.0041326e-07 4.473508e-08 6.866232e-08 3.248256e-08 6.351275e-08 6.5223105e-08 2.6888676e-08
1.6867322e-06 1.7745689e-06 1.5696739e-06 1.6255542e-06 1.603996e-06 1.2452781e-06 1.2067219e-06 1.178611e-06
1.0802812e-06 9.016759e-07 9.803148e-07 9.340152e-07 9.857147e-07 1.7608243e-06 1.5418995e-06 1.4876357e-06
1.5896867e-06 1.5923096e-06 1.3112494e-06 1.3622764e-06 1.1321717e-06 9.780357e-07 9.450449e-07 1.0578316e-06
1.1491256e-06 1.1124927e-06 1.702174e-06 1.6426744e-06 1.6309559e-06 1.4874e-06 1.3834044e-06 1.3670891e-06
1.3436681e-06 1.0703267e-06 1.0983722e-06 9.385899e-07 1.0667172e-06 1.3441091e-06 1.0039635e-06 1.993381e-06
1.6849185e-06 1.5979746e-06 1.3525955e-06 1.6107348e-06 1.1724717e-06 1.1708091e-06 1.2024371e-06 1.0830047e-06
00000000: 8b72 7e34 6bd2 5334 a1a4 e334 2ebb 9b34
00000010: 6b38 8b34 0a3d e334 1704 0835 90b6 ea34
00000020: 85fb 0c35 4df9 2235 842e f134 022c 2435
00000030: f408 2135 5bfa 8734 7e99 aa34 78d9 a934
00000040: cd82 0035 9564 8934 616a ce34 6a04 d234
00000050: 316f dc34 4837 0b35 b12c 0135 9a01 ec34
00000060: 802d 0e35 ad2a c534 5c36 b234 7f6a b434
00000070: f3d4 8534 601e a334 964b bc34 cc83 ca34
00000080: ddd3 e134 1a59 1735 1936 0f35 2940 0735
00000090: d344 cf34 f0fd bb34 3bbe 0235 0cf1 7134
000000a0: 1e38 4f34 a559 9934 eb94 cc34 42e8 b134
000000b0: a278 e334 2aeb ca34 e67f bf34 95cd 0635
000000c0: 4306 0135 6b05 3335 b911 c634 cc61 0d35
000000d0: d8de 1a30 e0e1 5a30 e3b5 2330 7681 0532
000000e0: 35ae c932 9c1c 2333 aa64 5133 5d28 5f33
000000f0: 629d 5a33 87bf 8733 ddb6 a033 f4f1 8933
00000100: 4796 7333 5197 4c30 5178 4a30 b85e 3130
00000110: 5172 f431 a3e3 2033 f6cd 5233 4645 3b33
00000120: 1202 4c33 c82e 8f33 d284 9333 eb23 7f33
00000130: 42fc 8e33 4d40 9733 60fa 5830 16cd 2f30
00000140: 92cc c730 3319 0933 b9bb 2f33 cacd b932
00000150: e14b 1733 866d 4633 7145 7533 aaed 5233
00000160: 08fe 8133 4e7c 8733 8db9 4a33 7b00 952f
00000170: c058 1231 7084 b830 4ddf b432 3e13 1733
00000180: 3b29 4b33 f667 4433 d19f 9533 cd16 1a33
00000190: 87a5 7a33 b788 9233 93f8 a733 f58c 4d33
000001a0: 7691 de33 b369 d733 5b56 0f34 9094 2934
000001b0: fe39 3b34 784c c634 d20f 9e34 4096 dc34
000001c0: f5c3 e934 c7e7 f734 196e 1b35 7f14 0035
000001d0: 5333 0635 13f6 f133 fced 3034 656d 9234
000001e0: 95c0 5333 3c3d 5d34 8847 9134 1fd9 9034
000001f0: 99d0 0135 636e 0235 d5a3 1335 1ec5 1935
00000200: bc4d c634 2935 0135 7877 d533 8177 9233
00000210: 45cd 3a34 ed20 8834 54b5 8934 5950 8d34
00000220: d44f 8934 f93b e734 689e bb34 dfdc 2c35
00000230: 2fcc 0235 b21d ce34 faea 1c35 979a fb32
00000240: e2e3 1b34 2e04 5634 e276 a234 7275 2934
00000250: 9585 cc34 5eca e034 e89e fc34 47a3 df34
00000260: 82f8 0d35 c76d da34 ae3c 1735 ea0c 2e35
00000270: 1234 4934 2b2a 0934 7cc0 9233 11e9 8433
00000280: cbea f133 3429 b133 ce43 a633 d730 9133
00000290: 204c 1833 355b 6f33 c2f3 c732 83ad f632
000002a0: dc65 3f33 2112 bd33 985e 1d34 ca69 fc33
000002b0: ce59 5b33 9652 0034 df14 b933 587f 8033
000002c0: 9de8 b633 abb3 bb33 8f77 7c33 dcfd 0733
000002d0: 6473 2e33 1598 8933 c03f 9533 4b41 2034
000002e0: 38a6 e933 a749 c133 71cb b533 297a 0534
000002f0: 45d3 a233 ae76 8733 ac42 2733 4940 4133
00000300: 47de 5c33 32a3 9632 8ca1 4233 d029 8d33
00000310: ca10 2734 6b21 1334 241f 2534 78ce 1f33
00000320: c93e bc33 c6a2 d733 be22 4033 8273 9333
00000330: f482 0b33 8164 8833 c810 8c33 d3f8 e632
00000340: ad63 e235 b92d ee35 96ad d235 9e2d da35
00000350: e248 d735 6e23 a735 a6f6 a135 c430 9e35
00000360: 2efe 9035 b20a 7235 5c93 8335 09b9 7a35
00000370: e64c 8435 7655 ec35 43f3 ce35 c6aa c735
00000380: 385d d535 57b7 d535 30fe af35 76d7 b635
00000390: 20f5 9735 0d45 8335 feae 7d35 d1fa 8d35
000003a0: a83b 9a35 f550 9535 4176 e435 dd79 dc35
000003b0: 38e7 da35 ada2 c735 6aad b935 d37c b735
000003c0: 1658 b435 25a8 8f35 c86b 9335 68f3 7b35
000003d0: 202c 8f35 3d67 b435 ecbf 8635 06c6 0536
000003e0: 5c25 e235 fd79 d635 d48a b535 6d30 d835
000003f0: d25d 9d35 b224 9d35 6d63 a135 c25b 9135

exp_avg f4 [128]
0.0010336809 0.00021802828 0.00047873502 -0.0013046728 0.00018196422 -5.1015206e-05 0.0008328894 0.0005426104
0.00015072396 0.00031347797 0.00014085475 -0.002044977 1.8372766e-05 0.00045426103 -3.1577474e-05 -0.00027953408
0.00015387307 7.4642867e-06 0.0009875393 0.00045131703 0.0006570048 0.0008873632 -0.00015978541 0.0008354273
1.00823945e-05 0.0012529485 0.00039285555 -0.00028942144 0.0011305878 -0.00034684842 -0.00012816346 0.0010903617
0.0008415992 0.001256887 -2.3090624e-05 -0.0023818137 0.00017859373 0.00020895433 0.0009604353 0.00078981626
-0.00081603264 1.4401804e-05 0.0006456303 0.0008164525 0.00054489047 -0.000114741466 -0.0006277436 -0.00013523908
0.00029345974 0.00022040894 0.00089638546 -0.00028996682 0.00076175336 0.00017473963 -0.00051994127 -0.0006005223
0.00015415941 -6.4652027e-06 0.0008985604 0.0008655933 -0.00017718007 0.0008797684 -0.000884173 6.401519e-06
9.9447854e-05 0.00060409046 0.00019694738 -0.00028360492 -0.00021406154 0.0003232534 0.0010712289 0.0004436328
0.00071825384 0.00019306534 -0.0003895917 -0.0004436638 0.00091056776 -0.00048656398 0.0013974209 0.0007984739
0.0006732642 -0.0006753428 0.00077677844 -0.00019202265 -5.1649884e-05 0.0012009896 0.0011820846 0.0006094054
0.00054452714 0.001641679 7.397313e-06 8.188728e-05 -0.00019427112 0.00032614334 0.0011271334 -0.00021507873
-5.3652762e-05 0.00017727239 0.00049265125 -0.00010397653 0.00052970747 0.000976824 -0.0005899733 0.0003340482
-4.632775e-05 -0.00095157634 0.0009870091 -0.0004551225 -0.00025701028 0.001276122 -0.00057892286 -0.00041169606
0.00043736084 0.0011837686 -0.0001473944 0.0009126312 0.00037708212 0.0010780789 0.0007967375 0.000292547
-0.00015852878 -0.0011910258 0.0007160068 6.91884e-05 0.0008319 0.00023579298 0.0008755828 -3.3414104e-05
00000000: 937c 873a 859e 6439 bafe fa39 8e01 abba
00000010: a6cd 3e39 29f9 55b8 4356 5a3a f83d 0e3a
00000020: a80b 1e39 4d5a a439 69b2 1339 0505 06bb
00000030: 371f 9a37 e229 ee39 0e72 04b8 6e8e 92b9
00000040: fd58 2139 bc75 fa36 5270 813a bf9e ec39
00000050: d93a 2c3a f09d 683a 128c 27b9 9400 5b3a
00000060: 8e27 2937 fa39 a43a 2ef8 cd39 7dbd 97b9
00000070: 3b30 943a 35d9 b5b9 9e63 06b9 78ea 8e3a
00000080: c49e 5c3a 21be a43a bdb2 c1b7 3418 1cbb
00000090: e444 3b39 c01a 5b39 b9c5 7b3a ac0b 4f3a
000000a0: 06eb 55ba 479f 7137 843f 293a 3307 563a
000000b0: fbd6 0e3a 5ba1 f0b8 298f 24ba f7ce 0db9
000000c0: 80db 9939 931d 6739 69fb 6a3a b006 98b9
000000d0: 67b0 473a 503a 3739 ab4c 08ba 5f6c 1dba
000000e0: daa5 2139 abef d8b6 5e8d 6b3a fce8 623a
000000f0: 6ac9 39b9 42a0 663a d8c7 67ba a1cc d636
00000100: a98e d038 d35b 1e3a a983 4e39 cfb0 94b9
00000110: b575 60b9 567a a939 7a68 8c3a 6397 e839
00000120: 3349 3c3a 9571 4a39 1d42 ccb9 8c9b e8b9
00000130: 2bb3 6e3a 8319 ffb9 aa29 b73a ad50 513a
00000140: ff7d 303a 7d09 31ba b8a0 4b3a b059 49b9
00000150: a4a2 58b8 866a 9d3a 2df0 9a3a 81c0 1f3a
00000160: 99be 0e3a 9b2d d73a 6f36 f836 e6ba ab38
00000170: 42b5 4bb9 38fe aa39 52bc 933a c286 61b9
00000180: 3709 61b8 32e2 3939 4425 013a f90d dab8
00000190: 11dc 0a3a c608 803a 70a8 1aba 3123 af39
000001a0: 0b50 42b8 3573 79ba 885e 813a 829d eeb9
000001b0: 56bf 86b9 8d43 a73a dbc2 17ba e9d8 d7b9
000001c0: 944d e539 af28 9b3a e28d 1ab9 a53d 6f3a
000001d0: 1bb3 c539 534e 8d3a 26dc 503a fe60 9939
000001e0: bf3a 26b9 321c 9cba 67b2 3b3a 3d19 9138
000001f0: dd13 5a3a 323f 7739 5e87 653a 1f26 0cb8

exp_avg_sq f4 [128]
2.348638e-06 1.5349951e-05 7.1219654e-07 1.2186906e-05 1.2592775e-06 2.0651187e-06 5.1850348e-06 1.0658299e-06
1.9201623e-06 1.7688707e-06 4.918294e-06 3.4761568e-05 1.8094433e-05 1.6164533e-06 1.2259256e-06 9.099416e-06
1.9929644e-06 8.2096685e-06 1.1238121e-06 4.8707107e-06 6.6652883e-06 1.2728242e-06 5.2709134e-07 1.4871223e-06
1.2064568e-06 1.4193861e-05 5.4542506e-05 5.2457412e-06 2.020315e-06 2.7568118e-05 5.5971293e-07 5.3696895e-06
3.1778334e-05 4.7258512e-05 2.5296213e-06 1.0811264e-05 9.820191e-06 2.3932676e-06 2.6873417e-06 2.3796588e-06
2.8945986e-05 3.0060025e-07 2.1907838e-06 1.0633231e-05 2.4801093e-06 2.2976396e-06 5.41721e-05 1.4708374e-05
3.7514627e-07 1.314516e-05 5.5758715e-06 2.8494795e-05 2.8695087e-05 8.997862e-06 1.6084537e-05 2.114157e-05
7.179022e-06 2.5483978e-06 1.4105551e-06 2.246931e-06 5.74616e-07 1.7122734e-06 1.7329583e-05 2.7594422e-06
7.004316e-06 2.1879614e-05 1.1434132e-06 2.4712842e-06 1.8238338e-06 1.0328286e-05 2.5313227e-06 1.6292646e-06
3.0443101e-05 1.884632e-06 2.6520693e-06 5.7413217e-06 4.6326854e-06 1.205018e-06 8.939704e-06 5.3687277e-06
1.4470744e-06 1.4696844e-05 1.4507116e-05 2.4722673e-05 1.736222e-06 1.9686227e-06 2.744401e-05 1.928529e-05
1.7618016e-05 1.2957991e-05 6.7105584e-06 1.4482661e-05 4.5085e-06 1.9227457e-06 1.10127385e-05 4.2890642e-06
7.9711725e-07 1.124641e-06 2.6177495e-06 1.9257946e-05 2.9422636e-06 2.048938e-05 3.8903625e-05 1.6050992e-05
3.29792e-06 3.1109234e-05 4.222819e-06 6.0505545e-06 1.7768589e-06 1.1885274e-05 2.5176857e-06 1.4889033e-05
1.4997152e-06 3.3449041e-06 1.1776894e-05 1.4888387e-05 7.602661e-06 2.1606422e-06 1.7792366e-06 6.652489e-07
9.834188e-07 1.5038743e-05 7.8364815e-07 4.622274e-06 2.1261671e-06 1.309073e-05 1.2747461e-05 2.7274928e-06
00000000: 4b9d 1d36 c5c3 8037 c62d 3f35 5d76 4c37
00000010: 7204 a935 7896 0a36 1cfb ad36 a30d 8f35
00000020: 23dc 0036 ef69 ed35 d307 a536 f3cc 1138
00000030: 80c9 9737 eaf4 d835 7c8a a435 b2a9 1837
00000040: debe 0536 42bc 0937 e4d5 9635 166f a336
00000050: 64a6 df36 e8d5 aa35 717d 0d35 2299 c735
00000060: 8aed a135 2b22 6e37 92c4 6438 9304 b036
00000070: bf94 0736 1542 e737 2e3f 1635 482d b436
00000080: ba49 0538 7137 4638 90c2 2936 0662 3537
00000090: 66c1 2437 069c 2036 2e58 3436 3ab2 1f36
000000a0: 08d1 f237 2f62 a134 6105 1336 6165 3237
000000b0: f46f 2636 2631 1a36 d936 6338 fcc3 7637
000000c0: b667 c934 088a 5c37 5f18 bb36 1b08 ef37
000000d0: 3bb6 f037 86f5 1637 48ed 8637 2d59 b137
000000e0: 54e3 f036 2405 2b36 4e52 bd35 fbc9 1636
000000f0: 503f 1a35 44d1 e535 ff5e 9137 db2e 3936
00000100: 9e06 eb36 1d8a b737 6177 9935 57d8 2536
00000110: 74ca f435 a747 2d37 cbdf 2936 1bad da35
00000120: 1060 ff37 76f3 fc35 34fa 3136 94a5 c036
00000130: 7772 9b36 1abc a135 bcfb 1537 0525 b436
00000140: 1939 c235 7792 7637 9763 7337 8963 cf37
00000150: 2208 e935 ae1c 0436 9037 e637 d8c6 a137
00000160: 67ca 9337 2666 5937 422b e136 8efa 7237
00000170: b847 9736 8508 0136 5ac3 3837 c8ea 8f36
00000180: 7bf9 5535 5ff2 9635 98ac 2f36 208c a137
00000190: b473 4536 9ce0 ab37 732c 2338 3ea5 8637
000001a0: d651 5d36 497b 0238 bdb1 8d36 de05 cb36
000001b0: 687c ee35 dd66 4737 83f5 2836 e9cb 7937
000001c0: d249 c935 0479 6036 6095 4537 23c9 7937
000001d0: 5c1a ff36 8dff 1036 1bce ee35 8e93 3235
000001e0: 03fe 8335 e94e 7c37 e45b 5235 0819 9b36
000001f0: 46af 0e36 42a0 5b37 eedd 5537 f809 3736
