ppo_2layer_2048_epoch10/ppo_agent_episode_2500.pth (torch, 596626 bytes, 21 tensors)

fc1.weight f4 [128, 260]
000000 eb b9 10 bc 10 32 1a bd c5 4e de bd 4b 9a de bd
       -0.008833389 -0.0376454 -0.10854868 -0.10869273
000010 50 5c 26 be 62 39 00 be 0c 9a 18 bc 03 ff a5 bd
       -0.16246152 -0.1252189 -0.009314071 -0.0810528
000020 6f 63 eb bd 7d 39 fa bd 74 05 44 be ce 2d b9 3c
       -0.11493575 -0.12217996 -0.19142705 0.02260485
000030 0e 06 bd bd 63 a2 d9 bd bb da 65 bc c5 c4 65 bd
       -0.092296705 -0.10626676 -0.0140292 -0.056095857
000040 76 55 ea bd ba 0b ba bd 87 bd 92 bd 8c 0a ef bc
       -0.11442082 -0.09084268 -0.07165056 -0.029179834
000050 f6 a7 03 bd 3b 45 ec bd 67 00 e6 bc 78 54 bd bd
       -0.032142602 -0.11536642 -0.028076364 -0.09244627
000060 79 58 f0 bc e0 a4 3b bd a2 26 f1 bd b9 b7 ea bd
       -0.029339062 -0.045811534 -0.11774947 -0.114608236
000070 68 76 b2 bd 83 dd 88 bd f9 78 f6 bd 82 7b 8d bc
       -0.087139904 -0.06682875 -0.120347925 -0.017270807
000080 81 97 9b bd 26 40 8e bd 55 07 90 bd 1d bd 14 be
       -0.075972565 -0.06945829 -0.070326485 -0.14525266
000090 1b 5f 71 bd 8e 53 ca bd ce 2f e0 bd 1c af d3 bd
       -0.05892859 -0.09879218 -0.10946618 -0.10336134
0000a0 04 05 2a 3c 56 b9 de bd 86 16 dc bc 63 37 b3 bd
       0.010377172 -0.10875194 -0.026866209 -0.087507986
0000b0 19 d2 87 bd 74 43 70 bd 72 a2 dd bd 60 c8 da bd
       -0.0663187 -0.05865808 -0.108219996 -0.1068275
0000c0 0f 64 c9 bd 71 ee d4 bd ce 44 dd bd b5 bc 59 bd
       -0.09833538 -0.103970416 -0.10804139 -0.05315848
0000d0 63 4c 4e be 39 82 90 be cd c6 42 be 01 76 01 3d
       -0.20146327 -0.28224352 -0.19021149 0.031606678
0000e0 2b 64 28 3c 11 7d 0a 3d 94 54 10 bd 4b ff 27 3d
       0.010277788 0.03381068 -0.03523691 0.04101495
0000f0 3a d3 93 3d e3 a6 88 3c 12 a8 87 3d 4c cd d4 3d
       0.07218023 0.01668114 0.06623854 0.1039072
000100 58 c3 f1 3c 51 78 0f be 70 4e 3c be 17 9c 7e be
       0.029512092 -0.14010741 -0.18389297 -0.24864231
000110 b3 71 0c 3b 89 bc 59 bd 91 53 1d 3a 7b a2 2b 3d
       0.0021430075 -0.053158317 0.0006001527 0.041903
000120 f1 9b 7a 3d d8 b9 84 3b 4b 1c 84 3d 29 e0 af bc
       0.061183874 0.0040504746 0.06450709 -0.021469193
000130 84 6d 94 3c 8b ba 3e 3e 4a 45 86 be 21 0c 6a be
       0.018118627 0.18625848 -0.26224738 -0.2285619
000140 e9 41 c1 bc 9a 6e a9 bd f2 b4 bc 3b 42 fe da bc
       -0.023590999 -0.08273049 0.005758875 -0.026732568
000150 58 61 12 bd 89 92 67 3d 6c 52 d3 3c 4b 71 ab 3d
       -0.035737365 0.05653623 0.025796138 0.08371218
000160 28 0d 72 3d c6 e7 82 bd f0 1f 00 3d b4 91 5a be
       0.059094578 -0.063918635 0.031280458 -0.21344644
000170 6b 59 81 be e9 b6 ed bd 73 17 ec bb ca af a1 bd
       -0.25263533 -0.11607153 -0.007204944 -0.07894857
000180 cc aa 0c 3d b6 b6 59 bd 13 5f 90 bd 98 8e 85 3d
       0.034342572 -0.053152762 -0.07049384 0.06521338
000190 ba 3c 4a 3d 47 28 8f 3c 94 6b d1 3d 92 5a f3 3c
       0.04937432 0.01747526 0.10225597 0.029706273
0001a0 1e 4b 5d bc b1 32 0b 3d 4c da 4f 3d ae e6 23 bd
       -0.013506679 0.03398389 0.050745293 -0.040014915
0001b0 3f 78 6b 3d 2a a1 34 3d 0d 63 d0 3c 94 45 87 3d
       0.057487722 0.04409901 0.025437856 0.06605068
0001c0 a9 02 86 bb 03 ed 15 3d 74 06 30 3d f5 c0 b5 bd
       -0.0040896726 0.036602985 0.042974904 -0.08874694
0001d0 4f a8 a5 3d 46 e8 7a 3d ea b0 bf 3d bf 6a c0 bc
       0.08088743 0.06125667 0.093599156 -0.0234884
0001e0 62 62 71 3d 33 a5 bb bc b7 b4 86 bd 36 ac 01 3a
       0.058931716 -0.022905922 -0.06577437 0.0004946621
0001f0 9a af 62 3d 78 7e d3 bb e6 67 00 3d f3 a3 03 3e
       0.055343248 -0.0064542852 0.031349085 0.1285551
000200 db 24 f9 3d 41 9e 75 bd 98 4b 90 bc 30 79 f7 3d
       0.12165233 -0.059965376 -0.01761417 0.120836616
000210 23 16 19 3d ec f2 80 3d a0 e7 d9 3c 3f 24 81 3d
       0.037374627 0.06296334 0.026599705 0.063057415
000220 5c 97 09 3e fb d9 73 3d f3 29 93 3d 2c cb f6 bc
       0.13436645 0.059534054 0.071857356 -0.030126177
000230 88 82 57 3c ea 6e f4 bc 50 13 7d 3c d1 70 30 bd
       0.01315368 -0.029838044 0.015446499 -0.04307634
000240 5f c8 85 3d 2a c0 63 3d 92 fc b5 bc cd 0f 15 3d
       0.065323584 0.055603184 -0.022215161 0.036392022
000250 4d 29 1e 3d 9e 78 3c 3d 01 9b ce bc 4e 13 8a 3d
       0.038613606 0.046013467 -0.025220396 0.06741963
000260 50 23 51 bc d4 62 ec 3d 5d c0 c3 3a a9 e9 63 3d
       -0.012764767 0.115422875 0.0014934648 0.055642758
000270 8d 63 45 bb 5c 2d b6 3d 05 18 30 bd b6 5a 88 3d
       -0.0030119151 0.0889537 -0.042991657 0.06657927
000280 13 f8 95 3d d8 b3 9d 3c 5f ed a6 bd ab fc 9d 3d
       0.07322707 0.019250795 -0.08150744 0.07714208
000290 ad 20 30 3d 95 ad 5c 3c d0 3f cd bb cf a7 91 3d
       0.042999912 0.01346912 -0.0062637106 0.07112085
0002a0 1a 75 45 bd 0c ab 76 3d 70 eb ce 3c aa fd 08 3d
       -0.04820738 0.060221717 0.02525875 0.033445038
0002b0 75 b7 eb 3d 63 7a d2 3c 86 26 e0 3c 46 a5 ac bc
       0.11509601 0.025693124 0.02736212 -0.021074902
0002c0 51 e2 60 3d 34 3b 84 3d a2 f2 49 3d b0 0d 9f 3d
       0.054903332 0.064566046 0.04930366 0.077662826
0002d0 ad b2 82 3d f0 8a d4 3c 5f 94 21 3c 6f ab 67 3d
       0.06381736 0.025945157 0.009862035 0.056559976
0002e0 bf 15 e4 3b e0 d0 4d 3d 38 a0 cf bc 4e 95 25 3d
       0.0069606 0.050248027 -0.025344953 0.04042559
0002f0 dc 56 83 ba bd fe 70 bd 32 7d 5b 3d d6 7d 35 bc
       -0.0010020393 -0.058836687 0.053586192 -0.011077365
000300 bf 5d 04 3e fe e2 9c 3c 92 4e ca 3d 87 f2 31 bd
       0.12926386 0.019151207 0.09878267 -0.043444183
000310 09 7c 30 bd a6 47 73 bc ed 85 a4 3d bb 04 93 3a
       -0.04308704 -0.014848625 0.08033357 0.001121662
000320 bd 84 3e bc 32 9e d9 bd 14 47 9d 3d d0 97 09 bd
       -0.011628327 -0.106258765 0.07679573 -0.033592045
000330 64 97 82 3d 3d fd c0 bc 74 d3 33 3d 9c 26 91 bd
       0.06376532 -0.023558253 0.04390283 -0.07087442
000340 c7 d8 78 3c d9 ab 04 3d e8 16 85 3d 93 94 9f 3d
       0.0151884025 0.03239045 0.0649851 0.0779201
000350 00 2d 10 bc 03 19 25 3b 4f 07 2a 3d 8a f0 a2 3c
       -0.008799791 0.002519191 0.041510876 0.019890089
000360 11 15 02 3d fa aa 89 3d 25 f1 3f 3c ea 62 28 bc
       0.03175837 0.06722064 0.011715208 -0.010277489
000370 4d 5e 87 bc 61 e1 06 3d 0c 95 3e bc 50 31 ad 3d
       -0.016524458 0.03292978 -0.011632215 0.08456671
000380 2a 6f b0 3b 38 be af 3c c8 18 20 3d cf 97 8b 3c
       0.0053843455 0.021453008 0.039086133 0.017040161
000390 7b c8 c7 3d d2 ff ae 3d a2 22 ef 3b d1 5b f1 3c
       0.097550355 0.085448876 0.0072978297 0.029462727
0003a0 6c 8e 8f 3c fe 99 00 bd e4 8d 82 3d 90 2d 24 3d
       0.017523967 -0.03139686 0.0637472 0.040082514
0003b0 1b 77 d1 bc d7 56 9b 3d cc 6b 61 3d 35 2a ff 3c
       -0.02556949 0.07584923 0.055034444 0.031148056
0003c0 eb 6e ef bc 1f 54 14 3d c2 78 97 bb db 73 a7 3d
       -0.029227694 0.036213037 -0.0046225497 0.081763946
0003d0 19 bb 94 3d 42 8a 51 3d 09 66 b9 3d 8c 9a a1 3d
       0.072622485 0.051157244 0.09052665 0.078908056
0003e0 0e c2 20 3d d3 f5 39 bc 4a 71 ec 3b f0 b3 9a bc
       0.039247565 -0.011350113 0.0072156535 -0.018884629
0003f0 c7 1d fb 3a 78 d8 2c 3d 04 5d 30 3d 42 1d c2 3d
       0.0019158655 0.04219863 0.043057457 0.09478237

fc1.bias f4 [128]
000000 33 1a 2c bc ee 54 82 bd 55 38 01 3d 55 64 80 3d
       -0.010504293 -0.06363855 0.031547863 0.06269137
000010 71 c9 15 bd 8c a1 b7 bc b9 81 e1 bc 1b f6 9b 3c
       -0.036569063 -0.022415899 -0.027527677 0.01903825
000020 81 57 18 bd 77 43 1f bc 8c 91 21 bd 03 87 14 3a
       -0.037192825 -0.009720675 -0.039445445 0.000566587
000030 ea a0 30 bd 4b e9 7f 3d f4 90 83 3c d7 c8 c6 3c
       -0.04312221 0.062478345 0.01606033 0.02426569
000040 be 2e 29 3c 29 92 83 3d b7 e3 19 3d 30 4c 92 bc
       0.010326086 0.06424362 0.03757068 -0.017858595
000050 c3 f3 2d 3c ca 5a ac bc 79 91 19 3c 6e 11 0d 3d
       0.010617199 -0.021039385 0.009373062 0.03444045
000060 26 87 e8 bc bb 32 45 3d 17 c7 01 bd 31 a3 ad 3c
       -0.028384756 0.048144083 -0.031684007 0.02119598
000070 3f de 8a bc 8b 2c 34 bd e6 2c 4f bd e6 02 fa 3c
       -0.016951678 -0.043987792 -0.050579928 0.03051896
000080 38 3d 48 3c 72 84 1d bc 1d 08 72 3d 57 da 96 3c
       0.012221627 -0.009614097 0.05908977 0.01841466
000090 e2 eb b4 3c 79 49 0a 3d 5e d0 0d 3d c0 b9 4b 3d
       0.022085134 0.033761475 0.034622543 0.049737692
0000a0 bf 70 d2 3c f1 e0 79 3d e0 e5 58 3d a0 95 44 3c
       0.025688527 0.061005536 0.0529536 0.011998564
0000b0 c4 90 1d bc f3 93 cd bc e1 18 45 3d 0b 28 94 3c
       -0.009617034 -0.025094962 0.04811943 0.0180855
0000c0 b5 87 1f 3d 9f 9b b8 3a a5 b2 02 bd 97 c3 48 3d
       0.03894778 0.0014084465 -0.03190865 0.049014654
0000d0 5a 51 79 3d 18 04 04 3c 62 03 75 3d 44 33 5c 3d
       0.0608686 0.008057617 0.05981768 0.05375983
0000e0 d8 65 37 3b fc f1 7f 3b 67 6a 81 bc 9b f2 cf 3c
       0.0027984288 0.0039054146 -0.015797807 0.025384238
0000f0 53 72 94 3d 23 84 ea bb 4f 04 59 3d 71 7f 18 3d
       0.07248368 -0.007156865 0.052982625 0.037230913
000100 0e 7a 7d 3c a0 85 2a bd 28 70 ae bb 6a c2 c9 3c
       0.015470995 -0.04163134 -0.0053234287 0.024628837
000110 0f be e7 bc 39 88 78 3c 31 1b 0a 3d 0b 7e 5c 3c
       -0.02828887 0.015169197 0.033717338 0.013457785
000120 7a c5 10 bb f9 cb ee bc ce 8a fd bc 86 cf 20 bc
       -0.0022090361 -0.029149996 -0.030949976 -0.009815102
000130 6f 91 43 3d 81 28 ce 3d 51 90 49 bd d3 38 62 bd
       0.04774612 0.10066319 -0.049209896 -0.055229973
000140 5d 62 5b bd c3 7b 3e 3d 9f 8d 96 bc a5 27 47 bd
       -0.053560603 0.046504747 -0.018378077 -0.048621792
000150 36 4c 95 3d af 1e 4c 3d e8 5b 84 3d 34 4a 13 bc
       0.07289927 0.04983395 0.06462842 -0.008989859
000160 b9 1a 2a 3d 22 68 23 bd 43 3a 67 bd be 1e 12 3c
       0.04152939 -0.03989423 -0.056452047 0.008918462
000170 dd d8 5e bc 28 b1 2f bd 8f 2c 28 bd a0 1a ac 3c
       -0.013601509 -0.04289356 -0.04105812 0.02100879
000180 b5 7f 50 bb c3 c8 df 3c d2 02 96 3c 92 13 26 bd
       -0.00318144 0.02731741 0.018311892 -0.040546007
000190 04 89 1f 3d f9 98 96 bd a3 9a 97 bc 3c be 00 3d
       0.038949028 -0.07353396 -0.018506354 0.03143142
0001a0 af 8c 2c 3d 83 07 e1 3c d9 16 52 3d 7a 89 90 3c
       0.042126354 0.027469402 0.05129132 0.017643679
0001b0 25 43 f5 bb 9a 4b 57 bd db 1f af 3d 1f 98 a7 3d
       -0.007484811 -0.052562334 0.08550998 0.08183312
0001c0 cf da 42 bc 7f a1 5f bd 87 5a 4b 3c 01 bb b9 3c
       -0.011892988 -0.054597374 0.01241172 0.022672178
0001d0 49 b3 8e bd be db 5b bd 59 a7 45 bd af 47 a7 3b
       -0.0696779 -0.05367636 -0.0482553 0.005104981
0001e0 bc 90 25 3d d2 4b 91 3d fa 47 2e bd 3d ad 4d bc
       0.040421233 0.0709454 -0.04254911 -0.01255351
0001f0 55 47 55 bc 70 70 30 bd 8b 93 86 3c 44 e5 57 bd
       -0.013017495 -0.04307598 0.016427776 -0.05270888

fc2.weight f4 [64, 128]
000000 38 09 fc 3d 67 87 e3 bd 0f 84 e4 3d 40 e5 a2 3c
       0.12306446 -0.1110981 0.11158001 0.019884706
000010 33 29 49 be ea 83 8d 3e 54 49 10 3d ec 28 4f 3c
       -0.19644623 0.27639705 0.03522618 0.012644034
000020 f7 b9 cd 3c 88 d6 9d 3e 23 ea 3c bd f4 22 d7 3c
       0.025113089 0.30827737 -0.046121728 0.026261784
000030 28 70 a4 bc ea b4 e6 3d 7f 5e a2 3e d1 d8 5d bd
       -0.020073012 0.11264975 0.3171272 -0.05416185
000040 75 a7 d5 3d b5 bd 67 be cc ec 82 3e a2 c1 64 3e
       0.104323305 -0.22630961 0.25571287 0.2233949
000050 9b 63 e5 3d 5c cc ec 3d b1 af 15 3c 27 84 7c 3e
       0.11200639 0.11562416 0.009136126 0.24659787
000060 de c6 a4 3e 66 30 bb 3d be b9 d1 3d 75 39 c4 3d
       0.32182974 0.09140091 0.10240506 0.095812716
000070 60 f1 ea 3d a8 90 38 3e e1 0b 8e 3d 4b 51 8e bd
       0.1147182 0.18023932 0.069358595 -0.06949099
000080 0d 4b 5b 3e 44 b2 7b bd 71 ac d5 3c a9 07 bd bd
       0.21415348 -0.061449304 0.026083203 -0.09229977
000090 cb 93 f6 bc 3d bb 8f bd 66 a7 ec bd a3 d4 00 be
       -0.03009977 -0.07018135 -0.11555366 -0.12581114
0000a0 e8 bd 88 be 92 57 10 be 5f c3 e0 bc 95 91 21 bd
       -0.26707387 -0.14095905 -0.02743691 -0.03944548
0000b0 2e 10 81 be 31 36 77 3e 6c 9d 48 bd e0 35 b0 bd
       -0.25207657 0.24141766 -0.048978254 -0.08604026
0000c0 d6 5e 49 3e 6d 6b 48 be 57 d1 87 3d bc 37 5a bd
       0.19665083 -0.1957223 0.06631725 -0.05327581
0000d0 5c 3f 36 be bc 88 20 bd d0 15 4c bd ef b0 43 3c
       -0.17797607 -0.0391929 -0.04982549 0.01194404
0000e0 4d 80 93 3d 38 ab 24 be b6 4d 28 3e 4e fb 20 3e
       0.07202206 -0.1608094 0.16435894 0.15720865
0000f0 54 31 f8 3d c1 6a 9d 3e bf 20 84 3d e7 2d c5 bd
       0.121187836 0.3074551 0.06451558 -0.09627896
000100 c9 fc 90 bd 1d 5a 27 3d f0 ba 70 bd 9b 34 25 3d
       -0.07079465 0.040857423 -0.058772027 0.04033337
000110 56 6e 51 3e 05 33 06 be e7 f4 2a 3e e8 be 95 bc
       0.20452246 -0.131054 0.16694985 -0.018279508
000120 5f fd 49 3e 58 78 81 3e 29 a2 fd 3c ea 74 32 be
       0.1972556 0.25287127 0.030961113 -0.17427412
000130 6f 10 4b 3e dc bc 1f 3d 6f 73 a3 bd f1 b9 15 be
       0.19830488 0.03899847 -0.079810016 -0.14621712
000140 98 bf dc 3e 1b 50 2a 3d bf 2e cd 3c 0b 1e 97 3d
       0.43114924 0.0415803 0.025046704 0.07378777
000150 f8 8a 05 be ea 6c bc 3d e7 59 1d be 0f e7 cb 3d
       -0.13041294 0.09200461 -0.15366326 0.0995618
000160 ff 04 e1 bc bd 14 ab 3b be 6d af bd 87 af bb 3d
       -0.027468203 0.005220978 -0.085658535 0.091643386
000170 41 08 ea 3d 41 86 5a 3e 58 b3 71 bd 22 4d ff bb
       0.114273556 0.21340276 -0.059008926 -0.0077911774
000180 31 98 00 3e 54 09 28 3e 95 16 97 bd b2 e6 5b 3e
       0.12558056 0.16409808 -0.07377354 0.21474722
000190 b5 fb 77 3d 08 f6 38 3d 5e f6 c4 bd 55 12 20 bd
       0.06054278 0.04515651 -0.09617303 -0.039079983
0001a0 09 a8 40 3e 67 5f a3 bd 94 71 5a 3d 8f 4f f3 bb
       0.188141 -0.07977181 0.053330973 -0.0074252556
0001b0 6c cc 17 3c c5 e8 a2 3d 10 db ac bc 9c 81 59 bc
       0.009265047 0.079545535 -0.02110055 -0.01327553
0001c0 d8 2a cb bd ee 81 75 3e f3 dc d0 bd 00 78 e1 3d
       -0.09920281 0.23975345 -0.10198393 0.11009216
0001d0 ca e7 e7 bb fb 6d 4e 3e 26 84 77 bd 13 b1 d1 3d
       -0.007077192 0.20159142 -0.06042876 0.10238852
0001e0 f2 78 15 3e a1 fb 88 be 4a 3c bc 3d 71 80 1b 3e
       0.14596918 -0.26754478 0.09191187 0.15185715
0001f0 00 59 d6 bc 26 f7 37 3e bd d0 da 3d 10 b0 e8 3a
       -0.026165485 0.17965373 0.10684345 0.0017752666
000200 8d 49 0b 3c ce b4 43 3d d6 da b6 bc 02 50 02 3e
       0.008501423 0.04777985 -0.022321146 0.12725833
000210 f6 cb c0 bd 00 28 33 3e bd 9c c3 bc 4a 0d 05 bd
       -0.094139025 0.17495728 -0.02387845 -0.032483377
000220 32 34 57 bd 82 e6 a3 3d f7 d7 38 bd 68 5d d0 3b
       -0.05254001 0.0800295 -0.045127835 0.006358791
000230 f5 11 61 3e 9d 02 24 bc 84 da 43 3e 69 37 12 be
       0.21979506 -0.010010389 0.19126326 -0.1427895
000240 92 96 d7 3c 91 f3 d5 bd 26 95 cd 3d ce 09 93 3d
       0.026316915 -0.10446847 0.100382134 0.071796045
000250 1e 2b a6 3c 20 42 b5 3d b5 df 29 3d f5 cf 02 3e
       0.020284232 0.08850503 0.04147311 0.12774642
000260 df 05 04 3e cb 90 31 3d 1f 7f 74 bd 67 3f 42 3d
       0.12892865 0.043350976 -0.059691545 0.047423746
000270 62 08 53 bd 4d c9 cc 3d fe f6 11 bd 06 85 1a be
       -0.051521666 0.099993326 -0.03563594 -0.15089807
000280 cb 68 15 bc 2d be f6 3d 88 29 60 3d d6 64 18 3e
       -0.009119223 0.12047992 0.054727107 0.14882216
000290 38 7e 16 3e 50 b5 a3 bd f0 d8 99 bc 14 f5 81 3d
       0.14696586 -0.07993567 -0.018780202 0.06345573
0002a0 cf 08 c8 bd 0a 0a 5c be 68 5f 3a bd b8 16 f5 3d
       -0.09767305 -0.21488205 -0.045501143 0.11967224
0002b0 70 92 3e be cd 60 14 3e c5 ef fe bd a0 67 04 be
       -0.18610549 0.14490052 -0.12448076 -0.12930155
0002c0 bd 0c a3 3d e6 5e 6f bd ab 63 dd 3c 7d e4 41 bc
       0.07961414 -0.05844011 0.027025064 -0.011834261
0002d0 c8 aa 71 be b0 c0 a9 3d ff a5 8c bc 43 fe df 3d
       -0.23600304 0.08288705 -0.017168997 0.109371684
0002e0 16 b6 ce bd c9 44 24 be 72 6f d4 3c 3c 8e c0 3d
       -0.10093324 -0.16041864 0.025932048 0.09402129
0002f0 17 f0 44 3e e3 dd ae 3d 38 a0 81 bd 6a db 06 be
       0.19232212 0.08538415 -0.063293874 -0.13169637
000300 28 b2 05 be f6 eb 96 bc af 8b 9b bd 88 a6 00 3d
       -0.13056242 -0.018423062 -0.07595002 0.031408817
000310 a1 46 f7 3d 72 65 4c 3d 86 e8 7f 3d 07 34 3c 3c
       0.12074018 0.049901433 0.06247761 0.011487014
000320 6e 75 e2 3d 53 fa f7 3c 3d 23 0c 3e ad 0d 1d be
       0.11057554 0.030270731 0.13685317 -0.15337248
000330 bd f3 cc 3d b7 69 d9 3c ee 2e 8b 3d 38 af ba bd
       0.10007427 0.026539667 0.067960605 -0.091154516
000340 ad 01 1e 3e ff 09 f4 bd de c2 07 3e 46 90 72 bd
       0.15430327 -0.11915969 0.1325793 -0.05921962
000350 c7 d6 75 3c ff 89 ab bc a2 10 df bc fe e7 a9 3d
       0.01500482 -0.020939825 -0.02722961 0.08296202
000360 e3 0e fe 3d 78 80 a1 3d c6 ea 76 be 6a 1d b4 3d
       0.12405183 0.078858316 -0.24112996 0.08794673
000370 42 50 1f 3e de fa 7d bb db 70 df 3d cc e9 91 3d
       0.1555796 -0.0038754265 0.10910197 0.07124671
000380 fd 03 e0 3d 90 f6 ce 3c b3 3d 63 bd 10 3a 16 3e
       0.10938261 0.025264055 -0.055478763 0.14670587
000390 60 c5 0b be e4 aa 41 3d bf 0a 4a be 8a 92 c3 3c
       -0.13649511 0.047282115 -0.19730662 0.023873586
0003a0 43 4e 46 3d 4d e6 2d 3c 86 b3 cc bb 3d 8d 16 be
       0.04841448 0.01061399 -0.006246987 -0.14702316
0003b0 60 02 3d 3e a3 ba 8e 3d 70 49 8d 3d 4e 29 c4 3c
       0.18457937 0.06969192 0.06898773 0.023945477
0003c0 88 9f 36 be 7e 31 41 bd af 1c 49 bd 06 57 bb 3d
       -0.17834294 -0.04716634 -0.04909962 0.09147458
0003d0 d3 4e 97 3d 53 eb db 3a fa 48 4b bd fa ef b7 3d
       0.073880814 0.0016778506 -0.049630143 0.08981319
0003e0 c4 2c f4 bb 2c 8c 59 bd 62 32 4c 3b 78 5a 0d 3e
       -0.0074516255 -0.053112194 0.003115796 0.13804042
0003f0 b8 30 30 be 8b f0 39 3d 47 b6 03 3e 2a 6d e4 3d
       -0.17206085 0.045395415 0.12862502 0.11153634

fc2.bias f4 [64]
000000 87 28 0a 3d e5 58 c4 3d e9 a7 0a bc da 00 f0 3c
       0.033730056 0.09587268 -0.008462884 0.029297281
000010 13 a9 b7 bd d3 72 13 bc 39 8b 91 3c e4 f6 8c bd
       -0.08967795 -0.008999544 0.017766582 -0.06883028
000020 45 b7 18 3d 79 90 02 3d e5 29 91 bd f5 3f 51 3b
       0.037284154 0.03187606 -0.07088069 0.003192899
000030 f7 f1 8e bd 50 a9 87 3d 33 9f 84 bd 8a c6 91 3c
       -0.06979745 0.06624091 -0.06475677 0.017794866
000040 49 66 f3 bc e8 65 55 3d 22 f7 15 3b 7c 51 b2 3c
       -0.02971186 0.05209914 0.0022882898 0.02176737
000050 a8 83 95 bb 3e 2a a9 bd 2f 0f 76 bd 91 8a 85 3d
       -0.004562814 -0.0826001 -0.060073074 0.0652057
000060 0b f1 80 3d 13 0a 7a 3c 6d c7 45 3d 80 75 d4 3d
       0.06295975 0.015261191 0.04828589 0.10373974
000070 2f 1e 2a 3d c4 d9 78 bc db ef 6e bd 93 c8 93 bd
       0.04153269 -0.015188638 -0.058334213 -0.07215991
000080 41 0b 10 bc 38 87 85 3d ca ae da 3b f2 39 4b bc
       -0.008791746 0.065199316 0.0066736685 -0.012403952
000090 94 37 b7 3c b8 d0 04 3d 57 d1 e8 3d 07 bc 15 bd
       0.022365369 0.032425612 0.113680534 -0.03655627
0000a0 ce 90 7d bd 34 0f 28 3b 84 25 d6 bd c4 ec 82 bd
       -0.061905675 0.0025643827 -0.10456374 -0.06392816
0000b0 5c 7e 57 bc 37 7d b9 3d d9 c8 8a bd 80 05 c1 bc
       -0.013152685 0.09057086 -0.0677659 -0.023562193
0000c0 59 ff 61 bd 8c 11 be bc 91 b9 dc 3d 1e 5e 1a bd
       -0.05517516 -0.023201726 0.107775815 -0.037687413
0000d0 a9 9a 09 3e f9 01 89 3d 8d 19 b0 3d 84 02 cd 3c
       0.13437904 0.066898294 0.085986234 0.025025614
0000e0 9c 81 d9 bc f6 ee 4b 3d 3b 3d 66 bd c4 fa 94 bb
       -0.02655106 0.049788438 -0.056210738 -0.004546495
0000f0 12 a4 be 3c c3 9a 22 3e c8 40 02 bb a6 bc a5 3d
       0.023271594 0.1587935 -0.0019875038 0.080926225

policy_head.weight f4 [110, 64]
000000 6e fa a4 3c 38 48 9f be b1 8b 25 be 3d fb 70 be
       0.020138945 -0.31109786 -0.1616657 -0.2353334
000010 dc 7d 0d be cb 6e f8 be 87 6a 28 be ac d4 79 be
       -0.13817543 -0.48522028 -0.16446887 -0.24397534
000020 8a 86 1d 3f b8 9e a9 be 3e c6 82 be 00 d0 c2 3d
       0.61533415 -0.33128905 -0.25541872 0.09512329
000030 9f 67 b9 bd fe 99 2e 3d 37 24 a2 be ce 27 bf be
       -0.09052967 0.042627327 -0.31668255 -0.37335056
000040 e1 04 b3 be 01 53 a4 be b2 7b bb 3e c1 c5 fc be
       -0.3496466 -0.32094577 0.3661781 -0.49369624
000050 07 cc 72 3e 02 b2 09 bd 0b 1e f4 3d ff 33 96 be
       0.23710643 -0.033617027 0.11919793 -0.29336545
000060 e7 24 89 be 29 43 91 be ee f4 c5 3e 92 9e 65 3e
       -0.26785967 -0.28371552 0.3866343 0.22423771
000070 bc df c8 be 27 9f 0b 3d 20 7c 2c bb 2b f2 2a be
       -0.39233196 0.034087326 -0.0026319101 -0.16693942
000080 3c 34 67 3e 84 52 82 3e b8 b1 36 be 96 91 40 3f
       0.2257852 0.2545358 -0.17841232 0.75222147
000090 2a d3 a1 3e d6 74 6a be 54 e0 93 3d 3a 25 35 3f
       0.31606418 -0.22896132 0.072205216 0.7075993
0000a0 a0 7c 6e 3e 75 8f ff bd 3c 7a b6 be 2b 33 01 bf
       0.23289728 -0.12478534 -0.35640132 -0.504687
0000b0 30 d6 fb be d9 4d eb 3e 7a ca 0f be 23 87 36 3e
       -0.4918685 0.4595783 -0.14042082 0.17824988
0000c0 26 ad a0 be 33 62 e8 3e ca 21 e3 3e ba 5d 5c 3e
       -0.31382102 0.4538742 0.44361717 0.21520129
0000d0 c8 fe b9 bd fb ea d2 be 20 73 cf be 4b 81 9b 3e
       -0.09081799 -0.411949 -0.4051752 0.3037208
0000e0 5d f4 56 3d 65 2a 6b be d5 95 30 be 0e 18 02 3f
       0.052479137 -0.22965391 -0.17244656 0.50817955
0000f0 36 5f 59 be 30 17 ac 3e 12 7e 96 3e d7 64 4d 3e
       -0.21227726 0.3361144 0.2939306 0.20057999
000100 4e bf ec 3d d2 14 88 be 8f 6f f6 bc 9a a4 1e be
       0.11559926 -0.26578385 -0.030082492 -0.15492478
000110 27 8f 1c be 84 66 22 bf 44 b7 44 bd 61 49 b2 bd
       -0.15288983 -0.63437676 -0.04802634 -0.08705402
000120 a2 25 12 3f 10 84 06 bf ae 5e b3 bd e1 ee b9 3d
       0.57088673 -0.5254526 -0.08758293 0.09078766
000130 40 9b 08 3d 15 b9 09 bd 5d 73 83 be a9 3c c5 be
       0.033351183 -0.033623774 -0.25673953 -0.38522843
000140 20 2a ac be 60 b9 ce be 8e d6 d5 3e 87 43 7b be
       -0.3362589 -0.40375805 0.41765255 -0.24537478
000150 e8 8f cf 3d 82 bd 6e 3c d2 cc bf 3e 38 1f 3c be
       0.1013487 0.014571549 0.37460953 -0.18371284
000160 b5 87 ac be c3 4e 6b be 28 5e f7 3e f8 70 3b 3e
       -0.33697286 -0.22979264 0.48314023 0.18304813
000170 c0 3b 83 be c4 2c f8 3d 58 96 76 bc 0d ca 91 be
       -0.25631523 0.12117913 -0.015050493 -0.28474465
000180 a9 08 9e 3e 52 fe 9d 3e 47 22 1c be 10 2f 26 3f
       0.30865982 0.30858094 -0.15247451 0.6491556
000190 6f 9b 46 3e c6 21 92 be 0c e7 8b 3d 61 63 0b 3f
       0.1939523 -0.28541392 0.06831178 0.54448515
0001a0 86 fa 5e 3e 25 8f f7 bd 6b 0e 0b be 2d 63 d2 be
       0.21775255 -0.120878495 -0.13579719 -0.4109129
0001b0 e2 f6 19 bf 24 cb a4 3e 9c 10 44 be 0d 61 a0 3e
       -0.6014234 0.32186234 -0.19146961 0.31324044
0001c0 34 11 f5 bd 90 a1 f3 3e e5 b3 fd 3e b4 53 9f 3e
       -0.11966172 0.475842 0.4955131 0.31118548
0001d0 30 01 39 be d0 0a ce be 1f 6c a9 be 73 d8 af 3e
       -0.18066859 -0.40242624 -0.33090302 0.34344825
0001e0 2f 93 0e bd e8 e6 45 be da 4b d4 bd 59 99 fa 3e
       -0.034808334 -0.19326365 -0.1036603 0.4894512
0001f0 d5 bf c0 be a0 fd 57 3e 58 7c 5e 3e e6 a6 4c 3e
       -0.37646356 0.21092844 0.21727121 0.19985542
000200 fb 27 69 3e 7d ac bb 3e 70 7d c8 3e ae c2 cf 3b
       0.22769158 0.36655036 0.391582 0.0063403463
000210 e4 af f5 3c 50 f9 6e 3e 20 a9 fe 3d 23 50 b0 3e
       0.029991098 0.23337293 0.12434602 0.3443614
000220 e7 34 cd 3d ce 25 14 3e 6a 84 3f 3e 64 bf bd bd
       0.10019856 0.14467546 0.18702856 -0.092650205
000230 3b 36 20 3d 3f 6e e8 3d 5a 2d a7 3e c1 f9 aa 3d
       0.03911422 0.11349153 0.32651788 0.08348418
000240 c3 68 8f 3e 98 6c 37 be 36 bd 5d be d9 54 5a 3e
       0.28009614 -0.17912519 -0.2165421 0.2132143
000250 b8 6c 3a 3e 32 76 0f bd 0e 02 21 3e 8e 67 4b 3e
       0.18205535 -0.03502483 0.1572344 0.19863722
000260 06 d6 6a 3e 48 c6 6a 3e 10 21 77 be 00 de 9c be
       0.22933206 0.22927201 -0.24133706 -0.30638123
000270 1b b5 14 be f6 38 c6 3d ff 48 ce bd 75 5b 79 be
       -0.14522211 0.09678833 -0.10072517 -0.24351294
000280 33 31 c6 be 3c df 6c 3d 78 cd 47 be f6 3f c6 bc
       -0.3870941 0.05783008 -0.19511974 -0.02420042
000290 66 17 67 3d 34 93 b1 3e 1d f4 af be 62 5f 52 be
       0.0564188 0.3468262 -0.3436593 -0.20544198
0002a0 f3 8e 45 3e 68 54 46 bd 1b 77 a0 3e d4 51 82 3e
       0.19292812 -0.04842034 0.3134087 0.25453055
0002b0 9c 2f 68 3d 9b 4d 27 3e 9a d2 2c 3e 80 dd aa be
       0.05668603 0.16338198 0.16877213 -0.33372116
0002c0 7f cd 71 3e dc 2a 7f be a8 b5 f6 be 30 f0 c0 bd
       0.23613547 -0.24918693 -0.48185468 -0.09420812
0002d0 73 e6 fb 3d c4 18 03 3e 0f 4c 2d be 02 be 00 3c
       0.12299814 0.12802416 -0.16923545 0.007857801
0002e0 2d 00 8c bd cc 48 d9 3c 47 e4 b4 3e a1 3c 0f 3c
       -0.06835971 0.02652397 0.35330412 0.008742482
0002f0 3d fb 65 3e d8 30 87 be 06 22 72 3e 35 62 bf 3c
       0.22459121 -0.26404452 0.23645791 0.023362258
000300 9f 95 c3 3d cf cc 82 bd 1a e2 70 3e a1 ff 79 3e
       0.09550022 -0.063867204 0.23523751 0.24413921
000310 72 e7 a3 3e 58 98 04 3e bd ae 19 3d f5 e8 7a 3e
       0.32012516 0.1294874 0.03752016 0.24502929
000320 23 ef b7 be 9c d1 2e 3c 5d 2a 94 3e 1c 8e 50 bd
       -0.35924634 0.010670092 0.2893857 -0.050916776
000330 16 94 20 bd b6 f2 97 bd 7f e9 25 3e 28 90 9b 3e
       -0.039203726 -0.0741934 0.16202353 0.3038342
000340 2e 30 f5 3d 2e 0c c3 3e 66 b6 a4 3e d0 08 97 bc
       0.1197208 0.3809523 0.3217041 -0.01843682
000350 35 63 19 3e ed f9 d5 bc 51 42 f6 3d c3 86 c4 be
       0.1497925 -0.02612015 0.120243676 -0.38384065
000360 85 0e 68 3e 94 2a 4e 3d a7 92 2f bf 0d eb 11 bd
       0.22661789 0.050333574 -0.6858315 -0.035624553
000370 0c 5f a4 3e e5 c2 1d 3d b3 c5 ff bd 2e db c7 3e
       0.32103765 0.038515944 -0.1248888 0.39034408
000380 10 4f b9 3e 71 f1 84 be 2c aa a7 3e 61 db cf bd
       0.36193132 -0.25965455 0.32747018 -0.10149265
000390 65 ca 1b 3e 17 63 cb bc 57 bc a7 be e0 cf 8b be
       0.15213926 -0.024827523 -0.3276088 -0.27307034
0003a0 98 89 24 3e 21 5d 35 bc 8b a4 a4 3d 4b ae 38 bd
       0.16068113 -0.011069567 0.080391966 -0.045088094
0003b0 d0 13 2c 3e 4e db d6 be fa 4f 59 3e 19 57 c8 bc
       0.16804433 -0.4196419 0.21221915 -0.024455594
0003c0 6f aa 6c 3e 3f 0b d9 be cc 3e b7 be 26 88 60 3e
       0.2311189 -0.42391393 -0.35790098 0.21926937
0003d0 82 0b d2 be bb fe 31 3e 38 8f be 3e 9b 74 9c be
       -0.41024405 0.17382328 0.37218642 -0.30557713
0003e0 4a cb ad 3d bd 40 8d 3e 6c 24 6d 3e 96 2b 0b 3e
       0.0848604 0.27588454 0.23158425 0.13590845
0003f0 e7 33 17 3e 8a 02 10 bf fc 1a 27 be 43 05 e4 be
       0.14765893 -0.56253874 -0.16318887 -0.44535264

policy_head.bias f4 [110]
000000 2f ec 4b be e2 8a 09 bd a4 25 ad bc 49 b5 22 3e
       -0.19914316 -0.033579715 -0.021136113 0.15889467
000010 02 f2 5d be d0 e2 57 be 92 36 eb 3c 00 d3 9a 3b
       -0.2167435 -0.21082616 0.028712545 0.00472486
000020 a6 9c d9 3d 3d 7f 9f bd 87 99 04 3b 45 e1 73 bd
       0.106255814 -0.07787941 0.002023311 -0.059541006
000030 ee 64 eb 3d 64 d1 35 bd f8 3a 42 3e a2 2c 51 3d
       0.1149386 -0.044389144 0.18967807 0.051067956
000040 f1 18 51 3d 56 26 27 3e 78 2b 27 3e f6 c1 2a 3e
       0.051049177 0.16323218 0.16325176 0.16675553
000050 29 12 66 3d 3b 67 b8 bd 16 92 b9 bd af 7d fc bc
       0.056169663 -0.09004065 -0.09061067 -0.03082165
000060 ce c4 c5 bc 30 1a 5f 3e 09 d8 e2 3d 72 46 db bb
       -0.024141695 0.21787333 0.11076362 -0.0066917473
000070 fa 5c b9 3d fc 4b 22 bc 6b cf 0c bd 24 6f 24 3c
       0.09050937 -0.009905811 -0.034377497 0.010036264
000080 7a 64 f8 3c e2 16 be 3d fc 30 60 bc ff 2c 33 3e
       0.030321348 0.09281708 -0.013683554 0.17497633
000090 59 8a 6e 3d 4a e0 30 bd 20 34 d2 3d ba 34 48 3e
       0.058237407 -0.04318265 0.10263848 0.19551364
0000a0 8a e7 e6 bc a2 37 26 3e e1 55 c3 3d d6 90 be bb
       -0.028186578 0.1623216 0.095378645 -0.0058156056
0000b0 5f 43 81 3b 52 7d 9f 3c 12 df 24 3e 7f 0a 64 3d
       0.003944799 0.019468937 0.1610072 0.055674072
0000c0 8b 79 5c 3d 00 d5 02 3e dd 87 ba bc b6 2e cd 3d
       0.05382685 0.12776566 -0.022769863 0.10018675
0000d0 3b 41 f8 3d 94 8d a6 3d bd 66 dc 39 1a bb cb 3c
       0.12121817 0.08132473 0.00042038216 0.02486949
0000e0 a2 a8 50 3e c7 db 13 3e d5 1c 14 be 98 73 35 be
       0.20376828 0.14439307 -0.14464124 -0.17719877
0000f0 7d f1 6b be 66 f1 51 be 88 2f 19 be e0 e2 d1 bd
       -0.23041339 -0.20502242 -0.14959538 -0.10248351
000100 71 6f 10 be 08 ec 34 be 70 3e a9 bd d5 b3 99 bd
       -0.14105012 -0.17668164 -0.08263862 -0.07505003
000110 77 2d 0b be 33 2b e7 bd aa aa 84 bd a5 1d 7a be
       -0.13591562 -0.112875365 -0.06477864 -0.24425371
000120 da 18 ee bd 01 42 61 be da 74 52 be 02 1b 4b be
       -0.11625834 -0.21997835 -0.20552388 -0.19834521
000130 5c 19 97 be dd 80 ec bd 45 e4 8f be 0e e1 11 be
       -0.29511535 -0.11548016 -0.28103843 -0.14246008
000140 19 ff 8b be 5e 5f 13 be 1f d0 88 be 55 da c1 bd
       -0.27343062 -0.14391848 -0.26721284 -0.09465472
000150 c7 ce 9f be ed 85 f8 bd 6b aa 06 be dc 02 81 be
       -0.31212446 -0.12134919 -0.13150947 -0.25197494
000160 e0 79 39 be ff 71 39 be 36 97 79 be 85 e0 7e be
       -0.18112898 -0.18109892 -0.24374089 -0.24890335
000170 97 8b 38 be 4c 47 03 be e4 51 89 be 93 d9 ef bd
       -0.18022 -0.12820166 -0.2682029 -0.11711421
000180 53 98 28 be 7b 3d 6a be b6 0a 96 be fb dc 13 be
       -0.16464357 -0.22875015 -0.29305047 -0.14439766
000190 8b 90 d0 bd 79 03 80 be fa aa 1d be 7a 74 48 be
       -0.101838194 -0.2500265 -0.15397254 -0.19575682
0001a0 ad 5c 95 be 5b cb 95 be c9 66 6d be 39 72 77 be
       -0.29172269 -0.2925671 -0.2318374 -0.24164666
0001b0 35 d1 92 be 83 d6 49 bd
       -0.28675237 -0.04927684

value_head.weight f4 [1, 64]
000000 27 89 db bc 00 f8 72 3d 86 f5 a1 bc a3 ae c9 3d
       -0.026798798 0.059318542 -0.019770395 0.098477624
000010 39 8c 92 bb a9 e9 3a 3e 86 1b 03 bd b6 bf 01 3b
       -0.0044722822 0.18253197 -0.03200867 0.0019798107
000020 77 01 7d be 4d 76 1c 3e e8 02 3b bd f9 a1 76 bd
       -0.2470759 0.15279503 -0.04565707 -0.060213063
000030 4e 84 d4 3d 82 b3 ae bd 85 bf 44 3c 5e 64 e1 3d
       0.103767976 -0.08530332 0.012008552 0.11005472
000040 c6 bd b9 ba 76 96 0d 3e ef f4 89 bd 24 8f 07 3c
       -0.0014170937 0.13826928 -0.067361705 0.0082738735
000050 f8 df 80 bd 8a 18 c1 bd 1e 05 ee bd ba e4 d9 3d
       -0.06292719 -0.094285086 -0.1162207 0.10639329
000060 f8 76 93 3d 63 c9 da 3c 3a da 69 bd 2a e1 6f be
       0.07200426 0.026707357 -0.057092883 -0.23425737
000070 44 2c 61 3d b7 a3 b3 bd 00 cf cf bd 54 b1 3e 3d
       0.054973856 -0.087714605 -0.10146904 0.046555832
000080 b8 a9 30 bc 03 5f 76 be 96 0b 55 bc f7 0d c8 be
       -0.010782652 -0.24059682 -0.013003251 -0.39073154
000090 8d 3b 99 bd b3 4a 37 3d 2c 85 e7 3d ea 0b e8 bd
       -0.074820615 0.044748973 0.113046974 -0.113303974
0000a0 c9 7e c7 bd 0b 2e d0 bd c6 15 70 3c 36 bf 20 3d
       -0.09740979 -0.10165032 0.014653629 0.039244853
0000b0 b4 8f f1 3d 79 cc 0d be 92 a6 f4 bc c2 2b a7 bd
       0.11794987 -0.13847531 -0.029864583 -0.08162643
0000c0 e5 49 0b bb f5 be 27 be 7c 4d 22 be 87 d1 f4 bd
       -0.0021253761 -0.16381438 -0.1584987 -0.11954027
0000d0 c8 9b 88 3d 51 67 01 3d d9 d0 f8 3d f3 a4 7b be
       0.06670338 0.03159267 0.121492095 -0.24574642
0000e0 c0 2c 06 bc 48 73 db bc 27 81 65 bc 32 cb e3 bd
       -0.00818938 -0.026788369 -0.014007843 -0.11122741
0000f0 b0 14 d6 3d f9 ee c8 3b 99 16 8a bd dc 7e b0 3c
       0.104531646 0.0061320034 -0.067425914 0.021544866

exp_avg f4 [128, 260]
000000 3b ff a9 39 f9 16 da b8 89 7f 88 39 4c 8b 33 38
       0.00032424353 -0.00010399329 0.00026034963 4.2806656e-05
000010 ae 08 20 39 64 86 7f 39 e9 81 a6 38 e3 4e dd b8
       0.00015262022 0.0002436876 7.9396945e-05 -0.00010552795
000020 70 dc e9 38 ac b0 d7 b8 0f 37 25 b7 f2 f1 3b 39
       0.000111513655 -0.000102849066 -9.847586e-06 0.00017923841
000030 11 d1 3c 39 18 b3 71 b9 d1 50 f1 38 df 62 97 b8
       0.0001800696 -0.00023050269 0.00011506829 -7.218657e-05
000040 17 c6 06 39 b5 ba 20 b9 c9 94 42 39 aa 34 0e 39
       0.0001285303 -0.00015328343 0.00018556709 0.00013561794
000050 5a 2a 87 38 c7 df 3c b5 75 95 80 b9 c5 14 45 39
       6.44519e-05 -7.0361097e-07 -0.00024525417 0.00018795121
000060 90 4e ca 39 bd a5 17 b8 88 1b ff 38 2c e2 4b 38
       0.00038586976 -3.615556e-05 0.000121644756 4.860961e-05
000070 4a b8 37 38 48 04 e5 39 3b fa ff 37 12 e9 61 39
       4.3802233e-05 0.00043681473 3.0514891e-05 0.00021544498
000080 9c af c1 39 94 fa 3e 39 42 8f 12 39 5c 58 e9 38
       0.00036942668 0.0001821316 0.00013977013 0.00011126764
000090 b1 29 cc b6 08 35 26 39 d3 ef 5d 39 d8 9d 69 38
       -6.0845273e-06 0.0001585075 0.00021165544 5.5698532e-05
0000a0 78 15 c2 b8 cc c8 22 b9 c7 bf bb 37 d2 08 98 39
       -9.25464e-05 -0.00015524327 2.238144e-05 0.0002899827
0000b0 f3 08 9d 37 28 74 87 b8 dd d2 09 39 49 45 a4 b9
       1.8720026e-05 -6.4589374e-05 0.00013143891 -0.0003133214
0000c0 76 af a1 b8 65 c0 9a 38 bc 5d 43 38 d8 2b e2 38
       -7.7097604e-05 7.3791285e-05 4.657892e-05 0.00010784686
0000d0 40 d6 eb 83 e1 3e 7b 9b be 09 4b 36 f6 c5 bd 36
       -1.3861248e-36 -2.0782551e-22 3.0255028e-06 5.6556846e-06
0000e0 7e 57 b0 b8 c5 bf 53 b7 cc 3d 83 38 12 62 f0 36
       -8.408631e-05 -1.262123e-05 6.258077e-05 7.1639743e-06
0000f0 c7 c3 09 b9 7e 77 57 38 df 9f cf 37 b7 fe 26 38
       -0.00013138271 5.137128e-05 2.4750769e-05 3.9814706e-05
000100 27 70 9c 37 f4 c3 90 b5 4a 64 2a b6 aa fb f6 9c
       1.8648874e-05 -1.0785866e-06 -2.539035e-06 -1.6343968e-21
000110 4b 48 53 b7 67 29 62 b8 15 dd 7b 37 9e 19 2c 37
       -1.2593412e-05 -5.3921158e-05 1.50122405e-05 1.0257963e-05
000120 d4 f4 b3 38 29 82 38 37 8a c7 eb 38 67 c9 10 38
       8.580988e-05 1.099756e-05 0.0001124284 3.4519846e-05
000130 a6 f9 84 37 58 27 50 b8 6e 13 b5 32 6e cb 64 34
       1.5851878e-05 -4.9627706e-05 2.1080009e-08 2.1308162e-07
000140 3f f8 19 b8 7d f7 ba b6 81 34 40 b8 9a da 2d b8
       -3.670924e-05 -5.5720434e-06 -4.5825265e-05 -4.1450003e-05
000150 38 3f 2c b8 62 05 29 b8 49 06 a9 36 4c a3 fe 38
       -4.1066873e-05 -4.0297753e-05 5.037324e-06 0.0001214208
000160 d6 63 24 b9 de 5e c6 38 c4 00 21 38 9b e8 39 b5
       -0.0001567745 9.459046e-05 3.8386104e-05 -6.9256356e-07
000170 2f 7c 1c 35 78 c1 41 b6 ee 0d 0a 38 c6 d5 88 b7
       5.829524e-07 -2.8871855e-06 3.2914737e-05 -1.631201e-05
000180 90 db 0d 39 c3 95 86 b8 ea 9b b3 b6 5e 09 2e 37
       0.00013528601 -6.417513e-05 -5.3527665e-06 1.0373389e-05
000190 16 02 1e 38 a4 b4 a6 37 7c 34 9f 37 85 22 99 38
       3.7672078e-05 1.987286e-05 1.8978717e-05 7.302038e-05
0001a0 33 23 a1 37 a8 29 80 37 c6 ad 12 b8 e9 dd c2 b8
       1.9209087e-05 1.5278187e-05 -3.497095e-05 -9.291975e-05
0001b0 40 03 c3 37 9f e1 1a 37 f8 39 91 38 9c 21 31 36
       2.3247325e-05 9.231647e-06 6.924936e-05 2.6394619e-06
0001c0 9b 3f 9e 38 b1 bb f8 38 6c d1 ab 38 82 a3 3e b9
       7.5458745e-05 0.00011860522 8.192923e-05 -0.00018180723
0001d0 fb 24 1e b9 fb 3b b5 b8 ef 1c 68 38 f2 dd 27 38
       -0.0001508183 -8.641925e-05 5.5340057e-05 4.0022605e-05
0001e0 25 dc 40 38 5b f5 88 38 bc f7 cd 38 ad 3d b3 37
       4.5981393e-05 6.5306864e-05 9.821306e-05 2.1367183e-05
0001f0 74 b5 14 38 ae 88 ea 38 87 af 22 38 6a e3 1e b8
       3.545494e-05 0.00011183448 3.8787282e-05 -3.788193e-05
000200 56 9f 63 b9 a5 b9 09 39 1e 73 96 b8 23 02 d0 37
       -0.00021707764 0.00013134496 -7.1739996e-05 2.4796527e-05
000210 64 bb 3f b7 27 6e ac b8 db dd bc b5 2a d9 42 b8
       -1.1428117e-05 -8.2221166e-05 -1.407166e-06 -4.6455454e-05
000220 54 89 4b 37 07 3b 59 35 32 bb f6 38 3e be 07 b9
       1.2131717e-05 8.0924696e-07 0.00011765062 -0.00012945474
000230 35 b5 2e 37 a2 82 f7 38 8a be 61 b8 dd 0f a7 37
       1.0413399e-05 0.0001180221 -5.3821634e-05 1.9915338e-05
000240 53 a7 41 39 19 86 41 39 91 fe 05 b9 8d 25 03 39
       0.00018468247 0.0001845587 -0.00012778702 0.00012507122
000250 ba 2f b1 b7 92 64 1a 39 64 6d 0a 39 7c 5f b0 39
       -2.1122269e-05 0.0001472405 0.00013201457 0.00033640477
000260 e8 29 3f b9 da 8a 32 b8 1e 0f 25 39 f8 22 cd 38
       -0.00018230791 -4.2567823e-05 0.00015741258 9.781675e-05
000270 fa 04 c4 38 b7 e3 8c b6 20 7e 03 38 43 85 3f 39
       9.346935e-05 -4.1988346e-06 3.1350297e-05 0.00018264823
000280 94 70 1e b8 2e 86 be b8 6c 79 d5 b7 c1 e3 d9 37
       -3.7774982e-05 -9.084899e-05 -2.544812e-05 2.5974472e-05
000290 f6 88 d9 b7 ce d6 cd 38 4c e9 27 37 23 b3 14 39
       -2.5932193e-05 9.815172e-05 1.0008294e-05 0.00014181114
0002a0 c5 50 3d 39 e7 42 bb 37 4a bf 1b b8 c3 3b 5f b8
       0.00018054534 2.2323291e-05 -3.713303e-05 -5.3223e-05
0002b0 42 31 62 b8 69 f3 30 38 22 40 0a b9 6d 26 a1 38
       -5.3928474e-05 4.2188363e-05 -0.00013184597 7.6842356e-05
0002c0 5f c0 e7 b7 fe 20 15 37 52 23 3a 38 d0 30 50 36
       -2.7626926e-05 8.888774e-06 4.437875e-05 3.1022828e-06
0002d0 e2 de 4e b7 54 90 2c 38 0e 0f 02 39 ad 30 69 37
       -1.2330451e-05 4.114241e-05 0.00012403374 1.3899215e-05
0002e0 7e a2 74 38 16 f0 25 37 cb 4b 17 b7 41 3f 76 b7
       5.8325466e-05 9.890666e-06 -9.017948e-06 -1.467747e-05
0002f0 f2 a1 01 38 6f 07 1c b9 80 3d b3 b7 8f c2 3d b8
       3.090682e-05 -0.00014880089 -2.1367101e-05 -4.524231e-05
000300 f9 21 03 39 3d ea da 35 16 65 65 b7 f6 2d 8b b7
       0.0001250579 1.6310438e-06 -1.3673e-05 -1.6591493e-05
000310 c5 07 00 b8 01 ef c1 37 f9 f5 15 38 35 d6 cd b8
       -3.0524814e-05 2.3118688e-05 3.5753448e-05 -9.815061e-05
000320 a0 4d a4 b7 01 54 92 37 7d 86 3f 37 a5 fb ec 38
       -1.958647e-05 1.7443674e-05 1.14158e-05 0.000113002294
000330 ea b3 96 38 15 5b 2d 37 00 2c 64 38 8d 47 61 b7
       7.186069e-05 1.033281e-05 5.4400414e-05 -1.3427704e-05
000340 5c de 13 b9 4d 2d cc 39 d7 8d 25 38 68 ff 28 39
       -0.00014101848 0.00038943664 3.9471164e-05 0.00016116875
000350 f1 69 7a 39 d8 b1 16 39 01 16 00 39 7f 85 b9 39
       0.00023881324 0.00014371367 0.00012215228 0.00035385412
000360 e5 a3 8b 39 37 b6 0c 39 cb 2d 4a 39 c9 f0 00 39
       0.00026634257 0.00013419321 0.0001928128 0.0001229673
000370 cb 6f 94 38 42 f3 1b 3a 8a 30 2d 39 b6 0a c9 39
       7.078013e-05 0.0005949029 0.00016516648 0.00038345688
000380 84 d0 48 39 57 2f d2 39 33 49 0b 39 3c 42 62 38
       0.00019151164 0.00040089592 0.00013283342 5.3944284e-05
000390 da fd 13 39 19 61 30 39 05 eb b5 39 22 3b ef 38
       0.0001411358 0.0001682084 0.00034698113 0.000114074224
0003a0 b2 13 05 39 52 d8 5e 39 08 b3 04 39 bb fd 5d 39
       0.00012691205 0.00021252155 0.00012655195 0.00021170724
0003b0 eb 92 80 39 25 8e 7c b8 15 2e a8 39 b0 8d 43 39
       0.00024523525 -6.0213864e-05 0.0003207779 0.00018649432
0003c0 73 5b 97 b8 f2 0d a0 39 08 80 72 38 3e 58 7e 39
       -7.217275e-05 0.00030527968 5.7816535e-05 0.000242562
0003d0 41 b0 aa 39 b5 31 9a b8 c8 fc 12 39 f8 98 7c 39
       0.00032556246 -7.352551e-05 0.00014017813 0.00024089578
0003e0 52 52 78 39 23 82 83 39 91 b4 b0 39 37 18 c7 37
       0.0002368179 0.00025083227 0.00033703868 2.3733925e-05
0003f0 39 6d 39 39 42 b6 89 39 70 60 14 38 7c 5b 25 39
       0.00017683663 0.0002626647 3.5375764e-05 0.00015769707

exp_avg_sq f4 [128, 260]
000000 92 4e df 35 2a fc f8 35 05 77 a1 35 71 0e 99 35
       1.6637662e-06 1.8550829e-06 1.2030074e-06 1.1403591e-06
000010 c5 6a 93 35 3e d5 b3 35 a2 5a ae 35 32 ad ab 35
       1.0983428e-06 1.3398601e-06 1.2990388e-06 1.2790899e-06
000020 12 fc ba 35 22 cd c1 35 39 4d 97 35 d4 54 ee 35
       1.3931442e-06 1.4439322e-06 1.1272851e-06 1.775707e-06
000030 71 9b 9f 35 0b 14 b0 35 1f 68 8a 35 7e 5d 8b 35
       1.1891663e-06 1.3118855e-06 1.0312104e-06 1.0383517e-06
000040 e3 cb a3 35 ea 6a 92 35 ff 73 09 36 ad 6c 0c 36
       1.2203785e-06 1.0908964e-06 2.048211e-06 2.0924883e-06
000050 c5 9b de 35 9f a2 80 35 48 85 d9 35 51 9a d8 35
       1.6585624e-06 9.584072e-07 1.620655e-06 1.6138166e-06
000060 43 10 bc 35 02 67 df 35 d4 81 eb 35 62 ca aa 35
       1.4011824e-06 1.6644774e-06 1.7546649e-06 1.2724888e-06
000070 46 35 fb 35 1f 5b fe 35 26 bd b6 35 ac a5 a3 35
       1.8716462e-06 1.8950994e-06 1.3615106e-06 1.2192663e-06
000080 90 9a ab 35 16 6d 20 36 f7 1b 9e 35 bd 68 bf 35
       1.2785476e-06 2.3905354e-06 1.1780056e-06 1.4261092e-06
000090 6c 8d c8 35 b1 41 f4 35 f2 07 a9 35 0b 9d 17 36
       1.494232e-06 1.8198535e-06 1.2593794e-06 2.2592164e-06
0000a0 a6 1d d9 35 ee 69 c5 35 e6 fa f9 35 da d7 0c 36
       1.6176389e-06 1.4708473e-06 1.8624967e-06 2.0987268e-06
0000b0 6e 28 1b 36 20 f3 a3 35 3a c5 d0 35 5e cc b4 35
       2.3120333e-06 1.2215205e-06 1.5554608e-06 1.3470524e-06
0000c0 cb 3d 7f 35 9f 62 9a 35 94 57 b6 35 18 a2 ca 35
       9.5084823e-07 1.1502597e-06 1.3585545e-06 1.5097348e-06
0000d0 17 0c 69 2f af 17 02 2f b2 af 31 31 29 8c ed 32
       2.1195522e-10 1.1831845e-10 2.5856761e-09 2.7654169e-08
0000e0 44 04 5d 33 66 e0 47 34 86 5a f8 33 ea 1a 3f 34
       5.1459452e-08 1.8614955e-07 1.1564866e-07 1.7798052e-07
0000f0 2e 4e 43 34 94 36 94 34 f1 14 0a 34 d2 51 b7 34
       1.8189232e-07 2.760686e-07 1.285987e-07 3.4145938e-07
000100 a9 38 65 34 f6 da dd 30 2b a1 9b 30 0b 19 2a 30
       2.13479e-07 1.6142099e-09 1.1323541e-09 6.188123e-10
000110 d9 db 17 33 22 c8 9e 33 24 f5 e6 33 20 c8 50 34
       3.5357377e-08 7.393852e-08 1.07548004e-07 1.9444315e-07
000120 29 d8 f9 33 49 c9 36 34 f8 38 ad 34 ef de d8 33
       1.16342854e-07 1.7023298e-07 3.226521e-07 1.0098835e-07
000130 24 5e 4f 34 4b 29 1a 35 92 b4 35 30 b3 32 d7 30
       1.9312625e-07 5.742956e-07 6.610402e-10 1.5657718e-09
000140 51 8f 29 31 b0 58 4b 32 97 fc 4f 34 fb f9 2d 34
       2.4674203e-09 1.183632e-08 1.9370269e-07 1.6202823e-07
000150 fe f2 47 34 71 a2 87 34 0b 33 53 34 d9 8e 86 34
       1.8621719e-07 2.52639e-07 1.9669476e-07 2.506338e-07
000160 ff 90 97 34 d2 14 14 34 9f 5d 07 34 08 85 50 30
       2.823144e-07 1.3791148e-07 1.2606914e-07 7.585901e-10
000170 2e 06 96 30 db 50 e3 30 9f 8b bb 32 2e 6b 6d 33
       1.0915693e-09 1.6539404e-09 2.1833158e-08 5.5278342e-08
000180 af 71 2d 34 0d e8 f5 33 9b 5b 33 34 ba 83 64 34
       1.6153238e-07 1.1450911e-07 1.6704e-07 2.1282077e-07
000190 e6 e8 68 34 0e 7a 3a 34 c9 fb 5c 34 2d 0d 75 34
       2.1691412e-07 1.7367003e-07 2.0580696e-07 2.2822196e-07
0001a0 5f bc e4 34 04 25 f3 34 dd c6 e0 34 c5 cf 48 35
       4.2605367e-07 4.528921e-07 4.1867943e-07 7.480815e-07
0001b0 24 52 64 35 6e cb 92 35 aa 71 ea 35 0f 46 fe 35
       8.505615e-07 1.0937054e-06 1.7467439e-06 1.8944864e-06
0001c0 b2 73 db 35 18 7c 19 36 83 a2 42 36 05 da 10 36
       1.6350443e-06 2.2871009e-06 2.9002847e-06 2.1584576e-06
0001d0 2a 79 32 36 76 51 02 35 d2 6e 15 35 0a 26 ed 34
       2.6594594e-06 4.8547315e-07 5.566809e-07 4.4172367e-07
0001e0 e9 f7 1f 35 32 ed 96 35 bc b2 a0 35 43 8b b4 35
       5.959287e-07 1.1244904e-06 1.1972948e-06 1.3451576e-06
0001f0 65 d4 c8 35 f9 34 2b 36 e9 00 2c 36 88 bf 1d 36
       1.4962976e-06 2.551182e-06 2.5630527e-06 2.350631e-06
000200 6a 11 30 36 d2 97 04 36 ee ed db 34 b6 37 1b 35
       2.623618e-06 1.9757904e-06 4.0965045e-07 5.782307e-07
000210 28 ce 89 34 b9 5c b6 34 49 fc dc 34 b3 15 c5 35
       2.5668237e-07 3.3967606e-07 4.1161755e-07 1.4683959e-06
000220 36 4e db 35 95 c2 aa 35 e9 6a 26 36 44 3f 3a 36
       1.6339534e-06 1.2722618e-06 2.4798157e-06 2.7752985e-06
000230 fc 06 0c 36 75 56 22 36 62 8d 2e 36 2a 41 d1 34
       2.086569e-06 2.4190206e-06 2.6010316e-06 3.8976697e-07
000240 49 75 b9 34 62 08 f4 34 8a c8 26 35 84 57 46 35
       3.4544271e-07 4.545464e-07 6.213164e-07 7.38881e-07
000250 01 31 90 35 92 7a 08 36 31 0d d3 35 9f 89 f4 35
       1.0743098e-06 2.0336925e-06 1.5724564e-06 1.821947e-06
000260 90 01 34 36 a7 da 53 36 eb fd 20 36 52 cd 37 36
       2.6823e-06 3.1568723e-06 2.3989658e-06 2.7388637e-06
000270 aa c9 dd 34 ef f8 7e 34 3d d3 6e 35 86 ef 33 35
       4.1311188e-07 2.3746155e-07 8.89693e-07 6.703125e-07
000280 9c 0f dc 34 ff 56 5b 34 92 56 f4 33 4c c6 38 34
       4.098955e-07 2.0427613e-07 1.13778825e-07 1.7208475e-07
000290 f7 f7 2b 34 c4 5e 23 34 83 16 8a 33 d9 1e 7e 34
       1.6015825e-07 1.5215033e-07 6.4302206e-08 2.3666816e-07
0002a0 80 8d 3b 34 15 1c 86 34 35 05 65 35 00 01 5d 35
       1.746721e-07 2.4979877e-07 8.5316725e-07 8.233037e-07
0002b0 da 3a 46 35 bc a4 f7 34 08 aa bd 34 d7 c3 83 34
       7.384639e-07 4.6127195e-07 3.5327707e-07 2.4543144e-07
0002c0 3a 0e 1e 34 e4 6f 03 34 e5 d1 fa 34 d8 4e 7f 33
       1.4720072e-07 1.2241031e-07 4.6718847e-07 5.9443522e-08
0002d0 55 78 26 33 55 a3 6d 34 93 4f de 34 97 74 34 34
       3.8759328e-08 2.2131765e-07 4.140862e-07 1.6806221e-07
0002e0 16 69 de 34 19 89 fc 33 dd 82 19 34 75 96 99 34
       4.1427182e-07 1.17596024e-07 1.4296843e-07 2.8607943e-07
0002f0 fc bf 33 34 3f 80 c8 34 6e 4d 12 34 09 38 1f 34
       1.6740518e-07 3.7346214e-07 1.3625478e-07 1.4828414e-07
000300 52 db da 34 a8 20 a1 33 0c 6d 3d 33 69 df 12 34
       4.076524e-07 7.503087e-08 4.410417e-08 1.3678586e-07
000310 89 92 2d 34 12 82 3d 34 b2 80 ac 34 bb 7f 37 34
       1.616519e-07 1.7649316e-07 3.2131135e-07 1.7089671e-07
000320 30 88 83 34 a6 91 4c 34 28 b5 18 34 fc 87 c5 33
       2.449974e-07 1.9051967e-07 1.4222007e-07 9.198263e-08
000330 98 37 2d 34 42 9b 35 33 e0 62 4c 33 a5 05 ba 33
       1.6132105e-07 4.2283553e-08 4.7587378e-08 8.662327e-08
000340 a9 2c c2 36 09 d1 c7 36 db 90 c2 36 f3 65 ba 36
       5.7868497e-06 5.954997e-06 5.798514e-06 5.5551004e-06
000350 da a1 bd 36 b0 6d ac 36 73 dd a0 36 b3 8d 96 36
       5.651481e-06 5.1387688e-06 4.7941517e-06 4.4868443e-06
000360 26 1a 9e 36 0d 9f 80 36 3d 10 6f 36 cc b1 56 36
       4.711811e-06 3.833213e-06 3.5623227e-06 3.1991976e-06
000370 00 b2 78 36 61 f5 d4 36 e8 c3 c1 36 0d 4a d3 36
       3.705849e-06 6.346658e-06 5.7746547e-06 6.2969107e-06
000380 b1 70 c6 36 8b ed b8 36 46 dd 8f 36 aa f2 85 36
       5.913979e-06 5.511281e-06 4.2874917e-06 3.9919587e-06
000390 bd 76 92 36 7c bb 81 36 cc 12 31 36 3e be 75 36
       4.364962e-06 3.8663256e-06 2.6385997e-06 3.661858e-06
0003a0 da 2c 7c 36 b4 aa 64 36 ba e0 c0 36 61 6f d0 36
       3.7577033e-06 3.407401e-06 5.7482075e-06 6.2118493e-06
0003b0 03 c2 c7 36 49 87 c6 36 4f 36 d0 36 67 e1 9a 36
       5.953248e-06 5.916609e-06 6.2052054e-06 4.615798e-06
0003c0 7c 12 98 36 5d 73 6e 36 87 bc 7a 36 3d 92 55 36
       4.532105e-06 3.5531914e-06 3.736264e-06 3.1824595e-06
0003d0 a5 71 71 36 fa 1d 81 36 0c 45 8d 36 fd 70 bb 36
       3.5977948e-06 3.8479893e-06 4.2101656e-06 5.586188e-06
0003e0 e6 c8 d2 36 2f fd d7 36 2d 19 bf 36 b4 66 a4 36
       6.2818754e-06 6.4369738e-06 5.6951744e-06 4.899537e-06
0003f0 b7 72 8d 36 1a a7 94 36 8a 2d 91 36 ef 65 90 36
       4.215482e-06 4.430197e-06 4.326638e-06 4.303401e-06

exp_avg f4 [128]
000000 62 e1 9c 39 b0 83 05 3a ed 1e ff b8 1a 54 ec 38
       0.00029922562 0.00050931703 -0.00012165108 0.00011269022
000010 2a fe d9 b9 c7 57 a2 b9 78 91 da 39 0c a0 cd 3a
       -0.00041578832 -0.00030964447 0.00041688583 0.0015687956
000020 1d 35 02 3b 6f 95 5d 39 33 51 28 3a 34 e2 3c b9
       0.0019868084 0.00021131871 0.0006420791 -0.00018013344
000030 38 46 ea b9 59 bf 95 39 e2 b3 4c b9 57 35 cc ba
       -0.00044684275 0.0002856206 -0.00019521968 -0.0015579861
000040 f8 41 8a 39 2c 99 09 3a f2 e1 c8 b8 96 50 77 b8
       0.00026370562 0.00052489596 -9.578829e-05 -5.896444e-05
000050 cb 3d 62 b9 df b9 88 38 25 02 58 ba c2 2b 84 39
       -0.00021576059 6.5196065e-05 -0.00082400657 0.00025209604
000060 5b 21 1e b9 ee 33 9f 39 46 40 c8 ba df 38 1e 3a
       -0.0001508048 0.00030365534 -0.0015277944 0.0006035696
000070 85 7f 87 b8 86 80 60 b7 79 4c 44 39 fd 82 9c b9
       -6.461054e-05 -1.3381365e-05 0.00018720505 -0.00029852233
000080 bd 19 af 39 dd 78 0d 39 fc 6c a1 3a 26 ff 19 38
       0.00033397778 0.00013491833 0.0012315805 3.6715668e-05
000090 19 1b a0 ba 0e a8 3b b9 ed 81 02 3a de 09 94 39
       -0.0012215107 -0.00017896315 0.0004978467 0.0002823611
0000a0 c4 03 62 b9 fb 8c 68 ba 0e 5d 0b 3a 98 32 87 39
       -0.00021554442 -0.00088711054 0.00053162954 0.00025786902
0000b0 7b d5 0a ba 52 e5 fb 39 d5 fa e5 ba 56 a5 be b9
       -0.00052960933 0.00048045308 -0.0017546067 -0.0003636281
0000c0 05 d9 78 ba 87 8f 0d b9 6d 64 66 39 fa ff c3 b9
       -0.00094927876 -0.00013500276 0.00021971921 -0.00037384016
0000d0 b2 33 ad ba 81 ee 46 3a 2e 17 22 ba e2 27 c3 b6
       -0.0013214259 0.00075886404 -0.00061832636 -5.816096e-06
0000e0 9e 35 d7 38 18 6d ac ba 8e bb 90 39 29 fc 5f 39
       0.00010261986 -0.0013155071 0.0002760556 0.00021360874
0000f0 13 c8 04 3a b1 7a e9 b9 fb 46 fe b9 2c 1c be b9
       0.0005065214 -0.00044532635 -0.0004849954 -0.00036260614
000100 dc 22 30 3a 45 53 af 39 60 f3 76 ba 89 e1 5d 39
       0.00067190616 0.00033440642 -0.0009420421 0.00021160221
000110 cb 99 19 38 d5 b3 b5 39 0f 37 e8 39 cf 03 b3 39
       3.6621273e-05 0.00034656996 0.0004429151 0.00034144378
000120 cf 72 84 3a 66 cb 6f b9 c1 1e 8f ba 36 82 1a 3a
       0.0010105016 -0.00022868588 -0.00109192 0.0005894037
000130 08 55 06 b9 6e 79 b0 b8 a9 0f 89 b8 5e f0 69 3a
       -0.00012810912 -8.414952e-05 -6.535586e-05 0.0008924062
000140 9d 4d cf b9 e8 6a 88 b6 5b 05 bc 39 17 ea 12 38
       -0.00039539943 -4.0655614e-06 0.00035862144 3.5027126e-05
000150 af 65 05 38 24 52 91 34 54 75 91 b9 03 a2 e8 3a
       3.180437e-05 2.706812e-07 -0.0002774397 0.0017748479
000160 8f b3 4b 3a 1d 4a 2e 3a 2b bb f5 37 dd 9e 7a b9
       0.0007770592 0.0006648617 2.9293433e-05 -0.00023901039
000170 a7 04 f5 39 b7 2e bd 39 c7 57 b2 39 e7 d0 92 b9
       0.00046733508 0.00036083694 0.00034016205 -0.00028002934
000180 1b 5e 50 39 ab 3d 58 b9 9b 59 9e b9 7a 19 58 3a
       0.00019871483 -0.00020622338 -0.0003020287 0.00082435424
000190 95 34 b1 b9 dd a4 2d 39 95 4c 9d b9 f1 45 33 37
       -0.00033799247 0.00016559982 -0.00030002432 1.0685516e-05
0001a0 83 c7 2a 39 64 ae f9 b9 0a 24 cc 39 6c 54 97 38
       0.00016286787 -0.00047622912 0.00038936763 7.215966e-05
0001b0 06 ff 96 39 e6 05 5d 39 2d 77 98 37 78 44 9d b9
       0.00028800237 0.000210784 1.8175308e-05 -0.00029996387
0001c0 03 42 04 b9 e1 ae 47 38 5f 5b 42 b9 06 b0 ba 39
       -0.00012613092 4.7608166e-05 -0.0001853532 0.00035607832
0001d0 10 04 91 b7 1b c8 08 39 27 88 17 3a 1a 9f b6 b8
       -1.7287239e-05 0.00013044516 0.0005780481 -8.708071e-05
0001e0 9a 66 88 b9 4d ef 1f ba e1 47 f8 b8 bb 21 7e 38
       -0.00026016386 -0.0006101027 -0.0001183895 6.0589733e-05
0001f0 73 16 2a ba 84 b4 33 b9 80 06 d5 b9 68 a8 f8 ba
       -0.00064883305 -0.00017138018 -0.0004063137 -0.0018971087
