ppo_2layer_2048_epoch10/ppo_agent_episode_800.pth (torch, 596526 bytes, 21 tensors)

fc1.weight f4 [128, 260]
0	0x3cbdd224	0.023171492
1	0x3c0418ab	0.008062522
2	0xbdb6e80e	-0.0893098
3	0xbd15bd69	-0.03655759
4	0xbde3f2da	-0.11130305
5	0xbd95317d	-0.0728483
6	0x3d3d2316	0.04617604
7	0xbd81e7d0	-0.06343043
8	0xbcb44d61	-0.022009553
9	0xbd328950	-0.043587983
10	0xbe136826	-0.14395198
11	0x3c097128	0.008388795
12	0xbd2fe4f9	-0.042942975
13	0xbd961efa	-0.07330127
14	0x3d1ca962	0.038247474
15	0x3d171bdf	0.036891814
16	0x3b8a07cc	0.0042123552
17	0xbc69c96e	-0.014269216
18	0x3ba173f2	0.004927152
19	0x3b1d0267	0.002395773
20	0xbbd5a307	-0.0065196785
21	0xbd06f448	-0.03294781
22	0x3b37c818	0.002804285
23	0xbd63de38	-0.055631846
24	0x3c25ee2c	0.010127585
25	0xbc1519c7	-0.009100384
26	0xbd227470	-0.039661825
27	0xbd68442f	-0.05670565
28	0xbd9fa0a4	-0.07794312
29	0x3b54129a	0.003235972
30	0x3cc10c2c	0.023565374
31	0x3cc55835	0.024089912
32	0xbda79866	-0.081833646
33	0xbd23256b	-0.039830606
34	0x3bb8df0f	0.005641825
35	0xbd91c3bb	-0.07117411
36	0x3baf1be3	0.0053439005
37	0xbcc63601	-0.024195673
38	0xbd6b8fd9	-0.05751023
39	0xbde20ed0	-0.110379815
40	0x3d7263bc	0.059177145
41	0xbd138ac9	-0.036021028
42	0x3d8e1f41	0.06939555
43	0xbc61aad5	-0.01377364
44	0xbc97f36c	-0.01854869
45	0xbd7b2514	-0.061314657
46	0xbd98a8da	-0.07454081
47	0xbd1e4c70	-0.038647115
48	0xbcd2547d	-0.025675053
49	0xbd29c26e	-0.04144519
50	0x3b00bf68	0.0019645337
51	0xbc974a06	-0.018467914
52	0xbe34f5e0	-0.17671919
53	0xbe550dbf	-0.20806025
54	0xbd65cb74	-0.05610223
55	0xbdbf7207	-0.09347921
56	0x3c7ac6a6	0.015306151
57	0x3d0cfe3b	0.03442214
58	0xbbad8aec	-0.005296102
59	0x3decb78d	0.11558447
60	0x3cadf281	0.021233799
61	0x3cd66113	0.026169335
62	0xbce6d198	-0.028176114
63	0x3d1f3490	0.038868487
64	0x3c157366	0.009121751
65	0xbe129ab1	-0.14316823
66	0xbe74c786	-0.23904237
67	0xbe8d1aec	-0.27559602
68	0xbd98bee9	-0.07458288
69	0xbc451a9f	-0.012030273
70	0xbd547813	-0.051872324
71	0xbd49383a	-0.049125887
72	0x3d96bff4	0.07360831
73	0x3ce95721	0.02848393
74	0x3d7c6c5f	0.06162679
75	0xbcef6c14	-0.02922634
76	0x3c2ed311	0.010670439
77	0x3db2eb27	0.08736258
78	0xbe094f4a	-0.13409153
79	0xbe5b1826	-0.2139593
80	0xbd8f3336	-0.069921896
81	0xbdd1de49	-0.10247476
82	0xbc931f92	-0.01795939
83	0xbcebc229	-0.028779106
84	0xbd07291e	-0.032998197
85	0x3da40287	0.080082946
86	0x3d8bbb26	0.06822805
87	0x3d838360	0.06421542
88	0x3d22697b	0.039651375
89	0xbcb8f308	-0.022576824
90	0x3cfc9d77	0.030836804
91	0xbe1b1cd2	-0.15147713
92	0xbe8a24a3	-0.26981077
93	0xbe43349c	-0.19063038
94	0xbb244ebb	-0.002507134
95	0xbd3e6c51	-0.046490017
96	0x3c81ce3b	0.015845409
97	0xbba4a25b	-0.005024237
98	0xbc3113f7	-0.010807983
99	0x3d874531	0.06604994
100	0x3dd111e4	0.102084905
101	0x3bb3d12e	0.0054875826
102	0x3cf9d728	0.030498102
103	0x3d3f121a	0.046648122
104	0xbc9a34ac	-0.018823944
105	0x3cf463b8	0.029832706
106	0x3d8a8ae9	0.06764776
107	0xbd230295	-0.039797384
108	0x3d140dc1	0.03614593
109	0x3d09598f	0.033532675
110	0x3d30a20c	0.04312329
111	0x3d457520	0.048207402
112	0xbbbdfd81	-0.0057980423
113	0x3cc0719b	0.023491671
114	0x3c8943d0	0.016755968
115	0xbdb1909b	-0.086701594
116	0x3dcd28fa	0.10017581
117	0x3d95de2f	0.07317769
118	0x3d8430cd	0.064546205
119	0x3bfbdf06	0.0076864986
120	0x3d4d007b	0.050049286
121	0xbbb51e74	-0.005527312
122	0xbd204616	-0.03912934
123	0x3c92c15f	0.017914472
124	0x3d98279a	0.074294284
125	0xbc426cf3	-0.011866796
126	0x3d92d4a4	0.07169464
127	0x3e0355c6	0.12825689
128	0x3dc6313c	0.096773595
129	0xbcc0bffd	-0.023529047
130	0x3c6698f8	0.0140745565
131	0x3e057875	0.13034232
132	0x3d27fade	0.04101073
133	0x3d85a911	0.065263875
134	0x3bbacb31	0.005700492
135	0x3d849d19	0.064752765
136	0x3df6c556	0.120493576
137	0x3c443652	0.011975842
138	0x3d382a0e	0.04496198
139	0xbbc6da94	-0.006068537
140	0x3cdaef93	0.026725566
141	0xbd80cbce	-0.06288873
142	0x3cbd8b0f	0.023137597
143	0xbd3068ff	-0.043068882
144	0x3d7f3b82	0.06231261
145	0x3d73c5fb	0.05951498
146	0xbd64980f	-0.055809077
147	0x3cc6daac	0.024274193
148	0x3d1f60cd	0.038910676
149	0x3d470bfe	0.04859542
150	0xbc9114c0	-0.01771009
151	0x3d62a3ce	0.055331998
152	0xbbc37bc8	-0.0059656836
153	0x3db59a71	0.08867348
154	0xbc878254	-0.016541637
155	0x3d687f08	0.05676177
156	0x3cfa6120	0.030563891
157	0x3d922e47	0.07137733
158	0xbd7a20d2	-0.061066456
159	0x3d9f5c13	0.07781234
160	0x3d8ade80	0.0678072
161	0xbd0fc1b6	-0.035096847
162	0xbda2457a	-0.07923408
163	0x3dd53529	0.1041053
164	0x3d28ecdf	0.041241523
165	0x3d304d97	0.043042745
166	0x3d7b9641	0.06142259
167	0x3cfb9139	0.030708896
168	0xbdab495c	-0.083636016
169	0x3d943318	0.07236308
170	0x3b773dfb	0.0037726152
171	0xbc94f119	-0.01818137
172	0x3da13dd1	0.07873119
173	0x3cf3f82c	0.029781424
174	0x3d396ef9	0.045271847
175	0xbbd792ab	-0.0065787635
176	0x3d9a6208	0.07538229
177	0x3d59c71b	0.053168397
178	0x3dbad1ab	0.09122022
179	0x3c94da9d	0.01817065
180	0x3d837961	0.064196356
181	0x3bdecece	0.0067995554
182	0x3cb1826c	0.021668635
183	0x3da24c74	0.079247385
184	0x3ce0c627	0.027438236
185	0x3d0497af	0.03237122
186	0xbd37d1ca	-0.044877805
187	0x3d9b9eba	0.07598634
188	0xbc11b18f	-0.008892431
189	0xbc2553a9	-0.010090747
190	0x3d0fd73c	0.035117373
191	0xba0eeb9e	-0.000545198
192	0x3dbfe47a	0.0936975
193	0x3beece2b	0.0072877607
194	0x3defb876	0.11705105
195	0xbd1559c6	-0.036462568
196	0xbd248361	-0.040164355
197	0x3bb43ad8	0.005500179
198	0x3d51d1f3	0.051225614
199	0x3be66587	0.007031146
200	0xbd005c2d	-0.031337906
201	0xbdaac051	-0.08337463
202	0x3dac7370	0.084204555
203	0x3bcb25ef	0.0061995904
204	0x3d1f249b	0.03885327
205	0xbd047ae2	-0.032343753
206	0xbd84b4e4	-0.06479815
207	0xbd442a51	-0.04789192
208	0x3b0c566a	0.0021413811
209	0x3cdc3046	0.026878487
210	0x3d8043df	0.062629454
211	0x3d73c1b8	0.059510916
212	0xbcb8ab95	-0.022542754
213	0x3b7d9331	0.003869247
214	0xbb521e88	-0.0032061655
215	0x3bf4d8aa	0.0074721174
216	0xbbbd0924	-0.005768912
217	0x3d06220f	0.032747325
218	0x3cc56021	0.02409369
219	0x3ce0f03e	0.027458306
220	0xbd22ad5d	-0.039716113
221	0x3c9e767b	0.019343605
222	0xbc49275b	-0.0122774495
223	0x3d6754cf	0.056477364
224	0xbc883af7	-0.01662968
225	0xbc8500ff	-0.016235827
226	0xbba83e5d	-0.0051343874
227	0x3c15b6e5	0.009137844
228	0x3d988064	0.074463636
229	0x3d4cf430	0.050037563
230	0xbd1010d2	-0.03517229
231	0x3cd806ed	0.02637049
232	0x3cee8bf3	0.029119467
233	0xbd1b8c7e	-0.03797578
234	0x3ce2fb66	0.027707767
235	0x3c6af6f8	0.0143411085
236	0xbce307d8	-0.027713701
237	0x3d4ca5b3	0.04996271
238	0x3bccf3fa	0.00625467
239	0x3c16a3f1	0.00919436
240	0xbba1262d	-0.004917881
241	0x3d14fa8d	0.036371756
242	0xbd03c1b8	-0.032167166
243	0x3cf50978	0.029911742
244	0x3d405866	0.046959303
245	0x3d148f6c	0.03626959
246	0x3d7b53c1	0.06135917
247	0x3dac8e32	0.08425559
248	0x3cbd0098	0.023071572
249	0xbd22619b	-0.039643865
250	0xbc62d52d	-0.01384477
251	0xbd43098b	-0.047616523
252	0xbc5a6a12	-0.013330953
253	0x3d21353c	0.03935741
254	0x3c37d080	0.011219144
255	0x3d848c26	0.06472044

fc1.bias f4 [128]
0	0xbabf73ac	-0.0014606616
1	0xbd889b38	-0.066702306
2	0x3d0559b0	0.032556236
3	0x3d4ff8c0	0.050774336
4	0xbd211da2	-0.0393349
5	0xbc8de932	-0.01732311
6	0xbd230c4d	-0.039806653
7	0x3ce36a48	0.02776064
8	0xbd1388da	-0.036019184
9	0xbb85e029	-0.00408556
10	0xbd228e8b	-0.03968672
11	0x3bec483b	0.007210759
12	0xbd344373	-0.044009637
13	0x3d7dde95	0.06197985
14	0x3cae976c	0.021312438
15	0x3cfa616b	0.03056403
16	0x3bf3cbfa	0.0074400874
17	0x3c3cfa0a	0.011534223
18	0x3d5639aa	0.052301086
19	0xbc66e77f	-0.014093279
20	0x3cc3281d	0.023822838
21	0xbc8152e1	-0.01578659
22	0x3c2955fd	0.010335443
23	0x3d220fbb	0.039565783
24	0xbcb717ee	-0.022350278
25	0x3d3305b0	0.043706596
26	0xbcce4278	-0.02517818
27	0x3c9fe698	0.019519135
28	0x3a72b6d0	0.00092588086
29	0xbd1ef8be	-0.038811438
30	0xbd1c2e62	-0.03813017
31	0x3d0a8c26	0.033825062
32	0x3cb35bae	0.021894302
33	0xbc8426ac	-0.016131721
34	0x3d685749	0.056723867
35	0xbbbbf6d4	-0.0057362113
36	0x3cc97288	0.024590746
37	0x3d6287b2	0.05530519
38	0x3d1cd298	0.038286775
39	0x3d58473e	0.052802317
40	0xbcafb640	-0.021449208
41	0x3d2ce3c0	0.042209387
42	0x3d4be5bb	0.049779635
43	0x3cbda7a2	0.023151223
44	0xbd371358	-0.044696182
45	0xbc2089f0	-0.009798512
46	0x3d16610d	0.03671365
47	0x3c8b840c	0.017030738
48	0x3d2dde1b	0.042448144
49	0x3c4f6dc6	0.012660449
50	0xbd0a76d5	-0.033804733
51	0x3c326398	0.010888003
52	0x3d6bf1d4	0.057603672
53	0x3989e3ff	0.00026300547
54	0x3d4be5cc	0.0497797
55	0x3d1c1609	0.03810695
56	0x3b3bd626	0.0028661578
57	0xbbc60fbb	-0.0060443557
58	0xbbd8adbd	-0.006612508
59	0x3cc6f191	0.02428511
60	0x3d7b604e	0.06137114
61	0x3c809d6e	0.015700068
62	0x3d529c77	0.051418748
63	0x3d2913d5	0.04127868
64	0x3c52c7b6	0.012864998
65	0xbd164d74	-0.03669496
66	0x3c6af6c8	0.014341064
67	0x3cfc1528	0.030771807
68	0xbca55531	-0.020182224
69	0x3cc34c7f	0.023840187
70	0x3d242a36	0.040079318
71	0x3c88e444	0.016710408
72	0x3b1ab7f8	0.002360819
73	0xbcd45b17	-0.025922341
74	0xbd088fd2	-0.033340283
75	0xbd0be4bb	-0.03415368
76	0x3d5af8f8	0.05346009
77	0x3d937368	0.07199746
78	0xbd2d2d9d	-0.04227983
79	0xbd693d51	-0.05694324
80	0xbd1f9f76	-0.038970433
81	0x3d405af4	0.04696174
82	0xbb7f0143	-0.0038910664
83	0xbd3ae62d	-0.04562967
84	0x3ce69ada	0.02815001
85	0x3d79e2b8	0.06100723
86	0x3d87a217	0.06622713
87	0xba198cf7	-0.0005857492
88	0x3d4a4728	0.049384266
89	0xbcda3b1c	-0.026639514
90	0xbd4cfb15	-0.050044138
91	0x3c27fadd	0.010252682
92	0xbc774b56	-0.015093645
93	0xbd1ae9a5	-0.037820477
94	0xbd16f6b2	-0.03685636
95	0x3cefe8d8	0.029285833
96	0x3c707e03	0.014678481
97	0x3d40adf6	0.047040902
98	0x3cf1f475	0.029535512
99	0xbd2268f5	-0.039650876
100	0x3d87b712	0.06626715
101	0xbd5d66ad	-0.054052997
102	0xbcdbbeed	-0.026824439
103	0x3d570f9c	0.05250512
104	0x3d7c3380	0.06157255
105	0xbb0fe357	-0.0021955573
106	0x3d40f616	0.047109686
107	0x3cbea8d9	0.023273872
108	0x3c2a910c	0.010410558
109	0xbd58514b	-0.052811902
110	0x3d564cc2	0.052319296
111	0x3d68e13a	0.056855418
112	0xbaae3469	-0.0013290766
113	0xbd73ddca	-0.059537686
114	0xbcc10641	-0.023562552
115	0x3cff2206	0.031144153
116	0xbd5b249d	-0.053501714
117	0xbd30be64	-0.04315032
118	0xbd2a9656	-0.041647278
119	0x3ca5d5a8	0.02024348
120	0x3d2843df	0.041080352
121	0x3cd39130	0.025826067
122	0xbd23ffa1	-0.04003871
123	0xbc376838	-0.011194281
124	0xbc34760e	-0.011014475
125	0xbcbc686a	-0.022999007
126	0x3c45f07a	0.01208126
127	0xbd50e141	-0.05099607

fc2.weight f4 [64, 128]
0	0x3ce7ec8e	0.02831104
1	0xbd6ef807	-0.058342006
2	0x3d05ebc9	0.032695565
3	0x3de16a39	0.110065885
4	0xbd84ffe0	-0.06494117
5	0x3e13ae3e	0.14421937
6	0x3d49df13	0.049285006
7	0x3db524d6	0.088449165
8	0x3dcee9aa	0.10103162
9	0x3dfc8c35	0.1233143
10	0x3d2d1f4a	0.042266168
11	0x3cca0c86	0.024664175
12	0xbd363ba1	-0.04449046
13	0x3dbc9a70	0.09209144
14	0x3dfbdc99	0.12297935
15	0x3d46f873	0.048576783
16	0x3db267ed	0.087112285
17	0xbe0b773e	-0.13619706
18	0x3d9286f9	0.0715465
19	0x3d6532f9	0.055956814
20	0x3cc76e7f	0.02434468
21	0x3be97a41	0.0071251695
22	0x3d972aea	0.07381232
23	0x3d941508	0.07230574
24	0x3e046f38	0.12933052
25	0x3d299282	0.041399486
26	0x3df70b3a	0.12062688
27	0x3d83c3d6	0.06433837
28	0x3dc490f0	0.09597957
29	0x3e138f9b	0.1441025
30	0x3cd0df78	0.025497183
31	0xbcd31483	-0.025766617
32	0x3e24a170	0.16077209
33	0xbdeaa4e2	-0.1145723
34	0xbad116b8	-0.0015952205
35	0xbc640361	-0.013916821
36	0xbd984239	-0.07434506
37	0xbd02fd39	-0.031979773
38	0xbd36209c	-0.044464692
39	0xbd82cbbf	-0.06386518
40	0xbe0183cf	-0.12647937
41	0x3d82f11f	0.063936464
42	0xbd05e634	-0.032690242
43	0xbd385883	-0.045006286
44	0xbd3ae227	-0.045625832
45	0x3e314cb5	0.17314418
46	0xbd7661d4	-0.06015189
47	0xbc7d0152	-0.015442209
48	0x3d6ed2d1	0.05830652
49	0xbe128e3b	-0.14312069
50	0x3b6f2a76	0.0036493815
51	0x3db182ed	0.0866755
52	0xbd4a3b88	-0.04937318
53	0xbdb9386c	-0.09043965
54	0xbcf7ba90	-0.030240327
55	0x3cc0bd9e	0.023527917
56	0x3db9a35e	0.09064363
57	0x3bb65918	0.00556482
58	0x3dceab7d	0.100913025
59	0x3cd235a3	0.025660342
60	0x3e15a620	0.14614153
61	0x3e1cfb22	0.15330175
62	0x3d93fd7b	0.07226082
63	0x3dc5fb3e	0.09667061
64	0xbd4575b1	-0.048207942
65	0xbaf4fd73	-0.0018691256
66	0xbcac7b2d	-0.021054829
67	0x3cdff207	0.027337087
68	0x3e043351	0.129102
69	0xbdee1933	-0.116259
70	0x3da6a59d	0.08137057
71	0x3cce8d08	0.025213733
72	0x3e2b61d0	0.16736531
73	0x3d9822a8	0.07428485
74	0x3cc9411c	0.02456718
75	0xbcbb5b38	-0.022870645
76	0x3d24e334	0.04025574
77	0x3dba53bd	0.09098003
78	0xbd5a2b89	-0.053264175
79	0xbdd8868b	-0.10572537
80	0x3e44eaa4	0.19230133
81	0x3d9657d9	0.07340974
82	0xbc3c87be	-0.011506973
83	0x3d5a7825	0.053337235
84	0xbcc37eb9	-0.023864137
85	0xbc18047d	-0.009278414
86	0xbd5bfb63	-0.053706538
87	0x3e18b69c	0.1491341
88	0xbca19665	-0.019725034
89	0x3c041870	0.008062467
90	0x3c62727e	0.013821242
91	0x3d3c50a4	0.045975342
92	0x3d267483	0.040638458
93	0x3d9ddf19	0.07708568
94	0xbdab13d1	-0.08353389
95	0x3d44d43d	0.04805397
96	0x3dbc5bde	0.0919721
97	0x3dc1c03b	0.09460493
98	0xbd06f24b	-0.032945912
99	0x3dc6b3ad	0.09702239
100	0x3d8898e5	0.06669787
101	0xbca79895	-0.020458499
102	0xbd256ec7	-0.04038885
103	0xbdb9341a	-0.09043141
104	0x3e188a74	0.14896566
105	0xbc1e7d83	-0.009673479
106	0x3cd993d5	0.02655975
107	0x3e162c18	0.14665258
108	0xbb089d50	-0.0020845719
109	0x3d577ece	0.052611165
110	0x3da19df8	0.07891458
111	0x3deb3728	0.114851296
112	0x3cbdae97	0.02315454
113	0x3e05aec2	0.13054946
114	0x3c87e27f	0.016587494
115	0x3d4c835b	0.049929958
116	0xbd0a8265	-0.03381576
117	0x3dbeb576	0.09311955
118	0xbcb9801b	-0.022644093
119	0xbc84bfa2	-0.016204659
120	0x3e0e96fc	0.13924783
121	0xbdd7105d	-0.10501168
122	0x3d8560bc	0.06512591
123	0x3df72d43	0.1206918
124	0x3cc645d5	0.02420322
125	0x3e29d149	0.16583742
126	0x3d8b8d60	0.068140745
127	0x3b92d1ac	0.0044805612
128	0xbd0790b6	-0.03309699
129	0x3da36fde	0.07980321
130	0xbd8d85ba	-0.06910272
131	0x3db90c76	0.0903558
132	0xbd63893c	-0.0555508
133	0x3dd0f664	0.10203245
134	0xbcfec0c0	-0.03109777
135	0xbca5ce3a	-0.020239938
136	0xbd7e4c35	-0.062084395
137	0x3c3663fb	0.011132236
138	0xbcf1bfbe	-0.029510375
139	0xbbdc8c8a	-0.0067306207
140	0x3e16c457	0.14723335
141	0xbd1ea624	-0.038732663
142	0x3dca023c	0.098637074
143	0xbd11b312	-0.035571165
144	0x3c3e918b	0.01163138
145	0xbdb935e7	-0.09043484
146	0x3d0355d4	0.032064274
147	0x3cb432dc	0.021996908
148	0xbd462480	-0.048374653
149	0x3d237413	0.03990562
150	0x3dae9ae7	0.08525639
151	0x3d47bded	0.04876511
152	0x3d86be6d	0.065792896
153	0x3d1c84bc	0.038212523
154	0xbcf750d8	-0.030189916
155	0x3cf94b8d	0.030431533
156	0xbd8d6de1	-0.06905723
157	0x3d1d6c6a	0.03843347
158	0x3d112aa5	0.03544106
159	0xbde3bc88	-0.11119944
160	0xbcc239b2	-0.023709152
161	0x3dae2f03	0.085050605
162	0x3d11a9bd	0.035562266
163	0x3e30fdbd	0.17284293
164	0x3da3bb86	0.07994752
165	0xbc06add3	-0.008220154
166	0xbbb1d68a	-0.0054271864
167	0x3d96922f	0.07352101
168	0xbdfa80c9	-0.12231595
169	0xbe20a9ef	-0.15689825
170	0xbd20fccd	-0.03930359
171	0x3d345c6f	0.044033464
172	0xbdeafc3c	-0.11473891
173	0x3dd6e51f	0.1049292
174	0xbdf885a5	-0.12134866
175	0xbd93ea06	-0.07222371
176	0x3d800435	0.062508024
177	0xbd44f1a3	-0.048082005
178	0x3d2fa52f	0.04288214
179	0xbd3f099c	-0.046640024
180	0xbe344dd1	-0.1760781
181	0x3d0bd55c	0.034139022
182	0xbb947b8f	-0.004531331
183	0x3c321886	0.010870105
184	0xbe071d43	-0.13194756
185	0xbcebb68e	-0.028773572
186	0xbc95294c	-0.018208168
187	0x3d3e289f	0.046425458
188	0x3dd0b202	0.10190202
189	0x3cfceb90	0.030874044
190	0xbdc9dedb	-0.098569594
191	0xbcd7b00a	-0.02632906
192	0xbcd7bdf3	-0.026335692
193	0xbd1d165b	-0.038351398
194	0x3d4faeba	0.05070374
195	0xba598a49	-0.0008298499
196	0x3d8e82d3	0.069585465
197	0x3cd0e4a4	0.02549965
198	0x3cf8cb5d	0.030370409
199	0x3c823e96	0.015898984
200	0x3dcfb3da	0.10141726
201	0xbcd5f4e4	-0.02611775
202	0x3e14b7a9	0.14523186
203	0xbda92148	-0.08258301
204	0x3d20db26	0.039271496
205	0x3c3a2aea	0.011362771
206	0x3d7e18fd	0.06203555
207	0xbd9b07f8	-0.07569879
208	0x3d9d0d89	0.07668597
209	0xbcf029b0	-0.029316753
210	0x3dd50f48	0.10403305
211	0xbd93d4c6	-0.07218318
212	0x3c860e48	0.016364232
213	0xbd39a1c0	-0.045320272
214	0xbd28fade	-0.04125487
215	0x3dc84712	0.097791806
216	0x3d8fae9c	0.07015726
217	0x3db0c1e2	0.0863073
218	0xbe082642	-0.13295844
219	0x3c978219	0.018494653
220	0x3dde908b	0.10867413
221	0xbd0ce632	-0.03439922
222	0x3daea33b	0.085272275
223	0x3db98105	0.09057812
224	0x3d9c3e40	0.07629061
225	0xbcc111f1	-0.023568125
226	0xbd1b5b9e	-0.03792917
227	0x3dc3b913	0.095567845
228	0xbd47c85b	-0.04877506
229	0x3ca4035e	0.020021137
230	0xbe4195e5	-0.18904836
231	0x3d8407c1	0.064467914
232	0x3a986d86	0.001162932
233	0xbd009d37	-0.03139993
234	0xbcb8099a	-0.022465516
235	0xbd8238cb	-0.06358489
236	0x3d8d9f42	0.06915142
237	0x3cc020c8	0.023453131
238	0x3db0dbe5	0.086356916
239	0x3cb2bd70	0.021818846
240	0xbdc1da17	-0.094654255
241	0xbdb8ad88	-0.090174735
242	0xbd91e7c6	-0.071242854
243	0x3d52b269	0.051439676
244	0x3d33115d	0.04371773
245	0xbc3f23cd	-0.01166625
246	0xbd5c1ef2	-0.05374045
247	0x3cc17e60	0.02361983
248	0xbc9451b1	-0.01810536
249	0xbcde2461	-0.027116956
250	0x3ae4b049	0.0017447557
251	0x3d7f84cf	0.062382516
252	0xbd880126	-0.06640844
253	0xbc22ed1f	-0.009944229
254	0x3da323e2	0.079658285
255	0x3c6eb8ae	0.014570398

fc2.bias f4 [64]
0	0x3dc657a0	0.09684682
1	0x3dc9028b	0.09814938
2	0x3d84d96b	0.06486782
3	0x3ca31cdc	0.019911222
4	0xbd978c7e	-0.07399844
5	0xbc9c8a67	-0.019108964
6	0x3d71158d	0.058858443
7	0xbc9c3ce4	-0.019072004
8	0x3cdbc883	0.02682901
9	0x3cc9e4db	0.02464526
10	0x3bcf664c	0.0063293334
11	0x3cbe28b6	0.023212772
12	0xbd8ef1f7	-0.06979745
13	0x3d88205e	0.066467986
14	0xbc96bf4c	-0.018401764
15	0x3b180808	0.0023198146
16	0x3b5b1977	0.0033431926
17	0x3d4982b5	0.049196918
18	0x3cc77674	0.024348475
19	0x3cb8e15e	0.022568401
20	0x3c7cbdc0	0.015426099
21	0xbda8140b	-0.08206948
22	0xbd1f95e5	-0.03896131
23	0x3d454a6f	0.04816669
24	0x3d7eefcf	0.062240418
25	0x3cfe9c3f	0.031080363
26	0xbc0b6baf	-0.0085095605
27	0x3da43634	0.08018151
28	0x3d1ec279	0.038759682
29	0xbc78d9c4	-0.015188638
30	0xbd574758	-0.052558273
31	0xbd84d9fc	-0.0648689
32	0x3c0ea553	0.008706409
33	0x3d8c2527	0.06843024
34	0x3bb92d60	0.005651161
35	0xbc6662c9	-0.014061638
36	0x3d17cb17	0.037058916
37	0x3d4763ed	0.04867928
38	0x3d06a70c	0.032874152
39	0xbd42ceb1	-0.047560398
40	0xbcf429bd	-0.029805059
41	0x3c02bc75	0.007979502
42	0xbd77672e	-0.060401134
43	0xbd431c42	-0.04763437
44	0xbc6c1351	-0.014408902
45	0x3d97835d	0.073981024
46	0xbcc594a8	-0.024118736
47	0xbd49a760	-0.049231887
48	0x3a7749a0	0.0009433273
49	0xbd22b52a	-0.039723553
50	0x3d8fedcc	0.07027778
51	0xbd17d006	-0.03706362
52	0x3dda8c48	0.10671288
53	0x3d7bc9fd	0.061471928
54	0x3d7faa34	0.062418178
55	0x3d06cd5f	0.0329107
56	0xbcc36a8a	-0.023854513
57	0x3da91688	0.082562506
58	0x3ca25edc	0.019820623
59	0xbbcc8e83	-0.0062425747
60	0x3cc60111	0.02417043
61	0x3da0e9bc	0.07857081
62	0x3616f6b0	2.2495333e-06
63	0x3d132c80	0.03593111

policy_head.weight f4 [110, 64]
0	0x3d0d0701	0.034430508
1	0xbe67d035	-0.22638018
2	0xbdb2280e	-0.08699046
3	0xbd2d7696	-0.04234942
4	0xbc4f1cf1	-0.0126411775
5	0xbe29edf7	-0.16594683
6	0xbe0d4664	-0.13796383
7	0xbe54cfee	-0.20782444
8	0x3dcdb0c0	0.10043478
9	0xbd3dba5c	-0.046320304
10	0xbe41bc29	-0.18919434
11	0x3dbb30e6	0.09140186
12	0xbdb9679f	-0.09052967
13	0x3d2e4d9a	0.042554475
14	0xbe15b21d	-0.14618726
15	0xbe291f7d	-0.16515918
16	0xbe534cb7	-0.20634733
17	0xbd8c8fdf	-0.06863379
18	0x3e977e0c	0.29588354
19	0xbe4384c1	-0.1909361
20	0x3d8a2858	0.06745976
21	0xbd083d3b	-0.03326152
22	0x3d7c504d	0.06160002
23	0xbd030c1f	-0.03199398
24	0xbda170f5	-0.07882873
25	0xbdfecdd0	-0.12441599
26	0x3ec161c3	0.377699
27	0xbd82fa72	-0.06395425
28	0xbd88cc1b	-0.06679555
29	0x3d0b9f27	0.034087326
30	0xbc998753	-0.018741285
31	0xbd7f202b	-0.062286537
32	0x3e21b0ea	0.15790144
33	0x3e824070	0.25439787
34	0xbd6059fc	-0.054773316
35	0x3e802f4d	0.25036088
36	0x3e2373ad	0.15962096
37	0xbe2267d9	-0.15859927
38	0x3eb4092f	0.35163257
39	0x3ef8533c	0.48501003
40	0x3e20dca9	0.15709175
41	0xbe0369e6	-0.12833366
42	0xbe22968c	-0.15877742
43	0xbe774152	-0.24146011
44	0xbe166ff2	-0.14691141
45	0x3e34ff38	0.17675483
46	0xbdabe50c	-0.083932966
47	0x3e573673	0.21016864
48	0xbe350494	-0.17677528
49	0x3e0779a7	0.1323
50	0x3ebf374d	0.3734688
51	0x3deb279c	0.11482164
52	0x3dc80979	0.09767432
53	0xbe083971	-0.13303162
54	0xbe34e10f	-0.17663978
55	0x3dbfa27f	0.093571655
56	0x3d588035	0.052856643
57	0xbde2de35	-0.11077539
58	0xbdce5e77	-0.100766115
59	0x3e29d645	0.16585644
60	0xbc09732b	-0.008389275
61	0x3ebb80cb	0.366217
62	0x3d878672	0.0661744
63	0x3e8d3766	0.27581328
64	0x3db50660	0.088391066
65	0xbe1cc79a	-0.15310517
66	0xbd39dff6	-0.0453796
67	0xb9d6b04f	-0.0004094862
68	0xbdbda5b0	-0.09260118
69	0xbe9cd7d2	-0.30633408
70	0xbd5f59d7	-0.054529037
71	0xbdb56aa6	-0.08858232
72	0x3e5e2b42	0.21696189
73	0xbe71ff4f	-0.23632549
74	0xbda6e017	-0.081482105
75	0x3db2d648	0.08732277
76	0x3d089b40	0.033351183
77	0xbd0a1ed1	-0.033720795
78	0xbe4558ec	-0.19272202
79	0xbe4bb0b5	-0.19891627
80	0xbe52584e	-0.20541498
81	0xbe2fbc32	-0.17161635
82	0x3eac56d7	0.33660004
83	0xbd277d30	-0.040890872
84	0xbd0ba9c7	-0.03409746
85	0x3c744fdc	0.014911618
86	0x3e98def4	0.298576
87	0x3d2d73f4	0.04234691
88	0xbe65f379	-0.22456159
89	0xbdb86e3d	-0.09005401
90	0x3ef6ff02	0.4824143
91	0x3bf7d578	0.0075632893
92	0xbd2dc55f	-0.042424556
93	0x3df82cc4	0.12117913
94	0xbcb7e7e0	-0.022449434
95	0xbe404c81	-0.18779184
96	0x3e85f035	0.26159826
97	0x3e9e77f0	0.3095088
98	0xbd32387a	-0.04351089
99	0x3e64c51e	0.22340819
100	0x3d76ab11	0.060221735
101	0xbe441cda	-0.19151631
102	0x3e73cf0f	0.23809455
103	0x3ee1b5b7	0.4408395
104	0x3e0f3082	0.13983348
105	0xbdffdfa5	-0.12493829
106	0xbd09c283	-0.033632766
107	0xbe4b2d93	-0.19841604
108	0xbe8a5b9f	-0.27023026
109	0x3e2d4a8b	0.16922967
110	0xbe4a6378	-0.19764507
111	0x3e4939ef	0.19651006
112	0xbcdb677d	-0.026782745
113	0x3e5a7c36	0.21336445
114	0x3f0475b8	0.51742125
115	0x3e49633f	0.19666766
116	0xbc7fa8dd	-0.015604225
117	0xbe317a99	-0.17331924
118	0xbdc43cbd	-0.095818974
119	0x3e316894	0.1732505
120	0xbd0cec0b	-0.034404796
121	0xbe178fb7	-0.14800917
122	0xbde97b58	-0.11400479
123	0x3e3ff7fd	0.18746944
124	0xbe7893cc	-0.2427513
125	0x3e7a66cf	0.24453281
126	0x3d9e60c6	0.07733302
127	0x3e8f4da0	0.2798891
128	0x3dc0487a	0.09388824
129	0x3e6a16ec	0.22860307
130	0x3e662618	0.22475469
131	0x3a91c028	0.0011119889
132	0x3c04d71f	0.0081079295
133	0x3e34e687	0.17666064
134	0x3d88c65a	0.066784576
135	0x3e41f8a1	0.189425
136	0x3dbedbbf	0.09319257
137	0x3e118758	0.14211786
138	0x3e03270b	0.12807862
139	0xbda9b960	-0.082873106
140	0x3d20363b	0.03911422
141	0x3de8c0f8	0.11364931
142	0x3e294900	0.16531754
143	0x3d72db95	0.05929144
144	0x3dcf4da9	0.101222344
145	0xbd8d701b	-0.06906148
146	0xbd595edd	-0.053068984
147	0x3defaa86	0.11702447
148	0x3daaef92	0.08346476
149	0xbd0e91a5	-0.034806866
150	0x3dc79273	0.0974473
151	0x3e08c824	0.13357598
152	0x3e1a7947	0.15085326
153	0x3dd77b48	0.10521561
154	0xbd2e35c1	-0.042531732
155	0xbded158a	-0.11576374
156	0xbd88f96f	-0.06688201
157	0x3dc638f6	0.09678833
158	0xbdb7c67d	-0.089734055
159	0xbde119f4	-0.10991278
160	0xbe36b554	-0.17842609
161	0x3d6e9111	0.058243815
162	0xbd0be4bf	-0.034153696
163	0x3d94b08d	0.07260237
164	0xbb43723b	-0.0029822725
165	0x3e5b1ecb	0.21398465
166	0xbd61658a	-0.055028476
167	0xbbaa3289	-0.0051940125
168	0x3e09242c	0.13392705
169	0xbd33b5ef	-0.043874677
170	0x3e53ab03	0.20670705
171	0x3e0deed1	0.13860632
172	0x3d030f65	0.031997103
173	0x3d979e9a	0.07403298
174	0x3d881a78	0.066456735
175	0xbe10c208	-0.14136517
176	0x3e09e1ac	0.13464993
177	0xbdca77dd	-0.09886143
178	0xbd8482d6	-0.064702675
179	0xbd2782e0	-0.040896297
180	0x3decc16c	0.1156033
181	0x3d46bd0d	0.048520137
182	0xbdcb6b61	-0.0993259
183	0x3deede30	0.11663473
184	0xbd7dab0f	-0.061930712
185	0x3c4998d6	0.012304505
186	0x3e4b41e2	0.19849351
187	0x3cf4cb6f	0.029882161
188	0x3e2c2d56	0.1681417
189	0xbd73bb88	-0.059505016
190	0x3dcbff0b	0.09960755
191	0x3d49953c	0.049214587
192	0x3d7e436e	0.062076025
193	0xbcbce564	-0.0230586
194	0x3e2a1d8a	0.16612831
195	0x3e38ac43	0.18034463
196	0x3e710525	0.23537119
197	0x3de07a53	0.109608315
198	0x3d006090	0.03134209
199	0x3e2cb658	0.16866434
200	0xbe5113e3	-0.20417742
201	0x3d24b43c	0.040210947
202	0x3e6bd5dd	0.23030801
203	0xbd33610c	-0.043793723
204	0xbd209416	-0.039203726
205	0xbd966470	-0.07343376
206	0x3dd4d22b	0.10391649
207	0x3e5b9a6b	0.21445625
208	0x3d85c353	0.06531396
209	0x3e8549c6	0.26032847
210	0x3e3b628b	0.1829931
211	0xbacf1273	-0.0015798345
212	0x3dcb6925	0.09932164
213	0xbcd27d9c	-0.02569466
214	0x3dc85c4c	0.09783229
215	0xbe35b87c	-0.17746156
216	0x3e2b961a	0.16756478
217	0x3cf214a0	0.02955085
218	0xbedab8db	-0.4271916
219	0xbcf51fe8	-0.02992244
220	0x3e5d4c7c	0.21611208
221	0x3d1dc2e5	0.038515944
222	0xbdbc9fd7	-0.092101745
223	0x3e663216	0.22480044
224	0x3e4306bd	0.19045539
225	0xbe852bbe	-0.26009935
226	0x3e16216f	0.14661191
227	0xbd657daf	-0.056028064
228	0x3dca0024	0.09863308
229	0x3be215df	0.00689958
230	0xbe0c77a7	-0.13717519
231	0xbdd23358	-0.10263699
232	0x3e0cd06d	0.13751383
233	0xbc08360a	-0.008313665
234	0x3d6c026a	0.05761949
235	0xbcc48b1c	-0.023992114
236	0x3dea69c7	0.11445957
237	0xbe8a7b73	-0.2704731
238	0x3de55f69	0.11199839
239	0xbd6ec42d	-0.058292557
240	0x3e26ad89	0.16277136
241	0xbd9c7af6	-0.076406404
242	0xbde9018c	-0.11377248
243	0x3e135213	0.14386778
244	0xbe60ab33	-0.21940307
245	0x3dd2dc5f	0.10295939
246	0x3e85063a	0.25981313
247	0xbe6b0e52	-0.22954682
248	0x3db2fc0b	0.0873948
249	0x3e599a06	0.21250162
250	0x3e213640	0.15743351
251	0x3d4fa99e	0.05069887
252	0x3df3c7e4	0.119033605
253	0xbe8ad3da	-0.27114755
254	0xbd9d239a	-0.07672806
255	0xbe6c082d	-0.23049994

policy_head.bias f4 [110]
0	0xbd2a5db2	-0.04159326
1	0x3da89d8b	0.08233174
2	0x3cb55138	0.022133455
3	0x3e4471b2	0.19183996
4	0xbd907bb9	-0.07054848
5	0xbd7a52b2	-0.06111402
6	0xbd665ff6	-0.05624386
7	0xbd4013b7	-0.0468938
8	0x3d9bbe0b	0.07604607
9	0xbdcfe9df	-0.10152029
10	0xbd1d2b61	-0.038371447
11	0xbdabfb23	-0.0839751
12	0x3dc05101	0.0939045
13	0xbcef7e44	-0.029235013
14	0x3e1ebf46	0.15502653
15	0xbd02a189	-0.031892333
16	0xbcf6e109	-0.030136602
17	0x3dcaa4da	0.09894724
18	0x3d9884db	0.07447215
19	0x3de66886	0.11250405
20	0x3c4148aa	0.01179711
21	0xbdf59cc8	-0.11992794
22	0xbd67162b	-0.056417625
23	0xbdc5623a	-0.09637876
24	0xbd6aa368	-0.057284743
25	0x3e09291d	0.1339459
26	0x3c2bcaed	0.010485393
27	0xbb66c245	-0.0035211009
28	0x3ce41f56	0.027846973
29	0xbdb96ea9	-0.0905431
30	0xbd8e8988	-0.06959826
31	0xbdd2573e	-0.102705464
32	0xbd65fbf9	-0.056148503
33	0x3d30ed45	0.043195028
34	0xbdad7cf9	-0.08471102
35	0x3dc6346e	0.09677969
36	0x3cecffd8	0.02893059
37	0xbd262237	-0.040559974
38	0x3cdab3a2	0.026696984
39	0x3df09346	0.1174684
40	0xbda573db	-0.08078738
41	0x3d50beeb	0.050963324
42	0x3cfc9671	0.030833455
43	0xbd8cfe38	-0.06884426
44	0x3c81b26b	0.015832147
45	0xbc7171dc	-0.014736619
46	0x3db0b613	0.08628478
47	0xbc24ab4a	-0.010050604
48	0x3d0b3546	0.033986352
49	0x3d9bbb2d	0.0760406
50	0xbdb0d9c5	-0.08635286
51	0x3dfc680e	0.12324534
52	0x3dee666a	0.11640628
53	0x3bfd2b59	0.0077261147
54	0xbd4d4b5c	-0.050120696
55	0xbdaba269	-0.08380587
56	0x3e395ece	0.18102571
57	0x3da2b902	0.07945444
58	0x3c17180a	0.00922204
59	0xbc66c53e	-0.014085112
60	0xbdb2d19c	-0.08731386
61	0xbd7a7d0a	-0.061154403
62	0x390df6f4	0.00013538805
63	0x3d18e0f2	0.0373239
64	0x3be8cd9b	0.007104588
65	0xbc2400dd	-0.010009971
66	0x3d80ba79	0.06285567
67	0x3d924931	0.071428664
68	0x3c80e8c1	0.015735986
69	0x3d0ec6c8	0.03485754
70	0x3d908b2c	0.07057795
71	0xbdc0f431	-0.09421576
72	0x3d22f876	0.039787732
73	0xbd97c469	-0.07410509
74	0xbd5ed1cc	-0.054399297
75	0xbd577497	-0.052601423
76	0xbe0ed44c	-0.13948172
77	0x3cff136f	0.031137196
78	0xbe0dc7c0	-0.1384573
79	0x3c694e06	0.014239794
80	0xbdff4724	-0.12464741
81	0x3c16a30c	0.009194147
82	0xbdf6bcc5	-0.12047724
83	0x3d5599e7	0.052148726
84	0xbe2b91c9	-0.16754831
85	0x3d161e29	0.036649857
86	0x3cbf9cbd	0.023390168
87	0xbde1fefe	-0.11034964
88	0xbd06a82f	-0.032875236
89	0xbd2739f2	-0.040826745
90	0xbdd7e125	-0.1054099
91	0xbdd93dcb	-0.10607489
92	0xbc80511e	-0.01566368
93	0x3c879a95	0.016553203
94	0xbe01e49c	-0.12684864
95	0x3d3495c7	0.04408815
96	0xbc8c145b	-0.01709955
97	0xbdaa1ddb	-0.08306476
98	0xbe144fbe	-0.14483544
99	0x3bbb1af0	0.0057099983
100	0x3d31a53b	0.043370467
101	0xbdd930c7	-0.10605007
102	0xbb3bd566	-0.002866113
103	0xbd132ace	-0.035929494
104	0xbe0c2a45	-0.13688
105	0xbe0c3b81	-0.13694574
106	0xbdb110f5	-0.086458124
107	0xbdc73526	-0.09726934
108	0xbe06be78	-0.13158596
109	0x3da7c8a8	0.08192569

value_head.weight f4 [1, 64]
0	0xbcbc19a3	-0.022961443
1	0x3d9f80af	0.07788216
2	0x3c5cab10	0.013468519
3	0x3dd5b087	0.104340605
4	0x3c35efaf	0.011104508
5	0x3e4c1e4e	0.19933435
6	0xbcfb8500	-0.030703068
7	0x3d1a5b87	0.037684944
8	0xbe3c455e	-0.18385836
9	0x3e17325f	0.14765309
10	0xbd2cacf0	-0.042157114
11	0xbda30452	-0.079598084
12	0x3dd4844e	0.103767976
13	0xbdaeca5e	-0.08534692
14	0x3d155c1b	0.03646479
15	0x3dfae33a	0.12250371
16	0x3cf7fa92	0.030270848
17	0x3e2d7746	0.1694003
18	0xbda2fac6	-0.079579875
19	0x3ce8a0d5	0.028397003
20	0xbd8ea257	-0.069645576
21	0xbdc1dc75	-0.09465877
22	0xbe03c6be	-0.12868783
23	0x3dd5d321	0.1044066
24	0x3dc5e67d	0.09663103
25	0x3d3eebef	0.046611723
26	0xbde8b588	-0.11362749
27	0xbdc25abd	-0.09489963
28	0x3da515cf	0.080608
29	0xbdb3a3b7	-0.087714605
30	0xbda6f119	-0.081514545
31	0x3db38b25	0.08766774
32	0xbc73abfa	-0.014872545
33	0xbe751c25	-0.23936518
34	0x3d578baa	0.05262343
35	0xbe8bcc7a	-0.2730444
36	0xbdb2f8bb	-0.08738848
37	0x3d526541	0.051366094
38	0x3d23d827	0.04000106
39	0xbe1d7666	-0.15377197
40	0xbdc81fee	-0.09771715
41	0xbdcfd645	-0.101482905
42	0x3d04418d	0.032289077
43	0x3d68f2c4	0.056872144
44	0x3e0cbce6	0.13743934
45	0xbe0fec4b	-0.14054982
46	0xbb79563b	-0.0038045782
47	0xbda34c7e	-0.07973574
48	0x3cc7ef7f	0.024406193
49	0xbdf07d3c	-0.117426366
50	0xbe5a0693	-0.2129157
51	0xbe112759	-0.14175166
52	0x3d211a29	0.03933159
53	0x3d688519	0.056767557
54	0x3e0c5ace	0.13706514
55	0xbe3886d0	-0.18020177
56	0xbc2588c9	-0.010103413
57	0xbcdf4575	-0.0272548
58	0x3ca0faba	0.019650806
59	0xbdeada3c	-0.11467406
60	0x3df169c7	0.117877536
61	0xbd4c5398	-0.04988441
62	0xbdb26dbd	-0.08712337
63	0xbc27269a	-0.010202074

exp_avg f4 [128, 260]
0	0x394be9d6	0.000194467
1	0xb912f2f5	-0.00014014154
2	0xb9a07a59	-0.00030608734
3	0x38b680ff	8.702464e-05
4	0xb9b6b333	-0.0003484726
5	0x37a63153	1.981171e-05
6	0xb9079407	-0.00012929748
7	0x3897971e	7.228389e-05
8	0x393c2e3e	0.00017946304
9	0xb9ca3520	-0.00038568024
10	0x350cef85	5.250261e-07
11	0xb9af8f51	-0.0003348538
12	0xb94f1e35	-0.00019752311
13	0xb99160a0	-0.00027728546
14	0x3608c6c5	2.0381278e-06
15	0x3872aea8	5.7859957e-05
16	0xb9a8a6a0	-0.00032167602
17	0xb99d1efc	-0.0002996846
18	0xb83cb092	-4.4987137e-05
19	0xb9892da8	-0.00026164693
20	0x3833beb2	4.2854525e-05
21	0xb99cb7ff	-0.00029891726
22	0xb96dbc52	-0.00022672236
23	0xb80729de	-3.22255e-05
24	0xb909c4c9	-0.00013138646
25	0xb82788e5	-3.9943396e-05
26	0x38a00ea3	7.632121e-05
27	0xb96e41ca	-0.00022721957
28	0xb8f7b7a9	-0.00011812087
29	0xb8a8dc8d	-8.051945e-05
30	0xb90e7ec1	-0.00013589395
31	0xb98e24e5	-0.0002711184
32	0x379aac6a	1.8438517e-05
33	0xb9ec297d	-0.0004504434
34	0xb700121f	-7.633614e-06
35	0xb80be773	-3.3355736e-05
36	0x38ba0c7d	8.871497e-05
37	0xb907a58e	-0.00012936277
38	0xb991a78e	-0.00027781393
39	0x38dd71a5	0.00010559269
40	0xb8cb3e9b	-9.6914555e-05
41	0xb98bbc8c	-0.00026652624
42	0xba354dc5	-0.00069161906
43	0xb8e8dc34	-0.00011103638
44	0xb8a62719	-7.922779e-05
45	0x36ac1393	5.128278e-06
46	0xb8d26d45	-0.00010033933
47	0xb933cc9a	-0.0001714699
48	0x3851c4a3	5.0012615e-05
49	0x392e1c61	0.00016604505
50	0xb9643b3f	-0.00021765845
51	0xb7095096	-8.184599e-06
52	0x1e208aa0	8.4989965e-21
53	0xb682660e	-3.8861826e-06
54	0x382e1eca	4.1513507e-05
55	0x36b1f896	5.3039503e-06
56	0xb85dd914	-5.2892676e-05
57	0xb76d0393	-1.4127133e-05
58	0x37f7df36	2.9548635e-05
59	0xb628fc00	-2.5180634e-06
60	0xb77e5405	-1.5159142e-05
61	0xb8051bff	-3.1735744e-05
62	0xb805f4c7	-3.1937638e-05
63	0xb91de3b7	-0.00015057517
64	0xb86a2639	-5.5825545e-05
65	0x372b7df7	1.0221723e-05
66	0xb4f1e465	-4.5055927e-07
67	0x37b599ff	2.1648591e-05
68	0xb889c0ce	-6.568582e-05
69	0xb8cb013e	-9.680026e-05
70	0xb83cdfe3	-4.5031204e-05
71	0x3576abe7	9.189229e-07
72	0x388876e4	6.5071305e-05
73	0xb7dd6471	-2.6392025e-05
74	0xb8c8a088	-9.5666444e-05
75	0x3785c149	1.5944841e-05
76	0x36ed4804	7.071534e-06
77	0x38d8939a	0.000103271756
78	0x3324d38d	3.837663e-08
79	0xb738e54f	-1.1020645e-05
80	0x037983b7	7.3325725e-37
81	0x38a0e585	7.672146e-05
82	0x38578400	5.138293e-05
83	0xb8edd0f1	-0.00011339959
84	0x37bbd3dd	2.2390794e-05
85	0xb7f813dc	-2.9573152e-05
86	0xb747b8fd	-1.1904395e-05
87	0xb99b2b94	-0.00029596372
88	0xb7697e68	-1.39173135e-05
89	0x38017b37	3.087075e-05
90	0x37c9116e	2.3969184e-05
91	0x37dc63b5	2.6272473e-05
92	0x3543df4e	7.296811e-07
93	0x356ece85	8.8962435e-07
94	0x37685503	1.3848071e-05
95	0x35bb56d6	1.3957858e-06
96	0xb8881534	-6.488935e-05
97	0xb846a004	-4.7355905e-05
98	0xb8e8984c	-0.000110909896
99	0xb75bdee0	-1.3105309e-05
100	0xb8058ac4	-3.1838907e-05
101	0x370b9b57	8.3212135e-06
102	0xb7cba819	-2.4277762e-05
103	0x385124e8	4.9863855e-05
104	0xb8d55df6	-0.00010174133
105	0x38dc271f	0.00010497704
106	0xb8ebb5ff	-0.000112395726
107	0x3938ecc2	0.00017635807
108	0xb8832bdf	-6.2547384e-05
109	0xb9704eab	-0.0002291749
110	0xb920f934	-0.00015351624
111	0x38cdec9d	9.8192344e-05
112	0xb99892ff	-0.0002910122
113	0xb96a6c28	-0.0002235627
114	0x3907711a	0.00012916737
115	0xb8c2d5ea	-9.2904855e-05
116	0xb8c912a0	-9.587896e-05
117	0xb86eb9c7	-5.691664e-05
118	0x376eb3a3	1.422773e-05
119	0xb8a243a7	-7.737363e-05
120	0xb884a933	-6.325766e-05
121	0x38602456	5.3439602e-05
122	0xb9360de8	-0.00017362053
123	0xb7e0060a	-2.6705693e-05
124	0xb8f45e62	-0.00011652407
125	0xb9602c34	-0.00021378772
126	0xb992b8a1	-0.0002798485
127	0xb93da8bc	-0.00018087303
128	0x370c227e	8.352681e-06
129	0xb88e8957	-6.796669e-05
130	0xb834fd52	-4.3151267e-05
131	0xb927a553	-0.00015987949
132	0x36ec1c19	7.036619e-06
133	0x3860eb2f	5.3624794e-05
134	0xb8a62d36	-7.923918e-05
135	0x38ddd368	0.00010577479
136	0xb981af0c	-0.00024735217
137	0xb91e7d47	-0.00015114724
138	0xb9888cf3	-0.00026044957
139	0xb999fdc2	-0.00029371498
140	0xb99babd3	-0.00029691923
141	0xb8eab18b	-0.000111910595
142	0xb90834a5	-0.00012989582
143	0xb917a8d6	-0.00014463378
144	0xb80af9d1	-3.3134424e-05
145	0x381cbc02	3.7368394e-05
146	0x38b6d1dd	8.717526e-05
147	0xb8030231	-3.1234875e-05
148	0xb8f7a672	-0.00011808881
149	0xb99159fb	-0.00027723596
150	0x37578e6b	1.2848158e-05
151	0xb96e49df	-0.00022724968
152	0xb99f79f3	-0.00030417703
153	0xb9557f88	-0.00020360772
154	0x380216d2	3.101567e-05
155	0xb988f393	-0.00026121418
156	0xb72116b5	-9.601635e-06
157	0xb8da8161	-0.00010419149
158	0x37f31364	2.8976887e-05
159	0xb93bc3d3	-0.0001790666
160	0xb44bee6a	-1.8992583e-07
161	0x365daba5	3.3031477e-06
162	0x3855b913	5.095552e-05
163	0xb89f9e56	-7.611203e-05
164	0x3620b8f7	2.3949522e-06
165	0xb8865211	-6.404904e-05
166	0xb8e3d3a5	-0.00010863625
167	0x37a2f250	1.942474e-05
168	0x35021cf8	4.847093e-07
169	0x38d5e97c	0.00010200121
170	0xb858adf7	-5.166043e-05
171	0xb7c7211b	-2.3738065e-05
172	0x3816b30a	3.592953e-05
173	0xb7232329	-9.7237435e-06
174	0x36c402eb	5.841595e-06
175	0xb989a3b7	-0.00026252653
176	0x39176414	0.00014437764
177	0x38800378	6.104162e-05
178	0xb7e73d19	-2.7565797e-05
179	0xb8774143	-5.895017e-05
180	0xb88e7b16	-6.794014e-05
181	0x362dbc03	2.5888446e-06
182	0x3556c2f4	8.0004907e-07
183	0x9f6225f7	-4.7888765e-20
184	0xb72f0e8d	-1.0434201e-05
185	0xb925a6bc	-0.0001579774
186	0x37eae5cf	2.8001987e-05
187	0x36fc1746	7.5128946e-06
188	0xb7abebb6	-2.049455e-05
189	0x374bb704	1.21423545e-05
190	0xb73e66e7	-1.1348841e-05
191	0x38cf2d00	9.878911e-05
192	0x383be578	4.4797984e-05
193	0x380b9398	3.327764e-05
194	0xb8859de1	-6.3713414e-05
195	0x37d53915	2.541816e-05
196	0xb88634f2	-6.39948e-05
197	0x37d1ae6b	2.4995961e-05
198	0x37a97e47	2.0205172e-05
199	0x37914cef	1.7321172e-05
200	0xb7ca06f2	-2.408351e-05
201	0xb84aa56f	-4.8314625e-05
202	0xb6ea7dcc	-6.988388e-06
203	0xb7d19c1c	-2.4987436e-05
204	0x388c5dff	6.693228e-05
205	0xb8744593	-5.823893e-05
206	0xb89e7269	-7.555338e-05
207	0xb8cd09c0	-9.776978e-05
208	0xba51da76	-0.00080052705
209	0xba168e17	-0.0005743219
210	0xb9c0ec8a	-0.0003679733
211	0xba548e55	-0.00081083673
212	0xb984cd6a	-0.00025330047
213	0xba025797	-0.00049721583
214	0xba071629	-0.00051531434
215	0xba544637	-0.0008097621
216	0xba1b7705	-0.0005930516
217	0xb77676f1	-1.4690436e-05
218	0xba38e821	-0.0007053633
219	0xb926578a	-0.00015863604
220	0xb9c148b6	-0.00036866002
221	0xba01df55	-0.00049542385
222	0xba32d3e2	-0.0006821734
223	0xba3627d7	-0.00069486856
224	0xb99df447	-0.00030127374
225	0xb9bf2c59	-0.000364634
226	0xb9f109f2	-0.00045974512
227	0xb92f4e5c	-0.00016718492
228	0xba614451	-0.0008593249
229	0xb97eeeef	-0.00024312337
230	0xb8b58251	-8.655026e-05
231	0xb9eedc15	-0.0004555887
232	0xba0bda9f	-0.0005335006
233	0xba3aab71	-0.00071208837
234	0xba44280a	-0.0007482773
235	0xb9a7657a	-0.00031928328
236	0xba1c11ba	-0.0005953569
237	0xba1f67f4	-0.0006080859
238	0xba18c3bf	-0.0005827508
239	0xb9eb9204	-0.00044931483
240	0xba00c700	-0.0004912466
241	0xb8cd15ff	-9.779259e-05
242	0xb9e09975	-0.00042838944
243	0xb94a8a5f	-0.00019315768
244	0xba0da17a	-0.0005402785
245	0xba0da171	-0.000540278
246	0xb98962c2	-0.00026204257
247	0xba3f8469	-0.00073058024
248	0xba0980d0	-0.000524533
249	0xba066c12	-0.0005127798
250	0xb91a2759	-0.00014701243
251	0xba1c66d0	-0.0005966248
252	0xb9e16e2b	-0.00042997426
253	0xb9b6f9f3	-0.00034899972
254	0xba0638a5	-0.0005120135
255	0xb99285f2	-0.00027947087

exp_avg_sq f4 [128, 260]
0	0x34cbc87d	3.795757e-07
1	0x34ac3850	3.207847e-07
2	0x34c9fde7	3.7623906e-07
3	0x34b29ae9	3.3267796e-07
4	0x352a08f1	6.3342947e-07
5	0x3533cbbc	6.697917e-07
6	0x34ff81e4	4.759196e-07
7	0x3517dfb3	5.657741e-07
8	0x353e43a2	7.0878934e-07
9	0x354ee61e	7.7075845e-07
10	0x356f1481	8.9064275e-07
11	0x356e0acc	8.867762e-07
12	0x35532cff	7.8669103e-07
13	0x35023af8	4.8514585e-07
14	0x34b68078	3.3993615e-07
15	0x34f8f888	4.637443e-07
16	0x351b615d	5.788368e-07
17	0x34e8a085	4.333016e-07
18	0x35416e63	7.2058737e-07
19	0x35624742	8.4295255e-07
20	0x353d13a6	7.043658e-07
21	0x353917a3	6.8952266e-07
22	0x3555a8aa	7.959412e-07
23	0x354e81dc	7.692995e-07
24	0x354ed874	7.705596e-07
25	0x35190ff0	5.7020134e-07
26	0x34b44969	3.3581026e-07
27	0x34b4701c	3.3609183e-07
28	0x34c4a2c4	3.6626273e-07
29	0x351582af	5.5696995e-07
30	0x353372fd	6.6850026e-07
31	0x355e7277	8.2868013e-07
32	0x35136002	5.4901477e-07
33	0x35789528	9.260425e-07
34	0x351355b8	5.4886505e-07
35	0x353fd93f	7.146918e-07
36	0x34cd21f4	3.820893e-07
37	0x34fb7ac5	4.684172e-07
38	0x356aa587	8.7412667e-07
39	0x34c8ea3f	3.742334e-07
40	0x34863520	2.4998099e-07
41	0x3520a2db	5.984163e-07
42	0x353c5adc	7.0167675e-07
43	0x34edb664	4.4277397e-07
44	0x3521200d	6.0023814e-07
45	0x35098ba0	5.123966e-07
46	0x351ae0e1	5.769671e-07
47	0x3542d76d	7.258412e-07
48	0x351a8065	5.755631e-07
49	0x353a87cd	6.9488016e-07
50	0x353cad5d	7.0287734e-07
51	0x35244d9e	6.120771e-07
52	0x303b2fac	6.809795e-10
53	0x309d14a3	1.1429119e-09
54	0x30d510b8	1.5502541e-09
55	0x328677b9	1.5654097e-08
56	0x3331b477	4.1375156e-08
57	0x337bb753	5.8607224e-08
58	0x33904d83	6.719622e-08
59	0x3365fbc4	5.3547197e-08
60	0x33da7e95	1.0174441e-07
61	0x33ec2d8d	1.0997892e-07
62	0x33c6b0da	9.2522626e-08
63	0x33ccde95	9.539978e-08
64	0x339c3e59	7.275657e-08
65	0x3121f713	2.356903e-09
66	0x30198bc0	5.585967e-10
67	0x30f333c4	1.769529e-09
68	0x32bdf30d	2.2113023e-08
69	0x33b574cb	8.449714e-08
70	0x3353d962	4.9324974e-08
71	0x339bbe68	7.252385e-08
72	0x334afe3e	4.7263022e-08
73	0x33db9cc9	1.0226501e-07
74	0x33cb77e7	9.474734e-08
75	0x33f4797d	1.1384234e-07
76	0x33b38020	8.358643e-08
77	0x33caaffb	9.438369e-08
78	0x30128610	5.3305005e-10
79	0x30c7518e	1.4502335e-09
80	0x304e776b	7.5112067e-10
81	0x32f6cfe4	2.8732707e-08
82	0x33026471	3.0359335e-08
83	0x33857958	6.2153674e-08
84	0x334d4fed	4.7802974e-08
85	0x339d7c88	7.333534e-08
86	0x339490a3	6.918096e-08
87	0x33c52630	9.1804736e-08
88	0x338446d6	6.159614e-08
89	0x33bb04b3	8.708721e-08
90	0x33996a80	7.14399e-08
91	0x30e99073	1.6994036e-09
92	0x30cf2761	1.5072424e-09
93	0x3083fbcd	9.603071e-10
94	0x32e12beb	2.6213419e-08
95	0x335c2ccf	5.1263495e-08
96	0x33724060	5.6403564e-08
97	0x33803a3c	5.971057e-08
98	0x33ca8e45	9.432237e-08
99	0x33b23026	8.297529e-08
100	0x33e34da6	1.05846354e-07
101	0x33cb0175	9.453189e-08
102	0x33bc82eb	8.778246e-08
103	0x340243fa	1.2131923e-07
104	0x3443e91b	1.8245593e-07
105	0x3477cd7e	2.3078425e-07
106	0x3486898a	2.5059518e-07
107	0x348a6224	2.577591e-07
108	0x347a8051	2.3329746e-07
109	0x34d993a0	4.052681e-07
110	0x352d37ca	6.4528706e-07
111	0x35268561	6.203391e-07
112	0x35582bdc	8.0530094e-07
113	0x353b0deb	6.968318e-07
114	0x351a9291	5.758275e-07
115	0x35323ddc	6.6400185e-07
116	0x3557c4fa	8.038038e-07
117	0x3449ffc2	1.8812628e-07
118	0x33f80400	1.15491275e-07
119	0x34ac5dd2	3.210576e-07
120	0x343291dd	1.6630607e-07
121	0x35034b97	4.89113e-07
122	0x350baf70	5.203683e-07
123	0x3510e6ea	5.3980204e-07
124	0x351cf097	5.8464633e-07
125	0x35343a13	6.7139734e-07
126	0x3573e29d	9.085432e-07
127	0x3561c8a3	8.4110997e-07
128	0x3530caa1	6.5859973e-07
129	0x354bcbd7	7.592002e-07
130	0x33d3ba3b	9.859328e-08
131	0x348cea46	2.6247488e-07
132	0x33c4c3ce	9.162578e-08
133	0x34b64f81	3.3957988e-07
134	0x34da96a6	4.0715275e-07
135	0x34dfe918	4.1706585e-07
136	0x350f856a	5.3465794e-07
137	0x34fd23c9	4.715096e-07
138	0x352d4502	6.454794e-07
139	0x357e61c9	9.476467e-07
140	0x3550366f	7.756525e-07
141	0x354518ae	7.342413e-07
142	0x3580e54d	9.603478e-07
143	0x348ef290	2.6626049e-07
144	0x3453ae88	1.97144e-07
145	0x346c02a6	2.1980176e-07
146	0x349f48db	2.9669067e-07
147	0x34fd03b0	4.7127605e-07
148	0x34f39b6d	4.5375364e-07
149	0x352c1cd1	6.4116927e-07
150	0x355997a6	8.1059477e-07
151	0x35295a27	6.3088595e-07
152	0x357c867f	9.4073033e-07
153	0x3529ed09	6.330234e-07
154	0x354c2691	7.6052044e-07
155	0x3586f70f	1.0055682e-06
156	0x34cb3ac8	3.7854466e-07
157	0x3474c56b	2.2796091e-07
158	0x33512088	4.869119e-08
159	0x343eaf2f	1.775886e-07
160	0x33dd9881	1.0318855e-07
161	0x33c3a122	9.109705e-08
162	0x33978cbf	7.057087e-08
163	0x345251e3	1.9587564e-07
164	0x3399e13e	7.165589e-08
165	0x3367fd2c	5.4014137e-08
166	0x33453983	4.5919943e-08
167	0x32fd4ddf	2.9488488e-08
168	0x3338fd50	4.3071225e-08
169	0x340ad428	1.2929434e-07
170	0x33f1c69b	1.1258563e-07
171	0x339a6a82	7.1905575e-08
172	0x345db206	2.0646993e-07
173	0x33f8ac64	1.15797576e-07
174	0x33c751b5	9.281522e-08
175	0x343b3ce1	1.743788e-07
176	0x3390613b	6.723209e-08
177	0x339b840e	7.2417706e-08
178	0x33711b43	5.613698e-08
179	0x336792d5	5.391742e-08
180	0x3307a9b6	3.1586488e-08
181	0x338aacd1	6.457561e-08
182	0x335f292e	5.1958686e-08
183	0x33c20211	9.034205e-08
184	0x33b4c787	8.418197e-08
185	0x3406f900	1.2570308e-07
186	0x33c515c5	9.177487e-08
187	0x3445506c	1.8376312e-07
188	0x3393a426	6.875079e-08
189	0x339decac	7.3539326e-08
190	0x33a40dd4	7.6393604e-08
191	0x33c7624d	9.2845404e-08
192	0x333d967f	4.4141867e-08
193	0x330da7bb	3.298167e-08
194	0x338279fb	6.075785e-08
195	0x340478c1	1.2337388e-07
196	0x34b9d88d	3.4616497e-07
197	0x33e7ac59	1.07881256e-07
198	0x34928386	2.7290315e-07
199	0x32ef036b	2.7824816e-08
200	0x33ca8fe1	9.4325294e-08
201	0x3410b531	1.3476962e-07
202	0x341c9c76	1.4585552e-07
203	0x33a802f9	7.82365e-08
204	0x336da099	5.5326925e-08
205	0x33bf8e35	8.919998e-08
206	0x33d868a9	1.00773214e-07
207	0x33b525e5	8.435362e-08
208	0x361aed23	2.308582e-06
209	0x3629560f	2.5233055e-06
210	0x36305ddb	2.6280675e-06
211	0x3620aaab	2.39412e-06
212	0x3609e15e	2.0545772e-06
213	0x35fbb923	1.8754839e-06
214	0x35fe96d4	1.8968371e-06
215	0x35db587f	1.6342527e-06
216	0x35c762a3	1.4855362e-06
217	0x35c90c7a	1.4979298e-06
218	0x35b9cfa1	1.3844002e-06
219	0x35bc80df	1.4044598e-06
220	0x35bc8341	1.4045291e-06
221	0x361df584	2.3537732e-06
222	0x363203ba	2.6526236e-06
223	0x3619f36c	2.2940467e-06
224	0x360ee4c7	2.1292815e-06
225	0x3608924e	2.035074e-06
226	0x35e3a36f	1.6960383e-06
227	0x35d554f8	1.5894466e-06
228	0x35e0048e	1.6690626e-06
229	0x35cc15db	1.5205545e-06
230	0x3599a237	1.1446599e-06
231	0x35c08ec1	1.4346662e-06
232	0x35cd421c	1.5292931e-06
233	0x35cec116	1.5404391e-06
234	0x36387dfa	2.7491465e-06
235	0x362706e9	2.4888961e-06
236	0x3632d4e4	2.6647986e-06
237	0x36153f51	2.2239585e-06
238	0x36052df2	1.9845288e-06
239	0x35e63670	1.7152179e-06
240	0x36031a2b	1.9535753e-06
241	0x35e0d1cb	1.6750358e-06
242	0x35e3e007	1.6978018e-06
243	0x35ab5417	1.2764966e-06
244	0x35f112d1	1.7961376e-06
245	0x35eed325	1.7793833e-06
246	0x358d8a1b	1.0545513e-06
247	0x3627cc47	2.5003844e-06
248	0x361d1883	2.340909e-06
249	0x3617301b	2.2528754e-06
250	0x35ef4518	1.7826997e-06
251	0x361084b6	2.153492e-06
252	0x3600618e	1.913027e-06
253	0x35e5732a	1.7095347e-06
254	0x35d2926b	1.5688832e-06
255	0x35d47147	1.5828199e-06

exp_avg f4 [128]
0	0xba3c101b	-0.0007174031
1	0xba8127e8	-0.0009853812
2	0xb8003e64	-3.0575684e-05
3	0x3abb6e55	0.0014299849
4	0xba40feb3	-0.0007362172
5	0x39b15f08	0.00033830875
6	0xba3d3e5c	-0.000721907
7	0xb9ac74d6	-0.00032893446
8	0x38f29732	0.000115676216
9	0x3963f73f	0.00021740513
10	0xb9d655da	-0.00040881225
11	0x3af48f4f	0.0018658432
12	0xba314298	-0.00067619374
13	0xba20bc05	-0.0006131533
14	0x398948f7	0.0002618504
15	0x3a7e065c	0.00096902787
16	0x39d782b4	0.00041105377
17	0xba12d425	-0.000560107
18	0xb9c64d65	-0.00037823166
19	0xb97e9c04	-0.00024281448
20	0xba62c59c	-0.0008650662
21	0xba03758a	-0.0005014768
22	0x3a5d999f	0.0008453372
23	0xb9c2b72f	-0.00037139046
24	0x3969317e	0.00022239049
25	0xba5bff44	-0.00083922246
26	0x387905e7	5.9371723e-05
27	0xba01cf8e	-0.00049518875
28	0xb9fc10eb	-0.0004807779
29	0xb9327144	-0.00017017598
30	0x399ab109	0.0002950507
31	0xb9bb6f85	-0.00035750508
32	0xba16e731	-0.0005756496
33	0x398ef027	0.00027263278
34	0x39e2dc97	0.0004327043
35	0x3aedf3e2	0.0018154348
36	0xba29baf0	-0.0006474694
37	0xb8ddf697	-0.00010584032
38	0xba07b35e	-0.0005176569
39	0xba2b58b8	-0.00065363524
40	0x3a12ee5b	0.0005604976
41	0xb62b9fbe	-2.5573968e-06
42	0xb9bc3798	-0.00035899575
43	0xba5e5ba8	-0.0008482286
44	0x38380ce8	4.388104e-05
45	0x3a43f8a5	0.00074757106
46	0xb9b9d0c9	-0.00035441507
47	0x3a41af0e	0.0007388451
48	0x38ae6ae5	8.316877e-05
49	0xba129d43	-0.0005592892
50	0xbaf4ccca	-0.0018676755
51	0x3aaf6c18	0.0013383655
52	0x37b32738	2.1356725e-05
53	0xba278c0a	-0.0006391412
54	0x3ab25a0b	0.0013607157
55	0x3a7ab5a8	0.0009563812
56	0x3adcf9d3	0.0016859121
57	0xb637abb5	-2.7369072e-06
58	0xb9e6db4c	-0.00044032407
59	0xb9ed1b24	-0.00045224384
60	0x3a9f43bc	0.0012150924
61	0xb957c200	-0.00020576268
62	0xba4403de	-0.0007477383
63	0x3a154144	0.0005693624
64	0x3a260449	0.0006333036
65	0xba86acd7	-0.0010274899
66	0x368cc5df	4.1953604e-06
67	0x39bd5aa5	0.00036116425
68	0x3a2d3bd3	0.0006608341
69	0xba3d09a6	-0.00072112156
70	0xba3e8d9f	-0.0007269028
71	0xb9a55b29	-0.00031539172
72	0xbabe01a2	-0.0014496336
73	0xb78e7dc9	-1.6986292e-05
74	0xb8995ed7	-7.313274e-05
75	0x3708df0d	8.158165e-06
76	0xba4b0664	-0.0007744788
77	0x39fba013	0.00047993715
78	0xbafa0a3f	-0.001907654
79	0xba7355fe	-0.0009282528
80	0xb964b3ed	-0.00021810802
81	0x3a25d32b	0.0006325717
82	0xba4f219f	-0.0007901433
83	0x3ada9683	0.0016676936
84	0x38314794	4.226675e-05
85	0xba09a81e	-0.00052511867
86	0x3a16b606	0.00057491695
87	0xb9355464	-0.00017292943
88	0xb94e0dfe	-0.00019650903
89	0xbae88691	-0.0017740299
90	0xb8936719	-7.02871e-05
91	0xba48cf43	-0.0007660279
92	0xb94994da	-0.00019224305
93	0xb969dee6	-0.00022303648
94	0xba4ca5f8	-0.00078067137
95	0xbb124322	-0.0022317846
96	0x39ef83c8	0.00045683817
97	0x39bb4529	0.00035718948
98	0xba645779	-0.0008710544
99	0xba01f24b	-0.0004957064
100	0x391ea6e3	0.00015130224
101	0xbaa3c3bf	-0.001249425
102	0x3aa192c7	0.0012327068
103	0xbb17ef90	-0.0023183562
104	0x3a14bd5c	0.00056739687
105	0xb6197849	-2.2868792e-06
106	0xba425ead	-0.00074146205
107	0x3a78b876	0.0009487936
108	0xb90d7aeb	-0.00013492598
109	0xba98796a	-0.0011632864
110	0x3a645c40	0.0008711256
111	0x3a36551b	0.0006955431
112	0xb984ce42	-0.00025330676
113	0xba50ed7e	-0.00079699594
114	0x3a72ac56	0.00092572474
115	0xb9ec8ce3	-0.00045118397
116	0xbab6cc0e	-0.0013946311
117	0xb9f02086	-0.000458006
118	0xba0da048	-0.0005402607
119	0x395cb79d	0.00021049236
120	0x3a0fdd2d	0.0005487975
121	0xb811afce	-3.4734425e-05
122	0xb9c6db66	-0.00037928968
123	0x384d6d3b	4.8977538e-05
124	0xba10e093	-0.0005526628
125	0xb989f86d	-0.00026315768
126	0xb98e18b0	-0.00027102744
127	0x3809373a	3.271478e-05
